models/station_5/model_latest.onnx (onnx, 407512 bytes, 12 tensors)

W__492 f4 [1, 96, 64]
000000 44 b6 2e be 7c 46 e0 bd 13 c3 01 3e 36 84 83 bc
       -0.17061716 -0.10950944 0.12672071 -0.016054254
000010 d1 a5 db bd 60 6d 8a 3c 39 42 b6 3d 4a 46 52 be
       -0.10724986 0.016897857 0.0889935 -0.20534626
000020 e1 15 55 be e8 e9 cd bd c4 1d 20 3e f6 9a e0 bd
       -0.20809127 -0.1005438 0.15636355 -0.109670565
000030 89 36 94 bd 19 54 55 3a c3 8a af ba e3 93 2e bd
       -0.07236964 0.00081378367 -0.0013392795 -0.042621505
000040 d3 79 a0 bd 90 16 10 be 14 0c 08 bb a4 b9 07 be
       -0.07835736 -0.14071107 -0.0020759152 -0.1325441
000050 92 7e fe bd 65 8a a6 be 5e 23 a2 3c de f5 93 3d
       -0.12426485 -0.32527462 0.019792255 0.0722463
000060 65 40 41 be e4 53 a4 3d 95 d9 7f 3e ac f4 23 be
       -0.18872221 0.08023813 0.24985345 -0.16011304
000070 0a 93 b1 bd 01 f8 3c 3e 78 05 c4 bd 6f 44 31 3e
       -0.086706236 0.18453981 -0.095713556 0.17311262
000080 03 2b 01 be ab 47 25 be 8d ec 1e bd e2 f2 3e bc
       -0.12614064 -0.1614062 -0.03879981 -0.011654587
000090 4b 66 d5 3d 1b 16 b7 be b6 24 29 3e ff 3e 5c 3e
       0.104199015 -0.35759053 0.1651791 0.21508406
0000a0 e2 87 16 be 95 6c af bd 38 36 f4 bd fe 58 81 be
       -0.14700273 -0.08565632 -0.11924404 -0.25263208
0000b0 01 9d 3e bd 91 54 1a 3e ea b9 35 3e d4 7c 91 3d
       -0.04653645 0.15071322 0.17746702 0.07103887
0000c0 ba 0a 15 3e 28 98 5b bd dc b0 81 3d 39 92 be 3d
       0.14554873 -0.053611904 0.063325614 0.093052335
0000d0 ce 85 54 bc 82 81 7e bc b3 0b f8 3d 47 a3 82 3e
       -0.012971355 -0.015533807 0.121116064 0.25515196
0000e0 6f 9d 73 bc a1 96 8a bd 30 b3 62 3e e2 c2 2f 3d
       -0.014869078 -0.067670114 0.22138667 0.042910464
0000f0 9e 4d 5f 3e 7a 06 c9 bd d1 72 69 bc 66 bb 1c 3e
       0.21806952 -0.098156884 -0.014248566 0.15305862
000100 ec bf 6e 3e af 38 11 be 59 2d 65 bd c9 99 a7 3d
       0.233154 -0.1418178 -0.05595145 0.08183629
000110 54 bf 27 bd 6c 35 eb bd 52 1f 37 3e de c9 35 3d
       -0.04095395 -0.11484799 0.17883042 0.04438197
000120 9c 17 da 3d bd a4 0e 3e 32 f0 26 3e e0 34 05 be
       0.106490344 0.1393003 0.16302565 -0.13008451
000130 ce 44 36 bc d1 37 46 be 54 df cc 3b f8 2a 76 ba
       -0.011124803 -0.1935723 0.0062522087 -0.0009390558
000140 24 48 60 be d3 9a 7e bd d0 ee 60 3d 88 9e 5d be
       -0.2190252 -0.06215937 0.05491525 -0.21642506
000150 19 46 91 3c d2 c1 4b be 1d 66 83 bc 14 f3 74 be
       0.01773362 -0.19898155 -0.016039902 -0.23920852
000160 5a 58 7e be 37 f0 0a be 8e 6b c7 3d 3f 93 12 be
       -0.24838391 -0.13568197 0.09737311 -0.14313982
000170 b3 c9 3c be e5 79 99 3d b0 0a 84 bd 64 77 1c 3e
       -0.18436317 0.07493953 -0.06447351 0.15279919
000180 71 96 9d bd e5 b3 18 be 83 0c 87 3d f6 cb 65 3e
       -0.0769471 -0.14912374 0.06594183 0.22441086
000190 9c 32 99 be 2c 65 d7 bd 04 8a 1a 3e c0 73 38 bd
       -0.29921424 -0.10517344 0.15091711 -0.045032263
0001a0 c0 c1 88 3c 0a f2 e5 3d 35 f6 26 be 67 d1 38 be
       0.01669395 0.11227806 -0.16304858 -0.1804863
0001b0 0f 8a 8d bd 6c e6 65 3e 63 55 82 3d 52 3e 47 bd
       -0.06911098 0.2245118 0.063639425 -0.048643418
0001c0 70 87 bb bc 21 ca 49 bd 57 3b 99 bc 68 8b 4e 3e
       -0.02289173 -0.04926503 -0.018705053 0.20170367
0001d0 3c f7 83 bd 6e ff 97 be bb 51 f9 3d 9c 79 20 be
       -0.064436406 -0.29687065 0.12173792 -0.1567139
0001e0 d7 fb 24 3e af 56 40 3e f5 64 32 be ac c1 34 bd
       0.16111694 0.18783067 -0.17421325 -0.044130012
0001f0 38 6d ee 3c c8 4f 02 3e b3 9b 7d 3e d6 cd c1 bd
       0.029104814 0.12725747 0.24766426 -0.09463088
000200 3e 26 b4 bd 0b c1 49 bd fe 03 0d 3e e8 39 03 be
       -0.087963566 -0.049256366 0.13771054 -0.12815058
000210 75 df 05 3e ef 40 04 3e 1c 44 c1 bc 04 07 8e 3d
       0.13073523 0.12915395 -0.023592047 0.06934932
000220 6e a8 c5 3d 53 7d 20 be 08 f6 8b 3d ae 92 99 3d
       0.09651266 -0.15672807 0.06834036 0.0749868
000230 8a aa ec bd 71 4a ea 3d 72 c7 05 3e e7 50 15 bc
       -0.11555965 0.1143998 0.13064364 -0.009113527
000240 2c a9 97 3c 5e 3d e2 bd 8c 79 4d 3e 11 81 70 bd
       0.018513285 -0.11046861 0.20065898 -0.058716837
000250 1b c0 ce bd ef 6d 99 3c 3f 6a b5 3d b3 20 13 3e
       -0.10095235 0.018729178 0.088581555 0.14367943
000260 ea ef 4e bd 33 8a 17 3e 4e 41 90 bd 8f d4 12 be
       -0.05052177 0.14798813 -0.07043706 -0.14338897
000270 11 b7 44 3d 6f 2a 15 bd 16 aa 8d 3d 19 92 0a 3d
       0.04802615 -0.03641742 0.06917207 0.033830736
000280 68 09 1c be a2 21 e4 3d e6 5d 15 be b8 09 6b 3c
       -0.15237963 0.111392274 -0.145866 0.014345579
000290 11 f4 9d bd e1 f2 02 be 2c 44 93 bd 08 dd 3f 3e
       -0.077125676 -0.12787963 -0.07190737 0.1873666
0002a0 76 6a 14 3d f4 2a 47 be 36 5e 27 be 9d 1b 66 3d
       0.03623434 -0.19449979 -0.16344532 0.056178678
0002b0 cf 10 01 3e b9 c0 c8 3c 89 ec 4e bd 0e 18 36 3e
       0.12604068 0.02450596 -0.050518546 0.17782614
0002c0 0b 5b 06 be 9d 7c 56 bd dd 95 1d 3e 6c e2 21 3e
       -0.13120668 -0.052364934 0.153892 0.1580903
0002d0 96 e8 f1 bd c6 d1 50 bd a2 78 1c 3e 6e aa 62 be
       -0.1181194 -0.050981306 0.15280393 -0.22135326
0002e0 89 c5 0f be 11 e9 09 3e 09 50 4f 3e 47 a6 41 be
       -0.14040197 0.13467814 0.20245375 -0.18911086
0002f0 94 48 07 be f4 de 08 3d 1b 3b 54 bc cb f1 f9 bc
       -0.1321128 0.03341575 -0.012953545 -0.030510804
000300 2d f6 01 be d6 a7 3c be 47 16 fa 3d 3a 32 7d be
       -0.12691565 -0.184234 0.1221128 -0.24726191
000310 ff 6a 54 be 37 c5 8c be 2b 8a 18 3e 19 ef 29 be
       -0.20743941 -0.27494213 0.14896457 -0.16595115
000320 92 c7 89 be ba bd 71 bd ee 66 2f 3e 2e 92 68 bd
       -0.26910073 -0.059018828 0.17129108 -0.056780033
000330 8a 11 ad 3d 61 1b 45 be 70 03 85 be dc 1c 10 be
       0.08450611 -0.19248725 -0.25979185 -0.14073509
000340 14 0f 94 be 95 5c 6d bd 9d d6 16 be f6 c5 ac bd
       -0.28917754 -0.05794962 -0.14730306 -0.084361956
000350 71 29 62 be e1 e3 ee 3c bc 76 c8 3d 58 a9 a1 3d
       -0.22086121 0.029161396 0.09788272 0.07893628
000360 ce 6f 95 be 00 51 e1 3d 72 fa 30 3e 43 6b f5 bd
       -0.29186863 0.11001778 0.17283037 -0.11983349
000370 cb fd c4 3d 12 d3 6c bd b5 cb b5 3d dd d3 eb bd
       0.0961872 -0.05781848 0.08876745 -0.11515019
000380 3e 73 74 3d c3 c6 75 be ae 2e 18 be 73 48 08 3e
       0.059680216 -0.24001603 -0.14861557 0.13308887
000390 c9 5f 98 3d e5 da 8e 3d b2 93 f4 3a 75 96 46 3e
       0.074401446 0.069753446 0.0018659739 0.19393332
0003a0 f6 a9 76 bd 5d 03 84 3d e8 4b ae 3d 7d ba b5 bd
       -0.06022068 0.06445954 0.08510572 -0.088734604
0003b0 b2 65 4b 3d 39 c4 9c bd 78 e3 49 bd ce 0c aa 3c
       0.04965753 -0.07654614 -0.049289197 0.020758059
0003c0 dc 0e 59 be 07 3f 54 bd 43 55 46 bc 08 45 b1 3d
       -0.21197075 -0.05181792 -0.012105289 0.08655745
0003d0 96 1a a6 bd a0 1b 1d be 16 6f bc bd 8a 66 5a bd
       -0.081105396 -0.1534257 -0.092008755 -0.053320445
0003e0 33 67 21 3e a5 cd 6d 3e 49 dc da bd 08 21 0a 3e
       0.15762024 0.23222978 -0.10686547 0.13489163
0003f0 ce cf 67 3c 86 cd 7d be 83 30 8f bd e1 ca 89 be
       0.014148666 -0.24785432 -0.06991675 -0.26912597

W__478 f4 [1, 192, 128]
000000 d5 65 8c 3c 08 1b 8f 3d 2c 18 95 3e 1b a8 3f 3e
       0.017138401 0.06987578 0.29120004 0.18716471
000010 10 fc 4d 3d b9 cd 0c 3d b8 af bd 3d c3 68 3f 3e
       0.050289214 0.03437588 0.09262031 0.18692307
000020 96 2a e4 bd 04 b2 ce 3d 17 86 9c bc d0 68 a9 3d
       -0.11140935 0.100925475 -0.019106908 0.082719445
000030 a7 05 bd bd 0e 51 ac bd f6 0b ee bc e9 ec 4a 3e
       -0.09229594 -0.084138975 -0.029058438 0.19816937
000040 ec 29 9e bd 96 d2 99 bd a2 df 2e 3a 94 2d fc bb
       -0.0772284 -0.07510869 0.0006670897 -0.007695863
000050 54 73 56 3d e8 9c 46 be 38 1b d4 bd 7f aa 37 bd
       0.05235608 -0.19395792 -0.10356754 -0.044840332
000060 9d 35 d6 bd 1f f5 56 bd fd 7f 28 bd 9f 09 79 3d
       -0.10459445 -0.05247986 -0.041137684 0.06080019
000070 8e 8b 38 bb 37 33 5c bd eb 53 96 bc 0b 22 9e 3d
       -0.0028159353 -0.05375978 -0.018350562 0.07721337
000080 40 1c 0d be 31 9e ac 3d b9 2b 5c 3d 06 9c 82 bd
       -0.13780308 0.0842861 0.053752635 -0.06377415
000090 58 87 8c 3e e0 e8 a3 3d 05 a4 9e 3d 3c 2b a3 3d
       0.2744701 0.08003402 0.07746128 0.07967231
0000a0 f5 8c 16 be 48 c3 6e 3d ff df 97 3c f6 3d 38 3e
       -0.14702208 0.058291703 0.018539427 0.17992386
0000b0 36 dd f0 3b 26 2d ba bc 33 ea 16 be f8 c4 29 be
       0.007350589 -0.022726607 -0.14737777 -0.16579044
0000c0 16 d1 d6 bd 75 bf e7 3d 6c d7 cf bd 77 d8 7c 3d
       -0.10489099 0.113158144 -0.1014851 0.061729874
0000d0 52 8f 31 be 26 d2 68 bd 97 58 88 bd 52 cc 30 be
       -0.17339829 -0.05684104 -0.06657522 -0.17265442
0000e0 e4 ae 08 3e 6a 98 14 be 84 19 94 bc 77 65 f6 bd
       0.13347965 -0.14511266 -0.018078573 -0.12031072
0000f0 ef 2a d9 bd 84 52 53 3e 24 99 26 3d cc 43 3f be
       -0.10603892 0.20636946 0.04067339 -0.18678206
000100 e7 64 87 3d e2 58 9f 3b c0 1e c2 37 4c e2 89 3c
       0.066110425 0.0048628906 2.3140921e-05 0.01683154
000110 11 7b 24 bd 79 93 ab 3c 22 3b 99 bd 9d 4d 29 3e
       -0.040156428 0.020944344 -0.07481982 0.16533513
000120 fc 69 53 3c 44 98 26 be 6a f1 8a 3d 6b 4a 32 3d
       0.012903687 -0.16269022 0.06784327 0.043528
000130 9a ab 0c 3e 6a 30 00 3e 77 25 d5 bd e8 1f c8 3d
       0.13737336 0.12518468 -0.104075365 0.09771711
000140 a4 82 ed 3d 50 f9 99 bc 8b 88 3b be 50 15 4c 3e
       0.11597183 -0.01879564 -0.18313806 0.19930005
000150 a8 b0 d0 3d eb 2b 80 3c 14 32 89 3c e3 2b 4b 3b
       0.101899445 0.015645942 0.016747512 0.00310015
000160 a5 a5 bf bd 90 e0 33 3e db 06 84 bd 00 02 12 3d
       -0.09357766 0.17566133 -0.0644662 0.03564644
000170 5f 61 39 bd 8c 76 ae bd 2e 6c 89 bb 35 61 01 be
       -0.045258876 -0.08518705 -0.004193804 -0.12634738
000180 a4 18 4f 3e 01 d6 15 bd fc 7c e9 3d 65 ba fd 3d
       0.20224243 -0.036581043 0.11400792 0.123890676
000190 10 d2 98 3e 17 6d e2 3d 8a 78 cb bd 72 a7 d9 3d
       0.29847765 0.110559635 -0.099351004 0.10627641
0001a0 e3 4d ad bc 6c 3f 9b 3d 20 47 33 3d d8 99 58 3d
       -0.021155303 0.07580456 0.043769002 0.05288109
0001b0 d6 08 dc 3d e3 af b0 3d 0c c0 d1 3d 11 7c 89 3d
       0.10743873 0.08627298 0.10241708 0.06713117
0001c0 9d e5 22 3e ab 93 44 bc 42 4c ef 3d 6b ad c5 bc
       0.15907903 -0.011998097 0.11684467 -0.024130544
0001d0 0f 7c 2c 3e a0 b1 d7 bd 4b a8 2c 3e 6f 4f f2 bd
       0.168442 -0.10531926 0.16861074 -0.11831557
0001e0 ba 17 a2 bd fb 9f a4 bc d2 41 5b 3e 64 d1 26 3e
       -0.07914682 -0.020095816 0.21411827 0.16290814
0001f0 ed be 13 be 5a 33 2a bd 24 98 60 3d 9b 2a 3a 3c
       -0.14428301 -0.04155288 0.054832593 0.011362697
000200 fc 67 e3 3c 5f 60 c1 bd d7 14 a0 3e 14 5a 39 3e
       0.027759545 -0.094422095 0.312659 0.18100768
000210 21 f6 4e 3e 13 27 0e 3d 2b c8 19 3e 70 4e 69 bc
       0.20211078 0.034705233 0.15017764 -0.014239892
000220 e6 d3 3d 3b 7b ee 40 3e 1b 41 be bd e5 3d 7e 3d
       0.0028965413 0.18840973 -0.09289762 0.062070746
000230 f1 d6 08 3e 94 53 0a bd 90 24 4b 3e ea c3 28 3e
       0.13363244 -0.033771113 0.19838166 0.16480985
000240 23 15 0e be b6 ca 07 be 48 92 14 3e c0 7a 5b be
       -0.1387525 -0.13260922 0.14508927 -0.21433544
000250 69 2a 56 3e fd 0f 10 be 48 aa 3d bd b8 1e 21 3e
       0.20914616 -0.14068599 -0.04630497 0.15734375
000260 15 80 b1 bd fe 25 a6 3d 0f b9 ec 3b 95 0f 6c bd
       -0.08667008 0.08112715 0.007224209 -0.057632048
000270 55 e2 bd 3c 2d 00 be bc ea cf 98 3e c4 57 ab 3e
       0.023179213 -0.023193443 0.29846126 0.33465397
000280 f3 65 51 be 96 93 95 3e c7 cc 0e 3e 39 af 09 3e
       -0.20449047 0.29214162 0.13945304 0.13445748
000290 c2 18 bf 3d 21 1b e2 3c 33 a5 39 be 42 d8 d4 bc
       0.09330894 0.027600827 -0.18129425 -0.025982026
0002a0 78 a4 4a be 55 09 16 be a0 d0 15 3e 57 7f 9f 3d
       -0.19789302 -0.14651997 0.14630365 0.0778796
0002b0 50 11 8e 3d 2d 58 de 3d 08 07 38 3d c0 1c 3a be
       0.06936896 0.10856662 0.04492858 -0.1817503
0002c0 9d a3 a7 bd 0a c1 70 bc f5 56 1e be d0 9b 2d 3d
       -0.08185504 -0.014694462 -0.15462859 0.042384923
0002d0 42 60 1c be 59 bb 08 be ea 3c 01 bd 53 e7 5a be
       -0.15271094 -0.13352717 -0.031552233 -0.21377306
0002e0 69 ea cb 3d 99 4e 90 be 4d 81 a3 bd 4f 74 83 bd
       0.099568196 -0.28184965 -0.079836465 -0.064186685
0002f0 fa a0 d1 3d b8 1b 4d 3e 2c cc 37 be 99 dd 9f be
       0.10235782 0.20030105 -0.17948979 -0.31223753
000300 ed 95 18 3d 9c 43 37 be 3c ef 91 3e d4 60 b8 3d
       0.037252355 -0.17896885 0.28502834 0.090028435
000310 c4 02 39 be 06 6c 2f 3e 81 56 87 be 71 ed 8f 3e
       -0.18067461 0.17131051 -0.26433185 0.2811084
000320 cf 40 86 3e 32 26 e8 bd b1 ef 70 be 3f b8 db bd
       0.2622132 -0.1133541 -0.23528935 -0.107285015
000330 af dc 2a 3d d9 ad 66 3e 61 16 30 be ee bd ae bd
       0.041714367 0.22527255 -0.17196037 -0.0853232
000340 ae f2 0c 3d 97 12 a9 3d 69 26 10 be 85 34 9c 3d
       0.034411125 0.08255499 -0.14077152 0.07627205
000350 31 2b 80 bd e5 6f 05 3e a1 a3 d4 bc 34 a7 91 3d
       -0.06258238 0.13030966 -0.02595693 0.071119696
000360 fc 80 92 bd 6e 65 42 3e 89 39 63 be 16 b9 6f 3e
       -0.07153508 0.18984005 -0.22189917 0.23410448
000370 28 c2 61 be ee 48 f3 bd 76 4b 98 bc f5 0b 06 be
       -0.22046721 -0.118791446 -0.01859067 -0.13090499
000380 42 d9 8b 3e 81 e6 a1 bd 6c c0 ad 3c 5a fc ae bd
       0.27314192 -0.07905293 0.021209918 -0.08544226
000390 93 af 96 3e 75 b8 14 3e 05 5a ea bd c3 2c d6 bc
       0.29430827 0.1452349 -0.11442951 -0.02614439
0003a0 3f d3 9f 3c 74 89 3f be b5 ef e9 3d 87 ab e2 3b
       0.01950991 -0.18704778 0.114226736 0.0069174203
0003b0 dd 1a 2e be 34 ab 0a 3d 00 ea 68 bd c5 b2 27 3e
       -0.17002435 0.03385468 -0.056863785 0.16376789
0003c0 48 5b 97 3d fc 57 1a be 11 91 9b 3d 41 9f 39 3e
       0.073904574 -0.15072626 0.075960286 0.18127157
0003d0 56 1d bb bc cf 6f e9 3d 86 f1 c9 3b 45 c5 ba 3c
       -0.022841137 0.11398279 0.006162825 0.022799144
0003e0 60 7b 7c bc 17 8c c4 bd 69 74 76 3d 54 50 06 3d
       -0.015410274 -0.095970325 0.06016961 0.03279145
0003f0 6d 43 0c be 7e 04 1f bd 2d 42 86 3e 4d 2c f1 3d
       -0.13697596 -0.038822643 0.26222363 0.11776028

W__465 f4 [1, 384, 6]
000000 25 ec 33 bd 4e e3 88 be 20 4f 80 be ed 4f f7 bd
       -0.043926377 -0.2673592 -0.25060368 -0.120757915
000010 7d eb 59 be 13 a2 79 bd 68 c5 a4 3d 1c 00 43 be
       -0.21281238 -0.06094558 0.08045465 -0.1904301
000020 ce 1c ce bd 77 55 07 be 44 cf c6 3c db d9 b4 bc
       -0.10064088 -0.13216196 0.024268754 -0.022076538
000030 ee ba 25 be 93 a6 99 bd fc e8 4d be 1f a9 30 be
       -0.1618459 -0.07502475 -0.20108408 -0.17252015
000040 2a 68 fc bd e2 25 33 be bb 01 af 3d c7 f8 50 bd
       -0.12324555 -0.1749492 0.08545252 -0.051018503
000050 06 a2 c7 bc 82 1f 7a 3d b8 31 c6 bb 96 57 49 3e
       -0.024369251 0.061065204 -0.0060484074 0.19662318
000060 34 98 9f be ab 36 ad be fc d1 46 be 2c b7 9b be
       -0.3117081 -0.3383077 -0.1941604 -0.30413187
000070 32 0c bd be 69 ad d7 3b a2 4c 9a 3e 6d 38 ca 3e
       -0.36923367 0.0065819514 0.3013659 0.39496174
000080 e4 a1 1c 3e 00 af 8f 3e a0 80 89 3d d3 5b 1c 3d
       0.15296131 0.28063202 0.067139864 0.038173508
000090 ef d7 e8 bd ff 44 2a be b1 31 21 be 9f 9f 0c be
       -0.11369311 -0.16627882 -0.15741612 -0.13732766
0000a0 5c 4d 85 be 38 a7 95 bd 70 39 1a 3e 18 44 17 3e
       -0.26035583 -0.07307285 0.15060973 0.1477207
0000b0 92 63 06 3e 5f 3b 5c 3d 2c a2 ec 3d d5 ad 40 3d
       0.1312392 0.05376756 0.11554369 0.04704078
0000c0 e3 8b ff 3b 84 99 31 3b c1 c6 01 3d a1 83 94 bc
       0.007798658 0.002709956 0.031683687 -0.018129172
0000d0 a5 17 41 3d 85 b7 1e 3e 35 a4 bc bd 4e 5c bc be
       0.04714169 0.15499695 -0.092110075 -0.36789173
0000e0 0d c0 a7 be 5a b0 24 be c2 a6 12 be 5d a5 93 3c
       -0.3276371 -0.16082898 -0.14321426 0.018023187
0000f0 e6 4c a2 be 3e cf ce be f9 8a a9 be 4a e4 a1 be
       -0.31699294 -0.40392488 -0.3311384 -0.31619483
000100 25 fe a7 be 4f 4f 1a 3d 26 4a 3f be fb b6 b8 be
       -0.32811084 0.03767329 -0.18680629 -0.36077103
000110 94 01 a7 be 4b d5 ab be 1f 14 91 bd bd 29 b7 3b
       -0.32618392 -0.33561167 -0.07083916 0.0055896924
000120 33 e0 c0 3d 08 b6 47 bd 85 4f 0e 3d 85 60 1a be
       0.094177626 -0.048757583 0.034743804 -0.15075882
000130 a2 4b 08 be 77 c2 8b bd d4 8e 0c 3d 70 06 39 3e
       -0.13310102 -0.068242006 0.0343159 0.18068862
000140 a1 67 3a 3e 0a 5d c4 3d c2 19 d4 3d 9f 5a 43 bc
       0.18203594 0.09588058 0.103564754 -0.011923461
000150 80 53 df bd 75 85 9c be 35 e8 4b be 5d f7 59 be
       -0.10904598 -0.3057057 -0.19912799 -0.21285768
000160 3b b1 93 be f8 41 58 3b 9e 31 8e be c5 f1 99 be
       -0.28846154 0.0032998305 -0.2777223 -0.30067268
000170 98 06 d5 be 7e e0 7c be a7 ee 8c be 0d 1b c3 bd
       -0.41606593 -0.24695012 -0.27525827 -0.09526644
000180 44 79 6c be 1a cc 9b be 2d 5c c0 be 9e 47 9e be
       -0.23093134 -0.30429155 -0.37570325 -0.30914015
000190 61 b6 cd be 02 1a 37 bb f7 0d a6 be be a7 c0 be
       -0.40178207 -0.0027939086 -0.3243253 -0.37627977
0001a0 54 93 85 be bc a6 a1 be e3 47 62 be fe 8f 83 bd
       -0.26088965 -0.3157252 -0.22097735 -0.06423949
0001b0 48 ab f7 bd d3 68 58 bc 7f b7 2c be a8 e2 3b 3d
       -0.12093216 -0.013208586 -0.16866873 0.045870453
0001c0 48 02 65 3d 1c db be 3c c7 0c 2b 3e a3 95 85 3d
       0.05591038 0.023297839 0.16704093 0.065226816
0001d0 7d f0 88 3d 9b 6f 2d bd 78 33 7e bd fd a9 84 3d
       0.066864945 -0.042342763 -0.062060803 0.06477735
0001e0 19 91 02 be 62 14 b8 be 6e 00 0e be 73 db a8 be
       -0.12750663 -0.3595305 -0.13867351 -0.32979926
0001f0 d3 a2 63 be b1 9c 46 be f9 fc 9d be 19 08 91 be
       -0.22230081 -0.1939571 -0.30857065 -0.2832649
000200 18 0c 2a be d9 5d c1 be 3d 60 3c be 75 e8 9f 3c
       -0.16606176 -0.37766913 -0.18396087 0.019520024
000210 5f fa bb be 95 3d e3 be 02 32 7e be 66 c2 a1 be
       -0.36714455 -0.4438292 -0.24823764 -0.31593627
000220 18 d7 ac be db 35 57 bc 4e e5 e9 3c 91 b0 2e bd
       -0.33757854 -0.013135399 0.028551724 -0.042648856
000230 b3 1c 27 bc 74 73 0e 3d 52 19 89 bd 86 a6 23 3d
       -0.0101997135 0.034778073 -0.066942826 0.03995373
000240 48 60 b5 be 54 2b af be eb 1a 69 be e6 36 82 be
       -0.3542502 -0.34212744 -0.22764175 -0.2543251
000250 db 05 c2 be b9 ba 09 bd d8 8a 33 be 83 e6 cc bd
       -0.37895092 -0.03362534 -0.17533433 -0.10004904
000260 d3 2e 88 be 6c 7b 00 be 54 73 d7 bd 6e 99 51 be
       -0.26598224 -0.12547082 -0.10520044 -0.20468685
000270 df 2e e9 3c 00 83 db bb d0 73 60 3e ab be 99 3d
       0.028464733 -0.006698966 0.21919179 0.0750707
000280 58 68 87 3d 54 7c 52 bd 00 77 1a be 9e 4d 80 be
       0.06611699 -0.0513881 -0.15084457 -0.25059217
000290 aa f8 e2 bd 3b ad 3c be 11 48 b9 bb 36 e8 3a be
       -0.11082585 -0.18425457 -0.005654343 -0.18252644
0002a0 45 8c c5 be b9 4f 7b be 27 ae 54 be 76 f3 9f be
       -0.3858358 -0.2454213 -0.20769559 -0.31240433
0002b0 35 39 91 be 16 9d c2 3d ce 19 0c be e2 24 92 be
       -0.28363958 0.09502618 -0.13681719 -0.28543764
0002c0 a0 c4 e2 bd ac cf cd bd 24 59 ff bd 41 d9 82 bd
       -0.110726595 -0.10049376 -0.12468174 -0.06389094
0002d0 dd cb 69 be 91 47 a3 be 8e a0 9c be 99 7d 78 be
       -0.22831674 -0.31890538 -0.30591244 -0.24266662
0002e0 b3 ca 5b be 98 df 9b 3d f0 d1 81 be 0f 55 fd be
       -0.21464042 0.076110065 -0.25355482 -0.49478957
0002f0 e3 41 d0 be 09 46 45 be 80 a7 7e be 6a 44 be bc
       -0.40675268 -0.19264998 -0.24868584 -0.023225982
000300 63 67 01 be 3f 86 a9 be 2f a6 7e be 94 42 14 be
       -0.12637095 -0.33110234 -0.24868082 -0.14478523
000310 8c fe 3e be 5b b4 31 be f5 e7 88 be c7 d4 12 bd
       -0.1865179 -0.17353956 -0.2673947 -0.03584745
000320 15 c1 32 be 92 fd 27 be b0 e4 71 bc 8b 95 19 be
       -0.17456467 -0.16405323 -0.014763996 -0.14998452
000330 6e 0e 75 be 19 7e e9 bd 62 83 8d bd 4b ca 5a be
       -0.23931286 -0.11401004 -0.06909825 -0.21366231
000340 0a e3 0b be 56 b3 16 be 5e 62 63 bd c3 53 b2 3c
       -0.13660827 -0.14716849 -0.055513732 0.021768456
000350 44 f4 90 bd 50 ce 0c bd 77 0e 73 bd 3c ee d8 bd
       -0.0707784 -0.034376442 -0.059339967 -0.105923146
000360 9f f4 17 be a1 7f 5c be ad ca e3 bd ce ed 2b be
       -0.1483941 -0.21533062 -0.11122642 -0.16789934
000370 2d eb 6b be af 3c 43 be dd 50 8f bd 36 b3 f4 bd
       -0.23038931 -0.19066118 -0.06997845 -0.11948244
000380 24 c3 2a be f5 3f b9 bd 53 f3 00 be c4 3d 80 bd
       -0.16676003 -0.09045402 -0.12592821 -0.06261781
000390 80 67 cb be 95 5d 90 be 49 76 a7 be 2f 42 83 be
       -0.39727402 -0.28196397 -0.32707432 -0.25636432
0003a0 62 b3 d7 be 5b 0c 3c be 52 54 92 be 53 97 e7 be
       -0.42129046 -0.18364088 -0.28579956 -0.4523264
0003b0 d2 46 55 be 7a 1a 7d be f5 5b 8e be 19 da c9 3d
       -0.20827797 -0.24717131 -0.27804533 0.09856052
0003c0 2a 8b 66 be 63 ae 85 be 8d e7 8e be 75 dd c2 be
       -0.22514024 -0.2610961 -0.27911034 -0.38059583
0003d0 c5 3d 9c be 9c 6a c9 3d e7 d7 8f be 5f e3 a1 be
       -0.30515876 0.09834787 -0.28094408 -0.31618783
0003e0 1d e3 22 be 60 30 89 be 3f a5 c3 be 14 fa 35 be
       -0.1590695 -0.2679472 -0.3821201 -0.17771178
0003f0 70 74 8c bd 10 e1 8d bd fc 82 fc 3d 97 c0 16 3e
       -0.06858146 -0.06927693 0.12329671 0.14721905

R__493 f4 [1, 96, 32]
000000 bf ef b2 3e da 21 ac 3d 92 23 9b bc 24 ea 9a bb
       0.34948537 0.08404894 -0.01893786 -0.004727619
000010 0a f0 02 be 16 67 da 3c 71 4d 15 be 5e cc 4d bd
       -0.1278688 0.026660483 -0.14580323 -0.050243728
000020 19 c5 1d 3d 1b 1f 0b 3e a5 fa 69 3d 93 ab 41 3d
       0.038518045 0.13586085 0.0571238 0.047282767
000030 65 6a eb bd 94 01 76 be 8c de 35 be 10 c8 0a 3e
       -0.114949025 -0.2402404 -0.17760676 0.1355288
000040 43 99 03 be 17 de 3c bd 56 18 e4 bd dc cf 7a 3e
       -0.12851433 -0.04611024 -0.11137454 0.24493355
000050 d7 69 37 bc fb cb 93 bd 67 91 3f 3d ee fb ef bd
       -0.011194668 -0.072166406 0.046769526 -0.11717974
000060 fe 21 6b be 27 97 8f 3e 69 0a 3e 3d 4a 24 d5 bd
       -0.22962186 0.28045008 0.046396647 -0.10407312
000070 0f cc 16 3e 96 9e 85 bd 1c 9c 70 3d 2b dc 67 bd
       0.1472628 -0.065243885 0.058742628 -0.056606453
000080 da 2e 6b 3e da bc 4f bd 35 30 89 bd fe bf 90 3e
       0.22967091 -0.050717212 -0.06698648 0.28271478
000090 ff 07 0f be 8a 12 17 3e e1 ac 18 bb 68 92 e4 bd
       -0.13967894 0.14753166 -0.0023296403 -0.11160737
0000a0 00 f9 d4 3d 81 bd c4 3d bf 08 21 3d 62 71 aa 3e
       0.103990555 0.096064575 0.03931498 0.3328963
0000b0 36 24 da bd 51 2b ab bd ff 64 6c be ab 1a 05 3e
       -0.10651438 -0.08357871 -0.23085402 0.12998454
0000c0 3a 87 e9 bc 99 9b 1d 3e 64 ab 79 be a7 4e cf 3d
       -0.028506864 0.15391387 -0.24381787 0.101224236
0000d0 a1 40 48 3d 6e a7 1e 3e 17 e7 9b 3e 37 ef 02 be
       0.04888976 0.15493557 0.30449745 -0.12786566
0000e0 f1 99 c0 3d bd 2e 36 bd 4d 7f a9 3d 61 c0 db bd
       0.09404362 -0.044478167 0.08276234 -0.10730053
0000f0 18 aa 8d 3d d3 f6 af be 8c 6a 83 39 ee d7 d3 bc
       0.069172084 -0.34368 0.0002506565 -0.0258598
000100 0c 79 9b 3c 2b ea 0c be 6c e9 70 bd 9b 92 a3 3d
       0.018978618 -0.13761203 -0.05881636 0.07986947
000110 d4 0b 4e bb 02 cb ed 3d 61 f2 ca bd 64 b7 8a be
       -0.0031440156 0.11610986 -0.09909511 -0.2709304
000120 89 8a e6 bd fa 01 3b 3d 31 96 05 be 56 0e 09 be
       -0.11256892 0.045656182 -0.13045575 -0.13384375
000130 ff a4 12 be e2 67 3d 3d 76 0a 08 3d 37 19 7f 3e
       -0.14320754 0.04624165 0.0332131 0.24911962
000140 cd 12 eb bd a0 fc 0a 3e 3e 13 9a be 4b 18 2a 3e
       -0.11478195 0.13572931 -0.30092806 0.1661083
000150 fe fe 8a 3c 58 02 c2 3d a8 00 21 be 94 f1 67 bd
       0.016967293 0.09473103 -0.15722907 -0.05662687
000160 3c b3 fd bd 2c fe 91 bd f0 0c b1 bd 02 d9 e5 3c
       -0.12387702 -0.071285576 -0.08645046 0.028057579
000170 79 77 ae 3d 84 d8 46 3c 46 6f 44 3d 37 4b 87 bd
       0.08518881 0.012136582 0.04795768 -0.06606143
000180 18 e3 f7 3c de c4 a8 bd 22 75 94 bd 14 20 82 bd
       0.030259654 -0.082406744 -0.07248904 -0.06353775
000190 ee 62 4e be f1 99 0f 3c 61 0e 8c be 2b 8a 15 bd
       -0.20154926 0.00876473 -0.2735472 -0.03650872
0001a0 e7 d5 60 3e dd 47 ea bd aa 7f d2 3d 7e 4e 55 3d
       0.21956597 -0.11439488 0.10278256 0.05207681
0001b0 f1 1e 08 be 1f e5 0e bd 2c b7 e4 bd 6e d2 ef bc
       -0.13293053 -0.034886476 -0.1116775 -0.029275145
0001c0 9a ec 17 3d 45 06 5e 3c 3c a3 9f 3d 30 5c fe bc
       0.037090875 0.013551299 0.07794806 -0.031049818
0001d0 3e 45 e6 3d b4 1b 48 bd 64 84 36 3e e2 d1 03 be
       0.11243676 -0.048854545 0.1782394 -0.12873033
0001e0 2e c7 b1 3a ad b1 ff bd 8a ca 37 bd e7 87 57 3d
       0.0013563388 -0.12485061 -0.04487089 0.05261984
0001f0 07 bd 17 3e d4 33 00 be 69 b5 0a be c4 ec 08 be
       0.14818202 -0.12519771 -0.13545765 -0.13371569
000200 be ce 1d 3d 34 82 29 bd af 04 c5 3b 98 00 90 bc
       0.038527243 -0.041383937 0.006012521 -0.017578408
000210 5b dc 39 be d8 60 d2 3d 69 b4 52 be 38 43 b4 bd
       -0.18150465 0.10272378 -0.20576634 -0.088018835
000220 72 1a 6c be 40 6d 5e bd ef 4a 2b 3e 0d cb ac 3e
       -0.23056963 -0.054303408 0.16727804 0.33748665
000230 ba d5 2f be f9 0e 92 3c 2a fd 39 be 6d 96 b2 3d
       -0.17171374 0.017829405 -0.1816298 0.08720098
000240 65 76 b7 3d 33 bc b9 3d 04 b2 a0 be bf 31 1e bb
       0.08958129 0.09069099 -0.31385815 -0.0024138538
000250 22 b7 af 3d 8f 08 56 3d 6d e1 e8 3d 76 62 90 3d
       0.08579852 0.052254256 0.113711216 0.0705003
000260 7c 44 a3 3d 38 c4 40 3d cc d5 b3 3c 77 7d 80 bd
       0.07972047 0.04706213 0.021952532 -0.062739305
000270 93 6c 37 3e 50 ae 1c 3e 4d b9 a7 3b b1 ba e9 bd
       0.17912512 0.1530087 0.005118525 -0.11412562
000280 d5 7d a5 3e 10 c9 73 3d be ee a9 bd 19 09 1b 3d
       0.32322565 0.05951792 -0.082974896 0.037850473
000290 07 5d 78 bd d6 cc 2b 3d dc 54 85 3d 32 86 9c be
       -0.060635593 0.041943394 0.06510326 -0.30571133
0002a0 3e 2f 93 3d d9 7e 47 3d f8 6d fe 3d 61 fc bf bc
       0.07186745 0.048704956 0.124233186 -0.023435773
0002b0 1b be 74 be ac fd 48 3e 77 9c 4e 3e e4 aa a7 3c
       -0.23900644 0.19628018 0.20176874 0.02046723
0002c0 d7 b5 b0 3d 41 ee 09 3e a8 df 36 3e 54 34 09 3d
       0.08628433 0.13469793 0.17858756 0.03349717
0002d0 6a 16 13 3d f1 00 76 bd 68 a9 26 bd 9e 24 37 3c
       0.035910048 -0.06005949 -0.040688902 0.011178164
0002e0 68 c0 f6 bd 6d d9 c4 3c 56 95 05 3e d4 9b a3 bd
       -0.12048417 0.024029458 0.13045248 -0.07988706
0002f0 09 78 7e bd 93 a6 14 bd 6b 62 62 bd f1 5b bf bd
       -0.062126193 -0.03629167 -0.05526964 -0.09343708
000300 f8 8f 3e 3d 67 75 3f 3e 15 7d e6 bd a2 1b e2 3e
       0.046524018 0.18697129 -0.11254326 0.44161707
000310 95 6a 2f bd a0 bd ec 3d eb b0 f1 bd d5 e9 16 be
       -0.042826254 0.115596056 -0.118013225 -0.14737637
000320 3e ae f7 3d ea bb 73 3b 04 c8 43 3c 1f 18 9b 3d
       0.12093781 0.0037190863 0.011949543 0.0757296
000330 69 52 dc bd ff 75 67 3e ee 2a 92 be 51 72 99 3e
       -0.10757906 0.22603606 -0.28548378 0.2997003
000340 8f 01 2e be cb 3c d6 bc d9 5f 1c 3e 5d 1d 69 3e
       -0.16992782 -0.026152035 0.15270938 0.22765107
000350 b7 c0 9d bd 3c 44 e8 bc b5 4d 18 bd 43 31 ce 3d
       -0.07702773 -0.02835285 -0.037183482 0.1006799
000360 67 c6 82 bd 18 2f e5 bd d9 17 6d 3e d1 32 8f bd
       -0.063854985 -0.11190623 0.23153628 -0.06992114
000370 d7 50 0a 3e 5a b5 9a bd ee fa d9 bd d4 38 13 be
       0.135074 -0.07554121 -0.10643564 -0.14377147
000380 34 25 ce 3d ef e9 21 be 48 86 21 be bb e1 d1 bc
       0.1006569 -0.15811895 -0.1577388 -0.025620332
000390 ce d4 0d be 50 dc 73 3d ae b1 73 be b9 39 67 3d
       -0.1385071 0.05953628 -0.23798248 0.056451533
0003a0 9f b7 04 be f4 bf 3f 3e 60 ee 18 bd 49 a8 19 3e
       -0.12960671 0.18725568 -0.037336707 0.15005602
0003b0 7f d5 44 3d e4 ac 82 3b ac e7 09 be 97 c3 5c 3e
       0.04805517 0.0039878953 -0.13467282 0.21558987
0003c0 3b 56 f7 bc 04 25 0f bd 5f 7a 8b bd 0a 82 ba 3d
       -0.030192485 -0.03494741 -0.0681045 0.09106834
0003d0 6d c5 52 3d cd 47 22 be 0a f2 9c bd 00 5e b0 3b
       0.05145781 -0.15847702 -0.07663353 0.0053822994
0003e0 70 03 6d be 0e b5 33 be b5 b7 da 3b 74 70 0c be
       -0.23145843 -0.17549536 0.0066747316 -0.13714772
0003f0 c7 19 d7 3d e4 d6 20 bc 98 6d 5f 3c cc fc c3 bd
       0.105029635 -0.009816859 0.013636969 -0.095697016

R__479 f4 [1, 192, 64]
000000 55 34 34 3e 06 01 4a be 53 c8 8e bb 7c 32 a8 bd
       0.17598088 -0.19726953 -0.0043573766 -0.08212754
000010 8e c5 85 be 90 a3 4d bc 2f 2b a4 3e a7 58 1f 3d
       -0.26127285 -0.012551203 0.32064196 0.038902905
000020 80 cb 27 be 43 d1 c8 bc 7e cb 1b bc f2 82 ec 3c
       -0.16386223 -0.024513846 -0.009508966 0.028871033
000030 d3 a6 0a bb 09 f3 f2 bd fa 34 88 3d 01 3e fe bd
       -0.0021156564 -0.118627615 0.066507295 -0.1241417
000040 f4 ac b5 bd f0 76 ab bd c3 34 28 bd 23 18 94 bd
       -0.08870879 -0.08372295 -0.041065942 -0.07231166
000050 d7 ba b5 bd 72 51 19 be 3a aa 20 be 9d 3e 6e bd
       -0.088735275 -0.14972475 -0.15689936 -0.05816518
000060 fd 5d 57 bd 2e 25 56 3e 4c 86 48 3e a2 e0 b0 bc
       -0.05257987 0.2091262 0.1958248 -0.021591488
000070 b4 b5 31 bd 98 de 29 3e 3a 83 f8 bc 8c 52 90 ba
       -0.043386176 0.16588819 -0.030336011 -0.0011010929
000080 4e fa fb bd 20 08 53 be 75 53 1f be 63 41 33 3e
       -0.12303601 -0.20608568 -0.1555918 0.17505412
000090 59 c2 16 be 18 0b 81 be a3 0d 1b 3e b5 56 5b 3d
       -0.14722575 -0.25203776 0.15141921 0.053549487
0000a0 51 56 2c 3e d3 fe 24 3e b9 53 6a be 13 1a 01 be
       0.16829802 0.16112833 -0.228835 -0.12607603
0000b0 d5 da 34 be e9 5b 2a 3e 8a a9 03 3e ba 88 d2 3d
       -0.17661603 0.16636623 0.12857643 0.10279985
0000c0 da c4 c8 3b 56 e1 f4 3d b9 bd 65 3e cc 7a 90 3d
       0.006126982 0.11957042 0.22435655 0.07054672
0000d0 21 95 ec 3d 24 79 49 be be 78 18 be 30 72 2e bb
       0.115518816 -0.19675118 -0.1488981 -0.0026618354
0000e0 05 64 23 3a 06 5b ad 3c 61 0f 9c be 8e 52 45 bd
       0.00062328606 0.021161567 -0.30480483 -0.048174433
0000f0 78 91 88 3d de 82 8c 3d 89 fd b9 3c b9 9c a1 be
       0.06668371 0.068608984 0.022703903 -0.31564882
000100 ec aa 9f 3e fc 11 8e bd f0 e6 dc 3d 6d bb 03 be
       0.3118509 -0.06937024 0.10786235 -0.12864466
000110 01 78 66 be 7f 0f aa bc 3f 80 14 3e 5d c0 3b bc
       -0.22506715 -0.020759342 0.14502047 -0.011459437
000120 94 dd d1 bd 08 98 df 3d 47 03 05 3c fc b0 a2 3d
       -0.10247341 0.109176695 0.008118457 0.07943913
000130 6d 87 8a 3c 24 b1 4f be de 41 12 bd f6 ef f1 bd
       0.01691028 -0.20282418 -0.035707347 -0.11813347
000140 2b 48 88 be bb 43 b1 3d 44 51 a4 bd 7b c9 a5 bc
       -0.2661756 0.08655497 -0.08023313 -0.020237675
000150 91 a8 6d be 03 c6 b6 3c a2 29 34 be 0a d0 a4 be
       -0.23208834 0.022311216 -0.17594007 -0.3218997
000160 cb 15 4b be a6 ac b6 3d 34 1e a3 3e df 01 e7 3c
       -0.19832532 0.08919649 0.3185898 0.028199134
000170 a3 12 0a be 59 0f 80 3e 05 ab 2e be 0e 41 55 be
       -0.13483672 0.2501171 -0.17057426 -0.20825598
000180 6d 13 2e be ac 25 e2 bd f7 10 56 be 24 5f cb 3d
       -0.16999598 -0.110423416 -0.20904909 0.09930256
000190 1e 8e f4 bd ff f7 1b bd 31 cf ae 3d 52 62 51 3e
       -0.11941169 -0.038078304 0.085356124 0.20447662
0001a0 66 b3 5d 3e 4a da b1 3b 6b 32 92 bc c2 5e ec bd
       0.21650466 0.0054276334 -0.017846307 -0.11541511
0001b0 bb 37 aa be 11 2c 2f 3e 80 91 b5 3e f4 f3 84 3e
       -0.33245644 0.17106654 0.3546257 0.2596737
0001c0 14 47 9f bd d2 c6 89 3e 1e 03 4b 3e 82 6b 68 3d
       -0.07777229 0.269095 0.19825408 0.056743152
0001d0 9e 17 92 3d 68 92 0b be 90 cb 19 be da fd 9f 3d
       0.07133411 -0.13630068 -0.15019059 0.0781209
0001e0 12 cf 25 3e fe 6b 85 3e b2 02 34 be 02 23 8c be
       0.16192272 0.26058954 -0.17579153 -0.2737046
0001f0 3e 29 44 3d 30 c9 f1 bd 81 bb 37 3d ac 84 94 be
       0.047890894 -0.118059516 0.044856552 -0.2900747
000200 35 62 5f be fb c1 93 3d fe a1 60 3d 67 22 36 3e
       -0.21814807 0.07214733 0.054841988 0.17786561
000210 ec f3 5b 3e cd 25 02 be d4 74 12 be ee 34 eb 3d
       0.21479768 -0.12709732 -0.14302379 0.11484705
000220 ea 9b 79 3d ed 29 b6 3c 39 0e 88 3d 19 5b 30 be
       0.060939707 0.022236789 0.06643338 -0.17222251
000230 bc bd 69 3d ea 24 07 3e a5 86 48 3d a4 2b 43 bc
       0.05706571 0.13197675 0.048956532 -0.01191226
000240 3d 81 cf 3d cb e4 f1 bd 6f b0 30 3d df e0 04 be
       0.10132072 -0.11811217 0.04313701 -0.12976407
000250 0b d2 e1 3c aa 99 5f 3e 2a 07 27 3d b7 6e 22 3e
       0.027565977 0.21835962 0.040778317 0.15862547
000260 2c 91 04 3d 21 a8 f0 bc 4c 05 46 be 9e 5f 86 3d
       0.03236501 -0.029377045 -0.19337958 0.06561206
000270 a7 26 cf 3d 60 4d ab bd 7c 29 d1 3d 68 11 b3 bb
       0.10114794 -0.083643675 0.10212991 -0.0054647215
000280 95 70 39 3e 22 99 26 3e cd 51 73 3e 09 6c 9b bd
       0.18109353 0.16269353 0.23761673 -0.075889654
000290 f3 00 e0 3d dc 30 8e 3c 8c 8d 8c bc ea 9f 66 bd
       0.10937681 0.017357282 -0.017157339 -0.05630485
0002a0 4c 69 81 be eb 3e c7 be 7d 7d 70 3e 5b c0 2a 3e
       -0.25275648 -0.3891519 0.2348537 0.1667494
0002b0 b5 9a 8d 3e 7c 9e cb bd 7e 15 9f bd e5 5f 0a be
       0.27657095 -0.09942338 -0.07767771 -0.13513143
0002c0 fa 15 06 3e 29 38 81 be 61 fb a0 be f5 1e 32 be
       0.13094321 -0.2523816 -0.31441787 -0.17394622
0002d0 a1 7f be bd 3f 15 6b bc 03 a2 61 3b df 0b f8 3c
       -0.09301687 -0.014348327 0.0034428842 0.030279098
0002e0 e1 39 5e be ef 33 dd bd 73 5c ba bc 99 53 09 3e
       -0.21701767 -0.10800921 -0.022749161 0.13410796
0002f0 87 9a b7 bd ce 33 f4 3c 09 cc 3a bd 44 3d b6 3d
       -0.089650206 0.029809859 -0.04560474 0.08898404
000300 94 88 1b 3e 82 fc bc bc 9b 94 07 be 38 40 43 3e
       0.15188819 -0.023069624 -0.13240282 0.19067466
000310 1d 4f 5f be 89 05 93 ba 52 bb 1e 3e d7 70 fb bd
       -0.21807523 -0.001121686 0.15501145 -0.12277382
000320 b0 18 44 3d 62 d9 9e 3c 3d d1 dc bd be 42 c6 3d
       0.047875106 0.019390766 -0.107820965 0.09680699
000330 35 5d a6 bd 12 23 d2 bd 21 5e 8c 3d af 92 b2 bd
       -0.081232466 -0.102605954 0.06853891 -0.08719384
000340 71 5c 41 be 72 8a 95 bc 9d d6 45 bc 08 93 f4 3d
       -0.1888292 -0.018254492 -0.012075094 0.119421065
000350 96 3b b4 3b cd f8 5d 3c 64 08 20 be 15 41 49 bd
       0.0055002673 0.013548088 -0.15628201 -0.049134333
000360 e7 2f 59 3d f9 69 02 3d 0c f6 7b 3e c9 df 0f 3e
       0.0530242 0.031839345 0.24605578 0.14050211
000370 86 9d cf bd 63 7d 64 3e 4d 50 42 be 91 d7 d0 bc
       -0.10137467 0.22313456 -0.18975945 -0.025493415
000380 55 1e 83 be 16 c2 9a bd 83 36 70 be ce fa 32 3e
       -0.2560908 -0.0755655 -0.23458295 0.17478487
000390 5d ec 4c be 2c c1 78 be a5 94 65 3e ef 06 59 bc
       -0.2001204 -0.24292439 0.22419985 -0.013246282
0003a0 9e 5e 31 3e 0d c0 be 3c 74 78 1b be 3b 7c 2e be
       0.1732125 0.023284936 -0.15182668 -0.17039578
0003b0 d5 a7 03 be 5a d6 a6 bd a6 ca 3f 3d d4 f7 31 3e
       -0.12856992 -0.08146353 0.04682412 0.17379695
0003c0 60 3e ae bd 0e 49 62 3e 83 17 60 3e cf 59 63 3d
       -0.08507991 0.2209818 0.21883969 0.05550557
0003d0 5d 67 9d 3d 85 f9 6f bd f5 6a f1 bd e6 6c ef 3d
       0.076857306 -0.05858757 -0.117879786 0.116906926
0003e0 52 77 73 3e c6 7d 51 bc 41 aa bf bd 3c d4 9d be
       0.23775986 -0.012786334 -0.09358645 -0.30825984
0003f0 42 91 bb 3d e1 1f c7 3c 44 f6 00 3d eb 36 5a be
       0.09158565 0.024307193 0.031484857 -0.21310012

R__466 f4 [1, 384, 128]
000000 8b 7f 3f be 89 3f a0 3c 59 87 63 3e f5 9c 39 3e
       -0.18700998 0.019561546 0.222196 0.1812628
000010 95 ed a9 3d b2 c9 30 bd e8 7b fd 3d 59 77 22 3e
       0.08297268 -0.0431611 0.12377149 0.1586584
000020 81 23 6a bd ab 48 1c 3e 0a 9d f5 bd 5e 59 e6 3d
       -0.057162765 0.15262096 -0.119928434 0.11247514
000030 67 ba 6f bd 5d 66 e5 bd 62 cc a6 3d fe 0a 05 3e
       -0.058527377 -0.11201165 0.08144452 0.12992474
000040 05 58 b6 bd 8a 99 ee bd 88 68 93 bc 80 a5 55 be
       -0.08903507 -0.11650379 -0.01799418 -0.20863914
000050 cb 6f 88 3e f6 96 f6 bd 50 fc db 3d 33 53 ad bc
       0.2664779 -0.12040512 0.10741484 -0.021157837
000060 39 ba e2 bd ba 5d 0f bd 6d 11 d5 bd bf f3 f6 bd
       -0.110706754 -0.035001494 -0.10403714 -0.1205821
000070 6c fe c1 3c 04 f6 81 bd d4 85 40 3e 4e 6d 99 3d
       0.023680888 -0.06345752 0.18801051 0.07491551
000080 99 05 63 be fc 80 5a 3c ad 7c 7d 3d 0f 36 c6 bc
       -0.22170104 0.013336416 0.06188648 -0.024195699
000090 a9 18 2a 3e 88 ed 06 3e 2a f9 ee bd d8 ce 09 bd
       0.1661097 0.13176548 -0.11668618 -0.033644527
0000a0 60 25 dc bb df 87 cf bc 2a 12 a1 bd e1 a6 b1 3d
       -0.0067183226 -0.025333343 -0.07864793 0.08674408
0000b0 a4 bd 8d 3d 4e 16 cb 3d 44 01 bc bd 3a 27 b5 bd
       0.06920937 0.09916364 -0.09179929 -0.088453725
0000c0 9a 9f 29 3c 1f 88 c1 bd ff 2b 09 bd 1e 6f c1 3d
       0.010352993 -0.09449791 -0.033489224 0.09445022
0000d0 57 95 b6 bd 06 82 02 be 7d 25 a5 3d 55 86 4e 3d
       -0.08915203 -0.12744913 0.08063791 0.050421078
0000e0 06 7a 47 bd 4a 6f 4c be a9 3f 87 3d 1e 25 f7 bd
       -0.048700355 -0.19964328 0.06603939 -0.120676264
0000f0 1a 0d 57 3c fc 53 e5 3d 7a 28 31 be 3d 31 0c be
       0.013125682 0.111976594 -0.17300597 -0.13690658
000100 33 a1 a3 bb 71 d0 4f be 28 66 d5 3d a8 19 ba 3d
       -0.0049935817 -0.20294358 0.104198754 0.09086925
000110 06 6f fc bd a2 b5 df 3d 2e d1 3a be e7 47 40 3e
       -0.123258635 0.109233156 -0.18243858 0.18777429
000120 da a0 35 3e 0e 6c 76 3a 38 13 0e be 7c 99 d9 bb
       0.17737141 0.00094002567 -0.13874519 -0.006640611
000130 de 69 af bd 40 81 11 3e 07 5d 2c 3d 49 0e f3 bc
       -0.085651144 0.14209461 0.042080905 -0.029669898
000140 3f 76 d0 bc e7 63 3b bd 48 bb 9c bd 12 40 a4 3d
       -0.02544701 -0.04574957 -0.076529086 0.08020033
000150 ce 2f a0 bd 3e 57 22 3e f6 f4 b4 bd fe 82 d8 3d
       -0.07821618 0.15853593 -0.08835785 0.1057186
000160 f4 71 3d bd c8 2d e6 3d 65 b1 86 bd ba 63 47 3e
       -0.046251252 0.11239201 -0.06576804 0.19471636
000170 e1 c1 77 bd 21 9e dd bd 43 c2 66 be f0 1e d0 bc
       -0.06048763 -0.10821176 -0.22535042 -0.025405377
000180 e3 d6 1a 3d 05 f7 12 be 98 eb f9 3d 1e 54 52 3c
       0.03780259 -0.14352043 0.12203139 0.012837438
000190 40 43 0d 3e 4e 70 b4 3c c7 40 2a be db cd 00 bd
       0.13795185 0.022026207 -0.16626273 -0.03144632
0001a0 b5 f1 11 bd 08 57 bb bd be 83 2c 3d 9b 97 d9 bd
       -0.0356309 -0.09147459 0.042117827 -0.106246196
0001b0 5f df 5d bd e1 41 c4 bd 73 92 ac bd db ca 88 3d
       -0.0541681 -0.09582878 -0.084263705 0.066793166
0001c0 8d 7a 42 3e b0 53 09 3e 05 54 90 3d f0 9b 0c 3d
       0.18992062 0.1341083 0.070472755 0.0343284
0001d0 14 ae 15 3d 35 39 1b 3d f8 d9 0d 3d 1e 10 86 3c
       0.036542967 0.037896354 0.0346317 0.016365107
0001e0 da a0 e6 3d e6 83 4a be ed 09 b6 3d 28 cb 3c 3e
       0.11261149 -0.19776878 0.08888612 0.18436873
0001f0 d1 f3 0f be ca 56 d1 3d 47 c7 19 3e 92 08 66 3b
       -0.14057852 0.10221632 0.15017425 0.0035100323
000200 20 f3 c5 3d d0 da c8 3d 27 36 1f bd c2 a7 5e bd
       0.09665513 0.0980736 -0.038870003 -0.054359205
000210 70 c3 93 3d 75 1a c8 3c 06 dd 28 be 85 41 aa 3d
       0.07215011 0.024426678 -0.16490564 0.08313278
000220 cd 48 b3 bd 2e ff 90 3b 41 29 e7 bd 6b 28 a2 bc
       -0.0875412 0.004424951 -0.112871654 -0.019794663
000230 49 7c a2 bd bb 46 8e bd de cb 8d 3d fc 83 8e 3c
       -0.07933862 -0.069470845 0.0692365 0.01739692
000240 64 84 3d be 95 ba 83 bc 72 34 cd bd 01 68 bc bd
       -0.18507534 -0.01608018 -0.10019769 -0.09199525
000250 de c0 a2 3b fd 7e 37 bd ca f7 58 3d f8 99 36 bd
       0.004966839 -0.04479884 0.052970685 -0.04458043
000260 f1 bb 22 be 6f 24 47 be ea e3 b8 bd 26 6b a0 bd
       -0.15892006 -0.19447492 -0.09027846 -0.07832937
000270 c7 c4 50 3d 34 71 f5 bb 38 bd 15 3d c7 04 64 bd
       0.05096891 -0.0074903015 0.036557406 -0.05566862
000280 f4 e0 d5 3d 15 10 81 3d 9a 25 b7 bd 12 4d 99 3e
       0.10443297 0.063018955 -0.08942719 0.29941612
000290 ad 51 2c 3d 7f e5 0a 3e ec a0 62 be 0f 3a 78 3d
       0.04207008 0.13564108 -0.221317 0.060602244
0002a0 e3 d6 71 3d 5b 23 72 3d 2c 64 af bd c5 2f 66 3d
       0.059042823 0.05911575 -0.08564028 0.0561979
0002b0 61 36 e1 3c 88 60 4b 3e dc 50 8a bd 02 1c d6 3d
       0.02749175 0.19861042 -0.06753704 0.10454561
0002c0 f8 79 28 be 68 bd 6c bd c9 e3 8f bb 11 47 20 3e
       -0.16452777 -0.05779782 -0.004391168 0.1565211
0002d0 19 9b 02 bd 51 ae 14 3d 68 6a 7c bd 97 0f b6 bd
       -0.031886194 0.036299054 -0.061624914 -0.08889692
0002e0 71 2e 15 3d 73 d0 71 bd 1f 3d e1 3d a7 cb 0c be
       0.036421243 -0.059036683 0.10997986 -0.13749562
0002f0 01 17 01 be 97 a7 6d bd f2 32 c9 bd 19 87 cc bd
       -0.12606432 -0.058021154 -0.0982417 -0.09986705
000300 6f f8 7b 3d 23 f9 78 3d a9 87 4c 3e d6 e8 dd bc
       0.06151622 0.06078447 0.19973625 -0.027088564
000310 f5 91 4d bd 23 86 c4 3d 99 d2 a0 bd 1a c7 0c 3d
       -0.050188024 0.09595897 -0.07852668 0.034369566
000320 0e b9 95 3d 9c 1c 8c bd df 9e 59 bd 03 18 48 bc
       0.07310687 -0.06841394 -0.053130027 -0.012212756
000330 68 4b d8 3d a5 72 84 3d 5d db 3b bd f3 d2 70 3d
       0.105612576 0.06467179 -0.045863498 0.058794927
000340 46 33 8e 3d 21 bd 84 bd 97 99 83 bc 36 bb 03 bd
       0.069433734 -0.06481386 -0.016064448 -0.03216096
000350 20 b7 46 3d 48 6a cd 3c 42 d9 4c bd cc cb 6f 3c
       0.048514485 0.025075093 -0.05001188 0.014635991
000360 51 0d 3b be 35 1c 97 3d ef 41 7f bb 90 72 29 3e
       -0.18266799 0.07378427 -0.0038949212 0.16547608
000370 0f 73 4d bd 6c c7 64 bd 86 da 26 be 35 72 e1 bc
       -0.050158557 -0.055854246 -0.16294298 -0.027520278
000380 28 30 06 3d e3 29 44 be 2f 44 a8 3d 91 33 7c bd
       0.03276077 -0.19156604 0.0821613 -0.061572615
000390 ea 2d 45 bd 62 57 7b bc 42 3e 14 be ab b7 bd bd
       -0.04813949 -0.015340658 -0.14476874 -0.092635475
0003a0 89 0d d5 3d 69 02 9d bd aa 65 24 3e c6 a8 0c 3d
       0.10402972 -0.07666475 0.16054407 0.034340642
0003b0 fe 41 48 be 9a cf 2a 3d 5b bd 9b 3c e2 9a 9d bd
       -0.19556424 0.04170189 0.01901119 -0.07695557
0003c0 62 24 42 3c 0b 91 29 3e 2e ea e5 3d 30 cb d7 3c
       0.011849495 0.16559236 0.11226307 0.026342005
0003d0 ee 59 c4 3d 53 43 0f be 9d 23 92 ba 97 6a 10 3e
       0.09587465 -0.13990526 -0.001114953 0.14103161
0003e0 65 8b 12 3d 56 46 bc 3d f4 cb 1a bd 7e a6 df 3d
       0.03577747 0.09193103 -0.03779216 0.10920428
0003f0 72 99 43 3d 6d 39 d7 3d 4e 21 b2 3d 62 d7 6b bd
       0.04775376 0.10509 0.086977586 -0.057578452

GRU/quant_dense_7/LastValueQuant/FakeQuantWithMinMaxVars__454 f4 [32, 1]
000000 f4 13 6d 3e 63 b0 ae be b3 2a 3b bd 4a 04 83 3d
       0.23152143 -0.34118947 -0.045695018 0.063973024
000010 f4 13 6d 3d 1c 51 73 3e 41 5e b3 3e 7e 17 1f 3e
       0.057880357 0.2376141 0.35032848 0.15536305
000020 9a 7e 8f be 2e 9d 12 3e f4 13 6d be 03 a5 c7 3b
       -0.28026277 0.14317772 -0.23152143 0.006092669
000030 ea f8 9b bd c2 bb 15 bc 00 75 81 be b3 2a bb 3d
       -0.07615836 -0.009139003 -0.25284576 0.091390036
000040 b9 15 c6 3e 63 b0 ae 3d 03 a5 c7 3d 37 b8 63 be
       0.38688448 0.08529737 0.0974827 -0.22238241
000050 63 b0 ae 3c 7e 17 1f be 25 f7 c2 be de 22 86 3e
       0.021324342 -0.15536305 -0.3807918 0.26198477
000060 a3 99 e0 3d 3b 73 a8 be a3 99 e0 bd 37 b8 63 3e
       0.10966804 -0.32900414 -0.10966804 0.22238241
000070 63 b0 2e bd b0 6f 76 3e f7 ce 31 be 3b 73 a8 be
       -0.042648684 0.24066043 -0.17364107 -0.32900414

GRU/quant_dense_6/LastValueQuant/FakeQuantWithMinMaxVars__453 f4 [32, 32]
000000 ca 5a d3 3d f9 98 3d 3e f6 dd 8b 3e 07 31 95 bc
       0.10320051 0.18515386 0.2731778 -0.018211855
000010 f6 dd 0b be 98 61 37 3e ab 6f f2 3d c7 9f a1 bd
       -0.1365889 0.17908323 0.11837705 -0.07891803
000020 8f da 99 3e 6c de fe 3d 69 23 4d 3e 46 c2 88 3d
       0.3004956 0.12444767 0.20033039 0.0667768
000030 69 23 cd 3d d8 f2 aa 3e a6 f9 8e 3e 96 a6 05 be
       0.100165196 0.333884 0.27924842 -0.13051829
000040 4b 38 6c 3d 46 c2 08 bd 10 b8 b2 3e 07 31 15 3d
       0.057670873 -0.0333884 0.34906054 0.03642371
000050 6e 34 87 3e 0b a7 78 bc 8a c9 df 3d 9f 2d a3 3e
       0.26407188 -0.015176545 0.109271124 0.31870744
000060 4b 38 6c 3e 46 c2 88 3d 2a 92 59 3e da ad 5c be
       0.23068349 0.0667768 0.21247163 -0.21550694
000070 3a e5 62 be 69 23 cd 3d 0e fd 80 3e e6 8a 82 be
       -0.22157755 0.100165196 0.25193065 -0.25496596
000080 57 15 12 be 88 0e ae 3c ea 00 e6 bd 0b a7 78 3d
       -0.14265953 0.021247163 -0.11230643 0.06070618
000090 88 0e ae 3d 09 ec c6 bb 69 23 cd 3d c7 9f a1 3d
       0.08498865 -0.006070618 0.100165196 0.07891803
0000a0 5b 8b 75 be 57 15 92 3e 07 31 95 bc e8 45 b4 3d
       -0.23978941 0.28531906 -0.018211855 0.08802396
0000b0 4b 38 ec bd a9 b4 40 be 46 c2 88 3d 09 ec c6 3b
       -0.115341745 -0.18818916 0.0667768 0.006070618
0000c0 e8 45 b4 bd 07 31 15 be ea 00 e6 bd 07 31 95 3d
       -0.08802396 -0.14569484 -0.11230643 0.07284742
0000d0 07 31 95 bd 0b a7 78 bd 07 31 15 3d 96 a6 85 3e
       -0.07284742 -0.06070618 0.03642371 0.26103657
0000e0 07 31 95 3c fb 53 6f be e6 8a 82 be a6 f9 8e 3e
       0.018211855 -0.2337188 -0.25496596 0.27924842
0000f0 da ad 5c 3e be 18 84 3e 0b a7 78 3e a9 b4 c0 3d
       0.21550694 0.25800127 0.24282472 0.09409458
000100 8a c9 df 3c 09 ec 46 3b e6 8a 82 3d 09 ec 46 3d
       0.027317781 0.003035309 0.06374149 0.048564944
000110 f9 98 3d be ea 00 e6 bd 19 3f 50 be 8f da 99 3e
       -0.18515386 -0.11230643 -0.2033657 0.3004956
000120 8a c9 5f 3d c7 9f a1 bd 3a e5 62 be 46 c2 88 bd
       0.054635562 -0.07891803 -0.22157755 -0.0667768
000130 09 ec 46 3c 4b 38 ec bd 3f f6 9c be ca 5a 53 be
       0.012141236 -0.115341745 -0.3065662 -0.20640102
000140 07 31 15 bd ca 5a 53 3e c7 9f 21 bd 8a c9 df 3c
       -0.03642371 0.20640102 -0.039459016 0.027317781
000150 3a e5 62 be 07 31 15 3e 8a c9 df bd ce 6b 8d 3e
       -0.22157755 0.14569484 -0.109271124 0.2762131
000160 e8 45 34 be 09 ec 46 3c 09 ec 46 bd 19 3f 50 3e
       -0.17604792 0.012141236 -0.048564944 0.2033657
000170 4b 38 6c 3e 8a c9 df 3d 6c de fe 3d 4b 38 ec 3d
       0.23068349 0.109271124 0.12444767 0.115341745
000180 0e fd 80 be 4b 38 6c bd e8 45 34 be 5b 8b 75 3e
       -0.25193065 -0.057670873 -0.17604792 0.23978941
000190 ea 00 66 be 57 15 12 be b9 07 4a be 17 84 1e be
       -0.22461286 -0.14265953 -0.19729508 -0.15480076
0001a0 77 bb 24 be ab 6f f2 bd e8 45 34 be 46 c2 88 be
       -0.16087137 -0.11837705 -0.17604792 -0.2671072
0001b0 ca 5a 53 bd ab 6f 72 3e 8a c9 df bc 59 d0 43 3e
       -0.051600255 0.2367541 -0.027317781 0.19122447
0001c0 48 7d 3a be 09 ec 46 bb 6e 34 87 be b7 4c 98 be
       -0.18211854 -0.003035309 -0.26407188 -0.2974603
0001d0 b7 4c 98 3e 59 d0 43 3e 98 61 37 3e 6e 34 87 be
       0.2974603 0.19122447 0.17908323 -0.26407188
0001e0 f9 98 3d be be 18 84 3e 88 0e ae 3d 28 d7 a7 bd
       -0.18515386 0.25800127 0.08498865 -0.08195335
0001f0 7a 76 56 be ca 5a 53 be ab 6f 72 be 09 ec 46 bb
       -0.20943633 -0.20640102 -0.2367541 -0.003035309
000200 46 c2 08 bd a9 b4 c0 bd da ad 5c 3e ea 00 66 be
       -0.0333884 -0.09409458 0.21550694 -0.22461286
000210 ea 00 e6 bd a6 f9 8e be 09 ec c6 bd ea 00 e6 3d
       -0.11230643 -0.27924842 -0.09712989 0.11230643
000220 70 ef b8 be ca 5a d3 bd 09 ec 46 bd 9f 2d a3 be
       -0.36120176 -0.10320051 -0.048564944 -0.31870744
000230 0b a7 78 bd 77 bb 24 3e 48 7d ba bd 09 ec 46 3c
       -0.06070618 0.16087137 -0.09105927 0.012141236
000240 57 15 92 3e 38 2a 31 be f6 dd 0b be 6c de fe bd
       0.28531906 -0.17301261 -0.1365889 -0.12444767
000250 2f a3 93 be 07 31 15 bd 1e 50 8a be e6 8a 02 3e
       -0.28835437 -0.03642371 -0.2701425 0.12748298
000260 07 31 15 bc b7 4c 98 3e 88 0e 2e bd e6 8a 02 3e
       -0.009105927 0.2974603 -0.042494327 0.12748298
000270 ca 5a d3 3d 48 7d 3a bd 17 84 1e be 0b a7 78 be
       0.10320051 -0.045529634 -0.15480076 -0.24282472
000280 e6 8a 82 be e6 8a 02 3e 46 c2 08 bd 7a 76 56 be
       -0.25496596 0.12748298 -0.0333884 -0.20943633
000290 c7 9f 21 bd 57 15 12 3e 0b a7 78 3d da ad 5c 3e
       -0.039459016 0.14265953 0.06070618 0.21550694
0002a0 07 31 95 be 88 0e ae 3e 46 c2 88 be 48 7d 3a bd
       -0.29138967 0.3399546 -0.2671072 -0.045529634
0002b0 ea 00 e6 bd ab 6f 72 3e ab 6f 72 be 2a 92 d9 bd
       -0.11230643 0.2367541 -0.2367541 -0.10623582
0002c0 ab 6f 72 be c0 d3 b5 3e a9 b4 c0 3d 57 15 12 3e
       -0.2367541 0.35513115 0.09409458 0.14265953
0002d0 4b 38 ec bd 46 c2 08 3d ca 5a 53 3e 28 d7 a7 3d
       -0.115341745 0.0333884 0.20640102 0.08195335
0002e0 4b 38 ec 3d ce 6b 8d be 09 ec 46 bb 2a 92 d9 3d
       0.115341745 -0.2762131 -0.003035309 0.10623582
0002f0 98 61 37 3e e6 8a 82 3d 09 ec c6 3d 88 0e 2e be
       0.17908323 0.06374149 0.09712989 -0.1699773
000300 0b a7 78 3d c7 9f 21 be 8f da 99 be 09 ec 46 bc
       0.06070618 -0.15783606 -0.3004956 -0.012141236
000310 07 31 95 3e 2a 92 59 3e 9b 1c 69 be ca 5a 53 be
       0.29138967 0.21247163 -0.22764818 -0.20640102
000320 1e 50 8a be 1e 50 8a 3e 46 c2 08 3d d8 f2 2a 3e
       -0.2701425 0.2701425 0.0333884 0.166942
000330 b7 4c 18 be f6 dd 8b be 8a c9 df 3c 07 31 95 bc
       -0.14873014 -0.2731778 0.027317781 -0.018211855
000340 09 ec c6 bc fb 53 6f 3e 07 31 95 bd 07 31 95 3e
       -0.024282472 0.2337188 -0.07284742 0.29138967
000350 19 3f 50 be 0b a7 78 be 77 bb a4 be 69 23 cd bd
       -0.2033657 -0.24282472 -0.32174274 -0.100165196
000360 0b a7 f8 bc ca 5a d3 3d 07 31 95 bd d8 f2 2a 3e
       -0.03035309 0.10320051 -0.07284742 0.166942
000370 f6 dd 8b be 0b a7 f8 3d b7 4c 18 3e 4b 38 6c 3e
       -0.2731778 0.12141236 0.14873014 0.23068349
000380 6e 34 87 3e 9b 1c 69 3e ca 5a d3 bd 8a c9 5f 3d
       0.26407188 0.22764818 -0.10320051 0.054635562
000390 07 31 95 bc 8a c9 5f be 5b 8b 75 be df be 96 be
       -0.018211855 -0.21854225 -0.23978941 -0.29442498
0003a0 98 61 37 be da ad 5c be fb 53 6f be 50 49 a6 be
       -0.17908323 -0.21550694 -0.2337188 -0.32477808
0003b0 c7 9f 21 be 57 15 12 be 88 0e ae 3c d8 f2 2a be
       -0.15783606 -0.14265953 0.021247163 -0.166942
0003c0 88 0e ae bc 4b 38 6c 3d 6c de 7e 3e 09 ec 46 bc
       -0.021247163 0.057670873 0.24889535 -0.012141236
0003d0 a9 b4 40 3e 17 84 1e be a6 f9 8e 3e 6c de fe 3d
       0.18818916 -0.15480076 0.27924842 0.12444767
0003e0 8a c9 df 3c be 18 84 be e8 45 b4 bd 48 7d 3a 3e
       0.027317781 -0.25800127 -0.08802396 0.18211854
0003f0 e6 8a 02 3e 09 ec c6 3b 8a c9 5f 3e a9 b4 40 be
       0.12748298 0.006070618 0.21854225 -0.18818916
