models/station_7/model_latest.onnx (onnx, 407614 bytes, 12 tensors)

W__631 f4 [1, 96, 64]
0.1875035 0.121793665 -0.057590507 0.051585402 -0.011036938 -0.17454535 -0.09718255 0.037629977
0.059523255 0.13010488 -0.053404752 0.18918072 0.19044457 -0.04413556 -0.06408756 -0.07896457
0.11244502 0.10903063 -0.16852717 0.21879803 0.1370103 0.0006628085 0.017687105 0.008958321
-0.023232458 0.09434796 0.048891366 0.10054734 -0.029591052 0.14208229 -0.0057572736 0.08753974
-0.08622332 -0.08900597 0.024901504 -0.13767023 0.21780343 -0.18509258 -0.056356598 0.093935676
-0.054293547 -0.0036881417 -0.039968003 0.0749215 -0.088763945 -0.08368446 -0.064947724 -0.17930233
0.025963655 0.054728206 -0.1974024 -0.18605095 0.21463196 -0.1376029 0.04146329 0.14123829
-0.03142927 0.118535794 0.140001 -0.19930942 -0.2142647 0.0960446 -0.10904952 -0.16384374
-0.12804778 -0.14639793 -0.23971543 -0.19671777 -0.1107855 0.15351589 -0.13025412 -0.17362346
0.21492828 -0.12832364 -0.057429764 -0.045411915 0.16640185 -0.03813821 -0.119284265 0.11620671
0.038979016 -0.14405859 -0.06934687 -0.08022999 -0.027060017 -0.04384862 -0.15433075 0.19929506
-0.1215623 0.1676126 0.12624854 -0.046784382 0.16263315 -0.20231621 0.11956206 -0.03921726
-0.023652848 0.114171006 0.15552059 -0.13043362 -0.15202105 0.026686026 0.1584872 -0.068624064
-0.07822528 0.046899892 -0.15225291 -0.21796027 -0.028537206 -0.030585613 0.040109735 0.077000156
0.07891203 0.031107645 -0.105123065 0.03897296 0.039217018 0.12684308 -0.006378723 0.06836177
0.11905453 -0.19745868 -0.12326062 0.10043524 -0.123584524 0.21601124 0.17440428 -0.04800527
-0.10667969 -0.20389402 0.11986803 -0.21425208 0.06687062 -0.034175757 -0.10900588 0.13652895
-0.13533685 0.23374619 0.035960156 0.050719783 -0.08771084 0.14155613 0.087861374 0.030909142
-0.06024583 0.20570797 -0.12938209 0.20256083 -0.17080155 -0.0136736045 -0.15527633 -0.12372017
-0.20096399 0.22305973 -0.15733695 0.038492516 0.05579732 -0.2284233 -0.05716676 -0.0117468005
0.09473181 0.120136224 0.13635378 -0.2454645 0.045387194 -0.0684242 0.21591562 -0.2129942
0.06803173 0.054507468 -0.059494726 0.08861531 -0.06704859 0.040399823 -0.12340684 -0.05934362
-0.097163044 -0.094715275 0.09936492 -0.2193233 0.06991382 -0.08220185 0.22433919 -0.03093945
-0.18977885 0.0979233 0.12204987 -0.052335735 0.13997927 0.23319338 0.10931269 0.1167182
-0.001437799 0.031475786 0.10154657 0.11287536 -0.1221873 -0.10957506 -0.08667046 0.06925401
0.03128242 -0.070996374 0.028494533 -0.079156026 0.011311222 -0.09918283 -0.059443478 0.16487528
-0.13233733 -0.06346456 0.2080164 0.04274377 0.15483288 0.23771626 -0.05988236 -0.0608821
0.012205544 -0.15039198 0.19481972 0.060817342 0.12610051 0.09523064 0.09772076 -0.033156335
0.119662024 -0.035684764 0.021479726 0.23809001 0.09790934 -0.019851102 -0.0016399395 -0.10344658
-0.14497751 0.16027205 0.010312722 -0.07018606 0.06642689 -0.014618508 0.053235494 -0.009763042
-0.11630797 0.041053917 0.019738892 -0.036552157 -0.042376816 -0.09634156 0.071491055 0.06470722
-0.027919441 0.18286929 -0.14641345 -0.031446557 0.16156913 -0.024792023 0.044131186 0.23908526
00000000: eb00 403e f56e f93d 06e4 6bbd 374b 533d
00000010: 46d4 34bc 04bc 32be a507 c7bd e421 1a3d
00000020: a8ce 733d 373a 053e f1be 5abd 97b8 413e
00000030: e703 433e 7dc7 34bd 5740 83bd 2db8 a1bd
00000040: 9349 e63d 734b df3d 6392 2cbe 970c 603e
00000050: 6e4c 0c3e 53c0 2d3a 8ce4 903c ecc5 123c
00000060: ff51 bebc 8139 c13d 5042 483d c4eb cd3d
00000070: ef68 f2bc 057e 113e 83a7 bcbb 0948 b33d
00000080: da95 b0bd c348 b6bd 3dfe cb3c 6df9 0cbe
00000090: dd07 5f3e e988 3dbe 2dd6 66bd 5961 c03d
000000a0: e962 5ebd c0b4 71bb 7db5 23bd 7270 993d
000000b0: dfc9 b5bd c262 abbd 5003 85bd 089b 37be
000000c0: bbb1 d43c af2a 603d db23 4abe 2484 3ebe
000000d0: 7bc8 5b3e c6e7 0cbe 69d5 293d c5a0 103e
000000e0: fabb 00bd e5c2 f23d 6c5c 0f3e c517 4cbe
000000f0: 3568 5bbe 08b3 c43d 5b55 dfbd a7c6 27be
00000100: f51e 03be 57e9 15be f677 75be 6270 49be
00000110: 82e3 e2bd 4533 1d3e 5661 05be 59ca 31be
00000120: 2916 5c3e 4667 03be 793b 6bbd d801 3abd
00000130: 3f65 2a3e d036 1cbd 4f4b f4bd c9fd ed3d
00000140: 76a8 1f3d 1884 13be bb05 8ebd 9f4f a4bd
00000150: f8ac ddbc 9c9a 33bd e108 1ebe 0114 4c3e
00000160: a8f5 f8bd a3a2 2b3e 4c47 013e fba0 3fbd
00000170: 4e89 263e fb2b 4fbe f4dc f43d 47a2 20bd
00000180: 9ec3 c1bc 7dd2 e93d ca40 1f3e 6490 05be
00000190: 68ab 1bbe a79c da3c 784a 223e c68a 8cbd
000001a0: 9334 a0bd 1a1a 403d 30e8 1bbe fa30 5fbe
000001b0: dcc6 e9bc ae8e fabc 1b4a 243d 42b2 9d3d
000001c0: a19c a13d 76d5 fe3c c34a d7bd 1ca2 1f3d
000001d0: 06a2 203d 27e3 013e 9b04 d1bb 4101 8c3d
000001e0: ddd2 f33d 9c32 4abe 1070 fcbd feb0 cd3d
000001f0: e219 fdbd 0d32 5d3e 0997 323e 2da1 44bd
00000200: e27a dabd 98c9 50be 5f7d f53d e664 5bbe
00000210: 77f3 883d e1fb 0bbd 7a3e dfbd 3fce 0b3e
00000220: be95 0abe 295b 6f3e f54a 133d 8cbf 4f3d
00000230: bea1 b3bd 17f4 103e aaf0 b33d 2b35 fd3c
00000240: 55c4 76bd 1ca5 523e bd7c 04be 1b6c 4f3e
00000250: 9ae6 2ebe 4107 60bc c200 1fbe 0061 fdbd
00000260: 81c9 4dbe c569 643e f01c 21be 54aa 1d3d
00000270: bb8b 643d cce7 69be b127 6abd a775 40bc
00000280: c002 c23d fb09 f63d 53a0 0b3e 0c5b 7bbe
00000290: ece7 393d fd21 8cbd fc18 5d3e 271b 5abe
000002a0: 3854 8b3d 3943 5f3d beb0 73bd f27b b53d
000002b0: c550 89bd 497a 253d babc fcbd 4c12 73bd
000002c0: 6bfd c6bd 15fa c1bd d67f cb3d 4a96 60be
000002d0: fa2e 8f3d 7259 a8bd 2cb9 653e bb74 fdbc
000002e0: 6355 42be 038c c83d 48f5 f93d ff5d 56bd
000002f0: ba56 0f3e 3fca 6e3e 55df df3d f409 ef3d
00000300: 8774 bcba c1ec 003d a6f7 cf3d 322b e73d
00000310: 563d fabd e468 e0bd 4880 b1bd 0cd5 8d3d
00000320: ff21 003d 8c66 91bd 5e6d e93c 8e1c a2bd
00000330: b452 393c 5e20 cbbd 017b 73bd 11d5 283e
00000340: 7083 07be b5f9 81bd 4002 553e 1714 2f3d
00000350: 838c 1e3e e46b 733e 3547 75bd 825f 79bd
00000360: c3f9 473c 5b00 1abe d27e 473e 9b1b 793d
00000370: 7e20 013e 4808 c33d d221 c83d f0ce 07bd
00000380: 5d11 f53d 302a 12bd 40f6 af3c decd 733e
00000390: b184 c83d c79e a2bc 3df3 d6ba cddb d3bd
000003a0: fc74 14be 5b1e 243e b1f6 283c b6bd 8fbd
000003b0: d20a 883d 7782 6fbc 760d 5a3d 2bf5 1fbc
000003c0: df32 eebd 2728 283d 75b3 a13c b7b7 15bd
000003d0: 5093 2dbd b94e c5bd e769 923d 3885 843d
000003e0: 50b7 e4bc 1642 3b3e 68ed 15be 1bce 00bd
000003f0: 6172 253e a418 cbbc e7c2 343d c4d2 743e

W__617 f4 [1, 192, 128]
0.03141386 0.035199136 -0.07622746 0.06308018 -0.0771592 -0.051686525 0.09205355 -0.08388216
-0.0754274 -0.08810025 -0.074055515 -0.06536246 0.080918245 -0.031048963 0.11698595 0.004514325
0.0556292 -0.0446999 0.0044360925 0.09082938 -0.10159268 -0.019369321 0.049709257 0.026685506
-0.10757352 0.06459976 0.10760106 -0.10065432 -0.049743608 -0.08997506 -0.08944394 0.051878937
-0.044289492 -0.0034913206 0.06746607 0.041593917 -0.04222502 -0.030233491 -0.08094556 -0.0054174215
0.0976727 0.07856185 0.12608713 0.06574339 -0.083005935 -0.095355555 0.03350521 -0.1010968
-0.06680773 -0.10228048 -0.0840174 0.12286839 0.03703593 0.10211065 -0.053329572 0.09804329
-0.0038838685 0.08917272 0.07310591 0.14167452 -0.017629817 0.07871831 0.11674628 -0.012131153
-0.11032694 0.0566271 -0.12949885 -0.07013566 -0.048220698 -0.03493448 0.08130817 -0.027807936
-0.057675533 -0.118485324 0.033083797 -0.056840017 -0.10954434 -0.08081658 0.11710415 0.088000916
0.12417889 0.025477594 -0.01866979 -0.01691967 -0.017790982 0.012588351 -0.03838262 -0.10238863
-0.038832266 0.078561716 -0.087954305 -0.08715453 0.04347964 0.06483551 0.0915283 -0.0349993
0.09724886 0.011967676 0.06694859 0.08501887 -0.019716179 -0.06623592 -0.032579243 0.107892975
-0.14085124 0.051318385 -0.04932262 -0.037434403 0.031072829 -0.050932124 -0.14740297 0.08645961
-0.08770164 -0.072484195 -0.097479664 0.11122759 0.14933582 -0.023592144 -0.11551082 0.12921019
-0.09796597 0.070117235 0.1035442 -0.08204814 -0.031257313 -0.02629312 0.10670558 0.05311307
0.05857824 0.016023982 -0.12086949 0.1330233 -0.086410195 -0.04521808 -0.029612524 -0.059660185
-0.08695955 0.015612494 -0.019383352 -0.010953653 -0.04295275 0.09393077 0.024965595 0.049002517
0.058432642 0.020148557 -0.07019652 -0.0021783728 0.020075694 -0.0625956 -0.075261354 -0.083559744
-0.07819165 0.08205304 0.0630351 -0.116897665 -0.044747796 0.017966984 -0.07762682 -0.1413819
-0.01701551 -0.14431606 0.10830531 0.044156626 -0.14757392 -0.04652204 0.08575527 0.01526096
-0.012672637 0.07247687 -0.11395677 0.026640723 0.10680448 -0.004846264 0.04400442 0.079964824
0.10881801 -0.06288168 0.043936014 0.007828664 0.145556 -0.04489712 -0.05543662 -0.06786429
-0.007060454 -0.12892185 0.09232619 -0.104583934 0.053294066 0.044537086 0.02137409 0.075287126
-0.10806288 0.06437571 -0.1456437 -0.051122572 0.13691257 -0.054735135 0.037078664 0.023792036
0.082302146 0.12721653 0.07798867 0.14446886 0.06116826 -0.043077487 -0.036246266 0.111449085
0.13295841 0.037529226 -0.070698775 -0.024196317 0.0983768 -0.1368601 -0.08934486 0.05864618
-0.0027309319 -0.113277934 0.039592143 -0.06863524 0.14746417 0.09971798 0.011885674 0.094551116
0.01089384 -0.08267632 0.083224855 -0.12062759 -0.11288813 0.06903754 0.093247876 0.037194334
-0.092886694 0.100374535 -0.1690362 0.10429344 0.025379067 0.101844855 -0.023296941 0.028429123
0.036257107 -0.08350533 -0.071136676 -0.046293344 0.122545995 0.025742043 0.11316404 -0.15011725
-0.01745447 0.015137881 -0.08390941 -0.028578784 -0.07891626 -0.12347377 0.10580867 -0.046013143
00000000: d2ab 003d f82c 103d 241d 9cbd 2e30 813d
00000010: a505 9ebd 40b5 53bd 9286 bc3d 69ca abbd
00000020: ae79 9abd e76d b4bd 6baa 97bd c1dc 85bd
00000030: 77b8 a53d 655a febc 5496 ef3d e7ec 933b
00000040: 72db 633d 3e17 37bd a45c 913b c104 ba3d
00000050: d30f d0bd 69ac 9ebc ef9b 4b3d 909b da3c
00000060: 814f dcbd e14c 843d f25d dc3d da23 cebd
00000070: f4bf 4bbd d844 b8bd 622e b7bd 027f 543d
00000080: e668 35bd a4ce 64bb a72b 8a3d 625e 2a3d
00000090: 24f4 2cbd 3aac f7bc c9c6 a5bd a084 b1bb
000000a0: a008 c83d 09e5 a03d fc1c 013e 78a4 863d
000000b0: 04ff a9bd c649 c3bd c23c 093d d70b cfbd
000000c0: 7ed2 88bd 6e78 d1bd 5111 acbd 6ca2 fb3d
000000d0: fdb2 173d 631f d13d 1c70 5abd ecca c83d
000000e0: 8088 7ebb 30a0 b63d 8db8 953d 2013 113e
000000f0: 686c 90bc 1137 a13d ac18 ef3d bec1 46bc
00000100: 17f3 e1bd d1f1 673d 599b 04be 49a3 8fbd
00000110: 1183 45bd 7517 0fbd e684 a63d 78cd e3bc
00000120: 2e3d 6cbd 6fa8 f2bd e082 073d 14d1 68bd
00000130: c858 e0bd 2a83 a5bd 4dd4 ef3d d339 b43d
00000140: 8051 fe3d 63b6 d03c 63f1 98bc 1f9b 8abc
00000150: 65be 91bc 5f3f 4e3c 1837 1dbd 21b1 d1bd
00000160: 950e 1fbd f7e4 a03d 6321 b4bd 137e b2bd
00000170: b517 323d 7bc8 843d 3073 bb3d 6d5b 0fbd
00000180: 692a c73d 1214 443c 581c 893d 601e ae3d
00000190: d383 a1bc b3a6 87bd d071 05bd fef6 dc3d
000001a0: 4f3b 10be 3a33 523d 8406 4abd d154 19bd
000001b0: 728c fe3c 349e 50bd cef0 16be bc11 b13d
000001c0: eb9c b3bd 9872 94bd 6ba3 c7bd 4acb e33d
000001d0: 7deb 183e 5044 c1bc f090 ecbd ad4f 043e
000001e0: 62a2 c8bd a099 8f3d fb0e d43d db08 a8bd
000001f0: ab07 00bd ab64 d7bc 7588 da3d 178d 593d
00000200: bdef 6f3d ba44 833c 6c8a f7bd 4337 083e
00000210: d4f7 b0bd 9836 39bd f795 f2bc 3d5e 74bd
00000220: d917 b2bd 8ccb 7f3c d6c9 9ebc f376 33bc
00000230: 39ef 2fbd c75e c03d a684 cc3c ddb6 483d
00000240: 1157 6f3d 960e a53c 31c3 8fbd 08c3 0ebb
00000250: c875 a43c 1f32 80bd a022 9abd 5f21 abbd
00000260: f222 a0bd 6d0b a83d 8c18 813d 0b68 efbd
00000270: 7749 37bd 7f2f 933c cffa 9ebd 6bc6 10be
00000280: 1c64 8bbc 97c7 13be 2dcf dd3d 94dd 343d
00000290: 9e1d 17be e58d 3ebd 76a0 af3d 1b09 7a3c
000002a0: e4a0 4fbc c16e 943d 2b62 e9bd a53d da3c
000002b0: 4fbc da3d 69cd 9ebb fb3d 343d 99c4 a33d
000002c0: fadb de3d 1cc8 80bd 40f6 333d cc43 003c
000002d0: a20c 153e 0be6 37bd 8211 63bd 6ffc 8abd
000002e0: 625b e7bb 1704 04be 8315 bd3d 1a30 d6bd
000002f0: e14a 5a3d 856c 363d b718 af3c 2330 9a3d
00000300: 1250 ddbd 6ad7 833d 9f23 15be e765 51bd
00000310: cf32 0c3e f331 60bd ccdf 173d 84e7 c23c
00000320: 078e a83d 0d45 023e 86b8 9f3d a5ef 133e
00000330: 928b 7a3d 0572 30bd f776 14bd 6b3f e43d
00000340: 4026 083e 3fb8 193d 85ca 90bd 5b37 c6bc
00000350: c779 c93d 0e25 0cbe 70fa b6bd fa36 703d
00000360: 6ff9 32bb 43fe e7bd 5f2b 223d a290 8cbd
00000370: d900 173e f138 cc3d 21bc 423c 04a4 c13d
00000380: 147c 323c 3452 a9bd cb71 aa3d 990b f7bd
00000390: e431 e7bd 8e63 8d3d bef8 be3d 1659 183d
000003a0: 613b bebd 2a91 cd3d d317 2dbe cd97 d53d
000003b0: c3e7 cf3c 0994 d03d 3ad9 bebc 31e4 e83c
000003c0: 5582 143d d804 abbd 1bb0 91bd 179e 3dbd
000003d0: 65f9 fa3d fae0 d23c 8cc2 e73d 56b8 19be
000003e0: adfc 8ebc e004 783c b2d8 abbd 0e1e eabc
000003f0: d99e a1bd d1df fcbd 37b2 d83d 4778 3cbd

W__604 f4 [1, 384, 6]
-0.009519225 -0.080741055 0.03448204 -0.13114858 0.014093978 0.08878725 -0.18837807 -0.017105088
0.033366673 0.012229107 0.027031528 -0.015433818 0.13173148 0.17294826 0.16702043 0.17760926
-0.06431836 -0.09598672 -0.08605272 -0.15465726 -0.07690954 -0.08350982 0.043667186 0.11147357
0.040147822 -0.0055270256 0.06761703 -0.04323052 0.073310606 -0.092986204 -0.018988952 -0.11235547
-0.08055584 0.022131626 -0.0622923 0.11959593 0.10182207 0.0670098 0.17164017 0.17379028
-0.012709572 -0.050192744 0.0009363007 0.032166794 0.01614636 0.009881357 -0.019663926 -0.08624583
-0.08508573 -0.0039031964 -0.061520446 -0.0560346 -0.10312353 0.07310004 0.14627731 -0.08273269
-0.15649067 -0.030464761 0.017461002 0.07177191 0.033483826 -0.09910816 0.10997191 0.1326515
0.005150946 0.022975635 -0.10487249 -0.012013785 -0.09052806 -0.121251546 -0.01044861 -0.008369406
-0.118628435 -0.0059607807 -0.13526426 -0.13764867 -0.12221964 0.101069644 0.015076831 0.024497768
-0.05915798 -0.009296409 0.00021871424 0.08728608 -0.01699295 0.008950941 -0.13186525 -0.15148115
0.0019276731 -0.06921199 0.11716091 0.16315152 0.048106078 0.16191815 0.07951711 0.095711365
0.012072768 -0.021248335 0.020073345 -0.009740613 0.13957246 -0.010922348 0.0021605375 -0.042278484
0.07110911 0.074328475 -0.065936804 0.112931676 0.0913915 -0.06424707 -0.03299558 -0.018099636
-0.023664055 0.09452561 -0.05148114 -0.0017110488 -0.09009162 0.022152994 -0.034349002 0.105905086
0.02694166 0.056301463 -0.039042756 0.10650742 -0.06743499 0.095887505 0.11406953 -0.07718069
0.042758565 0.13829195 0.06574497 -0.10963908 0.089545295 0.008754249 0.04004957 0.028053045
0.059201896 -0.0659408 0.0072634295 0.06204604 -0.11457167 -0.14405894 0.0066997884 0.012770557
0.058015447 0.016741289 -0.02856144 -0.028123582 0.006878012 -0.11479165 0.02085696 0.04044491
0.101096295 0.020997766 0.071771786 -0.119477585 0.071980566 -0.1666869 -0.092015095 0.06499466
0.121449895 0.06807061 0.04204034 -0.071831584 -0.13371126 -0.046954885 0.13054183 0.07932776
0.026256269 -0.14029351 -0.0471919 0.078630984 0.062901 -0.1068311 -0.06111668 -0.08312515
-0.12850952 0.029688248 -0.08907266 0.101458974 -0.09378954 0.06328394 -0.09681543 -0.034429457
-0.12233527 -0.10828607 -0.017895352 0.03462465 -0.080592446 -0.042564914 -0.05109535 -0.049066532
-0.059942316 -0.038691074 0.0065517514 0.123463005 0.0069502858 -0.11402005 0.08604716 0.013141897
0.13361514 0.1030638 0.09919081 0.04704312 0.059221044 -0.11815034 0.015230988 -0.018437639
-0.08110755 -0.0870678 0.06742723 0.100313365 -0.10085904 0.014820428 -0.04101478 -0.039135695
-0.1091848 0.0038436647 -0.110415734 -0.013850668 -0.08547274 0.10113639 -0.035918817 -0.113629654
0.053074524 -0.080908984 -0.017161315 0.05005412 0.09947445 -0.15808366 -0.07889861 0.018884176
-0.020847913 0.033416223 0.014120367 0.014630447 0.13600641 -0.07851911 -0.020142842 -0.103568695
0.024641225 0.009843612 0.047607653 0.15232287 0.057583503 -0.0052040573 -0.08320173 -0.09414553
-0.13961788 -0.07767079 -0.13680409 -0.036071092 -0.053874247 0.005996964 -0.15696043 -0.024023274
00000000: 86f6 1bbc 915b a5bd 0a3d 0d3d d04b 06be
00000010: 6eea 663c 17d6 b53d 2ee6 40be f81f 8cbc
00000020: 7eab 083d 985c 483c 3971 dd3c 20de 7cbc
00000030: 9ee4 063e 5919 313e 6707 2b3e 34df 353e
00000040: 58b9 83bd af94 c4bd 693c b0bd 795e 1ebe
00000050: c082 9dbd 3207 abbd 5ddc 323d 414c e43d
00000060: 0b72 243d 0d1c b5bb cc7a 8a3d 7c12 31bd
00000070: df23 963d 8d6f bebd b88e 9bbc a01a e6bd
00000080: 76fa a4bd 624d b53c 3626 7fbd b6ee f43d
00000090: 1788 d03d 6f3c 893d 71c2 2f3e 14f6 313e
000000a0: cf3b 50bc e896 4dbd 1472 753a 54c1 033d
000000b0: 5f45 843c 6ae5 213c 3e16 a1bc a7a1 b0bd
000000c0: 6d41 aebd c5cc 7fbb ddfc 7bbd 8984 65bd
000000d0: 6e32 d3bd 79b5 953d b8c9 153e c26f a9bd
000000e0: 173f 20be 3c91 f9bc 600a 8f3c 27fd 923d
000000f0: 5626 093d 38f9 cabd f438 e13d cbd5 073e
00000100: 44c9 a83b 6637 bc3c 63c7 d6bd 77d5 44bc
00000110: c766 b9bd bb52 f8bd a630 2bbc d51f 09bc
00000120: 77f3 f2bd a752 c3bb b782 0abe c6f3 0cbe
00000130: 4a4e fabd 9afd ce3d d004 773c 8baf c83c
00000140: a34f 72bd f74f 18bc a856 6539 0bc3 b23d
00000150: cd34 8bbc f8a6 123c af07 07be e01d 1bbe
00000160: faa9 fc3a 04bf 8dbd 0ff2 ef3d 3111 273e
00000170: e10a 453d dfcd 253e ded9 a23d 5204 c43d
00000180: dccc 453c fd10 aebc db70 a43c 1897 1fbc
00000190: 15ec 0e3e a6f3 32bc ce97 0d3b 342c 2dbd
000001a0: a7a1 913d 8739 983d e009 87bd b948 e73d
000001b0: 772b bb3d f893 83bd 6026 07bd b045 94bc
000001c0: 1fdb c1bc a596 c13d e3dd 52bd 4545 e0ba
000001d0: f581 b8bd 327a b53c 8ab1 0cbd c4e4 d83d
000001e0: c2b4 dc3c 5d9c 663d 4ceb 1fbd 9020 da3d
000001f0: 5b1b 8abd ab60 c43d 499d e93d e910 9ebd
00000200: 9b23 2f3d 689c 0d3e 4da5 863d 748a e0bd
00000210: 8663 b73d fb6d 0f3c 050b 243d 80cf e53c
00000220: b07d 723d f80b 87bd 1002 ee3b fd23 7e3d
00000230: 8da4 eabd 3084 13be e689 db3b 993b 513c
00000240: 9ba1 6d3d 0725 893c aef9 e9bc 6d63 e6bc
00000250: f260 e13b e217 ebbd 37dc aa3c 90a9 253d
00000260: 930b cf3d 8203 ac3c 16fd 923d aab0 f4bd
00000270: 8c6a 933d f9af 2abe 6972 bcbd ec1b 853d
00000280: b9ba f83d 9b68 8b3d 7e32 2c3d 701c 93bd
00000290: 9beb 08be c453 40bd c2ac 053e 9876 a23d
000002a0: 6317 d73c 1aa9 0fbe 4b4c 41bd 4809 a13d
000002b0: 3dd2 803d 44ca dabd 7c55 7abd 853d aabd
000002c0: 0098 03be c534 f33c ba6b b6bd b9c9 cf3d
000002d0: bb14 c0bd 039b 813d 2b47 c6bd e705 0dbd
000002e0: ea8a fabd 16c5 ddbd 4699 92bc 94d2 0d3d
000002f0: a70d a5bd 8c58 2ebd 5c49 51bd fdf9 48bd
00000300: 1386 75bd 887a 1ebd 13b0 d63b 2cda fc3d
00000310: 39bf e33b 5883 e9bd 7e39 b03d 1c51 573c
00000320: 68d2 083e 1d13 d33d 8d24 cb3d 49b0 403d
00000330: c491 723d cef8 f1bd 658b 793c 880a 97bc
00000340: b71b a6bd 9a50 b2bd 4a17 8a3d 1871 cd3d
00000350: 2f8f cebd 61d1 723c 1dff 27bd c04c 20bd
00000360: 489c dfbd fee5 7b3b a521 e2bd eaed 62bc
00000370: 550c afbd 9820 cf3d 9c1f 13bd aab6 e8bd
00000380: ac64 593d 9cb3 a5bd e395 8cbc 8d05 4d3d
00000390: 43b9 cb3d afe0 21be 9895 a1bd fdb2 9a3c
000003a0: 3ec9 aabc 73df 083d 1d59 673c 8bb4 6f3c
000003b0: 4445 0b3e a1ce a0bd 9a02 a5bc d31b d4bd
000003c0: 65dc c93c 1a47 213c 3e00 433d 87fa 1b3e
000003d0: aedc 6b3d cc86 aabb ab65 aabd 5fcf c0bd
000003e0: fdf7 0ebe dd11 9fbd 5f16 0cbe 48bf 13bd
000003f0: 3eab 5cbd 2e82 c43b 3cba 20be 75cc c4bc

R__632 f4 [1, 96, 32]
0.08474263 0.07607129 -0.121085994 -0.03616391 0.11234262 -0.07268819 0.034933973 0.16395223
0.023510916 -0.06287228 -0.07539051 -0.00860251 0.09373992 0.16044824 -0.13926388 0.07716023
-0.1890674 -0.053584762 0.11652628 -0.0058783987 -0.045810774 0.10304182 -0.0678885 0.074623495
0.16474453 -0.11144236 0.021552695 -0.031062527 0.06408591 0.10746673 0.1216629 -0.14400043
0.119602546 0.09339836 -0.19777972 0.0052271057 -0.02330908 0.14842254 -0.07403877 -0.070091166
-0.012752027 -0.10803459 0.019631425 0.090853326 -0.06885274 -0.12901095 0.012236235 0.0042211423
0.105497316 0.23327634 -0.03920668 -0.21743567 0.06662256 0.154034 -0.26327872 0.059216604
0.11674387 -0.011712396 0.18480043 -0.02495875 0.06316606 -0.022946436 0.033109967 0.061439913
-0.06938183 0.09864915 -0.028864555 -0.092801854 -0.034000807 0.032701753 -0.015404128 -0.03184595
0.011694847 -0.18937248 0.0784447 0.15509896 -0.093257904 -0.08022724 0.13767554 0.17053258
0.07029023 -0.083585404 -0.101831906 -0.047149368 -0.016752 -0.13880554 -0.06877812 -0.22893888
-0.050251056 0.053464115 0.15606068 0.1539077 0.095747106 0.008406665 0.033758268 0.11878298
0.083981976 0.04131535 0.28516674 0.0013120732 0.0056697377 -0.12886934 0.18418078 0.016850421
0.07186641 0.079760835 -0.12209225 -0.036053378 0.18060625 0.006972313 -0.020684535 -0.1502863
-0.123288326 0.06413575 -0.014681842 0.00942241 -0.010934196 -0.0767621 0.08011634 0.050494976
-0.11215248 0.12086057 0.07086918 -0.00052340754 -0.062235937 0.02312531 0.093006454 0.04612844
0.070709154 -0.03505482 -0.08807372 -0.054531217 -0.111102544 0.11023748 -0.044995483 -0.04219886
0.11432064 -0.038873013 0.03862897 -0.05554103 -0.14906958 0.012065338 0.129111 0.048869666
-0.035440776 0.00875501 -0.21225286 -0.24416648 0.06899514 -0.1744573 0.08193036 0.08083832
0.10680315 -0.117517024 -0.0861955 0.060993314 0.09734852 0.013837241 0.20487197 0.08841071
-0.028931165 -0.03642059 -0.19715916 0.106000304 0.08088039 0.024520947 0.035018563 -0.050823778
-0.026735047 -0.2051577 0.10564965 0.02441739 0.013428283 -0.004849738 0.09175169 -0.0044007716
-0.013406079 -0.058607407 -0.050943647 0.040414546 0.08725215 -0.20218915 -0.10842751 0.095170125
-0.04308775 -0.07736884 0.01913511 -0.04595578 0.07384604 -0.059677206 -0.091273725 0.13425006
0.023419704 0.18222944 -0.1840261 0.0061767343 0.058196146 -0.07880193 0.065945424 -0.046890706
0.19557476 0.023035128 0.055717178 -0.09691294 -0.23888981 -0.13953465 -0.20038263 0.020903029
-0.09817776 -0.12303203 -0.012059917 0.09211711 -0.03968697 0.06803433 0.1892213 0.15320116
0.0601734 0.05946862 0.18857746 0.11218963 0.09135084 0.1947116 -0.011409849 0.065325245
-0.062132288 -0.059183255 0.14196397 -0.10255562 -0.1102902 0.08165542 0.22109786 -0.007056712
-0.012261261 0.0020109685 0.020435251 0.09724777 0.06863099 -0.18123728 0.15087952 -0.22641073
-0.06402416 -0.04094866 -0.012575103 -0.08539289 -0.016830448 0.120086275 0.05417695 -0.16907984
0.0020263924 -0.106932625 0.054837063 -0.02589844 -0.07161052 -0.02102398 0.12653443 0.13914026
00000000: 8b8d ad3d 44cb 9b3d effb f7bd 9c20 14bd
00000010: e313 e63d 8cdd 94bd ed16 0f3d 18e3 273e
00000020: f799 c03c 2fc3 80bd 5766 9abd 8bf1 0cbc
00000030: b7fa bf3d 8b4c 243e 319b 0ebe 2f06 9e3d
00000040: e29a 41be b27b 5bbd 55a5 ee3d 959f c0bb
00000050: 14a4 3bbd 9707 d33d 2009 8bbd 34d4 983d
00000060: cab2 283e e43b e4bd 478f b03c d776 febc
00000070: 793f 833d 8417 dc3d 662a f93d d974 13be
00000080: 2ef2 f43d a447 bf3d c486 4abe 2448 ab3b
00000090: aff2 bebc 14fc 173e a3a1 97bd f58b 8fbd
000000a0: e1ed 50bc 3d41 ddbd 15d2 a03c 4f11 ba3d
000000b0: aa02 8dbd 721b 04be 7d7a 483c 8251 8a3b
000000c0: fa0e d83d fedf 6e3e 2f97 20bd 75a7 5ebe
000000d0: 6971 883d 17bb 1d3e 78cc 86be 1c8d 723d
000000e0: 6917 ef3d 59e5 3fbc 533c 3d3e 4b76 ccbc
000000f0: 355d 813d 2afa bbbc 519e 073d 6ba8 7b3d
00000100: 1018 8ebd 9108 ca3d 5c75 ecbc e60e bebd
00000110: 6e44 0bbd 46f2 053d 9861 7cbc e670 02bd
00000120: be9b 3f3c dcea 41be 9da7 a03d 43d2 1e3e
00000130: 00fe bebd 2e4e a4bd d1fa 0c3e 18a0 2e3e
00000140: 53f4 8f3d d32e abbd 3f8d d0bd b21f 41bd
00000150: 7e3b 89bc 0a23 0ebe 8bdb 8cbd f46e 6abe
00000160: 0dd4 4dbd 30fd 5a3d 5fce 1f3e fb99 1d3e
00000170: 0f17 c43d 1cbc 093c 1c46 0a3d 7e44 f33d
00000180: befe ab3d 493a 293d 6001 923e dff9 ab3a
00000190: 35c9 b93b 53f6 03be e399 3c3e e509 8a3c
000001a0: b22e 933d a659 a33d 800b fabd b5ac 13bd
000001b0: d8f0 383e 0078 e43b 9d72 a9bc a7e4 19be
000001c0: 977e fcbd 9b59 833d 1c8c 70bc 7460 1a3c
000001d0: 5825 33bc 7335 9dbd 0914 a43d d2d3 4e3d
000001e0: 33b0 e5bd bf85 f73d dc23 913d 4935 09ba
000001f0: 1ceb 7ebd 4a71 bd3c 2b7a be3d 2df1 3c3d
00000200: f6cf 903d a595 0fbd ff5f b4bd 205c 5fbd
00000210: bb89 e3bd 30c4 e13d 2f4d 38bd b6d8 2cbd
00000220: f120 ea3d 4f39 1fbd 6939 1e3d fe7e 63bd
00000230: b2a5 18be b2ad 453c ad35 043e 8f2b 483d
00000240: 592a 11bd 2c71 0f3c d058 59be c706 7abe
00000250: 534d 8d3d efa4 32be 1bcb a73d 908e a53d
00000260: 9cbb da3d c4ac f0bd 4487 b0bd 20d4 793d
00000270: a95e c73d 98b5 623c f5c9 513e ad10 b53d
00000280: 0d01 edbc c22d 15bd 17e4 49be b016 d93d
00000290: 9ea4 a53d 27e0 c83c a06f 0f3d 982c 50bd
000002a0: 7503 dbbc dc14 52be d85e d83d fa06 c83c
000002b0: 4d02 5c3c 8dea 9ebb 4fe8 bb3d 5934 90bb
000002c0: 2ca5 5bbc 520e 70bd 49aa 50bd b989 253d
000002d0: 41b1 b23d ac0a 4fbe 3e0f debd 8ee8 c23d
000002e0: c87c 30bd 8e73 9ebd 3cc1 9c3c 213c 3cbd
000002f0: 983c 973d 1670 74bd b8ed babd d978 093e
00000300: aeda bf3c 5b9a 3a3e 5771 3cbe 3466 ca3b
00000310: 155f 6e3d e862 a1bd 650e 873d 7810 40bd
00000320: c044 483e 2ab4 bc3c b237 643d 4b7a c6bd
00000330: 889f 74be 2ce2 0ebe 1b31 4dbe d43c ab3c
00000340: 6c11 c9bd 38f8 fbbd f596 45bc e5a7 bc3d
00000350: ce8e 22bd 9555 8b3d 3ac3 413e c4e0 1c3e
00000360: 6278 763d 5e95 733d 731a 413e adc3 e53d
00000370: 2616 bb3d 7a62 473e 60f0 3abc 3ec9 853d
00000380: 6d7e 7ebd 246a 72bd 015f 113e ae08 d2bd
00000390: d4df e1bd f53a a73d 7a67 623e fe3b e7bb
000003a0: 75e3 48bc 74ca 033b d467 a73c d729 c73d
000003b0: 688e 8c3d 4496 39be 2980 1a3e 37d8 67be
000003c0: 191f 83bd c8b9 27bd ce07 4ebc 78e2 aebd
000003d0: 02e0 89bc cbef f53d a6e8 5d3d 4423 2dbe
000003e0: 39cd 043b 7eff dabd d49c 603d f728 d4bc
000003f0: 89a8 92bd 7b3a acbc 3e92 013e c97a 0e3e

R__618 f4 [1, 192, 64]
0.08971733 0.054210123 -0.03721932 0.11130137 0.035651125 -0.027317049 0.013591124 -0.02442603
0.102120884 0.06832534 -0.10881009 -0.022954006 -0.023460137 0.07108059 -0.156997 -0.12284664
0.06716257 0.10074766 0.016914416 -0.034450617 -0.020054767 0.032546263 0.0777227 0.024624623
0.06035977 0.016806144 -0.037857283 -0.037171572 -0.005127528 -0.09690843 0.0064969263 -0.0026013893
0.032050442 -0.06351478 -0.011206258 0.027826447 0.028311733 0.06046691 0.030110857 0.07457079
-0.0778293 -0.18372281 0.023294078 -0.12914783 0.032692075 0.026922615 -0.13439512 0.046149027
0.037374057 0.03153848 -0.059837844 0.014325929 -0.016870249 -0.012462961 -0.019550076 0.017088117
0.050798584 0.031273313 0.12698802 -0.012868963 -0.051417667 0.036558263 -0.06103761 -0.029736323
0.04890694 -0.0507641 0.02708939 0.101049446 -0.021408988 0.077510424 0.10873479 -0.007484473
-0.004224678 0.06986865 -0.04101661 -0.21765564 0.013030529 0.047143027 -0.057535134 0.0040838863
-0.12501004 -0.06098502 0.07794386 0.06170752 0.07664099 0.07315876 -0.02603246 -0.09265727
-0.093526885 0.06458024 0.02805475 -0.07588855 -0.038815416 0.13197266 0.09284082 0.057734556
0.0060558114 -0.13899858 -0.08699703 -0.28507394 0.08148265 0.010056829 0.10840359 -0.0077998834
0.1220318 -0.10358793 -0.058774065 -0.09467818 -0.06799792 -0.11211604 0.04983472 -0.026201034
0.09520749 0.022038212 0.04316986 -0.08482229 0.05157322 -0.02255671 0.019040952 -0.10058811
-0.06992829 -0.0048476458 0.12057425 -0.053541817 -0.10846459 -0.00783356 0.028113918 0.08015923
-0.03603996 -0.11158512 0.053851668 -0.20082925 0.0709483 0.11067615 0.102602765 0.025290946
-0.07359751 -0.047638666 -0.05590261 -0.021810487 0.13444209 -0.13482922 -0.03915809 0.14963938
-0.010386881 -0.07231105 0.03706138 0.059239756 0.030844724 0.10044518 -0.15908778 -0.016690973
-0.04329995 0.018175624 0.07205056 0.0503985 0.09346266 0.056949995 0.10192682 -0.02891287
-0.11579921 -0.10060777 0.070751816 0.11143483 0.11799054 0.04001329 0.027399119 -0.095653504
0.05473927 -0.09663368 -0.012258325 -0.046893872 -0.030757677 -0.05994667 -0.13976513 -0.038796544
-0.07824856 -0.013732305 -0.052476324 -0.13628578 0.028586894 0.027699357 0.11996784 0.13061066
-0.05639715 -0.08306174 0.07493398 -0.1053129 0.054391354 -0.10496034 0.021011565 -0.021834902
-0.0029451258 0.11520982 0.09958077 0.0890857 -0.102760054 -0.05767369 -0.092099085 0.14363179
0.053573392 -0.09448946 0.006278631 -0.03799257 -0.038255215 -0.05656063 0.07062192 -0.07168189
-0.012161742 -0.012633049 0.17810117 -0.029874822 0.055362504 0.1016379 0.17051391 -0.045509357
-0.005856195 0.15181701 0.0002261223 -0.055322982 -0.13596168 0.053304326 0.0643285 0.16424423
0.008186268 0.08154793 -0.15496066 0.033831038 0.13452557 -0.07872484 -0.10462887 0.0002773693
0.0061006383 0.17233156 0.04489733 0.117974006 -0.079427615 -0.084259436 -0.11750051 -0.07660024
-0.031852335 0.003216114 0.12952766 0.03500622 0.05465495 -0.0402155 -0.03394447 -0.04031328
0.024497816 0.120465234 0.11996967 0.09698478 0.02408189 -0.038659967 -0.043680236 0.010363971
00000000: b8bd b73d 6f0b 5e3d 4973 18bd f9f1 e33d
00000010: ea06 123d 01c8 dfbc 4ead 5e3c 1919 c8bc
00000020: c124 d13d 28ee 8b3d d3d7 debd 0a0a bcbc
00000030: 792f c0bc b392 913d d2c3 20be 0597 fbbd
00000040: 888c 893d ca54 ce3d 1a90 8a3c 171c 0dbd
00000050: e549 a4bc 3b4f 053d 142d 9f3d 94b9 c93c
00000060: ce3b 773d 0aad 893c 3d10 1bbd 3841 18bd
00000070: d304 a8bb ed77 c6bd 2be4 d43b 127c 2abb
00000080: 5347 033d 0914 82bd 749a 37bc 4af4 e33c
00000090: 02ee e73c 27ac 773d 0bab f63c 92b8 983d
000000a0: f864 9fbd d521 3cbe 39d3 be3c 543f 04be
000000b0: 20e8 053d d18c dc3c e09e 09be c306 3d3d
000000c0: 8a15 193d 7e2e 013d 8718 75bd 4db7 6a3c
000000d0: 7a33 8abc 7231 4cbc 7b27 a0bc 61fc 8b3c
000000e0: 2d12 503d 7218 003d 2609 023e 58d8 52bc
000000f0: 559b 52bd 1ebe 153d 9302 7abd 9799 f3bc
00000100: a552 483d 04ee 4fbd 92ea dd3c 03f3 ce3d
00000110: e761 afbc c9bd 9e3d 58b0 de3d 4f40 f5bb
00000120: 2b6f 8abb 4b17 8f3d 0801 28bd 1fe1 5ebe
00000130: 007e 553c 0c19 413d f6a9 6bbd 1fd2 853b
00000140: a202 00be 6ecb 79bd 08a1 9f3d 06c1 7c3d
00000150: f4f5 9c3d 43d4 953d 0742 d5bc 18c3 bdbd
00000160: 068b bfbd a542 843d 13d3 e53c 756b 9bbd
00000170: eafc 1ebd d723 073e 5423 be3d 127b 6c3d
00000180: d46f c63b a555 0ebe 802b b2bd 36f5 91be
00000190: 60e0 a63d 66c5 243c b402 de3d 2a96 ffbb
000001a0: cfeb f93d e925 d4bd 13bd 70bd a2e6 c1bd
000001b0: 7e42 8bbd 189d e5bd 7e1f 4c3d 8da3 d6bc
000001c0: 25fc c23d 7b89 b43c e1d2 303d 4fb7 adbd
000001d0: 713e 533d d9c8 b8bc c5fb 9b3c 2401 cebd
000001e0: 9036 8fbd 00d9 9ebb a2ef f63d aa4e 5bbd
000001f0: af22 debd 5558 00bc 294f e63c 862a a43d
00000200: a39e 13bd bd86 e4bd 9193 5c3d 2fa6 4dbe
00000210: 584d 913d 2daa e23d 6621 d23d f52e cf3c
00000220: 4bba 96bd c320 43bd 23fa 64bd e8ab b2bc
00000230: 30ab 093e ac10 0abe 3c64 20bd 113b 193e
00000240: bd2d 2abc d117 94bd accd 173d 63a5 723d
00000250: 13ae fc3c 34b6 cd3d e8e7 22be 82bb 88bc
00000260: 4a5b 31bd 0ce5 943c 3e8f 933d a86e 4e3d
00000270: 5a69 bf3d 6644 693d 02bf d03d afda ecbc
00000280: 2328 edbd 720b cebd 54e6 903d f237 e43d
00000290: 06a5 f13d fae4 233d 1e74 e03c fce5 c3bd
000002a0: 4936 603d e1e7 c5bd 24d7 48bc ca13 40bd
000002b0: 86f7 fbbc a48a 75bd 971e 0fbe 20e9 1ebd
000002c0: c840 a0bd 76fd 60bc 6af1 56bd 808e 0bbe
000002d0: 102f ea3c c3e9 e23c b3b1 f53d cdbe 053e
000002e0: b300 67bd 461c aabd fd76 993d 4aae d7bd
000002f0: 78c9 5e3d 72f5 d6bd 7220 ac3c 1cdf b2bc
00000300: 0303 41bb 20f3 eb3d 01f1 cb3d 9072 b63d
00000310: dd73 d2bd 3f3b 6cbd 729e bcbd 3614 133e
00000320: c66f 5b3d b183 c1bd f9bc cd3b 199e 1bbd
00000330: 80b1 1cbd 1fac 67bd 3aa2 903d f4cd 92bd
00000340: 0b42 47bc d9fa 4ebc 2760 363e 0bbc f4bc
00000350: cbc3 623d 8827 d03d 339b 2e3e 0568 3abd
00000360: 53e5 bfbb eb75 1b3e 3e1b 6d39 5a9a 62bd
00000370: 8a39 0bbe a355 5a3d a9be 833d a42f 283e
00000380: b21f 063c 9a02 a73d 02ae 1ebe 6a92 0a3d
00000390: 12c1 093e 7d3a a1bd a947 d6bd e16b 9139
000003a0: dde7 c73b af77 303e 43e6 373d 5b9c f13d
000003b0: f2aa a2bd 3690 acbd 1ba4 f0bd 96e0 9cbd
000003c0: 9877 02bd 70c5 523b e6a2 043e af62 0f3d
000003d0: dedd 5f3d 02b9 24bd 5b09 0bbd 8a1f 25bd
000003e0: a5af c83c 7ab6 f63d a9b2 f53d f59f c63d
000003f0: 6247 c53c ea59 1ebd 0cea 32bd a5cd 293c

R__605 f4 [1, 384, 128]
0.107862726 -0.0063554617 -0.056794804 0.0021222762 -0.0037122036 0.0020738759 0.09650991 0.021886678
-0.01701709 -0.15057403 0.061338942 -0.043865032 0.010316044 -0.0201592 -0.078794725 0.029964175
0.024644764 -0.026541758 0.016318398 0.087068774 0.0046970015 -0.069821924 -0.066064924 0.004325541
-0.068932675 0.02403641 0.109353 -0.05824713 -0.09927762 -0.005030253 -0.018902296 -0.081322946
-0.09478098 0.042904552 -0.043116506 0.099135175 0.0919144 0.15973982 0.035694737 0.008594899
-0.030637909 -0.14386772 0.03743815 0.08494322 -0.08421268 -0.026635546 -0.0045585763 -0.062247775
-0.021608919 0.082474306 0.07407527 -5.4724347e-05 0.05819289 -0.035971563 -0.03450336 0.035797276
-0.04267749 -0.025341107 0.018728117 -0.045787387 -0.14520748 0.02368777 -0.011685962 0.09657686
-0.05902838 -0.040096756 0.0023345414 -0.097960226 -0.03367514 0.08929308 -0.015479931 -0.014779337
0.0038105831 -0.050404787 -0.10630277 -0.020023735 0.014063967 -0.015547332 0.06072143 -0.030236343
-0.018172884 -0.01682865 -0.010103867 0.039852418 0.0776303 0.063155904 0.13175955 0.07786954
-0.024150927 -0.052794784 0.00036076107 -0.03382972 0.09966503 -0.096856296 -0.016126618 0.13387758
-0.04230674 -0.05475717 0.094848864 0.002570975 0.06954466 0.08440753 -0.02261998 -0.07792298
-0.0056115827 0.032232635 -0.008852678 0.03210155 -0.06322623 0.048461825 0.030245775 -0.03682706
0.0053856047 0.04769779 0.10057487 0.08474406 -0.013105874 0.10457989 0.021901693 -0.0038120355
-0.10150537 0.03857353 -0.046209805 -0.034941953 0.010489571 -0.15216118 0.024333403 0.0680076
0.100259334 -0.04174761 -0.13007237 0.028557243 -0.045673624 0.0016737051 0.026951857 -0.010347861
0.016138045 0.057751313 0.057797592 -0.049366843 0.011553364 0.0012098406 0.06962838 0.002908025
-0.038304955 0.0033112215 0.064684235 0.048827976 0.024263276 0.01953165 0.006493752 -0.013776701
-0.02386963 -0.07486086 0.10621834 0.042283606 0.03687496 0.04093496 -0.03164074 -0.009451905
0.01467448 0.053491194 -0.08223409 -0.01962041 0.025909394 0.122078426 0.029725118 -0.06028689
-0.042018004 -0.049099 -0.042808667 0.017940361 -0.018483536 0.022235142 -0.010624426 -0.07866473
-0.14336964 0.003739603 -0.039134633 -0.037442263 0.044048645 0.068153016 -0.10094653 0.0973269
0.025676563 -0.03246486 -0.08401385 -0.042537063 -0.062237233 0.08048689 0.05097592 -0.02102771
-0.039528277 0.025302282 -0.034010734 -0.08545755 0.00093137653 0.04203085 -0.06909081 -0.06694624
-0.059056845 -0.0676639 0.017773502 0.060618963 0.01512894 -0.011615727 -0.061064593 -0.022344284
-0.092926264 -0.015482999 -0.01370362 -0.06472653 -0.029949585 0.0068902834 0.02025169 0.062292386
-0.01096421 -0.023467796 -0.015217403 -0.12306228 0.014515545 -0.0004570934 0.043705575 -0.051683195
0.005272391 0.045046773 0.069630325 -0.051330373 0.045286544 0.096852794 -0.03256525 -0.08824541
0.06407638 -0.04226531 -0.02188065 -0.025189813 -0.066310845 -0.025051754 -0.019955434 -0.030423546
-0.060770705 0.102527075 -0.012574155 0.08890454 -0.052956812 0.016700756 -0.010327387 0.03435507
-0.0040235575 0.026143668 -0.04055982 -0.028377868 0.054210685 -0.08849491 0.021149518 -0.049122885
00000000: 22e7 dc3d 7a41 d0bb aba1 68bd e315 0b3b
00000010: 7148 73bb dde9 073b fda6 c53d b14b b33c
00000020: 6d67 8bbc 1430 1abe 8b3e 7b3d d2ab 33bd
00000030: a004 293c e824 a5bc 215f a1bd 6e77 f53c
00000040: d1e3 c93c 1a6e d9bc 29ae 853c 1d51 b23d
00000050: 4ee9 993b ccfe 8ebd 0c4d 87bd 45bd 8d3b
00000060: 932c 8dbd 01e8 c43c 77f4 df3d 8b94 6ebd
00000070: 1152 cbbd d2d4 a4bb fdd8 9abc a58c a6bd
00000080: 881c c2bd afbc 2f3d ef9a 30bd 6207 cb3d
00000090: 9e3d bc3d d692 233e a534 123d 9fd1 0c3c
000000a0: 5afc fabc 0f52 13be bf58 193d b6f6 ad3d
000000b0: b377 acbd ca32 dabc 1c60 95bb 86f7 7ebd
000000c0: 3005 b1bc 4ae8 a83d c6b4 973d d287 65b8
000000d0: ab5b 6e3d eb56 13bd 6553 0dbd 2aa0 123d
000000e0: 97ce 2ebd 2798 cfbc b56b 993c 8e8b 3bbd
000000f0: 45b1 14be db0c c23c 7a76 3fbc 17ca c53d
00000100: bec7 71bd 7f3c 24bd 1bff 183b 5f9f c8bd
00000110: f2ee 09bd 4adf b63d 899f 7dbc 0825 72bc
00000120: faba 793b 4075 4ebd 44b5 d9bd d108 a4bc
00000130: 8e6c 663c 3dba 7ebc 09b7 783d 35b2 f7bc
00000140: 4ddf 94bc 3ddc 89bc b18a 25bc 4a3c 233d
00000150: a2fc 9e3d e257 813d faeb 063e 117a 9f3d
00000160: 2ad8 c5bc 583f 58bd 8824 bd39 0891 0abd
00000170: 2e1d cc3d 985c c6bd f81b 84bc 3417 093e
00000180: d549 2dbd 0e49 60bd 1f40 c23d ce7d 283b
00000190: 6e6d 8e3d dbdd ac3d 894d b9bc 1596 9fbd
000001a0: 5ee1 b7bb 5e06 043d d30a 11bc ea7c 033d
000001b0: c17c 81bd e87f 463d fdc5 f73c f9d7 16bd
000001c0: ba79 b03b c25e 433d 33fa cd3d 4b8e ad3d
000001d0: 05ba 56bc fb2d d63d 2e6b b33c 58d3 79bb
000001e0: 0ce2 cfbd 47ff 1d3d 7e46 3dbd 4b1f 0fbd
000001f0: 73dc 2b3c 24d0 1bbe d856 c73c 9247 8b3d
00000200: c454 cd3d 8bff 2abd b131 05be e1f0 e93c
00000210: 4414 3bbd 3960 db3a 24ca dc3c 138a 29bc
00000220: ef33 843c a48c 6c3d 2bbd 6c3d e334 4abd
00000230: 524a 3d3c 8493 9e3a 5399 8e3d 9094 3e3b
00000240: a8e5 1cbd 1401 593b 2b79 843d d8ff 473d
00000250: c7c3 c63c d700 a03c 8ac9 d43b acb7 61bc
00000260: 3e8a c3bc a750 99bd 0089 d93d 9331 2d3d
00000270: 330a 173d 6bab 273d b899 01bd 2adc 1abc
00000280: 3b6d 703c 9519 5b3d 596a a8bd fbba a0bc
00000290: f03f d43c 4104 fa3d 1782 f33c 63ef 76bd
000002a0: 121b 2cbd 081c 49bd 2458 2fbd aaf7 923c
000002b0: c96a 97bc 7926 b63c 1312 2ebc f91a a1bd
000002c0: 7ecf 12be 2114 753b a34b 20bd 0f5d 19bd
000002d0: 5a6c 343d cf93 8b3d 0ebd cebd 5353 c73d
000002e0: a857 d23c dff9 04bd 740f acbd 583b 2ebd
000002f0: 78ec 7ebd 50d6 a43d 20cc 503d 4e42 acbc
00000300: 67e8 21bd bb46 cf3c d74e 0bbd 5e04 afbd
00000310: 9f27 743a 8a28 2c3d 7c7f 8dbd 1c1b 89bd
00000320: 97e5 71bd 5f93 8abd bc99 913c 974b 783d
00000330: 60df 773c e44f 3ebc de1e 7abd 5c0b b7bc
00000340: 2050 bebd 68ac 7dbc 2685 60bc 588f 84bd
00000350: d558 f5bc e3c7 e13b dfe6 a53c 4d26 7f3d
00000360: 3ba3 33bc 893f c0bc 6a52 79bc 1408 fcbd
00000370: 9cd2 6d3c 0aa6 efb9 9e04 333d c2b1 53bd
00000380: 05c4 ac3b f782 383d 589a 8e3d cc3f 52bd
00000390: 627e 393d c25a c63d 2463 05bd 02ba b4bd
000003a0: 7a3a 833d 641e 2dbd 0d3f b3bc de5a cebc
000003b0: fbcd 87bd 5639 cdbc 9479 a3bc cd3a f9bc
000003c0: b4ea 78bd b7f9 d13d d403 4ebc 9513 b63d
000003d0: 3ee9 58bd 06d0 883c 3334 29bc e7b7 0c3d
000003e0: 0cd8 83bb 3f2b d63c 0e22 26bd b478 e8bc
000003f0: 060c 5e3d d23c b5bd c141 ad3c 1435 49bd

GRU/quant_dense_9/LastValueQuant/FakeQuantWithMinMaxVars__593 f4 [32, 1]
-0.0908064 0.3464096 -0.3934944 -0.3968576 -0.3060512 -0.1479808 0.2623296 0.016816
0.117712 -0.0807168 -0.4237632 -0.3430464 0.2421504 0.0437216 -0.4271264 0.3464096
-0.2892352 -0.3497728 -0.3564992 0.2656928 -0.0908064 -0.302688 -0.3800416 -0.1883392
0.0706272 -0.1647968 -0.0605376 -0.0807168 0.1647968 -0.2488768 -0.2085184 0.0773536
00000000: b5f8 b9bd 995c b13e 1978 c9be eb30 cbbe
00000010: beb2 9cbe 4788 17be 1150 863e b5c1 893c
00000020: fd12 f13d da4e a5bd 7df7 d8be c7a3 afbe
00000030: 46f6 773e 6c15 333d 50b0 dabe 995c b13e
00000040: a316 94be 6c15 b3be 1087 b6be e308 883e
00000050: b5f8 b9bd ecf9 9abe d094 c2be fedb 40be
00000060: fea4 903d 7ec0 28be 46f6 77bd da4e a5bd
00000070: 7ec0 283e 8fd9 7ebe d985 55be 906b 9e3d

GRU/quant_dense_8/LastValueQuant/FakeQuantWithMinMaxVars__592 f4 [32, 32]
-0.1346769 -0.041899484 -0.35614562 -0.17059076 0.11971281 -0.1316841 -0.050877944 0.1466482
-0.17657639 0.11671999 -0.15263383 -0.22446151 -0.08080614 -0.10474871 -0.035913844 -0.2214687
-0.35315278 -0.14365537 0.2843179 0.2783323 -0.27234665 0.26037535 0.0029928202 0.1466482
-0.0748205 0.10774153 0.21548305 -0.2813251 0.014964101 0.0748205 0.08379897 -0.15562665
-0.33519587 0.20949742 -0.20351177 -0.30526766 -0.2843179 0.19752614 -0.14365537 -0.15263383
0.36213124 -0.047885124 -0.044892304 0.06584205 -0.14365537 0.20351177 0.06584205 -0.16161229
0.017956922 0.10175589 0.24241844 0.20351177 -0.19752614 0.16161229 -0.22745433 0.008978461
-0.24541126 -0.22446151 0.017956922 -0.35614562 0.059856404 0.16759793 -0.050877944 -0.10474871
-0.050877944 0.1466482 0.16161229 -0.17657639 0.35614562 -0.16161229 -0.029928202 0.21847588
-0.18555485 -0.10774153 0.0 -0.09277742 -0.22446151 -0.020949742 0.08379897 0.24241844
0.21249023 -0.22745433 -0.014964101 0.20949742 0.11073435 -0.047885124 -0.07781333 -0.2065046
0.20351177 0.1915405 0.23343998 -0.21847588 0.11073435 0.24541126 0.10175589 0.11971281
0.22745433 0.16460511 0.33220303 0.2843179 0.2633682 -0.038906664 -0.3262174 0.22446151
-0.3262174 0.2214687 -0.06284922 -0.10474871 -0.11372717 -0.1346769 0.2932964 0.21249023
0.31723896 0.29030356 0.08679178 -0.2065046 -0.20051895 -0.24241844 0.014964101 0.07781333
0.11971281 0.038906664 0.36213124 -0.11372717 0.08379897 0.38008818 0.30826047 0.059856404
0.20949742 -0.21847588 -0.32921022 -0.06883486 -0.2962892 -0.08679178 -0.07182769 -0.08978461
0.16161229 -0.2633682 0.149641 -0.16759793 0.026935382 0.34118152 0.041899484 -0.09577025
-0.11671999 -0.0059856405 0.20949742 -0.17059076 -0.2513969 -0.34716713 -0.2065046 -0.23343998
0.2843179 -0.15263383 0.11073435 -0.34716713 0.08379897 -0.1316841 0.08978461 0.08080614
0.08080614 -0.20051895 -0.12270563 0.17358357 -0.2813251 0.12569845 0.16161229 -0.21847588
0.12569845 -0.06284922 -0.0748205 -0.20949742 0.2962892 0.18256204 -0.24840409 0.3711097
-0.34716713 -0.2633682 -0.16161229 0.032921024 -0.22446151 -0.08679178 -0.30227485 -0.17657639
-0.16759793 0.11671999 -0.2932964 -0.08679178 0.35315278 -0.149641 -0.17657639 0.11671999
0.09277742 0.17956921 0.08978461 0.11671999 -0.10474871 0.22446151 -0.30526766 -0.35015997
-0.020949742 0.26037535 -0.017956922 -0.27234665 -0.30826047 0.16759793 -0.1915405 -0.24241844
-0.08379897 -0.08379897 -0.15263383 -0.17059076 -0.026935382 0.33220303 -0.2962892 -0.23643279
-0.27234665 -0.14066255 -0.032921024 0.2843179 0.23942561 0.0748205 -0.21548305 -0.09876307
-0.020949742 -0.0748205 -0.31723896 0.26037535 0.21249023 -0.07781333 0.08080614 0.10175589
0.11372717 -0.21249023 0.047885124 0.17059076 0.15263383 0.32322457 -0.21548305 -0.17059076
-0.24541126 -0.10175589 0.10175589 -0.25738254 -0.023942562 -0.21847588 -0.13766973 -0.035913844
-0.12869127 0.026935382 -0.23942561 0.10474871 -0.15861948 0.2633682 0.10774153 0.0059856405
00000000: bee8 09be cb9e 2bbd b858 b6be 58af 2ebe
00000010: fd2b f53d 32d8 06be 6465 50bd f22a 163e
00000020: 71d0 34be e40a ef3d 0b4c 1cbe 3dd9 65be
00000030: b17d a5bd 7e86 d6bd 651a 13bd b1c8 62be
00000040: 71d0 b4be 651a 13be 1e92 913e 9281 8e3e
00000050: 0571 8bbe eb4f 853e 3123 443b f22a 163e
00000060: 7e3b 99bd 97a7 dc3d 97a7 5c3e d809 90be
00000070: fd2b 753c 7e3b 993d cb9e ab3d 985c 1fbe
00000080: cb9e abbe 7e86 563e 6465 50be 0b4c 9cbe
00000090: 1e92 91be 4b44 4a3e 651a 13be 0b4c 1cbe
000000a0: 4469 b93e 3123 44bd fee0 37bd 32d8 863d
000000b0: 651a 13be 6465 503e 32d8 863d b17d 25be
000000c0: 651a 933c 6465 d03d 8a3c 783e 6465 503e
000000d0: 4b44 4abe b17d 253e cae9 68be 651a 133c
000000e0: 174d 7bbe 3dd9 65be 651a 933c b858 b6be
000000f0: fd2b 753d cb9e 2b3e 6465 50bd 7e86 d6bd
00000100: 6465 50bd f22a 163e b17d 253e 71d0 34be
00000110: b858 b63e b17d 25be fd2b f5bc 24b8 5f3e
00000120: 1702 3ebe 97a7 dcbd 0000 0000 1702 bebd
00000130: 3dd9 65be cb9e abbc cb9e ab3d 8a3c 783e
00000140: 0a97 593e cae9 68be fd2b 75bc 7e86 563e
00000150: b1c8 e23d 3123 44bd 985c 9fbd f175 53be
00000160: 6465 503e 3123 443e e40a 6f3e 24b8 5fbe
00000170: b1c8 e23d 174d 7b3e 6465 d03d fd2b f53d
00000180: cae9 683e 3e8e 283e 8416 aa3e 1e92 913e
00000190: 32d8 863e 985c 1fbd f805 a7be 3dd9 653e
000001a0: f805 a7be b1c8 623e 18b7 80bd 7e86 d6bd
000001b0: cae9 e8bd bee8 09be f22a 963e 0a97 593e
000001c0: 256d a23e aba2 943e e4bf b13d f175 53be
000001d0: d754 4dbe 8a3c 78be fd2b 753c 985c 9f3d
000001e0: fd2b f53d 985c 1f3d 4469 b93e cae9 e8bd
000001f0: cb9e ab3d eb9a c23e 51d4 9d3e fd2b 753d
00000200: 7e86 563e 24b8 5fbe 3e8e a8be 4bf9 8cbd
00000210: 38b3 97be e4bf b1bd 651a 93bd fee0 b7bd
00000220: b17d 253e 32d8 86be 7e3b 193e cb9e 2bbe
00000230: 97a7 dc3c 58af ae3e cb9e 2b3d 3123 c4bd
00000240: e40a efbd 3123 c4bb 7e86 563e 58af 2ebe
00000250: 18b7 80be e4bf b1be f175 53be e40a 6fbe
00000260: 1e92 913e 0b4c 1cbe b1c8 e23d e4bf b1be
00000270: cb9e ab3d 32d8 06be fee0 b73d b17d a53d
00000280: b17d a53d d754 4dbe 174d fbbd e4bf 313e
00000290: d809 90be 18b7 003e b17d 253e 24b8 5fbe
000002a0: 18b7 003e 18b7 80bd 7e3b 99bd 7e86 56be
000002b0: 38b3 973e 8bf1 3a3e a45d 7ebe 1702 be3e
000002c0: e4bf b1be 32d8 86be b17d 25be 32d8 063d
000002d0: 3dd9 65be e4bf b1bd c5c3 9abe 71d0 34be
000002e0: cb9e 2bbe e40a ef3d f22a 96be e4bf b1bd
000002f0: 71d0 b43e 7e3b 19be 71d0 34be e40a ef3d
00000300: 1702 be3d fee0 373e fee0 b73d e40a ef3d
00000310: 7e86 d6bd 3dd9 653e 0b4c 9cbe 2b48 b3be
00000320: cb9e abbc eb4f 853e 651a 93bc 0571 8bbe
00000330: 51d4 9dbe cb9e 2b3e 3123 44be 8a3c 78be
00000340: cb9e abbd cb9e abbd 0b4c 1cbe 58af 2ebe
00000350: 97a7 dcbc 8416 aa3e 38b3 97be 701b 72be
00000360: 0571 8bbe d809 10be 32d8 06bd 1e92 913e
00000370: fd2b 753e 7e3b 993d 97a7 5cbe 4b44 cabd
00000380: cb9e abbc 7e3b 99bd 256d a2be eb4f 853e
00000390: 0a97 593e 985c 9fbd b17d a53d 6465 d03d
000003a0: cae9 e83d 0a97 59be 3123 443d 58af 2e3e
000003b0: 0b4c 1c3e b17d a53e 97a7 5cbe 58af 2ebe
000003c0: 174d 7bbe 6465 d0bd 6465 d03d a5c7 83be
000003d0: 3123 c4bc 24b8 5fbe 4bf9 0cbe 651a 13bd
000003e0: a5c7 03be 97a7 dc3c fd2b 75be 7e86 d63d
000003f0: 256d 22be 32d8 863e 97a7 dc3d 3123 c43b

GRU/quant_dense_8/BiasAdd/ReadVariableOp:0 f4 [32]
0.05057 -0.042898394 0.04655911 0.0 0.055583 -0.059970558 -0.046104815 -0.055576544
-0.043002088 0.05555576 -0.0600131 -0.054531053 -0.05558528 -0.047251534 0.05550746 -0.042898394
0.055585157 0.055582948 0.0 -0.042917505 0.055562563 -0.05263519 0.0 0.0
-0.055581823 0.040949523 0.040016666 0.055556256 -0.042961016 -0.04404444 -0.051976617 0.04095773
00000000: 7d22 4f3d 3ab6 2fbd c4b4 3e3d 0000 0000
00000010: 00ab 633d b0a3 75bd 67d8 3cbd 3ba4 63bd
00000020: f522 30bd 708e 633d 4cd0 75bd f45b 5fbd
00000030: 64ad 63bd d38a 41bd ca5b 633d 3ab6 2fbd
00000040: 43ad 633d f2aa 633d 0000 0000 44ca 2fbd
00000050: 9295 633d ff97 57bd 0000 0000 0000 0000
00000060: c4a9 63bd b0ba 273d 84e8 233d f58e 633d
00000070: e4f7 2fbd f167 34bd 6fe5 54bd 4bc3 273d

B__633 f4 [1, 192]
-0.038722087 -0.03032209 -0.04026983 0.06965999 -0.07198413 -0.066208184 -0.062335186 -0.015810277
-0.0706986 0.071967565 0.053991273 0.038065556 -0.06161179 0.06142769 -0.042618416 -0.021402592
-0.03367184 -0.06034595 0.06944322 0.03459377 -0.047536235 0.051895186 0.044253193 -0.062035635
0.032224733 0.016616302 0.028667253 0.05200001 -0.043375555 -0.07892021 -0.03149159 -0.05431391
-0.044124488 -0.04277414 -0.04693011 0.042250358 -0.056018688 0.060369883 0.006891888 0.071229726
0.06029124 -0.047676522 0.062056534 -0.048548527 -0.06524742 -0.06357712 0.045857538 -0.038446445
0.068233654 0.057498723 -0.065136485 -0.045962222 0.06571354 0.05290916 -0.050938718 -0.061200757
-0.04133626 -0.081885606 -0.036264468 -0.062243327 -0.05379345 -0.063849434 0.06533924 0.051430386
0.027241964 -0.075684175 -0.042623673 0.06764784 -0.08465789 -0.04552194 0.07748188 0.040356774
-0.06702834 -0.041488357 0.041356348 0.043538675 -0.04445984 -0.06610611 0.044428945 0.035979684
-0.07792901 -0.06518319 -0.040146746 -0.041991785 0.06731037 -0.045458455 -0.044302758 0.06468952
-0.040179376 -0.083412685 0.043388598 0.066336505 0.06527696 0.028329065 0.043388978 0.044792805
-0.038722087 -0.03032209 -0.04026983 0.06965999 -0.07198413 -0.066208184 -0.062335186 -0.015810277
-0.0706986 0.071967565 0.053991273 0.038065556 -0.06161179 0.06142769 -0.042618416 -0.021402592
-0.03367184 -0.06034595 0.06944322 0.03459377 -0.047536235 0.051895186 0.044253193 -0.062035635
0.032224733 0.016616302 0.028667253 0.05200001 -0.043375555 -0.07892021 -0.03149159 -0.05431391
-0.044124488 -0.04277414 -0.04693011 0.042250358 -0.056018688 0.060369883 0.006891888 0.071229726
0.06029124 -0.047676522 0.062056534 -0.048548527 -0.06524742 -0.06357712 0.045857538 -0.038446445
0.068233654 0.057498723 -0.065136485 -0.045962222 0.06571354 0.05290916 -0.050938718 -0.061200757
-0.04133626 -0.081885606 -0.036264468 -0.062243327 -0.05379345 -0.063849434 0.06533924 0.051430386
0.028399808 -0.074075185 -0.04293782 0.06754236 -0.08452378 -0.045642402 0.079275355 0.040568706
-0.06696295 -0.041594926 0.04166737 0.04397949 -0.04450067 -0.06611201 0.044300325 0.032131005
-0.08074905 -0.06472537 -0.039099403 -0.04106489 0.06739706 -0.045525637 -0.044154156 0.06376798
-0.04179435 -0.0837405 0.043618143 0.06626175 0.064868934 0.029970404 0.043027636 0.044966336
00000000: 0d9b 1ebd 0866 f8bc faf1 24bd e6a9 8e3d
00000010: 6a6c 93bd 2898 87bd 2e53 7fbd 8e84 81bc
00000020: 6dca 90bd bb63 933d f425 5d3d a1ea 1b3d
00000030: a55c 7cbd 9a9b 7b3d a690 2ebd 7d54 afbc
00000040: 7ceb 09bd 512d 77bd 3f38 8e3d 32b2 0d3d
00000050: 5bb5 42bd 0c90 543d d642 353d 1419 7ebd
00000060: 15fe 033d e91e 883c 96d7 ea3c f6fd 543d
00000070: 91aa 31bd eba0 a1bd 53fd 00bd 4378 5ebd
00000080: e1bb 34bd f033 2fbd c939 40bd b60e 2d3d
00000090: da73 65bd 6946 773d 59d5 e13b e4e0 913d
000000a0: f3f3 763d 7548 43bd fe2e 7e3d d2da 46bd
000000b0: 70a0 85bd b934 82bd 1dd5 3b3d 057a 1dbd
000000c0: 16be 8b3d c883 6b3d 4766 85bd e242 3cbd
000000d0: d294 863d 46b7 583d 1ea5 50bd a5ad 7abd
000000e0: 3650 29bd a4b3 a7bd 0d8a 14bd dcf2 7ebd
000000f0: 8556 5cbd 7ec3 82bd 94d0 853d aba8 523d
00000100: 8a2a df3c 4e00 9bbd 2996 2ebd f38a 8a3d
00000110: 1e61 adbd 3775 3abd d2ae 9e3d 254d 253d
00000120: 2846 89bd b2ef 29bd 4665 293d 9c55 323d
00000130: 851b 36bd a462 87bd 20fb 353d 6f5f 133d
00000140: 3f99 9fbd c47e 85bd ea70 24bd 94ff 2bbd
00000150: 05da 893d a532 3abd cf76 35bd f07b 843d
00000160: 2193 24bd 45d4 aabd 3eb8 313d 6fdb 873d
00000170: edaf 853d 5b12 e83c a4b8 313d a978 373d
00000180: 0d9b 1ebd 0866 f8bc faf1 24bd e6a9 8e3d
00000190: 6a6c 93bd 2898 87bd 2e53 7fbd 8e84 81bc
000001a0: 6dca 90bd bb63 933d f425 5d3d a1ea 1b3d
000001b0: a55c 7cbd 9a9b 7b3d a690 2ebd 7d54 afbc
000001c0: 7ceb 09bd 512d 77bd 3f38 8e3d 32b2 0d3d
000001d0: 5bb5 42bd 0c90 543d d642 353d 1419 7ebd
000001e0: 15fe 033d e91e 883c 96d7 ea3c f6fd 543d
000001f0: 91aa 31bd eba0 a1bd 53fd 00bd 4378 5ebd
00000200: e1bb 34bd f033 2fbd c939 40bd b60e 2d3d
00000210: da73 65bd 6946 773d 59d5 e13b e4e0 913d
00000220: f3f3 763d 7548 43bd fe2e 7e3d d2da 46bd
00000230: 70a0 85bd b934 82bd 1dd5 3b3d 057a 1dbd
00000240: 16be 8b3d c883 6b3d 4766 85bd e242 3cbd
00000250: d294 863d 46b7 583d 1ea5 50bd a5ad 7abd
00000260: 3650 29bd a4b3 a7bd 0d8a 14bd dcf2 7ebd
00000270: 8556 5cbd 7ec3 82bd 94d0 853d aba8 523d
00000280: b7a6 e83c bbb4 97bd 91df 2fbd a653 8a3d
00000290: ce1a adbd 87f3 3abd 1e5b a23d 5f2b 263d
000002a0: df23 89bd 715f 2abd 67ab 2a3d d623 343d
000002b0: 5646 36bd bc65 87bd 4274 353d cd9b 033d
000002c0: c25f a5bd bc8e 84bd b226 20bd a833 28bd
000002d0: 7807 8a3d 1779 3abd fdda 34bd c998 823d
000002e0: 8d30 2bbd 2480 abbd f0a8 323d 3eb4 873d
000002f0: 01da 843d 7e84 f53c bf3d 303d 9f2e 383d
