models/station_7/model_latest.onnx (onnx, 407794 bytes, 12 tensors)

W__3550 f4 [1, 96, 64]
00000000: 8fb0 cd3d 95dd bdbd a0cf bbbd 103d 5fbd
00000010: fcce 783e e8d5 563e 77c0 aa3d c488 943d
00000020: a849 553d 56d6 273e 6be0 abba be22 023e
00000030: fc16 8a3c a9f4 0d3d dd5f 0cbe 0dcb 0d3d
00000040: 19b2 0b3e cfe3 193e 6185 f53c 152f 41bd
00000050: 1e84 ccbd 4ed8 013e b33a 423e 9b5d b4bd
00000060: 14fa 7f3d 9d49 27be 1921 6abe a456 f63d
00000070: 6128 a5bb b6da 53be 24f0 563d f78f d13d
00000080: e00f 63bc 0aff 24be 9dee 8d3d 9090 2ebe
00000090: d71c 1dbe b7c8 923c e438 1a3e c01c 473c
000000a0: 2b2e 3e3e e36a 28bc ab69 3dbd c1cf 063d
000000b0: a3cb 87bd 7cef 2a3e 0814 04be 42e0 003e
000000c0: 890c 353d 4d2a 833d c66b ffbd 3beb 853e
000000d0: d9ad 57bd 7aa7 8e3e 7e9a 8abd 9bea 68be
000000e0: 7f13 a03d 6691 c73c fa63 66be 321e 11bd
000000f0: ec8b a4bd 90ad b13d 2c19 2c3e 737f 36be
00000100: b394 f93d d840 193e e8c0 0abd b7da a23d
00000110: 73c7 c6bd d8fb ffbd 945c 4cbe 3bc1 47bd
00000120: 3be0 3f3e 517d 863e 7176 a7bc 9ab3 683e
00000130: 1716 c53d aa62 0c3e e0d7 5dbe 53fd 953e
00000140: 8b9b 48bc 1813 0fbd 1aea ea3d 1a26 67be
00000150: 84fc 62bc 474a 1cbd 7852 243e 5340 52be
00000160: da6f 283d 0148 62be 46ab a2bd f7ca 37be
00000170: 04b8 8c3d 9951 0d3e 3708 21be 9517 cd3d
00000180: d0a8 d1bd 32b5 043e bb8a 223e 1d83 b9bd
00000190: 9245 45be 1b56 f13c 9d47 f6bd 3117 623e
000001a0: 7dcf 0b3e 562e b2bd 1d56 9f3c d0d5 b33d
000001b0: 953b bebd 4e70 98be a2a3 90be 7714 c53d
000001c0: d14e f23d ff5d bb3c f8a8 823b 55a2 48bd
000001d0: 6856 4abe f2ae 1b3d d21f a1bd 5541 3a3e
000001e0: 02d9 c7bd a2b4 e43d e872 43be 3a97 b83d
000001f0: cac2 ad3d 522c 0abe 1eb4 883e 67fa bd3d
00000200: 70af dabc c221 273c 440f 883e 22ba d4bc
00000210: 2065 79be 166c 73be 5fc1 753c dd43 d23e
00000220: 5171 5f3d ceac 4cbe a2cc 0abe 8d35 3abd
00000230: b1a3 f33c 63db 3a3d d59f 4d3e 992f 5ebd
00000240: 9e08 0abc 57ab 5e3e b7fc b43d 97f8 0ebe
00000250: f9f8 4cbd b7f4 13be 7341 27be 0cf9 1d3e
00000260: fd17 98be 7dd5 8b3d c847 adbc 9941 163d
00000270: 0ffa eebd 31de cfbe 39c0 753e 6dde 48be
00000280: def9 143e d112 d1bb 0b0d 883e 1efe c13e
00000290: 72e9 bb3d fa0e 9abd 76f7 6cbe dbd2 bf3d
000002a0: e0b3 85be 3ea5 14be ee77 fabd 3c01 593d
000002b0: 8036 bc3e a178 e33c 0dc9 353c c9d4 da3e
000002c0: 5503 2d3d 7259 1ebe fdbe 9bbd a76b 27be
000002d0: f259 5c3d 71d2 f9bd 6fc8 033e a82e cb3c
000002e0: 227c 833d 2fc3 61be f0ed 623e 923b 0e3e
000002f0: 6399 103e 5bba 283d 7dc5 00be a2f7 4b3e
00000300: 081d 7c3c d8ec b8bb c167 0bbe 9479 67be
00000310: df04 1b3e 572f aabc 7e44 8abe 1a96 7cbe
00000320: 6b1a 753e 53bb fcbd dd12 c03d 4ccf cfbe
00000330: 81b9 c1bd fd93 023e f5fa 513d 36a0 a1bd
00000340: f951 55be 36f0 95bd c4af edbd e53d 1ebe
00000350: f202 da3c 8933 3a3e e42c bfbc 9607 d53b
00000360: 3a73 973e ccf0 c33d 72ec 69be aca7 393c
00000370: 7024 c93d c868 803e b3b4 81be 1406 383e
00000380: 31c2 073e 8992 0dbe 2cb9 7fbe d0fa 173d
00000390: 64cf ce3d ca9d 8a3e 5bbc 3b3e cbc1 9abe
000003a0: fdc9 803e d779 823d c808 873e 68a1 95ba
000003b0: 77de 87be 722c 633e 884d 9fbc de6a b6be
000003c0: ddc4 203d 1c2c bfbd 5d07 f3bd afad 2bbe
000003d0: 5358 15be 409d 0d3e e045 3fbd ca0b 193c
000003e0: bb3d 69bc 99c4 8f3e 065b 8fbd 3d36 36be
000003f0: 0de6 083e 6ec3 24be bfad 8b3c 942c 193e
0.100434415 -0.09270779 -0.09170461 -0.054501593 0.24297708 0.20980036 0.08337491 0.072526485
0.052072197 0.16390356 -0.0013113146 0.12708566 0.016856663 0.034657154 -0.13708444 0.034617472
0.13642158 0.15028308 0.029970827 -0.04716404 -0.09986137 0.1268017 0.18967704 -0.08806916
0.062494352 -0.16336675 -0.22864188 0.12028244 -0.005040214 -0.206889 0.05247511 0.10232537
-0.013858765 -0.16112915 0.069302775 -0.17047334 -0.15343033 0.017917974 0.15060765 0.012152851
0.18572299 -0.01027939 -0.04624335 0.032912973 -0.066306375 0.16692919 -0.12898266 0.12585548
0.044201408 0.064045526 -0.12471728 0.2615603 -0.05265603 0.2786215 -0.06767748 -0.22745745
0.078162186 0.024361324 -0.22499076 -0.035429187 -0.080345005 0.086756825 0.16806477 -0.17822056
0.12186565 0.14966142 -0.033875376 0.07951873 -0.09706011 -0.12499207 -0.19957191 -0.048768263
0.18737881 0.26267484 -0.02044222 0.22724763 0.09623354 0.13709512 -0.21664381 0.29294834
-0.012244116 -0.03493032 0.114704326 -0.22573128 -0.01385415 -0.038156774 0.16047084 -0.2053235
0.041122295 -0.2209778 -0.07942824 -0.17948519 0.06871036 0.13800658 -0.1572579 0.100142635
-0.102372766 0.12959746 0.15873234 -0.09058211 -0.1926482 0.029460004 -0.12025378 0.2207916
0.13653369 -0.08700244 0.019450242 0.08781016 -0.09288708 -0.29773182 -0.28249842 0.09623044
0.11831439 0.02287197 0.003987428 -0.048982937 -0.19759524 0.038008638 -0.07867397 0.18188985
-0.09758188 0.111672655 -0.19086802 0.09013219 0.08484419 -0.1349347 0.26699919 0.09276276
-0.026694983 0.01020092 0.26574147 -0.025967661 -0.24354982 -0.237717 0.014999717 0.410674
0.054551426 -0.19987795 -0.13554624 -0.045461226 0.02974114 0.04561938 0.20080502 -0.05424461
-0.008424906 0.21745048 0.08837264 -0.13962017 -0.050042126 -0.1444882 -0.1633356 0.15427035
-0.29705802 0.06827829 -0.021152392 0.036683653 -0.11668789 -0.40599206 0.23999108 -0.19616099
0.14548442 -0.006380417 0.2657245 0.3788919 0.091753855 -0.07522388 -0.23141274 0.09366389
-0.26113796 -0.1451616 -0.12229906 0.052979693 0.3676033 0.027767481 0.0110952975 0.42740467
0.042239506 -0.15463808 -0.076047875 -0.1634966 0.053796716 -0.12198342 0.12869428 0.02480252
0.06420161 -0.22047113 0.22161078 0.13889912 0.14121012 0.041193347 -0.12575336 0.19918683
0.015387781 -0.0056434684 -0.13613798 -0.22604972 0.15138577 -0.020774527 -0.2700538 -0.24666634
0.23935859 -0.12340417 0.09378598 -0.40587842 -0.0945921 0.12751766 0.051264722 -0.07891886
-0.20832051 -0.07321207 -0.1160579 -0.15453298 0.026612733 0.18183722 -0.023336835 0.0065011485
0.29580098 0.09567413 -0.22844103 0.01133148 0.09821403 0.25079942 -0.25333175 0.17971069
0.13257672 -0.1382543 -0.24972981 0.037104428 0.1009815 0.27073509 0.1833357 -0.30225977
0.25154105 0.06370895 0.26373887 -0.0011415901 -0.26536915 0.22184923 -0.01944615 -0.35628408
0.039250243 -0.09334585 -0.11866639 -0.16765474 -0.14584474 0.13829517 -0.046697497 0.00934119
-0.014235909 0.2807968 -0.06999783 -0.17794128 0.13369007 -0.16090176 0.017050622 0.14958411

W__3536 f4 [1, 192, 128]
00000000: aff5 8bbe 61ca abbe a210 44be dbaa 4cbd
00000010: 1427 35be 80dc 5a3e 6743 fc3d 2d34 173d
00000020: b10f 553e 0c56 36be 16a4 9f3d 10fe b23d
00000030: 8757 a5bc 4721 133e 68c0 b33e 7db6 d0bd
00000040: ce74 26be f492 b63e abe2 553d b240 0d3e
00000050: cab6 ae3e 1d92 93be ed11 edbd 8bb7 9fbe
00000060: 2f41 84be 2ca4 85be 4487 2d3e bd95 933e
00000070: 6aa3 d1bc 4e10 b03d ed9a d7bc 6f32 e1bd
00000080: 92fd 87be f316 413e e4f1 0d3e 3b7d 823d
00000090: 8283 303d b106 1bbe 061c 443e d3b1 84be
000000a0: 2a09 9bbe 9ace 29be 1c5b 3f3e 4234 84be
000000b0: 991c a83d bc8f 933c 0072 c13d 7e2d 943a
000000c0: ebd8 d53d 6fd2 bc3e 8383 7fbe 19a9 b33e
000000d0: df70 283e 9c65 563d 8710 ee3d 69cb ba3e
000000e0: 02db 083e 6d3d 74bd 9fb8 a1be 8633 b43d
000000f0: 5f47 113e a864 413e a2fc 1c3e fa53 abbd
00000100: 4def c2bd 24b6 f5bd 8efa 27bd 3438 84be
00000110: ec7f 49be 5778 2fbd 8ca4 27be 3a01 8fbe
00000120: e8c3 6cbe 816a 1abe 4515 9fbe 102f e83d
00000130: 0a83 b7bc 7b67 803d 82d6 ac3d b8da ad3e
00000140: e211 333c c870 d73d 4cd2 eabd 5f38 923e
00000150: 8d40 aa3e fd0d 9d3e 1757 77be 6a8b 383e
00000160: 0ce6 cbbe 6561 ea3d bf4f 983e 86f1 63be
00000170: f1a4 193d a793 66be ce9a b5be 5fb7 43be
00000180: 0d7b 483c 13f7 5e3e 99ef 82be 5717 623e
00000190: a330 48bc 1efb 51be 7083 36bc 1662 8b3d
000001a0: c7e4 6cbe ddee 9dbe 97e5 80bc 6bdc b43d
000001b0: 4802 93be 501b a4be bf80 8d3e 6bdf a2bd
000001c0: fc05 2c3e 5756 063e 8073 823d 45d8 243e
000001d0: e985 04be 1281 b13d f98c 00be 7f68 953d
000001e0: 2cd5 183d 0ccb bb3d 2d2c c73d 0101 5a3e
000001f0: 2cdf 6e3e 4c0b dabd d6e5 5d3b f4f6 4fbe
00000200: a048 a7be 170e bcbc 358a 0cbe 6475 483d
00000210: 548a e13c 5232 923e 77a6 d2bc d0e9 483e
00000220: dfdd 893e 41a2 d5bc 4474 de3d 70af 8b3e
00000230: ef1e 043e 0497 5fbd e839 8f3e a815 1cbe
00000240: 602a 5bbe 1a16 ba3e 8675 c03d e716 753e
00000250: bee5 b03e eca2 24be 63e7 e3bd dc32 64be
00000260: 688b b7bd 9570 3bbd 5419 d23e 101b b13d
00000270: 6cf1 09be eab8 4b3c 805f b93d b524 16be
00000280: 4612 80be dda1 a73e edff 953e aa40 543d
00000290: 08cb 973d 5a05 77bc dd27 8d3e f8eb 46be
000002a0: d604 9fbe 96e1 1abe 7543 64bc 2b6b 66bd
000002b0: f68b 3ebc 3059 cfbc 5069 c53d 99b0 263e
000002c0: 1870 9abd 12a9 9b3d 1830 f0bd dc93 4f3e
000002d0: 1308 003e 7819 6c3c 64f4 783e 2452 e33d
000002e0: ff96 203e 2bdb 4ebe d2ce a6be 8fa9 213e
000002f0: 6d07 3dbd 0987 9b3d e6ac bf3d e747 3dbe
00000300: 1e41 9dbd b633 41be e935 bb3d aa5b b1be
00000310: fb5f 8ebc 9598 48be a85b 97bc 2226 6bbe
00000320: 8c85 5abe 038d bfbd 7f09 bebd 593e 313e
00000330: 0dd1 1c3c 5beb 873d 9511 303e 9f85 c03d
00000340: 84bd b33d f147 bfbd cd88 35be 9cd4 d33d
00000350: e448 da3e 0452 333e 20b2 103e fd0d 823e
00000360: 7dff bdbc 9eac 443e 1069 8e3e c6b4 96be
00000370: e82b 283b 708c ffbd 5a64 22be 55f0 82be
00000380: fd6b 363e 29ec 07bd 8b36 84be a51e 0d3e
00000390: 2655 dabc 52d2 2cbe 388d 86bd 7fdf a53c
000003a0: 36ab a0be a9f4 97be 7f67 4cbd ef69 96bc
000003b0: 80ba bbbe 6cc0 94be 3108 bf3d f4d0 8bbe
000003c0: 458d 9e3e 2de7 ba3e 32c5 363e 8593 52bd
000003d0: dfe6 94bd 04b5 2e3d cc2a 33bd b644 143e
000003e0: ad60 48be c8a7 263e 3c79 54be f5ba a03d
000003f0: 6e4e 5b3e f9db 93be 2dce ca3d 2198 8ebe
-0.2733588 -0.3355284 -0.1914697 -0.049967628 -0.17690688 0.21373177 0.123175435 0.036914993
0.20806767 -0.17806262 0.07794969 0.08739865 -0.020183338 0.14368163 0.35107732 -0.10191057
-0.16255495 0.3565899 0.05221812 0.1379421 0.34123832 -0.28822413 -0.11575685 -0.3119472
-0.2583098 -0.26101816 0.16946131 0.2882518 -0.025590617 0.0859686 -0.026318992 -0.109959476
-0.26560646 0.1885641 0.13861805 0.06371542 0.043094166 -0.15139271 0.19151315 -0.2591692
-0.3028043 -0.16582718 0.18687099 -0.2582112 0.082085796 0.018012874 0.09445572 0.0011305062
0.104417644 0.36879298 -0.24952511 0.3508995 0.16449307 0.052342996 0.11624246 0.36483315
0.13364795 -0.059628893 -0.31586167 0.0879889 0.14187382 0.18886054 0.15330747 -0.08365627
-0.09518299 -0.11997631 -0.041010432 -0.2582413 -0.19677705 -0.042839374 -0.16371363 -0.27930623
-0.23121607 -0.1507969 -0.31070915 0.113371015 -0.022401351 0.06269737 0.084393516 0.33955932
0.010929557 0.10519558 -0.11465892 0.28558633 0.33252373 0.30674735 -0.24154316 0.18021932
-0.3982395 0.11444358 0.2974834 -0.22260103 0.037510816 -0.22517262 -0.3546967 -0.1911292
0.012236369 0.21773939 -0.25573424 0.22079216 -0.012218627 -0.2050595 -0.011139736 0.06805818
-0.23134147 -0.308463 -0.015734477 0.08831104 -0.28712678 -0.32052088 0.27637288 -0.0795277
0.16799158 0.13118874 0.06369686 0.16098125 -0.12941708 0.08667196 -0.12553777 0.07295322
0.03731267 0.091695875 0.09725223 0.21289445 0.23327321 -0.10646686 0.0033858917 -0.20309049
-0.32672596 -0.022955937 -0.13724597 0.048940077 0.02753178 0.28554016 -0.025714142 0.19620442
0.26927087 -0.026078345 0.1086202 0.27282286 0.12902425 -0.05458738 0.27973866 -0.15242636
-0.21402884 0.36344987 0.09397416 0.23934518 0.3455028 -0.16077775 -0.11128118 -0.22285026
-0.089621365 -0.045761663 0.4103495 0.0864774 -0.13471001 0.012434224 0.09051418 -0.1466244
-0.25013942 0.3274068 0.29296818 0.05181948 0.07411772 -0.0150769595 0.27569476 -0.19425952
-0.31058377 -0.15125117 -0.013932099 -0.056254547 -0.011630049 -0.025311083 0.096392274 0.16278304
-0.075409114 0.07600607 -0.11727923 0.20271248 0.1250308 0.014410369 0.24311978 0.110996515
0.156826 -0.20200793 -0.32579666 0.15787338 -0.04614966 0.07594115 0.0935915 -0.1848446
-0.07678436 -0.18867382 0.09141142 -0.34640247 -0.017379751 -0.19589455 -0.018476322 -0.22963765
-0.21340007 -0.09353068 -0.09279155 0.1730894 0.009571326 0.06636687 0.17194207 0.09400486
0.087763816 -0.093398936 -0.17727967 0.103432864 0.42633736 0.17511755 0.1413045 0.25401297
-0.023193115 0.19206473 0.2781453 -0.29434794 0.0025660936 -0.12477958 -0.15858594 -0.25573984
0.17814632 -0.033184204 -0.25822863 0.13781221 -0.02665193 -0.16877106 -0.06569904 0.020248173
-0.31380624 -0.29678848 -0.04990339 -0.01836106 -0.36665726 -0.29053056 0.09327734 -0.27307856
0.30967155 0.36504498 0.17848662 -0.051410217 -0.07270598 0.0426531 -0.043741986 0.14479336
-0.19568129 0.16274941 -0.20749372 0.07848159 0.21416637 -0.28878763 0.09902606 -0.2785044

W__3523 f4 [1, 384, 6]
00000000: 376b 773d 231a 67be c229 213c 4ef9 58be
00000010: a9b6 4fbe f352 3a3d cd18 ffbc 69b3 0abd
00000020: 8a02 5e3d c361 bfbd c3d0 c53c eb6b 08be
00000030: 09c9 18be d55d 09be 6a09 81be 16ff 63be
00000040: 2e65 92be 184b 18be cf89 603e 0bfc d43d
00000050: e968 633d e465 ef3d 6129 503e 5aaa df3d
00000060: d746 bebe 5cf5 d6be 5d32 3abe 69cf afbe
00000070: 13bc 7dbe 2de0 ccbc ef6a b4be 84f5 a6be
00000080: 99f8 1bbe 2b15 ebbd bc70 b0be 5ad2 35be
00000090: 177e aebe c909 95be 68c8 a1be 9cdb f9bd
000000a0: dca2 eabd a709 b5bd 611d aebc c190 413c
000000b0: b961 b9bd 57ba 18be 8420 5f3c 0032 e23d
000000c0: e88d b23e c080 933e 7046 593e 284d 493e
000000d0: 8630 4a3e 0da6 423e 13dc 203d f96d 773e
000000e0: cbcf ab3d 9f5a 693e ec62 be3d 2479 a13d
000000f0: d0ad 413c 38d3 203e 0658 2f3e 25a3 e03d
00000100: 4706 103d 7fd0 113e d005 3dbe 1bdf 71be
00000110: f80b a3be e039 dcbe a7fd cdbe b1bc a53d
00000120: a3f6 733e 7ff6 313e 1766 bf3d 885c 803e
00000130: e014 863e 349e 0fbe d4a7 dfbd c53f 89be
00000140: 9f10 8ebe 1537 1ebe 1627 6fbe e635 9c3c
00000150: d3d7 c8bd 505d 7b3c c83c f3bd a348 c9bd
00000160: f0b5 4dbe 1e58 95bd 473e 933c 50ee 903c
00000170: e858 11bd ed66 f43d 7abf 483e 95eb 06bd
00000180: dca3 da3c 6928 51bd f036 a3bd 6a5a e43c
00000190: 9770 52be c81d 003c 19d0 913e 2c9e 95b9
000001a0: 4f94 bf3d 3a06 2d3e fc8c 533e 8e2b b23d
000001b0: 2dd4 a8bd 42fa 64be 6d09 bebb 7592 78bc
000001c0: bdc6 ccbd 160a bebd cb74 abbd 470d 2fbe
000001d0: 61ae 53be fe84 b33c 3ffd 02be 6f34 57bd
000001e0: 0f91 74be 0a21 97be 5f45 d7be 10f5 e0be
000001f0: 5f0b adbe 525f bbbd d877 3e3e 65c5 5d3e
00000200: 89bf 693d 4251 d63d 0a15 263e abf4 333d
00000210: 7dcc abbe 80e8 87be b0ed adbe 65d4 95be
00000220: aa9c c7be a684 07be 14b6 3e3d 4d8c 7d3d
00000230: e353 703d 6761 053e 2d29 40be 29d6 14be
00000240: a13a a6be 9e05 fdbd d9ef 6fbe 0c3b 6dbe
00000250: 23b9 98be a006 8c3d dddf 253e ecbf ec3d
00000260: 12cd 973d 563d c33b 4861 abbc c4c6 b23d
00000270: 1518 90be 8e1e 92be da46 4c3c f981 94bc
00000280: a4a1 65be 9bab d23d 0ff8 8dbe 0429 81be
00000290: 9015 26be f56d dbbd 9f9b 71be 5abd 99bc
000002a0: 9790 04be 7db5 813b 91e8 b43c 94a5 8e3c
000002b0: a6cc e4bd fdbd 89bd e569 77be b5f8 9d3d
000002c0: 9ead 1bbe 9f8e 6dbd a5fd 7ebd 7c58 ef3d
000002d0: 8c27 1bbe 1a8e 90be a1c6 8abe ad7e c5be
000002e0: 7286 bcbe c3a7 903d 98fe 1dbe 69cf c8be
000002f0: 7487 0dbe cd69 a0be e9a6 5fbe e830 373c
00000300: b9a3 4f3e 33d1 223e 496a ec3d edc0 353d
00000310: ab2e 2c3e c48c d93d ee60 b4bd fe46 2cbe
00000320: 2f7e debe 3eed a0be 21fe adbd e011 08be
00000330: 064a c63e 00a8 593e bc93 773e 6f38 0c3e
00000340: e017 babc f827 acbc 4c50 c63e 79a3 853e
00000350: 6023 983e 3937 0c3e 9682 cb3e 699a ecbd
00000360: 9b25 5abe 471e c5be d513 2cbe 5d09 f7bd
00000370: 3464 87be efbd 913a 29ec 8fbd 1ea2 2a3e
00000380: 42f0 8e3d a641 993c 9716 43bc 7ed3 363d
00000390: cf3b bd3d a0f3 7d3e eea5 b23d 0663 013e
000003a0: b05c 393e 3f81 503d e3ad 66be 32de eabd
000003b0: afa3 cebd f515 8ebc af2a f13d 4fdf e13d
000003c0: c1af a0be 5e8c a2be 7e0f a5be 480a 77be
000003d0: 8762 d2be 9fa3 073e c7db 0abe fa54 333e
000003e0: 320f c0bc 2a7f 9fbd 9d9b 373e a1d3 6f3d
000003f0: 9ee0 26be 26d4 bfbe 8b51 b0be 9684 67be
0.060404982 -0.22568564 0.009836616 -0.21188852 -0.20284523 0.045489263 -0.031139756 -0.033862505
0.05420164 -0.093448184 0.024147397 -0.13322417 -0.14920439 -0.134147 -0.25202495 -0.22265276
-0.2859282 -0.14872396 0.2192757 0.10399636 0.055519972 0.11689356 0.20328285 0.10921164
-0.37163422 -0.4198407 -0.18183275 -0.3433793 -0.24778776 -0.02500924 -0.35237834 -0.3260919
-0.15231551 -0.11478647 -0.3446101 -0.17756024 -0.34080574 -0.29109028 -0.3159821 -0.1220009
-0.11456844 -0.08839732 -0.021254243 0.011814297 -0.09051842 -0.14914833 0.013618592 0.11044693
0.3487389 0.28809166 0.21218276 0.19658339 0.19745073 0.19008656 0.03927238 0.24163045
0.08389243 0.22788475 0.092962116 0.07884434 0.011821225 0.15705574 0.17123422 0.10968617
0.035162237 0.14239691 -0.18459249 -0.23620264 -0.3184507 -0.43012905 -0.40232584 0.08092631
0.23824553 0.17379187 0.09345644 0.25070596 0.261878 -0.14025193 -0.109206825 -0.26806465
-0.27747056 -0.154507 -0.23354754 0.01906867 -0.0980679 0.015342072 -0.118768275 -0.098283075
-0.20088935 -0.07292198 0.017974032 0.017691761 -0.03548518 0.11933694 0.19604293 -0.032939512
0.026689462 -0.05106393 -0.07969463 0.027875144 -0.20550762 0.0078196 0.28479078 -0.00028537342
0.093544595 0.16896906 0.2065925 0.08699714 -0.08243594 -0.22361091 -0.0057994635 -0.015171637
-0.09998844 -0.092792675 -0.08371886 -0.17094909 -0.20671989 0.021914002 -0.12791918 -0.05254024
-0.2388346 -0.29517394 -0.42045113 -0.43936968 -0.33797738 -0.0914904 0.18600404 0.21657331
0.057067428 0.104647174 0.16218963 0.043934505 -0.3355445 -0.2654457 -0.33970404 -0.29263607
-0.38986713 -0.13234195 0.046560362 0.06190138 0.05867375 0.13025437 -0.18765707 -0.1453482
-0.32466605 -0.12354587 -0.23431338 -0.23167056 -0.29828748 0.06837201 0.16198678 0.11560044
0.07412161 0.0059582395 -0.02092041 0.08729318 -0.28143373 -0.28538936 0.012468064 -0.018128382
-0.22424942 0.102866374 -0.27728316 -0.25226605 -0.16219163 -0.10714332 -0.23594521 -0.018767048
-0.12945782 0.0039584027 0.022083553 0.017412938 -0.11171846 -0.067256905 -0.2416149 0.07713453
-0.15202948 -0.057997342 -0.062253613 0.11686799 -0.15151805 -0.28233415 -0.27104667 -0.38573208
-0.36821324 0.07063248 -0.15429151 -0.3922074 -0.13821203 -0.3133072 -0.21841015 0.011181094
0.20277299 0.15900116 0.1154371 0.04437344 0.16814677 0.10622552 -0.0880755 -0.16823956
-0.43455645 -0.31431 -0.08495737 -0.13288069 0.3872835 0.21255493 0.2417745 0.13693403
-0.022716463 -0.021015152 0.38733137 0.26101282 0.2971449 0.13692941 0.39748067 -0.11552889
-0.21303408 -0.38499662 -0.1680444 -0.12062333 -0.26443636 0.0011119227 -0.07027466 0.16663405
0.06979419 0.018708061 -0.011907241 0.04463529 0.09239923 0.24799967 0.08723055 0.1263543
0.18101764 0.05090451 -0.2252727 -0.11468162 -0.10089814 -0.017344454 0.117757194 0.11028921
-0.3138409 -0.31747717 -0.32238382 -0.24125016 -0.41090795 0.1324601 -0.13560401 0.17512885
-0.023444746 -0.077879265 0.17930456 0.058551434 -0.16296622 -0.37466544 -0.34437212 -0.22609171

R__3551 f4 [1, 96, 32]
00000000: 61c6 993d f686 123e fbf5 5f3d 74c6 a03e
00000010: f431 0fbe f8e2 233d 99d4 5e3e daa2 073e
00000020: 83f5 943d 353f d8bd 392e 0cbe aba4 82bd
00000030: d68b 89be 5af7 4a3d 08a5 523e f231 2dbd
00000040: f521 db3d fa2e cf3d f04b 3cbe f5c3 f03d
00000050: b211 39bd 1552 0fbe 8711 823e 1635 d1be
00000060: 1f88 babd d4c1 373e 0bab 7fbd 5777 e53d
00000070: 87b1 943d ae8e 38bd 2d45 9a3e 2b65 2fbe
00000080: 6703 3d3e 8404 883d 810b bfbc 6487 523d
00000090: c1d1 2abc 6bcd 1abd a9f9 e5bd 4d18 263e
000000a0: 85a1 95bd c5c6 c53c 5b3e 73be ea63 c53c
000000b0: f253 4bbc 4ed4 2bbe 0ee0 713d b7ca 903a
000000c0: c5b4 06be e725 babd 1b39 42be 24ec 6fbc
000000d0: a242 b43d 5dcc ef3c f170 a33d 27b6 cabd
000000e0: db2c f33d 6a22 d0bd 3a10 27bd cd45 ac3c
000000f0: df13 a8bc 1272 d1bd 0ad4 4a3b 89df 90bc
00000100: ad5b 37bd 2f1e 99bd 75bc 973d 4fab cfbc
00000110: ed05 8e3e e241 a63d 02bc 58be 0e3d e4bd
00000120: 3047 fd3b 06a8 dbbb 5cf7 bf3d 9d2f 683e
00000130: de2e 573e 68ac 293e 8eb0 5fbe 5a24 5a3e
00000140: 2e5e 083e c522 45bd 0869 f23c 5ea7 2cbe
00000150: 3481 06be c16c 1e3e 24ee d6bd 4e1a f53d
00000160: 7dd2 82be 1e68 33be 7a62 933e 78d2 e3bd
00000170: fd95 e83d 7f2a 0e3e 5aa8 93be 710a 0a3e
00000180: 34bc a1bc 0b4f 68be 48e7 243e 4e9d cf3b
00000190: 4968 21bd 9143 103e d546 593e b4d5 9e3c
000001a0: bcb4 9abd 6614 9c3d 0739 d9bd bdf4 15be
000001b0: da9e 5ebe cd33 e53c 2bc2 7d3d 6212 d8bb
000001c0: 1f85 8f3e cf2d bd3c fc12 bbbe bec3 d43d
000001d0: 3e46 163d f4ca 69be 773f efbd 3f1d 1cbe
000001e0: efec 763e 5b5c 2e3e 9f4f 26be 8323 11be
000001f0: d098 f7bd 7a49 74be 62aa fa3c 6488 22be
00000200: 946f a339 c9aa 4dbe c4c7 6ebd 5611 55be
00000210: afc2 983e 1da0 d9bd 8916 93be fdc9 8cbd
00000220: 640d 5f3e be79 bebd ee90 ab3e 4a17 e43e
00000230: f01b f23d 722b 8c3e 9d42 133d da25 6b3e
00000240: 0d80 c1bd 1135 11bd 0980 8f3e b768 c2bd
00000250: 69a2 ccbd bc5a 903e a86e ae3c 2eab a83e
00000260: 6d9e 46be 171a a0be 09d2 583e 2073 8dbd
00000270: ac6c e23c dbce 1dbe 5e0b 58be e993 633e
00000280: 1eeb 4cbe b7ac 6cbe 8f6a 0f3e eee3 c8be
00000290: cfc3 0b3e 2b24 94bc 57f9 7ebe 9227 95bd
000002a0: 39b1 f93c ce0e 67bd 4778 a53b 429b 073c
000002b0: 03b1 ef3d 665d a73e 7fb8 08be adf1 533e
000002c0: cc8a 01be 7401 a4bd c454 bc3d 7079 d3bd
000002d0: 7cbc 4d3d 0699 243e a903 a43b 5477 74bd
000002e0: 9b7c d83d 3989 203c d52b 1c3e fbf5 2ebe
000002f0: b4a8 813e 8aec f7bc fb08 16be 8b61 903d
00000300: 8bc1 adbc 83d4 27bd 8cf3 d73d 6eda 363e
00000310: a434 00bd 45f0 983e 6d51 283e 2a55 bf3d
00000320: 8935 f1bd a279 9abd bcfc 44bd 367f 0bbd
00000330: bf63 62bd 49ec e63d 94af f43d 3958 983d
00000340: 4ed0 42bd 8dd7 cdbc 158f e13b e9be 003e
00000350: e236 4d3e 9764 89be 463b f4bc b2a9 c8bd
00000360: 8a4b 333e 9140 623e 91c4 b7bd f288 33bd
00000370: 42f1 0b3d b4ec 51bd 969b 013e 7538 c2bd
00000380: 614e 7ebd 6b4e c83b e6a7 993e 9526 8a3d
00000390: a7c6 a7bd 018b daba b07f 8bbd 051c 863e
000003a0: a003 623c 1d55 2a3e b449 4e3d c0d7 eebd
000003b0: 4063 65be f02d 86bc 2ec9 a03d 296c 66bd
000003c0: 7079 2f3b 6937 4abd e6b9 14be c695 ed3e
000003d0: 71d1 5f3e 174c 94bd b622 61bd c7cc 78be
000003e0: c223 483d d86f 2c3e 8100 25bd 06d9 12be
000003f0: 8e64 b0bd 42fa 323c 9106 c53d 708f 21be
0.07508541 0.14309296 0.054677945 0.31401408 -0.139839 0.040011376 0.21760787 0.13245717
0.0727339 -0.10558931 -0.13689508 -0.06379064 -0.268645 0.0495523 0.20570767 -0.04228396
0.10699836 0.10116382 -0.18388343 0.11756126 -0.04518289 -0.13996156 0.25403997 -0.40860814
-0.09107994 0.17945033 -0.06241898 0.11204403 0.07260423 -0.045057945 0.30130902 -0.17128436
0.18458329 0.06641486 -0.023320915 0.05139865 -0.010425986 -0.037793558 -0.112292595 0.16220208
-0.07306198 0.024142632 -0.23754255 0.024095494 -0.012410151 -0.16780207 0.059051566 0.0011046742
-0.13154896 -0.090892605 -0.18967097 -0.014643703 0.08801772 0.029272253 0.07980526 -0.09898024
0.1187379 -0.10162814 -0.04078696 0.021029377 -0.020517288 -0.10226835 0.003094914 -0.017684715
-0.044765163 -0.0747646 0.07408992 -0.025350241 0.27738896 0.08118035 -0.2116547 -0.11144458
0.0077294335 -0.0067033796 0.09373352 0.22674413 0.21013972 0.16569674 -0.21844694 0.2130293
0.13317177 -0.048128862 0.029591098 -0.1686072 -0.13135225 0.15471174 -0.104946405 0.11967908
-0.25551215 -0.17520186 0.2878607 -0.11124128 0.11356733 0.13883398 -0.2883938 0.13480546
-0.019743063 -0.22686402 0.16103852 0.006335891 -0.039406095 0.14088275 0.21218427 0.019389011
-0.075540036 0.07621078 -0.1060658 -0.14644141 -0.21740285 0.027978802 0.06195275 -0.0065939883
0.2803125 0.023093132 -0.3653792 0.10388897 0.036688082 -0.22831327 -0.11682027 -0.15245531
0.2411382 0.17027418 -0.1624131 -0.14173703 -0.120896935 -0.23856154 0.030598823 -0.15872341
0.00031172915 -0.2008468 -0.05829598 -0.20807394 0.29836032 -0.10626242 -0.2872813 -0.06874464
0.21782452 -0.09300564 0.3350901 0.44549018 0.11821735 0.27376896 0.0359522 0.22963658
-0.09448252 -0.035451 0.2802737 -0.09492629 -0.09991915 0.28194225 0.021293 0.329431
-0.19396372 -0.31269905 0.21173872 -0.06906724 0.02763971 -0.1541094 -0.21098086 0.22224392
-0.20011565 -0.2311276 0.14005493 -0.39236397 0.13648914 -0.018083652 -0.24899803 -0.07282938
0.030480014 -0.056410603 0.0050497386 0.008276762 0.11703684 0.32688445 -0.1335163 0.2069766
-0.12650603 -0.0800809 0.09195855 -0.10325897 0.05022858 0.16073999 0.005005319 -0.059684113
0.105706416 0.009798341 0.15251096 -0.17086022 0.25324023 -0.030264158 -0.14651863 0.07049855
-0.021210453 -0.04097415 0.105445 0.17856762 -0.031300202 0.2987081 0.16437311 0.09342416
-0.11777789 -0.07542731 -0.04809259 -0.034056865 -0.055270907 0.112755366 0.11947551 0.07438702
-0.047561936 -0.025127197 0.006883512 0.12572826 0.20040467 -0.26834556 -0.02981342 -0.09797992
0.17509285 0.22094943 -0.08973039 -0.043831773 0.03416563 -0.05125113 0.12657008 -0.094834246
-0.062086467 0.006112864 0.3001091 0.0674564 -0.08192187 -0.0016673506 -0.06811464 0.26193252
0.01379481 0.1663403 0.050363258 -0.11662245 -0.22401142 -0.016379327 0.07850872 -0.056255493
0.0026775263 -0.04936925 -0.1452404 0.4640333 0.2185724 -0.072410755 -0.054964744 -0.24296866
0.048862226 0.1683954 -0.040283684 -0.143406 -0.08612929 0.010923924 0.09620393 -0.15777373

R__3537 f4 [1, 192, 64]
00000000: d7aa ce3d 0ab3 423e 6257 a03e 0d0d 073e
00000010: 4348 b8be aea9 8ebe 947a 253e af2d 253e
00000020: b6bd 70bd 972f 7fbe 1ff5 f73d a544 403e
00000030: 8119 0a3e fc2d 69bd f651 af3d 5b86 8fbe
00000040: 48d8 d23c 0814 ef3d e82a e5bd 9058 1d3d
00000050: c545 863e 086b 00be 32b9 adbd 6b7e 7bbe
00000060: e2ad 6fbe 8b33 6cbe 3de5 5e3e 2a86 44be
00000070: 78b9 92bd a0c8 4abe ff1e 403d e47a 83be
00000080: 21e8 373e 8a1b 7b3c d8ac 9e3e 9b98 033d
00000090: f19e 133e 0afb 9fbe 28d7 35be d65c 913d
000000a0: 4cce 1dbe 5a7a 753e 57c8 7dbe 2ee1 413d
000000b0: f2ad d73e 8e43 aabc b90b 873e e464 703e
000000c0: 26a9 c73e 5cfb cdbd fe18 81be 1c80 cbbe
000000d0: 23cb fa3d a8e1 be3c 0899 f83a 8fcb fe3c
000000e0: 579e 3b3e 4760 bebe 9237 553e 6fd3 5d3e
000000f0: 3a1d 813d c0d6 d43d 0226 833e db1c ef3d
00000100: fcf0 463c e4d0 553e f673 333e a246 553a
00000110: dbd6 aabe b1f3 e6bd 2065 143e 4f66 853e
00000120: f47e 39be 95b3 95be 0c6b 483c cf8b 5f3e
00000130: a12a 9b3e e026 20bd 6c3a 373e e074 b5be
00000140: b57e 6cbe a823 7c3d c504 393d a960 ce3d
00000150: 07ec 5f3e 5ef0 5dbc 11aa 60be 1c6b 0bbe
00000160: 82d9 4bbe 32a8 72be 303b dc3d dcb6 4fbe
00000170: d469 a03d d6ba 97be 8975 213e 4590 99be
00000180: 4f26 d23d 7019 dd3d dcd6 803e 7017 ee3d
00000190: e8a9 01bd 4e07 b6be ecb1 01be 8b0d 9b3e
000001a0: d827 74be 6f4b 143e 9dcb 85be 3ed4 f0bd
000001b0: 9a03 163e c089 2a3c 12d6 6e3e f99e 4d3e
000001c0: b5b7 883e 72cb 3c3c 0820 5bbe 7762 91be
000001d0: 0b22 703e 4072 d3bd edc5 643e 4416 263e
000001e0: 3adb c03c 94cc 99be d3b7 333e addd 393e
000001f0: b0bf 353d fa06 9c3d c661 dd3b dc9b 2cbe
00000200: 894f f73d bce9 2e3e ab45 063d e01b 18bd
00000210: 2df3 83be 07df 86bd cac7 323e f668 9e3e
00000220: 4795 d63b 81b1 87be 5550 afbd ad45 9c3d
00000230: adb9 713e 8cc2 d33c 4d6d d93d 7bc6 8cbe
00000240: 1df0 c8bd 7704 ccbd 64de 103d 0711 e0bd
00000250: 80e4 5e3e 9254 21be 13dc ccbb 8492 14be
00000260: 9d03 4abe 0988 1fbe 64f4 1d3d 3c59 8dbe
00000270: d1c2 423d aeed 9ebd 6fcf ed3d 15f7 89be
00000280: 83fe bf3c 4fc9 8cbd b47a a33e d131 403d
00000290: 156d b23d 898f 0dbe 67ee 8bbe cfda e33c
000002a0: 5e69 a3bd 948d d03e a081 2dbd c965 a83c
000002b0: 9bba 943e e668 e9bd 4260 ff3d a656 3d3e
000002c0: 204c 093e 5515 67be ea2a adbe 7560 c1be
000002d0: 368c 773e 3636 d7bc 88ec 043e 69ca 5c3e
000002e0: 74ae 063d c2db 74be 96e2 8b3e 9c0c b63e
000002f0: 5883 00bd 2b72 3b3e 3656 2fbc c50f 67be
00000300: 4b82 8c3c 473c 6fbe 229a 9fbd 87a4 76bd
00000310: 7008 203e c6bc 803b 1284 87bd eb88 4cbc
00000320: 3a5a a1bd 07e9 d63d 50e4 c0bd 97d8 dfbd
00000330: be0a 5ebe 5f2c 1d3e bdb3 583e bc43 f83d
00000340: 1d2d 6bbc 8e3e 3d3d 2ce8 73bd 6932 acbc
00000350: 10ce ed3d 0b01 5c3d 1fbe d53d 5bdb c9bc
00000360: 99ab 023e 9ca2 1d3e 0b14 9cbd 8782 603e
00000370: 93c9 013e 39a0 aa3e 3f54 60bd e9b4 0b3d
00000380: 0493 3cbe 00b1 41bc 90cd 57be f261 b9bd
00000390: 003e b63c dffa fe3d 6bc5 2e3e 4bd4 26be
000003a0: 6896 73bd 7f94 5bbd 6e5b 483d 1ddf 043e
000003b0: 171d bebd 1916 ecbc 27b7 89bd 1c22 d2bd
000003c0: ea31 7dbe 5404 5cbb cf3c 3cbd 49bd cc3d
000003d0: c619 0abe d39e 1d3e ccbf afbd 20c3 44be
000003e0: 2c7e a9bd 3b06 41bd 5ee2 febc 00d5 28be
000003f0: 022a b93d a24c 943c 4fc8 8f3d 438e a1bd
0.10091179 0.1901361 0.31316668 0.13188572 -0.3599263 -0.2786383 0.16160041 0.16130708
-0.058774672 -0.24920498 0.121073 0.18776186 0.13486291 -0.05692862 0.08560555 -0.28032193
0.025737897 0.116737425 -0.11189824 0.038414538 0.26225105 -0.12540829 -0.08482589 -0.24559943
-0.23406175 -0.23066537 0.21767135 -0.19191805 -0.071642816 -0.19803095 0.04690456 -0.25679696
0.17959644 0.01532639 0.30991244 0.032127958 0.144161 -0.31246215 -0.17757857 0.07097785
-0.15410727 0.23972455 -0.24783455 0.04733389 0.42124897 -0.020784166 0.2637613 0.23475987
0.38996238 -0.100577086 -0.2521438 -0.39746177 0.122457765 0.02330096 0.0018966505 0.031102924
0.1832212 -0.3718283 0.2082198 0.21662687 0.06304403 0.10392523 0.25614935 0.116754256
0.012142416 0.20880467 0.17524704 0.000813583 -0.33367047 -0.11276949 0.14491701 0.26054618
-0.18114835 -0.29238573 0.012232553 0.21830676 0.3030596 -0.039099574 0.1789338 -0.3544073
-0.2309521 0.061557442 0.045170564 0.1007703 0.21867381 -0.013546078 -0.21939875 -0.13615078
-0.19907191 -0.23696974 0.107534766 -0.20284599 0.07832685 -0.29634732 0.15767492 -0.2999288
0.10261213 0.107958674 0.25163925 0.11625564 -0.031656176 -0.35552448 -0.12665528 0.3028377
-0.23843324 0.144819 -0.26131907 -0.11759232 0.14649811 0.010408819 0.23323849 0.20080175
0.26702657 0.0115231145 -0.21398938 -0.28395435 0.23450486 -0.10324526 0.22341128 0.16219431
0.023542035 -0.30038893 0.17550592 0.18150969 0.04437226 0.07618518 0.0067560403 -0.1685633
0.12075717 0.1708135 0.032781284 -0.03713596 -0.25771466 -0.06585508 0.17459026 0.30939454
0.006548557 -0.26502612 -0.08560244 0.07630477 0.23605986 0.025849603 0.106165506 -0.2749518
-0.09811423 -0.09961789 0.03536834 -0.10940748 0.21766853 -0.15754917 -0.006251821 -0.14509016
-0.19727941 -0.15579237 0.038563147 -0.27607143 0.047549073 -0.077601776 0.116118304 -0.2694632
0.02343679 -0.06874334 0.31929553 0.04692251 0.08712212 -0.13824286 -0.27330324 0.027814297
-0.079790816 0.40733016 -0.04235995 0.020556347 0.2904862 -0.11396961 0.124695316 0.18490085
0.13407946 -0.22566731 -0.33821803 -0.37768903 0.2417458 -0.026270967 0.12980855 0.21561588
0.032881215 -0.23911956 0.2732131 0.35556495 -0.03137526 0.1830527 -0.010701707 -0.2256461
0.017151972 -0.23362838 -0.077930704 -0.0602155 0.15628219 0.0039287535 -0.06616987 -0.012483816
-0.078785375 0.10493665 -0.09418547 -0.10929983 -0.21683785 0.15348957 0.21162315 0.12122294
-0.014354018 0.046202235 -0.05954759 -0.021020131 0.11611569 0.053711932 0.10436653 -0.02464073
0.12760772 0.15394062 -0.076210104 0.21924792 0.1267455 0.33325365 -0.054767843 0.034108076
-0.18415457 -0.011821985 -0.2107451 -0.09051885 0.02224636 0.124501936 0.17067496 -0.16291921
-0.05946961 -0.053608414 0.04891532 0.12975736 -0.09282892 -0.02881913 -0.06724387 -0.10260412
-0.24726072 -0.0033571916 -0.04595643 0.09997041 -0.13486394 0.15392618 -0.08581504 -0.1921506
-0.082760185 -0.047125082 -0.0311138 -0.16487503 0.090412155 0.018102948 0.07020628 -0.078884624

R__3524 f4 [1, 384, 128]
00000000: a645 8bbc b741 6c3d 8378 09bc 65f8 793d
00000010: 1fa9 11be a2c0 81bd a950 2e3d 61a1 5c3d
00000020: a96b 283e 8baf b9bd fa7d 01bd 21b4 a63d
00000030: 9d0e 7a3d 66e9 833c e940 98bc d05c 3d3c
00000040: 1c49 b4bd 792e c93d 3c65 d03c 8851 2b3e
00000050: 8296 383d 5bfb cebd eeb5 553c 0a18 98bd
00000060: 956c c4bd 7ede a4bd b5a4 9abc 88b5 e93d
00000070: 1b81 b1bd 2401 03be 5f78 cfbc aae8 37bd
00000080: 7c07 aa3d ce5b 913d a64f fe3c bbaf c5bc
00000090: f07d c5bd 4db7 4c3d 5cbc 01bc e709 e53c
000000a0: bf5d cdbd f6ad 9c3c 9c83 fb3d 8aba 943d
000000b0: 7b2f f03d 4cbb 843d 5403 0ebc ca23 6b3d
000000c0: d8d2 093d 1652 dfbc 2789 e43d 70d4 8b3d
000000d0: d230 483d 55fb 9d3d 4f21 933c d6d4 cd3d
000000e0: a2f9 a0bd 425e abbd 3097 7bbd 2c25 de3a
000000f0: db9b 853d f316 b93d aa29 aa3d 5f2e b53d
00000100: 42d8 153e 2339 edbc 3cc3 083d 6954 713b
00000110: 8341 94bd 315a 103c 0d30 a83d 033a d93d
00000120: ac8d 133c 2bed 7dbd 2d49 9a3d e20f 8d3c
00000130: 1ede 1cbe e084 12bd 90f9 a4bc 2a62 013e
00000140: 99a6 b0bc 77c1 b13d 1736 213e bd37 b13c
00000150: e07e ce3d 5752 893b ead0 f6bc f70c b8bc
00000160: 8104 8cbc d84a 4d3d 89a3 aabd 1cc8 fe3c
00000170: acf0 02bd a20b c4bd 5475 a7bd 2821 b2bc
00000180: 9452 e13c f20a 773d 2e57 303d 412b 86bd
00000190: 3e7c b7bd ffe1 39bd b6a3 2fbc 39a6 c43d
000001a0: d633 96bd 0e1c 1abe fbb3 143d 8516 9a3d
000001b0: 587b 9abc 5fcd 9f3d 2ff3 073d 0a76 37bd
000001c0: 24b8 36bb b34f 9d3d b1aa bcbd a007 77bd
000001d0: 5387 4fbe d338 1d3d 9ced 583d 5924 62bd
000001e0: 8185 bf3d dcd9 8b3d c982 bc3c e5b9 ba3c
000001f0: 8da3 893d b1a0 e8bc f862 0abe 337c dbbc
00000200: 679f 233d dd40 ee3c 61db 1a3d 269b a6bd
00000210: 94ee e8bb 5caa 88bd ef33 4c3d 7e85 1c3e
00000220: c93b 313e afc0 4bbd 8486 233c ffc7 c9bd
00000230: 222e 823d 992f 35bd 7344 533d 91c4 e3bc
00000240: f02b dd3c 6424 ab3c 5153 cf3d 8e01 6a3a
00000250: b751 c7bd 7cda f8bd 27fa 8f3d 55da bdbd
00000260: 6bce b53a 0710 783d 891b 10bd ea39 df3a
00000270: ce41 123c 675c bb3a 4e1f 71bd 1c71 8f3c
00000280: 9f86 f6bb b5b4 3fbe aa1e 4fbd d3d5 043e
00000290: 2239 953d ede0 4d3d 45c4 e53c fdaa 92bc
000002a0: 3a80 e63a 0494 01be e8e1 913d 9447 333d
000002b0: 592f 2b3c cffd 9cbd 3ad4 afbd 4513 afbb
000002c0: 91c0 59bd b07b 8fbc 0bbb 1bbc 7fba 553d
000002d0: 44c8 4cbd b5f9 2b3e 0bc3 fbbd 7f3b 78bd
000002e0: a4cd 57bd faab 833a 69ee 773d 69d5 e0bc
000002f0: 966a 9c3b b72b 673d 22e7 2fbd 6e8e 313d
00000300: ba1e 373e ec62 24bd 2a37 293c 472a 353b
00000310: 6381 1dbb a31b d13d 9552 77bd d5a4 a63d
00000320: 4991 43bd 6fc3 64bc baf7 293d a29b dcbc
00000330: fcfc dfbd b537 2ebd 80f0 7fbd 025f acbc
00000340: 2150 2ebd b911 133c 70b0 793c c62d 2b3d
00000350: 7ac0 f93b d4b6 3fbd b728 47bd fd4b 113d
00000360: 74df 48bd 82bd 18be 1472 abbc 14d0 7e3c
00000370: cb35 b43c cd3f a3bd 1695 ee3c 3519 5dbd
00000380: da6c 0ebd de27 6c3d eb8e 01bd dc9a b5bd
00000390: fa05 31bc 8268 123d 0fd3 643d 2971 ddba
000003a0: 85b8 0ebe 8832 323d 24c9 96bd 40f0 b9bd
000003b0: 0d61 9c3d 0076 a3bd 2cc1 a83d 9abb 3abc
000003c0: ad39 683c 8bb6 14bd 6f9b d0bd 1b44 bfbc
000003d0: da3d 57bd 9987 a1bc ec09 123d 80f9 abbc
000003e0: a83d f93d 90bb d7bd 620b 1ebc 71ff d3bc
000003f0: 261e 36bc fa10 243d 5688 86bd 568b 5fbd
-0.017000984 0.057679858 -0.008390549 0.061027903 -0.14224671 -0.0633557 0.042557392 0.05386484
0.16447319 -0.09066685 -0.03161428 0.081398256 0.061049093 0.016102504 -0.01858564 0.011557773
-0.08803007 0.09823317 0.025438897 0.1673032 0.04506541 -0.10106536 0.013043864 -0.0742646
-0.09591023 -0.080502495 -0.018877367 0.114115775 -0.08667203 -0.12793404 -0.025325952 -0.04489962
0.08302209 0.070975885 0.031043839 -0.024131646 -0.09643161 0.049979497 -0.0079184435 0.027958823
-0.10027646 0.01912592 0.12280962 0.07262142 0.11727806 0.064810365 -0.008667786 0.057407178
0.033648342 -0.027260821 0.11158972 0.068276286 0.048874684 0.077139534 0.017960219 0.10050361
-0.07860114 -0.083675876 -0.06142348 0.0016948334 0.06523868 0.0903758 0.08308728 0.08846735
0.14633277 -0.028957909 0.033389315 0.0036823994 -0.07239058 0.008810566 0.0821229 0.10606768
0.009005945 -0.06199376 0.075334884 0.017219488 -0.15319106 -0.03577125 -0.020138532 0.12635103
-0.021563815 0.086794786 0.1574329 0.021633023 0.10082793 0.004190724 -0.030128915 -0.02246712
-0.017091991 0.050120205 -0.08331973 0.031101279 -0.031967804 -0.09572531 -0.081766754 -0.021744326
0.027505197 0.060313173 0.04305189 -0.06551219 -0.08959244 -0.045381542 -0.010720184 0.09602017
-0.07334106 -0.15049765 0.036304455 0.075238265 -0.018857643 0.07802843 0.033190902 -0.044790305
-0.0027880752 0.07681217 -0.09212244 -0.060310006 -0.20266466 0.03838427 0.052960977 -0.055210445
0.09351636 0.06828663 0.023011582 0.02279372 0.06720648 -0.028396936 -0.13514316 -0.026792621
0.03994694 0.029083664 0.037806872 -0.08135061 -0.007108519 -0.066731185 0.049854215 0.15285298
0.17307962 -0.049744304 0.0099808015 -0.09852599 0.063564554 -0.044234846 0.05157895 -0.027803691
0.02699849 0.020891376 0.10123313 0.0008926623 -0.09732383 -0.121510476 0.07030135 -0.09270159
0.0013870721 0.06056216 -0.03518251 0.001703081 0.008926822 0.0014294506 -0.058867745 0.01750999
-0.0075233723 -0.18721278 -0.050566353 0.12972192 0.07286288 0.050263334 0.02804769 -0.0179038
0.0017585822 -0.1265412 0.07123166 0.043769434 0.0104483 -0.07665598 -0.08585401 -0.0053428733
-0.05316216 -0.017515033 -0.009505044 0.05217981 -0.049995676 0.16794474 -0.12293061 -0.060603615
-0.05268635 0.001004576 0.0605301 -0.027445512 0.004773448 0.056438174 -0.042945035 0.043348722
0.17882815 -0.0401334 0.010328094 0.0027643607 -0.002403342 0.102103494 -0.06038149 0.08136908
-0.047745977 -0.013962611 0.041496016 -0.02692968 -0.10936925 -0.042533595 -0.062485218 -0.021041397
-0.042556886 0.008976393 0.01523982 0.0417917 0.007621822 -0.046805218 -0.048622813 0.03547286
-0.049041227 -0.14916041 -0.02092842 0.015552539 0.021998307 -0.079711534 0.029123824 -0.053979117
-0.034771778 0.057655208 -0.031630438 -0.08867428 -0.010804648 0.035744198 0.055865344 -0.0016894686
-0.13937576 0.04350522 -0.07362583 -0.09079027 0.076356985 -0.07981491 0.082399696 -0.011397267
0.014173907 -0.0363069 -0.101858966 -0.023347905 -0.05254922 -0.019717978 0.035653993 -0.020992994
0.12169963 -0.105338216 -0.009646269 -0.02587864 -0.011115586 0.040055253 -0.06568973 -0.05457624

GRU/quant_dense_51/LastValueQuant/FakeQuantWithMinMaxVars__3512 f4 [32, 1]
00000000: 6ef2 d83c e6dc 973c e6dc 97be 0e2b 823c
00000010: a133 ac3e aa67 b83d 45a4 6e3d 34fb b2bd
00000020: 2bc7 a6be 8497 873d 0e2b 023d f1cf 80be
00000030: fa03 0d3e 9640 43bd 6ef2 d83c 9481 663e
00000040: be8e 2dbb e51d 3bbe e6dc 17be 35ba 8fbe
00000050: 6ef2 d83d be8e adbb fa03 8d3e 0e2b 023d
00000060: 0e2b 02bc d2b5 223d 8219 4ebe f010 a43e
00000070: 8219 ce3d 8497 073e 5b8a 403e 5c49 9dbe
0.026482787 0.01853795 -0.2966072 0.01588967 0.3363314 0.09004147 0.05826213 -0.087393194
-0.32573828 0.06620696 0.03177934 -0.25158647 0.13771048 -0.047669016 0.026482787 0.22510368
-0.0026482786 -0.18273123 -0.1483036 -0.28071752 0.10593115 -0.005296557 0.27542096 0.03177934
-0.007944835 0.03972418 -0.20126918 0.32044172 0.10063459 0.13241392 0.18802778 -0.3072003

GRU/quant_dense_50/LastValueQuant/FakeQuantWithMinMaxVars__3511 f4 [32, 32]
00000000: d8d7 40be 2ed3 ecbd 4e18 8e3d e68f 80bd
00000010: f90e 663d 3b8b 2c3e f239 44be 9086 d8bb
00000020: ec64 a23d a413 3abe 4e18 0ebe 00f2 03be
00000030: ec64 22bc 83dc 943d 9086 d8bd 965b fa3d
00000040: be75 bdbd f239 c43d ec64 a23c 5cc2 51be
00000050: b1bd 7d3e b8a0 9b3e 5cc2 d13d 4e18 0e3e
00000060: 4e18 8e3e 697a 91be 0d9c 473e 7cf9 76be
00000070: 55ed 2fbd 34b6 0a3e 2ed3 ec3d 6297 f33c
00000080: b8a0 9b3d 697a 91be 2ed3 6cbe d8d7 40be
00000090: 6f4f 333e 762b 93be 9086 d8bc 34b6 8a3e
000000a0: 0da3 85be 00f2 833e 965b fa3d 55ed 2fbe
000000b0: 1a54 87be 1371 69be 2ed3 ecbd 7624 d5be
000000c0: ec64 223c 0da3 85be 9086 583d b1bd 7d3e
000000d0: d202 9fbe 762b 933e 9086 d83b 8ab1 36be
000000e0: ec64 a2bc 1a54 873e f915 a4be 27fe ca3d
000000f0: be75 bd3d 3b8b 2c3e e68f 803e 83dc 14be
00000100: 2ed3 ecbd d202 9fbe 6297 733d e68f 003e
00000110: 965b fa3d ec64 22bc 27fe 4a3d 1a54 073d
00000120: 8ab1 36be be75 bdbe 5cc2 51be 55ed afbd
00000130: 2705 893e 7624 553e 9086 583c 55ed 2fbe
00000140: 762b 933e e68f 003e 908d 963e f239 c43d
00000150: 4160 4e3e 9086 58be 4e18 0e3e 06c7 a5be
00000160: 4e18 0e3e 0da3 853e 83dc 14bd b8a0 9b3d
00000170: 965b 7a3e 6f4f 33be 965b 7a3e b8a0 1bbe
00000180: 55ed 2fbd 697a 91be aae8 5b3e 34b6 0a3e
00000190: 0d9c 473e 06c7 25be 0000 0000 697a 11be
000001a0: 9086 d83b 6297 f33c a413 3abe 6297 f3bc
000001b0: 34b6 0a3e f239 443e dfb3 a0be 9086 58bd
000001c0: 55ed afbd 697a 913e 9086 58be 3b8b 2c3e
000001d0: c44a 5fbe 6297 733d 7cf9 763e 4e18 0ebe
000001e0: 06c7 a5be 27fe 4a3d d202 1f3e e68f 003e
000001f0: 6297 733d 6297 733d 697a 11be c44a df3d
00000200: 83dc 14bd 1a54 87bc 1a54 873c 1a54 873e
00000210: 7624 55be 3b8b 2cbe 697a 11be 7624 553e
00000220: 6f4f 333e c44a 5f3e 55ed 2fbe be75 bd3d
00000230: 0000 0000 0000 0000 9086 d8bd 6297 733e
00000240: d8d7 40be d8d7 c03e 9d3e 18be 6f4f 33be
00000250: 7624 55be 9086 58bc e68f 80bd be75 3d3e
00000260: a413 ba3e 697a 913e d8d7 403e a413 3abe
00000270: f239 44be be75 bdbc 2ed3 ecbd c551 9d3e
00000280: 1a54 87bd 3b8b 2c3e f90e 663d f915 a4be
00000290: be75 3dbd f239 44be b8a0 9b3d 0d9c 473e
000002a0: be75 3dbe 55ed af3d 0d9c 47be 06c7 a5be
000002b0: 2ed3 6c3e aaef 99be 2029 a93d 0000 0000
000002c0: be75 bdbd 4e18 0e3e 8ab1 363e ec64 223e
000002d0: 5cc2 d13d 83dc 943d b1bd 7d3e 55ed 2f3d
000002e0: 34b6 0abe 0da3 853e 55ed afbe 0da3 853e
000002f0: f239 c4bd 6297 f33c b1bd 7d3e 697a 91be
00000300: 6297 733d dfac 62be c44a df3d 83dc 943e
00000310: 4160 4ebe 2ed3 ec3d e68f 80bd a413 3a3e
00000320: 1a54 873c 2705 89be ec64 22be aae8 5bbe
00000330: 965b 7a3e f90e 66bd 83dc 14be 6297 f3bc
00000340: 5cc9 8fbe be75 3d3e f90e 66be ec64 a23c
00000350: 2029 a9bd 9086 58be c44a df3d f90e e6bd
00000360: 6297 f33c 8ab1 b63d 27fe 4abd 9086 583d
00000370: 1a54 87bc 1371 69be 2ed3 ec3d c44a 5fbe
00000380: 965b fa3d 4835 703e b8a0 1bbe 83dc 14bd
00000390: 9086 58bb 965b fa3d 965b 7a3e 1a54 07be
000003a0: 0da3 85be 5cc2 d1bd be75 bd3d 9086 d8bd
000003b0: 1a54 07be 9086 583e 6297 f33d 1a54 873c
000003c0: 9086 58bc 965b fabd b8a0 9b3d 9086 d83c
000003d0: 7624 553e 0000 0000 6297 73bd 697a 91be
000003e0: 1378 a7be f90e 66be c44a df3d 9086 583b
000003f0: ec64 22bc 9086 d8bb 83dc 943d 2eda aabe
-0.18832338 -0.11563717 0.069382295 -0.062774464 0.056166623 0.16849987 -0.1916273 -0.006607838
0.079294056 -0.18171555 -0.13876459 -0.12885284 -0.009911757 0.07268622 -0.10572541 0.122245
-0.09250973 0.09581365 0.019823514 -0.20484298 0.24779393 0.30396056 0.10242149 0.13876459
0.27752918 -0.28413704 0.19493122 -0.24118608 -0.042950947 0.13546067 0.11563717 0.02973527
0.07599014 -0.28413704 -0.23127434 -0.18832338 0.1751077 -0.28744096 -0.026431352 0.27092135
-0.2610096 0.2577057 0.122245 -0.17180379 -0.26431352 -0.2279704 -0.11563717 -0.4162938
0.009911757 -0.2610096 0.052862704 0.24779393 -0.3105684 0.28744096 0.006607838 -0.17841163
-0.019823514 0.26431352 -0.32048014 0.09911757 0.09250973 0.16849987 0.25109786 -0.14537244
-0.11563717 -0.3105684 0.05947054 0.12554893 0.122245 -0.009911757 0.049558785 0.03303919
-0.17841163 -0.37003893 -0.20484298 -0.08590189 0.26761743 0.2081469 0.013215676 -0.17180379
0.28744096 0.12554893 0.2940488 0.09581365 0.20153905 -0.21145082 0.13876459 -0.32378405
0.13876459 0.2610096 -0.03634311 0.07599014 0.24449 -0.1751077 0.24449 -0.15198028
-0.042950947 -0.28413704 0.21475473 0.13546067 0.19493122 -0.16189203 0.0 -0.14206852
0.006607838 0.02973527 -0.18171555 -0.02973527 0.13546067 0.1916273 -0.3138723 -0.052862704
-0.08590189 0.28413704 -0.21145082 0.16849987 -0.21805865 0.05947054 0.24118608 -0.13876459
-0.32378405 0.049558785 0.1552842 0.12554893 0.05947054 0.05947054 -0.14206852 0.10902932
-0.03634311 -0.016519595 0.016519595 0.26431352 -0.2081469 -0.16849987 -0.14206852 0.2081469
0.1751077 0.21805865 -0.17180379 0.09250973 0.0 0.0 -0.10572541 0.23788217
-0.18832338 0.37664676 -0.14867635 -0.1751077 -0.2081469 -0.013215676 -0.062774464 0.18501946
0.3634311 0.28413704 0.18832338 -0.18171555 -0.1916273 -0.023127433 -0.11563717 0.30726448
-0.06607838 0.16849987 0.056166623 -0.32048014 -0.046254866 -0.1916273 0.07599014 0.19493122
-0.18501946 0.08590189 -0.19493122 -0.32378405 0.23127434 -0.30065662 0.08259797 0.0
-0.09250973 0.13876459 0.17841163 0.15858811 0.10242149 0.07268622 0.24779393 0.042950947
-0.13546067 0.2610096 -0.34360757 0.2610096 -0.09581365 0.02973527 0.24779393 -0.28413704
0.05947054 -0.22136258 0.10902932 0.29074487 -0.20153905 0.11563717 -0.062774464 0.18171555
0.016519595 -0.26761743 -0.15858811 -0.21475473 0.24449 -0.056166623 -0.14537244 -0.02973527
-0.28083313 0.18501946 -0.22466649 0.019823514 -0.08259797 -0.21145082 0.10902932 -0.112333246
0.02973527 0.08920582 -0.049558785 0.052862704 -0.016519595 -0.2279704 0.11563717 -0.21805865
0.122245 0.23457825 -0.15198028 -0.03634311 -0.003303919 0.122245 0.24449 -0.13215676
-0.2610096 -0.10242149 0.09250973 -0.10572541 -0.13215676 0.21145082 0.11894108 0.016519595
-0.013215676 -0.122245 0.07599014 0.026431352 0.2081469 0.0 -0.05947054 -0.28413704
-0.32708797 -0.22466649 0.10902932 0.003303919 -0.009911757 -0.006607838 0.07268622 -0.33369583

GRU/quant_dense_50/BiasAdd/ReadVariableOp:0 f4 [32]
00000000: 23c1 d83c 227f 673c 416d 87bd b90e 9fbd
00000010: d123 443d c983 82bd 6213 8f3b dbd8 4abd
00000020: caaa c7bd e75b 073c 59bd 833c 7fd7 9bbd
00000030: 2fed 5e3d 7e4d 75bd b978 a43c cdd1 8fbd
00000040: 1d0d 85bd 4b93 dcbc 838e 81bd 8b66 01bd
00000050: 1d68 bd3c e505 81bd 9234 d43c 2137 a3bd
00000060: c4cc 94bd 83f3 3e3d bf0d 87bd ee33 3e3d
00000070: c0f9 143d 52b4 573c a7d5 533d 45c6 6abd
0.026459282 0.014129432 -0.066126354 -0.0776648 0.04788572 -0.06372792 0.0043663243 -0.049523216
-0.09749372 0.008261657 0.016081499 -0.07609462 0.054425415 -0.059888355 0.020077096 -0.07022438
-0.06496642 -0.026925704 -0.0632601 -0.031591933 0.023120934 -0.062999524 0.025903974 -0.079694994
-0.072656184 0.04661895 -0.06594419 0.046436243 0.036370993 0.01316555 0.051717427 -0.05731799

B__3552 f4 [1, 192]
00000000: aa65 813e b7c8 723d 0ec1 3abe f138 2a3e
00000010: 39f0 a6be 0b28 87be a850 143e 116f 803d
00000020: da1c e4bd 6c86 0b3c db58 9abd c3f5 62be
00000030: 4ac7 3dbe a637 493d e117 87be 03f2 2abd
00000040: 0c82 fcbd fab7 5e3d 45d7 6abd 49d8 4cbd
00000050: d791 153e 77e1 03bd 8493 ef3d 0439 323d
00000060: a7ed 383d acf4 0b3d c804 febd 2797 9ebd
00000070: 86bf 693e 38bc d2bd ae94 95bd 8415 1fbe
00000080: 4e90 dabc 3ea8 79ba aba8 cbbd 9667 abbd
00000090: ea95 18bb c535 afbd 9c6b 0a3d 2f44 2ebd
000000a0: 6e1f 1cbd 0b87 01be 1c8a 1c3c 00f5 3abd
000000b0: 9aae 363d 6b37 273d 86b6 b5bb adba 68bd
000000c0: 5f8a 62bd 542b bdbd 84b7 d4bb 59ec 2cbe
000000d0: f0b0 983c dc37 95bd 3d7e eebc b8bc 343d
000000e0: c861 56bd 75e6 9d3c 874a 84bc c8a0 6cbd
000000f0: 607f 44bd 59b0 2fbd 50cc 98bd 33e6 e9bc
00000100: 5964 103d 22cd 523d 2d16 763d 0fd6 f33c
00000110: 7f02 70bd bac3 8b3d 80c0 833d ec04 d53b
00000120: b699 89bd d0de 1d3d 0b40 54bd 8208 49bd
00000130: 44cf abbd 828e 23bd d57d 5c3d 1539 ea3c
00000140: 9b93 5a3d 1edf 2fbc 779c c83c d867 e03b
00000150: b91d 91bc 582c 50bd d534 273d 396f 40bd
00000160: 7e90 11bd 69bd df3c 4ea9 05bd 1a91 e73c
00000170: f943 d0bc 9726 423b a2cf 8e3d b785 95bd
00000180: aa65 813e b7c8 723d 0ec1 3abe f138 2a3e
00000190: 39f0 a6be 0b28 87be a850 143e 116f 803d
000001a0: da1c e4bd 6c86 0b3c db58 9abd c3f5 62be
000001b0: 4ac7 3dbe a637 493d e117 87be 03f2 2abd
000001c0: 0c82 fcbd fab7 5e3d 45d7 6abd 49d8 4cbd
000001d0: d791 153e 77e1 03bd 8493 ef3d 0439 323d
000001e0: a7ed 383d acf4 0b3d c804 febd 2797 9ebd
000001f0: 86bf 693e 38bc d2bd ae94 95bd 8415 1fbe
00000200: 4e90 dabc 3ea8 79ba aba8 cbbd 9667 abbd
00000210: ea95 18bb c535 afbd 9c6b 0a3d 2f44 2ebd
00000220: 6e1f 1cbd 0b87 01be 1c8a 1c3c 00f5 3abd
00000230: 9aae 363d 6b37 273d 86b6 b5bb adba 68bd
00000240: 5f8a 62bd 542b bdbd 84b7 d4bb 59ec 2cbe
00000250: f0b0 983c dc37 95bd 3d7e eebc b8bc 343d
00000260: c861 56bd 75e6 9d3c 874a 84bc c8a0 6cbd
00000270: 607f 44bd 59b0 2fbd 50cc 98bd 33e6 e9bc
00000280: 5f4e 3a3d d99a 433d 06c1 713d 51e6 223d
00000290: 15ce 5bbd c37a 8c3d 58b7 813d 05ba 79bb
000002a0: c2b2 86bd cdb2 fc3c 6794 68bd 1d33 4ebd
000002b0: 25fe aabd ffcb 29bd 7ff2 643d f36d a23c
000002c0: fd05 5b3d aa0d 59bc 97ce de3c 367c f93b
000002d0: 78f4 55bc 8c0c 5abd a904 2a3d 5711 3cbd
000002e0: 24be 0bbd b80d e03c ec72 01bd b939 f33c
000002f0: de24 f7bc 08c2 a5ba b350 953d c3ff 92bd
0.25272876 0.059273448 -0.18237707 0.16623284 -0.3260515 -0.26397738 0.14483893 0.06271184
-0.111383155 0.008515935 -0.07536479 -0.22164063 -0.18533054 0.049125336 -0.26385406 -0.041734707
-0.12329492 0.054374672 -0.057334203 -0.050010953 0.14606415 -0.032197442 0.11698058 0.043511406
0.045148518 0.034168884 -0.12403256 -0.07743674 0.22826967 -0.10289806 -0.07303749 -0.15535551
-0.026680138 -0.0009523666 -0.0994428 -0.08369367 -0.0023282715 -0.085551776 0.03379403 -0.042545494
-0.03811591 -0.12649171 0.009554412 -0.045643806 0.044600107 0.040824335 -0.00554544 -0.056818653
-0.055307742 -0.0923678 -0.0064916033 -0.16887034 0.018639058 -0.07286045 -0.02911293 0.04412529
-0.052339345 0.01927493 -0.016148819 -0.05777052 -0.047973037 -0.042892788 -0.074608445 -0.02855215
0.03525195 0.05146516 0.060079742 0.029765157 -0.05859613 0.06824441 0.06433201 0.006500831
-0.06718771 0.03854257 -0.05181889 -0.04908038 -0.08389142 -0.039930828 0.05383094 0.028591672
0.053363424 -0.010734348 0.02448867 0.0068483166 -0.017714368 -0.05082354 0.04082187 -0.04698107
-0.03553819 0.027311997 -0.032632165 0.028267432 -0.025423037 0.0029625052 0.069731966 -0.07300895
0.25272876 0.059273448 -0.18237707 0.16623284 -0.3260515 -0.26397738 0.14483893 0.06271184
-0.111383155 0.008515935 -0.07536479 -0.22164063 -0.18533054 0.049125336 -0.26385406 -0.041734707
-0.12329492 0.054374672 -0.057334203 -0.050010953 0.14606415 -0.032197442 0.11698058 0.043511406
0.045148518 0.034168884 -0.12403256 -0.07743674 0.22826967 -0.10289806 -0.07303749 -0.15535551
-0.026680138 -0.0009523666 -0.0994428 -0.08369367 -0.0023282715 -0.085551776 0.03379403 -0.042545494
-0.03811591 -0.12649171 0.009554412 -0.045643806 0.044600107 0.040824335 -0.00554544 -0.056818653
-0.055307742 -0.0923678 -0.0064916033 -0.16887034 0.018639058 -0.07286045 -0.02911293 0.04412529
-0.052339345 0.01927493 -0.016148819 -0.05777052 -0.047973037 -0.042892788 -0.074608445 -0.02855215
0.045484897 0.047755096 0.059021972 0.039770428 -0.053663332 0.068593524 0.06333798 -0.003810526
-0.06577064 0.030846978 -0.056782153 -0.050341714 -0.083492555 -0.04145431 0.055895325 0.019827818
0.053472508 -0.013247887 0.02719812 0.007613684 -0.013058774 -0.053234622 0.04150835 -0.045914974
-0.03411688 0.027350292 -0.03160374 0.02969061 -0.030168947 -0.0012646327 0.07290783 -0.07177689
