models/station_7/model_latest.onnx (onnx, 407272 bytes, 11 tensors)

W__3550 f4 [1, 96, 64]
00000000: 051a 35be b029 3cbe f0ae 45bc c04d c23d
00000010: 8c76 1b3e 39d2 0ebe c42e 393d 80c7 353b
00000020: 98bc fcbc 94f5 1c3d b0de 9cbc 8eca b8bd
00000030: 88d1 1fbe e2b0 3a3e be2c 273e fe7e 2f3e
00000040: 2485 3c3e 2ca2 1f3e 15ea babd 18c1 d5bd
00000050: 180e 80bd b8d2 a53c ec7d bebd e485 57bd
00000060: cb19 3ebe 6c05 963d 3079 33bc 878e b3bd
00000070: dc7c ac3d 12c8 2b3e bc2c 443d 80b8 f83d
00000080: b272 293e 70e6 62bc 80fc dbba 0b29 93bd
00000090: a93b b6bd 5cbc 563d 408e 0f3d c8f2 0f3e
000000a0: 60f7 35be dfe6 c8bd 14b2 323d f8fd a63d
000000b0: a4f7 3bbe 2496 82bd c698 37be 6000 9f3d
000000c0: 164a b0bd 2eb2 32be 7893 a93d 3e94 1d3e
000000d0: 9055 04bc 7350 a4bd e076 f93c c0ca 87bb
000000e0: e30f 09be 30a8 e5bc d0f1 6d3d 10e7 bcbd
000000f0: 3cbf 3a3d 839d d0bd b03e 20bd b49f fb3d
00000100: c428 38bd b076 2d3c 26bf 1dbe 0c0e c53d
00000110: 64aa 1ebd 2829 ce3c 2c31 293d b4ce e73d
00000120: a2e3 15be 405c 85bc 3c2a c23d 6389 f6bd
00000130: bbdf c2bd 9c1b f43d 50cd 323e dcb7 f03d
00000140: a66b 173e f2f4 423e 8c35 13be c9d2 95bd
00000150: 20c3 b2bd e2a7 043e a290 073e e139 9cbd
00000160: 8694 abbd e42c c7bd 8bbb 31be 84bc 503d
00000170: 24fe 133e 554d 1abe af1a f9bd 3ebd 8abd
00000180: a8a7 ad3c 3ccb 353e a944 aabd 40ab 483b
00000190: 3e1f 143e a23e 82bd 6adf 133e 781e cabc
000001a0: bc4a 1f3d 14c1 463d 8081 a93c cca8 f93d
000001b0: 9610 0ebe 90a5 63bc c548 ffbd 7463 30bd
000001c0: 64ff c83d c858 b13d d084 2abc 9832 c03d
000001d0: a039 a9bb 66b8 1e3e da33 173e 4019 033e
000001e0: eae4 153e 2453 c2bd 3840 8bbd 34ec 3e3e
000001f0: e846 d73c 53a5 3dbe aa7f e1bd ac62 43be
00000200: 9e62 1b3e 0c05 dd3d 8834 373e 1030 2dbe
00000210: 802a cf3c 38b0 c9bd 3b71 c8bd 5488 9c3d
00000220: e432 5e3d acfd 13bd b69d 2c3e abac 34be
00000230: a870 d8bc 707a 8bbd 7944 3fbe a5f5 3bbe
00000240: 6627 443e 905b 54bd 0093 47bd 951e 04be
00000250: 0cfa 083d be0f 9dbd b880 c03d 4d78 29be
00000260: 749f 07bd dea6 b6bd 401d e53c 34c5 02bd
00000270: a8ee 453e 306c c23c 9051 43bc 3045 1e3c
00000280: b37c 3ebe 45ba edbd c4a4 3abe 1c4d 06bd
00000290: d867 923c 4463 c3bd b0c0 723d 2c7a b83d
000002a0: c852 08bd 2824 6e3d 6e44 2d3e f0de 71bc
000002b0: 3810 8c3d 28f0 92bd b0f8 c0bc e0f4 ca3b
000002c0: c70e 41be 1c26 44bd 60ce c93d 3043 ee3d
000002d0: 7b0e febd 48f1 8cbc 809c 6e3c 54da 40bd
000002e0: 60b3 773c 4c25 eb3d 6032 6abc ec89 83bd
000002f0: 0076 bdb9 ec2b c63d 00b3 f03d 98ed f83c
00000300: 7c7d 16be 543b 623d a888 013e 1855 213e
00000310: cc9c ff3d 36ae 10be 140b 1c3e 2c06 213e
00000320: 4008 61bb 1ee0 2e3e 90b6 db3d f063 bdbc
00000330: 98cb 063e 28e1 413d 00cf b8bc 2b4c 3cbe
00000340: 5048 113d 680a 903d 6127 43be d0c2 173d
00000350: d024 26bd 7435 213d 3c37 fc3d 8204 3f3e
00000360: 30fa 8cbc 4e18 05be 2616 1e3e 6412 583d
00000370: a432 a23d 56ec 0dbe 8874 213e 403f 163e
00000380: f01b 1cbc 0487 cc3d ac72 34bd 5a7d 30be
00000390: e8d4 d8bd 008e dab9 ae04 233e e09f 2f3d
000003a0: 58fc 8c3c 240c a33d 14c8 ee3d ccf1 1c3e
000003b0: 14ae 4e3d 21ce 8dbd 22b2 2a3e 4806 93bd
000003c0: 92e6 2ebe 2e0d 193e 50be 9d3d 4a20 2cbe
000003d0: 2ada 14be 6a68 153e b57f 3abe c09d 3e3e
000003e0: 50ef 443e 08b6 213d 5a47 a5bd 20ea cebc
000003f0: 5cf7 31bd 4c3b 4dbd 38a7 a33c 349d a43d
-0.17685707 -0.18375278 -0.012065634 0.09487486 0.15181941 -0.13947381 0.045210615 0.002773732
-0.030851647 0.03832014 -0.019149154 -0.09023009 -0.15607274 0.18231538 0.16325662 0.17138287
0.18410164 0.15589207 -0.09126679 -0.1043722 -0.06252688 0.02024208 -0.093013614 -0.052617922
-0.18564527 0.07325253 -0.010954186 -0.08767419 0.084222525 0.1677554 0.047894225 0.121445656
0.16547659 -0.013848886 -0.0016783625 -0.07185563 -0.08898098 0.052425727 0.03504777 0.14057457
-0.17770147 -0.0980966 0.04362686 0.081539094 -0.18356186 -0.06376293 -0.17929372 0.077637434
-0.08607881 -0.17450783 0.082800806 0.15388581 -0.00807704 -0.08023157 0.030452192 -0.0041440427
-0.13384967 -0.0280343 0.05809194 -0.09223759 0.04559253 -0.10186293 -0.039122283 0.1228632
-0.044960752 0.010587379 -0.15404949 0.0962182 -0.038736716 0.02516611 0.04130666 0.11318722
-0.14637616 -0.01627934 0.09480712 -0.12037923 -0.095153295 0.119193286 0.17461133 0.117538184
0.14787158 0.19038752 -0.14375895 -0.07315595 -0.087286234 0.12954667 0.13238767 -0.07628227
-0.08377938 -0.09725359 -0.17356698 0.050961033 0.14452416 -0.15068562 -0.121632926 -0.06774376
0.021198109 0.17753309 -0.08313877 0.003061965 0.14465043 -0.063596025 0.14440694 -0.024672732
0.03888963 0.048523977 0.020691633 0.121903986 -0.13873515 -0.013894454 -0.124650516 -0.043063596
0.09814337 0.08659512 -0.0104076415 0.0938465 -0.00516434 0.1550003 0.14765874 0.12802601
0.14638105 -0.09488514 -0.06799358 0.18644792 0.026278928 -0.18520097 -0.11010678 -0.19080609
0.15174338 0.10791978 0.17891133 -0.16912866 0.02528882 -0.09848064 -0.09787222 0.0764319
0.05424775 -0.036130592 0.16857037 -0.17643993 -0.026420906 -0.068104625 -0.18678464 -0.18355425
0.19155654 -0.051845133 -0.048724174 -0.12902291 0.03344159 -0.07669018 0.09399551 -0.16549797
-0.03311105 -0.08918546 0.027968049 -0.03192635 0.19329321 0.023733228 -0.0119213015 0.00966005
-0.18602256 -0.11607794 -0.18226916 -0.03278838 0.017871782 -0.09540418 0.059265792 0.090076774
-0.03328207 0.05813995 0.16920635 -0.014762625 0.06839031 -0.071747124 -0.023556083 0.006193742
-0.18853293 -0.047887906 0.09853816 0.11633909 -0.12405106 -0.017204896 0.01456368 -0.047083214
0.01511845 0.11481723 -0.014294237 -0.06422791 -0.00036136806 0.09676346 0.117528915 0.030386731
-0.14696306 0.05523236 0.12649786 0.15755117 0.124810785 -0.14128956 0.15238601 0.1572501
-0.0034337193 0.17077681 0.107281804 -0.023118943 0.13163602 0.047333866 -0.022559643 -0.18388431
0.035469353 0.07033235 -0.1905799 0.037051022 -0.04056245 0.039357617 0.123152226 0.18654063
-0.017209142 -0.12997553 0.15438136 0.052751914 0.07919815 -0.13859686 0.1576711 0.14672565
-0.009528145 0.0998669 -0.044054672 -0.17235318 -0.10587484 -0.00041685998 0.15919754 0.042877078
0.01721017 0.079613 0.116592556 0.15326613 0.050458983 -0.069240816 0.16669515 -0.071789324
-0.17080143 0.14946434 0.07702315 -0.16809192 -0.14536348 0.14590612 -0.18212779 0.18614864
0.19231915 0.03948024 -0.0807025 -0.025258124 -0.04344879 -0.050105378 0.019977197 0.080377966

W__3536 f4 [1, 192, 128]
00000000: 8cdd dbbc 058d 95bd 8afe a3bd c228 a13d
00000010: a2c2 15bd 7088 793d 6f2f 8cbd 819f a4bd
00000020: 8088 bdbb 3909 0bbe 66cf bdbd 70d8 23bc
00000030: 5c62 2b3d 3813 f23d 0c23 183d 008c 2ab9
00000040: 5a63 8e3d b20b 9f3d fc2a 293d 6abc ce3d
00000050: 90bc 76bd bc53 5ebd e46f d63d e9ec f1bd
00000060: c48c 993d 2ec3 debd 50d4 6d3c 22e3 97bd
00000070: d47f b9bc d383 f6bd 3894 183d 5cf2 6c3d
00000080: 0476 0a3e aec3 a73d 2dc7 ddbd a099 38bc
00000090: 989c 00bd 006e 2dba 7e2d 9ebd 724c ae3d
000000a0: bce2 653d fed5 c33d 6211 06be 465e 78bd
000000b0: 62bc a63d 8093 cfbc cc8b 36bd 38be a13d
000000c0: de87 56bd 369c d3bd 9450 a63d 0df6 86bd
000000d0: bc12 153d c4d5 e7bd 1648 e63d caa1 9b3d
000000e0: 6037 bbbc 007e 9cbc 7e9b b8bd e40d e4bc
000000f0: d0c1 db3c 6516 a5bd 806e febd 5ede ddbd
00000100: 94d1 96bc d0aa 7d3d b0c2 9d3d e854 973c
00000110: 20c5 09be ea22 0bbe 4469 fb3d a8af 513d
00000120: 5a28 81bd 3e08 073e dc87 a5bc 8911 e8bd
00000130: 8c19 6e3d 1882 153d d0ae 683d 321d 9cbd
00000140: 7278 15bd 1433 dabc bca0 723d 04f7 dd3d
00000150: 8772 82bd f863 0d3d d090 e33c 2e58 cebd
00000160: 9064 e4bc 44e2 b63d 6665 cbbd d4e8 d93d
00000170: 045a 69bd c659 c3bd 505a afbc c04e c1bd
00000180: 1c31 583d 40c7 4cbd bc3c 563d 0fa0 9fbd
00000190: 542d 0a3e fc66 9dbc aaac a83d 1c62 633d
000001a0: de91 e0bd 1e1e a9bd a7b1 9dbd 469c aabd
000001b0: e24d e43d e840 5abc 2c08 a5bc 0060 baba
000001c0: 987e 77bd 0863 703d e4d9 313d b0e0 f13d
000001d0: 8bcc f1bd f80d c23c d6cf 9a3d 441f d5bc
000001e0: 13ba 03be 0099 c13d 2d9d b7bd b844 513d
000001f0: 0048 fe3c 809b 83bb a445 6abd d23c 023e
00000200: 8098 6e3b c1e2 e1bd 5674 8f3d 9821 e13d
00000210: 8808 263d 3a41 a0bd 640c ef3d 6443 f7bd
00000220: 6011 cd3c bcf2 7c3d bc14 393d 660d f4bd
00000230: 7a06 cbbd 4247 e63d 12f8 d63d 774e 88bd
00000240: 84ab 033e 3850 713d e093 833b 583e 3cbd
00000250: 2846 f63c 88be 08be b8aa f83c 786e dfbc
00000260: 5266 24bd 0450 72bd a0f8 2d3d 32d4 c53d
00000270: 38c3 adbd 7a89 93bd 2cc6 d23d 42fb 3ebd
00000280: bc2e ad3d b34e 8fbd 768a 25bd beda dd3d
00000290: 1471 e83d 60bc 20bd f497 1b3d 1258 babd
000002a0: 222e b6bd c06f 953d 4c81 513d af74 b2bd
000002b0: 9cc0 d8bc d2af b63d 6c1a b1bc cafa a8bd
000002c0: e883 e83d 876f fcbd 20b7 d33c e19f a2bd
000002d0: 3c3d e7bc 0c6b c5bd c078 25bb dbb6 0abe
000002e0: 1a22 a9bd e44e 643d b43e 1c3d a47c dc3d
000002f0: 1c24 6cbd da3b 6ebd b868 da3d c0a0 3c3c
00000300: f215 f7bd d622 cfbd 28e5 c9bd 9498 a73d
00000310: 3c0e 643d 4883 ae3c 643c 86bc 4cff fdbc
00000320: 445c 963d 6075 79bd 1eb9 be3d bc8d 043d
00000330: d075 b0bd c0b1 f6bb f0e0 70bd 3457 f83d
00000340: c0f9 4a3d 04c7 71bd ae06 073e f6ba aa3d
00000350: 7466 673d eabf 8cbd 1320 e7bd 0060 0bb8
00000360: 4046 bc3b 1836 bcbd a2a7 a0bd 01a0 c1bd
00000370: 4ccd 4e3d da66 cc3d 68e3 a43d 408c e7bc
00000380: 00dc 8d3c 3a24 e63d 5029 173d 2083 e53d
00000390: 30bc 9b3c 0c51 b43d 3e3a d43d 5ae6 80bd
000003a0: e0a6 45bc 12a4 08be 7c79 793d 74a8 793d
000003b0: 0004 e83a 988d c8bc 3afb eebd 3cd2 59bd
000003c0: f00d 4dbd e8dd c0bd 5cc7 bcbd 6a4a b13d
000003d0: 409f 0e3b 6cf4 13bd 040e 543d a17d f8bd
000003e0: 5a60 cf3d 801b b1bd 26b3 983d 9eb8 d63d
000003f0: 4861 cabc 2a34 dd3d d63c e0bd 307c 02be
-0.02683904 -0.07302288 -0.08007534 0.07869102 -0.03656257 0.060921133 -0.06844985 -0.080382355
-0.0057840943 -0.13577737 -0.09268074 -0.010000333 0.04184185 0.11820072 0.0371428 -0.00016264617
0.069525436 0.077659026 0.04130076 0.10094531 -0.06023842 -0.054279074 0.1047056 -0.11812765
0.07497552 -0.10877071 0.014515951 -0.07416369 -0.022643961 -0.12036862 0.037250727 0.05784832
0.13521582 0.0819162 -0.108290054 -0.011267096 -0.03139934 -0.00066158175 -0.07723521 0.085106745
0.056124434 0.095623 -0.13092569 -0.06063678 0.081414 -0.025338888 -0.044566914 0.078976095
-0.052375667 -0.10332529 0.08120838 -0.06589899 0.03639482 -0.113200694 0.11244218 0.07599218
-0.022853553 -0.01910305 -0.09014033 -0.027838655 0.026825815 -0.08060912 -0.1242342 -0.10833429
-0.018410482 0.061930478 0.07703149 0.018473104 -0.13454103 -0.13587537 0.12275937 0.05119291
-0.063065246 0.13186738 -0.020206384 -0.113314696 0.058129832 0.03650102 0.05680734 -0.07622756
-0.03649182 -0.026635684 0.05923532 0.1083813 -0.063695006 0.034519166 0.027779013 -0.10075413
-0.027879983 0.089298755 -0.099314496 0.106401116 -0.05697061 -0.09538607 -0.021405369 -0.094388485
0.05278121 -0.049994707 0.052304015 -0.07794201 0.13493854 -0.019214146 0.08236058 0.055513486
-0.10965322 -0.082576975 -0.076999 -0.08330588 0.111476675 -0.013321139 -0.020145498 -0.0014219284
-0.060423464 0.058688194 0.043420687 0.11810434 -0.118065916 0.023688301 0.07559173 -0.026015885
-0.1286395 0.094530106 -0.08965526 0.051090926 0.031040192 -0.00401634 -0.05719532 0.12718514
0.0036406815 -0.11029578 0.07004611 0.109927356 0.04053548 -0.07824941 0.11672285 -0.120734006
0.0250327 0.061754927 0.04518579 -0.11916618 -0.09913345 0.1124406 0.104965344 -0.06655591
0.12858397 0.058914393 0.004015431 -0.045957893 0.03006275 -0.13353932 0.030354843 -0.027274355
-0.040136643 -0.05915834 0.042473435 0.09659614 -0.08484501 -0.07203956 0.102917045 -0.046626337
0.084561795 -0.069974326 -0.04041525 0.108327374 0.11349693 -0.03924215 0.03798671 -0.09098829
-0.08895518 0.07296705 0.051148698 -0.08713662 -0.02645903 0.08920254 -0.021619044 -0.08250959
0.11353284 -0.1232596 0.025844157 -0.07940651 -0.028227441 -0.09639558 -0.0025248975 -0.13546316
-0.082584575 0.0557393 0.038145736 0.10765961 -0.057651624 -0.058162548 0.10664505 0.011512935
-0.120647326 -0.10114066 -0.09858161 0.08183399 0.055677637 0.021302834 -0.016386218 -0.031005524
0.07341817 -0.060902953 0.09312652 0.03236173 -0.08616221 -0.0075285137 -0.058808267 0.12126008
0.049554586 -0.059027687 0.13186142 0.08336441 0.05649419 -0.06872542 -0.112854145 -3.322959e-05
0.005745679 -0.09190005 -0.078444734 -0.094543464 0.050488755 0.09980555 0.08051187 -0.028265119
0.017316818 0.112373784 0.036904633 0.11206651 0.019010633 0.08804521 0.10362671 -0.06293936
-0.012063712 -0.13343838 0.060906872 0.060951665 0.0017701387 -0.02448158 -0.116690114 -0.05317901
-0.05006212 -0.09417325 -0.09217712 0.086567715 0.00217624 -0.03612177 0.05177118 -0.12133337
0.101257995 -0.08647823 0.07456045 0.10484432 -0.02470459 0.10800965 -0.109491035 -0.12742686

W__3523 f4 [1, 384, 6]
00000000: 9e53 e03d e41d bf3d f822 80bd 8229 5cbd
00000010: 03e6 9cbd eaa9 5cbd b469 c3bd 16ca 16bd
00000020: 1875 7fbd b21a 72bd 68c4 41bd de37 fb3d
00000030: 5047 d83c ac6d d4bc 668d 09bd d02f 4c3c
00000040: bc01 0c3d 9260 4bbd b0d6 e13c eafb 9fbd
00000050: 6e71 973d 6c5b f33d f0a0 a83d cc3f 343d
00000060: 6228 d3bd 5c75 903d 149d e8bc 1caf 96bd
00000070: 48d1 573d 38e3 333d ca04 da3d a084 523d
00000080: 6a94 a8bd 7c38 b0bc 488f 603d e079 ba3c
00000090: 3cb9 643d a038 a23c c869 87bc 8a84 aa3d
000000a0: e06b fe3c c806 cdbc 9c3b 3fbd 9e05 62bd
000000b0: 1a5b afbd 10c9 c4bd 24a8 263d 1b91 eebd
000000c0: 2aba 92bd 7f72 b1bd c0d6 76bb 800e c0bd
000000d0: 40c0 19bb 2081 4ebd 8cc4 43bd 186c e9bc
000000e0: 9099 fd3c 80bc 8bbd d685 12bd 48c7 8d3c
000000f0: 68bc e33c 58ee bbbc fa5c 0fbd 78f8 d6bc
00000100: 1057 743c 10e0 d8bc b56e a0bd 78ac 09bc
00000110: 383b b93c 924e b53d c2a4 0ebd 60cd 6b3d
00000120: a658 ad3d 27f6 fbbd ec6b f23d b772 8dbd
00000130: 5586 c6bd 08d5 893c 1c11 08bd 7094 a43c
00000140: eede cf3d fbf2 afbd 1c5c 073d 3a30 0abd
00000150: b05d b7bc ae91 09bd 1ed7 57bd 00c0 993d
00000160: a0ec 9bbd 70c3 debb 4c1c 003d c2e4 06bd
00000170: 364f f43d 3423 aebc c0d3 aabd b8a5 8bbc
00000180: 30fd 463c d4ec ec3d e25c 33bd af07 d7bd
00000190: 7e71 a13d 440e f83d c89b 7a3d 103d c7bb
000001a0: d292 b73d 34ff 09bd c6dc ebbd 1198 87bd
000001b0: dcf6 bb3d 1cef a6bc 2894 d1bd dc32 5a3d
000001c0: 6063 963b e8e4 debd 2320 c3bd 1e67 d13d
000001d0: d43d 253d 740b 7bbd c825 3bbc fc64 b4bd
000001e0: 2029 02bd 9a07 9abd 5b1b a2bd 783a 30bd
000001f0: 0088 c73d ae94 90bd a8d8 e73c e035 5a3c
00000200: 0d90 83bd 3c9b 1a3d 013b d5bd bc6d bdbd
00000210: 3a06 8abd aab8 6bbd 1c6d 82bd 8c74 373d
00000220: ba24 d33d a09c b03b b8cb 3c3d e152 f9bd
00000230: 466d 9f3d e45c 64bd 10d5 623c 054e e4bd
00000240: 1cde 763d 1461 59bd 1847 213d 4cae e13d
00000250: 1c89 d9bc 5bdb e6bd d65b a63d 3dfb a0bd
00000260: 9ab2 38bd 8019 383c 843b ef3d f605 e7bd
00000270: fa5e e33d 6003 953b 4077 dcbb 90a7 703c
00000280: 7064 463d a07d 9f3c b8a2 d03c ead3 f03d
00000290: d0e7 d23c 00ac 7a3d 7066 ae3c 1ae8 bebd
000002a0: e0ea f43d c0d7 453c c01b 383b 05a8 83bd
000002b0: 40eb 1a3b 4241 93bd 4ceb 213d 36c5 4dbd
000002c0: 65e0 dcbd c60f b6bd 1847 bcbd 94ce b9bd
000002d0: 84e4 3bbd f075 063d 9080 1d3c e047 dabb
000002e0: 202c 0a3d c869 573d 3e8e ce3d 2c78 b33d
000002f0: 249d e03d e254 cb3d 504a 3c3d e21a 39bd
00000300: 000b 3cbc 4c1e 5d3d f0c1 2a3c a47f 033d
00000310: 88df b6bd b3d5 d0bd abfa dfbd f45e a9bc
00000320: dcfe 913d 671a 9fbd 04cb 113d 5c5c 0bbd
00000330: c062 433d d097 49bd f0c1 37bd d0f1 d2bc
00000340: 5ae6 98bd a6e3 bf3d 9cb8 50bd 7752 9fbd
00000350: 8813 c53d a0c8 0e3d 4c7f 223d 9b98 a7bd
00000360: 82b3 15bd 24a5 2b3d 94f4 74bd 1adb 82bd
00000370: 2656 06bd 8041 ebbc 2884 f13c 10a6 bfbd
00000380: b21b 9e3d f6bb 38bd 20de 5d3c 3021 9a3c
00000390: b8a8 7f3d c006 f0ba 6874 1abc c035 5fbd
000003a0: b0c0 8b3c 08ee cc3c f060 dc3c d82e 953c
000003b0: 58ee 9dbd 3173 ebbd f81a 67bc a493 f0bc
000003c0: 3493 98bd 3016 f1bc 4069 7a3d dee3 cc3d
000003d0: 642c 003d 86ee aa3d 0474 1bbd 289a 543d
000003e0: f829 d93c 385a 8d3d 4cdd 593d 5c5a 933d
000003f0: 4c3e 66bd e8de 1bbd 8ce1 b03d 5817 49bd
0.10953449 0.09331873 -0.0625667 -0.053750522 -0.07661059 -0.05387298 -0.09541646 -0.036813818
-0.06236753 -0.05910749 -0.04730645 0.12266515 0.026401192 -0.025931202 -0.033582114 0.012462571
0.03418134 -0.049652644 0.027568191 -0.07811721 0.07394682 0.11882672 0.082338214 0.044006154
-0.10310437 0.070536345 -0.028395213 -0.07357618 0.05268982 0.043917865 0.10645445 0.051396012
-0.08231433 -0.021511309 0.054824144 0.022763193 0.055840716 0.019802392 -0.016529933 0.08326061
0.031057298 -0.025027648 -0.046687707 -0.05518114 -0.08562298 -0.09608662 0.040687695 -0.116487704
-0.07164414 -0.086644165 -0.0037664622 -0.09377766 -0.0023460537 -0.050416112 -0.047794864 -0.028493926
0.030957013 -0.06823063 -0.035772167 0.017306939 0.0277998 -0.0229408 -0.03500078 -0.026241526
0.014913335 -0.026474029 -0.07833616 -0.008402936 0.022611246 0.08852877 -0.034825094 0.057568908
0.08464174 -0.12302809 0.11836991 -0.06906646 -0.096935906 0.016825214 -0.03321944 0.020090312
0.10149942 -0.08591267 0.033046827 -0.0337374 -0.02238354 -0.033586197 -0.052695386 0.07507324
-0.07613492 -0.0067982003 0.031276986 -0.032933004 0.11929171 -0.02125702 -0.08341169 -0.017046794
0.012145326 0.11568609 -0.04378975 -0.104995124 0.07882975 0.12112096 0.06118372 -0.0060802773
0.089635506 -0.033690646 -0.115167186 -0.06620801 0.09177944 -0.020377688 -0.10233337 0.05327116
0.004589483 -0.10883504 -0.09527614 0.10224746 0.040342167 -0.06129022 -0.011422582 -0.08808324
-0.0317775 -0.07520981 -0.07915374 -0.04302451 0.09742737 -0.070596084 0.028301552 0.013318509
-0.0642396 0.0377457 -0.10411645 -0.09249446 -0.06739469 -0.057549156 -0.06368467 0.044788882
0.103097394 0.005389765 0.04609272 -0.12174011 0.07784514 -0.05575265 0.013844743 -0.111476935
0.060270414 -0.053071097 0.03937444 0.110195726 -0.026554637 -0.112723075 0.08122985 -0.0786042
-0.045092203 0.011236548 0.116812736 -0.11280434 0.111021 0.0045475215 -0.006728083 0.0146883875
0.04843563 0.019469082 0.025468215 0.117591694 0.025745302 0.06119919 0.02128908 -0.093216136
0.11958861 0.012075365 0.0028092712 -0.064285316 0.0023638755 -0.07190181 0.039531037 -0.050236903
-0.10784987 -0.08889727 -0.091932476 -0.09072605 -0.045872226 0.032827318 0.009613171 -0.0066614
0.033733487 0.052591115 0.10085724 0.08763155 0.10967472 0.099282995 0.045969307 -0.045191653
-0.011477232 0.05398397 0.010422215 0.03210415 -0.08929354 -0.1019701 -0.10936483 -0.02067516
0.07128689 -0.07768708 0.035594 -0.034023628 0.047701597 -0.049217045 -0.044862688 -0.02575007
-0.07465811 0.09369592 -0.050957307 -0.07779401 0.09622866 0.0348593 0.03967218 -0.08183404
-0.036548145 0.041905537 -0.05980356 -0.063894466 -0.032797 -0.028717756 0.029481962 -0.09357846
0.07720126 -0.04510113 0.013541728 0.018814653 0.062416762 -0.0018312559 -0.0094271675 -0.05449462
0.017059654 0.025015846 0.026901692 0.018210813 -0.07711476 -0.114965804 -0.014105551 -0.029367276
-0.07449952 -0.029429525 0.06113553 0.100044 0.031292334 0.08346276 -0.037952438 0.051904827
0.02650927 0.069019735 0.05318956 0.07194969 -0.056211755 -0.038054377 0.0863677 -0.049094528

R__3551 f4 [1, 96, 32]
00000000: e0b4 bb3d 4e4e aebd 3048 b3bb bb8e 5f3d
00000010: 95bd 073e 98ea 313d 2a47 b03d 4792 59bd
00000020: c8ea 3dbe 3d57 5f3d 2167 82bc 403a 0bbe
00000030: 00da 06bd 1f55 cebd b701 47bd fb7a b53c
00000040: 4e54 38bc 1b11 71bb 8469 0ebe 20dc 203e
00000050: 98df 8ebd f2c1 063e 3273 ae3d f170 19be
00000060: 30ea 79bd 431f 53be 091d eabc 59b2 4c3e
00000070: 37ec 17be b6c7 c13a 6a5f 8bbd 22a5 5fbd
00000080: 0ede 6eb9 b023 c53d 4324 34bd ba29 8ebc
00000090: fe54 ff3d e277 4b3d f5e5 a43d e5db 10be
000000a0: 506e aa3d a9a2 f53d be0e 7ebd 393e d7bc
000000b0: bcd1 803d af6e e73c 6e2c 8cbd c50e e0bb
000000c0: 80bf 0dbe 6464 e2bd 9ea5 1f3e 519a 0d3a
000000d0: 3e15 f33d 5372 8f3d 2a82 6fbd 769a 34bd
000000e0: 4ad8 15be f4c9 5e3d f141 923d b71e 4d3d
000000f0: 61ce f23d fcc7 9f3d e932 2cbe 2e52 61bd
00000100: 3045 17be f0d2 aa3c a0d5 9c3d bf17 d3bd
00000110: fe98 203d a7ba 093c c14e 1cbe 9cd8 06be
00000120: 948a d83d d8fb 2cba 9153 e7bd 38ca 183e
00000130: cf70 68bd d5aa 51bd 9a9a 423d d487 05bd
00000140: a577 8b3d 8826 40bc 48b2 0d3b 6cb5 d43d
00000150: 366b e33d 4e10 0c3d dd87 b6bd 008c 20bc
00000160: da05 2b3e 8b55 a13d d250 9e3d 23a8 253e
00000170: 1a59 ab3c 25df dc3d 686d 00be e18f 773d
00000180: 70d5 20be f867 29bc 88a4 51bc 0241 133e
00000190: 584d f1bd f081 df3d 17a8 de3d 457a ea3d
000001a0: 661e ca3d a1dc 063e 894c 1dbd 5929 babc
000001b0: fbf5 353e 4353 5b3d c2a5 973c 1ab4 3c3d
000001c0: 649d c03c 7821 7dbe 2f15 5d3c 7551 323e
000001d0: 3a3e 8bbc a0be eeba 8ba0 23be c2be bebd
000001e0: b9e6 b7bd 7b3c 9cbd 29f9 b83d b4a7 63bc
000001f0: eeeb 8abd 4d89 37bc 689f a1bc 9e4d f63d
00000200: a810 17bd 6c85 63bd eb8d 31be 3879 6e3d
00000210: 1cd9 32bd 64b3 58bd f158 013c 90fe ef3c
00000220: dd7a 57be 7867 223d db5a 1abd 05ee 8e3e
00000230: b50d c43b f5c7 2a3c 8d86 52bd 58d9 e33d
00000240: 8d12 58bd ffcd 45bd fadf cf3c 190c 58bd
00000250: 572d 183d 67b5 1c3e 5445 c83d d28d 443d
00000260: 82e0 f33d de14 14be 7c0a 66be ec52 78bd
00000270: b2f3 59bd 1da1 993d c86c 7abc 4112 833d
00000280: 2519 82bb d685 3a3d ec06 733d 48fc e7bc
00000290: 9e61 97bd a4c2 7fbd 10ad 27be 73de c93d
000002a0: 0109 b63c 1cc9 793d 20d2 b63d e9c5 343e
000002b0: 95bc efbd 03b9 51bd be60 57bd 9dfe c43c
000002c0: 43a6 0b3e 7d84 81bd 9378 3f3d 16ab a2bc
000002d0: 93d9 2a3c f205 273e 7e50 afbb c2cd f1bc
000002e0: c688 bdbd c5d3 35bd db75 323d b73f 76bc
000002f0: b6fe 823d b5cc 403e f177 53be 79b2 bd3d
00000300: 9567 e93c b8d3 6ebd 7cca 6f3d ff55 d73c
00000310: a34b 5c3c f627 10be 0c5c 223d aae9 73bd
00000320: 76a1 823b 500c 633e ec09 06be ce3b afbc
00000330: feec 2e3e 33d7 fc3d 05c9 d63d 4ca2 01be
00000340: f4a9 65bc 5bf0 b7bc 80a5 ac3d 8078 74bd
00000350: 4946 373e 0524 8ebe 889c 013e 7d52 96bd
00000360: 4e1f 0abe 7bd1 0ebe 8eb9 90bd 41a5 5cbd
00000370: de92 54bd a273 a43d 98f5 c6bd 7924 e13d
00000380: bfe3 383d e392 a73c c164 c23d 5eb2 05be
00000390: f29e 88bd 8cba c2bd bce3 053e 2a87 283e
000003a0: daab 12be f236 583d 0eeb 873e 18fb 7dbd
000003b0: 0c49 7d3e 2886 323e d1c5 f6bd cc2f b9bc
000003c0: ac45 553d 4d56 a1bd 4907 2ebe 3fc2 623d
000003d0: ff9d e03c 43fc 03bc f4e6 9bbd 3ee8 00be
000003e0: 5da8 d83d 5cf2 aebc 88d0 9bbc 2965 e1bd
000003f0: 6474 2ebd a26d 58be be39 16be e96b 4ebd
0.091653585 -0.08511029 -0.005471252 0.054579478 0.13255914 0.043436617 0.086073235 -0.053118017
-0.18546593 0.054526556 -0.015918316 -0.1359644 -0.032922745 -0.10074829 -0.04858562 0.022153368
-0.011250569 -0.0036783877 -0.13907439 0.15708971 -0.06976241 0.13159922 0.085180655 -0.1498449
-0.061014354 -0.20617394 -0.028578298 0.19989909 -0.14836203 0.001478425 -0.06805308 -0.054600842
-0.0002278017 0.096259475 -0.043979894 -0.017353881 0.12467383 0.049674876 0.08051673 -0.14146383
0.08321822 0.119939156 -0.062025778 -0.026274787 0.06290004 0.02825102 -0.06844412 -0.006837698
-0.13842583 -0.11054304 0.15590522 0.0005401718 0.11869286 0.070042275 -0.058473743 -0.044092618
-0.14633289 0.054391816 0.071414836 0.05007812 0.1185577 0.07801816 -0.16816296 -0.055010013
-0.14772487 0.020852536 0.07657933 -0.103072636 0.039208405 0.008406318 -0.15264417 -0.13168567
0.10573307 -0.0006598807 -0.11295236 0.1492089 -0.056748208 -0.05118831 0.04751072 -0.03260024
0.0680993 -0.011727937 0.0021621156 0.10386166 0.11104433 0.034195237 -0.089126326 -0.009799004
0.16701451 0.07877644 0.07730259 0.1617742 0.02091651 0.10784749 -0.12541735 0.060439948
-0.1570642 -0.0103397295 -0.012795575 0.14380267 -0.1178233 0.109134555 0.10871904 0.11449102
0.09869079 0.13170101 -0.038403068 -0.022724794 0.17769615 0.0535462 0.018511657 0.046070196
0.02351255 -0.24719799 0.01349382 0.17413886 -0.016997445 -0.001821477 -0.15979211 -0.09313728
-0.08979554 -0.07628723 0.090318985 -0.013894964 -0.06783281 -0.011202169 -0.019729331 0.12026523
-0.03688112 -0.055547163 -0.17339294 0.058221072 -0.043664083 -0.052905455 0.00789474 0.02929619
-0.21042962 0.039649457 -0.037684303 0.2791597 0.0059830793 0.01042365 -0.05139785 0.111254394
-0.052752066 -0.048292156 0.025375355 -0.052745912 0.037152614 0.15303575 0.09778848 0.047986813
0.11908056 -0.14461085 -0.22464937 -0.060625955 -0.05321092 0.07501433 -0.0152847245 0.06399966
-0.0039702826 0.045537792 0.059332773 -0.02831854 -0.07391666 -0.062441483 -0.16374612 0.09856882
0.02222109 0.06098281 0.08926797 0.17653622 -0.11705891 -0.05120183 -0.052582495 0.02404719
0.13637643 -0.06324098 0.046745848 -0.01985697 0.01042785 0.16310862 -0.0053501716 -0.029517058
-0.09254603 -0.044391412 0.043569427 -0.015029839 0.063962385 0.1882809 -0.20651223 0.092625566
0.028491775 -0.05830738 0.058542714 0.026286123 0.013445768 -0.14077744 0.039638564 -0.05954901
0.003986533 0.22172666 -0.13089722 -0.021390822 0.17082593 0.123457335 0.1048756 -0.12659568
-0.014017571 -0.022453478 0.08430004 -0.05968523 0.17897905 -0.27761856 0.12657368 -0.07339952
-0.13488504 -0.13947098 -0.07066642 -0.053868536 -0.051897876 0.08029868 -0.09714812 0.10993285
0.04513907 0.020455783 0.094918735 -0.13056323 -0.066709414 -0.09508237 0.13075155 0.16457811
-0.14323369 0.052786775 0.2654652 -0.06200704 0.24734896 0.17433989 -0.12049449 -0.0226058
0.052068397 -0.07877789 -0.16994967 0.05536103 0.027419088 -0.008055749 -0.0761241 -0.12588593
0.10578988 -0.0213558 -0.019020334 -0.11005623 -0.042591467 -0.21135572 -0.14670464 -0.05039588

R__3537 f4 [1, 192, 64]
00000000: 9088 943d feef 00be 4164 31be 5ccb 873d
00000010: 6805 6c3c 0a43 9bbd 6e3b fbbc 94da aebc
00000020: 00a3 b9bc b268 853d 92de f2bc ed68 cb3d
00000030: bc01 c53d ecef d9bd ea74 0d3e 6086 9c3c
00000040: 0f71 b53d ca7f 3c3d 307c 80bd 4079 a5bb
00000050: 3895 fbbc b62e b33d f6cb ca3c ea3b f0bc
00000060: 0c71 643d 6029 a53d f2d8 1f3d 4e74 88bd
00000070: ac6b 10bc 0a92 52bc 70d1 05bc cbe7 043d
00000080: 11e3 d83c 0587 44bd 5a41 d4bc d425 303d
00000090: 4051 06bc e2ae 2f3d d1c3 bc3d 7958 d13d
000000a0: c4ca 8d3d 24b3 7a3b 7fdd 0c3d e97c 023e
000000b0: 3f76 65bd ed42 f03c 4dd0 0b3d 89ea a6bc
000000c0: 92bf 4dbe 55ee d2bc 3c59 f1bc 0f89 d5bd
000000d0: 768a 01bb fdd8 903d 6f29 723c 93f0 db3d
000000e0: 450e b4bd 7a56 22bd b82e d13d b79a 853d
000000f0: 8dc7 783d f4b0 5fbd f69c f03b 8d30 493d
00000100: 8848 b7bd c0c0 963d 0ccc 7e3d 0f05 3ebc
00000110: 956a 8dbd a3d9 48bd 9630 67bc 9af8 5b3c
00000120: 7c2b 90bd 5f10 2c3c d45f febc 4dde cebd
00000130: 2b13 cb3d e95d 21be 30eb fcbd 462c 67bc
00000140: da37 dfbc 3e14 6b3e 5168 923d ad47 79bc
00000150: f887 603d 742f ffbd e667 583d 8781 11bd
00000160: c0cf 9bbd c152 343d c5cd 2a3d 7607 7fbd
00000170: 2e65 63bd 1a6e 8d3d 199d aebd 847a a2ba
00000180: f7dc 08be b55b 85bd fc78 e73b 32f3 d53c
00000190: 7213 a3bd 329e c8bd b2fb d53d 2a05 88bd
000001a0: 09ad ec3c 7e89 46bc 5b6e c93c d4e2 6fbc
000001b0: f70d 0c3d 3046 05bd d877 5b3d 7777 95bd
000001c0: c60d ac3d 1c9a 6e3c df8b 4b3d dcb5 1c3d
000001d0: 3c67 87bc 8306 05be ffa8 183d de32 5bbb
000001e0: fcaa ea3c 5c60 53bd 7476 d53d a656 093d
000001f0: b066 59bc 9fc5 84bb d570 303d 8a98 8a3d
00000200: 50ff 77ba e534 b4bd c021 3fbd 78f8 ce3d
00000210: 10e0 86bb eb59 f5bd c04c 91bd f0da f3bc
00000220: c576 073d 5962 25bd 9309 873d 4f65 7fbc
00000230: c381 a1bb 2882 7dbd f01d ca3d 56c3 f6bc
00000240: 5be9 2c3d c68f 5dbd 158a 0c3e a216 923d
00000250: f480 843d 103a 99bd d036 d6bc 205e 16bd
00000260: dfe5 113e 0477 0fbe 705f a6bb daa0 2cbd
00000270: f8ab 93bd 283d 393d 40a9 2bb9 2dc4 7cbd
00000280: 7c0b 74bd 7816 5f3b d629 0c3b 0173 9cbc
00000290: a48f 1dbd 6991 cebd ea83 b4bc d245 f8bd
000002a0: c5ab 0c3d 2f19 993b 93b0 8dbd f0fc 363d
000002b0: 8236 c03c 3800 ee3c 8d93 cdbd 7c17 b3bc
000002c0: 22bf 5f3d d403 b6bc a7fe f1bc 92cb 04bb
000002d0: a490 1a3d e095 9d3c 29f7 e63c 19e0 ee3d
000002e0: cd40 9c3d 54d4 273b db0d 143c 8cf7 a23d
000002f0: b652 25bd ee31 d6bd 2080 683d 7d8d 003e
00000300: cd2e fbbc b263 bdbc c305 bc3d 007c 1b3b
00000310: f051 893c 1425 e8bd 200f 83bd 2138 12bd
00000320: 8e85 9abc 158a 453d 0394 e3bd 31a6 fabd
00000330: 2c50 57bd 10f9 fc3a 30a5 d1bd 0583 0abd
00000340: b69d 263d 35ee 60bd 0cd2 d0bd ff51 a03c
00000350: 4621 51bd ee09 fe3c 06f0 18bd e1ec 8fbc
00000360: a95b 943c 10c4 ebbb e8c8 4ebd 7a62 39bd
00000370: 873c 5a3d 42ca 103b 8e48 8fbc 7673 0b3e
00000380: fe93 693d 300c 443c f220 413d f89d f03d
00000390: 8877 8a3d 5f8b b9bc ba4f d73d ff43 a3bc
000003a0: 9530 fdbd 5956 2dbe 8bf9 16be d6a6 c5bd
000003b0: ee33 553c 595e 81bc 586f e03d ec59 01bd
000003c0: d8b4 a1bd f636 d2bc ebb3 123d 7409 d13c
000003d0: 65ab d63d ff77 d0bd 6660 ee3b 9a1f 7dbd
000003e0: 7e58 563d c686 e8bc 876b 88bd 27b6 9f3d
000003f0: b83a 3b3d 0b7a 013e e63a 87bd 3410 dcbc
0.0725261 -0.1259155 -0.173234 0.066305846 0.014405586 -0.07581146 -0.030667987 -0.02134446
-0.022660732 0.0651411 -0.029647145 0.099321224 0.096194714 -0.106414646 0.1381413 0.019107044
0.08859455 0.046020307 -0.06273687 -0.0050498545 -0.030710801 0.08749144 0.02475546 -0.029325444
0.055771872 0.08064532 0.039025255 -0.06662808 -0.0088147335 -0.012852201 -0.00816761 0.032447618
0.026475461 -0.047980327 -0.025910068 0.043004826 -0.008198082 0.04289139 0.092170365 0.10221953
0.0692344 0.0038253749 0.034390923 0.12742962 -0.05602097 0.029328788 0.034134198 -0.020375507
-0.2009261 -0.025748411 -0.029461496 -0.104265325 -0.0019766367 0.07072637 0.014780386 0.10739245
-0.08791784 -0.03963325 0.10213989 0.0652365 0.06073718 -0.054612115 0.00734293 0.049118567
-0.08949381 0.07360983 0.062206313 -0.011597886 -0.069050945 -0.04903568 -0.014110705 0.01342597
-0.07039544 0.01050195 -0.031051554 -0.10100994 0.099157654 -0.1575848 -0.12349546 -0.014109677
-0.027248312 0.2295694 0.07148803 -0.015214843 0.05481717 -0.12460223 0.05283346 -0.035523918
-0.076079845 0.044024233 0.041700143 -0.062262975 -0.055516414 0.06905766 -0.08526058 -0.0012396132
-0.13365541 -0.06511632 0.007063983 0.026116941 -0.07962693 -0.09795798 0.10448398 -0.0664161
0.028891103 -0.012117742 0.024588754 -0.014641482 0.034193005 -0.03253764 0.05358109 -0.07298177
0.084010646 0.01456311 0.04969394 0.038259372 -0.016528718 -0.12990765 0.037270542 -0.0033447067
0.028645985 -0.051605567 0.10422984 0.0335299 -0.0132691115 -0.0040518786 0.043076355 0.06767376
-0.0009460347 -0.08799151 -0.046663046 0.101059854 -0.004116066 -0.11980041 -0.07094717 -0.029767483
0.03307225 -0.040376995 0.06593623 -0.015588119 -0.004928799 -0.061891705 0.098689914 -0.03012244
0.042214733 -0.05409219 0.13724549 0.07133223 0.06469908 -0.07481778 -0.026149184 -0.03671086
0.14247845 -0.14010245 -0.005077295 -0.042145588 -0.07210535 0.04522434 -0.00016370881 -0.061710525
-0.059581265 0.0034040492 0.002138724 -0.019097807 -0.038467064 -0.100863285 -0.022035558 -0.12122692
0.0343435 0.0046721916 -0.069184445 0.044674814 0.023463491 0.029052839 -0.10037909 -0.021861784
0.054625638 -0.022218622 -0.029540373 -0.002026294 0.037735596 0.019236505 0.028194027 0.11663837
0.07629547 0.0025608735 0.0090365065 0.07957372 -0.040362082 -0.10458742 0.056762815 0.12553973
-0.030661965 -0.023118827 0.091807865 0.0023725033 0.016762704 -0.11335197 -0.06399369 -0.03569806
-0.018862512 0.04822739 -0.11112215 -0.1223873 -0.052566692 0.0019300301 -0.10236585 -0.033816356
0.04067775 -0.054914672 -0.10196313 0.019570349 -0.051057123 0.031010594 -0.03733828 -0.017569007
0.018110113 -0.0071950033 -0.050484568 -0.04525993 0.05328038 0.0022093211 -0.017490651 0.13618264
0.057025902 0.011965796 0.04715056 0.1174888 0.0676108 -0.022649465 0.105132535 -0.019929884
-0.12362782 -0.1692747 -0.1474363 -0.09650962 0.013012869 -0.015792059 0.10958737 -0.031579897
-0.07895821 -0.025660973 0.035816114 0.025517203 0.1048191 -0.101791374 0.007274675 -0.061797716
0.052330486 -0.028384577 -0.06661134 0.07798415 0.045710295 0.12644212 -0.06603031 -0.026863195

R__3524 f4 [1, 384, 128]
00000000: 40a9 693d 9879 d63d 521c 143e 9ef7 47bd
00000010: 3dbb e1bc 44ac 53bd 4b16 96bd b8c1 10bc
00000020: 9edb 84bc 4070 1bbc 2e1a c7bd 0686 163c
00000030: 9c3c 64bd f68e 573d 343e b3bb da12 023d
00000040: 3d7e acbd 3a65 56bd 36b2 963d 4067 8c3c
00000050: 84d3 913c 209a 903c 9133 4fbd df6d 20bd
00000060: 47c8 a73d 9aa6 07bd f8e4 46bd 8994 0dbd
00000070: 4665 dabd d44e f2bc 2a87 943d 344d 07be
00000080: ced5 3c3c 5283 6fbd 517f 153d 74e6 fb3c
00000090: c649 11bd 104f 633d 5ac2 fbbc f2cb 59bd
000000a0: 2719 c83b 787c 2e3d 364c dfbc 95fd cebd
000000b0: 3af7 42bc e5f4 18be ca84 193d 0ccf 1f3c
000000c0: 4f91 db3c 2e66 e2bb ccf6 58bc 5b22 0b3d
000000d0: af55 393d 3f9b 8ebd 12de a23c 0c71 0e3e
000000e0: 89b8 32bc 3e6d b83c 1a59 0d3d 3f27 c23d
000000f0: 9d78 99bd 2135 a03c da68 4e3d 8379 c5bc
00000100: 685f afbc 0f98 143d 56f2 93bd 351f bc3d
00000110: 117b 6ebd 9e0d 223d 89aa 323d 4a97 bc3c
00000120: 9565 56bd 4959 973d 166a c8bc 7491 acbc
00000130: e4d7 033d e646 2fbb 08fe 46bc 8f13 043e
00000140: 222b bd3d 74bb 623d 7936 8bbd 12be 793d
00000150: bab1 47bd 0852 d63a 8894 55bd ea8e 213d
00000160: 125f 103c f0b5 e4bb 396b e13d cad0 e33c
00000170: 9117 5f3d 5a8f b2bc 5336 54bc 6859 2fbd
00000180: aa4f 0ebd 8f16 e0bc 1983 6e3d 117f 44bd
00000190: fc43 16bb 67c4 bdbd 0814 5fbc 1458 923c
000001a0: bd48 c83c d8ab 123d a6a1 523d 3c8b 02bd
000001b0: 0dd6 303d af5c f1bb 4990 84bd 5afa a13b
000001c0: a73d c4bd 00c3 0a3c 965a 67bd d7cf 5fbd
000001d0: 8c5d 873d 0c26 183c 5c0c 223d f0d0 b7bc
000001e0: e093 a9bd 7ead d23d 97d8 d63b ec3b 37bd
000001f0: 8056 783d 202e 4bbb 9049 b4bc 7c14 e83c
00000200: 34cf 1f3d 804c 04bc 3db1 99bc ece7 74bd
00000210: 417b 9d3c c780 e1bb ad7f 9abd 7bb6 cdbc
00000220: 1ec4 d13c 8a69 1e3d 0a77 333d dafa 7b3d
00000230: 0e3f 953c da6f 873a 6986 79bc bd47 533d
00000240: 14ea 843d 7ab2 003c 9691 af3c 5cc8 49bd
00000250: 3b38 54bd f9fc 94bd 993b 48bb 30bc c13c
00000260: ed9a 453b adda 8f3d 423d cf3c 58aa 82bc
00000270: 4045 3f3d d388 f83c 105d f03b 914d 2fbd
00000280: 88a8 17bc c35b ba3d 602d a3bc 87d4 d93c
00000290: 540c 35bd 8166 1d3d 0abd c93c f57a 31bd
000002a0: 2627 e9bc 7ffa 8f3d 90c1 53bc 17c6 3a3d
000002b0: a0cb dabd 0e7d b5bb b94a b5bc a921 8abd
000002c0: 6aa0 883d 81b7 7ebd 0d36 eebd 6cf6 323d
000002d0: 08f1 8cbd 6419 a93d e10c 8d3d 6f79 87bd
000002e0: 724a 063e 3225 a0bb 3b02 a2bc 35da 8d3c
000002f0: d254 1ebd d3ac 2f3d 44da cd3d 564a 063d
00000300: 66d0 f13d 6ab9 d5bd 131b a2bc 7c5e 5cbd
00000310: 90ea f0bc c854 f93a 01d7 273d a456 81ba
00000320: 429c d0bd f880 8ebc 66d8 133d 5c5b f8bc
00000330: 855b 053e abf7 98bd 20a9 683d 8687 fcbc
00000340: 839c 393d 725b d13c ea61 563d 9336 e9bc
00000350: f9e3 a6bd 9168 9b3c 63a6 c23c bb17 a53d
00000360: 2009 c8ba 151b 90bd 433d 35bd b2e3 933c
00000370: 4016 88bb a549 c0bc 1b68 93bd 3cee 35bd
00000380: bf55 203d c05b 3dbc be56 103c 2655 933d
00000390: aade 733d 53b7 ebbd 5b77 e1bc b7e8 2a3d
000003a0: e972 223d 2699 afbd a667 ab3d c14a 09be
000003b0: 249c bb3d 2c0f 9e3d 6bdf b1bd d649 8c3c
000003c0: 84f5 863c d029 85bc fecf a7bb 17f2 aebc
000003d0: 61e0 883c d8d7 e23c a798 403d fd86 3bbc
000003e0: 62f6 10bc 42d3 acbc 1730 9e3d 5417 073d
000003f0: 7778 973d d6d1 2bbd 03f4 b53b 8158 963b
0.057046175 0.10472411 0.14463928 -0.04882013 -0.027555102 -0.051677957 -0.07328471 -0.008835249
-0.016218003 -0.009487212 -0.0972179 0.009187227 -0.055721864 0.052626573 -0.0054700617 0.03175626
-0.084225155 -0.05234263 0.0735821 0.017139077 0.017801054 0.017651618 -0.050586287 -0.03916728
0.08192497 -0.033117868 -0.048558205 -0.034565482 -0.106638476 -0.029578604 0.07252343 -0.13213044
0.011525584 -0.058474846 0.03649837 0.030749537 -0.035470746 0.05549532 -0.030732322 -0.053173013
0.006106514 0.04259917 -0.02725802 -0.10106961 -0.011899764 -0.1493717 0.037480153 0.009753954
0.026802687 -0.0069091534 -0.013242435 0.03396831 0.04524773 -0.069632046 0.019881282 0.13910311
-0.010908254 0.022513028 0.034508802 0.09480142 -0.07493708 0.019556584 0.050392963 -0.024105793
-0.021407798 0.036277827 -0.07223956 0.0918564 -0.058222834 0.039563768 0.043619666 0.023021359
-0.05234297 0.07390077 -0.024464648 -0.021065451 0.03218831 -0.002674514 -0.012145527 0.12898086
0.092367426 0.05535455 -0.06797499 0.06097228 -0.048753478 0.0016351352 -0.052143604 0.039442934
0.008811729 -0.0069796965 0.11006779 0.02780952 0.054465834 -0.021796871 -0.012952405 -0.042809874
-0.034743942 -0.027354507 0.058230493 -0.047972742 -0.0022928705 -0.092659764 -0.013615616 0.017864265
0.024448747 0.035808414 0.05142369 -0.031871065 0.043172885 -0.007365785 -0.06472833 0.0049431743
-0.09582072 0.008469343 -0.056482874 -0.05464157 0.066096395 0.009286415 0.039562568 -0.022438496
-0.08280158 0.10286997 0.0065565812 -0.04473488 0.060629368 -0.0031002834 -0.022007734 0.02833008
0.039015964 -0.00807488 -0.018761272 -0.05979149 0.019223811 -0.0068818065 -0.075438835 -0.025111428
0.025606211 0.03867487 0.043814696 0.061518528 0.018218543 0.0010333017 -0.0152298 0.051582087
0.06489959 0.007855052 0.021431725 -0.049263343 -0.051811438 -0.07274813 -0.00305531 0.023649305
0.0030152157 0.07024131 0.025297765 -0.015950367 0.0466969 0.03033868 0.0073353127 -0.042798582
-0.00925649 0.090995334 -0.019919097 0.026590599 -0.04420121 0.038427833 0.024626274 -0.04333015
-0.02846105 0.070302 -0.012924567 0.04559907 -0.1068337 -0.0055385893 -0.022130357 -0.067447014
0.066712216 -0.06218672 -0.11631403 0.043692037 -0.068819106 0.08256796 0.06887222 -0.066149585
0.13114336 -0.0048872465 -0.019776454 0.017315963 -0.03865511 0.042889427 0.100513965 0.032785736
0.11807327 -0.104357556 -0.0197883 -0.053801045 -0.029408723 0.0019022459 0.040976528 -0.000986774
-0.10186054 -0.017395481 0.036095046 -0.030317001 0.13023193 -0.07469114 0.056801915 -0.030826341
0.045315277 0.0255563 0.052339472 -0.028468406 -0.08148951 0.01897076 0.02376098 0.08061167
-0.0015261509 -0.070364155 -0.044247877 0.01805291 -0.004153043 -0.023472616 -0.07197591 -0.04441665
0.039144274 -0.011557519 0.008809743 0.07193975 0.05953852 -0.11509576 -0.027522733 0.04172584
0.039660368 -0.085741326 0.08369379 -0.13407423 0.09160641 0.077177376 -0.08685192 0.017125051
0.016474493 -0.01625529 -0.00512123 -0.021355672 0.016708555 0.027690813 0.04702058 -0.011445758
-0.008847805 -0.02109683 0.07724016 0.03298123 0.07396024 -0.041948162 0.00555277 0.004588187

GRU/quant_dense_51/LastValueQuant/FakeQuantWithMinMaxVars__3512 f4 [32, 1]
00000000: 1070 dbbd cb4a 9abe 904b 623e 1127 e93d
00000010: 0e02 c03d 4b6f 93be cb4a 1abe 0a26 89be
00000020: ef6f cf3e 8e26 b93e cb4a 1abe 0e02 403e
00000030: 4e94 bcbe 8cb8 9d3e 2cdd a23e 0c94 243d
00000040: 1070 5bbb 8e26 393e 0c94 a4be 9094 d43d
00000050: cf26 d1be d0dd 5ebe 30b9 d93e cdb8 b5be
00000060: 0c94 24bc 8a01 903e ca93 0c3e 2cdd a2be
00000070: 0000 0000 0c94 24bd 4ddd ae3e ce6f c33e
-0.107147336 -0.30135188 0.22099137 0.113844045 0.09375392 -0.28795847 -0.15067594 -0.26786834
0.40515086 0.36162227 -0.15067594 0.18750784 -0.36831897 0.3080486 0.31809366 0.04018025
-0.0033483543 0.18081114 -0.321442 0.103798985 -0.4084992 -0.21764302 0.425241 -0.35492554
-0.010045063 0.28126174 0.13728252 -0.31809366 0.0 -0.04018025 0.34153214 0.38171238

GRU/quant_dense_50/LastValueQuant/FakeQuantWithMinMaxVars__3511 f4 [32, 32]
00000000: fdc5 ac3d 2123 5ebe 6ba5 363e d9f6 1dbd
00000010: 6b17 143d 3584 86be 1043 9a3e 6cd0 02be
00000020: 6a7a 6abe d9f6 1d3b ec73 8b3e 7e94 813e
00000030: 6a33 d93d 2207 99be 21dc 4c3e fd53 cfbd
00000040: b38a 653e 6cd0 02be 1043 9abe 5953 95be
00000050: 6ac1 fb3d 6ba5 b63d 46ab 5bbe 47d6 a7bd
00000060: d9f6 1dbe 6b17 94bd 478f 16be 46f2 ecbc
00000070: d884 c0bd 6a33 593d fe37 8abc 5953 953e
00000080: 9058 003e 216a 6fbe 4748 853d 478f 96be
00000090: 6a33 59be 4748 853e 47d6 a73d 47d6 27be
000000a0: 6ac1 fbbd d9f6 9d3b 8f74 453c 6bec 473e
000000b0: 590c 843e 216a 6f3e 1043 9a3e fe37 0a3e
000000c0: fe37 8a3d 2123 5e3e fd53 cf3d 6a7a 6abe
000000d0: 9058 80bd 6ac1 7b3e ec73 8b3e b4b5 31bd
000000e0: c7eb 8dbe 6ba5 b6bd 2207 193e 6b17 14be
000000f0: d9f6 9dbd c7eb 8dbe d9f6 1dbe 47d6 a73d
00000100: 6cd0 02be 8fbb 56be 902d 343e 22c0 073e
00000110: 3584 863e 590c 843e 46f2 6c3c 35cb 973e
00000120: d9af 0cbe b4fc 423e 46ab 5bbe b4fc 423e
00000130: 2295 3bbd 6cd0 82be 6cd0 823e b46e 203e
00000140: fd53 4f3e 2207 99bd a263 90be d9f6 1dbe
00000150: fd53 4fbe ebba 9c3e 6b17 143d 46f2 ecbc
00000160: 2123 de3d b3d1 763d 4539 7e3e d9f6 9d3b
00000170: 90e6 a23d 461d 39be 6ac1 fb3d 590c 84be
00000180: d812 633e 909f 11be b4b5 313d 5953 95be
00000190: 6ac1 fbbd 2295 3b3d 2295 3bbe 224e 2a3e
000001a0: fd53 4fbe 6a33 d9bc 2207 993e 7e94 813e
000001b0: d9f6 1dbc d884 403e 46f2 ecbd 9058 803d
000001c0: 2207 993d 2295 bb3d 6a33 59be fdc5 2c3e
000001d0: 47d6 a73d d8cb 513e fd53 cf3d 9058 00bd
000001e0: 4539 7ebe b443 d4bd 8f74 45bd b46e 20be
000001f0: 3584 86be 4748 05be 902d 343e 4664 4a3e
00000200: 3584 86be 6bec 473e 4748 05be b4b5 31be
00000210: 6bec 473e 9058 003d 8f74 c5bc 6a33 d9bc
00000220: 22c0 07be d9af 0c3e b527 0fbe 2123 5ebe
00000230: d9f6 9d3b 902d 34be 90e6 a23d 6a7a 6a3e
00000240: 8e49 793e d9af 0cbe 6a33 d9bc 8f02 e8bd
00000250: b3d1 f6bd b3d1 f63d b443 543e 46f2 6c3d
00000260: b46e 203e d8cb 51be b527 0f3e 590c 843e
00000270: 9058 803d 8f02 e83d fe37 8a3c fdc5 acbd
00000280: fe37 8abc 46f2 6cbd fe37 8a3d 6a33 d9bd
00000290: fe37 8a3c 6ac1 7b3e 6cd0 82be d8cb 513e
000002a0: fe7e 1bbe 6a33 d93d 4748 05be 46f2 6cbe
000002b0: fe37 8abe 46f2 6cbe fe7e 9b3e 8fbb 563e
000002c0: 2123 de3d fdc5 ac3d 46f2 6cbe 2123 de3d
000002d0: 8e49 793e 8f74 453c 6ba5 b63d d9f6 9dbd
000002e0: 6ac1 7bbe b4b5 b13d b38a 653e b4b5 b13d
000002f0: 10fc 88be fd9a 603e fe37 8abe d9f6 1d3b
00000300: 461d 393e 2207 19be fdc5 2c3e 46f2 ec3b
00000310: 8e49 793e 6ba5 36be 90e6 223e b4b5 31be
00000320: 8fbb 56be a263 903e d93d 2fbe d9f6 1dbc
00000330: 7e94 81be b4b5 b1bd 6a33 d9bd 2207 993d
00000340: d8cb 51be d812 633d d9af 8cbe 4748 053e
00000350: 6ba5 363e 21dc 4c3e 6a33 d93c 4539 7e3e
00000360: 4539 7ebe 7edb 92be 909f 913e 2123 debd
00000370: ec73 8b3e b443 543e 7e94 81be 2207 99bd
00000380: b527 0f3e 46f2 6c3e 6ba5 b63d 6a7a 6abe
00000390: fdc5 ac3d fe37 0a3d 8f74 45bc 2295 3b3d
000003a0: 6a7a 6a3e fe7e 9b3e d9af 8cbe 2123 debd
000003b0: fe7e 9bbe 6b17 94bd 2295 3b3d 6a33 59bd
000003c0: d9f6 1d3c 9058 803e fdc5 2cbe d884 c03d
000003d0: fe37 8a3e fce1 f13d d93d 2fbe d9f6 1d3c
000003e0: 10fc 88be 8f02 e83d fd0c 3ebe b4b5 31be
000003f0: 4748 85bd 4664 4a3e 8f74 c53d 9058 003e
0.08436201 -0.21693088 0.1783654 -0.03856549 0.036155146 -0.2627274 0.3012929 -0.12774819
-0.2289826 0.0024103431 0.2723688 0.25308603 0.106055096 -0.29888254 0.20005848 -0.10123441
0.22416191 -0.12774819 -0.3012929 -0.29165152 0.1229275 0.0891827 -0.21452054 -0.08195167
-0.15426196 -0.07231029 -0.14703093 -0.028924119 -0.09400338 0.053027548 -0.016872402 0.29165152
0.12533784 -0.23380329 0.065079264 -0.29406187 -0.21211019 0.26031706 0.08195167 -0.16390334
-0.1229275 0.0048206863 0.0120517155 0.1952378 0.2579067 0.23380329 0.3012929 0.13497922
0.06748961 0.21693088 0.10123441 -0.2289826 -0.06266892 0.245855 0.2723688 -0.043386176
-0.27718946 -0.0891827 0.14944127 -0.14462058 -0.07713098 -0.27718946 -0.15426196 0.08195167
-0.12774819 -0.20969985 0.17595506 0.13256887 0.2627274 0.2579067 0.014462059 0.29647222
-0.13738956 0.19041711 -0.21452054 0.19041711 -0.04579652 -0.25549638 0.25549638 0.1566723
0.20246883 -0.074720636 -0.28201014 -0.15426196 -0.20246883 0.30611357 0.036155146 -0.028924119
0.10846544 0.06025858 0.24826534 0.0048206863 0.079541326 -0.18077573 0.1229275 -0.2579067
0.22175157 -0.14221025 0.043386176 -0.29165152 -0.1229275 0.04579652 -0.18318608 0.16631368
-0.20246883 -0.026513774 0.29888254 0.25308603 -0.009641373 0.18800676 -0.115696475 0.06266892
0.074720636 0.09159304 -0.21211019 0.16872402 0.08195167 0.20487916 0.10123441 -0.03133446
-0.24826534 -0.10364476 -0.048206862 -0.1566723 -0.2627274 -0.13015853 0.17595506 0.19764814
-0.2627274 0.1952378 -0.13015853 -0.1735447 0.1952378 0.03133446 -0.024103431 -0.026513774
-0.13256887 0.13738956 -0.13979991 -0.21693088 0.0048206863 -0.17595506 0.079541326 0.2289826
0.24344465 -0.13738956 -0.026513774 -0.11328613 -0.12051716 0.12051716 0.20728952 0.057848237
0.1566723 -0.20487916 0.13979991 0.2579067 0.06266892 0.11328613 0.016872402 -0.08436201
-0.016872402 -0.057848237 0.06748961 -0.106055096 0.016872402 0.245855 -0.25549638 0.20487916
-0.15185162 0.106055096 -0.13015853 -0.23139295 -0.26995844 -0.23139295 0.30370325 0.20969985
0.10846544 0.08436201 -0.23139295 0.10846544 0.24344465 0.0120517155 0.0891827 -0.07713098
-0.245855 0.08677235 0.22416191 0.08677235 -0.26754808 0.21934123 -0.26995844 0.0024103431
0.18077573 -0.14944127 0.16872402 0.0072310297 0.24344465 -0.1783654 0.15908265 -0.1735447
-0.20969985 0.28201014 -0.17113437 -0.009641373 -0.25308603 -0.08677235 -0.106055096 0.074720636
-0.20487916 0.055437893 -0.2747791 0.13015853 0.1783654 0.20005848 0.026513774 0.24826534
-0.24826534 -0.28683084 0.2844205 -0.10846544 0.2723688 0.20728952 -0.25308603 -0.074720636
0.13979991 0.23139295 0.0891827 -0.2289826 0.08436201 0.033744805 -0.0120517155 0.04579652
0.2289826 0.30370325 -0.2747791 -0.10846544 -0.30370325 -0.07231029 0.04579652 -0.053027548
0.009641373 0.25067568 -0.16872402 0.09400338 0.26995844 0.11810681 -0.17113437 0.009641373
-0.26754808 0.11328613 -0.18559642 -0.1735447 -0.065079264 0.19764814 0.096413724 0.12533784

B__3552 f4 [1, 192]
00000000: 0000 0000 0000 0000 0000 0000 0000 0000
00000010: 0000 0000 0000 0000 0000 0000 0000 0000
00000020: 0000 0000 0000 0000 0000 0000 0000 0000
00000030: 0000 0000 0000 0000 0000 0000 0000 0000
00000040: 0000 0000 0000 0000 0000 0000 0000 0000
00000050: 0000 0000 0000 0000 0000 0000 0000 0000
00000060: 0000 0000 0000 0000 0000 0000 0000 0000
00000070: 0000 0000 0000 0000 0000 0000 0000 0000
00000080: 0000 0000 0000 0000 0000 0000 0000 0000
00000090: 0000 0000 0000 0000 0000 0000 0000 0000
000000a0: 0000 0000 0000 0000 0000 0000 0000 0000
000000b0: 0000 0000 0000 0000 0000 0000 0000 0000
000000c0: 0000 0000 0000 0000 0000 0000 0000 0000
000000d0: 0000 0000 0000 0000 0000 0000 0000 0000
000000e0: 0000 0000 0000 0000 0000 0000 0000 0000
000000f0: 0000 0000 0000 0000 0000 0000 0000 0000
00000100: 0000 0000 0000 0000 0000 0000 0000 0000
00000110: 0000 0000 0000 0000 0000 0000 0000 0000
00000120: 0000 0000 0000 0000 0000 0000 0000 0000
00000130: 0000 0000 0000 0000 0000 0000 0000 0000
00000140: 0000 0000 0000 0000 0000 0000 0000 0000
00000150: 0000 0000 0000 0000 0000 0000 0000 0000
00000160: 0000 0000 0000 0000 0000 0000 0000 0000
00000170: 0000 0000 0000 0000 0000 0000 0000 0000
00000180: 0000 0000 0000 0000 0000 0000 0000 0000
00000190: 0000 0000 0000 0000 0000 0000 0000 0000
000001a0: 0000 0000 0000 0000 0000 0000 0000 0000
000001b0: 0000 0000 0000 0000 0000 0000 0000 0000
000001c0: 0000 0000 0000 0000 0000 0000 0000 0000
000001d0: 0000 0000 0000 0000 0000 0000 0000 0000
000001e0: 0000 0000 0000 0000 0000 0000 0000 0000
000001f0: 0000 0000 0000 0000 0000 0000 0000 0000
00000200: 0000 0000 0000 0000 0000 0000 0000 0000
00000210: 0000 0000 0000 0000 0000 0000 0000 0000
00000220: 0000 0000 0000 0000 0000 0000 0000 0000
00000230: 0000 0000 0000 0000 0000 0000 0000 0000
00000240: 0000 0000 0000 0000 0000 0000 0000 0000
00000250: 0000 0000 0000 0000 0000 0000 0000 0000
00000260: 0000 0000 0000 0000 0000 0000 0000 0000
00000270: 0000 0000 0000 0000 0000 0000 0000 0000
00000280: 0000 0000 0000 0000 0000 0000 0000 0000
00000290: 0000 0000 0000 0000 0000 0000 0000 0000
000002a0: 0000 0000 0000 0000 0000 0000 0000 0000
000002b0: 0000 0000 0000 0000 0000 0000 0000 0000
000002c0: 0000 0000 0000 0000 0000 0000 0000 0000
000002d0: 0000 0000 0000 0000 0000 0000 0000 0000
000002e0: 0000 0000 0000 0000 0000 0000 0000 0000
000002f0: 0000 0000 0000 0000 0000 0000 0000 0000
0.0 0.0 0.0 0.0 0.0 0.0 0.0 0.0
0.0 0.0 0.0 0.0 0.0 0.0 0.0 0.0
0.0 0.0 0.0 0.0 0.0 0.0 0.0 0.0
0.0 0.0 0.0 0.0 0.0 0.0 0.0 0.0
0.0 0.0 0.0 0.0 0.0 0.0 0.0 0.0
0.0 0.0 0.0 0.0 0.0 0.0 0.0 0.0
0.0 0.0 0.0 0.0 0.0 0.0 0.0 0.0
0.0 0.0 0.0 0.0 0.0 0.0 0.0 0.0
0.0 0.0 0.0 0.0 0.0 0.0 0.0 0.0
0.0 0.0 0.0 0.0 0.0 0.0 0.0 0.0
0.0 0.0 0.0 0.0 0.0 0.0 0.0 0.0
0.0 0.0 0.0 0.0 0.0 0.0 0.0 0.0
0.0 0.0 0.0 0.0 0.0 0.0 0.0 0.0
0.0 0.0 0.0 0.0 0.0 0.0 0.0 0.0
0.0 0.0 0.0 0.0 0.0 0.0 0.0 0.0
0.0 0.0 0.0 0.0 0.0 0.0 0.0 0.0
0.0 0.0 0.0 0.0 0.0 0.0 0.0 0.0
0.0 0.0 0.0 0.0 0.0 0.0 0.0 0.0
0.0 0.0 0.0 0.0 0.0 0.0 0.0 0.0
0.0 0.0 0.0 0.0 0.0 0.0 0.0 0.0
0.0 0.0 0.0 0.0 0.0 0.0 0.0 0.0
0.0 0.0 0.0 0.0 0.0 0.0 0.0 0.0
0.0 0.0 0.0 0.0 0.0 0.0 0.0 0.0
0.0 0.0 0.0 0.0 0.0 0.0 0.0 0.0
