models/station_11/model_latest.onnx (onnx, 407818 bytes, 12 tensors)

W__3828 f4 [1, 96, 64]
00000000: 829b e53d a306 cd3d 1909 8b3d 17d1 32bc
00000010: 8dfd 19be 19d2 683d b06e 293c faa5 e83d
00000020: 691c 1c3b efc5 253e 1beb 523e 81e7 16be
00000030: 0c9c 4d3e 3baf d53c 8d02 8dbe cd27 283e
00000040: a39c bfbd 922a 283e 2728 9e3d 7075 c93d
00000050: e268 76bd 588b d9bc e8a2 ffbc 039e abbd
00000060: 1d68 383e 10c4 ff3d 9350 563d be7c 6c3e
00000070: ce7e b63d a6cb af3d 1b90 62be 8827 473e
00000080: 0a73 d53b 36fa dfbc a369 353d 578f 36bd
00000090: bcca 1f3b 08d8 0fbe 827a 8cbc 0cb7 f13d
000000a0: 66ab f8bd e928 393e f990 9bb9 d06d 1d3d
000000b0: 9805 1fbe cb06 9abd 05ee 34bd 3511 543c
000000c0: c2d4 fdbd de67 4fbd 01b1 183e 09a0 adbd
000000d0: fbd6 e4bd 58f5 49bd 5bd4 25be d70d 58bd
000000e0: d7c3 08be 7ede 203e 2747 40be 81cb 8d3d
000000f0: 39d6 65bc 8266 e23d b9e1 95bd 90e2 773e
00000100: a572 be3d ed35 c63d c9c2 123e a228 fbbd
00000110: ccb6 09be 11cd 1ebc 1a1c 44be 3530 fa3c
00000120: cc12 0a3e 9ebe 113e d5bf f2bc be7c 163e
00000130: e821 d1bd 6ec1 acbd 43b9 31be 751e b33d
00000140: 8894 95bd 2ed1 babd 18bd 0c3d 5ee3 0f3e
00000150: 515e 26be 94d4 37bc 22cd b83d a8a7 75bd
00000160: 8d3d c8bd 6f35 e03d 43d4 7abd b950 333d
00000170: d894 a43d a06d 0a3e cd30 cebd 3932 993c
00000180: 1f43 e43d 1e9c 5e3e 85d4 04be 2c21 4fbe
00000190: 4d34 f8bd 6c29 e63d 859c ef3d 7197 243e
000001a0: 78f3 dfbd 8631 033e 12cc 533e b3ae 75be
000001b0: eb8c b7bd 3a77 183d 989b 623c f197 12bd
000001c0: 0718 31be 2fe8 93bb 0124 61be f4bd febd
000001d0: 35fb 52be 3001 27be d704 3f3d 9a33 2ebe
000001e0: 4f5e d33d a6b6 76be 282e 5fbe 8c3b f63d
000001f0: fceb 4bbd b1e3 9a3c 10bb 463e 77ae 93bc
00000200: 4d6e e73d ff29 b6bc bbbc 873e 4511 5c3e
00000210: 4b7c 903c 6746 47bc 7b93 dabd 0e06 083e
00000220: c758 55be f4db e3bd 2394 f4bd e737 d03d
00000230: 3c43 5e3d 3028 623d 6807 163d e868 fb3c
00000240: 68c3 70bd 24a9 3e3c ccd6 5f3e a57b b33d
00000250: d98a 53bc 7961 ad3d 612c 03bd a863 013d
00000260: 5514 adbd 8b15 85bd 3b21 0e3a 0eb2 0d3e
00000270: 7c4a 8abd 291a c33d 23e1 063e 0513 593e
00000280: 51a2 45be 246c 2dbe 7d0e 853d 33d9 76bd
00000290: 1709 a53d 20ab c93c 9571 0dbe 1f15 d53c
000002a0: e9ac 00be 6e98 abbd 1621 76bd 6777 9a3d
000002b0: 738c 1abe eb7e 0ebe bc73 0fbd 63e1 edbd
000002c0: a0e0 8c3d ee63 80bd a995 ad3c 8436 7abc
000002d0: 9ae5 093e 0b7b 77be b84d e5bc db5d 0cbe
000002e0: 6090 10be 9623 213e 175c a4bd 8b97 d13c
000002f0: 37f2 38be 7dc6 4a3e 7084 e23d 53d2 83bc
00000300: 70a5 3abe 85f3 22be ef14 613d 13a0 1b3c
00000310: bc78 f13d 41e0 bcbc 1c7a ccbd 57eb 27bd
00000320: 028f 2e3d 8a7e 33be d20e 093e 4944 473d
00000330: 5803 0a3e 4b13 2f3b 754e 81bc 044a b73c
00000340: dc5a 173e fb83 f63d 0dc8 35be f3cf 2d3e
00000350: 0168 a83d 363d 2abe 3717 df3d 2f61 b0bd
00000360: 6a6e f23c 8c1f 4f3c 529a aa3d 8d42 cd3d
00000370: 9881 8a3e f1c6 733d 9ced d9bc 8ff8 8dbd
00000380: c3b3 cfbd a58e 0abe eed0 c2bc 178d 92bd
00000390: 5193 9a3d 1447 2f3c 046a 3b3d 5a32 6d3e
000003a0: 6a08 853d a93e 513d 03a6 923d ac92 fd3d
000003b0: 30db 9d3d 9c0a 133e e67f 47be eb14 7a3d
000003c0: b81c 8dbd 64a2 bebc e7f6 c9bd c34f 90bd
000003d0: 3a53 99bd 65b8 74be f95d debd 219e 573e
000003e0: 2f98 2c3e c294 b9bd 9914 85bc bfb6 fdbd
000003f0: ee77 1f3d 202c 27be 24b3 8e3d c635 8a3c
0.112113014 0.100110315 0.067888446 -0.010914109 -0.15038128 0.05684099 0.010341331 0.113597825
0.0023820645 0.16188787 0.20597498 -0.14736749 0.20079058 0.026084533 -0.2754101 0.16421433
-0.09356048 0.1642249 0.07722502 0.098368526 -0.060158618 -0.026555702 -0.03120561 -0.08379748
0.18008466 0.12488568 0.052322935 0.2309446 0.08910905 0.08583765 -0.22125284 0.19448674
0.006513958 -0.02734099 0.044290196 -0.044570293 0.0024382314 -0.14047253 -0.01714826 0.118024915
-0.12142067 0.18082012 -0.00029671917 0.038434803 -0.15529478 -0.07520827 -0.044172306 0.012943556
-0.12394096 -0.050636165 0.14911272 -0.0847779 -0.11173817 -0.049306244 -0.16194288 -0.052747574
-0.13355957 0.15709874 -0.18777142 0.06923581 -0.014028125 0.11054708 -0.07318444 0.2420752
0.092992105 0.09678254 0.14332117 -0.122636095 -0.13448638 -0.009692446 -0.19151345 0.030540565
0.13483733 0.14232871 -0.029632488 0.14696023 -0.10211545 -0.08435331 -0.17355828 0.087460436
-0.07303721 -0.09121929 0.03436002 0.14051577 -0.16246916 -0.011220116 0.09023501 -0.059974343
-0.09777365 0.10947692 -0.061237585 0.043778155 0.08036202 0.13518381 -0.10067902 0.018700706
0.11145615 0.21739241 -0.12971695 -0.20227498 -0.121193506 0.11238369 0.116997756 0.16073395
-0.1093511 0.1281186 0.20683315 -0.23992424 -0.08962425 0.03722308 0.013831042 -0.035789434
-0.17294322 -0.0045137624 -0.2198639 -0.124385744 -0.2060364 -0.16309047 0.046635475 -0.17011872
0.10320722 -0.24093112 -0.21794951 0.120230764 -0.0497856 0.0189074 0.19407296 -0.018027527
0.11300335 -0.022236822 0.26511177 0.21490963 0.017637393 -0.012162781 -0.10672661 0.1328356
-0.20834647 -0.11125937 -0.11942317 0.101669125 0.05426334 0.055214107 0.036628157 0.030689672
-0.058780104 0.011637006 0.21859282 0.08763818 -0.012911522 0.08465857 -0.032024745 0.03158918
-0.08451144 -0.064982496 0.0005421822 0.13837454 -0.06752488 0.09526474 0.1317182 0.21198662
-0.193002 -0.16935784 0.06496904 -0.06026573 0.080583744 0.024617732 -0.1381286 0.026011048
-0.1256596 -0.08378683 -0.060090147 0.075423054 -0.1509264 -0.13915603 -0.035022482 -0.11615255
0.06878781 -0.0626906 0.021189528 -0.015271787 0.13466492 -0.24168031 -0.02799116 -0.13707678
-0.14117575 0.15736231 -0.08025377 0.025584957 -0.18061148 0.1980228 0.11060417 -0.016091501
-0.18227172 -0.15913208 0.054951604 0.009498614 0.117906064 -0.023056151 -0.09984228 -0.040995922
0.04261685 -0.1752874 0.1338456 0.048649106 0.13477838 0.002671438 -0.015784482 0.02237416
0.14780754 0.12036892 -0.17752095 0.16973858 0.08222962 -0.16624913 0.108931 -0.08612286
0.029593665 0.012641799 0.083302155 0.10022459 0.27051997 0.059515897 -0.026602559 -0.069321744
-0.10141709 -0.13530977 -0.023781266 -0.07155817 0.075476296 0.010698099 0.0457554 0.23163739
0.064957455 0.051085148 0.071605705 0.12381491 0.07707822 0.14359516 -0.19482383 0.061055105
-0.06890243 -0.023270793 -0.09861546 -0.07046463 -0.07486577 -0.23898466 -0.108577676 0.21056415
0.16854928 -0.090615764 -0.016245173 -0.12388372 0.038932733 -0.16325426 0.06967762 0.016871344

W__3814 f4 [1, 192, 128]
00000000: 0ab7 debd 79a9 a4bd 4b81 6fbd cd56 07be
00000010: ec6e 553d 25fa cdbc d8ea 4dbd b702 a33c
00000020: 8b4e fcbd 2ad5 be3d d03c 3a3c d000 85bd
00000030: c12b eebc bfbc 78bd 2f96 aa3a 5971 75bd
00000040: fc90 9b3c bff1 403e 1a39 993d 6334 ef3d
00000050: 98b9 da3d 540f 213d 75f6 2a3d 3c40 c9bd
00000060: 1d8e ab3d 1a10 c13d e8fa 66bc 1c8b 0b3e
00000070: 3fe1 bb3d 21d9 12be 6b33 3b3d 1334 abbd
00000080: a85c 633c 1090 ba3d 51ba 0dbc 4c7b 86bd
00000090: a42b 16be 6fc2 08be 83da d43d 571f 00be
000000a0: 214f 063e f503 30be dd7a 1dbd 0376 47be
000000b0: ba70 9e3d 3625 963d 52b6 253e 7baa c53c
000000c0: 6a96 e5bd ae98 153e afa3 29bd 66db 80bd
000000d0: c533 da3c c1a2 3cbd 9701 183e e8bb b0bd
000000e0: 3511 b1bd 937b 0f3d 9d8d 783d f262 1e3d
000000f0: 34f5 fabd 7b96 b83a 2152 eb3c 08e1 253e
00000100: 6f16 763d 2faa 9c3d b931 8abb 8863 19be
00000110: a295 b3bd 5d27 933d cb90 4e3b 4da6 153e
00000120: ad90 d1bc 5130 343e 3004 203e 4d2a 67bd
00000130: d3ae aebd a9c0 98bc d14b 143e 3a03 93bb
00000140: 3783 033e f8cc c4bc d33c 20be 72d5 e43d
00000150: 0f5c 123e 415d 9b3d d1f6 1bbe 725c 9d3d
00000160: ed41 0f3d 50d4 1d3e 6685 063c 6efa 39bb
00000170: 9b93 1dbe d81c 3d3e feb9 01be 8eb3 7a3d
00000180: c95b 22be bf12 5bbd 2abd da3d 95fd 293e
00000190: 295c b6bd ae46 8c3b 7a26 c1bc 7636 4d3d
000001a0: 6dc3 5e3d 535a fcbd 0515 203e 6d18 0abd
000001b0: 6215 45bc 32da 803d 9fc1 60bd add6 55bd
000001c0: 9a4e abbc fa32 98bd c02f 91bd 1fbe 20be
000001d0: 64fb 473e 46bd c13d 62f0 f0bc 14c1 2d3c
000001e0: 6b99 4c3d 71e5 1c3d 8a13 f2bc a2f1 233e
000001f0: fa98 443d 1bc1 203c e432 3cbc 8e91 643c
00000200: d2bf 933d f7ee 033d 8daf 16be 6701 553d
00000210: d5b1 173e 1084 913d be9b e13d 9689 553d
00000220: 140f 6dbd 33b6 b43c a967 0e3d 170e 873d
00000230: baa5 333d 4b29 8ebd 64a6 15bd e949 8bbd
00000240: ccca 0bbe bda3 793d 2859 563d c65f 3cbd
00000250: 7e6e a93a 3c95 3a3d 2fd6 52bc 230d 613d
00000260: 225e a73b e71f d5bd 471b bebd c48c 25bd
00000270: 229e 34bd 6bb9 c03b 7ee4 073d 6d22 02be
00000280: 9a31 e9bd 6fd4 8dbd 5942 c2bc e952 b73c
00000290: 1008 293e 9bc2 4bbd 720c 993c 1793 e13d
000002a0: dcbf f6bc 33a1 69bd ed82 a73d 7297 0dbd
000002b0: 2feb 9ebd c930 28be 0e71 853d a5cf 093e
000002c0: 6c9b ab3d 716b 7bbd 4174 2f3c ee2a c0bc
000002d0: cd9f 173d 8b12 a0bd 4f42 35be 3ea7 e4bb
000002e0: 9486 ac3b b0cb 0ebe 71db 493d 638f e9bd
000002f0: 280a f83d 979c 4ebd d628 15b9 7d31 c33c
00000300: ceda 6cbd 40ed 0fbe 387f 883d d2bc d7bc
00000310: 94e2 733d 6480 a4bd a03f ddbd ebb5 883d
00000320: 01e3 adbd 215d 9e3d bf59 81bd 0f0c b73b
00000330: fcae 493d 1708 c03d 6d13 07bd 1242 463d
00000340: 5c7e b1bd 0edc 21be ab16 2c3e 424c 37bd
00000350: 7c2d a13c b183 883b f714 3e3e 647f debc
00000360: 4929 2dbd fe6a f8bd 13ef 63bd 8b24 513b
00000370: c0d3 41bd 9c63 f5bd 8702 33be babf 963d
00000380: c641 1d3e 47e8 38be 8272 0cbe dd8f 6dbc
00000390: 7081 c1bd c805 0f3d c335 1ebd 987e e6bc
000003a0: 7d85 a43d a68b c63d 6c86 943d 4360 133e
000003b0: 4a4f 03be 48fb ee3c 1470 cf3c 362e 32bd
000003c0: b6f5 a13d 5bae b6bd f36d 18bd fdee 84bd
000003d0: ca4e 15be c7f5 63bc 9c3f bbbc 700d b23d
000003e0: f900 8bbd e2e7 09be afbf 3e3c 217b 4fbd
000003f0: 5bf3 833d de08 8fbd bb58 8d3d 7b21 c3bc
-0.10874756 -0.08040137 -0.058472913 -0.13216706 0.052107736 -0.025143692 -0.050272793 0.019898755
-0.123196684 0.093180016 0.011367038 -0.064942956 -0.029073598 -0.060726877 0.0013014729 -0.05992255
0.018990032 0.18842219 0.074815944 0.11679914 0.106799304 0.03932126 0.041738946 -0.09826705
0.08376715 0.09426899 -0.014097907 0.13627285 0.09173822 -0.1434064 0.045703333 -0.08359542
0.013877071 0.09109509 -0.008650378 -0.06566486 -0.14665085 -0.1335542 0.1039324 -0.12511955
0.13116123 -0.1718901 -0.03844725 -0.19478612 0.07736345 0.07331316 0.16182831 0.024129143
-0.1121033 0.14609024 -0.041415866 -0.06291847 0.026636014 -0.04605365 0.14844356 -0.0862959
-0.0864586 0.03502996 0.060681928 0.03866858 -0.122538 0.0014082933 0.028725686 0.16199124
0.060079988 0.076496474 -0.004217353 -0.14979374 -0.087687746 0.07185242 0.0031519409 0.1461422
-0.025581682 0.17596556 0.15626597 -0.056436826 -0.08529439 -0.018646555 0.14482047 -0.0044864686
0.12843023 -0.024023518 -0.15648203 0.11173524 0.1429293 0.07586146 -0.15230872 0.07683648
0.03497498 0.15413022 0.008210516 -0.0028378027 -0.15388338 0.18468034 -0.12668607 0.061206393
-0.15855326 -0.053484675 0.106806114 0.1660064 -0.08904297 0.0042808866 -0.023577917 0.050100766
0.05438559 -0.123219155 0.15633018 -0.0337147 -0.012029024 0.062916175 -0.05487215 -0.052206684
-0.020911504 -0.07431598 -0.07089186 -0.15697525 0.19529492 0.09459929 -0.029411498 0.010605115
0.049951 0.03830475 -0.029550333 0.16010144 0.047997452 0.009811665 -0.011486743 0.013950719
0.07214321 0.032210317 -0.14715405 0.05200329 0.14813931 0.07105267 0.110160336 0.052133165
-0.057875708 0.022059536 0.034766827 0.06594484 0.04385922 -0.0694147 -0.036535636 -0.068012066
-0.1365158 0.06094717 0.05233112 -0.045989774 0.0012926606 0.045552477 -0.012868448 0.05494417
0.005107657 -0.104064755 -0.092825465 -0.040417448 -0.04409612 0.0058814785 0.03317689 -0.12708445
-0.11386414 -0.06925284 -0.023713278 0.022378402 0.16506982 -0.049746137 0.018682692 0.11014383
-0.030120783 -0.057038497 0.08179269 -0.034568258 -0.077597015 -0.1642486 0.06515704 0.13458116
0.08379254 -0.06138176 0.010708869 -0.02345797 0.037017632 -0.07816037 -0.17701076 -0.0069779446
0.0052650664 -0.13944888 0.04928154 -0.11404302 0.12111312 -0.050442304 -0.0001422496 0.023827309
-0.057825856 -0.14055347 0.0666489 -0.026335154 0.059542254 -0.08032301 -0.10803151 0.06675323
-0.08490563 0.07732607 -0.06315946 0.0055861543 0.049239144 0.09376543 -0.03297751 0.048402853
-0.08666679 -0.158066 0.16805522 -0.04475046 0.019675009 0.0041660895 0.18562685 -0.027160354
-0.0422757 -0.12129782 -0.05564792 0.003191265 -0.04732108 -0.119818896 -0.17481433 0.07360788
0.15357122 -0.18057357 -0.13715556 -0.014499632 -0.09448516 0.034917623 -0.03862549 -0.028136536
0.08033273 0.096946046 0.072522014 0.1439219 -0.12823215 0.029172555 0.025321998 -0.0435011
0.07908194 -0.089199744 -0.03721423 -0.06490896 -0.14580837 -0.013913578 -0.02285748 0.08693969
-0.06787295 -0.13467363 0.011642381 -0.050654534 0.06442901 -0.06984113 0.069016896 -0.023819676

W__3801 f4 [1, 384, 6]
00000000: ac46 bdbd 2053 6a3d c32d debc ebb4 093d
00000010: d640 053d 8229 87bd a0da f6bc 1b11 5bba
00000020: 4b7c 2bbe ae7b 25be 1363 07be 77a9 e9bb
00000030: 7f7b e63d 1f96 303d 1c25 24bd da22 af3d
00000040: 164c 113e d84d 92bc 3f15 2a3d e29b f13c
00000050: 6d4b 653c 92a0 11bd ace9 083d 8ef3 0e3d
00000060: 2c71 263b 13bc 33bd 9efd d4bd d6e7 c63c
00000070: f909 c9bd 95fa 93bd e8ec d1bd 05ed 24be
00000080: e66e d1bd 3bf1 ffbd 66a0 28be 9a3e 8d3d
00000090: f017 cebd 9447 3fbd 67f9 a2bd 95ec 573c
000000a0: faef dc3c 10a5 e13d b564 4abc fe56 c33c
000000b0: 6fdd 623d 239c 203d 3129 06be 1d8e 2a3d
000000c0: b7c7 c03d 664f 8cbd 7388 a33c 8a45 acbb
000000d0: 359c 0fbe afdb c6bd 89ed 3e3e 2541 8e3d
000000e0: e4f9 463e 93ab 0c3e 891a 8d3d 4a0f d1bd
000000f0: d9e5 ec3c c9d5 1c3e cd4a 173e 6b51 33bd
00000100: 5bfa bfbc 97e6 ab3d 54f5 313e 136e ee3c
00000110: 9bdd b23d 5768 5abb 8bd7 033c 9882 a73c
00000120: 652a c33c 6d57 383d 038a 3bbe d333 ea3c
00000130: 0486 40bd f738 d3bd 97ce fb3a c077 363d
00000140: f97f 8bbd 52fb 3cbd 6a26 4e3d ec8f f6bd
00000150: 6ff3 19bd d737 d9bd 4d5b d33d 682a 82bd
00000160: 8121 ea3a 4d19 afbd 06da d1ba fe5e cebd
00000170: a804 133d b815 33be 3dd8 9ebc db5d dbbc
00000180: 1841 023d 09d3 49bd 704c 2b3b c116 383d
00000190: 45bf 5abd 4aaf f0bd e0dd 573d c75b 073e
000001a0: efec 363e 1663 703d c538 c53d 1f5f a23a
000001b0: c8ee 383d 16e8 c7bb b697 e3bd 5593 78bb
000001c0: 40f2 ebbd 4d71 9d3d 7592 0d3c f116 113c
000001d0: 1cb2 90bd c833 cd3d 6186 b33d 6c04 8bbd
000001e0: 7bf8 9c3c 4217 96bd 9008 20bd 464f 923c
000001f0: e16b 2abe d7e5 913d 40fd 263c 0386 913d
00000200: 9892 e73c e7c0 b9bc b06f 33bd aca8 f03d
00000210: 1448 79bd d67d b0bd 605a b4bd 03fb 9bbd
00000220: 5ae6 ac3d 72f1 b3bd 9255 c53c 744b 18be
00000230: 6392 033c e755 5cbd cdad a03d 5895 ef3c
00000240: 0564 e23d 7ec7 11bd 46b6 4c3d 9c28 653c
00000250: 6624 183c 4a19 bbbd 4051 b8bd bf4b e4bd
00000260: d9eb adbd 115d cfbd 4c08 f7bd ecf7 cb3c
00000270: c537 d3bd 3a99 c0bd 7962 2d3d 9abe d1bd
00000280: 9c4e dbbd 34b1 fbbb f3ee 00be 63a2 39be
00000290: 7e35 f83c 437b 3c3c 763a 1abe 1b38 b5bd
000002a0: fbc8 e23d 0e5c 0fbe 6ef1 923d 2c77 e63c
000002b0: 3e41 c7bd d12f d43c 7059 0b3d 0bab 12bd
000002c0: 7968 93bc 41b9 803d bf25 88bd 8464 a0bc
000002d0: 7aae 203d ffc1 f33c 0ddf b13d 4373 173e
000002e0: 1b36 4d3c df86 b43c e76a d33c 055c 09bd
000002f0: 6c62 913c 0f5a 62bd eaca 09be 8c29 3cbc
00000300: 7739 1bbd 87eb 8ebd df46 a73d bf7c bbb9
00000310: 164b cf3c bd17 673d 91bf 143d 6f7a 4d3e
00000320: 4137 a8bb 5a06 323e ffab 06bd 8aae 3ebd
00000330: d3a8 3b3e 09e2 a93d c48f e63d 7232 5b3c
00000340: eb25 31bd 52c7 173d f70a 303e b117 c53d
00000350: 98ba ee3d 563a 6e3d 3dbe ff3c 3dfa 283d
00000360: 0c1d 123d 6c0d edbc c861 263c c78b 76bd
00000370: 1bb5 173d f2eb 07bd 5e81 8ebd e0f9 073d
00000380: 23b5 f2bc cbc0 1cbe ef94 72bd 2ad4 f5bb
00000390: 68f5 753c 36d0 273e af9c 99bd b1bb 5abd
000003a0: 096b b43d a9a6 29bc 4a14 b93d 7eb9 2e3e
000003b0: 0c68 7f3d 9f6a 1fbd d658 293e ea3a 0b3d
000003c0: dbc6 003e fa82 113c 876f 02bd 95ac cb3d
000003d0: f267 123e 8992 2e3d 6a7b 06bd 66a4 a43c
000003e0: 37a9 d5bc 4db6 1cbe abbd 0ebe e724 1abc
000003f0: e498 34be 759c e0bd f150 1fbe 07c7 113c
-0.09241995 0.05720818 -0.02712143 0.033619802 0.032532535 -0.06599714 -0.030133545 -0.0008356736
-0.16746633 -0.16160461 -0.13221388 -0.0071307975 0.11254024 0.043111917 -0.040074453 0.08551569
0.1418918 -0.017859384 0.041524168 0.029493276 0.013995034 -0.035553522 0.033425972 0.03490024
0.0025397046 -0.043880533 -0.10399936 0.02428047 -0.09816355 -0.07225529 -0.102502644 -0.16106041
-0.1022623 -0.12497183 -0.16467437 0.06896706 -0.100631595 -0.04669912 -0.07957726 0.013178964
0.026969898 0.11017811 -0.012353112 0.023845192 0.055386957 0.039211404 -0.13101651 0.041639436
0.094130926 -0.068510816 0.019962525 -0.005257313 -0.14024432 -0.0970987 0.186453 0.06946019
0.19431263 0.13737325 0.06889827 -0.10207994 0.028918194 0.15315928 0.14774628 -0.043778818
-0.023434808 0.08393591 0.17378742 0.029105222 0.08733674 -0.0033326352 0.008046995 0.020448014
0.023823926 0.04500525 -0.18314366 0.028589165 -0.047002807 -0.103135996 0.0019211349 0.044547796
-0.06811518 -0.046138115 0.050329603 -0.1203917 -0.037585672 -0.10606354 0.103201486 -0.063557446
0.0017862768 -0.085497476 -0.0016010411 -0.10076712 0.035893112 -0.17488754 -0.01939022 -0.026778152
0.03180036 -0.049273524 0.002613809 0.044943575 -0.053405065 -0.11752184 0.05270183 0.13218604
0.1786382 0.058688246 0.096299686 0.0012387967 0.045149595 -0.006100665 -0.11112921 -0.0037929614
-0.11520815 0.07687626 0.008640875 0.008855567 -0.07065222 0.10019642 0.08765865 -0.06787953
0.019161453 -0.07328655 -0.039070666 0.017860066 -0.16642715 0.071239166 0.010192215 0.07105639
0.028268144 -0.02267499 -0.043807685 0.117509216 -0.060859755 -0.08617751 -0.088063 -0.07616236
0.084423736 -0.087862864 0.024088655 -0.14872533 0.008030507 -0.05379286 0.0784565 0.029246017
0.110542335 -0.03559064 0.049978517 0.013986733 0.009286022 -0.09135683 -0.08999872 -0.1114726
-0.0849225 -0.10125173 -0.120621294 0.024898492 -0.103133716 -0.09404226 0.04233024 -0.102414325
-0.10708353 -0.0076810364 -0.12591152 -0.18128352 0.030298945 0.011503997 -0.15061364 -0.08848592
0.1107349 -0.1399996 0.07174955 0.028132997 -0.09729241 0.025901707 0.03402084 -0.03580765
-0.017994152 0.062853344 -0.066478245 -0.01957918 0.039228894 0.02975559 0.08685122 0.14790063
0.012525107 0.022036968 0.025807811 -0.033535022 0.017747127 -0.055261668 -0.13456312 -0.011484515
-0.0378966 -0.06978517 0.081678145 -0.00035760363 0.025304358 0.056419123 0.036315504 0.20066236
-0.00513354 0.17385235 -0.032878872 -0.046553172 0.1832612 0.08295066 0.1125789 0.013378726
-0.043249052 0.03705532 0.17191683 0.096236594 0.11656684 0.058161102 0.031218642 0.04125427
0.035672233 -0.028937064 0.010155149 -0.060191896 0.03703795 -0.033184 -0.069582686 0.033197284
-0.029627388 -0.1530792 -0.059224065 -0.0075020986 0.015012123 0.1638802 -0.07500588 -0.053401653
0.08809478 -0.010354676 0.09037073 0.17062947 0.062355086 -0.03892004 0.16537794 0.03399173
0.12575857 0.008881325 -0.031844642 0.09945027 0.14297464 0.042620216 -0.03283254 0.020097923
-0.026081664 -0.15303917 -0.1393954 -0.009408212 -0.17636448 -0.10967342 -0.1555822 0.0088975495

R__3829 f4 [1, 96, 32]
00000000: 9c4e 36be 62b7 413e 31c0 893d 3666 713d
00000010: 2f56 8abd 7b2f 503e e390 edbd dd12 7a3d
00000020: b090 853c 6db9 bcbd c72c 4d3d 0c6a 103b
00000030: 0e68 1e3e c3c8 233d 2085 f3bc 38f3 de3d
00000040: b347 353e 366e 053e cbc9 ddbc 1ade 323d
00000050: bab2 e13d 4357 893d bb86 eabd 107f e53d
00000060: f0e9 d0bd fd81 6a3d 2a0d d23b 916c 833d
00000070: c6a8 ce3d cd11 36be aeee 9f3d c5a9 cfbb
00000080: 4cdf 8c3c 2365 a63d f4f1 84bd b6a4 2ebe
00000090: ed0b 123e 6dd4 1fbe 3f90 823d 362e 233d
000000a0: e8fa c43d 986e f23c bd38 f73a d9fd e23d
000000b0: 8032 ea3d 0e52 c03d 2a1b f9bd e209 cebb
000000c0: 785d cfbd 55ff cb3a 7488 e03c 82ac 123e
000000d0: 2d92 093e 4ca3 213d ea6a 8f3d 7fe6 98be
000000e0: 0d4b 25be 174a 4b3d 365b 23bc 12e9 b83b
000000f0: b7c9 a13c 8585 a13d bbac 1e3e 16a7 fb3d
00000100: 71e6 bebd ff8f 033e cbd7 10be 24bd 733d
00000110: 9b4b 88be a9b7 d3bd d861 cdbd 9ed1 4a3e
00000120: 6a3a d43b 40e5 693d e30c debd ad5c 2c3e
00000130: 4096 133e 10ec 99bd 1f82 00be a05d 4bbe
00000140: 63a0 493e 98c6 353e 50cc 05bc 9511 3ebe
00000150: a6f3 6dbd 7b04 79be bde3 1cbd a1d3 903e
00000160: 51e7 cabd c53d 053e c625 83bd 0037 42bd
00000170: 78dc 0b3e 4ce7 0f3e 4e21 613e 7255 9cbd
00000180: 964f a03e 9ed7 36bd 2522 85bb cb08 58be
00000190: 44f3 e03c a0ce 9d3d d7c4 813d b294 bb3d
000001a0: afdb 76bd 8638 71be da69 bfbd cd32 243d
000001b0: 698e 1bbe a943 6a3e 9696 4e3e 675d 873d
000001c0: 6e28 b83b 993e 32be 12a0 c9bc 552c e2bc
000001d0: f3f3 ab3c fa15 183d 9588 1fbd 249a 133e
000001e0: cf2c b73d 3b1d 04be 5619 44bd a295 143c
000001f0: 5e3d 2ebc c87f d4bd 6490 0ebb 2c4d e03c
00000200: 1e7c f1bd 8326 a3bd cefe 8e3d 3a14 5fbe
00000210: 8fd0 34bd da59 87be 7d77 193e ce46 db3d
00000220: 235d f9bb d4e5 cebd ee33 fabc 99bc 7ebd
00000230: 218a a6bd 1088 203c bc32 f8bc 120f 21bd
00000240: dd53 c4bd dc47 62bd b48d a23d a401 61bd
00000250: d597 71bd 2bb5 ed3c 7d78 013e 5f4f b8bb
00000260: 44f1 16be ed14 003e 4023 32be 1355 d9bd
00000270: dcba 4c3e 7593 193e e6a0 01bd b187 dc3d
00000280: 4730 0cbb e086 243e 4b87 223d 92a7 953c
00000290: dd95 083e edd5 c53c fda4 833d 63ae a1bd
000002a0: 6163 f0ba 303e 2dbd 824e 2abe fd22 70bc
000002b0: 4e8c ad3c 438a 0ebd f2cc 0dbd 7cec 69be
000002c0: 3d6c 84bd adf2 26be a6cd 8c3d 46f1 3bbe
000002d0: 9ec5 393d 7a4f b7bd db5f 31be 6fae 08be
000002e0: 57c2 0d3c 7c3f 10bd ef85 3f3e 1c6d cc3d
000002f0: 8502 a1bd 2547 693d 922a 7c3d d839 4ebd
00000300: 3311 52bd 4564 69be d017 273e f3f4 ce3d
00000310: eafa 763d 5ec4 573d c068 4a3d e517 5bbe
00000320: d672 383e af53 93be 7519 ac3c f535 813d
00000330: 1307 8ebd eb57 033e ae60 383c 2ea3 21bd
00000340: 33c4 bbbb 8ee5 26be 7fe7 cf3d a66c 803d
00000350: a7d5 04be 7e32 8e3c 938e 15bd 32b6 063d
00000360: 7296 0c3e 6ec0 d9bd 7764 36be cbba 7a3d
00000370: b0a5 abbc 4899 7dbd 081d 1bbe 6f75 643d
00000380: 8b22 27bd 258a aebd 5e5b ee3c f219 a7bc
00000390: ba7d e23d 7a9b 283d f844 1e3e 5f2c 533e
000003a0: 4dc9 3cbd 3d8f 52bc cc72 f9bd 4d46 85bd
000003b0: 8e79 dd3d 2632 9bbe 1f90 bd3d 0185 25be
000003c0: 9054 05be 4ed1 92bb 02c4 3fbd 3c42 793d
000003d0: fa9a 22be 620a 1abe e0f0 993d ada8 47bd
000003e0: 16ea 79bd 885c 153e 9905 053d f94f 55be
000003f0: 9153 9a3d 5404 0a3d bf9c 0e3e f98c 9b3d
-0.17803425 0.18917611 0.06726111 0.058935367 -0.067547195 0.20330612 -0.115999006 0.061053146
0.016304344 -0.09215055 0.05009153 0.0022035865 0.15469381 0.039986383 -0.029726565 0.10886234
0.17703132 0.13030323 -0.027073761 0.043668844 0.110204175 0.06706097 -0.11451479 0.11205876
-0.1020087 0.057252873 0.0064102607 0.06417192 0.10090785 -0.17780228 0.078091964 -0.006337377
0.01719632 0.08124759 -0.064914614 -0.1705502 0.14262362 -0.15608378 0.06375169 0.039838992
0.09618169 0.02959375 0.0018861514 0.11083574 0.11435413 0.09390651 -0.12163384 -0.006287799
-0.101252496 0.0015563766 0.027408816 0.14323619 0.13434668 0.039462373 0.07002814 -0.29863355
-0.16141911 0.049631204 -0.009970477 0.0056430185 0.019749505 0.07886795 0.15495579 0.122877285
-0.09321297 0.12847899 -0.14144818 0.05950655 -0.26620182 -0.10337765 -0.10028428 0.19806525
0.00647669 0.057103395 -0.10842302 0.16832228 0.14412785 -0.075157285 -0.12549637 -0.19859934
0.19690089 0.17751539 -0.008166388 -0.18561395 -0.05809369 -0.24318115 -0.038303126 0.2828646
-0.09907401 0.13011844 -0.06403689 -0.047415733 0.13658321 0.14053077 0.21985361 -0.07633485
0.3131072 -0.044639222 -0.0040629082 -0.21097104 0.027459748 0.07705426 0.06336372 0.09159221
-0.0602681 -0.23556718 -0.093463615 0.04008751 -0.15191044 0.22877373 0.20174631 0.06609612
0.005620054 -0.17406692 -0.02461246 -0.02760903 0.020990347 0.037130333 -0.038948614 0.14414269
0.089440934 -0.12901776 -0.047875725 0.009068878 -0.010634748 -0.10375935 -0.0021753544 0.027380548
-0.117912516 -0.0796633 0.06982194 -0.2178506 -0.04414421 -0.2643574 0.14986987 0.10706864
-0.0076099797 -0.1010243 -0.03054234 -0.06219158 -0.08131815 0.009798065 -0.03029763 -0.039321013
-0.09586308 -0.05524431 0.07937184 -0.054933205 -0.05898269 0.029017052 0.12643619 -0.005624696
-0.14740473 0.12507983 -0.1739626 -0.1061193 0.19993156 0.14997657 -0.031647585 0.107680686
-0.002139108 0.16067076 0.039679807 0.01826838 0.13338418 0.02414986 0.064279534 -0.0789459
-0.0018340164 -0.042295635 -0.16631511 -0.014656779 0.021185067 -0.034799825 -0.03461928 -0.22844118
-0.06465957 -0.16303511 0.06875162 -0.18353757 0.045354478 -0.08950706 -0.17321722 -0.13347791
0.008652291 -0.035216793 0.18703435 0.099817485 -0.07861809 0.056952614 0.061564036 -0.050348133
-0.051285934 -0.22792156 0.16317677 0.10105314 0.060297884 0.052677505 0.049416304 -0.21395834
0.18012556 -0.28774783 0.021008233 0.063091196 -0.06934943 0.12826507 0.011253519 -0.03946226
-0.005730176 -0.16298506 0.10151576 0.06270723 -0.12972127 0.01735806 -0.036512922 0.0328886
0.13729265 -0.10632406 -0.17811762 0.061213296 -0.02095303 -0.06191376 -0.15147793 0.055776056
-0.040804427 -0.08522443 0.029096302 -0.020398114 0.11059137 0.0411639 0.15455997 0.20622395
-0.046090413 -0.0128515335 -0.12180099 -0.065075494 0.108142 -0.30311698 0.092560045 -0.16164018
-0.1302054 -0.0044805175 -0.046817787 0.06085418 -0.15879431 -0.15043023 0.075166464 -0.048744846
-0.061014257 0.14586079 0.03247604 -0.20831288 0.0753547 0.033695534 0.13926981 0.07595248

R__3815 f4 [1, 192, 64]
00000000: 30e3 17bd 9c93 523d e0cc fb3d 16f3 8a3d
00000010: 4224 00bd 3016 15bd efb8 5a3d 3f0c a6bd
00000020: 4ba9 83bd 9e77 b93d 17ed 42bd f46c 7e3d
00000030: 93bd d23d 79be 37bd 3612 cebd a857 32bc
00000040: 3c61 c1bc a46c 91bd b467 dc3d a454 583d
00000050: e43f c03d 61dd 2ebc 357b a6bd f73a 693c
00000060: bf09 eebd bbc6 4b3e 1dd2 413e bd83 c4bd
00000070: 6cce c43b ef97 143e aefd dbbd a58b 1c3d
00000080: a0d6 453d 3fbc 033d 48f9 a43d 29ff 88bd
00000090: f128 b0bd 4584 e03c 8ab2 0abe 1d53 ebbc
000000a0: 0da6 9cbd 1877 c63d ea8d 283e df3d e13c
000000b0: ae05 a93d cf6e 403c 5de3 4bbd 0539 13be
000000c0: 978b aabd 2199 1a3d 2229 31be 782c 943d
000000d0: 90db b83d 86d6 34be 4c30 87bd 4c2e 3dbd
000000e0: 648a 06be c6fe 8bbc 6d5d 7f3e 00ee ffbd
000000f0: 27b8 bdbb 9b6c 583d 2399 293d 88b4 2abd
00000100: 9821 ff39 bd9f cabc c3ff 82bd b8a7 94bd
00000110: 8731 d13d 6b27 5ebd 7768 2b3e 0267 5b38
00000120: 1923 1a3d 4143 9dbd 4924 6c3d 6d89 cc3c
00000130: a082 e1bc 928a a03d 39f0 96bd 0686 4c3c
00000140: 7745 26be 4fb0 c7bd 3360 afbd 8bc1 d8bd
00000150: 65fd 71bd fe82 edbc a42e 893c 284c 9d3d
00000160: aff7 5d3c d77c 64bd 1acd 93bd e82a 94bc
00000170: a703 6f3d e1a6 f93b a8cd 603c f61d 3bbe
00000180: e4a1 2a3e a0dc bd3d 6356 4d3d 5ac5 63bc
00000190: 5672 aebc eac5 af3d 6def 613d dbb3 abbd
000001a0: 59b5 e43a 36a6 a8bc 3a36 9cbd a678 173c
000001b0: f525 9fbd b9c1 0b3d 9c5e f13c f035 52bb
000001c0: c5cb cabd e359 03be a94a 86bc 2b1e 91bd
000001d0: 5cb0 49bd 131c 04bd 2658 93bd dcfc a13c
000001e0: 19d1 293d b7f1 1f3d 2cd9 d7bd 49de 073d
000001f0: 7925 bfbd 7aa1 f3bc f248 af3d f1aa f4bb
00000200: 5c33 8c3d 50c3 7d3d 4567 053e a3bc f7bc
00000210: f1c8 80bd f4cc b33c 8fe5 803d 52fb 7b3d
00000220: 4768 7e3d b0c9 1ebe e186 aebd 8322 c13d
00000230: aece bebd 9f29 583d e3c9 433d 04e6 063e
00000240: 71d8 1fbe 8d5c 1abe e5cf 3c3d 6e45 183b
00000250: f6fb 1cbe c35f 67bd fe9c c7bd 2ab5 153e
00000260: 02c3 b53d ed47 10be 276f 2dbe c02c b1bd
00000270: ab00 9dbd b6d9 00bd 401b 34be cbb7 ff3d
00000280: 3861 173d fa29 9b3d 38e7 cfbc d5a3 813d
00000290: 1e8c 8abd ad3c 5cbb b02f a2bc 308e 5f3d
000002a0: 7464 30bb 6722 1d3e ebde cf3c 4a29 e13d
000002b0: 91d8 1a3e 5873 923d 0343 cabc 69fd 833e
000002c0: 70e4 3e3e d460 083d 55d1 323e 75de 03be
000002d0: 4179 463d 169d 7a3c 0548 ce3c 5e23 633e
000002e0: ddad 883c 7ef6 a03d 3917 8cbe fade 733d
000002f0: f32e 80bd 2f2a d93d e730 a8bd 6066 333d
00000300: fdbf b7bd 910b 4cbd 71ae 07be cd37 05be
00000310: daa1 b8bd 49b1 aebb 2591 0e3e be23 d33d
00000320: 0a3f 8f3c 16c6 f3bd 86f1 c93c 218d ef3d
00000330: a6fa 72bd 7fe1 e63d 4712 893d 5dc5 00be
00000340: 2005 463b 7523 4bbe a86b 7a3b c838 03be
00000350: 7010 f23d 22bc 9abd 5fa7 7ebd a8b0 4c3d
00000360: fbfd ab3d 7646 333d 7c4b 1fbe 0321 b3bd
00000370: e538 39be 297d 0cbe 480a 5ebd 2907 5ebd
00000380: 94c1 9a3c 68d9 2d3d 1b91 b2bd f68e 253e
00000390: e4c7 3d3e c6cc b3bc cc41 fc3c e81f adba
000003a0: 8673 6f3e bb6f c9bd 6e5f c3bd 577b 58bb
000003b0: 75e5 2b3e 9483 cb3d 545d bd3d 4ef7 af3d
000003c0: 69e5 e93d a97b b83d 4b64 293e 6c24 f9bc
000003d0: e31e bd3d 4faf d13d 8898 da3d 2ba4 b73d
000003e0: 6623 0d3d 2408 003e f006 783d c44c 173e
000003f0: 79b3 db3d 6329 813d 7dcc d83d 009e 8f3c
-0.037081897 0.051410303 0.12294936 0.06784646 -0.03128458 -0.036398113 0.053399023 -0.081078045
-0.064287744 0.09056018 -0.047589388 0.062115625 0.10290065 -0.044859383 -0.10062067 -0.010885157
-0.023605935 -0.071008 0.10761967 0.052815095 0.09387186 -0.010672898 -0.081289686 0.01423525
-0.11622953 0.19900028 0.18927808 -0.095954396 0.0060060527 0.14511083 -0.10741745 0.038219113
0.048300385 0.032161947 0.08055359 -0.06689293 -0.08601559 0.027406821 -0.1354467 -0.028726155
-0.07648859 0.09690684 0.16460386 0.027495323 0.082530364 0.011745169 -0.049777377 -0.1437722
-0.08327406 0.03774369 -0.17300847 0.07235044 0.09026253 -0.17659959 -0.06601009 -0.04618673
-0.1313873 -0.017089259 0.24937983 -0.12496567 -0.005789775 0.05283795 0.04140581 -0.041676074
0.0004866242 -0.024734372 -0.06396439 -0.07258552 0.10214525 -0.05423681 0.16739069 5.2309602e-05
0.037631128 -0.07678843 0.05765179 0.024967873 -0.027528107 0.0783893 -0.073700376 0.012483126
-0.16237436 -0.09750425 -0.085632704 -0.105837904 -0.059079546 -0.028993126 0.016745873 0.07680541
0.013547822 -0.05578312 -0.072168544 -0.018086866 0.058353093 0.0076187705 0.013720907 -0.18273148
0.16663319 0.092705965 0.050131213 -0.013902033 -0.021294754 0.08582671 0.055159975 -0.08383914
0.0017449065 -0.020587068 -0.076275304 0.009245073 -0.077709116 0.034120295 0.029464059 -0.0032075606
-0.09902147 -0.12827258 -0.016393023 -0.07085832 -0.049240455 -0.032253336 -0.07194547 0.019773893
0.041459177 0.039048877 -0.10539469 0.033170972 -0.09333319 -0.029740084 0.08558835 -0.007466667
0.068457335 0.061953843 0.13027675 -0.030241316 -0.062883265 0.021948315 0.06293785 0.061518975
0.062111165 -0.15506625 -0.0852182 0.09430411 -0.09316765 0.052774068 0.047799956 0.13173681
-0.1560991 -0.15074368 0.0460967 0.0023234743 -0.1533049 -0.05648781 -0.09746741 0.1461989
0.088750854 -0.14089938 -0.16936933 -0.086511135 -0.07666143 -0.031457625 -0.1758852 0.124862276
0.03695795 0.07576366 -0.025378808 0.063300766 -0.067650065 -0.0033605502 -0.01979813 0.05457896
-0.0026915343 0.15345155 0.02537485 0.109942034 0.15121676 0.07150906 -0.024690157 0.25779274
0.1864183 0.033295467 0.17462666 -0.1287783 0.04845548 0.015296241 0.025180826 0.2218146
0.016684467 0.07859515 -0.27361467 0.05953882 -0.06258955 0.10603749 -0.082124524 0.043798804
-0.08972166 -0.049815718 -0.13250138 -0.13009568 -0.09015246 -0.0053311926 0.13922556 0.10309552
0.017486114 -0.11903016 0.0246513 0.1169684 -0.05932107 0.11273479 0.06692939 -0.12575288
0.0030215457 -0.19837745 0.003821114 -0.12814629 0.118195415 -0.07555415 -0.062171336 0.04997316
0.08398052 0.04376837 -0.15556139 -0.08746531 -0.1808811 -0.1371962 -0.054209024 -0.054206047
0.018891133 0.042443663 -0.08719083 0.16167817 0.18533283 -0.02194823 0.030793093 -0.0013208361
0.23383912 -0.09835764 -0.09539686 -0.00330325 0.1678675 0.09937206 0.092463166 0.085920915
0.1142071 0.09007961 0.16542165 -0.030412875 0.09234407 0.102385156 0.10673624 0.089668594
0.034457587 0.12503105 0.06055349 0.14775378 0.10727591 0.06306722 0.10585878 0.017531395

R__3802 f4 [1, 384, 128]
00000000: 7125 57bd beaa 73bd 4150 9cbd 5911 1f3d
00000010: d87d 70bd 58bc 22bc 5d78 10ba c42e a9bd
00000020: 27b7 69bd b30e 92bc 4faa ca3d 35bb 3f3d
00000030: df2d b33c 855a 81bb 2666 fcbc b1bf b63b
00000040: 6d0d 17be 9a58 cebc a79b 153c 8850 56bb
00000050: f543 7abd f548 b43d 7e78 9b3d 192d bb3c
00000060: 3615 e2bd dc6f 8abd b335 a3bc dbb8 cbbd
00000070: ac22 563c 33e2 92bb 12a4 18bd 6c35 9f3c
00000080: 1029 54bd 0e1f a93d 359a 283d e1c1 173d
00000090: fedb f23d c7bf 6abb 9405 3d3d e9d7 a4bd
000000a0: 9224 9abd a93a 003e 3428 553a 4dce b6bc
000000b0: 2e43 e83c 585e 0fbd 7779 13bd 5230 3a3d
000000c0: 2f05 84bd 59a7 403d ab3a 463d 6ef8 003e
000000d0: 0edd 453d a52e 9e3c 45d4 f8bd ad55 d03c
000000e0: 10e4 90bd 2465 5dba 5a51 bc3d ac67 5c3b
000000f0: 10c4 c03d 60ce fabd 07e0 063b 5254 98bb
00000100: 7efc 753a 307a 163d 297d c13c b4a7 13bd
00000110: ffe6 79bb 7e49 5dbc c04d 833d ee95 8bbd
00000120: 35a9 b53c 8da3 eabc 4573 88bd efa2 aabd
00000130: 58cf 73bd fd0a 4fbd 8633 3abc ffce bebd
00000140: 6020 9c3d 9711 90bd 35ae 7dbd 0a65 e7bc
00000150: 6493 04be 39ae d33b bdae 143e 4f05 a9bb
00000160: 443e c8ba 15ca e33c 3669 58bd dc84 333d
00000170: 9418 6e3d 9189 ddbc 48d7 67bd 8f22 c83d
00000180: 8d22 963d 68f4 303d b135 9bbd 07a3 6fbd
00000190: b019 cc3c 2495 85bc 9f76 913c 2348 1bbc
000001a0: 7391 82bc 8b21 6fbd 9d70 bfbc 45a0 29bc
000001b0: bd2b 37be 5048 70bc 7eaa 19bd 0db5 02be
000001c0: 5a01 523d 21c1 3bbd ea99 61bd 8599 b4bc
000001d0: 9644 1cbd a971 56bd 6fd8 bc3d f0ee f23b
000001e0: cce0 673d 9494 15bd 7ffc 913c 3601 87bd
000001f0: 806f 26bd 1a8b 4a3c 08ca 3b3c a5f1 debc
00000200: 9e4e 393d ee77 91bc 40f0 fbbc 26f2 8dbc
00000210: 2983 e73a d04e 81bd 1e74 333e 12a7 45bd
00000220: bbf2 06bd ef09 8dbd bde1 083e 538e 043d
00000230: 24ca 21bc cfc8 04be 35e9 a5bd 9e95 c6bd
00000240: 542a aabd 12b5 fc3c d736 2abc 9a17 40bd
00000250: 1959 d83c fa3a 4e3d 71c5 b5bd a519 023d
00000260: e6c5 723d 5071 313d 59bf fc3b ba8f c43d
00000270: 219c 94bd de4b bcbc 033e aebd b47a 113c
00000280: 3cec 02be 4ac9 973c a3f7 da3c 427b db3d
00000290: 96ff d13b c2ad 19bd dfde 61bd 3cb4 4c3c
000002a0: e0da 863d 13f7 c93c 9615 323c 6a7e 423e
000002b0: fb8e fd3c c37b 783d 125a ddbc c19e b6bb
000002c0: be4f 6abd 5745 5fbd a639 dcbc 54b7 49bd
000002d0: 2963 65bc 2b15 ca3d 66d7 ccbd d6e2 36bd
000002e0: d136 82bd 2208 4e3d b41f debd 6387 f2bd
000002f0: f1d5 b6bc 1b56 00be 07e6 ba3d 3e4c ea3c
00000300: 2acc 8e3d 062f 89bd 4893 9d3d fcd7 813d
00000310: 6c95 8dbc 81a8 89bd cae8 0cbc b532 d53d
00000320: 1e5d 03bc 760b baba 3138 9a3d 0aca 283d
00000330: f539 41bd 8e45 10bd 286c 903d 4288 143e
00000340: 6c61 383d af8d 3bbd 6c8e efbd 22bf 933c
00000350: 9cc9 20bd aaac 74bd d9a3 75bd 6951 6dbd
00000360: 2097 00bc c90a 8fbd cfea e53d 7be0 a7bc
00000370: c12c de3d e435 05be d119 653d c505 ff3c
00000380: bbb6 8f3d 92a7 1e3d e535 53bd cb50 293d
00000390: 86a8 b53d 55c6 a5bd 329f 16bd a73c 8f3d
000003a0: 16f6 c93d 3936 abbb b241 86bd 33c8 063e
000003b0: 43c2 6dbc 4345 3ebb 50eb 8f3b 4f11 f2bd
000003c0: 019e a33d eb01 78bc d54f 9ebd 23c6 a3bd
000003d0: cf35 e8bc 9e59 823a ee3e fb3d 59fe ba3d
000003e0: 249d 9ebd 422e 823c 14eb 58bc 77e4 a6bd
000003f0: b844 a9bd 62e1 e83c c5fa 053d a3c5 683d
-0.05252594 -0.059489004 -0.07632495 0.038834903 -0.058713764 -0.0099326 -0.00055110996 -0.08260873
-0.057059433 -0.017829275 0.09895765 0.046809394 0.021872459 -0.0039475583 -0.030810427 0.0055770506
-0.14751215 -0.025188733 0.009131349 -0.003270181 -0.061099965 0.08802978 0.075913414 0.022848653
-0.11039202 -0.06759617 -0.019923067 -0.09947368 0.01306979 -0.0044825315 -0.037265845 0.019434653
-0.051796973 0.08257876 0.04116269 0.03705013 0.118583664 -0.0035819875 0.046147898 -0.08048994
-0.075265065 0.12522377 0.0008131296 -0.022315169 0.028352346 -0.035002083 -0.03600451 0.045456238
-0.06446301 0.047034595 0.048395794 0.12594768 0.048306517 0.019309351 -0.12149862 0.025431478
-0.070747495 -0.0008445552 0.09195204 0.003363113 0.09412396 -0.12246394 0.0020580308 -0.0046487236
0.00093836326 0.03673762 0.023619251 -0.036048606 -0.003813207 -0.013506291 0.06411314 -0.06815706
0.02217541 -0.02864244 -0.06662611 -0.08331858 -0.05952391 -0.05054759 -0.011364823 -0.09316825
0.076233625 -0.07034605 -0.061933715 -0.028246421 -0.1294685 0.006459978 0.14519782 -0.0051581035
-0.0015277346 0.027806321 -0.052834712 0.043827876 0.05812891 -0.027043136 -0.056601793 0.097722165
0.07330809 0.043201834 -0.075786 -0.058505084 0.024914593 -0.016306467 0.017756758 -0.009477648
-0.015938496 -0.0583816 -0.023369128 -0.010353153 -0.17887779 -0.014665678 -0.03751611 -0.12764378
0.05127082 -0.04583848 -0.055078425 -0.02204586 -0.038151346 -0.05235449 0.09220969 0.0074137375
0.056610867 -0.03651865 0.017820595 -0.06592028 -0.04063368 0.012362266 0.011461742 -0.027214834
0.04524099 -0.017757382 -0.030754209 -0.01732738 0.001766299 -0.063138604 0.17524764 -0.048255034
-0.03294633 -0.0688666 0.13367362 0.032362293 -0.009874854 -0.12967227 -0.08101121 -0.09696506
-0.08308855 0.03084806 -0.010389051 -0.04689751 0.026409673 0.050349213 -0.088755496 0.031762738
0.059270762 0.043320954 0.00771324 0.09597726 -0.07256342 -0.022985395 -0.085079215 0.008879352
-0.12785429 0.0185286 0.02672941 0.10716869 0.006408642 -0.037519224 -0.055144187 0.012494143
0.06584716 0.024653947 0.010869404 0.18993536 0.030951967 0.060664903 -0.027020488 -0.005573124
-0.057204954 -0.054509487 -0.026882958 -0.0492471 -0.014000692 0.09867319 -0.100020215 -0.04464992
-0.06358112 0.050300725 -0.10845891 -0.11842229 -0.022318812 -0.12532847 0.091259055 0.028600808
0.06972535 -0.06698422 0.07694107 0.06340024 -0.017283164 -0.06721593 -0.008600423 0.10410062
-0.008017806 -0.001419409 0.07530249 0.041208304 -0.047174413 -0.035222583 0.07051879 0.14505103
0.045014784 -0.045789417 -0.11697087 0.018035475 -0.03925477 -0.059734978 -0.05997071 -0.057938967
-0.007848531 -0.06984479 0.11226427 -0.020492783 0.1084838 -0.13008839 0.055932824 0.03113068
0.07017275 0.038734026 -0.05156507 0.041336816 0.08870034 -0.080944695 -0.036772914 0.069939904
0.0986139 -0.0052249697 -0.06555499 0.13162307 -0.014511648 -0.0029032982 0.004392065 -0.118197076
0.07989121 -0.015137176 -0.077300705 -0.07996776 -0.02834597 0.0009944921 0.12267862 0.09130544
-0.07744816 0.015891198 -0.013239641 -0.08149045 -0.0826506 0.028427783 0.032709856 0.056829106

GRU/quant_dense_55/LastValueQuant/FakeQuantWithMinMaxVars__3790 f4 [32, 1]
00000000: ec08 633e 11a8 a7bc 11a8 a7be e81e b9be
00000010: 11a8 a7bd 960c 5c3e 0fb3 92be 7c63 b0be
00000020: 44fa 7ebe f9f3 90be 67a4 ae3d 6999 c33c
00000030: c18a 5f3d 0fb3 92bd 8e38 083e 3c26 2bbe
00000040: 4010 553e fbe8 a53e 383c 013e 197c fbbd
00000050: 65af 993e 11a8 27bc 9222 b23e 3a31 963e
00000060: 2472 943e 11a8 a7bd 3c26 abbe abcb ddbe
00000070: c18a 5fbe bf95 4abe 902d 9dbe 9417 c7be
0.22171372 -0.020465882 -0.32745412 -0.36156392 -0.08186353 0.21489176 -0.28652236 -0.344509
-0.24900156 -0.28311136 0.08527451 0.023876863 0.054575685 -0.07163059 0.13302824 -0.16713804
0.2080698 0.32404312 0.12620628 -0.12279529 0.30016628 -0.010232941 0.34792 0.29334432
0.28993332 -0.08186353 -0.33427608 -0.4331945 -0.21830274 -0.19783686 -0.30698824 -0.38885176

GRU/quant_dense_54/LastValueQuant/FakeQuantWithMinMaxVars__3789 f4 [32, 32]
00000000: c683 013e 969c c03d 9fdb 573e ce6c 72be
00000010: 4063 7cbd 8c5d 293e 4af8 39bd b2af 2c3d
00000020: 1b67 9fbc cfc2 18be 24a6 363e 9f06 ab3e
00000030: bc19 97be 2de5 4dbe 7989 54be 5c76 68be
00000040: 7989 54be 41b9 223e 5337 513e 7989 543c
00000050: b2af ac3e d801 30be 969c 403e e26b 9a3e
00000060: 4af8 39bd a970 15be 670b 26be 1b67 9fbc
00000070: 9fdb 573e d92c 83be 969c c03d a81a 6f3d
00000080: a81a efbc b2af 2cbe b2af 2c3d b2af 2c3e
00000090: 7989 d43d 1b67 1f3e 831e 123e 1b67 1f3d
000000a0: 7989 d4bd ecd5 84bd eb7f 5e3e 7989 543c
000000b0: ecd5 84bc c52d dbbd 5c76 683e f4be f53d
000000c0: cfc2 98bd e140 473d 5c76 e83d 5462 a4be
000000d0: 11d2 61bd f514 1c3e a970 153e 11fd b4be
000000e0: 4af8 b9bc c558 aebe 7989 543d 2de5 cdbd
000000f0: 1b67 1f3d 969c c03d 831e 923d 7989 543d
00000100: a945 c23e 0793 4a3e ecd5 843c 11d2 e1bd
00000110: f514 1c3e c683 01be 11d2 613e 670b a6bd
00000120: a970 953e ebaa b1be 82c8 6bbe 11d2 61bd
00000130: d801 303e 5c76 683e a81a ef3c 5dcc 0ebe
00000140: ce6c 723e f4be f53d 24a6 b63e 41b9 a2be
00000150: b2af 2c3d c683 01be 11d2 e1bd 7989 54bb
00000160: 11fd b43e 4063 7cbd 2de5 cdbd 7989 d4bc
00000170: 1b67 1fbe fe53 b33d ecd5 04be 7989 543e
00000180: 41b9 22be 1228 08be 831e 92bd f514 1cbe
00000190: 7989 d43c 7989 543e 66b5 7f3e cfc2 98be
000001a0: 24d1 89be f4be f53d 11d2 613e bc19 973e
000001b0: 41b9 223e fe53 b3bd 5c76 e8bd 0000 0000
000001c0: 41b9 223e 1b67 1fbd 7989 d4bb 24a6 363e
000001d0: 66b5 7fbe 66b5 7fbe 9f06 ab3e cfc2 983d
000001e0: fe53 b33d c558 ae3e e140 473e cfc2 98bd
000001f0: a81a 6f3d b2af acbe 4af8 393d cfc2 18be
00000200: 3624 65be 1b67 1f3e 4a23 8d3e ecd5 043e
00000210: ecd5 04bd 4063 7c3e 670b 26be 1b67 1f3e
00000220: 4af8 b93d a81a efbd c683 01be 4a23 8d3e
00000230: 11d2 613e 670b a63d 969c 40be 5c76 e8bd
00000240: eb7f 5e3e f514 1c3e 1b67 9f3e 11d2 e1bd
00000250: 7989 d4bb a81a 6f3e 1a11 79be 670b 263e
00000260: 7989 d43d 1b67 9fbd 704a 3d3e f514 9cbe
00000270: 4063 7c3e f4be f53d 4af8 b9bc eb7f 5ebe
00000280: bcee 43be 704a 3d3e 96c7 933e 4af8 39bd
00000290: a970 953e ecd5 843c 9fdb 573e a81a 6fbe
000002a0: 5c76 683e ecd5 04bd 5337 51be 7989 54bd
000002b0: 1a3c ccbe ecd5 043e 41b9 a23e 1b67 1f3e
000002c0: a81a 6f3e ebaa b1be 5337 51be 66b5 7f3e
000002d0: 831e 923d ce6c 723e e140 47be 4a23 8d3e
000002e0: 831e 12be cfc2 983d f4be 753e 4af8 b9bc
000002f0: 4063 7c3e fe53 b3be e140 c73e e140 c7bd
00000300: 79b4 a7be 670b a6be 4af8 393d 9fdb 57be
00000310: 4af8 393e f514 1cbe 1b67 1fbe 24a6 b63e
00000320: 377a 0b3e 1228 083e e140 c7bd 670b a63d
00000330: 1b67 1f3e 5337 51be 8c5d a9be a970 15be
00000340: 5c76 68be 8c5d a9be cfc2 18be c52d 5bbe
00000350: 1228 083e 7075 90be ecd5 04bd bcee c3be
00000360: a81a 6f3d 704a 3d3e 1b67 1f3d 1b67 9f3d
00000370: 4063 7cbd 1a11 79be b2af 2c3d 969c c03e
00000380: 969c 40be 1228 08be 2de5 cdbd d92c 833e
00000390: d801 30be 2e10 a1be 4af8 b93e 1b67 9fbd
000003a0: 969c 40be 831e 12be 66b5 7fbe c52d 5bbe
000003b0: 2de5 4dbe 2de5 4dbe 1b67 1fbd ecd5 04bd
000003c0: c558 aebe ecd5 84bd b2af 2c3d 7989 54bd
000003d0: 1b67 1f3c 7989 d4bc b2af ac3d 5dcc 8e3e
000003e0: c558 aebe 7989 d43b 11d2 613d 1b67 9fbc
000003f0: bcee 433e 2de5 4dbe 11d2 61be 66b5 7f3e
0.12647924 0.094048664 0.21079873 -0.23674318 -0.06161809 0.16539592 -0.045402803 0.042159744
-0.019458344 -0.14918064 0.17836815 0.3340349 -0.2951182 -0.20106955 -0.20755567 -0.227014
-0.20755567 0.15890981 0.20431261 0.012972229 0.33727795 -0.17188203 0.18809733 0.30160433
-0.045402803 -0.14593758 -0.16215287 -0.019458344 0.21079873 -0.25620154 0.094048664 0.05837503
-0.029187515 -0.16863897 0.042159744 0.16863897 0.10377783 0.15566675 0.14269452 0.03891669
-0.10377783 -0.06486115 0.21728484 0.012972229 -0.016215287 -0.10702089 0.227014 0.11999312
-0.07459032 0.048645858 0.113507 -0.32106268 -0.055131976 0.1524237 0.14593758 -0.35349324
-0.022701401 -0.340521 0.051888917 -0.100534774 0.03891669 0.094048664 0.07134726 0.051888917
0.3794377 0.19782649 0.016215287 -0.11026395 0.1524237 -0.12647924 0.2205279 -0.081076436
0.29187515 -0.34700713 -0.23025706 -0.055131976 0.17188203 0.227014 0.029187515 -0.13945146
0.23674318 0.11999312 0.3567363 -0.31781963 0.042159744 -0.12647924 -0.11026395 -0.0032430573
0.35349324 -0.06161809 -0.100534774 -0.025944458 -0.15566675 0.087562546 -0.1297223 0.20755567
-0.15890981 -0.13296536 -0.07134726 -0.1524237 0.025944458 0.20755567 0.24971542 -0.29836127
-0.26917374 0.11999312 0.2205279 0.2951182 0.15890981 -0.087562546 -0.113507 0.0
0.15890981 -0.03891669 -0.0064861146 0.17836815 -0.24971542 -0.24971542 0.3340349 0.07459032
0.087562546 0.340521 0.19458343 -0.07459032 0.05837503 -0.33727795 0.045402803 -0.14918064
-0.22377095 0.15566675 0.27565986 0.1297223 -0.032430574 0.24647236 -0.16215287 0.15566675
0.090805605 -0.11675006 -0.12647924 0.27565986 0.2205279 0.081076436 -0.18809733 -0.113507
0.21728484 0.1524237 0.3113335 -0.11026395 -0.0064861146 0.23350012 -0.2432293 0.16215287
0.10377783 -0.07783338 0.18485427 -0.3048474 0.24647236 0.11999312 -0.022701401 -0.21728484
-0.19134039 0.18485427 0.2886321 -0.045402803 0.29187515 0.016215287 0.21079873 -0.23350012
0.227014 -0.032430574 -0.20431261 -0.051888917 -0.39889604 0.1297223 0.31781963 0.15566675
0.23350012 -0.34700713 -0.20431261 0.24971542 0.07134726 0.23674318 -0.19458343 0.27565986
-0.14269452 0.07459032 0.23998624 -0.022701401 0.24647236 -0.35025018 0.38916686 -0.097291715
-0.32754877 -0.32430574 0.045402803 -0.21079873 0.18161121 -0.1524237 -0.15566675 0.3567363
0.1362084 0.13296536 -0.097291715 0.081076436 0.15566675 -0.20431261 -0.33079183 -0.14593758
-0.227014 -0.33079183 -0.14918064 -0.21404178 0.13296536 -0.28214598 -0.032430574 -0.38268077
0.05837503 0.18485427 0.03891669 0.07783338 -0.06161809 -0.2432293 0.042159744 0.37619466
-0.18809733 -0.13296536 -0.100534774 0.25620154 -0.17188203 -0.31457657 0.36322242 -0.07783338
-0.18809733 -0.14269452 -0.24971542 -0.21404178 -0.20106955 -0.20106955 -0.03891669 -0.032430574
-0.340521 -0.06486115 0.042159744 -0.051888917 0.009729172 -0.025944458 0.08431949 0.27890292
-0.340521 0.0064861146 0.055131976 -0.019458344 0.19134039 -0.20106955 -0.2205279 0.24971542

GRU/quant_dense_54/BiasAdd/ReadVariableOp:0 f4 [32]
00000000: c82e 1c3d 1854 c03c 8c88 933d 574a b23c
00000010: 3dae 6ebd d60e 8abc d2f9 75bd 3d73 633c
00000020: 2488 32bd 72bc a2bc 64de 753d 89d0 0d3d
00000030: a704 643d e7d2 75bd 7aea 243d 90ff c2bc
00000040: 7d7d 313d 34f5 753d f215 1e3c 83ea 75bd
00000050: 85a4 1b3d 7b21 0b3d 70e8 223d 1850 633d
00000060: 860e 033d 6956 73bd 428a 933d cc49 da3c
00000070: 8467 73bd b3ae 243d 00f3 72bd 6292 6ebd
0.03813055 0.023477599 0.072037786 0.021763964 -0.058271635 -0.016852777 -0.0600527 0.013882455
-0.043586865 -0.019865248 0.06002654 0.034622703 0.0556685 -0.060015585 0.040262677 -0.023803502
0.043332566 0.060048297 0.009648787 -0.0600381 0.037998695 0.033967476 0.03977245 0.055496305
0.031996273 -0.05940858 0.07204105 0.026646517 -0.059424892 0.04020567 -0.059313774 -0.05824507

B__3830 f4 [1, 192]
00000000: 9d3c 3f3d 5e96 c33a 0cf2 9d3d 0ee0 a5bd
00000010: 7873 333d b537 21bc 92c9 ffba 40b8 b03d
00000020: 8dc3 be3d 46b8 1a3d 7dc9 acbc 6ddb 903c
00000030: e7b9 e73d f20a 50bd 681f 6bbd 64e1 313d
00000040: 4966 793d 581a 3abd c493 583d ea06 923d
00000050: 02ba 723d 4ac9 bebc 0263 2cbd f61d 713c
00000060: 7529 993d 23eb 343d e25f d93d 3a1d 13bd
00000070: 2cdc 10bd 7f71 ecbc aadc 78bd 6cf1 c8bc
00000080: 0af1 1a3d 5464 95bd 9976 823d 0b73 a43d
00000090: 82f7 adbd 8b75 243d 3ff1 833c 5f71 cdbc
000000a0: 1d19 8fbd 79bd df3c 8ec6 89bd 4ef7 5b3c
000000b0: 5496 1c3d e96c 313c 354d 68bc 8dd4 3c3d
000000c0: 3c4d a03d b16a 83bd 3d99 573d 6c41 26bd
000000d0: 567a dcbc 77d8 d23d 8622 043d 0d80 303d
000000e0: c643 1e3c 39ea 65bd 3875 80b9 b9fc 9c3d
000000f0: 7355 17bd 3ddf 95bd bb6a d6bc c102 82bd
00000100: 7548 a6bd 65ae 7a3c 1173 b5bd 8c1f a2bd
00000110: 2f15 5f3d 7f5f 62bd aeeb 7b3d ff9c 9c3d
00000120: 8d12 a33d f6c1 993d b998 9d3d a29f 7a3d
00000130: 4836 933d 5520 58bd fc93 8e3d 6db5 11bd
00000140: 88e6 ac3d 374f 703d ecf9 9c3d d230 1e3d
00000150: b8f5 01bd 0483 02bd b20e 06bc deb7 97bd
00000160: 1694 133d 9090 7f3d 56a0 3abd 5ed2 403d
00000170: 3a9b a83c b762 943d e429 343d 0e7e a4bd
00000180: 9d3c 3f3d 5e96 c33a 0cf2 9d3d 0ee0 a5bd
00000190: 7873 333d b537 21bc 92c9 ffba 40b8 b03d
000001a0: 8dc3 be3d 46b8 1a3d 7dc9 acbc 6ddb 903c
000001b0: e7b9 e73d f20a 50bd 681f 6bbd 64e1 313d
000001c0: 4966 793d 581a 3abd c493 583d ea06 923d
000001d0: 02ba 723d 4ac9 bebc 0263 2cbd f61d 713c
000001e0: 7529 993d 23eb 343d e25f d93d 3a1d 13bd
000001f0: 2cdc 10bd 7f71 ecbc aadc 78bd 6cf1 c8bc
00000200: 0af1 1a3d 5464 95bd 9976 823d 0b73 a43d
00000210: 82f7 adbd 8b75 243d 3ff1 833c 5f71 cdbc
00000220: 1d19 8fbd 79bd df3c 8ec6 89bd 4ef7 5b3c
00000230: 5496 1c3d e96c 313c 354d 68bc 8dd4 3c3d
00000240: 3c4d a03d b16a 83bd 3d99 573d 6c41 26bd
00000250: 567a dcbc 77d8 d23d 8622 043d 0d80 303d
00000260: c643 1e3c 39ea 65bd 3875 80b9 b9fc 9c3d
00000270: 7355 17bd 3ddf 95bd bb6a d6bc c102 82bd
00000280: c016 a7bd d17d 313c 332f b4bd f800 a3bd
00000290: cd1a 633d 04df 5fbd 46a3 8a3d ad12 983d
000002a0: 76e0 a13d 26c8 983d 1660 9e3d 7fef 753d
000002b0: dc4c 943d 0d83 56bd 4ef3 933d 4b67 1fbd
000002c0: cc0e ae3d 5501 713d e4fd 9c3d e193 083d
000002d0: a639 06bd 6c87 01bd 4a4f 98bc f0b5 97bd
000002e0: 4f1b 133d 46ad 7d3d cadf 14bd eedb 243d
000002f0: 77a5 8d3c ba61 923d e162 353d 1b66 a4bd
0.046688665 0.0014922132 0.077121824 -0.08099376 0.04381129 -0.009839942 -0.0019515029 0.08628893
0.09314642 0.037773393 -0.02109217 0.017682755 0.11314755 -0.05079169 -0.057403 0.04342784
0.060888562 -0.04543528 0.052875295 0.07130225 0.059259422 -0.023289341 -0.04208661 0.014716616
0.074786104 0.044169556 0.10613991 -0.035916544 -0.035366222 -0.028862713 -0.060757317 -0.024529181
0.03782753 -0.07294527 0.06370277 0.08029755 -0.08494474 0.04015116 0.016106246 -0.025078474
-0.06987212 0.027312027 -0.067273244 0.013425661 0.0382293 0.010829189 -0.014178564 0.04610114
0.07827231 -0.06416834 0.052636374 -0.040589735 -0.026913803 0.10295194 0.032259487 0.04309087
0.009659713 -0.056131575 -0.00024501397 0.076653905 -0.036946725 -0.0731797 -0.02617394 -0.063481815
-0.08119289 0.015300368 -0.08859838 -0.07916173 0.05446356 -0.055266853 0.06150406 0.07647132
0.07962523 0.07507698 0.07695145 0.061187394 0.07188088 -0.05276521 0.069618195 -0.03557341
0.08442408 0.058669295 0.07664856 0.038620777 -0.031728476 -0.031863227 -0.008182215 -0.07408117
0.036029898 0.062393725 -0.045563065 0.04707562 0.02058183 0.07245391 0.043985263 -0.080318555
0.046688665 0.0014922132 0.077121824 -0.08099376 0.04381129 -0.009839942 -0.0019515029 0.08628893
0.09314642 0.037773393 -0.02109217 0.017682755 0.11314755 -0.05079169 -0.057403 0.04342784
0.060888562 -0.04543528 0.052875295 0.07130225 0.059259422 -0.023289341 -0.04208661 0.014716616
0.074786104 0.044169556 0.10613991 -0.035916544 -0.035366222 -0.028862713 -0.060757317 -0.024529181
0.03782753 -0.07294527 0.06370277 0.08029755 -0.08494474 0.04015116 0.016106246 -0.025078474
-0.06987212 0.027312027 -0.067273244 0.013425661 0.0382293 0.010829189 -0.014178564 0.04610114
0.07827231 -0.06416834 0.052636374 -0.040589735 -0.026913803 0.10295194 0.032259487 0.04309087
0.009659713 -0.056131575 -0.00024501397 0.076653905 -0.036946725 -0.0731797 -0.02617394 -0.063481815
-0.08158636 0.01083322 -0.08798065 -0.07959169 0.05544548 -0.054656044 0.06769423 0.07425437
0.07904141 0.0746005 0.07733171 0.060042854 0.07241222 -0.052371074 0.07224141 -0.038916867
0.08498916 0.05883916 0.07665613 0.033344153 -0.03276982 -0.03162329 -0.018592495 -0.07407749
0.035914715 0.061932825 -0.036346234 0.040248804 0.017290814 0.07147546 0.04428375 -0.080272876
