models/station_4/model_latest.onnx (onnx, 407739 bytes, 12 tensors)

W__2438 f4 [1, 96, 64]
000000 7c cb fe 3d fa 67 a0 3e 4b 06 47 be 29 97 29 bd
       0.12441155 0.31329328 -0.19435994 -0.041403923
000010 2a 60 02 bd 02 a5 9b 3d 7a 6e 3a be 53 d8 24 bd
       -0.03182999 0.07599832 -0.18206206 -0.040245365
000020 43 7e aa bd ed 66 96 3e 01 81 70 3e 50 90 40 be
       -0.08324864 0.293754 0.23486711 -0.18805051
000030 dd 1f 67 3d f0 05 78 be 0a 40 a1 be fb 92 a9 3e
       0.05642687 -0.24221015 -0.3149417 0.3311995
000040 00 94 e3 be 44 58 eb bd 3b e9 3b be 66 ea d6 bc
       -0.44448853 -0.11491445 -0.18350689 -0.026234817
000050 3b 37 f1 3c 0b 9c 5e be 79 9c 83 bd b6 dd d8 bd
       0.029445281 -0.21739213 -0.06426329 -0.10589163
000060 d7 96 47 be 7b 7a 27 3e 5b 1d c7 3d 8b 62 3e be
       -0.19491135 0.16355316 0.09722396 -0.18592279
000070 0b 01 d7 3d e9 bc 65 be 2e d0 8a 3e 38 76 0e 3e
       0.10498246 -0.22435345 0.27111953 0.13912284
000080 c7 df 63 3e 3a 1b af 3d bb 92 ed bd 46 92 0f be
       0.22253333 0.08550115 -0.11600252 -0.14020643
000090 c8 02 58 b9 0f 21 19 3d 3a b4 7e be e3 d9 33 bc
       -0.00020600401 0.037385043 -0.24873438 -0.010977241
0000a0 4e 10 a9 3e 28 7d 0b 3e b8 c4 66 3e 7c 2e 48 3e
       0.33020252 0.13621962 0.2253598 0.19548982
0000b0 7d a0 1b 3e 15 f2 82 3e 58 c3 7c bd 32 03 35 3e
       0.1519794 0.2557532 -0.06170973 0.17677
0000c0 44 68 53 3e 60 b6 f8 bd 27 16 f9 3c 19 5e 97 3d
       0.20645243 -0.1214416 0.03040607 0.073909946
0000d0 db 40 37 be 86 7c e7 bd c5 75 e7 bd 6a 1b 59 be
       -0.17895834 -0.11303048 -0.1130176 -0.21201864
0000e0 c5 8f 6e 3e 13 23 81 bd c3 1a 5e 3e be 38 21 be
       0.23297031 -0.06305518 0.21689896 -0.15744302
0000f0 0b b4 28 bd 47 1e 9b bd 7d 43 43 3e a6 d2 82 3e
       -0.041187327 -0.07574134 0.19068713 0.25551337
000100 aa 86 90 3c ac 37 19 bd 8f f5 b0 3d 39 e5 7f 3e
       0.017642338 -0.03740661 0.086405866 0.24989785
000110 ed 33 ea bd 57 d0 a5 3d 04 eb 1a bd c1 62 76 3d
       -0.11435685 0.08096378 -0.037821785 0.060152773
000120 4f ca 6b be 34 b0 0d 3e 24 dd 8a 3d b7 22 07 3e
       -0.23026393 0.13836747 0.067804605 0.13196836
000130 9f 08 ec bd 9c 8a 6e be 4f 29 d3 3d d3 07 2c bc
       -0.11525082 -0.23295063 0.10310613 -0.010499912
000140 6f ba 0d be be fa 4d bd a1 90 56 3e f9 54 01 be
       -0.1384065 -0.050287955 0.20953609 -0.12630071
000150 cf 61 2e 3d 2c 94 9c 3d 35 12 d9 3d 2e ca 56 3e
       0.042573746 0.07645449 0.10599176 0.20975563
000160 97 9a a5 3d f4 4a 91 bd d3 e3 51 be bf f8 61 be
       0.08086126 -0.07094374 -0.20497064 -0.22067545
000170 31 d4 59 3d fd f7 c7 3d b2 c9 63 3e 80 7a 1a be
       0.053180877 0.09764097 0.2224491 -0.15085793
000180 7f e1 0c be e9 eb 39 be ff db 6a be 4b 01 35 3d
       -0.13757895 -0.18156399 -0.22935484 0.044190686
000190 a0 06 1b be 04 1d b2 bd 4b aa ec 3d 50 e4 35 be
       -0.15139246 -0.086969405 0.11555918 -0.17762876
0001a0 26 9d 2f be f5 0d ba bd 3e 6b 09 3e df 8e 7d bd
       -0.17149791 -0.09084693 0.13419816 -0.06190383
0001b0 3b a8 0e 3e 9f 81 0a 3e 6e 7d 44 be d5 54 a7 3c
       0.13931362 0.13526009 -0.19188473 0.020426193
0001c0 c0 d3 97 3c 8b 13 81 3c 5a f5 07 3e fa 5b 2a 3d
       0.018533587 0.01575639 0.13277188 0.041591622
0001d0 cc d7 f0 bc 3e 26 a4 bd dc 45 26 3e fc 50 fa 3d
       -0.029399775 -0.080151066 0.16237587 0.12222478
0001e0 ae a5 55 bd 8e f2 c7 3d 85 a2 81 bd 64 3f c9 bc
       -0.052159958 0.097630605 -0.06329826 -0.02456636
0001f0 ca fb 29 bd 02 14 f1 bc a4 50 27 3e 12 67 e9 3d
       -0.04149989 -0.029428486 0.16339356 0.11396612
000200 b0 33 22 3e d6 d8 09 3d 18 df 2d be 88 98 68 3d
       0.1584003 0.033654056 -0.16979635 0.05678609
000210 45 d9 8e 3e 55 8f 84 3c 2c 21 b2 bb 74 83 ca bd
       0.27900138 0.016181627 -0.0054360833 -0.09888354
000220 82 3b 97 bd 4a 92 73 3e 63 cf b6 3e 7f 6b f6 3c
       -0.07384397 0.23786274 0.35705099 0.030080555
000230 26 ac 9c bc 0c 1f 17 be 54 14 0a 3b c2 97 ee 3d
       -0.019125056 -0.14757937 0.0021069245 0.11650039
000240 7e e5 16 be f0 a6 d2 3d 08 34 68 3c 96 81 b0 bd
       -0.14735982 0.10285747 0.0141725615 -0.086184666
000250 99 ce 50 be e3 49 14 be 87 6e 04 3e d4 e4 bf 3d
       -0.20391311 -0.1448131 0.12932788 0.093698174
000260 5a 35 b8 3d 0b 28 97 bd ff 98 05 be 75 7b 78 be
       0.08994551 -0.073806845 -0.13046645 -0.24265845
000270 c3 ee 3e 3e b3 50 a4 be 31 1f 04 be d6 c4 c4 3d
       0.18645768 -0.3209282 -0.12902524 0.09607856
000280 34 07 2b bd bc 9e cc bd 01 7c 02 3d 28 50 af be
       -0.041754916 -0.09991214 0.03185654 -0.34240842
000290 3b 14 8c bc e1 a9 19 3d c1 d6 94 be c5 a1 2f be
       -0.01709949 0.037515525 -0.29070094 -0.17151554
0002a0 66 6b 1b 3d a4 b3 1b be a8 e1 34 3e b9 28 92 bd
       0.03794422 -0.15205246 0.17664206 -0.071366735
0002b0 fc 61 0f 3d 18 fa 4d 3e 52 26 44 3d b4 bf 64 bc
       0.035005555 0.20114934 0.047888108 -0.013961721
0002c0 e8 7a 27 bd 82 4a aa bd a0 c7 67 3d 37 68 d9 bd
       -0.040888697 -0.083149925 0.05658686 -0.106155805
0002d0 d6 df 26 be 3e ba 0b 3e 1b c9 94 be 9c 17 10 3e
       -0.16296324 0.13645265 -0.2905968 0.14071506
0002e0 24 f1 d1 bd 59 d1 d0 bd 31 fe 40 3e 2e 87 1a 3e
       -0.10251072 -0.1019618 0.18846966 0.1509063
0002f0 cc 64 51 3e 2f 93 5c 3e eb 63 97 bd 40 70 95 3e
       0.20448607 0.21540521 -0.07392105 0.29187202
000300 34 60 4f be 1f 90 8b be 70 10 d1 3d f5 fc 55 3d
       -0.20251542 -0.27258393 0.10208213 0.05224319
000310 7a 11 2b 3d 18 a1 c7 3d 64 8f a9 bc dd 59 34 3d
       0.041764714 0.09747523 -0.020698257 0.044031013
000320 e9 02 13 be 4c 0e 2e 3e 62 79 73 3d 2a fd e4 3d
       -0.14356579 0.16997641 0.05944193 0.111811
000330 72 8e 0b 3e a7 55 28 be 30 33 2f be 36 64 1b 3b
       0.13628557 -0.16438924 -0.1710937 0.0023710853
000340 e2 f0 86 be 9f df 52 bd f0 f0 5a bd 78 7b 4f 3e
       -0.26355654 -0.051482793 -0.053452432 0.20261943
000350 90 72 ca bd 58 6f 18 3e f2 8c d0 3d 22 01 81 bd
       -0.09885132 0.14886224 0.10183133 -0.06299044
000360 b0 50 27 be 52 d1 28 3d 12 b2 05 3d 3e 46 b7 bd
       -0.16339374 0.04121525 0.032640524 -0.089489445
000370 4f de a0 3d 30 cd 41 be 17 60 6a 3e 4c 72 62 3e
       0.07854902 -0.18925929 0.22888218 0.22113913
000380 dd 56 0c be 25 7c ad bd 09 bc d5 3d 76 5a e6 bd
       -0.1370501 -0.08470944 0.104362555 -0.11247723
000390 ce ce 26 be 4a 7d b0 bd cb 13 15 be 9e 0f 84 3d
       -0.16289827 -0.08617647 -0.14558332 0.06448291
0003a0 60 a7 3c 3e 18 cf 90 bc 2a c3 31 3e ba 1d fc 3c
       0.18423223 -0.017676875 0.17359605 0.030775893
0003b0 53 df 0d 3e 1a cd 2c be 61 a2 fa bd 8d 8e a0 bc
       0.13854723 -0.16875115 -0.122380026 -0.019599224
0003c0 59 d5 3f bd 72 29 43 3e d8 44 08 bd 64 7d 5f 3e
       -0.046834324 0.19058779 -0.03326878 0.21825176
0003d0 a4 8a fd bd 0c 90 41 3e 01 0d c9 3d 3b 76 03 3e
       -0.12379959 0.18902606 0.098169334 0.1283807
0003e0 b7 8c 6f be 97 62 ef 3d ef 34 8f bd b3 02 df 3d
       -0.23393522 0.116887264 -0.06992518 0.10889187
0003f0 23 2f 87 be fe 10 08 be 76 92 1d 3e 53 9a 9e 3d
       -0.2640315 -0.13287732 0.15387902 0.07744279

W__2424 f4 [1, 192, 128]
000000 66 b4 6d be 22 bf 74 bd e7 b9 e3 3d a8 b5 7a be
       -0.23213348 -0.05975259 0.111194424 -0.24483359
000010 7b 36 a4 bb 14 52 4a bd 6f a8 1a bd 28 70 1a 3d
       -0.0050113774 -0.049394682 -0.037758287 0.037704617
000020 22 3f 18 3e 80 7e 65 3e 32 d3 f5 3d 6c cc f8 bd
       0.14867833 0.22411537 0.12003173 -0.121483654
000030 7d 42 fe bc b4 b1 80 3e c1 21 4a 3e 11 35 1b be
       -0.031037563 0.25135577 0.19739439 -0.15156962
000040 24 25 c5 3d 29 d4 3b 3e d4 a8 be be 3e 98 87 3e
       0.09626225 0.18342651 -0.3723818 0.2648334
000050 d4 7d 3c 3e 47 8c 52 bd 99 aa ff bd ba 80 ea 3d
       0.18407375 -0.05140331 -0.12483711 0.11450334
000060 68 c9 f5 3d 80 18 82 be ae 26 af bc 3d d6 b9 3c
       0.12001306 -0.25409317 -0.021380749 0.022685165
000070 9c 97 cb bd 5f 29 f8 3d a9 88 1c be 2c 91 c2 3d
       -0.099410266 0.12117266 -0.15286507 0.095003456
000080 18 e9 23 be f8 06 38 3e 3b 59 5f bd d3 04 fa 3d
       -0.16006887 0.17971408 -0.054528456 0.122079514
000090 42 06 1e 3e b6 f8 2f 3e 17 88 9a bd d8 25 7c 3c
       0.15432075 0.1718472 -0.07545488 0.015389882
0000a0 40 c1 ea 3d d0 ea 4a bd eb f0 52 be c8 93 38 3d
       0.11462641 -0.04954034 -0.20599715 0.04506281
0000b0 c1 3c ee bd 4a 0d d5 3d 19 c7 3a 3e 70 71 20 3e
       -0.11632682 0.10402925 0.18240012 0.15668273
0000c0 4e cc 70 bd 9c c8 75 3e 1c 11 6f 3d da 3e a8 3d
       -0.05878859 0.24002308 0.058365926 0.08215113
0000d0 f7 87 43 3e 4b b0 3f be e9 09 81 be dc f5 42 3d
       0.19094835 -0.18719594 -0.25202873 0.04759775
0000e0 5d a6 b8 3d 62 a4 f8 bc 7e 80 af 3d 50 f2 9a 3e
       0.09016106 -0.030351821 0.0856943 0.30262995
0000f0 24 ea 85 be 04 49 86 bd ad de fe 3c 3d 4d 5d 3d
       -0.26155198 -0.065568954 0.03111204 0.05402874
000100 6b 4b b1 be b8 f4 85 3e 9d 2c a5 be cb 1b 7b 3e
       -0.34627852 0.26163268 -0.322606 0.24522321
000110 a3 1e e6 3d 9e f3 5b be ac 31 37 bd 79 2e 23 3e
       0.11236312 -0.21479651 -0.044725105 0.15935697
000120 a1 d8 f9 3d 9c 89 63 be 84 97 85 3e af 4e fe 3b
       0.12199522 -0.22220463 0.2609216 0.0077608447
000130 66 99 1a be 61 52 87 bd 00 e0 d7 3d fe 43 e5 bd
       -0.1509758 -0.066075094 0.105407715 -0.11194609
000140 83 4c 62 be 4a 17 27 bd c1 43 86 bd d8 05 af 3d
       -0.220995 -0.040793695 -0.06555892 0.085460365
000150 ba 63 0a bd cb 23 9a bd 24 0f 5e be 61 69 73 3e
       -0.033786513 -0.07526358 -0.21685463 0.23770668
000160 f4 4a 8f bd 28 7b 32 be 29 9e 94 3c f8 c0 87 be
       -0.06996718 -0.17429793 0.018141823 -0.2651441
000170 cf a7 62 3e c1 14 34 be 09 52 6f bb 18 e1 4e 3e
       0.22134326 -0.17586042 -0.0036517403 0.20203054
000180 de e9 37 3d 74 f8 86 3e 0d 76 13 be bb 30 23 3e
       0.044900768 0.2636143 -0.14400502 0.15936558
000190 ca db 47 3d 12 70 18 bd df 3d 0f 3d 8e 81 26 be
       0.04879359 -0.037216254 0.034971114 -0.16260359
0001a0 69 ad 68 be f8 f5 91 be 7e 1a 07 be 2d 7e e0 3d
       -0.227224 -0.28507972 -0.131937 0.10961566
0001b0 c5 09 ae 3e f9 30 76 3e 57 99 00 3e c3 f0 67 3e
       0.3399183 0.24042119 0.12558495 0.22650437
0001c0 e4 75 9f bd 09 e2 f7 bd 87 5a c9 3d d0 9b b2 be
       -0.07786158 -0.1210366 0.0983172 -0.348845
0001d0 a1 4e 8b 3e 35 dd 54 3e de 19 3c be 46 3e cf bd
       0.27208427 0.20787509 -0.18369243 -0.101192996
0001e0 6d 21 07 3e 6a 52 b7 bb aa b5 66 3e 1b fa 16 3d
       0.13196345 -0.0055945413 0.22530237 0.036859613
0001f0 07 e9 20 be 0e d4 36 3e 6a 09 93 3e 9d c0 49 be
       -0.15713893 0.1785433 0.2871812 -0.19702382
000200 a1 0d fa bc 3f 2b 84 3d 3c 1c 29 bc 37 71 32 be
       -0.030524077 0.06453561 -0.010321673 -0.17426
000210 90 6c 98 3e 40 85 12 3e c5 3b 4e 3d 92 30 0f 3e
       0.29770327 0.14308643 0.05034997 0.13983372
000220 d8 8d 04 3d fc 1a 82 bd 77 5f cf bd 66 ff 64 be
       0.032361835 -0.06352803 -0.1012563 -0.22363052
000230 4e a4 2e be dc 23 58 3d 2b 8f b4 3d c6 9a 48 3d
       -0.17054865 0.052768573 0.088163696 0.04897573
000240 24 ca cb 3c d1 69 4a bd 9e 30 2c be 50 76 3f 3e
       0.024876662 -0.04941732 -0.16815421 0.18697476
000250 1f 1b 68 3d b0 14 1b 3c ee fb 4a be 5d 99 6f 3e
       0.05666649 0.0094653815 -0.19822666 0.23398347
000260 50 fe 00 3e 6f 42 22 be b4 08 0b be 85 ff ad bc
       0.12597013 -0.15845655 -0.13577539 -0.021240005
000270 6f 02 de 3d 93 8b 7f 3e 80 4c 18 39 b4 03 87 3e
       0.10840308 0.24955587 0.00014524348 0.26370013
000280 c0 82 35 3e 40 43 07 be 5d 85 69 3d 44 f6 22 bd
       0.17725658 -0.13209248 0.05701195 -0.03978564
000290 cf fd 60 3d 43 6d 99 3e 4a d9 f5 3d 4c c3 ea 3c
       0.05492955 0.29966173 0.12004335 0.028657578
0002a0 5d 4d da 3d 00 d4 dc 3d fa 3c b7 3b f4 79 37 be
       0.10659287 0.10782623 0.005591986 -0.17917615
0002b0 42 2e 22 be 4d f7 09 3d a2 4d c8 bd e1 8a 9a 3d
       -0.15837958 0.03368311 -0.09780432 0.0754602
0002c0 54 75 81 be 47 63 47 3e 54 5f 57 3e 5e 01 72 3d
       -0.25284827 0.19471465 0.21032459 0.059083335
0002d0 6d fb 37 3d a3 29 d9 3d 27 c3 53 be 4f 6a 23 3e
       0.044917513 0.10603645 -0.20679913 0.15958522
0002e0 39 12 0f 3d 8c 25 54 bd 7e db ec 3b 1f d2 cb 3d
       0.034929488 -0.05179362 0.007228314 0.09952187
0002f0 50 2a 31 be 08 13 37 bd ec 02 1f 3e bc 4d ba 3e
       -0.17301297 -0.044695884 0.15528458 0.36387432
000300 9a 83 9d bd b5 b3 b7 3d d5 d0 88 be 49 0f 1d 3e
       -0.07691117 0.08969823 -0.26721826 0.15337862
000310 59 87 5a 3e 51 14 92 be 69 20 42 3e b4 7e 4e bc
       0.21340694 -0.28531125 0.18957676 -0.012603451
000320 4b a9 af 3d 09 6b 8f be a3 80 18 be d6 16 83 bd
       0.08577212 -0.2801135 -0.14892821 -0.0640084
000330 3a 94 72 3d 18 c4 52 3e 96 bd 97 bb cd 73 ad be
       0.05922339 0.20582616 -0.0046307547 -0.3387741
000340 9a 49 38 3d c6 35 05 3e 34 20 a0 3d a3 12 87 3d
       0.044992067 0.13008794 0.07818642 0.065953515
000350 08 0b ef 3c 60 8e 91 be ba 39 81 3b c7 d2 1f 3e
       0.029180065 -0.28428936 0.003943649 0.15607749
000360 80 6a f8 bc b9 e9 9b bb 63 1d 0e be ee 94 0c 3e
       -0.03032422 -0.0047580865 -0.13878398 0.13728687
000370 6e 38 22 3d b1 98 d1 bd c9 94 82 3e c7 8d b8 3d
       0.039604597 -0.10234202 0.2550414 0.09011417
000380 52 8f 2c be 01 68 b2 3c 4c 1a a0 3d 41 59 d1 3d
       -0.16851547 0.021778109 0.07817516 0.10222102
000390 9c 50 ee 3c 3c 83 0d be 6d df c8 bd c8 a8 92 bd
       0.029091172 -0.13819593 -0.0980824 -0.07161099
0003a0 28 41 d5 bc a3 cd c8 3d 8b 4e 2e 3c bf b7 4f 3e
       -0.026032045 0.09804847 0.010638843 0.20284937
0003b0 09 d0 9f 3e 5a 7f dd bc 13 bf 22 bd 4d ec 42 bd
       0.31213406 -0.027038265 -0.039733004 -0.047588635
0003c0 30 4d 7c 3d 68 65 11 be 98 3e 41 3e 10 23 05 3e
       0.06159705 -0.1419884 0.18871534 0.13001657
0003d0 56 73 7f 3e 87 cb 81 3e 8a 39 1d be 1b 51 35 bc
       0.24946341 0.25350592 -0.1535398 -0.0110667
0003e0 ee 5e 27 3e 40 8d e5 bc bd db 43 3e 0d 30 9a 3d
       0.16344807 -0.028021455 0.19126792 0.07528696
0003f0 2f 13 70 be 1d b8 57 3d 8d 0f 83 3d 7a 88 c0 3c
       -0.23444818 0.05266582 0.063994505 0.023502577

W__2411 f4 [1, 384, 6]
000000 20 79 ef bc 52 05 7c 3e 4b cb 86 3e bc eb 07 3e
       -0.029232562 0.24611405 0.26326975 0.1327352
000010 44 9e f3 3e 8f 1d 8d 3d af 87 b3 3d 51 d2 35 bd
       0.47581685 0.068904035 0.08766114 -0.044390026
000020 f5 88 d1 3b 47 03 bd 3d 66 8e 92 bd c9 97 94 bd
       0.0063945004 0.09229141 -0.071560666 -0.07255513
000030 11 32 ea bc 25 17 65 be 7e 38 8a be 0c 72 a3 be
       -0.028588327 -0.2237211 -0.26996225 -0.31922948
000040 ec cc ab be c6 57 15 be 7c f2 1f be e7 ed 94 be
       -0.3355478 -0.14584264 -0.15619844 -0.29087755
000050 88 a5 87 be 98 e0 ae be 2a 5b ae be 57 fe 93 3d
       -0.26493478 -0.34155726 -0.34053928 0.07226246
000060 00 46 9a be 4c bf bd be a3 ec b6 be da 48 ee be
       -0.3013153 -0.3706001 -0.35727414 -0.46539956
000070 4f 27 cc be 2f 32 cd 3d 46 e8 75 3d ee 53 86 3d
       -0.3987374 0.100193374 0.060035966 0.06558977
000080 b2 21 53 3e 0c e7 04 3e cd ab 37 bb fa c6 53 bd
       0.20618322 0.12978762 -0.0028025985 -0.05170343
000090 7d 5e 05 be 7a 76 6a be a4 c0 4c be 99 9c b5 be
       -0.13024326 -0.22896758 -0.19995362 -0.35471037
0000a0 18 c7 9c be ef 5e 50 3d bb 1c 52 3c ad 04 14 3e
       -0.30620646 0.050871786 0.012824233 0.14454909
0000b0 52 5a 7d 3e f3 c6 40 3e 63 9a 79 be fe e1 ea 3d
       0.24741486 0.18825893 -0.243753 0.11468886
0000c0 90 fe 34 be cb dd 9f bd ce ce 42 be 68 c7 99 be
       -0.17675233 -0.078059755 -0.19024202 -0.30034947
0000d0 f7 49 7b be a2 09 71 bd 1f 53 0a be ca 74 8a be
       -0.24539934 -0.058847077 -0.1350827 -0.27042228
0000e0 b3 ef 92 be 85 01 0f be af 77 09 be 9d 4b 82 3d
       -0.286985 -0.13965423 -0.13424562 0.06362078
0000f0 08 c8 f7 bd 72 8a 9d be 35 c4 26 be c8 a1 14 be
       -0.120987 -0.30769688 -0.16285785 -0.1451484
000100 33 69 a4 be 45 73 71 bc 72 58 85 3e 40 a5 1f 3e
       -0.3211151 -0.014736955 0.2604404 0.15590382
000110 d2 3a af 3d 2d ba d0 3d f1 3d 83 3e 75 81 90 bc
       0.08556141 0.1019176 0.25633195 -0.017639855
000120 cd 0a 2e be cd 8b 5f be 0e f3 64 be be 67 4e be
       -0.16996308 -0.21830674 -0.22358343 -0.20156762
000130 f9 d7 9b be 79 6d 74 bd e5 6b 85 3e 02 b0 c7 bd
       -0.30438212 -0.059674714 0.2605888 -0.09750368
000140 94 0c 86 be 3b 79 fa bd d9 c5 28 be cb 5c 0e be
       -0.2618147 -0.12230154 -0.16481723 -0.13902585
000150 53 00 16 bd ef 3d 5c 3e 71 dc 4c 3d 23 d3 70 bc
       -0.036621403 0.21508001 0.050014917 -0.014698776
000160 37 98 69 bd d0 eb 70 be c2 86 82 be 4f 5e 39 be
       -0.05702993 -0.23527455 -0.25493437 -0.18102382
000170 f0 73 90 be 32 2c be be 3d c0 70 be fb 78 64 3d
       -0.28213453 -0.37143093 -0.23510833 0.05577944
000180 ed dd 4e 3d 93 75 8b bc fa 3e 5a be 77 4f a2 bd
       0.050504614 -0.017023837 -0.21313086 -0.07925313
000190 76 96 0e bb 9e d5 6b bd 2c 9e fc 3e 1c 00 75 3e
       -0.0021757162 -0.057576768 0.49339426 0.23925823
0001a0 80 15 a4 3d 28 1d 0b ba ae 12 d4 3e 63 55 af bd
       0.08011913 -0.0005306774 0.414205 -0.08561208
0001b0 73 6c ff bd 41 49 7b 3d 11 bb 0b 3e a2 34 fa 3c
       -0.12471857 0.061349157 0.13645579 0.030542675
0001c0 d8 50 18 3e 0a 07 71 be 92 1f b5 be 68 87 c0 be
       0.1487459 -0.23537841 -0.3537565 -0.37603307
0001d0 2f 61 85 be f5 86 59 be 78 74 97 be f9 15 b7 bb
       -0.26050708 -0.21242888 -0.29581046 -0.005587336
0001e0 54 7e 16 be 61 f7 28 be 95 73 19 be 70 27 7b be
       -0.14696628 -0.16500618 -0.14985497 -0.24526763
0001f0 3a 9b 8e bd f9 66 9a bd 24 8c 82 3d 05 85 fe 3d
       -0.06963201 -0.07539172 0.06374386 0.12427715
000200 86 91 52 bc 6b 87 42 bd d6 58 a4 bc 78 23 6c bd
       -0.012852078 -0.047492426 -0.020061892 -0.057651013
000210 8a 95 9d bd 70 cf f2 bd 0a 20 64 be 9c 8b ef bd
       -0.07694538 -0.11855972 -0.22277847 -0.1169655
000220 b6 41 ae bd 6a 38 99 bb 54 2b 08 bc d7 8b 85 be
       -0.08508627 -0.0046759145 -0.0083111115 -0.26083252
000230 80 e0 5b be 9a 15 87 be 71 3e 12 be 1c 6b 2a 3e
       -0.21472359 -0.26383668 -0.14281632 0.16642421
000240 2b c1 18 be bd 9c 39 be b6 1b 23 be 42 0e 66 be
       -0.14917438 -0.18126197 -0.1592854 -0.22466376
000250 11 f2 aa be 9f 39 04 bd 98 46 76 bd 3e 2c 00 3e
       -0.33387807 -0.032281514 -0.060125917 0.12516877
000260 6c 3f 0f 3e 0b ce a3 3d ac c0 ab 3d f3 c7 52 3d
       0.13989037 0.07998284 0.083863586 0.051460218
000270 fa f2 78 be 34 50 a3 be d0 d0 b2 be c4 99 c6 be
       -0.24311438 -0.31897128 -0.34924936 -0.3878919
000280 63 3f c2 be f7 c7 e2 bc 37 66 d9 3d 4b 9a c3 3d
       -0.37938985 -0.027683241 0.10615199 0.095509134
000290 3d 51 1f bd 15 79 18 be de c3 2e 3e 12 14 ab 3c
       -0.038895834 -0.14889939 0.17066905 0.020883594
0002a0 33 75 47 bd c1 31 90 3e 25 c9 97 3d f2 5a 28 bb
       -0.048695754 0.2816296 0.07411412 -0.0025688973
0002b0 74 52 ed 3d 5c 77 03 3d 64 33 02 be 2d b1 01 3e
       0.11587992 0.03209625 -0.12714916 0.12665243
0002c0 28 c9 fe 3d e4 34 e9 3c ba c9 8a bd f3 ef 88 be
       0.12440711 0.028467603 -0.067767575 -0.26745567
0002d0 ff b6 a2 be f6 78 a9 be ee d4 a7 be ce 26 a4 be
       -0.3178024 -0.33100098 -0.3277964 -0.32060856
0002e0 ac 39 16 be cd 47 b8 bd 96 4a 76 be e4 81 b2 be
       -0.14670438 -0.0899807 -0.2405189 -0.34864724
0002f0 38 f7 d4 be ff e5 87 be d0 2b c9 be d0 ea f2 3d
       -0.41594863 -0.2654266 -0.3929124 0.11861193
000300 d3 6d a2 be 2d 1f c6 be 66 a0 d2 be 0d 1a 04 bf
       -0.31724414 -0.3869566 -0.41138 -0.5160225
000310 b9 6d 94 be 17 b3 3b bd 3a 3c 4c be 80 e6 b4 bd
       -0.28989962 -0.04582509 -0.1994485 -0.08833027
000320 b6 3b 7c be 8c df 78 bd 98 11 1f be 15 0a 6b bc
       -0.24632153 -0.060760066 -0.15534055 -0.014345665
000330 20 10 e6 be 2c 85 0d bf d2 db c6 be 35 cc df be
       -0.44934177 -0.5528133 -0.38839585 -0.43710485
000340 90 a4 b9 be 68 5a f9 3d d9 b4 fa bd 48 5b 34 be
       -0.36258364 0.12175447 -0.12241525 -0.17612946
000350 05 be ca bd b0 46 3f be 8c a4 ce be 42 89 7c 3d
       -0.098995246 -0.18679309 -0.40359914 0.061654337
000360 29 42 53 be 0f 5a 13 be a1 b6 1e be 36 db 04 be
       -0.20630707 -0.14389823 -0.15499355 -0.12974247
000370 ce 6b 7c be 33 b9 34 3d 71 b2 ae bd ad 3d b3 3d
       -0.24650499 0.044121932 -0.08530129 0.08751998
000380 9b 02 03 3e 26 01 85 3d b1 fa ee bd 96 3a f5 bd
       0.12793963 0.0649436 -0.11668909 -0.11974065
000390 21 e2 79 be bf 3e 1b bf 9d 12 c5 be b6 d0 eb be
       -0.24402668 -0.6064262 -0.38490763 -0.4605767
0003a0 26 01 e1 be a2 e9 15 3c 94 fd 38 bc c6 f0 81 3e
       -0.4394619 0.009149941 -0.0112909265 0.25379008
0003b0 70 9c fa 3d 76 0a 9b 3d ea 76 a3 3e 14 ea 24 3d
       0.12236869 0.07570355 0.31926662 0.040262297
0003c0 7f fe b4 bd a6 bc d9 be a2 c7 ba be bd 81 6f be
       -0.08837604 -0.4252674 -0.36480433 -0.23389335
0003d0 6a f5 d6 be 88 90 11 3e a8 c9 8c 3c 2b da dc 3d
       -0.4198411 0.1421529 0.017186001 0.107838
0003e0 c5 01 6f be c5 7e 86 bd 93 97 3d 3e fc 53 00 3e
       -0.23340519 -0.06567148 0.18514852 0.12532037
0003f0 dc 25 13 be ca 26 c9 be 36 15 e8 be d6 a0 9e be
       -0.14369911 -0.39287406 -0.45328683 -0.30982083

R__2439 f4 [1, 96, 32]
000000 98 57 2c bc b0 f8 2a 3e e1 ec c8 3d 38 ee 1e 3e
       -0.010518931 0.16696429 0.09810806 0.1552056
000010 c3 d3 8b bc d0 24 50 3e 1c 30 ce 3d 9d 42 c7 bd
       -0.01706875 0.20326543 0.1006777 -0.09729502
000020 f4 80 09 3e 4b f7 98 3e fd a4 b3 3e 9a fa 99 3d
       0.13428098 0.2987617 0.35086814 0.075185016
000030 3d 7d 34 be 50 5c 4b 3e 9d ea 8a bd 93 86 1b be
       -0.176259 0.19859433 -0.0678303 -0.15188055
000040 81 d2 0e bd b8 3f b5 3d 45 2b 8f 3e d8 09 18 be
       -0.03486872 0.08850044 0.279627 -0.14847505
000050 6a b7 34 3d 3e 19 f4 bd f9 a6 8a bd 64 4c 10 be
       0.04412023 -0.11918877 -0.06770129 -0.1409164
000060 37 95 8c 3d 96 d7 67 3d e3 94 b0 3e 83 2c a2 3d
       0.06864398 0.056602083 0.34488592 0.07918646
000070 63 30 9f 3d be 9b b2 bd c6 58 da 3d 2b 96 d0 3c
       0.07772901 -0.08721112 0.106614634 0.02546223
000080 b2 6b 60 bc 94 43 09 bd d7 3a c5 3c 10 16 5a 3e
       -0.013697552 -0.033511713 0.024075909 0.21297479
000090 b8 93 08 3e 01 11 2a be a8 5d 0c 3e 2c f3 70 bd
       0.133376 -0.16608049 0.13707602 -0.058825657
0000a0 34 cc 0d 3d df 74 c0 3d ca eb 9f bd 39 ff 22 3d
       0.03461857 0.093972914 -0.07808645 0.03979418
0000b0 d4 83 ba bd 70 7c 2e 3d d3 71 42 3d c2 69 4c 3e
       -0.091071755 0.04259914 0.047471832 0.19962218
0000c0 67 c4 89 bd 80 65 dd bd 73 7a 08 bd 28 02 d5 3d
       -0.06726914 -0.10810375 -0.0333199 0.10400802
0000d0 7d ef a8 bd 5c de 0a 3d ec b1 76 bd 8c e1 27 bd
       -0.08248804 0.033903465 -0.060228273 -0.040986583
0000e0 f8 52 c6 3c 75 d3 96 be de df 12 bc ce 83 03 be
       0.024209484 -0.29458204 -0.008964507 -0.12843248
0000f0 eb c2 93 bd 43 a2 00 3d cf e7 2a 3e 69 0e 76 be
       -0.07214912 0.031404745 0.1668999 -0.24028935
000100 53 95 83 3d 46 bc 24 be 8b d1 fd bd a8 c1 21 3e
       0.06424966 -0.16087446 -0.12393483 0.1579653
000110 46 49 42 3e 4a ef c3 bd 1c 41 10 3c c2 b1 5a 3e
       0.18973264 -0.09567125 0.008804586 0.21356872
000120 c8 5c 52 bd 92 80 00 be 12 3b bc 3d 6a f0 d9 bd
       -0.051358014 -0.12549046 0.09190954 -0.106415585
000130 04 f0 e1 3c ef 3b ab bd 5c d1 e6 3d 29 49 e6 bd
       0.027580269 -0.08361041 0.11270401 -0.11244423
000140 93 ed db 3d 19 35 e1 3d dc d0 10 be f9 3d 32 be
       0.10738673 0.10996456 -0.14142174 -0.17406453
000150 41 22 83 3e ae d0 b6 3d 41 0f be bc f9 ce e3 bd
       0.2561207 0.08926521 -0.023200633 -0.11123461
000160 15 5b aa bd 44 c9 1f 3e 1d ab 72 3e 6c 42 1c 3e
       -0.08318154 0.1560412 0.23698087 0.15259713
000170 57 d8 00 3e ad 0f 35 bd 5c 5a c7 3d 62 8c 20 bd
       0.12582527 -0.044204403 0.097340316 -0.03919638
000180 16 3f 1f 3e a6 25 ff 3b 06 c0 a8 3d 58 10 c8 3d
       0.15551409 0.0077864705 0.082397506 0.09768742
000190 7c 1d 81 be d1 91 85 3d 6a 8e 88 3b 2a 1c 17 be
       -0.25217807 0.06521953 0.0041673677 -0.14756837
0001a0 8c 0c 8a 3d 7b cc 07 be 3f 3b 2c be 3e 93 0d 3d
       0.067406744 -0.13261597 -0.16819476 0.03456425
0001b0 4a 8a be bd 5c f3 39 3e bc a9 25 bd 51 f4 ce 3d
       -0.0930372 0.1815924 -0.040445074 0.101051934
0001c0 ea f4 56 3d 4a 01 b0 3d 6f 17 db bd 8f ba 4f 3d
       0.052479662 0.08593996 -0.10697829 0.050715026
0001d0 2c 30 40 3d 39 30 3c 3e e7 19 23 3e 95 19 f7 bb
       0.04692094 0.1837777 0.1592785 -0.0075408914
0001e0 dc a7 4f bd 61 34 36 3d d2 c6 05 bd ae f9 12 be
       -0.050697193 0.044483546 -0.032660313 -0.14353058
0001f0 b5 d4 03 be bc 20 7d 3c 24 37 09 be 3a cc 17 be
       -0.1287411 0.015449699 -0.1339994 -0.14824
000200 23 1e 11 3e 04 cb c5 be 07 f2 99 be 78 7b 36 3e
       0.14171652 -0.3863145 -0.30067465 0.17820537
000210 94 84 91 bd 90 d0 9b be b0 25 d1 3d b4 b0 2e 3c
       -0.071053654 -0.30432558 0.102122664 0.0106622465
000220 a8 05 7e be b0 8a 7d 3c c6 08 a9 bd 0b 7e 32 be
       -0.24806845 0.01547496 -0.082536265 -0.17430894
000230 22 2a fc bd 81 92 59 be 04 7e 10 be a1 d7 18 3e
       -0.12312724 -0.21247293 -0.14110571 0.14926006
000240 73 53 ff bd db 4f a4 3e 9c 6b 48 be d4 a1 ca 3d
       -0.124670886 0.32092175 -0.195723 0.098941475
000250 42 96 9a 3e b9 f1 d9 bd 9b 2f 10 bd 60 79 59 be
       0.30192763 -0.10641808 -0.03520165 -0.21237707
000260 d9 16 55 be fa 2b 4e 3d 92 17 d0 3d 32 4e 58 be
       -0.20809497 0.050334908 0.10160746 -0.21123579
000270 d9 55 11 be ff 2d 0f bd 2b 81 81 be 6d 5a a3 3d
       -0.14192905 -0.034955975 -0.2529386 0.07976232
000280 3c f4 94 bc 8e d6 0f 3e 3f 75 4a bd 7d b8 16 bd
       -0.018182866 0.1404669 -0.04942822 -0.036797035
000290 fe c2 7f bd 00 1c 86 3d 20 2d 3c 3d 8c 92 89 3b
       -0.06244182 0.06548309 0.045941472 0.004198378
0002a0 ce d1 14 bc 14 a2 8b bd 07 64 2f 3e 4b 62 20 3e
       -0.009083224 -0.06818023 0.17128001 0.15662496
0002b0 43 e6 a6 3d 14 9e 82 bd 4f f5 09 3e 88 7b 53 bd
       0.08149388 -0.06377807 0.13472484 -0.05163148
0002c0 be 47 84 3c 7d b9 11 be d5 a9 0a 3c 0e b8 9d 3c
       0.01614749 -0.14230914 0.008463343 0.019252803
0002d0 23 09 58 3d 96 ec 6e 3c 84 33 ba 3d cc ed 7f 3c
       0.05274309 0.014582774 0.09091857 0.01562066
0002e0 a6 ad c2 3c af a9 1b 3e c4 34 d5 bd c6 09 b8 bd
       0.023764443 0.15201448 -0.10410455 -0.08986239
0002f0 4e 9e bd 3e 6a 54 c2 3d 0c 08 12 3d c5 f7 82 bd
       0.3703484 0.09488757 0.035652205 -0.063949145
000300 34 c8 16 3e 54 6b a3 bc 03 43 c2 3d c0 7a 19 3e
       0.14724809 -0.019948639 0.09485438 0.14988232
000310 67 0a b8 3c 0d 4f 9c be 28 1a 90 bd b4 c4 07 be
       0.022465898 -0.3052906 -0.07036239 -0.1325863
000320 c2 1f d7 bd ec e8 aa bd 7e 6c 6a 3b 36 2f 39 be
       -0.10504104 -0.083452076 0.0035770233 -0.18084416
000330 28 92 cc bc 7d a6 36 3d 5e d8 fb bd 88 01 be 3d
       -0.024972036 0.04459237 -0.12297128 0.09277636
000340 c6 e9 27 be 15 6d c5 3d 9d c1 b2 be 9b e8 3f 3d
       -0.16397771 0.09639946 -0.3491334 0.04685269
000350 2a 1e c5 ba 36 ff ca bd 04 37 2e 3d 98 bc d3 3d
       -0.0015038897 -0.09911959 0.042532936 0.10338706
000360 bf 75 3a be 41 0f 15 3d 00 8d 07 be e8 ee 94 bc
       -0.18208979 0.0363915 -0.13237381 -0.018180326
000370 6d 4b f0 3c 16 25 cc 3c b6 6c 12 be eb 19 2e be
       0.02933284 0.024920028 -0.14299282 -0.17002074
000380 ef ae 47 3e aa 94 4e bd 18 d9 c8 3d 9e 00 fe bc
       0.19500326 -0.050434746 0.09807032 -0.031006154
000390 b9 a0 f4 3d 22 02 c6 bd dc a8 9d bd 6c bb 2b be
       0.11944718 -0.096683756 -0.07698223 -0.16770715
0003a0 58 1e 02 be 04 ef fd bd 7f 16 ee bd 01 68 16 bc
       -0.12706888 -0.12399104 -0.116253845 -0.00918007
0003b0 13 1c ea 3d 63 35 9f bd e9 bd f8 3d b2 9d d4 3d
       0.11431136 -0.077738546 0.121455975 0.103816405
0003c0 c9 18 33 3e 7d 2d 5c 3e 1f af 98 bd cf 4d c3 b9
       0.17489924 0.21501727 -0.07455277 -0.0003725127
0003d0 e0 cb 31 3e 04 71 85 bd 97 55 38 3e f6 ed 18 bd
       0.17362928 -0.06515697 0.180014 -0.037336312
0003e0 c0 dd c8 bd 9f 0b aa bb 0f c1 73 bd 4c 91 95 bd
       -0.098079205 -0.0051893736 -0.059510287 -0.07303104
0003f0 f9 ce a7 bd 45 45 81 bd b0 31 24 be 7b 60 51 bc
       -0.08193774 -0.0631204 -0.1603458 -0.01277935

R__2425 f4 [1, 192, 64]
000000 3e c1 63 3e 00 0a b8 be 4a af ee 3a ba 94 80 be
       0.22241685 -0.3594513 0.0018210199 -0.2511347
000010 fb f4 2e 3e 70 c2 76 be 83 e6 c8 be 4c eb 30 3d
       0.1708564 -0.2409761 -0.39238366 0.043193147
000020 b4 18 e0 3d 84 1e 1e be 13 5b 8c bd 58 1e 7c 3e
       0.10942212 -0.15441328 -0.068533085 0.2462095
000030 b7 e0 16 be f0 85 3a 3e f2 41 8f 3e d5 b3 83 be
       -0.1473416 0.18215156 0.2798 -0.25723138
000040 d7 15 42 3e 6c 7b a1 be 29 94 43 3e a2 39 cb 3c
       0.18953644 -0.31539476 0.19099487 0.024807755
000050 59 cc b4 be ba ef 1a 3e fc 96 f1 3d ac cb fa 3d
       -0.35312155 0.15130511 0.11796376 0.122458786
000060 ed 97 70 be 55 53 a5 bb 7a 79 8c be c5 5a 76 3c
       -0.23495455 -0.0050453343 -0.2743643 0.01503629
000070 26 bf 50 be 03 66 10 3e af 07 78 be d3 45 31 be
       -0.20385417 0.14101414 -0.24221681 -0.17311792
000080 b5 7f 7b be 83 08 e9 3d e3 d9 86 3c 5a 83 65 3e
       -0.24560435 0.113785766 0.016461318 0.22413388
000090 51 85 87 be ae 1f 1f be 01 9a 17 3e 52 7f 19 3e
       -0.264689 -0.15539429 0.14804842 0.14989975
0000a0 8e 23 6c bb ba d8 4f ba 7e c6 5d be 8b af 8f be
       -0.0036031934 -0.0007928718 -0.2165775 -0.28063616
0000b0 d9 3b 39 3d 8c 63 5b be bc 09 58 3d ac df 88 be
       0.04522309 -0.21424693 0.05274366 -0.26733148
0000c0 76 37 82 be 35 21 80 3d 5d 09 5b 3e cc e0 a6 3d
       -0.25432938 0.06256334 0.2139029 0.08148345
0000d0 0c d7 28 be 83 d3 3b 3d 5f 13 f2 bc 54 18 7b 3e
       -0.16488284 0.04585601 -0.029550252 0.24520999
0000e0 98 e9 39 be ab 81 43 3d 2b b7 1f 3e 97 78 9e 3d
       -0.18155515 0.047731083 0.15597217 0.077378444
0000f0 ce 3e d5 3d c6 ed 55 be f9 39 79 be 4f d5 e5 3c
       0.1041237 -0.20891485 -0.24338521 0.028055815
000100 ff fe e0 3d c2 4c b1 bc 85 1a 80 bd d7 14 d8 bd
       0.10986137 -0.021643046 -0.06255058 -0.1055085
000110 34 11 25 bd 97 90 04 be 76 61 5d bd c2 61 04 bd
       -0.04029961 -0.12945782 -0.054048024 -0.03231979
000120 ed 6b 2a 3d cd ff 3c be 0e b7 ad 3d 55 c6 94 3d
       0.041606832 -0.18456955 0.084821805 0.07264391
000130 f0 9e c2 bd 54 fc 53 3e 19 75 a9 3e c0 dc 50 be
       -0.09502971 0.20701724 0.3309715 -0.2039671
000140 30 bc ec 3d 88 15 a8 bc 3a 9b cb 3d 4b 91 06 3d
       0.115593314 -0.02051808 0.099417165 0.032853406
000150 8b 30 23 be 69 e6 2a 3d 74 78 af 3e 9d 46 d8 bc
       -0.15936486 0.041723642 0.34271586 -0.026400859
000160 b9 aa c4 bd cb d2 1f be c3 ed 7c be d5 2d 9b bd
       -0.09602875 -0.15607755 -0.24700074 -0.07577101
000170 ab 24 b2 bd e4 38 c7 3d 6c 02 70 bd 15 e3 13 be
       -0.086984 0.09727648 -0.05859606 -0.14442094
000180 28 1f 25 be 8c a3 57 3e bf c7 3c 3e af 80 5e 3d
       -0.16125166 0.21058482 0.18435572 0.05432194
000190 99 ae 4d be 03 71 5c be b1 c3 73 3e e7 9e 34 3d
       -0.20086135 -0.21527486 0.23805119 0.044096854
0001a0 1e c6 05 bd c7 b5 dd bc 00 d0 2b bd 1c f3 b5 bd
       -0.032659642 -0.027064217 -0.04194641 -0.0888426
0001b0 3a ef e6 bc a4 5c a0 bd 67 39 3f 3e 3a 0f 2d be
       -0.028190244 -0.0783017 0.18674241 -0.1690034
0001c0 79 c0 02 be f6 28 b8 3c f3 bc 8c 3e ea 34 2d 3c
       -0.12768735 0.02248047 0.27487907 0.010571698
0001d0 78 77 be bc 89 28 45 3e f1 15 e9 bd 03 c6 f0 3d
       -0.023250327 0.19253744 -0.11381138 0.11756518
0001e0 00 5a 9c 38 80 62 62 3d e2 c3 77 bd af 9b a1 3d
       7.4554235e-05 0.05526972 -0.060489543 0.078910224
0001f0 60 02 5e 3e de 6f 6e be f8 b6 78 be b4 30 57 bd
       0.21680593 -0.23284861 -0.24288547 -0.05253668
000200 3e a6 0b 3e 8e 97 a9 bd 34 8c 12 be 8e 1f 76 3d
       0.13637635 -0.0828086 -0.14311296 0.060088687
000210 19 21 42 be 7b e2 44 bd 42 51 0e be d5 f9 08 3e
       -0.18957938 -0.04806755 -0.13898185 0.13376553
000220 7c 34 7c be 33 d8 0b be 4e 81 34 be 51 bf 66 bd
       -0.24629396 -0.13656692 -0.17627451 -0.056334797
000230 f4 74 ae bc cf bc 3d 3d 6c 3f f7 3c a2 21 e4 bd
       -0.021296002 0.04632264 0.03018161 -0.111392274
000240 64 d1 c2 3d 10 49 d2 3c 83 de 54 be b4 45 13 3d
       0.09512594 0.025669605 -0.20788006 0.035955146
000250 1f d2 a1 3d a9 cb af 3d b2 23 9b bd eb 8d b7 bd
       0.079014055 0.08583767 -0.07575168 -0.089626156
000260 db c7 22 be 6b dd 95 bd 92 79 33 3d 3d 86 4b 3e
       -0.15896551 -0.07317623 0.04381711 0.19875427
000270 52 7f 05 ba 5f be 95 3e 15 ab 44 be ff 8a 65 be
       -0.00050925196 0.29246804 -0.19205888 -0.22416304
000280 13 3d dd bc cb 28 86 bc cf 91 34 3d 59 a9 30 3e
       -0.027006662 -0.016376873 0.044084366 0.17252101
000290 a8 40 47 bd 42 af 53 3a 85 e4 91 bc 57 e6 26 3d
       -0.048645645 0.00080751267 -0.017809162 0.040747013
0002a0 b8 11 11 be 1f 97 60 be 9b 54 01 bd 1e 2a 97 3e
       -0.14166915 -0.21932648 -0.031574827 0.2952432
0002b0 3f 1e a8 bd bf 82 4e 3d 24 e6 f6 bd 12 79 c9 bd
       -0.08208894 0.050417658 -0.120556146 -0.098375455
0002c0 0e 30 0c be 3f 8f a3 bc 48 75 0a bc 40 ed 07 be
       -0.13690206 -0.019965766 -0.008450814 -0.13274097
0002d0 75 12 85 3e 12 eb 05 3e 59 63 8d bc 4d c4 82 3d
       0.25990644 0.13077953 -0.017259287 0.06385098
0002e0 66 13 23 bd 06 0a 10 3e e7 b6 1c be 25 59 ef bd
       -0.03981342 0.14066324 -0.15304147 -0.11686925
0002f0 67 a8 b2 bc 23 01 e8 bc c4 03 38 3b 3c 4e 64 bd
       -0.021808816 -0.028320855 0.0028078416 -0.055738673
000300 78 ca 1f 3e d3 70 5b be e4 97 55 ba 1c bf 3f be
       0.1560458 -0.21429758 -0.00081479386 -0.18725246
000310 53 43 db bd 51 12 2b be fe 4b 99 bd 93 84 c0 bc
       -0.107062005 -0.16706206 -0.074851975 -0.023500716
000320 31 8b a1 3d 03 9f ba bd 82 1e f2 3c 39 58 2e 3e
       0.07887877 -0.0911236 0.029555563 0.17025842
000330 d2 61 37 bd 79 07 80 3e 63 13 71 3e be f9 a0 bd
       -0.044771023 0.250057 0.23542552 -0.078601345
000340 cb 27 88 bc 1c 29 69 bd 0e 16 0d 3c 3d 1c 02 bb
       -0.016620537 -0.05692397 0.008611215 -0.0019853257
000350 78 c6 62 be 49 61 cb 3d cc a2 fe 3d 8e 25 73 bc
       -0.22146022 0.09930665 0.12433395 -0.014840497
000360 f3 e1 ec bc 13 dc ad 3d 97 bf fb bd f2 66 02 3e
       -0.028916335 0.084892415 -0.12292402 0.12734583
000370 84 1e 05 be e4 4a 01 bd 8d 27 c8 bd 19 41 1b bc
       -0.12999922 -0.031565562 -0.09773169 -0.00947597
000380 2e d3 10 3b a0 92 5f 3e 10 1a 51 3d 22 16 9d bd
       0.002209853 0.21833277 0.051050246 -0.07670237
000390 e4 de 74 be 41 e5 57 3b 75 18 af bd a1 07 36 bb
       -0.23913151 0.0032943042 -0.08549587 -0.0027775543
0003a0 c9 22 14 bd d3 e8 c3 bc f5 6c 23 be 84 e5 fe bd
       -0.036165986 -0.02391473 -0.15959533 -0.124461204
0003b0 bc 8a 62 3d 6c fb d5 bd 2e ad 23 3e ba 01 37 be
       0.05530809 -0.104483455 0.15984032 -0.17871752
0003c0 48 c3 06 be ca 11 f1 bc 13 36 95 3e c9 55 02 3d
       -0.13160431 -0.029427428 0.29142818 0.031820092
0003d0 84 99 53 3e f6 45 57 3e b8 1e ee bc 56 5d 1b 3d
       0.2066403 0.21022782 -0.029067382 0.03793081
0003e0 47 97 d9 bd 61 57 5a 3d 96 3c 79 3d 41 71 e5 3d
       -0.10624557 0.053305987 0.060848795 0.11203242
0003f0 96 4f 44 3d d8 cd 0f be 22 db a4 bc c4 f7 8d 3d
       0.04792746 -0.14043367 -0.020124022 0.06932023

R__2412 f4 [1, 384, 128]
000000 aa 19 88 be 82 35 51 bd 83 5c 4b 3d ce 6d 9f 3d
       -0.2658208 -0.05107642 0.049648773 0.077846155
000010 0c 15 1a 3d c1 ad 17 be 96 9d 73 3e ba f7 be bd
       0.037617728 -0.14812376 0.23790583 -0.09324594
000020 58 a1 35 3c 78 56 3c 3e cd 09 09 3e 6a 17 2c 3e
       0.011085831 0.1839236 0.13382645 0.16805807
000030 20 4e 0c bd b9 1d ae be ba 74 b0 3b 75 45 ee 3d
       -0.034254193 -0.34007052 0.0053850086 0.116343416
000040 6c 91 8e 3c 74 cc 15 be e9 be e0 bd 63 bf 8e be
       0.017403327 -0.14628774 -0.10973913 -0.2788039
000050 ea 62 e3 3d f9 47 a6 be 4b 1d 08 be cb 20 df 3d
       0.11102851 -0.32476786 -0.13292424 0.10894927
000060 84 24 fa 3d ad de c7 3d 71 33 b5 3c b6 21 9d 3e
       0.12213996 0.09759269 0.022119256 0.30689782
000070 5f f8 16 bc d4 02 86 be d8 7d a6 3d 7c 31 09 be
       -0.00921449 -0.26174033 0.081294715 -0.13397783
000080 c7 6d 83 3d 1e a2 85 3e a8 d2 5a bc c5 c3 a8 3d
       0.06417423 0.26100248 -0.013355888 0.08240465
000090 47 a1 56 3d 67 18 66 bc 03 ff 37 bc 6f 2c 6a 3d
       0.0523999 -0.014043904 -0.011230233 0.05717128
0000a0 f4 1d 24 be e3 5c 2f be 60 f2 d7 3d 74 0d 4e 3e
       -0.16027051 -0.17125277 0.10544276 0.2012232
0000b0 af af 16 3e b7 48 ac bd 36 95 2d 3d 21 a0 94 3e
       0.14715455 -0.08412307 0.042378627 0.2902842
0000c0 97 8f 11 bd a0 8f e9 3d 8d 24 19 3e cd d5 d1 ba
       -0.03553733 0.114043474 0.1495535 -0.0016009152
0000d0 a5 78 cd 3c ed 17 65 3e 30 49 0d be 7a 14 ac be
       0.025081942 0.22372408 -0.1379745 -0.33609372
0000e0 f2 94 bb 3d 8b b2 58 3e 45 d3 21 bc 25 30 ad be
       0.091592684 0.21161859 -0.009877031 -0.33825794
0000f0 c1 a8 98 3d 28 e3 9b bd 14 dd 14 3e e1 21 6a be
       0.07454062 -0.07611686 0.1453746 -0.22864486
000100 c6 7a 02 ba 2c 86 ac bc da f4 69 ba 7a 17 03 be
       -0.0004977401 -0.021060072 -0.00089247304 -0.12801924
000110 0b 7e 1c be 5e cd 86 3d 68 a2 c3 be 6c 1b e9 bd
       -0.15282457 0.065821394 -0.38209844 -0.113821834
000120 d5 37 85 bd 03 f5 b5 3d ed f3 6b 3e 10 a5 30 bc
       -0.0650479 0.08884623 0.23042269 -0.0107815415
000130 73 50 59 3e 1f 4f 7c be b0 30 ee 3d ee 54 b9 3d
       0.21222095 -0.24639557 0.1163038 0.09049402
000140 9a 26 15 bd 7c 4c 99 bc b9 e4 22 3e 5d 1a bb bd
       -0.036413766 -0.018713228 0.15907563 -0.09135888
000150 01 91 26 3d b0 8e ef 3c e9 cf 8f be 43 83 61 bd
       0.04066563 0.029242843 -0.2808831 -0.05505682
000160 18 0d 97 3d 9a 2e df 3d 51 95 61 bd 01 44 bb 3d
       0.07375544 0.108975604 -0.05507404 0.0914383
000170 d0 c2 c5 bd 43 23 67 bd c2 d5 af 3c 08 6f bb bd
       -0.09656298 -0.056430113 0.021464232 -0.09152037
000180 35 b5 fa bd 78 5d 82 3d 11 77 49 be 4d 2c 11 bb
       -0.12241594 0.06365484 -0.19674326 -0.002215165
000190 07 47 c0 3d 08 a0 ab 3e 3f 48 48 3e 95 c2 98 3d
       0.093885474 0.33520532 0.1955881 0.074589886
0001a0 78 c1 9b 3d 1c b9 8c 3c 6e 19 cd 3d d1 73 77 bd
       0.076052606 0.01717811 0.10014616 -0.060413186
0001b0 4a 14 5c bd 41 a4 44 bd 1c 7b c6 3e c1 84 12 bd
       -0.053730287 -0.048008207 0.387658 -0.035771135
0001c0 06 b6 08 3d e7 93 83 be db ac c5 bd dc d0 f8 bd
       0.033376716 -0.25698778 -0.0965211 -0.12149212
0001d0 93 71 ea 3c c8 5e 0c bd e0 4f 8b 3c e6 11 3d bd
       0.02861861 -0.034270078 0.01700586 -0.046159647
0001e0 d8 cd 3f 3d fd ae a5 be 50 fd b0 bc fb 71 e6 3d
       0.046827167 -0.32360068 -0.021605164 0.11252209
0001f0 71 7a 82 3c 22 46 0e bc e9 79 29 be 72 ed 08 be
       0.015927525 -0.008683713 -0.16550411 -0.13371828
000200 b4 65 25 3e 0a a6 a5 bd e4 16 c6 3d 2f f7 c3 bd
       0.16152078 -0.0808831 0.09672335 -0.09568631
000210 8e ec a7 3d 2e 12 29 3d c8 4f ce 3c 0a f5 ee bc
       0.08199416 0.041277103 0.025184527 -0.029169578
000220 49 b1 99 bc 35 93 0f bc 5d 94 bb bd 03 af d9 3d
       -0.018761294 -0.008763124 -0.091591574 0.10629084
000230 b9 08 26 be 2e 58 29 3e 10 e9 bd 3d 48 d3 e6 ba
       -0.16214265 0.16537544 0.09272969 -0.0017610574
000240 58 c0 91 bd b9 f0 87 3e 7a a9 d5 bd 20 a6 a2 bc
       -0.07116765 0.26550844 -0.10432716 -0.019854605
000250 50 f8 05 3e bf fe f4 3c d1 b3 c2 bd 7e 1b 1d 3e
       0.13083005 0.029906629 -0.095069535 0.15342519
000260 cd cf a2 bc 4c 4e 82 bd 78 c8 e3 bc ff 04 47 be
       -0.019874478 -0.0636259 -0.027805552 -0.194355
000270 d5 5b 53 3d 9c ef f7 3d 90 05 67 3d 08 09 81 bb
       0.05160125 0.12106249 0.05640179 -0.003937844
000280 8c 18 3b be be 64 79 3e a3 ce 6d bd 3a 3f b9 3d
       -0.18271083 0.24354836 -0.058058392 0.09045263
000290 8d d4 95 3d 49 b6 73 3d 9a bb 9d bd 4f 18 e1 3d
       0.073159315 0.059500013 -0.07701798 0.109909646
0002a0 37 00 bd 3d 90 80 12 3d 4f 9d 6d bc e1 00 2f bc
       0.092285566 0.035767138 -0.014502837 -0.010681362
0002b0 19 8f c7 3b f0 7f 69 3c ab 48 d4 3d a7 dc 80 3d
       0.0060900566 0.014251694 0.10365423 0.06292086
0002c0 13 a5 15 3c 62 d3 79 bd d7 a6 c7 3d eb 98 0e 3e
       0.009133595 -0.060992606 0.09748619 0.13925521
0002d0 2e 61 0d 3e 46 f5 04 be 61 15 a6 bd 0e ea 5e 3e
       0.13806602 -0.1298419 -0.081095465 0.21768972
0002e0 46 01 9f 3d 1f 62 13 bd 1c 70 0d be 3a 30 a2 3d
       0.07763915 -0.035982247 -0.13812298 0.07919355
0002f0 cd 62 03 be e3 a8 04 3d b2 08 09 3e 63 28 a4 bc
       -0.12830658 0.032387625 0.13382223 -0.02003879
000300 02 7b a2 bd bf b9 e1 3d 38 ab 47 be a4 fe b1 3d
       -0.07933618 0.110217564 -0.19498909 0.08691147
000310 88 73 00 3e d8 a8 3b bd f0 9f 52 3e 97 fa 54 3e
       0.12544072 -0.04581532 0.20568824 0.20798717
000320 c4 10 da 3d b9 f3 94 bd fc fa c3 3d ce 81 53 be
       0.10647729 -0.07273049 0.09569356 -0.20654985
000330 df b9 22 3d 3c 10 a7 3d 2e e0 d3 3d 34 12 c0 bd
       0.03972804 0.08157393 0.10345493 -0.09378472
000340 2d 7a 78 be f0 62 4b bb 9d c0 8d bd 09 17 91 bb
       -0.24265356 -0.0031034313 -0.06921504 -0.004427795
000350 b7 ad 2c bb 2b db 1a be f2 37 08 be db 89 b2 bd
       -0.002634866 -0.15122668 -0.13302591 -0.087177
000360 fc 7e 14 bd 73 19 82 bc 40 9a 19 3d 95 f4 57 be
       -0.036253914 -0.015881276 0.03750062 -0.21089394
000370 52 e8 0b be 74 8f 97 3a 96 3d 95 3d 9a 4b 92 3d
       -0.13662842 0.0011563138 0.07287137 0.07143326
000380 3a 77 9c 3d b1 54 58 3e 1a c4 f6 3c e8 a5 61 3e
       0.07639928 0.21126057 0.030122805 0.22035944
000390 41 5d 72 bd 78 07 f8 bd 09 d5 84 bd bb 98 05 3d
       -0.059170965 -0.121107996 -0.06485946 0.03261636
0003a0 56 fd 51 be 62 65 bd 3b b6 14 56 3d 6c 13 99 3d
       -0.20506796 0.005779908 0.052265845 0.074744076
0003b0 03 a3 0b 3e 92 a1 50 3d fd 22 13 be 91 81 9f bd
       0.13636403 0.050935335 -0.14368816 -0.07788385
0003c0 43 b7 41 be b2 f1 85 bd 82 a4 c3 3d 9f 52 68 be
       -0.18917565 -0.0654024 0.09552862 -0.22687767
0003d0 c4 8f 30 3e 7a e5 a2 3d 82 d6 58 bb 6a 8e b7 bc
       0.17242342 0.079539254 -0.003308684 -0.022406776
0003e0 0e f0 ee 3d 26 45 7a 3d 2c 6a fb 39 87 e7 14 be
       0.116668805 0.0611011 0.00047953555 -0.14541446
0003f0 a6 a6 34 be 6b ab 04 bd b1 8f b8 3d 44 f5 86 3d
       -0.17641696 -0.03239004 0.09011782 0.065897495

GRU/quant_dense_35/LastValueQuant/FakeQuantWithMinMaxVars__2400 f4 [32, 1]
000000 30 e4 2d 3e 70 0c 50 3e cc f1 11 be 75 78 21 3d
       0.16981578 0.20317245 -0.14252394 0.039421517
000010 a4 bb 46 bd d3 fe 6b bd de d6 8e bd de d6 8e bd
       -0.04851879 -0.057616066 -0.069745764 -0.069745764
000020 f6 c8 e5 3d 24 6b 82 3e ac dd 80 3e 2d 2e c5 3e
       0.11219971 0.25472367 0.25169122 0.38511792
000030 00 00 00 00 52 ae a7 bd db 20 a6 be c7 85 c0 3e
       0.0 -0.08187546 -0.32446942 0.37602064
000040 67 49 8d be 8d 6a 78 be 1e ff 30 3e 72 c2 b8 be
       -0.27595064 -0.24259396 0.1728482 -0.3608585
000050 b5 a0 c3 3e bb 0c 95 be ac dd 80 be 67 49 8d 3e
       0.38208547 -0.29111275 -0.25169122 0.27595064
000060 b8 56 ac be 5e 27 53 3e d3 fe 6b be bb 0c 15 3c
       -0.3365991 0.20620486 -0.23046426 0.009097273
000070 12 86 05 3e bb 0c 15 bc 84 a7 b5 be 44 7f 93 be
       0.13039425 -0.009097273 -0.35479367 -0.28808033

GRU/quant_dense_34/LastValueQuant/FakeQuantWithMinMaxVars__2399 f4 [32, 32]
000000 2c b6 c9 3d f2 ec 62 be 14 46 05 be 2c b6 49 bd
       0.098492 -0.221607 -0.13015014 -0.049246
000010 bd e2 1a be 7f ef 74 3d f2 ec 62 3e b9 b8 5b be
       -0.15125556 0.059798714 0.221607 -0.21457185
000020 f8 ab 01 3d bb 4d bb bd b7 23 fc bd d4 bd 7f be
       0.031658143 -0.09145685 -0.123114996 -0.24974757
000030 06 79 83 3e 46 bb ed 3d 0e 87 e6 3c 3e ad 8a be
       0.2567827 0.11607985 0.028140571 -0.27085298
000040 b7 23 7c 3e 4a e5 2c 3e 4a e5 ac bc 30 e0 08 be
       0.24622999 0.16884342 -0.021105427 -0.1336677
000050 a1 48 17 3e 67 7f 30 3e 9f b3 37 3e 0e 87 66 3e
       0.147738 0.172361 0.17939614 0.22512457
000060 75 4c b2 3e 4d 7a 8c 3e 06 79 83 be 4a e5 ac bc
       0.34823957 0.27437058 -0.2567827 -0.021105427
000070 9d 1e d8 bd 7f ef f4 bd b9 b8 5b be d8 e7 be 3e
       -0.10552714 -0.11959743 -0.21457185 0.37286258
000080 93 7b 95 be 2a 21 6a be da 7c 9e 3e 12 b1 a5 be
       -0.29195842 -0.22864214 0.3095463 -0.32361656
000090 48 50 4d be 30 e0 88 3e 0e 87 66 bd 4d 7a 0c be
       -0.20050156 0.2673354 -0.056281142 -0.13718529
0000a0 0e 87 e6 bc 85 ae 13 be 4a e5 ac 3d f8 ab 01 3d
       -0.028140571 -0.14422043 0.08442171 0.031658143
0000b0 3e ad 8a 3e f4 81 42 be 48 50 4d be da 7c 1e 3d
       0.27085298 -0.18994886 -0.20050156 0.038693286
0000c0 9d 1e 58 bd 14 46 05 be d6 52 5f 3e 4a e5 2c 3e
       -0.05276357 -0.13015014 0.21808943 0.16884342
0000d0 46 bb ed bd 9b 89 78 be 14 46 85 3e 5b 47 8e be
       -0.11607985 -0.24271242 0.26030028 -0.27788815
0000e0 69 14 10 be 00 00 00 00 2a 21 6a 3e 69 14 90 3d
       -0.14070286 0.0 0.22864214 0.07035143
0000f0 f8 ab 01 bd 85 ae 13 3e 4a e5 2c 3d f8 ab 01 bd
       -0.031658143 0.14422043 0.042210855 -0.031658143
000100 7f ef 74 3d 65 ea d0 3d f8 ab 01 bd 0e 87 66 be
       0.059798714 0.10200957 -0.031658143 -0.22512457
000110 b7 23 fc bd 2c b6 49 be f8 ab 01 bd 65 ea d0 3d
       -0.123114996 -0.196984 -0.031658143 0.10200957
000120 04 e4 a3 3e 69 14 10 bd f6 16 22 3e 10 1c 46 be
       0.320099 -0.035175715 0.15829071 -0.19346642
000130 bb 4d 3b be bd e2 1a 3e 06 79 83 3e 14 46 85 3e
       -0.1829137 0.15125556 0.2567827 0.26030028
000140 85 ae 13 3e f8 ab 81 bd 7f ef 74 be 0e 87 e6 bd
       0.14422043 -0.063316286 -0.23919486 -0.112562284
000150 da 7c 1e bd f4 81 42 3e 2c b6 49 bd 2a 21 6a be
       -0.038693286 0.18994886 -0.049246 -0.22864214
000160 10 1c 46 be bb 4d 3b 3e 65 ea d0 bd 06 79 83 be
       -0.19346642 0.1829137 -0.10200957 -0.2567827
000170 4d 7a 0c be 85 ae 13 be f6 16 22 be 67 7f 30 be
       -0.13718529 -0.14422043 -0.15829071 -0.172361
000180 bd e2 1a be 69 14 10 3d 77 e1 91 be bb 4d 3b 3d
       -0.15125556 0.035175715 -0.2849233 0.045728426
000190 67 7f 30 be 22 13 87 be 83 19 34 3e 9b 89 78 3e
       -0.172361 -0.26381785 0.17587857 0.24271242
0001a0 65 ea 50 3e 81 84 54 be 0e 87 e6 bb 2c b6 c9 3d
       0.20401914 -0.20753671 -0.0070351427 0.098492
0001b0 20 7e a7 3e b7 23 fc 3d 46 bb 6d 3e bb 4d 3b 3e
       0.32713413 0.123114996 0.2321597 0.1829137
0001c0 83 19 b4 bd 63 55 71 be 4a e5 2c 3c b7 23 7c 3e
       -0.087939285 -0.23567729 0.010552714 0.24622999
0001d0 0e 87 e6 bc f2 ec 62 3e 2c b6 c9 3c f6 16 22 be
       -0.028140571 0.221607 0.024623 -0.15829071
0001e0 69 14 10 be 9d 1e 58 3d 83 19 34 3e 7f ef 74 3d
       -0.14070286 0.05276357 0.17587857 0.059798714
0001f0 85 ae 93 3e 83 19 34 be d6 52 df bd 30 e0 08 be
       0.28844085 -0.17587857 -0.109044716 -0.1336677
000200 0e 87 66 3e 5b 47 8e 3e 9d 1e d8 bd f4 81 c2 bd
       0.22512457 0.27788815 -0.10552714 -0.09497443
000210 65 ea d0 bd 0e 87 66 3d 4a e5 ac 3d 12 b1 a5 be
       -0.10200957 0.056281142 0.08442171 -0.32361656
000220 2c b6 c9 3d 46 bb 6d be f4 81 42 be 0e 87 66 bd
       0.098492 -0.2321597 -0.18994886 -0.056281142
000230 0e 87 66 3d 46 bb 6d be 5b 47 8e be 69 14 10 bd
       0.056281142 -0.2321597 -0.27788815 -0.035175715
000240 69 14 90 bd 2c b6 49 be 06 79 83 3e 9d 1e 58 3e
       -0.07035143 -0.196984 0.2567827 0.21105428
000250 83 19 34 be 48 50 4d 3e 63 55 71 be 2c b6 c9 bc
       -0.17587857 0.20050156 -0.23567729 -0.024623
000260 63 55 71 be f8 ab 01 bd 4a e5 2c bc bb 4d bb bd
       -0.23567729 -0.031658143 -0.010552714 -0.09145685
000270 4d 7a 8c be e8 49 a0 be 00 00 00 00 9f b3 b7 3e
       -0.27437058 -0.31306386 0.0 0.35879228
000280 2c b6 c9 3c 2e 4b 29 be 48 50 4d be 20 7e a7 3e
       0.024623 -0.16532585 -0.20050156 0.32713413
000290 b9 b8 5b 3e bb 4d 3b 3e 83 19 34 be d4 bd 7f be
       0.21457185 0.1829137 -0.17587857 -0.24974757
0002a0 7f ef f4 bd 2a 21 6a be 4a e5 2c 3c 12 b1 25 be
       -0.11959743 -0.22864214 0.010552714 -0.16180828
0002b0 30 e0 88 3d a1 48 97 3d a1 48 17 be 3a 83 cb be
       0.06683385 0.073869 -0.147738 -0.39748555
0002c0 a1 48 17 be bb 4d bb bd 69 14 90 3d bb 4d 3b bd
       -0.147738 -0.09145685 0.07035143 -0.045728426
0002d0 30 e0 88 3d 69 14 90 bc 7f ef 74 be 0e 87 e6 bd
       0.06683385 -0.017587857 -0.23919486 -0.112562284
0002e0 d8 e7 3e be da 7c 1e 3d 46 bb 6d 3e 2c b6 c9 bc
       -0.18643129 0.038693286 0.2321597 -0.024623
0002f0 63 55 71 be 7f ef 74 be 9d 1e 58 be 4a e5 2c bd
       -0.23567729 -0.23919486 -0.21105428 -0.042210855
000300 14 46 85 be 83 19 34 3e 67 7f 30 3e 9b 89 78 be
       -0.26030028 0.17587857 0.172361 -0.24271242
000310 22 13 87 be f8 ab 81 bd bb 4d 3b bd 69 14 10 bd
       -0.26381785 -0.063316286 -0.045728426 -0.035175715
000320 7f ef 74 3d e8 49 a0 be 69 14 10 3d b7 23 fc 3d
       0.059798714 -0.31306386 0.035175715 0.123114996
000330 46 bb 6d 3e 83 19 34 be 0e 87 e6 3c d6 52 5f be
       0.2321597 -0.17587857 0.028140571 -0.21808943
000340 f4 81 42 3e bd e2 1a be 2c b6 49 be b7 23 7c be
       0.18994886 -0.15125556 -0.196984 -0.24622999
000350 4a e5 2c 3e 69 14 90 bd 0e 87 66 be 4a e5 ac bc
       0.16884342 -0.07035143 -0.22512457 -0.021105427
000360 da 7c 9e 3d 9d 1e 58 be 2c b6 49 bd d6 52 5f be
       0.07738657 -0.21105428 -0.049246 -0.21808943
000370 d8 e7 3e be 69 14 10 3e f6 16 22 be f8 ab 81 3d
       -0.18643129 0.14070286 -0.15829071 0.063316286
000380 d6 52 df bd 7f ef 74 be 4a e5 ac 3d 46 bb ed bd
       -0.109044716 -0.23919486 0.08442171 -0.11607985
000390 d6 52 5f be 2a 21 6a 3e 9d 1e d8 bd 4a e5 2c 3e
       -0.21808943 0.22864214 -0.10552714 0.16884342
0003a0 4a e5 2c bc 9d 1e 58 bd 7f ef f4 3d 2c b6 49 3d
       -0.010552714 -0.05276357 0.11959743 0.049246
0003b0 0e 87 66 3e 7f ef 74 3e 91 e6 b5 be e8 49 a0 be
       0.22512457 0.23919486 -0.3552747 -0.31306386
0003c0 f4 81 c2 3d a1 48 17 3e 4a e5 2c be b7 23 fc bd
       0.09497443 0.147738 -0.16884342 -0.123114996
0003d0 f4 81 42 be e6 b4 c0 3e d4 bd 7f 3e 04 e4 a3 be
       -0.18994886 0.37638015 0.24974757 -0.320099
0003e0 b7 23 fc bd 65 ea d0 3d 65 ea d0 bd 69 14 90 3c
       -0.123114996 0.10200957 -0.10200957 0.017587857
0003f0 a1 48 17 be 12 b1 a5 3d b7 23 fc bd 69 14 90 bc
       -0.147738 0.08090414 -0.123114996 -0.017587857
