models/station_28/model_latest.onnx (onnx, 407739 bytes, 12 tensors)

W__3411 f4 [1, 96, 64]
0	0xbe689b4e	-0.22715494
1	0xbc4b454a	-0.0124066565
2	0xbdbda311	-0.09259618
3	0xbda5eba1	-0.08101583
4	0xbe08d879	-0.13363828
5	0x3e702d3f	0.2345476
6	0x3cef2091	0.029190334
7	0x3e89c327	0.26906702
8	0x3dfc6eef	0.123258464
9	0xbb8b9c06	-0.004260543
10	0x3cda5949	0.026653903
11	0x3e108082	0.14111522
12	0xbc35ce01	-0.011096478
13	0xbe52ec32	-0.20597914
14	0xbe17ff34	-0.14843446
15	0x3e822cd6	0.25424832
16	0x3e127b73	0.14304905
17	0xbd374872	-0.044746824
18	0x3e284c20	0.1643529
19	0x3ea696db	0.3253697
20	0xbcf18525	-0.029482434
21	0xbd110f29	-0.03541485
22	0xbe9278e9	-0.28607872
23	0xbcfb130a	-0.030648727
24	0xbc4db15a	-0.012554491
25	0x3e5edee7	0.21764718
26	0xbdeb5126	-0.11490087
27	0xbd16b46b	-0.036793154
28	0x3dcbb566	0.099467084
29	0xbdac84b7	-0.08423751
30	0x3e0dfe85	0.13866623
31	0xbda81325	-0.082067765
32	0x3dc6e3e7	0.09711438
33	0x3ca653cf	0.020303635
34	0x3e090f7a	0.1338481
35	0x3e0e071a	0.13869897
36	0xbd082bad	-0.033244777
37	0x3e5abd80	0.21361351
38	0x3d29615e	0.041352622
39	0x3ea1d423	0.3160716
40	0xbdd9eb9b	-0.10640641
41	0x3c35e36f	0.011101588
42	0xbcaf30c8	-0.021385565
43	0xbcd6a813	-0.02620319
44	0xbbe89d2e	-0.0070988154
45	0xbde54edb	-0.11196681
46	0x3c6a140a	0.014287004
47	0x3d8df0d1	0.06930698
48	0x3c4adbda	0.012381518
49	0xbd0dcb39	-0.034617636
50	0xbdea87dd	-0.11451695
51	0x3e8b2a97	0.2718093
52	0xbd11ed62	-0.035626777
53	0x3e0538fc	0.13010019
54	0xbdc2c832	-0.095108405
55	0x3e79832d	0.24366446
56	0xbd7737be	-0.060355894
57	0x3e4ef7a0	0.20211649
58	0x3d567af5	0.052363355
59	0x3def2b2e	0.11678158
60	0x3cb540a1	0.022125544
61	0xbeca5fdd	-0.39526263
62	0xbe205ad9	-0.15659656
63	0x3e1b4625	0.15163477
64	0xbe1627e0	-0.14663649
65	0x3db97684	0.09055808
66	0xbdf8ddc3	-0.12151673
67	0xbccf0635	-0.025271514
68	0xbe65f083	-0.22455029
69	0x3d8a5db3	0.06756153
70	0x3e63aa24	0.22232872
71	0x3e0213a9	0.12702812
72	0x3e818606	0.25297564
73	0xbbfc89b8	-0.007706847
74	0x3ddeb4c1	0.1087432
75	0x3dd92aec	0.1060389
76	0xbdd1f4a8	-0.102517426
77	0x3d50caf4	0.0509748
78	0xbe238e13	-0.15972166
79	0x3ea1f270	0.31630278
80	0x3d53ee35	0.051740844
81	0xbb828ef0	-0.0039843246
82	0x3e4d2b1b	0.20035975
83	0x3de5d226	0.11221723
84	0xbe9086ed	-0.2822794
85	0x3dc4a3b5	0.09601537
86	0xbe1af0a5	-0.15130861
87	0xbea3f586	-0.32023257
88	0x3d8e055c	0.06934616
89	0x3ded24da	0.115792945
90	0x3dbd7364	0.09250525
91	0x3d7e7e5d	0.06213223
92	0xbd2937ff	-0.041313168
93	0xbe14eba1	-0.1454301
94	0x3d2429af	0.040078815
95	0x3cda8ef2	0.02667949
96	0x3ddee0f4	0.1088275
97	0xbdad7b29	-0.084707566
98	0x3e1a4458	0.15065134
99	0x3e71a510	0.23598123
100	0xbd971a38	-0.07378048
101	0x3e6397b0	0.22225833
102	0xbde88f19	-0.11355419
103	0x3b3a2ce1	0.0028408098
104	0xbe3d1558	-0.18465173
105	0xbdebd6c2	-0.11515571
106	0xbdff769b	-0.12473794
107	0x3e5eb219	0.21747626
108	0xbd20997a	-0.039208867
109	0xbe68d56c	-0.22737664
110	0xbe85cdab	-0.26133475
111	0xbe2f1172	-0.17096499
112	0xbe892957	-0.26789352
113	0xbe8d4c34	-0.275972
114	0x3d6864ad	0.056736637
115	0x3e3203c9	0.17384256
116	0xbcc5a39f	-0.024125872
117	0x3e1cc0e6	0.1530796
118	0x3cc89266	0.02448387
119	0xbb9620c4	-0.0045815427
120	0x3e85ed57	0.26157638
121	0x3dea867f	0.11451434
122	0x3d2b1b04	0.04177381
123	0x3e16a776	0.14712319
124	0xbdc45ef2	-0.09588422
125	0xbb866b50	-0.004102148
126	0x3d7e9465	0.06215324
127	0xbe0932b8	-0.13398254
128	0x3d448869	0.047981653
129	0x386300b4	5.4121672e-05
130	0xbe95d6b0	-0.29265356
131	0x3d9b4433	0.07581367
132	0xbe38a3a6	-0.18031177
133	0x3e684a2c	0.22684544
134	0x3e5eebba	0.2176961
135	0xbd01f33c	-0.031726107
136	0x3e72685a	0.2367262
137	0x3d38e42f	0.045139488
138	0x3c06cb0b	0.00822712
139	0x3e5b6762	0.21426156
140	0xbe21141a	-0.15730324
141	0x3c9fdcaa	0.0195144
142	0xbde7f553	-0.11326089
143	0x3d7dbd7c	0.061948285
144	0x3e47bf50	0.19506574
145	0xba0b8bf8	-0.0005323286
146	0x3e6fe4fe	0.23427197
147	0x3e7b9574	0.2456873
148	0xbdedc33d	-0.11609504
149	0xbe25e95a	-0.16202298
150	0x3be44276	0.0069659306
151	0xbbd4625a	-0.006481451
152	0x3da56bdd	0.08077214
153	0xbd917ef7	-0.07104295
154	0xbdb03baf	-0.08605134
155	0x3dd0baec	0.101919025
156	0x3eb6ed8e	0.35728115
157	0xbd1eaa05	-0.038736362
158	0xbb97a557	-0.0046278643
159	0x3e163674	0.1466921
160	0x3e52d535	0.20589145
161	0xbe1cbdfa	-0.15306845
162	0x3df7d69c	0.1210148
163	0xbb207623	-0.0024484477
164	0xbc2df683	-0.010617855
165	0x3e8a3672	0.26994663
166	0x3d6f039e	0.05835306
167	0x3e8df748	0.27727723
168	0x3de0a592	0.1096908
169	0xbdd2f37b	-0.103003465
170	0xbdb136e0	-0.08653045
171	0x3db84f9e	0.08999561
172	0xbe464836	-0.19363484
173	0xbe512080	-0.20422554
174	0xbe900618	-0.2812965
175	0xbe11a515	-0.1422313
176	0xbd2678b0	-0.04064244
177	0xbceb8e23	-0.0287543
178	0xbafb0530	-0.0019151326
179	0x3de6763d	0.11253021
180	0xbe3d0cf8	-0.18461978
181	0x3e44c108	0.1921426
182	0x3e15e0c5	0.14636524
183	0x3c8fae31	0.017539116
184	0x3c639b13	0.013891953
185	0x3ca39019	0.019966172
186	0xbe80f9ce	-0.25190586
187	0xbe91c363	-0.2846938
188	0x3d0fb1b9	0.0350816
189	0xbe75c6e7	-0.24001656
190	0xbd1cb5e4	-0.038259402
191	0x3e4c7d31	0.19969632
192	0xbddd9d92	-0.1082107
193	0xbdf7cb19	-0.12099285
194	0x3e475ee3	0.1946979
195	0xbd7cf403	-0.061756145
196	0xbd6a77c8	-0.05724314
197	0x3e333083	0.17498975
198	0x3e7bde51	0.24596526
199	0xbe0cfcb5	-0.13768275
200	0xbdcb50f3	-0.09927549
201	0xbe39079c	-0.18069309
202	0xbda6a93b	-0.08137747
203	0x3e7014ab	0.23445384
204	0x3e06d109	0.13165678
205	0x3e5de67d	0.21669956
206	0x3daef0fb	0.08542057
207	0x3e6ad8a9	0.22934212
208	0x3c86f9f9	0.016476618
209	0x3d0f7094	0.035019472
210	0x3e2db285	0.16962631
211	0x3eb9c606	0.36283892
212	0xbeac6756	-0.3367259
213	0x3e04c317	0.12965046
214	0xbe237528	-0.1596266
215	0xbe2b5419	-0.167313
216	0x3de7bf85	0.11315826
217	0x3cd15439	0.025552856
218	0xbca860ea	-0.020554025
219	0x3c68d38f	0.014210596
220	0x3c8bd100	0.017067432
221	0x3e6be25f	0.23035572
222	0xbdaf2d72	-0.0855359
223	0xbe4040ac	-0.1877467
224	0xbd9c030b	-0.07617768
225	0x3e700f5c	0.23443359
226	0x3d82fca7	0.06395846
227	0xbce54bd7	-0.027990265
228	0x3adb88f4	0.0016749189
229	0x3e8280d9	0.25488928
230	0x3e406a0f	0.18790458
231	0x3ba499d6	0.0050232215
232	0xbe2056e4	-0.15658146
233	0xbe39976a	-0.18124166
234	0x3d3243f0	0.04352182
235	0x3e5bfc92	0.21483067
236	0x3e457bf5	0.19285567
237	0x3cbab4c5	0.022791276
238	0x3e2104c5	0.15724476
239	0xbe906e24	-0.2820903
240	0x3c9db7bc	0.01925265
241	0xbe367991	-0.17819811
242	0x3e096a4c	0.13419455
243	0xbdc4b0bb	-0.09604021
244	0xbd11046a	-0.0354046
245	0x3da793fd	0.081825234
246	0x3daaa54e	0.083323106
247	0x3bc20991	0.0059215506
248	0xbe0bb55a	-0.13643399
249	0xbe07839b	-0.13233797
250	0x3e4518c3	0.19247727
251	0x3d4ada90	0.049524844
252	0x3dbb44b8	0.091439664
253	0x3e1d9921	0.15390445
254	0x3d609472	0.05482907
255	0xbe12dd51	-0.14342238

W__3397 f4 [1, 192, 128]
0	0x3ddab832	0.10679664
1	0xbcf03bb7	-0.02932535
2	0xbd01adab	-0.031659763
3	0x3e34be0f	0.17650627
4	0x3eafb12c	0.3431486
5	0x3dec9bda	0.11553164
6	0x3d5a8d23	0.053357255
7	0x3db0f44b	0.08640345
8	0xbd45c1bd	-0.048280466
9	0x3e21e6a4	0.15810639
10	0x3e7e5481	0.24836923
11	0xbe3fdabe	-0.18735787
12	0xbdb2730b	-0.08713349
13	0x3d6b9e24	0.05752386
14	0xbe8872ad	-0.2664999
15	0xbe03b58d	-0.12862225
16	0x3dd1a2df	0.10236143
17	0xbe4a71a1	-0.19769908
18	0xbe39ab7d	-0.18131824
19	0xbb08e0a5	-0.0020885852
20	0x3bea435a	0.007149142
21	0xbe048497	-0.12941204
22	0xbca56250	-0.02018848
23	0x3cc456ef	0.023967234
24	0x3ddd0a53	0.10792985
25	0xbb49985a	-0.0030760975
26	0xbdaac0d0	-0.08337557
27	0x3d2249a8	0.039621025
28	0x3e15b213	0.14618711
29	0xbd3c1d62	-0.04592646
30	0x3e5f97a9	0.21835198
31	0x3e721177	0.23639475
32	0x3e554b5b	0.20829527
33	0xbd2f8cd3	-0.04285891
34	0x3d8320ca	0.064027384
35	0x3e50891c	0.20364803
36	0xbd35e31f	-0.044406053
37	0xbda796ce	-0.081830606
38	0xbed455fe	-0.41471857
39	0x3e5e555c	0.2171225
40	0x3d2777bb	0.04088567
41	0xbdf2389d	-0.118272044
42	0xbe9160a3	-0.2839404
43	0x3d4df0a6	0.05027833
44	0xbe892929	-0.26789215
45	0xbe193eba	-0.14965335
46	0xba9305ea	-0.0011216972
47	0xbe20e420	-0.15712023
48	0xbe3cefff	-0.18450926
49	0x3d97a71b	0.0740492
50	0xbe3e7c84	-0.18602186
51	0x3e8ae190	0.27125216
52	0xbdbab45e	-0.091164336
53	0x3ce4a21f	0.027909337
54	0x3ddf8e4c	0.10915813
55	0x3d77c33c	0.060488924
56	0xbda8e921	-0.08247591
57	0xbddd53e1	-0.10807014
58	0x3e0073b3	0.12544136
59	0x3cc13414	0.023584403
60	0x3c8b198e	0.016979959
61	0x3e498457	0.1967939
62	0xbd94b911	-0.07261861
63	0xbe1d0efa	-0.15337744
64	0x3a938dcb	0.0011257468
65	0x3c2fec0c	0.01073743
66	0x3e7392b7	0.23786436
67	0xbe3b0748	-0.18264496
68	0x3db6f2f6	0.0893306
69	0xbe66f876	-0.22555718
70	0xbd2ec9a7	-0.04267278
71	0xbe18da88	-0.14927113
72	0xbc618b85	-0.013766174
73	0x3e3e6a4a	0.18595234
74	0x3d89d87a	0.06730743
75	0xbe4d80be	-0.20068642
76	0x3e501221	0.20319416
77	0x3d090584	0.033452526
78	0xbdc866d5	-0.09785239
79	0xbe97fba7	-0.29684183
80	0x3c7a4d98	0.015277289
81	0xbdc0312e	-0.0938438
82	0xbd5b7810	-0.053581297
83	0xbe034267	-0.12818299
84	0x3ddab6d9	0.10679407
85	0x3daa78ed	0.08323846
86	0xbcbc5437	-0.022989376
87	0xbea3bd5d	-0.3198041
88	0xbd23ba88	-0.039972812
89	0xbe368a33	-0.17826156
90	0xbe1e289e	-0.15445182
91	0x3e23559a	0.15950623
92	0xbd905658	-0.07047719
93	0xbe2d2f44	-0.16912562
94	0xbe66b4b6	-0.22529873
95	0x3cb7a0fc	0.02241563
96	0xbd00316f	-0.031297144
97	0x3e26d305	0.16291435
98	0x3c6c6b2c	0.014429849
99	0xbe2076f0	-0.15670371
100	0x3db1d2be	0.08682774
101	0x3dc6d6f4	0.09708968
102	0x3e8d73a2	0.27627283
103	0x3e0bd8e2	0.13656953
104	0x3e1918b0	0.14950824
105	0x3c4835a3	0.012219819
106	0xbd1a3ad1	-0.037653748
107	0xbcfe4664	-0.031039424
108	0x3d36134c	0.044451997
109	0xbc8748c3	-0.016514188
110	0x3e1321fb	0.14368431
111	0x3e1e759e	0.15474555
112	0x3e10256c	0.14076775
113	0x3c1840fe	0.009292839
114	0x3cf9981f	0.030468045
115	0x3e57a6c2	0.21059707
116	0xbe3af140	-0.18256092
117	0xbd610e5d	-0.05494534
118	0x3e0ed935	0.13950045
119	0xbd89b57f	-0.06724071
120	0xbd97a848	-0.07405144
121	0x3c9c14ca	0.019052882
122	0xbe479682	-0.19491008
123	0xbe90e939	-0.28302935
124	0xbdc36c45	-0.09542135
125	0x3e7780da	0.24170247
126	0x3d820a96	0.06349675
127	0x3d4f6672	0.05063481
128	0x3d3a5b05	0.04549696
129	0xbd5e323c	-0.054247126
130	0xbdd462ea	-0.10370429
131	0xbe4889d9	-0.19583835
132	0xbcb185d5	-0.021670261
133	0xbd5b21c5	-0.053499002
134	0x3de8d97a	0.11369605
135	0xbdee1ec5	-0.116269626
136	0x3d948088	0.07251078
137	0xbdcdcfdd	-0.100494124
138	0x3bfc9262	0.00770788
139	0xbe1d4a34	-0.15360337
140	0xbcde7331	-0.027154537
141	0x3df2d21e	0.11856483
142	0xbdecf0d6	-0.11569373
143	0x3de0f636	0.10984461
144	0xbe2ab291	-0.1666968
145	0xbc9557ae	-0.018230285
146	0x3d1534d7	0.036427345
147	0xbe00e137	-0.12585913
148	0xbda24da2	-0.079249635
149	0xbdcae840	-0.099075794
150	0x3dbf5348	0.093420565
151	0xbdfa82f0	-0.122320056
152	0xbe00931a	-0.12556115
153	0xbd08aba1	-0.033366803
154	0x3ca97314	0.020684756
155	0xbe246d62	-0.16057351
156	0x3bbbebc4	0.0057348926
157	0x3dfba7a9	0.12287838
158	0xbd22c692	-0.039740153
159	0x3e139ce2	0.14415315
160	0xbdfd6543	-0.1237283
161	0x3e117690	0.14205384
162	0x3dd98aff	0.106222145
163	0x3ce6ce3d	0.028174514
164	0xbdfff4ec	-0.12497887
165	0x3dc16936	0.094438955
166	0xbdb3b066	-0.0877388
167	0x3d63f6ce	0.055655293
168	0x3dafa9d7	0.08577316
169	0xbd17ffb1	-0.03710908
170	0x3e052c87	0.13005267
171	0xbe2f4651	-0.17116667
172	0xbdf171d2	-0.117892876
173	0xbdf667c6	-0.12031512
174	0x3e0a4f27	0.13506757
175	0x3d71af5c	0.059005126
176	0xbd9e4110	-0.077272534
177	0xbd9a6f62	-0.07540776
178	0xbe4ee126	-0.20203075
179	0xbd6b0fa1	-0.05738795
180	0xbdd3185a	-0.10307379
181	0xbdd715b2	-0.10502185
182	0xbd344443	-0.044010412
183	0xbd5799e0	-0.05263698
184	0x3e00d97a	0.1258296
185	0xbdf820d9	-0.1211564
186	0x3d87366a	0.066021755
187	0x3db311d7	0.08743637
188	0x3e0ba19c	0.13635868
189	0xbe2f2812	-0.1710513
190	0x3b0215c2	0.0019849394
191	0xbcf35064	-0.02970142
192	0x3d8e9fed	0.06964097
193	0x3d78bb98	0.06072578
194	0x3e019470	0.1265428
195	0xbcbf3428	-0.0233403
196	0xbca5fc7a	-0.020261992
197	0x3ca438ef	0.02004668
198	0xbbfb10f2	-0.007661932
199	0xbe05d55e	-0.13069674
200	0xbcb5b70c	-0.02218201
201	0x3e45e050	0.1932385
202	0x3e720b9b	0.2363724
203	0xbd3e1e11	-0.046415392
204	0x3e19a4b7	0.1500424
205	0xbde97085	-0.113984145
206	0x3e04ba48	0.12961686
207	0xbdd9ce14	-0.106350094
208	0x3e45c3df	0.19313
209	0xbd6a22d3	-0.057162117
210	0xbe6de75a	-0.23232785
211	0xbe5b18ee	-0.21396229
212	0xbdb88824	-0.09010342
213	0x3d711c77	0.058865037
214	0x3d727311	0.059191767
215	0xbdc48c2d	-0.09597049
216	0x3d706065	0.05868568
217	0x3e152d9d	0.14568181
218	0xbd0f04d6	-0.03491672
219	0x3d46987d	0.048485268
220	0xbd1632fd	-0.03666972
221	0xbd9f70cb	-0.077851854
222	0x3d0d2768	0.03446141
223	0xbe29367b	-0.16524689
224	0x3ccad45b	0.024759462
225	0xbba3452c	-0.004982611
226	0xbd6b394d	-0.057427693
227	0xbcfd4760	-0.030917823
228	0xbdb71a77	-0.08940595
229	0x3e2341fb	0.15943138
230	0x3e406c61	0.18791343
231	0xbdbb4db9	-0.09145684
232	0xbc243c22	-0.010024102
233	0x3dd4a652	0.103832856
234	0xbb720494	-0.0036928998
235	0x3dba339d	0.09091876
236	0xbe0f05e9	-0.13967098
237	0xbdc4a3d0	-0.09601557
238	0x3e0ac698	0.1355232
239	0xbd8b94fd	-0.06815527
240	0x3d8da7e5	0.06916789
241	0x3da41800	0.0801239
242	0xb99700ff	-0.00028801707
243	0xbd1c140f	-0.038105067
244	0xbd3a7481	-0.045521263
245	0x3df0d334	0.11759034
246	0xbdb617fc	-0.088912934
247	0x3e4a3e1e	0.19750258
248	0x3e1c9caf	0.15294145
249	0xbe54ae89	-0.20769705
250	0xbdb7721d	-0.08957312
251	0xbc9c2079	-0.019058453
252	0xbc744b37	-0.014910511
253	0xbdc6dd50	-0.09710181
254	0xbd6a41df	-0.057191726
255	0xbdab97d7	-0.083785705

W__3384 f4 [1, 384, 6]
0	0xbe794380	-0.24342155
1	0xbe355fab	-0.17712276
2	0xbe4d0dde	-0.20024821
3	0xbde29914	-0.110643536
4	0xbd2dbdcd	-0.042417336
5	0xbdfce4db	-0.12348338
6	0x3c9f0740	0.019412637
7	0x3e2b81a2	0.1674867
8	0x3b5d4ace	0.003376651
9	0xbd2676da	-0.04064069
10	0x3e4b9b66	0.19883499
11	0x3e220050	0.15820432
12	0x3d5269ae	0.051370315
13	0x3e0b2034	0.13586503
14	0xbdc77b97	-0.0974037
15	0xbcdb12ca	-0.026742358
16	0xbdc889df	-0.09791922
17	0x3d557a42	0.052118547
18	0xbda5082a	-0.08058198
19	0xbe3733c3	-0.1789084
20	0xbd3cce50	-0.046095192
21	0xbe51b9c4	-0.2048102
22	0xbd9fd59f	-0.07804417
23	0xbcdd93c4	-0.027048
24	0x3cc950dd	0.024574691
25	0x3df1f376	0.118140146
26	0x3d8bbd63	0.06823232
27	0xbba1510e	-0.0049229925
28	0xbdca5b9d	-0.09880755
29	0xbd59311b	-0.053025346
30	0xbdc27604	-0.09495166
31	0xbe566d5d	-0.20940156
32	0xbe09e935	-0.13467868
33	0xbdf28957	-0.11842602
34	0xbdedc8be	-0.11610554
35	0xbe089bd4	-0.13340694
36	0xbe4ad235	-0.1980675
37	0xbd1b1783	-0.03786422
38	0xbdc8828d	-0.097905256
39	0xbe0d4261	-0.13794853
40	0xbdcb377e	-0.09922694
41	0xbdb5c179	-0.088747926
42	0xbcf071f9	-0.029351221
43	0xbe2c1efa	-0.16808692
44	0xbdcd5eec	-0.100278705
45	0xbe7f08d1	-0.24905707
46	0xbdcea040	-0.10089159
47	0xbcfec372	-0.031099055
48	0xbeafb4c6	-0.34317607
49	0xbe827ff8	-0.25488257
50	0xbe91ebb3	-0.28500137
51	0xbe5c06b9	-0.2148694
52	0xbddc0d5b	-0.10744735
53	0x3d511793	0.051047873
54	0x3daae91f	0.083452456
55	0xbdb6cdf5	-0.08926002
56	0xbdcf0a8e	-0.10109435
57	0xbe5330e2	-0.20624116
58	0xbd9e2d6d	-0.07723508
59	0xbccb77fe	-0.02483749
60	0xbc26face	-0.010191632
61	0x3d7962f0	0.06088537
62	0x3df7d3ca	0.121009424
63	0x3cec833c	0.028871171
64	0x3d5a6868	0.053322226
65	0xbe20ae75	-0.1569155
66	0xbe6b4d14	-0.22978622
67	0xbe39a8ec	-0.18130845
68	0xbe84e562	-0.25956255
69	0xbec99539	-0.3937166
70	0xbe9c66b3	-0.30547103
71	0xbe42feb3	-0.19042473
72	0xbe2b71b7	-0.16742598
73	0x3d08a1f3	0.03335757
74	0xbdde219a	-0.10846253
75	0xbca9c68c	-0.020724557
76	0xbdddb974	-0.10826388
77	0x3ca8b693	0.02059487
78	0x3db54c37	0.088524275
79	0x3da0450b	0.07825669
80	0xbdc11886	-0.094285056
81	0x3b86496e	0.004098109
82	0xbda8cce8	-0.08242208
83	0x3c03c234	0.008041907
84	0xbe401537	-0.18758093
85	0xbdae9d4e	-0.08526097
86	0xbdcdc77c	-0.10047814
87	0xbddc85f0	-0.10767734
88	0xbd03ddf7	-0.032194104
89	0x3de68b17	0.11256998
90	0xbe8c89ad	-0.27448788
91	0xbd244183	-0.04010154
92	0xbe3d3a01	-0.18479158
93	0xbe4a68dd	-0.19766565
94	0xbdd8d16c	-0.10586819
95	0xbe500ee8	-0.20318186
96	0xbe4777fc	-0.19479364
97	0x3d50712c	0.05088918
98	0xbd8da54a	-0.06916292
99	0xbe1bde32	-0.1522148
100	0xbc5c47db	-0.013444866
101	0x3d69808e	0.057007365
102	0xbe96f5c8	-0.2948439
103	0xbe80238e	-0.25027126
104	0xbe41d339	-0.18928231
105	0xbd053e82	-0.032530315
106	0xbdf7a14a	-0.1209131
107	0xbddcc0fe	-0.10778998
108	0x3dbcdac5	0.092214145
109	0x3daa8d53	0.08327737
110	0x3c9d8878	0.019230112
111	0x3d1f5f3d	0.038909186
112	0xbd7bcbae	-0.06147354
113	0x3e077d68	0.13231432
114	0xbe954e5a	-0.2916134
115	0xbdf9e36d	-0.12201581
116	0xbeb7db77	-0.35909626
117	0xbe982aa4	-0.29720032
118	0xbd8e4e2f	-0.06948506
119	0x3db37136	0.08761828
120	0xbd10107e	-0.03517198
121	0x3e0f2f02	0.13982776
122	0x3d37d244	0.04487826
123	0x3d09103c	0.033462748
124	0x3d8c39da	0.06846972
125	0xbcebf623	-0.02880389
126	0xbe359b2a	-0.17734972
127	0xbe4acf03	-0.19805531
128	0xbcfeb574	-0.031092383
129	0xbd98d066	-0.07461624
130	0x3d939ff4	0.07208243
131	0x3d312d28	0.043255955
132	0xbe46aff7	-0.19403063
133	0x3c348032	0.011016892
134	0xba452692	-0.0007520701
135	0x3c18de9c	0.009330418
136	0xbe149a85	-0.1451207
137	0x3c9eb15a	0.019371677
138	0x3e34ef72	0.17669466
139	0x3cd462ed	0.025926078
140	0x3e72bc0b	0.23704545
141	0x3e305331	0.17219235
142	0x3ddb347c	0.1070337
143	0x3d0f1549	0.03493241
144	0x3e125e48	0.14293778
145	0xbdb25ac8	-0.087087214
146	0x3d33fb36	0.043940745
147	0xbd7c60e1	-0.06161583
148	0xba71644f	-0.00092083676
149	0x3d71b7b8	0.0590131
150	0xbe146a78	-0.1449374
151	0xbd8233fb	-0.06357571
152	0xbe57f2de	-0.2108874
153	0xbe0da08d	-0.13830777
154	0xbe3409a9	-0.1758181
155	0xbe2b6634	-0.16738206
156	0x3dd24f8d	0.10269079
157	0x3e556a79	0.20841397
158	0x3e4e5637	0.20150076
159	0x3e59a38d	0.21253796
160	0x3dc65634	0.09684411
161	0x3cd09131	0.025459858
162	0xbe09e34f	-0.13465618
163	0xbd30626c	-0.043062612
164	0xbe51f1ea	-0.20502439
165	0xbe3ca550	-0.18422437
166	0xbe67598c	-0.22592753
167	0xbd89368c	-0.06699857
168	0xbcf54830	-0.029941648
169	0x3d251087	0.040298965
170	0x3dab4bb6	0.0836405
171	0xbdb50cd4	-0.088403374
172	0x3db43b41	0.08800364
173	0x3d909c6e	0.070610866
174	0x3df458de	0.119310126
175	0x3e6f946d	0.23396464
176	0x3c9906c2	0.01867998
177	0x3ddc6d08	0.107629836
178	0x3e21f34d	0.15815468
179	0x3e291528	0.16511977
180	0xbec8d206	-0.39222735
181	0xbea519eb	-0.32246336
182	0xbedc2bf5	-0.43002287
183	0xbe645af7	-0.22300325
184	0xbeba4b81	-0.3638573
185	0x3cf0c9f1	0.029393168
186	0xbe242a52	-0.16031769
187	0xbd708f09	-0.05873016
188	0xbe65f945	-0.2245837
189	0xbe7ff719	-0.24996604
190	0xbdb63215	-0.08896271
191	0xbdabb039	-0.08383221
192	0x3dcd08e7	0.100114636
193	0x3cf630f6	0.030052643
194	0xbca16c94	-0.019705094
195	0xbd57bdc0	-0.052671194
196	0xbd0511e1	-0.032487754
197	0xbdbfddf4	-0.09368506
198	0x3da96b33	0.082724
199	0xbc333095	-0.010936876
200	0x3bda719c	0.0066663753
201	0x3cce0a38	0.025151357
202	0x3de5807b	0.11206146
203	0x3c9bdab8	0.019025192
204	0xbe323415	-0.1740268
205	0x3c56f2f1	0.013119445
206	0xbe444d76	-0.19170174
207	0xbe080510	-0.13283181
208	0xbd797973	-0.06090684
209	0xbe166930	-0.14688563
210	0x3b20579b	0.002446628
211	0x3e211817	0.15731846
212	0x3de1f46b	0.11032947
213	0xbd281706	-0.04103758
214	0x3d962339	0.07330937
215	0x3d2da17c	0.04239033
216	0x3dfece59	0.124417014
217	0x3ceeb1fa	0.0291376
218	0x3dac5ede	0.08416532
219	0x3e5af86e	0.21383831
220	0xbd222ea2	-0.039595254
221	0x3de27b59	0.11058683
222	0xbcc627ad	-0.02418884
223	0x3e185e04	0.14879614
224	0x3d352efd	0.044234265
225	0x3d6dac16	0.058025442
226	0x3db8d2e0	0.09024596
227	0xbe213283	-0.15741925
228	0x3d24199f	0.040063497
229	0xbc1ff534	-0.009763051
230	0xbcfe201a	-0.031021167
231	0x3df4d3f1	0.11954487
232	0xbde8f8c2	-0.11375572
233	0xbd992812	-0.07478346
234	0x3d69160f	0.056905802
235	0x3d36317b	0.044480782
236	0x3d8d910e	0.069124326
237	0x3d0083ad	0.031375576
238	0xbb507837	-0.0031809935
239	0x3db26de0	0.08712363
240	0xbdb91ff3	-0.09039297
241	0xbdab6004	-0.08367923
242	0x3d086ae2	0.033305056
243	0xbd9cde6f	-0.07659613
244	0xbd0d2f1b	-0.03446875
245	0x3e106e91	0.14104678
246	0x3c303aa8	0.010756172
247	0x3d4d1eff	0.05007839
248	0x3d230433	0.039798927
249	0x3dd9a74c	0.106276125
250	0x3ce0a382	0.027421717
251	0xbd0e79ec	-0.034784243
252	0xbcc43d83	-0.023955112
253	0x3dba7c33	0.0910572
254	0x3dac44e7	0.084115796
255	0x3d9d1e5d	0.07671807

R__3412 f4 [1, 96, 32]
0	0x3e3df50c	0.18550509
1	0xbc9fa324	-0.019486971
2	0xbe898bee	-0.2686457
3	0xbe4c4873	-0.19949512
4	0xbd90c317	-0.070684604
5	0xbdb6d928	-0.08928138
6	0xbe42a0a0	-0.19006586
7	0x3de88acf	0.11354601
8	0xbe035119	-0.12823905
9	0xbdebd550	-0.115152955
10	0x3e34b985	0.17648895
11	0xbd89ec91	-0.067345746
12	0x3e013034	0.12616044
13	0xbd36f078	-0.044662923
14	0xbd9089ad	-0.070575096
15	0x3c3efff5	0.011657705
16	0x3df64e34	0.12026635
17	0x3e1d301b	0.15350382
18	0xbc96fca3	-0.018431013
19	0xbdbef71b	-0.093244754
20	0x3e1e978c	0.15487498
21	0xbd0d8393	-0.034549307
22	0x3e2fbb13	0.17161207
23	0xbdf89dd1	-0.12139476
24	0x3e464630	0.19362712
25	0xbdb170df	-0.086641066
26	0x3d998b62	0.07497288
27	0x3dcf2947	0.10115295
28	0xbc530f38	-0.012882046
29	0x3d3b7668	0.045767218
30	0xbd5a03c4	-0.053226247
31	0x3d312bc4	0.04325463
32	0xbd298fd0	-0.041396916
33	0x3deb35b4	0.114848524
34	0x3d1f7149	0.038926397
35	0xbe315ae4	-0.17319828
36	0x3db5d18e	0.0887786
37	0xbe120db5	-0.14263041
38	0x3bcb8767	0.0062112096
39	0xbdbc7fc2	-0.09204055
40	0xbe375443	-0.17903237
41	0xbe51edc3	-0.20500855
42	0x3db7d30e	0.08975802
43	0x3dbbc55a	0.09168501
44	0x3e9ace19	0.30235365
45	0xbdf505b4	-0.119639784
46	0xbe642aa1	-0.22281887
47	0xbc7d705a	-0.015468681
48	0xbe93e86d	-0.28888264
49	0x3d3f3753	0.04668362
50	0xbe916a40	-0.28401375
51	0xbe69698e	-0.22794172
52	0xbc1d2c21	-0.009593041
53	0xbe082fe0	-0.13299513
54	0x3e91390c	0.28363836
55	0xbd81c371	-0.063361056
56	0xbbb170c7	-0.0054150554
57	0xbcb0f542	-0.021601323
58	0x3df1ad77	0.11800664
59	0x3e281f4b	0.16418187
60	0x3e7bb90b	0.24582307
61	0xbc3b4df2	-0.011432158
62	0xbded15d6	-0.115764305
63	0x3e828f85	0.25500122
64	0xbd2fbe11	-0.04290587
65	0x3df83ec7	0.12121349
66	0xbe1a5f84	-0.15075499
67	0xbe57aa71	-0.21061112
68	0x3e180a8c	0.14847773
69	0xbd8c929b	-0.068639
70	0x3cf7062e	0.030154314
71	0x3e0e27db	0.13882391
72	0xbe1bac75	-0.15202506
73	0xbd0b084d	-0.033943463
74	0x3d9fecdf	0.078088515
75	0x3dfcb938	0.12340015
76	0x3dbcfd55	0.09228007
77	0xbe933809	-0.2875369
78	0xbea4def0	-0.32201338
79	0x3a95472a	0.0011389006
80	0x3d6626f6	0.0561895
81	0x3db1e583	0.08686354
82	0xbd718766	-0.058967017
83	0xbe787757	-0.24264275
84	0x3e461eec	0.19347733
85	0x3e16c1e1	0.14722396
86	0x3dedc986	0.11610703
87	0xbdb36e57	-0.0876128
88	0xbea69526	-0.32535666
89	0x3e306103	0.17224507
90	0x3e927922	0.28608042
91	0x3e02fc17	0.12791477
92	0x3e5a1b4f	0.2129948
93	0x3e3d735f	0.18501042
94	0x3e0445e5	0.12917288
95	0xbe2443cc	-0.16041487
96	0xbcdd0fde	-0.026985105
97	0xbdd338eb	-0.103135906
98	0x3e3cfeb3	0.18456535
99	0x3d6d3440	0.057911158
100	0xbe806bb3	-0.25082168
101	0x3e17807e	0.1479511
102	0xbd13ec57	-0.036114063
103	0x3d96dc99	0.073662944
104	0x3d36eea0	0.044661164
105	0x3def11ac	0.116732925
106	0xbe1772dd	-0.1478991
107	0x3d2c0db4	0.042005256
108	0x3debb14f	0.11508428
109	0x3d3f190d	0.04665475
110	0x3ddb51c1	0.10708953
111	0x3d66cb9e	0.05634653
112	0x3d4968e8	0.049172312
113	0x3dc25f4b	0.09490832
114	0xbd23843f	-0.03992104
115	0x3e8a12b2	0.26967388
116	0xbda1fa29	-0.079090424
117	0xbb0514fb	-0.0020306695
118	0x3e3869ff	0.18009184
119	0xbdd1fafc	-0.102529496
120	0x3e5c99f9	0.21543111
121	0xbdee5947	-0.11638122
122	0x3e06afa0	0.13152933
123	0x3e5c3bb9	0.21507157
124	0x3c909066	0.01764698
125	0xbe163b81	-0.14671136
126	0x3c41a950	0.011820152
127	0xbcfb9cf9	-0.030714499
128	0xbd14f5ab	-0.0363671
129	0x3d267c72	0.040646024
130	0x3bbc512e	0.005746982
131	0xbe58f46b	-0.21186988
132	0xbd9a104d	-0.075226404
133	0xbe5f21db	-0.21790259
134	0xbd619a6f	-0.05507892
135	0xbd305e07	-0.04305842
136	0xbd221cff	-0.039578434
137	0xbe673de0	-0.22582197
138	0x3e8425cd	0.2581009
139	0x3dccc3d0	0.09998286
140	0x3e3c9413	0.18415861
141	0xbd15b63a	-0.036550738
142	0xbe1b1a69	-0.15146793
143	0xbe0a73f1	-0.1352079
144	0xbe821117	-0.25403664
145	0xbdbdb9d1	-0.09263957
146	0x3d635b54	0.05550702
147	0xbebca7de	-0.36846823
148	0xbe25eea1	-0.16204311
149	0x3cb0297c	0.021504156
150	0x3ee4531a	0.4459465
151	0xbdb76466	-0.08954696
152	0x3e255b84	0.16148192
153	0xbda1cafb	-0.079000436
154	0xbc8e0a85	-0.017339
155	0x3d87afe9	0.06625349
156	0x3cc8531a	0.024453688
157	0xbd2f82ef	-0.042849477
158	0xbbda6f4f	-0.006666101
159	0x3dfbd109	0.1229573
160	0xbc753eb0	-0.014968559
161	0x3d337d41	0.043820623
162	0x3c3a7101	0.011379481
163	0xbd38133a	-0.04494021
164	0x3e4ecf30	0.20196223
165	0x3da423f9	0.08014674
166	0xbddcf0e8	-0.10788137
167	0xbd433fa3	-0.04766811
168	0x3b8db2d0	0.0043242946
169	0xbdfe7fc1	-0.12426711
170	0x3d5a8243	0.053346884
171	0x3d8a5ac6	0.06755595
172	0x3dc8a5a5	0.09797219
173	0xbe466342	-0.19373801
174	0xbe4214c8	-0.1895324
175	0xbe126232	-0.14295271
176	0x3e1bba8e	0.15207884
177	0x3dd6da98	0.10490912
178	0xbe2e58e2	-0.17026094
179	0xbe6db5d5	-0.23213895
180	0x3da8504c	0.082184404
181	0xbd8564cd	-0.06513367
182	0x3b0db8b5	0.0021624987
183	0x3dc3c664	0.095593244
184	0xbc7784a3	-0.015107307
185	0x3dcc89fe	0.099872574
186	0x3c71707f	0.014736294
187	0x3e0da762	0.13833383
188	0x3c9ceae4	0.019154973
189	0x3d464d10	0.048413336
190	0xbd8d761e	-0.06907295
191	0x3d3b50a1	0.04573119
192	0xbd8548f8	-0.06508058
193	0x3dad472e	0.08460842
194	0x3db9f244	0.090794116
195	0x3e717b22	0.23582128
196	0x3e1f3617	0.15547977
197	0xbe2bad0d	-0.16765232
198	0x3ca28d8c	0.019842885
199	0x3d37a691	0.044836584
200	0xbd673867	-0.056450274
201	0x3e72395e	0.23654696
202	0x3c560945	0.0130637335
203	0x3df907cd	0.12159691
204	0x3ceb297b	0.028706303
205	0x3d6b1e31	0.05740184
206	0x3d21ff92	0.03955037
207	0x3e3228e9	0.17398418
208	0xbb997ff3	-0.004684442
209	0x3e2232c1	0.15839674
210	0x3c61e1a2	0.013786705
211	0xbbd318e3	-0.0064421757
212	0xbd643e5e	-0.05572354
213	0x3de54cbe	0.11196278
214	0x3d1bc99b	0.038034063
215	0xbd70467a	-0.05866096
216	0x3dd27e33	0.10277977
217	0xbe69eea1	-0.22844936
218	0xbcc14318	-0.023591563
219	0xbd15673d	-0.03647541
220	0xbda6ae44	-0.08138707
221	0xbd4c677a	-0.04990337
222	0x3db57ab8	0.08861297
223	0xbe5ea246	-0.2174159
224	0xbdd5cf84	-0.10439971
225	0xbc8b995a	-0.017040897
226	0xbed786fb	-0.4209517
227	0xbd8cd9a2	-0.06877448
228	0x3e789d4d	0.24278755
229	0xbe8f9a13	-0.28047237
230	0xbd0c836e	-0.03430503
231	0x3d0ecffe	0.034866326
232	0x3d0744d0	0.03302461
233	0xbe607faf	-0.21923707
234	0x3e9cd12a	0.3062833
235	0xbd4a8625	-0.049444336
236	0x3e477642	0.19478706
237	0xbdcff4eb	-0.10154136
238	0x3d061aca	0.03274039
239	0xbe349087	-0.17633258
240	0xbd625e87	-0.05526593
241	0x3d3c451b	0.04596434
242	0x3d7640ab	0.060120266
243	0xbcdc7800	-0.02691269
244	0x3e5128ee	0.2042577
245	0x3c31eeaa	0.010860125
246	0x3e709293	0.23493414
247	0x3bf677d8	0.0075216107
248	0x3d4b5b2a	0.049647488
249	0x3e609857	0.21933113
250	0x3dd737f9	0.10508723
251	0x3dc07b64	0.09398535
252	0x3da3c065	0.07995681
253	0x3e1e3df9	0.15453328
254	0x3dd75b14	0.10515419
255	0x3dea798f	0.11448967

R__3398 f4 [1, 192, 64]
0	0xbdd713a2	-0.105017915
1	0xbc99e6ef	-0.018786876
2	0x3c562935	0.013071348
3	0xbdf20821	-0.11817957
4	0xbe37cee6	-0.17950019
5	0x3e44bc76	0.19212517
6	0x3dcec79f	0.100966685
7	0xbd198d0f	-0.03748804
8	0xbcb7a428	-0.022417143
9	0xbd9188e4	-0.07106188
10	0xbd0c4599	-0.03424606
11	0x3e0f7bd9	0.14012088
12	0x3e0b7fab	0.1362292
13	0xbd27631f	-0.040866014
14	0xbc9d85d2	-0.01922885
15	0xbd1bb52f	-0.038014587
16	0x3e071348	0.13190949
17	0x3d88cf40	0.06680155
18	0x3e55e203	0.20886998
19	0x3e19e829	0.15029968
20	0xbe63b470	-0.222368
21	0xbde77f4f	-0.11303579
22	0xbe235cde	-0.15953395
23	0x3e0d0876	0.13772759
24	0xbcf4408f	-0.02981594
25	0x3ce9ff3a	0.028564084
26	0x3c0c843f	0.008576452
27	0xbdf336d1	-0.1187569
28	0x3d05492d	0.03254049
29	0xbe039e12	-0.12853268
30	0xbdf11e86	-0.117734
31	0x3de4f454	0.111794144
32	0xbe00a094	-0.12561256
33	0x3cd3fa8b	0.025876304
34	0x3d9a2698	0.075268924
35	0x3ce31d0d	0.027723813
36	0xbe92c18b	-0.28663287
37	0x3e29b5c2	0.16573241
38	0x3cb86dd0	0.0225133
39	0x3dc31ab4	0.095265776
40	0x3c5bad03	0.013407948
41	0x3cc4f568	0.0240428
42	0x3d68d13b	0.056840163
43	0x3d9a1ab9	0.07524628
44	0xbd417d4b	-0.04723863
45	0xbe06269b	-0.13100664
46	0xbea37a47	-0.31929228
47	0xbdd97cfd	-0.10619543
48	0xbcd23588	-0.025660291
49	0xbe154462	-0.14576867
50	0xbd51849f	-0.051151868
51	0x3dd8a010	0.105774045
52	0xbdb3db34	-0.08782044
53	0xbc6c622f	-0.014427706
54	0xbda22d50	-0.07918799
55	0x3cab007a	0.02087425
56	0x3c0caf20	0.008586675
57	0xbd1c7221	-0.03819478
58	0x3dbc88ef	0.092058055
59	0xbc3ddbc1	-0.011588038
60	0x3cc21969	0.023693757
61	0xbd831e49	-0.06402261
62	0x3dbf9755	0.09355036
63	0x3cd70a22	0.026249949
64	0xbd92609a	-0.071473315
65	0x3d62b18e	0.05534511
66	0x3d5f2d38	0.054486483
67	0xbc6994c0	-0.014256656
68	0x3b9b2c47	0.004735503
69	0xbd85e1fc	-0.06537244
70	0x3dd3ff9f	0.1035149
71	0x3d13951b	0.03603087
72	0xbcca8e0e	-0.02472594
73	0x3e213b1c	0.15745205
74	0xb9fcfb96	-0.00048252632
75	0x3cc19ffd	0.023635859
76	0x3dcafc08	0.099113524
77	0xbd854fe0	-0.065093756
78	0x3dd0da8f	0.10197937
79	0xbd8d9f32	-0.0691513
80	0x3dad31af	0.08456742
81	0xbd3abb9e	-0.045589082
82	0xbd30dcc7	-0.0431793
83	0x3b68ff46	0.0035552545
84	0x3c1d35d7	0.009595356
85	0xbb412e56	-0.0029477081
86	0xbc7995bc	-0.015233453
87	0x3d289570	0.04115814
88	0xbdd26b75	-0.10274402
89	0x3d9f1acf	0.07768785
90	0xbc3a1051	-0.011356429
91	0x3cb471eb	0.022026977
92	0x3d0402a0	0.032229066
93	0xbcefb73c	-0.029262178
94	0x3dacb46d	0.08432851
95	0xbdbb07b7	-0.09132331
96	0xbd043059	-0.03227267
97	0xbd6c9b29	-0.05776516
98	0x3d652cb4	0.055950835
99	0x3df92192	0.12164606
100	0x3d1c5ae3	0.038172614
101	0xbd87e2df	-0.06635069
102	0x3b0f8f7b	0.002190559
103	0xbe559447	-0.20857345
104	0x3daadd60	0.08343005
105	0x3d124c40	0.03571725
106	0xbd68c989	-0.056832824
107	0xbda5e0ad	-0.08099494
108	0x3dbbe99d	0.091754176
109	0x3de14c6d	0.11000905
110	0x3d8394ec	0.06424889
111	0xbd7e173d	-0.06203388
112	0xbca312b3	-0.019906377
113	0x3cd06293	0.025437629
114	0xbe1c95a0	-0.15291452
115	0xbe056fae	-0.13030884
116	0x3cf3b11a	0.029747535
117	0x3dce20f6	0.100648805
118	0x3d6bf82d	0.057609726
119	0xbe0747b3	-0.13210945
120	0xbde06a81	-0.10957814
121	0x3e28147a	0.16414061
122	0x3d90da7c	0.070729226
123	0xbd764438	-0.060123652
124	0xbd297b49	-0.04137734
125	0x3d6ce1f5	0.057832677
126	0xbd6fdfa8	-0.058562905
127	0x3d922d9c	0.071376055
128	0xbdd6f405	-0.10495762
129	0x3da047ef	0.0782622
130	0xbe56c79e	-0.20974585
131	0xbd79b3da	-0.060962535
132	0xbe0b9b60	-0.1363349
133	0x3e676177	0.22595774
134	0xbe1e41a7	-0.15454732
135	0xbd906bfb	-0.07051846
136	0x3e2f84ab	0.17140453
137	0x3d66ab8c	0.056315944
138	0x3d475bd1	0.048671547
139	0x3d037638	0.032095164
140	0x3c15e8fe	0.009149788
141	0xbe2b11a9	-0.16705956
142	0xbd7894a3	-0.060688626
143	0xbd7509df	-0.059823867
144	0x3e2cef4b	0.16888158
145	0x3b2015a8	0.002442697
146	0xbd3759f3	-0.044763517
147	0xbe3d9514	-0.185139
148	0x3e0423e9	0.12904324
149	0xbd453f0a	-0.04815582
150	0xbd56b495	-0.05241831
151	0x3d0eb0f1	0.034836713
152	0x3e6f8359	0.23389949
153	0xbc4aa1a1	-0.012367637
154	0xbdd11eb9	-0.10210938
155	0xbd468225	-0.04846396
156	0x3d2b01b1	0.04174966
157	0xbdba4196	-0.09094541
158	0x3e36f7a6	0.17867908
159	0x3e5523d6	0.20814452
160	0x3bde6675	0.006787116
161	0xbd8325bc	-0.06403682
162	0xbded46a6	-0.11585741
163	0x3d023d89	0.031796966
164	0xbe373d93	-0.17894582
165	0x3dc48698	0.09595984
166	0xbd0ab9e4	-0.033868685
167	0x3e5009a4	0.20316178
168	0x3e005a03	0.12534337
169	0x3b040f96	0.0020150892
170	0xbe447ad7	-0.19187485
171	0x3dd1d2d1	0.10245288
172	0xbde9906c	-0.114044994
173	0xbe1178c0	-0.14206219
174	0xbe530c62	-0.20610192
175	0xbd8078f4	-0.0627307
176	0xbe1f22ba	-0.15540591
177	0xbda9776a	-0.082747295
178	0xbafd19a9	-0.0019310015
179	0x3d9d229d	0.076726176
180	0xbd9fedf0	-0.07809055
181	0xbe0236fd	-0.12716289
182	0x3d96a466	0.07355575
183	0x3c94e248	0.018174306
184	0x3dcffc39	0.101555295
185	0x3e488d53	0.19585161
186	0xbe0bd0da	-0.1365389
187	0xb83fd6d8	-4.5738037e-05
188	0x3dd132b7	0.10214751
189	0xbdfb5bb9	-0.12273354
190	0x3ea8e433	0.32986602
191	0x3e438b9f	0.1909623
192	0xbd1ce29d	-0.038302053
193	0x3c175715	0.009237071
194	0xbe18878a	-0.14895454
195	0x3ccc0cc1	0.024908425
196	0xbdb10ede	-0.08645414
197	0xbdbcb14b	-0.092135035
198	0x3d32e918	0.043679327
199	0x3d5eedc3	0.054425966
200	0x3d23ccb7	0.039990153
201	0x3c501d6a	0.012702325
202	0x3cba9793	0.022777354
203	0xbd8b7b53	-0.068106316
204	0xbd7ab821	-0.061210755
205	0x3d9e762e	0.07737385
206	0x3cc26d05	0.023733625
207	0xbe1c2597	-0.15248714
208	0xbdc22bfb	-0.09481045
209	0x3c64a31f	0.013954907
210	0x3d9f4874	0.07777491
211	0xbd82bc41	-0.06383563
212	0x3d044ac8	0.03229788
213	0x3e100623	0.14064841
214	0x3d8e5fe3	0.06951883
215	0x3da45be3	0.080253385
216	0xbe1bc1c5	-0.15210636
217	0x3d97757a	0.07395454
218	0xbdb2a102	-0.08722116
219	0xbb15016a	-0.0022736439
220	0x3e25bda7	0.16185628
221	0xbc196834	-0.009363223
222	0xbd9ba2f1	-0.07599438
223	0xbd73e346	-0.059542917
224	0x3b5c4fe4	0.0033616954
225	0xbdd3a32d	-0.10333858
226	0x3d8b678f	0.068068616
227	0x3d921c8d	0.07134352
228	0x3dcb3a1c	0.09923193
229	0xbd7a464e	-0.061102204
230	0xbdbcef12	-0.092252865
231	0xbd807c41	-0.062736996
232	0xbcaeb2fa	-0.021325577
233	0xbd523a76	-0.051325284
234	0xbe23955f	-0.1597495
235	0xbd919925	-0.07109288
236	0xbe5f6643	-0.21816353
237	0x3d8e9339	0.06961674
238	0xbc074723	-0.008256706
239	0x3d17998c	0.037011668
240	0xbe371d5c	-0.17882293
241	0x3deabad0	0.11461413
242	0x3c73995e	0.014868109
243	0xbca24e3b	-0.019812694
244	0xbdf10898	-0.11769217
245	0xbcb41524	-0.021982737
246	0xbd1d23a3	-0.038364064
247	0xbd6e0611	-0.058111254
248	0xbd0d08fc	-0.034432396
249	0xbdfb061a	-0.12257023
250	0x3e17065b	0.14748518
251	0x3cc8f587	0.024531139
252	0xbc56c473	-0.013108361
253	0xbd6e5e2b	-0.058195274
254	0x3d7845cd	0.060613442
255	0xbd5c5581	-0.05379248

R__3385 f4 [1, 384, 128]
0	0x3c634b88	0.0138729885
1	0xbdbef0fd	-0.093233086
2	0x3e548159	0.20752467
3	0xbde08bec	-0.10964188
4	0x3d86c941	0.06581355
5	0x3e268b9b	0.16264193
6	0x3c3dde50	0.011588648
7	0x3e6d4e2a	0.23174348
8	0xbe3b8288	-0.18311512
9	0x3d47981b	0.048729043
10	0xbd84cc79	-0.064843126
11	0xbdccebe9	-0.10005934
12	0xbe526f7d	-0.20550342
13	0xbe2812b6	-0.16413388
14	0x3d19a598	0.037511438
15	0x3b78af65	0.003794634
16	0xbde87c12	-0.113517895
17	0xbeb2671c	-0.3484429
18	0xbc63a913	-0.013895291
19	0x3dd630e6	0.104585454
20	0x3e5c0950	0.21487927
21	0xbde7b0a0	-0.113129854
22	0xbc4879d5	-0.012236078
23	0xbdee06b0	-0.11622369
24	0x3caa317c	0.02077555
25	0xbd649336	-0.055804454
26	0x3cfc8253	0.030823862
27	0x3e52fc36	0.20604023
28	0xbd5cc4f8	-0.05389878
29	0xbda46710	-0.0802747
30	0x3dd49593	0.103800915
31	0x3e2df352	0.1698735
32	0x3e251788	0.16122258
33	0xbe3644a6	-0.17799625
34	0x3e122253	0.14270906
35	0x3d1dcdb1	0.03852624
36	0xbe0ebe82	-0.1393986
37	0x3ca55fef	0.020187346
38	0xbe3ed736	-0.18636784
39	0x3d0e46e9	0.034735594
40	0x3d464f6c	0.048415586
41	0xbd332f80	-0.04374647
42	0xbdcf7d77	-0.101313524
43	0x3e276df7	0.16350542
44	0xbe26e4ef	-0.16298269
45	0x3e2694d4	0.16267711
46	0x3e1c23c0	0.15248013
47	0xbde4328a	-0.11142452
48	0xbea627a5	-0.3245212
49	0xbc880d13	-0.016607797
50	0xbe4cc4a8	-0.19996893
51	0x3e3984af	0.18117021
52	0xbba3b638	-0.0049960874
53	0x3e05b39f	0.13056801
54	0xbda4a266	-0.080387875
55	0x3e82fce1	0.25583556
56	0x3de90915	0.113786854
57	0xbdb1627a	-0.08661361
58	0x3dc9104f	0.09817564
59	0x3e584df9	0.21123494
60	0x3dc6a24a	0.09698923
61	0x3d5929cc	0.053018376
62	0xbdda02c6	-0.1064506
63	0xbd0c850f	-0.034306582
64	0xbd95b7ee	-0.073104724
65	0x3e39a0a0	0.1812768
66	0x3e8ccdbb	0.2750071
67	0xbd90475a	-0.07044859
68	0x3e86c2cf	0.26320502
69	0xbdceeb6f	-0.10103499
70	0xbbc2ff40	-0.0059508383
71	0xbde3fdc6	-0.11132388
72	0x3e303dcd	0.17211075
73	0x3cd56426	0.026048731
74	0x3e2a2e3b	0.16619198
75	0x3e442b77	0.19157206
76	0x3dd123f3	0.10211935
77	0xbd8f305a	-0.06991644
78	0xbd799c8e	-0.060940318
79	0xbde2c332	-0.11072387
80	0x3df4b353	0.11948266
81	0x3db20b0e	0.08693515
82	0xbe857387	-0.26064703
83	0xbe8eb5d6	-0.27873105
84	0xbe9b5370	-0.30337095
85	0xbd39ca9d	-0.045359243
86	0x3e05fe5f	0.13085316
87	0xbe1f96fb	-0.15584938
88	0xbdb48c8c	-0.0881587
89	0xbe41b686	-0.18917283
90	0xbda01de9	-0.07818205
91	0x3e113f5f	0.1418433
92	0xbda71fee	-0.08160387
93	0xbdf58e09	-0.11989982
94	0xbda27a54	-0.079334885
95	0x3e59b43c	0.2126016
96	0xbd0a4aa5	-0.033762593
97	0x3cc00c45	0.02344335
98	0x3d5bad84	0.053632274
99	0xbe0d29c7	-0.13785468
100	0x3e5427f3	0.20718364
101	0x3e87a88e	0.26495785
102	0x3dd91149	0.10599
103	0xbe8ca02d	-0.27465954
104	0xbd98e24f	-0.0746504
105	0xbd0eafa6	-0.03483548
106	0xbe065c53	-0.13121156
107	0xbe7a3710	-0.24435067
108	0x3dc42c72	0.0957879
109	0xbe71343a	-0.23555079
110	0x3df7a60e	0.12092219
111	0x3dda6a36	0.106647894
112	0x3d2dc54c	0.042424485
113	0x3d34331a	0.043994047
114	0x3d84dbe3	0.064872526
115	0x3e20c612	0.15700558
116	0xbe4920d4	-0.19641429
117	0x3e4283c4	0.18995577
118	0x3ddf6d2b	0.10909494
119	0x3e6d3559	0.23164882
120	0x3d5444d0	0.051823437
121	0xbde56b1c	-0.1120207
122	0xbde52842	-0.11189319
123	0xbe09bfa5	-0.13452013
124	0x3b0921e7	0.0020924748
125	0x3c33d543	0.0109761385
126	0x3e67ee93	0.22649603
127	0xbe683b05	-0.22678764
128	0x3d1b46e3	0.0379094
129	0xbaedac4e	-0.0018133016
130	0xbc7759c7	-0.015097088
131	0x3d2d2cc1	0.04227901
132	0x3db961df	0.090518706
133	0xbe1b1361	-0.15144111
134	0x3db8b590	0.09019005
135	0x3d5773e0	0.05260074
136	0xbdb6e8d8	-0.0893113
137	0xbd1a7048	-0.037704736
138	0xbd94a52d	-0.07258067
139	0x3d623f50	0.05523616
140	0xbc7fe8f3	-0.015619504
141	0xbcb5f3ca	-0.022210974
142	0x3de175a5	0.11008767
143	0x3dc54297	0.09631842
144	0xbdf45ccf	-0.11931764
145	0xbd3f452a	-0.04669682
146	0xbc257ac9	-0.010100075
147	0xbd8ed8fd	-0.06974981
148	0x3c1e8ed8	0.009677611
149	0xbd558a82	-0.052134044
150	0x3caefabc	0.021359794
151	0x3d0d8c1e	0.034557454
152	0x3c0a8a1b	0.0084557785
153	0xbe24600c	-0.16052264
154	0x3d88e1b1	0.06683672
155	0xbce88388	-0.028383031
156	0xbbad7655	-0.0052936473
157	0xbba12227	-0.0049174014
158	0x3d71f9a7	0.059075978
159	0xbdaa6bfb	-0.08321377
160	0xbd1057a6	-0.035239838
161	0x3bc62f0f	0.0060480903
162	0x3dae54ea	0.0851229
163	0x3d45fec8	0.04833868
164	0xbd8ad41b	-0.06778737
165	0x3e3cb707	0.18429194
166	0x3c5fd038	0.013660483
167	0xbdd3e1b0	-0.10345781
168	0xbd09c966	-0.033639334
169	0xbe193448	-0.1496135
170	0x3c89aeaf	0.016806928
171	0x3dd6058b	0.10450276
172	0xbd04178a	-0.03224901
173	0xbd527dd4	-0.05138953
174	0xbd128456	-0.035770737
175	0xbc62f0b9	-0.013851338
176	0xbd1e7fdb	-0.03869615
177	0x3e29a31f	0.16566132
178	0xbc68d390	-0.014210597
179	0xbcf13329	-0.02944334
180	0xbdb81ed4	-0.08990255
181	0xbe088897	-0.13333355
182	0x3d0a07d0	0.033698857
183	0x3e0a2467	0.13490449
184	0x3cf5e7ec	0.030017816
185	0x3d338bc5	0.043834466
186	0xbcb388ce	-0.02191582
187	0xbde62e79	-0.11239333
188	0x3d139c53	0.036037754
189	0xbd75e0e2	-0.060028918
190	0xbc8daadf	-0.017293392
191	0x3d060339	0.032717917
192	0xbd876665	-0.06611327
193	0xbd8178e1	-0.06321884
194	0xbb2c7d22	-0.0026319702
195	0xbbe6db0f	-0.007045157
196	0x3d9725bf	0.07380246
197	0xbd8e501c	-0.069488734
198	0x3d74c536	0.059758388
199	0x3c9bec43	0.019033557
200	0xbcc2ed2e	-0.023794737
201	0xbdba934d	-0.09110127
202	0x3dc853bf	0.09781598
203	0xbd507f9c	-0.050902948
204	0xbda05664	-0.07828978
205	0xbbafb986	-0.0053626923
206	0x3d4c224d	0.0498374
207	0x3c8e5262	0.017373268
208	0x3d91d542	0.07120754
209	0xbbcc1e07	-0.0062291655
210	0xbe0fae6e	-0.14031383
211	0x3c8448d0	0.016148001
212	0xbd006ab3	-0.031351756
213	0xbcd9dd0c	-0.026594661
214	0x3da2a85a	0.07942267
215	0x3d5d8ce3	0.05408944
216	0xbc837806	-0.016048443
217	0x3d25e872	0.04050488
218	0xbc08713e	-0.00832778
219	0xbda85a2c	-0.08220324
220	0x3df11f29	0.117735215
221	0x3d2914ef	0.04127973
222	0x3d4c3b86	0.049861453
223	0x3db70364	0.089361936
224	0x3dd5f199	0.10446472
225	0xbc7896a3	-0.015172633
226	0xbc051e1c	-0.008124854
227	0x3dae8a4e	0.08522473
228	0xbdf63204	-0.120212585
229	0x3dd51cb2	0.10405864
230	0xbd1cfd36	-0.03832742
231	0x3dcaf5ad	0.0991014
232	0x3d1186d2	0.035528965
233	0xbd28cd7d	-0.041211594
234	0xbc77a749	-0.0151155675
235	0xbd32aefb	-0.043623906
236	0x3bfb8aa0	0.0076764375
237	0xbb914ffe	-0.0044345846
238	0x3d9136de	0.07090543
239	0x3cc543a7	0.02408011
240	0x3c94ae61	0.018149557
241	0x3e033ebe	0.12816903
242	0x3d842d0d	0.06453905
243	0xbcab8e13	-0.02094177
244	0x3c089729	0.008336821
245	0xbdb73418	-0.08945483
246	0xbd88c76b	-0.06678661
247	0xbc7b07a2	-0.015321644
248	0xbde06201	-0.10956193
249	0x3df76331	0.12079466
250	0xbc7a7802	-0.015287401
251	0xbd74aa41	-0.05973268
252	0x3cf9cb6e	0.03049251
253	0x3c632cae	0.013865633
254	0xbd5522f0	-0.052035272
255	0x3ca85f0e	0.020553138

GRU/quant_dense_49/LastValueQuant/FakeQuantWithMinMaxVars__3373 f4 [32, 1]
0	0x3da6b2f5	0.08139602
1	0xbdd55ff2	-0.10418691
2	0xbed3b532	-0.4134918
3	0xbe8706b7	-0.2637231
4	0x3e30b374	0.17255956
5	0xbd995cf6	-0.07488434
6	0x3ecd0a33	0.40046844
7	0x3ebfb433	0.3744217
8	0xbda6b2f5	-0.08139602
9	0xbb555ff2	-0.0032558409
10	0x3e055bf7	0.13023363
11	0xbe97b236	-0.29628152
12	0x3ea85db5	0.32883993
13	0x3e58b572	0.21162966
14	0xbde960f1	-0.11395443
15	0x3dc809f3	0.09767523
16	0xbe375e74	-0.17907125
17	0xbd62b5f1	-0.055349294
18	0x3e660b71	0.22465302
19	0xbe8c06f7	-0.27349064
20	0x3e62b5f1	0.22139718
21	0xbbd55ff2	-0.0065116817
22	0x3e1cb276	0.15302452
23	0x3ebc5eb4	0.36791003
24	0x3cf00bf0	0.029302567
25	0xbe97b236	-0.29628152
26	0x3e4809f3	0.19535045
27	0x3d700bf0	0.058605134
28	0xbdad5df5	-0.084651865
29	0x3e520a72	0.20511797
30	0xbe26b2f5	-0.16279204
31	0xbe26b2f5	-0.16279204

GRU/quant_dense_48/LastValueQuant/FakeQuantWithMinMaxVars__3372 f4 [32, 32]
0	0xbe16d34d	-0.14729042
1	0x3e63d7b6	0.22250256
2	0x3d0d32c0	0.034472227
3	0xbe89fd3b	-0.26951012
4	0xbd26dee3	-0.040739905
5	0xbe81f771	-0.25384095
6	0x3da6dee3	0.08147981
7	0xbd670d3a	-0.0564091
8	0xbd805cae	-0.06267677
9	0x3e7d83d8	0.24757326
10	0xbccd6117	-0.02507071
11	0x3ce70d3a	0.02820455
12	0x3dad49eb	0.08461364
13	0x3e70adc7	0.23503791
14	0x3e2a1467	0.16609345
15	0x3df3e34b	0.11908587
16	0x3dc6f60e	0.097149
17	0xbe886279	-0.2663763
18	0xbda6dee3	-0.08147981
19	0x3e33b4f4	0.17549497
20	0xbc805cae	-0.015669193
21	0x3e4a2b93	0.19743185
22	0xbde0a231	-0.109684356
23	0xbdcd6117	-0.10028284
24	0xbcb3b4f4	-0.021936871
25	0xbdc6f60e	-0.097149
26	0x3c9a08d1	0.018803032
27	0x3e6d7843	0.23190407
28	0xbe70adc7	-0.23503791
29	0xbe5701a4	-0.2099672
30	0xbe36ea78	-0.1786288
31	0xbe139dc9	-0.14415659
32	0x3e2073da	0.15669194
33	0xbc1a08d1	-0.009401516
34	0x3e73e34b	0.23817174
35	0x3e408b06	0.18803033
36	0xbe36ea78	-0.1786288
37	0xbdd3cc20	-0.10341668
38	0x3ea073da	0.31338388
39	0xbe89fd3b	-0.26951012
40	0xbe0d32c0	-0.13788891
41	0x3e7718d0	0.24130559
42	0xbda6dee3	-0.08147981
43	0x3d1a08d1	0.037606064
44	0xbd005cae	-0.031338386
45	0x3e46f60e	0.194298
46	0x3e6a42be	0.22877023
47	0x3d4d6117	0.05014142
48	0xbd9a08d1	-0.07521213
49	0xbbcd6117	-0.0062676775
50	0xbe3d5581	-0.18489648
51	0xbc4d6117	-0.012535355
52	0xbe70adc7	-0.23503791
53	0xbd1a08d1	-0.037606064
54	0x3e9a08d1	0.3008485
55	0xbd939dc9	-0.072078295
56	0xbd0d32c0	-0.034472227
57	0xbdad49eb	-0.08461364
58	0xbe839233	-0.2569748
59	0x3e63d7b6	0.22250256
60	0x3c4d6117	0.012535355
61	0xbdfa4e54	-0.12221971
62	0x3e039233	0.1284874
63	0x3da073da	0.07834597
64	0x3e8ecd82	0.27891165
65	0x3ea3a95e	0.31965154
66	0xbdfa4e54	-0.12221971
67	0x3e7d83d8	0.24757326
68	0x3e8d32c0	0.27577782
69	0xbdc08b06	-0.094015166
70	0xbdda3728	-0.106550515
71	0xbe6d7843	-0.23190407
72	0xbe23a95e	-0.15982577
73	0xbe307f70	-0.17236114
74	0x3e43c08a	0.19116417
75	0xbdda3728	-0.106550515
76	0x3e3d5581	0.18489648
77	0xbe50969b	-0.20369951
78	0xbd0d32c0	-0.034472227
79	0x3e8d32c0	0.27577782
80	0xbdb3b4f4	-0.087747484
81	0x3e8ecd82	0.27891165
82	0xbe920306	-0.28517932
83	0x3d33b4f4	0.043873742
84	0xbe9ed918	-0.31025004
85	0xbdb3b4f4	-0.087747484
86	0x3e886279	0.2663763
87	0xbd26dee3	-0.040739905
88	0xbd0d32c0	-0.034472227
89	0xbe2d49eb	-0.16922729
90	0xbec225c8	-0.3791945
91	0xbda073da	-0.07834597
92	0x3e986e0f	0.29771468
93	0x3d4d6117	0.05014142
94	0x3e6a42be	0.22877023
95	0xbd408b06	-0.047007583
96	0xbdad49eb	-0.08461364
97	0x3d86c7b7	0.06581061
98	0x3e5701a4	0.2099672
99	0xbe106844	-0.14102274
100	0xbe89fd3b	-0.26951012
101	0x3e70adc7	0.23503791
102	0xbea20e9c	-0.3165177
103	0xbdb3b4f4	-0.087747484
104	0x3e139dc9	0.14415659
105	0x3e53cc20	0.20683336
106	0x3d26dee3	0.040739905
107	0xbcb3b4f4	-0.021936871
108	0x3b4d6117	0.0031338388
109	0xbea073da	-0.31338388
110	0x3e33b4f4	0.17549497
111	0x3e95388b	0.291447
112	0xbd939dc9	-0.072078295
113	0xbe7a4e54	-0.24443942
114	0x3dd3cc20	0.10341668
115	0xbdcd6117	-0.10028284
116	0x3e33b4f4	0.17549497
117	0xbea3a95e	-0.31965154
118	0x3dfa4e54	0.12221971
119	0xbe3a1ffd	-0.18176265
120	0xbe86c7b7	-0.26324245
121	0x3d1a08d1	0.037606064
122	0xbd73e34b	-0.059542935
123	0x3e2a1467	0.16609345
124	0xbe3d5581	-0.18489648
125	0xbe886279	-0.2663763
126	0x3e986e0f	0.29771468
127	0xbcb3b4f4	-0.021936871
128	0x3dc6f60e	0.097149
129	0x3e139dc9	0.14415659
130	0x3e906844	0.28204548
131	0xbe33b4f4	-0.17549497
132	0xbe06c7b7	-0.13162123
133	0x3e307f70	0.17236114
134	0x3e408b06	0.18803033
135	0x3c4d6117	0.012535355
136	0x3d73e34b	0.059542935
137	0x3df3e34b	0.11908587
138	0xbdf3e34b	-0.11908587
139	0x3ead49eb	0.33845457
140	0xbde0a231	-0.109684356
141	0xbe33b4f4	-0.17549497
142	0xbdcd6117	-0.10028284
143	0xbd670d3a	-0.0564091
144	0x3d86c7b7	0.06581061
145	0x3ea3a95e	0.31965154
146	0x3e7d83d8	0.24757326
147	0xbe5a3728	-0.21310103
148	0x3e09fd3b	0.13475506
149	0x3dad49eb	0.08461364
150	0xbe23a95e	-0.15982577
151	0x3e3a1ffd	0.18176265
152	0x3e1d3e56	0.1535581
153	0xbdb3b4f4	-0.087747484
154	0x3d1a08d1	0.037606064
155	0xbe95388b	-0.291447
156	0x3d4d6117	0.05014142
157	0xbe9a08d1	-0.3008485
158	0xbe33b4f4	-0.17549497
159	0x3e408b06	0.18803033
160	0x3e8d32c0	0.27577782
161	0x3dc08b06	0.094015166
162	0xbd0d32c0	-0.034472227
163	0x3eb07f70	0.34472227
164	0xbdb3b4f4	-0.087747484
165	0xbe7d83d8	-0.24757326
166	0x3e09fd3b	0.13475506
167	0xbd9a08d1	-0.07521213
168	0xbe73e34b	-0.23817174
169	0x3e3d5581	0.18489648
170	0xbe5d6cad	-0.21623488
171	0x3ded7843	0.11595204
172	0x3e16d34d	0.14729042
173	0xbe2d49eb	-0.16922729
174	0xbd33b4f4	-0.043873742
175	0x3e307f70	0.17236114
176	0xbda6dee3	-0.08147981
177	0x3e6a42be	0.22877023
178	0x3c805cae	0.015669193
179	0xbe09fd3b	-0.13475506
180	0xbe7a4e54	-0.24443942
181	0x3d26dee3	0.040739905
182	0x3e039233	0.1284874
183	0x3e5701a4	0.2099672
184	0x3da073da	0.07834597
185	0xbe920306	-0.28517932
186	0x3e106844	0.14102274
187	0x3e60a231	0.21936871
188	0x3e906844	0.28204548
189	0xbe26dee3	-0.16295962
190	0x3df3e34b	0.11908587
191	0x3e886279	0.2663763
192	0x3d670d3a	0.0564091
193	0x3dc6f60e	0.097149
194	0xbe16d34d	-0.14729042
195	0xbe670d3a	-0.2256364
196	0xbe23a95e	-0.15982577
197	0x3b4d6117	0.0031338388
198	0xbdc6f60e	-0.097149
199	0x3e039233	0.1284874
200	0xbd5a3728	-0.053275257
201	0xbe09fd3b	-0.13475506
202	0xbda073da	-0.07834597
203	0xbe2a1467	-0.16609345
204	0xbd1a08d1	-0.037606064
205	0x3d805cae	0.06267677
206	0xbd939dc9	-0.072078295
207	0x3e6d7843	0.23190407
208	0x3dd3cc20	0.10341668
209	0x3ded7843	0.11595204
210	0xbd86c7b7	-0.06581061
211	0x3e039233	0.1284874
212	0x3e2d49eb	0.16922729
213	0xbd9a08d1	-0.07521213
214	0xbe06c7b7	-0.13162123
215	0xbe805cae	-0.2507071
216	0x3e73e34b	0.23817174
217	0xbde0a231	-0.109684356
218	0x3d805cae	0.06267677
219	0xbce70d3a	-0.02820455
220	0x3e2d49eb	0.16922729
221	0x3d670d3a	0.0564091
222	0xbc805cae	-0.015669193
223	0x3dba1ffd	0.090881325
224	0x3ea54421	0.3227854
225	0x3d8d32c0	0.068944454
226	0xbe3a1ffd	-0.18176265
227	0x3e4a2b93	0.19743185
228	0x3e852cf5	0.26010862
229	0xbe86c7b7	-0.26324245
230	0xbe4d6117	-0.20056568
231	0x3cb3b4f4	0.021936871
232	0xbe805cae	-0.2507071
233	0xbeaee4ae	-0.34158844
234	0x3e46f60e	0.194298
235	0xbb4d6117	-0.0031338388
236	0xbdda3728	-0.106550515
237	0xbdc08b06	-0.094015166
238	0x3dfa4e54	0.12221971
239	0x3e7718d0	0.24130559
240	0xbd86c7b7	-0.06581061
241	0xbe7718d0	-0.24130559
242	0xbbcd6117	-0.0062676775
243	0x3df3e34b	0.11908587
244	0xbe670d3a	-0.2256364
245	0xbd670d3a	-0.0564091
246	0xbe26dee3	-0.16295962
247	0x3dad49eb	0.08461364
248	0x3e4d6117	0.20056568
249	0x3d408b06	0.047007583
250	0x3de0a231	0.109684356
251	0xbe26dee3	-0.16295962
252	0x3e46f60e	0.194298
253	0x3e9d3e56	0.3071162
254	0xbe53cc20	-0.20683336
255	0x3cb3b4f4	0.021936871

GRU/quant_dense_48/BiasAdd/ReadVariableOp:0 f4 [32]
0	0x3a34e059	0.00068998855
1	0xbcfc4aff	-0.03079748
2	0x3c944738	0.018100366
3	0xbdbd9061	-0.09256054
4	0xbcc32977	-0.023823483
5	0xbcd6559f	-0.026163874
6	0x3d8dd9b5	0.0692629
7	0xbcdbc3de	-0.026826795
8	0xbd3840b5	-0.044983584
9	0xbd91d577	-0.07120793
10	0x3d829af6	0.06377213
11	0x3cd257a9	0.025676565
12	0x3b94fc65	0.0045466893
13	0x3d296c82	0.041363247
14	0xbdc792e8	-0.09744817
15	0x3d530234	0.051515773
16	0xbd6520ab	-0.055939358
17	0xbc649279	-0.013950937
18	0xba86d8f7	-0.0010288049
19	0xbdb76061	-0.0895393
20	0xbd190af1	-0.03736395
21	0xbcf78b52	-0.0302178
22	0xbc403b1e	-0.011732845
23	0xbc0ad334	-0.008473206
24	0x3d56925c	0.052385673
25	0x3c196e08	0.009364612
26	0xbbb3ddf5	-0.005489106
27	0xbc913cc3	-0.017729169
28	0xbdb8ee8e	-0.09029876
29	0x3d1be13a	0.03805659
30	0xbdbc0de5	-0.09182338
31	0xbd8f4980	-0.06996441
