models/station_21/model_latest.onnx (onnx, 407794 bytes, 12 tensors)

W__3550 f4 [1, 96, 64]
00000000: d91e 6b3e 1070 9dba ba18 7b3d 1ba0 f7bd
00000010: f66f ac3d fe66 743a d347 243e 5912 adbc
00000020: f269 ed3d 295a 443d 6253 c739 1fb4 9ebe
00000030: 0a90 f73d 58af 613e bfdd e3bd 2bd6 163e
00000040: 9998 2ebe fa94 a03d 7d07 35bd 4779 203d
00000050: 88e3 043e 81d3 46be d833 ae3c 1800 b43b
00000060: 70e6 43be 1606 1e3e 584a 95bc 2100 2ebd
00000070: f7b9 dabc cbb1 9a3d 936e 513e 9085 a7bd
00000080: 0fc3 2dbe 9414 523e 55cf 313e 8d2d 08be
00000090: 8806 6cbe f9fa a0bc 61cd 1dbd 8b23 9bbe
000000a0: ce66 e43d 7276 32be d190 a9bd 2c88 113e
000000b0: aa7e 8d3e 6f63 a33d 2da4 d1bd fc21 423e
000000c0: 1b59 8fbe 3440 1c3e d3b2 9b3d 122e a9bc
000000d0: 0638 c3bd aafe 243e 15a9 d83d 7d4a 993d
000000e0: a4f6 c0bc a293 993d 06a9 02bd aa2a a2bd
000000f0: 46cf 4dbd 27b9 d23d 0fc8 7fbe 0cfd 663d
00000100: 0ffa b83a d0ca f0bd c8a6 d43d 76cb 25bd
00000110: 2116 9f3b 8096 bfbd 6621 003e 5295 503c
00000120: 3cd9 cfbd 9054 27be 43e8 b4bd 9ca3 81bd
00000130: c051 c93d 8605 6abe 0588 8e3c 66de 243e
00000140: 12a0 40bc ef54 413e aadc ac3d 2196 dbbd
00000150: 7e77 b7bd 73ac 503d 5a90 2dbe 8a15 8d3d
00000160: ea0d 5d3e 6fd2 073e 711d 7f3c 42c7 553e
00000170: 3e01 0f3d f8b3 e6bc a925 03be a2c0 9cbd
00000180: 8432 333e e1d2 843e f049 05be 4fd9 85be
00000190: 7a0c 91bd 5b0e f93b 024a ed3d bd8a e7bd
000001a0: 9738 443e ef66 4e3e 830a 17bd 0348 9cbd
000001b0: 8fe1 b2bd 3e59 563e ec72 0c3e cc60 60be
000001c0: b26c 163e eaf0 3b3e 85f1 3c3d fa99 843c
000001d0: eae6 a83d 205f 6abe 8a13 e83d ad16 743e
000001e0: 51e0 093d 68ae c73d 0876 d13d f24a 06be
000001f0: e7a1 2cbe 6def 2bbe 1d5d e6bd a0c8 2abc
00000200: 03c6 363e 072c 20be f9b7 5a3c 417e 403e
00000210: d547 683e 425e 4b3e 3390 093e a59f b6be
00000220: f5ab 2abe 2f03 3a3e 995f d1bd a2dd f2bd
00000230: fdff 323e 1a5d b1bd 0a57 60be 68ff d73d
00000240: aaf1 86be 8c09 473e 6076 023e 9043 783d
00000250: 5711 b23c 8868 523d 1b8a 82bc f0b6 68be
00000260: 073f 50be d782 30bd 0d0f 8c3d 0e46 433c
00000270: ee86 54be 9546 793e 375e a2bc 9233 02be
00000280: 58cb ea3c 56c7 32bc 1d89 6fbe a6eb 1bbe
00000290: 7b24 a93c f0cb 2d3e 5d60 aa3d 1bdc 82be
000002a0: 50e6 57be 2a71 763e 1a86 893e e880 fdbc
000002b0: 40f3 423e dd1e f4bb be27 393e ad59 7b3d
000002c0: cb2f 2d3d eb61 2c3e 5693 b7bd 2943 a83c
000002d0: 2606 aebd 15ca 643d 510a f63c fd61 b23a
000002e0: ade0 d9bd 5e88 833d 81c0 9c3e d074 17bd
000002f0: 021b 543d 5767 90bb 9015 3fbd 137e 373e
00000300: 61b2 d5bd 06d8 db3d f759 1f3e 39dc e0bd
00000310: 3c1c fd3d 1d2d 07be 4a94 cfbd bc96 33be
00000320: 7951 5e3e d675 0e3c 4bc5 48be 1624 af3e
00000330: 7129 57be 591e 523e adb5 a33e 4323 dd3d
00000340: a88c 273e b3b3 d6bc 73f0 f7bd e3fb c73e
00000350: c176 a2bd cd5e 963e c54a 9c3e 819a 093e
00000360: 317e ca3e 6c70 e03d 0f3e 8abe a615 e63b
00000370: e4ba 873e 5b83 d0be 5eec d43d 5749 2c3e
00000380: 1203 5e3e 50fd b3bd 7f84 8d3e 07bf 2c3b
00000390: ea0a 91bd 1941 2ebe 5434 853e 4ed3 683e
000003a0: be85 92bc 2b4a d83d 3bf9 f2bc 7c7d 51bd
000003b0: f132 70bd f056 8abd 3783 40bb 7e80 af3d
000003c0: 3c98 993d 8f0e 793d 090c 4f3e e0d4 85ba
000003d0: d706 1ebd 7421 943d 6a6c a13d c0af 24bd
000003e0: 3a94 09bc c868 1cbc 7592 d6bc aab3 4dbe
000003f0: ef5a f03d ad10 043c bb43 b5be f5ab 2b3d
0.22960986 -0.0012011547 0.061302878 -0.120910846 0.08419792 0.00093232084 0.16043024 -0.021126913
0.11592473 0.047937546 0.00038018363 -0.30996796 0.1208802 0.22039545 -0.11126279 0.14730136
-0.17050399 0.07840915 -0.044196595 0.03917816 0.12977421 -0.1941662 0.021264955 0.0054931752
-0.19130874 0.15432009 -0.018223926 -0.04248059 -0.026700003 0.075534426 0.20452337 -0.08179772
-0.1696894 0.20515662 0.17364247 -0.13298626 -0.23049366 -0.019650923 -0.038525943 -0.30300555
0.11152421 -0.17427996 -0.08279575 0.14212102 0.276357 0.0797795 -0.10236392 0.18958277
-0.2799767 0.15258867 0.076024674 -0.02065185 -0.0953217 0.16112772 0.10579125 0.07484911
-0.023555107 0.07498862 -0.031899475 -0.07918294 -0.0502465 0.10289221 -0.2497866 0.056393668
0.0014112609 -0.117574334 0.103833735 -0.04047724 0.004854933 -0.093548775 0.1251274 0.012730913
-0.10148856 -0.16340852 -0.08833363 -0.06330034 0.09830046 -0.2285367 0.017398844 0.16100463
-0.011756914 0.18880056 0.08440526 -0.10721994 -0.08958338 0.05094571 -0.16949597 0.06888874
0.21587339 0.13263868 0.015570984 0.20876792 0.034913294 -0.028161988 -0.12807335 -0.07653929
0.17499739 0.25942138 -0.13016486 -0.26142356 -0.07082458 0.0076005883 0.115863815 -0.11305759
0.19162212 0.20156454 -0.03687526 -0.07630923 -0.08734428 0.2093248 0.13715714 -0.21911925
0.14689901 0.1835362 0.04612877 0.016186703 0.08247168 -0.2288785 0.11331852 0.23836775
0.03366119 0.09750062 0.10227591 -0.13114527 -0.16858636 -0.16790552 -0.11248229 -0.010423809
0.17848973 -0.15641795 0.013349527 0.18798162 0.22683652 0.19860175 0.13433914 -0.35668674
-0.16667159 0.18165277 -0.10223312 -0.11858679 0.17480464 -0.08660336 -0.21908203 0.10546762
-0.2635625 0.19437236 0.12740469 0.060611308 0.021736784 0.05136922 -0.015934994 -0.22726035
-0.20336543 -0.04309353 0.06838808 0.011918558 -0.20754597 0.24343331 -0.019820316 -0.12714985
0.028661415 -0.010911783 -0.23392148 -0.15226611 0.020647278 0.16972327 0.08319161 -0.25558552
-0.21083951 0.24066606 0.26860124 -0.030945256 0.19038105 -0.0074499683 0.18081567 0.06136482
0.042281907 0.16834228 -0.08963649 0.020539837 -0.084972665 0.055856783 0.030034216 0.0013609525
-0.10638557 0.06422494 0.3061562 -0.036976635 0.05178357 -0.0044068503 -0.046651423 0.17919187
-0.10434414 0.107345626 0.15561663 -0.10979504 0.12358901 -0.13200803 -0.10135706 -0.1753797
0.21710767 0.008695086 -0.19606511 0.3420722 -0.21011902 0.20519389 0.31974545 0.10797741
0.1636225 -0.026208734 -0.12106409 0.39059362 -0.07932807 0.29369202 0.30525795 0.13437845
0.395494 0.10958943 -0.27000472 0.0070216237 0.26509774 -0.40725216 0.10396646 0.16824852
0.21680859 -0.0878855 0.2764015 0.0026358978 -0.0708216 -0.1701702 0.26016486 0.22736856
-0.017886039 0.105610214 -0.029659858 -0.05114506 -0.05864233 -0.06754863 -0.0029375085 0.0856943
0.074997395 0.0608049 0.20219435 -0.0010210536 -0.03858074 0.07232943 0.078820065 -0.04020667
-0.008397156 -0.009546466 -0.026192883 -0.20088068 0.11736094 0.008060616 -0.35403237 0.041912038

W__3536 f4 [1, 192, 128]
00000000: d747 2dbc 792d 323e 3f69 10be b6f7 3d3d
00000010: 7e0e f4bd ac8e 97be 33a0 b9bd 0652 33bd
00000020: bb58 4c3e ca1d 80bd 6b84 013d 5a28 87be
00000030: c152 c73d dc05 f53d 11e3 f2bc bf9d 52bd
00000040: 04d9 ccbc 4941 453e fb59 e5bd c638 d4bd
00000050: 6c7f 3cbe acb4 5f3d ce8a 233e 0cee 153e
00000060: 7833 97bd 160d e4bd a18c db3d 4008 a43d
00000070: 7a05 63bd b1a3 073e 25e4 2e3d 1c08 843e
00000080: a77e 91bd f185 113e 7989 0b3e 2dea 9fbe
00000090: 71cd 9f3b d9dd 8f3d 355c 04be cbda 493e
000000a0: dabc 393e 3aba 303c d3a8 34be 868f 50be
000000b0: 3433 51be 9a13 7abd a34d 223e 96b1 843c
000000c0: a45b 233d f242 3fbe b928 aabe 567a 16be
000000d0: bedd 7fbd e55d 2fbc ff24 cb3c fc7a ca3d
000000e0: d539 60be fe92 7fbd a1ee f93d 4edb 3cbd
000000f0: f9c8 303e 9a7b 76bd 8733 1dbd cf4b 48be
00000100: d08c 513e df3f 6cbe 519e 27bd e663 92bd
00000110: 379d 39be 0cd4 923d 3a37 603e a906 243d
00000120: 7840 6e3e 5dcc 32bb b1c0 163d d143 bcbc
00000130: 8cd0 55be a38b 02be 53e5 5e3d b291 6bbe
00000140: 9bb0 d03d ec65 bfbd 3e7c 5bbd 6f67 e83c
00000150: fc31 1e3e 2b42 8cbe 3bf4 eb3c 8fa0 723e
00000160: deb8 88bd 8a28 a93c 61c7 643e c5e5 34be
00000170: 2bd2 4cbd ee50 713e 4bed 9e3d 6147 b7b9
00000180: 6c5c cfbd 0e7b 283e 6c19 173e ea43 cc3d
00000190: 8ece 9abd 99ee 6a3d da0e 1fba 93a7 06be
000001a0: 1ae8 17be 38b0 58bc 258c 4fbe f5e0 6d3d
000001b0: 742d 3a3d 2d4d 4f3d bba2 c53d 57b6 d23d
000001c0: f5a8 83bc 7338 ff3b c284 7a3e 3e73 3cbe
000001d0: 30f4 e4bd ce9e 023d a57e 3ebe 5aaf 83be
000001e0: 1aff 483e 20d1 59be 8ade aabb 4e52 7d3e
000001f0: 9e51 38bc 3005 a03d d955 813e c7ba acbc
00000200: 3cf3 213e 37ae ca3d 36a3 97bd 7325 143d
00000210: d52b 063e 4466 253d b1f8 633d d9b9 0fbe
00000220: 9cb0 d7bb 9eaa 9e3d c781 833e 184d 4b3d
00000230: f2b2 4abd 91f6 0dbe 4545 823d 467e 0cbd
00000240: da14 51be b450 afbb 024a 4abd b703 6c3e
00000250: 5c6a 86bc 8670 903e 3e3f 223c 054f 00bd
00000260: 63e5 57be aff9 e83d c542 393e c840 dfbd
00000270: 05b1 bc3d 313b 64be 8797 27be 4d6a 9a3c
00000280: 13db c63d b000 023e f6e8 20be 004a 873e
00000290: d38f 14be a3f4 5bbd 3b25 85bd 127d 983c
000002a0: b825 c6bc 3f0d ca3d cbcc 103d 925f ec3b
000002b0: 6147 c63d 69d7 193e e0cc 13bd c8af a1bd
000002c0: 3642 65bd cd15 873e 8499 61bd 04fc 66bb
000002d0: f108 493d 468f 1ebe 96e9 d2bd 1142 55bd
000002e0: 564f 113e 8352 c4bc 2283 21bd 0cbc 57bc
000002f0: 4379 41be 0fd4 bbbd c80e 3abd f232 b83d
00000300: 94fe 0e3e cd7b 953d e5da 5b3d 3174 eebd
00000310: 615f 9abe a301 9a3d a90a 9abc 0cac 54be
00000320: e003 e23c 89cf 35be 264b 17be 9a85 b9bd
00000330: 2a9c f43d af60 b7be eab3 853e a73e 413d
00000340: 9285 2bbe 3464 4a3e c596 91bc 7a54 afbc
00000350: afb6 e0bd 9132 873c 5ad2 703d 1f4f 35be
00000360: 8f54 a33c 8451 eabd c78f b13c 910a 67bd
00000370: 99c2 563d e8a8 c2bd 3e2e 31bc 8d89 6ebe
00000380: fb26 663c 6024 0ebe ce67 b33a c2a0 0cbe
00000390: df99 36bd ec14 16bd bf43 823d 4d4c a23d
000003a0: 9a8c 0e3d 4477 773c dd6f 87bd 4de3 0cbe
000003b0: ec6b 743d 8bc8 d93a b6d6 2abd 7092 febd
000003c0: 1e39 2b3e 3169 473e f6b7 993b 5dc6 19be
000003d0: 83ab b3bd f304 0e3e 4202 d4bd 2664 9f3d
000003e0: 7b1d a8bc 8c91 023d 76d0 0c3e 142e 253e
000003f0: b84c d9bc d417 763e 3e02 40be 9d3f 77be
-0.01057621 0.17400159 -0.14102648 0.046378814 -0.11916827 -0.29601038 -0.09063759 -0.043779396
0.19955723 -0.06255682 0.031620424 -0.26397973 0.09732581 0.11964008 -0.02964929 -0.05141997
-0.025005825 0.19263186 -0.11198803 -0.10362391 -0.18407983 0.05461566 0.15970919 0.14641589
-0.07382864 -0.111353084 0.10720182 0.08009386 -0.055425145 0.13246037 0.042698044 0.25787437
-0.07104235 0.14211251 0.1362666 -0.3123335 0.0048767854 0.07024736 -0.12925799 0.19712369
0.18138447 0.010786587 -0.17642526 -0.2036725 -0.20429689 -0.06105385 0.15849929 0.01619796
0.039882317 -0.18677881 -0.33234194 -0.14695105 -0.06246733 -0.010703539 0.024797915 0.09886739
-0.21897061 -0.062396042 0.12203718 -0.046107583 0.17264165 -0.06017647 -0.03837922 -0.19560169
0.20463872 -0.2307124 -0.040922467 -0.0714796 -0.18126379 0.07169351 0.21896067 0.040045414
0.2326678 -0.0027282455 0.03680486 -0.022981556 -0.20880336 -0.1274858 0.05441792 -0.23004797
0.10189935 -0.09345612 -0.053585283 0.028369633 0.15448755 -0.27394232 0.028802982 0.2369406
-0.066758856 0.020649213 0.22341682 -0.17665775 -0.05000512 0.23566028 0.07760104 -0.0003495766
-0.1012505 0.16453192 0.14755791 0.09973891 -0.075589284 0.05735645 -0.00060675817 -0.13149862
-0.14834633 -0.013225608 -0.20268305 0.058075864 0.045453504 0.05061071 0.09650179 0.10288685
-0.016071776 0.0077887117 0.24464706 -0.18403336 -0.111793876 0.03188973 -0.18602999 -0.2571972
0.19628564 -0.21271181 -0.005214517 0.24738428 -0.011249928 0.078134894 0.2526081 -0.021085156
0.15815443 0.0989651 -0.07404177 0.036168527 0.13102658 0.04038073 0.055657092 -0.14035739
-0.006582333 0.077473864 0.2568495 0.04963407 -0.04948706 -0.13863589 0.06360868 -0.03430011
-0.2041811 -0.0053501967 -0.049386986 0.23048292 -0.016408138 0.2821085 0.009902773 -0.03132536
-0.21083598 0.11375748 0.18091877 -0.10901028 0.09213451 -0.22288205 -0.16366397 0.018849516
0.09709754 0.12695575 -0.15713868 0.26423645 -0.1450799 -0.0537001 -0.06501242 0.018614326
-0.024187908 0.09865808 0.035351556 0.0072135413 0.09681583 0.15023579 -0.036084056 -0.07894856
-0.055971347 0.2638382 -0.055078045 -0.0035245428 0.049080793 -0.15484342 -0.10298459 -0.05206496
0.1419042 -0.023965126 -0.0394317 -0.013167392 -0.18893914 -0.09171306 -0.045424253 0.08994092
0.13964301 0.07299004 0.05367555 -0.116432555 -0.30150893 0.075198434 -0.018803911 -0.20768756
0.027589738 -0.1775495 -0.1477476 -0.090586856 0.119438484 -0.3581595 0.26113826 0.04717889
-0.16750172 0.19764787 -0.017772088 -0.021402586 -0.10972344 0.016503604 0.058794357 -0.17705964
0.019937782 -0.11441329 0.021675004 -0.05640656 0.052431677 -0.095048726 -0.010814248 -0.23294659
0.01404738 -0.13881063 0.0013687552 -0.13733199 -0.044580337 -0.036641046 0.06360578 0.079247095
0.034802057 0.015104119 -0.06613133 -0.13758583 0.059673235 0.0016615553 -0.04170867 -0.124302745
0.16721007 0.19473721 0.0046911193 -0.15017076 -0.08772948 0.13869075 -0.10351993 0.07782774
-0.02052187 0.031877086 0.13751397 0.16130859 -0.02652584 0.24032527 -0.18750855 -0.2414536

W__3523 f4 [1, 384, 6]
00000000: b5dc b13d 61c4 1b3e 158d 123e 1bda e3bc
00000010: cba7 003d f8d6 bf3d b4aa 9e3c 93f0 9abd
00000020: d7c7 a6bd c901 d1bd 9108 953d 4715 03bd
00000030: 96dc 083e 688a 483e a9ee 273d 721a f23d
00000040: f44d 3a3d 9e5f 433e dfcb c43c 5381 0bbd
00000050: b801 293d 7e30 dd3b 7e06 82be 8ff5 09be
00000060: 1d0a 71bd e461 893d af6b 3f3e 14a9 f43d
00000070: a13c 853d 3ae5 a83d bc92 163d 1e08 8a3d
00000080: 3bdd cfbd f093 58bd 4d80 8c3d 840a 1f3e
00000090: 9c8f d13d ed93 28bc b41a 373e 9270 f23d
000000a0: e653 b73d 7bcd a43d 6243 263e ee60 d53d
000000b0: fa25 07be 33cb 4ebc 2d78 083e c24f 86bd
000000c0: 17da a23c 7ada 8f3d 8e8c 83bc 368b 303e
000000d0: 85ab 863d 93a2 353e c221 ba3c 1671 133d
000000e0: 9618 0e3d cc58 30bd c0ce 1abd ef40 433b
000000f0: 058c e13d acf1 0f3e 6f31 083e 52d9 09bd
00000100: 3542 813d 678e 0b3e 3e13 5f3d 749b a93d
00000110: 4715 36bd f356 f6bd 71d5 e9bd 4f4a 47be
00000120: 3e8e 6c3e ff3d 953c d52a 173e ffb2 dd3c
00000130: d835 03bd 04d2 e73d 8522 0a3d 3c97 0bbe
00000140: 310e 6abd e4f4 d9bc ab23 c23c d075 583d
00000150: 514f bdbb 227b 683c ec63 8ebd 1af8 b43d
00000160: c0dd c83d 234d 923d 1dc2 be3c 1f02 cbbd
00000170: 47dd 723d 33c7 0e3e 47e2 ee3d a918 623d
00000180: 200c 0cbe 18f5 ecbb 235f 883d c319 e3ba
00000190: c422 66bd 629f 05bd 7857 003d 8a81 22be
000001a0: f01b c1bc 365e 05bd 3c67 3cbe cb16 f9bd
000001b0: 83ce b1ba 9b0d b43c ed0c fa3c 46ba babd
000001c0: a0a8 1ebe 4d42 91bc d692 213e f17b b03d
000001d0: c68d 47bd 9308 ea3d 5295 933d 12a5 bb3d
000001e0: e99d 00be f761 5ebd 39a8 fabd 0752 83be
000001f0: f327 a1ba db08 74bc eca3 833d 2b24 26bd
00000200: 84cf 103e cd1b 9e3d 6d2b 15bd 6c0f 6bbe
00000210: b8cc 51bc 4631 31be 00bb 63bc f317 12be
00000220: d8c0 58be dc26 2cbd c22d 7d3e 3ddb fb3c
00000230: e821 203d aa4f 863e 44d5 e03d debb 333c
00000240: 195e 20bb b42c c8bc a22b 373d 9448 2c3d
00000250: 98d2 1f3d 9a4a 4dbd 62d7 0f3e d5e7 013e
00000260: 400c 3b3e 5d01 3a3e b4df 103e 720a 7d3e
00000270: c1ba 173d 2c66 de3b 8b50 003d dc60 2cbd
00000280: 0b16 7b3d fe9d 01bd eeab 333e 67ea febc
00000290: ac6c 183e 3669 0abc 05b3 173e 2344 1b3e
000002a0: 90c9 df3d 71bb b23d 77e4 95bc 0b49 1a3e
000002b0: 253d 853d cf13 f13c d212 0d3e c9d6 a23e
000002c0: c4af a63e 2e65 903e ab62 083e 483d f03c
000002d0: 2972 993d 314f 003d ab06 403d 2d61 723e
000002e0: 5499 aa3c eadd 86bc 706d cc3c 9c25 613e
000002f0: a52e 473e 84b4 923d 32b7 513e 06f6 2c3e
00000300: 377b 1fbe 7ecf 78bd e91b 483d 73b2 3cbd
00000310: 1ca7 26bd d3f8 cfbd a88a 16bd ed54 17bc
00000320: 584a fb3b 4a08 c3bd 2b74 46be 2447 ab3a
00000330: 37bd 7b3e 7c6e f53d f864 c73c c71f a13d
00000340: b71b cdbd f4da 153d 8666 8fbd 0201 8ebb
00000350: 9645 23bd 6591 cfbc fcd6 503e 1919 b23c
00000360: ff5d 3d3c 0f65 16be 37da 44be 6bbc 45be
00000370: a1ea 94be 357e 86bd d735 16bd 0e35 debd
00000380: 3873 8dbd f36d 9b3d 772b c33d bfee e33d
00000390: dbff 393d b855 5e3c 9b5a 243e 75e1 633d
000003a0: 0270 e3bb 29c7 82bd f88a 8bbd 5653 613d
000003b0: f0e9 0c3e a4b0 4e3d 48d3 f63b e39e 303e
000003c0: 2be8 39be afbc 5bbe b345 5abe d067 5bbe
000003d0: 32bb e4bd a6e0 3a3c d8dd e83d 0944 0f3e
000003e0: 79dd bebc 1e23 75bc 91ed 50bd 27ce 2ebe
000003f0: c733 37be ebe0 49be 389f ecbd 91bd 4dbd
0.08684675 0.15211631 0.14311631 -0.027813962 0.03141002 0.09367174 0.019368507 -0.07565417
-0.08143585 -0.102054186 0.072770245 -0.032002714 0.13365397 0.19584048 0.04099909 0.1182145
0.0454845 0.19079444 0.024022995 -0.03405888 0.041261405 0.0067501655 -0.25395578 -0.1347258
-0.058847535 0.06708124 0.18693422 0.119463116 0.06505705 0.082468465 0.03676103 0.067398295
-0.10149618 -0.05287546 0.06860409 0.15531355 0.102324694 -0.0102891745 0.1788128 0.11837877
0.08951549 0.08047005 0.16236642 0.104188785 -0.1319808 -0.012621689 0.13327093 -0.06558181
0.019879384 0.07024093 -0.016058233 0.17240605 0.065756835 0.17737798 0.022721175 0.03599652
0.034691416 -0.043053433 -0.03779483 0.0029793342 0.11013035 0.14057034 0.13300107 -0.03365452
0.06311456 0.13628541 0.05446171 0.082816035 -0.044453885 -0.12028303 -0.11417664 -0.1946194
0.23101136 0.018218039 0.14762433 0.027062891 -0.03203377 0.11319354 0.033724327 -0.1363191
-0.05714244 -0.02660603 0.023698648 0.05284673 -0.0057772775 0.014189513 -0.06952652 0.08836384
0.098079205 0.07143619 0.02328592 -0.09912514 0.059293058 0.13943176 0.11664253 0.0551993
-0.136765 -0.007231366 0.06658771 -0.0017326403 -0.0561855 -0.032622702 0.031333417 -0.15869728
-0.023572892 -0.03256055 -0.18398756 -0.121625505 -0.0013565574 0.021979144 0.030523742 -0.0911756
-0.15494013 -0.01773181 0.1577867 0.0861739 -0.04871919 0.11427417 0.07206215 0.09162344
-0.12560238 -0.054292645 -0.12239117 -0.2564852 -0.0012295231 -0.014894689 0.0642775 -0.040561836
0.14141661 0.07720146 -0.036418367 -0.22955102 -0.012805156 -0.17303953 -0.013899565 -0.14266948
-0.21167314 -0.042029247 0.24724486 0.03074419 0.039094836 0.26232654 0.10978177 0.010970084
-0.002447015 -0.024435379 0.044719346 0.042061403 0.039019197 -0.050119974 0.14047006 0.12686093
0.18266392 0.18164583 0.14147836 0.24711016 0.037043337 0.006787082 0.03132681 -0.04208456
0.06130032 -0.031644814 0.17546055 -0.031117631 0.14885205 -0.008447936 0.14814384 0.15162711
0.10927117 0.08727158 -0.018297417 0.15066926 0.06505803 0.02942839 0.1377671 0.31804493
0.32555974 0.28202194 0.13318889 0.029326096 0.074924774 0.031325523 0.04688136 0.23669882
0.020825066 -0.016463239 0.024954528 0.21987003 0.19451387 0.07163337 0.2048004 0.16890725
-0.15574346 -0.060744755 0.048854742 -0.04606862 -0.04068671 -0.10154881 -0.036753327 -0.0092365565
0.0076687746 -0.095230654 -0.19380252 0.0013067466 0.24583898 0.11983964 0.024340138 0.07867389
-0.10015052 0.036585763 -0.07001977 -0.0043336162 -0.039861284 -0.025337884 0.2039451 0.021740483
0.011558055 -0.14686988 -0.19223867 -0.19310157 -0.29085258 -0.06567041 -0.03667244 -0.10849963
-0.06906742 0.075893305 0.09529775 0.111295216 0.04541002 0.013570242 0.16050188 0.055634934
-0.0069408426 -0.06385643 -0.068136156 0.055011116 0.13761115 0.050461426 0.007532511 0.1724811
-0.18154971 -0.21458696 -0.2131565 -0.2142632 -0.11168517 0.011406099 0.11370438 0.13990797
-0.023298966 -0.014961986 -0.05100781 -0.17070828 -0.17890845 -0.19714706 -0.11553806 -0.050229613

R__3551 f4 [1, 96, 32]
00000000: d7c1 c9bd 5b15 46bd 5114 f93d 0a93 3ebe
00000010: 1d6e bdbd 37af 25be 7685 1dbd e5ba eebc
00000020: c550 b6bd 2da7 c5bb cc27 6bbe ca5c 243e
00000030: df65 86be 7212 99be 35ab e3bd eeff febc
00000040: af0f 763e a4f6 353d 0c50 52bd a6dd b23d
00000050: afdd e53d b8ce 1f3d f286 cf3d 9ab9 0dbe
00000060: 57ba f93c 0a36 1fbe 9ed5 4dbe 44c8 223d
00000070: 8d78 e33b d2d0 1bbe a565 bbbc 5a89 f33d
00000080: b2bf babd 18eb 213e 0c0f 2b3d b01f 303d
00000090: 22f2 92bd 6bcc 963d 2264 543e f521 313e
000000a0: 6aec 27be e8b0 bd3d 77df f93d 68f8 e9bd
000000b0: 5865 003e 1652 41bd db0d 93bd 46f5 153e
000000c0: f540 e4bd 1c73 6ebe 2ab1 2b3e 7e8e 53bd
000000d0: cd7b 923d b505 863e a9b0 ac3d f760 023e
000000e0: f3c8 183e f26e 7dbc 684c 393c 47e5 e83d
000000f0: c402 0d3d 1197 473e 4ac8 4fbd 530b edbd
00000100: a872 0a3e 54d5 3fbc a059 88be ccd4 b63d
00000110: 5bd2 5abe 4bad be3d eec3 ddbd 24d4 efbd
00000120: f0f7 043e f58a 823e 14e1 e1bd 028b 233e
00000130: 7a0e b93c e835 033e 92d8 ecbd 1d0d b6bc
00000140: 5745 2d3d bc82 9f3d 7702 b1bd 7705 a53d
00000150: fba3 e03d 9152 1e3e 69cf f43c 8961 8ebd
00000160: dcb3 b4bd c423 e83d 3855 18be 6475 303d
00000170: cdf5 fa3d 5242 afbd ec8d aa3d 4f5a 2f3d
00000180: 92d6 e33d b478 50be a4c0 f13d bbb4 5abd
00000190: e94a c23e bb18 923d 02c0 16be ed1b 903d
000001a0: 639f 5dbe a29a f5bd b7aa 17be 2fa5 45be
000001b0: c616 fbbd a6ed 1e3d cc21 92bd 9dc1 97be
000001c0: 5d0f b93d 3409 56bd 130d bebd 3c16 61be
000001d0: 201c 8a3e 9759 3fbe d746 8fbe 7578 39be
000001e0: f725 6c3d c549 b9bc 75df bfbb d0a8 5d3e
000001f0: 3f5a a83d 42cb 91be 9ac4 3cbd 216b b73d
00000200: 8cd5 87ba 16be 5abd fc36 bc3d 6b18 7ebe
00000210: 3f40 033d bcb2 003d 4372 183d d413 f6bd
00000220: 0309 7fbd d7e4 f5bd 4be9 043d d2c4 833c
00000230: 041e e7bd 704a 833e 7d22 3dbe 5b2d 60bd
00000240: 5f00 22bd e7aa 4abe 9db3 6fbe 0713 8ebd
00000250: 5085 37be b9c8 0a3d 3048 f33d 6c7e 2cbe
00000260: 34ca e53c a276 0a3e 0e26 7c3c 8a57 dfbd
00000270: 5265 89be cced 2cbd aaf3 393e 4941 963d
00000280: 44c5 07bd 39ca e23d 62da 8dbd 10cb a93e
00000290: 4d4c 28bd 25e2 c53d 7175 e5bd e90f 853d
000002a0: 5e8e 973d f576 873e 826c 8a3e a207 e1bd
000002b0: 2a36 703d c91c b13d 965e 84bc 6ef4 e23d
000002c0: 8a85 72be 3e6a cf3d 0561 303e 1e3f 993d
000002d0: 72ba 43bd cf23 e2bd 31f7 693c fd0f 823d
000002e0: b508 eebd a9f7 023e 3d63 d23d 9552 2cbe
000002f0: 485e 66be a710 84bc 34c5 54bd b901 18be
00000300: d281 f33c 49f5 4a3e 465d 3bbd 3a8e ddbc
00000310: 2c88 49bd f3ca d53d bd15 91be f5b8 7f3a
00000320: a091 a13c f266 593e a76d ae3d 9479 aabd
00000330: 90e0 383e 48e2 683c 7ea4 cfbd 85f0 60be
00000340: 2382 6abd abee eebb c373 d43c 58b2 b73d
00000350: 6872 4cbe 6cc0 86bd 8d10 123e cb23 713d
00000360: 0b25 fc3c a22f 59be 47c3 653e cdab 82bc
00000370: cb8d ecbc c6cf bd3b 1399 423e 5371 f2bd
00000380: d0bf d63d defc 46bd 31bd 0b3c 8e22 633e
00000390: b872 653e 2e25 923d bb94 e03d 0f44 bfbd
000003a0: 7b87 cf3d 8a7c c1bd 37db 43bd ce5e 033e
000003b0: e440 9a3d 8e47 363c e1cb abbd c4c7 3d3d
000003c0: 7e7e dcbd d637 a5bd 1ccc 1bbb 8444 dd3c
000003d0: 60e9 8e3d fb92 9dbd ec83 143d 0bf2 15be
000003e0: e34d 3ebe 3c8d f5bb 2b1c d9bd ab8c 23be
000003f0: b291 b4bd e466 853e 565f a2bd f35a 0b3e
-0.09851425 -0.04836021 0.12162078 -0.18610778 -0.09249518 -0.1618012 -0.038457356 -0.029141853
-0.08902124 -0.006031892 -0.229644 0.16051021 -0.26249596 -0.29896885 -0.111166395 -0.031127896
0.2402942 0.044424668 -0.05134587 0.08733682 0.112239234 0.0390155 0.10133161 -0.13840333
0.030484362 -0.15547958 -0.2010102 0.03974177 0.006941861 -0.15216377 -0.022875616 0.11891432
-0.09118594 0.15812337 0.041762397 0.04299897 -0.071750894 0.073632084 0.20741323 0.1729811
-0.16398779 0.09262258 0.12200826 -0.11424333 0.1253866 -0.047197424 -0.07180377 0.14644346
-0.11145202 -0.23286098 0.16766801 -0.051649563 0.071525194 0.2617623 0.08432133 0.12732302
0.14920406 -0.015468346 0.011309721 0.11371856 0.034426466 0.19491221 -0.05072812 -0.115744255
0.135203 -0.011708576 -0.26630878 0.089273065 -0.21369307 0.09310397 -0.10828386 -0.117103845
0.12985206 0.2549664 -0.11029258 0.15970996 0.02258991 0.12813532 -0.11564745 -0.02222305
0.042302456 0.077886075 -0.08643048 0.08057683 0.10968777 0.15461184 0.029884057 -0.06952197
-0.08823368 0.11334947 -0.14876258 0.043080702 0.12253914 -0.085575715 0.08327851 0.042810734
0.111249104 -0.20358545 0.118043214 -0.053395014 0.37947777 0.07133623 -0.14721683 0.070365764
-0.21642832 -0.119923845 -0.14811216 -0.19301294 -0.12260203 0.038800858 -0.071353525 -0.29639903
0.090361334 -0.05225487 -0.092798375 -0.21981138 0.26974583 -0.1868652 -0.27983734 -0.18112357
0.057653394 -0.022618184 -0.0058554956 0.21646428 0.08220338 -0.28475386 -0.04608593 0.0895598
-0.0010363325 -0.053403936 0.09190175 -0.24814002 0.03204369 0.031420454 0.037218343 -0.12015501
-0.062264454 -0.12006538 0.032449048 0.016085062 -0.11285022 0.2564273 -0.18470187 -0.054730754
-0.039551135 -0.19791757 -0.23408361 -0.06937223 -0.17921948 0.03388283 0.11879003 -0.16845101
0.02805052 0.13521817 0.015389932 -0.109053686 -0.26835114 -0.04221897 0.18159357 0.07336671
-0.03314711 0.11073727 -0.06926419 0.33162737 -0.04108839 0.09662274 -0.11204041 0.06497175
0.07400201 0.26457945 0.2703591 -0.10987784 0.058645405 0.086480685 -0.016158383 0.110817775
-0.23683754 0.10127686 0.1722451 0.07482742 -0.04778523 -0.11041986 0.014280126 0.06350706
-0.116227545 0.12789787 0.102728345 -0.16828378 -0.22496903 -0.016121222 -0.05194588 -0.14844407
0.02972499 0.19820131 -0.04574325 -0.027045358 -0.04920213 0.104391 -0.28336897 0.0009755039
0.01972276 0.21230677 0.08517008 -0.083239704 0.18054414 0.014214106 -0.10138796 -0.21966751
-0.057253014 -0.007291635 0.025934106 0.08969563 -0.19965518 -0.0657967 0.14264126 0.058872025
0.030779382 -0.21209577 0.22437774 -0.015951062 -0.028876206 0.005792591 0.19003706 -0.11838021
0.10485804 -0.048580997 0.008528993 0.2218115 0.22407043 0.07135998 0.10965868 -0.09339153
0.10133263 -0.09447582 -0.04781648 0.12829134 0.07531908 0.011125458 -0.08388496 0.04633309
-0.10766314 -0.080672905 -0.0023772782 0.02701021 0.069781065 -0.0769405 0.036258623 -0.14643113
-0.18584399 -0.007493643 -0.10601076 -0.1597163 -0.08816852 0.26055062 -0.0792834 0.13608913

R__3537 f4 [1, 192, 64]
00000000: 7c9d 093e 476a 76be b533 503d 3135 5abd
00000010: e4fe ffbd 0669 633e 41bb 723e 4f70 5fbb
00000020: 6a79 9fbe 8d4e 953d df50 723b 70c4 d63c
00000030: 2f1c 233e 55af 6cbe 8755 f3bd 66a2 1bbe
00000040: 5a0e b6bd 076e b93d 596b 0b3b 9b1e 3dbe
00000050: 203f a33d 61ea 19be 557e 273c 7aa4 90bd
00000060: c866 11be e2ff 3ebe b6a1 0ebe e504 123e
00000070: 275d 79be 2796 3c3e 3081 d83c 5a61 17be
00000080: 033a 97bd 3559 03be 7c27 97bd bb99 a0bd
00000090: c56e 623e 559b 713e b5c3 b0bd aa24 e2bd
000000a0: 1365 f6bd f267 b83d 137c dc3d 0a4e e3bc
000000b0: e1da 69bd d8d0 b33d aad2 a73b 6861 65be
000000c0: dc12 d9bd f03e 953d 87ed b0be bc59 2f3c
000000d0: 8d0c 443d ed8f a73d 9303 cbbc f25f 193e
000000e0: 247e 7cbe 5524 cf3d 1634 b63c e0a9 b93d
000000f0: ccfc 93bd 0135 38bd 49e3 27bd 03b8 32be
00000100: fd46 2cbe da97 93bd 2706 5abe 5abf 183c
00000110: fd93 a33d 2a4f 893d 48bf 0f3e f790 debc
00000120: fa73 cfbc f989 1e3e 8de7 cbbc e8c1 b7bd
00000130: 333e 86be df8f 89bd c93f e2bd e0f7 c4bd
00000140: d7d9 073e e140 43bc dc19 7dbd 2d1c 9fbd
00000150: 68ca 2abe fc9d 103e 04f0 16bd be2b 5e3c
00000160: f577 19bd ad83 123d ed23 463d 6ca2 df3d
00000170: 1636 3e3d 47b0 3f3d 5481 abbd ef2c 01bd
00000180: ada2 a73d 2993 d23c a10e 20be a13a 513e
00000190: 69fd 3abe 1481 1ebd de6c a4bd b7d7 aa3d
000001a0: c307 bb3b d597 c03d c007 b2bd 6265 92be
000001b0: 0eda 3fbd 623f 003d 4478 523e 041f 593d
000001c0: 1de1 293d ccb1 e63c 79ee c7bc eadf 50be
000001d0: a139 8e3d 1eba 80bd 83d4 503e ded9 213c
000001e0: d724 323d 95a4 643e 9f54 8fbd d986 8f3d
000001f0: a9ab 04bd cd3c 813e f903 da3d ffb9 7f3c
00000200: efce 19bd 49b6 bebb 9076 40be d8e6 283e
00000210: f22e ab3d e92a c0bd 0a66 00be 0286 b6bd
00000220: 5d2c 2fbe 66db 553d 18c3 433d 6ef1 473d
00000230: 911a 1abd 3f06 ffbc 8a85 913d 2b54 053e
00000240: 5146 8a3d 2d8b dcbd 1826 1dbd b4c1 323d
00000250: 418b bdbd 4b4f 5fbc 440c ef3d 113b 223d
00000260: 5a5d 15bb b63e 70bd 2088 853c 0b27 a9bc
00000270: df66 a6bd 983f 11be 5ceb 39bd 96b6 df3c
00000280: 40c8 45bc e429 073e a1ee 6bbc 37b4 6d3d
00000290: 5cfe e1bd c7c6 06bd 1aec 163d 8d70 7c3d
000002a0: 55e8 6cbd fae2 02be 7aed a2bd 43c2 0ebe
000002b0: adfc b6bc 5821 62bd 0fa5 b1bc cdb6 2a3d
000002c0: 4b56 2d3d eee0 5cbd 760a a9bd 6920 263d
000002d0: 1f39 e13d 30a3 b5bd 96b7 823e 1fb2 8b3c
000002e0: 9feb c5bd f441 623e c539 6b3c 7207 c93d
000002f0: fe26 283c ee5e de3d 07f0 f23d 47a7 2e3d
00000300: edee 7bbc 4c53 37be 76ab 44bd d7f7 1b3d
00000310: 180f 70bd 202d 643e 2c81 553d 2791 e5bd
00000320: 93b9 f0bc b98e 72bd 61eb 373e d7cc cebd
00000330: 70f3 353e f1fc a33d 270d 85be b723 dfbd
00000340: e0ee 13be bfaf be3d c4a3 083e a7e2 5fbd
00000350: ee9b 153e 6ce3 fbbd 93da 3dbe 8dcc 38be
00000360: 39e4 3bbe 8c2f 893c 3d07 cf3d 3895 003e
00000370: a0f9 eabd a5ee 483e 88b6 e13d 52ed 45be
00000380: 36c0 cf3d 94e5 2abe e759 90bc 49d5 4ebe
00000390: 34ac 9d3d 0d35 583e 8186 39be 55d2 15be
000003a0: 0101 c4bd b324 a03d 7eb1 8bbc a431 64bd
000003b0: 172f 17be d11f dd3d dab8 233d 4f74 f9bd
000003c0: fc0c 35bd 2b5c d93d 0eac 74be 3955 9a3c
000003d0: b8d2 07bd f8a3 88bd d0f2 493d 9347 de3d
000003e0: 0ac8 f63d c9b6 533e 0871 e73d 5cd9 1f3e
000003f0: 51e3 8dbe 0cbd 353d a19e e43a 987c bfbd
0.13438982 -0.24063979 0.05083056 -0.053273384 -0.124997884 0.22208032 0.23704244 -0.003409404
-0.3114732 0.07290373 0.0036974472 0.026216716 0.1592872 -0.23113759 -0.118815474 -0.15198669
-0.08889456 0.09054189 0.00212737 -0.18468706 0.079710245 -0.15030815 0.010222991 -0.070626214
-0.14199364 -0.18652299 -0.13928875 0.1425968 -0.24351941 0.18416654 0.026428789 -0.1478323
-0.07384112 -0.12826999 -0.07380578 -0.07841822 0.22112568 0.2359441 -0.08631078 -0.11042149
-0.12030997 0.09004201 0.10765853 -0.027747173 -0.057093505 0.08780068 0.0051215487 -0.22400439
-0.105993 0.07287395 -0.3455622 0.010702547 0.04786353 0.081817485 -0.024781978 0.14978006
-0.24657494 0.10114352 0.022241633 0.09065604 -0.072259516 -0.044972423 -0.04098824 -0.17453007
-0.16823955 -0.07206698 -0.2129141 0.0093229655 0.07987211 0.067045525 0.14037812 -0.027168734
-0.025323857 0.1548232 -0.024890685 -0.089725316 -0.2621933 -0.06716894 -0.11047322 -0.09617591
0.13266693 -0.011917324 -0.06179224 -0.07769046 -0.16678774 0.14122766 -0.03684999 0.013560234
-0.037467916 0.035770107 0.048374105 0.109196514 0.0464383 0.04679897 -0.08374277 -0.031536993
0.08185325 0.025704937 -0.1563058 0.20432521 -0.18260731 -0.038697317 -0.08028577 0.083419256
0.0057077124 0.0940396 -0.086928844 -0.28592974 -0.046838813 0.031310447 0.2055369 0.053008094
0.04147445 0.028160952 -0.024405705 -0.20397916 0.069445856 -0.06285499 0.20393567 0.009878604
0.043492164 0.22328408 -0.06998562 0.07008142 -0.03239027 0.252417 0.10645289 0.01560831
-0.037550863 -0.00582007 -0.18795228 0.1649431 0.083585635 -0.093831845 -0.12538925 -0.08912279
-0.17106767 0.052211188 0.047793478 0.04881423 -0.037622992 -0.031130908 0.07105549 0.13020389
0.06751693 -0.10768733 -0.038366407 0.04364176 -0.09255076 -0.013629745 0.11672261 0.03960711
-0.0022791238 -0.058653556 0.016300261 -0.0206485 -0.0812509 -0.14184415 -0.04539047 0.027308743
-0.012071669 0.13199574 -0.014400155 0.058033194 -0.11034843 -0.032904413 0.036846258 0.061630774
-0.057838757 -0.12781897 -0.07955451 -0.13941292 -0.022337282 -0.05520758 -0.021685151 0.04167824
0.042318624 -0.053925447 -0.082539484 0.040558252 0.10997223 -0.08869016 0.2553069 0.017052708
-0.09664082 0.22095472 0.014357035 0.09815873 0.010263203 0.1085795 0.11862188 0.042639997
-0.015376789 -0.17902869 -0.04801508 0.038078155 -0.058608145 0.22282839 0.05212514 -0.11209326
-0.029385364 -0.059218142 0.17960884 -0.10097664 0.17768645 0.08007229 -0.25986597 -0.10895484
-0.14446592 0.09310865 0.13343722 -0.054659512 0.14610264 -0.12299237 -0.1854041 -0.1804678
-0.18348779 0.016746305 0.101088025 0.12556922 -0.114733934 0.19622286 0.11021143 -0.19328812
0.10144083 -0.1668914 -0.017620994 -0.2019855 0.07698861 0.21113987 -0.18117715 -0.14631017
-0.09570504 0.078195 -0.017052408 -0.055711403 -0.14764057 0.10797084 0.03997121 -0.12180387
-0.044201836 0.10613283 -0.23893759 0.018839465 -0.03315994 -0.066718996 0.04930383 0.108534954
0.12049873 0.20675196 0.11300856 0.1561026 -0.2771249 0.044369742 0.0017442295 -0.09349936

R__3524 f4 [1, 384, 128]
00000000: d322 ecbd 3bd5 a73d 009f d03c 2b54 833d
00000010: b0c8 d1bd 76dc 113c 07fb acbd 4080 b03a
00000020: 3488 943d 2f1f 84bd 1900 953d c3e8 893c
00000030: 2681 423c 4a85 0a3e 6c5c eabd 232b 4e3e
00000040: e50a a63c e6d0 173e 58c6 debd 5a32 d6bd
00000050: 738e 89be 5248 21bd 3526 433d b114 3e3e
00000060: e7af 6b3d 260e 1bbc 48c5 f4bd 21b5 4b3e
00000070: aed3 9dbd 4a2a 9b3d aeab 3f3e ee89 01bd
00000080: 3f66 8b3b 9d25 9f3b a7f4 6d3d 337f 83bd
00000090: 1fef 43bd af0e eb3b 00d5 eebb faf7 313d
000000a0: 2ba6 593c cc28 383e 4606 05be b850 b23d
000000b0: b49a cd3d 3704 a3bd db96 5d3d 74a2 3c3e
000000c0: 6309 9cbc 99e5 82bd 0c50 e33b b7b4 5aba
000000d0: b323 09bd f6e3 d03b 09d1 a1bb 31f3 ae3d
000000e0: 5097 fdbd 6879 5dbe 9398 e7bd 2e0c 39bd
000000f0: d329 3c3e 6829 bd3d 3584 82bd 077f 763c
00000100: 472f 0239 3754 9ebd 3c68 dfbd 70f4 c33d
00000110: 76c9 953c aaab cdbd 8d81 97bd b337 ce3d
00000120: cb8e f9bd c073 f2bd c26c 073e ec2b 8e3d
00000130: cfec ccbd 49d6 213d e4b9 083d 45c2 223d
00000140: 2d35 bd3d 1d03 20bc 8d5f aa3d 28d1 80bd
00000150: 2712 423e 61d3 893d 0ca5 14be f6aa 59bd
00000160: d05a 93bd b36e 88bc 48d8 013e 002a 843d
00000170: 64a8 f3bc d109 8c3d 922a 44be 2919 d63d
00000180: 260e c7bc bcf9 403e 1ed7 56bd 5232 013e
00000190: 9f0b e53c 0b15 e4bc e55e 2bbd c3a8 0ebd
000001a0: 203f fabd f285 36bc 32e5 80bd db25 ce3c
000001b0: 47d2 cbbd 8952 cb3c 305a 863d 3065 083d
000001c0: 13cb 983d 7e2a 9abd 97a5 763d f8dc 573c
000001d0: a091 563d 24d5 d0bc b573 d0bd ac79 e6bb
000001e0: 7032 3e3c 0b34 21be d7bf 8dbb ae30 2f3e
000001f0: 171d 93ba 55a4 dabd b73d 0d3e c1fd 8e3d
00000200: 83f1 c93c 89df ec3d 24ee bf3d 5ad6 5a3d
00000210: 42b9 cdbd f793 9fbd 92a0 dcbd a2cd e63d
00000220: 29ad e03d 6727 dc3d c355 0f3e d76a 12bd
00000230: 66a1 0bbc ba83 babd 0d72 193e aac8 d6bd
00000240: 0a72 bfbc cfa1 43bc 74bb 843b db1a de3d
00000250: 384e b43b f1f9 a23c 2d92 533c 9da3 193e
00000260: 1841 03be f61d dbbd d298 51bc 7792 81bd
00000270: 1517 dc3d d227 1ebd 0366 aabd 3e0c 6c3b
00000280: c7a4 0ebe 75ff a83d c901 0f3d 2abb 523e
00000290: 6017 2cbe 12aa 883d 2bfc 77bc ca1b 08bc
000002a0: e169 08be 2811 b83c e7f2 223d 1656 aebd
000002b0: 705c d63d 2783 8b3d 8213 dcbd b968 03bd
000002c0: dee9 8cbd 44bf 66be fc3e 27be fdee 793d
000002d0: fbf8 ee3d a668 233e fbf0 9b3b b49d d4bc
000002e0: fe62 83bd b89f 163e df19 3c3d e801 1d3e
000002f0: 3447 41be 1cab 8cbc 0a0b c3ba 82d8 313c
00000300: 1912 e03d e81b fe3d ccf1 113e 9146 66bd
00000310: a2b5 b8bd c008 0d3e 8409 933c c76c 5dbd
00000320: 3749 be3d b9a8 92bc 70a5 75bd 17ce 49bd
00000330: 4b7f 0b3e cbd6 1bbe 9482 cbbc 7b8b b8bc
00000340: 45e8 0ebe ba0d f13d a9e1 39be d21e aebd
00000350: 7d2c 3cbe 9fde 3f3c a5af 183e e22b 4d3d
00000360: 37a7 ee3d cf8a adbd 79ae 7dbc 6a89 b2bd
00000370: 6237 31bc 2987 34bc 370f 1b3e ccf2 2fbc
00000380: c25f 543e aa17 5f3d 5425 ef3d 6a50 67bd
00000390: 3f18 0abd ac86 2dbd 9558 04be 4c35 2c3e
000003a0: 00e5 d03d 26df 82bb 279d d2bd bf3d d5bd
000003b0: d5bf 453d 2673 453d 88d6 6c3d 0f2a 4abd
000003c0: b46b 23bd 81c3 b03d ccac d6bd 7c2f 87bd
000003d0: 7cd9 933c 6c6e 573d 1e49 b3bc ad95 d63c
000003e0: 65c2 b0bd ce0e e23d 7117 e73d 3e2e 833d
000003f0: 5be9 cbba 9a29 8f3d 4bbe e0bc 89f9 8bbc
-0.1153008 0.08194967 0.025466442 0.06412538 -0.10243356 0.00890266 -0.08446317 0.0013465956
0.07252541 -0.0645126 0.07275409 0.016834622 0.011871612 0.13527408 -0.11443409 0.20133643
0.020268867 0.14825782 -0.10877675 -0.104588225 -0.26866493 -0.03937561 0.04764386 0.1856258
0.0575408 -0.0094638225 -0.11951691 0.19893314 -0.0770639 0.075764254 0.18717834 -0.03162568
0.004254132 0.004856779 0.058094647 -0.06420746 -0.047835466 0.0071733813 -0.007288575 0.04344938
0.013284246 0.17984313 -0.12990674 0.08706802 0.10039273 -0.07959788 0.054098945 0.18421346
-0.019047445 -0.063914485 0.0069370326 -0.00083429686 -0.03348131 0.0063748313 -0.004938249 0.08542479
-0.12382376 -0.21628344 -0.11308398 -0.04517763 0.1837533 0.09236413 -0.06372873 0.015044934
0.00012415378 -0.077309065 -0.10908553 0.09568107 0.01828454 -0.10042508 -0.07397757 0.100692175
-0.12185439 -0.11838484 0.13225082 0.06941971 -0.10006105 0.039511 0.033380404 0.03973605
0.09238658 -0.009766367 0.08319006 -0.062898934 0.18952237 0.067297705 -0.14516085 -0.053141557
-0.071950555 -0.016654348 0.12680161 0.06453323 -0.02974338 0.0683781 -0.19156864 0.10454018
-0.024298739 0.18845266 -0.052451245 0.12616852 0.027959643 -0.027842065 -0.041838545 -0.034828912
-0.122190714 -0.0111403335 -0.062937155 0.025164535 -0.099522166 0.02481963 0.06560171 0.033299625
0.07460608 -0.07527636 0.060216513 0.013175242 0.052384973 -0.025492258 -0.10178319 -0.0070335474
0.011608705 -0.15742509 -0.0043258476 0.17108414 -0.0011223879 -0.10675875 0.13793074 0.069819935
0.024651295 0.115660734 0.093715936 0.053427078 -0.10045101 -0.07791894 -0.10772814 0.1126969
0.10970528 0.10749703 0.13997559 -0.03574642 -0.008522367 -0.09107156 0.14984913 -0.104874924
-0.023369808 -0.011940434 0.0040506665 0.10844966 0.0055024885 0.019894572 0.012913269 0.1500382
-0.128178 -0.10699074 -0.012792783 -0.06326764 0.1074659 -0.038612194 -0.083202384 0.003601804
-0.13930045 0.082518496 0.03491381 0.2057921 -0.16805792 0.06673063 -0.015135805 -0.008307407
-0.1332164 0.022469118 0.03978243 -0.08512513 0.1046685 0.06812125 -0.10745908 -0.032082293
-0.06880544 -0.225339 -0.1633262 0.061018933 0.11668583 0.15957889 0.0047589517 -0.025954105
-0.06415366 0.14709365 0.04592311 0.15332758 -0.18874818 -0.017171435 -0.0014880609 0.010854842
0.10940952 0.124076664 0.14252394 -0.05621964 -0.09019019 0.13772869 0.017948873 -0.054058816
0.092913084 -0.017902719 -0.059972227 -0.04926881 0.13622777 -0.15218656 -0.024842538 -0.022527447
-0.13955791 0.11770196 -0.18152489 -0.08501972 -0.18376346 0.011710792 0.14910753 0.050090678
0.116529875 -0.08473741 -0.015483492 -0.08717616 -0.010816427 -0.011018553 0.15142523 -0.01073904
0.20739654 0.054465927 0.11677042 -0.056473173 -0.03371453 -0.04236476 -0.12924416 0.16817206
0.10199928 -0.0039938865 -0.10283881 -0.10412168 0.04827865 0.048205517 0.05782178 -0.049356516
-0.039897636 0.086310394 -0.10482177 -0.06600854 0.01804804 0.05259554 -0.02188545 0.026194418
-0.08630828 0.1103798 0.11283768 0.06405304 -0.0015557216 0.06990357 -0.027434489 -0.017086761

GRU/quant_dense_51/LastValueQuant/FakeQuantWithMinMaxVars__3512 f4 [32, 1]
00000000: 8cbf 50bd 0e96 f5bc 0000 0000 0b78 443b
00000010: 8812 87bd 8a30 b8be f8e2 943e 1bef c23e
00000020: 8cbf d03d 4d72 6f3e 6cd1 53be 789b 883e
00000030: 0b78 44bb 2b66 41be 38bf 8ebe 18d1 913e
00000040: 085a 933c 4836 8d3e 0b78 443b 2848 103e
00000050: f8e2 943e 4836 8d3d ed18 60be c97d 99bd
00000060: 0b78 44bc 8812 073d 4d72 efbd 0e96 753c
00000070: 0b78 c4bb ad3c 66be 0ae9 2bbd 6d60 6cbe
-0.050963923 -0.029978778 0.0 0.0029978778 -0.065953314 -0.35974532 0.29079413 0.38073048
0.10192785 0.23383446 -0.20685357 0.26681113 -0.0029978778 -0.1888663 -0.27880263 0.28479838
0.017987266 0.27580476 0.0029978778 0.14090025 0.29079413 0.06895119 -0.21884508 -0.07494695
-0.011991511 0.032976657 -0.11691723 0.014989389 -0.0059957555 -0.22484083 -0.04197029 -0.23083659

GRU/quant_dense_50/LastValueQuant/FakeQuantWithMinMaxVars__3511 f4 [32, 32]
00000000: 75ec 44bd 0530 fd3c cb05 dabd 20d3 af3d
00000010: 5957 33be 58b1 13be cb5f 3abe 3d0e e13d
00000020: 9162 87be 3cc2 a13d 9135 173e 59fd 52be
00000030: 3d0e 613c 58b1 133e 3c68 41be 59fd 523d
00000040: 75ec c4bd af16 68be e6a8 0c3e 59fd 52bd
00000050: cb5f 3a3e 5aa3 723e 036b 8ebe aeca 28be
00000060: cab9 9abd e6a8 0cbe 20d3 2f3e e6a8 0c3e
00000070: cab9 9abd 7573 95be 20d3 2fbe 58b1 13be
00000080: af16 e8bd 59fd 523e 59fd 52be 3d0e 613d
00000090: e67b 9c3e 9327 f63d ae70 483e ccab 793e
000000a0: 3d0e 61bb e6a8 8c3e 74a0 053e 7546 a53e
000000b0: 048a 5d3e 9135 173e aeca 28be 59fd 52be
000000c0: cab9 9abd 75ec 443d 7573 953e 58de 833e
000000d0: 3d0e e13d 211f 6f3d ccab 793e 0530 7dbd
000000e0: 20d3 2fbe e7f4 4bbe 0530 fd3d 211f efbd
000000f0: e74e 2cbe 59fd 523d aeca a83c 033e 1e3e
00000100: 3cc2 a1bd 3cc2 a13d 03e4 bdbd e6a8 0c3e
00000110: 3d0e 613e 92db b6bd 20d3 2f3e cb05 dabd
00000120: 92db b6bd 7546 a5be af16 68be 0530 fd3d
00000130: e6a8 0c3d aeca 283d ae70 483e e6a8 8c3c
00000140: ca8c aa3e 9327 763e 75ec c43d 75ec c43c
00000150: aeca 283e 75ec c43c cab9 9abd e6a8 0c3e
00000160: 75ec 44be 9162 87be 3d0e 61bc cab9 1abd
00000170: e721 bc3e 74a0 053e aeca a83e 74a0 853d
00000180: aeca a83c 03e4 3dbe 58b1 93bd 1f2d 90be
00000190: ccab 793e 9135 173e 3d0e 613b 3cc2 a13e
000001a0: 75ec c43c 75ec c43c e6a8 0c3e 9281 56be
000001b0: 92db b63d 9327 f63d cab9 9abd 5957 33be
000001c0: 92db b6bd 9327 f6bd 58b1 933d 3d0e 61bc
000001d0: 3d0e e1bb cab9 9abe 033e 9ebe 9281 56be
000001e0: 58b1 933d 5957 33be e67b 9cbe 92db 36be
000001f0: af16 683e 20d3 2fbe 58b1 93bd 3d0e 613b
00000200: 3d0e e1bd cab9 1abd 59fd d2bd 033e 1ebe
00000210: 9281 56be 3d0e 61be aeca a8be cab9 1a3e
00000220: 58de 833e 5aa3 72be 75ec 44be 1f5a 80be
00000230: cab9 9abd 3cef 913e cab9 1abe 1f2d 103e
00000240: ccab 79be 3d0e 61bd 5884 a3be 0530 7dbd
00000250: cb05 5abe 20d3 af3d 5957 333e 92db 363d
00000260: 9135 97be 58b1 133e 9327 f63d e6a8 8cbc
00000270: aeca 28bd 3d0e e13d 211f ef3d 20d3 af3d
00000280: 03e4 bdbe 20a6 bfbe 2079 4fbe 03e4 3d3e
00000290: 1f2d 903e ca8c aabe 1f2d 10be 74a0 05be
000002a0: e7f4 cb3d cab9 9a3d aeca 28bd e6a8 0c3d
000002b0: 0530 7dbe 03e4 bd3d e7f4 cb3d 033e 9ebe
000002c0: 75ec c4bc 033e 1ebe cb05 da3d 3d0e e13c
000002d0: 92db b6bd 3b1c 023e 3d0e 613b ad24 093e
000002e0: 3d0e 61bc 74a0 853e e6a8 8c3d cab9 1a3d
000002f0: 7692 64be 58b1 933d 3d0e e1bb 0530 fdbc
00000300: cb5f babe e67b 9cbe cab9 1a3d 75ec c43e
00000310: 3d0e e13b 3c68 c1be 03e4 bd3d e6a8 8cbc
00000320: e6a8 8c3d 7519 b53e 74a0 853d cab9 1abd
00000330: aeca a83c 0530 7dbd 3d0e 613c e6a8 8c3d
00000340: 033e 1e3e 211f ef3d 74a0 85bd e6a8 0cbe
00000350: 048a 5dbe 2079 4fbe 1f2d 90be e7f4 cb3d
00000360: 5aa3 72be e89a 6b3e 3cc2 213e 75ec c43c
00000370: 3c95 b1be 3b1c 82be e7f4 4bbe 2079 cfbe
00000380: 9135 97be 3d0e 613e 59fd 523d 3cef 91be
00000390: aeca 28bd aeca 28bc 048a 5dbe cb05 da3d
000003a0: e7f4 cb3d aeca 283c 211f 6fbd 3d0e 613b
000003b0: 214c df3e 74a0 853d 7692 64be e6a8 8c3e
000003c0: 75ec c43d 3cc2 21be af16 e83d 3cc2 21be
000003d0: 58b1 933d 3d0e 61bb 75ec c4bc 3d0e 61bc
000003e0: aeca a83d 1f00 a0be cab9 1abd 92ae c63e
000003f0: 3d0e e1bc 033e 1e3e ad24 09be 20d3 2f3e
-0.048077065 0.030906687 -0.10645636 0.08585191 -0.17513789 -0.1442312 -0.18200605 0.10989044
-0.26442388 0.078983754 0.14766528 -0.20604457 0.013736305 0.1442312 -0.18887419 0.051511142
-0.09615413 -0.22664903 0.13736305 -0.051511142 0.18200605 0.23695126 -0.27816018 -0.16483566
-0.07554968 -0.13736305 0.17170382 0.13736305 -0.07554968 -0.2918965 -0.17170382 -0.1442312
-0.113324516 0.20604457 -0.20604457 0.05494522 0.30563277 0.12019267 0.19574234 0.24381942
-0.0034340762 0.2747261 0.1304949 0.32280317 0.2163468 0.14766528 -0.16483566 -0.20604457
-0.07554968 0.048077065 0.2918965 0.25755572 0.10989044 0.058379296 0.24381942 -0.061813373
-0.17170382 -0.19917642 0.123626746 -0.11675859 -0.16826974 0.051511142 0.020604458 0.15453343
-0.078983754 0.078983754 -0.092720054 0.13736305 0.21978088 -0.089285985 0.17170382 -0.10645636
-0.089285985 -0.32280317 -0.22664903 0.123626746 0.03434076 0.041208915 0.19574234 0.01717038
0.3331054 0.24038534 0.09615413 0.024038533 0.16483566 0.024038533 -0.07554968 0.13736305
-0.19230826 -0.26442388 -0.013736305 -0.03777484 0.36744615 0.1304949 0.32967132 0.06524745
0.020604458 -0.18544011 -0.0721156 -0.28159425 0.24381942 0.14766528 0.0034340762 0.31593502
0.024038533 0.024038533 0.13736305 -0.20947865 0.089285985 0.12019267 -0.07554968 -0.17513789
-0.089285985 -0.12019267 0.0721156 -0.013736305 -0.0068681524 -0.3021987 -0.30906686 -0.20947865
0.0721156 -0.17513789 -0.30563277 -0.17857197 0.22664903 -0.17170382 -0.0721156 0.0034340762
-0.10989044 -0.03777484 -0.103022285 -0.15453343 -0.20947865 -0.21978088 -0.32967132 0.15109935
0.25755572 -0.23695126 -0.19230826 -0.25068757 -0.07554968 0.28502834 -0.15109935 0.14079712
-0.24381942 -0.05494522 -0.31936908 -0.061813373 -0.21291272 0.08585191 0.17513789 0.044642992
-0.29533055 0.1442312 0.12019267 -0.01717038 -0.041208915 0.10989044 0.11675859 0.08585191
-0.37088022 -0.3743143 -0.2026105 0.18544011 0.28159425 -0.3331054 -0.14079712 -0.1304949
0.09958821 0.07554968 -0.041208915 0.03434076 -0.24725349 0.092720054 0.09958821 -0.30906686
-0.024038533 -0.15453343 0.10645636 0.02747261 -0.089285985 0.12706082 0.0034340762 0.13392897
-0.013736305 0.2609898 0.06868152 0.03777484 -0.22321495 0.0721156 -0.0068681524 -0.030906687
-0.3640121 -0.30563277 0.03777484 0.38461652 0.0068681524 -0.37774837 0.092720054 -0.01717038
0.06868152 0.35370985 0.06524745 -0.03777484 0.020604458 -0.061813373 0.013736305 0.06868152
0.15453343 0.11675859 -0.06524745 -0.13736305 -0.2163468 -0.2026105 -0.28159425 0.09958821
-0.23695126 0.23008311 0.15796751 0.024038533 -0.3468417 -0.25412163 -0.19917642 -0.405221
-0.29533055 0.21978088 0.051511142 -0.28502834 -0.041208915 -0.010302229 -0.2163468 0.10645636
0.09958821 0.010302229 -0.058379296 0.0034340762 0.4361277 0.06524745 -0.22321495 0.2747261
0.09615413 -0.15796751 0.113324516 -0.15796751 0.0721156 -0.0034340762 -0.024038533 -0.013736305
0.08241783 -0.31250092 -0.03777484 0.38805062 -0.02747261 0.15453343 -0.13392897 0.17170382

GRU/quant_dense_50/BiasAdd/ReadVariableOp:0 f4 [32]
00000000: 8bef 4abd 732b 22be 6502 60bd 9b66 5bbc
00000010: 4ccd ef3c f254 a3bc 0b41 80bd b1d1 10bc
00000020: 9e7d 943d 7219 bc3d 7745 b7bd 812e 30bd
00000030: 655a f9bd 649b debc 2526 1ebd a693 c8bc
00000040: 7118 e2bd 13a9 dabc b94d c9bd e89b e7bc
00000050: 7248 ea3b 17ee 293c 46c0 d2bd 7bce 54bd
00000060: 7136 a4bc 775d 95bc fbcc 1bbe a4af e3bd
00000070: 8687 70bd bf5e 1abd b35f 79bd de98 2abe
-0.049544852 -0.15836887 -0.054689784 -0.013391162 0.029272698 -0.019937966 -0.06262406 -0.008839057
0.07250522 0.09184541 -0.08948796 -0.0430131 -0.121754445 -0.027173705 -0.038610596 -0.024484467
-0.11039818 -0.026691949 -0.098292775 -0.028272584 0.0071497494 0.010371706 -0.102905795 -0.051954728
-0.020045491 -0.018233044 -0.15214913 -0.11117485 -0.058722995 -0.037688013 -0.06088228 -0.16659877

B__3552 f4 [1, 192]
00000000: be93 9dbc e567 f6bd 1b37 283e 4806 873c
00000010: c826 b0bc c215 94bc 4385 babd 32bc 3b3e
00000020: fad6 41bc ba0c 953d a252 29bb cafa 18bd
00000030: 213e 80be 9591 f93c 343c b93b c79b 51bc
00000040: a774 183e 2591 ddbc 9e32 3c3e eb1e 57bd
00000050: cdb1 0f3e 8ecf 3c3e fe74 943d 6cd0 6bbb
00000060: 726f a23c 0601 9bbd 0fa5 1f3e 59b1 bdbc
00000070: 3b31 553d daf9 2f3d a6ec d53d 30fa bfbd
00000080: 0648 8cbd 11a9 203e 4fc4 dcbd 4f0b c3bd
00000090: dd37 6abd c9c6 8dbd 142c fb3c 66ca 1cbd
000000a0: 72fa e0bc 994d d4bd 9e86 e6bd 47dc edbd
000000b0: d3b4 0ebe 1c97 cdbd b581 23bc 664f c0bd
000000c0: 4ecf 28bb 84ad 973d 8d89 e2bd f508 683d
000000d0: 5461 3bbd 80df f7bd 49b7 a6bd 0bcf a33b
000000e0: bcac afbd 8f1a 3a3d 0e0e 94bd 2289 893d
000000f0: 8acf 4abe f4d8 15be f646 28bd 4d76 27bd
00000100: 897e 613d 6d37 86bd 9688 c5bd 5ee6 473c
00000110: 8536 76bc a684 d73d aee5 5b3c f7e3 6a3d
00000120: c548 e03c 3fc6 01be c78e a43c 2856 13bd
00000130: 7bfc dabc 578a 6c3d c2ce b8bd aa01 1ebe
00000140: 4282 343d c636 033e 1f95 e03c c131 8abc
00000150: 3adf fcbc e812 72bc 9ab7 debd df0c 05be
00000160: 8fa5 2abe a604 f8bd 9a2e 7fbc 4dd6 e23d
00000170: a026 9e3d 6c8f f4bc e971 1e3d c92d 983d
00000180: be93 9dbc e567 f6bd 1b37 283e 4806 873c
00000190: c826 b0bc c215 94bc 4385 babd 32bc 3b3e
000001a0: fad6 41bc ba0c 953d a252 29bb cafa 18bd
000001b0: 213e 80be 9591 f93c 343c b93b c79b 51bc
000001c0: a774 183e 2591 ddbc 9e32 3c3e eb1e 57bd
000001d0: cdb1 0f3e 8ecf 3c3e fe74 943d 6cd0 6bbb
000001e0: 726f a23c 0601 9bbd 0fa5 1f3e 59b1 bdbc
000001f0: 3b31 553d daf9 2f3d a6ec d53d 30fa bfbd
00000200: 0648 8cbd 11a9 203e 4fc4 dcbd 4f0b c3bd
00000210: dd37 6abd c9c6 8dbd 142c fb3c 66ca 1cbd
00000220: 72fa e0bc 994d d4bd 9e86 e6bd 47dc edbd
00000230: d3b4 0ebe 1c97 cdbd b581 23bc 664f c0bd
00000240: 4ecf 28bb 84ad 973d 8d89 e2bd f508 683d
00000250: 5461 3bbd 80df f7bd 49b7 a6bd 0bcf a33b
00000260: bcac afbd 8f1a 3a3d 0e0e 94bd 2289 893d
00000270: 8acf 4abe f4d8 15be f646 28bd 4d76 27bd
00000280: dfe0 463d c8b4 89bd 31fc b0bd de25 743c
00000290: 2fa1 57bc 1ce2 cd3d dca4 6e3c a2d4 523d
000002a0: 07fa 363d 9b90 cdbd 18c5 673c 832a 45bd
000002b0: 4cf1 20bd 39b3 833d 8d3f c0bd 8755 1fbe
000002c0: 32f6 603d 9938 103e a391 143d ace4 8cbc
000002d0: 5859 0dbb 0a24 47bc 78f5 d0bd ba1b 00be
000002e0: 7ec9 31be bfc6 f9bd 92ea bebb 054f d63d
000002f0: 24ce 903d 80ea 49bc 3855 143d 58f3 863d
-0.019235488 -0.12031535 0.16427271 0.016482487 -0.021502867 -0.018076781 -0.09107449 0.1833351
-0.01183104 0.07277818 -0.0025836607 -0.037348546 -0.250474 0.030464927 0.0056529287 -0.012793488
0.1488825 -0.02704675 0.18378684 -0.05251972 0.1403267 0.18438551 0.07248877 -0.0035982383
0.019828532 -0.075685546 0.15590309 -0.023155855 0.052048903 0.042962886 0.10445528 -0.09373891
-0.06849675 0.15689494 -0.107796304 -0.09523641 -0.05718218 -0.06922681 0.030660667 -0.03827896
-0.027463172 -0.10366363 -0.11256145 -0.1161428 -0.13936166 -0.100385875 -0.009979655 -0.09390144
-0.002575833 0.07406142 -0.11061392 0.056649167 -0.045747116 -0.12103176 -0.081404276 0.0049990467
-0.08577868 0.045435484 -0.07229243 0.06715609 -0.19805732 -0.14633542 -0.0410833 -0.040884305
0.055052314 -0.065535404 -0.09645192 0.01220092 -0.015027647 0.105233476 0.013421459 0.05734631
0.02737845 -0.12673281 0.020087613 -0.035970837 -0.02673172 0.05774912 -0.09023811 -0.15430322
0.044069536 0.12813863 0.027414856 -0.016869428 -0.030868161 -0.014775015 -0.10874863 -0.12993191
-0.16664718 -0.121102616 -0.0155750755 0.11076031 0.07722211 -0.029853545 0.038682852 0.07430608
-0.019235488 -0.12031535 0.16427271 0.016482487 -0.021502867 -0.018076781 -0.09107449 0.1833351
-0.01183104 0.07277818 -0.0025836607 -0.037348546 -0.250474 0.030464927 0.0056529287 -0.012793488
0.1488825 -0.02704675 0.18378684 -0.05251972 0.1403267 0.18438551 0.07248877 -0.0035982383
0.019828532 -0.075685546 0.15590309 -0.023155855 0.052048903 0.042962886 0.10445528 -0.09373891
-0.06849675 0.15689494 -0.107796304 -0.09523641 -0.05718218 -0.06922681 0.030660667 -0.03827896
-0.027463172 -0.10366363 -0.11256145 -0.1161428 -0.13936166 -0.100385875 -0.009979655 -0.09390144
-0.002575833 0.07406142 -0.11061392 0.056649167 -0.045747116 -0.12103176 -0.081404276 0.0049990467
-0.08577868 0.045435484 -0.07229243 0.06715609 -0.19805732 -0.14633542 -0.0410833 -0.040884305
0.048554298 -0.067239344 -0.08641852 0.014901606 -0.013160988 0.100528926 0.014565673 0.051472314
0.04467204 -0.10037347 0.014146112 -0.048136245 -0.03929262 0.064306684 -0.09387121 -0.1555997
0.05492229 0.1408409 0.036271702 -0.017198883 -0.0021568146 -0.0121545885 -0.102030694 -0.12510577
-0.1736202 -0.12196111 -0.005826303 0.104642905 0.07070568 -0.012323976 0.036214083 0.06589383
