models/station_21/model_latest.onnx (onnx, 407794 bytes, 12 tensors)

W__2855 f4 [1, 96, 64]
0	0x3d39dccc	0.045376584
1	0xbda500f4	-0.080568224
2	0x3b5ba74c	0.0033516465
3	0x3e395948	0.18100464
4	0xbde0534b	-0.10953387
5	0x3dab5f96	0.08367841
6	0xbd99524f	-0.07486402
7	0xbe3fae4a	-0.1871883
8	0xbe309b37	-0.1724671
9	0x3d03fada	0.032221653
10	0x3d3a891b	0.04554091
11	0xbe0e7150	-0.13910413
12	0xbdc058cf	-0.09391939
13	0x3e42c5ea	0.1902081
14	0xbe750b32	-0.23930052
15	0x3d948266	0.07251434
16	0xbc1010d0	-0.008793071
17	0x3c93ec5e	0.018057045
18	0xbd565b82	-0.052333362
19	0x3e057bad	0.1303546
20	0xbdba21db	-0.09088489
21	0x3e1eb5f8	0.15499103
22	0xbcb0aa96	-0.021565717
23	0xbdd2ff22	-0.10302569
24	0x3dc817bc	0.09770152
25	0x3e2451f8	0.16046894
26	0x3e517bef	0.20457433
27	0xbe252155	-0.16125996
28	0xbbce3497	-0.0062928903
29	0x3e2a930f	0.16657661
30	0x3e1264d4	0.14296275
31	0xbddccd27	-0.10781317
32	0xbe047442	-0.12934974
33	0x3e45766c	0.19283456
34	0x3e533978	0.20627391
35	0xbe18d5dd	-0.14925332
36	0xbe3fc831	-0.1872871
37	0xbdf85b0b	-0.1212674
38	0x3e1bca7f	0.15213965
39	0xbd206424	-0.039158
40	0x3e01bf0c	0.12670535
41	0x3d996fba	0.07492013
42	0xbd9269af	-0.07149064
43	0xbe1634f6	-0.1466864
44	0x3bb6468e	0.00556261
45	0x3de8d120	0.113680124
46	0xbe66b0da	-0.22528401
47	0xbd872361	-0.06598545
48	0x3d4e20fc	0.050324425
49	0xbdd4283a	-0.10359235
50	0xbe420ad2	-0.1894944
51	0xbcd84124	-0.026398249
52	0x3e400614	0.18752319
53	0xbe3df3c7	-0.18550025
54	0xbe7e7eae	-0.24853012
55	0x3cb28d6d	0.021795953
56	0xbe37557f	-0.17903708
57	0x3c53eef2	0.012935387
58	0x3d64850f	0.055790957
59	0x3cc8d120	0.024513781
60	0xbbc818f0	-0.0061064884
61	0xbdb6640c	-0.08905801
62	0x3dff1857	0.12455814
63	0x3e54ed4e	0.2079365
64	0xbc8bc548	-0.017061844
65	0x3dd1e2b1	0.10248316
66	0xbd4f4c4e	-0.05060988
67	0x3db4d0f1	0.08828915
68	0x3dd4418d	0.10364065
69	0xbdd9efd5	-0.106414475
70	0x3d966410	0.07343304
71	0x3e59ce86	0.21270189
72	0x3e475f94	0.19470054
73	0x3d0fce05	0.035108585
74	0x3cc1b1a2	0.023644272
75	0xbdfc9719	-0.12333507
76	0xbe5c3c63	-0.2150741
77	0x3daf6072	0.08563317
78	0x3d95e2be	0.07318638
79	0x3e486465	0.19569547
80	0x3ca73968	0.020413116
81	0xbd408b48	-0.04700783
82	0xbe2e8e80	-0.17046547
83	0xbe80a380	-0.2512474
84	0x3cb439cc	0.022000216
85	0x3de39f52	0.11114372
86	0x3e872166	0.26392668
87	0x3cd88b80	0.026433706
88	0x3d6b199c	0.05739747
89	0x3d5fa308	0.054598838
90	0xbe24622f	-0.16053079
91	0xbd1c1db7	-0.038114276
92	0x3e19b952	0.150121
93	0x3da3bb44	0.079947025
94	0x3e5efef1	0.2177694
95	0x3cd4cebf	0.02597749
96	0xbc93b1e2	-0.018029157
97	0xbdaa7b9c	-0.08324358
98	0x3db9bd0d	0.09069262
99	0x3d63438a	0.055484332
100	0xbe0b68c1	-0.13614179
101	0x3dfe8e08	0.12429434
102	0x3d5daf26	0.054122113
103	0x3dd9507b	0.106110536
104	0x3e245422	0.16047719
105	0x3ce2cdc3	0.027686005
106	0x3a6c8159	0.000902196
107	0x3d9ad0d8	0.07559365
108	0xbd82eae7	-0.0639246
109	0xbe3f476f	-0.18679594
110	0x3d54ae9b	0.05192433
111	0x3d2ca39c	0.042148218
112	0x3cd40a0f	0.025883703
113	0xbdca3233	-0.09872856
114	0x3dd8d3b5	0.10587255
115	0xbcf0ade2	-0.029379789
116	0xbe2465b8	-0.16054428
117	0x3ddf1012	0.10891737
118	0x3e0d552b	0.1380202
119	0x3e063452	0.13105896
120	0x3dde0ba6	0.108420655
121	0xbd828279	-0.06372542
122	0x3e2bcd45	0.16777523
123	0x3e846fb2	0.25866467
124	0xbe443b65	-0.19163282
125	0xbd57159e	-0.05251085
126	0xbcb01c78	-0.02149795
127	0x3c6d0057	0.014465413
128	0x3e00569f	0.12533043
129	0x3dc81546	0.097696826
130	0xbe0b86ed	-0.13625689
131	0x3dba5617	0.090984516
132	0x3e4938f7	0.19650637
133	0x3e243185	0.16034515
134	0xbe106ece	-0.14104769
135	0x3db91c60	0.09038615
136	0xbda8cf18	-0.08242625
137	0xba4be350	-0.00077777077
138	0x3e152948	0.14566529
139	0x3de6f9c6	0.11278109
140	0x3cf54931	0.029942127
141	0xbdfec161	-0.12439228
142	0x3e36d62f	0.17855142
143	0x3dabb041	0.08383227
144	0xbd97e582	-0.07416822
145	0xbc6adf75	-0.014335503
146	0xbdf6516f	-0.12027251
147	0xbe7322bd	-0.2374372
148	0x3da329b3	0.07966938
149	0xbe553299	-0.20820083
150	0x3d676de4	0.056501284
151	0xbdfb32eb	-0.12265571
152	0x3dec7cc3	0.11547234
153	0x3d2ea438	0.04263708
154	0xbe5f7d4f	-0.21825145
155	0x3d2675e8	0.040639788
156	0x3cba6aec	0.022756062
157	0xbdef6977	-0.11690038
158	0xbe3c6f6d	-0.1840188
159	0x3c8d3c64	0.01724071
160	0xbdd55258	-0.104160964
161	0xbe63bed0	-0.22240758
162	0xbd95c18f	-0.07312309
163	0xbd9d9edc	-0.07696316
164	0x3d640492	0.05566842
165	0x3e0564a6	0.13026676
166	0x3ca1856f	0.019716946
167	0x3d88bba5	0.06676415
168	0x3e056243	0.13025765
169	0x3d121c15	0.035671312
170	0x3e5de30d	0.21668644
171	0xbe511f36	-0.20422062
172	0xbdb4c471	-0.08826531
173	0xbd7c9064	-0.06166114
174	0xbe1c3861	-0.15255882
175	0xbdbfe542	-0.09369899
176	0x3e459d6c	0.19298333
177	0xbcfddde0	-0.030989587
178	0x3df66afa	0.12032123
179	0xbe4dfa8d	-0.20115109
180	0xbe46acdd	-0.1940188
181	0xbcde914d	-0.027168894
182	0x3e96b6e9	0.29436424
183	0xbd670694	-0.056402758
184	0x3e4320d9	0.19055499
185	0xbe004e62	-0.125299
186	0xbe9063c7	-0.28201124
187	0xbde0534b	-0.10953387
188	0xbe271425	-0.16316278
189	0x3db95cdc	0.09050915
190	0xbdcbe9b9	-0.099566884
191	0x3e177483	0.1479054
192	0xbdc3656c	-0.09540829
193	0xbd1a06b8	-0.037604064
194	0x3dca31ed	0.09872804
195	0x3e279276	0.16364464
196	0xbdbc5d4d	-0.09197483
197	0xbd10107e	-0.03517198
198	0xbd649d67	-0.055814173
199	0xbe2e2d45	-0.17009456
200	0x3e26138b	0.16218393
201	0x3da81751	0.08207572
202	0xbd49ecc6	-0.04929807
203	0xbe79252c	-0.24330586
204	0x3d566200	0.052339554
205	0xbd90739f	-0.07053303
206	0xbe281747	-0.1641513
207	0xbe2dfe81	-0.16991617
208	0x3e4f8ce2	0.20268586
209	0xbe78dc3f	-0.24302767
210	0xbdf7df8b	-0.12103184
211	0x3e22d1c7	0.15900336
212	0x3e11067b	0.14162628
213	0xbe0fd908	-0.14047635
214	0xbce1c014	-0.02755741
215	0x3e03d15d	0.12872835
216	0x3dce370e	0.100690946
217	0x3d0ccd38	0.0343754
218	0xbdca8d17	-0.09890192
219	0x3e053d4a	0.13011661
220	0xbd1b7e61	-0.03796232
221	0xbe15eb1e	-0.14640471
222	0x3e1ebadf	0.15500973
223	0x3d62d35e	0.055377357
224	0xbe0e7148	-0.13910401
225	0x3da5faa8	0.081044495
226	0x3c4e8249	0.012604305
227	0x3d9b8633	0.07593956
228	0xbafc17a6	-0.0019233122
229	0x3d9e0a72	0.07716836
230	0x3de13e37	0.10998195
231	0xbe73975c	-0.23788208
232	0x3db89f04	0.09014705
233	0xbd9f9414	-0.077919155
234	0x3dc868ff	0.097856514
235	0x3e36f81d	0.17868085
236	0xbd8dfc15	-0.069328465
237	0xbd5fe5b9	-0.05466244
238	0xbe150789	-0.14553656
239	0xbe7c4e9c	-0.24639362
240	0xbe6cb062	-0.2311416
241	0xbe350dd7	-0.1768106
242	0x3e182926	0.14859447
243	0x3e0afeb2	0.13573721
244	0x3d232f57	0.03984007
245	0xbcd31c3f	-0.025770305
246	0xbdc097cc	-0.09403953
247	0x3e14ce9c	0.1453194
248	0x3d6ec25c	0.058290824
249	0xbbfbe608	-0.007687334
250	0x3d7f1679	0.06227729
251	0xbdc15e3c	-0.09441802
252	0xbe05405a	-0.1301283
253	0x3dd0b069	0.101898976
254	0xbc3e54e1	-0.011616916
255	0x3d1bf2e6	0.038073443

W__2841 f4 [1, 192, 128]
0	0x3e2aaefd	0.16668315
1	0xbe9ba462	-0.30398852
2	0x3bc0d8a2	0.0058851996
3	0x3e52b1bf	0.20575617
4	0x3e3456bb	0.1761121
5	0xbc662a08	-0.014048107
6	0xbe15b89b	-0.14621203
7	0x3e252a83	0.16129498
8	0xbe27f587	-0.16402255
9	0x3e04d798	0.12972867
10	0x3d9e43a1	0.07727743
11	0x3d6e1397	0.05812415
12	0xbe4a267a	-0.1974124
13	0x3e4fa115	0.20276292
14	0xbbd751b7	-0.0065710205
15	0xbd6c2663	-0.057653796
16	0x3ce5094b	0.027958533
17	0xbe922b1e	-0.2854852
18	0x3e1b6ffc	0.15179437
19	0xbe6050bd	-0.21905799
20	0xbdbad9d3	-0.09123578
21	0xbe4f21b3	-0.20227699
22	0x3e7d595d	0.2474112
23	0xbe5cb9f7	-0.21555315
24	0xbd3245ee	-0.04352372
25	0xbe43f802	-0.19137576
26	0x3e1e9eb0	0.15490222
27	0xbce3b8af	-0.027798025
28	0x3e415f0c	0.18883914
29	0x3d255a45	0.04036929
30	0xbeb01a34	-0.3439499
31	0xbdb9335a	-0.09042998
32	0xbe1cfeaa	-0.15331522
33	0x3e4ccae2	0.19999269
34	0xbe484a15	-0.1955951
35	0x3d55aa36	0.05216428
36	0xbe44ef43	-0.19231896
37	0x3dd6828b	0.10474118
38	0xbd1f6fe2	-0.03892506
39	0xbe7958d8	-0.24350297
40	0xbb5aa06b	-0.0033359777
41	0x3db54156	0.088503525
42	0x3d443b4a	0.047908105
43	0xbdce37f4	-0.10069266
44	0xbd818a24	-0.06325176
45	0x3e2eb884	0.17062575
46	0xbe8180f5	-0.252937
47	0x3e0a93d9	0.13532962
48	0xbd8177db	-0.06321689
49	0x3e416a38	0.18888175
50	0xbd1f9f48	-0.03897026
51	0x3e8ecfc1	0.2789288
52	0x3ecdfd9e	0.40232557
53	0xbea541c3	-0.32276735
54	0xbbc3dd9d	-0.005977346
55	0xbca282ef	-0.019837825
56	0x3e90b560	0.28263378
57	0xbd9eb0dc	-0.07748577
58	0xbe9fdde7	-0.31223986
59	0xbd96da21	-0.073658235
60	0xbde39141	-0.11111689
61	0xbe1112ac	-0.14167279
62	0x3c4a7a2c	0.01235823
63	0xbd8d705f	-0.06906199
64	0xbe97cbc5	-0.2964765
65	0x3e46de0b	0.1942064
66	0x3e225846	0.15853986
67	0x3e57cc8e	0.21074125
68	0x3e9c5219	0.30531386
69	0xba98a145	-0.0011644742
70	0xbe22ab3b	-0.15885632
71	0xbe5813ff	-0.21101378
72	0xbd951825	-0.07279996
73	0xbd62d85d	-0.05538212
74	0xbdecfa84	-0.115712196
75	0xbe52f46d	-0.20601054
76	0xbea0aab9	-0.3138025
77	0x3d65a9f3	0.05607028
78	0xbd9a64ee	-0.07538782
79	0xbd7b0074	-0.06127973
80	0x3dac7b3e	0.08421944
81	0xbe3d1dc6	-0.18468389
82	0xbe6a14f6	-0.22859558
83	0x3e4686c3	0.19387345
84	0xbd586834	-0.05283375
85	0x3e37481b	0.178986
86	0xbe324b63	-0.1741157
87	0xbe29f69a	-0.16597977
88	0x3e210d2a	0.15727678
89	0x3b8576ec	0.0040730145
90	0xbdc3c043	-0.095581554
91	0xbdcdc6c0	-0.10047674
92	0x3e2ce5e2	0.16884568
93	0xbcd3aa66	-0.025838088
94	0xbe1dd357	-0.15412651
95	0xbe1dd144	-0.1541186
96	0x3ec8b33c	0.39199245
97	0x3de8e6a1	0.11372114
98	0x3d58f877	0.05297133
99	0xbd39ae21	-0.045332078
100	0xbb98b633	-0.0046603917
101	0xbdea9979	-0.11455054
102	0xbe9c2197	-0.30494377
103	0xbda9915b	-0.082796775
104	0x3d37544c	0.044758126
105	0xbdd71cfd	-0.10503576
106	0x3d724609	0.059148822
107	0x3e20fdd4	0.15721828
108	0x3e103368	0.1408211
109	0xbd69107d	-0.05690049
110	0x3d1e17af	0.038596805
111	0xbc3b9d65	-0.0114511
112	0x3e1a9dfb	0.15099327
113	0x3e834a1c	0.25642478
114	0x3d330dd4	0.04371436
115	0x3e4c36db	0.199428
116	0x3e69172b	0.22762744
117	0xbe816f16	-0.25280064
118	0xbde7c0a1	-0.11316038
119	0xbd4f5a79	-0.05062339
120	0xbe170711	-0.1474879
121	0xbda80d27	-0.082056336
122	0xbe54b1cc	-0.20770949
123	0x3da5494f	0.08070623
124	0x3ec0dfd6	0.37670773
125	0xbe0c847e	-0.13722417
126	0xbebdbda6	-0.37058753
127	0xbe3aa426	-0.1822668
128	0x3e3274eb	0.17427413
129	0xbdf0f13f	-0.11764764
130	0x3e144ded	0.14482851
131	0x3e43f91f	0.19138001
132	0x3e2e0f4f	0.16998027
133	0xbe2f250c	-0.17103976
134	0xbe197e34	-0.14989549
135	0x3e964ac7	0.29353926
136	0x3cc4ce9b	0.024024298
137	0xbe076793	-0.13223104
138	0x3e795f3a	0.24352732
139	0xbe0b5b8e	-0.13609144
140	0xbd0f377d	-0.034965027
141	0x3e5cf35c	0.21577209
142	0x3e534748	0.2063266
143	0x3d873947	0.06602722
144	0x3d7be3a2	0.061496384
145	0x3cc68e7c	0.024237864
146	0x3e448054	0.19189578
147	0xbdfed089	-0.12442119
148	0xbe818b6f	-0.25301692
149	0xbc3e9338	-0.011631779
150	0x3e8ddb45	0.27706352
151	0xbec03b1f	-0.37545106
152	0xbdfce3f6	-0.123481676
153	0xbdf11b4e	-0.11772786
154	0x3dce58d5	0.10075537
155	0x3e4843fe	0.19557187
156	0x3987c4e8	0.00025895913
157	0xbb7bf3e4	-0.003844493
158	0x3d46a7ee	0.048499994
159	0xbe52c5ba	-0.20583239
160	0x3d146caa	0.036236443
161	0x3d698b55	0.057017643
162	0xbd2bfbb7	-0.0419881
163	0x3e5b9d2c	0.21446675
164	0xbe8b42ed	-0.27199498
165	0x3d93de68	0.07220155
166	0xbe002af6	-0.12516388
167	0xbe1b2787	-0.15151797
168	0x3bb6e70d	0.0055817426
169	0x3de17389	0.11008365
170	0x3e23cffe	0.15997311
171	0xbe5ce8fc	-0.21573251
172	0xbbad06d5	-0.0052803555
173	0x3d63112a	0.05543629
174	0xbec9f911	-0.39447835
175	0x3e1a21db	0.15051977
176	0x3dd3918d	0.10330496
177	0x3e173bd1	0.14768912
178	0xbc6dab93	-0.0145062385
179	0x3e1c1425	0.1524206
180	0x3ec75d81	0.38938525
181	0xbe99a30c	-0.30007207
182	0xbda7cb44	-0.08193067
183	0xbe6bc325	-0.2302366
184	0xbdc55499	-0.09635276
185	0x3e1d5412	0.15364102
186	0xbe890132	-0.26758724
187	0xbe877b03	-0.26461038
188	0xbdf2975c	-0.11845276
189	0xbd5f78fb	-0.054558735
190	0xbd015d6b	-0.03158323
191	0xbdd9c6bf	-0.10633611
192	0xbe84d4e9	-0.25943688
193	0x3d75c955	0.06000646
194	0x3e0a8b7d	0.13529773
195	0x3deaab03	0.11458399
196	0x3d22af44	0.039717928
197	0xbd881083	-0.06643774
198	0x3db95567	0.09049492
199	0xbe521040	-0.20514011
200	0xbe31e5da	-0.17372838
201	0xbe69a691	-0.22817446
202	0xbd78f8fe	-0.060784332
203	0x3dab1fd7	0.08355682
204	0xbda7a49d	-0.08185694
205	0x3dd310a9	0.10305912
206	0xbe478ef2	-0.19488123
207	0x3d41f22b	0.04735009
208	0xbd685186	-0.05671837
209	0xbca7269a	-0.020404149
210	0xbe43d0f1	-0.19122674
211	0x3d000eae	0.031264
212	0xbe04599f	-0.12924813
213	0x3e63ab66	0.22233352
214	0xbddb20c2	-0.106996074
215	0xbe16de28	-0.14733183
216	0x3e99bd8a	0.3002742
217	0x3da06cbe	0.07833241
218	0xbc99666c	-0.018725596
219	0xbd438f43	-0.047744047
220	0x3e2f1d35	0.17100985
221	0x3e3a7322	0.18207982
222	0x3de1c5f7	0.11024087
223	0xbe3158be	-0.17319009
224	0x3e2f3e4d	0.1711361
225	0x3e099d5f	0.13438939
226	0x3e2af3b4	0.16694528
227	0xbdb72027	-0.089416794
228	0x3daa94d5	0.08329169
229	0xbe4c0876	-0.19925103
230	0xbd2d1da9	-0.042264614
231	0xbe27a987	-0.16373263
232	0xbdd3c245	-0.10339788
233	0xbe7c13c6	-0.24616918
234	0x3d8dbfa0	0.06921315
235	0x3d921778	0.071333826
236	0x3d4d0b22	0.050059445
237	0xbe448611	-0.19191767
238	0x3e297ec1	0.16552259
239	0x3e8f6356	0.28005475
240	0x3e60f0af	0.21966814
241	0x3e292f80	0.16522026
242	0xbc217b45	-0.00985605
243	0x3e23a464	0.15980679
244	0x3eab2479	0.33426264
245	0xbd870b2f	-0.0659393
246	0xbe4a73af	-0.19770692
247	0x3ceda3aa	0.029008705
248	0xbe800de7	-0.25010607
249	0xbdec048d	-0.115243055
250	0x3d2ff922	0.0429622
251	0xbdae67f7	-0.085159235
252	0x3e8f2216	0.27955693
253	0xbcbad506	-0.022806656
254	0xbebde832	-0.37091213
255	0xbe3194c5	-0.17341907

W__2828 f4 [1, 384, 6]
0	0x3e218de4	0.15776783
1	0xbd7a918b	-0.061173957
2	0x3db048dd	0.086076476
3	0x3ddadb1c	0.10686323
4	0xbdad3e8d	-0.08459196
5	0x3e4c4cfe	0.19951245
6	0xbe62bcc3	-0.2214232
7	0xbe636a64	-0.22208554
8	0xbe9a4ad0	-0.30135202
9	0xbe89abcc	-0.26888883
10	0xbeacb8bc	-0.3373469
11	0x3d6b924b	0.057512563
12	0xbd6d4613	-0.057928156
13	0xbd84e71e	-0.064893946
14	0x3caca44d	0.021074438
15	0xbd9aa7b3	-0.07551517
16	0xbdc4853d	-0.09595726
17	0x3d2c8548	0.042119294
18	0xbe418546	-0.18898496
19	0xbee0ee4b	-0.43931803
20	0xbee0bc18	-0.43893504
21	0xbeb8a043	-0.3605977
22	0xbe6c8353	-0.23096971
23	0xbcd1f096	-0.025627416
24	0x3d680501	0.056645397
25	0x3ea1199c	0.3146485
26	0x3d9faae7	0.07796269
27	0x3dee2d17	0.11629694
28	0x3e0b5e14	0.13610107
29	0xbe238920	-0.15970278
30	0x3da7e634	0.08198205
31	0xbe656ac7	-0.22404014
32	0xbe851f92	-0.2600065
33	0xbe9f51ed	-0.31117192
34	0xbdbd1f88	-0.0923453
35	0x3d61a6f8	0.055090874
36	0xbcfe97b2	-0.031078193
37	0x3d05a650	0.03262931
38	0xbe0c3203	-0.13690953
39	0x3d1945e1	0.037420157
40	0xbde99392	-0.114051
41	0xbd52e9b7	-0.05149242
42	0xbe1f00cc	-0.15527648
43	0xbe92508a	-0.2857707
44	0xbe926cd5	-0.28598657
45	0xbe9e1e4f	-0.308825
46	0xbe89af00	-0.26891327
47	0xbda71053	-0.081574105
48	0xba8e85f9	-0.0010873667
49	0xbe21630d	-0.15760441
50	0xbe23ea29	-0.16007294
51	0xbdd4d607	-0.10392385
52	0xbe04dd95	-0.12975152
53	0xbcf536fe	-0.029933449
54	0x3ce2d309	0.02768852
55	0x3d89482a	0.06703217
56	0x3c890ed0	0.016730696
57	0x3e663301	0.22480394
58	0x3c5de5dc	0.013543572
59	0x3e0834e4	0.13301426
60	0xbdd6961c	-0.1047785
61	0xbe60330c	-0.21894473
62	0xbecdafc6	-0.40173167
63	0xbeaf05ea	-0.341842
64	0xbe9d6e4d	-0.30748215
65	0xbd392915	-0.045205195
66	0x3c994368	0.0187089
67	0xbe976c40	-0.29574776
68	0xbe499576	-0.19685921
69	0xbebde278	-0.37086844
70	0xbe235eb8	-0.15954101
71	0x3e0dd4af	0.13850664
72	0xbdb6e513	-0.08930411
73	0xbca10ddb	-0.019659927
74	0x3e0982a0	0.13428736
75	0x3daa4219	0.083133884
76	0x3cd70e50	0.026251942
77	0x3dce76af	0.10081231
78	0xbe81ee95	-0.25377336
79	0xbed578d7	-0.41693756
80	0xbebd75e9	-0.3700402
81	0xbeafeb85	-0.34359375
82	0xbea41d82	-0.32053763
83	0x3e16441f	0.14674424
84	0xbe340505	-0.1758004
85	0xbe5ff7b9	-0.21871842
86	0xbe97d9c0	-0.29658318
87	0xbe9ff739	-0.31243303
88	0xbe21d7ed	-0.15805025
89	0x3ab20798	0.0013582585
90	0x3ecd0294	0.4004103
91	0x3ec3a105	0.38208786
92	0x3e8a1b9e	0.26974195
93	0x3eb1c803	0.3472291
94	0x3e575694	0.2102912
95	0x3cf34799	0.029697226
96	0x3e0bd8a7	0.13656865
97	0x3dad26a7	0.08454638
98	0xbd14ecb5	-0.036358554
99	0xbc77b6c5	-0.015119259
100	0x3e402153	0.18762712
101	0x3e0361b9	0.12830247
102	0x3db72ea5	0.089444436
103	0xbc4a0c8f	-0.012332096
104	0xbd8df71d	-0.06931899
105	0xbc8cabb0	-0.01717171
106	0xbdba333b	-0.09091803
107	0xbdb7bb22	-0.089712396
108	0x3e7e69f8	0.24845111
109	0x3d327689	0.043570075
110	0x3dcd195d	0.10014603
111	0x3e61480c	0.2200014
112	0x3cfa000a	0.030517597
113	0xbd65a388	-0.05606416
114	0x3ce8bc0e	0.028409984
115	0xbda3823b	-0.07983824
116	0x3c03d8fe	0.00804734
117	0xbc00daac	-0.007864635
118	0xbd724c0a	-0.059154548
119	0x3d9869eb	0.07442077
120	0x3dfe9827	0.124313645
121	0x3d6c5acc	0.05770378
122	0x3e1d7306	0.15375909
123	0xbd976751	-0.07392753
124	0xbe000c9b	-0.12504809
125	0x3e290d4c	0.16508979
126	0xbd2eb4c9	-0.04265288
127	0xbe9a4274	-0.30128825
128	0xbe63c4e8	-0.22243083
129	0xbe158ff1	-0.1460569
130	0xbe3cddfb	-0.18444054
131	0x3ba84a5c	0.0051358175
132	0xbe12b564	-0.14327008
133	0xbe7f80f4	-0.24951535
134	0xbe10f14d	-0.14154549
135	0xbe0b00a0	-0.13574457
136	0xbe501b49	-0.20322908
137	0xbdf16f42	-0.11788799
138	0x3dc08971	0.09401215
139	0xbe672c34	-0.22575456
140	0xbd1ee1ed	-0.03878968
141	0x3c779fad	0.015113753
142	0x3d872ea0	0.0660069
143	0xbcdb865c	-0.026797466
144	0x3d7d943f	0.061908957
145	0xbe41c483	-0.1892262
146	0x3c8bbece	0.017058756
147	0x3d74f599	0.059804533
148	0xbe587247	-0.21137343
149	0xbe8dd370	-0.27700377
150	0xbc9a29c8	-0.018818751
151	0xbda92fb8	-0.08261055
152	0x3d19ce88	0.03755048
153	0xbdbc8594	-0.092051655
154	0xbd12297a	-0.035684086
155	0x3e07c2b9	0.13257875
156	0x3c9b8c0a	0.018987674
157	0xbe221dde	-0.15831706
158	0xbe1b1d0b	-0.15147798
159	0xbd72cea9	-0.059279118
160	0xbdd9eaa7	-0.106404595
161	0xbe7f4341	-0.24927999
162	0x3ba0905f	0.004900023
163	0xbe2a4e56	-0.16631445
164	0xbe436f13	-0.1908534
165	0xbddb8e50	-0.10720503
166	0xbe08bfde	-0.13354442
167	0x3d501fe3	0.05081166
168	0x3cd7d0b2	0.02634463
169	0x3e704b3a	0.23466197
170	0x3e1691ca	0.14704052
171	0x3e97e62f	0.29667804
172	0xbd4649b0	-0.048410118
173	0xbe252648	-0.16127884
174	0xbdb54ade	-0.088521704
175	0xbe2fd30c	-0.17170352
176	0xbd83ef6c	-0.064421505
177	0xbca9efa6	-0.020744156
178	0xbcd9735b	-0.026544264
179	0x3df76309	0.12079436
180	0xbdc4aa66	-0.096028134
181	0xbdc2b3f1	-0.09506977
182	0xbe560cca	-0.20903316
183	0xbe3ffb13	-0.18748121
184	0xbe83b17e	-0.25721353
185	0x3c3e66ca	0.0116211865
186	0xbe81d022	-0.25354105
187	0xbe941d30	-0.28928518
188	0xbea1c1b1	-0.31593087
189	0xbee331a4	-0.4437381
190	0xbe0bbbc0	-0.1364584
191	0x3ce1f379	0.027581917
192	0xbe1e5a66	-0.15464172
193	0x3cd43a60	0.025906742
194	0xbde2a810	-0.11067212
195	0xbd411245	-0.047136564
196	0xbe477d56	-0.19481406
197	0xbe156aa1	-0.14591457
198	0xbe25b22f	-0.16181253
199	0xbd526336	-0.051364146
200	0xbdc5482a	-0.09632905
201	0xbd3b0945	-0.045663137
202	0xbe51893b	-0.20462506
203	0xbe263eea	-0.16234937
204	0x3e8b62e2	0.2722388
205	0x3e231c32	0.15928724
206	0x3e1dc1f2	0.15406016
207	0x3e063e36	0.13109669
208	0x3e523b88	0.20530522
209	0x3e7d98e7	0.24765359
210	0xbdf4aa58	-0.11946553
211	0xbe073470	-0.13203597
212	0xbdb71e8f	-0.089413755
213	0x3cc5070a	0.024051208
214	0x3dc1ec5c	0.0946891
215	0xbe180853	-0.14846925
216	0x3d9bfcbd	0.076165654
217	0xbd87276e	-0.065993175
218	0xbd205af6	-0.039149247
219	0xbc8ceb48	-0.017202035
220	0xbcc9ebac	-0.02464851
221	0x3db5bcfc	0.088739365
222	0x3e219db0	0.1578281
223	0x3e931c47	0.2873251
224	0x3e6bf7ef	0.23043798
225	0x3e33fd5e	0.1757712
226	0x3e10546e	0.14094707
227	0x3dee5243	0.11636784
228	0xbdd67306	-0.10471158
229	0xbe894871	-0.2681308
230	0xbecd0d28	-0.400491
231	0xbeec2e76	-0.46129197
232	0xbecb2b35	-0.39681402
233	0xbdaacd50	-0.083399415
234	0x3e06fcd6	0.13182387
235	0x3e451e42	0.19249824
236	0x3e20d0d8	0.15704668
237	0x3e801496	0.25015706
238	0xbc9ea016	-0.019363444
239	0xbe4fe76e	-0.20303127
240	0x3df48a86	0.11940484
241	0x3e4610ea	0.1934239
242	0x3dfcb636	0.123394415
243	0x3e30d9e0	0.17270613
244	0xbcd10a8b	-0.025517723
245	0xbdf1d5d8	-0.118083656
246	0xbd024e12	-0.031812735
247	0xbd7e11fd	-0.062028874
248	0xbc98e1a6	-0.018662285
249	0xbdfa28b0	-0.12214792
250	0xbd9d4920	-0.07679963
251	0xbd2e165a	-0.042501785
252	0x3e64888c	0.22317713
253	0x3e4b5fd0	0.19860768
254	0x3d6582b2	0.056032844
255	0x3db79358	0.089636505

R__2856 f4 [1, 96, 32]
0	0x3cf0cd10	0.029394656
1	0x3d5e3d06	0.054257415
2	0xbe7b40f1	-0.24536492
3	0xbe21a57e	-0.15785787
4	0xbdd07cff	-0.10180091
5	0x3e22564d	0.15853234
6	0xbd433018	-0.047653288
7	0xbddfdc22	-0.10930659
8	0x3d91ee33	0.07125511
9	0xbded2c45	-0.11580709
10	0xbdc39cc4	-0.09551385
11	0x3dd1fad7	0.10252922
12	0x3d27b850	0.04094726
13	0xbc9f80ed	-0.019470656
14	0x3d0970b8	0.033554763
15	0x3d3c2086	0.045929454
16	0x3cfd98b3	0.030956602
17	0x3d24830a	0.04016403
18	0x3e001d4b	0.12511174
19	0x3db1ca21	0.08681131
20	0x3d32eb02	0.043681152
21	0x3dd4754c	0.10373935
22	0xbd8648fc	-0.065568894
23	0x3cf1e3fe	0.02952766
24	0x3d708da2	0.05872882
25	0x3dd0131d	0.101598956
26	0xbe308d36	-0.17241368
27	0x3e6678c8	0.22507012
28	0x3de94159	0.11389417
29	0x3c88f717	0.016719384
30	0x3c48d886	0.012258654
31	0xbe7a11bd	-0.24420829
32	0x3e8fff81	0.28124622
33	0x3d714865	0.05890693
34	0xbd0be391	-0.03415257
35	0x3dea314f	0.11435186
36	0x3d2fac81	0.042889122
37	0xbdf427b3	-0.119216345
38	0xbdaa7ffc	-0.08325192
39	0xbea6312c	-0.3245939
40	0xbd953f37	-0.07287448
41	0xbe508789	-0.20364203
42	0x3be82d42	0.0070854733
43	0xbd7f8f7e	-0.062392704
44	0xbdb77688	-0.08958155
45	0x3e101328	0.14069808
46	0xbbcb5961	-0.006205723
47	0x3dc51e96	0.096249744
48	0xbe5879af	-0.21140169
49	0x3d12ced4	0.035841778
50	0xbe24a04e	-0.16076776
51	0x3bd111f7	0.0063803154
52	0xbe0354e0	-0.12825346
53	0x3cc5b7b9	0.024135457
54	0x3d5d6a26	0.05405631
55	0xbe4f748d	-0.20259304
56	0x3d4ebd4e	0.050473504
57	0x3e15f830	0.14645457
58	0x3d524527	0.05133548
59	0xbdc55f3b	-0.096373044
60	0xbd11c2b6	-0.03558608
61	0xbe36f645	-0.17867382
62	0xbc9593d8	-0.018258974
63	0x3e176c7d	0.14787479
64	0xbd496700	-0.049170494
65	0xbbafbc52	-0.0053630257
66	0x3d108554	0.0352834
67	0xbdb0436b	-0.08606609
68	0x3d8a34ea	0.06748374
69	0xbd9fdc90	-0.07805741
70	0xbd660560	-0.05615747
71	0xba16bcca	-0.00057501777
72	0x3cc84613	0.024447476
73	0x3cd0e4f8	0.025499806
74	0x3d76c666	0.0602478
75	0x3c569341	0.0130966315
76	0xbe90ffef	-0.28320262
77	0xbb52b4b4	-0.0032151164
78	0x3d6956a9	0.05696741
79	0x3dbcda58	0.09221333
80	0xbbe85f29	-0.007091422
81	0x3c5276bf	0.012845694
82	0xbd2ac565	-0.041692156
83	0xbdf4a240	-0.11945009
84	0x3de01ab6	0.10942595
85	0x3e3a7fe7	0.18212853
86	0x3c4d50dd	0.012531486
87	0xbd0cf2b3	-0.034411144
88	0xbe476e4a	-0.19475666
89	0xbd9f11c0	-0.077670574
90	0x3d68e57c	0.05685948
91	0x3d4ad60d	0.04952054
92	0x3d97c0ff	0.07409858
93	0xbe23202a	-0.15930238
94	0xbdcbe9b3	-0.09956684
95	0xbd55a297	-0.05215701
96	0x3e06fbe5	0.13182028
97	0xbc003cda	-0.007827008
98	0x3e3796b4	0.17928582
99	0x3dd400d4	0.103517205
100	0x3e6678c5	0.22507007
101	0x3db3505a	0.0875556
102	0xbc9a653c	-0.0188471
103	0x3e075420	0.13215685
104	0x3d0c5c31	0.034267608
105	0xbe0877e2	-0.13326982
106	0x3db6cee2	0.089261785
107	0xbb311fe6	-0.002702707
108	0x3e7b15db	0.24520056
109	0x3db2f058	0.08737248
110	0xbd50f09a	-0.051010706
111	0xbe1a4f41	-0.15069295
112	0xbd470041	-0.048584227
113	0x3d81b047	0.0633245
114	0xbd9fc1ec	-0.078006595
115	0xbd60b98e	-0.05486446
116	0x3dbd3d2d	0.09240184
117	0xbd1024e9	-0.03519145
118	0x3d1f9808	0.038963348
119	0xbdbed2d6	-0.093175575
120	0xbbff75f5	-0.007796044
121	0xbd8b8c19	-0.06813831
122	0x3d05352e	0.03252142
123	0xbd976eaa	-0.07394154
124	0x3e1d74da	0.15376607
125	0xbc2127fe	-0.009836195
126	0xbd8938d0	-0.06700289
127	0x3dc37927	0.09544592
128	0x3e13bbba	0.14427081
129	0xbda02b26	-0.0782073
130	0xbdd55f43	-0.1041856
131	0x3c238f85	0.009982948
132	0xbd97bcaa	-0.07409032
133	0x3decb274	0.11557475
134	0x3d95eb47	0.07320266
135	0xbd51b81c	-0.05120097
136	0x3cadf8b1	0.02123675
137	0xbdf8e31f	-0.12152695
138	0xbd91002c	-0.07080111
139	0xbe42b86a	-0.19015661
140	0xbdf0ce4e	-0.117580995
141	0x3d910da3	0.07082679
142	0x3e36edbe	0.17864129
143	0x3e674dbe	0.2258825
144	0xbd0a7521	-0.03380311
145	0x3dec256b	0.115305744
146	0xbd79734a	-0.060900964
147	0x3c702fce	0.014659835
148	0xbe259c38	-0.16172874
149	0x3e3a5573	0.18196659
150	0x3dd9b2ae	0.106297836
151	0x3d04ca2c	0.03241937
152	0xbe162e7e	-0.14666173
153	0xbe0b8510	-0.13624978
154	0xbdf4bc65	-0.11949996
155	0xbcac246d	-0.021013463
156	0xbc055604	-0.0081381835
157	0x3cb3311e	0.021874007
158	0xbdc377f1	-0.095443614
159	0x3cdcaf43	0.02693904
160	0xbd0dbe62	-0.03460539
161	0x3d078a9c	0.033091173
162	0x3a9de930	0.0012047645
163	0x3d30dfc3	0.043182146
164	0xbded17d1	-0.11576808
165	0xbbb53d42	-0.005530984
166	0x3e811c4e	0.25216907
167	0xbba22eb9	-0.0049494174
168	0x3d0cbbbd	0.03435873
169	0x3dc33ffe	0.0953369
170	0x3e004f9e	0.12530372
171	0x3df413f7	0.119178705
172	0x3d3b6795	0.04575308
173	0x3db5913f	0.08865594
174	0xbc5393aa	-0.012913624
175	0x3c98c46a	0.018648345
176	0x3e6e5840	0.23275852
177	0xbe0c9067	-0.1372696
178	0x3ccf589b	0.025310805
179	0x3ea964fe	0.33084863
180	0xbcdbebb5	-0.026845792
181	0xbd5a7182	-0.053330906
182	0xbea2575c	-0.31707275
183	0xbed022ab	-0.4065145
184	0xbc022916	-0.007944366
185	0xbdeff8bc	-0.11717364
186	0xbdd5cfc4	-0.10440019
187	0xbdd2d16a	-0.10293849
188	0x3dc2e906	0.09517102
189	0x3dabe656	0.083935425
190	0xbd36cc8d	-0.04462867
191	0x3b8ee91a	0.004361284
192	0xbd1e99e5	-0.038720984
193	0x3da35ffa	0.079772905
194	0x3d22c50c	0.0397387
195	0x3e412a9c	0.1886391
196	0xbcfe8e6a	-0.031073768
197	0x3e0a7d12	0.13524273
198	0x3e388c9a	0.18022385
199	0xbeb08c2b	-0.3448194
200	0x3e6389d5	0.22220547
201	0xbde0d9a7	-0.10979014
202	0x3d0f229b	0.03494511
203	0xbe4d152d	-0.20027609
204	0xbe502d8a	-0.20329872
205	0xbc093976	-0.008375516
206	0x3d9246b2	0.0714239
207	0x3de33f80	0.11096096
208	0xbcdef1ea	-0.027214963
209	0x3cdbac29	0.02681549
210	0xbe095d14	-0.13414413
211	0x3c80c5db	0.015719345
212	0x3d83c10a	0.06433304
213	0x3dbec760	0.093153715
214	0x3e03f0a9	0.12884773
215	0xbd602bd3	-0.054729294
216	0xbbfdfcfe	-0.0077511063
217	0x3e178948	0.14798462
218	0xbdad37e9	-0.0845793
219	0x3d470890	0.04859215
220	0xbe27d7ac	-0.16390866
221	0xbdf5cc00	-0.120018005
222	0x3db7f9c6	0.089831874
223	0x3d9f8f0c	0.07790956
224	0xbe21ae6a	-0.1578919
225	0xbe5bbee9	-0.21459545
226	0x3d042bec	0.03226845
227	0x3d30bf63	0.04315127
228	0x3d21fac1	0.03954578
229	0xbcc48a2b	-0.023991665
230	0xbcd03824	-0.025417395
231	0xbd95577f	-0.07292079
232	0x3df11ff5	0.117736734
233	0xbc43747b	-0.011929627
234	0xbd5f554e	-0.054524712
235	0x3e472c2e	0.19450447
236	0x3e466dbf	0.19377802
237	0x3ddc2ae1	0.10750366
238	0x3e17bf68	0.1481911
239	0xbe464a08	-0.19364178
240	0xbcf8017a	-0.030274142
241	0xbe897f12	-0.2685476
242	0x3d007f92	0.03137166
243	0x3e12fa49	0.14353289
244	0xbdc6d3ed	-0.097083904
245	0xbab2ff9d	-0.0013656501
246	0xbe2610d7	-0.16217361
247	0xbda59592	-0.08085169
248	0xbdc3712e	-0.09543072
249	0x3d1579e2	0.03649319
250	0xbd8bb5e2	-0.06821801
251	0xbe166b5f	-0.14689396
252	0x3e13f717	0.14449726
253	0x3d17603b	0.036957007
254	0xbe346186	-0.17615327
255	0x3e04db53	0.1297429

R__2842 f4 [1, 192, 64]
0	0x3db0f184	0.086398154
1	0x3d95f1a6	0.073214814
2	0xbd984cff	-0.07436561
3	0xbe0f0b05	-0.13969047
4	0x3e6f4662	0.23366693
5	0xbe5d65dd	-0.21620889
6	0x3e620d5c	0.22075409
7	0x3e60a8f6	0.21939453
8	0x3e7c7bed	0.24656649
9	0xbd176df1	-0.036970083
10	0x3e1060f7	0.14099489
11	0x3dd53845	0.10411123
12	0xbd1277a0	-0.035758615
13	0x3d897806	0.06712346
14	0x3e974887	0.2954752
15	0x3e49cd79	0.19707288
16	0xbde82fa3	-0.11337211
17	0x3dd1326f	0.102146976
18	0xbe5fb0c7	-0.21844779
19	0xbe6363e1	-0.2220607
20	0xbccfb51b	-0.025354913
21	0x3e1f10bf	0.15533732
22	0x3e0bb343	0.13642602
23	0xbdf5467a	-0.11976333
24	0xbe583079	-0.21112241
25	0xbd39dafe	-0.045374863
26	0xbe83dcc2	-0.25754362
27	0xbe76befe	-0.24096295
28	0x3dce9791	0.10087503
29	0x3e810aef	0.25203654
30	0x3e221baf	0.15830873
31	0x3e3aa11b	0.1822552
32	0xbdcd4f0a	-0.10024841
33	0xbe9c77ef	-0.30560252
34	0xbe3fca47	-0.18729506
35	0xbe7fc82d	-0.24978705
36	0x3dac71c5	0.08420137
37	0xbe142127	-0.14465772
38	0x3e4f90fc	0.20270151
39	0x3e32e375	0.1746958
40	0x3dd5bed4	0.10436788
41	0x3dbbe1ab	0.09173902
42	0x3e0697cd	0.13143845
43	0xbc86f226	-0.016472887
44	0x3e388be6	0.18022117
45	0x3ca2eeff	0.019889353
46	0x3e81beb2	0.253408
47	0x3d205159	0.03914008
48	0x3eae1bd0	0.34005594
49	0xbd1aff49	-0.037841115
50	0xbe1a886b	-0.15091102
51	0x3dab77c2	0.08372451
52	0xbe612813	-0.21987943
53	0x3de4792b	0.111559235
54	0x3e71f325	0.23627909
55	0xbda2fbc1	-0.079581745
56	0x3e02bb7d	0.12766834
57	0xbe28cc64	-0.16484219
58	0xbda44b4a	-0.08022173
59	0x3e099975	0.13437445
60	0xbe79cf69	-0.24395527
61	0xbc704789	-0.014665493
62	0xbde9b5c3	-0.114116214
63	0xbda703d7	-0.08155029
64	0x3e7fc8c3	0.24978928
65	0x3e127186	0.14301118
66	0xbde20ce9	-0.11037619
67	0xbd288bc9	-0.041148935
68	0x3e2abd29	0.16673721
69	0xbe53936c	-0.20661706
70	0x3eb495c5	0.35270515
71	0x3e5a9827	0.21347104
72	0x3e7c896b	0.24661796
73	0xbe0a6bef	-0.13517736
74	0xbd21d9da	-0.0395144
75	0xbd04d3a6	-0.032428406
76	0xbcec31db	-0.028832367
77	0x3dbbcbaa	0.09169705
78	0x3e72ad99	0.23699035
79	0x3e8d7d9a	0.2763489
80	0xbe6e94b7	-0.23298918
81	0x3e838831	0.25689843
82	0xbe30d9ff	-0.17270659
83	0xbe4a910a	-0.1978189
84	0x3d228fe0	0.03968799
85	0x3ea2343d	0.3168048
86	0x3dceb132	0.10092391
87	0xbe552426	-0.20814571
88	0xbe138748	-0.14407074
89	0x3df94497	0.121712856
90	0xbea5dc24	-0.32394516
91	0xbe3bda4e	-0.18344995
92	0x3d1448f2	0.03620238
93	0x3e7b5f6c	0.2454812
94	0x3e54d348	0.20783722
95	0x3e83aa15	0.257157
96	0xbe8e0e4d	-0.27745286
97	0xbde13df5	-0.109981455
98	0xbe3cec31	-0.18449475
99	0xbe1ff734	-0.15621644
100	0x3cc63bed	0.024198497
101	0x3d53832d	0.05163877
102	0x3df7a61c	0.1209223
103	0x3bc0bd3d	0.005881934
104	0x3e0f8cb2	0.14018515
105	0x3d8f0de6	0.06985073
106	0x3dcd3a72	0.10020913
107	0xbd37610b	-0.04477028
108	0x3e25ba18	0.1618427
109	0xbdc84504	-0.09778789
110	0x3e2402cd	0.16016693
111	0xbe624961	-0.22098304
112	0x3e97e18b	0.29664263
113	0x3de14731	0.10999907
114	0xbe3b6c8c	-0.18303126
115	0x3d17f475	0.037098367
116	0xbe0b4d8a	-0.13603798
117	0x3e1684e3	0.1469913
118	0xbd0370a1	-0.032089833
119	0xbe4cc424	-0.19996697
120	0x3eb6c3dd	0.35696307
121	0xbe34ae9f	-0.17644738
122	0xbe5efacf	-0.21775363
123	0x3c833e5e	0.01602095
124	0xbe45f953	-0.19333391
125	0xbd9da48e	-0.07697402
126	0xbd47d80f	-0.048790034
127	0xbe07f562	-0.132772
128	0x3e86f017	0.2635505
129	0x3e531672	0.20614031
130	0xbe2f217c	-0.17102617
131	0xbde814cd	-0.113320924
132	0x3e56e971	0.20987488
133	0xbe58dcbc	-0.21177953
134	0x3e08a60f	0.13344596
135	0x3e2316ed	0.15926714
136	0x3e9fed2f	0.31235644
137	0xbe991fe0	-0.2990713
138	0x3c1e3740	0.009656727
139	0x3a302ffa	0.0006721016
140	0xbde8bc24	-0.1136401
141	0xbc72d62b	-0.014821569
142	0x3d1e4e80	0.038649082
143	0x3e3e99eb	0.18613403
144	0xbda34a7c	-0.07973191
145	0x3e0f1c6e	0.13975689
146	0xbe68c00d	-0.22729512
147	0xbe518696	-0.20461497
148	0x3deb0508	0.11475569
149	0x3e338a70	0.17533278
150	0x3d90d0b9	0.07071061
151	0xbe85a4d0	-0.26102304
152	0xbd8df709	-0.06931884
153	0x3df483a9	0.11939175
154	0xbe44ecdc	-0.1923098
155	0xbe095299	-0.13410415
156	0x3dd5ef29	0.10446007
157	0x3e1e8d63	0.15483622
158	0x3dca94e0	0.09891677
159	0x3e379d4e	0.179311
160	0xbdaccae2	-0.08437134
161	0xbdd0301f	-0.10165428
162	0xbd58ad66	-0.05289974
163	0xbdeb9313	-0.115026616
164	0xbddaa0da	-0.10675211
165	0xbe261681	-0.16219522
166	0x3e6bbd34	0.23021394
167	0x3e00d640	0.1258173
168	0x3d8e265f	0.069409125
169	0xbdc8eb31	-0.09810484
170	0x3e2a542a	0.16633669
171	0xbd26d11b	-0.040726762
172	0x3b7ec108	0.003887238
173	0x3cff461d	0.031161362
174	0x3dfbcfbe	0.12295483
175	0xbdb551f3	-0.08853521
176	0x3e258add	0.16166253
177	0x3d107364	0.035266295
178	0xbe16664a	-0.14687458
179	0x3e046167	0.12927781
180	0xbd92f6ec	-0.07176003
181	0x3df750d2	0.12075962
182	0x3e53fd37	0.20702063
183	0xbd9d74a6	-0.076882645
184	0x3e2b507f	0.16729926
185	0xbca3d6c9	-0.019999878
186	0xbcdf2728	-0.02724035
187	0x3e27472f	0.16335748
188	0xbe6ab2b9	-0.2291974
189	0xbdada026	-0.084778115
190	0xbd6244e2	-0.055241473
191	0xbdb867d9	-0.09004182
192	0x3cb377e3	0.021907752
193	0x3d2e9c7b	0.0426297
194	0xbd88f0f6	-0.06686585
195	0xbe154ec0	-0.14580822
196	0x3e53a5e5	0.20668752
197	0xbd1702c8	-0.036867887
198	0x3dc0ad81	0.09408093
199	0x3e0a50e3	0.13507418
200	0x3de05c80	0.10955143
201	0xbdec5894	-0.115403324
202	0x3e3f38bc	0.18673986
203	0xbdae729f	-0.08517956
204	0xbe2b4f35	-0.16729434
205	0xbd22e977	-0.03977343
206	0x3e409671	0.18807389
207	0x3c945f35	0.018111805
208	0xbe18a4e1	-0.14906646
209	0x3daf9c31	0.08574713
210	0xbdbf6fa0	-0.09347463
211	0xbe1b9221	-0.15192463
212	0x3d02c0a5	0.031922
213	0x3d8f9750	0.070112824
214	0x3d7eace3	0.062176596
215	0xbdd97c7b	-0.10619446
216	0x3d925c97	0.07146566
217	0xbdd73390	-0.10507882
218	0xbdb336f5	-0.087507166
219	0xbdf238c6	-0.11827235
220	0x3cf97033	0.030449009
221	0x3e22608e	0.15857145
222	0x3e10d9c4	0.14145571
223	0x3e4213ce	0.18952867
224	0xbe288df8	-0.16460407
225	0xbe4dead3	-0.2010911
226	0xbe6ed5b3	-0.23323707
227	0xbe1caa5d	-0.15299363
228	0xbe2bddda	-0.16783848
229	0xbd2bebbc	-0.04197286
230	0x3d9fbf4a	0.07800157
231	0x3e127a8b	0.14304559
232	0x3da64785	0.0811911
233	0x3df9c59c	0.12195894
234	0xbc5d184b	-0.013494561
235	0x3e473fe7	0.1945797
236	0xbd891ea0	-0.066952944
237	0xbdee5d70	-0.116389155
238	0x3d9ec480	0.07752323
239	0xbdaca64c	-0.08430156
240	0x3e39d8ad	0.18149062
241	0x3c80a4c0	0.015703559
242	0xbd86fb4f	-0.06590902
243	0x3e4d965a	0.20076886
244	0xbe28b52b	-0.1647536
245	0x3dba1446	0.09085898
246	0x3c181045	0.009281223
247	0x3d53dddf	0.051725265
248	0x3d81a1ec	0.06329712
249	0xbaf0eea2	-0.0018381665
250	0x3dbee912	0.093217984
251	0xbcd8bfb4	-0.026458599
252	0xbe3bcf3f	-0.18340777
253	0x3dfb0b28	0.12257987
254	0xbc136189	-0.008995422
255	0xbe85a82b	-0.26104864

R__2829 f4 [1, 384, 128]
0	0xbd9673b8	-0.0734629
1	0xbd5a1179	-0.05323932
2	0x3cdde331	0.027085872
3	0xbd255f2e	-0.040373974
4	0x3dabd8df	0.08390974
5	0x3e761b95	0.24033959
6	0xbb1326cd	-0.0022453547
7	0x3a7e2fa2	0.0009696429
8	0x3cc28a08	0.023747459
9	0xbdc8be95	-0.09801976
10	0x3c8f9a87	0.017529739
11	0x3dbf2d40	0.09334803
12	0x3ca93ce8	0.020658925
13	0x3dc4bc5f	0.096062414
14	0x3cc1b8db	0.023647716
15	0x3d6176ff	0.055045124
16	0x3d302252	0.04300148
17	0x3dc62fdf	0.096770994
18	0xbda351ff	-0.07974624
19	0x3d5ceb8b	0.05393557
20	0x3c187a8e	0.009306563
21	0x3e8c003b	0.27343926
22	0x3ce57a39	0.028012382
23	0x3e1854a1	0.14876033
24	0x3c49a0b7	0.012306384
25	0xbd930083	-0.07177832
26	0x3b487465	0.0030586955
27	0x3dd7b23e	0.10532044
28	0xbdcb07aa	-0.09913571
29	0xbd741969	-0.059594546
30	0x3cd3bbcb	0.025846383
31	0xbd9658a7	-0.07341128
32	0x3e1b8e8d	0.15191098
33	0x3d7b9516	0.061421476
34	0xbb4d2934	-0.0031305077
35	0xbcbb9e50	-0.022902638
36	0x3c85794a	0.016293187
37	0xbd4fb609	-0.05071071
38	0x3c844fd3	0.016151344
39	0xbb48d43a	-0.0030644075
40	0xbe12d997	-0.14340816
41	0x3e62194e	0.22079965
42	0x3d1f7e8e	0.03893905
43	0x3e4e9ff0	0.20178199
44	0x3e0eadf5	0.13933547
45	0x3ca84e66	0.020545196
46	0xbc967470	-0.018366069
47	0xbbe5a223	-0.0070078536
48	0xbc239e32	-0.009986447
49	0xbd9400c3	-0.07226708
50	0x3d884bc8	0.06655079
51	0xba81f6e1	-0.0009915495
52	0x3e1dfbab	0.15428035
53	0xbdca7c48	-0.09886986
54	0x3e016ba1	0.12638713
55	0x3d3761cf	0.044771012
56	0xbe211a1d	-0.15732618
57	0x3e10c439	0.14137353
58	0x3e0df5d1	0.13863303
59	0x3d6fea64	0.05857314
60	0x3d797b8e	0.060908847
61	0x3c43f5a1	0.011960418
62	0x3c97e2be	0.018540736
63	0x3e290ad6	0.1650804
64	0x3e2a4d5f	0.16631077
65	0xbdc38e66	-0.09548645
66	0x3c9ea923	0.01936776
67	0xbd7d3aeb	-0.061823767
68	0x3dd2af15	0.102873005
69	0x3d603442	0.054737337
70	0xbbfcba6e	-0.007712654
71	0x3db41f88	0.087950766
72	0xbdc816b0	-0.09769952
73	0x3d72c021	0.05926526
74	0xbcf74fb2	-0.030189369
75	0xbdc011a4	-0.09378365
76	0x3d0e66fc	0.034766182
77	0x3d97964a	0.07401712
78	0x3da77f7e	0.08178614
79	0x3da8103b	0.08206221
80	0xbd902697	-0.070386104
81	0xbce4bbb4	-0.027921535
82	0x3d644614	0.055730894
83	0xbd967488	-0.07346445
84	0xbb54cefa	-0.0032472
85	0xbdd84578	-0.10560125
86	0xbe1161d9	-0.14197482
87	0x3dd64722	0.10462786
88	0xbd738fd8	-0.059463352
89	0xbd219869	-0.03945199
90	0x3dbf0a4e	0.09328137
91	0xbdd9d7af	-0.106368415
92	0x3d7839c1	0.060601953
93	0xbd33dee2	-0.04391373
94	0x3e59d9f3	0.21274547
95	0x3de13304	0.109960586
96	0xbd8211df	-0.06351065
97	0xbdc7ebf0	-0.097617984
98	0xbdef01c1	-0.116702564
99	0x3dcc64bd	0.09980152
100	0xbd8cbd2c	-0.06872019
101	0x3dd2eb48	0.102987826
102	0x3d6a35b2	0.057180114
103	0x3d3f1d8f	0.04665905
104	0x3e235b8d	0.15952893
105	0x3d7e6d75	0.062116105
106	0x3d26d89f	0.04073393
107	0x3d7b0b05	0.061289806
108	0x3ce51bf9	0.02796744
109	0x3cf9f4b2	0.030512188
110	0x3daf5738	0.085615575
111	0x3dc2f00d	0.09518442
112	0xbd8a4674	-0.06751719
113	0x3da8ead1	0.08247913
114	0x3dd3b1d2	0.10336651
115	0x3dda5112	0.10659994
116	0xbdaf6085	-0.085633315
117	0xbe01d130	-0.12677455
118	0x3d4cd4c7	0.050007608
119	0x3e12f1ae	0.14350006
120	0x3d687af7	0.056757893
121	0x3dea7bdb	0.11449405
122	0xbcdecf12	-0.027198348
123	0xbd6d9770	-0.05800575
124	0xbd3a0f11	-0.045424525
125	0xbd9cf90f	-0.07664692
126	0x3d993d22	0.07482363
127	0xbd27bcfd	-0.040951718
128	0x3e7fdda8	0.24986899
129	0x3df2f7b0	0.11863649
130	0xbbc360b6	-0.0059624566
131	0x3dc5e5d7	0.09662979
132	0x3e3c6105	0.18396385
133	0x3c50d7a7	0.012746728
134	0xbe3162ed	-0.17322893
135	0x3d691325	0.056903023
136	0xbdac120d	-0.084018804
137	0xbcc3108d	-0.023811603
138	0x3ccb021a	0.024781276
139	0xbc873a3b	-0.016507259
140	0xbd8ab67a	-0.06773086
141	0xbd9c9ec5	-0.076474704
142	0x3e06ff50	0.13183331
143	0x3d94f170	0.07272613
144	0x3e00c25a	0.12574139
145	0xbe0ae3b0	-0.13563418
146	0x3e4578f5	0.19284423
147	0xbcfa8e98	-0.030585572
148	0xbe17f796	-0.1484054
149	0xbe1ff11c	-0.1561932
150	0x3e0abc4c	0.13548392
151	0xbe5745bd	-0.21022697
152	0xbd966e71	-0.07345284
153	0xbdeb73cf	-0.11496698
154	0x3e48a593	0.19594412
155	0x3cb66328	0.022264078
156	0x3e1f466b	0.15554206
157	0x3c9aea48	0.018910542
158	0xbe257e41	-0.16161443
159	0xbdfcae50	-0.12337935
160	0xbd3b2059	-0.045685146
161	0x3bca6993	0.006177136
162	0xbdebf324	-0.11520985
163	0x3dbc7fa9	0.09204037
164	0xbda89b34	-0.08232728
165	0x3e36a06d	0.17834635
166	0xbe490af2	-0.19633082
167	0xbe4b70df	-0.19867276
168	0x3e195fb1	0.1497791
169	0x3e0fe6d4	0.14052898
170	0x3e09db1e	0.13462493
171	0xbe58a4e7	-0.21156655
172	0xbd9df414	-0.0771257
173	0x3e88babf	0.26704976
174	0xbe9a0c11	-0.3008733
175	0x3e8429f6	0.25813264
176	0x3d44b34b	0.04802255
177	0x3e801990	0.25019503
178	0xbd209d3b	-0.039212447
179	0x3e48a2ed	0.19593401
180	0x3e6152cc	0.22004241
181	0xbdbed8ce	-0.09318696
182	0xbdf84034	-0.12121621
183	0xbdfaf7f0	-0.122543216
184	0xbd75426b	-0.059877794
185	0xbd8384f7	-0.064218454
186	0xbe6e4e9b	-0.23272173
187	0xbe2d8111	-0.16943766
188	0xbe1b71dc	-0.15180153
189	0xbd9973ff	-0.074928276
190	0xbd83d1ac	-0.06436476
191	0xbe62390a	-0.22092071
192	0xbe208620	-0.15676165
193	0x3a595e3e	0.0008291936
194	0x3e6af0d5	0.22943433
195	0x3e56be4d	0.20971031
196	0x3e342406	0.17591867
197	0xbcb5520e	-0.022133853
198	0xbe03764e	-0.12838098
199	0xbdbc3707	-0.09190183
200	0xbe142180	-0.14465904
201	0xbdb27b59	-0.08714933
202	0xbe682860	-0.22671652
203	0xbe4a97fe	-0.19784543
204	0xbdcb5df9	-0.09930033
205	0xbde63fef	-0.11242663
206	0x3d236364	0.03988971
207	0xbda2ffed	-0.0795897
208	0x3b2c70f5	0.0026312445
209	0xbc950e5e	-0.018195327
210	0xbe42130c	-0.18952578
211	0x3d98ad2f	0.07454907
212	0xbe1f2e5a	-0.15545025
213	0x3eaddfa1	0.33959678
214	0xbde1d60d	-0.11027155
215	0xbda7fb00	-0.08202171
216	0x3deca6fc	0.11555287
217	0x3d1c9d38	0.038235873
218	0xbe30ef5e	-0.17278811
219	0xbdde6680	-0.10859394
220	0x3e1339a0	0.14377451
221	0x3e184789	0.14871038
222	0xbba4d9ca	-0.0050308453
223	0xbe23134e	-0.15925333
224	0x3e4dc609	0.20095076
225	0x3e85eb32	0.26156002
226	0x3dd6229a	0.104558185
227	0xbd8685fd	-0.06568525
228	0x3d99b677	0.075055055
229	0xbe9869ca	-0.2976821
230	0xbe2ebe9a	-0.17064896
231	0xbe2185a0	-0.1577363
232	0xbd94d6b3	-0.07267513
233	0xbde591f3	-0.11209478
234	0x3d5d83b9	0.0540807
235	0x3d47340b	0.048633616
236	0x3e5923e9	0.21205105
237	0xbe1d05f3	-0.153343
238	0x3e396b1b	0.18107264
239	0x3dc4deb6	0.09612791
240	0x3e5250dc	0.20538658
241	0x3c634450	0.013871267
242	0x3d86d6e8	0.06583959
243	0x3ea37a00	0.31929016
244	0x3dad769b	0.08469888
245	0x3c44e4ec	0.01201747
246	0xbe5a1cd0	-0.21300054
247	0x3dbbc24e	0.0916792
248	0xbe6a974e	-0.2290928
249	0xbd6b127c	-0.057390675
250	0xbd123d4b	-0.035702985
251	0xbbb32428	-0.0054669566
252	0x3e0dd46e	0.13850567
253	0xbdef5ea4	-0.11687973
254	0xbebcde59	-0.36888388
255	0xbe959217	-0.2921302

GRU/quant_dense_41/LastValueQuant/FakeQuantWithMinMaxVars__2817 f4 [32, 1]
0	0xbe5d0eaa	-0.21587625
1	0xbe97c54b	-0.2964271
2	0x3e2b911d	0.16754575
3	0x3ed1826f	0.40919825
4	0xbeb3d0b4	-0.35120165
5	0x3d45f635	0.048330504
6	0x3e83f979	0.2577627
7	0x3e1e5e91	0.15465762
8	0x3eba69fa	0.3640898
9	0xbe0ddf62	-0.13854745
10	0x3dcc8f7b	0.09988304
11	0xbeb57706	-0.3544237
12	0xbe4fdc1e	-0.20298812
13	0xbe357706	-0.17721185
14	0xbe961ef9	-0.29320505
15	0xbe1b11ee	-0.15143558
16	0xbe74271f	-0.23843049
17	0x3e7ac065	0.24487455
18	0xbe03f979	-0.12888135
19	0xbe8c3910	-0.27387285
20	0x3d38c3a9	0.04510847
21	0xbe567564	-0.20943218
22	0x3cd328c1	0.025776269
23	0x3d5328c1	0.051552538
24	0xbd912c05	-0.07088474
25	0x3eab911d	0.3350915
26	0xbea69e28	-0.3254254
27	0x3d6d8dd9	0.057996605
28	0x3e112c05	0.14176948
29	0xbd03f979	-0.032220338
30	0xbb5328c1	-0.0032220336
31	0xbeab911d	-0.3350915

GRU/quant_dense_40/LastValueQuant/FakeQuantWithMinMaxVars__2816 f4 [32, 32]
0	0x3c9fbad5	0.019498268
1	0x3e9c66f1	0.30547288
2	0xbe26629e	-0.16248557
3	0x3c9fbad5	0.019498268
4	0x3e81c7cd	0.25347748
5	0xbe26629e	-0.16248557
6	0x3dc101c1	0.09424163
7	0xbda6629e	-0.081242785
8	0x3cba59f8	0.022747979
9	0xbc54f91c	-0.012998845
10	0x3e9abcfe	0.30222315
11	0xbe6f9840	-0.23397923
12	0xbe5ef4c9	-0.21773066
13	0x3d126b43	0.035746824
14	0xbe3a59f8	-0.18198383
15	0xbd7ce7d1	-0.061744515
16	0x3e51a538	0.20473182
17	0x3de8f077	0.1137399
18	0x3eab6075	0.33472028
19	0xbd851bb2	-0.06499423
20	0x3d3a59f8	0.045495957
21	0x3eb2083d	0.3477191
22	0x3e1fbad5	0.15598615
23	0x3e15bf28	0.14623702
24	0xbdad0a67	-0.0844925
25	0x3e97691a	0.29572374
26	0x3e7ce7d1	0.24697806
27	0x3e886f96	0.26647633
28	0xbe5ef4c9	-0.21773066
29	0x3e051bb2	0.12998846
30	0xbc851bb2	-0.016248558
31	0x3e29b682	0.16573527
32	0x3b54f91c	0.0032497114
33	0x3e9abcfe	0.30222315
34	0xbda6629e	-0.081242785
35	0x3e370614	0.17873412
36	0x3d6f9840	0.058494806
37	0x3d99130c	0.07474336
38	0xbd54f91c	-0.05199538
39	0xbe9fbad5	-0.3119723
40	0x3e4afd6f	0.1982324
41	0x3ea164c7	0.315222
42	0xbe0bc37a	-0.13648787
43	0xbd54f91c	-0.05199538
44	0x3e4455a6	0.19173297
45	0xbe0bc37a	-0.13648787
46	0x3da6629e	0.081242785
47	0x3c54f91c	0.012998845
48	0x3cef9840	0.029247403
49	0xbbd4f91c	-0.0064994227
50	0x3e47a98a	0.19498268
51	0x3e659c92	0.22423008
52	0x3e5ba0e5	0.21448095
53	0xbe0bc37a	-0.13648787
54	0xbc851bb2	-0.016248558
55	0xbe0f175f	-0.13973759
56	0x3dfce7d1	0.12348903
57	0x3cba59f8	0.022747979
58	0x3e886f96	0.26647633
59	0xbd126b43	-0.035746824
60	0xbde248ae	-0.11049019
61	0x3def9840	0.11698961
62	0xbd051bb2	-0.032497115
63	0xbe15bf28	-0.14623702
64	0xbd1fbad5	-0.038996536
65	0xbe659c92	-0.22423008
66	0x3def9840	0.11698961
67	0x3e6248ae	0.22098038
68	0xbead0a67	-0.33797
69	0x3d2d0a67	0.04224625
70	0xbe1fbad5	-0.15598615
71	0x3e086f96	0.13323817
72	0xbe8bc37a	-0.27297574
73	0x3db3b230	0.08774221
74	0xbdc101c1	-0.09424163
75	0xbe0bc37a	-0.13648787
76	0x3e8a1988	0.26972604
77	0xbe0bc37a	-0.13648787
78	0xbe26629e	-0.16248557
79	0x3cd4f91c	0.02599769
80	0x3dad0a67	0.0844925
81	0x3dba59f8	0.090991914
82	0xbe7993ed	-0.24372835
83	0xbe801ddb	-0.25022778
84	0xbeb8b006	-0.36071795
85	0xbdba59f8	-0.090991914
86	0x3b54f91c	0.0032497114
87	0xbe2d0a67	-0.168985
88	0xbdba59f8	-0.090991914
89	0x00000000	0.0
90	0x00000000	0.0
91	0x3c1fbad5	0.009749134
92	0x3e370614	0.17873412
93	0x3de8f077	0.1137399
94	0xbe4e5153	-0.2014821
95	0xbe2d0a67	-0.168985
96	0xbe15bf28	-0.14623702
97	0xbe086f96	-0.13323817
98	0x3d54f91c	0.05199538
99	0x3b54f91c	0.0032497114
100	0x3e47a98a	0.19498268
101	0x3e51a538	0.20473182
102	0x3e0f175f	0.13973759
103	0x3ebc03eb	0.3672174
104	0x3d6f9840	0.058494806
105	0x3e2d0a67	0.168985
106	0xbdc101c1	-0.09424163
107	0xbdce5153	-0.10074105
108	0x3e68f077	0.2274798
109	0xbe1fbad5	-0.15598615
110	0x3d8bc37a	0.068243936
111	0xbe0bc37a	-0.13648787
112	0x3e659c92	0.22423008
113	0xbddba0e5	-0.107240476
114	0x3e01c7cd	0.12673874
115	0xbd051bb2	-0.032497115
116	0xbd6248ae	-0.055245094
117	0x3dad0a67	0.0844925
118	0xbe68f077	-0.2274798
119	0x3d051bb2	0.032497115
120	0x3d54f91c	0.05199538
121	0xbd8bc37a	-0.068243936
122	0x3d54f91c	0.05199538
123	0x3e370614	0.17873412
124	0xbe19130c	-0.14948672
125	0x3e3daddd	0.18523355
126	0xbd8bc37a	-0.068243936
127	0xbdba59f8	-0.090991914
128	0xbe4455a6	-0.19173297
129	0x3dc7a98a	0.09749134
130	0x3e8371bf	0.2567272
131	0x3e7ce7d1	0.24697806
132	0x3dce5153	0.10074105
133	0xbe086f96	-0.13323817
134	0x3bd4f91c	0.0064994227
135	0xbe33b230	-0.17548442
136	0x3cef9840	0.029247403
137	0xbe7993ed	-0.24372835
138	0xbe926b43	-0.2859746
139	0xbe5ef4c9	-0.21773066
140	0xbdb3b230	-0.08774221
141	0x3e0f175f	0.13973759
142	0x3d54f91c	0.05199538
143	0x3e6248ae	0.22098038
144	0x3e47a98a	0.19498268
145	0x3dd4f91c	0.10399076
146	0x3e1c66f1	0.15273644
147	0xbeb2083d	-0.3477191
148	0xbe68f077	-0.2274798
149	0xbeab6075	-0.33472028
150	0x3e941535	0.2892243
151	0x3eba59f8	0.36396766
152	0xbe51a538	-0.20473182
153	0x3dba59f8	0.090991914
154	0x3e230eb9	0.15923585
155	0xbe764008	-0.24047863
156	0xbb54f91c	-0.0032497114
157	0xbc54f91c	-0.012998845
158	0x00000000	0.0
159	0xbe230eb9	-0.15923585
160	0xbe7ce7d1	-0.24697806
161	0x3dba59f8	0.090991914
162	0xbe33b230	-0.17548442
163	0x3e3daddd	0.18523355
164	0x3e5ef4c9	0.21773066
165	0x3e9c66f1	0.30547288
166	0xbe126b43	-0.1429873
167	0xbdba59f8	-0.090991914
168	0xbd99130c	-0.07474336
169	0xbea30eb9	-0.3184717
170	0xbe6f9840	-0.23397923
171	0x3e29b682	0.16573527
172	0xbe3a59f8	-0.18198383
173	0x3e29b682	0.16573527
174	0x3e26629e	0.16248557
175	0x3da6629e	0.081242785
176	0x3e47a98a	0.19498268
177	0xbe0bc37a	-0.13648787
178	0x3e8d6d6d	0.27622548
179	0x3e886f96	0.26647633
180	0xbe5ef4c9	-0.21773066
181	0x3d3a59f8	0.045495957
182	0xbe29b682	-0.16573527
183	0xbc54f91c	-0.012998845
184	0xbe5ba0e5	-0.21448095
185	0xbe68f077	-0.2274798
186	0x3c1fbad5	0.009749134
187	0xbd6f9840	-0.058494806
188	0x3cba59f8	0.022747979
189	0xbe99130c	-0.29897344
190	0x3e126b43	0.1429873
191	0xbd851bb2	-0.06499423
192	0xbe584d00	-0.21123123
193	0xbd6f9840	-0.058494806
194	0x3dad0a67	0.0844925
195	0x3e659c92	0.22423008
196	0xbe801ddb	-0.25022778
197	0x3db3b230	0.08774221
198	0x3e6c445b	0.2307295
199	0x3e81c7cd	0.25347748
200	0x3dfce7d1	0.12348903
201	0xbe19130c	-0.14948672
202	0xbcba59f8	-0.022747979
203	0x3dfce7d1	0.12348903
204	0x3d6f9840	0.058494806
205	0x00000000	0.0
206	0x3e72ec24	0.23722893
207	0xbeaeb459	-0.3412197
208	0x00000000	0.0
209	0xbe6f9840	-0.23397923
210	0xbeb55c22	-0.35421854
211	0xbd851bb2	-0.06499423
212	0xbe4101c1	-0.18848325
213	0xbd926b43	-0.07149365
214	0xbe886f96	-0.26647633
215	0xbddba0e5	-0.107240476
216	0xbe29b682	-0.16573527
217	0xbe68f077	-0.2274798
218	0xbe305e4b	-0.1722347
219	0xbcef9840	-0.029247403
220	0x3e0f175f	0.13973759
221	0xbe90c151	-0.2827249
222	0x3dc7a98a	0.09749134
223	0xbe01c7cd	-0.12673874
224	0xbda6629e	-0.081242785
225	0xbd7ce7d1	-0.061744515
226	0x3dba59f8	0.090991914
227	0x3e7ce7d1	0.24697806
228	0xbe68f077	-0.2274798
229	0x3e051bb2	0.12998846
230	0x3d2d0a67	0.04224625
231	0xbd54f91c	-0.05199538
232	0xbeb55c22	-0.35421854
233	0x3e1c66f1	0.15273644
234	0x3df64008	0.12023932
235	0xbe54f91c	-0.20798153
236	0x3e9abcfe	0.30222315
237	0x3e8f175f	0.27947518
238	0xbe8d6d6d	-0.27622548
239	0x3e126b43	0.1429873
240	0xbe0bc37a	-0.13648787
241	0x3e230eb9	0.15923585
242	0xbe086f96	-0.13323817
243	0x3d126b43	0.035746824
244	0x3e230eb9	0.15923585
245	0xbdc7a98a	-0.09749134
246	0xbe3a59f8	-0.18198383
247	0xbeb05e4b	-0.3444694
248	0xbe54f91c	-0.20798153
249	0x3d99130c	0.07474336
250	0x3e3daddd	0.18523355
251	0xbead0a67	-0.33797
252	0xbd7ce7d1	-0.061744515
253	0xbd1fbad5	-0.038996536
254	0x3cd4f91c	0.02599769
255	0xbe86c5a4	-0.26322663

GRU/quant_dense_40/BiasAdd/ReadVariableOp:0 f4 [32]
0	0xbbb39057	-0.005479853
1	0xbd875fc8	-0.06610066
2	0x3d73d625	0.059530396
3	0x3d625dce	0.05526524
4	0xbd7185b9	-0.05896542
5	0xbdd623ad	-0.10456023
6	0x3d60b93f	0.054864164
7	0x3d5f72e4	0.054552928
8	0x3c5f8200	0.013641834
9	0xbdb4c03e	-0.0882573
10	0x3c503cb4	0.012709785
11	0xbd807099	-0.06271476
12	0xbd8cac98	-0.06868857
13	0xbd5845f4	-0.052801087
14	0xbde7e7ca	-0.11323507
15	0xbd936471	-0.07196892
16	0xbdc7d727	-0.09757834
17	0x3d40641b	0.046970468
18	0xbda735d4	-0.08164564
19	0xbdebb9b4	-0.115100294
20	0xbd81835b	-0.06323882
21	0xbd7d4354	-0.061831787
22	0xbc81c23b	-0.015839687
23	0x3d168a28	0.03675285
24	0xbdabbae1	-0.08385254
25	0xbd23db9d	-0.04000436
26	0xbd62747f	-0.05528688
27	0xbdb4e81a	-0.08833332
28	0x3d8922e0	0.06696105
29	0xbddf4cb1	-0.109032996
30	0xbcc8cfc2	-0.02451313
31	0xbdb5ae47	-0.088711314
