models/station_21/model_latest.onnx (onnx, 407296 bytes, 11 tensors)

W__2855 f4 [1, 96, 64]
0	0x3d93a85c	0.072098464
1	0xbbc319a0	-0.0059539825
2	0xbbd0ed20	-0.0063759238
3	0xbcdd43a8	-0.0270098
4	0xbe1ac8fe	-0.15115735
5	0x3aa8e600	0.0012885928
6	0x3db5c9ac	0.088763565
7	0x3d858f04	0.06521419
8	0x3e1350ca	0.14386287
9	0xbddb4731	-0.10706938
10	0x3dd13544	0.10215238
11	0xbe05a8cb	-0.1305267
12	0x3e351ace	0.17686006
13	0xbd0fa068	-0.035065085
14	0x3e2d7c1e	0.16941878
15	0xbdda1600	-0.106487274
16	0xbe138314	-0.14405471
17	0x3e10ab0e	0.14127752
18	0xbc005840	-0.00783354
19	0xbdd46ed6	-0.10372703
20	0xbdd1f06c	-0.10250935
21	0x3e29338e	0.16523573
22	0x3e2d6bbe	0.16935632
23	0x3de5b478	0.11216062
24	0xbda95c23	-0.08269527
25	0xbd694800	-0.05695343
26	0x3e19f82c	0.15036076
27	0x3e3fc05c	0.18725723
28	0x3d0fa1a0	0.035066247
29	0xbe1e5098	-0.15460432
30	0xbe202859	-0.15640391
31	0xbcd05c30	-0.025434583
32	0xbd30f1c8	-0.04319933
33	0xbdf7ad8e	-0.1209365
34	0xbdf00ce5	-0.117212094
35	0x3de8f8a8	0.113755524
36	0xbdfa5fe4	-0.12225321
37	0xbd9a7264	-0.075413495
38	0x3e2416b2	0.16024283
39	0x3e17a2b2	0.14808157
40	0x3d37976c	0.04482214
41	0x3cf2a1d8	0.029618189
42	0x3d7605a0	0.06006396
43	0xbd295064	-0.041336432
44	0xbe19d04f	-0.1502087
45	0x3dcd1bc8	0.100150645
46	0x3c98feb8	0.018676147
47	0x3e33411a	0.17505303
48	0x3d40c5b4	0.047063544
49	0x3d0152e4	0.03157319
50	0xbd7438cc	-0.05962448
51	0xbe1694a7	-0.14705144
52	0x3e301f2e	0.17199394
53	0xbe160570	-0.14650512
54	0x3d6258d0	0.05526048
55	0xbe1ef826	-0.15524349
56	0xbd505418	-0.050861448
57	0xbc3f5030	-0.011676833
58	0xbe05c4aa	-0.13063303
59	0x3dd59328	0.104284585
60	0x3dcf1314	0.10111061
61	0xbe1d34fc	-0.15352243
62	0x3d8eb32c	0.06967768
63	0xbc6dc4c0	-0.014512241
64	0xbd887b40	-0.06664133
65	0xbe22d5da	-0.1590189
66	0xbddec343	-0.10877087
67	0x3e29e2cc	0.16590422
68	0xbddb59a9	-0.10710461
69	0xbd6dab44	-0.05802466
70	0xbcc8b2b8	-0.024499282
71	0xbc2e2b20	-0.010630399
72	0x3d8cdd54	0.068781525
73	0xbdd0217b	-0.10162636
74	0xbce4dcf0	-0.027937382
75	0xbd9ccdd4	-0.07656446
76	0x3cbad300	0.02280569
77	0x3e369e34	0.17833787
78	0xbd7b1b1c	-0.06130515
79	0xbda6fdb3	-0.08153858
80	0x3e17c5ce	0.1482155
81	0xbe319856	-0.17343268
82	0x3e459f6e	0.19299099
83	0x3d15c144	0.036561266
84	0x3de0ae54	0.109707505
85	0xbe099efb	-0.13439552
86	0x3ce3c9f8	0.027806267
87	0xbe39ec44	-0.18156534
88	0xbddb8df8	-0.10720438
89	0xbdaa73cb	-0.08322867
90	0xbcf54d08	-0.029943958
91	0xbe25c7e6	-0.16189536
92	0xbdbd14e9	-0.09232504
93	0x3e430e06	0.19048318
94	0x3e02f5e6	0.12789115
95	0xbc8a53a8	-0.016885594
96	0x3dd96c9c	0.10616419
97	0x3e207600	0.15670013
98	0x3e15b714	0.1462062
99	0xbe0d54e4	-0.13801914
100	0xbdbe122e	-0.09280811
101	0x3d953d18	0.07287043
102	0xbdb7a110	-0.08966267
103	0xbdaadd8c	-0.08343038
104	0xbdf53baf	-0.11974274
105	0xbd9fc28f	-0.07800781
106	0xbe2481bc	-0.16065115
107	0x3ac46100	0.0014982522
108	0xbd300a20	-0.042978406
109	0xbe1ba65e	-0.15200183
110	0x3e20600e	0.15661642
111	0x3de1c274	0.11023417
112	0x3e2f690a	0.17129913
113	0xbd7218fc	-0.05910586
114	0x3c86b508	0.016443744
115	0x3e390026	0.18066463
116	0xbe0fc455	-0.14039738
117	0xbd575c50	-0.05257827
118	0xbe2efc80	-0.17088509
119	0xbb9bc940	-0.0047542155
120	0x3dcf33ac	0.101172775
121	0x3e1963e0	0.14979506
122	0x3d318aac	0.04334514
123	0x3d3e82bc	0.046511397
124	0xbe1e0bca	-0.15434185
125	0xbd680b94	-0.056651667
126	0xbdf7584d	-0.12077389
127	0x3daa180c	0.08305368
128	0xbdbad3e2	-0.09122445
129	0x3d7ef580	0.062245846
130	0x3dda07b8	0.106460035
131	0x3befddc0	0.007320136
132	0x3d4ef0e4	0.0505227
133	0x3db07d54	0.086176544
134	0xbe216cb9	-0.1576413
135	0xbdd5e776	-0.10444538
136	0xbde6eea6	-0.11275987
137	0x3e0e7590	0.13912034
138	0xbdcc2ee6	-0.09969883
139	0xbe193e1a	-0.14965096
140	0xbe291205	-0.1651078
141	0x3e1b16a2	0.15145352
142	0xbe43efeb	-0.1913449
143	0xbe15b114	-0.14618331
144	0x3d993784	0.07481292
145	0x3e0fc9f6	0.14041886
146	0xbe42bb6c	-0.19016808
147	0x3d95862c	0.07300982
148	0xbd78081c	-0.06055461
149	0xbcb0b978	-0.021572813
150	0xbd422bf4	-0.0474052
151	0xbe20edf4	-0.15715772
152	0x3e248ffe	0.16070554
153	0xbe1276fe	-0.14303204
154	0xbcdc7900	-0.026913166
155	0xbd9d0af9	-0.076681085
156	0x3dc2930c	0.09500703
157	0xbde2db50	-0.11076987
158	0xbd234364	-0.03985919
159	0xbbed0aa0	-0.0072339326
160	0x3df70678	0.12061781
161	0x3df7fb88	0.12108523
162	0x3c58cd00	0.01323247
163	0x3e17970e	0.14803717
164	0xbdba0e38	-0.09084743
165	0xbe1e6380	-0.15467644
166	0xbd0187f4	-0.031623796
167	0xbe3b5876	-0.18295464
168	0xbd130ca0	-0.035900712
169	0x3da46bd8	0.08028382
170	0x3e38f082	0.18060496
171	0x3ddd5400	0.10807037
172	0x3d0358dc	0.032067165
173	0xbd23af5c	-0.039962158
174	0xbd2b735c	-0.041858062
175	0xbe019433	-0.1265419
176	0x3d19e374	0.03757043
177	0xbe3200ba	-0.1738309
178	0xbe40666d	-0.18789072
179	0x3dd2db38	0.10295719
180	0xbe0d69f0	-0.13809943
181	0x3e322b92	0.17399433
182	0xbe1e7f78	-0.15478313
183	0x3e261fe6	0.16223106
184	0x3e3992f6	0.18122467
185	0xbcb6eac8	-0.02232875
186	0xbe228065	-0.15869291
187	0xbe0dac68	-0.13835299
188	0xbe34b0ad	-0.17645521
189	0x3c9e72b8	0.019341812
190	0x3d1441bc	0.0361955
191	0xbd741e38	-0.05959913
192	0x3e2ad254	0.16681796
193	0xbe16a877	-0.14712702
194	0x3dc10cdc	0.09426281
195	0x3dbd1c38	0.09233898
196	0x3c598d20	0.013278276
197	0x3e048ba2	0.1294389
198	0xbe1b193c	-0.15146345
199	0x3e43a5aa	0.19106165
200	0x3c6d6c40	0.014491141
201	0x3d4e19f0	0.050317705
202	0x3d8f58c8	0.069993556
203	0x3cdd9f58	0.02705352
204	0xbe148c80	-0.14506721
205	0xbd7f8f10	-0.062392294
206	0xbdf5f944	-0.12010434
207	0xbb3f3140	-0.0029173642
208	0x3db9b5d8	0.09067887
209	0xbd1b8c9c	-0.037975892
210	0x3c75fe50	0.015014246
211	0xbe3ce479	-0.1844653
212	0xbdc5b322	-0.096533075
213	0x3dea78dc	0.11448833
214	0xbdea1b8a	-0.11431034
215	0xbe23e477	-0.16005121
216	0xbdd5f5fc	-0.104473084
217	0x3c8e1b68	0.017347053
218	0x3e243936	0.16037449
219	0x3d8b9298	0.0681507
220	0x3d2c66bc	0.042090163
221	0x3d638850	0.05554992
222	0x3e2931b4	0.16522866
223	0x3b3ce6c0	0.002882406
224	0x3e242b82	0.16032222
225	0x3e0db446	0.138383
226	0xbe027c02	-0.12742618
227	0xbe3d5673	-0.18490009
228	0xbe0e32f8	-0.1388663
229	0x3cc9e7c8	0.024646655
230	0xbcf7fe70	-0.030272692
231	0x3d5f86a8	0.054571778
232	0x3d23d4c8	0.039997846
233	0x3d9dffcc	0.07714805
234	0xbb423f80	-0.00296399
235	0x3e141d98	0.14464414
236	0x3d1ccc24	0.03828062
237	0x3dd1dd3c	0.10247275
238	0x3e422d4e	0.18962595
239	0x3e0a5924	0.13510567
240	0x3deaa584	0.11457351
241	0xbd867170	-0.06564605
242	0xbe3f38a9	-0.18673958
243	0x3d9db428	0.07700378
244	0x3d41bbb0	0.047298133
245	0x3e290916	0.16507372
246	0xbce6ec40	-0.028188825
247	0x3cdf33c8	0.02724637
248	0xbe0036e4	-0.12520939
249	0xbdccf434	-0.100075155
250	0xbdc45541	-0.095865734
251	0xbdaf1268	-0.085484326
252	0x3e173412	0.14765957
253	0xbd1360a0	-0.03598082
254	0xbd80dfca	-0.062926844
255	0x3e07e2c0	0.13270092

W__2841 f4 [1, 192, 128]
0	0xbded01eb	-0.115726314
1	0xbd39729c	-0.045275316
2	0x3db1b480	0.08677006
3	0xbdb663c2	-0.08905746
4	0x3d4b94d4	0.04970248
5	0x3c329270	0.010899171
6	0xbd52929e	-0.051409356
7	0x3d11f3fc	0.035633072
8	0x3de6817e	0.112551674
9	0xbd6f0814	-0.058357313
10	0x3a82ec00	0.0009988546
11	0x3d4b5928	0.049645573
12	0x3d8597e2	0.0652311
13	0xbcc15144	-0.02359832
14	0x3d8bd20c	0.06827173
15	0x3caa4798	0.020786092
16	0x3d1a664c	0.037695214
17	0xbdce9f0a	-0.10088928
18	0x3d317f00	0.043334007
19	0xbdb403e8	-0.087898076
20	0x3a218900	0.0006162077
21	0xbda7fe15	-0.08202759
22	0x3b236f80	0.0024938285
23	0x3d658de8	0.056043535
24	0xbe040858	-0.12893808
25	0xbdb6a7fc	-0.08918759
26	0xbdced4d6	-0.10099189
27	0xbaa11500	-0.0012289584
28	0xbda2b3c5	-0.079444446
29	0x3d3003d4	0.0429724
30	0x3d615f2c	0.055022404
31	0xbe076441	-0.13221838
32	0xbd25c972	-0.040475316
33	0xbd90f275	-0.07077495
34	0xbcc74f08	-0.024329677
35	0xbd116950	-0.035500824
36	0x3c595fd0	0.013267472
37	0xbe021ed8	-0.12707078
38	0xbcdfd874	-0.027324893
39	0x3c1fc5e0	0.009751767
40	0xbdefaff5	-0.11703483
41	0xbe06380a	-0.13107315
42	0xbddc2e10	-0.10750973
43	0x3d708ca0	0.05872786
44	0xbdc065eb	-0.09394439
45	0x3bcb1500	0.0061975718
46	0xbdb6ac2e	-0.089195594
47	0x3d62057c	0.05518101
48	0xbce1bd50	-0.027556092
49	0xbc640540	-0.013917267
50	0xbdd0f6eb	-0.10203346
51	0xbd1bac80	-0.038006306
52	0x3cf09058	0.029365703
53	0xbc148200	-0.009064198
54	0xbd1659b2	-0.036706634
55	0x3e0c299e	0.1368775
56	0xbe03b1ce	-0.12860796
57	0x3dcacffa	0.0990295
58	0xbd86a561	-0.06574512
59	0xbdd54183	-0.10412886
60	0xbd7cf8a2	-0.061760552
61	0xbe0505a2	-0.1299043
62	0xbddad74a	-0.106855944
63	0x3e0a8602	0.13527682
64	0x3b5f8540	0.0034106523
65	0x3d605db8	0.054776877
66	0xbd88d70d	-0.06681643
67	0x3d8b9386	0.06815247
68	0x3cb1d810	0.021709472
69	0xbdf936d8	-0.12168664
70	0x3e0a9968	0.13535082
71	0x3d3f476c	0.046698973
72	0x3dbb3472	0.091408625
73	0x3dc2de48	0.09515053
74	0xbd61d0c4	-0.055130735
75	0x3d9ff68c	0.07810697
76	0xbcb0dc30	-0.021589369
77	0xbd5f1f86	-0.054473422
78	0x3c7b9ba0	0.015356928
79	0x3dced72a	0.10099633
80	0x3d0b43f4	0.034000352
81	0x3de9ac78	0.11409849
82	0xbb935620	-0.004496351
83	0x3dcceb80	0.100058556
84	0xbe05d84b	-0.1307079
85	0xbd58a894	-0.052895144
86	0x3dd4489c	0.10365412
87	0xbd1aced8	-0.037794918
88	0x3d3862f8	0.04501626
89	0xbd15a34e	-0.036532693
90	0x3b28fd40	0.0025785714
91	0xbdbeff96	-0.09326093
92	0xbda4c252	-0.08044876
93	0xbb989d60	-0.0046574324
94	0xbde92872	-0.113846675
95	0x3ca31b28	0.01991041
96	0xbda7fe8b	-0.08202847
97	0xbb992f40	-0.004674822
98	0xbd26578c	-0.040610835
99	0x3de30bfa	0.11086269
100	0xbcabaf0c	-0.020957492
101	0xbca9792c	-0.020687662
102	0x3de7578c	0.11295995
103	0xbdd24a78	-0.1026811
104	0xbdc9f7a8	-0.0986169
105	0xbda988de	-0.082780585
106	0xbdc5a42a	-0.096504524
107	0x3ddcd6b2	0.107831374
108	0x3e0214fe	0.1270332
109	0xbdc58e7a	-0.09646316
110	0xbdfe3b83	-0.12413695
111	0x3db88840	0.090103626
112	0x3b9706e0	0.004608974
113	0x3dfa43f4	0.12219992
114	0xbde3a0db	-0.11114665
115	0xbdb5c778	-0.08875936
116	0x3e0c1e72	0.13683489
117	0x3dfbee44	0.12301305
118	0xbdac655d	-0.08417771
119	0xbd62cd92	-0.05537183
120	0x3ccf1800	0.025279999
121	0x3d9c1b0e	0.07622348
122	0xbdd32f48	-0.103117526
123	0x3d3245c8	0.04352358
124	0xbc082e60	-0.008311838
125	0x3e047e52	0.12938812
126	0x3cd4a0e0	0.025955617
127	0xbd9944ee	-0.074838504
128	0xbd7b41d6	-0.061342083
129	0xbc4e66a8	-0.012597717
130	0x3db34676	0.08753674
131	0x3d94bffc	0.072631806
132	0x3ddcec4a	0.10787256
133	0x3d05eb64	0.03269519
134	0x3d42f630	0.047598064
135	0xbd4550ca	-0.04817275
136	0xbdb0afaa	-0.08627255
137	0xbd625ef8	-0.05526635
138	0xbd2ce020	-0.04220593
139	0x3d9b54e2	0.075845495
140	0xbd77500a	-0.060379066
141	0x3d8a5bf0	0.06755817
142	0x3d188808	0.037239105
143	0x3e0b10e0	0.13580656
144	0xbe04a8e6	-0.12955055
145	0xbd4f7752	-0.050650902
146	0xbd4ef450	-0.050525963
147	0x3d9f6ec4	0.07784799
148	0xbd2da450	-0.04239303
149	0x3dad0252	0.08447708
150	0xbd5cb416	-0.05388268
151	0x3de0f970	0.109850764
152	0xbd1573b0	-0.03648728
153	0x3dcf2db4	0.10116139
154	0x3cb39198	0.02192001
155	0xbd9f97cf	-0.07792627
156	0xbce2c8f4	-0.027683713
157	0xbdeae396	-0.1146919
158	0xbd8157f4	-0.06315604
159	0xbdf45dfb	-0.11931988
160	0xbd93ef19	-0.07223339
161	0xbdc2e256	-0.095158264
162	0xbccccc24	-0.024999686
163	0xbde9a871	-0.11409081
164	0x3d8f6466	0.07001571
165	0xbe08dc34	-0.13365251
166	0x3db27c70	0.08715141
167	0xbd9618fb	-0.073289834
168	0x3dd8846e	0.10572134
169	0x3bcbc700	0.006218791
170	0x3ca05888	0.019573465
171	0x3d1688c4	0.036751524
172	0xbdd26abc	-0.10274264
173	0x3da8f690	0.08250153
174	0xbd878a6a	-0.06618197
175	0x3d940eee	0.0722941
176	0x3df70b38	0.12062687
177	0x3dc9a39a	0.09845658
178	0xbdfeca24	-0.12440899
179	0xbdd35128	-0.10318214
180	0xbddf24f3	-0.108957194
181	0xbd93dc87	-0.07219797
182	0x3e09e52c	0.13466328
183	0x3c88cd08	0.016699329
184	0xbdd043e6	-0.101692006
185	0x3ce5dd30	0.028059572
186	0xbc313e70	-0.010818109
187	0xbcee6e44	-0.029105313
188	0xbd84d814	-0.06486526
189	0x3da498ac	0.08036932
190	0x3dbc953e	0.09208153
191	0x3c9f3e28	0.019438818
192	0x3c61c340	0.013779461
193	0x3dadd630	0.08488119
194	0x3da85d26	0.08220892
195	0xbe071bb7	-0.13194166
196	0xbe0574d4	-0.13032848
197	0xbdae2498	-0.085030735
198	0x3d506c88	0.050884753
199	0x3d55ef44	0.052230135
200	0x3c7292a0	0.014805466
201	0xbd1e8f0a	-0.03871063
202	0x3cfe9850	0.031078488
203	0xbc5443f8	-0.012955658
204	0x3dd83c18	0.10558337
205	0x3d8e8a0c	0.06959924
206	0x3cb83068	0.02248402
207	0x3dbfbf08	0.09362608
208	0xbdac292e	-0.08406292
209	0x3dc25c36	0.09490244
210	0xbdeedce1	-0.11663223
211	0xbe01e835	-0.12686236
212	0xbdaae917	-0.083452396
213	0xbe0405c3	-0.12892823
214	0xbde89475	-0.11356441
215	0xbdf7776d	-0.120833255
216	0xbd0df066	-0.03465309
217	0x3df38db8	0.11892265
218	0x3ddc464c	0.107555956
219	0x3dd9ed80	0.10641003
220	0xbdccf670	-0.10007942
221	0x3da626e2	0.08112885
222	0x3b771380	0.0037700832
223	0xbcb62680	-0.022235155
224	0x3dae57b4	0.08512822
225	0x3dd36272	0.10321511
226	0x3dbb5738	0.09147495
227	0xbdae81d8	-0.085208595
228	0xbdc73568	-0.09726983
229	0x3dd52b1c	0.10408613
230	0xbbb19120	-0.0054189116
231	0x3db8241a	0.08991261
232	0x3dcca2dc	0.099920005
233	0x3d024250	0.03180152
234	0x3e0b6ffc	0.13616937
235	0xbdc95c31	-0.09832037
236	0x3e06c938	0.13162696
237	0xbd26b56a	-0.040700354
238	0xbd584132	-0.05279655
239	0xbd9f21d8	-0.07770127
240	0x3d43c1fc	0.04779242
241	0xbdcf35ae	-0.101176605
242	0xbd215df4	-0.03939624
243	0x3d8457ea	0.06462081
244	0x3ce89a10	0.028393775
245	0xbdb845ca	-0.08997686
246	0x3dc4630c	0.09589204
247	0xbcd918dc	-0.026501112
248	0xbbe45240	-0.006967813
249	0x3d6b5dc4	0.05746247
250	0x3daf81fa	0.08569713
251	0x3d06daa4	0.032923356
252	0x3d686cd8	0.056744426
253	0xbda2f4c2	-0.0795684
254	0xbdd6605e	-0.10467599
255	0x3d1eb888	0.0387502

W__2828 f4 [1, 384, 6]
0	0x3b18afc0	0.0023298115
1	0xbd3c5982	-0.0459838
2	0xbd2c05b2	-0.04199762
3	0xbd1b1316	-0.03786
4	0xbdabf992	-0.08397211
5	0x3db626b8	0.08894104
6	0x3d4bde80	0.04977274
7	0x3d4d8e64	0.050184622
8	0x3acbcb00	0.001554817
9	0xbdf12ba3	-0.11775901
10	0x3dfa6ac4	0.12227395
11	0xbd893b7d	-0.067007996
12	0xbd9a2173	-0.07525911
13	0x3de1a2e2	0.110173956
14	0x3cb316e8	0.021861508
15	0x3d8118f6	0.06303589
16	0x3ddd0d20	0.10793519
17	0x3c9881d8	0.018616602
18	0x3dcd9b4a	0.10039385
19	0xbd6a5050	-0.0572055
20	0xbd601daa	-0.05471579
21	0x3d3802a8	0.04492441
22	0x3bbb6920	0.005719319
23	0xbcd93dc4	-0.02651871
24	0x3d068bbc	0.032848105
25	0x3c8f73f8	0.017511353
26	0xbda56d6a	-0.0807751
27	0x3c85cd40	0.016333222
28	0xbd947e3a	-0.07250638
29	0xbd93e192	-0.072207585
30	0xbddfdc93	-0.10930743
31	0xbd959766	-0.073042676
32	0x3df62942	0.12019588
33	0xbdd281e2	-0.102786794
34	0xbd059b2a	-0.03261868
35	0xbd8b44c2	-0.06800224
36	0xbc7a3328	-0.015270986
37	0xbde59145	-0.112093486
38	0x3dd0aec0	0.10189581
39	0x3ddef662	0.108868375
40	0x3c399820	0.011327773
41	0x3c9f3098	0.019432351
42	0xbde2aa3d	-0.110676266
43	0x3afb2280	0.0019160062
44	0xbd131c82	-0.03591586
45	0xbcbf69a8	-0.02336581
46	0xbbf1bd20	-0.007377282
47	0x3dca5d4a	0.09881075
48	0x3de8b5d6	0.113628075
49	0x3d973d5a	0.07384749
50	0xbc578148	-0.013153382
51	0xbd5f8a9e	-0.054575555
52	0x3c5d1030	0.013492629
53	0x3d2d2dec	0.042280123
54	0xbc8176c4	-0.015803702
55	0x3daaaeaa	0.08334096
56	0x3d93914e	0.07205449
57	0x3bea1fe0	0.007144913
58	0x3d4854e4	0.048909083
59	0xbdf5902f	-0.119903915
60	0x3de5a0b2	0.11212291
61	0xbd56a870	-0.05240673
62	0x3dc27058	0.09494084
63	0xbdd16109	-0.10223586
64	0x3db98bf0	0.09059894
65	0x3de5ef56	0.1122729
66	0xbda1d1dd	-0.07901356
67	0xbda49add	-0.0803735
68	0x3d1c90e4	0.038224116
69	0xbd77bd70	-0.060483396
70	0xbdf759c7	-0.120776705
71	0xbde4752b	-0.111551605
72	0xbdb2c500	-0.08728981
73	0x3d3e67e8	0.04648581
74	0xbc8f5384	-0.017495878
75	0xbdaedfff	-0.085388176
76	0xbd960806	-0.07325749
77	0x3d492e14	0.04911621
78	0xbd45a400	-0.048252106
79	0xbdb52c17	-0.088463
80	0xbd184a5a	-0.037180282
81	0x3dd5b87a	0.10435577
82	0xbde0423c	-0.10950133
83	0x3def13ba	0.116736844
84	0x3dde2f16	0.10848825
85	0x3dbebf14	0.09313789
86	0x3d13edd8	0.036115497
87	0x3dcc7ed4	0.09985128
88	0xbcf5c274	-0.029999949
89	0x3d0141cc	0.03155689
90	0x3d5da56c	0.054112837
91	0xbbb24060	-0.005439803
92	0x3d2cf3b0	0.042224586
93	0x3bc7ae60	0.006093785
94	0xbccea440	-0.025224805
95	0xbdbd9791	-0.092574246
96	0x3dd7ce86	0.10537438
97	0xbbac3d20	-0.00525631
98	0xbd96ea76	-0.073689386
99	0xbc6b2b20	-0.0143535435
100	0xbd4bacfa	-0.04972551
101	0xbdd3468e	-0.103161916
102	0xbdb356ee	-0.08756815
103	0x3dd06f86	0.101775214
104	0x3d22c140	0.03973508
105	0x39391800	0.00017651916
106	0xbdc1c76a	-0.09461863
107	0xbd68e690	-0.056860507
108	0xbd9f915a	-0.077913955
109	0x3df688d4	0.12037817
110	0xbd9b2fe8	-0.07577497
111	0x3df55794	0.11979595
112	0x3c114930	0.008867547
113	0x3c8d4008	0.017242447
114	0xbdca246c	-0.09870228
115	0x3d14d450	0.03633529
116	0xbd11e3b2	-0.035617538
117	0xbd941e06	-0.07232289
118	0xbdc923b0	-0.0982126
119	0xbdf8d3ba	-0.12149759
120	0xbd8afd0a	-0.067865446
121	0x3c4c0880	0.012453198
122	0xbdd6db67	-0.104910664
123	0x3d4f4854	0.050606087
124	0x3dd7f7d4	0.10545316
125	0x3d730254	0.059328392
126	0xbd0e89a8	-0.034799248
127	0xbdf7ea7f	-0.121052735
128	0x3bccc940	0.006249577
129	0x3ddf7642	0.10911228
130	0xbda432d0	-0.08017504
131	0x3dbd17e8	0.092330754
132	0x3d2f5fec	0.042816088
133	0x3db34820	0.08753991
134	0xbd79d964	-0.060998335
135	0x3dd1cd22	0.10244204
136	0x3c402ee0	0.011729926
137	0xbdccc593	-0.09998622
138	0x3ddf0632	0.108898535
139	0x3dc2fa6e	0.09520422
140	0x3dd14c00	0.10219574
141	0xbc0418d8	-0.008062564
142	0x3d89ea26	0.067341134
143	0x3d25a2ac	0.04043834
144	0x3d5a70d8	0.053330272
145	0xbd8123f4	-0.06305686
146	0xbdb0b7d3	-0.08628812
147	0x3dd6d5fa	0.104900315
148	0xbd69e2a2	-0.0571009
149	0x3c29fe10	0.010375515
150	0xbdcc740e	-0.09983073
151	0x3ca679c8	0.020321742
152	0x3c8c2008	0.017105117
153	0xbd2162da	-0.039400913
154	0xbdadc200	-0.08484268
155	0xbd0b169e	-0.033957116
156	0xbd3e81e6	-0.0465106
157	0xbcf1c870	-0.029514521
158	0xba162d00	-0.00057287514
159	0x3d9d2044	0.0767217
160	0xbd1753e4	-0.03694524
161	0xbde41848	-0.11137444
162	0xbd5adb64	-0.053431883
163	0xbd0b473e	-0.03400349
164	0xbd70dbe6	-0.05880346
165	0x3d57064c	0.05249624
166	0x3d3c07ec	0.045905992
167	0x3d9f7630	0.07786214
168	0x3dcb46da	0.09925623
169	0x3cc937e0	0.024562776
170	0xbbee15b0	-0.007265769
171	0x3d9c5ea4	0.07635239
172	0x3dbc3a60	0.09190822
173	0x3d140380	0.03613615
174	0xbdd8a36b	-0.105780445
175	0x3dc1cff4	0.09463492
176	0xbd12b24e	-0.035814576
177	0xbdd3b240	-0.10336733
178	0xbdc7d516	-0.0975744
179	0x3dd096d4	0.10185018
180	0x3c8f7b48	0.01751484
181	0xbcd34ca8	-0.025793388
182	0x3de3dbf4	0.11125937
183	0xbd709ca4	-0.058743134
184	0xbc9241c0	-0.017853618
185	0x3dc69f60	0.09698367
186	0xbdb97f3a	-0.0905747
187	0xbccad4c8	-0.024759665
188	0xbcff772c	-0.031184755
189	0xbddd2390	-0.10797799
190	0x3d2044d4	0.03912814
191	0x3dfb7700	0.12278557
192	0x3d34df88	0.04415849
193	0xbb463620	-0.0030244663
194	0x3d8d6d96	0.069056675
195	0xbdaa6cac	-0.08321509
196	0xbcd14730	-0.02554664
197	0xbd2ddefa	-0.042448975
198	0x3d0775d0	0.03307134
199	0x3ddf37fe	0.108993515
200	0xbdea9f57	-0.11456173
201	0x3dd61224	0.10452679
202	0xbdb92c1b	-0.090416156
203	0x3c5dfea0	0.013549477
204	0x3c5fab00	0.013651609
205	0x3d88f044	0.06686452
206	0xbd1de694	-0.038549975
207	0x3dbe1dee	0.092830524
208	0x3b3f9b40	0.0029236823
209	0xbdeafb50	-0.11473715
210	0xbd87db6a	-0.06633647
211	0xbdc6cf74	-0.09707537
212	0x3d9b7b02	0.07591821
213	0xbcbe5224	-0.023232527
214	0xbba932b0	-0.005163513
215	0xbd1d0f68	-0.03834477
216	0x3d35423c	0.04425262
217	0x3a75f400	0.0009382367
218	0x3cd9d9b0	0.02659306
219	0x3c920100	0.017822742
220	0xbd1ef5b0	-0.038808525
221	0x3da830a8	0.082124054
222	0xbcffcecc	-0.031226538
223	0xbdbdae9b	-0.09261819
224	0xbde38549	-0.111094065
225	0x3c189ac0	0.009314239
226	0xbce32d78	-0.027731642
227	0xbd3b2f84	-0.04569961
228	0xbd5b5d98	-0.053556055
229	0xbce583c0	-0.028016925
230	0x3da36d2a	0.07979806
231	0x3dc9066e	0.098156795
232	0xbcd97f30	-0.026549906
233	0xbd13baf8	-0.03606698
234	0xbdeb5b05	-0.1149197
235	0x3d2e5cb0	0.042568862
236	0x3da38cb0	0.079858184
237	0x3c233cd0	0.009963229
238	0xbd3e45f6	-0.04645344
239	0xbd898dba	-0.06716485
240	0xbda3549a	-0.07975121
241	0xbdb57c67	-0.088616185
242	0xbc33d870	-0.010976896
243	0x3ceff6e0	0.029292524
244	0xbda93a18	-0.08263034
245	0x3d5f9530	0.054585636
246	0xbd65ce64	-0.056105033
247	0xbd718b78	-0.0589709
248	0x3de731ea	0.11288817
249	0xbc1415d8	-0.009038411
250	0xbd7fe2de	-0.062472217
251	0x3d8c54ac	0.068520874
252	0xbc7572a0	-0.014980942
253	0x3dc8d144	0.09805539
254	0x3cb81a58	0.0224735
255	0x3b96e420	0.0046048313

R__2856 f4 [1, 96, 32]
0	0xbe48c9b0	-0.19608188
1	0xbe28e0ed	-0.16492052
2	0xbd1e41a8	-0.038636833
3	0xbd529200	-0.051408768
4	0xbd2545f7	-0.040349927
5	0x3b26384f	0.0025363152
6	0xbd9b613f	-0.075869076
7	0x3d0f1296	0.034929834
8	0xbd676505	-0.056492824
9	0x3cb704e4	0.0223412
10	0x3c968c6b	0.018377503
11	0xbd7d3a5c	-0.061823234
12	0xbdb5b274	-0.08871928
13	0x3e08358b	0.13301675
14	0xbd96123a	-0.07327695
15	0xbcee72db	-0.029107502
16	0xbe629f29	-0.22131027
17	0xbd5f5b54	-0.054530457
18	0x3ce1e421	0.0275746
19	0xbe1828db	-0.14859335
20	0x3d86d33c	0.065832585
21	0xbd947fb6	-0.072509214
22	0xbdbe9320	-0.093054056
23	0xbe5392d2	-0.20661476
24	0xbe364c33	-0.17802505
25	0xbc288805	-0.010286336
26	0xbddca314	-0.10773292
27	0x3e5576e3	0.20846133
28	0x3da8e585	0.082469024
29	0xbd50b236	-0.050951205
30	0x3e264074	0.16235524
31	0xbcae2649	-0.02125849
32	0x3c1c179b	0.009527112
33	0xbdd6dc97	-0.10491293
34	0xbda8e671	-0.08247078
35	0xbdb82a7e	-0.0899248
36	0xbc7f84cc	-0.015595626
37	0xbd727e7c	-0.059202656
38	0x3dad0973	0.08449068
39	0x3d4e5d62	0.050382026
40	0xbc87eaa3	-0.016591376
41	0xbe3530d9	-0.17694415
42	0x3e4fd32b	0.20295398
43	0x3dbf2017	0.093322925
44	0x3d82f238	0.06393856
45	0x3e0ec03a	0.13940516
46	0x3dff8164	0.12475851
47	0x3cd9fe0b	0.026610395
48	0xbe714c6f	-0.23564313
49	0xbd907dd4	-0.0705525
50	0x3d812b13	0.06307044
51	0xbb8d3c2f	-0.004310153
52	0xbe508b7e	-0.20365712
53	0xbcc1a578	-0.023638472
54	0xbd8572d5	-0.06516043
55	0x3d9ee492	0.0775844
56	0x3d7b7259	0.061388347
57	0x3cc103cc	0.02356138
58	0xbd81637f	-0.063178055
59	0x3bcb0b62	0.0061964253
60	0xbe06d3c7	-0.13166724
61	0x3d4b1da2	0.049588807
62	0xbd7caf0e	-0.061690383
63	0x3cea71b5	0.028618673
64	0x3e2512bc	0.16120428
65	0xbc27f8a2	-0.01025215
66	0xbd8c8c39	-0.06862683
67	0xbd9002d5	-0.0703179
68	0xbe0676b6	-0.13131222
69	0xbdc1d1cb	-0.09463843
70	0xbdd9764d	-0.10618267
71	0x3c8d0769	0.017215448
72	0x3cb66cb5	0.022268632
73	0xbded3c19	-0.11583728
74	0x3de70779	0.11280722
75	0x3b0e44c0	0.0021708459
76	0x3e71aa9a	0.23600236
77	0x3c7caefa	0.015422577
78	0x3e7686ed	0.24074908
79	0x3da2b520	0.07944703
80	0x3e38337f	0.17988394
81	0xbb218548	-0.0024646092
82	0xbd8565e6	-0.06513576
83	0xbd0858d2	-0.03328783
84	0x3cd917bb	0.026500573
85	0xbe15f71e	-0.14645049
86	0x3d26529f	0.040606137
87	0x3d120d3e	0.03565716
88	0xbd1ea907	-0.038735416
89	0x3e222752	0.15835312
90	0x3d7c54d7	0.061604347
91	0x3dba2058	0.090882
92	0x3d35f1de	0.044420116
93	0x3d184a79	0.037180398
94	0x3c196b76	0.009364
95	0xbd4d3ee7	-0.050108816
96	0xbdb71681	-0.08939839
97	0xbdfae811	-0.122512944
98	0x3dc04cad	0.09389625
99	0x3dc4c80b	0.09608468
100	0xbd20659e	-0.03915941
101	0x3e3654a0	0.1780572
102	0xbca2a609	-0.019854562
103	0xbd2b703b	-0.04185508
104	0x3d53f12e	0.05174368
105	0xbd47e62d	-0.048803497
106	0xbe2bc345	-0.16773708
107	0x3e1b7218	0.15180242
108	0x3e026bf0	0.12736487
109	0xbe1d58da	-0.15365925
110	0x3daa0f8f	0.08303749
111	0x3e076f14	0.13225967
112	0xbb6c8e40	-0.003609553
113	0xbc25f322	-0.010128768
114	0xbd421f9e	-0.047393434
115	0x3dea9104	0.11453441
116	0x3cd98694	0.02655343
117	0x3d015269	0.031572733
118	0x3e03b673	0.12862568
119	0x3cd8e03a	0.026474107
120	0xbd890e36	-0.06692164
121	0x3d431cf4	0.047635034
122	0x3df0bf93	0.1175529
123	0x3c4c6d23	0.012477192
124	0x3c6da405	0.014504437
125	0xbcf07ef6	-0.029357415
126	0xbe57fe07	-0.21092997
127	0x3d5f1702	0.0544653
128	0x3d106283	0.035250198
129	0xbda4f0a2	-0.080537096
130	0x3c72cf1c	0.014819887
131	0xbdaf52bf	-0.085607044
132	0x3dbfaf42	0.093596
133	0xbe31383b	-0.17306606
134	0xbe4bd6f6	-0.1990622
135	0x3e66dce5	0.22545202
136	0xbd949683	-0.0725527
137	0xbcb9d4c8	-0.02268447
138	0x3e0c41b5	0.1369694
139	0x3c4b5634	0.012410689
140	0x3e329f0f	0.17443489
141	0xbe33db8e	-0.17564222
142	0xbd1ef1f1	-0.038804952
143	0x3a8bbd86	0.0010661341
144	0x3e03599d	0.12827154
145	0xbe311475	-0.1729296
146	0xbddb86dc	-0.10719082
147	0x3b7c017c	0.0038453033
148	0x3d8fc26b	0.07019504
149	0xbdf0c40c	-0.11756143
150	0x3c0be488	0.008538373
151	0x3c9efb1a	0.019406844
152	0x3db72caa	0.08944066
153	0x3ca13eea	0.01968332
154	0xbde01954	-0.10942331
155	0xbe1c0b5d	-0.1523871
156	0xbb972474	-0.0046125
157	0xbe003f60	-0.12524176
158	0xbe20b72c	-0.15694875
159	0x3d412fe3	0.04716481
160	0x3e63e716	0.22256121
161	0xbe1df7bd	-0.15426536
162	0x3e1a79ec	0.15085572
163	0xbccd5ee8	-0.025069669
164	0xbd435357	-0.0476869
165	0xbd1d773e	-0.038443796
166	0xbd26d080	-0.040726185
167	0xbe36a0e9	-0.1783482
168	0x3df45c7d	0.11931703
169	0x3cee5a2e	0.029095735
170	0xbd0c97de	-0.03432452
171	0x3e8322d5	0.25612512
172	0xbd88f14d	-0.066866495
173	0x3e08432d	0.13306876
174	0xbda6d08a	-0.081452444
175	0xbc576780	-0.013147235
176	0xbd6f8cb3	-0.05848379
177	0xbd130b0f	-0.03589922
178	0xbd8c4de6	-0.068507954
179	0xbe216d55	-0.15764363
180	0xbe1090d6	-0.1411775
181	0x3ddf9afb	0.10918232
182	0x3dada78d	0.084792234
183	0x3d1bcd94	0.03803785
184	0xbe67e462	-0.22645715
185	0xbd4ac4cd	-0.04950409
186	0xbbea8768	-0.007157255
187	0xbd07298a	-0.0329986
188	0x3df588da	0.11988993
189	0xbe1d1167	-0.1533867
190	0xbc9d1410	-0.019174606
191	0xbdc7d6c1	-0.09757758
192	0xbdab42f0	-0.08362377
193	0x3e0161a7	0.12634908
194	0x3c4bd8c5	0.012441819
195	0xba6b1994	-0.000896835
196	0x3d0710ff	0.032975193
197	0xbdcf612e	-0.101259574
198	0xbd436a09	-0.047708545
199	0x3ddaf42c	0.10691103
200	0xbe136e26	-0.14397487
201	0x3e1f5318	0.15559042
202	0xbd06fa1c	-0.032953367
203	0x3a9b76ec	0.0011861003
204	0xbb32b7fc	-0.0027270308
205	0x3d4715a5	0.048604626
206	0xbcf1df1f	-0.029525338
207	0x3e1f4dd6	0.15557036
208	0xbd8325b1	-0.064036734
209	0x3dd1b34c	0.10239276
210	0x3db036ee	0.08604227
211	0xbe0b6cb8	-0.13615692
212	0x3cb25e69	0.021773534
213	0x3b462284	0.0030232975
214	0x3c99687e	0.018726584
215	0xbd276fb5	-0.040878017
216	0xbe6de53c	-0.23231977
217	0x3e64ef69	0.22356953
218	0xbcbd4552	-0.023104344
219	0xbd45ecd0	-0.048321545
220	0xbd5040ca	-0.050843038
221	0xbcf8bcd6	-0.030363481
222	0xbe7d6de6	-0.24748954
223	0xbdc055b2	-0.09391345
224	0xbd80077a	-0.06251426
225	0xbc8ffb68	-0.017575935
226	0x3e37beaf	0.17943834
227	0xbddc1d05	-0.107477225
228	0x3e023750	0.12716413
229	0x3d14ef21	0.036360864
230	0x3d539be9	0.05166236
231	0xbd7ced74	-0.06174989
232	0xbd15a73e	-0.036536448
233	0x3d3bad0e	0.045819335
234	0xbba07014	-0.0048961733
235	0xbe178784	-0.14797789
236	0x3dcc1d75	0.09966556
237	0x3db9b83f	0.09068345
238	0x3e2de54e	0.16982004
239	0xbdf35c19	-0.118828006
240	0xbded2167	-0.115786366
241	0x3de5ba2a	0.112171486
242	0x3d0c3de9	0.03423873
243	0xbd839346	-0.064245746
244	0xbd0b27b3	-0.033973407
245	0xbdb90975	-0.09035007
246	0xbe203cfb	-0.15648262
247	0x3e0aa9da	0.13541356
248	0x3c969d62	0.018385593
249	0xbdd8a0e1	-0.1057756
250	0xbd841210	-0.06448758
251	0x3e002693	0.12514715
252	0xbc7db1f4	-0.015484322
253	0xbd7ef6b6	-0.062247
254	0x3d13cd4e	0.036084466
255	0xbe1445bc	-0.14479727

R__2842 f4 [1, 192, 64]
0	0xbd1553c0	-0.036456823
1	0x3d9cbeec	0.07653603
2	0xbd830416	-0.06397264
3	0x3d02a072	0.031891294
4	0xbc36990a	-0.011144886
5	0x3da2a372	0.07941331
6	0xbd4338ee	-0.047661714
7	0x3da14dcf	0.07876169
8	0x3c88d694	0.016703881
9	0xbcfe01b0	-0.031006664
10	0x3d58f70c	0.052969977
11	0x3d25a585	0.040441055
12	0xbb21af40	-0.0024671108
13	0xbca7349a	-0.020410825
14	0xbdef743e	-0.11692093
15	0xbcb5aad0	-0.022176176
16	0x3d7010fe	0.058609955
17	0x3d0c2546	0.034215234
18	0xbd797a46	-0.060907625
19	0xbdbfc0c1	-0.09362937
20	0x3ce29e7c	0.027663462
21	0xbb8312c0	-0.004000038
22	0x3da201bf	0.07910489
23	0x3d29c432	0.041446872
24	0x3cf190dd	0.029488022
25	0xbd328335	-0.04358216
26	0x3e0bc46b	0.13649146
27	0x3c4730c2	0.012157621
28	0xbd5592fc	-0.05214213
29	0xbdb4b23d	-0.08823059
30	0xbd890193	-0.066897534
31	0xbd82be84	-0.06383994
32	0x3bac42c2	0.0052569816
33	0xbd211f36	-0.039336406
34	0x3ca6497f	0.020298718
35	0xbd44e300	-0.048068047
36	0xbd3a9cad	-0.045559574
37	0xbd4e7871	-0.05040783
38	0xbc639dfd	-0.013892648
39	0x3d053472	0.03252072
40	0x3dabe0ca	0.083924845
41	0x3dc2f760	0.09519839
42	0xba728a88	-0.000925221
43	0x3c793364	0.015210006
44	0x3d81026e	0.062992916
45	0x3d64fdd5	0.055906136
46	0x3c8ae34d	0.016954089
47	0x3e124917	0.14285694
48	0xbd0d0e7c	-0.03443764
49	0x3da3e537	0.08002704
50	0xba6b5203	-0.0008976759
51	0x3d04523a	0.03230498
52	0x3b3c720e	0.0028754505
53	0x3c1ab75e	0.009443132
54	0xbd24a0af	-0.040192302
55	0x3deffd5a	0.11718245
56	0x3cd0864f	0.025454668
57	0xbae1cf98	-0.0017228005
58	0xbde1b8bd	-0.11021564
59	0xbd242a58	-0.040079445
60	0xbd6eb09a	-0.05827389
61	0x3dcbab12	0.099447384
62	0xbd30125a	-0.04298625
63	0xbd3c48f2	-0.045968004
64	0x3c4bc1f7	0.012436382
65	0xbc24f800	-0.010068893
66	0xbbc6a360	-0.0060619563
67	0xbd89aa68	-0.067219555
68	0xbcde8d5e	-0.027167019
69	0x3ca7d431	0.020486923
70	0xbd8f8c8c	-0.07009229
71	0xbd1db541	-0.038502935
72	0x3e39aeca	0.18133083
73	0x3dd9839f	0.10620808
74	0xbc17e0c3	-0.009269896
75	0xbc1c3279	-0.009533518
76	0x3cf5ccb4	0.030004837
77	0x3d2f8093	0.042847227
78	0x3d218213	0.03943069
79	0x3d8d4a48	0.06898934
80	0x3de810bf	0.11331319
81	0xbcee3f1e	-0.029082831
82	0xbcd71016	-0.026252788
83	0x3cfbaf25	0.030723164
84	0xbd1b4d64	-0.037915602
85	0x3ca0baec	0.019620381
86	0x3d3a021e	0.045412175
87	0xbdc18821	-0.09449793
88	0xbd97a756	-0.07404964
89	0xbe351d31	-0.17686917
90	0xbdaa926d	-0.0832871
91	0x3d8cdf46	0.068785235
92	0xbd58af63	-0.052901637
93	0xbcabe0f7	-0.020981295
94	0x3d6451d9	0.05574212
95	0xbb0ee9aa	-0.0021806755
96	0xbcc5d59a	-0.024149705
97	0x3da886d3	0.08228841
98	0xbd530469	-0.051517878
99	0x3cac3980	0.021023512
100	0x3d900938	0.07033008
101	0xbc2f39b0	-0.010694906
102	0xbc21bdb2	-0.009871887
103	0xbc9be806	-0.019031536
104	0x3c6d78f1	0.014494167
105	0xbcdcc3ad	-0.026948774
106	0x3d91f07b	0.07125946
107	0xbdb52227	-0.08844405
108	0xbdd430a6	-0.103608415
109	0xbdb75ba7	-0.08953028
110	0xbd61a2d6	-0.055086933
111	0x3d5a0b38	0.053233355
112	0x3d8078ea	0.062730625
113	0x3d776e06	0.06040766
114	0xbc6af9cb	-0.014341782
115	0x3e04b4bb	0.12959568
116	0xbc23f1f1	-0.010006414
117	0x3df6459c	0.12024996
118	0xbc8968f3	-0.016773676
119	0x3d802a58	0.062580764
120	0x3d17c04f	0.037048634
121	0xbd1cae2d	-0.038252044
122	0xbda8318c	-0.08212575
123	0xbc8073da	-0.015680242
124	0xbe0c701f	-0.13714646
125	0x3e3cd3ce	0.18440172
126	0xbd4e114a	-0.050309457
127	0x3d6b7200	0.057481766
128	0x3c9da4f1	0.01924369
129	0xbd7a57d3	-0.061118912
130	0xbd8f1020	-0.069854975
131	0xbc91f8ea	-0.017818887
132	0xbdf3f5af	-0.11912095
133	0x3ca7164c	0.020396374
134	0xbd1113fe	-0.035419457
135	0xbd619ba2	-0.055080064
136	0xbd801f49	-0.06255967
137	0xbe00d644	-0.12581736
138	0x3db67735	0.08909456
139	0xbca03703	-0.019557482
140	0xbdca4f33	-0.09878387
141	0x3d498488	0.049198657
142	0x3d8d45a4	0.068980485
143	0x3d6b0512	0.057377882
144	0xbd55caf3	-0.0521955
145	0xbd246256	-0.040132843
146	0xbc6ce9be	-0.014460025
147	0x3de3d295	0.1112415
148	0x3b507387	0.003180714
149	0x3d1e9314	0.038714483
150	0xbd2d3aae	-0.04229229
151	0x3d1e44df	0.0386399
152	0xbceba822	-0.028766695
153	0xbd2e67f8	-0.04257962
154	0x3c07b8ed	0.008283836
155	0x3dadf913	0.08494773
156	0xbe01eab5	-0.1268719
157	0x3d292e36	0.041303836
158	0xbc327964	-0.0108932
159	0xbc8babb4	-0.017049648
160	0xbde17901	-0.11009408
161	0xbccf8240	-0.025330663
162	0xbc4f6aa6	-0.012659704
163	0xbd147e60	-0.036253333
164	0x3cb38889	0.021915691
165	0x3e18b70a	0.14913574
166	0x3ddaff71	0.10693253
167	0xbc7e3347	-0.015515155
168	0x3df73999	0.12071533
169	0xbdb707bf	-0.08937024
170	0xbd507b90	-0.05089909
171	0xbc9c3292	-0.019067083
172	0x3d420289	0.0473657
173	0xbdab60b5	-0.08368055
174	0xbd0ef6c4	-0.034903303
175	0xbd319668	-0.04335633
176	0xbe03bd3b	-0.12865154
177	0xbd44c83c	-0.04804252
178	0xbde142d3	-0.10999074
179	0xbd30ee6f	-0.043196138
180	0xbcc79145	-0.024361262
181	0xbd9eeb8a	-0.07759769
182	0xbd4ea918	-0.05045423
183	0x3e1bac4a	0.15202442
184	0xbd4af82b	-0.049553078
185	0x3d1bbb42	0.03802038
186	0x3dad6475	0.08466426
187	0x3d594fdc	0.053054675
188	0x3d822e2c	0.06356463
189	0x3bc0ad5c	0.005880041
190	0x3c89909e	0.016792592
191	0xbe0a973c	-0.13534254
192	0x3cad6093	0.021164214
193	0x3d0fe6eb	0.03513233
194	0xbe15d688	-0.14632618
195	0xbdac97e0	-0.08427405
196	0x3ca6527e	0.020303007
197	0x3c60dd3e	0.013724623
198	0x3e208637	0.15676199
199	0x3cb37b32	0.02190933
200	0x3cda1efa	0.026626099
201	0xbd8798f0	-0.066209674
202	0xbbe5a9a0	-0.0070087463
203	0xbd02aace	-0.031901173
204	0x3cb2a2d3	0.021806156
205	0xbda8b115	-0.08236901
206	0xbcedaab4	-0.029012062
207	0x3d0a5fa6	0.033782624
208	0xbd3c9b07	-0.046046283
209	0x3d763313	0.060107302
210	0xbd12965c	-0.035787925
211	0xbd2761b2	-0.040864654
212	0xbe57fe39	-0.21093072
213	0x3ccca76e	0.02498218
214	0xbe09b2f0	-0.13447165
215	0x3d33c03c	0.0438845
216	0xbceba83a	-0.02876674
217	0x3d53d4f6	0.051716767
218	0x3b94940b	0.0045342497
219	0x3d2e4530	0.04254645
220	0xbdbd6676	-0.092480585
221	0xbdc45460	-0.09586406
222	0x3b15a635	0.0022834663
223	0x3cf8b5c3	0.030360108
224	0xbdcf9da6	-0.10137491
225	0xbddadcfc	-0.10686681
226	0x3d4a2302	0.049349792
227	0x3de2bf74	0.11071673
228	0xbd176741	-0.036963705
229	0x3e1c7fb4	0.1528309
230	0x3bb05d7e	0.005382239
231	0xbd2a3728	-0.041556507
232	0x3d8d0552	0.068857804
233	0x3d110c96	0.035412394
234	0x3c8f33b0	0.017480701
235	0x3d49b804	0.049247757
236	0x3dc7a391	0.09747995
237	0xbe340609	-0.17580427
238	0xbc85ea3e	-0.016347047
239	0xbbc4cb56	-0.006005685
240	0x3d6b91b8	0.057512015
241	0x3ce99a6e	0.02851602
242	0x3d3638e6	0.044487856
243	0x3c2b0ea4	0.010440502
244	0x3e26ce8d	0.1628973
245	0x3e691a0a	0.2276384
246	0x3c842078	0.016128764
247	0xbda22bcc	-0.0791851
248	0xbd0e1b47	-0.034693982
249	0xbe38a987	-0.1803342
250	0xbc484b9e	-0.01222506
251	0x3bd925da	0.0066268267
252	0x3d75aac1	0.059977297
253	0xbcdcb142	-0.026939992
254	0xbbe9d280	-0.0071356893
255	0x3c00502e	0.007831616

R__2829 f4 [1, 384, 128]
0	0xbd958d30	-0.0730232
1	0xbdf09128	-0.11746436
2	0xbd61c7ea	-0.055122294
3	0x3d66ec69	0.056377802
4	0xbbef4958	-0.0073024444
5	0x3c6b48a4	0.014360581
6	0xbd4f7984	-0.050652996
7	0x3dc00d33	0.093775176
8	0x3d8badbe	0.06820248
9	0xbdbb40c8	-0.091432154
10	0xbad72af0	-0.0016415995
11	0xbd565897	-0.05233058
12	0xbd1b685f	-0.037941333
13	0xbd0b59af	-0.034021076
14	0x3b652bc8	0.0034968723
15	0x3d04356c	0.03227751
16	0xbccdc050	-0.025116116
17	0x3d977824	0.07395962
18	0xbc414598	-0.011796378
19	0xbd00303d	-0.031296004
20	0xbc40cafd	-0.011767146
21	0xbda5458e	-0.08069907
22	0x3c568218	0.01309254
23	0x3d0a76f0	0.033804834
24	0x3d616d1f	0.055035707
25	0xb8787700	-5.9238635e-05
26	0x3c8ee1a0	0.01744157
27	0xbd6398d0	-0.055565655
28	0x3cf2d0da	0.029640604
29	0x3db64735	0.089003004
30	0x3a8c4ce0	0.0010704063
31	0xbbd34ae0	-0.006448135
32	0x3c30d38a	0.010792622
33	0xbbd415f6	-0.0064723445
34	0x3da9c61b	0.08289739
35	0x3bf2c2ce	0.0074084764
36	0xbbc1c604	-0.005913498
37	0xbbe1def8	-0.006893035
38	0x3d24956b	0.04018156
39	0x3d9ee468	0.07758409
40	0xbd5a4be2	-0.053295024
41	0xbb9aaef7	-0.0047205645
42	0x3d12cd44	0.035840288
43	0xbb8faaa3	-0.004384355
44	0xbc8223fa	-0.015886296
45	0xbde7f297	-0.11325567
46	0x3bd93e76	0.0066297604
47	0x3d846ce9	0.064660855
48	0x3c648d38	0.013949685
49	0x3d0c42d2	0.034243412
50	0x3d88b059	0.06674261
51	0x3d5ade56	0.053434692
52	0x3b506626	0.0031799166
53	0x3d099317	0.03358754
54	0x3d288729	0.041144524
55	0x395f12e0	0.00021273969
56	0x3d64e8f4	0.055886224
57	0x3d815aa0	0.063161135
58	0xbd3116d1	-0.04323465
59	0x3d0b140f	0.033954676
60	0x3d0cadbc	0.034345374
61	0x3c9f14bc	0.019419067
62	0x3c181209	0.009281644
63	0xbb625012	-0.003453259
64	0x3d5721e5	0.05252256
65	0xbd0a56fa	-0.033774354
66	0xbd28eac8	-0.04123953
67	0x3d94bab8	0.07262176
68	0x3d014896	0.031563364
69	0xbd33475d	-0.04376923
70	0x3d613949	0.054986272
71	0x3cdb2e7c	0.026755564
72	0x3d9857a0	0.07438588
73	0xbe01a067	-0.12658845
74	0xbd6bf9a3	-0.05761112
75	0x3da5407b	0.08068939
76	0x3cac7cb0	0.02105555
77	0xba7e88a4	-0.0009709692
78	0x3be5ceb6	0.0070131673
79	0x3d43247b	0.047642212
80	0xbd0ca87e	-0.034340374
81	0xbd0e72e2	-0.03477753
82	0x3c4fc4a1	0.012681157
83	0x3ce2b8bb	0.027675977
84	0xbc96a6dc	-0.018390112
85	0x3cabafae	0.020957794
86	0xbcbd9e3e	-0.023146745
87	0xbd0fc0a3	-0.035095822
88	0xbd37559d	-0.04475938
89	0xbd0f4c30	-0.034984767
90	0xbd382394	-0.044955805
91	0xbd530832	-0.051521488
92	0x3d25617f	0.040376183
93	0xbcfff91d	-0.031246716
94	0x3d3a0223	0.045412194
95	0xbd71cc1f	-0.059032556
96	0x3cfbaa93	0.030720985
97	0xbcd79b5f	-0.026319204
98	0x3b290028	0.0025787447
99	0x3d2a35ad	0.041555095
100	0xbd683837	-0.056694236
101	0x3d82fe96	0.06396215
102	0x3d06990a	0.032860793
103	0xbd73429e	-0.059389703
104	0x3c6c8414	0.014435787
105	0x3dba6ef0	0.09103191
106	0xbb19fcfc	-0.0023496738
107	0x3cf6663f	0.030078052
108	0xbd0a6c00	-0.033794403
109	0xbd9ca597	-0.07648771
110	0xbc32e4a1	-0.010918767
111	0xbd5dd5ca	-0.054158963
112	0xbd0d9678	-0.034567326
113	0x3c2525ed	0.010079843
114	0xbd0c30ad	-0.03422611
115	0xbc8b5bb4	-0.0170115
116	0xbda7e99c	-0.08198854
117	0x3d0dbca8	0.034603745
118	0x3d884783	0.06654265
119	0x3cc759a4	0.024334736
120	0xbd9607e8	-0.07325727
121	0xbcdcdba4	-0.026960202
122	0x3d2f6b18	0.042826742
123	0x3bcf9c8b	0.0063358
124	0xbc05cd6e	-0.008166654
125	0xbda39a89	-0.079884596
126	0xbe0307e5	-0.1279598
127	0x3d71d4d8	0.059040874
128	0x3d35e81e	0.044410817
129	0x3cdc1440	0.026865125
130	0xbd05b286	-0.032640956
131	0xbd7327ed	-0.059364248
132	0x3d4e19e1	0.05031765
133	0x3c49e52d	0.012322706
134	0x3c44a1b2	0.012001442
135	0xbc6f7fdd	-0.014617887
136	0xbd1caf79	-0.03825328
137	0x3d0f5c32	0.035000034
138	0xbd7866b8	-0.060644835
139	0xbd1d1926	-0.03835406
140	0xbc11e0e6	-0.008903718
141	0xbd8fdf39	-0.07024998
142	0xbc8d3de0	-0.017241418
143	0x3c08ed15	0.008357306
144	0x3d362d8a	0.044477023
145	0x3d39187c	0.045189366
146	0xbcf435de	-0.029810842
147	0xbd7d94f1	-0.06190962
148	0x3cfd384d	0.030910635
149	0xbd83e6bf	-0.06440496
150	0x3d43f1b2	0.04783792
151	0x3bf809d2	0.00756953
152	0x3d60449e	0.05475294
153	0x3d0a1dcb	0.03371982
154	0xbcf3cabd	-0.02975976
155	0xbd3f5a93	-0.046717238
156	0x3d376550	0.044774354
157	0xbc5e66af	-0.013574286
158	0xbd6adec0	-0.057341337
159	0x3c54b6e5	0.012983059
160	0x3dcc435d	0.09973786
161	0xbd15a79e	-0.036536805
162	0xbc76fd94	-0.015075106
163	0xbd96cf2d	-0.073637344
164	0xbd43a9c8	-0.047769338
165	0x3be550e6	0.0069981692
166	0x3cb0e998	0.021595761
167	0x3d5054c0	0.050862074
168	0xbcac79d1	-0.02105418
169	0x3cea5d0b	0.02860882
170	0xbc56bf04	-0.013107065
171	0x3cf8ed34	0.030386545
172	0xbba5a0b2	-0.0050545568
173	0xbc903a71	-0.017605992
174	0x3d435c9e	0.04769575
175	0x3d397804	0.04528047
176	0x3cf80e65	0.030280301
177	0xbc21f815	-0.0098858075
178	0x3c8700d1	0.016479881
179	0x3d137e4b	0.036009114
180	0xbc45d4e7	-0.012074686
181	0x3c8dc415	0.017305413
182	0x3d13b28e	0.036058955
183	0x3d195513	0.03743465
184	0xbd2e33d4	-0.042529896
185	0x3d8017a0	0.06254506
186	0x3d2e3507	0.04253104
187	0xbd9d2ddc	-0.076747626
188	0x3d9d7ff7	0.07690423
189	0x3dd03a6a	0.101673916
190	0x3cee7d1f	0.029112397
191	0xbcb960b5	-0.022629121
192	0x3c387979	0.01125943
193	0xbcfc59ae	-0.030804481
194	0xbc11b56f	-0.008893355
195	0xbda1a04e	-0.07891904
196	0xbce70e8d	-0.02820518
197	0x3cc94ff0	0.02457425
198	0x3daea0cb	0.085267626
199	0x3ac30444	0.0014878591
200	0xbe2d10db	-0.16900961
201	0x3d89a438	0.06720775
202	0x3d62bb90	0.055354655
203	0xbd0a3b34	-0.033747867
204	0x3d8ccfe8	0.068755925
205	0x3df0b5c5	0.1175342
206	0x3ca4e0e3	0.020126766
207	0xbc9bda4b	-0.019024989
208	0x3c12ce24	0.008960281
209	0x3d3b385a	0.045708038
210	0xbc33f9dd	-0.010984865
211	0x3dcdcc37	0.100487165
212	0xbcccaa64	-0.024983592
213	0xbca5a5da	-0.020220686
214	0x3d42c05e	0.047546737
215	0x3d8e0d5a	0.0693614
216	0x3d2ab840	0.04167962
217	0xbc92d425	-0.017923424
218	0x3d07411e	0.033021085
219	0x3cd7b726	0.02633245
220	0x3d285db5	0.04110499
221	0xbb4094ca	-0.002938556
222	0xbcdaf4a1	-0.026727976
223	0xbc8c0cea	-0.017096002
224	0x3d6aae41	0.057295088
225	0x3de05415	0.109535374
226	0x3c7eefd9	0.015560114
227	0x3c81a628	0.0158263
228	0xbbc80931	-0.0061046113
229	0xbcf1f472	-0.029535506
230	0xbbc69fcb	-0.0060615293
231	0xbc39ae52	-0.011333065
232	0xbc56b471	-0.013104544
233	0x3bc0496e	0.0058681285
234	0xbe1e15a7	-0.15437947
235	0x3bd0b119	0.006368768
236	0xbba04182	-0.0048906216
237	0xbd321279	-0.04347465
238	0x3c49fdeb	0.012328605
239	0xbd99f2b8	-0.07516998
240	0x3d264c03	0.040599834
241	0x3cc5cb22	0.024144713
242	0x3db0addf	0.08626913
243	0x3c24e878	0.0100651905
244	0x3c3a8232	0.01138358
245	0x3b83c95a	0.0040218057
246	0x3c5977a0	0.01327315
247	0xbd568bbf	-0.052379366
248	0x3cc96f6c	0.024589263
249	0xbd6216a1	-0.05519736
250	0xbcb95339	-0.022622691
251	0xbde80525	-0.11329106
252	0x3d84e40a	0.064888075
253	0x3dc000ab	0.093751274
254	0xbd119640	-0.03554368
255	0x3d205274	0.039141133

GRU/quant_dense_41/LastValueQuant/FakeQuantWithMinMaxVars__2817 f4 [32, 1]
0	0xbe2a72a2	-0.16645291
1	0xbe9f3119	-0.31092146
2	0xbe0a49ae	-0.13504669
3	0xbe3dbe66	-0.18529662
4	0xbe8576bd	-0.26067153
5	0xbe2a72a2	-0.16645291
6	0x3d0d80fa	0.03454683
7	0x3e611ea5	0.21984346
8	0xbd9a5e28	-0.0753749
9	0x3d00a3cc	0.03140621
10	0x3e71331e	0.23554656
11	0x3dba871b	0.091078006
12	0xbdc0f5b2	-0.09421863
13	0xbe8576bd	-0.26067153
14	0x3d678d3c	0.056531176
15	0x3dc76449	0.09735925
16	0xbeaa72a2	-0.33290583
17	0xbe13ef91	-0.14446856
18	0xbebf5a0c	-0.37373388
19	0xbcb41884	-0.021984346
20	0x3e341884	0.17587477
21	0x3e1d9574	0.15389043
22	0xbe03db18	-0.12876546
23	0x3e341884	0.17587477
24	0xbeb74fd0	-0.3580308
25	0xbecc373a	-0.39885885
26	0xbec76449	-0.389437
27	0xbec8ffef	-0.39257762
28	0xbdc0f5b2	-0.09421863
29	0x3e4a9b94	0.19785911
30	0xbd9a5e28	-0.0753749
31	0xbe7e104c	-0.24810904

GRU/quant_dense_40/LastValueQuant/FakeQuantWithMinMaxVars__2816 f4 [32, 32]
0	0x3e0539fc	0.130104
1	0xbe954355	-0.29152933
2	0xbe657215	-0.224068
3	0xbde2fa7e	-0.11082934
4	0xbd455f62	-0.048186667
5	0xbe254caf	-0.16142534
6	0x3c1de5e8	0.009637333
7	0x3cd91c1f	0.026502667
8	0xbe6cd8dc	-0.231296
9	0xbe07b193	-0.13251333
10	0x3e2f2b0d	0.17106266
11	0xbe76b73a	-0.24093333
12	0xbe82c264	-0.25538933
13	0x3e967f21	0.29393867
14	0x3dcf3dc0	0.101192
15	0x3e8b64f7	0.27225468
16	0xbbecd8dc	-0.007228
17	0x3dd42cf0	0.10360134
18	0xbe2cb376	-0.16865334
19	0x3e97baed	0.296348
20	0xbe47d6fa	-0.19515601
21	0x3d8a292b	0.067461334
22	0xbe4f3dc0	-0.202384
23	0x3e39096c	0.1807
24	0x3e5b93b7	0.21443067
25	0x3d804acc	0.06264266
26	0xbe07b193	-0.13251333
27	0x3e8a292b	0.26984534
28	0xbe71c80b	-0.23611467
29	0x3e2cb376	0.16865334
30	0x3e4f3dc0	0.202384
31	0x3e004acc	0.12528533
32	0xbe6f5074	-0.23370534
33	0x3e167f21	0.14696933
34	0x3e6082e6	0.21924934
35	0x3e0a292b	0.13492267
36	0xbe0a292b	-0.13492267
37	0x3d9de5e8	0.07709867
38	0xbe98f6b9	-0.29875734
39	0xbe9a3285	-0.30116668
40	0x3e7e1e01	0.24816133
41	0x3d76b73a	0.060233332
42	0x3e82c264	0.25538933
43	0x3e0f185a	0.13974133
44	0xbdf1c80b	-0.11805733
45	0xbd76b73a	-0.060233332
46	0x3e9b6e50	0.303576
47	0x3e2a3bde	0.166244
48	0xbe8675c8	-0.26261735
49	0x3c455f62	0.012046667
50	0x3e0ca0c3	0.137332
51	0xbdfba66a	-0.122876
52	0x3e67e9ad	0.22647734
53	0xbd3b8104	-0.045777336
54	0x3d591c1f	0.053005334
55	0x3e6f5074	0.23370534
56	0x3e167f21	0.14696933
57	0xbd14078a	-0.036140002
58	0x00000000	0.0
59	0x3e71c80b	0.23611467
60	0x3d27c446	0.040958665
61	0xbe6082e6	-0.21924934
62	0x3e818698	0.25298
63	0x3d6cd8dc	0.057824
64	0x3e954355	0.29152933
65	0x3d804acc	0.06264266
66	0x3dca4e91	0.098782666
67	0x3e0a292b	0.13492267
68	0xbd27c446	-0.040958665
69	0xbd8f185a	-0.069870666
70	0xbd94078a	-0.072280005
71	0x3e8ca0c3	0.274664
72	0xbe8539fc	-0.260208
73	0xbe1de5e8	-0.15419734
74	0x3e83fe30	0.25779867
75	0xbe657215	-0.224068
76	0x3d804acc	0.06264266
77	0xbe31a2a5	-0.173472
78	0xbe341a3d	-0.17588134
79	0x3e542cf0	0.20720267
80	0xbe51b558	-0.20479333
81	0x3e743fa3	0.238524
82	0xbe22d517	-0.159016
83	0x3e9b6e50	0.303576
84	0xbe14078a	-0.14456001
85	0xbe22d517	-0.159016
86	0x3e804acc	0.25057065
87	0xbe6a6144	-0.22888666
88	0xbd14078a	-0.036140002
89	0xbe8a292b	-0.26984534
90	0xbe0ca0c3	-0.137332
91	0x3d27c446	0.040958665
92	0xbe8ddc8e	-0.27707332
93	0xbe455f62	-0.19274667
94	0xbe6a6144	-0.22888666
95	0x3decd8dc	0.115648
96	0xbe1de5e8	-0.15419734
97	0x00000000	0.0
98	0xbdcf3dc0	-0.101192
99	0xbe42e7ca	-0.19033733
100	0x3e743fa3	0.238524
101	0xbd8539fc	-0.065052
102	0xbe62fa7e	-0.22165868
103	0xbc455f62	-0.012046667
104	0xbcc55f62	-0.024093334
105	0xbe9a3285	-0.30116668
106	0x3dbb8104	0.09155467
107	0xbdcf3dc0	-0.101192
108	0xbdcf3dc0	-0.101192
109	0xbe9caa1c	-0.30598533
110	0x3c6cd8dc	0.014456
111	0x3df1c80b	0.11805733
112	0xbe3df89b	-0.18551867
113	0x3d3b8104	0.045777336
114	0xbc1de5e8	-0.009637333
115	0x3e47d6fa	0.19515601
116	0x3e7e1e01	0.24816133
117	0x3e2f2b0d	0.17106266
118	0x3cc55f62	0.024093334
119	0xbe39096c	-0.1807
120	0x3e71c80b	0.23611467
121	0xbe97baed	-0.296348
122	0x3d6cd8dc	0.057824
123	0xbe967f21	-0.29393867
124	0xbdf6b73a	-0.120466664
125	0x3d0a292b	0.033730667
126	0xbe62fa7e	-0.22165868
127	0x3e02c264	0.12769467
128	0xbdacb376	-0.08432667
129	0xbe71c80b	-0.23611467
130	0x3e67e9ad	0.22647734
131	0xbdfba66a	-0.122876
132	0xbdc55f62	-0.096373335
133	0xbb1de5e8	-0.0024093334
134	0x3e31a2a5	0.173472
135	0xbe804acc	-0.25057065
136	0x3d591c1f	0.053005334
137	0x3e5b93b7	0.21443067
138	0x3df6b73a	0.120466664
139	0xbdc07033	-0.093964
140	0xbe0a292b	-0.13492267
141	0xbd14078a	-0.036140002
142	0x3e407033	0.187928
143	0x3e07b193	0.13251333
144	0x3db1a2a5	0.086736
145	0x3dc55f62	0.096373335
146	0x3dc07033	0.093964
147	0x3e1de5e8	0.15419734
148	0xbd76b73a	-0.060233332
149	0xbe2a3bde	-0.166244
150	0x3e9a3285	0.30116668
151	0xbe14078a	-0.14456001
152	0x3d98f6b9	0.074689336
153	0x3dde0b4e	0.10842
154	0xbe6f5074	-0.23370534
155	0xbe62fa7e	-0.22165868
156	0x3e8a292b	0.26984534
157	0x3dacb376	0.08432667
158	0x3e0a292b	0.13492267
159	0x3cd91c1f	0.026502667
160	0x3e56a487	0.209612
161	0xbd804acc	-0.06264266
162	0x3e0539fc	0.130104
163	0xbd76b73a	-0.060233332
164	0xbb9de5e8	-0.0048186667
165	0xbe8b64f7	-0.27225468
166	0x3d98f6b9	0.074689336
167	0xbd0a292b	-0.033730667
168	0x3e94078a	0.28912002
169	0x3cd91c1f	0.026502667
170	0x3e82c264	0.25538933
171	0xbe56a487	-0.209612
172	0xbe542cf0	-0.20720267
173	0xbdd91c1f	-0.10601067
174	0x3b9de5e8	0.0048186667
175	0xbe3df89b	-0.18551867
176	0xbd31a2a5	-0.043368
177	0x3df6b73a	0.120466664
178	0xbdecd8dc	-0.115648
179	0x3cd91c1f	0.026502667
180	0xbe07b193	-0.13251333
181	0x3e98f6b9	0.29875734
182	0x3e02c264	0.12769467
183	0xbe804acc	-0.25057065
184	0x3e8f185a	0.27948266
185	0xbe743fa3	-0.238524
186	0x3dfba66a	0.122876
187	0xbdfba66a	-0.122876
188	0x3e51b558	0.20479333
189	0x3e0f185a	0.13974133
190	0xbe92cbbe	-0.28671068
191	0x3e205d80	0.15660667
192	0xbd94078a	-0.072280005
193	0xbe2cb376	-0.16865334
194	0xbe14078a	-0.14456001
195	0x3cb1a2a5	0.021684
196	0xbe743fa3	-0.238524
197	0xbdf6b73a	-0.120466664
198	0x3e76b73a	0.24093333
199	0x3e254caf	0.16142534
200	0x3e9b6e50	0.303576
201	0x3cc55f62	0.024093334
202	0x3e4a4e91	0.19756533
203	0x3dfba66a	0.122876
204	0xbe8a292b	-0.26984534
205	0x3d3b8104	0.045777336
206	0x3e967f21	0.29393867
207	0xbdecd8dc	-0.115648
208	0x3e8f185a	0.27948266
209	0x3e0539fc	0.130104
210	0xbb1de5e8	-0.0024093334
211	0xbe2f2b0d	-0.17106266
212	0x3e0a292b	0.13492267
213	0x3c455f62	0.012046667
214	0x3e0a292b	0.13492267
215	0xbe2a3bde	-0.166244
216	0x3decd8dc	0.115648
217	0xbe2f2b0d	-0.17106266
218	0x3e818698	0.25298
219	0xbe542cf0	-0.20720267
220	0x3e76b73a	0.24093333
221	0xbe51b558	-0.20479333
222	0xbe6f5074	-0.23370534
223	0xbb1de5e8	-0.0024093334
224	0xbe88ed5f	-0.267436
225	0xbe542cf0	-0.20720267
226	0x3e341a3d	0.17588134
227	0x3da2d517	0.079508
228	0xbe8539fc	-0.260208
229	0x3dd91c1f	0.10601067
230	0x3c9de5e8	0.019274667
231	0x3d14078a	0.036140002
232	0x3e254caf	0.16142534
233	0xbdcf3dc0	-0.101192
234	0xbd455f62	-0.048186667
235	0x3b9de5e8	0.0048186667
236	0xbd804acc	-0.06264266
237	0xbdf1c80b	-0.11805733
238	0x3e5e0b4e	0.21684
239	0x3e254caf	0.16142534
240	0x3e82c264	0.25538933
241	0xbe9b6e50	-0.303576
242	0x3e407033	0.187928
243	0xbc6cd8dc	-0.014456
244	0x3d4f3dc0	0.050596
245	0xbe0f185a	-0.13974133
246	0xbe87b193	-0.26502666
247	0xbdfba66a	-0.122876
248	0xbe7ba66a	-0.245752
249	0x3e2f2b0d	0.17106266
250	0x3c6cd8dc	0.014456
251	0x3e818698	0.25298
252	0x3d455f62	0.048186667
253	0xbe3b8104	-0.18310934
254	0x3dca4e91	0.098782666
255	0x3e591c1f	0.21202134
