models/station_2/model_latest.onnx (onnx, 407794 bytes, 12 tensors)

W__1465 f4 [1, 96, 64]
0.14700249 0.038661297 -0.20880164 0.109646074 -0.06782922 -0.23034027 0.10846936 0.20981322
0.2422745 -0.14962889 -0.11400166 -0.078750454 -0.14818239 0.21340078 0.041036427 0.18903694
0.12870556 0.09447593 0.20361203 -0.15765497 0.053837035 -0.11845433 0.11802868 -0.1659571
-0.07686364 -0.043178476 -0.10020023 -0.24038999 -0.063400045 -0.08827433 0.1839837 0.059009206
-0.19399537 0.037887193 -0.13069333 -0.25028828 0.08859546 -0.051293503 -0.09016302 -0.04534944
-0.041969635 0.14445876 0.106515795 -0.09427182 0.023219407 0.004475335 -0.07319413 0.07295708
0.07557067 0.09001294 0.12171977 -0.05085318 -0.062187456 0.035167422 -0.16624565 0.17788924
-0.00033750525 -0.07481552 0.2735388 0.21028662 0.14772788 -0.06370335 -0.061321653 0.005120849
0.029527605 -0.039559048 0.020276397 -0.058593154 0.1558827 0.14036219 0.14190954 -0.11676655
0.04773173 -0.007868665 -0.21536213 -0.10201501 0.25450554 0.071465015 -0.09135741 -0.24899976
0.016856687 -0.19811022 0.2303077 -0.036136087 -0.21265937 0.060980167 -0.0134752095 -0.23121384
-0.09237605 0.053847145 0.13797054 -0.16710334 0.072339796 0.02084889 -0.21968375 -0.101772755
-0.06474308 0.112858124 -0.06973788 -0.05405362 0.21657349 -0.012322504 0.18400952 -0.03953111
-0.13966762 0.14093432 -0.16405864 0.16052462 -0.042397317 0.07780886 0.09546892 0.040016532
-0.18759173 0.0948855 -0.020116094 0.1942967 -0.1666304 -0.09084661 0.054769598 0.2219381
0.032100156 0.10880777 0.31888098 -0.18888153 0.011022024 -0.22854178 0.2115501 -0.1615232
0.022853063 0.2369851 -0.08121019 -0.22139513 0.27382085 -0.06188633 -0.07345267 -0.053165596
-0.08325339 0.03607527 0.25007296 0.1079036 -0.14726144 0.0035533144 0.087462015 0.31996962
0.13275981 0.0211608 -0.2985676 -0.001388965 0.05874503 0.21038471 -0.05887447 -0.066069745
0.2869947 -0.07933666 -0.239784 -0.1495296 0.20664898 -0.10267726 0.24118152 -0.05695546
0.028458608 -0.043715324 0.00756459 -0.0074466905 -0.17310913 -0.22305638 -0.024865 0.30127516
0.25891188 -0.14071879 0.026963975 -0.0854917 -0.15796208 0.029184481 -0.25443253 -0.018167702
0.1581347 0.16242698 -0.010028859 -0.22501725 0.17829214 0.029727083 0.06581668 -0.19059213
-0.038443148 0.035462406 0.12431204 0.15912575 0.00929999 0.114747375 -0.05660917 -0.119112074
0.1330297 0.09819255 -0.24304342 0.211967 0.030720068 -0.16134734 -0.12369193 0.14000274
0.20385286 0.22804962 0.028521718 -0.0923956 0.1687475 0.25571382 -0.04647359 -0.14279981
0.017553324 -0.059323125 0.21033892 0.14015697 -0.13444693 0.0037336256 0.11617983 0.018330721
-0.18202549 -0.28414956 -0.15354921 -0.21632925 0.18488546 -0.044059534 0.08889391 0.16055652
-0.20973954 0.22037092 -0.048562873 -0.014434701 0.07172071 0.11768465 -0.020393062 -0.2567356
-0.24925517 -0.062114775 0.0025352682 0.11419518 0.09741475 -0.20020278 0.055392183 -0.14389113
0.12043581 -0.0716717 0.046557873 -0.008180943 0.06231105 0.09059312 -0.2642935 0.116815075
0.31500104 -0.13546509 0.26095393 -0.13662976 -0.09404967 -0.12651952 -0.09554205 0.061550908
00000000: d287 163e 4f5b 1e3d 19d0 55be 1f8e e03d
00000010: 0cea 8abd 52de 6bbe 2f25 de3d 47d9 563e
00000020: ce16 783e 5138 19be b479 e9bd eb47 a1bd
00000030: 20bd 17be bc85 5a3e d015 283d e692 413e
00000040: 64cb 033e 997c c13d ac7f 503e 4e70 21be
00000050: 3984 5c3d 2f98 f2bd 05b9 f13d a8f0 29be
00000060: af6a 9dbd eadb 30bd c735 cdbd cb28 76be
00000070: e2d7 81bd 2cc9 b4bd 3966 3c3e a3b3 713d
00000080: b9a6 46be 9a2f 1b3d 79d4 05be c925 80be
00000090: 8971 b53d 2319 52bd 64a7 b8bd 56c0 39bd
000000a0: 5ae8 2bbd ffec 133e f424 da3d 9511 c1bd
000000b0: a036 be3c d5a5 923b cee6 95bd 866a 953d
000000c0: ccc4 9a3d b458 b83d 3748 f93d 6d4b 50bd
000000d0: 46b8 7ebd b70b 103d 4d3c 2abe 9928 363e
000000e0: 30f3 b0b9 e138 99bd 470d 8c3e 6055 573e
000000f0: fa45 173e e776 82bd 6a2c 7bbd cbcc a73b
00000100: e0e3 f13c ab08 22bd b01a a63c 60ff 6fbd
00000110: b79f 1f3e 1bbb 0f3e bc50 113e 4d23 efbd
00000120: 5982 433d 93eb 00bc e487 5cbe 3fed d0bd
00000130: 8d4e 823e 405c 923d 9819 bbbd cbf9 7ebe
00000140: 0917 8a3c 68dd 4abe c8d5 6b3e 6f03 14bd
00000150: 61c3 59be 57c6 793d 20c7 5cbc 52c3 6cbe
00000160: a82f bdbd d38e 5c3d 2648 0d3e 231d 2bbe
00000170: e326 943d 4bcb aa3c c7f4 60be 3c6e d0bd
00000180: 0598 84bd 2922 e73d bcd2 8ebd 5467 5dbd
00000190: 71c5 5d3e 54e4 49bc fe6c 3c3e 60eb 21bd
000001a0: 0705 0fbe 1651 103e fdfe 27be 9160 243e
000001b0: cfa8 2dbd 405a 9f3d 3685 c33d 60e8 233d
000001c0: 0c18 40be 5453 c23d 82ca a4bc b7f5 463e
000001d0: 29a1 2abe ca0d babd 1656 603d be43 633e
000001e0: 747b 033d 9cd6 de3d 5e44 a33e 296a 41be
000001f0: b895 343c db06 6abe 97a0 583e 5666 25be
00000200: 5936 bb3c 39ac 723e 8751 a6bd 68b5 62be
00000210: 3f32 8c3e 857c 7dbd 5a6e 96bd 2bc4 59bd
00000220: c180 aabd aac3 133d 9009 803e 90fc dc3d
00000230: b4cb 16be b9de 683b 491f b33d 0fd3 a33e
00000240: 30f2 073e 6a59 ad3c dadd 98be ef0d b6ba
00000250: a19e 703d 176f 573e 5b26 71bd 934f 87bd
00000260: f8f0 923e 427b a2bd f089 75be 4a1e 19be
00000270: ca9b 533e 7548 d2bd 4af8 763e 214a 69bd
00000280: 0722 e93c d70e 33bd 61e0 f73b 5e03 f4bb
00000290: 8543 31be e468 64be afb1 cbbc bd40 9a3e
000002a0: 1990 843e 9618 10be 8ee3 dc3c 4616 afbd
000002b0: d0c0 21be 4b14 ef3c fb44 82be 6fd4 94bc
000002c0: 10ee 213e 4253 263e 1550 24bc ec6a 66be
000002d0: 3792 363e 3686 f33c e5ca 863d 952a 43be
000002e0: 9076 1dbd 0741 113d 5097 fe3d dcf1 223e
000002f0: fc5e 183c ac00 eb3d 04df 67bd 08f1 f3bd
00000300: f038 083e 2d19 c93d 60e0 78be e10d 593e
00000310: a7a8 fb3c 3d38 25be 3252 fdbd e15c 0f3e
00000320: cebe 503e d785 693e 61a6 e93c e839 bdbd
00000330: 25cc 2c3e ecec 823e 175b 3ebd 1d3a 12be
00000340: fdcb 8f3c cefc 72bd 1663 573e 4f85 0f3e
00000350: 75ac 09be d8af 743b b1ef ed3d 4f2a 963c
00000360: e464 3abe 0d7c 91be 013c 1dbe 6a85 5dbe
00000370: 9d52 3d3e c577 34bd 030e b63d ee68 243e
00000380: f6c5 56be eaa8 613e dde9 46bd 867f 6cbc
00000390: 4fe2 923d a604 f13d 5a0f a7bc d972 83be
000003a0: bf3c 7fbe 106c 7ebd be26 263b 2adf e93d
000003b0: 6281 c73d f501 4dbe eae2 623d 3258 13be
000003c0: 0da7 f63d 9dc8 92bd 78b3 3e3d 5d09 06bc
000003d0: df39 7f3d e388 b93d 7a51 87be be3c ef3d
000003e0: d147 a13e 5cb7 0abe c19b 853e ace8 0bbe
000003f0: 1d9d c0bd 558e 01be 8dab c3bd ce1c 7c3d

W__1451 f4 [1, 192, 128]
0.07879894 0.11264824 -0.17413346 0.15475439 0.12093796 -0.1461047 -0.013009197 -0.04690281
-0.0034465704 0.034206826 -0.07329256 -0.05752738 0.051077764 0.23047255 -0.13454528 -0.07356959
-0.010933343 -0.020673554 -0.1931231 -0.011870058 -0.13050176 -0.04343924 0.12025863 0.01351924
0.0526206 -0.11377033 -0.11507223 -0.16385162 -0.23943998 0.11664584 0.15120065 -0.01613933
0.11795613 0.09675005 -0.01726837 -0.0009037635 0.106694505 -0.04131892 0.08552076 -0.014763047
0.14258868 0.12788545 0.006785965 0.13654573 -0.020173732 -0.01470998 -0.050929695 0.01716608
0.22583406 0.10505048 -0.094333306 -0.017277045 -0.05475981 -0.027176727 0.08773624 -0.028487619
-0.07439708 -0.18334253 0.056961235 0.057109486 0.069500096 -0.118397936 -0.086748034 -0.114414595
-0.05999244 -0.058956802 0.071829386 0.014848545 0.14804362 -0.05030693 -0.0678031 0.056978263
0.0835752 -0.117185496 0.09772206 0.044525497 0.09631267 0.11103327 -0.14862186 0.14788261
0.052363794 0.1335348 0.012913511 -0.037217356 0.0456113 0.011181619 -0.12329331 -0.078201674
-0.011969522 -0.12770426 0.12272677 -0.01007049 0.09677113 -0.016713925 -0.05417149 0.08723327
-0.08620293 0.11647237 -0.07206534 -0.043140568 -0.04130503 0.04682984 0.06032064 0.04592153
-0.096019275 0.058243033 0.099973164 -0.122505344 -0.0120650865 0.03787979 0.08856934 -0.08086189
-0.16880551 0.039537955 0.16669466 -0.04814711 -0.05698708 0.07006892 -0.089289926 0.15816751
0.23109582 -0.0052610384 0.07874323 0.0926941 -0.07985681 -0.015334196 -0.057924658 0.050479796
-0.049490027 0.10266612 0.056145024 0.0685187 -0.07549924 -0.16566564 -0.035645913 0.052526068
-0.19098264 0.15661356 0.02231555 -0.2046427 -0.059994206 0.13156784 0.1830673 0.15548079
-0.11813294 -0.13864087 -0.057804693 -0.12581593 0.104206644 0.024057291 0.048078094 0.03475443
-0.04143579 0.050829872 -0.079728745 -0.027149573 -0.20934781 0.03747183 -0.07316555 0.15513359
0.090484954 0.0008128132 -0.14916913 0.097197756 -0.0465194 -0.0757615 -0.26162538 -0.0965485
0.12176013 -0.031906508 0.022762513 -0.122368746 0.12790851 0.07189373 0.08495154 0.09086236
0.14012134 0.042721707 -0.17248808 0.053463787 0.06701657 0.1367998 -0.122246325 0.074365966
0.032174278 0.11115628 -0.06494723 0.10035523 -0.037318893 0.06959789 0.03416804 -0.108905025
-0.0063726916 -0.16177166 0.21353994 -0.036892734 0.052547056 -0.10699278 -0.0076543745 0.19709091
0.039738044 -0.073615134 0.028355503 -0.11378594 0.050813235 0.20961165 -0.046808027 0.15278934
0.019304715 0.1609864 0.017568756 0.14462689 -0.09148804 -0.112083 0.07359116 -0.10230681
-0.18418966 -0.117490105 0.03490156 -0.15432496 0.05260183 -0.061052248 0.061264977 0.06380709
0.17932606 0.22098342 0.09585771 -0.096583046 0.0196109 -0.20869459 -0.08508041 0.1965744
0.0072236937 -0.2568228 -0.11067993 -0.081577666 -0.11045288 -0.027304249 0.13205123 0.09230957
-0.26102477 0.15002014 0.040700145 -0.081799135 0.2138101 0.06723438 0.1623754 -0.030311914
0.2830368 0.020847602 0.03441059 0.14637803 0.07242647 -0.07557917 -0.05238109 0.097803816
00000000: 5761 a13d 1fb4 e63d 0b50 32be ef77 1e3e
00000010: 52ae f73d 789c 15be 8724 55bc 291d 40bd
00000020: dbdf 61bb 751c 0c3d 691a 96bd d4a1 6bbd
00000030: eb36 513d ff00 6c3e 3dc6 09be a7ab 96bd
00000040: c421 33bc 965b a9bc 10c2 45be a27a 42bc
00000050: 41a2 05be 58ed 31bd 284a f63d cd7f 5d3c
00000060: b388 573d 6b00 e9bd fdaa ebbd b8c8 27be
00000070: c12f 75be 04e4 ee3d 58d4 1a3e a136 84bc
00000080: fc92 f13d e424 c63d 6676 8dbc 8bea 6cba
00000090: a682 da3d 073e 29bd 8225 af3d b5e0 71bc
000000a0: c402 123e 67f4 023e cd5c de3b a5d2 0b3e
000000b0: 6243 a5bc 2102 71bc a89b 50bd e19f 8c3c
000000c0: 0b41 673e b524 d73d d231 c1bd 9788 8dbc
000000d0: d34b 60bd baa1 debc 0faf b33d de5e e9bc
000000e0: 7f5d 98bd 25be 3bbe 2f50 693d a3eb 693d
000000f0: 1156 8e3d 9e7a f2bd f4a8 b1bd 3352 eabd
00000100: a2ba 75bd b07c 71bd 491b 933d 5047 733c
00000110: bf98 173e a40e 4ebd 5adc 8abd 0a62 693d
00000120: 7929 ab3d f3fe efbd 8122 c83d 5e60 363d
00000130: 943f c53d 6965 e33d 5430 18be 8a6e 173e
00000140: 6b7b 563d 59bd 083e 3193 533c 3a71 18bd
00000150: ead2 3a3d 1c33 373c 3481 fcbd 3328 a0bd
00000160: d01b 44bc e8c4 02be 2c58 fb3d b2fe 24bc
00000170: f12f c63d a4eb 88bc ede2 5dbd 5ba7 b23d
00000180: 298b b0bd 1189 ee3d fe96 93bd 2ab4 30bd
00000190: 772f 29bd a5d0 3f3d c712 773d 3718 3c3d
000001a0: c1a5 c4bd 3f90 6e3d bbbe cc3d 15e4 fabd
000001b0: a4ac 45bc d727 1b3d d863 b53d eb9a a5bd
000001c0: 5adb 2cbe 8df2 213d 01b2 2a3e e735 45bd
000001d0: 496b 69bd 4b80 8f3d a3dd b6bd aaf6 213e
000001e0: 62a4 6c3e ca64 acbb 2144 a13d 68d6 bd3d
000001f0: f88b a3bd 483c 7bbc 6842 6dbd e7c3 4e3d
00000200: 0eb6 4abd 9d42 d23d 53f8 653d 8853 8c3d
00000210: 589f 9abd 41a4 29be 7301 12bd 9325 573d
00000220: f490 43be 4e5f 203e 1acf b63c db8d 51be
00000230: 7cbc 75bd b8b9 063e ff75 3b3e 5b36 1f3e
00000240: afef f1bd dff7 0dbe 9dc4 6cbd e4d5 00be
00000250: 4b6a d53d cc13 c53c 89ed 443d a95a 0e3d
00000260: 93b8 29bd fc32 503d d348 a3bd c868 debc
00000270: 465f 56be 107c 193d d2d7 95bd 57db 1e3e
00000280: 2d50 b93d f812 553a cbbf 18be 9e0f c73d
00000290: 208b 3ebd d828 9bbd c3f3 85be 38bb c5bd
000002a0: 605d f93d 66b0 02bd 7378 ba3c 779c fabd
000002b0: 73fa 023e 053d 933d 13fb ad3d 0c16 ba3d
000002c0: f87b 0f3e f5fc 2e3d b7a0 30be d8fc 5a3d
000002d0: fc3f 893d 3f15 0c3e 485c fabd 2f4d 983d
000002e0: 2dc9 033d e7a5 e33d 0e03 85bd 0b87 cd3d
000002f0: b2db 18bd 5789 8e3d c9f3 0b3d 9909 dfbd
00000300: 03d2 d0bb 78a7 25be 37aa 5a3e d61c 17bd
00000310: 953b 573d 081f dbbd 8cd1 fabb 33d2 493e
00000320: 5cc4 223d 88c3 96bd cd49 e83c 9a08 e9bd
00000330: 8a21 503d 70a4 563e c6b9 3fbd cf74 1c3e
00000340: ec24 9e3c 9ed9 243e 5aec 8f3c 1219 143e
00000350: 155e bbbd c68b e5bd f6b6 963d 3c86 d1bd
00000360: 379c 3cbe a79e f0bd f0f4 0e3d 5d07 1ebe
00000370: 0475 573d ec11 7abd fcf0 7a3d 4bad 823d
00000380: 40a1 373e 7a49 623e 0c51 c43d 55cd c5bd
00000390: 0aa7 a03c 09b4 55be a33e aebd cd4a 493e
000003a0: bcb4 ec3b 477e 83be 29ac e2bd 3112 a7bd
000003b0: 1f35 e2bd 29ad dfbc 7038 073e cd0c bd3d
000003c0: 0aa5 85be e19e 193e 32b5 263d 4e86 a7bd
000003d0: 09f1 5a3e 2eb2 893d bd45 263e b150 f8bc
000003e0: 33ea 903e 97c8 aa3c 1ef2 0c3d 1fe4 153e
000003f0: 5454 943d 40c9 9abd 8e8d 56bd 5e4d c83d

W__1438 f4 [1, 384, 6]
0.06866544 -0.042418223 -0.09949191 -0.048188306 0.18926258 0.11947836 0.27252394 0.31359398
0.20116612 0.282325 0.1951506 0.046934653 0.175121 0.2518096 0.012778858 0.13741596
-0.0063879723 -0.07194508 -0.09027907 -0.36557823 -0.32867113 -0.2565785 -0.21944773 0.101376556
0.09416392 0.17169887 0.124238096 0.13273141 0.1330992 0.10814805 -0.059710626 0.028493822
-0.03200521 -0.099188395 0.07698492 -0.014893644 0.065502636 0.044287372 0.107597806 0.024341492
0.018383874 0.03442379 0.047061395 -0.0050930027 0.026426556 0.13271892 -0.08399041 -0.13673714
-0.11123089 -0.38245872 -0.29163665 -0.3109384 -0.18461007 -0.057432182 -0.05683567 -0.15949987
0.12413284 0.15660796 -0.16626184 -0.010793508 -0.113463275 -0.07492817 -0.15770549 -0.102235325
0.11148794 -0.007813331 0.12239018 0.18979011 0.00660845 0.13154094 0.15766357 -0.06863053
-0.30432966 -0.18432653 -0.41344097 -0.2829646 -0.1449375 -0.060112383 0.001252976 -0.14110547
-0.15931949 -0.054833446 -0.0171379 0.011021071 0.064308785 0.03986231 -0.04640986 -0.06286294
-0.17080896 0.031219538 -0.107547194 -0.29365486 -0.19819355 -0.28483382 -0.10216525 0.044965472
0.1361412 0.07749014 0.20245324 0.1839222 0.10317355 0.0075555337 0.057714034 0.061582323
-0.14430188 -0.019217856 -0.118783414 0.019138852 -0.16536076 -0.20573469 -0.16211198 -0.06940432
-0.10262343 -0.0007557184 -0.15396124 0.035777334 0.033668164 -0.08249294 -0.09170328 0.0878365
-0.14417708 -0.16163956 -0.20471208 -0.30462748 0.1083446 -0.029023303 -0.19143058 -0.18040302
-0.043237887 -0.06705204 -0.008675892 -0.073653765 -0.24191341 -0.055815518 0.033713605 -0.1653095
0.030010082 -0.09013168 0.027274072 0.052116342 0.045861453 -0.041029196 0.017018693 -0.07333358
0.08663667 0.0264262 -0.112657696 -0.07050824 0.10032823 0.060147442 -0.13856919 -0.17523278
-0.16233185 -0.10204308 -0.13438922 -0.016635304 -0.020228548 0.045626312 0.099666335 -0.07451959
0.17073041 0.0023420271 -0.113486625 0.20575766 -0.0025960198 0.04269134 0.08125432 0.08366229
-0.06377292 -0.24109732 0.027588313 0.030436296 -0.19888677 -0.118435904 -0.27387488 -0.26227528
-0.33791184 -0.195202 -0.20672478 0.017884746 0.025328547 0.008228975 -0.078179985 0.046368476
0.064611435 0.012142372 -0.082451895 0.04657389 0.09580177 -0.041644815 -0.0422851 0.058859747
-0.26454613 -0.2779683 -0.2910353 -0.25033888 -0.26021388 -0.087619856 0.11033448 0.076979086
-0.073574886 0.11093278 -0.049775977 0.17526796 -0.13993734 -0.17929392 -0.018957859 -0.10130606
-0.17603183 0.0149565535 -0.0025543075 -0.012469995 -0.11482645 -0.047012996 -0.04388552 -0.056191828
0.16699043 0.22931792 0.20957957 -0.023883706 0.013281932 0.0033779822 0.020846209 -0.043715294
-0.04819097 0.014418554 -0.02444008 -0.05468342 -0.1806048 -0.22440815 -0.3083339 -0.21698782
-0.093675435 -0.1602815 -0.119760215 -0.13224404 -0.0995715 -0.08568057 0.090361536 0.1747642
0.050558962 0.18199548 0.040087678 0.016639384 0.048464708 -0.089614235 -0.06807837 -0.040081315
-0.016581938 -0.12454494 0.058385752 -0.019906932 -0.1736165 -0.110328496 -0.23129493 -0.25711873
00000000: 77a0 8c3d bbbe 2dbd 6ac2 cbbd 1a61 45bd
00000010: 0dce 413e 12b1 f43d 4288 8b3e 648f a03e
00000020: 7efe 4d3e e78c 903e 8fd5 473e 8d3e 403d
00000030: eb52 333e 30ed 803e 6a5e 513c c5b6 0c3e
00000040: 3252 d1bb f157 93bd 3ce4 b8bd 122d bbbe
00000050: 9547 a8be 425e 83be e8b6 60be 839e cf3d
00000060: 03d9 c03d d4d1 2f3e 8b70 fe3d beea 073e
00000070: 284b 083e ba7c dd3d 2193 74bd e06b e93c
00000080: e517 03bd 4923 cbbd 45aa 9d3d 7804 74bc
00000090: 3f26 863d ad66 353d 3d5c dc3d cf67 c73c
000000a0: c799 963c f6ff 0c3d 73c3 403d 34e3 a6bb
000000b0: 817c d83c 78e7 073e 2a03 acbd d204 0cbe
000000c0: 05cd e3bd a1d1 c3be 6651 95be 5133 9fbe
000000d0: 6c0a 3dbe 023e 6bbd 85cc 68bd ef53 23be
000000e0: 5c39 fe3d d65d 203e 8b40 2abe 41d7 30bc
000000f0: 6f5f e8bd f173 99bd 8c7d 21be c160 d1bd
00000100: ca53 e43d 7c03 00bc b4a7 fa3d 5758 423e
00000110: b28b d83b abb2 063e 8f72 213e 2a8e 8cbd
00000120: 19d1 9bbe 18c0 3cbe 89ae d3be bce0 90be
00000130: 7f6a 14be 6738 76bd e63a a43a f47d 10be
00000140: a624 23be 0999 60bd c864 8cbc b991 343c
00000150: 53b4 833d a946 233d 4418 3ebd 49be 80bd
00000160: 8be8 2ebe 1ec0 ff3c b441 dcbd ee59 96be
00000170: 40f3 4abe bdd5 91be 043c d1bd b72d 383d
00000180: 9968 0b3e 27b3 9e3d e74f 4f3e 1a56 3c3e
00000190: a74c d33d 6994 f73b 8d65 6c3d bf3d 7c3d
000001a0: dfc3 13be c46e 9dbc b844 f3bd 15c9 9c3c
000001b0: 5554 29be 1dac 52be af00 26be da23 8ebd
000001c0: 3c2c d2bd 671b 46ba 04a8 1dbe 418b 123d
000001d0: a1e7 093d 0ff2 a8bd eece bbbd 9fe3 b33d
000001e0: 28a3 13be d784 25be 0ba0 51be 22f8 9bbe
000001f0: c6e3 dd3d 47c2 edbc 6106 44be 92bb 38be
00000200: 361a 31bd 9452 89bd 5425 0ebc c9d7 96bd
00000210: 26b8 77be d09e 64bd 4717 0a3d e546 29be
00000220: b4d7 f53c f596 b8bd e06d df3c f277 553d
00000230: 38d9 3b3d 3b0e 28bd c96a 8b3c ea2f 96bd
00000240: 916e b13d c27b d83c 14b9 e6bd a066 90bd
00000250: e378 cd3d 2a5d 763d 15e5 0dbe 3970 33be
00000260: 523a 26be f6fb d0bd 549d 09be c346 88bc
00000270: 57b6 a5bc a8e2 3a3d dd1d cc3d ba9d 98bd
00000280: f4d3 2e3e b27c 193b ad6b e8bd 23b2 523e
00000290: fc21 2abb 1ddd 2e3d aa68 a63d 2257 ab3d
000002a0: 609b 82bd 37e2 76be e300 e23c 8a55 f93c
000002b0: f9a8 4bbe 868e f2bd 5439 8cbe f248 86be
000002c0: c802 adbe 08e3 47be a9af 53be 0883 923c
000002d0: d07d cf3c d3d2 063c d41c a0bd dfec 3d3d
000002e0: 0053 843d cdf0 463c 8adc a8bd 43c4 3e3d
000002f0: b833 c43d c193 2abd 2433 2dbd eb16 713d
00000300: 9772 87be dc51 8ebe 9402 95be 6b2c 80be
00000310: c13a 85be 0a72 b3bd 0bf7 e13d 36a7 9d3d
00000320: 6eae 96bd ba30 e33d e5e1 4bbd 7279 333e
00000330: bc4b 0fbe d398 37be 834d 9bbc 8d79 cfbd
00000340: b041 34be 550c 753c 2b66 27bb f34e 4cbc
00000350: 212a ebbd b390 40bd 4ec1 33bd 6729 66bd
00000360: 8aff 2a3e 51d2 6a3e 079c 563e c3a7 c3bc
00000370: 769c 593c 2361 5d3b abc5 aa3c cf0e 33bd
00000380: e563 45bd cc3b 6c3c 9036 c8bc b9fb 5fbd
00000390: 77f0 38be 40cb 65be f1dd 9dbe 0e32 5ebe
000003a0: e8d8 bfbd d520 24be d844 f5bd fb6a 07be
000003b0: 25ec cbbd 4b79 afbd 780f b93d 63f5 323e
000003c0: ea16 4f3d 065d 3a3e fa32 243d 514f 883c
000003d0: ee82 463d ab87 b7bd ac6c 8bbd 4e2c 24bd
000003e0: d8d6 87bc 6b11 ffbd e625 6f3d dd13 a3bc
000003f0: 86c8 31be e8f3 e1bd 94d8 6cbe 11a5 83be

R__1466 f4 [1, 96, 32]
0.09226545 -0.14112648 -0.28923306 -0.10368736 0.076027006 0.052538343 -0.2168397 -0.024337936
-0.10829287 -0.035777956 0.13404743 0.08651094 -0.08946495 0.031753603 0.066587456 0.0741699
-0.048355713 -0.030372042 0.08296209 0.07679835 -0.09346621 0.08206297 -0.10366848 0.026256697
0.012266483 -0.18635325 -0.121585734 -0.0049170526 -0.19759813 -0.031115836 0.030071637 -0.09309573
-0.1237622 -0.16252384 -0.15162167 0.09509946 -0.0050244727 0.1212171 0.06796498 -0.03322457
-0.096935615 0.13927433 0.01178066 -0.16049708 0.2709216 0.18087317 0.0804598 -0.06448239
-0.062425815 0.14296974 0.030813146 0.041719314 -0.057493947 0.011256595 -0.054614086 0.05345031
0.18788117 0.04394283 -0.025494605 0.070842355 -0.11484462 0.22459875 0.06149266 -0.019401995
-0.03791059 0.016661592 0.011799129 -0.09200089 -0.23524256 -0.14349557 -0.2506306 0.2084021
-0.034402687 -0.09822648 0.16766246 -0.12621298 -0.22430576 -0.30504277 -0.0047235317 0.08311545
-0.011387898 0.018156737 -0.18870887 -0.0461948 0.1574424 0.17628111 0.19444884 -0.02571932
0.06325356 -0.17690742 0.072845474 0.091670886 0.2150662 0.053699326 0.040542427 0.13425414
0.015067212 -0.10945494 0.13903134 -0.0495068 0.053979706 0.2619605 0.18552312 -0.18323477
-0.22557645 0.25231606 -0.17008907 0.053750932 0.11753622 0.086975746 -0.12836541 -0.01029333
0.007264434 0.26295203 0.17880596 0.26389238 0.01682066 0.09913445 -0.13224232 -0.065949485
0.06324979 0.03738422 0.03586978 0.18008839 0.053899065 0.23053747 -0.0052106422 -0.09890704
0.010139222 0.09161887 0.11634938 -0.033473305 -0.11022094 -0.073162794 -0.24728791 0.27479377
-0.031761423 -0.26073474 0.21547231 -0.06381536 -0.20945784 -0.20833676 -0.23598072 0.21398205
0.10419974 -0.056570582 -0.146074 -0.103333876 0.3367088 -0.13496354 0.09647697 -0.18436694
0.038878687 -0.034108575 0.18233496 0.10874226 -0.0034044033 -0.21348584 -0.11891824 0.34169507
0.23611316 0.011809084 0.15508805 -0.10673231 0.20878178 -0.2204064 -0.09305182 0.068154246
0.21252967 -0.036396578 0.11678095 -0.1156212 -0.15408787 -0.22617535 0.16560264 -0.05502594
0.1360373 -0.061717127 -0.12518282 -0.14572965 0.0101879 -0.2412428 0.18082134 0.018562768
-0.086945355 -0.09670795 0.3513616 -0.20605156 0.039109558 -0.08763255 0.025601605 -0.0817451
-0.121955365 -0.1299023 -0.30969277 0.105543435 -0.121362954 0.0024039694 0.046966564 0.1312788
-0.060616154 0.070074014 0.13918997 0.039786153 0.1262268 0.01749575 -0.16542669 -0.07170032
0.21694787 0.1632834 0.06106435 0.062108003 0.12678051 -0.020719375 0.030974522 0.02348125
0.22068097 -0.056246057 0.026766678 0.03883138 0.11558823 -0.046583846 -0.012270991 0.15319851
-0.2402323 -0.24123415 0.0026044955 0.1664781 0.270819 0.138359 0.107342884 0.0302811
-0.22090855 0.2751871 -0.2524539 0.14387766 0.25943145 0.17727739 0.2571285 0.03682628
-0.042166263 0.06878684 0.39923993 0.050289307 -0.1699591 0.05637107 0.030362977 0.017737642
0.07462184 0.07870018 0.0059477906 -0.056107342 -0.10606609 0.064965375 0.12289816 -0.09697819
00000000: abf5 bc3d 7683 10be 5b16 94be 0a5a d4bd
00000010: 0cb4 9b3d 7232 573d 3a0b 5ebe 5a60 c7bc
00000020: a7c8 ddbd e88b 12bd bb43 093e a62c b13d
00000030: 6639 b7bd 1110 023d 015f 883d 63e6 973d
00000040: a410 46bd cace f8bc 07e8 a93d 7448 9d3d
00000050: 366b bfbd a110 a83d 2450 d4bd 4918 d73c
00000060: 5cf9 483c 63d3 3ebe f101 f9bd 3a1f a1bb
00000070: 2a57 4abe a3e6 febc cb58 f63c f9a8 bebd
00000080: 0977 fdbd a66c 26be b642 1bbe 81c3 c23d
00000090: 55a4 a4bb ac40 f83d 3931 8b3d 7d16 08bd
000000a0: 2e86 c6bd ee9d 0e3e ab03 413c 5959 24be
000000b0: 3cb6 8a3e d136 393e 1cc8 a43d 580f 84bd
000000c0: 36b2 7fbd a966 123e da6b fc3c dfe1 2a3d
000000d0: c67e 6bbd 956d 383c 05b3 5fbd b6ee 5a3d
000000e0: ec63 403e 66fd 333d 10da d0bc cc15 913d
000000f0: a833 ebbd 37fd 653e badf 7b3d eff0 9ebc
00000100: 2348 1bbd e47d 883c 2251 413c f66a bcbd
00000110: 6de3 70be 81f0 12be a752 80be 5c67 553e
00000120: d5e9 0cbd f72a c9bd b5af 2b3e fa3d 01be
00000130: 69b0 65be 912e 9cbe dbc7 9abb 6f38 aa3d
00000140: 4e94 3abc 70bd 943c e63c 41be c236 3dbd
00000150: 9538 213e 0983 343e 991d 473e 53b1 d2bc
00000160: 158b 813d 3827 35be 0230 953d f2bd bb3d
00000170: 503a 5c3e d3f3 5b3d d10f 263d eb79 093e
00000180: 78dc 763c e929 e0bd 3b5e 0e3e a4c7 4abd
00000190: d319 5d3d b01f 863e c6f9 3d3e e5a1 3bbe
000001a0: 83fd 66be 922f 813e d42b 2ebe f029 5c3d
000001b0: d4b6 f03d 5720 b23d 3972 03be 5ba5 28bc
000001c0: 7d0a ee3b a6a1 863e e918 373e e71c 873e
000001d0: 7bcb 893c 0107 cb3d 886a 07be 8610 87bd
000001e0: 1b89 813d 3220 193d 31ec 123d 1769 383e
000001f0: 44c5 5c3d 0412 6c3e 09be aabb c68f cabd
00000200: fb1e 263c ada2 bb3d 9548 ee3d 4e1b 09bd
00000210: 84bb e1bd 60d6 95bd 0b39 7dbe c5b1 8c3e
00000220: 4418 02bd 067f 85be c6a4 5c3e a1b1 82bd
00000230: 1e7c 56be 3b56 55be eea4 71be 1c1e 5b3e
00000240: ac66 d53d 8eb6 67bd 6c94 15be b6a0 d3bd
00000250: 1965 ac3e e233 0abe b895 c53d b0ca 3cbe
00000260: 423f 1f3d 6fb5 0bbd 04b6 3a3e 43b4 de3d
00000270: 691c 5fbb 089c 5abe 688b f3bd a8f2 ae3e
00000280: a6c7 713e e37a 413c 67cf 1e3e 7896 dabd
00000290: e4ca 553e 37b2 61be f491 bebd 7494 8b3d
000002a0: 61a1 593e 9414 15bd da2a ef3d cfca ecbd
000002b0: 36c9 1dbe 839a 67be bd93 293e e162 61bd
000002c0: 5d4d 0b3e 19cb 7cbd ed2f 00be 273a 15be
000002d0: 26eb 263c 5a08 77be 3b29 393e f210 983c
000002e0: 6810 b2bd d10e c6bd abe5 b33e 2eff 52be
000002f0: 5831 203d b278 b3bd 75ba d13c fa69 a7bd
00000300: bcc3 f9bd 1c05 05be 0d90 9ebe 2827 d83d
00000310: 248d f8bd ea8b 1d3b 0360 403d f36d 063e
00000320: a548 78bd f782 8f3d d187 0e3e cef6 223d
00000330: 9941 013e 3f53 8f3c 9d65 29be 9ed7 92bd
00000340: 9527 5e3e c333 273e 9d1e 7a3d f664 7e3d
00000350: c0d2 013e aebb a9bc 48be fd3c c05b c03c
00000360: 31fa 613e 4462 66bd cb45 db3c a70d 1f3d
00000370: 86b9 ec3d b4ce 3ebd 440c 49bc 12e0 1c3e
00000380: 75ff 75be 1606 77be 2fb0 2a3b 3c79 2a3e
00000390: caa8 8a3e fbad 0d3e 96d6 db3d 1210 f83c
000003a0: da35 62be 53e5 8c3e a341 81be aa54 133e
000003b0: 33d4 843e 3488 353e 59a6 833e 27d7 163d
000003c0: 88b6 2cbd 1de0 8c3d 2d69 cc3e 29fc 4d3d
000003d0: c209 2ebe 5ae5 663d c7bb f83c 884e 913c
000003e0: 56d3 983d 8f2d a13d afe5 c23b d0d0 65bd
000003f0: 2e39 d9bd 910c 853d 08b2 fb3d 809c c6bd

R__1452 f4 [1, 192, 64]
-0.13648461 0.06455643 0.06848215 0.061379083 0.15973565 0.003575946 -0.0349368 -0.032373253
-0.076152325 0.2178973 -0.09138219 -0.027739359 -0.11460519 0.0882364 -0.15929623 0.050796166
0.00019002295 0.002347137 -0.017481627 0.07643422 -0.055778183 0.16303225 -0.042861618 -0.11315586
-0.15525645 -0.06428542 -0.09400378 0.052581914 -0.051805753 -0.06056646 0.055679366 0.08567047
-0.0374547 0.06325891 -0.022584192 0.13888928 -0.035631746 0.061481174 0.08987619 -0.05040248
-0.039926473 0.28849316 0.108377464 -0.057852197 -0.03482192 -0.12500185 0.06421061 -0.101666376
0.05395314 0.061961453 -0.011800334 -0.09525108 0.0078058797 -0.006080383 -0.081449434 0.08258123
-0.08789222 -0.02949612 0.01801097 0.031065209 0.07146542 0.24449046 0.21831094 0.055676997
0.020693835 0.20674595 -0.078480974 -0.09955325 0.13573375 -0.11209709 -0.19242798 0.16362587
0.062884524 -0.013175774 0.11441752 0.16319811 0.014884347 -0.08577325 0.030739393 -0.005185011
0.019185856 -0.009994564 0.033189695 0.07175175 -0.058693632 -0.07382166 -0.015151232 -0.06854558
0.094070844 0.051662788 -0.15914929 0.04500692 0.10188705 -0.07939936 0.21887724 -0.14252761
-0.016417107 -0.0007686872 0.018599812 -0.09053141 -0.08582185 0.11007666 0.11766364 -0.10817556
-0.029288068 -0.07376904 0.16260754 -0.022096124 0.043986093 -0.058196682 0.019868294 -0.0036546586
-0.056816258 -0.05416437 0.047329754 -0.039087124 -0.14456654 0.14029112 -0.12209027 0.08655887
0.15972528 0.020881023 0.012254208 0.19448459 -0.07845699 0.07990468 0.113832265 0.07920428
0.17070729 -0.14230183 -0.12108152 0.14924695 -0.1851457 -0.025334666 -0.08440361 -0.10902814
0.07288978 0.25122342 -0.2331857 -0.12285028 0.21896352 0.23930804 -0.06472811 -0.19526814
-0.19511917 0.048326287 0.16777427 -0.10143281 -0.07631087 -0.008825251 0.026010014 -0.20566308
-0.34206855 -0.10681515 0.21182878 -0.097777896 -0.17846781 0.1052222 -0.07225064 0.24401352
-0.26052558 0.1402482 -0.12960434 0.12431624 0.25789648 0.16150784 -0.07186802 -0.049925376
-0.36115053 0.24134323 0.0091597345 0.08754153 0.112831466 0.029523706 0.10858764 -0.38302433
-0.19041033 -0.31582403 0.116772495 0.26518434 0.052563123 -0.20868316 -0.17929173 0.17879209
0.06604249 -0.17265154 0.11970771 -0.3902706 -0.08944226 -0.19745588 0.08829904 -0.04458933
-0.012098482 -0.022378728 -0.06912112 -0.19519268 0.11882364 0.037865467 0.06037864 0.09971434
-0.033738356 -0.0675658 0.16226281 0.06047241 0.01808778 0.016456112 0.11571872 0.022162829
-0.03455729 0.088840894 0.07866438 0.08572796 0.097626835 0.17610605 0.12944958 0.07215118
0.08626182 -0.05022807 -0.15893292 0.039268125 -0.010011005 -0.054263204 0.015449829 -0.2110232
0.13937265 0.030867632 -0.07181994 0.071381375 -0.15032858 -0.08148123 0.07619087 0.048750762
0.08652749 0.08408136 0.09824629 -0.1115246 -0.04660957 -0.035519842 -0.021146525 -0.015216661
-0.041162804 0.14407875 0.07049159 -0.11453145 0.037574727 -0.10855509 0.09044657 0.043401264
0.004442709 0.063904226 -0.040967934 0.17653735 0.13711181 -0.0027793944 0.009055978 -0.028438374
00000000: 9fc2 0bbe 2936 843d 5f40 8c3d a268 7b3d
00000010: be91 233e 6b5a 6a3b e419 0fbd d199 04bd
00000020: c0f5 9bbd 7820 5f3e 9626 bbbd a73d e3bc
00000030: 20b6 eabd 49b5 b43d 8d1e 23be a40f 503d
00000040: e640 4739 6dd2 193b a135 8fbc 8b89 9c3d
00000050: aa77 64bd edf1 263e aa8f 2fbd 42be e7bd
00000060: 8cfb 1ebe 13a8 83bd 0e85 c0bd 2260 573d
00000070: 4532 54bd 8914 78bd 0c10 643d 0074 af3d
00000080: 196a 19bd e38d 813d 7c02 b9bc fe38 0e3e
00000090: 98f2 11bd afd3 7b3d 0211 b83d d572 4ebd
000000a0: f189 23bd 60b5 933e 01f5 dd3d 6df6 6cbd
000000b0: 6ea1 0ebd 7c00 00be da80 833d 7636 d0bd
000000c0: f8fd 5c3d 4bcb 7d3d 3056 41bc 0013 c3bd
000000d0: 77c8 ff3b f33d c7bb f6ce a6bd 5920 a93d
000000e0: d600 b4bd d9a1 f1bc be8b 933c 777c fe3c
000000f0: 765c 923d b55b 7a3e e78c 5f3e 900d 643d
00000100: 1e86 a93c 36b5 533e a2ba a0bd 93e2 cbbd
00000110: cafd 0a3e 2993 e5bd d70b 45be 8a8d 273e
00000120: 9ac9 803d 34df 57bc bc53 ea3d 681d 273e
00000130: 7add 733c e3a9 afbd 2ed1 fb3c 06e7 a9bb
00000140: a82b 9d3c 3dc0 23bc ebf1 073d 95f2 923d
00000150: bc68 70bd cf2f 97bd df3c 78bc a061 8cbd
00000160: 37a8 c03d 5c9c 533d 08f8 22be 2d59 383d
00000170: 28aa d03d 229c a2bd 5b21 603e c2f2 11be
00000180: 2b7d 86bc ba81 49ba a25e 983c 8868 b9bd
00000190: 5ec3 afbd df6f e13d a2f9 f03d 268b ddbd
000001a0: 88ed efbc 3914 97bd 9782 263e ee02 b5bc
000001b0: c32a 343d a55f 6ebd d5c2 a23c ff82 6fbb
000001c0: 2ab8 68bd 75db 5dbd d8dc 413d d219 20bd
000001d0: 4009 14be 7aa8 0f3e 770a fabd c745 b13d
000001e0: 068f 233e ae0e ab3c e0c5 483c f826 473e
000001f0: 0fae a0bd 11a5 a33d e420 e93d db35 a23d
00000200: e4cd 2e3e 92b7 11be 97f9 f7bd 31d4 183e
00000210: d696 3dbe a58a cfbc cddb acbd 254a dfbd
00000220: 3d47 953d 5ba0 803e 3bc8 6ebe ed98 fbbd
00000230: f937 603e 2b0d 753e 2c90 84bd 5ff4 47be
00000240: 52cd 47be c9f1 453d 05cd 2b3e 01bc cfbd
00000250: e048 9cbd c997 10bc f412 d53c 5899 52be
00000260: 9c23 afbe e7c1 dabd a5e9 583e c73f c8bd
00000270: 44c0 36be bd7e d73d 25f8 93bd aede 793e
00000280: 9c63 85be 399d 0f3e 00b7 04be 8399 fe3d
00000290: 020b 843e 5062 253e 8a2f 93bd 8d7e 4cbd
000002a0: b9e8 b8be ae22 773e b612 163c f948 b33d
000002b0: 2f14 e73d b3db f13c 3263 de3d c41b c4be
000002c0: edfa 42be b0b3 a1be 6b26 ef3d 3ec6 873e
000002d0: 6e4c 573d 0ab1 55be 4098 37be 4615 373e
000002e0: 4941 873d 91cb 30be 5129 f53d 8cd1 c7be
000002f0: 812d b7bd e031 4abe 21d6 b43d 4da3 36bd
00000300: b638 46bc 9853 b7bc 608f 8dbd 97e0 47be
00000310: cf59 f33d d218 1b3d 984f 773d 0837 cc3d
00000320: 3b31 0abd f05f 8abd 3928 263e ebb1 773d
00000330: d32c 943c f8ce 863c f0fd ec3d d28e b53c
00000340: f28b 0dbd 37f2 b53d ca1a a13d 2492 af3d
00000350: 94f0 c73d 2555 343e 6e8e 043e ffc3 933d
00000360: 09aa b03d f3bb 4dbd 50bf 22be 9dd7 203d
00000370: 3305 24bc 1843 5ebd 4821 7d3c 7716 58be
00000380: b4b7 0e3e 1ede fc3c 5516 93bd 6630 923d
00000390: bcef 19be a2df a6bd f509 9c3d e1ae 473d
000003a0: 5335 b13d d932 ac3d 5a35 c93d 0267 e4bd
000003b0: ade9 3ebd 417d 11bd 7a3b adbc 4d4f 79bc
000003c0: 549a 28bd 6189 133e e55d 903d 778f eabd
000003d0: f5e7 193d 2252 debd 0d3c b93d 86c5 313d
000003e0: 2594 913b 38e0 823d fecd 27bd 35c6 343e
000003f0: 0a67 0c3e 8026 36bb 865f 143c 98f7 e8bc

R__1439 f4 [1, 384, 128]
0.11954449 -0.0015905038 -0.05433031 -0.0026948028 -0.031509012 -0.04525273 0.07519169 -0.03205387
0.0152711375 0.13876158 0.029344993 -0.060967535 0.032540742 0.0141316485 0.021930356 0.012805846
-0.040226225 -0.1278138 0.01826392 -0.0063928827 0.018992739 -0.012836622 -0.09170341 0.07462941
-0.060575858 0.11916988 0.05670798 0.08601421 -0.104679026 -0.018901141 0.0293476 -0.044722904
0.006190758 -0.103858836 -0.10966109 0.003984536 0.011821514 -0.089722924 -0.056900486 -0.114855394
0.04888933 -0.030907458 0.13576524 0.009702255 0.015702011 0.020505577 -0.017144304 -0.02915909
-0.0037808702 0.018341083 -0.0028764321 0.0167011 -0.0063599404 0.025482561 -0.076410204 0.03140774
-0.06137445 0.05269377 -0.104351684 0.025469868 -0.027000781 0.02809378 0.057336327 0.061026614
0.08377862 -0.068736725 0.10829537 0.0011193128 -0.047787912 0.071982384 0.019962719 0.11529115
0.08574808 -0.004683582 0.0321861 -0.03910257 0.026701173 0.14425386 0.062347986 -0.0677351
-0.017910494 0.032410096 0.060667805 0.036359802 0.020746121 -0.024534667 0.072788276 0.08134086
0.0965596 -0.12203817 0.052829314 -0.022448398 -0.03782963 -0.0137819005 -0.025644356 -0.116165295
0.16173446 0.24071078 -0.02762133 -0.051929045 0.045057863 -0.059151314 -0.022555187 0.006396446
0.0050638677 -0.0520368 -0.01867312 0.082015865 -0.07233869 0.001843157 0.008837236 -0.16470893
-0.024725044 0.11752136 0.045064148 0.016813835 0.08203077 0.034619506 0.11935082 -0.042834263
0.22359444 -0.034577683 -0.008767566 -0.020587293 0.03791796 0.045319535 -0.16219914 0.06984263
-0.23525406 0.07464448 -0.099196464 0.0650743 -0.14163038 0.15690313 0.0019378387 -0.06918508
0.19149631 0.17860451 0.025497738 -0.15087673 -0.1398934 -0.012273079 0.26089695 0.14076872
0.014025166 -0.17457676 -0.0050165686 -0.17463692 0.037914228 -0.25179017 -0.11181713 -0.10782488
0.16477916 0.043501914 0.106965385 -0.045596898 -0.057347238 0.16268732 -0.2762363 0.16035917
-0.19357209 -0.13916166 -0.07945506 0.20859218 -0.11890862 -0.021687739 0.027633632 0.009193926
0.054667655 0.0014511603 0.10992155 -0.16851617 0.040494412 -0.03389949 0.03786982 -0.21215239
0.17708501 0.1376738 0.08015614 -0.0027114651 0.17976421 0.047566287 -0.0060160356 -0.1289223
-0.18883517 0.12819625 -0.032288972 0.1368295 0.25548542 0.13361163 -0.043921657 -0.051827844
0.0409767 0.13561769 0.0962454 0.13835517 0.030871011 -0.098962314 0.11320777 0.10839452
0.1611587 -0.034798652 0.073362075 -0.0650591 0.0071811774 -0.023131296 -0.123882376 -0.058963902
-0.16467766 -0.14561358 -0.13022457 0.15408786 -0.061971314 -0.05123838 -0.09939042 0.193161
0.018481473 -0.06375545 0.13334711 0.14471932 0.08838091 0.09778336 -0.11463559 0.0813913
-0.00026330678 0.025773063 -0.15555955 -0.14369515 0.1796319 -0.0312449 0.18231036 -0.06555228
-0.025897546 0.01833737 0.16884711 -0.19352528 -0.036784917 0.09169893 0.07246228 0.18985179
-0.018004736 0.1577777 0.020427505 0.030454786 0.029829143 -0.168578 0.13901514 -0.04349179
-0.15756807 0.19426869 0.08282386 0.02673906 0.0023142132 0.17613216 0.058120638 0.112530895
00000000: bed3 f43d 7478 d0ba 7689 5ebd 4a9b 30bb
00000010: 980f 01bd ed5a 39bd 1afe 993d eb4a 03bd
00000020: cb33 7a3c 8417 0e3e e964 f03c 18b9 79bd
00000030: 7149 053d 6e88 673c 4aa7 b33c 9ccf 513c
00000040: 41c4 24bd 9fe1 02be 379e 953c 637b d1bb
00000050: a996 9b3c b250 52bc ffce bbbd 4ed7 983d
00000060: 641e 78bd 570f f43d a046 683d 3828 b03d
00000070: f561 d6bd 91d6 9abc 616a f03c 5d2f 37bd
00000080: d8db ca3b f1b3 d4bd fe95 e0bd b690 823b
00000090: 06af 413c a7c0 b7bd 7c10 69bd 4e39 ebbd
000000a0: 2e40 483d a331 fdbc 0b06 0b3e 35f6 1e3c
000000b0: 81a1 803c 50fb a73c 3672 8cbc 0bdf eebc
000000c0: 7ac8 77bb 0a40 963c 8682 3cbb bfd0 883c
000000d0: 0c67 d0bb cec0 d03c f47c 9cbd 67a5 003d
000000e0: c663 7bbd 6cd5 573d 56b6 d5bd 2fa6 d03c
000000f0: be30 ddbc ed24 e63c 7fd9 6a3d 0bf7 793d
00000100: 2094 ab3d d7c5 8cbd f7c9 dd3d e8b5 923a
00000110: 42bd 43bd 806b 933d db88 a33c c41d ec3d
00000120: b09c af3d bc78 99bb 92d5 033d 042a 20bd
00000130: 6bbc da3c 49b7 133e 9a60 7f3d b3b8 8abd
00000140: 07b9 92bc 73c0 043d ce7e 783d 04ee 143d
00000150: c5f3 a93c edfc c8bc 0512 953d 0996 a63d
00000160: 0ac1 c53d 26ef f9bd 8d63 583d b4e5 b7bc
00000170: 3ef3 1abd 7bcd 61bc 1d14 d2bc 12e8 edbd
00000180: b89d 253e e37c 763e 2146 e2bc 8db3 54bd
00000190: 988e 383d a648 72bd a8c5 b8bc 4799 d13b
000001a0: cdee a53b 8a24 55bd 5ff8 98bc eff7 a73d
000001b0: 4f26 94bd 1696 f13a 0eca 103c 75a9 28be
000001c0: 2d8c cabc 0aaf f03d 2f95 383d 2bbd 893c
000001d0: c0ff a73d 2fcd 0d3d 346e f43d fb72 2fbd
000001e0: f1f5 643e 54a1 0dbd d6a5 0fbc afa6 a8bc
000001f0: dd4f 1b3d faa0 393d 8817 26be a709 8f3d
00000200: 71e6 70be 35df 983d 8427 cbbd ad45 853d
00000210: 8e07 11be 37ab 203e 14ff fd3a e8b0 8dbd
00000220: 9c17 443e 1ae4 363e a2e0 d03c 6e7f 1abe
00000230: 3740 0fbe 0615 49bc 4994 853e ad25 103e
00000240: cfc9 653c 40c4 32be 0762 a4bb 05d4 32be
00000250: f34b 1b3d a4ea 80be 6100 e5bd 4ad3 dcbd
00000260: debb 283e 102f 323d ab10 db3d d0c3 3abd
00000270: f0e4 6abd 8197 263e d86e 8dbe 3235 243e
00000280: c337 46be 6580 0ebe 56b9 a2bd 3099 553e
00000290: 5d86 f3bd 7caa b1bc ed5f e23c 1fa2 163c
000002a0: 31eb 5f3d dc34 be3a 8d1e e13d 818f 2cbe
000002b0: 78dd 253d 31da 0abd 621d 1b3d 7a3e 59be
000002c0: c655 353e 5cfa 0c3e e728 a43d d6b2 31bb
000002d0: 1c14 383e ded4 423d 2a22 c5bb 3504 04be
000002e0: 025e 41be e145 033e 7141 04bd 081d 0c3e
000002f0: fcce 823e 7dd1 083e 32e7 33bd 6f49 54bd
00000300: 2fd7 273d 5ddf 0a3e 4f1c c53d faac 0d3e
00000310: 34e5 fc3c c1ac cabd 7ad9 e73d f2fd dd3d
00000320: c906 253e 0889 0ebd db3e 963d b53d 85bd
00000330: 1550 eb3b d87d bdbc 0bb6 fdbd 2284 71bd
00000340: 43a1 28be ba1b 15be 9759 05be 35c9 1d3e
00000350: a2d5 7dbd 56df 51bd 348d cbbd ffcb 453e
00000360: 7566 973c 3892 82bd 258c 083e 4d31 143e
00000370: 0d01 b53d a442 c83d 10c6 eabd 7bb0 a63d
00000380: 700c 8ab9 0822 d33c 014b 1fbe d224 13be
00000390: 6df1 373e 4ef5 ffbc 91af 3a3e 4640 86bd
000003a0: 1727 d4bc 4138 963c 42e6 2c3e 7e2b 46be
000003b0: c8ab 16bd a6cc bb3d 1b67 943d 8268 423e
000003c0: ab7e 93bc 7a90 213e 9557 a73c 517c f93c
000003d0: 3f5c f43c b69f 2cbe fc59 0e3e 7224 32bd
000003e0: 8659 21be 5fee 463e 8e9f a93d e00b db3c
000003f0: 0eaa 173b fd5b 343e e80f 6e3d 9976 e63d

GRU/quant_dense_21/LastValueQuant/FakeQuantWithMinMaxVars__1427 f4 [32, 1]
0.073643476 -0.22706738 0.006136956 -0.052164126 -0.24547824 -0.23934129 -0.06136956 0.006136956
-0.08284891 0.10432825 -0.027616303 0.37435433 -0.38355976 0.16262934 -0.04295869 0.16876629
-0.2516152 -0.28536847 -0.28536847 -0.11353369 -0.21479346 0.09512282 0.04909565 0.38969672
-0.08591738 0.19331412 -0.04295869 0.2945739 -0.17797174 0.1258076 -0.25468367 0.3804913
00000000: 64d2 963d 5a84 68be 8518 c93b 0daa 55bd
00000010: a65e 7bbe e215 75be a65e 7bbd 8518 c93b
00000020: b0ac a9bd 0daa d53d 963b e2bc 5fab bf3e
00000030: f261 c4be 4e88 263e 74f5 2fbd 12d1 2c3e
00000040: b5d3 80be d11b 92be d11b 92be 5a84 e8bd
00000050: d1f2 5bbe c1cf c23d 8518 493d 5486 c73e
00000060: 74f5 afbd 23f4 453e 74f5 2fbd 64d2 963e
00000070: 393e 36be b5d3 003e e665 82be c1cf c23e

GRU/quant_dense_20/LastValueQuant/FakeQuantWithMinMaxVars__1426 f4 [32, 32]
-0.18403792 0.24018508 0.07798217 0.0717436 0.056147162 -0.22770794 -0.14036791 -0.10917504
-0.09981718 -0.034312155 -0.20587294 0.05926645 0.06862431 -0.15596434 0.15596434 -0.09357861
0.0155964345 -0.031192869 -0.20587294 -0.09045932 -0.09981718 -0.28073582 -0.14036791 -0.2370658
-0.028073581 0.20587294 0.25890082 -0.27137795 0.19339578 -0.0155964345 -0.10293647 0.25578153
-0.14972576 0.11541361 -0.24018508 0.2838551 -0.04990859 -0.31504798 -0.29945153 0.046789303
0.18715721 -0.07486288 -0.3337637 -0.24954295 -0.2370658 0.10917504 0.30257082 0.14660648
-0.0717436 0.06550502 -0.27761653 -0.24954295 0.19339578 0.19339578 -0.14660648 0.17156078
0.12789077 0.24642366 0.0717436 0.2152308 -0.18403792 0.081101455 0.15284505 0.081101455
-0.1185329 -0.18091863 -0.36495656 0.16844149 -0.09357861 -0.087340035 -0.04990859 0.021835009
0.27449724 0.06862431 0.09669789 0.22146937 0.2900937 -0.2121115 0.14660648 -0.17468007
0.031192869 0.24954295 0.19339578 0.23082723 0.0155964345 -0.081101455 -0.31816727 -0.0031192868
0.2152308 0.084220745 -0.2370658 0.2152308 -0.09045932 -0.03743144 -0.10605575 0.07486288
-0.26825866 0.13101004 -0.16220291 -0.062385738 -0.2152308 -0.087340035 -0.05926645 0.10605575
-0.01871572 -0.27449724 0.09045932 0.28073582 0.0 0.25266224 0.14036791 -0.11541361
-0.25890082 -0.06862431 0.24954295 0.25890082 0.14036791 0.23082723 -0.15908363 -0.16844149
0.043670017 0.1902765 0.25578153 -0.040550727 -0.1653222 -0.24330437 0.1902765 -0.14036791
0.1902765 -0.012477147 -0.081101455 0.19339578 -0.10605575 0.2152308 -0.056147162 0.1902765
-0.081101455 -0.3088094 -0.12789077 0.13412933 0.24642366 -0.00935786 -0.0031192868 -0.20275365
-0.14972576 0.0717436 0.13412933 0.2121115 0.21835008 -0.04990859 0.00935786 -0.046789303
0.13412933 0.03743144 0.084220745 0.27761653 0.13412933 -0.26513937 -0.087340035 0.15908363
-0.10293647 0.2152308 0.3275251 0.12789077 0.31504798 0.10917504 -0.01871572 -0.081101455
0.17779934 0.024954295 -0.13101004 0.024954295 -0.031192869 0.084220745 0.024954295 0.39614943
0.00935786 0.15908363 -0.053027876 0.25578153 -0.0062385737 0.2152308 -0.2121115 0.1434872
0.15908363 0.1902765 0.31504798 0.17779934 0.3056901 0.11541361 0.043670017 0.081101455
-0.36495656 0.32440582 -0.26825866 0.26202008 0.13101004 -0.14660648 -0.21835008 0.16220291
0.10605575 0.25266224 0.25578153 0.20899221 0.27137795 0.27761653 0.32440582 0.0062385737
-0.24642366 0.09045932 -0.0062385737 0.26513937 -0.031192869 -0.20899221 -0.16844149 -0.13724862
0.21835008 -0.19651507 -0.17468007 0.10293647 0.16844149 -0.20587294 -0.01871572 0.124771476
-0.09045932 -0.084220745 0.27137795 0.23394652 -0.16844149 -0.056147162 -0.062385738 0.19963436
-0.07486288 0.13724862 -0.2370658 0.084220745 -0.20587294 -0.22458865 0.28073582 0.2370658
0.09357861 -0.19339578 0.084220745 -0.053027876 0.22146937 -0.24330437 0.34312156 0.17156078
0.09981718 -0.15908363 0.040550727 -0.18091863 0.03743144 -0.16844149 0.07486288 0.27137795
00000000: 7074 3cbe 14f3 753e 1eb5 9f3d 4fee 923d
00000010: 91fa 653d 452c 69be 9bbc 0fbe 2a97 dfbd
00000020: f36c ccbd e78a 0cbd 5bd0 52be 61c1 723d
00000030: e78a 8c3d 1eb5 1fbe 1eb5 1f3e 24a6 bfbd
00000040: 3088 7f3c 3088 ffbc 5bd0 52be bc42 b9bd
00000050: f36c ccbd 9bbc 8fbe 9bbc 0fbe 61c1 72be
00000060: 91fa e5bc 5bd0 523e a68e 843e 0df2 8abe
00000070: 8b09 463e 3088 7fbc 5bd0 d2bd ccf5 823e
00000080: b651 19be f95d ec3d 14f3 75be 7555 913e
00000090: f36c 4cbd f84d a1be b651 99be 24a6 3f3d
000000a0: 24a6 3f3e b651 99bd 13e3 aabe 3088 7fbe
000000b0: 61c1 72be 2a97 df3d 90ea 9a3e 0220 163e
000000c0: 4fee 92bd 7f27 863d c123 8ebe 3088 7fbe
000000d0: 8b09 463e 8b09 463e 0220 16be a1ad 2f3e
000000e0: ccf5 023e 7c56 7c3e 4fee 923d 7665 5c3e
000000f0: 7074 3cbe 8518 a63d 6a83 1c3e 8518 a63d
00000100: 61c1 f2bd bc42 39be 96db babe ed7b 2c3e
00000110: 24a6 bfbd 55df b2bd f36c 4cbd 55df b23c
00000120: e78a 8c3e e78a 8c3d 8b09 c63d dec8 623e
00000130: 2987 943e c233 59be 0220 163e 55df 32be
00000140: 3088 ff3c 3088 7f3e 8b09 463e f95d 6c3e
00000150: 3088 7f3c 8518 a6bd d2e6 a2be f36c 4cbb
00000160: 7665 5c3e ed7b ac3d 61c1 72be 7665 5c3e
00000170: bc42 b9bd b651 19bd c233 d9bd b651 993d
00000180: 3359 89be 7f27 063e 8518 26be 3088 7fbd
00000190: 7665 5cbe 55df b2bd 61c1 72bd c233 d93d
000001a0: b651 99bc e78a 8cbe bc42 b93d 9bbc 8f3e
000001b0: 0000 0000 f25c 813e 9bbc 0f3e f95d ecbd
000001c0: a68e 84be e78a 8cbd 3088 7f3e a68e 843e
000001d0: 9bbc 0f3e f95d 6c3e d2e6 22be ed7b 2cbe
000001e0: 55df 323d d8d7 423e ccf5 823e 8518 26bd
000001f0: 394a 29be c824 79be d8d7 423e 9bbc 0fbe
00000200: d8d7 423e f36c 4cbc 8518 a6bd 8b09 463e
00000210: c233 d9bd 7665 5c3e 91fa 65bd d8d7 423e
00000220: 8518 a6bd 441c 9ebe ccf5 02be 3359 093e
00000230: 7c56 7c3e b651 19bc f36c 4cbb a79e 4fbe
00000240: b651 19be 4fee 923d 3359 093e c233 593e
00000250: 2a97 5f3e f36c 4cbd b651 193c 24a6 3fbd
00000260: 3359 093e b651 193d ed7b ac3d c123 8e3e
00000270: 3359 093e 59c0 87be 55df b2bd d2e6 223e
00000280: 5bd0 d2bd 7665 5c3e 5fb1 a73e ccf5 023e
00000290: f84d a13e 2a97 df3d b651 99bc 8518 a6bd
000002a0: 0811 363e f36c cc3c 7f27 06be f36c cc3c
000002b0: 3088 ffbc ed7b ac3d f36c cc3c 19d4 ca3e
000002c0: b651 193c d2e6 223e c233 59bd ccf5 823e
000002d0: f36c ccbb 7665 5c3e c233 59be 4fee 123e
000002e0: d2e6 223e d8d7 423e f84d a13e 0811 363e
000002f0: 6a83 9c3e f95d ec3d 55df 323d 8518 a63d
00000300: 96db babe 8518 a63e 3359 89be 7f27 863e
00000310: 7f27 063e 0220 16be 2a97 5fbe 8518 263e
00000320: c233 d93d f25c 813e ccf5 823e 0e02 563e
00000330: 0df2 8a3e c123 8e3e 8518 a63e f36c cc3b
00000340: 7c56 7cbe bc42 b93d f36c ccbb 59c0 873e
00000350: 3088 ffbc 0e02 56be ed7b 2cbe e78a 0cbe
00000360: 2a97 5f3e 3f3b 49be 55df 32be 5bd0 d23d
00000370: ed7b 2c3e 5bd0 52be b651 99bc 3088 ff3d
00000380: bc42 b9bd ed7b acbd 0df2 8a3e ad8f 6f3e
00000390: ed7b 2cbe 91fa 65bd 3088 7fbd f36c 4c3e
000003a0: b651 99bd e78a 0c3e 61c1 72be ed7b ac3d
000003b0: 5bd0 52be 91fa 65be 9bbc 8f3e 61c1 723e
000003c0: 24a6 bf3d 8b09 46be ed7b ac3d c233 59bd
000003d0: dec8 623e c824 79be a1ad af3e a1ad 2f3e
000003e0: f36c cc3d d2e6 22be 8518 263d bc42 39be
000003f0: b651 193d ed7b 2cbe b651 993d 0df2 8a3e

GRU/quant_dense_20/BiasAdd/ReadVariableOp:0 f4 [32]
0.08903006 -0.044560153 -0.076594315 -0.04213699 -0.028354596 -0.07309274 -0.08227532 -0.019925267
0.017499726 0.00491737 -0.092750594 -0.02871211 -0.051603675 -0.004555268 0.036559533 -0.07046153
-0.018129118 -0.042452868 -0.09818848 -0.08401 -0.07781285 0.0074226893 0.045930423 0.031748608
-0.021087183 0.021274846 -0.028411532 -0.02674018 -0.033610657 0.00094701163 -0.017181527 -0.019994037
00000000: 6455 b63d b584 36bd 7bdd 9cbd d697 2cbd
00000010: e647 e8bc a5b1 95bd f77f a8bd 503a a3bc
00000020: 965b 8f3c e421 a13b 06f4 bdbd a935 ebbc
00000030: 605e 53bd 5c44 95bb 73bf 153d 224e 90bd
00000040: 8483 94bc 0fe3 2dbd 0b17 c9bd 6f0d acbd
00000050: 585c 9fbd 083a f33b 8a21 3c3d d40a 023d
00000060: 07bf acbc 9648 ae3c 4dbf e8bc 390e dbbc
00000070: 54ab 09bd e040 783a 46c0 8cbc 89ca a3bc

B__1467 f4 [1, 192]
-0.089713186 -0.15761289 0.06574143 -0.16135609 0.06271447 0.066108726 -0.010854948 -0.1578252
-0.16174664 0.15365262 0.04058913 0.0029409234 0.16380078 -0.2520587 0.15892072 0.08452914
0.039350588 -0.14564429 -0.19734775 -0.121958196 -0.13191761 0.022527777 0.13141707 -0.06628732
-0.10330482 -0.009810098 -0.058702983 0.06588494 -0.045125324 -0.036414713 0.06892419 0.0053839395
-0.060441747 -0.051547993 -0.061289404 0.026238583 -0.042499114 0.003302859 -0.005041932 -0.039794885
-0.013080236 0.061823025 0.048460692 -0.005059953 -0.021765409 -0.015052745 -0.09568212 -0.0057681524
0.044082083 -0.04054474 0.011022084 -0.0064919065 -0.04784027 -0.06696951 -0.0054107076 -0.10033807
-0.050568763 0.04626393 -0.025396004 0.009266398 -0.047074996 -0.02146737 -0.07709704 -0.12145865
0.021288274 0.047467448 -0.036896102 -0.0208741 -0.080769345 0.002088457 -0.028544081 -0.0053795325
0.019113615 -0.0717534 0.020510739 0.022664724 -0.024492634 -0.0370603 -0.0686117 0.07707622
-0.03949971 -0.033153262 -0.050810885 -0.09610123 0.05976579 0.027128836 0.015697453 0.002938528
-0.021107623 0.079924025 -0.027278842 0.01717449 0.00092386384 -0.05449147 -0.03489278 -0.013668902
-0.089713186 -0.15761289 0.06574143 -0.16135609 0.06271447 0.066108726 -0.010854948 -0.1578252
-0.16174664 0.15365262 0.04058913 0.0029409234 0.16380078 -0.2520587 0.15892072 0.08452914
0.039350588 -0.14564429 -0.19734775 -0.121958196 -0.13191761 0.022527777 0.13141707 -0.06628732
-0.10330482 -0.009810098 -0.058702983 0.06588494 -0.045125324 -0.036414713 0.06892419 0.0053839395
-0.060441747 -0.051547993 -0.061289404 0.026238583 -0.042499114 0.003302859 -0.005041932 -0.039794885
-0.013080236 0.061823025 0.048460692 -0.005059953 -0.021765409 -0.015052745 -0.09568212 -0.0057681524
0.044082083 -0.04054474 0.011022084 -0.0064919065 -0.04784027 -0.06696951 -0.0054107076 -0.10033807
-0.050568763 0.04626393 -0.025396004 0.009266398 -0.047074996 -0.02146737 -0.07709704 -0.12145865
0.025174076 0.06152344 -0.032373164 -0.014435507 -0.084556736 -0.0003057775 -0.026219927 0.00352382
0.015178144 -0.069529824 0.010314305 0.02234118 -0.030698268 -0.034417663 -0.06785464 0.076294966
-0.036120325 -0.034522243 -0.048280448 -0.089080706 0.05233312 0.02899283 0.020173378 0.007976875
-0.01917086 0.07909178 -0.03199535 0.007730848 -0.0020971666 -0.05302783 -0.021270277 -0.008854195
00000000: 8cbb b7bd 4665 21be 71a3 863d 883a 25be
00000010: 7270 803d 0364 873d f4d8 31bc ee9c 21be
00000020: e9a0 25be 1d57 1d3e ca40 263d 82bc 403b
00000030: 64bb 273e d70d 81be 1dbc 223e 9d1d ad3d
00000040: 152e 213d c723 15be 8715 4abe 38c5 f9bd
00000050: 6915 07be 2c8c b83c 3292 063e a5c1 87bd
00000060: 7a91 d3bd 89ba 20bc 8a72 70bd afee 863d
00000070: 55d5 38bd 9827 15bd 2028 8d3d c26b b03b
00000080: c491 77bd fd23 53bd 990a 7bbd 4cf2 d63c
00000090: 8d13 2ebd c774 583b cb36 a5bb f6ff 22bd
000000a0: 7c4e 56bc 243a 7d3d b87e 463d f6cd a5bb
000000b0: 5f4d b2bc ca9f 76bc fdf4 c3bd c502 bdbb
000000c0: 6a8f 343d 3e12 26bd f995 343c 0fba d4bb
000000d0: 29f4 43bd 4f27 89bd 4e4c b1bb 0c7e cdbd
000000e0: 3121 4fbd 3f7f 3d3d 480b d0bc 17d2 173c
000000f0: b6d1 40bd 57dc afbc 0ee5 9dbd 50bf f8bd
00000100: bf64 ae3c 3a6d 423d 5e20 17bd 2900 abbc
00000110: 666a a5bd 7fde 083b 47d5 e9bc ca46 b0bb
00000120: 2894 9c3c 72f3 92bd 2306 a83c 5fab b93c
00000130: c7a4 c8bc 8bcc 17bd 4a84 8cbd 23da 9d3d
00000140: 73ca 21bd b7cb 07bd 131f 50bd b9d0 c4bd
00000150: f9cc 743d 4b3d de3c f297 803c 5294 403b
00000160: e5e9 acbc 35af a33d e177 dfbc 84b1 8c3c
00000170: 742f 723a 7332 5fbd bbeb 0ebd 88f3 5fbc
00000180: 8cbb b7bd 4665 21be 71a3 863d 883a 25be
00000190: 7270 803d 0364 873d f4d8 31bc ee9c 21be
000001a0: e9a0 25be 1d57 1d3e ca40 263d 82bc 403b
000001b0: 64bb 273e d70d 81be 1dbc 223e 9d1d ad3d
000001c0: 152e 213d c723 15be 8715 4abe 38c5 f9bd
000001d0: 6915 07be 2c8c b83c 3292 063e a5c1 87bd
000001e0: 7a91 d3bd 89ba 20bc 8a72 70bd afee 863d
000001f0: 55d5 38bd 9827 15bd 2028 8d3d c26b b03b
00000200: c491 77bd fd23 53bd 990a 7bbd 4cf2 d63c
00000210: 8d13 2ebd c774 583b cb36 a5bb f6ff 22bd
00000220: 7c4e 56bc 243a 7d3d b87e 463d f6cd a5bb
00000230: 5f4d b2bc ca9f 76bc fdf4 c3bd c502 bdbb
00000240: 6a8f 343d 3e12 26bd f995 343c 0fba d4bb
00000250: 29f4 43bd 4f27 89bd 4e4c b1bb 0c7e cdbd
00000260: 3121 4fbd 3f7f 3d3d 480b d0bc 17d2 173c
00000270: b6d1 40bd 57dc afbc 0ee5 9dbd 50bf f8bd
00000280: dd39 ce3c 0100 7c3d b999 04bd e882 6cbc
00000290: 152c adbd c350 a0b9 2ccb d6bc e4ef 663b
000002a0: c0ad 783c a765 8ebd 55fd 283c da04 b73c
000002b0: ef7a fbbc 89f9 0cbd 60f7 8abd 8940 9c3d
000002c0: e8f2 13bd 3267 0dbd b8c1 45bd f26f b6bd
000002d0: 415b 563d 5f82 ed3c a442 a53c 70b1 023c
000002e0: 350c 9dbc dffa a13d 8e0d 03bd 0e53 fd3b
000002f0: 9e70 09bb b633 59bd 013f aebc 2f11 11bc
