models/station_2/model_latest.onnx (onnx, 407794 bytes, 12 tensors)

W__3272 f4 [1, 96, 64]
00000000: 3f72 75bd 979e b13d 8cb8 4f3e 5ccd df3d
00000010: 164a a93d 2c2d 813e 0561 25bd b821 a83d
00000020: 12b2 283d 065b b93d 6093 1ebe 77fb a5bd
00000030: 1cd3 47bd 14f7 66be 5662 9abd 1e17 5b3e
00000040: aecc 46be dafd 363e ed1d 283e 8a99 14bc
00000050: 92a4 db3d ed3d b83e 281b db3d 2695 773d
00000060: b03b d8bd a96c 93bd 3a90 523d 96d5 e0bd
00000070: 1471 07be 6129 9f3d 5019 dcbd d92f 3e3e
00000080: 647e 2a3d 93db 50be 9fcc 0f3e e616 9e3c
00000090: e9b3 553e 8c82 48be 8298 1a3e d4fb c43d
000000a0: 02a2 debd 52fd 1e3e 791d 87bd 197c 51be
000000b0: 33f0 56be 42da 243c 93bd e1bd e44d b2bd
000000c0: 834d 5ebe 5aa3 85bc b7ef c33d 79ef 293e
000000d0: 84c1 c13d 1079 a2bd 18b5 093d 63f4 c03d
000000e0: 6c47 debd f4f6 0abe 2224 a23d e308 e43d
000000f0: d279 82bd 8fff a2bd 57ad 143e 3b4a d4bd
00000100: d37f f53c 2900 9f3c 0f28 6a3c 1caa 353e
00000110: 9d2a 8d3d 558e d2be a1f9 17be fec7 6b3e
00000120: c66e 083d dcd8 10bd 93b1 e13d d4d0 853d
00000130: bfaa 7dbe 09a2 8a3e bc9f 873d a5b0 9bbe
00000140: 6a2a 853e f83d d3be 181a 1dbd 8b97 c63e
00000150: 91a5 b2be d583 4b3e 25ed b5be 6789 7f3e
00000160: 484a cf3d 1c10 00be 8ca6 22bd 7749 8fbc
00000170: 7b46 61be ba7e 9b3e 829a 5cbe 6a79 503e
00000180: 6588 f2bd fa18 aebe 69ca 28be 3dc1 c1be
00000190: 760d 15be f81d 99bd 959a 34be bd55 373e
000001a0: 038a a03e 8f10 ecbd 803a 8dbd dcfd 083e
000001b0: ea50 d43d f90c 76be 0a6c cabc 06e6 b23d
000001c0: b6bb df3d 890e 11be 3287 f23e 7bc1 a7be
000001d0: 2ae3 e73e 2d24 ee3c f7d5 b83e 7fc4 87be
000001e0: 7dac a2bd 5a81 86bd 1b33 753d 26f7 2cbd
000001f0: 9ca6 a7be 2730 d1be 1898 4bbd 256f 8b3e
00000200: 08b7 583e e674 013e 595a bf3c 46b8 ad3d
00000210: 0003 8837 94e7 82bd 9ae8 f9bd 2d26 39be
00000220: a16c 7c3d 8736 c43c 140a 0a3d 6f8d b33e
00000230: 8fd8 d8bd f109 dd3a ece7 82bd 7a94 0bbe
00000240: f51e 393e fb3f e53d 8b61 233d 9462 ec39
00000250: 11b9 82be 9d33 773d 2768 bdbb 6dce 963c
00000260: 6b38 04be fa9a 86bc 3094 9cbc bc23 e2bd
00000270: 797d ffbd 2cf2 273e b1a8 e73d b521 14bd
00000280: 2dfb 1dbe 97ac 04bd 2f41 913e 3608 983e
00000290: 5a15 3f3e ee4f a13d e106 743c baac 523e
000002a0: 853e c03d 85d4 a13c 95d8 033b 730a 49be
000002b0: 9c44 d4bd 2807 32be 79d0 8cbe 431b ddbc
000002c0: 4a8d 5a3e 2e1a ab3e 38b8 a33e 12cb 113e
000002d0: ae94 09bd 20fc 843d b91a 1fbd e488 d3bd
000002e0: 0cef 1bbd ab03 2dbe 59b0 96bd 5da4 51bd
000002f0: 2b35 7dbe b1fc c53c 9c87 4e3d e739 85bc
00000300: c276 8b3d c478 79bd e0fd 3abd 26d2 1e3e
00000310: 9bff 9b3d 615f c4bd d793 09be 567a 8dbd
00000320: 3820 873e 167f 0ebe 3bfc db3c d929 113e
00000330: 9c9e f53d 88f5 8bbd 508c ac3d c23f 1fbe
00000340: 7ee6 303e 883f 683d 4054 4d3e 5016 70bd
00000350: 373b 433b ad64 39be 5e42 b6bd e1fd 5c3d
00000360: b8ed 023e fa63 34bd 2f95 35bd e58e 133e
00000370: 8d9e 573d 0185 e8bd c679 babc 67f3 e8bd
00000380: 78bb ba3d ce1b 243e 1c93 f93d 90a2 4f3e
00000390: d11d 4fbd 7146 eb3c 8c01 06bd fea8 013d
000003a0: f951 1d3d 7324 3ebd da68 713b 7b3e 59bd
000003b0: 2356 56bd 98db 49bd e7a5 6fbe 0e0b e2bc
000003c0: 93c1 5ebd 73f4 4ebd eb23 3fbc b72a 043e
000003d0: 0443 33be 464b 493e 390d 8f3d a29b 79be
000003e0: b78f 2fbe 3bc1 3c3e 71b8 04be 8dd9 41bd
000003f0: b051 4bbe 30f0 c13c 3af5 973d eb99 22be
-0.059923407 0.08672827 0.20285243 0.10927841 0.08266084 0.25229776 -0.04037573 0.08209556
0.041185446 0.090505645 -0.15485907 -0.08104604 -0.048785314 -0.2255519 -0.07538287 0.21395537
-0.19414017 0.17870274 0.16417666 -0.00906981 0.10724749 0.35984746 0.10698539 0.060444973
-0.105582595 -0.0719846 0.051407076 -0.10978238 -0.1322673 0.07771564 -0.107470155 0.1857294
0.04162444 -0.20396261 0.140429 0.019298028 0.20869412 -0.1958105 0.1509724 0.09618345
-0.10870744 0.15526322 -0.06597418 -0.20457496 -0.20990066 0.010061802 -0.110224865 -0.08706263
-0.21709256 -0.016313244 0.09567206 0.16595258 0.09460738 -0.07933247 0.03361997 0.09421613
-0.108534664 -0.13570768 0.07917048 0.111345075 -0.06370892 -0.079589 0.14519249 -0.10365721
0.029968178 0.019409256 0.014291777 0.17740673 0.068928935 -0.41124216 -0.1484132 0.2302551
0.033308767 -0.035363063 0.11020198 0.065339714 -0.24772166 0.27076748 0.06622264 -0.30408207
0.26008922 -0.41258216 -0.038354963 0.38787493 -0.34891942 0.19874509 -0.3553249 0.24954759
0.1012159 -0.12506145 -0.039709613 -0.017491085 -0.21999542 0.30370122 -0.21543315 0.20358816
-0.118424214 -0.3400343 -0.16483463 -0.37842742 -0.14555916 -0.07476419 -0.17637093 0.179038
0.31355295 -0.11526596 -0.068959236 0.1337809 0.10366996 -0.24028386 -0.02470972 0.0873528
0.10924475 -0.14165701 0.4736877 -0.327648 0.452905 0.029069984 0.36100742 -0.26517102
-0.07943056 -0.065676406 0.05986319 -0.042227887 -0.327443 -0.4085705 -0.049705595 0.27233234
0.21163571 0.1264225 0.02335851 0.08482413 1.621386e-05 -0.06391826 -0.12202568 -0.18080969
0.061627034 0.023951782 0.033701017 0.35068843 -0.1058818 0.0016863925 -0.06391892 -0.13630858
0.18078215 0.11193844 0.039887946 0.00045086874 -0.2553182 0.060351957 -0.005780238 0.018408978
-0.12912147 -0.01643132 -0.01911363 -0.11041972 -0.12475104 0.16400975 0.11311472 -0.036164958
-0.15427847 -0.032391157 0.28370044 0.29693764 0.18660489 0.078765735 0.014894218 0.20573702
0.09386925 0.019754658 0.0020118107 -0.19632892 -0.10364649 -0.17385542 -0.27502802 -0.026990538
0.2134296 0.3341841 0.31976485 0.14237621 -0.033589058 0.064934015 -0.038843844 -0.10328844
-0.03806977 -0.1689593 -0.073578544 -0.05118214 -0.24727313 0.024168344 0.050422296 -0.016262962
0.06809761 -0.060906187 -0.04565227 0.15509853 0.07617112 -0.095885046 -0.13435303 -0.06908099
0.26391768 -0.13915667 0.026853671 0.1417612 0.11993143 -0.06833941 0.084252 -0.15551665
0.17275426 0.056701213 0.2005167 -0.05861503 0.0029789933 -0.18104811 -0.08899377 0.053953055
0.12785995 -0.044040658 -0.044331726 0.14409979 0.05264144 -0.113534935 -0.022763144 -0.1137455
0.09117788 0.16026232 0.12186262 0.20276856 -0.050565545 0.028720113 -0.03271632 0.031655304
0.038408253 -0.04642148 0.0036836178 -0.0530381 -0.05232824 -0.049281687 -0.2340313 -0.027593162
-0.054383826 -0.050526094 -0.011666278 0.1290692 -0.17506033 0.19657621 0.06984944 -0.24375775
-0.17144667 0.18433087 -0.12960984 -0.047326613 -0.1985538 0.0236741 0.0741982 -0.15879028

W__3258 f4 [1, 192, 128]
00000000: 2bef f2bd d670 e8bd b29d 4e3e f934 9e3d
00000010: 5ac3 203e 810b d33d d1b9 293e 595d 8e3c
00000020: bd5a c33d 24d8 5b3e 403e 993d ddce e03d
00000030: 7e50 37bd 608b f13d cedd 45bd 571d 64bb
00000040: 5aa7 e7bd 615c a4bc efd6 55bd 8ec7 2ebe
00000050: ec9a c93d f1a7 d6bd 2361 7b3d c3c4 833d
00000060: 6c0f 8cbd 268b fe3d 7e89 bb3d 0bc8 193e
00000070: 8366 283d fddc 6e3d 90b4 04be 77e9 1ebd
00000080: f109 e2bc 7fec 2a3d 5715 f4bd b42c b1bb
00000090: e7e4 63bd e79e 3f3d 50a6 2fbd e566 2a3c
000000a0: 957b 11be a8b7 973d 86d5 063d 8468 ba3d
000000b0: 9192 14be b599 0d3e 325a 4cbb fc73 323e
000000c0: b0eb 1c3c 890e 81bd b64d 643d 497f 44bd
000000d0: 9dec a83d 9753 b23c 4064 103d 843c 31bd
000000e0: 7ea2 053e 900e ec3d ceff 03be 5bb6 3c3c
000000f0: 078a c7bd 174d 01bc 6934 a63d 6a1c b63c
00000100: 635a 943d 463d 84bc 953e 0fbd 7345 bbbd
00000110: b4a6 83bd cfd0 283c fbde 48be 7a26 21be
00000120: 9e02 c1bc 0702 aa3d a9b0 573d b2ae fbbd
00000130: 64cd ec3b d682 c6ba 40e7 db3d 9b52 c5bd
00000140: d370 fdbc 041c 92bd 68d4 e2bc 64a6 9abd
00000150: cba7 c6bd 961c aebd 27e1 883d fbb7 0bbe
00000160: abf3 15be 6777 ccbb 6032 49bc 4e6f 293d
00000170: 05ae c4bc 1223 b6bc ddb6 c9bd 44bc 3d3d
00000180: 5769 01be 377d 63bd 1c67 a23d d3a4 ea3d
00000190: f3fc fd3c d075 8f3d 1f6a 753d fd79 ad3c
000001a0: a8fd 463d 8b34 9cbd f282 5cbd ccf1 9d3c
000001b0: da2d 153e 1a2d 92bc c76c 83bd f0ea ffbc
000001c0: e1ea 48bc 620b ae3d 1e70 88bd 65e9 af3d
000001d0: d723 7fbd 2431 85bd 3f12 053d 8817 ad3d
000001e0: 2822 213c 53b6 213e e82b c53d 2a28 473d
000001f0: e780 9f3d 9267 9e3d a4b9 9abd d4a8 d13d
00000200: 87ad f83d 16f2 8b3e f338 25be f44d ae3c
00000210: 11f1 cabd a2cd ee3d 1e93 3cbe dfa4 133d
00000220: 0bf6 253e 9a1d c2bd cdb5 8f3d 8d05 34be
00000230: ef9c 64bd dd9b f53d e6d6 093e e7f6 acbc
00000240: 61a2 0cbe 5774 013e a04e 9c3e 516a 183c
00000250: dce8 b4bb 267e 093d 7d6a b3bc 040b 973d
00000260: 4f3a 003e 547a d1bd 13a3 813d 939f 89bd
00000270: 3ca3 053e d08a 5b3e 3909 67bd cb76 113d
00000280: 1afb 63be 9c12 3a3d 5716 a83d 208b ffbb
00000290: 2201 3bbd 5e97 223d 6b79 123e 5f3f 2abb
000002a0: d9b0 c43d d9b4 163c 0e58 f2bc a5eb f9bd
000002b0: 8e36 adbd b5ed d5bd 4071 113e 52bb d03d
000002c0: 6fac da3d 95ea 343c c672 04be f7c5 02be
000002d0: bf09 1bbd 46cf 36be d30b 18be 7661 35be
000002e0: 0fe6 16be 9ced 83be 5d00 da3d 590c 263e
000002f0: 1a77 f8bc 2d31 62bd 95e0 433e fc1d 48be
00000300: fa88 20bd 122f c23d dcce 53bd aa37 65be
00000310: c046 91bd 8814 3f3d 7207 a43d 7eea 8b3e
00000320: 1ff8 283e 25e8 053e 1ca8 d13d 63ec 1fbe
00000330: 7f1b 1b3d bfd2 313e 1ecb 443d d026 e5bd
00000340: ceac a6bd b59d bdbd eda9 7a3e fad2 24bd
00000350: 8b2c 9d3d 563f 3ebd d0e7 a13c 6140 d03d
00000360: 84f7 ea3d da6a 2b3d 468b 023e b83c fb3d
00000370: 25ea 583e 880a cf3d 3aa5 9abe 7e4a 37bd
00000380: 2f07 9c3e 2f50 4ebe 3fe2 a9bb b7bd a7bd
00000390: 00bd d6bc efaa 9b3c 67b0 a03d f4e4 c53d
000003a0: 7fe6 70bd 19e9 b5bd d252 ab3d f10f 143e
000003b0: 44f9 b63d 1d5a ac3d bded 4ebe e696 34be
000003c0: 914b a0be c0a3 82bc f04c a13d 5040 22be
000003d0: 4e92 2abd a051 3ebe 01aa a23c aa9e d4bc
000003e0: d8b8 50bd 7054 babd 3594 853c 48de 8abd
000003f0: 0109 f23d 6f33 bbbd c328 2d3e abd9 57be
-0.11862024 -0.11349647 0.20177343 0.077249475 0.1569952 0.103049286 0.1657479 0.017378496
0.09538791 0.2146917 0.07482576 0.10976956 -0.044754498 0.11794162 -0.048307233 -0.0034807527
-0.11311217 -0.020063581 -0.05220693 -0.17068312 0.09844002 -0.10481251 0.061371934 0.06434014
-0.06838879 0.12428884 0.09157084 0.15017717 0.041113388 0.05831622 -0.12959504 -0.03879687
-0.027592631 0.041729447 -0.11918133 -0.0054069404 -0.05563822 0.0467824 -0.042883217 0.0104005085
-0.14207299 0.074080765 0.032918476 0.09101966 -0.14509036 0.13828166 -0.003118169 0.17427057
0.009577677 -0.063016005 0.055738173 -0.04797295 0.082482554 0.021768374 0.035251856 -0.043270603
0.13050267 0.11526215 -0.1289055 0.011518086 -0.097431235 -0.007891915 0.08115465 0.022230346
0.072438024 -0.016142499 -0.034971792 -0.09144106 -0.064282805 0.01030369 -0.1961631 -0.15737334
-0.023560818 0.08301168 0.05265871 -0.1228918 0.007226633 -0.0015145193 0.10737467 -0.09634896
-0.030937588 -0.0713425 -0.027689174 -0.07551268 -0.09699973 -0.08501546 0.066835694 -0.13644402
-0.14643733 -0.00623982 -0.012280077 0.041365914 -0.02400876 -0.02223352 -0.098493315 0.046322122
-0.1263784 -0.055539336 0.07929823 0.11457219 0.031004405 0.07004893 0.059915658 0.021176333
0.04858175 -0.07627209 -0.053835817 0.019280337 0.14568272 -0.017843772 -0.06417232 -0.031239957
-0.012263031 0.08498265 -0.0666201 0.08589438 -0.06229004 -0.065035135 0.032488104 0.08451754
0.009834804 0.15792207 0.09627515 0.048622288 0.07788258 0.07734598 -0.075549394 0.102372795
0.12142473 0.27333134 -0.16135006 0.021277405 -0.09909261 0.11660315 -0.18415496 0.036045905
0.16207139 -0.09478302 0.070170976 -0.17580242 -0.055813726 0.11992619 0.13460883 -0.021113826
-0.13733818 0.12642036 0.30528736 0.009302692 -0.005520923 0.03356757 -0.021901364 0.07375148
0.12522243 -0.1022841 0.06329932 -0.067198895 0.1305055 0.21439672 -0.05640528 0.03551368
-0.22263756 0.045427904 0.08207386 -0.0077985674 -0.045655377 0.039695136 0.1430413 -0.0025977714
0.096040435 0.009198391 -0.029583003 -0.12203149 -0.08457671 -0.1044573 0.14203358 0.101919785
0.1067742 0.011042257 -0.12934408 -0.1277083 -0.03785109 -0.17852506 -0.1484826 -0.1771296
-0.14736198 -0.2576722 0.106446005 0.16215648 -0.03033023 -0.05522268 0.1912864 -0.19542688
-0.03919313 0.09481634 -0.05171095 -0.22384515 -0.070935726 0.04665044 0.080092326 0.2732734
0.165009 0.13076837 0.102371424 -0.15617518 0.03786802 0.1736555 0.04804527 -0.111890435
-0.08138429 -0.09258596 0.24478884 -0.040240265 0.076745115 -0.04644712 0.019763857 0.10168529
0.11472991 0.04184995 0.12748441 0.122674406 0.21183069 0.101094306 -0.30204183 -0.044748776
0.3047423 -0.20147775 -0.0051844413 -0.08190482 -0.02621317 0.019002406 0.07846146 0.0966281
-0.05881357 -0.088823505 0.08365406 0.14459206 0.089342624 0.08415625 -0.20207877 -0.17635688
-0.31307653 -0.015947223 0.07876003 -0.15844846 -0.041643433 -0.18585825 0.019856455 -0.025954563
-0.05095753 -0.090981364 0.016306022 -0.06780678 0.118181236 -0.091406696 0.1691008 -0.21079127

W__3245 f4 [1, 384, 6]
00000000: d357 aabe b998 cbbe d269 c0be 5281 d3be
00000010: f7ff cebe 6376 6a3b 19f4 29be 7d4e 10be
00000020: 6e0f c1be da29 a8be 68c5 afbe 1d97 183e
00000030: 7bfc 5dbe 05ef b3be e08d 76be f7e5 d3be
00000040: 92a0 9fbe 85b0 85bd dfec 4ebd 242e 1b3e
00000050: df4f c03d 5f78 783d f9ed 11bd 08dd d3bc
00000060: 2dae 35be 7fdd 71be 1329 39be eda8 9ebe
00000070: f5a8 c8be 24b4 09bd ed3b a4bd 90b0 5ebe
00000080: 8731 a3bd 46ad 3ebd ddb2 e8bd 7c75 993c
00000090: f14e a4bd 5df6 98be c9e7 81be 03ad abbe
000000a0: 3fd4 bdbe 8f37 a83d f21c a9be 9a85 8ebe
000000b0: 2c98 bcbe 5aef 94be f125 acbe 66f8 813c
000000c0: 38b6 7d3e b91c 623e 08ab 853e d727 663e
000000d0: 9f6c 883e 5234 b7be 2d08 8f3d 3323 8a3b
000000e0: ca6f 8a3d 8d47 53bd e2e6 6ebe 8c43 033e
000000f0: c4c3 2bbe 260d dbbc 906f c2bd 02ed 15bd
00000100: 76c9 a0bd 697b 8fbc b7df 3bbe a0a5 bfbe
00000110: cece 90be 32fa d0be 9e61 cfbe 471c aebc
00000120: cdfa f9bd 3c20 83be caf7 86be e352 9dbe
00000130: aa6f 6bbe 1f27 e5bd e027 afbd b848 8fbe
00000140: fdb1 3ebe 00a7 e9bc 9a43 7abe 7b05 1a3d
00000150: 16a8 a9bc c203 54bd 368e 16be a672 4fbe
00000160: eeb0 6cbb 09a7 3c3e 7e37 dd3d d386 183e
00000170: d173 4abc 7bde 383e 06d6 85bb da76 6fbe
00000180: 0be0 9cbe 8225 d7be 5252 f4be afa2 c7be
00000190: 2cd7 07bf f6e9 0bbe 6985 99bd 4371 78bd
000001a0: a401 3ebe 4dd7 89be 06dc f5bd 4514 e03d
000001b0: 1c1a 10be bcf6 85be b637 8fbe a4bd b4be
000001c0: 03fc 95be 07c2 103b 941c 56bd 89b8 72be
000001d0: d1b4 31be 14b5 91be 2cec 81be 87c5 f03b
000001e0: 55f1 8abe 62a8 dfbe 64a4 67be 6321 47be
000001f0: cb65 c6be 9694 183d fbb8 44be 8f21 babe
00000200: 1192 ccbe 72d1 cdbe f6de eebe 9796 9a3b
00000210: a192 9f3d bb07 6fbe 60fa fb3c ca34 a43d
00000220: b187 78be 8daa 13bd 33ce 3ebe f38b 03be
00000230: 3a07 04bd 5c5e 823d d5a8 c63d 24ae b13d
00000240: 1ef6 cebd 8437 b6be b706 a6be f39a 49be
00000250: cfa3 93be 8637 babd 8dc1 5abe bd09 ccbe
00000260: 812d c8be daae 06bf 954e e9be c156 353e
00000270: 2521 a23e 46c9 b83e 0fd8 593e b110 d73e
00000280: 3dec bc3e aefa d23d e45f b73d c102 883e
00000290: d147 5d3e 412f 5e3e 8a6b a73e 75db 72bd
000002a0: 5a0c 4d3e 5d52 973e 6bbe 4b3d 5ddc 133e
000002b0: 8f3a 823e a722 2e3d 609f 19be a92a ddbd
000002c0: f599 91be 2151 05be dfb0 c4be 09d6 62bd
000002d0: bba0 5fbe af31 40be 7ea9 38be ef07 57be
000002e0: 181b a7be 8dea 26be c98d 28be f213 cebe
000002f0: 511f babe fa6d 91be 5640 d2be 3ceb d63d
00000300: 8c5a 3cbe 4f67 76be 8a6a 35bd b5f8 4bbe
00000310: 2887 d1be f946 d2bc df55 5a3d 4570 9c3d
00000320: 728a 0bbc c902 fb3b f0ad 413e f84a 52be
00000330: 574f cebe f4e4 48be fd22 03be 2831 58be
00000340: 35f0 92be a2eb 6cbe 6ec7 08bd 2fcb d63d
00000350: 7d48 f63d e7be 093e 560e 7b3e 4f4d 16bd
00000360: 3bdc 893e ca84 8a3e 55ff b03e 0eb7 4f3e
00000370: 182e c13e 1afe 81bd ee2a 7f3e 8220 6f3e
00000380: 743c e63d 3497 693e 1356 7f3e 06d3 153e
00000390: 01b3 95bc ac54 22be 4eae 88be 8570 88be
000003a0: 75b5 19be bd60 00bd d8a4 0f3e d81f 60bd
000003b0: cc8c 93bd bd6e c53d 200e 91bb 509e 43bd
000003c0: 7801 0fbd c9b5 523e 00a8 c6bd 766d 843d
000003d0: 4508 5f3e d760 75bd 0042 67bd f53a 8abe
000003e0: c947 e9be 7327 d6be 5843 b3be 104c d5bd
000003f0: 067b 3dbe 4d1f f0be f704 f0be 67a5 9abe
-0.3327013 -0.39764956 -0.37580734 -0.413096 -0.4042966 0.003577613 -0.16597022 -0.14092441
-0.37707084 -0.3284443 -0.34330297 0.14901395 -0.21678345 -0.35143295 -0.24077559 -0.41386387
-0.31177193 -0.06527809 -0.050518867 0.1515432 0.09390234 0.06066167 -0.03562734 -0.025862232
-0.17742224 -0.2361965 -0.18082075 -0.30988255 -0.39191404 -0.03361906 -0.080192424 -0.21747041
-0.07968431 -0.046551965 -0.113622405 0.018732779 -0.080228694 -0.2987546 -0.2537215 -0.33530435
-0.37075993 0.08213722 -0.33029896 -0.27836305 -0.36834848 -0.2908886 -0.33622697 0.015865516
0.24776542 0.2208127 0.2610705 0.22476135 0.2664537 -0.35782105 0.06983981 0.004215622
0.06759603 -0.051581908 -0.23330262 0.12818736 -0.16773897 -0.026739668 -0.09493935 -0.03660298
-0.078509256 -0.017514901 -0.18347059 -0.3743105 -0.2828278 -0.40815884 -0.40504164 -0.021253718
-0.122060396 -0.2561053 -0.26360923 -0.307273 -0.22991815 -0.111891024 -0.085525274 -0.27985168
-0.18622585 -0.028522015 -0.2443985 0.037602883 -0.020710032 -0.051761396 -0.14702687 -0.20258579
-0.00361162 0.18423094 0.108016 0.14895181 -0.012356714 0.1805362 -0.0040843515 -0.23385182
-0.3063968 -0.42020804 -0.47719055 -0.38991305 -0.530627 -0.13663468 -0.07496149 -0.06065489
-0.18555313 -0.26922074 -0.12004857 0.10941366 -0.1407246 -0.26164806 -0.27972192 -0.35300934
-0.29293832 0.0022088306 -0.052273348 -0.23703207 -0.17354132 -0.28458464 -0.25375497 0.007347766
-0.27137247 -0.43683153 -0.22621304 -0.1944633 -0.38749537 0.037251078 -0.1921119 -0.36353728
-0.3995519 -0.40198857 -0.4665448 0.0047176587 0.07791639 -0.23342793 0.030759037 0.08017881
-0.24270512 -0.03605132 -0.18633346 -0.12846355 -0.032233454 0.06365654 0.09700171 0.08675793
-0.10105537 -0.3558923 -0.32426998 -0.19688015 -0.28835914 -0.090926215 -0.21362896 -0.3985118
-0.39097217 -0.5261055 -0.45567766 0.17708875 0.31665912 0.3609106 0.21273826 0.42004922
0.36898986 0.103017196 0.089538366 0.265646 0.21609427 0.21697713 0.32699233 -0.05929132
0.20024243 0.29555026 0.049742144 0.1443953 0.25435302 0.042513516 -0.15002203 -0.107991524
-0.28437772 -0.1301923 -0.38416192 -0.0553799 -0.21838658 -0.18768953 -0.18033406 -0.2099912
-0.32637858 -0.16300412 -0.16460337 -0.40249592 -0.36352018 -0.28404218 -0.4106471 0.10494086
-0.18393916 -0.24062847 -0.044291057 -0.19919093 -0.4092343 -0.025668608 0.05330455 0.07638601
-0.008516895 0.007660244 0.18914008 -0.20536411 -0.40294906 -0.19618589 -0.12806316 -0.21112502
-0.28698888 -0.23136762 -0.033393316 0.10487973 0.12025545 0.1345173 0.24517187 -0.03669482
0.26925835 0.27054435 0.34569803 0.20284674 0.3773048 -0.06347294 0.2491872 0.23352244
0.11241999 0.22811586 0.24935178 0.1463128 -0.018273832 -0.15852612 -0.26695484 -0.26648346
-0.15010627 -0.031342257 0.14027727 -0.05471787 -0.07204589 0.09640262 -0.0044267327 -0.0477584
-0.03491351 0.20577158 -0.09700012 0.064661905 0.21780498 -0.059906807 -0.056459427 -0.26998106
-0.4556258 -0.41826972 -0.35012317 -0.104148984 -0.18503961 -0.4689888 -0.46878788 -0.30204317

R__3273 f4 [1, 96, 32]
00000000: b43f 2abd 4774 c1bd f6b4 ff3d a505 20bd
00000010: d942 c53d ee5d ac3e 6d4c b63c 90ee be3d
00000020: 427d 3abe 333b e1bd b02e 4b3e a84c fdbd
00000030: 67d3 3abd c1a7 3dbd 6864 96bd 876d 013e
00000040: 5bfb a1bd cada 1dbd 59ec a03d ddad 263e
00000050: b550 e83d 45c1 f4bc 4b97 bfbc 6ec2 a7bc
00000060: bf7b c2bd 4958 34bd 35c9 ecbc f4cc 82bb
00000070: 333e 1ebe c531 093e ebab 823d f7d8 653e
00000080: 0ef6 953d 3413 08be 7133 c4be 5a76 5fbe
00000090: 69b5 09bf 06dc 993e 7beb 543e efaf 6b3e
000000a0: 01a9 733e 11ce 3dbe 916f a03e e05b 113c
000000b0: 28c1 97be 027b 0dbe 7c85 62be 4d8a 083e
000000c0: e4a0 bb3e de13 84be 0a45 9c3e fed0 08be
000000d0: f5e9 bebd f987 8c3d a44f e23e bdf0 4dbe
000000e0: f937 a13c 4f4e 913e 1210 bcbe 4d7c f33d
000000f0: 7a6e 9abe 7169 b0be acd3 923d 1466 bfbe
00000100: 20e0 7cbd f5e3 63bd 511e a1bd 07a1 a5bd
00000110: 5235 9a3d ed89 d63d a0f2 b6be 2ae5 b03e
00000120: 38b6 a63c b02d dcbd a042 cdbc 6c83 6c3d
00000130: 97e0 0fbe da34 6d3d 3d90 97bd 1679 17be
00000140: c23b c73d 1899 693d 52e5 2b3e 3d22 5e3e
00000150: 2f49 8d3e d2a9 69bd 02ec debe bf1c 463d
00000160: 0093 32bc b7ce f93c b1a3 2c3e e630 43bc
00000170: 807d 12bc 7742 a8bc a1fa 2cbd 346f 923d
00000180: 256d 603c 11a2 de3d 3918 23be d617 60be
00000190: d07f 4abd ac5b 51be 2f3b d43c 5364 083e
000001a0: 2f33 a03d 5868 14be b38d 33be b19e 28bc
000001b0: 4add 673d a258 08bc 58f2 74bc bf7d b4bb
000001c0: 99db ec3d 2d7d 1bbe 70f8 b93c b459 fcbd
000001d0: a440 c8bd 4be9 913d c662 83bc ccdb a63b
000001e0: a979 473e bc43 db3d 6072 973c 2c84 a1bd
000001f0: 0c7b 20bd cb8d 013d 3c92 a1bb 6ba4 6dbe
00000200: b568 713e 8dc3 68be eb38 8dbe 56b4 76be
00000210: b52f 0dbe bf38 813e fc6b 6a3e 971a 2c3d
00000220: 3f27 403d 6a0d 00be 39cc 4c3e 7387 183e
00000230: a1e1 c7bb bf89 0c3e 1348 8ebe ca01 a73d
00000240: 783c 803e 58a7 3bbe aa09 6e3e 2761 7bbd
00000250: 758d 933d f397 203e 1209 a03d 7336 38be
00000260: bfef 4cbd a656 793d cfce b2bd fc73 233e
00000270: 0f9e 05be 7ca0 4abe 7cb2 363e 5ca6 88be
00000280: 7aa6 17be 4ee3 223d 69d5 1abd fc70 69bc
00000290: be89 03be cd04 4abd 2114 e83e e734 7dbd
000002a0: fcc4 9e3d 8d3a c7bd 4f63 9f3e 697b fdbd
000002b0: 95f9 5bbe ea5c 24bd 8f15 b83e 028e 2f3e
000002c0: 8561 0abe d2d4 99bd 319f 2b3e 28dc 0cbe
000002d0: 633d 59be 3c9e 283e 5e09 a53d a8c3 373d
000002e0: b01a 453d e723 703e edda 3bbe ce04 1c3c
000002f0: 12cd 113c 6dd0 d9bd bd5b babd c2f0 45be
00000300: d234 cabd cba6 6f3d 783d 1f3e 3fd9 36bd
00000310: 1254 673e df92 92bd 125e 19bd 2fc9 a7bd
00000320: 191e c03d 189f 633e f0e2 21be 638e cb3d
00000330: e334 04be f46c b7bd 17a5 713e 3fdf 09be
00000340: ae4f f7bd adbc dd3d 1bc6 94bd 2045 393c
00000350: 6391 9abd 3e58 60bd 3493 00be db44 613c
00000360: a9a4 003e 7beb 66be 0dc0 213e a787 02bd
00000370: 25fa 8dbe 6726 883d c507 563e cb60 a2bd
00000380: a2e7 643e 1caa c2be 8696 1ebe 2a4f ba3d
00000390: e822 92bd 2e21 433e df4a 5e3e d72e 0e3d
000003a0: 6a02 2ebe 97ac 77be a00f 5abd bbd1 b7bb
000003b0: 1170 25be f968 a6bd c5a6 7ebe 8331 25be
000003c0: e05c 753e f24c b03b e928 963e 819a 8e3d
000003d0: 2d8d a5bd 78a1 ad3c 1267 413e 5d1c cdbd
000003e0: 970c 6fbc 420c e63d 0985 25be 1ce7 203e
000003f0: e14a aebd e16d 89be ad9d a53c fc36 183d
-0.04156466 -0.09446006 0.124856874 -0.039067883 0.09631891 0.33665413 0.02225324 0.09322846
-0.18211845 -0.109976195 0.19842029 -0.12368137 -0.045611765 -0.04630256 -0.0734337 0.12639438
-0.079092704 -0.03853873 0.0785758 0.16277261 0.11343519 -0.029877314 -0.023387572 -0.020478453
-0.09496259 -0.044029508 -0.028904537 -0.0039917175 -0.15453415 0.13397892 0.06380447 0.22446047
0.07322322 -0.13288575 -0.38320497 -0.21822491 -0.53792435 0.30050677 0.20792954 0.23016332
0.23794939 -0.1853564 0.31335118 0.008872002 -0.29639554 -0.13816455 -0.22121233 0.13334008
0.36646187 -0.25796407 0.30521423 -0.13360974 -0.093219675 0.06861872 0.44201386 -0.20111366
0.01968001 0.28380057 -0.3673101 0.11888943 -0.30162412 -0.34455445 0.071692795 -0.37382567
-0.06173718 -0.05563732 -0.078671105 -0.08087354 0.07529701 0.10475526 -0.35731983 0.34549838
0.02035056 -0.10750902 -0.025056183 0.05774252 -0.14050518 0.05791173 -0.07400558 -0.14792284
0.09728195 0.057030767 0.16786698 0.21692748 0.27594897 -0.05704672 -0.43539435 0.04836726
-0.010899305 0.030494077 0.16859318 -0.011913514 -0.008941054 -0.020539505 -0.042231206 0.071501166
0.013697897 0.108707555 -0.15927209 -0.21884093 -0.049438298 -0.20445126 0.025907127 0.1331952
0.078222625 -0.14492929 -0.17534523 -0.010291741 0.056607522 -0.008321913 -0.014950357 -0.005508154
0.115653224 -0.1518447 0.022701472 -0.12321797 -0.09777954 0.07124575 -0.01603831 0.00509212
0.19480003 0.10706279 0.018487155 -0.07886538 -0.039179847 0.031629365 -0.0049307626 -0.23207252
0.23575099 -0.22730847 -0.27582487 -0.2409223 -0.1378773 0.25238606 0.22892755 0.042017546
0.046912428 -0.12505117 0.1999978 0.1489542 -0.006099895 0.13724421 -0.27789363 0.08154638
0.25046134 -0.18325555 0.23245874 -0.06137195 0.07204715 0.15682964 0.0781423 -0.1798952
-0.050033327 0.06087365 -0.08730852 0.15962213 -0.13048576 -0.19787782 0.17841524 -0.26689422
-0.148096 0.039767556 -0.03780118 -0.014248129 -0.12845513 -0.049320985 0.45327857 -0.06181803
0.077524155 -0.097279646 0.31130454 -0.12377054 -0.21481927 -0.040127672 0.35953948 0.17144015
-0.13513763 -0.075112954 0.16759945 -0.13755858 -0.21214823 0.16466612 0.08058427 0.044864327
0.048121154 0.23451196 -0.18345232 0.00952263 0.00889899 -0.10635457 -0.09099529 -0.19330123
-0.09873356 0.058508676 0.15550792 -0.044640776 0.22590664 -0.0715692 -0.037443228 -0.081926696
0.09380741 0.22228658 -0.15809226 0.099392675 -0.129108 -0.08956328 0.23598133 -0.13464068
-0.120757446 0.10827003 -0.07264348 0.011307985 -0.075472616 -0.054771654 -0.12556154 0.013749327
0.12562813 -0.22550766 0.15795918 -0.03186765 -0.27729908 0.0664795 0.20901401 -0.07928618
0.22353986 -0.38020408 -0.15487108 0.090971306 -0.07135564 0.19055626 0.21708249 0.03471264
-0.16993108 -0.24186932 -0.053237557 -0.0056097186 -0.16156031 -0.08125491 -0.24868305 -0.16132168
0.2396121 0.0053802663 0.29328087 0.06963063 -0.08083568 0.021195158 0.18886974 -0.100151755
-0.014590404 0.11232807 -0.1616403 0.15713161 -0.08510376 -0.26841643 0.020216787 0.037161812

R__3259 f4 [1, 192, 64]
00000000: b3ab 6b3d cc75 0abd 2629 1d3e ac92 4b3c
00000010: 37c1 183b cdaf 9f3d 52f6 1cbe 11f4 aabd
00000020: 5aa8 3f3c fa4d f73d 1e16 9abd 4526 803a
00000030: 9436 82bc bb45 bfbd cee8 773d d9ba 073e
00000040: 13f4 833b 12f0 353e df3d 80be 7120 183e
00000050: 946a b73c 1195 093e b82b 223e bcca fd3d
00000060: 5af9 953d c7b5 853d 413b a3bd 12c5 a43d
00000070: af44 133e 7379 d6bd 0110 bdbd 1b2c 2c3d
00000080: 4ab7 823d 502f 503e 510f 983c 6a64 093d
00000090: e31f 04bd ee07 103e a94f ed3d bf8e 06be
000000a0: 0848 213e 447a 173d 808a fbbd 60e8 25bc
000000b0: 7bc6 a7bd e1b7 38be f8c0 c83d 23b1 8a3d
000000c0: c203 063c 391c b83d 3f09 9ebd fa58 083e
000000d0: ee70 b9bd 9ad9 723e 7ea1 bd3c c01e 2fbd
000000e0: f3e0 a63c 4c1c 3d3d 035f e2bd defb 6a3c
000000f0: 4865 a53d a793 08bd 44aa e83d 1d17 96bd
00000100: c7f8 23bc a0f7 a23d 5bcd a53d 9aa5 eebc
00000110: 98f4 b1bd 0b02 4ebd 2e24 e13d 7830 27bc
00000120: 77dd cdbd b84b 90bd f343 8e3d b56e 4bbe
00000130: c800 ecbd eeb0 ed3d 7e7e df3d c602 65bd
00000140: 407c 343d cdeb 46be 1032 d53d c984 b43e
00000150: e4fd 663d 24f4 c93d 113b 20be f2f8 17bd
00000160: 7acd f0bc c3ef 903c d017 dbbd 5f20 eebd
00000170: 1225 c3bc 29ab 063d 69ca b0bd 9008 ddbd
00000180: eedb 0fbe 1a56 1dbe 13bd 0abe 028b 97bd
00000190: 8f0d d93d a8ac e5bd f644 a93d 45a7 1a3e
000001a0: 5d20 843c e823 83bd 0fea dc3d 588f 573d
000001b0: accb 553d 4891 a03c c24f c23b 96b5 573d
000001c0: b1f4 af3d 2dd1 ecbd f9e6 f83d 625f 48bd
000001d0: 2106 8a3e 69bf 10be 61da a33d 5108 7b3d
000001e0: 05f3 3ebd 4d0c a8bd be0f 063e 7616 24be
000001f0: ea50 08bd af71 b0bc fe83 6e3d c380 803d
00000200: fe15 2d3d ce96 8f3c 1fce 8b3d e796 963d
00000210: 32f0 303e 8bdd cfbc ed7c 0dbd a155 153e
00000220: 30a3 20be e026 b8bd 7a56 febd 13d0 fb3d
00000230: c9fc 79bb f461 353e 6c89 363d aac3 443d
00000240: 2342 d63d cc3c a8bb 2699 7cbe 1182 bbbc
00000250: cc31 7abd 3c12 173e 15bd 2bbd ce57 bf3d
00000260: 189d fc3b 19f0 e8bd a081 84bd c660 fbbc
00000270: d439 2a3c d17f ee3d ed5b 02be d225 f6bc
00000280: fd84 cb3d dc84 683d 9021 a5ba e893 25be
00000290: 2785 e43d f09f b13d bde8 a6bd f375 12bd
000002a0: a6f5 843d 44bb cd3d 0a55 33bd 34a8 d6ba
000002b0: 3f5d e5bd adbf 77be eafc 89bd 0bd2 b73d
000002c0: 0f88 91be 45a5 283c cb60 6bbd c3ba 863d
000002d0: df94 9f3d e6d5 a63b 7ab6 c83d 200a 183d
000002e0: a571 1e3d c0fb 503d 7910 96bd 5277 453d
000002f0: 1c5e 513d 052a 19bd dcef 8abd c41c d13c
00000300: 45a8 0b3e 503f 1fbe bdda a43c 8290 b5bd
00000310: e77a 0ebe a29c 143d a389 ca3d bbeb fe3d
00000320: c6a0 22bd 95b0 91be 2fda 86bd 5d78 0cbc
00000330: c4f1 a23d 3e09 fabd 8fbd c33d 28e5 133d
00000340: ae40 ddbd 7e4d d3ba aa55 38be ec85 dd3d
00000350: 4f41 9a3e 5dd7 6bbe 6fc8 8c3d 9e2c 9bbb
00000360: 4092 d13c 5b24 053e 6994 d73c 24fc 1abe
00000370: 5a86 c93c e051 8c3e 070d a73d 3cf0 5e3d
00000380: d47f cf3c 829e 8c3c 94cc d23d 7683 d03d
00000390: 777a 873c 1d4b 2dbd 6022 4b3e aa99 a83c
000003a0: 4742 9cbe 2f56 34bd 0946 5cbc 3199 f9bd
000003b0: ad0c 29be 1c5a cc3d 0607 c53d 00d6 ecbd
000003c0: 6c42 92be 192a 183e 869f 58bd 2440 4f3e
000003d0: 43c0 56bd 3000 2ebd a7c2 47bd 7476 053e
000003e0: a6ff bcbd 630d 04bd ec25 a6bd 2434 45be
000003f0: cbbf 07be eba1 8e3d 99a4 0f3d a023 26be
0.057536792 -0.033803746 0.15347728 0.012425106 0.0023308524 0.07797203 -0.15328339 -0.08347333
0.011697853 0.1207542 -0.0752375 0.000977703 -0.015895166 -0.09339472 0.060524754 0.1325487
0.0040268986 0.17767361 -0.25047204 0.14856125 0.022389688 0.1343577 0.1583699 0.12392184
0.07322951 0.06528812 -0.07970286 0.08045401 0.1438167 -0.10472383 -0.09231568 0.04203425
0.06382616 0.20330548 0.018561991 0.033543028 -0.032256972 0.14065525 0.115874596 -0.13140391
0.15750134 0.036981836 -0.12282276 -0.010126203 -0.08192154 -0.18038894 0.09802431 0.067720674
0.008179607 0.08989758 -0.07716607 0.13315192 -0.09054743 0.23715821 0.023148295 -0.042753935
0.020370936 0.046169564 -0.11053278 0.014342276 0.080759585 -0.033343937 0.113606006 -0.07328627
-0.010008044 0.07957387 0.08095809 -0.0291317 -0.08689231 -0.050294917 0.10993229 -0.010204427
-0.10052007 -0.07045692 0.06946554 -0.1986645 -0.115235865 0.11606012 0.10912798 -0.055910848
0.044063807 -0.19425888 0.10409939 0.35257557 0.056394473 0.09861019 -0.15647532 -0.037102647
-0.029394854 0.017692452 -0.10697901 -0.11627268 -0.023821387 0.032878075 -0.08632357 -0.10792649
-0.1404874 -0.15364876 -0.13548689 -0.073995605 0.10598289 -0.11214572 0.082651064 0.15102871
0.016128713 -0.06403333 0.10786831 0.052626938 0.05219619 0.019600525 0.005929918 0.05266341
0.08591593 -0.115633346 0.121534295 -0.04891909 0.269578 -0.14135517 0.08000637 0.061287228
-0.04661848 -0.08205471 0.13091943 -0.16024193 -0.03328029 -0.021538584 0.058231346 0.06274559
0.0422573 0.017527964 0.06826424 0.07353001 0.17279127 -0.025374195 -0.034542967 0.14583446
-0.15687251 -0.0899179 -0.12418838 0.122955464 -0.0038145056 0.17713147 0.04456465 0.048038162
0.10461833 -0.0051342007 -0.24667796 -0.022889169 -0.061082646 0.1475305 -0.04192837 0.09342919
0.0077091567 -0.1137392 -0.064700365 -0.030685794 0.010389764 0.11645473 -0.1273038 -0.030047331
0.09937475 0.05676733 -0.0012598503 -0.16169703 0.11158209 0.08673084 -0.0814986 -0.035757016
0.06492166 0.10045484 -0.04378227 -0.0016377033 -0.11199426 -0.24194212 -0.06737693 0.089756094
-0.28424117 0.01029331 -0.057465356 0.06578591 0.07792067 0.0050914166 0.0980043 0.03711903
0.0386826 0.051021338 -0.07327361 0.048209496 0.05111514 -0.03739359 -0.06784031 0.025526412
0.13638408 -0.15551496 0.020123834 -0.08865453 -0.13914071 0.03628219 0.09889533 0.12447306
-0.039704107 -0.28455034 -0.06584584 -0.008573619 0.079562694 -0.12208794 0.0955764 0.036107212
-0.10803352 -0.0016121117 -0.18001428 0.10816559 0.30127952 -0.23031373 0.06874167 -0.0047355434
0.025582433 0.1300215 0.026315885 -0.15135247 0.024600197 0.27406216 0.08156782 0.054428324
0.025329508 0.017165426 0.102929264 0.10181324 0.016537888 -0.04230796 0.19837332 0.020581085
-0.30519316 -0.044027504 -0.013444432 -0.12187422 -0.16508742 0.099781245 0.0962048 -0.11564255
-0.285663 0.14859809 -0.05288651 0.20239311 -0.05242945 -0.042480648 -0.04876962 0.13033468
-0.092284486 -0.03223933 -0.08112702 -0.19258171 -0.13256757 0.06964477 0.035069082 -0.16224527

R__3246 f4 [1, 384, 128]
00000000: 5a13 623e edf9 223e e4fa 713e a42b ba3c
00000010: 4430 abbe 5daa a4bc 9635 64be beb5 6d3e
00000020: ec89 7f3c 7417 95bd f8e8 723e 8b83 9fbe
00000030: 2890 6dbe a972 343e 2232 b6bc bb48 943d
00000040: 683b 04be 0fee 5c3e 70da 5b3e ceb0 a2bd
00000050: 51d5 05be 4ea8 f63d 5f46 013e 05d0 edbc
00000060: 6d1f 20be 5b2d b13d e876 2d3e 53ae 37be
00000070: bf9a 7c3e a121 473e 21f3 6c3d 564f 213e
00000080: 5b98 b8bd 5e7f d53d 7c4f 523e ea18 223e
00000090: 3100 e8bd 8b45 973e 4bea 413e 072c 14be
000000a0: e3ce a43d 1052 f73c a863 99be a720 483d
000000b0: 035f 2b3e 2391 61be 3de3 b83e a45c 55be
000000c0: e143 933e dc08 873e 7a52 57be 0a52 a2be
000000d0: 3cec b5be 97ec 01be f49a bdbe 99f8 6bbe
000000e0: 7dba 16be f721 5ebe 0f4d 963e f594 933e
000000f0: 15b2 a63d 62d4 da3d 68de 423e 892c 0fbe
00000100: 1726 9a3d 1d9b 6d3e 9cd9 60be 81c0 85be
00000110: 0a17 29be 4a4f 1cbe 398c 8c3e d8c3 2c3e
00000120: 0232 323e dcab fa3d bc20 24be 0ec8 90be
00000130: 918f 633e c63d 9c3d 58c3 f33d c091 f2bd
00000140: 4a90 763e ea87 1fbe 8bfe 813e ad36 8dbe
00000150: f6c2 353e 3a37 8b3e 2858 91be f840 363e
00000160: c462 593e b0db c13c fbc6 99bd 43ae 513e
00000170: 0323 203e 06c5 973d b13b adbe ba04 02be
00000180: 4a3e 4f3e 6aad 78be 0057 2b3e ad7f d53d
00000190: a60b 4bbd 2859 343e d123 683e 47b1 eb3d
000001a0: cecc 2d3e 70ef 39be 37a1 903e 4261 843e
000001b0: 0c59 263e 71da 623e 6b87 71be f32e 86bc
000001c0: b39e bfbe dfa8 1e3e 4de2 69be bf1f aabe
000001d0: 20c3 87bd 8ae7 9fbc b28d 9cbd af0c 8bbd
000001e0: bfae 7dbe 55b3 2a3e af9c 6a38 0c8f 2abb
000001f0: 8bd1 823e e757 713d c422 183e f059 8bbe
00000200: 2200 02bd c14f 473e a6d9 c63d fc2a 7d3d
00000210: 83a3 92be b617 babd b57c cebd 66f7 9a3d
00000220: 1a82 0cbd 277a a33c 51db 393e 1640 07be
00000230: 8fba 61bd 659d 6d3e 1dc2 0abd 1052 353d
00000240: f12c 84bd 0770 043e b77f 973e 8150 b13d
00000250: 6b90 9cbc b6b5 a83d 4f42 183e 373a 7e3c
00000260: 10a9 4ebe 2094 ad3d dbb9 b93d 9caa 94bd
00000270: 7c8c fb3d 6109 313e 3bef 363e 4525 173d
00000280: 3ea0 ffbd cec1 343d 799c 5b3e b5ab a7bb
00000290: 8fc4 08bd f679 d03d 909f 993e d4cf f0bd
000002a0: b2a5 973d a084 0dbd 65e0 16be fa4b d1bb
000002b0: f363 de3d 48fb 21be 7bc2 3a3e 0ab0 15be
000002c0: 1e94 103e c0bf 073e a66b a4bd 323b 22be
000002d0: 6a01 7dbe 32d3 e7bd 7430 a3be 7d25 20be
000002e0: f995 b13d b0a2 69be 6add 873e 367d 4b3e
000002f0: 8300 553e a142 45be fcb1 a83d 4303 49bc
00000300: 0ef1 90bd b0ba 4f3e 9c5b a0bd b0bc 8cbe
00000310: 38dc 88be c514 2ebe 30a7 e73d 029c 523e
00000320: 79fa 8ebc d3c1 613e eb49 83bd ef8d 9ebe
00000330: b95b cd3d a659 043e fb77 c5bc f07a 18be
00000340: db5e 533e 9150 e1bd 4263 8cbd 4e9e 92be
00000350: f6d6 cf3d 6da7 2e3e f670 73bd 9abd c93d
00000360: 8d85 373d ebc3 cfbd 1f5f c93c 4385 87bc
00000370: b7ac 3a3e a4e1 a83d 95b4 bcbe f1ab 57bc
00000380: add5 863e 1d7f 993d f876 343e f1e9 cebd
00000390: f408 03be b7d6 8d3d f9f3 d03c 9df2 273d
000003a0: 00ae 023e d24f 53be 13ab 2e3e dcfe 1b3e
000003b0: bb7e de3c 7aea 573e 935c 1dbe 734b 523d
000003c0: 8f4f a1be c576 6d3d a152 77be 6e71 55be
000003d0: dbe8 8a3d 6b24 c83d 8c61 193e 45ae 1ebd
000003e0: e4bd a0be 1fe7 b63d 4824 6d3d 2da2 933d
000003f0: c27a 903e 7e72 d63b 0ccd 8e3d 5547 3bbe
0.22077695 0.15915652 0.23630863 0.022725888 -0.3343526 -0.020100767 -0.22286066 0.2321386
0.015596848 -0.07279864 0.23721683 -0.31155047 -0.23199522 0.17621864 -0.022240702 0.07240435
-0.12913287 0.21575187 0.21470046 -0.07943879 -0.13069655 0.1204382 0.126245 -0.029029856
-0.15636988 0.08651229 0.1693989 -0.17937593 0.24668406 0.19446422 0.057849053 0.1575292
-0.090134345 0.10424684 0.20538133 0.15829816 -0.113281615 0.29545245 0.18937032 -0.1446992
0.08047273 0.030190498 -0.29958844 0.048859265 0.16735463 -0.22028022 0.3611087 -0.20836121
0.28762725 0.26373947 -0.21027556 -0.31703216 -0.35531795 -0.12687908 -0.37032282 -0.23044051
-0.14719577 -0.21692644 0.29355666 0.28824583 0.08139435 0.1068504 0.19030154 -0.13981833
0.07526796 0.23203702 -0.21958011 -0.2612343 -0.16512695 -0.15264621 0.2745073 0.16871583
0.17401889 0.12239811 -0.16028112 -0.2827763 0.22222735 0.0762897 0.11902493 -0.11844206
0.2407848 -0.15579191 0.25389513 -0.27580777 0.17750153 0.27190572 -0.2838757 0.17798221
0.21229082 0.023664325 -0.07508656 0.20476632 0.15638356 0.07410626 -0.33834603 -0.12697116
0.20238605 -0.24284902 0.16732407 0.10424743 -0.049571656 0.17612135 0.22669913 0.11508422
0.16972658 -0.18157744 0.28247997 0.25855452 0.16244906 0.22153641 -0.23586814 -0.016379809
-0.37425765 0.15494107 -0.22840233 -0.33227345 -0.06629014 -0.019519586 -0.07644214 -0.067895286
-0.24773692 0.16669972 5.593587e-05 -0.0026025204 0.25550494 0.05892172 0.14857012 -0.27217054
-0.031738408 0.19464017 0.09709482 0.06180857 -0.28640375 -0.09086554 -0.1008238 0.07566719
-0.034303762 0.019955708 0.18150069 -0.1320804 -0.055109557 0.23204572 -0.033876527 0.044267714
-0.064538844 0.1293336 0.29589626 0.08657933 -0.019111833 0.082377836 0.14869045 0.015516809
-0.2018168 0.08475518 0.09068652 -0.07259104 0.12282655 0.17288734 0.17864697 0.036900777
-0.12481736 0.04413014 0.21446408 -0.0051169046 -0.033390578 0.10179512 0.3000455 -0.1175839
0.07404651 -0.03455031 -0.14734037 -0.006387231 0.108589076 -0.15818512 0.18238251 -0.14617935
0.14119002 0.1325674 -0.08028345 -0.15842894 -0.2470757 -0.11319579 -0.31872904 -0.156393
0.08671183 -0.22815967 0.26536113 0.19871983 0.20800976 -0.19263698 0.08237073 -0.012268844
-0.070772275 0.2028606 -0.07829973 -0.27487707 -0.26730514 -0.1700011 0.11311185 0.20567325
-0.017453419 0.22046594 -0.06410583 -0.30967662 0.1002726 0.12924823 -0.024105063 -0.14890647
0.20641653 -0.11001695 -0.068548694 -0.28636402 0.101484224 0.17056055 -0.0594339 0.09850617
0.0448051 -0.1014479 0.02458149 -0.016543036 0.18229948 0.082461625 -0.36856523 -0.013163553
0.26334897 0.07494948 0.17623508 -0.101032145 -0.12796384 0.06925719 0.02550696 0.04100286
0.12761688 -0.20635918 0.17057447 0.1523394 0.02716004 0.2108554 -0.15367346 0.051341485
-0.3150601 0.057974596 -0.24152614 -0.20844051 0.06782695 0.09772571 0.14978617 -0.038740415
-0.31394875 0.089308016 0.05789593 0.07208667 0.28218657 0.0065444103 0.06972703 -0.1828893

GRU/quant_dense_47/LastValueQuant/FakeQuantWithMinMaxVars__3234 f4 [32, 1]
00000000: 9d41 803e 7f56 513e 2702 2bbe a8df 6bbc
00000010: a8df 6bbc f595 a63e 1c7e 483e 56cd b63d
00000020: bee7 30be 5eb0 a03e 6151 19be 2c44 9cbe
00000030: 8739 bbbe 2c44 1cbe f2f4 2d3e 1c7e 48be
00000040: 11fa 65be a8df 6b3e e22e dabd 7914 60be
00000050: edb2 3c3e a8df 6b3e 92bd 9dbe 3286 8dbe
00000060: 1c7e c8bd c96b 93be 9aa0 07be 6151 193d
00000070: e22e 5a3e 6693 8abe 2aa3 a33e 6693 8abe
0.2505006 0.20443152 -0.1670004 -0.0143965855 -0.0143965855 0.32536283 0.19579357 0.089258835
-0.17275903 0.31384557 -0.1497245 -0.3052076 -0.36567327 -0.1526038 0.1698797 -0.19579357
-0.22458674 0.23034537 -0.106534734 -0.2188281 0.1842763 0.23034537 -0.30808693 -0.27641445
-0.097896785 -0.2879317 -0.13244858 0.037431125 0.21306947 -0.2706558 0.31960422 -0.2706558

GRU/quant_dense_46/LastValueQuant/FakeQuantWithMinMaxVars__3233 f4 [32, 32]
00000000: f934 89be 56a6 17be d915 67bb 4afc 81bd
00000010: c0c1 bb3d 4afc 01bd 56a6 973e 1e33 cabc
00000020: 8849 a4be d915 e73b d915 e73b 1e2e 803e
00000030: 56a6 973e e0e5 a7be 6350 ad3c 76ca 833e
00000040: b417 a6bd c696 463e 8849 a43e 3787 f53d
00000050: 1e33 cabc 4afc 013e 76ca 83be c696 46be
00000060: c696 463e b417 263e 50d1 0cbe cd6b 513e
00000070: 6ffa 42be 3787 753e 8279 63be 56a6 97bd
00000080: 05df 9e3e 1e33 4abe cd6b d1bd 1e33 ca3d
00000090: ff09 143e 2add 5fbe 6925 383e 4afc 013e
000000a0: baec 303e f934 893e b417 a63d 7ba4 d83d
000000b0: 2503 8bbe ae42 1bbe 5d7b a2be 6350 adbc
000000c0: ff09 94be 5d7b a2be 4afc 013e 2bd8 95be
000000d0: ae42 9b3e d915 e7bd 4afc 81bd a86d 10be
000000e0: 05df 9ebd e5bf fcbd 1e33 ca3d 75cf 4d3e
000000f0: 7c9f 8ebe cd66 87be 1e33 cabc a86d 10bd
00000100: c0c1 3bbe f934 89bd 56a6 973d 185e 3f3e
00000110: 185e 3fbe 05df 9ebd d915 e7bc 1289 34be
00000120: f934 89bd f934 093e 7ba4 58bd a86d 903d
00000130: 76ca 83be 4afc 01bd 6ffa c2bd c696 46be
00000140: 6350 2d3d 5d7b a2be c696 46be e6ba b2be
00000150: 6925 38be f934 893e d915 673c 185e 3fbe
00000160: 0bb4 29be a198 85be 4afc 813d baec 30be
00000170: 6350 2dbc 5d7b 22be 6ffa 423e e5bf 7cbe
00000180: c0c1 3bbe 5d7b 22be 0000 0000 31ad a0be
00000190: 6ffa c2be 2bd8 953e e5bf 7cbe 8279 633e
000001a0: 7ba4 583e ff09 14be 6350 2d3d d910 9dbe
000001b0: d915 e7bc 7c9f 8e3e 884e 6ebe 6350 2d3c
000001c0: 4afc 81be d915 67bc 1289 b4bd 50d1 0c3e
000001d0: ae42 9b3e 30b2 6abe 75cf 4dbe 884e 6e3e
000001e0: 4afc 813d 884e ee3d cd66 87be 4afc 013e
000001f0: 6350 2d3e 56a6 97be d915 67bb 1e2e 803e
00000200: 7ba4 583e 05df 1ebe 3782 abbe 8e23 79be
00000210: 0000 0000 4afc 013e 1289 34be a198 853e
00000220: 4afc 81be d915 e73d ae42 1b3e 6350 ad3c
00000230: 6925 38be 56a6 97bd ff09 14be c0c1 bb3d
00000240: 8e23 79be 6ffa c23d 56a6 97be 8849 a4be
00000250: 6350 2dbd 05df 9e3e 432c c1be 6350 2d3c
00000260: 6350 2d3e 1e33 cabd 50d1 8c3e 6350 2d3d
00000270: 0bb4 293e 8279 63be f934 093e 0bb4 29be
00000280: d915 e7bc 6350 adbd 4afc 013d d915 e7bd
00000290: 50d1 8c3e 5d7b 22be d915 67be a198 053e
000002a0: 7ba4 d8bd 5d7b 223e b417 a63d a86d 10bd
000002b0: a86d 103e b417 a63d d915 673e 8279 63be
000002c0: 56a6 17be 50d1 0cbe d915 67bb 1e2e 80be
000002d0: 50d1 8cbe d915 e73b 7ba4 58be ff09 143e
000002e0: 7ba4 d8bd f934 893e 6ffa 423e 8274 99be
000002f0: cd6b 51be 0bb4 29be 7ba4 583e 6350 adbd
00000300: dfea 71be baec 303e 7ba4 58be 56a6 973d
00000310: f934 89bd ff09 143e c0c1 3b3d 6350 ad3e
00000320: 5d7b 223e e5bf fc3d 4afc 813d 05df 1e3e
00000330: 4afc 81be baec 30be 50d1 0cbe 185e 3f3e
00000340: d915 67bc f934 893d 6350 2d3d 5d7b 223e
00000350: 8849 a43e 884e ee3d 76ca 833e c0c1 3bbd
00000360: 1e33 cabc c0c1 bb3d 3787 753d 6350 adbc
00000370: d915 e73b baec 303e a86d 10bd 56a6 973d
00000380: a86d 90be 884e ee3d 7ba4 58bd 6350 adbc
00000390: cd6b 51be 7ba4 d83d 05df 9e3d 2503 8bbe
000003a0: a86d 90be f934 09be d915 e7bc 75cf 4d3e
000003b0: 8279 633e 05df 9ebe f934 09be 2add 5f3e
000003c0: d910 9d3e 7ba4 d8bd 1289 b43d d915 67be
000003d0: 884e eebd 6ffa 423e 6350 2d3c 6350 ad3d
000003e0: 4afc 813e d915 67bd c0c1 3bbe 30b2 6a3e
000003f0: 5d7b a23e f934 09be 50d1 0cbe 1e2e 80be
-0.26798227 -0.14809546 -0.0035260825 -0.063469484 0.09167814 -0.031734742 0.29619092 -0.024682578
-0.3208735 0.007052165 0.007052165 0.25035185 0.29619092 -0.32792568 0.021156495 0.25740403
-0.0810999 0.19393453 0.3208735 0.11988681 -0.024682578 0.12693897 -0.25740403 -0.19393453
0.19393453 0.1621998 -0.13751721 0.20451279 -0.19040845 0.23977362 -0.2221432 -0.07404773
0.31029525 -0.19746062 -0.102256395 0.09873031 0.14456938 -0.21861711 0.17983021 0.12693897
0.17277804 0.26798227 0.0810999 0.10578247 -0.27150837 -0.15162155 -0.31734744 -0.021156495
-0.28913876 -0.31734744 0.12693897 -0.29266486 0.3032431 -0.11283464 -0.063469484 -0.1410433
-0.07757381 -0.123412885 0.09873031 0.2009867 -0.27856052 -0.26445618 -0.024682578 -0.035260826
-0.18335629 -0.06699557 0.07404773 0.18688238 -0.18688238 -0.07757381 -0.02820866 -0.17630413
-0.06699557 0.13399114 -0.052891236 0.07052165 -0.25740403 -0.031734742 -0.09520423 -0.19393453
0.04231299 -0.31734744 -0.19393453 -0.34908217 -0.17983021 0.26798227 0.01410433 -0.18688238
-0.16572587 -0.2609301 0.063469484 -0.17277804 -0.010578248 -0.15867372 0.19040845 -0.24682577
-0.18335629 -0.15867372 0.0 -0.31382135 -0.3808169 0.29266486 -0.24682577 0.2221432
0.21156494 -0.14456938 0.04231299 -0.30676916 -0.02820866 0.27856052 -0.23272145 0.010578248
-0.25387794 -0.01410433 -0.088152066 0.13751721 0.3032431 -0.22919536 -0.2009867 0.23272145
0.063469484 0.116360724 -0.26445618 0.12693897 0.16925196 -0.29619092 -0.0035260825 0.25035185
0.21156494 -0.15514763 -0.33497784 -0.2432997 0.0 0.12693897 -0.17630413 0.2609301
-0.25387794 0.11283464 0.15162155 0.021156495 -0.17983021 -0.07404773 -0.14456938 0.09167814
-0.2432997 0.09520423 -0.29619092 -0.3208735 -0.04231299 0.31029525 -0.37729082 0.010578248
0.16925196 -0.09873031 0.27503443 0.04231299 0.16572587 -0.2221432 0.13399114 -0.16572587
-0.02820866 -0.08462598 0.031734742 -0.11283464 0.27503443 -0.15867372 -0.22566928 0.13046505
-0.10578247 0.15867372 0.0810999 -0.035260826 0.1410433 0.0810999 0.22566928 -0.2221432
-0.14809546 -0.13751721 -0.0035260825 -0.25035185 -0.27503443 0.007052165 -0.21156494 0.14456938
-0.10578247 0.26798227 0.19040845 -0.299717 -0.20451279 -0.16572587 0.21156494 -0.08462598
-0.23624752 0.17277804 -0.21156494 0.07404773 -0.06699557 0.14456938 0.04583907 0.33850393
0.15867372 0.123412885 0.063469484 0.15514763 -0.25387794 -0.17277804 -0.13751721 0.18688238
-0.01410433 0.06699557 0.04231299 0.15867372 0.3208735 0.116360724 0.25740403 -0.04583907
-0.024682578 0.09167814 0.059943404 -0.021156495 0.007052165 0.17277804 -0.035260826 0.07404773
-0.2820866 0.116360724 -0.052891236 -0.021156495 -0.20451279 0.10578247 0.07757381 -0.27150837
-0.2820866 -0.13399114 -0.02820866 0.2009867 0.2221432 -0.31029525 -0.13399114 0.21861711
0.30676916 -0.10578247 0.088152066 -0.22566928 -0.116360724 0.19040845 0.010578248 0.08462598
0.25387794 -0.05641732 -0.18335629 0.22919536 0.31734744 -0.13399114 -0.13751721 -0.25035185

GRU/quant_dense_46/BiasAdd/ReadVariableOp:0 f4 [32]
00000000: be18 173d 284c 48bd 15b7 82bd 5978 63bd
00000010: 296f fdbd a7d7 ee3c 2f71 b93c 91fd a03c
00000020: c3c3 3abd 8c5b 023d 1fbc 2abd 2a83 5ebd
00000030: 9e8b b9bd 088b bdbc b0d2 dbbc b461 9abd
00000040: 0bbc 88bd 8894 1bbd 7242 a1bd 2e33 91bd
00000050: 2087 163d 155b 9e3c c48b 6abd 2d75 31bd
00000060: 1f88 97bd 12ab 1bbd a990 e4bc b71f 7bbc
00000070: 5abd 163d 24fa f5bd 7425 443c 592a 56bd
0.03688883 -0.048900753 -0.063825764 -0.055534694 -0.12374718 0.029155565 0.022636978 0.01965216
-0.04559685 0.031825587 -0.041683313 -0.054324307 -0.09059833 -0.023137584 -0.026833862 -0.07538167
-0.06676491 -0.037983447 -0.078740016 -0.0708984 0.03674996 0.01933054 -0.057262197 -0.04332464
-0.0739901 -0.038004942 -0.02790101 -0.015327386 0.036801673 -0.12010601 0.01197182 -0.05228648

B__3274 f4 [1, 192]
00000000: 0279 053d c3f6 aebe d93a 113d dab9 25bd
00000010: 15e7 68be 74d1 09be a8f3 d53d 1757 37be
00000020: 9912 4e3e 0631 54bc 13e0 ae3d 7e64 03bd
00000030: 2f3b 9abd b054 86bb 4055 6ebe ab14 12be
00000040: dc46 1ebe 3a67 a2bd df38 1d3e 1c4b 6bbb
00000050: d8e4 dfbb 9d93 f13d cf5d 44bd c436 85bd
00000060: fc01 6d3e 1568 f73d 8524 a6bd 04f2 f039
00000070: b1ab bbbd b10a 113c 734f d8bd 0854 843e
00000080: 4ca2 acbd 2e8b 003c 7529 3c3d 09f0 e4bc
00000090: 5ed6 903c c8a7 abbd 91dd 8abd 1832 b4bc
000000a0: 2fe4 98bb 6bd4 0d3d e1fb 30bd bd52 a6bd
000000b0: 7e86 93bd efec 5fbd a441 8dbd 9e2f 05bd
000000c0: d6c8 edbc caa5 b9bc 5a7e ad3c 95e3 1dbd
000000d0: 2323 a53c 6ad6 26bd 61d5 7e3c ee9e 6bbb
000000e0: 8b87 00bd 0e43 68bd 7b7c 69bc b6bb 1dbd
000000f0: a723 7dbd ba79 bcbc abc5 ccbd a44b 113d
00000100: 6850 0c3c 2cf3 9f3d cdc5 8d3d bd2f c5bc
00000110: afd9 5f3d 9cc2 38bc 424d 4cbd c340 f0bc
00000120: b5f5 8abc c9f4 553c adf9 8cbd d4a0 c3bc
00000130: c287 3a3d e7d0 1dbd e9e2 893d a240 93bc
00000140: 8b17 8cbd 9813 9f3d a257 cdbc a078 303d
00000150: ddc7 d6bc 278f a83c be3c a7bd 1f68 603d
00000160: 805f 2c3b 741d 2cbd 2df8 343d 42a8 8b3b
00000170: c3f4 903c acf6 873d 0008 03bd 8ee2 333d
00000180: 0279 053d c3f6 aebe d93a 113d dab9 25bd
00000190: 15e7 68be 74d1 09be a8f3 d53d 1757 37be
000001a0: 9912 4e3e 0631 54bc 13e0 ae3d 7e64 03bd
000001b0: 2f3b 9abd b054 86bb 4055 6ebe ab14 12be
000001c0: dc46 1ebe 3a67 a2bd df38 1d3e 1c4b 6bbb
000001d0: d8e4 dfbb 9d93 f13d cf5d 44bd c436 85bd
000001e0: fc01 6d3e 1568 f73d 8524 a6bd 04f2 f039
000001f0: b1ab bbbd b10a 113c 734f d8bd 0854 843e
00000200: 4ca2 acbd 2e8b 003c 7529 3c3d 09f0 e4bc
00000210: 5ed6 903c c8a7 abbd 91dd 8abd 1832 b4bc
00000220: 2fe4 98bb 6bd4 0d3d e1fb 30bd bd52 a6bd
00000230: 7e86 93bd efec 5fbd a441 8dbd 9e2f 05bd
00000240: d6c8 edbc caa5 b9bc 5a7e ad3c 95e3 1dbd
00000250: 2323 a53c 6ad6 26bd 61d5 7e3c ee9e 6bbb
00000260: 8b87 00bd 0e43 68bd 7b7c 69bc b6bb 1dbd
00000270: a723 7dbd ba79 bcbc abc5 ccbd a44b 113d
00000280: e05e 7ebc 395f 973d a295 883d edc2 d9bc
00000290: 1d00 503d 0a32 8cbc 358d 52bd 102b 10bd
000002a0: 9f3b 4ebc 1830 663c fcd1 75bd 3eeb d7bc
000002b0: 349d 2f3d 443a 07bd 813d 963d c225 33bb
000002c0: 015d 80bd a198 913d 167f 9dbc 2bf3 433d
000002d0: bb71 e1bc 81d2 983c 96aa a3bd dcf7 783d
000002e0: 32aa ab39 e5a5 2bbd 3acf 183d e234 02bc
000002f0: 4154 813c bb27 573d 5706 01bd 76c3 243d
0.032586105 -0.3417264 0.035456512 -0.040460445 -0.22744401 -0.13458806 0.10446864 -0.17904316
0.20124282 -0.012951141 0.085388325 -0.03207826 -0.075308196 -0.004099451 -0.23274708 -0.14265697
-0.15456718 -0.07929845 0.15353726 -0.0035902923 -0.0068327 0.11795733 -0.047941025 -0.06504586
0.23145288 0.12080399 -0.08112434 0.00045956683 -0.09163607 0.008852647 -0.10562029 0.2584536
-0.08429393 0.007845683 0.045937974 -0.027946489 0.017680343 -0.08381611 -0.06780542 -0.021996543
-0.0046658735 0.034626406 -0.04320896 -0.0812125 -0.07203387 -0.054669317 -0.068972856 -0.032516114
-0.02902643 -0.022662062 0.021178413 -0.038547117 0.020158356 -0.040731825 0.015553803 -0.0035952884
-0.031379264 -0.056704573 -0.01425087 -0.038509093 -0.06180158 -0.023007262 -0.0999864 0.035472527
0.008564092 0.07810053 0.06922493 -0.024070615 0.05465096 -0.011276867 -0.049878366 -0.029327756
-0.016962865 0.01305885 -0.068835594 -0.0238804 0.045539625 -0.038529303 0.06732733 -0.017975155
-0.06840428 0.07767409 -0.0250662 0.043083787 -0.02621835 0.020576073 -0.081658825 0.054786798
0.002630204 -0.042020276 0.04418199 0.0042620013 0.017694836 0.06638846 -0.03199005 0.04391723
0.032586105 -0.3417264 0.035456512 -0.040460445 -0.22744401 -0.13458806 0.10446864 -0.17904316
0.20124282 -0.012951141 0.085388325 -0.03207826 -0.075308196 -0.004099451 -0.23274708 -0.14265697
-0.15456718 -0.07929845 0.15353726 -0.0035902923 -0.0068327 0.11795733 -0.047941025 -0.06504586
0.23145288 0.12080399 -0.08112434 0.00045956683 -0.09163607 0.008852647 -0.10562029 0.2584536
-0.08429393 0.007845683 0.045937974 -0.027946489 0.017680343 -0.08381611 -0.06780542 -0.021996543
-0.0046658735 0.034626406 -0.04320896 -0.0812125 -0.07203387 -0.054669317 -0.068972856 -0.032516114
-0.02902643 -0.022662062 0.021178413 -0.038547117 0.020158356 -0.040731825 0.015553803 -0.0035952884
-0.031379264 -0.056704573 -0.01425087 -0.038509093 -0.06180158 -0.023007262 -0.0999864 0.035472527
-0.01552555 0.07391209 0.06669165 -0.026582206 0.050781358 -0.017113704 -0.051404197 -0.035197318
-0.012587457 0.014049552 -0.06001471 -0.02635729 0.04287453 -0.03301455 0.0733595 -0.0027335738
-0.06267739 0.0710919 -0.019225638 0.047839325 -0.027520051 0.018655064 -0.07991521 0.060783252
0.00032742467 -0.041906256 0.037307 -0.007947179 0.015787246 0.052528124 -0.031500187 0.04022547
