models/station_22/model_latest.onnx (onnx, 407818 bytes, 12 tensors)

W__2160 f4 [1, 96, 64]
0	0xbd0e1593	-0.034688544
1	0xbe8ece9d	-0.27892008
2	0xbe87525e	-0.2643003
3	0xbe2f19d5	-0.17099698
4	0xbe837897	-0.2567794
5	0xbd06bc46	-0.032894395
6	0xbe6d68e0	-0.23184538
7	0xbe2054eb	-0.15657394
8	0xbe264724	-0.16238075
9	0x3e0209c3	0.12699036
10	0x3e08d05f	0.13360737
11	0xbce2b3b6	-0.027673583
12	0xbc933b4f	-0.017972616
13	0xbde03f82	-0.10949613
14	0x3cdb3be9	0.026761966
15	0xbdfe50fc	-0.1241779
16	0x3e456095	0.19275124
17	0x3e1e9770	0.15487456
18	0xbd7be729	-0.06149975
19	0x3b0f2f9e	0.002184845
20	0x3e8164f9	0.2527235
21	0x3d931212	0.07181181
22	0xbbe78da3	-0.007066445
23	0x3dd28f52	0.102812424
24	0xbd70d411	-0.058795992
25	0xbd72efcc	-0.05931072
26	0x3e6da5fc	0.2320785
27	0x3df73c21	0.120720156
28	0xbe6bcc5d	-0.23027177
29	0xbce73e79	-0.028228031
30	0x3dcb50fa	0.099275544
31	0xbdc81be8	-0.09770948
32	0xbb21d150	-0.002469141
33	0xbccccb3f	-0.024999259
34	0x3e275bcb	0.1634361
35	0xbe25b1bb	-0.1618108
36	0x3d588342	0.052859552
37	0x3c0f01b0	0.00872843
38	0xbc9a856d	-0.01886245
39	0xbb4834e3	-0.00305491
40	0x3ddcef68	0.107878506
41	0x3e84d1d1	0.25941327
42	0xbd8df8d1	-0.069322236
43	0x3dfe5f64	0.12420538
44	0xbdca5416	-0.09879319
45	0xbd683774	-0.05669351
46	0xbd8286d9	-0.063733764
47	0x3db9d5c5	0.090739764
48	0x3e16701d	0.14691205
49	0xbc0f19bd	-0.008734164
50	0xbe2a491e	-0.16629454
51	0xbd9e84f9	-0.07740206
52	0xbde4fd44	-0.11181119
53	0x3e2419a6	0.16025409
54	0x3e38ec93	0.18058996
55	0x3e336e21	0.1752248
56	0x3dd7e009	0.10540778
57	0xbc8d3ac5	-0.017239938
58	0xbd731e68	-0.05935517
59	0xbe7e8ca4	-0.24858338
60	0xbc9f0bb1	-0.019414755
61	0xbd2fea0e	-0.04294782
62	0xbdc21c2e	-0.09478031
63	0x3cfb51e0	0.03067869
64	0x3de5643c	0.11200759
65	0xbd9870c8	-0.07443386
66	0x3e67d81d	0.22641034
67	0x3d0a0f1b	0.033705812
68	0xbc32acf8	-0.010905497
69	0x3db912a5	0.09036759
70	0x3c346326	0.011009967
71	0x3d6dbfb7	0.05804416
72	0x3c22fe39	0.009948307
73	0x3e4802af	0.19532274
74	0xbe7beaeb	-0.24601333
75	0xbd85b681	-0.065289505
76	0xbda6b302	-0.08139612
77	0xbe07c1f0	-0.13257575
78	0xbe48e871	-0.1961992
79	0xbe6578c8	-0.22409356
80	0xbae3e097	-0.0017385659
81	0xbdcf6c12	-0.10128035
82	0x3c4a7fec	0.0123596005
83	0x3cc58329	0.024110394
84	0xbde76bd3	-0.11299863
85	0xbe0eb956	-0.13937888
86	0x3c7c8dc8	0.015414663
87	0x3d946f9f	0.072478525
88	0x3dd604cb	0.10450133
89	0x3dbb1f26	0.091368005
90	0x3e0217d9	0.1270441
91	0xbe11a087	-0.14221393
92	0x3b4eaecf	0.00315373
93	0x3d08fd0f	0.03344446
94	0xbd14bc5f	-0.036312457
95	0xbd7b32fb	-0.061327916
96	0xbc397789	-0.011320003
97	0x3e111822	0.14169362
98	0x3e06f64d	0.13179894
99	0xbe0c8283	-0.13721661
100	0x3d96dfe0	0.073669195
101	0xbe6cfc99	-0.23143233
102	0xbe1b6a9e	-0.1517739
103	0x3c4eff64	0.012634132
104	0x3bcb051b	0.006195677
105	0x3e0e4f1a	0.13897362
106	0xbde204c6	-0.11036067
107	0xbd65b2d3	-0.056078743
108	0xbe30aa66	-0.17252502
109	0x3d7d2ba7	0.06180921
110	0xbdc70c8e	-0.097191915
111	0xbddd3a50	-0.10802138
112	0xbd17d023	-0.03706373
113	0xbdc02a22	-0.09383036
114	0xbbe631ad	-0.007024965
115	0x3d6191a4	0.055070534
116	0xbd30937f	-0.043109413
117	0x3dc4f555	0.09617106
118	0xbe3e9aae	-0.18613693
119	0xbcc29700	-0.023753643
120	0x3e7efcfa	0.2490119
121	0xbdbf8bbf	-0.09352826
122	0x3cfb8f64	0.030708022
123	0xbd02fe95	-0.03198107
124	0x3db77df3	0.0895957
125	0x3e74eaca	0.2391769
126	0x3dee898c	0.11647329
127	0xbe88c58c	-0.26713216
128	0xbe393b7c	-0.18089098
129	0x3e48a90b	0.19595735
130	0x3caa6aae	0.020802822
131	0x3e7237ca	0.23654094
132	0x3e7fe5fc	0.24990076
133	0xbe4afa79	-0.1982211
134	0x3caf3204	0.021386154
135	0x3d945bee	0.07244097
136	0x3e94a242	0.29030043
137	0x3e44b997	0.19211422
138	0xbde4c375	-0.11170093
139	0x3dd3f258	0.10348958
140	0xbde35ae6	-0.11101322
141	0x3e18fe5e	0.14940783
142	0xbdedc028	-0.116089165
143	0xbb7240fa	-0.0036964999
144	0xbc86b53c	-0.016443841
145	0x3d10923c	0.03529571
146	0xbe206bb1	-0.15666081
147	0xbdcaa74f	-0.09895193
148	0xbc85b57a	-0.016321886
149	0x3e25bf25	0.16186197
150	0x3c3554a8	0.011067547
151	0x3e0bffba	0.1367177
152	0x3de42044	0.11138967
153	0x3d97b76b	0.07408031
154	0xbe36f685	-0.17867477
155	0xbeb9a8bb	-0.36261544
156	0x3e470f2f	0.19439386
157	0x3dc25e01	0.09490586
158	0xbd4e4fcb	-0.050369065
159	0x3d252b65	0.040324587
160	0xbd19b4ec	-0.037526056
161	0x3e347597	0.17622982
162	0xbe2ae8b6	-0.16690335
163	0x3dd62475	0.104561724
164	0x3dc10287	0.0942431
165	0xbe20cab6	-0.15702328
166	0xbdfe64e7	-0.12421589
167	0xbde0fdd1	-0.10985912
168	0xbe2557dc	-0.16146797
169	0xbc892c60	-0.016744792
170	0xbd7e328a	-0.062059917
171	0xbd5025cb	-0.050817292
172	0x3e85d3e8	0.26138234
173	0xbdbe5e2f	-0.09295308
174	0x3da5323e	0.080662236
175	0xbe22484d	-0.15847893
176	0xbd351069	-0.044205103
177	0x3e2abfa1	0.16674663
178	0xbd24d0cb	-0.040238183
179	0x3c62942e	0.013829274
180	0x3cbc260c	0.02296736
181	0xbdb7d70c	-0.08976564
182	0xbc85d7fb	-0.01633834
183	0xbe2cbac8	-0.16868126
184	0x3d041dce	0.032254986
185	0x3e37470f	0.178982
186	0x3b493b3c	0.0030705472
187	0xbd315345	-0.043292303
188	0xbe4ea228	-0.20179045
189	0x3d1b8eb4	0.03797789
190	0xbdbb9396	-0.09159009
191	0xbe6c8190	-0.23096299
192	0xbe732c41	-0.2374735
193	0xbe408101	-0.18799211
194	0xbc479e69	-0.012183764
195	0xbd04c8f7	-0.032418218
196	0xbcd1ebd5	-0.025625149
197	0xbe560aad	-0.2090251
198	0x3e42a167	0.19006883
199	0x3e783749	0.2423984
200	0x3df0e295	0.11761967
201	0xbdb55a0c	-0.08855066
202	0xbe31d40a	-0.17366043
203	0x3c8853dd	0.016641552
204	0xbc371786	-0.011175042
205	0xbd98ab70	-0.07454574
206	0x3da6dbc1	0.081473835
207	0x3c8d760f	0.017268209
208	0x3d86c326	0.0658019
209	0x3d0b7e8e	0.03405624
210	0xbe78e7b2	-0.24307135
211	0xbe96e9fc	-0.2947539
212	0xbe2efa65	-0.17087705
213	0x3d4332e4	0.047655955
214	0x3d972756	0.073805496
215	0xbe3c047b	-0.18361084
216	0x3d1465b5	0.036229808
217	0xbe68eefe	-0.22747418
218	0xbe1138ff	-0.14181899
219	0xbd7dcdeb	-0.061963957
220	0xbd68bb42	-0.056819208
221	0xbcfa930b	-0.030587694
222	0xbe28d4e1	-0.16487457
223	0x3e57c8cd	0.21072693
224	0xbd8e4e19	-0.0694849
225	0xbe116bbf	-0.14201258
226	0x3e206e13	0.1566699
227	0xbd8aae4b	-0.06771525
228	0xbe5a63d9	-0.21327151
229	0xbccabb44	-0.024747498
230	0xbd9398c6	-0.072068736
231	0xbd02494c	-0.031808183
232	0x3a2d8a64	0.0006620048
233	0xbdb274b5	-0.08713666
234	0x3cca3780	0.024684668
235	0x3e6085d6	0.21926054
236	0xbd51f6b9	-0.051260684
237	0xbdbe5b60	-0.09294772
238	0x3e413b62	0.18870309
239	0xbe2b37b4	-0.16720468
240	0x3c65f5a1	0.014035613
241	0xbcd8de0b	-0.026473066
242	0xbe5c1152	-0.21490982
243	0x3e205943	0.1565905
244	0x3d2504a3	0.040287625
245	0x3e071ee0	0.13195372
246	0x3ce15637	0.02750693
247	0xbe71170a	-0.23543945
248	0xbb1c8019	-0.0023880063
249	0xba9a554c	-0.0011774688
250	0x3e025036	0.1272591
251	0xbc06afce	-0.008220626
252	0xbd2bf4a7	-0.041981366
253	0x3e6dcfa1	0.23223735
254	0xbe5b88df	-0.21438931
255	0xbde44667	-0.11146241

W__2146 f4 [1, 192, 128]
0	0xbd0e734d	-0.03477793
1	0x3e1ceaac	0.15323895
2	0xbe2823e5	-0.16419943
3	0x3d90ad3d	0.070642926
4	0x3e5c2b66	0.2150093
5	0xbdb37c85	-0.087639846
6	0xbd1d9b6b	-0.038478296
7	0xbe1bbbc6	-0.15208349
8	0xbd1f0aa6	-0.038828515
9	0x3e67e016	0.22644076
10	0x3d1bafc4	0.03800942
11	0x3e2d7ed1	0.16942908
12	0xbdf59cb8	-0.11992782
13	0x3c8ed783	0.017436748
14	0xbe0f58b0	-0.13998675
15	0xbd9b236b	-0.07575115
16	0x3e11a0ab	0.14221446
17	0x3dd43155	0.10360972
18	0xbe05b5b7	-0.130576
19	0x3e427166	0.1898857
20	0x3dad9ac6	0.08476786
21	0x3d13a0cc	0.03604202
22	0xbd833f2d	-0.06408534
23	0x3dc4c08a	0.096070364
24	0xbdf2d9ba	-0.11857934
25	0xbd86f396	-0.06589429
26	0x3d94c728	0.072645485
27	0x3dc8cffd	0.098052956
28	0x3d46bed7	0.048521843
29	0x3e5bf3dd	0.21479745
30	0xbc949e0e	-0.018141773
31	0x3d5a3aeb	0.053278845
32	0x3e1920cb	0.14953916
33	0xbe3b7677	-0.1830691
34	0x3e3bccec	0.1833989
35	0xbd67aea4	-0.056563035
36	0xbc8070b7	-0.015678747
37	0xbe636ee0	-0.22210264
38	0x3c955176	0.01822732
39	0x3cdebe7a	0.027190436
40	0xbe2f52f8	-0.17121494
41	0xbe7bf010	-0.24603295
42	0xbd9a15d6	-0.07523696
43	0xbe034d64	-0.12822491
44	0x3e2aab0f	0.16666816
45	0xbb8a7d5e	-0.0042263707
46	0x3d3fc61f	0.046819802
47	0x3e331c96	0.17491373
48	0xbd94a7ac	-0.07258543
49	0xbe40e4a9	-0.18837227
50	0xbe593b79	-0.21214093
51	0xbb213fbb	-0.0024604637
52	0xbd965714	-0.073408276
53	0x3cdebfd8	0.027191088
54	0xbe0ef46e	-0.1396043
55	0xbdc7b833	-0.0975193
56	0xbd6de42a	-0.058078922
57	0xbddfa4ca	-0.10920103
58	0xbd67e59e	-0.056615464
59	0x3cb0c7fc	0.021579735
60	0xbe0ce49e	-0.13759086
61	0xbd592b22	-0.05301965
62	0xbd109f0c	-0.03530793
63	0x3c6c50e5	0.014423584
64	0xbdbe18a2	-0.09282042
65	0xbba76d96	-0.005109499
66	0xbe039b50	-0.12852216
67	0xbd69603f	-0.056976553
68	0x3cca765a	0.024714638
69	0xb7ea124a	-2.790349e-05
70	0xbe6a1f51	-0.22863509
71	0x3df18fb9	0.11794991
72	0xbd66107f	-0.056168076
73	0x3e3de41b	0.18544047
74	0xbe62aa84	-0.22135359
75	0x3d5399f9	0.05166051
76	0xbdb29ffc	-0.08721921
77	0xbd3ba5c4	-0.045812383
78	0xbe211c19	-0.15733375
79	0x3e237d94	0.15965873
80	0xbd2ecd8b	-0.04267649
81	0x3cd0269a	0.025409032
82	0x3de93987	0.113879256
83	0xbdb65232	-0.08902396
84	0xbe59c29a	-0.21265641
85	0xbcca855a	-0.02472179
86	0xbe472cee	-0.19450733
87	0xbcea34bb	-0.028589597
88	0xbda07978	-0.07835668
89	0x3cd77ae9	0.026303725
90	0xbe32a79c	-0.1744675
91	0xbe253a70	-0.16135573
92	0x3e0ee37c	0.13953966
93	0x3e31ebab	0.17375056
94	0xbc601055	-0.013675769
95	0xbda7d3e0	-0.08194709
96	0xbc7b8468	-0.015351392
97	0x3d46382f	0.048393425
98	0xbe05d749	-0.13070406
99	0x3e102c75	0.14079459
100	0x3ddd85c2	0.10816528
101	0xbe41f755	-0.18942006
102	0xbc9cf6b0	-0.019160599
103	0xbe13e2e5	-0.14442022
104	0x3d1f8881	0.03894854
105	0xbd795646	-0.060873292
106	0x3cd6dcb1	0.02622828
107	0xbdeb8f08	-0.115018904
108	0xbb6fe798	-0.0036606546
109	0x3d58c18e	0.052918963
110	0xbd834156	-0.06408946
111	0xbe367116	-0.17816576
112	0xbd2dcf63	-0.042434108
113	0x3de941d5	0.113895096
114	0x3e394c55	0.18095525
115	0x3d3db4b2	0.046314903
116	0x3e0b41ee	0.13599369
117	0x3e24c34a	0.16090122
118	0xbb2a900f	-0.0026025807
119	0x3dca6328	0.09882194
120	0xbd379903	-0.044823658
121	0x3e09b204	0.13446814
122	0x3e342cfc	0.17595285
123	0xbc83e2ae	-0.0160993
124	0xbc891c66	-0.016737174
125	0x3dc2e930	0.09517133
126	0xbc4aeb56	-0.01238521
127	0xbbf7d68b	-0.0075634173
128	0xbdc3e66f	-0.09565436
129	0x3d1449ea	0.036203302
130	0xbe5b7131	-0.21429898
131	0x3d34423b	0.044008475
132	0x3e07489e	0.13211295
133	0xbe38803c	-0.18017668
134	0xbe658186	-0.2241269
135	0x3d1fc0e8	0.03900233
136	0xbd28b26c	-0.04118578
137	0xbd560d61	-0.052258853
138	0x3d5c0c04	0.053722396
139	0xbc5931bd	-0.013256487
140	0x3dfa4955	0.12221018
141	0x3b3b52ba	0.0028583244
142	0x3e3da2ff	0.1851921
143	0xbe3ff8d0	-0.18747258
144	0xbe3a9f51	-0.18224837
145	0xbe4cf2d7	-0.20014511
146	0x3e2f05f1	0.1709211
147	0x3e1c9876	0.15292534
148	0xbdeba990	-0.11506951
149	0x3d202717	0.03909978
150	0xbe178571	-0.14796998
151	0xbdd2f53a	-0.103006795
152	0xbdff5ff4	-0.124694735
153	0xbe6d488e	-0.23172209
154	0x3e48a5bd	0.19594474
155	0xbcd3b452	-0.02584282
156	0xbe11db04	-0.14243704
157	0x3c803c89	0.015653865
158	0xbdd6b9e2	-0.10484673
159	0x3d9f369b	0.07774087
160	0x3dbfbc67	0.09362107
161	0xbd45586e	-0.048180036
162	0x3e2334de	0.15938136
163	0xbe1d8eda	-0.15386525
164	0x3e044d72	0.12920168
165	0x3e367fe8	0.1782223
166	0x3da040c7	0.07824855
167	0xbc647aa1	-0.013945253
168	0xbd9b7e43	-0.07592442
169	0xbd94db86	-0.07268433
170	0xbdc8b83f	-0.09800767
171	0xbd6d089a	-0.05786953
172	0x3d4ee0ca	0.050507344
173	0x3ca4163e	0.020030137
174	0x3cbcf00e	0.023063686
175	0xbdcce69f	-0.10004925
176	0xbcc70c9e	-0.024298009
177	0xbdde1083	-0.10842993
178	0x3da07607	0.07835012
179	0x3cce2433	0.025163746
180	0x3e172625	0.14760645
181	0x3de73596	0.112895176
182	0x3dd41337	0.103552274
183	0xbd9c1c0f	-0.07622539
184	0xbcaa19a8	-0.020764187
185	0x3db602ae	0.0888723
186	0x3dafdd98	0.085871875
187	0x3da30395	0.079596676
188	0x3c606208	0.0136952475
189	0xbe170c96	-0.14750895
190	0x3de2d720	0.11076188
191	0x3e616d20	0.22014284
192	0x3e284f88	0.16436589
193	0xbd7c3d06	-0.061581634
194	0x3dddaedd	0.10824368
195	0x3c836c3b	0.01604282
196	0x3d83c2de	0.06433652
197	0xbd55282e	-0.05204027
198	0x3d42a41b	0.047519784
199	0x3e536e79	0.2064761
200	0xbd3e7a3d	-0.046503294
201	0xbcc7b312	-0.02437738
202	0x3e0d72b2	0.13813284
203	0x3d9e925b	0.07742759
204	0x3e617439	0.22016992
205	0x3dbb3b3a	0.09142156
206	0xbe595362	-0.21223214
207	0x3da02e6f	0.078213565
208	0x3c1d6b5f	0.009608119
209	0x3d1dabb4	0.038493827
210	0x3ce447fb	0.027866354
211	0x3ba9676e	0.0051698005
212	0x3da1b3e2	0.07895638
213	0xbe7d2a98	-0.2472328
214	0x3c9ac56d	0.018892968
215	0x3c316cd6	0.010829171
216	0x3df35952	0.11882271
217	0xbc3a4b23	-0.011370453
218	0x3e54efda	0.20794621
219	0xbe401818	-0.18759191
220	0xbe9666f7	-0.2937543
221	0x3e347eb0	0.17626452
222	0xbdffaf1a	-0.1248457
223	0x3d1de0dc	0.03854452
224	0x3df4e84a	0.11958368
225	0xbe64e66d	-0.22353525
226	0x3dac86ed	0.084241726
227	0xbe798014	-0.24365264
228	0xbe917851	-0.28412107
229	0xbdbe78a7	-0.09300356
230	0x3db2a80f	0.08723461
231	0xbd7ff272	-0.062487073
232	0xbde58c8f	-0.1120845
233	0x3c31c826	0.010850942
234	0xbce2dd2a	-0.02769335
235	0xbd9f628b	-0.077824675
236	0x3e310101	0.17285539
237	0xbcfdbdb2	-0.030974243
238	0x3e1b0501	0.15138628
239	0x3d27967a	0.04091499
240	0xbde6c5f4	-0.11268225
241	0xb9f2dffc	-0.00046324718
242	0xbe2a885d	-0.16653581
243	0xbc832df0	-0.016013116
244	0x3e444b2a	0.19169298
245	0x3d9e0d05	0.07717327
246	0xbe84be15	-0.2592627
247	0x3dc4f56b	0.09617122
248	0xbdeea9aa	-0.116534546
249	0x3e1d199a	0.15341797
250	0x3c98d766	0.018657397
251	0x3e0c5506	0.13704309
252	0xbd38fb5f	-0.0451616
253	0x3e3b91ae	0.18317291
254	0xbd6affeb	-0.05737297
255	0x3dd7ca8b	0.10536679

W__2133 f4 [1, 384, 6]
0	0xbe0583a0	-0.13038492
1	0x3c748c79	0.014926069
2	0xbbecc705	-0.0072258734
3	0xbd1abff7	-0.03778073
4	0xbde0e698	-0.10981482
5	0xbd83a9c8	-0.064288676
6	0xba992f28	-0.0011687027
7	0xbe2ec81c	-0.17068523
8	0xbcac1c40	-0.021009564
9	0xbe24376b	-0.16036765
10	0x3c53d867	0.012930012
11	0xbdfbe4d0	-0.12299502
12	0xbe6dcbe3	-0.23222308
13	0xbdc774db	-0.09739085
14	0x3d68cb99	0.05683479
15	0xbccdc751	-0.025119456
16	0xbe3403de	-0.175796
17	0xbcff460a	-0.031161327
18	0xbdbe90dd	-0.09304974
19	0xbd530a32	-0.051523395
20	0xbe252584	-0.16127592
21	0x3d350ae7	0.04419985
22	0xbe11a0e3	-0.1422153
23	0xbe29d16c	-0.16583794
24	0xbe4cdb0a	-0.20005432
25	0xbd50658f	-0.050878104
26	0xbdcd74bf	-0.10032033
27	0xbc087b53	-0.008330184
28	0xbe50a533	-0.20375519
29	0x3d5ff765	0.054679293
30	0x3d8eebe9	0.0697859
31	0x3e02ca12	0.12772396
32	0x3dacc889	0.084366865
33	0xbceb608c	-0.02873256
34	0x3db5c64c	0.08875713
35	0x3d61180e	0.05495458
36	0xbda1d3b7	-0.079017095
37	0x3ced4c38	0.028967008
38	0x3d8cf3f8	0.06882471
39	0xbbca4784	-0.006173076
40	0x3d7533ea	0.059863962
41	0xbd2bd202	-0.041948326
42	0xbe79a8b4	-0.24380761
43	0x3c5d04a7	0.013489879
44	0x3d07f775	0.033194978
45	0x3d4c5ad8	0.049891323
46	0xbe1a0a92	-0.15043095
47	0xbe51b63c	-0.20479673
48	0xbe0b70fd	-0.1361732
49	0xbe1ef042	-0.15521339
50	0xbcb4a6ca	-0.022052187
51	0xbdf2ac6b	-0.11849292
52	0xbe201a81	-0.1563511
53	0xbddb4aff	-0.10707664
54	0xbcf2becd	-0.029631997
55	0xbdb72ac1	-0.089437015
56	0xbe193eb4	-0.14965326
57	0xbddf0abd	-0.1089072
58	0xbdd28c70	-0.102806926
59	0xbca84746	-0.020541798
60	0xbe6e0afc	-0.23246378
61	0xbe725a32	-0.2366722
62	0xbe5500d5	-0.20801099
63	0xbe528918	-0.2056011
64	0xbda25189	-0.07925708
65	0xbc9034d5	-0.017603317
66	0xbdc60c96	-0.09670369
67	0xbd22acab	-0.03971545
68	0xbdc6a18d	-0.09698782
69	0xbe24264a	-0.16030231
70	0xbde676b6	-0.11253111
71	0xbe6c8a39	-0.23099603
72	0xbe48c621	-0.1960683
73	0xbdeb7f2d	-0.11498866
74	0xbe167be4	-0.14695698
75	0xbd4c857a	-0.04993198
76	0xbdb82d55	-0.089930214
77	0xbe19c9ca	-0.15018383
78	0x3e000ded	0.12505312
79	0x3e1d7fb6	0.15380749
80	0x3e0c8b74	0.13725072
81	0x3e270b74	0.16312963
82	0x3df15dbb	0.11785456
83	0x3e276a2f	0.163491
84	0xbd61c469	-0.055118952
85	0x3d4ac768	0.049506575
86	0xbd156906	-0.03647711
87	0xbda15b3b	-0.07878729
88	0xbc146a89	-0.009058603
89	0x3e0b0d9c	0.1357941
90	0x3c90835b	0.01764076
91	0xbe086aea	-0.13322034
92	0x3daebb0f	0.08531772
93	0x3d90ccf5	0.070703425
94	0xbd897035	-0.06710855
95	0x3dec3ab2	0.11534633
96	0xbe4c27dd	-0.19937082
97	0xbe1bbc5f	-0.15208577
98	0xbdbc98c2	-0.09208824
99	0x3d48582d	0.048912216
100	0x3d6b1f3c	0.057402834
101	0xbd8795c9	-0.06620366
102	0x3c4c5ac5	0.012472813
103	0x3df0f4c7	0.117654376
104	0x3e810e03	0.25206003
105	0x3e535145	0.2063647
106	0x3e31edce	0.17375872
107	0x3dac2b17	0.08406656
108	0x3d686e42	0.056745775
109	0xbd1f8092	-0.038940974
110	0xbd6983a5	-0.05701031
111	0xbc6b6867	-0.014368153
112	0xbde0d211	-0.10977567
113	0x3d746f66	0.05967655
114	0xbd279ab8	-0.040919036
115	0xbd678c41	-0.05653024
116	0xbc2e905e	-0.010654537
117	0xb9709702	-0.00022944438
118	0xbdbd86ac	-0.09254202
119	0xbe0564be	-0.13026711
120	0xbe225810	-0.15853906
121	0x3d9cf3fa	0.07663722
122	0xbd4af40b	-0.049549144
123	0xbe1d3b54	-0.15354663
124	0xbd8cc9eb	-0.0687445
125	0x3bea1f5e	0.0071448525
126	0x3cee16cc	0.029063605
127	0xbdb086a8	-0.08619434
128	0xbd7fe814	-0.062477186
129	0xbd1b1dd1	-0.037870232
130	0xbd55961c	-0.05214511
131	0xbcb0e319	-0.021592664
132	0xbd7a93ef	-0.061176237
133	0xbc2d5d7b	-0.0105813695
134	0x3d5bc1c3	0.053651582
135	0xbe114c98	-0.14189374
136	0xbd232119	-0.039826486
137	0xbbb83bec	-0.0056223776
138	0xbe45a3ce	-0.19300768
139	0xbe2061e3	-0.15662341
140	0xbda70ea5	-0.0815709
141	0xbdd189e2	-0.10231377
142	0xbe37b574	-0.17940313
143	0xba585ab1	-0.000825326
144	0xbe5efc3b	-0.21775906
145	0xbcc2b394	-0.02376727
146	0xbe065566	-0.13118514
147	0xbe5554d3	-0.20833139
148	0xbe46c800	-0.19412231
149	0x3b1cf4ed	0.0023949698
150	0xbe833614	-0.25627196
151	0x3bd81ebb	0.00659546
152	0xbd87d03e	-0.06631516
153	0x3d157c5e	0.03649556
154	0xbd07edfc	-0.033185944
155	0x3dff41b3	0.12463703
156	0xbe17df58	-0.14831293
157	0xbd289dda	-0.041166164
158	0xbcbfded6	-0.023421686
159	0xbdcf70dd	-0.10128949
160	0xbe5142d0	-0.20435643
161	0xbe019ae7	-0.12656747
162	0x3e53b4e1	0.20674469
163	0x3c760109	0.015014895
164	0x3c303129	0.010753908
165	0x3d3389da	0.043832637
166	0x3dbda292	0.092595235
167	0x3cd95d91	0.026533874
168	0x3d16bbda	0.036800243
169	0xbdb00624	-0.08594921
170	0x3db4e703	0.088331245
171	0x3e274336	0.16334233
172	0x3d1c4f08	0.038161308
173	0xbcd8f60a	-0.026484508
174	0xbe380e06	-0.179741
175	0x3d32f530	0.04369086
176	0xbe32fce0	-0.17479277
177	0x3ccab6d4	0.024745382
178	0xbe59d8cc	-0.21274108
179	0xbe57b6a6	-0.21065769
180	0x3c49b652	0.012311535
181	0x3da05a97	0.07829779
182	0x3e179615	0.14803346
183	0xbd9eca7e	-0.07753466
184	0x3de35cc2	0.111016765
185	0x3d2e316c	0.0425276
186	0xbb35b110	-0.0027723946
187	0xbdd7b115	-0.105318226
188	0x3db42bb8	0.08797401
189	0x3daf7b81	0.085684784
190	0xbd9672e4	-0.073461324
191	0x3dc653b9	0.096839376
192	0xbe0e8ee6	-0.13921699
193	0xbe05d640	-0.13070011
194	0xbe2e3f41	-0.17016317
195	0xbe00928b	-0.12555902
196	0xbddbfb2b	-0.10741266
197	0x3b6f3be5	0.0036504206
198	0x3d93654a	0.07197054
199	0x3dc11c88	0.0942927
200	0xbcf60246	-0.030030381
201	0x3d6619f9	0.056177113
202	0xbd9773cf	-0.073951356
203	0x3e2730f2	0.16327265
204	0xbdafba9b	-0.08580514
205	0xbe86f5d8	-0.2635944
206	0xbe13da08	-0.14438641
207	0xbda2f3eb	-0.0795668
208	0xbe16a88e	-0.14712736
209	0x3d9552e8	0.07291204
210	0x3cb65844	0.022258885
211	0x3d9af2f6	0.07565872
212	0xbdc544e4	-0.096322805
213	0xbe32a580	-0.17445946
214	0xbe160daf	-0.14653657
215	0xbe366eca	-0.178157
216	0x3d554439	0.052067015
217	0xbe2e567f	-0.17025183
218	0xbde83197	-0.113375835
219	0xbd9f8882	-0.07789709
220	0xbc28afd6	-0.010295829
221	0x3c0ff6c8	0.008786865
222	0xbe0cc379	-0.13746442
223	0xbe45782e	-0.19284126
224	0xbe066c7a	-0.13127318
225	0xbe26d64b	-0.16292684
226	0xbde37c01	-0.11107636
227	0x3ca9579d	0.02067166
228	0xbde481a8	-0.111575425
229	0xbd2a6086	-0.04159596
230	0xbe544c12	-0.20732144
231	0xbc95ac5b	-0.018270662
232	0xbac67309	-0.0015140484
233	0xbd59be34	-0.053159907
234	0xbdfb305a	-0.12265082
235	0xbda689cd	-0.08131752
236	0x3c126935	0.008936216
237	0xbdcca3a8	-0.099921525
238	0xbd65950f	-0.056050356
239	0x3ceaba1e	0.0286532
240	0xbc339098	-0.010959767
241	0xbd753081	-0.05986071
242	0xbbc3f2e1	-0.005979881
243	0x3c18c88e	0.00932516
244	0xbd3a380e	-0.045463614
245	0xbb7a1618	-0.0038160142
246	0xbd958ecc	-0.07302627
247	0xbde35ccf	-0.11101686
248	0xbdc6e94f	-0.09712469
249	0xbe56cf5b	-0.20977537
250	0xbd450921	-0.04810441
251	0x3cf22c10	0.029562026
252	0xbd976007	-0.07391363
253	0xbe82eb03	-0.25569925
254	0x3d80442a	0.06263001
255	0xbe37fe8b	-0.17968194

R__2161 f4 [1, 96, 32]
0	0x3da1e7c6	0.079055354
1	0x3e167be2	0.14695695
2	0xbe21e9e9	-0.15811886
3	0xbe1ebbf0	-0.1550138
4	0x3e6f29f4	0.23355848
5	0x3d3b3876	0.045708142
6	0xbdb47892	-0.088120595
7	0xbdc727ed	-0.09724412
8	0x3e2a6acf	0.16642307
9	0xbb24753c	-0.0025094291
10	0xbe0aff29	-0.13573898
11	0xbe00eefb	-0.12591164
12	0xbe0c73f8	-0.13716114
13	0xbe3dc15c	-0.18530792
14	0xbd77cafa	-0.060496308
15	0x3e4baffd	0.19891353
16	0x3e413bcf	0.18870471
17	0xbda21edf	-0.079160444
18	0xbe0ca402	-0.13734439
19	0x3dd363c9	0.10321767
20	0x3ce23e60	0.027617633
21	0x3d8a11c9	0.067416735
22	0x3c1350ba	0.008991415
23	0x3e3a91c2	0.18219665
24	0x3cc92806	0.024555217
25	0xbe8e2657	-0.27763626
26	0x3d8e574f	0.069502465
27	0x3e5ec24c	0.21753806
28	0x3d158179	0.036500428
29	0xbabfed40	-0.001464285
30	0x3e7941fc	0.24341577
31	0xbd927770	-0.07151687
32	0x3e4e0789	0.20120062
33	0xbdfb7345	-0.12277845
34	0x3e470b5c	0.19437927
35	0x3e0bd365	0.1365486
36	0xbe0b2bc4	-0.13590914
37	0xbdf95833	-0.12175026
38	0x3e03b5ac	0.12862271
39	0xbdce9594	-0.100871235
40	0xbda5faf0	-0.08104503
41	0xbd63ed47	-0.055646207
42	0x3e5be213	0.21472959
43	0xbe0dc347	-0.13844024
44	0x3dc95669	0.098309346
45	0xbd97b881	-0.07408238
46	0x3e2b62d3	0.16736917
47	0xbc52cf35	-0.012866785
48	0x3dc8c943	0.098040126
49	0x3e46e23f	0.19422244
50	0x3cd5ae6c	0.026084147
51	0x3df4e7f2	0.119583026
52	0xbd8534a6	-0.065041825
53	0x3d5478fe	0.0518732
54	0x3e1f3204	0.15546423
55	0x3e3a946a	0.18220678
56	0xbd60c494	-0.05487497
57	0x3e3b22bf	0.18274973
58	0x3e3f8cd5	0.18706067
59	0xbe1d0c8c	-0.15336818
60	0xbc11e7a9	-0.00890533
61	0x3dd1643b	0.102241956
62	0xbe01a08d	-0.12658902
63	0xbcd442d2	-0.025910769
64	0x3c94e974	0.018177725
65	0xbe45bd27	-0.19310437
66	0x3e85d540	0.2613926
67	0x3e6964d8	0.22792375
68	0xbed26f42	-0.41100508
69	0xbe097870	-0.1342485
70	0x3e502f34	0.20330507
71	0x3d10e0a3	0.03537048
72	0x3cf61cdb	0.030043056
73	0xbcbccc32	-0.023046587
74	0x3bcbd533	0.0062204837
75	0xbbbdee6c	-0.0057962444
76	0xbde396df	-0.11112761
77	0x3e9e1ef6	0.30882996
78	0x3d0bac8c	0.0341001
79	0xbaabe619	-0.0013114839
80	0xbe1f6fae	-0.15569946
81	0x3e876483	0.26443872
82	0xbd6d3ca6	-0.057919167
83	0x3e4397af	0.19100831
84	0x3c9876f8	0.018611416
85	0x3e24a4c9	0.16078486
86	0xbccb74aa	-0.024835903
87	0xbce814c4	-0.028330214
88	0x3e68b7a1	0.22726299
89	0x3d7fb32a	0.062426724
90	0x3dc533d4	0.09629026
91	0x3cbab2ec	0.022790395
92	0xbd8efa73	-0.06981363
93	0xbdc8e420	-0.098091364
94	0xbe33b690	-0.17550111
95	0x3e1e60d2	0.15466622
96	0xbbfed2f1	-0.007776611
97	0x3db132c7	0.08652263
98	0x3d3db4b0	0.046314895
99	0x3e504dfa	0.20342246
100	0xbe711a11	-0.235451
101	0xbe0a20e1	-0.13489105
102	0x3ea1881f	0.31549165
103	0xbe12ce3e	-0.14336488
104	0xbda1589d	-0.0787823
105	0x3de708ac	0.11280951
106	0xbe41789f	-0.1889367
107	0xbd9ab8d1	-0.07554782
108	0x3d8b9f68	0.06817514
109	0x3e91050d	0.28324166
110	0x3d2bb00f	0.04191595
111	0xbe14cd3b	-0.14531414
112	0xbe633764	-0.22189099
113	0x3d50c3d1	0.050967995
114	0x3cfe74e6	0.0310616
115	0x3e09a0ef	0.13440298
116	0x3d7836a0	0.06059897
117	0x3d4c914e	0.04994326
118	0x3dcfd875	0.10148708
119	0x3e03eeda	0.12884083
120	0x3df1b1b1	0.1180147
121	0x3e5a0d3c	0.21294111
122	0x3c79abb0	0.015238687
123	0xbe00adde	-0.12566325
124	0x3ce7581b	0.028240254
125	0xbe603746	-0.21896085
126	0xbd6309d2	-0.055429287
127	0x3d0a1012	0.033706732
128	0xbda84827	-0.08216887
129	0xbd6cf3cd	-0.057849694
130	0xbc46f7ab	-0.01214401
131	0x3dafb4b4	0.08579388
132	0xbdce575e	-0.10075258
133	0xbe52d926	-0.20590648
134	0xbda90857	-0.08253544
135	0x3db10744	0.08643964
136	0xba926eaf	-0.0011171902
137	0xbcdc7191	-0.026909621
138	0xbdf89c34	-0.121391684
139	0x3d05c573	0.032659005
140	0xbe50cdbb	-0.2039098
141	0xbdd00f50	-0.10159171
142	0xbdbe36d6	-0.09287803
143	0x3e6bf853	0.23043947
144	0xbd5c0180	-0.053712368
145	0xbe87c79a	-0.2651947
146	0x3d7eadfd	0.062177647
147	0xbda5615f	-0.08075213
148	0xbcc91ecb	-0.024550816
149	0x3dd7eaef	0.10542857
150	0x3e14a315	0.14515336
151	0xbd69026a	-0.056887068
152	0xbe215df3	-0.15758495
153	0x3d104319	0.03522024
154	0x3dfa229b	0.12213632
155	0xbba90753	-0.005158344
156	0xbe27b0bf	-0.16376017
157	0x3c47e88d	0.0122014405
158	0x3df7ff03	0.121091865
159	0xbd6f082e	-0.05835741
160	0xbe1fc85d	-0.15603776
161	0x3ca2028f	0.01977661
162	0xbd8a0cd4	-0.06740728
163	0x3e54527e	0.20734593
164	0xbd913dff	-0.07091903
165	0x3d46e71f	0.048560258
166	0x3e94236b	0.28933272
167	0x3d612e33	0.0549757
168	0xbe590ca3	-0.21196227
169	0xbce637a8	-0.02810271
170	0xbe33840c	-0.1753084
171	0xbdf0f3fa	-0.11765285
172	0xbe853bd9	-0.26022223
173	0x3e687686	0.22701463
174	0x3e1c6856	0.15274176
175	0xbe66b35f	-0.22529362
176	0xbe1bbedc	-0.15209526
177	0x3e1e174a	0.15438572
178	0xbe0e50f9	-0.13898076
179	0x3e405d65	0.18785627
180	0xba1e1270	-0.0006029969
181	0x3e52c53d	0.20583053
182	0xbe61e38e	-0.22059461
183	0xbeab1eb4	-0.33421862
184	0xbbc51575	-0.006014521
185	0x3e3aaff1	0.18231179
186	0x3de1943a	0.110146
187	0xbe5b0352	-0.21387985
188	0x3ebb259a	0.36552125
189	0x3d28733b	0.041125517
190	0xbdbb55f0	-0.09147251
191	0x3e2a3144	0.16620356
192	0xbdc9bfa7	-0.09851008
193	0xbd774866	-0.06037178
194	0xbdff2361	-0.1245792
195	0x3db11eeb	0.08648475
196	0xbe5764d2	-0.21034554
197	0x3e16922a	0.14704195
198	0x3e5c5b29	0.2151915
199	0xbd0341b8	-0.032045096
200	0x3d5b73f2	0.05357737
201	0x3cdafad3	0.02673093
202	0xbe3de4b0	-0.18544269
203	0xbe75d00d	-0.24005146
204	0x3d2631f0	0.040574968
205	0x3d4d5302	0.05012799
206	0xbc56e91a	-0.013117099
207	0x3d0e8c34	0.034801677
208	0x3d24a019	0.040191744
209	0x3dca5883	0.098801635
210	0xbe192350	-0.14954877
211	0x3e350356	0.17677054
212	0xbe6f577e	-0.2337322
213	0x3e1692ef	0.14704488
214	0x3de410a4	0.111359864
215	0xbd38dd0d	-0.045132685
216	0x3d35554e	0.044270806
217	0x3df74ac6	0.12074809
218	0xbe0c4cc9	-0.13701166
219	0xbda8041f	-0.08203911
220	0x3e50bb59	0.20383967
221	0x3e008638	0.125512
222	0xbce7ca8c	-0.028294824
223	0xbe0f2789	-0.13979925
224	0x3de22bb3	0.11043491
225	0x3e89d1ce	0.2691788
226	0xbe57a424	-0.21058708
227	0xbda66c9c	-0.08126184
228	0xbcada960	-0.021198928
229	0x3e503d01	0.20335771
230	0xbea511cd	-0.32240143
231	0x3e4a0d0f	0.19731544
232	0xbce07e1b	-0.027403882
233	0x3e5b5f2a	0.21423021
234	0x3e524aea	0.2053639
235	0xbd82226a	-0.0635422
236	0x3c62e69a	0.013848925
237	0xbd20c0ca	-0.039246358
238	0x3e0b4e1a	0.13604012
239	0xbd9df615	-0.07712952
240	0xbd6d4090	-0.0579229
241	0xbde1c16c	-0.110232204
242	0xbdd7bf9f	-0.10534596
243	0xbdd63a69	-0.104603596
244	0x3c2a549e	0.010396151
245	0xbe10b958	-0.14133203
246	0xbdc5ce71	-0.09658516
247	0xbe2f7ee8	-0.17138255
248	0xbd04002e	-0.032226734
249	0xbde17a55	-0.11009661
250	0xbe71d30d	-0.23615666
251	0x3e2ae7bb	0.1668996
252	0xbd8879c2	-0.066638485
253	0xbe6ec8e3	-0.2331882
254	0x3dc3bcb1	0.095574744
255	0xbe0bde41	-0.13659002

R__2147 f4 [1, 192, 64]
0	0x3a65bcd0	0.0008763792
1	0x3d913cef	0.070917
2	0x3e5d21dd	0.21594949
3	0xbd9d5d56	-0.07683818
4	0xbdf3aab4	-0.118977934
5	0x3bfd0a84	0.007722201
6	0x3cf143a0	0.029451191
7	0xbd11475b	-0.03546844
8	0x3db54551	0.08851112
9	0x3dff91dd	0.12478993
10	0x3d0fc58d	0.03510051
11	0x3c41ba9f	0.011824279
12	0x3e0e82f3	0.1391714
13	0x3dbb64a9	0.09150059
14	0x3cc55ef1	0.024093123
15	0x3e8280dd	0.2548894
16	0xbdacfb51	-0.08446372
17	0x3da4e5c8	0.0805164
18	0x3e07a9be	0.13248345
19	0xbd1bc2de	-0.038027637
20	0xbdc17d07	-0.09447675
21	0x3cfba08e	0.030716207
22	0xbdc96dfb	-0.0983543
23	0xbdc60fe3	-0.09670999
24	0xbd30ea88	-0.043192416
25	0xbc9b7d4f	-0.01898065
26	0x3e5f79e4	0.21823841
27	0xbdcdb31b	-0.10043927
28	0x3e41ab1b	0.18912928
29	0xbd99913a	-0.07498403
30	0xbdb0c4f1	-0.086313136
31	0x3cd7cdd3	0.026343262
32	0xbdfcc15d	-0.123415686
33	0x3dafdd04	0.08587077
34	0x3d8eef46	0.069792315
35	0x3df1353a	0.1177773
36	0x3c8de6b7	0.017321927
37	0x3ab0eb46	0.0013497851
38	0xbcd6f5d6	-0.02624027
39	0xbe452c75	-0.1925524
40	0x3db1857b	0.086680375
41	0xbe93c471	-0.2886081
42	0xbe14b5a0	-0.1452241
43	0x3e00252c	0.1251418
44	0x3e466da7	0.19377767
45	0xbe2ac45c	-0.16676468
46	0x3e42dfbf	0.19030665
47	0xbe16f94d	-0.14743538
48	0xbd422b1c	-0.047404394
49	0x3bfb2794	0.00766463
50	0x3d60f722	0.054923184
51	0xbe2e2cb8	-0.17009246
52	0x3b950a06	0.004548314
53	0xbdfec11f	-0.12439179
54	0xbd0d19b5	-0.034448344
55	0x3db002b3	0.08594265
56	0x3d1ec8f5	0.038765866
57	0x3e30547d	0.1721973
58	0x3d571d38	0.0525181
59	0x3d922b51	0.07137168
60	0x3da6dc38	0.08147472
61	0x3c79b295	0.015240331
62	0x3d7035f3	0.0586452
63	0xbd401a9c	-0.046900377
64	0x3d86b9b9	0.065783925
65	0xbe4bde6f	-0.1990907
66	0xbb0f86ec	-0.0021900488
67	0xbdcdab10	-0.10042393
68	0xbc507294	-0.01272263
69	0x3db5a1fe	0.08868788
70	0x3d7703c1	0.060306314
71	0xbda65e5c	-0.08123466
72	0xbe1b76d4	-0.15182048
73	0x3e0223e6	0.12709007
74	0xbb5292d2	-0.0032130969
75	0x3d2f5c57	0.04281267
76	0xbe28a6ab	-0.16469829
77	0x3dd074c7	0.101785235
78	0xbc70e877	-0.014703861
79	0x3dc26886	0.094925925
80	0x3e22098c	0.15823954
81	0x3e1b0dbe	0.15141961
82	0xbd89d527	-0.06730109
83	0x3cb8013d	0.022461528
84	0x3debd60d	0.11515436
85	0xbd98a093	-0.07452502
86	0x3e282f59	0.16424312
87	0xbd9a9fcf	-0.07550012
88	0x3dba0025	0.09082059
89	0xbd429064	-0.047500983
90	0xbc8977de	-0.01678079
91	0x3d710c08	0.058849365
92	0xbdbdaab6	-0.09261076
93	0x3dba4957	0.0909602
94	0x3e1d6c20	0.15373278
95	0xbe3c01e7	-0.183601
96	0x3e1c23a9	0.15247978
97	0xbe36c7ab	-0.17849605
98	0xbe13cbfa	-0.1443328
99	0x3e114454	0.14186221
100	0xbc1dacd8	-0.009623729
101	0x3cd613d2	0.026132498
102	0x3db21bf9	0.086967416
103	0x3dc1c087	0.0946055
104	0xbe07cd26	-0.13261852
105	0x3dd32724	0.103102
106	0xbc29322c	-0.010326903
107	0xbdb0c6d8	-0.086316764
108	0xbe809786	-0.25115603
109	0x3d9518f1	0.07280148
110	0xbbd2f2be	-0.0064376285
111	0x3d8b2dbb	0.06795832
112	0x3e26164f	0.16219448
113	0xbe18ea93	-0.14933233
114	0xbd4869bb	-0.048928957
115	0xbd5c8db7	-0.053846087
116	0xbe415a4c	-0.18882102
117	0x3a02b115	0.0004985494
118	0x3c63094e	0.013857199
119	0x3d1034ec	0.03520672
120	0xbe1d755c	-0.153768
121	0x3cdeab71	0.027181359
122	0xbda487ec	-0.080337375
123	0xbe22e914	-0.15909225
124	0x3dadced0	0.08486712
125	0x3d8b176b	0.06791576
126	0xbd538697	-0.051642027
127	0x3d92b0bd	0.071626164
128	0x3d7b9106	0.061417602
129	0xbc8381fc	-0.016053192
130	0x3d009688	0.031393558
131	0xbe3be961	-0.18350746
132	0x3c4dba11	0.012556569
133	0x3dc2b4c2	0.09507133
134	0x3c75cf42	0.015003027
135	0xbe06fefe	-0.1318321
136	0xbca5a93f	-0.020222304
137	0x3e403bd6	0.18772826
138	0xbe7d9101	-0.24762346
139	0x3e93d362	0.2887221
140	0xbd48932f	-0.04896849
141	0xbdba2c68	-0.09090501
142	0x3e093b8f	0.13401626
143	0xbdafab9e	-0.08577655
144	0x3d88e001	0.0668335
145	0xbda240b2	-0.07922496
146	0x3dc5535d	0.09635041
147	0xbd28892b	-0.04114644
148	0x3d4dc47d	0.050236214
149	0xbdb97b3d	-0.09056709
150	0x3e05af95	0.1305526
151	0xbcdcc6bd	-0.026950235
152	0x3c22fc32	0.009947823
153	0xbd620090	-0.055176318
154	0xbe3d50dd	-0.18487878
155	0xbc9c9cc8	-0.019117728
156	0xbe0a0335	-0.13477786
157	0xbd00d233	-0.03145046
158	0x3e38b316	0.18037066
159	0xbdb2263c	-0.08698699
160	0x3e2d49c8	0.16922677
161	0xbd9afe5f	-0.07568049
162	0x3d93befa	0.0721416
163	0xbdb4fcc1	-0.088372715
164	0xbd827ab0	-0.06371057
165	0x3daf2c2d	0.08553348
166	0x3d61f7eb	0.055168074
167	0x3daaa66e	0.08332525
168	0xbc2ed5ca	-0.0106710885
169	0x3e249bc3	0.16075043
170	0x3df1a3d8	0.11798829
171	0xbdda658e	-0.10663901
172	0xbd59cb79	-0.053172562
173	0x3e3f44f8	0.18678653
174	0x3db6b23c	0.08920714
175	0x3d83069d	0.06397746
176	0x3ccd6c7b	0.025076142
177	0xbcda831c	-0.026673846
178	0xbd269781	-0.04067183
179	0x3e3454b1	0.17610432
180	0xbe0bfacb	-0.13669889
181	0x3db7b715	0.08970467
182	0x3dbcee60	0.09225154
183	0xbdcf958d	-0.101359464
184	0xbe50f93b	-0.20407574
185	0x3cd9c18e	0.026581552
186	0xbe214281	-0.15748025
187	0xbd9354a2	-0.07193877
188	0x3e4857af	0.19564699
189	0xbdfe2749	-0.12409837
190	0x3c23aa89	0.009989389
191	0x3de1de66	0.11028747
192	0xbe3da388	-0.18519413
193	0xbe84b7f7	-0.25921604
194	0xbe9c4cce	-0.30527347
195	0x3e889e00	0.26683044
196	0x3dd9ed3b	0.10640951
197	0x3dcb5c96	0.09929769
198	0xbd9d7726	-0.076887414
199	0x3e8604d9	0.26175573
200	0xbcaafd96	-0.020872872
201	0xbd206397	-0.039157476
202	0xbddc2027	-0.1074832
203	0x3de7722f	0.11301076
204	0xbcfd8e92	-0.030951772
205	0xbcce60cb	-0.025192639
206	0xbdb57546	-0.08860259
207	0xbc885c50	-0.01664558
208	0x3e3873c2	0.18012908
209	0xbd631d5c	-0.05544792
210	0xbe3a438d	-0.18189831
211	0x3ba19243	0.004930766
212	0xbe60e0e0	-0.21960783
213	0xbd485d86	-0.048917316
214	0xbbd83080	-0.0065975785
215	0xbd9ab553	-0.07554116
216	0x3ccb3c0a	0.024808902
217	0xbea22f53	-0.3167673
218	0xbe0240ee	-0.12720081
219	0xbbdcec14	-0.00674201
220	0xbd823176	-0.0635709
221	0x3d39bdd7	0.04534706
222	0xbe198477	-0.14991938
223	0xbd6a498b	-0.057199042
224	0x3d94ce14	0.07265869
225	0xbcfd0c37	-0.030889614
226	0xbd3b4248	-0.045717508
227	0xbdf869ac	-0.1212953
228	0xbdc31651	-0.09525741
229	0xbd56d973	-0.05245347
230	0xbdbeada7	-0.09310465
231	0x3dfd05de	0.12354635
232	0xbd90322e	-0.07040821
233	0x3cb724ff	0.022356508
234	0x3e6128a2	0.21988156
235	0xbd3e194f	-0.046410855
236	0x3d4e4fe2	0.05036915
237	0x3e249832	0.16073683
238	0x3dabc85a	0.083878234
239	0x3d709836	0.05873891
240	0x3e554323	0.20826392
241	0xbbfef58a	-0.0077807354
242	0xbdd7f54b	-0.10544833
243	0x3e4f4b17	0.20243488
244	0x3e42f69f	0.19039391
245	0x3e761732	0.24032286
246	0x3da1fe77	0.079098634
247	0xbdcfec85	-0.101525344
248	0x3db39dcb	0.08770331
249	0xbe813f97	-0.25243828
250	0x3c7d345a	0.015454376
251	0xbc48547c	-0.012227174
252	0xbd985160	-0.07437396
253	0x3dce6a92	0.100789204
254	0xbea6b665	-0.3256103
255	0x3cb4b355	0.022058168

R__2134 f4 [1, 384, 128]
0	0xbc8f66f3	-0.017505145
1	0xbdb79665	-0.08964232
2	0x3e30bc6d	0.17259379
3	0x3d2085f4	0.039190248
4	0xbdbc6e2a	-0.092006996
5	0xbd85abfd	-0.06526945
6	0x3ca6d63d	0.020365829
7	0xbd68ed06	-0.05686667
8	0xbd3333e8	-0.043750674
9	0xbd4ed8a5	-0.050499577
10	0x3cde1861	0.027111234
11	0x3d567d3b	0.052365523
12	0x3d12ae18	0.03581056
13	0xbcfd67c7	-0.030933274
14	0xbd077c55	-0.033077557
15	0x3e063867	0.13107453
16	0xbd3bb3b4	-0.045825675
17	0xbd373ae4	-0.044733897
18	0x3d39eaa1	0.045389775
19	0xbd58f6f5	-0.05296989
20	0xbcdec9af	-0.02719578
21	0xbd524346	-0.05133369
22	0x3d060350	0.032718003
23	0x3d9d8a35	0.076923765
24	0x3dd93e5e	0.10607599
25	0x3c90f357	0.017694158
26	0xbd711b59	-0.05886397
27	0xbc681825	-0.014165913
28	0xbd65b6ff	-0.05608272
29	0xbdcdf398	-0.100562274
30	0x3d83b649	0.064312525
31	0x3d28bc9e	0.041195504
32	0xbca9fa0f	-0.02074912
33	0x3cc8b83a	0.024501909
34	0x3dd7fc08	0.10546118
35	0xbd2ecb4a	-0.04267434
36	0xbd09a455	-0.033603985
37	0x3c703104	0.014660124
38	0x3d61e4f0	0.055149972
39	0xbd9b5ece	-0.07586442
40	0xbcbc27c4	-0.02296818
41	0x3c0e404a	0.00868232
42	0x3d6d0504	0.05786611
43	0x3d69d6bf	0.057089563
44	0xbdfdd2e5	-0.123937406
45	0x3e2b4b9f	0.16728066
46	0x3d18105c	0.037124977
47	0x3d2f23bf	0.0427587
48	0x3dab6333	0.0836853
49	0xbdd0c22f	-0.101932876
50	0x3d866631	0.0656246
51	0xbc007e19	-0.007842564
52	0xbd11b0e9	-0.035569105
53	0xbc9c4e27	-0.019080235
54	0xbd2f9ef8	-0.042876214
55	0x3d9031b5	0.07040731
56	0x3dd2b668	0.102886975
57	0x3d9e97bc	0.07743785
58	0x3db30d08	0.0874272
59	0xbd8524aa	-0.06501134
60	0xbcd8d0d3	-0.026466763
61	0xbe143d2c	-0.1447646
62	0xbdb10381	-0.086432464
63	0x3d61c063	0.055115115
64	0x3d834181	0.06408978
65	0xbb0550cf	-0.0020342355
66	0x3dc55c31	0.09636725
67	0xbdd883cf	-0.105720155
68	0x3d85a232	0.06525077
69	0xbdb0813e	-0.08618401
70	0xbe0326a4	-0.12807709
71	0x3d5c9ea8	0.053862244
72	0xbbf3305e	-0.0074215373
73	0xbd667469	-0.05626336
74	0xbd5a968b	-0.053366225
75	0x3d10cbf3	0.03535075
76	0x3d804e78	0.06264967
77	0x3a882d33	0.0010389447
78	0xbd377806	-0.044792198
79	0xbdd22ba3	-0.10262229
80	0xbb7b6a3f	-0.0038362888
81	0xbb363686	-0.0027803495
82	0x3dde0a77	0.1084184
83	0x3c6be79a	0.01439848
84	0xbcd15827	-0.02555473
85	0xbc62aafe	-0.013834713
86	0x3cb54c53	0.02213112
87	0x3cf1b5f1	0.029505702
88	0x3c5beb7d	0.013422844
89	0xba8eefac	-0.0010905168
90	0x3ce3f9b9	0.027829038
91	0x3d40c6b2	0.04706449
92	0xbd3aeac7	-0.045634057
93	0x3aca7c7d	0.0015448477
94	0xbdcbd6b8	-0.09953064
95	0x3d0deeb8	0.034651488
96	0x3b73bc06	0.0037190928
97	0xbd2a56ee	-0.04158681
98	0xbdb12590	-0.086497426
99	0xbcea9112	-0.028633628
100	0x3db23b8e	0.087027654
101	0xbdb39259	-0.08768148
102	0xbd0003bf	-0.031253573
103	0xbc5b527a	-0.013386363
104	0xbc8f5dba	-0.017500747
105	0x3d8c9e54	0.06866136
106	0x3d0c0973	0.0341887
107	0x3e6121aa	0.21985498
108	0x3d1325ee	0.035924844
109	0x3cb6ef7d	0.022330994
110	0xbd8703ae	-0.06592499
111	0xbc9440bf	-0.01809728
112	0xbdd0a30e	-0.1018735
113	0xbe26a28d	-0.16272946
114	0xbdec8bc5	-0.115500964
115	0xbd186414	-0.037204817
116	0xbe10c75f	-0.14138554
117	0x3dd9968d	0.106244184
118	0x3d594b44	0.053050295
119	0x3d979dd8	0.07403153
120	0xbca5f41a	-0.020257998
121	0x3d3cdfb2	0.04611177
122	0xbd42f82e	-0.047599964
123	0xbdaf68dd	-0.08564923
124	0xbb927df8	-0.004470583
125	0x3cd2e4b8	0.025743827
126	0xbd76aed2	-0.060225315
127	0xbd61749f	-0.05504286
128	0xbd1acf4c	-0.03779535
129	0x3c14c72d	0.00908069
130	0xbbb57392	-0.0055374587
131	0xbc2660e0	-0.010154933
132	0x3c3045f0	0.010758862
133	0xbc1a1f0b	-0.009406815
134	0x3b6c3dbf	0.0036047546
135	0x3d583960	0.052789092
136	0xbe016dff	-0.12639616
137	0x3cc85f43	0.024459487
138	0xbd0fedb2	-0.035138793
139	0xbc52daca	-0.012869546
140	0xbcb38cfa	-0.021917809
141	0x3b56f5fc	0.0032800427
142	0x3d5588ec	0.052132532
143	0xbd70689b	-0.05869351
144	0x3d74d3ee	0.059772424
145	0xbe607099	-0.21917953
146	0xbd94f2b6	-0.07272856
147	0xbd98607b	-0.07440277
148	0xbddba082	-0.10723974
149	0x3d11e470	0.035618246
150	0x3cf77222	0.03020579
151	0x3d1f35f4	0.038869813
152	0xbd408809	-0.047004733
153	0x3c08e8b9	0.008356267
154	0x3d12a24b	0.035799306
155	0xbdb301dd	-0.0874059
156	0xbca364e5	-0.019945571
157	0x3db7b0eb	0.08969291
158	0x3dba3b77	0.09093373
159	0x3c8b0b26	0.01697309
160	0xbcc1cca9	-0.02365716
161	0x3da7a192	0.08185114
162	0x3d9e72e9	0.07736761
163	0x3d023a30	0.031793773
164	0x3d03a01e	0.03213512
165	0x3db130a1	0.08651853
166	0x3d1b9434	0.037983134
167	0x3d818ad7	0.0632531
168	0xbe215d7b	-0.15758316
169	0xbd1ebc98	-0.038754076
170	0x3d6cacef	0.05778211
171	0xbdedf6ac	-0.116193146
172	0xbc0bf11c	-0.008541372
173	0x3cb1c4a5	0.021700213
174	0xbca701cd	-0.0203866
175	0xbd697067	-0.05699196
176	0x3e067ee0	0.13134336
177	0xbe2943f3	-0.16529827
178	0x3dc9f714	0.098615795
179	0xbced2a28	-0.028950766
180	0x3e205375	0.15656836
181	0x3cd39499	0.025827693
182	0xbc811751	-0.015758188
183	0xbc7ed314	-0.015553255
184	0x3ce3f81f	0.027828274
185	0x3cbd73cb	0.023126503
186	0x3d7007b8	0.05860111
187	0x3bafbb51	0.005362906
188	0xbd7d60cb	-0.061859887
189	0xbd638f56	-0.055556618
190	0xbd6ae291	-0.057344977
191	0xbce074e7	-0.027399493
192	0xbd12f95f	-0.03588235
193	0x3d9bf9e0	0.07616019
194	0x3dbb1e04	0.091365844
195	0xbd1c1971	-0.0381102
196	0x3e454575	0.19264777
197	0x3d074769	0.033027086
198	0xbdc468d8	-0.0959031
199	0xbb173a88	-0.0023075659
200	0xbdbb8cc0	-0.09157705
201	0x3dbea7f4	0.09309378
202	0x3d51caf6	0.05121895
203	0x3dda7b5b	0.106680594
204	0x3bc40b26	0.0059827743
205	0xbdd84b2d	-0.10561214
206	0xbc5c6181	-0.013450981
207	0xbda61bf9	-0.08110804
208	0xbd4bba15	-0.04973801
209	0xbb8c617d	-0.0042840824
210	0x3d16b9c9	0.036798272
211	0x3e1dcc13	0.1540988
212	0xbd67be23	-0.056577813
213	0x3dc47935	0.09593431
214	0xbbbbc4c9	-0.0057302457
215	0xbaa5526b	-0.0012613063
216	0x3ddb600f	0.10711681
217	0x3dec25bf	0.11530637
218	0x3dc45ea2	0.09588362
219	0x3d2c4313	0.042056154
220	0xbcec16ab	-0.028819403
221	0x3cacf234	0.021111585
222	0xbc4cf62c	-0.012509864
223	0xbd97c90a	-0.07411392
224	0x3d3b1f1b	0.04568396
225	0xbda411de	-0.080112204
226	0xbc124c12	-0.008929269
227	0x3b1c8854	0.0023884969
228	0x3ca2db3c	0.01987993
229	0xbe03211a	-0.12805596
230	0x3cd96f3e	0.026542302
231	0x3d3ed2a0	0.046587586
232	0xbdc0895b	-0.094011985
233	0xbd2ceb5a	-0.042216636
234	0xbd62800f	-0.055297907
235	0x39c124da	0.00036839285
236	0x3c5554c7	0.013020701
237	0x3e02901f	0.1275029
238	0x3d9e989a	0.0774395
239	0x3ded8c25	0.11598996
240	0x3d24f234	0.040270045
241	0x3c6cd1f6	0.014454355
242	0x3cd5c6fd	0.026095862
243	0x3de4bc44	0.11168721
244	0x3befde03	0.007320167
245	0x3dcd7e65	0.100338735
246	0xbd5eb0f9	-0.054367993
247	0xbe1142c3	-0.14185624
248	0x3da5dc6c	0.08098683
249	0x3d61ef7b	0.055160027
250	0x3b150c76	0.0022743023
251	0x3c1ab4d9	0.0094425315
252	0xbd8694da	-0.0657136
253	0x3d77f6ee	0.060538225
254	0xbd7c0293	-0.061525892
255	0xbd945ecc	-0.072446436

GRU/quant_dense_31/LastValueQuant/FakeQuantWithMinMaxVars__2122 f4 [32, 1]
0	0xbdff2a76	-0.12459271
1	0x3d3205cf	0.04346257
2	0xbbbde410	-0.0057950094
3	0x3e887bec	0.26657045
4	0x3d49c251	0.04925758
5	0xbd887bec	-0.06664261
6	0x3d945a2c	0.072437614
7	0xbda0386e	-0.07823263
8	0xbd6d5d14	-0.057950094
9	0xbdd5a092	-0.10431017
10	0xbcd5a092	-0.026077542
11	0xbebc6848	-0.3679831
12	0xbe46cac1	-0.19413282
13	0xbe7f2a76	-0.24918541
14	0xbe5b8fb2	-0.21441534
15	0x3d617ed3	0.05505259
16	0x3d3205cf	0.04346257
17	0xbd793b55	-0.0608476
18	0x3e20386e	0.15646526
19	0xbe232ffe	-0.15936276
20	0x3d49c251	0.04925758
21	0x3d945a2c	0.072437614
22	0xbe9751bd	-0.2955455
23	0xbe232ffe	-0.15936276
24	0xbcd5a092	-0.026077542
25	0x3e46cac1	0.19413282
26	0xbd0e6b0c	-0.034770057
27	0xbea91f1e	-0.33031553
28	0x3d49c251	0.04925758
29	0x3e7054a4	0.23469788
30	0xbddb8fb2	-0.10720767
31	0xbeb4fd5f	-0.35349557

GRU/quant_dense_30/LastValueQuant/FakeQuantWithMinMaxVars__2121 f4 [32, 32]
0	0xbe9706e8	-0.29497457
1	0x3e2971e5	0.16547354
2	0x3dce47df	0.10072302
3	0xbcce47df	-0.025180755
4	0xbda213e6	-0.079139516
5	0x3e6810db	0.2266268
6	0x3e2d20e4	0.16907078
7	0x3e731dd9	0.23741855
8	0xbe82c46b	-0.2554048
9	0x3e347ee3	0.17626528
10	0xbd9357e8	-0.07194501
11	0xbea03c66	-0.3129608
12	0xbc9357e8	-0.017986253
13	0x3d8bf9e9	0.06834776
14	0x3e433ae1	0.1906543
15	0xbcb0cfe4	-0.021583505
16	0x3e7a7bd8	0.24461305
17	0x3d3f8be1	0.04676426
18	0x3eab4964	0.3345443
19	0xbd049beb	-0.032375257
20	0x3ed1f6de	0.41008657
21	0x3e6bbfda	0.23022404
22	0xbde461db	-0.11151477
23	0xbe347ee3	-0.17626528
24	0xbdebbfda	-0.11511202
25	0xbe4e47df	-0.20144604
26	0x3dbf8be1	0.09352852
27	0xbdf31dd9	-0.11870927
28	0xbe731dd9	-0.23741855
29	0x3e1357e8	0.14389002
30	0x3e6f6ed9	0.23382129
31	0x3e8a226a	0.2697938
32	0xbe25c2e5	-0.16187628
33	0xbe98de67	-0.2985718
34	0xbdc6e9e0	-0.09712577
35	0x3d4e47df	0.05036151
36	0x3dc6e9e0	0.09712577
37	0x3ee461db	0.44605908
38	0x3e8bf9e9	0.27339104
39	0x3e5954dd	0.21223779
40	0x3debbfda	0.11511202
41	0xbe0fa8e9	-0.14029278
42	0x3dd5a5de	0.10432027
43	0x3e00eceb	0.12590377
44	0x3e433ae1	0.1906543
45	0xbe6810db	-0.2266268
46	0x3e952f68	0.2913773
47	0x3d30cfe4	0.04316701
48	0x3e2971e5	0.16547354
49	0x3cb0cfe4	0.021583505
50	0x00000000	0.0
51	0x3ec33ae1	0.3813086
52	0x3e9357e8	0.28778005
53	0x3db0cfe4	0.08633402
54	0x3d1357e8	0.035972506
55	0x3e51f6de	0.20504329
56	0xbe2d20e4	-0.16907078
57	0xbe46e9e0	-0.19425154
58	0x00000000	0.0
59	0xbd5d03dc	-0.05395876
60	0x3cb0cfe4	0.021583505
61	0xbe6810db	-0.2266268
62	0x3dfa7bd8	0.122306526
63	0xbd3f8be1	-0.04676426
64	0xbe1706e8	-0.14748728
65	0x3ec16361	0.37771133
66	0xbecc705f	-0.39929482
67	0xbe382de2	-0.17986253
68	0x3cebbfda	0.028778005
69	0xbea79a65	-0.3273498
70	0xbe46e9e0	-0.19425154
71	0xbedb2c5d	-0.42807284
72	0xbda971e5	-0.08273677
73	0x3e0fa8e9	0.14029278
74	0x3c30cfe4	0.0107917525
75	0x3e6bbfda	0.23022404
76	0x3d1357e8	0.035972506
77	0x3dc6e9e0	0.09712577
78	0x3d3f8be1	0.04676426
79	0x3e25c2e5	0.16187628
80	0x3e25c2e5	0.16187628
81	0xbe1e64e6	-0.15468177
82	0xbd5d03dc	-0.05395876
83	0xbe849beb	-0.25900206
84	0xbd2213e6	-0.039569758
85	0x3e6bbfda	0.23022404
86	0xbd3f8be1	-0.04676426
87	0x3da213e6	0.079139516
88	0x3e30cfe4	0.17266804
89	0xbe51f6de	-0.20504329
90	0xbdf31dd9	-0.11870927
91	0xbea213e6	-0.31655806
92	0x3d8bf9e9	0.06834776
93	0x3d9357e8	0.07194501
94	0xbe084aea	-0.13309827
95	0xbdbf8be1	-0.09352852
96	0xbd5d03dc	-0.05395876
97	0xbd5d03dc	-0.05395876
98	0xbeb47ee3	-0.35253057
99	0x3d2213e6	0.039569758
100	0xbdbf8be1	-0.09352852
101	0x3e25c2e5	0.16187628
102	0xbe25c2e5	-0.16187628
103	0xbe6461db	-0.22302954
104	0x3e1ab5e7	0.15108453
105	0xbe1706e8	-0.14748728
106	0x3e00eceb	0.12590377
107	0xbe80eceb	-0.25180754
108	0xbe3bdce2	-0.18345979
109	0xbeb2a763	-0.3489333
110	0x3e6f6ed9	0.23382129
111	0x3e80eceb	0.25180754
112	0x3db82de2	0.089931265
113	0x3c9357e8	0.017986253
114	0xbe1357e8	-0.14389002
115	0x3da971e5	0.08273677
116	0xbea79a65	-0.3273498
117	0xbda971e5	-0.08273677
118	0xbebbdce2	-0.36691958
119	0x3e0bf9e9	0.13669552
120	0xbe60b2dc	-0.2194323
121	0xbdebbfda	-0.11511202
122	0xbe049beb	-0.12950103
123	0xbda213e6	-0.079139516
124	0xbe25c2e5	-0.16187628
125	0x3e80eceb	0.25180754
126	0x3e76ccd8	0.24101579
127	0xbe8dd169	-0.2769883
128	0x3e084aea	0.13309827
129	0x3e952f68	0.2913773
130	0x3e9357e8	0.28778005
131	0x3e6461db	0.22302954
132	0x3e2213e6	0.15827903
133	0x3e86736a	0.2625993
134	0x3da971e5	0.08273677
135	0xbd9357e8	-0.07194501
136	0x3e2213e6	0.15827903
137	0x3c9357e8	0.017986253
138	0x3e731dd9	0.23741855
139	0xbe82c46b	-0.2554048
140	0xbe46e9e0	-0.19425154
141	0x3d3f8be1	0.04676426
142	0x3db82de2	0.089931265
143	0x3e0bf9e9	0.13669552
144	0xbe55a5de	-0.20864055
145	0x3ed01f5e	0.4064893
146	0x3e4e47df	0.20144604
147	0xbe00eceb	-0.12590377
148	0x3e433ae1	0.1906543
149	0xbd7a7bd8	-0.061153263
150	0x3e00eceb	0.12590377
151	0xbe4a98df	-0.19784878
152	0x3ea3eb66	0.32015532
153	0xbdfa7bd8	-0.122306526
154	0xbe2213e6	-0.15827903
155	0x3debbfda	0.11511202
156	0x3dd5a5de	0.10432027
157	0x3d3f8be1	0.04676426
158	0x3e6461db	0.22302954
159	0xbe0bf9e9	-0.13669552
160	0x3e86736a	0.2625993
161	0xbe084aea	-0.13309827
162	0x3cebbfda	0.028778005
163	0x3e80eceb	0.25180754
164	0x3d1357e8	0.035972506
165	0x3e4a98df	0.19784878
166	0x3e6f6ed9	0.23382129
167	0xbe731dd9	-0.23741855
168	0x3e7a7bd8	0.24461305
169	0xbe382de2	-0.17986253
170	0x3e7a7bd8	0.24461305
171	0x3dbf8be1	0.09352852
172	0x3d2213e6	0.039569758
173	0xbddd03dc	-0.10791752
174	0xbd9ab5e7	-0.07554226
175	0xbd9ab5e7	-0.07554226
176	0xbe433ae1	-0.1906543
177	0x00000000	0.0
178	0xbd30cfe4	-0.04316701
179	0xbe80eceb	-0.25180754
180	0xbc9357e8	-0.017986253
181	0xbe7a7bd8	-0.24461305
182	0xbe9357e8	-0.28778005
183	0x3e7a7bd8	0.24461305
184	0x3e0fa8e9	0.14029278
185	0x3dfa7bd8	0.122306526
186	0x3eca98df	0.39569756
187	0x3d8bf9e9	0.06834776
188	0xbd9357e8	-0.07194501
189	0xbcb0cfe4	-0.021583505
190	0x3e6810db	0.2266268
191	0xbcb0cfe4	-0.021583505
192	0x3e2213e6	0.15827903
193	0xbd3f8be1	-0.04676426
194	0xbe60b2dc	-0.2194323
195	0x3dbf8be1	0.09352852
196	0x3d5d03dc	0.05395876
197	0x3e00eceb	0.12590377
198	0x3d849beb	0.064750515
199	0xbd1357e8	-0.035972506
200	0xbe4e47df	-0.20144604
201	0xbe98de67	-0.2985718
202	0xbe5d03dc	-0.21583503
203	0xbe8dd169	-0.2769883
204	0xbd4e47df	-0.05036151
205	0xbdf31dd9	-0.11870927
206	0xbe1e64e6	-0.15468177
207	0x3e8a226a	0.2697938
208	0x3de461db	0.11151477
209	0x3ddd03dc	0.10791752
210	0xbd9357e8	-0.07194501
211	0xbbebbfda	-0.0071945013
212	0x3bebbfda	0.0071945013
213	0xbdb82de2	-0.089931265
214	0x3dbf8be1	0.09352852
215	0xbe9706e8	-0.29497457
216	0xbe7e2ad7	-0.2482103
217	0x3e1ab5e7	0.15108453
218	0xbe8dd169	-0.2769883
219	0xbe1706e8	-0.14748728
220	0x3e0bf9e9	0.13669552
221	0xbebdb461	-0.3705168
222	0x3d5d03dc	0.05395876
223	0x3e2d20e4	0.16907078
224	0xbc30cfe4	-0.0107917525
225	0xbde461db	-0.11151477
226	0x3dbf8be1	0.09352852
227	0xbcebbfda	-0.028778005
228	0x3e4a98df	0.19784878
229	0xbc30cfe4	-0.0107917525
230	0xbe5d03dc	-0.21583503
231	0xbe2213e6	-0.15827903
232	0x3c6bbfda	0.014389003
233	0xbe1357e8	-0.14389002
234	0x3e46e9e0	0.19425154
235	0x3dbf8be1	0.09352852
236	0x3e6810db	0.2266268
237	0xbda213e6	-0.079139516
238	0x00000000	0.0
239	0x3da213e6	0.079139516
240	0xbe2971e5	-0.16547354
241	0xbe1706e8	-0.14748728
242	0xbe25c2e5	-0.16187628
243	0xbe9357e8	-0.28778005
244	0xbe5d03dc	-0.21583503
245	0xbe2971e5	-0.16547354
246	0x3d5d03dc	0.05395876
247	0xbcce47df	-0.025180755
248	0xbe0bf9e9	-0.13669552
249	0x3dce47df	0.10072302
250	0xbe347ee3	-0.17626528
251	0xbe084aea	-0.13309827
252	0xbe00eceb	-0.12590377
253	0x3e2213e6	0.15827903
254	0x3dc6e9e0	0.09712577
255	0xbcce47df	-0.025180755

GRU/quant_dense_30/BiasAdd/ReadVariableOp:0 f4 [32]
0	0xbdc021b2	-0.09381427
1	0x3d9c9be6	0.07646923
2	0xbe28ae26	-0.16472682
3	0x3c429549	0.011876413
4	0x3d248244	0.040163293
5	0xbd9fbcfa	-0.07799716
6	0xbd915a66	-0.0709732
7	0xbe32f21a	-0.17475167
8	0xbde825d5	-0.11335341
9	0xbd86146c	-0.06546864
10	0xbd9706d7	-0.073743515
11	0xbd79ef76	-0.061019383
12	0xbce1de5e	-0.027571853
13	0xbdce9905	-0.1008778
14	0xbdd0a12b	-0.1018699
15	0x3d940363	0.072272085
16	0x3cf99a24	0.030469008
17	0xbdd76369	-0.10517008
18	0xbb7a0867	-0.003815198
19	0xbd7b3917	-0.061333742
20	0xbcdaa996	-0.026692193
21	0xbca01a5d	-0.019543821
22	0xbe0a24fb	-0.1349067
23	0xbdd950b5	-0.10611097
24	0xbddc38b8	-0.10753006
25	0x3d6feed8	0.05857739
26	0xbdc2b883	-0.09507849
27	0xbd842bfb	-0.06453701
28	0x3db06a53	0.0861403
29	0x3c8a587f	0.016887901
30	0x3d1d9f24	0.038481846
31	0xbd75dafc	-0.060023293
