models/station_22/model_latest.onnx (onnx, 407715 bytes, 12 tensors)

W__3133 f4 [1, 96, 64]
00000000: 9313 c1bd a03e f4bd bfcc d1bd c25c 843d
00000010: c4a8 23bd fac3 613e 610c d0bd f9b1 0dbe
00000020: 03cc 003e 40ed 6fbe 64c9 d23d accd 62bc
00000030: 2d6f 903e 6cea 1b3e 10e8 3dbd 4136 9bbe
00000040: 284e ddbd 20aa 80be 123b 5abe 5b76 bbbd
00000050: 1763 18bd 05b5 0cbe 07fd bcbd 9dc4 fb3d
00000060: 0cf9 dc3b 53a5 93bd 1579 903d 9b53 303e
00000070: b71f b6bd daa6 7d3e 2630 43bd acea 503e
00000080: 9eca 59bb 0951 443e e004 62bd 46b3 ef3b
00000090: 67ce 2cbb e720 1d3e 26fd 533d 79b5 a43d
000000a0: dc79 6abd c4f0 6abe 18f4 61be 3d1f 65bd
000000b0: 8f7e f13d 619a 85be cf60 573d fe91 2f3e
000000c0: 7bb3 833e cc25 29bc c167 cd3d 6e00 ac3d
000000d0: b598 5d3d 4d6d 9f3d 6c12 10be a94c a8bd
000000e0: b575 c0bc 4553 1ebe 7d8d 1d3e c9cf 69bd
000000f0: 36ea ea3d 6962 1dbc 4af8 9b3d 67eb 87be
00000100: 7678 ba3d 9985 e8bc da6f 803c efae 15bd
00000110: dfa2 a43c 79f7 36be e4c2 c93c 5d12 d9bc
00000120: c3f5 9bbd a060 bcba 8458 3b3e 6e3f 363e
00000130: 7592 94bd 657d e43d 3cc1 2bbe 958b 523d
00000140: f4c2 4cbe 7a1e 90be 81b8 303e 5710 00be
00000150: 5411 b8bb f449 063d 776c 63be 50be 413d
00000160: b73b 00be b893 af3d efd3 b53b 3e43 dc3d
00000170: 31b1 cabd 4086 223e 63e8 33bd 3621 643d
00000180: 1514 d0bd 122e 53be 8eeb 983d 7797 9d3d
00000190: cb19 f13d 62b9 57bd 737f da3d d2f2 8dbe
000001a0: b89f 263d 49fe 95be 387c 543e 4ee9 523e
000001b0: 6ce0 51be 5ed2 d13d b9c5 163e 9841 4a3e
000001c0: 5996 8b3d b160 1cbe 2cf0 c33d ea1f 38be
000001d0: 4929 aebd 8450 293e d649 653c 6801 03be
000001e0: 4dc6 6a3d b72d 823d 5663 743c 6433 38be
000001f0: 76db 403e f58a 80be eccb 023e b1b2 c9bd
00000200: eec5 bdbd d89f ca3d 9f44 a33b ae30 69bd
00000210: c247 8fbd 1dd2 2cbe f074 6f3d 185d d63a
00000220: 1ffc a83d 6833 2fbe fd6e 523e 83f4 4d3d
00000230: fce5 3ebe a8b2 393e 1ce7 983d e1a3 5f3d
00000240: f2d5 b4bd 4f90 f93d ed22 a3bd 197f d1bd
00000250: d197 6bbc eedd dabc 2f56 8d3c bd76 8b3d
00000260: f805 1b3d 034a 8cbe fc0b 3a3e 9d25 2cbe
00000270: a3bc b7bd 0e83 14bd a3a7 f4bc 44fc 90bd
00000280: 95cd 0abe a2e6 0dbd 53d5 a5bd 3d4e 893e
00000290: 9036 29be 4d17 fabd 22a0 64be b112 86bd
000002a0: 5abf 6abd 8c21 303e f832 33be 50d1 b7bc
000002b0: 1371 083b 25f9 80bd b3a5 5cbe d952 ebbd
000002c0: dd00 19be f4e1 bebc 24c3 6d3e e51f ddbd
000002d0: 6208 493c f8e4 143e def7 54be ba02 e03d
000002e0: b560 e43d 662a 5cbe 6404 1e3d 7db8 16be
000002f0: 16ab 31ba a741 313e ee9c 3f3d f13a 73bd
00000300: 9fcd 06be 408c 7dbe 32b6 39be 8b50 84bd
00000310: 9efe 3f3e 8d63 8d3d 1c0d 96bd 36ce 89bd
00000320: be40 023e dc10 25be eb43 89be 4d7f 9b3d
00000330: d237 0abe a53c 1b3d aa97 1b3d b922 f9b8
00000340: bf71 283d fc58 9e3c 9b2a 5fbe 1159 ab3d
00000350: 2e7e de3c ae5c afbe 40ed 34be 9853 1f3d
00000360: cff4 253c cef4 fb3d cbaa 5cbe ca74 213c
00000370: 6820 4cbe 85e6 253e 55c3 7fbd 96da e5bc
00000380: 2354 91bd 7c61 233d a0bb 1cbe c8f7 b03d
00000390: 3830 383d c565 20be 94df a0bb 408a 823e
000003a0: 5536 0dbe 98ae 7abd e498 febd 466a a0bd
000003b0: 7ae0 883d 1428 593e 117d 04be 76f8 bebd
000003c0: c979 393e 24ad 4ebe 3559 15be 7a2d fa3d
000003d0: 5aa2 2f3d fc78 e03d 2301 60bc 6cb6 7f3e
000003e0: a22f 1cbe bc67 023e 9276 a0bc 5e99 343d
000003f0: 9bc7 91bd e5b1 2dbd 242f a83c 8f21 f0bd
-0.094275616 -0.11926007 -0.1024413 0.06463005 -0.03995587 0.22047415 -0.10158611 -0.13837422
0.12577824 -0.23430347 0.102923185 -0.013842981 0.2820982 0.15226144 -0.04636389 -0.3031483
-0.10805923 -0.25129795 -0.21311596 -0.09153434 -0.037203874 -0.13740928 -0.09227949 0.122933604
0.006743556 -0.072092675 0.070543446 0.17219393 -0.08892768 0.2477068 -0.04765334 0.2040202
-0.0033232342 0.19171537 -0.05518043 0.007315072 -0.0026368143 0.15344582 0.051755093 0.08042426
-0.05724512 -0.22943407 -0.2206577 -0.055937994 0.11791717 -0.26094344 0.05258256 0.17145535
0.2572287 -0.010323953 0.10029555 0.083985195 0.05410071 0.07784519 -0.14069527 -0.08217747
-0.023493627 -0.15461452 0.15386005 -0.057082925 0.114704534 -0.009605982 0.07615717 -0.26546785
0.09105007 -0.028384017 0.015678335 -0.036543783 0.020097194 -0.17867841 0.024629064 -0.026498014
-0.07615235 -0.0014372058 0.18295485 0.17797634 -0.07254497 0.111567296 -0.16772932 0.051402647
-0.19996244 -0.28148252 0.17257883 -0.12506233 -0.0056173 0.03278537 -0.22209345 0.047300637
-0.1252278 0.08573097 0.005548946 0.10755013 -0.09897078 0.15871525 -0.043922793 0.055695735
-0.1016008 -0.20623043 0.074668035 0.07694905 0.11772498 -0.05266703 0.1066884 -0.2772432
0.040679663 -0.29295567 0.2075051 0.20596811 -0.20495766 0.102452025 0.14723863 0.19751585
0.06815786 -0.1527126 0.095672935 -0.17980924 -0.08503968 0.1653462 0.013994655 -0.12793505
0.05731802 0.06356376 0.014916262 -0.17988354 0.18833718 -0.25106016 0.12773103 -0.09848536
-0.09266268 0.09893769 0.0049825455 -0.05693119 -0.069961086 -0.16877027 0.05846113 0.0016354648
0.08251213 -0.17109454 0.20550151 0.050282013 -0.1864242 0.18134558 0.074659556 0.054599646
-0.08829869 0.12185728 -0.07965646 -0.1022932 -0.014379458 -0.026717152 0.01725301 0.06809757
0.03784749 -0.27400216 0.18168634 -0.16811223 -0.089715265 -0.036257796 -0.029865092 -0.07079366
-0.13554986 -0.034643777 -0.08097329 0.26817504 -0.1652472 -0.122114755 -0.22326711 -0.06546534
-0.057311393 0.17200297 -0.17499912 -0.022438675 0.002081935 -0.062975205 -0.21547584 -0.11490411
-0.14941736 -0.023301102 0.23218971 -0.10797099 0.012270065 0.1454047 -0.20797679 0.1093802
0.11151258 -0.21500549 0.038578406 -0.14718814 -0.0006777508 0.173102 0.04678052 -0.059382383
-0.13164376 -0.24760532 -0.18135908 -0.06460675 0.18749472 0.069037534 -0.07326719 -0.06728785
0.1272001 -0.16119713 -0.2680963 0.0759264 -0.13497856 0.037899632 0.037986435 -0.00011879713
0.0411241 0.01932954 -0.21793596 0.083665974 0.027159777 -0.34250396 -0.17668629 0.03889808
0.010129168 0.12302552 -0.21549527 0.009854505 -0.19934237 0.16201217 -0.062442143 -0.028058331
-0.07096126 0.03988789 -0.15305948 0.086410105 0.04496786 -0.15663822 -0.004909465 0.254961
-0.13790257 -0.06120166 -0.12431505 -0.0783277 0.066834405 0.21206695 -0.12938334 -0.09324734
0.18112864 -0.20183235 -0.14584811 0.12215705 0.04287944 0.10960576 -0.013672146 0.24971932
-0.15252545 0.12734884 -0.019587789 0.044091575 -0.0711815 -0.04240598 0.02053029 -0.11725151

W__3119 f4 [1, 192, 128]
00000000: 6a3f 09bd 1dab aebc 69ba ba3d b07f 91bd
00000010: 0f0a 483e c489 b4bc c391 39be a4b9 733d
00000020: e17c 4dbd a1ff 22be 1e8c 7bbc 74a3 9ebc
00000030: 4e1c 9abc 2b60 e6bc 5382 3d3e 4446 c53d
00000040: 3118 ac3d 7a06 283e 827b 3a3e 1285 9a3d
00000050: b7f6 183d e56d bd3c 8d37 ac3d 180a f43d
00000060: d680 813d cf03 bb3d a98d b8bd d59d a4bc
00000070: 2b62 833c 0b18 7e3d 2878 4fbd 7ffd ac3d
00000080: 8f3b b8bc 3aa6 1abd c284 1f3d a31b d03d
00000090: 1e7b ecbc 1197 adbd 91a7 c23c a96b 0fbe
000000a0: 5fc3 e43d a986 b7bd e9e2 08bd 5a1a 173e
000000b0: f298 953c 0b81 893d 0b2d 6fbe b434 453e
000000c0: 2530 16be aa55 663c 7c44 eb3c f941 44bc
000000d0: 2a27 99bd df13 9abb 88ab b5bd 7d17 f7bc
000000e0: 8e46 32be 017f be3d 77c5 263d 088a 1dbe
000000f0: b2ae ae3d 8193 15be a794 1b3e 6dad 0b3e
00000100: c53b c5bd 928f e7bd 3355 6cbc 706b 35bc
00000110: a455 c5bd 9a28 e5bd 24cd 69be c4a1 a63d
00000120: 8ec0 19be 9e02 52bd ccc0 0e3d 98d7 a13d
00000130: 9986 0ebe 5114 95bd 0ce6 1b3d ef50 f2bd
00000140: c14f dfbd 0947 6e3e 17bc 093e 7129 df3d
00000150: b2c8 2b3b 96ae 4c3e 98e4 a8bc db90 e93d
00000160: b4ce 3abd 228f ba3a 8ac7 ee3d 3a99 163e
00000170: 4c58 1f3d afe4 d2bc e3b6 e9bc 1fc0 60bd
00000180: 2a84 98bb fa0c 223d fd1a b5bd a2ad 9abd
00000190: 48ee b83d a545 88bd e4d5 5b3e 3d87 e43d
000001a0: 0e96 b83c 0974 073e 4c8d 553d 7432 1f3e
000001b0: 0816 22be 0596 6c3d 5895 0ebe 6d1e 063d
000001c0: 79b7 fcbd 21ce f13d 966f 7abe 9d34 16be
000001d0: 5b14 1b3e 6fee c8bc e678 e93d 4e64 8d3d
000001e0: 3394 06bd 3bf1 463d 39d2 5bbd 5f3c adbd
000001f0: 53ae 103d bcb6 76bd 3484 c13d c1b0 ddbc
00000200: b1bc 0dbe 056f 55bd 2434 9f3d 5466 6ebe
00000210: e6e8 37bd 08a3 26bd 192a e23c c4a0 10bc
00000220: 7e96 eebd e2a6 88bb 6f61 14bd 8b70 3a3c
00000230: b2a9 83bd 6534 91be f200 3a3d 9659 053e
00000240: a787 813c bbba e73d ad06 123e 6cfc 6c3d
00000250: ec40 f63d dcdc 1e3b 3aa4 0b3d 33eb 3ebe
00000260: ed91 c93d 42aa 11bd a6e1 04bd 9d37 073e
00000270: 39cc 9dbc 146c 23bd ecd2 24bd 630a c83d
00000280: 0674 99bd dec3 1cbb e739 633e f3a6 9cbc
00000290: 8b0b 463d e288 54be 8b1a fa3d c016 c23d
000002a0: 35c0 bd3d db33 493e 7532 ffbd a705 643d
000002b0: fbbc 5a3d ccc1 d73d 0272 093d 4a5c d73c
000002c0: 746f d7bc 1c62 babd 9c60 973d a5d3 d63d
000002d0: 0faf 41bd 05fa 0f3d e923 f83c 5a1f 1a3d
000002e0: 4ae8 393d 3207 893b 1f7b e7bb 23a9 733d
000002f0: 58d4 a53d 7294 18be 1de6 ea3c bc93 6b3d
00000300: e0ee 273e 699e 02be 0b7f 52bd 5964 a93d
00000310: 3c69 0fbe 6fe0 e8bd 5c95 293d a3b5 c33d
00000320: 0321 6c3e b778 a23d 225c cb39 b276 b8bb
00000330: b318 48bd 4439 d939 22d4 8dbd e2cd bcba
00000340: bd1c 05bd 84cc adbd 6a29 abbd 5349 24be
00000350: 2f55 5d3e 29be 52bd 669d 1d3d 6c5c 11be
00000360: 4a41 443e 8e35 93bd bce9 15bd 05d9 e63d
00000370: 4045 5b3e eb32 0dbe 1179 30bd e8cb 86bc
00000380: 4bc2 8c3c 9356 153d 659a 073e bcaf 06bb
00000390: 15e3 fe3c 6551 e6bd 1b2e 1dbd 27cb 0abe
000003a0: eef7 07be 5318 b4bd 885c 3d3d 68a6 54bd
000003b0: 2e79 a23d d87c bf3d 176d 663e 7aa2 923d
000003c0: fd0d 24be d31a ce3d 5670 a2bd e27d 16bd
000003d0: 8eaf 9a3c d1f1 e43d 219b 3fbd 6dcd 383d
000003e0: fcd5 b3bd ca74 813a fd87 88bd 99a8 a9bc
000003f0: 15cf a9bd 6fb4 38be 5a04 ff3d 062b 8b3d
-0.033507742 -0.021321828 0.09117586 -0.071044326 0.19535087 -0.022038348 -0.1812201 0.059503213
-0.050167922 -0.15917827 -0.015353231 -0.01936505 -0.018812325 -0.028122028 0.18506746 0.09632543
0.08403052 0.1640872 0.18211177 0.075449124 0.03734466 0.02312369 0.08409033 0.11915988
0.06323402 0.09131586 -0.090113945 -0.020094791 0.016038021 0.062034648 -0.0506517 0.08446788
-0.022489337 -0.037756182 0.038944967 0.10161521 -0.0288673 -0.08476079 0.023761543 -0.14005913
0.111700766 -0.08961231 -0.033419523 0.14756146 0.018261407 0.06714066 -0.23357026 0.19258386
-0.14666803 0.01405851 0.02871918 -0.01197862 -0.07478173 -0.004702076 -0.088706076 -0.030162567
-0.17409727 0.09301568 0.04071566 -0.15384686 0.08529414 -0.1460705 0.15193425 0.13640375
-0.09630541 -0.11306681 -0.01442461 -0.011072978 -0.09635475 -0.11189385 -0.22832161 0.08136323
-0.1501486 -0.051272027 0.034851834 0.07902449 -0.13918532 -0.07279266 0.038061187 -0.11831843
-0.10903884 0.23269285 0.13450657 0.10896576 0.0026212153 0.19988474 -0.020616814 0.11404582
-0.045607284 0.0014233331 0.11659153 0.14706889 0.038902566 -0.02574381 -0.02852959 -0.05487072
-0.004654427 0.039563157 -0.08843038 -0.07552649 0.090298235 -0.06653909 0.21468312 0.11158607
0.02253249 0.13227858 0.052136704 0.1554659 -0.15828717 0.057760257 -0.13924158 0.03274386
-0.12339682 0.11806894 -0.24456629 -0.14668508 0.15144484 -0.024527756 0.11400013 0.06903897
-0.032856178 0.0485699 -0.05366728 -0.084587805 0.0353225 -0.060232863 0.09449044 -0.027061822
-0.13841511 -0.05210783 0.07773617 -0.23281223 -0.044899844 -0.040682822 0.027607964 -0.008827392
-0.11649798 -0.0041702846 -0.036225732 0.011379371 -0.06428851 -0.28360286 0.045411058 0.13022456
0.015811754 0.11314913 0.14260359 0.057857916 0.120241016 0.002424053 0.034092166 -0.18644409
0.09842286 -0.03556276 -0.032441758 0.13204809 -0.01926242 -0.039897993 -0.040240213 0.09767606
-0.07492833 -0.0023920457 0.22190057 -0.019122576 0.048350852 -0.20755342 0.12212094 0.094769955
0.09265176 0.19648688 -0.12460796 0.055669453 0.053402882 0.10535011 0.033555992 0.026289124
-0.026298262 -0.09100744 0.07391474 0.10489587 -0.04728609 0.035150547 0.03029056 0.037627555
0.045387544 0.004181766 -0.0070642377 0.059487473 0.08097142 -0.14900377 0.02867418 0.057513937
0.16399717 -0.12755741 -0.05139069 0.08271093 -0.14004987 -0.11370932 0.041402206 0.09556129
0.23059468 0.07933181 0.00038787822 -0.005629384 -0.04885168 0.00041432132 -0.06925227 -0.001440462
-0.03249811 -0.08486274 -0.083575085 -0.16043596 0.21614526 -0.051450882 0.038480185 -0.14195412
0.19165531 -0.07187949 -0.03659986 0.11271862 0.21413136 -0.13788955 -0.043084208 -0.016454652
0.01718249 0.036459517 0.1324249 -0.0020551523 0.03111414 -0.112459935 -0.038374048 -0.13554059
-0.13278171 -0.08793702 0.046230823 -0.05191651 0.079332694 0.09349984 0.22502552 0.07159896
-0.16020961 0.1006371 -0.07931583 -0.036741145 0.01888254 0.11178935 -0.0467788 0.045117784
-0.08781049 0.0009876725 -0.06666563 -0.020710276 -0.08291451 -0.1803758 0.12452002 0.067953154

W__3106 f4 [1, 384, 6]
00000000: ba64 c2be 04ae 98be 6d9f 7fbe 5773 a4be
00000010: d253 e1be f41c b63d fb86 22be 5da5 b8be
00000020: 7577 bcbe 8992 89be 2003 a8be 005d 0dbe
00000030: 41d5 4cbe 4aeb 16be 3938 0fbe a6c6 74be
00000040: 2b05 56bd f067 8a3e f7bf 97be ca89 09bf
00000050: 0546 84be b255 6dbe 88c2 dfbe 61c0 bbbd
00000060: 4e29 ab3e b547 a83e 8759 f53d df63 653e
00000070: ec6a 643e 8963 a1bd 1a0e 5cbe 0dc6 12bf
00000080: 2547 7cbe 3120 e3be 6fec c8be 4969 113e
00000090: ce52 e8bc 3687 e83c 2f53 26be c0fb 01be
000000a0: d60b 36bd e270 2ebe ff70 e83c 385f 40be
000000b0: 8c23 91be a3ef 87be dc49 4ebe 7bbc a6bd
000000c0: 62e8 c63c 03c1 c73d a4f2 7d3d fb27 86bd
000000d0: c544 87ba 43aa 0f3e 0c1a 64be 6384 bcbe
000000e0: 1ff5 68be af96 37be 219d 4bbe d424 c03d
000000f0: e50b 86be c257 71be 2e04 84be 46b8 35be
00000100: f37c 42be 220e a23d dbc0 693e f829 643e
00000110: 2122 233e 780e 663e ba22 0f3d 8950 b4bd
00000120: 0684 cf3d ac25 d43d ba5b 443d 0c59 103e
00000130: ab31 1abc 6924 22be 3705 29be b4f9 8abe
00000140: a055 9fbe 95a1 b9be 858f fdbd 66a9 6dbc
00000150: 2a89 a5be 0640 a5be 9d3d cbbe 3c27 c5be
00000160: 4d90 1ebe 77ae c1bd 9378 55bc 651f f1bd
00000170: ae5a 34be 1544 b4be 90a4 95be 861e d63d
00000180: f596 94be a243 28be c3ea 87be 1bd8 64be
00000190: 03b3 82be b09d a03d 69f6 c0be a945 d5be
000001a0: 996e cfbe 47e2 d7be 1b61 bcbe eabd 083e
000001b0: 70a7 583e 001c 253e 08f4 0b3e afe9 5e3e
000001c0: 2f5d 773d b439 d9bd d0a1 30be 0675 0d3d
000001d0: 874a 26bd 81e0 76bd 5a43 61bd 1710 1b3e
000001e0: d63d 7a3e 3c03 4f3e 320b 1a3e 5a98 933c
000001f0: fe41 073d 7fea eebd cf84 dbbd 9a19 44bd
00000200: c71a 99bd e5cd 5bbe c275 1a3d 9f24 fe3d
00000210: 6300 c9bc 13f9 943d 7100 193e 9307 863e
00000220: 4cf9 fb3d ac7e 843d 280c 2e3e 8374 923e
00000230: a87c a13d 0beb 1c3e 72c5 923d 1f66 9abd
00000240: becd 0dbc a2d7 903e 9b61 b43d 9785 513e
00000250: 8147 503e 8e4f 0c3e da48 1a3e d6c7 f63d
00000260: 12a7 91bd faf8 b53c 8c21 a33d a521 ad3d
00000270: a2a4 99bc 3780 04be 5efd 7abd b21b 3bbe
00000280: 9c32 e9bd b7bf efbd 69d4 983d 985c 65bb
00000290: 5c4c 4bbd 7f36 463d d07b 213e 1d43 94bd
000002a0: 33ea 8abe f9f9 ccbe 99d3 cebe cb39 eebe
000002b0: c930 eabe 7ccb bfbc cdda 4c3e 0c48 573d
000002c0: e729 1dbe 8628 57bd 9a7e cd3b 4dde 4f3e
000002d0: 6424 cebd 515b c4bd eccf d1bd 8672 9ebd
000002e0: cf64 7cbd 8ebf ed3c 6811 8abd ebfe acbe
000002f0: a6ae 8dbe 12e4 81be 5ac2 fdbd daf3 1a3c
00000300: b203 50be 2a32 48be 6271 7ebe 5f13 d1be
00000310: 3582 84be 44da 21bc 5988 143c 9fbd d43d
00000320: 3185 173d 03c2 4abd 3cc0 df3d 7f37 893c
00000330: a78c 74be d00e 8abe dd50 71be f112 33be
00000340: 36d7 69be 3d9c 1dbd 6a03 efbd 9b90 72be
00000350: 80f2 b4be 4b26 d5be d524 84be f997 2abd
00000360: a74a f9bd 1160 7dbe 5dd7 b6be db91 a9be
00000370: d61b 07be 4467 433e 3c74 39be 767e d6be
00000380: 6134 81be de68 93be e334 b2be c72c 12be
00000390: ee6c 7dbe 2fed 78be 1e18 84be 2b99 09be
000003a0: aeff f7bd 7cf5 bd3a 822d 41bc dfb3 a73d
000003b0: 3eb5 833d c06a 083e afc7 853d f927 92bd
000003c0: 0e9d 05be 834d 9dbc 6740 4cbe 052d 23bd
000003d0: 3d3e cd3d d1d7 6fbd a12f b5bd 66f2 b4bd
000003e0: cf61 f4bc 4234 2cba 00ac a4bd fa94 2abd
000003f0: b424 ce3e 4c9d d93e 4280 e23d 86fa 553e
-0.37967473 -0.29820263 -0.2496316 -0.32119247 -0.44009262 0.08892241 -0.15871803 -0.36063662
-0.36809888 -0.2686961 -0.32814884 -0.13805008 -0.20003225 -0.14738193 -0.13986291 -0.23903903
-0.052251022 0.27032423 -0.29638645 -0.53725874 -0.2583467 -0.23177221 -0.43703103 -0.09167553
0.3342995 0.32867208 0.119799666 0.22401379 0.22306412 -0.07880313 -0.21489754 -0.5733345
-0.24636514 -0.44360498 -0.39242885 0.1420032 -0.028359797 0.028384786 -0.1624267 -0.12693691
-0.04444488 -0.17035249 0.028374193 -0.18786323 -0.28347433 -0.26550016 -0.20145363 -0.081414185
0.02428073 0.09753611 0.06199898 -0.065505944 -0.0010320178 0.14029793 -0.22275561 -0.36819753
-0.22749756 -0.17928575 -0.19884159 0.093820244 -0.2618095 -0.23568633 -0.2578444 -0.17746076
-0.18992977 0.07912852 0.22827475 0.22281635 0.15930988 0.22466457 0.034945227 -0.08804423
0.10132603 0.10358748 0.04793904 0.14096469 -0.009411256 -0.15834202 -0.16505896 -0.27143633
-0.31120014 -0.3625609 -0.1238089 -0.01450572 -0.3233121 -0.32275409 -0.39695445 -0.38506496
-0.15484734 -0.09457105 -0.013029235 -0.11773566 -0.17612717 -0.35208192 -0.29227114 0.10455041
-0.2902142 -0.1643205 -0.26546296 -0.22348063 -0.255272 0.078425765 -0.37687996 -0.4165471
-0.40514067 -0.42164823 -0.36792836 0.13353696 0.21157622 0.16123962 0.1366731 0.2176883
0.0603916 -0.10606709 -0.17249227 0.03453543 -0.04059842 -0.060272697 -0.054995872 0.15142857
0.24437651 0.20216078 0.15043333 0.018016983 0.03302192 -0.1166582 -0.107186906 -0.047875978
-0.074758105 -0.21465261 0.03770996 0.12409329 -0.024536317 0.0727407 0.14941575 0.26177654
0.12303409 0.06469473 0.16996825 0.28604516 0.078851044 0.15324037 0.07166566 -0.07539009
-0.00865501 0.28289515 0.08807679 0.20461117 0.20339777 0.13702223 0.15066853 0.120498344
-0.07111944 0.022213448 0.07965383 0.08453683 -0.01875526 -0.12939535 -0.061276786 -0.18272284
-0.11386606 -0.117064886 0.07462389 -0.0034997817 -0.04963337 0.048391815 0.15769887 -0.07239363
-0.27131805 -0.40034464 -0.4039581 -0.46528468 -0.45740345 -0.023412459 0.20005341 0.052558944
-0.15348016 -0.05252888 0.0062711956 0.20299645 -0.10065535 -0.0958773 -0.10244736 -0.07736687
-0.061619576 0.029022004 -0.06741601 -0.33788237 -0.2767231 -0.25369316 -0.12390585 0.009457553
-0.2031391 -0.19550386 -0.2484794 -0.4083509 -0.2588059 -0.009878699 0.009065711 0.1038773
0.036992256 -0.04950143 0.10925338 0.016750095 -0.2388178 -0.26964426 -0.23566003 -0.17487694
-0.22836003 -0.03847908 -0.11670573 -0.23687975 -0.35341263 -0.41630778 -0.2580935 -0.04164884
-0.12172442 -0.24743678 -0.35711184 -0.3311909 -0.13194212 0.19082361 -0.18110746 -0.41893357
-0.25235274 -0.28790945 -0.34805974 -0.14274894 -0.24748585 -0.24309228 -0.2579965 -0.13437335
-0.12109314 0.0014492716 -0.011790635 0.081886046 0.064310536 0.13321972 0.06532227 -0.071365304
-0.13048193 -0.019202 -0.19946443 -0.039837856 0.10021637 -0.058555428 -0.08846975 -0.08835296
-0.029831795 -0.00065690663 -0.08040619 -0.04164598 0.40262377 0.4250282 0.110596195 0.20896348

R__3134 f4 [1, 96, 32]
00000000: 7b5a 99bd 81cf 3fbd 3dd8 9ebd dcde de3d
00000010: add6 a9bd 347c 58bc dbaa 33bd 607e a63d
00000020: 1166 39be f57b e13d d3f4 743d 1182 8bbd
00000030: a127 04bc 73df a83d 988d df3b 8cd1 2cbb
00000040: 1b20 1a3d 8084 d83d 3c67 253e 87a3 053e
00000050: 6ca6 0dbe c225 b43d 3042 46bb 9c20 1fbd
00000060: 4243 033e 0fe7 a93a 9e8b a5bd ff8a 243d
00000070: f673 25be b98f 4cbe 104c ecbd 0073 21be
00000080: 4385 3bbb 98fb 10be 17ba 913d 3720 23be
00000090: a459 58bb fde6 20be d0c2 c3bd 0448 57be
000000a0: ec5b 363e 62a7 4dbe 47a3 033e a97f 42be
000000b0: 3f44 d53c 8c0e 98bd 307f df3d 6bc8 093e
000000c0: 499f 593d 6e81 2ebe 85e0 14bb c37d 663c
000000d0: 73a8 adbd 707d 30bd c936 b93d debb 723d
000000e0: b618 ca3d 9403 11bd 7318 5abc b107 eabd
000000f0: 3b82 ff3c 2ad0 ae3d 416c 6c3e 11cf 66bd
00000100: 2fda aebd 66d8 39be 0c47 193d cf86 fabc
00000110: cfb8 403d e0e5 4b3e df5c 8bbd d7d5 f53d
00000120: b7a0 803d 6cdd 803e 80b0 363e a8c5 48bd
00000130: 100b d73d 85ae 65bd 01b9 9d3d 1807 21be
00000140: 211a c33d ac4e 53be c31e 893d 9910 053e
00000150: 1043 9dbc 471f db3c d82d d83d 9292 0bbe
00000160: 2010 8e3b 9ee0 1dbe c0d8 043d 080a 393d
00000170: dfbc 7bbe 9dfd 9c3d d202 2a3e 89c4 bfbd
00000180: 2f34 64be 4de2 f23c 126c ce3d 65fe 5e3c
00000190: 3143 84bc 1b68 63bc 68b3 dd3c 9df2 8e3e
000001a0: 17e6 233d 587b 3a3e 6806 aa3d a362 1e3e
000001b0: 4575 853d 489d b53d 5de0 aabd c5fa d53c
000001c0: 4258 2c3e 0007 f83d 93c1 03be 18a4 bb3d
000001d0: ac55 04bc 4ce8 0b3e 9404 4ebd 1b19 25be
000001e0: 493d 2cbe 464d 883e e8b0 843d 82ba ccbd
000001f0: 7e2c e1bd 90f7 04bc 776f 4ebd abf2 3d3b
00000200: fb54 5bbe 462d 46bd e414 803d 928f 0e3e
00000210: 4119 66be 5065 053e 89b6 423e d76c db3c
00000220: 321a 593d f012 46bc 6322 14bc 8bf5 59be
00000230: 8006 adbc 3050 05be 7f5f 083e 502c 213d
00000240: 4c2c 3cbd ccee e13b 8d5b a7bd f888 4ebe
00000250: 4f4d 2f3e f198 6e3c e72e 36bd f33f 433c
00000260: a4ce c83c 3d96 8339 6526 28bd a2fc 8bbe
00000270: 5b0f 8dbd 504a 513e 48b8 4e3d 8dd8 083e
00000280: 642a 3f3e 2891 033e 0cfd 0ebe 9d0d 5bbc
00000290: 0e53 fe3d 91e2 4d3d 8b3f 1d3e aaf6 56bd
000002a0: 81e5 153e 7ac1 9c3c 4af6 523d 6c47 533e
000002b0: 8e13 283e 8b79 1c3e 42b5 16be d1e8 e7bd
000002c0: c815 68bd f7e2 483e 17f3 aebc 2774 073e
000002d0: f5a5 123d b414 223e 16cf d23c e38b 28bd
000002e0: f161 cabd cbf2 6dbd caa7 243e e118 d93c
000002f0: a141 573e f75c 39bd 0687 73bd 95b9 c6bd
00000300: 5522 4dbe 64f2 c93a 966a 813e 8885 13be
00000310: fdcd 12be e4c4 aa3a 0adf 8e3c bee8 bd3d
00000320: df64 04bd bd50 3d3d d8bb 4f3e 9169 6a3e
00000330: 3063 26bd e6cc 07be 60f1 303c 94fc 16be
00000340: 0a87 6cbc 1bd5 473e 21c3 003d 7ec0 56be
00000350: 8077 9bbb 0cc3 62bd f1c0 f8bd 2498 d83c
00000360: 5c14 3f3e c67e 133e 8058 0fbd bb8a 36bd
00000370: d0b5 143c e3cd 8d3b f036 39bd 2801 ffbc
00000380: bb9c 72bd 2e07 4fbc 0b17 60be d133 1cbe
00000390: c3a5 69bc b0ef ceba d03d 203e 6bf7 4e3d
000003a0: 6d3c 7a3d 05a9 c53d 6ad2 b23e 2856 c8bd
000003b0: 8a75 d93c 3e25 8d3e 8e9e 0c3d 0be6 503e
000003c0: 1972 5b3e 0293 35be 5113 863d e23c b83e
000003d0: d939 52be beeb 50bd e288 013e ab22 debd
000003e0: 9248 aabd 27a4 623a 803c 453d 4268 4b3d
000003f0: 25a1 083e e1bc 00be bc6f 2cbd e9cf 49bb
-0.07487961 -0.04682875 -0.07756088 0.10882351 -0.08292899 -0.013213206 -0.043864112 0.08129573
-0.18105341 0.11009971 0.059803795 -0.068119176 -0.008066089 0.082457446 0.006822299 -0.0026370017
0.037628274 0.10572147 0.16152662 0.13050662 -0.13833016 0.08796264 -0.0030251853 -0.038849458
0.12818626 0.0012962538 -0.080832705 0.04017162 -0.16157517 -0.19976701 -0.11537945 -0.15766525
-0.0028613366 -0.14158475 0.07115572 -0.15930258 -0.0033012414 -0.15713115 -0.09558642 -0.21023566
0.17808503 -0.20083383 0.12855254 -0.18994011 0.026033519 -0.074246496 0.10912931 0.1345536
0.05313042 -0.17041561 -0.0022716832 0.01406807 -0.08479395 -0.043088377 0.090436526 0.059261195
0.098679945 -0.035403803 -0.013311493 -0.11427248 0.031190028 0.08535798 0.2308817 -0.056349818
-0.08537709 -0.18148956 0.03742127 -0.03058186 0.047051247 0.19911909 -0.06804823 0.12003677
0.06280654 0.2516893 0.17840767 -0.049016625 0.10500157 -0.056074638 0.07701302 -0.15725362
0.09526468 -0.2063548 0.066953205 0.12994613 -0.019197017 0.026748313 0.10555619 -0.13630131
0.0043354183 -0.15417716 0.03243327 0.045175582 -0.24583767 0.076655604 0.16602638 -0.09363658
-0.22285531 0.029648924 0.100792065 0.013610457 -0.01614532 -0.013879801 0.027063087 0.27919474
0.040014353 0.18211114 0.08302003 0.15467314 0.06516508 0.0886789 -0.08343575 0.026120553
0.16830543 0.1211071 -0.12866811 0.09162158 -0.008077066 0.13662833 -0.050297335 -0.16122858
-0.16820253 0.26621455 0.06479055 -0.09996511 -0.10994814 -0.008115664 -0.05039927 0.0028983753
-0.21419136 -0.04838302 0.062539846 0.13921955 -0.22470571 0.13026929 0.19014944 0.026785297
0.053003497 -0.012089476 -0.009041402 -0.21285073 -0.021121264 -0.1301887 0.13317679 0.0393489
-0.045940682 0.006894922 -0.08171759 -0.20169437 0.17119335 0.014562831 -0.044478323 0.011917102
0.024512596 0.00025098203 -0.04105224 -0.2734118 -0.068876944 0.20438504 0.050468713 0.13363858
0.18668514 0.12848341 -0.13963717 -0.013369945 0.12418185 0.0502649 0.15356271 -0.05248133
0.1463833 0.019135226 0.05150441 0.20632714 0.1641371 0.1528074 -0.14717582 -0.11323703
-0.056661397 0.1961783 -0.021356149 0.13227902 0.0358028 0.1582821 0.025733512 -0.04114903
-0.09881962 -0.058092874 0.16079631 0.026501121 0.21021129 -0.045254674 -0.05945494 -0.09703366
-0.20032628 0.0015407321 0.2527663 -0.14406407 -0.14336391 0.0013028649 0.017440338 0.09272908
-0.03232276 0.046219576 0.202865 0.22891833 -0.040621936 -0.13261756 0.010799736 -0.14744788
-0.014436493 0.19514887 0.03143609 -0.20971867 -0.00474447 -0.055361792 -0.12146176 0.026439734
0.1866011 0.14403829 -0.03499651 -0.044565897 0.009076551 0.004327522 -0.045218408 -0.031128481
-0.0592315 -0.012635989 -0.2188379 -0.15254141 -0.014260712 -0.0015787985 0.1564858 0.050528925
0.061092783 0.096513785 0.34926158 -0.09782058 0.026545305 0.27567476 0.034330897 0.20400254
0.21430244 -0.1773186 0.06546653 0.3598395 -0.2052988 -0.05100607 0.12649873 -0.10846456
-0.08314623 0.00086456764 0.0481534 0.049659975 0.13342722 -0.12572052 -0.042098746 -0.003079409

R__3120 f4 [1, 192, 64]
00000000: 0cc6 393e 2902 213e 523e 38be 302f 41bd
00000010: 3615 2fbe b3fc 0fbe 7a9a 5dbd a2a7 74bc
00000020: 8726 adbc 9fe7 623d afde e83d 5479 cdbe
00000030: 38aa b53e 35ea 08be f6cf 613e 2802 5bbd
00000040: 74e7 8c3d d6e9 28be f453 b93d 3ca6 fabd
00000050: e5f1 183e 47f3 593d 4d0d 02be 3daf 45be
00000060: bd8c de3c e61c 86bd 0d47 053e 3aa0 c9bd
00000070: d80a 283e 42af ad3d 01e1 2e3e af5a da3d
00000080: af27 35be 07c7 b73d ec97 443d b0e8 b33d
00000090: 7389 4c3c f54d cbbd 9edf 68be b23c 65bd
000000a0: a9f2 bdbd ad03 01bd a3f3 3dbd 3406 c63d
000000b0: f860 e0bd 3ccc 163e ea5b 9e3d 9446 703c
000000c0: 24c2 25be 01c2 37bd 5799 51be 195b 373e
000000d0: 6c24 3b3e d47d 90bc 750c c1bb fd10 0b3e
000000e0: 9a60 e6bd 39d1 41bd cd24 0f3e 85b0 333d
000000f0: 8bfc 5b3e a002 983d 783b 35be 0463 12be
00000100: 842a 363c dcc4 ab3c 669a f03d fcb2 ebbd
00000110: 67f7 903d f1bb 94bd b5d8 be3c 755e 28bd
00000120: 138a 20bd 0110 e33d 85d4 f6bd 76aa 613e
00000130: 09eb 7bbd 7fc0 033e df10 27bd 8857 ab3d
00000140: 417d 15be a5c4 3e3e a6d6 27be f3c7 f2bd
00000150: 4958 553e 696b 46bd 0c45 3c3e 9abf 853d
00000160: 4395 94bd 2a12 02be 194e 833d c4db 50bb
00000170: 134e 84bd c1e6 c5bd 230c 21be 7ffc aabe
00000180: 633a 873d 2a11 dc3c b622 cb3c 9680 9a3d
00000190: e12e 90bc 6853 e03d 6743 cb3d 1092 203e
000001a0: 95ee d73c 8acc 45be d675 093e 3743 71be
000001b0: 83c7 e3bc 7c3d f0bd c0c2 eebd c08b babc
000001c0: 6b47 753e 4883 edbd 7954 2f3d dc9d 29bd
000001d0: 2121 333d d700 3cbe fcee a63d 597f 363e
000001e0: 4eb2 4bbc c81e 1abe 6ba1 f43d 841c 56bd
000001f0: 3584 8b3e 3cf2 683d d39a 103e dc2a 573e
00000200: e386 1d3e b9a7 94bc 7724 58be c5b1 a4bd
00000210: 7d1b e5bd b48b f5bd cbb9 c03c faf0 ec3d
00000220: 627c fe3d f786 89be b0a9 053e 4756 29be
00000230: 81aa 243e ace2 a1bd b42f 183e 388d 82bc
00000240: 6f80 2e3d 3964 3cbe 8950 983d ef19 12bd
00000250: 28f5 14be 055f 223e 30a8 6cbd 38c0 5dbe
00000260: 0367 0d3e 5065 423d 34d3 fabd 0690 85bd
00000270: e855 ac3d 28ba b43d 1713 4b3e b403 8f3d
00000280: cef1 88be 5a05 523e 27b0 62bc 66e8 24bd
00000290: abd7 88bc e822 cc39 4d8e e4bd 3a98 6abe
000002a0: 3b30 0cbe ae1e 17bd 5595 51be db2a cd3d
000002b0: b5c1 5dbe 1bde 173e 4a45 1f3b 181c 32bd
000002c0: 14f1 7cbe f6f6 aa3e be16 92be c36b 0c3e
000002d0: 936f e93d 02b3 e73d 4604 5fbe a8f6 31bc
000002e0: aee5 12be 4b7f 193d 3306 213e a8b0 7e3d
000002f0: db70 12bd 03e3 0ebe bf1e 20be 0a16 71be
00000300: e660 393e a4b2 243e 43f7 62be 37f5 c33c
00000310: f4dc c4bd 77a0 39bd 52fc eebd 9104 463e
00000320: aafd d1bd dbd6 e7bd 5253 073e 1aa6 7bbe
00000330: d5f0 1e3d 4cd7 b13b 90c7 9f3c 2b81 5ebe
00000340: 8dbe 413e 739d c9bd 5b02 3f3e aa0f f6bd
00000350: b523 06be 9fd6 203d 50ee 58be 5c40 a4be
00000360: 766f 043e c908 083d 0941 483e 0052 b0bd
00000370: 6a01 1e3e 9167 8c3e 627f 263e fc47 403e
00000380: d4a8 40be e7dc 3e3e cf42 af3d 075e 073e
00000390: 4a32 3dbe 5c25 30be e114 2dbe b97a 50be
000003a0: 965b 15be 1097 c7bd 2b9c fbbd de41 c73d
000003b0: cb70 bebd e4a6 c63d 052f 0c3e 7131 4f3e
000003c0: ab13 8bbe 9821 05bd 5e29 8fbe 4f14 853e
000003d0: 4a09 3c3e c669 5a3e 1b58 1dbe 3043 193e
000003e0: e066 4ebe 6920 023e 0a03 f03d 4cf9 4dbd
000003f0: bc0a c33d e77f 5abe 9fc6 05be 8a9a 893d
0.18141955 0.1572348 -0.17992523 -0.047164142 -0.17097935 -0.14061241 -0.0541024 -0.014932545
-0.021136535 0.055396672 0.113705985 -0.4013163 0.3548143 -0.13370593 0.22051987 -0.053468853
0.06880084 -0.16495451 0.09049216 -0.12238738 0.14936025 0.053210523 -0.12700386 -0.1930513
0.027166719 -0.06548481 0.13015385 -0.09845014 0.16410387 0.084806934 0.1707802 0.10661828
-0.1769092 0.08973508 0.047996446 0.08784616 0.012483942 -0.099269785 -0.22741553 -0.055966087
-0.092747994 -0.031497646 -0.04637493 0.09669152 -0.10955995 0.14726347 0.07732375 0.014665265
-0.1618734 -0.04486275 -0.20468651 0.17905845 0.18275613 -0.017638125 -0.0058913776 0.135807
-0.11248894 -0.04731867 0.13978882 0.043869514 0.21483056 0.07422376 -0.17698467 -0.14295584
0.011118535 0.020967893 0.11748199 -0.11508748 0.07078438 -0.072624095 0.023296693 -0.041105706
-0.039194178 0.11087037 -0.12052254 0.22037682 -0.061503444 0.128664 -0.040787574 0.08366305
-0.14598562 0.18629701 -0.16390476 -0.118545435 0.2083446 -0.048442278 0.18385714 0.06530686
-0.07255032 -0.12702242 0.0641138 -0.0031869272 -0.06460204 -0.096631534 -0.15727286 -0.33395764
0.06602933 0.026863653 0.024796825 0.07544057 -0.017600479 0.109534085 0.09924965 0.15680718
0.026358882 -0.19316307 0.13423857 -0.23560797 -0.027805096 -0.11730477 -0.11658239 -0.022771716
0.23953025 -0.115973055 0.04280517 -0.041410312 0.043732766 -0.18359695 0.081510514 0.17822017
-0.012432648 -0.15050805 0.119448505 -0.05227329 0.27249303 0.056871638 0.14121561 0.21012443
0.15383486 -0.018146383 -0.2110766 -0.08041719 -0.111868836 -0.11989537 0.023526093 0.115694
0.12426068 -0.26860783 0.13053012 -0.16536818 0.16080667 -0.07904562 0.14861947 -0.015936479
0.042602953 -0.18397607 0.07437236 -0.035669263 -0.14546645 0.1585656 -0.057777584 -0.21655357
0.13808827 0.0474599 -0.12247315 -0.06521611 0.08414823 0.08824569 0.19831501 0.06983128
-0.26746982 0.20509854 -0.013835943 -0.040260695 -0.016704401 0.0003893592 -0.11159954 -0.22909632
-0.13690273 -0.036894493 -0.20467122 0.1001794 -0.21655925 0.1483082 0.0024302774 -0.043483824
-0.24701339 0.3339154 -0.28532976 0.13712983 0.11398234 0.1131344 -0.21778974 -0.01086203
-0.14345428 0.03747491 0.15725021 0.06218019 -0.03575216 -0.13953786 -0.15636729 -0.23543563
0.1810337 0.16083771 -0.22164635 0.023920638 -0.09612456 -0.045319047 -0.1166922 0.1933768
-0.10253461 -0.11320277 0.13215378 -0.24575081 0.038803894 0.0054272767 0.019504339 -0.21728961
0.18920346 -0.09844484 0.18653242 -0.120147064 -0.13099559 0.03926718 -0.21184659 -0.32080352
0.12933144 0.033211503 0.19556059 -0.0860939 0.15430227 0.27422765 0.1625953 0.1877746
-0.18814403 0.18638955 0.085576646 0.13219462 -0.18476215 -0.17201751 -0.16902496 -0.20359315
-0.14585719 -0.0974561 -0.12285646 0.0972936 -0.09298857 0.096998006 0.13689812 0.20233704
-0.27163443 -0.03250274 -0.27961248 0.25992057 0.18362918 0.21329412 -0.15365641 0.14967036
-0.20156431 0.12707676 0.1171933 -0.050286576 0.09523532 -0.21337853 -0.13064049 0.06718929

R__3107 f4 [1, 384, 128]
00000000: ce4f 44bd bf7b 293e 4863 103e 61df 7d3d
00000010: df26 f8bc c7ee 533e f036 0ebe 59a7 c0be
00000020: 8be4 79be 295c 00be 6e70 663c 1605 43be
00000030: 24d2 913e 72b1 493e 6f76 13be c497 41be
00000040: 25c4 e83d 1f7f 483e 7535 85bd 3193 1f3e
00000050: 7589 26be 5e1e 373d 8672 693e d718 453d
00000060: aea9 203e 959f 833e 30d1 41be e210 503c
00000070: 4a7a f03d e2f4 853d 3412 82be 428f 473e
00000080: a889 153e bc2a 67be f8ff 6bbe 4e3f 8cbd
00000090: 2d6b 983d 0690 843d fe33 0cbd 28a2 a13c
000000a0: acd1 303e ecb1 5bbe 50ba 633c 793b e03d
000000b0: 354c 083e b440 6c3d 441d 3bbe dfc6 713d
000000c0: f712 33be dd56 923d b977 3dbe a288 36be
000000d0: 81a4 bc3d 3640 75be 2efd 9f3c e1f2 6c3d
000000e0: abdb d4bd 69b0 1fbb 8a23 b4bd a228 75be
000000f0: e301 a23e 825f a13c 19b0 7bbe c6d5 4e3e
00000100: 84b3 ea3d e2e9 163e 335e 14be c3c7 5bbc
00000110: f19a 0bbe af2e cc3d 7242 49bd 09c9 f63d
00000120: 95e6 39be 54e2 383e 7208 ca3d 2104 0ebe
00000130: d7c6 6cbd a5af 3cbd 3b17 a43c a895 e7bd
00000140: 011c d4bd 41d6 383e 8ccb 903e 2259 ea3d
00000150: 235b 17be f7e3 393e 3bd6 93be 9e98 5b3e
00000160: 0df7 7dbe 27d9 b8bd c883 9e3e 311e 843e
00000170: 863b 87bd 0060 f13d 9ad3 723d 333a 29be
00000180: 43a3 863b 6b25 5ebe 8fc9 a3be 89cd 3e3e
00000190: 3d3f 973e 5506 243e d754 b6bc 5467 9f3e
000001a0: 8240 f63d 9559 433e dd59 aebc 1168 223e
000001b0: 8249 e9ba 1826 54bd 48cc 01be eb17 9dbe
000001c0: 69be 983e 8086 28be d01e 05be 26cf 50ba
000001d0: 82f9 5d3e f0cd c4bc 1f39 08bd 13f5 8a3e
000001e0: 60d9 2dbe de13 473e a5d7 8dbc 9f09 3ebe
000001f0: f7a3 813e 2a06 253e abcd 9abc 3543 8abe
00000200: 8fff afbd a0bb 503e 07ad c53d d1eb 0a3d
00000210: 76b2 33bd 0ba7 ad3d e854 e0bc 9dc8 18be
00000220: e454 bbbd d5b3 83bd 7eb0 b0bd 8c92 11be
00000230: db87 783d 56aa 223e 165c 94bd 3fe8 29be
00000240: 164a 433b 379d ff3d e2d0 adbd 2ac7 263e
00000250: ac79 b2bd e65c ec3d 6d59 263e 061d 573d
00000260: b47a 653e 1128 2b3e 2950 0abe 69f0 ebbd
00000270: 0804 0e3e 5ed2 6a3e ec7a 5cbe 1731 493e
00000280: e84f a33d 6ee6 35be 87a4 f0bd 6123 08be
00000290: 956b a93d 53b6 75bd 1057 143e 906d eabd
000002a0: e51a 883d 032d 43be 3537 99bd b10e 68bb
000002b0: a9e3 a13d bef2 153e 535b 76be 1e46 4a3d
000002c0: 427e 95be 691e 83bd 7acc efbd b2f5 59bd
000002d0: 52e7 ab3d 0a69 1ebe 9a14 273c 1713 033d
000002e0: ac81 1fbe 5a78 3a3d 3ba9 4abb 297e 8dbd
000002f0: 42b0 ae3d 3ca7 393c 1242 24be 6847 1e3e
00000300: b6db 213e 4a63 383d bc60 41bc 8102 a83d
00000310: cfc8 17be 487f 813d b5f6 03be 2c8f db3d
00000320: ec8f 79be a5a1 443e 3887 733d a03a b3bd
00000330: d268 a5bd 8420 e33b cad6 3e3d 3563 e0bd
00000340: cdc0 7fbd ee4e 2c3e 7226 2e3e 8ba0 ec3d
00000350: 8d2a 49be 49e2 5e3e 2466 f2bd 58ee b73b
00000360: 671b 77be f22a c0bd ccbc 833e 78e4 303e
00000370: 343c aabc 2775 673d f216 bc3d 38ca 41be
00000380: 807d 2b38 5bbe b8bd d4e3 8abd 533a 093e
00000390: a011 1c3e 85f2 753c c666 10bd e6d0 423e
000003a0: 4c4f b43d 4a9d 6a3b 2253 54bd ba2b 543e
000003b0: a0eb f2bd 7df1 b9bd b5c0 91bc 0653 60be
000003c0: 0978 0c3d ef12 03be 160d 1fbe 4a49 a93d
000003d0: 6102 0a3e c581 aebd 9512 c2bc dc44 523e
000003e0: 890c 41be 32fa 8b3d ec1a cebc 1f73 9dbe
000003f0: 0feb 523e ce49 d23a 8fe5 66bb 4327 21be
-0.04792767 0.16551112 0.14100373 0.06198061 -0.030291973 0.20696555 -0.13888144 -0.37627676
-0.24403588 -0.12535156 0.014064891 -0.19044909 0.28480637 0.19696596 -0.14400648 -0.1890555
0.113655366 0.19579743 -0.06504337 0.15583493 -0.16263373 0.044706695 0.22797593 0.048119392
0.15689728 0.2570769 -0.18927455 0.012699338 0.11742075 0.06540848 -0.25404513 0.19488242
0.14603293 -0.22574896 -0.23046863 -0.06848012 0.07442317 0.06472783 -0.03422927 0.019730642
0.17267483 -0.2145459 0.013899401 0.109488435 0.1331032 0.057678893 -0.18272883 0.05902755
-0.17487703 0.07145474 -0.18502702 -0.17825559 0.09211064 -0.23950276 0.019529905 0.057848815
-0.10393461 -0.0024366623 -0.08795841 -0.23941281 0.31642064 0.019698862 -0.24578895 0.20198736
0.11460021 0.14737657 -0.14489059 -0.013414326 -0.13633324 0.09969842 -0.049135633 0.12050063
-0.18154366 0.18055087 0.09864892 -0.13868763 -0.057806816 -0.046065945 0.020030608 -0.113078415
-0.10356904 0.18050481 0.28280294 0.11442782 -0.1478086 0.18153368 -0.28874382 0.21444938
-0.24801274 -0.090257935 0.30959916 0.25804284 -0.0660315 0.11785889 0.05928383 -0.16526107
0.004108818 -0.21693961 -0.31989715 0.18633093 0.29540434 0.1601804 -0.022257252 0.3113352
0.12024023 0.19077142 -0.021283085 0.1586001 -0.0017798396 -0.05179414 -0.12675583 -0.3068231
0.2983277 -0.16457558 -0.13000035 -0.0007965438 0.21677211 -0.02402398 -0.0332576 0.27140102
-0.16977453 0.19441172 -0.017314741 -0.18558358 0.25320408 0.16115633 -0.018896898 -0.270044
-0.08593666 0.20384073 0.09652143 0.0339163 -0.043871365 0.084791265 -0.027384236 -0.14920278
-0.09147051 -0.064307846 -0.08627413 -0.1421606 0.060676437 0.1588529 -0.072441265 -0.16592501
0.0029798797 0.12481158 -0.08487107 0.16286913 -0.08714613 0.115411565 0.1624505 0.052517913
0.22410089 0.16714503 -0.13507141 -0.11520464 0.13868725 0.22931811 -0.21531266 0.19647633
0.07974225 -0.17763683 -0.11750131 -0.13294746 0.08272473 -0.05998833 0.14486337 -0.11446679
0.06645755 -0.1906014 -0.07481233 -0.0035409147 0.07904751 0.1464338 -0.24058275 0.049383275
-0.2919789 -0.06402285 -0.11708923 -0.05321283 0.0839373 -0.15469757 0.010197783 0.032000627
-0.1557681 0.045524932 -0.0030923623 -0.06908829 0.08529712 0.011331376 -0.16040829 0.15456927
0.1580647 0.045016564 -0.011802848 0.082036026 -0.14822696 0.06323105 -0.1288708 0.10720667
-0.24371308 0.19202287 0.059455127 -0.08751416 -0.080766335 0.0069313664 0.046591558 -0.10956422
-0.06243973 0.16826984 0.17006853 0.11554059 -0.19645138 0.21766008 -0.11835888 0.0056131296
-0.24131547 -0.09383191 0.25729978 0.17274654 -0.02078066 0.05650821 0.09184064 -0.18924797
4.0886458e-05 -0.090206824 -0.06781736 0.13401155 0.15241098 0.015011434 -0.035254262 0.19025001
0.08804187 0.0035799318 -0.051837094 0.20719805 -0.11861348 -0.09079263 -0.017792085 -0.21906671
0.034294162 -0.12800191 -0.15532336 0.08265932 0.1347747 -0.08520845 -0.023690501 0.2053408
-0.18852438 0.0683483 -0.025159322 -0.30751893 0.2059748 0.0016043724 -0.0035232042 -0.15737633

GRU/quant_dense_45/LastValueQuant/FakeQuantWithMinMaxVars__3095 f4 [32, 1]
00000000: 9597 3b3e 2470 a93d 9ef3 65bd 43b8 8f3e
00000010: 6497 80be 7221 c03e 497d 2f3e 2607 b4be
00000020: 7d14 753e 4121 853e 0291 b8be 52d9 d93c
00000030: 4eab 443e fccb 98be 2470 a9bd 662e 8b3e
00000040: f934 0ebe bba4 413b b248 97bd 9169 a6be
00000050: dc83 323e 289e bebe b4df a1be 2470 29be
00000060: 454f 9a3e 9300 b13e 662e 0bbe ea0d f23c
00000070: ea0d f2bd 2470 a93c d327 08be 101b 783e
0.18319543 0.08273342 -0.056140535 0.28070268 -0.25115502 0.37525517 0.17137636 -0.35161704
0.23933597 0.26001933 -0.36048132 0.026592884 0.19205973 -0.29843128 -0.08273342 0.27183837
-0.13887395 0.002954765 -0.073869124 -0.32502416 0.17433113 -0.3723004 -0.31615984 -0.16546685
0.30138603 0.3457075 -0.13591918 0.02954765 -0.1181906 0.020683356 -0.13296442 0.24229074

GRU/quant_dense_44/LastValueQuant/FakeQuantWithMinMaxVars__3094 f4 [32, 32]
00000000: 27fa a6be d150 643e 7ca4 97be 147f af3e
00000010: ab58 193e 8f1f 8f3d 606c 3bbe 0ac1 1cbe
00000020: 4cf0 95be c891 233c c891 a33c d150 643e
00000030: b517 dabb db0d 493e b517 5a3e 6929 203e
00000040: b517 dabc b517 5a3c b517 5a3b 6929 203e
00000050: c891 a33d 0104 38be 73e8 603e 8562 2a3e
00000060: 137e 81be 3a76 4c3d bed4 be3d b517 5abc
00000070: c891 233d a29a 863e 4333 b1bd 4333 b13e
00000080: 4cf0 153d ac5a f5bc 6929 20be d14e 08be
00000090: 98dd a1be c891 233e 56af 563e 72e6 843e
000000a0: a29a 86be 606c 3b3e 72e6 04be 1d3d 423e
000000b0: d14f b6be c893 7f3e 3a76 4cbe 3a76 4c3e
000000c0: bed3 90be 3a76 4c3d 0104 b8bd ee87 12be
000000d0: 8562 aa3d 6929 a03e 27fa a6be 30b9 673d
000000e0: a29b 343e 3a76 cc3d 0ac1 9c3d a29b 34be
000000f0: c893 7fbe 0103 8abe ac5a 75bd d14e 88bd
00000100: b517 da3d 137e 813e 8562 2a3e 137e 81be
00000110: db0c 9b3e 4333 313d 8f1f 8f3e 30b7 0bbe
00000120: 72e6 04be c893 7fbe e4ca 2dbe ab58 193e
00000130: 7ca5 c5bd d14e 083e d14e 88bc 3a76 4cbd
00000140: 8562 aa3d bed4 be3d 1d3d 42be ee87 12be
00000150: d14e 88bd c893 7fbe 99de 4fbe 7ca5 45be
00000160: 8562 aabd 72e6 04be 0103 8abe 0ac3 78be
00000170: ac5a 753d 27fa a63e 0ac1 9cbe 72e6 843e
00000180: 137e 013e 5f6b 8dbe 0103 8abe 4332 83be
00000190: b517 dabb 0ac1 1cbe 72e6 84be a29a 863e
000001a0: 0000 0000 8562 aa3d d14e 88be 6929 a0be
000001b0: c891 233c 0ac3 78be c893 7f3e c891 a33d
000001c0: 27fa 26be 7ca5 c5bd 7ca4 973e b517 5a3c
000001d0: 8f21 6bbe 8f1f 8fbd ee89 6ebe bed4 be3d
000001e0: 137e 813d 6929 203e b517 5a3d d14e 88bc
000001f0: c891 233e 692b fc3d 1d3d c2be bed4 be3d
00000200: 3a76 4c3e 692b fcbd 7ca5 c5bd 30b7 8bbe
00000210: c891 233c d14e 883d ac5a f5bd c891 a33c
00000220: e4ca 2dbe 4cf0 153e b517 da3c d14e 083d
00000230: d14e 08bd d150 643e 8562 aa3d f746 d33d
00000240: b517 5a3c 4df2 71be 4cf0 953d 8f21 6bbe
00000250: d14e 08bd ac5a 753e ab58 99be 8562 2a3e
00000260: ab58 193e 30b7 0bbe 6929 203e 3a76 4c3e
00000270: 72e6 043e d14e 883d 0ac1 1cbe d14e 083e
00000280: 72e6 843e bed4 be3e ac5a 753d d14f b63e
00000290: 3a76 4c3d 72e6 04be 72e7 b23e 137e 813d
000002a0: bed4 3e3d 73e8 e03d d14e 883d 30b7 0bbe
000002b0: 27fa 263e c891 233e 137e 01be c891 233d
000002c0: 3a76 4c3d 30b7 0b3e b517 5abc 8f1f 8f3e
000002d0: d150 64be 4cf0 953d 4cf0 15be b517 dabc
000002e0: 99de 4f3e 137e 01be bed4 bebc 4333 313e
000002f0: 30b7 8bbe 5f6b 8d3e 4df2 713e bed4 bebd
00000300: 0000 0000 c891 233d bed4 be3d 73e8 e03d
00000310: 8562 2a3e c893 7fbe 30b8 b9be c891 233d
00000320: 4cf0 95be 8f21 6b3e 137e 013e 4333 313e
00000330: ab58 19be 7ca5 c5bd 692b fcbd b517 da3d
00000340: db0d 49be 4cf0 153e db0d 49be 30b9 673d
00000350: 30b9 e73d 1d3d 423e d150 64be f746 d3bd
00000360: 72e6 043e 7ca5 45be 4cf0 15bd 72e6 84be
00000370: ac5a f5bd b517 5a3c 137e 813d 0ac1 9cbd
00000380: 1d3c 943e 8f20 bdbe ac5a f53c e4ca 2dbe
00000390: d14e 083e 3a75 9ebe 0ac1 9c3d 30b7 0b3e
000003a0: 6929 203e e4ca 2dbe b517 5a3c 99de 4fbe
000003b0: 30b9 e7bd d14e 88bd 99de 4f3e b517 5a3e
000003c0: ac5a f5bd 4df2 713e 8562 2abe 4cf0 15be
000003d0: 73e8 e0bd 3a75 9e3e bed4 bebc 8562 2abe
000003e0: ee89 6e3e 4cf0 153d ac5a f53d 56af 56be
000003f0: c891 23bc bed4 3e3d 56ae a83e 4333 b13d
-0.32612726 0.22296454 -0.2961768 0.3427664 0.1497523 0.06988441 -0.1830306 -0.15308014
-0.29284894 0.009983487 0.019966975 0.22296454 -0.006655658 0.19634192 0.21298106 0.15640797
-0.026622633 0.013311316 0.003327829 0.15640797 0.0798679 -0.17970277 0.21963672 0.16639145
-0.252915 0.049917437 0.09317921 -0.013311316 0.03993395 0.2628985 -0.086523555 0.34609422
0.036606118 -0.029950462 -0.15640797 -0.13311316 -0.31614375 0.1597358 0.20965323 0.25957066
-0.2628985 0.1830306 -0.12978533 0.18968625 -0.3560777 0.24958718 -0.19966975 0.19966975
-0.28286546 0.049917437 -0.08985139 -0.14309666 0.08319572 0.31281593 -0.32612726 0.056573093
0.17637494 0.099834874 0.07654007 -0.17637494 -0.24958718 -0.26955417 -0.059900925 -0.06655658
0.10649053 0.252915 0.16639145 -0.252915 0.30283245 0.043261778 0.27953765 -0.13644099
-0.12978533 -0.24958718 -0.16971928 0.1497523 -0.09650704 0.13311316 -0.016639145 -0.049917437
0.08319572 0.09317921 -0.18968625 -0.14309666 -0.06655658 -0.24958718 -0.20299758 -0.19301409
-0.08319572 -0.12978533 -0.26955417 -0.24293151 0.059900925 0.32612726 -0.30616027 0.25957066
0.1264575 -0.2762098 -0.26955417 -0.25624284 -0.006655658 -0.15308014 -0.25957066 0.2628985
0.0 0.08319572 -0.26622632 -0.31281593 0.009983487 -0.24293151 0.24958718 0.0798679
-0.16306363 -0.09650704 0.2961768 0.013311316 -0.2296202 -0.06988441 -0.23294804 0.09317921
0.06322875 0.15640797 0.053245265 -0.016639145 0.1597358 0.12312967 -0.3793725 0.09317921
0.19966975 -0.12312967 -0.09650704 -0.27288198 0.009983487 0.06655658 -0.11980185 0.019966975
-0.16971928 0.14642447 0.026622633 0.03327829 -0.03327829 0.22296454 0.08319572 0.1031627
0.013311316 -0.23627587 0.073212236 -0.2296202 -0.03327829 0.2396037 -0.2995046 0.16639145
0.1497523 -0.13644099 0.15640797 0.19966975 0.12978533 0.06655658 -0.15308014 0.13311316
0.25957066 0.37271684 0.059900925 0.3560777 0.049917437 -0.12978533 0.34942204 0.06322875
0.046589606 0.10981836 0.06655658 -0.13644099 0.16306363 0.1597358 -0.1264575 0.03993395
0.049917437 0.13644099 -0.013311316 0.27953765 -0.22296454 0.073212236 -0.14642447 -0.026622633
0.20299758 -0.1264575 -0.023294803 0.17304711 -0.27288198 0.2762098 0.23627587 -0.09317921
0.0 0.03993395 0.09317921 0.10981836 0.16639145 -0.24958718 -0.36273336 0.03993395
-0.29284894 0.2296202 0.1264575 0.17304711 -0.1497523 -0.09650704 -0.12312967 0.10649053
-0.19634192 0.14642447 -0.19634192 0.056573093 0.113146186 0.18968625 -0.22296454 -0.1031627
0.12978533 -0.19301409 -0.036606118 -0.25957066 -0.11980185 0.013311316 0.06322875 -0.07654007
0.28952113 -0.36938903 0.029950462 -0.16971928 0.13311316 -0.30948812 0.07654007 0.13644099
0.15640797 -0.16971928 0.013311316 -0.20299758 -0.113146186 -0.06655658 0.20299758 0.21298106
-0.11980185 0.23627587 -0.16639145 -0.14642447 -0.10981836 0.30948812 -0.023294803 -0.16639145
0.23294804 0.036606118 0.11980185 -0.20965323 -0.009983487 0.046589606 0.32945508 0.086523555

GRU/quant_dense_44/BiasAdd/ReadVariableOp:0 f4 [32]
00000000: 0a4d 683d eced bfbc 51af c6bd 742a 623d
00000010: b52e 84bd 0942 a73d 7910 003c ff79 1a3d
00000020: 0c23 b73b 9a20 383b d1ac bfbd 6140 3d3c
00000030: 793c 34bc 40de b4bd 04c7 68bd e47c 00bc
00000040: 6ea8 a5bd 3313 8bbd ee75 90bc eb02 cfbd
00000050: 13fe 363d 1069 e8bc 7ce1 d2bd a079 b6bb
00000060: 73df 213d a102 91bd 54ed bfbc 7f25 623d
00000070: a60a 97bc 83b8 f5bd b87a 91bd 4f51 f8bb
0.056714095 -0.02342888 -0.09701408 0.055216268 -0.06454221 0.08166892 0.007816427 0.037714
0.0055888947 0.0028095604 -0.09359134 0.011550994 -0.011000746 -0.08831453 -0.05683042 -0.007842276
-0.08088766 -0.06790771 -0.017634358 -0.101079784 0.044675898 -0.02837041 -0.10296914 -0.005568698
0.03951974 -0.070805795 -0.023428597 0.05521154 -0.018437695 -0.119980834 -0.07103485 -0.007578052

B__3135 f4 [1, 192]
00000000: 5a1a 49bb ec1b 09bd 461a 27bd 1b61 ba3d
00000010: a30b cebd fee6 fb3d 30de adbc 40e1 7f3d
00000020: 322c 603d 7558 15bd d472 22be ae33 f13d
00000030: c464 e83d 851b 293d 0a02 0ebe 9c2a 5a3d
00000040: 89db 56bc 0eb8 bebe 4946 143d e89c b23d
00000050: 56e5 a5bc ba56 93bc c71d e7bd e324 db3d
00000060: b925 b93d 83ed fa3d f4bf 4a3c 78c8 89be
00000070: bc5e 893c 8612 2d3c ac75 993d 4ae4 1a3e
00000080: dbe0 f7bc ae65 6c3b 7127 04be 6dc1 aebd
00000090: 252f d8bc 053f 02bc d7e9 89bd e1f5 313d
000000a0: 914f cbbd d593 5abd 45ab 793c 26ed c6bb
000000b0: 6a5d 8cbc 9ac2 8fbc 0baa 95bd e053 7f3d
000000c0: d43e d03c e4ad 12bb d1fe 5f3c 27f8 8abd
000000d0: 509b 60bd 5ad1 82bd b07a 4fbe e81e cfbd
000000e0: f65e d4bb b693 9b3d b81f 29bd 57ef 86bd
000000f0: e75e 6c3d cb0f 9bbc fc2d 63bd 581f 91bd
00000100: 9833 cbbd 2087 853d ee1f 2a3c 48ed f8ba
00000110: d635 0cbd 78b8 9dbd 37ee 91bc 808d b63c
00000120: 30a7 4a3d 5351 083e 75d2 89bc dcb3 123d
00000130: f2ca cd3c c2a8 fd3d f3df 8cbc 59e2 753d
00000140: 7363 1a3d 2c43 7abd 5492 da3c 08f5 e0bc
00000150: 7c5e a9bb 6a98 be3d d567 27bd c115 09bc
00000160: 2002 44bd 8b55 173d 1501 4a3d 3cb2 08bd
00000170: e2a9 453d 4502 b0bb 57cd 1fbb 4303 0ebd
00000180: 5a1a 49bb ec1b 09bd 461a 27bd 1b61 ba3d
00000190: a30b cebd fee6 fb3d 30de adbc 40e1 7f3d
000001a0: 322c 603d 7558 15bd d472 22be ae33 f13d
000001b0: c464 e83d 851b 293d 0a02 0ebe 9c2a 5a3d
000001c0: 89db 56bc 0eb8 bebe 4946 143d e89c b23d
000001d0: 56e5 a5bc ba56 93bc c71d e7bd e324 db3d
000001e0: b925 b93d 83ed fa3d f4bf 4a3c 78c8 89be
000001f0: bc5e 893c 8612 2d3c ac75 993d 4ae4 1a3e
00000200: dbe0 f7bc ae65 6c3b 7127 04be 6dc1 aebd
00000210: 252f d8bc 053f 02bc d7e9 89bd e1f5 313d
00000220: 914f cbbd d593 5abd 45ab 793c 26ed c6bb
00000230: 6a5d 8cbc 9ac2 8fbc 0baa 95bd e053 7f3d
00000240: d43e d03c e4ad 12bb d1fe 5f3c 27f8 8abd
00000250: 509b 60bd 5ad1 82bd b07a 4fbe e81e cfbd
00000260: f65e d4bb b693 9b3d b81f 29bd 57ef 86bd
00000270: e75e 6c3d cb0f 9bbc fc2d 63bd 581f 91bd
00000280: b285 c4bd 2aee 933d 32d5 393c d2e2 1dbc
00000290: 74ed babc 4746 a1bd b9ff a3bc ba44 a03c
000002a0: 5427 113d 0c20 053e 44ac 9abc e123 2a3d
000002b0: 0e2a 973c d4df f93d 150f d0bc fde0 6b3d
000002c0: c547 213d f259 78bd 3239 c13c 0377 f3bc
000002d0: 7fff 2ebc 99f8 bb3d 138b 2bbd e2a8 e2b9
000002e0: cb63 39bd 5495 043d 8439 653d f14a 06bd
000002f0: c0e2 373d 4c45 88bc faf4 45bb c417 0bbd
-0.0030685873 -0.033473894 -0.04079654 0.09100553 -0.10060813 0.12299918 -0.021224111 0.062470675
0.054729648 -0.036461312 -0.15864116 0.11777435 0.113473445 0.04128601 -0.13867965 0.05326329
-0.013113865 -0.37249798 0.03619984 0.08721334 -0.020250957 -0.01798569 -0.112849765 0.10700395
0.09040398 0.12252333 0.012374867 -0.26910758 0.016768806 0.010563498 0.07493147 0.15126148
-0.030258587 0.0036071348 -0.1290567 -0.08532987 -0.026389668 -0.007949595 -0.067340545 0.04344738
-0.099272855 -0.05336364 0.015238588 -0.0060707508 -0.017134387 -0.017548848 -0.07307824 0.06233585
0.025420584 -0.002238148 0.013671593 -0.067856126 -0.054835618 -0.06387587 -0.20261645 -0.10113317
-0.006481047 0.07596533 -0.041290015 -0.06588619 0.057707693 -0.01892843 -0.055463776 -0.070860565
-0.0992195 0.06519914 0.010383589 -0.0018991614 -0.03423103 -0.077012 -0.017813785 0.02228427
0.04947585 0.13312273 -0.016823987 0.03581606 0.025121186 0.123857036 -0.017196631 0.060030315
0.0376925 -0.061099216 0.026681103 -0.02746059 -0.005168734 0.093064144 -0.040870506 -0.008367003
-0.04785359 0.036946815 0.04931744 -0.033373103 0.048257716 -0.0053713643 -0.0024383867 -0.03467108
-0.0030685873 -0.033473894 -0.04079654 0.09100553 -0.10060813 0.12299918 -0.021224111 0.062470675
0.054729648 -0.036461312 -0.15864116 0.11777435 0.113473445 0.04128601 -0.13867965 0.05326329
-0.013113865 -0.37249798 0.03619984 0.08721334 -0.020250957 -0.01798569 -0.112849765 0.10700395
0.09040398 0.12252333 0.012374867 -0.26910758 0.016768806 0.010563498 0.07493147 0.15126148
-0.030258587 0.0036071348 -0.1290567 -0.08532987 -0.026389668 -0.007949595 -0.067340545 0.04344738
-0.099272855 -0.05336364 0.015238588 -0.0060707508 -0.017134387 -0.017548848 -0.07307824 0.06233585
0.025420584 -0.002238148 0.013671593 -0.067856126 -0.054835618 -0.06387587 -0.20261645 -0.10113317
-0.006481047 0.07596533 -0.041290015 -0.06588619 0.057707693 -0.01892843 -0.055463776 -0.070860565
-0.09595813 0.072231606 0.011342334 -0.009636598 -0.022818305 -0.078747325 -0.020019399 0.019564021
0.035437897 0.13000506 -0.01888097 0.041538123 0.01845267 0.12200895 -0.025397817 0.057587612
0.039375085 -0.060632654 0.023586843 -0.029719835 -0.010681032 0.091782756 -0.04188068 -0.00043231907
-0.045261186 0.032368973 0.055963054 -0.032786313 0.04489398 -0.016634606 -0.0030205832 -0.03395821
