models/station_1/model_latest.onnx (onnx, 407533 bytes, 12 tensors)

W__214 f4 [1, 96, 64]
-0.112378486 -0.105977565 -0.28338248 -0.003829714 0.021889025 0.24830513 0.16598113 0.17029339
-0.13633713 -0.045387812 0.1269674 0.09592015 0.10039554 -0.17968145 -0.16903435 0.15207566
0.17492257 -0.17432861 0.105571814 -0.10853863 0.162839 -0.20450164 -0.22528721 0.18729205
-0.15630157 -0.004749348 -0.23507288 -0.0523818 0.13606882 0.07188618 0.22596467 0.0901866
-0.022838429 -0.008024497 0.06904536 -0.11616092 -0.13281715 0.06247538 0.04670643 0.06723675
-0.1562455 0.02907013 -0.12863857 0.016414225 0.0882454 0.03924652 0.11575446 0.12395756
-0.073823564 -0.036268 0.040522553 0.11608381 0.05581633 0.0013798174 -0.0075749513 0.1467857
-0.14437298 0.1186832 0.13724239 -0.18358354 -0.041855466 0.13066387 -0.049505066 0.21601208
-0.011027156 -0.052423693 -0.060424488 -0.04229971 -0.090510145 0.04548091 0.11740156 0.0014814474
0.08422824 -0.07043603 -0.14111188 0.13426204 -0.046014562 0.15218942 0.030483862 0.16903245
-0.0074297674 -0.24106126 0.026491217 0.09814768 -0.09438256 0.09146227 0.23778836 -0.10321887
-0.007188961 -0.22665204 0.08034412 -0.188281 -0.31817904 -0.024676388 -0.10675739 -0.022540592
-0.12700659 0.030902253 -0.049084812 -0.06345458 0.009297817 -0.13406833 -0.10056287 -0.03993713
-0.07079866 0.11188319 -0.12973538 0.17324713 0.047745034 0.15358719 0.20921643 -0.0563925
0.039436992 -0.08119129 0.22889295 0.0769729 -0.15756619 -0.23117882 -0.27416676 0.1444211
-0.17483154 0.09372779 0.15402828 -0.08675533 -0.014088223 -0.060582966 -0.023013292 -0.08825201
-0.17653102 -0.20857896 -0.19777387 -0.112937704 0.17752083 0.076031 -0.076563485 0.03909306
-0.16802198 -0.18221216 0.20213777 -0.05448858 0.09189441 -0.11712868 -0.15036146 -0.118802935
0.045115843 -0.0595877 -0.058339298 -0.14661996 0.002528635 -0.2024433 -0.07433673 0.005893857
0.029486049 0.15783697 -0.07295489 0.07197449 -0.014036339 -0.07117368 0.02271587 0.17416157
0.0847912 0.15041429 -0.12146448 -0.22874828 -0.11432927 0.09486279 -0.17297812 0.13404098
0.018245215 -0.17197989 -0.013331177 0.025792459 0.12831053 -0.025297709 -0.21007071 0.055103496
-0.12913361 0.11099528 -0.046805322 0.010474288 0.06646341 -0.07191753 0.13191228 0.22049224
-0.04559795 -0.16186231 -0.11601728 -0.09043979 -0.009734253 -0.012436194 -0.27020556 0.23818198
-0.071215175 -0.15829112 -0.11207593 -0.16670603 0.011277539 -0.18830213 -0.053909067 0.12780423
-0.20734994 0.12476584 -0.1646916 0.046453577 0.035068497 -0.18702596 0.05578323 0.16931503
0.22002707 -0.072051935 -0.08124698 0.050455708 0.074280106 -0.23228076 0.097853124 -0.0113766445
0.24458088 -0.17881165 -0.068621375 -0.058331106 -0.21288328 -0.2056164 0.057213325 -0.01873517
-0.07752012 0.10572979 0.061531547 -0.042061586 -0.13538931 -0.024016315 -0.2942423 -0.021805828
0.2284159 -0.035154022 0.082709245 0.051467516 0.031373024 -0.2686598 -0.001244883 -0.09970427
-0.06999589 -0.06324245 -0.029928576 0.04044073 -0.056278918 0.0070284223 -0.21584493 -0.086835355
0.07644615 0.042726085 -0.026126394 0.15937626 0.2554058 -0.029063938 -0.23893015 0.09836823
00000000: b126 e6bd c40a d9bd 8217 91be f0fb 7abb
00000010: 9d50 b33c b343 7e3e f5f6 293e 6461 2e3e
00000020: f69b 0bbe 92e8 39bd be03 023e c971 c43d
00000030: 2d9c cd3d 6afe 37be 5717 2dbe b9b9 1b3e
00000040: e71e 333e 3383 32be 0936 d83d 8049 debd
00000050: 44bf 263e e168 51be b1b1 66be 7dc9 3f3e
00000060: 850d 20be 6ba0 9bbb f2b6 70be 4c8e 56bd
00000070: a055 0b3e 1039 933d 4863 673e c1b3 b83d
00000080: a817 bbbc 2e79 03bc a767 8d3d c7e5 edbd
00000090: 3801 08be 2fe6 7f3d 3e4f 3f3d 6cb3 893d
000000a0: d2fe 1fbe 7b24 ee3c d4b9 03be 2077 863c
000000b0: 01ba b43d f5c0 203d ad10 ed3d 76dd fd3d
000000c0: cf30 97bd c18d 14bd fafa 253d 59bd ed3d
000000d0: aa9f 643d fdda b43a 4c37 f8bb fe4e 163e
000000e0: 83d6 13be 2d10 f33d 4589 0c3e 53fd 3bbe
000000f0: a370 2bbd c0cc 053e d3c5 4abd 4532 5d3e
00000100: 3fab 34bc 3aba 56bd ab7f 77bd 7642 2dbd
00000110: 625d b9bd 314a 3a3d 3b70 f03d 202d c23a
00000120: db7f ac3d c440 90bd a27f 10be fd7b 093e
00000130: c479 3cbd 8bd7 1b3e 4bb9 f93c d816 2d3e
00000140: 6875 f3bb c3d8 76be 1c04 d93c a701 c93d
00000150: a54b c1bd 9250 bb3d cb7e 733e 6a64 d3bd
00000160: 6091 ebbb 7917 68be 758b a43d bccc 40be
00000170: 5de8 a2be 2326 cabc 9ea3 dabd 0ca7 b8bc
00000180: 040e 02be b926 fd3c 280d 49bd 7af4 81bd
00000190: df55 183c 3549 09be e8f3 cdbd 1e95 23bd
000001a0: e3fe 90bd 0423 e53d 5ad9 04be b267 313e
000001b0: 4c90 433d f645 1d3e d53c 563e d2fb 66bd
000001c0: af88 213d 9e47 a6bd ea62 6a3e f8a3 9d3d
000001d0: 0859 21be 24ba 6cbe 965f 8cbe 20e3 133e
000001e0: 0a07 33be 5bf4 bf3d 97b9 1d3e c7ac b1bd
000001f0: 4ad2 66bc d825 78bd 5f86 bcbc 78bd b4bd
00000200: 8cc4 34be b995 55be 3c85 4abe e24b e7bd
00000210: 05c8 353e 24b6 9b3d 51cd 9cbd 0b20 203d
00000220: f40d 2cbe d395 3abe 34fd 4e3e 6b2f 5fbd
00000230: 2333 bc3d 29e1 efbd 5bf8 19be f44e f3bd
00000240: 64cb 383d 3b12 74bd 30f5 6ebd 8b23 16be
00000250: 75b7 253b 4c4d 4fbe db3d 98bd 4221 c13b
00000260: ba8c f13c 04a0 213e 6069 95bd 5d67 933d
00000270: acf8 65bc 82c3 91bd a216 ba3c 6957 323e
00000280: 02a7 ad3d 3406 1a3e 5fc2 f8bd fd3c 6abe
00000290: 7725 eabd 6c47 c23d 2d21 31be 0a42 093e
000002a0: fd76 953c 7f1b 30be 026b 5abc b54a d33c
000002b0: d663 033e 243d cfbc c71c 57be 34b4 613d
000002c0: 9a3b 04be 7e51 e33d f0b6 3fbd 599c 2b3c
000002d0: f81d 883d 7f49 93bd 0314 073e b8c8 613e
000002e0: ebc4 3abd 3cbf 25be 789a edbd 7f38 b9bd
000002f0: 6b7c 1fbc 2ec1 4bbc 6258 8abe fae5 733e
00000300: 43d9 91bd 1117 22be 1188 e5bd fcb4 2abe
00000310: 6dc5 383c 46d2 40be c1cf 5cbd 1ddf 023e
00000320: 8b53 54be 3c85 ff3d eaa4 28be 1b46 3e3d
00000330: fca3 0f3d bc83 3fbe f57c 643d eb60 2d3e
00000340: c74e 613e f78f 93bd d164 a6bd a5aa 4e3d
00000350: 2b20 983d 02db 6dbe 3867 c83d 1b65 3abc
00000360: 6973 7a3e 671a 37be 5d89 8cbd 99ec 6ebd
00000370: 13fe 59be 1b8d 52be 8558 6a3d 807a 99bc
00000380: dec2 9ebd dc88 d83d 8108 7c3d c548 2cbd
00000390: 7fa3 0abe ddbd c4bc eda6 96be 23a2 b2bc
000003a0: dce5 693e aafd 0fbd 7763 a93d 9acf 523d
000003b0: 0081 003d c78d 89be 582b a3ba c131 ccbd
000003c0: 015a 8fbd 4285 81bd c62c f5bc 2ea5 253d
000003d0: b984 66bd ae4e e63b 7406 5dbe bcd6 b1bd
000003e0: cd8f 9c3d 8c01 2f3d 0507 d6bc 8833 233e
000003f0: 8dc4 823e 7f17 eebc 1baa 74be 4875 c93d

W__200 f4 [1, 192, 128]
1.085602e-05 0.05258907 -0.052138615 0.03756245 0.10682616 -0.0038097962 0.22742686 0.015486888
-0.10692835 0.12136555 -0.2409827 0.003024133 -0.24941014 -0.12925442 0.009474636 0.021257302
-0.03204134 0.008254338 -0.28039843 0.15883417 -0.16834371 0.1883763 -0.04825633 0.015878964
0.008255813 -0.15396792 -0.09213677 -0.03735826 -0.21518686 -0.014369619 0.062359408 -0.025144609
-0.051901687 0.11990252 -0.024932174 -0.12594175 0.07560138 -0.057819165 -0.07264529 -0.10753716
-0.11972052 0.23022242 0.11078022 0.010461366 0.013430108 -0.016115712 -0.08822601 0.019667473
-0.15843992 0.12651809 0.013979572 -0.123324074 0.02171513 -0.1584068 0.068696804 -0.1368094
-0.13334037 -0.24252342 0.09276188 0.06590304 0.08740873 -0.081608295 0.045434974 0.17887753
-0.14422692 0.1094221 -0.16939878 0.0048353425 -0.055282153 -0.108949386 -0.09364474 0.0020846631
0.19743338 -0.15065078 0.07439965 -0.11393081 -0.05150076 0.02614336 -0.027118338 -0.08314096
-0.08511483 -0.0429671 0.052033193 0.15268697 0.22957952 -0.1285394 0.072215326 0.1729113
-0.07199956 -0.09939936 -0.16168168 0.19355035 0.17186373 -0.14466633 -0.15739991 0.17027748
0.103593975 -0.20292543 0.024372773 0.103997506 -0.044130415 -0.21249318 0.18123594 -0.036615733
-0.004242682 -0.08191288 0.053110663 -0.052834034 -0.06458241 -0.14266632 0.08878364 -0.1545282
-0.044830617 0.0926846 -0.15285893 -0.046876416 0.034664933 -0.042503905 0.0051717805 -0.10747124
0.08275536 0.108164094 -0.012237167 0.089108706 -0.01755386 0.0019129405 0.07469515 -0.0022006636
-0.29239586 -0.18252362 -0.32032284 -0.20109612 -0.18157409 0.13367215 -0.174179 -0.12738533
0.30179352 0.20596433 0.21107064 -0.060631126 0.13005811 0.17415315 -0.104408406 -0.24993059
0.059597872 -0.11543378 0.20370705 -0.13978815 -0.031955086 -0.28307974 -0.069222674 0.10631562
0.1403768 -0.12312319 -0.08761213 -0.17395253 0.11465719 -0.13781568 0.0023017908 0.23805076
-0.13438298 -0.16998921 -0.15220171 -0.09483658 -0.05978025 0.1595978 0.21137112 -0.16452865
0.20137987 -0.1008971 0.22878549 0.18386891 -0.23567736 0.060977064 0.08565257 -0.06596171
-0.057841808 -0.15610377 0.18016943 0.035324037 -0.09666937 -0.01773852 -0.04218597 0.17687513
-0.07459541 0.37229228 0.13554423 -0.03508153 0.23379001 0.06727118 -0.1730911 -0.24229498
0.07627005 -0.05564177 0.1755052 0.23764324 -0.004602402 -0.09778386 -0.17328802 -0.1034174
-0.25455555 0.10906444 0.08142141 -0.03537925 0.09013441 0.102914415 -0.15467446 0.32114822
0.053494003 -0.14925693 -0.22102645 -0.123447925 -0.14630018 0.026735121 0.056396436 -0.15116584
0.17199898 0.060947783 0.2672613 -0.044669125 -0.13044421 0.10431555 0.16621974 -0.12777086
-0.16553102 0.07888518 -0.084047146 0.081210054 0.19596526 0.24759728 -0.04531925 -0.2163185
-0.26818928 -0.24383171 -0.10189237 0.09505759 -0.07032536 -0.37349916 -0.05127449 -0.12597193
0.016813075 -0.22397543 0.18925522 0.14722936 0.33915997 0.15225664 -0.25170797 0.29136804
-0.012310608 -0.0035519025 -0.07916886 -0.00022035732 0.13490862 0.06693609 -0.022435969 -0.26214847
00000000: 4022 3637 a367 573d 4d8f 55bd 15db 193d
00000010: acc7 da3d c6ad 79bb 96e2 683e b7bc 7d3c
00000020: 40fd dabd 808e f83d 2bc4 76be 8830 463b
00000030: 5f65 7fbe 455b 04be 813b 1b3c cb23 ae3c
00000040: c83d 03bd 343d 073c 6290 8fbe 6da5 223e
00000050: 4b62 2cbe b7e5 403e 6ea8 45bd 9a14 823c
00000060: 6443 073c c4a9 1dbe 34b2 bcbd fa04 19bd
00000070: f259 5cbe 8d6e 6bbc 946c 7f3d 11fc cdbc
00000080: dd96 54bd 748f f53d 8f3e ccbc e0f6 00be
00000090: e5d4 9a3d cad3 6cbd 0ec7 94bd 713c dcbd
000000a0: 0830 f5bd 6dbf 6b3e bde0 e23d 2666 2b3c
000000b0: f509 5c3c 1905 84bc d7af b4bd ae1d a13c
000000c0: 133e 22be f58d 013e 930a 653c 5591 fcbd
000000d0: eee3 b13c 6435 22be e9b0 8c3d c317 0cbe
000000e0: 618a 08be 0f58 78be f1f9 bd3d 2cf8 863d
000000f0: 5903 b33d 4022 a7bd 061a 3a3d ac2b 373e
00000100: 39b0 13be b218 e03d e076 2dbe cb71 9e3b
00000110: 8a6f 62bd db20 dfbd d0c8 bfbd d89e 083b
00000120: fa2b 4a3e 3344 1abe d85e 983d 8e54 e9bd
00000130: 76f2 52bd 9a2a d63c 4727 debc cf45 aabd
00000140: af50 aebd 45fe 2fbd c220 553d f959 1c3e
00000150: e516 6b3e d59f 03be a1e5 933d a90f 313e
00000160: 8174 93bd e491 cbbd e28f 25be 1032 463e
00000170: 0cfd 2f3e 6923 14be 712d 21be 385d 2e3e
00000180: 1429 d43d afcb 4fbe 69a9 c73c a5fc d43d
00000190: 18c2 34bd d097 59be ea95 393e 61fa 15bd
000001a0: 3206 8bbb f1c1 a7bd 918a 593d 8068 58bd
000001b0: c843 84bd 1f17 12be 32d4 b53d a43c 1ebe
000001c0: 4fa0 37bd 6cd1 bd3d 0d87 1cbe 7c01 40bd
000001d0: d1fc 0d3d 9318 2ebd 0a78 a93b e219 dcbd
000001e0: a47b a93d 2385 dd3d 667e 48bc a07e b63d
000001f0: 1dcd 8fbc a2bb fa3a c5f9 983d 0239 10bb
00000200: e9b4 95be 79e7 3abe 5b01 a4be 24ec 4dbe
00000210: 8fee 39be 5ae1 083e fb5b 32be 4d71 02be
00000220: ae84 9a3e 50e8 523e e722 583e 5858 78bd
00000230: f42d 053e 3455 323e 13d4 d5bd ceed 7fbe
00000240: e61c 743d 8c68 ecbd 9598 503e a024 0fbe
00000250: 56e3 02bd d4ef 90be 9ec4 8dbd 01bc d93d
00000260: f0be 0f3e 0328 fcbd fd6d b3bd 9d20 32be
00000270: 64d1 ea3d 8e1f 0dbe a4d9 163b 94c3 733e
00000280: b19b 09be a711 2ebe c4da 1bbe ae39 c2bd
00000290: 23dc 74bd 9b6d 233e ac71 583e 337a 28be
000002a0: 8636 4e3e 24a3 cebd be46 6a3e 2248 3c3e
000002b0: 6855 71be 16c3 793d 9d6a af3d ef16 87bd
000002c0: 88eb 6cbd abd9 1fbe 567e 383e f0af 103d
000002d0: 97fa c5bd 5f50 91bc 32cb 2cbd c11e 353e
000002e0: 7ac5 98bd 189d be3e 1bcc 0a3e a7b1 0fbd
000002f0: a666 6f3e 79c5 893d cb3e 31be 2d1c 78be
00000300: 7933 9c3d a0e8 63bd a3b7 333e c058 733e
00000310: bfcf 96bb e842 c8bd 6a72 31be 80cc d3bd
00000320: 1b55 82be 2d5d df3d 45c0 a63d d5e9 10bd
00000330: 6498 b83d cbc4 d23d fb62 1ebe 8a6d a43e
00000340: 871c 5b3d cfd6 18be c254 62be 44d2 fcbd
00000350: b7cf 15be 9d03 db3c f3ff 663d 38cb 1abe
00000360: 8020 303e 62a4 793d 79d6 883e f9f6 36bd
00000370: 2b93 05be 64a3 d53d 8235 2a3e 5dd6 02be
00000380: f780 29be 8e8e a13d e920 acbd 7551 a63d
00000390: 1eab 483e 248a 7d3e aea0 39bd 9982 5dbe
000003a0: 1b50 89be 05af 79be f2ac d0bd 8ead c23d
000003b0: be06 90bd 483b bfbe 3305 52bd c9fe 00be
000003c0: 93bb 893c d159 65be 1fcc 413e 4bc3 163e
000003d0: 60a6 ad3e 2ae9 1b3e dedf 80be 312e 953e
000003e0: 6fb2 49bc 09c7 68bb 4923 a2bd b80f 67b9
000003f0: 7c25 0a3e ca15 893d a3cb b7bc 5338 86be

W__187 f4 [1, 384, 6]
-0.21922453 -0.23032536 -0.27630186 -0.4024513 -0.43236867 -0.061198745 0.055257477 -0.27704898
-0.2175464 -0.1633415 -0.30470937 0.10135968 0.23686825 -0.020242149 0.072141424 0.21249099
0.15670528 0.19608623 0.28014293 0.003880403 0.1972756 0.10553871 0.09762827 0.13465443
0.09216925 -0.2438241 -0.20917258 -0.28923345 -0.4372866 -0.05493162 -0.08691695 -0.2955746
-0.09701059 -0.14070964 -0.1461127 -0.1210056 -0.12905282 -0.22995995 -0.18996762 0.028780058
-0.08844822 -0.1314618 0.07961624 0.2964702 0.37746942 0.30901247 0.38637543 -0.20138142
-0.07631358 0.010403037 -0.16759455 -0.0029747086 -0.052611973 -0.12630911 -0.017674211 -0.3653144
-0.38779995 -0.37298825 -0.22884722 0.07591892 0.023868917 0.10375122 0.22884957 0.10911785
-0.043387022 -0.059206452 -0.09769503 -0.42555815 -0.40123156 -0.3221387 -0.35853407 0.0229652
-0.27756372 -0.4360657 -0.34557682 -0.25154358 -0.44493997 -0.039530564 -0.13666229 -0.47357616
-0.42159885 -0.32921654 -0.2175634 0.09671992 0.18023853 0.113039196 0.119680695 0.15158576
0.13308087 0.101969264 -0.15228912 0.11006221 0.057991073 0.10235643 0.030463535 -0.08930141
0.087237164 0.055660564 0.064545475 0.10888725 0.12811345 0.20414469 -0.05281232 -0.35755187
-0.0041130325 -0.024474742 -0.19014977 0.07175045 -0.1398759 -0.08542415 -0.19239971 -0.059854213
-0.30831692 0.05420119 -0.19364554 -0.23436147 -0.26314923 -0.29567274 -0.31725112 -0.0074589597
-0.35373858 -0.39533913 -0.23900704 -0.26487035 -0.23208898 -0.049582366 -0.28794247 -0.26321417
-0.2883293 -0.17841642 -0.36956933 -0.040879324 -0.0448941 -0.36202374 -0.14040868 -0.29593274
-0.3711957 0.08233921 0.22274844 0.019841395 0.004052345 0.15720856 0.16888086 0.33342677
0.17984302 0.08396718 0.090722054 0.07415335 0.1575278 0.062180962 -0.15533897 -0.2759381
-0.20165251 -0.33248723 -0.3311953 0.081954 -0.18970156 -0.23174255 -0.22798245 -0.3477723
-0.24613325 0.031683054 0.117201105 0.24885263 -0.0011803535 0.18722305 0.14485694 0.10076412
0.27959713 0.08597006 0.23537757 0.07746538 0.19483644 0.010259534 -0.34681922 -0.3422493
-0.31905097 -0.41490555 -0.17270122 -0.0005641674 -0.044004627 -0.04504289 -0.1141329 0.061304666
-0.18293332 -0.009723296 0.030068958 -0.27385336 0.059352376 0.043193936 -0.23054971 -0.011429841
0.23628476 0.19037533 0.2403648 0.38454467 0.13091658 -0.07296057 0.19413538 0.17975238
0.336341 0.30548635 0.2477708 0.034108393 0.08202754 -0.14042279 -0.020546664 -0.18410867
-0.2920027 -0.20567265 0.084769286 -0.07260968 -0.065904014 0.07143236 -0.18279801 0.07426432
-0.16050066 -0.14900783 -0.19532728 -0.24349687 -0.086581066 -0.024166442 0.19617759 0.25179276
0.3161232 0.1080363 0.22427523 -0.0814027 -0.09553334 -0.21196583 -0.3129675 -0.28204456
-0.25683472 0.045669142 0.13623081 -0.1279309 0.07316791 -0.1433282 -0.16536625 0.051620416
-0.1582293 -0.30924892 -0.2477399 -0.3803936 -0.23443401 0.0041665137 -0.06401391 -0.26133576
-0.028449781 -0.09276251 -0.30767387 -0.119680285 -0.016228486 -0.19361997 -0.08570175 -0.13787784
00000000: 657c 60be 69da 6bbe 7077 8dbe 190e cebe
00000010: 6d5f ddbe 89ab 7abd aa55 623d 5dd9 8dbe
00000020: 7cc4 5ebe ff42 27be de02 9cbe aa95 cf3d
00000030: 978d 723e ddd2 a5bc e2be 933d 3d97 593e
00000040: 5977 203e d4ca 483e e56e 8f3e 5c4e 7e3b
00000050: 9d02 4a3e ae24 d83d 55f1 c73d dae2 093e
00000060: 3bc3 bc3d 06ad 79be 5631 56be 6816 94be
00000070: 07e4 dfbe faff 60bd 8401 b2bd 8e55 97be
00000080: 7dad c6bd 3016 10be 919e 15be c9d1 f7bd
00000090: 6c26 04be 9f7a 6bbe df86 42be 28c4 eb3c
000000a0: 5724 b5bd ec9d 06be d70d a33d f1ca 973e
000000b0: ac43 c13e e236 9e3e 00d3 c53e ee36 4ebe
000000c0: 4b4a 9cbd 8071 2a3c e89d 2bbe 54f3 42bb
000000d0: a77f 57bd 2d57 01be 82c9 90bc 7d0a bbbe
000000e0: b78d c6be 51f8 bebe ed56 6abe 617b 9b3d
000000f0: bf88 c33c 857b d43d 8b57 6a3e 2e79 df3d
00000100: 97b6 31bd 7782 72bd 5514 c8bd c2e2 d9be
00000110: 396e cdbe 5def a4be c791 b7be 8421 bc3c
00000120: d51c 8ebe 0144 dfbe 72ef b0be 52ca 80be
00000130: 2ccf e3be cdea 21bd 33f1 0bbe 9378 f2be
00000140: cedb d7be 128f a8be f1c8 5ebe 1815 c63d
00000150: 7390 383e 1881 e73d 271b f53d 4c39 1b3e
00000160: 5a46 083e 43d5 d03d aef1 1bbe 4c68 e13d
00000170: 0c88 6d3d 3fa0 d13d aa8e f93c a8e3 b6bd
00000180: 66a9 b23d 55fc 633d 6b30 843d 4700 df3d
00000190: 2c30 033e 4e0b 513e bb51 58bd 0a11 b7be
000001a0: 9ec6 86bb 417f c8bc 9fb6 42be e6f1 923d
000001b0: a13b 0fbe dbf2 aebd 6e04 45be b129 75bd
000001c0: b7db 9dbe 1102 5e3d 044b 46be 74fc 6fbe
000001d0: 7fbb 86be 6b62 97be bd6e a2be 4a6a f4bb
000001e0: 391d b5be e469 cabe 43be 74be 169d 87be
000001f0: bca8 6dbe e116 4bbd 326d 93be 02c4 86be
00000200: e69f 93be cbb2 36be 3138 bdbe 1471 27bd
00000210: e0e2 37bd 2d5b b9be 4bc7 0fbe 7f84 97be
00000220: 5d0d bebe 76a1 a83d 2b18 643e 6c8a a23c
00000230: 89c9 843b 48fb 203e 1bef 2c3e eab6 aa3e
00000240: c528 383e fcf6 ab3d 7ccc b93d b6dd 973d
00000250: f84e 213e 77b1 7e3d 2e11 1fbe c247 8dbe
00000260: ff7d 4ebe c43b aabe 6e92 a9be 80d7 a73d
00000270: 2041 42be eb4d 6dbe 3b74 69be 360f b2be
00000280: 5b0a 7cbe 17c6 013d 2207 f03d 39d3 7e3e
00000290: 17b6 9aba 66b7 3f3e 6155 143e 6b5d ce3d
000002a0: 5b27 8f3e 1211 b03d d106 713e 2ba6 9e3d
000002b0: 3483 473e 9b17 283c 4a92 b1be 4d3b afbe
000002c0: a65a a3be 806e d4be 97d8 30be a2e4 13ba
000002d0: 323e 34bd e57e 38bd 83be e9bd 9a1a 7b3d
000002e0: df52 3bbe 764e 1fbc 2d53 f63c 8236 8cbe
000002f0: 7a1b 733d 20ec 303d 3915 6cbe 3a44 3bbc
00000300: a2f4 713e c0f1 423e 3122 763e 0ae3 c43e
00000310: ff0e 063e 5a6c 95bd 6dcb 463e 0211 383e
00000320: e334 ac3e b568 9c3e a1b7 7d3e 3eb5 0b3d
00000330: 0efe a73d feca 0fbe 7a51 a8bc fc86 3cbe
00000340: 6181 95be da9b 52be 859b ad3d 62b4 94bd
00000350: aff8 86bd 214b 923d 672f 3bbe e417 983d
00000360: 495a 24be 8295 18be e003 48be 3e57 79be
00000370: 6a51 b1bd b4f8 c5bc c7e2 483e fbea 803e
00000380: e6da a13e 2342 dd3d 68a8 653e 75b6 a6bd
00000390: fca6 c3bd 920d 59be 473d a0be 2568 90be
000003a0: d77f 83be 910f 3b3d 1780 0b3e 5100 03be
000003b0: 0fd9 953d a1c4 12be c555 29be ee6f 533d
000003c0: dd06 22be e055 9ebe 87af 7dbe f3c2 c2be
000003d0: 780f 70be 4087 883b ba19 83bd cdcd 85be
000003e0: 840f e9bc 45fa bdbd 6e87 9dbe f01a f5bd
000003f0: 9af1 84bc 5044 46be 6684 afbd d92f 0dbe

R__215 f4 [1, 96, 32]
-0.11277632 -0.034201555 -0.048779856 -0.11382908 -0.064278275 0.006031236 0.15936473 0.27316126
-0.05772616 0.12511306 0.06276668 -0.08523197 0.018220158 0.12579086 0.026595555 -0.089828975
-0.22969532 0.1625899 -0.2690853 -0.027786013 0.12316321 -0.060169395 0.0032360496 0.096008934
-0.14528154 -0.2558263 0.1644215 -0.09431612 0.0826155 0.1474308 -0.018466612 0.10897297
-0.08345177 0.001684226 -0.1687539 0.063177936 -0.11482767 0.09587371 -0.12466706 -0.01759036
-0.058596764 0.14884147 0.104924746 -0.17705685 -0.13172124 -0.013947851 -0.11164186 -0.15326346
0.0027042995 -0.18406285 0.0014920989 0.06843415 -0.15116687 -0.007126677 0.01575484 -0.03445269
0.022863341 0.0029143044 -0.050635155 -0.0062548015 -0.10654829 -0.0012306003 -0.33022013 -0.1356496
0.0012577882 0.030973775 -0.058419302 0.054091908 -0.06978088 -0.17030708 0.022936136 -0.078231275
0.31108272 -0.025835102 -0.031456217 -0.04176786 -0.0356787 0.24019347 0.061100245 -0.18276542
-0.29886654 0.099937476 0.1020583 -0.019760413 -0.11924104 -0.022232596 -0.039001744 -0.058562353
-0.19251023 -0.09349636 0.06908929 -0.10086699 -0.015276675 -0.2660699 -0.06418792 -0.04678575
-0.03505006 -0.15269554 -0.142227 0.17067437 -0.09690262 0.16356845 -0.06222961 -0.19692835
0.19691396 -0.16829757 0.06335065 0.014619758 -0.1287403 0.123725764 -0.046284847 -0.07031487
0.20337683 0.059641983 -0.16079251 0.06638725 -0.052325625 0.13821362 -0.051620174 -0.17523338
-0.020234488 -0.09132193 -0.15509231 0.15919226 -0.07651758 -0.1423291 -0.023427332 -0.2156969
0.013357846 0.055984404 -0.03173528 0.06711589 -0.26095635 0.060965903 -0.1340559 -0.031933922
-0.15332201 0.20386489 -0.22977583 -0.11556757 -0.20995896 -0.19303976 -0.08541286 -0.25443277
0.17355244 -0.20443615 -0.20940775 0.06942077 0.09352228 0.20678464 0.17849241 -0.18229575
0.10277483 0.2190042 -0.1946039 0.17264828 -0.04952476 -0.385989 -0.056607928 0.0053137457
0.19790617 -0.067093 -0.06659513 0.011719107 0.071781926 -0.012676865 -0.1312746 0.05872794
0.10881574 0.12617603 -0.15975744 0.059965283 -0.170002 0.042044774 -0.31890705 -0.12838012
-0.0028379334 0.020515531 -0.10228279 0.05619226 0.09943791 0.16113006 -0.07744969 -0.15230565
0.025350325 -0.08700834 -0.10894496 0.1380859 -0.1267954 -0.20270441 -0.038793337 -0.38032767
-0.23591283 -0.17117786 0.30246237 0.1867751 -0.04034821 0.033448122 0.18398818 0.17579456
0.24918003 -0.16571805 0.21091197 0.037449867 0.036673408 0.30429453 0.39703912 0.097194746
-0.13530475 0.06615223 0.16311371 -0.13317022 -0.24282849 -0.24152201 -0.24347141 0.25019172
-0.19089173 0.037004717 -0.023768371 -0.36227244 0.004181984 0.13524507 0.20145312 0.18858896
0.1455708 0.056951996 0.11398747 0.09082695 0.026662085 -0.16335931 0.011879323 -0.0137840975
0.1538141 -0.07109353 0.15703793 -0.02504009 0.22082251 0.32441756 0.27966192 0.15588127
-0.11280355 0.1409174 0.3583823 -0.15037186 -0.05664002 -0.27722675 -0.021621102 0.18982698
-0.32517326 -0.10055989 0.22522311 -0.07371307 0.027318241 0.21917672 0.17034194 0.19566014
00000000: 45f7 e6bd ee16 0cbd 63cd 47bd 381f e9bd
00000010: 54a4 83bd ada1 c53b 8230 233e cbdb 8b3e
00000020: 4472 6cbd a31d 003e d18b 803d 198e aebd
00000030: 7142 953c 52cf 003e ecde d93c 41f8 b7bd
00000040: 4035 6bbe f77d 263e 8cc5 89be 7e9f e3bc
00000050: fe3c fc3d 2f74 76bd e713 543b 55a0 c43d
00000060: afc4 14be aafb 82be 1c5e 283e cf28 c1bd
00000070: 5132 a93d 1af8 163e 4b47 97bc 382d df3d
00000080: c3e8 aabd 3fc1 dc3a d3cd 2cbe 6f63 813d
00000090: c52a ebbd 7059 c43d 7251 ffbd a919 90bc
000000a0: 2903 70bd e669 183e c9e2 d63d 644e 35be
000000b0: efe1 06be 8785 64bc 7da4 e4bd 19f1 1cbe
000000c0: 9e3a 313b f97a 3cbe 8892 c33a 3427 8c3d
000000d0: 7dcb 1abe e686 e9bb 4b10 813c 441e 0dbd
000000e0: e74b bb3c eafd 3e3b cf66 4fbd 14f5 ccbb
000000f0: fd35 dabd 184c a1ba 9d12 a9be bbe7 0abe
00000100: 5edc a43a b7bc fd3c 1449 6fbd 7a8f 5d3d
00000110: 47e9 8ebd fb64 2ebe 90e4 bb3c b837 a0bd
00000120: 3c46 9f3e 23a4 d3bc 3cd8 00bd c714 2bbd
00000130: d423 12bd 47f5 753e 4044 7a3d dc26 3bbe
00000140: 0905 99be 05ac cc3d f103 d13d 97e0 a1bc
00000150: a534 f4bd 2221 b6bc 4bc0 1fbd 14df 6fbd
00000160: 6721 45be 057b bfbd b07e 8d3d 5a93 cebd
00000170: 054b 7abc 503a 88be f574 83bd 6aa2 3fbd
00000180: a790 0fbd 385c 1cbe f4a3 11be 43c5 2e3e
00000190: e174 c6bd 7d7e 273e 7ae4 7ebd 96a7 49be
000001a0: d0a3 493e 3356 2cbe fcbd 813d b687 6f3c
000001b0: 7fd4 03be ef63 fd3d 2e95 3dbd 3e01 90bd
000001c0: 0442 503e 274b 743d cba6 24be 0af6 873d
000001d0: 6553 56bd df87 0d3e ad6f 53bd 6170 33be
000001e0: ccc2 a5bc fe06 bbbd 85d0 1ebe 4c03 233e
000001f0: 40b5 9cbd b8be 11be adea bfbc a6df 5cbe
00000200: deda 5a3c e74f 653d dafc 01bd 0e74 893d
00000210: 129c 85be 62b7 793d f345 09be 25cd 02bd
00000220: 7200 1dbe f5c1 503e 5b4a 6bbe b1ae ecbd
00000230: 7bff 56be 37ac 45be f0ec aebd 0345 82be
00000240: bbb7 313e b657 51be fc6e 56be 7a2c 8e3d
00000250: 9c88 bf3d 5abf 533e b7c6 363e bdab 3abe
00000260: 9c7b d23d a342 603e 3f46 47be b6ca 303e
00000270: 7ada 4abd 5aa0 c5be b7dd 67bd ee1e ae3b
00000280: eaa7 4a3e 0e68 89bd 0763 88bd 7f01 403c
00000290: 6702 933d a0b2 4fbc d96c 06be b58c 703d
000002a0: c9da de3d 4a34 013e 7497 23be 289e 753d
000002b0: 0115 2ebe 2437 2c3d c947 a3be 1476 03be
000002c0: 9ffc 39bb 3010 a83c a479 d1bd db29 663d
000002d0: 1aa6 cb3d 47ff 243e f19d 9ebd 03f6 1bbe
000002e0: 7cab cf3c 6e31 b2bd 891e dfbd 6466 0d3e
000002f0: a7d6 01be bf91 4fbe c3e5 1ebd 4fba c2be
00000300: 2293 71be 4049 2fbe 59dc 9a3e f941 3f3e
00000310: 2a44 25bd e600 093d 6667 3c3e 7d03 343e
00000320: 0d29 7f3e feb1 29be 4ff9 573e 0865 193d
00000330: db36 163d 7ecc 9b3e b648 cb3e 0a0e c73d
00000340: 548d 0abe d27a 873d 4807 273e c65d 08be
00000350: 08a8 78be 8c51 77be 9250 79be 2119 803e
00000360: 1f79 43be 4292 173d e3b5 c2bc c67b b9be
00000370: 0609 893b af7d 0a3e ba49 4e3e 771d 413e
00000380: 8310 153e 7f46 693d 4372 e93d 7b03 ba3d
00000390: 726a da3c aa47 27be 7ea1 423c b2d6 61bc
000003a0: 7281 1d3e 7c99 91bd 8dce 203e e020 cdbc
000003b0: 4c1f 623e 0f1a a63e d92f 8f3e 579f 1f3e
000003c0: 8c05 e7bd a74c 103e e37d b73e 15fb 19be
000003d0: 5eff 67bd aaf0 8dbe bd1e b1bc 0162 423e
000003e0: 1c7d a6be 58f2 cdbd e3a0 663e e1f6 96bd
000003f0: 81ca df3c dd6f 603e 1e6e 2e3e 225b 483e

R__201 f4 [1, 192, 64]
0.033199325 -0.13956876 0.030817606 -0.009664389 -0.05535975 -0.16815774 0.18648067 -0.008941679
-0.037617095 0.001268032 -0.0011405381 -0.031714324 -0.05142656 0.012830775 0.06740973 0.036020257
-0.116583504 -0.08939306 -0.0584952 0.1027922 0.12074529 0.062544025 0.13930619 -0.09262615
0.28176647 0.11050018 0.08116255 0.17802212 0.02143661 -0.033990145 -0.2390677 -0.01870424
-0.1301144 -0.20834836 -0.022376517 -0.08215924 -0.11374696 0.050357692 -0.041615725 0.06460835
-0.058467276 0.004869611 -0.1293639 -0.09070761 -0.01625145 -0.09354586 0.04921242 0.09382017
-0.014299104 0.13471797 0.020780748 0.14439487 -0.0028343834 0.011682501 -0.24285644 0.017421223
-0.09205896 0.14190641 0.100636706 0.036916193 0.1250208 -0.06661347 0.20438313 -0.07486678
0.10340473 0.12457744 -0.036256272 -0.1293773 0.18584807 0.025481345 -0.13758337 0.24161223
0.02351748 -0.19849144 -0.01079711 0.26656005 0.001461715 -0.15025474 -0.1938153 -0.14004952
-0.056916114 0.23083751 0.046859108 -0.41596586 -0.10458256 0.003515231 -0.22132237 0.0982618
-0.20064458 -0.0122891385 -0.021070704 -0.12500563 0.063897565 -0.0060558957 -0.07836206 0.18898636
0.29575828 0.08092575 0.0037358995 -0.094324246 0.2137711 0.1899715 0.22960445 -0.111315906
-0.04000556 0.07582659 0.1324503 0.08121603 0.13076733 0.12594402 -0.12735453 -0.02733554
-0.06877773 -0.07498107 0.022387788 -0.054961666 0.22912258 0.30403024 0.11849714 -0.06004563
-0.16863905 -0.12930037 -0.10493131 0.09644722 -0.18560177 0.0709907 0.08017086 0.090807535
-0.029780157 0.19690618 0.035139408 -0.16904505 -0.28698707 0.16793793 -0.042258218 0.0144571345
0.119596474 -0.097935244 0.17548858 0.11825476 0.04209018 0.06363879 -0.058627915 -0.08719917
-0.13732001 -0.07059836 0.13142401 -0.17773911 -0.17980975 0.25012067 0.08099323 0.027447753
0.058799963 0.015081411 0.092369065 0.092634276 0.26228082 -0.022351474 -0.22958341 0.21144241
-0.0003296642 0.1298213 -0.054700676 -0.045168646 0.07813138 0.05354412 0.25221595 -0.15584971
-0.37717435 0.2259731 -0.055618845 -0.17858951 0.0496632 0.12457039 0.03932573 0.18293044
-0.06155553 -0.15656047 -0.01924854 -0.08005857 0.10729964 0.07961265 -0.002474715 0.101686195
-0.052177943 -0.18989247 -0.24106029 0.06599899 -0.032322973 0.06655596 0.0038610687 0.058306262
0.085699216 -0.031325933 -0.09567078 0.056554794 0.12526225 -0.062021296 0.042551473 -0.22651304
0.19414647 0.073800676 0.046064317 -0.1432095 -0.1355868 0.103633486 0.07539707 0.08230509
-0.021106578 -0.25980183 -0.022384627 -0.016302532 0.12955129 0.04145359 0.1490525 -0.15873723
0.05086983 0.1473399 -0.027146544 0.11785804 0.03759794 -0.03461326 -0.01641089 -0.1409706
-0.05475113 -0.054768197 -0.047152974 -0.10261557 -0.11722696 0.14632937 -0.08384395 0.06071441
0.09030531 0.09644248 -0.2047055 -0.024230774 -0.12356779 -0.04127777 -0.090642445 0.097697
0.12729329 -0.07255183 -0.17703842 0.08052229 -0.096454926 -0.15664098 -0.060897667 0.0041346
-0.21841492 0.19861278 0.08940996 0.075755164 -0.049693603 -0.020607775 0.12393206 -0.072505884
00000000: 04fc 073d 1deb 0ebe 3475 fc3c 6357 1ebc
00000010: e8c0 62bd 8b31 2cbe caf4 3e3e 1f80 12bc
00000020: 6214 1abd 1834 a63a 1c7e 95ba e1e6 01bd
00000030: a8a4 52bd 2c38 523c 1d0e 8a3d fa89 133d
00000040: 55c3 eebd b513 b7bd aa98 6fbd b884 d23d
00000050: 4e49 f73d 1517 803d 48a6 0e3e c7b2 bdbd
00000060: b243 903e eb4d e23d 8d38 a63d 6e4b 363e
00000070: d49b af3c 4039 0bbd 2ace 74be a239 99bc
00000080: b63c 05be 4659 55be f54e b7bc 1b43 a8bd
00000090: 2bf4 e8bd de43 4e3d 4075 2abd 6251 843d
000000a0: 627b 6fbd 4291 9f3b f877 04be e9c4 b9bd
000000b0: c321 85bc f994 bfbd f692 493d ca24 c03d
000000c0: ca46 6abc 82f3 093e 633c aa3c 40dc 133e
000000d0: 10c1 39bb f667 3f3c 5caf 78be f4b6 8e3c
000000e0: 6889 bcbd ea4f 113e 9e1a ce3d 6f35 173d
000000f0: 7405 003e a56c 88bd d049 513e c153 99bd
00000100: dcc5 d33d 7522 ff3d 7581 14bd 7c7b 04be
00000110: f54e 3e3e 41be d03c a8e2 0cbe 3269 773e
00000120: bba7 c03c 5741 4bbe 5de6 30bc 8f7a 883e
00000130: 0497 bf3a 61dc 19be 8577 46be 2469 0fbe
00000140: df20 69bd ab60 6c3e 56ef 3f3d 7af9 d4be
00000150: 622f d6bd ca5f 663b 55a2 62be 7c3d c93d
00000160: c675 4dbe 6258 49bc 789c acbc 7a01 00be
00000170: badc 823d 8970 c6bb 4a7c a0bd a485 413e
00000180: a16d 973e 66bc a53d fed5 743b 122d c1bd
00000190: d0e6 5a3e e487 423e 6e1d 6b3e 98f9 e3bd
000001a0: dfdc 23bd f94a 9b3d 0da1 073e 9754 a63d
000001b0: dfe7 053e 78f7 003e 3a69 02be c8ee dfbc
000001c0: 57db 8cbd ad8f 99bd 9866 b73c 7c1f 61bd
000001d0: 1c9f 6a3e daa9 9b3e a1ae f23d 68f2 75bd
000001e0: b7af 2cbe 5167 04be 3ae6 d6bd 1f86 c53d
000001f0: 640e 3ebe 9263 913d 9f30 a43d 4df9 b93d
00000200: 84f5 f3bc c6a1 493e 57ee 0f3d 251a 2dbe
00000210: f8ef 92be ecf7 2b3e f416 2dbd 9edd 6c3c
00000220: ffee f43d 4692 c8bd 47b3 333e 8d2f f23d
00000230: c166 2c3d 0e55 823d d323 70bd 7a95 b2bd
00000240: 9e9d 0cbe df95 90bd 0494 063e 3e01 36be
00000250: 0c20 38be d10f 803e c7df a53d 1cda e03c
00000260: 3bd8 703d 0618 773c fe2b bd3d 0ab7 bd3d
00000270: ac49 863e 701a b7bc ea17 6bbe 5c84 583e
00000280: c8d6 acb9 e0ef 043e d10d 60bd c202 39bd
00000290: 5803 a03d 1451 5b3d 7322 813e 1197 1fbe
000002a0: ff1c c1be 7e65 673e 96d0 63bd 2be0 36be
000002b0: a46b 4b3d c31e ff3d 0414 213d 1e52 3b3e
000002c0: a721 7cbd 6351 20be 1daf 9dbc bff5 a3bd
000002d0: eabf db3d f50b a33d d42e 22bb da40 d03d
000002e0: 8ab8 55bd 2c73 42be 82d8 76be 7a2a 873d
000002f0: 1865 04bd 7e4e 883d fc09 7d3b 8cd2 6e3d
00000300: 1283 af3d 9f4f 00bd 0bef c3bd 00a6 673d
00000310: bf44 003e 0b0a 7ebd 744a 2e3d 09f3 67be
00000320: 55ce 463e cf24 973d f0ad 3c3d 83a5 12be
00000330: 44d7 0abe cb3d d43d c769 9a3d 928f a83d
00000340: b4e7 acbc bf04 85be f75f b7bc e38c 85bc
00000350: 18a9 043e 3dcb 293d 38a1 183e 038c 22be
00000360: e25c 503d 45e0 163e 6e62 debc 8e5f f13d
00000370: 4c00 1a3d a2c6 0dbd 2170 86bc 995a 10be
00000380: b942 60bd 9e54 60bd 7a23 41bd 1d28 d2bd
00000390: b014 f0bd 5ed7 153e 60b6 abbd acaf 783d
000003a0: fef1 b83d a383 c53d 529e 51be 9e7f c6bc
000003b0: 1c11 fdbd e112 29bd bfa2 b9bd 5d15 c83d
000003c0: 2c59 023e 0e96 94bd 8f49 35be dfe8 a43d
000003d0: 298a c5bd 7e66 20be d56f 79bd 8a7b 873b
000003e0: 29a8 5fbe 2661 4b3e 921c b73d 8625 9b3d
000003f0: 858b 4bbd a3d1 a8bc 18d0 fd3d f77d 94bd

R__188 f4 [1, 384, 128]
-0.17064837 -0.18219557 -0.1925704 -0.16313553 -0.1991911 0.21997213 -0.12712179 -0.3481281
0.28717688 0.13880841 0.3714315 -0.2514562 0.25222304 0.13056792 -0.014175066 -0.21428318
0.020077612 -0.19755162 0.24936159 -0.21385403 0.08997902 -0.18682103 0.004383499 0.0033040743
0.21414661 0.075156406 -0.01848824 -0.07230477 0.2546818 0.035344057 -0.13841048 0.18587035
-0.06879109 -0.16563454 -0.22015148 -0.19003363 -0.1980291 0.18610165 0.07738203 -0.21803565
0.26733133 -0.1764816 0.19369455 0.16925287 -0.26299357 -0.20506714 0.03362759 -0.23714091
0.0865603 -0.09917235 0.32314503 0.11261696 -0.11326527 0.05667699 0.11297128 0.29129824
0.09060004 0.25048938 0.10802726 -0.16110261 0.21103734 0.22454156 0.0054835705 -0.1905401
0.15316139 0.1689263 0.22937354 0.29766828 0.1580736 -0.32254973 -0.26966056 -0.19115126
-0.106333904 0.3048123 0.27182215 0.052368417 0.20701541 -0.025577102 -0.12690222 0.19862713
0.106455214 -0.14751574 -0.3031727 -0.15828879 -0.2805675 0.25755277 -0.032118294 -0.22778967
0.22596203 -0.09591154 0.26011887 -0.15504648 -0.056028374 0.18181509 -0.0258976 -0.24370189
-0.093934685 0.069198914 -0.2764018 0.17853555 0.27897578 0.2608042 -0.07203212 -0.2565302
-0.23210694 -0.21124637 -0.2670643 -0.17742713 0.06237408 -0.19751786 -0.18289684 -0.07852885
0.087735616 -0.26922464 0.32861313 0.20514865 0.1697494 0.093348615 -0.21415918 0.2966351
-0.22573477 -0.03550548 -0.29534882 0.19049253 0.25380626 0.14920513 -0.14860402 -0.25515437
-0.32180429 -0.089092255 -0.25338134 -0.11137524 -0.15877447 0.07963382 -0.08944164 -0.07852408
0.28827086 -0.1336421 0.23990384 -0.10510563 0.22604138 0.022812815 0.07995583 -0.11503466
0.12257476 -0.028526071 0.27531603 -0.24816883 0.04044013 -0.16653664 -0.1273022 -0.1398412
0.23656507 0.016816493 -0.046968956 -0.21042211 0.26872602 -0.19592513 -0.12620124 0.4048183
0.06423019 -0.08652707 -0.1115099 0.045188207 -0.05445105 0.12588817 -0.08125574 -0.16609137
0.2534702 -0.32037532 0.12479386 0.10237453 -0.2001373 -0.01618572 -0.092665285 -0.14539121
0.11078549 0.07313002 0.2297276 0.025529686 -0.18863106 -0.13025014 0.054618742 0.14879322
0.0693853 0.32701385 0.08319127 -0.100668825 0.1336706 0.17776588 0.0067556663 -0.07337668
0.2690358 0.10899706 0.12488868 0.25495428 0.058941707 -0.17427911 -0.19275795 -0.12632659
-0.10567077 0.3044806 0.17711611 0.0041979644 0.14244665 0.058975417 -0.15006514 0.17602436
-0.15572058 -0.020065255 -0.10295669 -0.14759514 -0.24341246 0.013057321 0.1124067 0.09082891
0.14099708 0.011705194 0.25103727 -0.06032485 -0.053407863 0.03541843 0.06162414 -0.1288499
0.03083682 -0.12102342 -0.24117307 0.011768248 0.18877059 0.18770406 -0.02268313 -0.24373184
-0.21828814 -0.15066276 0.010812296 -0.13996589 -0.037529748 -0.1189473 -0.18877825 -0.11856759
0.108524874 -0.19354945 0.32754478 0.27579343 0.043609295 -0.04622264 -0.17529991 0.14111947
-0.17625923 -0.12489705 -0.10275258 0.027517535 0.24628778 -0.022590598 0.05906479 -0.1520082
00000000: 72be 2ebe 7a91 3abe 2d31 45be 000d 27be
00000010: c0f8 4bbe 6040 613e 372c 02be d93d b2be
00000020: d908 933e cb23 0e3e 452c be3e debe 80be
00000030: 6123 813e 99b3 053e 893e 68bc 0d6d 5bbe
00000040: ce79 a43c f94a 4abe a558 7f3e 8dfc 5abe
00000050: ec46 b83d 034e 3fbe 74a3 8f3b 2b89 583b
00000060: 4049 5b3e 9aeb 993d a674 97bc 8614 94bd
00000070: a765 823e eec4 103d 7abb 0dbe cc54 3e3e
00000080: 58e2 8cbd 1a9c 29be 646f 61be 2d98 42be
00000090: 24c8 4abe 6e91 3e3e 787a 9e3d bd44 5fbe
000000a0: a7df 883e 98b7 34be dd57 463e a050 2d3e
000000b0: 18a7 86be 1ffd 51be 15bd 093d 11d5 72be
000000c0: 8746 b13d df1a cbbd 4473 a53e b9a3 e63d
000000d0: 9ff7 e7bd 2226 683d 7d5d e73d 0b25 953e
000000e0: 848c b93d 2540 803e 653d dd3d 15f8 24be
000000f0: 2c1a 583e 39ee 653e 86af b33b f21c 43be
00000100: 57d6 1c3e 04fb 2c3e e6e0 6a3e fa67 983e
00000110: 0cde 213e 3d25 a5be f310 8abe 28bd 43be
00000120: 97c5 d9bd 5c10 9c3e 462c 8b3e 4480 563d
00000130: d9fb 533e 1287 d1bc a8f2 01be e964 4b3e
00000140: 3105 da3d 5e0e 17be 7439 9bbe 7516 22be
00000150: 8ba6 8fbe f5dd 833e 798e 03bd b241 69be
00000160: 9762 673e 456d c4bd 4d2e 853e 81c4 1ebe
00000170: 027e 65bd bc2d 3a3e 3427 d4bc fd8c 79be
00000180: d460 c0bd 29b8 8d3d 8984 8dbe 06d2 363e
00000190: ead5 8e3e 2188 853e 9385 93bd ed57 83be
000001a0: 71ad 6dbe f850 58be a7bc 88be 75af 35be
000001b0: f77b 7f3d 1f42 4abe 4f49 3bbe bcd3 a0bd
000001c0: bbae b33d d0d7 89be fb3f a83e 7d12 523e
000001d0: c9d2 2d3e 8f2d bf3d 8b4c 5bbe 8ee0 973e
000001e0: 0427 67be 326e 11bd f637 97be 7910 433e
000001f0: e5f2 813e 3bc9 183e a72b 18be 98a3 82be
00000200: 88c3 a4be 0076 b6bd 33bb 81be b418 e4bd
00000210: c695 22be 0e17 a33d 2e2d b7bd 3cd1 a0bd
00000220: 3d98 933e 7ad9 08be 5aa9 753e 9f41 d7bd
00000230: 6477 673e f1e1 ba3c e2bf a33d 4b97 ebbd
00000240: 7a08 fb3d 82af e9bc 39f6 8c3e f81f 7ebe
00000250: 8da4 253d 9588 2abe 825b 02be 8832 0fbe
00000260: 1d3e 723e bec2 893c 8562 40bd e578 57be
00000270: 7596 893e 99a0 48be e63a 01be 5844 cf3e
00000280: 1e8b 833d 1b35 b1bd 4d5f e4bd 4517 393d
00000290: 1008 5fbd d4e8 003e 6969 a6bd db13 2abe
000002a0: d9c6 813e 3c08 a4be ec93 ff3d bda9 d13d
000002b0: cbf0 4cbe ea97 84bc 4cc7 bdbd 6fe1 14be
000002c0: 81e3 e23d 31c5 953d b63d 6b3e a223 d13c
000002d0: 8028 41be 4b60 05be e7b7 5f3d 405d 183e
000002e0: e119 8e3d 5c6e a73e 2f60 aa3d 752b cebd
000002f0: f2e0 083e 4208 363e a35e dd3b 8346 96bd
00000300: 0fbf 893e da39 df3d a3c5 ff3d 5e89 823e
00000310: dc6c 713d 3976 32be 5762 45be c25b 01be
00000320: eb69 d8bd e2e4 9b3e ed5d 353e 148f 893b
00000330: 89dd 113e 3590 713d adaa 19be bb3f 343e
00000340: 3775 1fbe e45f a4bc f5da d2bd 2e23 17be
00000350: 1e41 79be 60ee 553c 7c35 e63d 8204 ba3d
00000360: 8a61 103e 24c7 3f3c f587 803e 3117 77bd
00000370: 34c2 5abd ea12 113d 9869 7c3d 3af1 03be
00000380: 809d fc3c 20db f7bd 13f6 76be 9ccf 403c
00000390: 144d 413e 7e35 403e f9d1 b9bc d794 79be
000003a0: ed86 5fbe 5747 1abe 0e26 313c 3853 0fbe
000003b0: cbb8 19bd a49a f3bd 164f 41be 91d3 f2bd
000003c0: 4a42 de3d d431 46be f3b3 a73e cc34 8d3e
000003d0: a99f 323d f353 3dbd d281 33be 9f81 103e
000003e0: 4d7d 34be 06ca ffbd f26f d2bd 746c e13c
000003f0: dd32 7c3e eb0f b9bc eced 713d 0aa8 1bbe

GRU/quant_dense_3/LastValueQuant/FakeQuantWithMinMaxVars__176 f4 [32, 1]
-0.26817968 0.0 0.2205033 0.33373472 0.33075494 -0.19964488 -0.28307855 0.026817968
-0.21156397 0.22348307 0.37843132 0.3575729 0.026817968 -0.08939323 0.008939323 -0.1162112
0.04767639 0.30691674 -0.28605834 -0.071514584 0.014898871 0.065555036 -0.029797742 0.36353245
-0.11323142 0.10727187 0.29797742 -0.0029797743 -0.06853481 0.2085842 0.20262465 -0.07747413
00000000: d94e 89be 0000 0000 9ecb 613e 47df aa3e
00000010: b658 a93e b56f 4cbe acef 90be 5bb1 db3c
00000020: 3aa4 58be bfd8 643e c0c1 c13e cc13 b73e
00000030: 5bb1 db3c cc13 b7bd 3d76 123c 2300 eebd
00000040: 5148 433d 3124 9d3e 3d76 92be 3d76 92bd
00000050: 651a 743c b841 863d 651a f4bc ed20 ba3e
00000060: e0e5 e7bd 5bb1 db3d 7f90 983e 5148 43bb
00000070: fa5b 8cbd 1997 553e d67c 4f3e c2aa 9ebd

GRU/quant_dense_2/LastValueQuant/FakeQuantWithMinMaxVars__175 f4 [32, 32]
0.01601455 -0.22740659 0.17295714 -0.124913484 -0.17295714 0.19858041 -0.21139205 -0.01921746
-0.080072746 0.051246557 -0.04484074 0.15694258 -0.092884384 0.2978706 -0.10889894 -0.09929021
-0.04484074 -0.30747935 0.035232008 0.27865314 -0.20178331 -0.0032029098 -0.24662405 0.17616004
-0.08327565 0.102493115 -0.14092803 -0.15373968 -0.21139205 -0.30427644 0.121710576 -0.10889894
0.01921746 -0.092884384 0.08968148 -0.20498623 0.22100078 0.07686984 0.01921746 -0.2562328
-0.20818914 -0.25943568 0.09608729 0.22420369 -0.21779788 -0.33950844 0.28185606 -0.21139205
0.24662405 -0.18897168 0.028826188 0.25943568 0.24982697 0.2626386 -0.14413095 0.18576877
0.20498623 0.02242037 0.07366692 0.14733385 -0.13772513 0.080072746 -0.08327565 -0.17295714
0.06726111 -0.07366692 0.15053676 -0.21459496 0.21459496 0.2978706 -0.21779788 0.19217458
-0.1633484 -0.041637827 -0.23701532 -0.012811639 0.24342115 -0.20818914 0.20498623 -0.17936295
0.17616004 -0.23701532 0.121710576 0.11530475 0.21459496 0.09608729 -0.121710576 0.03843492
-0.20498623 0.0640582 0.1953775 -0.15694258 0.0032029098 0.18576877 -0.060855288 -0.121710576
0.080072746 -0.24021824 -0.012811639 0.23701532 0.19858041 -0.2914648 0.3298997 0.06726111
-0.07366692 0.1281164 -0.24021824 0.11850766 -0.30747935 0.25302988 -0.124913484 0.06726111
0.15373968 -0.051246557 0.0640582 -0.14092803 -0.1665513 0.057652377 0.17936295 0.17295714
0.19217458 -0.18256587 0.24342115 0.14413095 -0.03843492 -0.028826188 -0.19217458 0.26904443
0.15373968 0.025623279 0.21779788 -0.24342115 -0.17295714 0.0032029098 0.24662405 -0.057652377
-0.0640582 -0.14413095 0.17295714 0.07366692 -0.17616004 -0.10569602 0.080072746 -0.035232008
0.17616004 -0.24342115 -0.28185606 0.24021824 -0.070464015 -0.22420369 -0.048043646 0.2562328
-0.25302988 0.121710576 0.14733385 -0.041637827 -0.23701532 0.15373968 0.24982697 0.00960873
-0.1313193 -0.1313193 0.19217458 0.2562328 0.028826188 0.1665513 0.34591427 -0.012811639
0.1665513 0.24021824 -0.05444947 0.24662405 0.0 0.19217458 -0.124913484 -0.34911716
-0.18576877 -0.2626386 -0.028826188 0.1953775 -0.27224734 -0.048043646 0.060855288 0.18576877
0.23381242 0.03843492 0.15053676 -0.26904443 -0.20498623 0.17936295 -0.21459496 0.13772513
-0.07366692 -0.09929021 0.22740659 0.035232008 0.048043646 0.18256587 -0.28505898 0.1953775
0.16014549 0.14413095 -0.17295714 0.0064058197 0.25302988 0.24982697 0.28185606 0.16975422
0.22420369 -0.24662405 0.0 -0.08647857 0.22100078 -0.27224734 0.26904443 -0.012811639
0.028826188 0.07686984 -0.012811639 0.112101845 -0.08968148 0.30427644 0.22420369 0.102493115
-0.30107352 -0.16014549 0.19858041 -0.1665513 -0.21779788 0.13772513 -0.10889894 -0.27545026
0.10569602 0.07686984 0.30747935 0.28505898 0.1313193 -0.1281164 -0.18576877 0.057652377
0.22420369 -0.18897168 -0.17295714 -0.028826188 0.27545026 0.092884384 0.21139205 -0.18256587
-0.2946677 0.102493115 0.23701532 0.07366692 0.16975422 0.080072746 -0.06726111 0.06726111
00000000: f230 833c 46dd 68be ad1b 313e a4d2 ffbd
00000010: ad1b 31be aa58 4b3e 2877 58be ef6d 9dbc
00000020: 2efd a3bd e9e7 513d ecaa 37bd 8eb5 203e
00000030: 2b3a bebd 7f82 983e 6806 dfbd aa58 cbbd
00000040: ecaa 37bd ef6d 9dbe 704f 103d a0ab 8e3e
00000050: 49a0 4ebe e9e7 51bb 048b 7cbe 4c63 343e
00000060: 6d8c aabd e9e7 d13d 704f 10be ef6d 1dbe
00000070: 2877 58be 1fca 9bbe 6543 f93d 6806 dfbd
00000080: ef6d 9d3c 2b3a bebd ecaa b73d e9e7 51be
00000090: 074e 623e ef6d 9d3d ef6d 9d3c f230 83be
000000a0: 892f 55be c1d4 84be 6ac9 c43d a795 653e
000000b0: 6806 5fbe 0dd4 adbe 704f 903e 2877 58be
000000c0: 048b 7c3e cb81 41be e624 ec3c c1d4 843e
000000d0: a4d2 7f3e 9178 863e 1097 13be 2b3a 3e3e
000000e0: e9e7 513e ecaa b73c afde 963d afde 163e
000000f0: d107 0dbe 2efd a33d 6d8c aabd ad1b 31be
00000100: 31c0 893d afde 96bd 4f26 1a3e c8be 5bbe
00000110: c8be 5b3e 7f82 983e 6806 5fbe 6ac9 443e
00000120: ce44 27be 6d8c 2abd 25b4 72be e9e7 51bc
00000130: 6543 793e 892f 55be e9e7 513e ecaa 37be
00000140: 4c63 343e 25b4 72be 6543 f93d e624 ec3d
00000150: c8be 5b3e 6ac9 c43d 6543 f9bd ef6d 1d3d
00000160: e9e7 51be f230 833d 0a11 483e 8eb5 20be
00000170: e9e7 513b 2b3a 3e3e 6543 79bd 6543 f9bd
00000180: 2efd a33d c5fb 75be e9e7 51bc 25b4 723e
00000190: aa58 4b3e e03a 95be 9de8 a83e 31c0 893d
000001a0: afde 96bd f230 033e c5fb 75be 25b4 f23d
000001b0: ef6d 9dbe 228d 813e a4d2 ffbd 31c0 893d
000001c0: ef6d 1d3e e9e7 51bd f230 833d 704f 10be
000001d0: 6d8c 2abe e624 6c3d ecaa 373e ad1b 313e
000001e0: 6ac9 443e 8cf2 3abe 6543 793e 1097 133e
000001f0: ef6d 1dbd e624 ecbc 6ac9 44be 31c0 893e
00000200: ef6d 1d3e e9e7 d13c 6806 5f3e 6543 79be
00000210: ad1b 31be e9e7 513b 048b 7c3e e624 6cbd
00000220: f230 83bd 1097 13be ad1b 313e afde 963d
00000230: 4c63 34be 2877 d8bd 2efd a33d 704f 10bd
00000240: 4c63 343e 6543 79be 704f 90be c5fb 753e
00000250: 704f 90bd a795 65be 6ac9 44bd f230 833e
00000260: 228d 81be 6543 f93d afde 163e 6d8c 2abd
00000270: 25b4 72be ef6d 1d3e a4d2 7f3e ef6d 1d3c
00000280: 9178 06be 9178 06be 6ac9 443e f230 833e
00000290: e624 ec3c 6d8c 2a3e ad1b b13e e9e7 51bc
000002a0: 6d8c 2a3e c5fb 753e 6806 5fbd 048b 7c3e
000002b0: 0000 0000 6ac9 443e a4d2 ffbd 7cbf b2be
000002c0: 2b3a 3ebe 9178 86be e624 ecbc 0a11 483e
000002d0: 0164 8bbe 6ac9 44bd 6543 793d 2b3a 3e3e
000002e0: 866c 6f3e ef6d 1d3d 4f26 1a3e 31c0 89be
000002f0: e9e7 51be ecaa 373e c8be 5bbe d107 0d3e
00000300: afde 96bd aa58 cbbd 46dd 683e 704f 103d
00000310: 6ac9 443d 8cf2 3a3e 40f3 91be 0a11 483e
00000320: 2efd 233e 1097 133e ad1b 31be e9e7 d13b
00000330: 228d 813e a4d2 7f3e 704f 903e 0dd4 2d3e
00000340: a795 653e 048b 7cbe 0000 0000 ad1b b1bd
00000350: 074e 623e 0164 8bbe 31c0 893e e9e7 51bc
00000360: e624 ec3c ef6d 9d3d e9e7 51bc a795 e53d
00000370: ecaa b7bd 1fca 9b3e a795 653e e9e7 d13d
00000380: 4f26 9abe 2efd 23be aa58 4b3e 6d8c 2abe
00000390: 6806 5fbe d107 0d3e 6806 dfbd d107 8dbe
000003a0: 2877 d83d ef6d 9d3d ef6d 9d3e 40f3 913e
000003b0: 9178 063e f230 03be 2b3a 3ebe e624 6c3d
000003c0: a795 653e cb81 41be ad1b 31be e624 ecbc
000003d0: d107 8d3e 2b3a be3d 2877 583e 8cf2 3abe
000003e0: afde 96be e9e7 d13d 25b4 723e afde 963d
000003f0: 0dd4 2d3e 2efd a33d 31c0 89bd 31c0 893d

GRU/quant_dense_2/BiasAdd/ReadVariableOp:0 f4 [32]
-0.06558543 0.0072312444 -0.056452245 0.030291006 -0.04205149 -0.065091394 -0.028959129 0.04433761
-0.027269548 0.039213475 -0.010867163 0.016707702 -0.05997769 -0.078803845 -0.062918544 -0.042421363
-0.0072088586 0.038898893 -0.06837237 -0.036986865 -0.0054328092 0.010616835 -0.01577002 0.043936834
-0.031941377 0.032945383 -0.0005358245 -0.019828044 -0.04790755 -0.016856037 0.011254539 -0.0050224885
00000000: a751 86bd 13f4 ec3b 783a 67bd d824 f83c
00000010: 2f3e 2cbd a34e 85bd b23b edbc 5b9b 353d
00000020: 6364 dfbc 4f9e 203d 2f0c 32bc 97de 883c
00000030: 2bab 75bd e963 a1bd 70db 80bd 06c2 2dbd
00000040: 4a38 ecbb 7254 1f3d d006 8cbd 8a7f 17bd
00000050: b505 b2bb 3cf2 2d3c 2130 81bc 1cf7 333d
00000060: f6d4 02bd bdf1 063d 9376 0cba 6c6e a2bc
00000070: b53a 44bd ac15 8abc f564 383c b093 a4bb

B__216 f4 [1, 192]
-0.11977769 0.05182215 -0.019956645 0.071429044 0.20510972 0.05007827 -0.13149469 -0.2141173
-0.20215255 -0.104237795 -0.111447684 -0.1239861 -0.20720086 -0.25183535 0.13017997 0.06340685
-0.04868312 -0.11301476 0.17457007 0.02820176 -0.015982065 0.12514333 -0.1808446 -0.14829558
0.08566528 -0.0044056904 0.1371685 -0.19022726 0.0088436045 -0.2859079 0.14748643 0.120472826
-0.09270076 -0.09671872 0.00535923 -0.03039993 -0.00303738 -0.037230883 -0.04813651 0.03818318
-0.042000256 0.058428187 -0.04838362 -0.036808286 -0.06724179 -0.076726496 0.077315986 -0.05554337
0.055737182 -0.034139205 -0.08328744 -0.039978214 -0.053003453 0.04344143 -0.013883978 -0.014414629
0.028133286 -0.048657596 0.009278612 -0.08246458 -0.031656884 -0.06611383 -0.0035133348 -0.033479393
0.03125937 -0.0061041317 -0.04055893 0.016240591 0.016332163 0.024235714 -0.056617517 -0.024625475
0.038912162 0.04887415 -0.041643504 -0.019868607 -0.077093296 -0.020058203 0.018295813 -0.0012985604
0.081436604 -0.0085975975 -0.067671575 0.039139166 -0.039397497 0.021837918 0.03238877 -0.11369345
-0.045933556 0.010492105 -0.019761488 0.095031396 -0.030875744 -0.09768654 -0.0150291035 -0.030053666
-0.11977769 0.05182215 -0.019956645 0.071429044 0.20510972 0.05007827 -0.13149469 -0.2141173
-0.20215255 -0.104237795 -0.111447684 -0.1239861 -0.20720086 -0.25183535 0.13017997 0.06340685
-0.04868312 -0.11301476 0.17457007 0.02820176 -0.015982065 0.12514333 -0.1808446 -0.14829558
0.08566528 -0.0044056904 0.1371685 -0.19022726 0.0088436045 -0.2859079 0.14748643 0.120472826
-0.09270076 -0.09671872 0.00535923 -0.03039993 -0.00303738 -0.037230883 -0.04813651 0.03818318
-0.042000256 0.058428187 -0.04838362 -0.036808286 -0.06724179 -0.076726496 0.077315986 -0.05554337
0.055737182 -0.034139205 -0.08328744 -0.039978214 -0.053003453 0.04344143 -0.013883978 -0.014414629
0.028133286 -0.048657596 0.009278612 -0.08246458 -0.031656884 -0.06611383 -0.0035133348 -0.033479393
0.032925837 -0.006786443 -0.041274425 0.013796662 0.015651006 0.018095857 -0.062199272 -0.020187937
0.0375701 0.047690194 -0.0348739 -0.017530985 -0.07159572 -0.016129823 0.0097855525 -0.0028256604
0.07812519 -0.002872256 -0.06722902 0.033609062 -0.042033184 0.017223714 0.026168399 -0.11333589
-0.04819406 0.016006112 -0.01889858 0.10111042 -0.02409033 -0.097018115 -0.01159774 -0.029928485
00000000: 014e f5bd 7643 543d 1e7c a3bc 6449 923d
00000010: 4808 523e df1e 4d3d 8ba6 06be 9141 5bbe
00000020: 1401 4fbe a07a d5bd af3e e4bd 6dec fdbd
00000030: 762c 54be 90f0 80be e64d 053e 73db 813d
00000040: f467 47bd 4874 e7bd 7fc2 323e 6107 e73c
00000050: d2ec 82bc 9325 003e 542f 39be ccda 17be
00000060: 4771 af3d 9c5d 90bb e675 0c3e efca 42be
00000070: c4e4 103c 8562 92be af06 173e 75ba f63d
00000080: e5d9 bdbd 7714 c6bd 7b9c af3b 4609 f9bc
00000090: c80e 47bb 697f 18bd ca2a 45bd f765 1c3d
000000a0: 7608 2cbd 6552 6f3d e72d 46bd 49c4 16bd
000000b0: 10b6 89bd c822 9dbd d857 9e3d 7281 63bd
000000c0: ac4c 643d 8dd5 0bbd 9b92 aabd 32c0 23bd
000000d0: 261a 59bd a4ef 313d a079 63bc 562b 6cbc
000000e0: c777 e63c 304d 47bd 5205 183c 31e3 a8bd
000000f0: a6aa 01bd b066 87bd fa3f 66bb b021 09bd
00000100: d309 003d 2b05 c8bb 1f21 26bd fd0a 853c
00000110: 07cb 853c fa89 c63c c5e7 67bd 5dbb c9bc
00000120: 5c62 1f3d 4330 483d 6192 2abd 7dc3 a2bc
00000130: 17e3 9dbd 1a51 a4bc 1ae1 953c 7534 aaba
00000140: 3cc8 a63d f0dc 0cbc 6597 8abd 6450 203d
00000150: 455f 21bd 6fe5 b23c 16aa 043d 1dd8 e8bd
00000160: d324 3cbd 14e7 2b3c d8e2 a1bc d29f c23d
00000170: 21ef fcbc e10f c8bd a13c 76bc 1b33 f6bc
00000180: 014e f5bd 7643 543d 1e7c a3bc 6449 923d
00000190: 4808 523e df1e 4d3d 8ba6 06be 9141 5bbe
000001a0: 1401 4fbe a07a d5bd af3e e4bd 6dec fdbd
000001b0: 762c 54be 90f0 80be e64d 053e 73db 813d
000001c0: f467 47bd 4874 e7bd 7fc2 323e 6107 e73c
000001d0: d2ec 82bc 9325 003e 542f 39be ccda 17be
000001e0: 4771 af3d 9c5d 90bb e675 0c3e efca 42be
000001f0: c4e4 103c 8562 92be af06 173e 75ba f63d
00000200: e5d9 bdbd 7714 c6bd 7b9c af3b 4609 f9bc
00000210: c80e 47bb 697f 18bd ca2a 45bd f765 1c3d
00000220: 7608 2cbd 6552 6f3d e72d 46bd 49c4 16bd
00000230: 10b6 89bd c822 9dbd d857 9e3d 7281 63bd
00000240: ac4c 643d 8dd5 0bbd 9b92 aabd 32c0 23bd
00000250: 261a 59bd a4ef 313d a079 63bc 562b 6cbc
00000260: c777 e63c 304d 47bd 5205 183c 31e3 a8bd
00000270: a6aa 01bd b066 87bd fa3f 66bb b021 09bd
00000280: 3edd 063d cf60 debb 5f0f 29bd 650b 623c
00000290: 8a36 803c c33d 943c aac4 7ebd 2c61 a5bc
000002a0: 1be3 193d cb56 433d efd7 0ebd 249d 8fbc
000002b0: c7a0 92bd b122 84bc 9553 203c b72e 39bb
000002c0: 1a00 a03d 763c 3cbb 5eaf 89bd a8a9 093d
000002d0: fd2a 2cbd bf18 8d3c 1c5f d63c a61c e8bd
000002e0: 2267 45bd 401f 833c 32d1 9abc fb12 cf3d
000002f0: 1559 c5bc 6fb1 c6bd 7304 3ebc 952c f5bc
