models/station_1/model_latest.onnx (onnx, 407794 bytes, 12 tensors)

W__1048 f4 [1, 96, 64]
0	0x3e5d69db	0.21622412
1	0x3e5e2adb	0.21696036
2	0x3e64e226	0.22351894
3	0xbd75ed6a	-0.06004087
4	0xbcba8dd4	-0.022772707
5	0x3e1dc0cd	0.15405579
6	0xbd6d1bb4	-0.057887748
7	0x3e206370	0.15662932
8	0xbe8360f7	-0.25659916
9	0x3d94b45a	0.07260962
10	0xbd154478	-0.03644225
11	0x3df02b34	0.1172699
12	0xbe2a0112	-0.16601971
13	0xbdd996a4	-0.106244355
14	0x3e396a5c	0.18106979
15	0x3d857a27	0.06517439
16	0xbd3cf766	-0.046134375
17	0x3d0fc408	0.03509906
18	0xbd60f0bc	-0.054917082
19	0x3ca90203	0.020630842
20	0x3d6217bb	0.055198412
21	0xbe66e934	-0.22549897
22	0x3e1cbfac	0.15307492
23	0x3e58ef63	0.21185069
24	0x3eaa432f	0.33254382
25	0xbc32b7d4	-0.010908086
26	0x3cd64bfc	0.026159279
27	0xbe4fd04e	-0.20294306
28	0x3c9d2b56	0.019185703
29	0xbe1259c7	-0.1429206
30	0x3e152d38	0.14568031
31	0xbda30184	-0.079592735
32	0x3e06566e	0.13118908
33	0x3de980ca	0.11401518
34	0x3dd1b54b	0.10239657
35	0x3b0d4050	0.0021553226
36	0xbd68bb23	-0.056819092
37	0x3c61c86f	0.013780697
38	0xbe3036cb	-0.17208402
39	0x3da45373	0.08023729
40	0x3dc0acc6	0.09407954
41	0x3d17c1fd	0.037050236
42	0xbe18ba5b	-0.14914839
43	0x3d9abaa9	0.07555134
44	0xbd25b80b	-0.04045872
45	0x3d4e1c1e	0.050319783
46	0x3deab239	0.114597745
47	0xbda4707b	-0.080292664
48	0x3d509e37	0.050932135
49	0x3db65285	0.08902458
50	0x3dbd4ae3	0.09242799
51	0xbd38128f	-0.044939574
52	0xbd824810	-0.06361401
53	0x3b6a7620	0.0035775974
54	0x3dfb18de	0.122606024
55	0x3d5d3dc1	0.05401397
56	0x3dff7878	0.124741495
57	0x3d8f8b18	0.07008952
58	0x3e055e95	0.13024361
59	0x3cd5e7eb	0.026111564
60	0xbe14da31	-0.14536358
61	0xbcc0013f	-0.023438094
62	0xbe52c7ee	-0.2058408
63	0x3ce9377c	0.02846884
64	0xbdbebeea	-0.09313758
65	0x3d258161	0.04040659
66	0xbdefdd8a	-0.11712177
67	0xbc315e43	-0.010825696
68	0x3decbf1d	0.115598895
69	0xbcd8b9d8	-0.026455805
70	0xbd9afc91	-0.075677045
71	0xbe21b5b7	-0.15791975
72	0xbe0bcb88	-0.1365186
73	0x3dc19161	0.09451557
74	0x3e24a9a7	0.16080342
75	0x3b0efc32	0.00218178
76	0x3e39bc76	0.18138298
77	0x3e3f5e07	0.18688212
78	0xbdb1eb0e	-0.08687411
79	0xbda8c46d	-0.0824059
80	0x3e4b283a	0.19839564
81	0x3d93ba94	0.07213321
82	0xbd4a6375	-0.049411256
83	0xbc94c26d	-0.018159116
84	0xbe58ecc2	-0.21184066
85	0xbdc0bc2c	-0.09410891
86	0xbe869f13	-0.2629324
87	0x3e034982	0.1282101
88	0x3e3c204b	0.18371694
89	0xbe19b4c5	-0.15010364
90	0xbd987887	-0.07444864
91	0xbc1d5414	-0.009602565
92	0xbdb51d97	-0.088435344
93	0x3e520a6c	0.20511788
94	0x3d9116c3	0.070844196
95	0x3d7c52c5	0.061602373
96	0xbc9ff793	-0.019527232
97	0xbd689d7a	-0.056790806
98	0x3b25aa7b	0.0025278616
99	0xbc467c95	-0.012114664
100	0xbde8439f	-0.11341023
101	0xbcf1dbef	-0.029523818
102	0xbe477185	-0.19476898
103	0xbe250fed	-0.16119356
104	0x3e48dc2c	0.19615239
105	0xbe73d630	-0.23812175
106	0x3eaac768	0.3335526
107	0xbc3b10e2	-0.011417599
108	0x3aab9728	0.0013091313
109	0x3b8320bb	0.0040017045
110	0xbd9e210d	-0.07721148
111	0xbd413979	-0.04717395
112	0xbe330e50	-0.17485929
113	0xbdad8075	-0.08471767
114	0x3d4e154a	0.05031327
115	0xbe2a0293	-0.16602544
116	0x3e0462bd	0.1292829
117	0xbce8d6c3	-0.028422719
118	0xbcb23952	-0.021755848
119	0x3ddb8fc5	0.10720781
120	0xbbb5e5e3	-0.0055510863
121	0x3db7c7f2	0.089736834
122	0xbe585c00	-0.21128845
123	0x3e23c051	0.15991332
124	0xbcd13915	-0.025539914
125	0xbe37d080	-0.1795063
126	0x3e2a3d04	0.16624838
127	0xbe19bb1e	-0.15012786
128	0xbd442ace	-0.047892384
129	0xbe16698f	-0.14688705
130	0x3da61bb0	0.0811075
131	0xbdef1f31	-0.11675871
132	0xbe057943	-0.13034539
133	0x3e15310b	0.1456949
134	0x3dc44431	0.09583319
135	0x3d0c2d67	0.034222987
136	0x3bed05ed	0.0072333724
137	0x3e40d048	0.18829453
138	0x3e4d8af1	0.20072533
139	0x3e3f5663	0.18685298
140	0x3e70d4be	0.23518655
141	0xbe880c66	-0.2657196
142	0xbe2cb190	-0.1686461
143	0xbcf4b754	-0.029872574
144	0x3e35b0a4	0.17743164
145	0xbdc72d20	-0.09725404
146	0xbb82fdd1	-0.0039975424
147	0x3c9703a7	0.018434359
148	0xbb21b16e	-0.0024672407
149	0x3e628465	0.22120817
150	0xbe45a559	-0.19301356
151	0x3c2a933d	0.010411081
152	0xbe3b80f1	-0.18310906
153	0xbd29a470	-0.041416585
154	0xbe3bc3d3	-0.1833642
155	0xbde83c6c	-0.113396496
156	0xbdb4e9e1	-0.08833671
157	0x3d2c94c7	0.042134073
158	0x3dd18b97	0.10231703
159	0xbe2d20d6	-0.16907057
160	0xbd084fb8	-0.03327915
161	0x3d672f58	0.056441635
162	0x3de94b01	0.11391259
163	0x3cd8c51a	0.026461173
164	0x3d240cdc	0.040051326
165	0x3da11f03	0.07867243
166	0x3d9dbb90	0.0770179
167	0xbd977f5b	-0.07397338
168	0xbe3b9c5e	-0.18321368
169	0x3d667f74	0.056273893
170	0x3d222e25	0.039594788
171	0xbd5f289b	-0.054482084
172	0x3db4341f	0.08799004
173	0x3cd615ea	0.026133496
174	0xbe774ddf	-0.24150799
175	0xbca8a0e9	-0.02058454
176	0xbda5bf9c	-0.08093187
177	0xbe947f81	-0.29003528
178	0x3d4518b9	0.04811928
179	0xbdb2691e	-0.08711456
180	0x3bebec25	0.0071997815
181	0xbd814b29	-0.06313164
182	0x3a48d44e	0.00076610304
183	0xbd9ee247	-0.07758003
184	0x3d9daf24	0.07699421
185	0x3d3ed943	0.046593916
186	0xbccdfe30	-0.02514562
187	0x3e7ee948	0.24893677
188	0xbd71d8fc	-0.059044823
189	0xbe3ac5db	-0.18239538
190	0xbcab38bd	-0.020901078
191	0xbdf6292e	-0.12019573
192	0x3e18ca47	0.14920913
193	0xbc0a87ee	-0.00845526
194	0xbda7484b	-0.08168086
195	0xbe1f6df8	-0.15569293
196	0x3e5c3c7f	0.21507452
197	0x3ba03212	0.0048887813
198	0xbe05213c	-0.13000959
199	0x3d9e3a92	0.07726015
200	0x3d3bacd0	0.045819104
201	0xbccbc70c	-0.024875186
202	0xbdcc00bf	-0.0996108
203	0xbd141e34	-0.036161616
204	0xbe2f2904	-0.1710549
205	0x3e59c531	0.21266629
206	0xbe71c990	-0.23612046
207	0xbd8c3a60	-0.06847072
208	0x3d7b8372	0.061404653
209	0x3d1aabc8	0.03776148
210	0xbe07b6da	-0.13253346
211	0xbe2b0b47	-0.1670352
212	0xbdc98173	-0.098391436
213	0x3e128900	0.14310074
214	0xbbf18cdc	-0.007371528
215	0xbd42d276	-0.047563992
216	0x3e15105c	0.14557022
217	0x3c816d5d	0.015799219
218	0xbe4d40dc	-0.20044273
219	0xbe18334f	-0.14863323
220	0xbe6692cd	-0.22516938
221	0xbd377df6	-0.04479786
222	0xbe2f49b5	-0.17117961
223	0x3e599107	0.2124673
224	0x3df7c947	0.120989375
225	0xbe1a41eb	-0.15064208
226	0xbe379829	-0.17929138
227	0x3d3a4072	0.045471616
228	0xbe31f80a	-0.17379776
229	0xbe29cd8a	-0.16582313
230	0xbe60eb82	-0.21964839
231	0xbe247d4d	-0.16063423
232	0x3ac238c0	0.0014817938
233	0x3da8d4db	0.08243724
234	0x3d198565	0.03748073
235	0xbc8dbf89	-0.017303245
236	0x3dd80ebd	0.10549686
237	0xbe75bbca	-0.23997417
238	0x3b2414f2	0.0025036898
239	0x3e779198	0.24176633
240	0xbda203f4	-0.0791091
241	0xbcea3339	-0.028588878
242	0x3de316c9	0.1108833
243	0x3bbee927	0.005826134
244	0xbdfae03b	-0.122498
245	0xbd23a816	-0.03995522
246	0x3e629de1	0.22130539
247	0xbcc3825c	-0.023865871
248	0x3e972126	0.29517478
249	0x3d46ee5d	0.048567165
250	0x3e125bb4	0.14292794
251	0xbd494ec3	-0.04914738
252	0xbe20db25	-0.15708597
253	0x3de78810	0.11305249
254	0xbd8911d2	-0.06692852
255	0xbd26dbb6	-0.040736876

W__1034 f4 [1, 192, 128]
0	0xbd9e18f0	-0.077196
1	0xbe06a255	-0.13147862
2	0x3b890a19	0.004182112
3	0x3d94e08f	0.07269394
4	0x3e1780dd	0.14795251
5	0x3dd2ed64	0.10299185
6	0xbe070403	-0.13185124
7	0x3dcae5aa	0.09907086
8	0xbd348d32	-0.044079967
9	0x3e4fd733	0.20296936
10	0xbe5b1a3a	-0.21396723
11	0x3e3943c9	0.18092264
12	0xbe20bc65	-0.15696867
13	0xbe0d3750	-0.13790631
14	0xbe66ae18	-0.22527349
15	0xbda7c875	-0.08192531
16	0x3c1cfb39	0.0095813805
17	0xbdb2e1a4	-0.08734444
18	0x3c92a52f	0.017901031
19	0xbe83c6f4	-0.25737727
20	0x3eaa62a6	0.33278388
21	0xbe01de39	-0.12682427
22	0x3d1df3a5	0.038562436
23	0x3da0b410	0.07846844
24	0xbe0e57cf	-0.13900684
25	0x3df41ac1	0.119191654
26	0x3dda724d	0.106663324
27	0x3dff7565	0.12473563
28	0x3db3979e	0.08769153
29	0xbc1f51f2	-0.009724127
30	0xbe4e03fc	-0.20118707
31	0xbb850e9c	-0.0040605795
32	0x3e0286d3	0.12746744
33	0x3e46b8ec	0.1940648
34	0xbe99211e	-0.2990808
35	0xbd0d27c4	-0.03446175
36	0x3e859550	0.2609048
37	0xbd16672d	-0.03671949
38	0x3e0b5f75	0.13610633
39	0x3e23153e	0.15926072
40	0xbd0adbe7	-0.03390112
41	0xbe6c5789	-0.23080267
42	0x3d162e86	0.036665462
43	0x3d979ee6	0.07403354
44	0xbe21f764	-0.15817028
45	0x3ceff942	0.02929366
46	0xbe6123d0	-0.21986318
47	0x3d41c4ae	0.04730671
48	0x3e170341	0.14747335
49	0x3c9d3bf4	0.019193627
50	0xbead86cf	-0.33891913
51	0x3e3c721a	0.18402901
52	0x3cf03ac9	0.029324906
53	0x3e3f9f50	0.18713117
54	0x3df9bef3	0.12194624
55	0xbe700cf2	-0.23442438
56	0xbe16f33f	-0.14741229
57	0xbe932ed2	-0.2874666
58	0x3e81e3ba	0.25369054
59	0xbdc90051	-0.098145135
60	0xbc4a5136	-0.012348464
61	0xbe8271e1	-0.25477508
62	0xbd861d8d	-0.06548605
63	0x3e03cda6	0.12871417
64	0x3e34f871	0.17672898
65	0x3dfed4ab	0.12442907
66	0xbd4be271	-0.0497765
67	0xbe38936b	-0.18024985
68	0xbe4482dc	-0.19190544
69	0x3c86d909	0.016460912
70	0xbe244ec0	-0.16045666
71	0xbd1bd898	-0.038048357
72	0xbe8eb394	-0.27871382
73	0x3dc0028d	0.093754865
74	0xbe3ca47d	-0.18422122
75	0xbe338c14	-0.17533904
76	0xbc317420	-0.010830909
77	0x3dd058b9	0.101731725
78	0x3d7514f6	0.059834443
79	0xbd8f6c5f	-0.07003092
80	0x3e6108ce	0.21976015
81	0xbe4bc8c5	-0.19900806
82	0x3e434f0e	0.19073126
83	0x3dc4bd33	0.096063994
84	0xbe33fde6	-0.17577323
85	0x3e51ac4e	0.20475885
86	0xbe19f240	-0.15033817
87	0x3cfdb6f9	0.030971037
88	0x3ba9cf98	0.005182218
89	0x3dc6b54d	0.09702549
90	0xbdc319f6	-0.09526436
91	0xbd90ef4d	-0.07076893
92	0xbdd64163	-0.1046169
93	0x3d8be42e	0.06830631
94	0x3dc971dc	0.0983617
95	0x3b518faa	0.00319765
96	0xbe69b8ce	-0.22824404
97	0x3d5aa6ce	0.053381734
98	0x3cf95ae2	0.030438844
99	0xbe247668	-0.16060793
100	0xbbeccf70	-0.007226877
101	0x3e547872	0.20749071
102	0x3e819a31	0.2531295
103	0x3e122189	0.14270605
104	0xbd0cb103	-0.0343485
105	0x3e02e986	0.12784395
106	0x3ddbfb10	0.10741246
107	0xbd5da05f	-0.05410802
108	0xbdd3b984	-0.10338119
109	0x3cc85692	0.024455342
110	0xbe0055ec	-0.12532777
111	0xbe46461e	-0.19362685
112	0xbd149b5b	-0.03628097
113	0xbd194e64	-0.037428275
114	0x3e12b99d	0.14328618
115	0xbd608c52	-0.05482132
116	0x3d4d4c89	0.050121818
117	0x3e268c6b	0.16264503
118	0x3dd9d3a9	0.10636074
119	0xbdaab69c	-0.08335611
120	0x3e4418f0	0.19150138
121	0x3e820da8	0.25401044
122	0x3d6d94ab	0.05800311
123	0x3d89d222	0.06729533
124	0xbbfe5f84	-0.007762851
125	0xbe6ba9f3	-0.23014049
126	0xbdb4c01d	-0.08825705
127	0x3e09f6df	0.1347308
128	0xbd33e683	-0.043921005
129	0xbd2cbbf1	-0.042171422
130	0xbe0be45a	-0.13661328
131	0x3dd7c5aa	0.10535748
132	0xbd73fd79	-0.059567902
133	0x3e311192	0.17291859
134	0xbdadbb2d	-0.084829666
135	0x3d1921e4	0.037385836
136	0xbae5fd9e	-0.0017546897
137	0x3c4aedc2	0.012385787
138	0xbc559e84	-0.013038281
139	0x3c88321b	0.016625455
140	0xbc22bb16	-0.0099323
141	0xbd725049	-0.059158597
142	0xbc94b5b6	-0.018153053
143	0xbe66f977	-0.22556101
144	0x3da8475c	0.08216736
145	0xbe55ca0b	-0.20877855
146	0xbcd05744	-0.025432236
147	0xbda0d72e	-0.07853542
148	0x3e228f12	0.1587489
149	0xbe3f91b9	-0.18707933
150	0x3d33b850	0.043876946
151	0x3d14e3c8	0.03635004
152	0xbe0d110c	-0.13776034
153	0xbd6ae210	-0.057344496
154	0x3daf8b8c	0.08571538
155	0xbc22e569	-0.009942391
156	0x3e5a47e7	0.21316491
157	0x3c7afa1c	0.01531842
158	0xbd76ce75	-0.060255487
159	0xbe1e0507	-0.15431605
160	0x3a4795ef	0.00076135894
161	0xbe55bae9	-0.20872082
162	0xb97e81d0	-0.00024271687
163	0x3dc8fa42	0.09813358
164	0xbd7811f1	-0.060563985
165	0x3ca9752b	0.020685753
166	0xbaccb10c	-0.0015616729
167	0x3e184976	0.14871773
168	0x3d955829	0.07292206
169	0xbdd1ac99	-0.102379985
170	0x3c31e150	0.010856941
171	0xbd07804e	-0.033081345
172	0xbd3e21b1	-0.04641885
173	0xbdf311f9	-0.118686624
174	0xbe2dd80c	-0.16976947
175	0x3e2bce5f	0.16777943
176	0x3ceadb8e	0.028669145
177	0x3e739a9a	0.23789445
178	0x3c85453b	0.016268363
179	0x3c26dade	0.010184018
180	0x3df0e5e0	0.11762595
181	0xbdefca0a	-0.11708458
182	0xbdab349a	-0.08359642
183	0xbdf74c6b	-0.120751224
184	0xbe4674de	-0.19380519
185	0x3d3ffed1	0.04687387
186	0xbd4f82ce	-0.050661854
187	0xbe6931c9	-0.22772898
188	0x3e4f7852	0.20260742
189	0x3b81c0d6	0.0039597554
190	0xbc87d1b2	-0.016579483
191	0xbd80e30b	-0.06293305
192	0x3c569549	0.013097116
193	0x3dc7b7e4	0.09751871
194	0x3cbdb395	0.02315692
195	0xbcbc5c64	-0.022993274
196	0x3cfc676a	0.03081103
197	0x3e362554	0.17787677
198	0xbda94e26	-0.08266859
199	0x3d769be1	0.06020725
200	0xbdf96eb0	-0.12179315
201	0xbbeb5afe	-0.007182478
202	0xbe197586	-0.14986238
203	0x3d0a123c	0.033708796
204	0xbe48b29c	-0.19599384
205	0xbd9ca72f	-0.07649075
206	0xbd104201	-0.035219196
207	0xb710a980	-8.622534e-06
208	0xbd91d214	-0.07120147
209	0x3e249ca2	0.16075376
210	0xbd5881da	-0.05285821
211	0x3d0f9f62	0.03506411
212	0xbda65482	-0.08121587
213	0xbd940056	-0.072266266
214	0x3e0d6a2a	0.1381003
215	0xbd8ee664	-0.06977537
216	0x3e269962	0.16269448
217	0xbd8776b4	-0.06614438
218	0xbddc2b81	-0.10750485
219	0x3c2043f1	0.0097818235
220	0x3e84a5da	0.25907785
221	0x3d6e77c7	0.058219697
222	0xbdef5e2d	-0.116878845
223	0xbe1827de	-0.14858958
224	0xbd010210	-0.031496108
225	0x3e131dca	0.14366832
226	0x3e3aa64d	0.18227501
227	0xbdc0ed09	-0.09420211
228	0x3dfd231c	0.12360212
229	0xbd6c6eca	-0.057722844
230	0xbd968f85	-0.07351593
231	0xbdeb4e18	-0.114895046
232	0x3dd68427	0.10474425
233	0x3e1c44c7	0.15260611
234	0x3e563d6a	0.20921865
235	0xbe00601a	-0.1253666
236	0xbceb233e	-0.028703328
237	0xbdac55c4	-0.08414796
238	0x3c38c61f	0.0112777045
239	0xbe0ea120	-0.13928652
240	0x3d9d3e10	0.07677853
241	0xbd54d552	-0.05196125
242	0x3d942fec	0.07235703
243	0x3cce3ec7	0.025176419
244	0x3dcd6f49	0.100309916
245	0x3df1c6d6	0.11805503
246	0xbdd90567	-0.105967335
247	0xbb4490f4	-0.0029993625
248	0xbc2ff99c	-0.010740664
249	0x3e19d2a6	0.15021762
250	0x3e21ce84	0.15801436
251	0x3d832fe0	0.06405616
252	0x3ceb5337	0.028726203
253	0x3d76cecc	0.06025581
254	0x3e3fdcf4	0.1873663
255	0x3d8a7ca5	0.06762055

W__1021 f4 [1, 384, 6]
0	0xbcee5541	-0.029093387
1	0xbd307293	-0.043078016
2	0x3d472f31	0.04862899
3	0xbd61e013	-0.055145334
4	0x3c079495	0.008275171
5	0x3c474b0f	0.012163891
6	0x3d977964	0.073962
7	0x3d9e3802	0.077255264
8	0xbba4e248	-0.0050318576
9	0x3cd6d5b8	0.026224956
10	0xbd9f2b62	-0.077719465
11	0xbd1d2436	-0.03836461
12	0x3e142a8d	0.14469357
13	0xbd47b49e	-0.048756234
14	0x3d0c1b57	0.03420576
15	0xbd557f43	-0.05212332
16	0x3c2cc553	0.010545093
17	0x3db28b7a	0.08718009
18	0x3de62bd7	0.112388305
19	0x3d753899	0.05986843
20	0xbd294250	-0.041323006
21	0xbcc959e9	-0.024579005
22	0xbd927a95	-0.07152287
23	0x3e1d1a1f	0.15341996
24	0x3da059fc	0.07829663
25	0x3cf803d1	0.030275257
26	0x3c3e546e	0.011616809
27	0x3de408bc	0.111344784
28	0x3dbe16cf	0.09281694
29	0xbdb8db8d	-0.09026251
30	0x3e356692	0.17714909
31	0x3e3f8e94	0.18706733
32	0xbc115bc6	-0.008871978
33	0x3d901b1c	0.07036421
34	0x3d680cec	0.05665295
35	0x3dce476a	0.10072215
36	0x3e18fc62	0.14940026
37	0x3c3e1d9e	0.011603741
38	0xbca0fbad	-0.019651258
39	0x3e0c617d	0.13709064
40	0x3e2b3495	0.16719277
41	0xbcff8f27	-0.03119619
42	0x3e308ecd	0.17241974
43	0x3dd4c9ae	0.1039003
44	0xbe020e1d	-0.12700696
45	0xbc02369e	-0.007947592
46	0xbda3488f	-0.07972824
47	0xbd96b563	-0.073588155
48	0x3db4fcea	0.08837302
49	0xbd9ac305	-0.07556728
50	0xbdb31ff0	-0.08746326
51	0xbcbc93eb	-0.023019752
52	0x3d00fdb0	0.031491935
53	0x3c81494f	0.015782027
54	0x3c2b0fe4	0.0104408
55	0x3da54e08	0.08071524
56	0x3e246d11	0.1605723
57	0x3d093818	0.03350076
58	0x3de97535	0.113993086
59	0x3e25d299	0.16193618
60	0xbddeb0a1	-0.10873533
61	0x3dea9216	0.11453645
62	0xbdc625b7	-0.09675162
63	0xbd1f1be8	-0.038844973
64	0x3dbb3929	0.09141762
65	0xbdcafb58	-0.09911221
66	0xbd5d22ed	-0.053988386
67	0xbdc4ea8b	-0.09615048
68	0xbdf9e601	-0.12202073
69	0xbd81cc23	-0.06337764
70	0x3d5d6455	0.054050762
71	0x3cc00ebf	0.023444531
72	0x3d89065f	0.06690668
73	0x3e029e76	0.1275576
74	0x3d66ca15	0.056345064
75	0x3dd5e172	0.10443391
76	0x3e147706	0.14498529
77	0x3d0023d3	0.031284165
78	0x3dccbd16	0.09997003
79	0x3d2a8cd9	0.04163823
80	0xbcaee454	-0.02134911
81	0xbe1cf12d	-0.15326376
82	0x3cb40da4	0.02197916
83	0x3d0751ad	0.033036876
84	0x3e22ea24	0.1590963
85	0x3dbc6119	0.091982074
86	0x3dc0b7ad	0.094100334
87	0xbda78969	-0.08180506
88	0xbbdb24c3	-0.006687732
89	0x3e6c74c3	0.23091416
90	0xbdacd439	-0.08438916
91	0xbb5dc182	-0.0033837263
92	0x3de80863	0.11329725
93	0x3dce5af2	0.1007594
94	0xbd0fc2d5	-0.035097916
95	0x3d21b49e	0.03947889
96	0x3e25cafc	0.16190714
97	0x3e0e81d0	0.13916707
98	0x3ced96e3	0.029002612
99	0x3e66758d	0.2250578
100	0x3d148ff5	0.0362701
101	0x3e44ee88	0.19231617
102	0x3d51cda9	0.051221523
103	0xbc47f709	-0.012204894
104	0xbdc84ee0	-0.09780669
105	0xbd9ea870	-0.07746971
106	0xbc9d3073	-0.019188141
107	0x3e4e6a34	0.20157701
108	0xbe3ba91e	-0.18326232
109	0xbdac5257	-0.084141426
110	0xbe11b5a0	-0.1422944
111	0xbda017c8	-0.07817036
112	0x3d8f372c	0.06992945
113	0xbd29182a	-0.04128281
114	0x3d330e84	0.043715015
115	0x3e3c9deb	0.18419616
116	0x3e245923	0.16049628
117	0x3d641431	0.05568332
118	0xbcb8f144	-0.022575982
119	0x3e591129	0.21197952
120	0xbda06808	-0.078323424
121	0x3d25f906	0.04052069
122	0xbd3f11b7	-0.046647754
123	0xbe348ecc	-0.17632598
124	0xbe000539	-0.12501992
125	0xbde90f63	-0.11379888
126	0x3d1fda82	0.039026745
127	0x3ddfb6bf	0.10923528
128	0xbd8a1545	-0.06742338
129	0x3dd9671c	0.1061537
130	0x3e33aca5	0.17546327
131	0x3c0551f2	0.008137213
132	0xbc0a9fae	-0.008460922
133	0x3cb24b7b	0.021764508
134	0xbd8d93b7	-0.0691294
135	0x3dac266e	0.084057674
136	0x3dcc8af0	0.09987438
137	0x3d3ca361	0.046054248
138	0xbce1a3c3	-0.027543908
139	0xbd9d84f1	-0.07691372
140	0x3dc8805f	0.0979011
141	0x3e09c195	0.13452752
142	0xbd9dcd63	-0.0770519
143	0xbbff6128	-0.0077935643
144	0x3cd65c9f	0.026167212
145	0xbe14a93d	-0.14517684
146	0x3c8b6089	0.017013805
147	0xbe1d4b21	-0.1536069
148	0xbd2be6cc	-0.041968152
149	0xbd80d0db	-0.06289836
150	0x3ded17ac	0.11576781
151	0xbdae7421	-0.085182436
152	0x3dc685ae	0.09693466
153	0xbb4dc083	-0.0031395264
154	0x3dc7fd59	0.09765119
155	0x3d25d859	0.04048953
156	0x3d6a44a1	0.057194356
157	0x3d1760a3	0.036957394
158	0xbe0c1fa3	-0.13683943
159	0xbd77eedc	-0.06053053
160	0x3d7c31a7	0.06157079
161	0x3a84267a	0.0010082268
162	0x3ddf9282	0.10916616
163	0x3db5aa98	0.08870429
164	0xbdbc2424	-0.09186581
165	0x3b52c48b	0.0032160606
166	0x3dc406c6	0.095716044
167	0xbd3628bb	-0.044472437
168	0xbdfe2117	-0.12408655
169	0xbe1ccc85	-0.15312393
170	0xbd3fe3bd	-0.046848048
171	0xbe6b9890	-0.23007417
172	0xbe049874	-0.12948781
173	0x3e24cf62	0.16094735
174	0x3dbc79c3	0.09202912
175	0xbcf2a194	-0.029618062
176	0x3e1cb984	0.15305144
177	0x3da89140	0.08230829
178	0xbc7cd6ab	-0.01543204
179	0x3e411754	0.18856555
180	0x3d0c1172	0.034196325
181	0x3b9a537e	0.00470966
182	0x3d205098	0.03913936
183	0xbbc12da9	-0.0058953357
184	0x3d9970e7	0.074922375
185	0x3e57366b	0.21016853
186	0x3da54b28	0.080709755
187	0xbd0bd2b5	-0.034136493
188	0x3c31fcc1	0.010863484
189	0xbbe922a5	-0.0071147257
190	0xbd963033	-0.07333412
191	0x3e099597	0.1343597
192	0x3d163251	0.03666908
193	0x3cd5ffe2	0.026122991
194	0x3daa1f8c	0.08306798
195	0x3d78118b	0.060563605
196	0xbcc09bec	-0.02351185
197	0x3e4b588c	0.19857997
198	0xbdabf9a1	-0.08397222
199	0xbd833067	-0.064057164
200	0x3cb43da9	0.022002058
201	0x3cd8a50e	0.026445892
202	0xbda01eeb	-0.07818397
203	0x3d79386d	0.060844827
204	0xbdde7d3b	-0.108637296
205	0xbd9424b0	-0.0723356
206	0xbc48d88a	-0.012258658
207	0xbdf2c41d	-0.11853812
208	0xbc1d1329	-0.009587088
209	0x3d872682	0.06599142
210	0xbc9af498	-0.01891546
211	0x3d5abc5e	0.053402297
212	0x3da8c581	0.08240796
213	0x3dbddedd	0.092710234
214	0xbd009636	-0.031393252
215	0x3e4318f1	0.19052483
216	0x3d54b4db	0.05193029
217	0xbd137a3d	-0.036005247
218	0xbd450281	-0.04809809
219	0xbc303852	-0.010755615
220	0xbd17e32c	-0.037081882
221	0x3d17e4ce	0.03708344
222	0x3b4cdd1e	0.0031259726
223	0x3c66b239	0.0140805775
224	0x3d99a0ed	0.07501397
225	0x3dbe090d	0.0927907
226	0xbd62ae05	-0.05534174
227	0x3e2084e3	0.15675692
228	0x3d4c8d49	0.049939428
229	0x3e0f3d87	0.13988315
230	0x3df5c5ad	0.12000594
231	0xbdb2dd14	-0.087335736
232	0xbd0d7fe0	-0.03454578
233	0x3d8a29fe	0.067462906
234	0x3e369f19	0.17834128
235	0xbd46e7fb	-0.048561078
236	0xbd6b0a2a	-0.05738274
237	0xbc49271a	-0.012277389
238	0x3d4abf26	0.0494987
239	0x3da4c227	0.08044844
240	0xbdae4108	-0.085084975
241	0x3c047750	0.008085087
242	0xbd85a9eb	-0.0652655
243	0x3e1a9e8a	0.1509954
244	0x3da49766	0.080366895
245	0xbc716214	-0.014732856
246	0xbccb5667	-0.024821473
247	0xbd96d040	-0.07363939
248	0x3dc6cb22	0.09706713
249	0x3d952eb4	0.072842985
250	0x3c101681	0.008794428
251	0x3e16e488	0.14735615
252	0x3da09300	0.07840538
253	0xbdba43b6	-0.09094946
254	0xbdb08ab8	-0.086202085
255	0x3db909f2	0.090351

R__1049 f4 [1, 96, 32]
0	0x3d9f1b5e	0.07768892
1	0xbd800537	-0.06250995
2	0x3bdd816d	0.0067598135
3	0x3d61d76a	0.055137075
4	0x3d847824	0.064682275
5	0xbcbd6ee7	-0.023124171
6	0x3cdd0f37	0.026984794
7	0xbe26dc49	-0.1629497
8	0xbd27476c	-0.040839598
9	0xbe8afec1	-0.27147487
10	0xbda1b9f7	-0.07896798
11	0xbe49a6ed	-0.19692583
12	0x3dca6a5f	0.0988357
13	0xbea2dccf	-0.3180909
14	0x3e000c6e	0.12504742
15	0x3e553391	0.20820452
16	0x3d5899bb	0.052880984
17	0xbde0762e	-0.10960041
18	0xbe03e898	-0.12881696
19	0xbd15901d	-0.03651439
20	0xbb914364	-0.0044330824
21	0xbc996ccb	-0.018728634
22	0x3dd35692	0.10319246
23	0x3e02de89	0.12780203
24	0x3e7b730f	0.2455561
25	0xbd9beb01	-0.07613183
26	0x3d03f06e	0.032211713
27	0xbe02a273	-0.12757282
28	0x3d9c497a	0.07631202
29	0x3e12e615	0.14345582
30	0xba2040f3	-0.0006113194
31	0x3d3bc234	0.045839503
32	0xbde268a1	-0.11055113
33	0xbe69919b	-0.2280945
34	0xbd6db62d	-0.058035064
35	0xbdde1d86	-0.10845475
36	0xbb677796	-0.0035319082
37	0x3dc46ba1	0.09590841
38	0x3ddbe069	0.10736162
39	0x3ba9de91	0.0051840027
40	0xbd7478dc	-0.059685573
41	0xbe167c7e	-0.14695928
42	0x3e17eec5	0.14837177
43	0x3e388b7e	0.18021962
44	0x3e8cda7a	0.27510434
45	0x3c217fdc	0.009857144
46	0x3eab4ecd	0.33458558
47	0xbe05b6ad	-0.13057967
48	0xbd0d0224	-0.03442587
49	0xbdbfde5c	-0.093685836
50	0x3da4d759	0.08048887
51	0x3e08c886	0.13357744
52	0x3daa9058	0.08328313
53	0xbe6ce184	-0.23132902
54	0xbd03e99e	-0.032205217
55	0x3cd09295	0.02546052
56	0xbcfbbf56	-0.030730885
57	0xbd32bbc0	-0.043636084
58	0x3de833df	0.113380186
59	0xbe6739dd	-0.22580667
60	0xbddeaed5	-0.1087319
61	0xbcf2cfca	-0.029640097
62	0xbe661e1c	-0.22472423
63	0x3ad0a3fd	0.0015918013
64	0xbcf3dab2	-0.029767368
65	0x3e2962c9	0.1654159
66	0xbdf3e06e	-0.11908041
67	0x3dad31e1	0.08456779
68	0x3d526919	0.05136976
69	0xbc57e853	-0.013177949
70	0x3dfc88b1	0.12330759
71	0x3cf088bc	0.029362075
72	0xbc0b0e43	-0.008487287
73	0x3cf7a6e6	0.03023095
74	0x3da5f78a	0.08103855
75	0xbe0d43ef	-0.13795446
76	0xbce6d0bc	-0.028175704
77	0x3c89411c	0.01675468
78	0x3d8b8f2e	0.06814419
79	0xbd559689	-0.052145515
80	0xbddc4859	-0.10755987
81	0xbe7a2e76	-0.24431786
82	0xbe657fc5	-0.22412021
83	0x3dc3c278	0.09558576
84	0xbd5cd4fc	-0.053914055
85	0x3dd81cb3	0.10552349
86	0xbdb4b4c9	-0.088235445
87	0xbd73bb66	-0.05950489
88	0xbc840033	-0.016113376
89	0xbe164815	-0.14675935
90	0x3dc0149f	0.09378933
91	0xbe13c834	-0.1443184
92	0xbe244f18	-0.16045797
93	0x3e2facf9	0.17155828
94	0xbda3f492	-0.080056325
95	0x3e58cacc	0.21171111
96	0xbcd93dcd	-0.026518727
97	0xbc1be8c7	-0.009515948
98	0x3ddb1039	0.106964536
99	0x3e05df9b	0.1307358
100	0xbe6f24f9	-0.23353948
101	0xbc191204	-0.009342674
102	0xbceeb76c	-0.029140197
103	0xbddfa780	-0.1092062
104	0x3dd27636	0.10276453
105	0xbe24c4cf	-0.16090702
106	0xbd81d4c8	-0.06339413
107	0xbc9e2022	-0.019302431
108	0x3dc65757	0.096846275
109	0x3db09ecd	0.08624039
110	0xbd92384f	-0.07139646
111	0xbc9a2a08	-0.01881887
112	0xbcfaeec4	-0.03063143
113	0xbe0aa38b	-0.13538949
114	0x3bb7a560	0.005604431
115	0xbc84cab9	-0.016209947
116	0xbdadc791	-0.0848533
117	0xbd671516	-0.056416593
118	0x3ebcc076	0.36865586
119	0xbd91bd9e	-0.07116245
120	0x3d71c622	0.059026845
121	0xbe0be9e4	-0.13663441
122	0x3dc6595b	0.09685012
123	0x3e31706c	0.17328042
124	0x3e8499ef	0.25898692
125	0xbda9a764	-0.0828388
126	0x3d2fc11c	0.042908773
127	0x3ddbd326	0.10733633
128	0xbe36f9bc	-0.17868704
129	0xbd3d97b3	-0.04628725
130	0x3dc79fa4	0.09747246
131	0x3e70f3e2	0.23530534
132	0xbdd3d257	-0.103428535
133	0xbd84f780	-0.064925194
134	0xbc134164	-0.008987758
135	0xbc959001	-0.018257143
136	0x3dc011ab	0.0937837
137	0x3d11e504	0.035618797
138	0x3ec40b94	0.38290083
139	0xbd2c5893	-0.04207666
140	0x3debdc7d	0.11516664
141	0x3e052f47	0.13006316
142	0x3c7bc3a5	0.0153664695
143	0xbcf86814	-0.030323066
144	0xb9eddd80	-0.00045369193
145	0x3e56697a	0.20938674
146	0xbd8ba86b	-0.068192326
147	0xbd92ffbb	-0.07177683
148	0xbe57d1e8	-0.21076167
149	0xbc6bac1c	-0.014384296
150	0xbe3ed24e	-0.18634912
151	0x3d0279eb	0.03185455
152	0x3d093a60	0.033502936
153	0x3dd21109	0.102571554
154	0x3e186c27	0.14885007
155	0xbda7aa4c	-0.081867784
156	0x3e661e31	0.22472455
157	0xbe2db1e9	-0.16962399
158	0x3de5deba	0.11224122
159	0xbdbb57d1	-0.09147609
160	0xbe084717	-0.13308369
161	0x3d1dee04	0.038557068
162	0xbd75dc27	-0.060024407
163	0xbdaea8a1	-0.08528257
164	0xbe8116f0	-0.25212812
165	0xbcc98300	-0.024598598
166	0x3ce40870	0.027836055
167	0xbe58ee28	-0.211846
168	0x3cab211b	0.02088981
169	0x3deb0889	0.11476237
170	0x3db8c72e	0.090223655
171	0x3c5cb3d6	0.013470611
172	0xbcb7ca8a	-0.022435445
173	0xbdcb2f09	-0.099210806
174	0x3e61119d	0.21979375
175	0xbcdcd9af	-0.026959268
176	0xbe24e425	-0.16102655
177	0x3dbdaa0a	0.09260948
178	0x3e0bc328	0.13648665
179	0xbdacfbf8	-0.08446497
180	0xbe46c5b1	-0.19411351
181	0xbc2744e0	-0.010209292
182	0xbda9884f	-0.08277952
183	0xbc5a7a51	-0.013334827
184	0x3d3319ee	0.0437259
185	0xbd9152d9	-0.0709588
186	0xbc5fccb9	-0.0136596495
187	0x3d452efc	0.04814051
188	0xbeaebc8b	-0.34128222
189	0xbe184ab1	-0.14872243
190	0xbdd51aab	-0.10405477
191	0xbde8f83a	-0.113754705
192	0xbe0621a8	-0.13098776
193	0x3e070c8d	0.13188381
194	0xbe0cfcba	-0.13768283
195	0xbdf146f6	-0.11781113
196	0x3df0655d	0.117380835
197	0x3db16d08	0.08663374
198	0xbd0beffc	-0.034164414
199	0xbcad100f	-0.021125821
200	0xbe626f6c	-0.22112817
201	0xbde0cdbe	-0.10976742
202	0x3c8f43d9	0.017488407
203	0xbe4347d8	-0.19070375
204	0x3dc08ff3	0.09402456
205	0x3b067a4e	0.0020519677
206	0x3e98b317	0.29824135
207	0xbd8a86af	-0.0676397
208	0x3e186156	0.1488088
209	0xbd43461e	-0.04767429
210	0x3e05fe2c	0.1308524
211	0x3d8cf88c	0.06883344
212	0xbe9c56a4	-0.30534852
213	0xbe095fa4	-0.1341539
214	0x397f96b0	0.0002437483
215	0xbd79390f	-0.06084543
216	0x3e2442bb	0.1604108
217	0xbdfcbef9	-0.12341113
218	0xbd013c1f	-0.031551477
219	0xbd627117	-0.055283632
220	0xbdbe1c2a	-0.092827156
221	0xbcff2030	-0.031143278
222	0xbd231273	-0.039812516
223	0x3d6b3972	0.05742783
224	0x3d026827	0.03183761
225	0x3e804a3f	0.25056645
226	0xbeb4149c	-0.35171974
227	0xbd4a09db	-0.049325805
228	0xbe2f5657	-0.1712278
229	0x3e91271d	0.28350154
230	0xbd2716a1	-0.040793065
231	0xbe4ecf91	-0.20196368
232	0xbe39b2ca	-0.18134609
233	0xbe90173a	-0.2814272
234	0x3d501ff1	0.05081171
235	0xbdf1e1ba	-0.11810632
236	0xbd08686c	-0.03330271
237	0xbdcb8cc6	-0.0993896
238	0x3d3a4fc8	0.04548624
239	0x3e093ab2	0.13401297
240	0x3dd683d1	0.10474361
241	0xbd5f3613	-0.05449493
242	0x3d9a8605	0.075450934
243	0x3e760c26	0.24028072
244	0x3e4b9727	0.19881879
245	0xbe35f1b6	-0.17767987
246	0x3c27653c	0.010217007
247	0xbe0f18fc	-0.13974375
248	0x3e95dc06	0.29269427
249	0xbe50f2c9	-0.20405115
250	0x3de9b7cf	0.11412012
251	0xbec03dea	-0.37547237
252	0xbe807c7a	-0.25094968
253	0x3da8b9d8	0.08238572
254	0xbde305e9	-0.11085112
255	0xbdc9e4f3	-0.09858122

R__1035 f4 [1, 192, 64]
0	0x3d9dffc7	0.07714801
1	0xbdd1fb22	-0.10252978
2	0x3d23d872	0.04000134
3	0x3e7cce9d	0.24688192
4	0x3e2c1815	0.16806062
5	0x3d4dcade	0.050242297
6	0x3d9692c9	0.07352216
7	0xbdda10d3	-0.1064774
8	0x3cf037c0	0.029323459
9	0xbdbf816f	-0.093508594
10	0xbe6a39ba	-0.22873583
11	0xbdaf1511	-0.0854894
12	0xbe3c442d	-0.18385382
13	0x3df7385f	0.12071299
14	0xbc96a258	-0.018387958
15	0x3df09279	0.117466874
16	0x3ddd6e66	0.108120725
17	0xbce408f7	-0.027836306
18	0x3e6034e1	0.21895172
19	0xbe885512	-0.26627403
20	0xbd3ad619	-0.045614336
21	0xbe8655af	-0.26237246
22	0x3d4a901d	0.049453843
23	0xbe177c49	-0.14793505
24	0x3e5667ca	0.2093803
25	0x3c91f250	0.017815739
26	0xbddee2d6	-0.10883109
27	0xbdea004b	-0.11425837
28	0xbe4eae07	-0.20183574
29	0x3e142594	0.1446746
30	0x3e5b9155	0.21442159
31	0xbd762d90	-0.060102046
32	0x3e50eb77	0.20402323
33	0x3e1387bb	0.14407246
34	0xbe1ff889	-0.15622152
35	0xbda47bab	-0.080314
36	0x3d113e56	0.03545984
37	0xbeb6a786	-0.35674685
38	0xbe0fc983	-0.14041714
39	0xbe820ead	-0.25401822
40	0x3e86027f	0.2617378
41	0x3dacd3cc	0.084388345
42	0x3dfbde5a	0.122982696
43	0xbb92e205	-0.00448251
44	0x3e0ae2b1	0.13563038
45	0xbe502ed5	-0.20330365
46	0x3e3d4367	0.18482743
47	0x3cf2acec	0.029623471
48	0x3e12b19e	0.14325568
49	0x3e03c67b	0.12868683
50	0x3e80105a	0.25012475
51	0xbe02bbd4	-0.12766963
52	0x3e0281c2	0.12744811
53	0x3ebefacc	0.37300718
54	0x3cf47a86	0.02984358
55	0xbc86877c	-0.016422026
56	0x3d41bd01	0.04729939
57	0x3e331b79	0.17490949
58	0xbdc7e3e6	-0.09760265
59	0xbc6192cf	-0.013767912
60	0x3e6a29a2	0.22867444
61	0xbdc6c57f	-0.09705638
62	0x3e30163e	0.17195985
63	0xbc503974	-0.01270901
64	0xbd1ff9a5	-0.03905644
65	0xbdcca371	-0.099921115
66	0x3d7bf5c6	0.061513685
67	0x3de484db	0.11158153
68	0x3ddaab53	0.10677209
69	0x3da6bd95	0.08141629
70	0x3d251970	0.040307462
71	0xbdadca24	-0.08485821
72	0xbdce3059	-0.10067815
73	0x3d45aefb	0.048262578
74	0xbd1e6af2	-0.03867621
75	0xbd83e17e	-0.064394936
76	0x3ddd01f8	0.10791391
77	0x3d08c1bb	0.03338788
78	0x3a810c2d	0.0009845548
79	0xbe1d5512	-0.15364483
80	0x3e035243	0.12824349
81	0x3c5fed1b	0.01366737
82	0x3d18c0e3	0.037293326
83	0x3c607590	0.013699904
84	0xbe18cb80	-0.14921379
85	0x3d7c0147	0.061524656
86	0xbcc8a7c1	-0.024494054
87	0x3c5d30a7	0.013500369
88	0x3e67ac3a	0.22624293
89	0xbe450ea2	-0.19243863
90	0xbe03f4f2	-0.12886408
91	0xbe0350d9	-0.1282381
92	0xbde637e2	-0.112411276
93	0xbca17a94	-0.01971177
94	0xbd8ec19c	-0.06970522
95	0xbdbe6869	-0.092972584
96	0x3d9e85f1	0.07740391
97	0x3e02efbb	0.12786762
98	0xbd1279f2	-0.035760827
99	0x3d1373a3	0.03599895
100	0x3da29061	0.07937694
101	0xbcdd9ef9	-0.027053343
102	0xbda24965	-0.07924155
103	0xbd574ca3	-0.05256332
104	0x3e27a160	0.16370153
105	0xbbcbf782	-0.0062245736
106	0x3a77ad82	0.0009448157
107	0xbc1fb2c4	-0.009747211
108	0x3d396bfe	0.045269005
109	0xbd9d9252	-0.07693924
110	0xbcb7263b	-0.022357097
111	0x3d79d70a	0.060996093
112	0x3de804a6	0.113290116
113	0x3d99f521	0.07517458
114	0xbd942bce	-0.072349176
115	0xbde15dc7	-0.11004215
116	0x3e2008a1	0.15628292
117	0x3e3ea683	0.18618207
118	0xbe08a88b	-0.13345544
119	0x3d925506	0.07145123
120	0x3e365b51	0.17808272
121	0x3ce3d268	0.02781029
122	0xbd990976	-0.07472508
123	0x3e1ac845	0.1511546
124	0x3e43c095	0.19116433
125	0x3d3cc893	0.04608972
126	0x3e3cf374	0.18452245
127	0x3d5d2b4b	0.053996366
128	0xbdf8cfbc	-0.12148997
129	0xbc8397d5	-0.01606361
130	0x3d19e6ec	0.03757374
131	0xbd583501	-0.052784923
132	0x3dfc143f	0.12308549
133	0xbd3ba6c4	-0.045813337
134	0xbd3887f3	-0.045051526
135	0xbd2fe7da	-0.04294572
136	0xbd8312b8	-0.06400055
137	0xbcb5260e	-0.022112872
138	0xbe237b5a	-0.15965024
139	0xbd902d91	-0.07039941
140	0xbd8a3a9c	-0.0674946
141	0x3dc16de1	0.09444786
142	0x3c9d3d5d	0.0191943
143	0x3dc2742e	0.09494816
144	0xbdd6c997	-0.10487669
145	0xbd82a8ae	-0.06379829
146	0x3e058d74	0.13042241
147	0x3c1f64c4	0.009728614
148	0x3de3315b	0.11093398
149	0x3cbe124a	0.02320208
150	0x3d277c7a	0.040890194
151	0xbd5a6b5a	-0.053325035
152	0x3c3646e9	0.011125305
153	0x3ce54b31	0.027989956
154	0xbcaa91c9	-0.020821469
155	0xbd6afe3a	-0.057371356
156	0xbc10367d	-0.0088020535
157	0x3d2da674	0.04239507
158	0x3daf1f7e	0.085509285
159	0xbd33cd5c	-0.043897018
160	0xbdc4ca62	-0.09608914
161	0xbe27a419	-0.16371192
162	0xbdca1dfe	-0.09869002
163	0x3d63914d	0.05555849
164	0x3cb195fa	0.02167796
165	0xbdce2017	-0.100647144
166	0xbca16191	-0.019699844
167	0x3d7ed205	0.06221201
168	0x3d915f30	0.07098234
169	0xbb518bc8	-0.0031974185
170	0xbe096a75	-0.13419516
171	0x3dc253e6	0.094886586
172	0x3d46edd4	0.048566654
173	0xbda49cf9	-0.08037753
174	0x3d44675a	0.047950126
175	0x3d9f5b56	0.07781093
176	0x3cb4619d	0.022019202
177	0xbde3cf9b	-0.11123582
178	0x3b60ff09	0.00343317
179	0x3e118c8d	0.14213772
180	0x3dbd8ccc	0.092553705
181	0x3d1f1b88	0.038844615
182	0x3d8f93b8	0.07010597
183	0xbcf3107b	-0.029670944
184	0x3de097e8	0.10966474
185	0x3ce29ac5	0.02766169
186	0xbdb139d4	-0.08653608
187	0x3b8dcd00	0.0043274164
188	0x3dc2ea40	0.09517336
189	0x3c88eb87	0.01671387
190	0x3df3c791	0.11903299
191	0x3d82d163	0.063875936
192	0x3d29537f	0.041339394
193	0x3e11fe3d	0.1425714
194	0xbd6e468a	-0.05817274
195	0xbd024993	-0.031808447
196	0xbe022f75	-0.12713416
197	0x3d2662e5	0.040621657
198	0xbd9879ff	-0.07445144
199	0xbd774cf5	-0.060376126
200	0x3c1da790	0.00962247
201	0xbe377702	-0.17916492
202	0xbd18b000	-0.03727722
203	0x3d989eac	0.07452139
204	0xbe792573	-0.24330692
205	0xbd863c68	-0.0655449
206	0x3db9d5aa	0.09073956
207	0xbc865223	-0.016396588
208	0xbcd35889	-0.025799053
209	0x3d552915	0.052041132
210	0xbe1c5a1b	-0.15268748
211	0x3e201ece	0.15636751
212	0x3c78608f	0.01515974
213	0x3bf761e6	0.007549512
214	0x3d523fd6	0.05133041
215	0xbe81f350	-0.25380945
216	0x3d8efab0	0.069814086
217	0xbdaad74b	-0.08341845
218	0x3cf3856f	0.029726712
219	0xbc535741	-0.012899221
220	0x3de3ca88	0.11122614
221	0x3d97feb3	0.07421627
222	0x3e05769d	0.13033529
223	0x3ded4da4	0.115870744
224	0xbcfd519b	-0.030922702
225	0x3df9734e	0.12180196
226	0x3d9040be	0.070435986
227	0x3d292397	0.041293707
228	0x3cbbbd10	0.0229173
229	0xbdc28699	-0.09498329
230	0x3c304c36	0.010760358
231	0x3d54f51a	0.05199156
232	0xbe1590cf	-0.14606021
233	0x3e1090b1	0.14117695
234	0xbd57dadb	-0.05269895
235	0xbd02493d	-0.031808127
236	0x3da5328b	0.08066281
237	0x3db47021	0.088104494
238	0xbc50389d	-0.01270881
239	0xbdcecd78	-0.10097784
240	0x3e2e4517	0.17018543
241	0x3dcfdb17	0.1014921
242	0xbe43b504	-0.1911202
243	0x3da99d69	0.08281977
244	0x3dedfddb	0.11620685
245	0x3dad1fda	0.08453341
246	0x3d7e0399	0.06201515
247	0x3d2e01d0	0.042482197
248	0x3bbb030d	0.005707151
249	0x3d816db5	0.06319753
250	0xbe0c1883	-0.13681225
251	0xbe1dd096	-0.154116
252	0x3d280ee9	0.041029844
253	0x3b8eb500	0.004355073
254	0xbd1c2718	-0.03812322
255	0x3dc925f8	0.09821695

R__1022 f4 [1, 384, 128]
0	0xbd84fa6f	-0.06493079
1	0x3cb87544	0.022516854
2	0x3db1852e	0.0866798
3	0x3e23b1c8	0.15985787
4	0x3df0a3b6	0.117499754
5	0xbb9f497e	-0.004861056
6	0xbd46aa58	-0.048502296
7	0x3d6ad1b7	0.057328906
8	0x3d985df4	0.07439795
9	0xbe0ad95b	-0.13559477
10	0x3d896fb0	0.06710756
11	0xbdf5c3c2	-0.120002285
12	0x3db00866	0.08595352
13	0x3e63ffce	0.2226555
14	0x3e1a605e	0.15075824
15	0xbe0ac834	-0.13552934
16	0xbdc87ec2	-0.09789802
17	0x3da71c56	0.081597015
18	0xbcc828ac	-0.024433456
19	0x3cc80c2b	0.024419865
20	0x3cbf4c27	0.023351742
21	0x3ddfa0d7	0.1091935
22	0x3dc103cb	0.094245516
23	0xbd25fe75	-0.040525872
24	0xbde0a7df	-0.10969519
25	0xbd8331e5	-0.06406001
26	0xbe93d4e2	-0.28873354
27	0x3b8dc814	0.0043268297
28	0xbc59c584	-0.01329172
29	0xbd0d82a3	-0.034548413
30	0x3da621e8	0.08111936
31	0xbe245814	-0.16049224
32	0x3d89700b	0.067108236
33	0xbe0f4119	-0.13989677
34	0x3e2ad8c9	0.1668426
35	0xbd08feea	-0.03344623
36	0xbd56c73a	-0.05243609
37	0x3d1e42ca	0.038637914
38	0x3d396d1e	0.045270078
39	0xbd510280	-0.051027775
40	0xbdeae879	-0.11470122
41	0x3ca183c7	0.019716157
42	0xbda49d67	-0.080378346
43	0x3c2f70ff	0.010708093
44	0xbcb32e62	-0.021872703
45	0xbd83506a	-0.06411822
46	0x3d941a6c	0.07231602
47	0x3d2d4864	0.042305365
48	0xbc8d09f1	-0.017216654
49	0xbdc60e6f	-0.09670722
50	0x3e02229b	0.12708513
51	0x3d984dbc	0.07436702
52	0xbde84f45	-0.113432445
53	0xbd39243d	-0.045200575
54	0xbdbde95f	-0.09273028
55	0x3e065f38	0.1312226
56	0x3d7cc513	0.061711382
57	0x3d165f0c	0.036711738
58	0xbe3bf0b8	-0.18353546
59	0x3a5c911b	0.00084139564
60	0xbccf8ca1	-0.025335612
61	0x3e0b0a18	0.13578069
62	0xbd170ec1	-0.036879305
63	0xbc88c937	-0.01669751
64	0xbd70bad3	-0.05877192
65	0xbe14f92d	-0.14548178
66	0x3e1a1018	0.15045202
67	0x3dd3c452	0.103401795
68	0xbc67fb37	-0.014159015
69	0xbd7a88be	-0.061165564
70	0x3d093079	0.033493493
71	0x3cbdbf35	0.023162464
72	0x3d5adb6e	0.05343192
73	0xbb290282	-0.0025788848
74	0x3c470972	0.012148248
75	0xbad8da19	-0.001654449
76	0x3d51bbc9	0.051204477
77	0xbe26cd4f	-0.16289257
78	0x3c5a8dcf	0.013339474
79	0x3e685a5a	0.22690716
80	0xbe0237b3	-0.1271656
81	0x3d34765c	0.04405819
82	0xbe4cb4ae	-0.19990799
83	0xbd38ddba	-0.04513333
84	0xbd1ff053	-0.03904755
85	0xbdf2a2a5	-0.11847428
86	0xb9edb3c0	-0.00045338087
87	0x3bc24b9f	0.005929425
88	0xbd82db14	-0.06389442
89	0xbdc7f6c0	-0.09763861
90	0x3dfb7aa9	0.12279255
91	0x3e1d03d9	0.15333499
92	0xbe3e031c	-0.18555874
93	0xbda81cee	-0.08208643
94	0xbd1ca192	-0.038240023
95	0x3d937f8d	0.07202063
96	0xbd7430cb	-0.059616845
97	0x3dd38738	0.10328525
98	0x3c931c11	0.017957719
99	0x3d190224	0.037355557
100	0xbcb89508	-0.022532001
101	0xbd12f5a2	-0.035878785
102	0xbdf877bb	-0.12132212
103	0xbe3020fe	-0.17200086
104	0xbbe7a234	-0.0070688967
105	0xbe46db6a	-0.19419637
106	0xbdf6e62b	-0.1205562
107	0x3deeaa78	0.11653608
108	0x3c17d710	0.0092675835
109	0xbc07412b	-0.008255283
110	0xbd0bfab7	-0.034174647
111	0x3da6c0ab	0.08142217
112	0x3dbab7c8	0.09117085
113	0xbd6dc862	-0.058052428
114	0xbd9bb3cf	-0.07602655
115	0x3de241dd	0.11047719
116	0xbddd20c4	-0.10797265
117	0xbe139f9c	-0.14416355
118	0xbd572ae5	-0.05253114
119	0x3e26a944	0.16275507
120	0xbe266470	-0.16249251
121	0xbdd0514f	-0.101717584
122	0xbdc1d121	-0.09463716
123	0xbd902f3b	-0.070402585
124	0x3d586312	0.052828856
125	0x3ce06584	0.027392156
126	0x3d6de3ba	0.058078505
127	0x3d5892d6	0.05287441
128	0xbd211491	-0.039326254
129	0xbd211235	-0.039324004
130	0xbd8cf5da	-0.0688283
131	0x3dd15ca6	0.102227494
132	0xbb1b2a80	-0.0023676455
133	0xbcdba467	-0.026811792
134	0xbd8ab92e	-0.067736015
135	0xbbb33f40	-0.0054701865
136	0x3e0d0d55	0.13774617
137	0xbd846810	-0.06465161
138	0x3dfe7444	0.1242452
139	0xbe52408c	-0.20532435
140	0x3d9c4b62	0.07631566
141	0x3d868f5e	0.06570314
142	0x3df0b588	0.11753374
143	0xbe4cadeb	-0.1998822
144	0xbe462d28	-0.19353163
145	0x3d019be6	0.031642817
146	0xbdb2f0ad	-0.087373115
147	0x3de06233	0.1095623
148	0xbdb4b0b9	-0.0882277
149	0x3d14f816	0.036369406
150	0x3e70091f	0.2344098
151	0xbd852077	-0.06500333
152	0xbe7ff202	-0.24994662
153	0xbcc0520c	-0.023476623
154	0xbe601d0f	-0.21886085
155	0xbae41776	-0.0017402011
156	0x3d7082ef	0.058718618
157	0xbc13ec5a	-0.009028519
158	0xbc54e875	-0.012994875
159	0xbe420dc1	-0.18950559
160	0x3d53ee9f	0.05174124
161	0xbe9b8d2d	-0.30381146
162	0x3ded508b	0.11587628
163	0x3cd08575	0.025454262
164	0x3b77097e	0.0037694867
165	0x3e2d0553	0.16896562
166	0x3caffb4d	0.021482134
167	0xbe104aac	-0.14090985
168	0x3d6f3a16	0.058405004
169	0xbd2942f6	-0.041323625
170	0xbe176c0f	-0.14787315
171	0x3d9e2d76	0.07723515
172	0x3ce3099a	0.02771454
173	0xbdeec964	-0.11659506
174	0x3c570661	0.013124079
175	0xbd5f3f4a	-0.054503717
176	0xbd94faa9	-0.07274372
177	0xbd8a2e69	-0.06747133
178	0x3e77c571	0.24196412
179	0xbd5c326d	-0.053759027
180	0x3cc58353	0.024110472
181	0xbdeb15c8	-0.11478764
182	0xbdbfafff	-0.093597405
183	0x3e60f91d	0.21970029
184	0x3ccb211e	0.024796065
185	0x3e50ef6c	0.20403832
186	0xbbd0515f	-0.0063573564
187	0xbd54405f	-0.0518192
188	0x3ae0b584	0.001714394
189	0x3dd00df6	0.10158913
190	0x3db59393	0.08866038
191	0x3e07a05c	0.13244766
192	0x3dbaed71	0.091273196
193	0xbe28f975	-0.1650141
194	0x3de095a9	0.109660454
195	0x3e23eacd	0.16007538
196	0x3ca187bc	0.019718044
197	0x39eb6fe8	0.0004490607
198	0x3e73078e	0.2373335
199	0x3e1dc31c	0.1540646
200	0x3d6205d6	0.055181347
201	0xbcaf36dd	-0.021388466
202	0x3c0f759e	0.0087560695
203	0xb9896a5e	-0.00026209926
204	0x3e218aa4	0.15775543
205	0xbdd8e4c3	-0.10590508
206	0xbdd3adf7	-0.103359155
207	0x3e1a6b44	0.15079981
208	0xbe09a0c2	-0.1344023
209	0x3e4054c6	0.18782339
210	0xbe89d280	-0.2691841
211	0x3cd3509d	0.025795275
212	0x3d51bce0	0.051205516
213	0xbda2b2a6	-0.07944231
214	0x3d49c2ac	0.04925792
215	0xbc026680	-0.007959008
216	0x3dc188c4	0.09449914
217	0xbe7b6301	-0.24549486
218	0x3cbbc4a3	0.022920912
219	0x3d83d611	0.06437314
220	0xbd78cb9f	-0.060741063
221	0xbbd2453c	-0.006416945
222	0xbe400385	-0.18751343
223	0xbdb1cda1	-0.08681799
224	0x3a9efe4d	0.0012130231
225	0x3e7cd34e	0.24689981
226	0x3e17f171	0.14838196
227	0x3d52d845	0.051475782
228	0x3e1e38c6	0.15451345
229	0xbd85029a	-0.06494637
230	0xbc2d4973	-0.010576594
231	0xbe070c9e	-0.13188407
232	0xbd5d4772	-0.054023214
233	0xbc8167cf	-0.01579657
234	0x3d0e106f	0.03468364
235	0x3d9192cc	0.071080774
236	0x3d4cc34d	0.04999094
237	0xbe2fe2f6	-0.17176422
238	0x3d786756	0.060645424
239	0x3e562ab0	0.20914721
240	0x3d985485	0.07437996
241	0x3d86ba61	0.06578518
242	0xbd7a02c0	-0.06103778
243	0x3dc01a57	0.09380024
244	0xbd6d7f1e	-0.057982557
245	0x3d84cedb	0.06484767
246	0xbe08adb2	-0.1334751
247	0x3ea4b524	0.3216945
248	0xbd9f8734	-0.0778946
249	0x3d1b13f4	0.037860826
250	0x3dfbe493	0.122994564
251	0xbe03e0b1	-0.12878682
252	0xbcf239ec	-0.029568635
253	0xbd29d14c	-0.041459367
254	0x3c7fce9a	0.0156132225
255	0x3de43436	0.11142771

GRU/quant_dense_15/LastValueQuant/FakeQuantWithMinMaxVars__1010 f4 [32, 1]
0	0xbcdfe998	-0.027333066
1	0xbe0f0e21	-0.13970234
2	0x3eac9965	0.3371078
3	0xbe8bf1ff	-0.27333066
4	0xbe569532	-0.20955351
5	0x3d154665	0.036444087
6	0xbea97d43	-0.3310338
7	0x3eafb587	0.34318182
8	0xbe53790f	-0.20651649
9	0xbe5fe998	-0.21866453
10	0xbe8f0e21	-0.27940467
11	0x3dff02ed	0.1245173
12	0x3df8caa9	0.12148029
13	0xbdec5a20	-0.115406275
14	0xbebc2610	-0.3674779
15	0xbe729265	-0.23688658
16	0xbda1b6ee	-0.07896219
17	0x3ec57a76	0.38569993
18	0xbdc70887	-0.09718423
19	0x3dae2776	0.0850362
20	0x3da7ef32	0.0819992
21	0x3e7be6cb	0.2459976
22	0xbd08d5dd	-0.03340708
23	0x3eb2d1a9	0.34925583
24	0x3da7ef32	0.0819992
25	0x3d6c5a20	0.057703137
26	0x3e53790f	0.20651649
27	0xbdc0d043	-0.09414723
28	0x3e24d310	0.16096139
29	0xbe0bf1ff	-0.13666533
30	0xbe8d8010	-0.27636766
31	0x3cdfe998	0.027333066

GRU/quant_dense_14/LastValueQuant/FakeQuantWithMinMaxVars__1009 f4 [32, 32]
0	0xbea3609b	-0.31909642
1	0x3e4d05c7	0.20021735
2	0x3c99c455	0.018770376
3	0x3da02c83	0.0782099
4	0xbde6a680	-0.11262226
5	0xbc19c455	-0.009385188
6	0xbe469d99	-0.19396056
7	0xbe00239c	-0.12513584
8	0x3e5d0a3b	0.21585934
9	0xbdf376dc	-0.11887905
10	0xbd0cf3f9	-0.034412358
11	0xbe7376dc	-0.2377581
12	0x3d00239c	0.03128396
13	0xbea3609b	-0.31909642
14	0xbe8e8e04	-0.27842724
15	0x3dacfce0	0.084466696
16	0xbe79df0b	-0.2440149
17	0xbc80239c	-0.01564198
18	0x3e8825d6	0.26591367
19	0x3ccd05c7	0.025027169
20	0xbd19c455	-0.037540752
21	0x3e3d0153	0.18457536
22	0xbe982a4a	-0.29719764
23	0xbdc0356b	-0.09385189
24	0xbe3030f7	-0.17206179
25	0xbe96903e	-0.29406923
26	0xbe16903e	-0.14703462
27	0x3e00239c	0.12513584
28	0xbd8cf3f9	-0.068824716
29	0x3e79df0b	0.2440149
30	0x3c4d05c7	0.012513584
31	0xbe59d623	-0.21273093
32	0x3e76aaf3	0.2408865
33	0xbe99c455	-0.30032602
34	0x3df9df0b	0.12200745
35	0x3d80239c	0.06256792
36	0xbccd05c7	-0.025027169
37	0x3e8357b3	0.25652847
38	0xbd19c455	-0.037540752
39	0x3b4d05c7	0.003128396
40	0x3e91c21b	0.28468403
41	0xbdd36df5	-0.10323707
42	0x3d33650e	0.043797545
43	0x3e2694b2	0.1626766
44	0x3e902810	0.28155565
45	0x3e80239c	0.25027168
46	0x3e69da97	0.22837292
47	0xbe369925	-0.17831858
48	0xbe369925	-0.17831858
49	0x3d0cf3f9	0.034412358
50	0x3e8cf3f9	0.27529886
51	0x3ccd05c7	0.025027169
52	0x3ecb6bbb	0.3973063
53	0x3d868bcb	0.06569632
54	0x3ccd05c7	0.025027169
55	0x3d00239c	0.03128396
56	0x3df376dc	0.11887905
57	0x3dc69d99	0.09698028
58	0xbe00239c	-0.12513584
59	0xbdacfce0	-0.084466696
60	0x3dacfce0	0.084466696
61	0xbdcd05c7	-0.100108676
62	0x3dd36df5	0.10323707
63	0x3c19c455	0.009385188
64	0x3e3d0153	0.18457536
65	0x3eb1cb03	0.34725198
66	0xbd80239c	-0.06256792
67	0x3e81bda8	0.2534001
68	0xbd4d05c7	-0.050054338
69	0xbe19c455	-0.15016301
70	0xbe79df0b	-0.2440149
71	0xbdc69d99	-0.09698028
72	0x3e8e8e04	0.27842724
73	0xbd66a680	-0.05631113
74	0x3dcd05c7	0.100108676
75	0xbd59d623	-0.053182732
76	0xbe6d0eae	-0.23150131
77	0x3ccd05c7	0.025027169
78	0xbded0eae	-0.115750656
79	0xbe3030f7	-0.17206179
80	0xbdf376dc	-0.11887905
81	0x3da694b2	0.0813383
82	0xbde03e52	-0.10949387
83	0x3d8cf3f9	0.068824716
84	0xbd99c455	-0.075081505
85	0xbe7d1322	-0.2471433
86	0x3ea02c83	0.3128396
87	0xbdb9cd3c	-0.090723485
88	0x3e1cf86c	0.1532914
89	0xbe8825d6	-0.26591367
90	0x3eb030f7	0.34412357
91	0xbe19c455	-0.15016301
92	0x3df376dc	0.11887905
93	0x3ebb6748	0.36602235
94	0x3e7042c5	0.2346297
95	0x3e2694b2	0.1626766
96	0xbd935c27	-0.07195311
97	0x3ea694b2	0.3253532
98	0xbe29c8c9	-0.165805
99	0xbd40356b	-0.046925943
100	0x3b4d05c7	0.003128396
101	0xbe94f633	-0.29094085
102	0xbe23609b	-0.15954821
103	0x3e96903e	0.29406923
104	0x3e99c455	0.30032602
105	0x3ea3609b	0.31909642
106	0x3e8cf3f9	0.27529886
107	0x3c80239c	0.01564198
108	0xbe09bfe2	-0.13452104
109	0xbce6a680	-0.028155565
110	0xbe29c8c9	-0.165805
111	0x3e0cf3f9	0.13764943
112	0x3dacfce0	0.084466696
113	0xbdb3650e	-0.08759509
114	0x3c4d05c7	0.012513584
115	0xbe135c27	-0.14390622
116	0x3d8cf3f9	0.068824716
117	0xbd66a680	-0.05631113
118	0x3cb3650e	0.021898773
119	0x3e982a4a	0.29719764
120	0x3e16903e	0.14703462
121	0xbe19c455	-0.15016301
122	0x3d00239c	0.03128396
123	0x3e369925	0.17831858
124	0x3d7376dc	0.059439525
125	0xbe66a680	-0.22524452
126	0xbe29c8c9	-0.165805
127	0xbe102810	-0.14077783
128	0x3e637269	0.22211613
129	0x3dacfce0	0.084466696
130	0x3e66a680	0.22524452
131	0x3eae96eb	0.34099516
132	0xbe868bcb	-0.2627853
133	0x3e0357b3	0.12826423
134	0x3e637269	0.22211613
135	0x3e868bcb	0.2627853
136	0xbdf376dc	-0.11887905
137	0xbe40356b	-0.18770377
138	0x3d7376dc	0.059439525
139	0xbc19c455	-0.009385188
140	0xbe3d0153	-0.18457536
141	0x3df376dc	0.11887905
142	0x3e69da97	0.22837292
143	0x3e7376dc	0.2377581
144	0xbe0357b3	-0.12826423
145	0x3e56a20c	0.20960253
146	0x3e23609b	0.15954821
147	0x3b4d05c7	0.003128396
148	0xbd59d623	-0.053182732
149	0x3df9df0b	0.12200745
150	0x3df376dc	0.11887905
151	0xbe1cf86c	-0.1532914
152	0xbe369925	-0.17831858
153	0x3e8b59ed	0.27217045
154	0xbe76aaf3	-0.2408865
155	0x3e935c27	0.28781244
156	0xbe6d0eae	-0.23150131
157	0x3e8e8e04	0.27842724
158	0x3d0cf3f9	0.034412358
159	0xbc19c455	-0.009385188
160	0x3e23609b	0.15954821
161	0xbeb1cb03	-0.34725198
162	0x3d66a680	0.05631113
163	0x3dcd05c7	0.100108676
164	0xbde6a680	-0.11262226
165	0xbcb3650e	-0.021898773
166	0xbe59d623	-0.21273093
167	0xbdcd05c7	-0.100108676
168	0xbe603e52	-0.21898773
169	0xbea9c8c9	-0.33161
170	0xbdd9d623	-0.106365465
171	0x3dcd05c7	0.100108676
172	0x3df376dc	0.11887905
173	0xbe84f1bf	-0.25965688
174	0x3e79df0b	0.2440149
175	0xbe5039de	-0.20334575
176	0x3e29c8c9	0.165805
177	0x3e469d99	0.19396056
178	0xbd66a680	-0.05631113
179	0xbe1cf86c	-0.1532914
180	0x3dc69d99	0.09698028
181	0xbdd9d623	-0.106365465
182	0xbde6a680	-0.11262226
183	0xbe982a4a	-0.29719764
184	0x3ea3609b	0.31909642
185	0xbded0eae	-0.115750656
186	0x3e8cf3f9	0.27529886
187	0x3e80239c	0.25027168
188	0xbe56a20c	-0.20960253
189	0xbec0356b	-0.37540755
190	0xbeae96eb	-0.34099516
191	0xbe7042c5	-0.2346297
192	0x3e3d0153	0.18457536
193	0xbe202c83	-0.1564198
194	0x3e5d0a3b	0.21585934
195	0x00000000	0.0
196	0x3d33650e	0.043797545
197	0x3ebd0153	0.36915073
198	0x3d0cf3f9	0.034412358
199	0xbdd9d623	-0.106365465
200	0xbe59d623	-0.21273093
201	0xbe369925	-0.17831858
202	0x3e56a20c	0.20960253
203	0xbe81bda8	-0.2534001
204	0xbe23609b	-0.15954821
205	0x3bcd05c7	0.006256792
206	0xbe7042c5	-0.2346297
207	0x3e33650e	0.17519018
208	0xbe66a680	-0.22524452
209	0x3d0cf3f9	0.034412358
210	0x3e202c83	0.1564198
211	0x3c99c455	0.018770376
212	0xbcb3650e	-0.021898773
213	0xbe8357b3	-0.25652847
214	0x3e80239c	0.25027168
215	0xbe8b59ed	-0.27217045
216	0x3e536df5	0.20647414
217	0xbea1c68f	-0.315968
218	0x3d7376dc	0.059439525
219	0xbe5039de	-0.20334575
220	0x3e7042c5	0.2346297
221	0x3e33650e	0.17519018
222	0x3eb69925	0.35663715
223	0x3dc69d99	0.09698028
224	0xbd00239c	-0.03128396
225	0xbe39cd3c	-0.18144697
226	0x3e3030f7	0.17206179
227	0xbd00239c	-0.03128396
228	0xbe9cf86c	-0.3065828
229	0xbe469d99	-0.19396056
230	0x3eb030f7	0.34412357
231	0x3dcd05c7	0.100108676
232	0xbe76aaf3	-0.2408865
233	0x3de6a680	0.11262226
234	0xbeb1cb03	-0.34725198
235	0xbe5039de	-0.20334575
236	0xbdf9df0b	-0.12200745
237	0xbe3d0153	-0.18457536
238	0x3e39cd3c	0.18144697
239	0xbe39cd3c	-0.18144697
240	0xbe23609b	-0.15954821
241	0xbe8b59ed	-0.27217045
242	0xbde03e52	-0.10949387
243	0xbe81bda8	-0.2534001
244	0x3e436982	0.19083217
245	0xbe935c27	-0.28781244
246	0xbd33650e	-0.043797545
247	0x3e0357b3	0.12826423
248	0xbc80239c	-0.01564198
249	0x3e29c8c9	0.165805
250	0x3cb3650e	0.021898773
251	0xbe6d0eae	-0.23150131
252	0x3dcd05c7	0.100108676
253	0xbdacfce0	-0.084466696
254	0xbde6a680	-0.11262226
255	0x3c4d05c7	0.012513584

GRU/quant_dense_14/BiasAdd/ReadVariableOp:0 f4 [32]
0	0xbda469f7	-0.08028024
1	0x3d07e259	0.033174846
2	0xbc3af64c	-0.011411261
3	0xbde56acb	-0.1120201
4	0x3d47d049	0.04878262
5	0xbc509c80	-0.012732625
6	0x3c81962d	0.01581868
7	0xbd0efcf3	-0.0349092
8	0xbd3678d8	-0.04454884
9	0x3c1f75be	0.009732662
10	0xbddb3df8	-0.10705179
11	0xbbb8410d	-0.005622989
12	0xbd424945	-0.047433157
13	0xbdd86d61	-0.10567737
14	0xbd99df40	-0.07513285
15	0x3cb6aab2	0.02229819
16	0xbd95d685	-0.07316307
17	0xbc913f44	-0.017730363
18	0x3cb0b326	0.0215698
19	0xbc4af62f	-0.012387796
20	0xbcb9e158	-0.02269046
21	0xbca44fa7	-0.020057512
22	0xbda16504	-0.07880595
23	0x3c6679ba	0.014067108
24	0xbbc1f94e	-0.005919612
25	0xbc409574	-0.011754382
26	0xbc6f7a21	-0.01461652
27	0xbdaf6b97	-0.08565443
28	0xbd59e7d2	-0.053199597
29	0x3bb08fa3	0.0053882166
30	0xbddc1629	-0.10746414
31	0xbd0096c8	-0.031393796
