models/station_26/model_latest.onnx (onnx, 407794 bytes, 12 tensors)

W__3272 f4 [1, 96, 64]
000000 b4 d2 36 3c c2 55 1e be a4 a7 16 be 1c d2 34 3e
       0.011158634 -0.15462402 -0.14712387 0.17658275
000010 b2 d9 10 be 31 41 6d bd c7 c3 c1 3c 27 b2 b5 3d
       -0.14145544 -0.0579235 0.023652924 0.088718705
000020 93 c8 26 be ff 41 e5 3d 3f f9 cd 3c 54 34 6a bd
       -0.1628745 0.111942284 0.025143264 -0.05717881
000030 23 bc cd 3d 2e 34 06 3e 62 95 75 3d 7a 3d 21 3e
       0.1004565 0.13105842 0.059956916 0.15746108
000040 fb 94 cc bd dc 4d de bd c7 3a dc 3d 05 0a f9 bc
       -0.09989353 -0.10854694 0.107533984 -0.030400285
000050 54 93 d2 bd d7 76 d8 bd 0e 03 bb 3d 39 fd 85 3d
       -0.10282007 -0.10569542 0.09131442 0.06542439
000060 02 ac 19 3e ae d8 5e 3e b8 64 44 3d 84 f4 08 3e
       0.15007022 0.21762344 0.047947615 0.13374525
000070 e0 fe 18 3d b1 0e 01 be 93 95 76 39 4c 96 26 bd
       0.037352443 -0.1260326 0.00023516109 -0.040670678
000080 df 1b b3 bd 98 d4 0e be 81 fb 02 bd 8d 11 d3 3d
       -0.0874555 -0.13948286 -0.031978134 0.10306082
000090 c0 a8 05 3e 88 f6 6b 39 59 d4 68 bd 5b e2 71 be
       0.13052654 0.00022503186 -0.056843136 -0.23621504
0000a0 a9 5a 9d 3d 13 81 ba bd fc dc 89 be cd a0 20 3e
       0.07683308 -0.0910665 -0.2692641 0.1568634
0000b0 2d 7c 95 bd da ec a0 3d d8 f9 92 bd 33 57 de bd
       -0.07299075 0.07857676 -0.0717656 -0.10856476
0000c0 db 7a 9c bd bc e5 08 be e0 ab 0b 3e 6a 0e 77 3e
       -0.0764062 -0.13368887 0.13639784 0.24126592
0000d0 5c d2 13 be 96 7c 9b 3c 11 c0 73 3e 74 3b 4a 3e
       -0.14435714 0.018980306 0.23803736 0.19749242
0000e0 90 95 a3 bd 9b 51 1b 3e 32 53 fa bc 00 85 1b be
       -0.07987511 0.15167849 -0.030557249 -0.15187454
0000f0 e9 5a 4b 3d c6 aa 2a 3d d2 ad f8 bd 46 cd ef 3d
       0.049647246 0.04166677 -0.121425286 0.11709075
000100 5c d6 21 3e 7a 69 95 3d e7 d3 93 bd bd 2d 63 be
       0.15804428 0.07295509 -0.072181515 -0.22185417
000110 0b 55 a3 3b 0d 86 fe 3d bb 3f 89 be 5a 5f 61 3e
       0.004984503 0.12427912 -0.26806435 0.2200903
000120 d4 72 97 3c 20 81 83 3d 00 e1 17 3e de d0 68 bd
       0.018487372 0.06421113 0.14831924 -0.056839816
000130 ea d5 17 bc 2b 2e 2a be df cd fb bd 2e 47 b6 bd
       -0.00926731 -0.16619174 -0.12295126 -0.08900295
000140 12 17 32 3d d4 de 2e 3d 59 dc a9 bd 65 79 3f 3d
       0.043479033 0.042692974 -0.08293981 0.04674663
000150 6b b1 82 be 2f 42 2e 3d 33 ad 11 be 67 64 3e bd
       -0.25525984 0.042543586 -0.14226227 -0.04648247
000160 aa 23 ea 3c 8f 0c 49 bd d7 0e 5b 3e 0b 21 10 3d
       0.02858146 -0.049084242 0.2139238 0.035187762
000170 1a 7d a4 bd 47 82 4b be ae ef a2 bd ba cd 39 3c
       -0.08031674 -0.19873916 -0.079558715 0.011340553
000180 c1 d0 38 be a7 2e 26 3e d3 59 4e be 6e f7 18 3e
       -0.18048383 0.16228734 -0.20151453 0.14938137
000190 85 6d 85 3e 9e ca c5 3c 67 62 d3 bd d8 08 5d 3e
       0.2606012 0.024144467 -0.10321503 0.21585405
0001a0 dc 5b 1d 3e 1a 11 92 3e 88 cf 3e be 0a 75 01 be
       0.15367073 0.28528672 -0.18633854 -0.12642303
0001b0 a5 d8 20 3e be 74 13 be bd f4 64 3e 96 1b 96 3d
       0.15707643 -0.14400002 0.22358985 0.0732948
0001c0 61 41 a7 bd 8c 8d ab bd 28 d8 4d bd 2c 4a 7b bd
       -0.08166767 -0.08376607 -0.05025497 -0.061350033
0001d0 c3 71 05 be c9 61 d0 bd d2 c9 88 be a2 7e 2b be
       -0.13031678 -0.10174901 -0.26716477 -0.16747525
0001e0 67 f9 24 3e e5 b3 f8 bd 7a 3c 6f 3c 35 5c 41 3c
       0.16110764 -0.12143687 0.014601821 0.011801769
0001f0 84 8a 25 3d 5b b1 b2 bd 2d fd 89 3c a2 9a b7 3c
       0.040415302 -0.08725234 0.016844356 0.022412602
000200 2c 0c 26 3e 53 37 04 3e 96 6c 4a 3e 7a cb 8a bd
       0.1621558 0.1291173 0.19767985 -0.06777091
000210 57 7e df bd a8 7d bb 3c 44 75 81 3d c9 88 10 be
       -0.10912769 0.022887066 0.06321195 -0.1411468
000220 e9 71 53 3b 79 14 86 3d ea f1 53 3e 8c 03 12 bc
       0.003226394 0.065468736 0.20697752 -0.008911978
000230 ff 0d be 3d 5c 6d 83 3e 15 8a 87 be 6e 5e 2d bb
       0.09280013 0.25669372 -0.26472536 -0.002645399
000240 37 69 e8 bd 80 30 60 3d 89 9a 51 3b 04 c1 14 3e
       -0.11348193 0.054733753 0.003198298 0.14526755
000250 ee 0d 11 3c b6 c3 e4 bd af d5 a7 3e 1b e0 7f 3d
       0.008853419 -0.111701414 0.32780215 0.062469583
000260 d0 95 b6 bd 1b 1e f7 bc 36 e7 8d be d6 58 b6 3a
       -0.08915293 -0.030165723 -0.27715462 0.0013911973
000270 0a ea d0 3d 4d 12 ed 3d c6 69 d9 bb 66 0f 44 3e
       0.102008894 0.11575756 -0.0066349236 0.19146499
000280 31 07 eb 3d b3 50 28 be 45 64 e4 bd 3b e5 98 3d
       0.11475981 -0.16437034 -0.111519374 0.07465597
000290 e6 43 65 be c7 c6 ed bd ef 3e 98 bc 5e 29 b2 3d
       -0.22389182 -0.116101794 -0.018584697 0.086992964
0002a0 d1 59 75 3d 19 05 d5 3c 22 94 36 bd 0a e5 f2 3d
       0.05990011 0.026003407 -0.044574864 0.11860092
0002b0 ee c5 1a be ef 1b f1 3d dc b2 24 be 02 42 97 bd
       -0.15114567 0.11772906 -0.16083854 -0.07385637
0002c0 00 4c 25 be 41 bd 40 bd 93 d8 30 3e 00 ad 9a 3d
       -0.16142273 -0.047055487 0.17270117 0.075525284
0002d0 67 e9 06 be 3b a4 5f 3e 24 b8 6f 3e f0 48 c5 bd
       -0.13174973 0.21839993 0.23410088 -0.09633052
0002e0 bf 1b 83 be fa 1b 1c bd 87 fc 40 3e bc d1 87 3d
       -0.25607106 -0.038112618 0.18846332 0.066318005
0002f0 ec e2 06 be a8 44 c2 3d 5f d8 20 3d 88 1d c8 3c
       -0.13172501 0.094857514 0.039268848 0.024428144
000300 15 0b 7d 3d fb d0 c8 bd 37 cc a4 3d 4f db 89 bd
       0.061778147 -0.09805485 0.080467634 -0.06731283
000310 0b 3a 4e be 53 38 61 3e 83 52 87 bd 87 52 b3 bc
       -0.20139329 0.21994142 -0.06607535 -0.021889938
000320 9b f2 ce bd ad 92 fb bd 9a 9b 0d 3e 69 ef 08 be
       -0.10104867 -0.122838356 0.13828889 -0.13372578
000330 93 96 7f be a5 23 09 3e 28 f5 82 3e c3 cd 0f be
       -0.24959783 0.13392504 0.25577664 -0.14043336
000340 b4 fe 9a be ba 8e 17 be 7b b6 85 3d 8e f2 5a bd
       -0.30272448 -0.1480054 0.06528946 -0.053453974
000350 0d ff 03 3e 51 a6 29 3d 58 08 1f 3c 4d ce 59 3d
       0.12890263 0.041418377 0.009706579 0.05317526
000360 88 32 e3 3d 10 16 e2 3c 1a 71 95 3d ec 51 56 3e
       0.110936224 0.02759841 0.07296963 0.20929688
000370 be 61 6e bd 30 50 30 bd 34 ba 77 be 41 bb 16 be
       -0.058198683 -0.043045223 -0.24192125 -0.14719869
000380 24 8f 07 be 8d b2 ea bc 82 fd 51 be e0 6a 0d be
       -0.13238198 -0.028649593 -0.20506862 -0.13810301
000390 7f 35 6f bd 39 02 5b bd 46 90 50 be 82 63 ef 3d
       -0.058400627 -0.053468917 -0.20367536 0.116889015
0003a0 bd b7 b6 bd af b1 7a bd ab b9 04 be cf f0 fc 3d
       -0.08921764 -0.06120461 -0.12961452 0.12350618
0003b0 ba cc 12 3e 00 a4 33 bd f2 d8 23 be 88 3e 29 3e
       0.1433591 -0.043857574 -0.16000727 0.1652776
0003c0 9f 51 e5 3d d7 d5 6a 3d 49 d4 f8 bd 80 29 11 be
       0.111972086 0.05733284 -0.12149865 -0.14175987
0003d0 52 e5 00 bd 36 0e fa 3c 27 f4 bd bc fd dd 35 3e
       -0.031468697 0.030524354 -0.02318771 0.17760463
0003e0 8c f0 c3 3d 72 61 c2 3d fe fd 7e 3d 75 78 0d be
       0.09567365 0.094912425 0.062253945 -0.13815482
0003f0 f9 69 87 3d 6d 32 9d bd 29 ef 4d bd 3c fc 04 3e
       0.066120096 -0.076756336 -0.05027691 0.12986845

W__3258 f4 [1, 192, 128]
000000 81 5a ec 3d 86 4d a6 bd 8d 1e a1 be 87 26 45 be
       0.115407 -0.08120255 -0.3146862 -0.19252978
000010 62 83 65 be c9 ee 11 3d 56 8b 0f 3e 6f 11 18 be
       -0.224134 0.035628114 0.14017996 -0.148504
000020 dd 7a 77 be e7 72 56 3e ce a8 45 be 5c 31 d1 bd
       -0.24167962 0.2094227 -0.19302675 -0.10214493
000030 17 95 aa 3d 37 ea b9 3d ce 9e 9f 3d 3e 5b 04 3e
       0.08329218 0.09077876 0.077939615 0.12925431
000040 ab 6f 66 be 0b dc 24 be 0a 1b bf 3d 7b 12 94 bc
       -0.22503535 -0.16099565 0.09331329 -0.018075218
000050 20 1b 79 3e 08 c3 d8 3d e0 7b 1c bd a3 a3 e5 3d
       0.24326754 0.10584074 -0.038204074 0.11212852
000060 bc b8 c1 bc 39 da 31 be 49 b3 32 be 60 7b 83 3e
       -0.023647659 -0.17368402 -0.17451204 0.25680065
000070 36 7e a0 3d 26 2f 59 3e 43 3a 21 3e df fa 25 3e
       0.07836573 0.21209392 0.15744881 0.16208981
000080 09 b3 8b be 44 27 ff 3d 41 e5 17 be ca 47 f3 3d
       -0.2728503 0.12458661 -0.14833547 0.11878927
000090 0d 56 57 3d cc 32 26 3e 8d 6f 9e 3d b7 25 9f bd
       0.0525723 0.16230315 0.077361204 -0.077708654
0000a0 5c 04 19 bd 23 72 e3 bd b8 e8 d1 bd 86 2b a7 bd
       -0.037357673 -0.11105754 -0.10249466 -0.08162598
0000b0 f5 49 3f 3e a8 0b 42 be 32 b5 88 bd 80 68 63 be
       0.18680556 -0.18949759 -0.06675185 -0.22207832
0000c0 40 3e 1e be df 79 4c 3e 1d 54 fb bd e6 99 98 bd
       -0.15453434 0.19968365 -0.12271903 -0.07451229
0000d0 2d 68 5d be bb fe 4f 3e a0 20 88 bc 88 a7 a0 3c
       -0.21621771 0.20312016 -0.01661712 0.019611135
0000e0 80 54 ad be 03 7c 6e be 12 c6 1f 3e 2d 2e 3c bd
       -0.3385353 -0.23289494 0.15602902 -0.045942474
0000f0 21 47 0a 3e 2f 35 18 3e 2f de f1 bd 4c 4c ce 3d
       0.13503696 0.14864038 -0.11809956 0.10073146
000100 b4 16 25 be d7 2b a1 be 0b 89 b9 bd dd 69 c6 bd
       -0.16121942 -0.3147876 -0.09059342 -0.096881606
000110 04 e7 98 3d 53 e3 0f be 77 bf ca bd 48 74 ce bd
       0.07465938 -0.14051561 -0.098998 -0.10080773
000120 25 c4 13 be 7e 1f ce 3d 18 b6 03 3d 56 60 67 3d
       -0.14430292 0.100646004 0.03215608 0.056488357
000130 ce b6 93 3d d2 95 7e 3e 35 46 31 be b8 b2 bf 3d
       0.072126016 0.2486184 -0.17311938 0.0936026
000140 5a 96 6e 3d cf 86 05 be 5c cd 90 be 42 4e 1e bc
       0.058248855 -0.13039707 -0.28281677 -0.009662213
000150 1b 99 86 3d b4 c4 a8 3d d8 a7 a1 be 30 fb e7 bd
       0.06572171 0.08240643 -0.31573367 -0.11327207
000160 78 1d 65 be 20 4e b8 3e c9 78 42 3d c9 69 b6 bc
       -0.22374523 0.35997105 0.04747847 -0.02226724
000170 24 be 92 3e fc 11 3a 3e 84 d6 61 3e 4f 49 5e be
       0.2866069 0.18170923 0.22054487 -0.21707653
000180 82 ec f3 3d 71 6e a7 be 4b 36 80 3d 2f 33 06 3e
       0.11910345 -0.32701448 0.062603556 0.13105462
000190 65 52 ca bd c7 b9 7b 3e eb d9 01 bd f5 da 80 bd
       -0.09878997 0.24582587 -0.031701963 -0.06291763
0001a0 6e df 25 3e 26 f2 84 bd e7 d5 ab bd 17 4d 50 3e
       0.16198513 -0.06491499 -0.08390408 0.20341907
0001b0 06 ec 4d 3e 3f 38 06 3d d5 82 46 bd f3 6b 9d 3e
       0.20109567 0.032768484 -0.048464615 0.3074642
0001c0 0c 34 01 3d 02 8e 2f be 68 08 72 bd 8d e0 53 bd
       0.031543776 -0.17144015 -0.059090048 -0.05172782
0001d0 4d cc 3b bb f3 00 48 3e 1a b1 09 3d 83 72 4c be
       -0.0028655708 0.19531612 0.033616163 -0.19965558
0001e0 62 04 8f 3d d6 ba 4b 3d 3b 1d 34 3e 9c 9b 4e 3d
       0.06983258 0.049738728 0.17589276 0.05044137
0001f0 e7 a3 21 be 31 13 cd be 5d e5 38 3e 4e a1 c0 bd
       -0.1578518 -0.40053704 0.18056245 -0.094057664
000200 40 7e d2 3d 94 82 90 bd 2d 3c 3b be ed df a6 bd
       0.102779865 -0.07056156 -0.18284674 -0.08148179
000210 bc 3e be 3b 01 9d 02 3e fb 71 ce bd 86 02 9f 3c
       0.0058058184 0.12755205 -0.10080334 0.019410383
000220 03 27 22 bc 7f e1 2e 3e 8b c5 10 3c 48 ab b4 3a
       -0.009896996 0.17078207 0.00883616 0.0013783956
000230 18 f3 8a 3d 38 ae 11 3e ba bc df 3d ee 5d 5c 3d
       0.06784648 0.14226615 0.109246686 0.053800516
000240 93 ee 40 be 8e 0b a3 bd 85 46 d9 3d 29 3b 7e 3c
       -0.18841009 -0.07961188 0.10609154 0.015517035
000250 29 ba 24 3e 34 29 7d bd 5a 8a 22 be 35 bc 41 bc
       0.1608664 -0.061806872 -0.1587309 -0.011824657
000260 d4 0a 1d 3e 7d ef ce bd 88 eb db bc 80 1d 08 3e
       0.15336162 -0.101042725 -0.026845708 0.13292503
000270 8e 0b f0 3d 16 24 be 3d e6 ef 8c 3d 64 ec 3e 3d
       0.11720954 0.092842266 0.068816945 0.04661216
000280 2d 57 07 be fc 0d b7 3d c3 03 59 be c0 34 98 3d
       -0.13216849 0.08938214 -0.21192841 0.07431936
000290 88 bc 5b 3e c7 9e 18 3e d6 7d fd 3d df 13 bf bd
       0.21458638 0.14904319 0.12377517 -0.09329962
0002a0 89 5a d6 bd ff 62 eb bd 46 f9 d7 bc f7 36 a3 3d
       -0.10466487 -0.114934914 -0.02636398 0.07969468
0002b0 18 75 cf bd f8 08 b9 bd fb 30 3b be 1f a0 70 be
       -0.10129756 -0.09034914 -0.18280403 -0.23498581
0002c0 1d 4c 86 3d 63 2a e7 bd e4 69 07 3e 8e 1c f3 3c
       0.06557486 -0.112873815 0.13223988 0.029676702
0002d0 cd 87 8a 3d b3 e2 d7 bc 4d 07 e2 bd d4 fe 4d 3c
       0.06764183 -0.026353216 -0.11036549 0.012572963
0002e0 c8 5b 49 be 82 30 20 be a0 a5 77 3d 87 15 59 3c
       -0.19663918 -0.15643504 0.060460687 0.013249761
0002f0 3f 2c 91 3d 62 02 19 3e 9a d7 fb bd 4d 4d 2f bd
       0.070885174 0.14942315 -0.12296982 -0.04279833
000300 8e 2d fc bd f6 e8 91 bd 79 19 bc bd 72 c4 94 bd
       -0.12313376 -0.07124512 -0.09184546 -0.072640315
000310 9a b2 6a 3e 54 20 1f be 67 58 83 be 25 f0 3f be
       0.22919694 -0.15539676 -0.25653383 -0.18743952
000320 d5 5d ee bc 5c d7 62 3e c6 88 71 be e5 5d a5 3d
       -0.029097477 0.22152466 -0.23587331 0.080745496
000330 a1 3e 51 3c f4 ed 30 3e c5 d2 9b bc 3a 12 43 bd
       0.01277128 0.17278272 -0.019021401 -0.047624804
000340 66 cc 7e bd dc 6b d5 bb 73 20 b9 bd cf b0 3f 3e
       -0.06220665 -0.006513102 -0.09039392 0.18719791
000350 5e 91 5d bd a4 13 48 3c 07 6d 63 bd af 99 84 bd
       -0.05409371 0.012211714 -0.0555239 -0.06474625
000360 2e 4a 02 3d 08 e4 26 3e eb e7 51 3e fc 01 1c 3d
       0.031809025 0.16297925 0.20498626 0.03808783
000370 9d 68 5c bd 1f b6 14 3e 6c 03 38 3d c0 77 0b be
       -0.053810704 0.14522599 0.04492514 -0.136199
000380 0b 43 56 bd f1 fd 39 be b4 d3 cc 3d f7 7a 2b 3d
       -0.05231003 -0.18163277 0.10001317 0.041865315
000390 23 82 3a bd 52 9c a3 3e 5e e6 1c be 48 cf 56 3b
       -0.045534264 0.319552 -0.15322253 0.0032777358
0003a0 82 b9 94 3c 74 b3 03 bd 98 df 4d 3e 0f 6f 15 3e
       0.018154863 -0.03215356 0.20104825 0.14593147
0003b0 3a 1a 9d bd 78 31 1f bc fa d6 2e 3d 63 f2 3d 3e
       -0.07671018 -0.009716384 0.042685486 0.18549494
0003c0 c7 5e 57 3b d0 6b 2b bd a8 27 3c bb fa 77 b0 bc
       0.0032862888 -0.041850865 -0.002871016 -0.021541584
0003d0 de 5e eb bd 13 6b 87 bc 69 26 f5 bd 43 bb b9 bd
       -0.11492704 -0.01653055 -0.11970217 -0.090689205
0003e0 0f 01 0e 3d 22 3e 48 3e 31 4e 05 3d 72 e4 4c be
       0.03466898 0.19554952 0.032545272 -0.2000902
0003f0 38 72 2c bd 09 a9 42 bd 2b 85 15 3e 10 cf 11 be
       -0.042101115 -0.047524486 0.14601581 -0.14239144

W__3245 f4 [1, 384, 6]
000000 1a 00 af bd 50 e7 4b be 8d 9c c6 bd df 27 7c bd
       -0.08544941 -0.19912457 -0.096978284 -0.06156146
000010 7c 48 c8 bd c0 51 eb bc e0 36 d8 3c 4a 01 e4 bd
       -0.0977945 -0.028725505 0.026393354 -0.11133058
000020 b0 ef c3 bd a7 8c f0 bb 3b 48 cf bd cd 8d f3 bb
       -0.09567201 -0.007340986 -0.10121199 -0.0074326755
000030 44 9e ab 3d 4c 93 be bd 95 8b 0c 3c a3 bb 0b bd
       0.08379796 -0.093054384 0.008578201 -0.03411449
000040 32 1e 1f be f6 fd f7 3d 7c da 31 3d 28 b4 a2 bb
       -0.15538862 0.12108986 0.043421254 -0.004965324
000050 37 92 45 3d 63 d6 35 3e e9 15 2e 3d 06 49 03 bd
       0.048235144 0.17757563 0.042501364 -0.032052062
000060 76 48 6c bd d8 92 c4 bd 8a f6 5c 3b 55 c5 06 be
       -0.05768629 -0.09598321 0.0033716285 -0.13161214
000070 04 73 83 3d 18 af cc bc 30 a5 df 3d df 4b 9c 3d
       0.06418422 -0.024985835 0.10920179 0.07631659
000080 45 0e 09 3c e5 eb bf 3b 71 77 ec 3c 4d df 34 bd
       0.0083652185 0.0058569782 0.028865548 -0.04415827
000090 d6 5f 54 be 09 e4 d4 bc b6 2c d4 bb c5 64 33 be
       -0.20739684 -0.025987642 -0.0064750565 -0.1751891
0000a0 6d bc 45 be 6d c8 10 be f7 6b 0d 3e e1 c7 03 bd
       -0.1931016 -0.14138956 0.13810717 -0.03217304
0000b0 e5 38 ca 3d 1b 26 3b bd 62 6b a7 3d 5d 13 a6 bd
       0.09874133 -0.045690637 0.081747785 -0.08109162
0000c0 c6 ab 6b 3d fa 52 6c 3d 69 4d f9 3d 5c 6e b9 3b
       0.057536863 0.05769632 0.12172968 0.005658908
0000d0 82 d0 ce 3d 41 c6 e3 3d 94 fd dd bd 1c b9 7d bd
       0.100983635 0.11121798 -0.10839382 -0.061944112
0000e0 3e 8b 07 3c 2e 74 e8 bd 08 84 6f bd d1 64 4e be
       0.008272944 -0.113502845 -0.058475524 -0.20155646
0000f0 8a dc a3 bd 63 d2 86 3d e1 35 03 bd bf b7 15 bd
       -0.08001049 0.06583097 -0.032033805 -0.036552187
000100 84 29 d8 3d 49 85 cc 3d 33 a3 15 bd f3 08 01 bd
       0.105547935 0.099863596 -0.036532592 -0.031502675
000110 b1 a8 19 bd e9 8a bc bd 0b d9 06 bc dc af 33 3d
       -0.037514392 -0.092061825 -0.008230458 0.043868884
000120 ea 03 06 3e 30 41 a6 3c ba f9 07 3e 8d 0f 8a 3d
       0.1308743 0.020294756 0.13278857 0.06741247
000130 2a 8a a1 bc 38 c6 c2 3d 91 b1 ff bb b9 a4 ad bd
       -0.019719202 0.095104635 -0.00780315 -0.08478684
000140 31 b6 54 bd 2b cc a0 bd 0d 53 d2 bd 99 67 62 be
       -0.051931564 -0.07851442 -0.10269747 -0.22109832
000150 e2 86 83 be fa 68 78 be aa 7d 14 be cd 37 86 be
       -0.25688845 -0.24258795 -0.14501062 -0.26214448
000160 48 d0 bb be b6 2d 34 be b3 a2 89 3d b8 a5 96 bd
       -0.36682343 -0.17595562 0.067204855 -0.07355827
000170 d5 64 ab bd cc eb 29 bd 94 79 d2 3d 3a 40 ab bd
       -0.083688416 -0.04148464 0.102770954 -0.083618596
000180 a5 42 26 3e 8f 02 18 3d a6 55 06 bd 3a 04 fe 3d
       0.1623636 0.037111815 -0.032796524 0.1240315
000190 9f fa e7 bb 40 c0 16 3d 77 8c 2c 3e f7 cd 01 3e
       -0.007079437 0.036804438 0.16850458 0.12676226
0001a0 3c bd 94 3b 86 be 33 3e 90 84 91 bd 26 8a 14 bd
       0.00453916 0.17553148 -0.071053624 -0.03626456
0001b0 10 cc f3 3b 13 04 b1 3d 01 58 12 3e 5d c1 81 bd
       0.0074400976 0.08643355 0.14291383 -0.06335709
0001c0 aa e0 2d 3e 3d b3 c4 3d 3e fe 63 3d 49 5a 01 be
       0.16980234 0.096044995 0.055662386 -0.12632097
0001d0 a3 b8 5f be 06 9c 2b be 51 8a 02 be d5 22 a0 bd
       -0.21847777 -0.16758737 -0.12748076 -0.07819144
0001e0 1d e9 03 3c d0 49 25 bd fa 51 40 bc 53 e8 77 bc
       0.008051184 -0.040353596 -0.011738295 -0.015131074
0001f0 7d d2 85 bc 1a c3 89 bd ac 51 d6 3d 6d 25 75 bc
       -0.01633572 -0.06726666 0.104647964 -0.014962536
000200 66 3c 91 3d bb 5e 1f 3e 55 f7 0b 3d ca e6 1c bd
       0.07091598 0.1556348 0.03417142 -0.038306035
000210 5c 48 18 bd 71 6e b1 3d 14 82 bc 3d 19 ec 02 be
       -0.037178382 0.08663643 0.09204498 -0.12785377
000220 1b d1 c2 3d db 4a d9 bd 1b cb 0c 3d ea 10 01 be
       0.0951254 -0.10609981 0.034373384 -0.12604108
000230 f2 fd 08 bd 78 07 7c bc 3b 4e c7 bd eb 89 c5 3c
       -0.033445306 -0.01538264 -0.09731718 0.024113616
000240 ea ff 54 3e 4b 25 96 3e d3 e4 7e 3e fe 1e d5 3d
       0.20800748 0.29325327 0.24891977 0.10406302
000250 9a 32 86 3e bd 9b e0 3d 8b 7b 7b bc 80 f9 23 3e
       0.2621048 0.10967205 -0.015349279 0.16013145
000260 fb 55 00 3e eb 3a 3b 3e 2a 3e f5 3d fb 5f 71 bd
       0.12532799 0.18284194 0.119747475 -0.058929425
000270 77 38 5c 3d 88 6f 37 3d 8d c4 f0 bd e3 c2 1a be
       0.053764787 0.0447841 -0.11756239 -0.15113406
000280 ed a5 f1 bd 03 8d bf bd 65 5a 25 be 1d c7 25 be
       -0.11799226 -0.09353068 -0.16147764 -0.16189237
000290 9b 7c 0b be 40 10 a6 3c 17 e5 75 bc ae 17 b6 3d
       -0.13621752 0.02027142 -0.015008233 0.08891235
0002a0 19 d3 3f be 62 13 16 be b6 1c 00 be a0 07 ea bd
       -0.18732871 -0.14655831 -0.12510952 -0.114272356
0002b0 21 d8 8a be 70 fe f7 bc 2d 0f cb 3b 38 e7 b8 3d
       -0.27118018 -0.030272692 0.0061968775 0.090284765
0002c0 66 b2 7d bd 17 77 30 3d 82 eb 00 bd 59 15 32 bd
       -0.061937712 0.043082323 -0.031474598 -0.04347739
0002d0 5a de 75 be cc 20 44 bc e1 b8 3a be 73 23 a0 bc
       -0.24010602 -0.01197071 -0.18234588 -0.019548154
0002e0 fb ed ca 3d 96 9d 21 3e 35 05 d2 bd 90 80 56 bd
       0.099086724 0.1578277 -0.102548994 -0.0523687
0002f0 93 c3 fa bd a2 c6 d5 bd 78 25 d3 bd 53 cb 48 be
       -0.12244334 -0.10438277 -0.10309881 -0.19608812
000300 0f 5b b3 3d 6b b4 b0 3d 1a d0 16 bd 35 1e d1 bc
       0.087576024 0.08628162 -0.036819555 -0.0255271
000310 ac 77 b2 3d f9 1b cd 3d f5 b5 c7 3d 0c 73 da 3d
       0.08714232 0.10015101 0.097515024 0.10666475
000320 a4 0a 50 3e f9 b5 a2 3d 8c b6 c7 bc 88 3b 37 bd
       0.20316559 0.07944865 -0.024379037 -0.044734508
000330 07 e3 1f be b8 a6 4e 3b b1 3f 94 bd 7f 80 4c be
       -0.15613948 0.0031532478 -0.07238711 -0.19970892
000340 1d ac f4 3c fc 75 fe 3d cc 1f 8b 3d 5a d2 cd bd
       0.029867226 0.124248475 0.06793174 -0.10049887
000350 f8 24 47 bc ed ad 98 bd 7b 1c d1 3c 69 78 36 3c
       -0.01215481 -0.07455049 0.025526276 0.011137106
000360 9c 45 e6 3d 65 e8 68 bd f1 6d a0 bb 49 a2 60 3c
       0.11243746 -0.056862254 -0.0048959185 0.013710567
000370 86 2c 22 be 6f 72 fc bd cb d9 40 3e 71 1d 77 bd
       -0.15837297 -0.12326514 0.18833081 -0.060330812
000380 4a 25 38 3e ec 12 19 3e 6f 97 ef bd 51 93 7f bd
       0.17982975 0.14948624 -0.116988055 -0.06239635
000390 e4 4c e2 3d 77 14 29 3b e8 d0 c5 3c 20 99 a3 3d
       0.11049822 0.0025799552 0.024147466 0.07988191
0003a0 7f 0a e8 3c 77 5c 71 bd 68 21 9d bd 7b 79 46 be
       0.028325317 -0.058926072 -0.07672387 -0.19382279
0003b0 dc b8 37 be e2 a0 81 bc b8 bf 29 bd 7e af 52 bd
       -0.17941612 -0.015823785 -0.041442603 -0.051436894
0003c0 7e d3 a2 3e 8a 05 5f 3e 5c 7f 5e 3e 60 e3 88 3e
       0.3180198 0.21779457 0.21728271 0.26735973
0003d0 98 03 de 3d 18 75 c8 bc a7 29 73 3d 06 c0 89 3c
       0.10840529 -0.024469897 0.059365895 0.016815197
0003e0 a5 84 28 3e 31 7d ca 3c 4c b6 30 bd ae 0d 8a 3d
       0.1645685 0.024717899 -0.0431426 0.067408904
0003f0 6e cf 2b bd 98 60 20 be e4 0f 10 be 72 18 95 3c
       -0.041945867 -0.15661848 -0.14068562 0.018200133

R__3273 f4 [1, 96, 32]
000000 f2 5e f1 3c 5b a5 f0 3b f0 9e 7b be 3a ec e1 3d
       0.029464219 0.0073439307 -0.24572349 0.11031385
000010 34 5d cb 3d 0f 26 15 be 85 71 9d bd 25 a1 fe 3c
       0.099298865 -0.145653 -0.07687668 0.0310827
000020 f4 69 45 3e 25 45 77 3d 94 ad 9f bc e0 b2 27 3e
       0.19278699 0.060368676 -0.019491948 0.16376829
000030 a0 ba 26 3e b6 09 12 bc a2 67 12 be 48 da 0d 3c
       0.1628213 -0.008913448 -0.14297345 0.008657999
000040 19 06 81 be 29 78 37 bd b4 bd 2e 3e 8f 3a 3b 3a
       -0.25199965 -0.044792328 0.17064553 0.000714221
000050 70 78 05 3e c8 9a 7a be 9b 1d 7a be 3b 8e a6 bd
       0.13034225 -0.24473107 -0.24425356 -0.08132597
000060 d7 61 85 3e 03 b1 17 bb 53 b9 08 3e 67 3f 48 3e
       0.26051208 -0.0023146279 0.13351946 0.19555436
000070 82 94 b3 bd 7f 0b c0 bd 03 37 03 bc 7f fe 36 3e
       -0.0876856 -0.09377193 -0.008008721 0.1787052
000080 c7 f8 7b 3d 43 78 ec bc 5e 30 73 3e 2d 54 ea bd
       0.06151655 -0.028865939 0.2374892 -0.114418365
000090 b7 cb 26 be 0c d1 9e 3d 8a ec 4c bd 7c 0f 5f be
       -0.16288649 0.07754716 -0.05003027 -0.2178325
0000a0 d1 cb 59 be c4 69 07 bd 0b e6 82 3d f5 47 64 bd
       -0.21269156 -0.03305985 0.063915335 -0.055732686
0000b0 04 8d bb be 31 cf 35 3d 63 e9 43 3e 95 a3 73 bd
       -0.36631024 0.044387046 0.19131999 -0.059482176
0000c0 29 65 f5 3d 43 9b a4 3e 62 7b 57 bb b8 c2 3e be
       0.119821854 0.32149705 -0.0032879938 -0.18628967
0000d0 d9 f7 67 3d 0f 0d 27 3d 2f 63 b1 3c 21 9f cd 3e
       0.05663285 0.040783938 0.02165374 0.40160468
0000e0 2d 18 59 bd fb 26 f2 bd fc 35 db bd 35 0b 91 be
       -0.05300157 -0.11823841 -0.10703656 -0.28328863
0000f0 cb c7 dc bd 4c 09 07 bc 3a 6b b2 3b 9a 93 04 be
       -0.10780295 -0.008241963 0.0054449113 -0.1294693
000100 41 0d 4e 3d b9 64 2c bd a8 9c be bd 7e 8e 6c be
       0.05030561 -0.042088244 -0.093072236 -0.23101231
000110 7c 96 e3 3d 24 d2 ee bd c9 8a 2c 3e a0 42 17 3e
       0.11112687 -0.11661175 0.16849817 0.14771509
000120 65 ce 12 3e 78 e3 0e 3d 29 7f da 3b 46 b9 9b 3c
       0.14336546 0.0348849 0.0066679907 0.019009244
000130 26 69 28 be 96 cc 49 3e ab a5 f4 bd f2 ac cc 3d
       -0.16446361 0.1970695 -0.11945661 0.09993924
000140 19 31 99 bd ae 9c 42 be e4 83 8a 3e 0b 9c 06 bd
       -0.07480068 -0.19005081 0.2705375 -0.032863658
000150 c3 e1 4f bd 3e 00 84 bd cb de 29 3e 94 85 0c be
       -0.050752413 -0.06445359 0.16588895 -0.13722831
000160 19 b9 39 3e e7 39 79 bd 31 3b 3b 3e 94 41 7d 3d
       0.18137015 -0.060846236 0.18284298 0.06183012
000170 2c f0 fc bd 82 2d 26 be e1 d0 21 be f0 be 48 3e
       -0.12350497 -0.16228297 -0.15802337 0.19604087
000180 07 c2 68 be 45 19 12 3d 3b 09 4b 3e b6 69 13 be
       -0.22730266 0.03566863 0.1982774 -0.14395794
000190 e1 7c ee 3d 1c 67 5b 3d be db d8 3d 12 ca 9a 3e
       0.116449125 0.05356513 0.105887875 0.30232292
0001a0 59 25 41 3d 56 b4 29 bd 63 c1 c3 be 95 28 af bd
       0.047154758 -0.041431747 -0.3823348 -0.08552662
0001b0 ee 00 53 bd 65 8f e6 3d ff b9 62 be d6 cb 87 3e
       -0.05151456 0.11257819 -0.22141264 0.26522702
0001c0 fe 0f 7b 3c a6 86 8b bd 73 6a e7 3d 86 0a 9e 3d
       0.015323637 -0.068127915 0.112996005 0.07716851
0001d0 24 f9 b9 3d 16 8d 22 3e 46 e3 4c bc b8 56 78 3d
       0.09080723 0.15874133 -0.012505358 0.060629576
0001e0 7b 11 16 3e f4 05 65 3c 8f c2 a0 3e 58 22 da 3d
       0.14655106 0.01397847 0.31398436 0.10651082
0001f0 96 96 43 be 50 79 81 bd 1d e3 24 3d 2c e6 81 3d
       -0.19100413 -0.06321967 0.040255655 0.0634273
000200 22 78 6c 3c fd bc 75 3e 0d 5c 84 bd c4 d1 ac bc
       0.014432939 0.23997875 -0.0646287 -0.021096118
000210 4d ed f6 bd 9e 70 fa bd 71 ea 18 3d a1 5e f1 bd
       -0.1205698 -0.12228511 0.037332956 -0.11785627
000220 dc 69 ed 3d da af b6 bc ce 94 43 3d 56 37 0d be
       0.11592457 -0.02230065 0.047749333 -0.1379064
000230 c1 42 4b bc 97 bb 90 bd 03 8d 39 bd b3 90 b2 3d
       -0.012406052 -0.0706703 -0.045300495 0.087190054
000240 b0 a0 68 3c ac 91 0d 3e fa d1 38 be 5e 31 96 bc
       0.014198467 0.138251 -0.1804885 -0.018334087
000250 27 a6 c9 3c c5 b6 0f bd 2f d2 83 bc 51 90 a8 3d
       0.02461536 -0.035086412 -0.016091434 0.08230651
000260 49 8c e6 3d 2d 51 8f 3d b4 7b ea 3c 80 39 c4 bd
       0.11257226 0.06997905 0.02862344 -0.0958128
000270 59 b5 86 3d eb 5f 9c 3b 40 f5 19 3d 0f e5 1f 3d
       0.06577558 0.0047721765 0.037587404 0.039036807
000280 06 41 33 3e 4d 61 9e 3e 6d bd 01 be 1d 6a 8f bd
       0.17505273 0.3093361 -0.12669916 -0.070026614
000290 ba ba c5 3e af f6 a1 be d2 e3 d2 3d d8 e9 87 bc
       0.38619024 -0.31633517 0.102973595 -0.016590998
0002a0 29 99 5c 3e bf 8d 9f bd 35 55 18 3c 1a 5b b2 3d
       0.21542801 -0.07790708 0.009297659 0.087087825
0002b0 a3 57 a2 3d fb a6 1a 3e 6d 05 c0 be 5a aa 85 3d
       0.07926872 0.1510276 -0.3750414 0.065266326
0002c0 2b 94 4c bb 43 d8 a7 bc 7d b4 8e 3e df a6 14 3e
       -0.0031216245 -0.020488864 0.27872077 0.14516781
0002d0 f3 72 f8 3c 16 ba 8e bb e0 73 61 3e 37 6d 9d 3c
       0.03032825 -0.0043556793 0.22016859 0.019217117
0002e0 d4 c0 41 3e b2 55 91 3e 37 be 8d 3e 6c ca 24 bd
       0.18921214 0.28385693 0.27684185 -0.040232107
0002f0 92 76 a1 be 71 48 f1 bd 9c 32 61 be 17 7c a2 3d
       -0.31535774 -0.11781395 -0.21991962 0.079338245
000300 1e 3d 8b bc 55 73 ed bd ca 58 0d bd 76 63 33 3d
       -0.016996916 -0.115942635 -0.034508504 0.043796025
000310 13 8d 52 be c6 d4 4c bd ee d3 66 bb 57 f0 d6 bd
       -0.20561628 -0.050007604 -0.0035221535 -0.1049506
000320 00 1f 63 bd 69 65 c9 bd 00 40 14 3e 10 0c dc 3d
       -0.055449486 -0.098337956 0.14477539 0.10744488
000330 99 eb 19 be 70 c1 47 bd eb 8a 10 3d 67 0b 61 3d
       -0.1503128 -0.04876846 0.035288732 0.054942515
000340 0d ff 9d 3d 11 1e 88 3d 00 c7 a3 bd fa 81 82 bd
       0.07714663 0.0664636 -0.079969406 -0.06372447
000350 8e bc 73 3c d6 ac 31 be 55 e6 1a 3e 44 29 1d 3e
       0.014876498 -0.17351088 0.15126927 0.15347773
000360 52 38 12 be 20 73 4f bd 46 82 3f be 3c 61 16 be
       -0.14279297 -0.0506469 -0.18702039 -0.1468553
000370 35 f5 d7 bd de b8 ab 3c d9 8a e7 3c a6 78 2b 3e
       -0.105448164 0.020962175 0.02826445 0.16745242
000380 d9 73 a0 bd 52 de a6 bc 55 5c 8f 3b b3 86 d0 bd
       -0.07834596 -0.020369682 0.0043750205 -0.10181942
000390 72 f2 dc be 86 c9 d0 3d e8 89 8f bd f5 49 00 3e
       -0.4315372 0.101946875 -0.070087254 0.12528212
0003a0 d3 a7 0a be 72 a8 b1 bb 07 9e bc 3c db d0 89 be
       -0.13540582 -0.0054216916 0.023024572 -0.26917157
0003b0 7c 2f b6 bd 96 46 c6 bd 14 61 b8 3d d7 51 7c be
       -0.08895776 -0.09681432 0.09002891 -0.24640594
0003c0 97 8c 7d bd f7 3d 09 3e a0 c0 33 be 38 60 6f bd
       -0.061901655 0.13402544 -0.1755395 -0.05844137
0003d0 5b 6e 14 bd 50 74 ec 3d b1 8d 34 3d 76 d2 bb 3b
       -0.036238056 0.11545622 0.04408044 0.005731876
0003e0 a7 79 6c bd c2 e6 0e be a0 2e 09 be 32 74 00 be
       -0.057733204 -0.13955215 -0.13396692 -0.12544325
0003f0 88 e8 06 3e 72 a7 3d bd 1c d6 4b 3e a8 b8 77 bd
       0.13174641 -0.046302266 0.19905895 -0.060478836

R__3259 f4 [1, 192, 64]
000000 8b a9 aa 3d 5d 13 87 bd d2 6a 3b be ad 99 e5 bd
       0.08333119 -0.0659549 -0.18302467 -0.11210952
000010 03 1a 8d 3d aa 86 b8 3d 35 31 7b be cc dd 89 3d
       0.06889727 0.0901006 -0.2453049 0.067317575
000020 80 08 29 3d 3f 23 18 3e f7 55 1f 3e 58 02 6d 3e
       0.04126787 0.14857195 0.15560137 0.23145425
000030 c8 47 07 3e a7 52 73 be 5f f6 e1 3d b4 79 57 be
       0.13210976 -0.23761998 0.1103332 -0.2104252
000040 77 d6 e5 bd 4d e8 4b be 51 94 b0 bd f2 ca 9c bd
       -0.112225465 -0.19912834 -0.08622039 -0.07655896
000050 47 7a 79 be 96 df a5 bd a0 f4 81 be e3 d7 b7 3d
       -0.24363051 -0.08099286 -0.25381947 0.08976724
000060 f5 4a d3 3d 6b 75 40 3d e3 ad 02 3e 5e 68 de bd
       0.10317031 0.04698698 0.12761645 -0.1085975
000070 68 8a 11 be ea 87 5a 3c f6 bb 98 3e 0f 7c 9d bd
       -0.14212954 0.0133380685 0.29830903 -0.07689678
000080 4c a7 9e be 26 b5 45 3e 59 ce 19 bd 4a b0 88 3d
       -0.30987012 0.19307384 -0.037550304 0.066742495
000090 f8 7b d5 3d d6 b9 b4 3e 53 d3 a9 be a3 64 9f 3d
       0.10424036 0.35298032 -0.3316904 0.07782867
0000a0 26 36 f3 3d c0 2d be 3d 2a 12 c8 3c 17 3a 46 be
       0.11875562 0.0928607 0.024422724 -0.19358097
0000b0 16 ef 45 3e 73 7c a7 bd 0c 76 a1 bd 59 90 26 be
       0.19329485 -0.08178034 -0.07883844 -0.16266002
0000c0 d4 cf 8b bd bc 9e 9c bd ba 6b 3b bd 4d 9e c4 bd
       -0.068267494 -0.07647464 -0.045757033 -0.09600506
0000d0 7c 08 35 3e 75 cd ac bd d8 93 2e be 38 85 b5 bd
       0.17679018 -0.08437625 -0.17048585 -0.088633
0000e0 f7 cc 15 3e 99 26 29 be c5 94 6d be 12 2c 76 3e
       0.14628969 -0.1651863 -0.23201282 0.24040249
0000f0 a1 a9 0a 3e 62 2b 27 be 13 f0 ce 3d 9d a6 79 be
       0.13541271 -0.16325143 0.10104384 -0.24379964
000100 6d ca 3e bd 9a 6c d6 3c 85 3d 64 3b 1e a8 f5 3d
       -0.046579767 0.026174832 0.0034826708 0.119949564
000110 48 c8 64 bd 77 db 32 3e 21 19 1a be cb d4 33 3c
       -0.055855066 0.17466532 -0.15048648 0.010976027
000120 c6 34 89 bd 26 41 ca 3d d5 c7 f5 3d 0f 59 72 3e
       -0.06699519 0.09875707 0.120010056 0.23666786
000130 e7 83 86 3d 62 33 19 3d a5 e1 51 bd cc 4a 45 be
       0.06568127 0.037402518 -0.051240582 -0.19266814
000140 89 06 9c bd 8f 19 3c be 4b 06 88 bd 01 f2 cc bd
       -0.07618434 -0.18369125 -0.06641825 -0.10007096
000150 e8 4d 36 be b2 b1 82 be 09 15 8b bd 3b 20 c2 3d
       -0.17803156 -0.25526196 -0.067911215 0.09478804
000160 01 61 a9 bd 2c d9 81 3d 6d 96 e7 bd cc 11 ed bd
       -0.08270455 0.063402504 -0.11307988 -0.1157566
000170 c4 ea 2f be 5e f4 80 3d 97 45 eb 3d f5 6a 6a bd
       -0.171794 0.06296609 0.114878826 -0.05723091
000180 2c 00 3e be aa 07 5b 3b 4d 1b d4 3c 14 69 15 be
       -0.18554753 0.0033421316 0.025891924 -0.14590865
000190 99 53 41 3d c0 27 f8 3d 07 c8 ee bd d4 05 4d 3d
       0.047198866 0.12116957 -0.11659246 0.050054386
0001a0 30 89 5b 3e 20 a5 ed bc f6 2e 3a 3d 4d fc 28 be
       0.21439052 -0.029009402 0.04545494 -0.16502495
0001b0 f7 58 48 3e be 5f 04 be 37 5e 4b 3e a3 57 3a 3d
       0.19565187 -0.12927148 0.19860159 0.045493733
0001c0 2e a0 86 bd 85 71 82 be 54 3a bc 3b 15 5a 80 be
       -0.065735206 -0.25477234 0.005744258 -0.25068727
0001d0 b0 27 ae 3d 29 9b c2 bd b0 dc 55 be 88 03 c1 bd
       0.085036635 -0.09502251 -0.20884967 -0.09424502
0001e0 47 7f 0e 3e 04 f5 e6 bd 0b df 05 be d2 8e 6a 3e
       0.1391574 -0.11277202 -0.13073365 0.22906044
0001f0 30 2f d9 3d 43 f5 aa bd 14 21 37 bd 6b 0b 79 be
       0.106047034 -0.08347561 -0.04470928 -0.24320762
000200 b1 7a 76 bd 46 cb 35 be 15 71 75 bc 8e 51 c2 bc
       -0.0601756 -0.17753324 -0.014980574 -0.023720529
000210 c1 fa 1e be 5a d6 99 3d a8 c8 b7 3d f8 10 8a bd
       -0.15525343 0.075115874 0.08973819 -0.06741518
000220 a0 b2 f4 3d 32 a5 e3 bd 85 56 b7 3b 87 e6 2e be
       0.119481325 -0.11115493 0.0055950307 -0.17080127
000230 e5 c2 6f be f7 59 e9 3d fd a9 8a bd 15 d4 35 3d
       -0.2341419 0.113941126 -0.06770704 0.04439171
000240 9d 21 d7 3d ad 23 97 bd b8 f9 be 3d 52 f2 24 3d
       0.10504458 -0.073798515 0.09324974 0.040270157
000250 bc 25 0b 3e ad a2 c0 3c a3 1a 8c 3c 50 fa 34 bd
       0.13588613 0.02351507 0.017102545 -0.04418403
000260 ab 2d a4 bd 68 7e 92 bd 4c 21 b4 bd 40 9c 9c ba
       -0.08016523 -0.07153016 -0.087954134 -0.0011948422
000270 7e 0b fb 3d 0b 9a bc bc c6 83 24 bd d0 fb 8a 3b
       0.12258051 -0.023022672 -0.04016473 0.004241444
000280 63 df 07 3e 6c 1f 02 3e d4 87 35 3c b0 97 3b bb
       0.13268809 0.12707299 0.011079747 -0.0028624348
000290 bc a9 08 3d 62 15 07 bd 6f c5 0f 3e e7 49 b7 3c
       0.033364996 -0.032979377 0.14040159 0.022374107
0002a0 38 14 ae bd d0 79 ca bc 23 15 92 bd 1b 6b 2f 3e
       -0.0849995 -0.024716288 -0.07132938 0.17130701
0002b0 31 90 1f be 46 37 b3 3d 2e 28 c6 3d 03 ce 94 bb
       -0.15582348 0.08750777 0.096756324 -0.00454116
0002c0 c9 be 07 3e b1 76 9f 3d 9a 48 2d bc dd 63 4f 3d
       0.13256373 0.077863105 -0.010576392 0.050632346
0002d0 1d 55 d2 bd 0a b5 25 bd 99 01 87 3d 45 47 1b 3d
       -0.1027014 -0.040455855 0.065921016 0.037909765
0002e0 e2 56 5b 3d 12 48 66 3d 30 20 12 3d 4d 14 55 bc
       0.053549655 0.056221075 0.035675228 -0.013005328
0002f0 9b fc 0f be 70 85 ab 3d e8 6d 23 3c 10 ce 86 bc
       -0.14061205 0.083750606 0.009974934 -0.01645568
000300 6c 57 64 3d 35 ed 84 be 4c f2 f1 bd db 96 8f be
       0.055747434 -0.25962225 -0.118137926 -0.2804478
000310 99 f0 63 3d 79 81 65 3d c4 db 45 be 82 b6 50 3e
       0.055649374 0.056031678 -0.19322115 0.20382121
000320 fd 0f 10 be 73 f6 23 3e 32 3b 8a bc 9c 69 6c 3e
       -0.14068599 0.16011982 -0.01687393 0.23087162
000330 1f 93 71 3e 12 6b 82 be ab 19 57 be ac 9a 88 be
       0.23591278 -0.25472313 -0.21005885 -0.26680505
000340 7e d6 d2 bd 93 a9 8c be 94 7c 0a be 01 26 60 be
       -0.102948174 -0.27473125 -0.13524085 -0.21889497
000350 7f e5 4b be 11 50 14 be 19 5b d9 bc 9f 86 86 3e
       -0.19911765 -0.14483668 -0.026532697 0.26274583
000360 8b 42 0a 3e 05 ef 93 3e 06 dd 31 3d 3c 19 ee bd
       0.13501947 0.28893295 0.043423675 -0.11625907
000370 3a 88 af be a2 09 17 bd 22 ec 2c 3e 9c 93 59 be
       -0.3428362 -0.03687442 0.16886953 -0.21247715
000380 02 36 b6 bd e1 64 5d 3e 65 5e 2b 3e 19 9f 31 be
       -0.0889702 0.21620513 0.16735227 -0.17345847
000390 76 55 22 3e 7e 74 88 3e 21 dc 5f be 3f f7 13 bc
       0.15852913 0.26651376 -0.21861316 -0.009031116
0003a0 05 d5 4e 3e 3b 16 7b 3e 33 d1 e2 3d 15 8a 97 be
       0.20198448 0.24520199 0.11075058 -0.29597536
0003b0 2a 4a 00 3e 84 b3 93 be c8 1f 31 3e d1 7f 8e be
       0.12528291 -0.28847897 0.1729728 -0.2783189
0003c0 3e 4d 1c 3e 9f 1e 16 be 4d 57 a6 bd 17 3b 69 be
       0.1526384 -0.14660119 -0.0812212 -0.22776447
0003d0 df d2 19 3e 99 18 91 bd c8 a8 37 be 9e 8c 84 be
       0.15021847 -0.0708477 -0.17935479 -0.25888532
0003e0 49 b8 62 3e ef 30 31 3d 0d e2 5a be 1a d2 2b 3e
       0.22140612 0.043259557 -0.21375294 0.16779366
0003f0 62 47 a9 3e 5a 0f 49 be 1e 99 15 be a0 3a c5 bd
       0.33062273 -0.19634762 -0.14609191 -0.096303225

R__3246 f4 [1, 384, 128]
000000 f6 3c 16 3e 61 40 25 3d 50 88 b4 bd 75 1c 30 be
       0.14671692 0.0403446 -0.08815062 -0.17198355
000010 f4 6f 09 3d 69 1c 28 3c 8a e7 14 3e 57 d2 77 3d
       0.033554032 0.01026068 0.1454145 0.06050333
000020 8d 6f 51 bd b4 33 1e 3e 05 ee 56 be 46 e9 47 3c
       -0.051131774 0.1544941 -0.20989235 0.012201613
000030 d0 fe 31 3c e0 26 7e 3d 07 51 40 bd 68 9b 20 3d
       0.010863975 0.062048793 -0.046952274 0.039210707
000040 42 f9 9e bd 18 be 28 3e b2 6f 00 3e 20 0c 57 3c
       -0.07762386 0.16478765 0.12542608 0.013125449
000050 39 91 cb 3c 7a 76 07 bb f1 b8 78 3d b6 84 a3 3b
       0.024849521 -0.0020669983 0.06072325 0.0049901856
000060 93 38 0f bd aa 35 3c be 2e 36 c3 bc 99 06 73 3d
       -0.034966063 -0.18379846 -0.023829546 0.059332464
000070 cc 5b 5e bd 8c 0a c7 3d df ac 66 3b ed 18 17 bd
       -0.054286763 0.097188085 0.0035198254 -0.036889005
000080 dc 84 ce bd 9a 3f 20 3e a6 29 00 bd ed 73 93 bd
       -0.10083935 0.15649262 -0.03128972 -0.071998455
000090 f4 58 16 3c 93 b8 44 3d 73 9d e1 3c 56 5b ba 3d
       0.0091764815 0.048027586 0.027540898 0.09099452
0000a0 62 90 1c bd 81 0c 68 3c 21 44 5d 3c 5e 6e 3c bc
       -0.03822363 0.014163137 0.013505013 -0.011500923
0000b0 28 56 c5 3c b8 d5 ba bd 3f c6 67 3d 81 27 da 3d
       0.024088934 -0.09122795 0.056585547 0.10652066
0000c0 4f df 68 bd f2 30 87 3d 87 59 1c be fe 28 2a 3c
       -0.05685359 0.066011325 -0.15268527 0.01038575
0000d0 60 3d 6d bd 6d ee a1 3d 44 2b a6 bd 35 75 5a bd
       -0.05791986 0.07906804 -0.08113721 -0.053334434
0000e0 d1 63 e5 bd d0 54 77 bd 2a 45 65 3d 85 ba 8c 3c
       -0.11200679 -0.060383618 0.055974163 0.017178783
0000f0 c2 02 58 3d 2f 5c 96 3d 87 b8 80 3c 93 69 05 3e
       0.052737005 0.073418014 0.01571299 0.13028555
000100 07 56 30 bd 7e 5b 2f 3d b4 ce 4d 3d fd b3 98 bd
       -0.043050792 0.042811863 0.050245956 -0.07456205
000110 66 bf 4c 3d 28 3f b7 3a 93 61 72 bc ab b9 da 3c
       0.04998722 0.0013980614 -0.014793771 0.026699862
000120 c7 bb 33 3d dc 84 70 3d 00 4f 15 3e 70 03 d5 bd
       0.04388025 0.058720455 0.14580917 -0.10401046
000130 db 7a a8 3d a8 08 35 bd 69 30 0f bd e9 52 11 bd
       0.08226558 -0.04419771 -0.034958277 -0.03547946
000140 67 8d 58 3c d6 62 63 bd ff f9 03 bd 51 44 c6 3c
       0.013217307 -0.05551418 -0.032220837 0.024202498
000150 b0 ae 20 3e 34 50 c3 bc 91 50 39 be 66 53 8a 3d
       0.15691638 -0.023841955 -0.1809714 0.06754188
000160 f5 f8 21 be 9e 2c 86 bc 4c 9d e1 bd 78 6d 24 bd
       -0.15817626 -0.016378697 -0.1101633 -0.04014346
000170 ed da cd 3d f6 ec c6 3c 71 98 38 3e 3f 6a f7 3c
       0.100515224 0.024282914 0.18026902 0.03020203
000180 17 c0 80 3d e1 41 05 be 0a 6f f7 bb 40 5d 03 3e
       0.06286638 -0.13013412 -0.0075510787 0.12828541
000190 b9 50 a8 3c 46 e3 2d 3b 84 2e 34 bc bb 8b 8c bd
       0.020546304 0.002653317 -0.010997418 -0.06862589
0001a0 cd 5a 39 3e 46 15 35 bc 1f 7a c1 bd 21 a2 d0 3c
       0.18101044 -0.011052435 -0.09447121 0.025467934
0001b0 17 36 90 3d 51 1e fa 3b 32 9d 81 3d 5b e9 08 3d
       0.07041567 0.0076330085 0.06328811 0.03342567
0001c0 1e 53 13 3d a6 c4 04 be 6c 8d e2 3d fd 48 9d 3d
       0.03596794 -0.1296564 0.1106213 0.07679937
0001d0 90 8f 37 3a b7 28 ec 3d f4 2f 33 bc 0d d8 a5 bd
       0.00070022885 0.11531203 -0.010936726 -0.08097849
0001e0 5b 36 22 3e 29 b5 9f 3c bb 71 a6 3d 2e ad ce bc
       0.15841047 0.019495564 0.08127161 -0.025229063
0001f0 70 52 6f bc 1a e3 3b bd ba 9d d2 3d 57 2e 7b 3d
       -0.014607057 -0.045870878 0.1028399 0.06132349
000200 eb 04 c0 3b 8d 9f dd bc 0d 01 11 be 5c bf 33 be
       0.0058599613 -0.027053619 -0.14160557 -0.17553467
000210 ec 9f 12 bd a6 b8 cd 3d ca 54 98 3c 23 5c 63 bd
       -0.035797045 0.100449845 0.018595118 -0.05550779
000220 fe 96 48 bd cd e7 07 3e 4a 3c ac bd df 63 1d be
       -0.048972122 0.13272019 -0.08409937 -0.15370129
000230 27 8c 0a 3d 7e 22 f0 3d fa d3 dc 3d 1b 4b b2 3c
       0.033825066 0.11725329 0.10782619 0.021764329
000240 50 34 03 be c1 d8 ec bd d9 c9 d3 3d bd 29 28 3d
       -0.12812924 -0.1156478 0.10341234 0.04105543
000250 89 1d ce 3d 73 6c b3 3d 8a 03 e8 3b 68 6f 9b 3c
       0.10064227 0.087609194 0.0070805 0.018974021
000260 1c f7 66 3c d2 04 19 be e6 f2 ff b9 a2 23 d8 3d
       0.014097001 -0.14943245 -0.00048818364 0.105536714
000270 c6 2b 78 3c c5 4c 04 3e ad 3c 25 3e 43 50 37 3e
       0.015147155 0.1291991 0.16136427 0.17901711
000280 ba 41 c6 bd 33 cd 4a bc 54 ef 49 be 65 c0 05 bd
       -0.09680505 -0.012378025 -0.19720203 -0.032654185
000290 fb 8a 8a 3c bf d6 13 3e e5 c9 f7 3c 18 4c aa bd
       0.016911974 0.14437388 0.030247638 -0.08315295
0002a0 37 1c 8e 3c c9 13 a0 3d 3a 18 8b bc b1 10 5a 3d
       0.017347438 0.07816274 -0.016979326 0.053238574
0002b0 25 a5 6c 3d 00 cb 6d 3c f1 1e c8 bd 6e 07 49 bd
       0.05777468 0.014513731 -0.097715266 -0.04907935
0002c0 61 b9 0c be 07 58 c7 3d 84 28 35 bc ec a7 1e 3e
       -0.13742591 0.09733587 -0.011057023 0.15493745
0002d0 35 d1 19 bc a5 27 e8 3d 68 99 91 bd 26 fe c0 bd
       -0.009388258 0.113356866 -0.07109338 -0.09423475
0002e0 8e 2a 0d be 12 58 89 bd cd ec 1a 3d a9 63 c9 bc
       -0.13785765 -0.06706251 0.037823487 -0.024583654
0002f0 4e 43 66 3d da 2c c7 3d 73 ac 1d be 7d c7 fe bc
       0.05621653 0.09725352 -0.15397815 -0.031100983
000300 2b c5 7e bd d6 7c d2 bd a7 c5 e8 bd 05 aa d3 3c
       -0.062199753 -0.10277717 -0.11365824 0.025837908
000310 90 d0 ca bd 16 e6 b4 3b 44 f5 08 be 94 95 5b 3d
       -0.099030614 0.0055205924 -0.13374811 0.053609446
000320 05 c9 c9 3d 5e 5c cb 3d 91 57 66 bd b7 ff 61 bc
       0.098527946 0.09929727 -0.056235854 -0.013793877
000330 b5 45 3a 3d fe 37 e5 3d 12 5b 8f 3d 25 70 a6 b9
       0.045476634 0.1119232 0.06999792 -0.00031745541
000340 01 14 03 3d f7 9a a9 bd fd 65 09 bd 76 13 61 3d
       0.0320015 -0.0828151 -0.03354453 0.0549502
000350 96 d7 b6 3d 66 8b 6d 3e 73 19 dd bd f3 76 6e bc
       0.089278385 0.23197708 -0.1079587 -0.014554727
000360 6c f4 ac bd 03 6f 03 bb 40 2d 47 bd 8d 68 18 bd
       -0.08445057 -0.0020055182 -0.04862714 -0.037209082
000370 53 3f b9 3d 81 bf 47 3d dd 3b 58 3d 1f 25 16 be
       0.09045281 0.048766617 0.052791465 -0.14662598
000380 cb da f5 3d e3 c9 e8 bd e2 fd 44 3d 81 d3 05 3e
       0.12004622 -0.11366632 0.048093684 0.13068964
000390 a8 ae 7f 3b 7d 99 2b 3e 52 cb 5f be c5 19 8f bd
       0.0039014015 0.1675777 -0.21854904 -0.06987337
0003a0 72 c7 ba 3d 7a fe 35 3d 6f ea db bc 15 55 c3 3c
       0.091200724 0.04443214 -0.026845185 0.023844281
0003b0 10 bf 11 3d db 92 b7 3d ef 0a cc 3d b2 0d 03 3e
       0.035582602 0.08963557 0.09963023 0.12798193
0003c0 f6 4d 03 3e c7 ed 24 bc 7e 40 0b 3e d7 8a 56 3c
       0.12822708 -0.010066456 0.1359882 0.013094625
0003d0 8b 23 56 bd a8 2a a9 3d 94 4a ad 3d 57 c5 a1 bd
       -0.05227999 0.08260089 0.0846149 -0.07898968
0003e0 7e 6f 0c 3c e3 d6 b7 3d 3c 00 c9 3d 2d 31 02 be
       0.008571504 0.08976533 0.09814498 -0.12714072
0003f0 92 11 c4 bd 16 b5 22 be 27 98 00 3e 3c 7d 65 bd
       -0.09573664 -0.15889391 0.12558042 -0.056027636

GRU/quant_dense_47/LastValueQuant/FakeQuantWithMinMaxVars__3234 f4 [32, 1]
000000 bd 04 0e be 5c fb 49 3e c8 3a 63 bd 98 54 94 3e
       -0.13868995 0.19724792 -0.05547598 0.2897079
000010 07 65 81 be c8 3a e3 bc 33 7a 7c 3c 3b 1c a4 bd
       -0.2527239 -0.02773799 0.015409994 -0.08013197
000020 5c fb c9 3d ed ea 5c 3e 65 67 c8 3e aa 2c 11 3e
       0.09862396 0.21573992 0.39141384 0.14177194
000030 b5 62 66 3e 81 ab 43 be 37 4b 50 3e f0 bb 30 bd
       0.22498591 -0.19108392 0.20341192 -0.04314798
000040 b5 62 66 3e 03 94 2d 3e a6 5b bd 3e f4 8c 84 bd
       0.22498591 0.16950993 0.36983985 -0.06472197
000050 e2 b4 07 be f0 bb b0 bc a2 8a e9 3d 4d f4 20 3e
       -0.13252595 -0.02157399 0.11403395 0.15718193
000060 f0 bb b0 be 69 38 9c be ed ea dc 3d 00 00 00 00
       -0.34518385 -0.30511788 0.10786996 0.0
000070 aa 2c 91 bd a2 8a 69 be b9 33 3a be cb 0b 37 be
       -0.07088597 -0.2280679 -0.18183793 -0.17875592

GRU/quant_dense_46/LastValueQuant/FakeQuantWithMinMaxVars__3233 f4 [32, 32]
000000 f6 46 7f be 00 00 00 00 b6 98 63 be e8 37 54 3e
       -0.24929413 0.0 -0.22226223 0.20724452
000010 12 ac 66 3e f7 8d 10 3e d7 b6 82 3e 49 04 8f be
       0.22526577 0.14116655 0.2553012 -0.27932957
000020 69 db 1c be 6f bf e9 bd 12 ac 66 3e 0c c8 99 3d
       -0.15318073 -0.11413466 0.22526577 0.07508859
000030 6f bf 69 bd f0 62 b2 3d e0 0c 76 bc 7e 15 26 3e
       -0.05706733 0.08710277 -0.015017718 0.16219136
000040 be c3 41 be e0 0c 76 be 2f 11 4e be 22 02 23 3e
       -0.18922326 -0.24028349 -0.20123743 0.15918782
000050 be c3 41 be da 28 29 3e a8 89 38 3d c5 ee 1f 3e
       -0.18922326 0.1651949 0.045053154 0.15618427
000060 4c 76 b5 be 6f bf 69 3d 29 2d 81 3d f6 46 7f be
       -0.35441816 0.05706733 0.06307442 -0.24929413
000070 37 3c 2c bd 76 ea 47 be b6 98 63 3e 76 ea 47 be
       -0.042049613 -0.19523033 0.22226223 -0.19523033
000080 1a d7 44 bc 8c 24 51 bd a1 5e 5a be e0 0c 76 be
       -0.012014175 -0.051060244 -0.2132516 -0.24028349
000090 da 28 a9 3e 1a d7 44 be 9b 7a 8d 3d 69 db 9c 3e
       0.3303898 -0.1922268 0.06908151 0.30636147
0000a0 37 3c ac 3c f0 62 32 be 29 2d 81 be 93 4f af 3e
       0.021024806 -0.17420554 -0.25229767 0.34240398
0000b0 9b 7a 0d 3e 8c 24 51 bd 49 04 8f be 49 04 8f 3e
       0.13816302 -0.051060244 -0.27932957 0.27932957
0000c0 1a d7 c4 3b 12 ac 66 3e 6f bf e9 bd 8c 24 51 be
       0.0060070874 0.22526577 -0.11413466 -0.20424098
0000d0 90 dd 88 3e e0 0c 76 3e e2 53 07 be 2c 9f a7 be
       0.2673154 0.24028349 -0.13215593 -0.32738626
0000e0 da 28 29 3e 90 dd 88 3e b0 b4 16 3e fd 71 dd 3c
       0.1651949 0.2673154 0.14717364 0.027031893
0000f0 a8 89 38 be c5 ee 9f 3d 0c c8 99 3e da 28 29 be
       -0.18021262 0.078092135 0.30035436 -0.1651949
000100 6f bf e9 3d e2 53 07 3e a5 17 92 be a1 5e 5a be
       0.11413466 0.13215593 -0.28533664 -0.2132516
000110 28 e6 ef bd e2 53 87 bd 3e 67 0a 3e 37 3c 2c 3d
       -0.11713821 -0.06607796 0.13515946 0.042049613
000120 8c 24 d1 3d ec f0 8b 3e 12 ac 66 be 1a d7 c4 3d
       0.10212049 0.27332246 -0.22526577 0.0961134
000130 1a d7 44 bc 1a d7 44 3b e5 c5 ad 3e a1 5e 5a 3e
       -0.012014175 0.0030035437 0.33940044 0.2132516
000140 44 4b 57 be 1a d7 c4 3d 37 3c ac bc 8c 24 51 3e
       -0.21024805 0.0961134 -0.021024806 0.20424098
000150 99 33 fc bd 85 40 84 be b0 b4 16 be 54 a1 93 3d
       -0.12314529 -0.25830474 -0.14717364 0.07208505
000160 c5 ee 1f 3e 1a d7 44 bb 1a d7 44 3e 49 04 8f 3e
       0.15618427 -0.0030035437 0.1922268 0.27932957
000170 ec f0 8b be e0 0c f6 bd 22 02 23 3e f0 62 b2 bd
       -0.27332246 -0.120141745 0.15918782 -0.08710277
000180 bb 51 9b be 1a d7 44 be 54 a1 93 bc b0 b4 16 be
       -0.30335793 -0.1922268 -0.018021263 -0.14717364
000190 05 9d 3b be 8c 24 51 be 34 ca 85 3e 5a 85 60 be
       -0.18321617 -0.20424098 0.2613083 -0.2192587
0001a0 fd 71 5d 3d 37 3c 2c bd e0 0c 76 3c 1a d7 44 3e
       0.054063786 -0.042049613 0.015017718 0.1922268
0001b0 9b 7a 8d 3d 61 b0 be 3d 57 13 ba 3e fd 71 5d be
       0.06908151 0.09310985 0.3634288 -0.21625514
0001c0 fd 71 dd 3c d7 b6 82 3e b0 b4 16 be b6 98 e3 3d
       0.027031893 0.2553012 -0.14717364 0.11113112
0001d0 85 40 04 3e 61 b0 3e 3e c5 ee 9f bd b6 98 63 3e
       0.12915237 0.1862197 -0.078092135 0.22226223
0001e0 29 2d 01 be e2 53 07 bd 37 3c ac 3c 37 3c 2c bd
       -0.12614883 -0.03303898 0.021024806 -0.042049613
0001f0 e8 37 54 3e 76 ea 47 3e 69 db 1c be 85 40 84 be
       0.20724452 0.19523033 -0.15318073 -0.25830474
000200 61 b0 3e be 2c 9f a7 be 99 33 fc bd 1a d7 44 bc
       -0.1862197 -0.32738626 -0.12314529 -0.012014175
000210 d7 b6 82 be e2 53 87 bd 1a d7 44 bc fa ff b6 3e
       -0.2553012 -0.06607796 -0.012014175 0.3574217
000220 37 3c ac bd fd 71 5d bd 5a 85 60 3e e0 0c 76 3d
       -0.084099226 -0.054063786 0.2192587 0.060070872
000230 bb 51 9b be fd 71 dd bd 99 33 7c 3e 44 4b 57 3e
       -0.30335793 -0.10812757 0.24629058 0.21024805
000240 9b 7a 8d 3d fd 71 5d 3e e2 53 87 3d e0 0c f6 bc
       0.06908151 0.21625514 0.06607796 -0.030035436
000250 1a d7 c4 3d d3 fd ca 3d c5 ee 9f bd 37 3c 2c bd
       0.0961134 0.099116944 -0.078092135 -0.042049613
000260 e2 53 07 be 8c 24 d1 3d e0 0c f6 bc 2f 11 4e 3e
       -0.13215593 0.10212049 -0.030035436 0.20123743
000270 90 dd 88 3e a5 17 92 3e 1a d7 44 3d 2f 11 4e be
       0.2673154 0.28533664 0.0480567 -0.20123743
000280 76 ea 47 3e 7e 15 a6 bd 6f bf 69 3d 1a d7 c4 bd
       0.19523033 -0.08109568 0.05706733 -0.0961134
000290 e2 53 87 be 3d 20 79 be 54 a1 13 3c ec f0 8b 3e
       -0.26431185 -0.24328704 0.009010632 0.27332246
0002a0 1a d7 44 3e 1a d7 c4 bb 0c c8 19 3e fd 71 5d 3d
       0.1922268 -0.0060070874 0.15017718 0.054063786
0002b0 f7 8d 10 3e b6 98 e3 3d fd 71 dd 3c 7e 15 a6 bd
       0.14116655 0.11113112 0.027031893 -0.08109568
0002c0 17 65 9e 3e 49 04 8f be 1a d7 44 bb 44 4b 57 3e
       0.309365 -0.27932957 -0.0030035437 0.21024805
0002d0 e8 37 54 be f7 8d 90 3e 8c 24 51 bd 3e 67 8a be
       -0.20724452 0.2823331 -0.051060244 -0.27031893
0002e0 84 f9 72 3e 41 d9 b0 3e e2 53 87 be 6f bf e9 bd
       0.23727995 0.34540752 -0.26431185 -0.11413466
0002f0 76 ea 47 be f0 62 b2 3d 93 4f 2f 3e 7e 15 a6 3d
       -0.19523033 0.08710277 0.17120199 0.08109568
000300 e0 0c f6 bd 54 a1 93 be 9b 7a 8d be a8 89 38 be
       -0.120141745 -0.2883402 -0.27632603 -0.18021262
000310 d3 fd ca bd d3 fd 4a be f0 62 b2 3d d7 b6 82 3e
       -0.099116944 -0.19823389 0.08710277 0.2553012
000320 2f 11 4e 3e 7e 15 a6 3d 54 a1 93 bd fd 71 dd bd
       0.20123743 0.08109568 -0.07208505 -0.10812757
000330 99 33 7c 3e 4c 76 35 be b0 b4 96 be 93 4f 2f be
       0.24629058 -0.17720908 -0.2943473 -0.17120199
000340 05 9d 3b be f6 46 7f 3e 90 dd 88 be 2f 11 4e be
       -0.18321617 0.24929413 -0.2673154 -0.20123743
000350 f0 62 b2 3d b0 b4 96 be a8 89 38 3e f0 62 32 3e
       0.08710277 -0.2943473 0.18021262 0.17420554
000360 54 a1 13 bc d3 fd ca bd 3e 67 0a be e0 0c 76 bc
       -0.009010632 -0.099116944 -0.13515946 -0.015017718
000370 37 3c ac bd 8c 24 51 be e0 0c f6 3d 7e 15 a6 3e
       -0.084099226 -0.20424098 0.120141745 0.32438272
000380 fd 71 dd bc 1a d7 44 bb b6 98 e3 bd 6c 4d c3 be
       -0.027031893 -0.0030035437 -0.11113112 -0.38145006
000390 99 33 7c 3e 5a 85 60 be 37 3c ac bc 1a d7 c4 3c
       0.24629058 -0.2192587 -0.021024806 0.02402835
0003a0 b6 98 e3 3d 1a d7 44 bb 37 3c ac 3d 61 b0 3e be
       0.11113112 -0.0030035437 0.084099226 -0.1862197
0003b0 93 4f 2f be f0 62 b2 be d3 fd 4a be 1a d7 44 bb
       -0.17120199 -0.34841108 -0.19823389 -0.0030035437
0003c0 5a 85 60 3e d3 fd 4a be 54 a1 13 3e 9b 7a 8d 3d
       0.2192587 -0.19823389 0.1441701 0.06908151
0003d0 d3 fd 4a be e2 53 07 3d a8 89 38 3d e0 0c f6 bd
       -0.19823389 0.03303898 0.045053154 -0.120141745
0003e0 34 ca 85 3e 1a d7 c4 3d 7e 15 a6 3d 1a d7 c4 3d
       0.2613083 0.0961134 0.08109568 0.0961134
0003f0 e0 0c 76 3c 0c c8 99 3d a1 5e 5a 3e 1a d7 c4 bc
       0.015017718 0.07508859 0.2132516 -0.02402835
