models/station_26/model_latest.onnx (onnx, 407794 bytes, 12 tensors)

W__3689 f4 [1, 96, 64]
0.13446707 0.20808819 0.2513718 0.019780751 -0.124304704 -0.1793882 0.16310628 -0.10263823
0.025558809 -0.33674422 0.054905403 -0.12523171 -3.864041e-05 -0.046932124 -0.09292148 0.26231995
0.037699364 -0.016686141 0.22165455 0.19203179 -0.044669885 0.08471425 0.3236453 -0.05013291
0.28334677 -0.04887086 -0.0045594363 0.2607126 0.14590691 -0.013552051 -0.14730604 -0.08556633
0.3433717 -0.1718812 0.25217324 0.061846226 0.14298768 0.16931394 0.016995013 -0.040400874
0.0524764 0.069088936 0.008140463 0.12899846 -0.08804667 0.104824364 0.1434884 -0.10570097
-0.014601318 0.19691294 -0.19843796 -0.3052815 -0.040084567 0.1294388 -0.100818604 0.23092946
0.10639492 -0.08183799 -0.031206017 0.012113832 -0.11674023 0.044181764 0.04816123 0.2363993
0.0155753 0.029702155 0.08479739 -0.0015732407 -0.15286893 0.15616474 -0.009152133 0.2586013
-0.12999034 0.044544578 -0.19495559 0.049722098 -0.045113523 0.052193668 -0.19946507 -0.10976518
0.24083234 -0.0100439545 0.3522986 -0.07178384 -0.08472489 0.15798566 0.061572623 -0.13301842
-0.12149875 -0.031671077 0.023908567 -0.15409514 0.2421486 0.13803612 0.20840439 0.15211952
0.02803555 0.1313697 0.19824411 0.13266586 -0.1308458 0.20013899 -0.14516014 -0.2720314
0.041580457 -0.097218044 0.15921357 0.19796778 0.009032186 -0.01558777 0.114288524 -0.100852154
-0.079311624 -0.152007 0.15357836 0.06474937 0.043392472 -0.19485435 -0.07530135 0.24374588
0.014650941 -0.11312131 0.088232726 0.09604716 -0.06696771 0.108763665 -0.19030254 -0.08348413
-0.14298108 0.15005429 0.23898011 -0.1548619 0.1459248 -0.118453436 -0.13895652 0.055840515
-0.053949725 -0.031893943 0.06935188 0.08813638 0.10124643 -0.0070365765 0.15534717 0.09779112
-0.24352312 0.019070605 0.027097207 -0.02746553 -0.08502246 0.16573514 0.12264781 -0.086533904
0.012895338 -0.045441817 0.021886313 0.21211359 0.120808944 -0.061236683 -0.16166978 0.029636394
0.11391003 0.05930073 0.1943358 0.108442 0.16027427 -0.008937582 0.1389917 -0.15205525
-0.09144918 0.16292468 -0.22122267 -0.049672708 0.16836052 0.10621019 0.08866128 -0.2607924
0.29548892 -0.14898333 -0.035964325 0.02882778 -0.25318652 -0.21024805 -0.048218697 -0.2486495
0.068739116 -0.13414666 -0.031394105 -0.26018628 -0.18853593 0.14284778 -0.1864979 -0.11845212
-0.20266686 0.04901148 0.055614404 0.15263346 -0.045145825 -0.2396111 -0.050695643 0.08123626
0.151844 0.102448 -0.24951236 0.00976731 0.16432145 0.11710782 -0.062094305 -0.11225966
-0.12044607 0.20740275 0.18696782 0.0057205795 -0.10551845 -0.32874393 0.08506377 0.14848706
0.075063914 0.18162172 -0.20786265 -0.20795378 0.051262334 0.07289209 0.058285773 0.09001208
-0.101973794 0.16060257 -0.11217555 0.10057559 -0.046416376 -0.10740265 -0.0046075094 -0.16215743
-0.11261072 0.07755516 0.1873153 0.14379282 -0.07080082 0.023208654 -0.07057018 0.181767
-0.025063232 0.00068166456 0.12157841 -0.078326024 0.14415218 -0.03135987 -0.066185 -0.048891753
-0.056955233 0.10403873 -0.04135064 -0.058108475 -0.31364772 0.0642095 -0.030081306 0.023057673
00000000: bcb1 093e 1215 553e ceb3 803e 3e0b a23c
00000010: 7793 febd 8ab1 37be 5505 273e fe33 d2bd
00000020: b560 d13c bd69 acbe 7de4 603d be3c 00be
00000030: d311 22b8 e63b 40bd 9e4d bebd cd4e 863e
00000040: a66a 1a3d 60b1 88bc 69f9 623e fba3 443e
00000050: c5f7 36bd aa7e ad3d d6b4 a53e 2b58 4dbd
00000060: d412 913e d02c 48bd 5367 95bb 1f7c 853e
00000070: 9f68 153e 6c09 5ebc 65d7 16be 663d afbd
00000080: 6ace af3e a001 30be da1c 813e 7852 7d3d
00000090: 5d6b 123e a260 2d3e 2039 8b3c 637b 25bd
000000a0: 7ef1 563d 807e 8d3d 945f 053c 2c18 043e
000000b0: d051 b4bd 28ae d63d a0ee 123e c079 d8bd
000000c0: 5e3a 6fbc 8ca3 493e 5233 4bbe db4d 9cbe
000000d0: b72f 24bd 9b8b 043e fc79 cebd c678 6c3e
000000e0: 94e5 d93d ad9a a7bd c3a3 ffbc 1879 463c
000000f0: 8015 efbd f0f7 343d b644 453d a812 723e
00000100: 8b2f 7f3c ef51 f33c 41aa ad3d 3335 ceba
00000110: ac89 1cbe a6e9 1f3e d4f2 15bc 6467 843e
00000120: 301c 05be 6074 363d 70a2 47be 66a9 4b3d
00000130: f5c8 38bd 07c9 553d 9240 4cbe 91cc e0bd
00000140: c19c 763e 668f 24bc 7b60 b43e 6803 93bd
00000150: 3e84 adbd fec6 213e 9333 7c3d fb35 08be
00000160: 56d4 f8bd 88b9 01bd e6db c33c 1ecb 1dbe
00000170: cdf5 773e 5759 0d3e f667 553e 38c5 1b3e
00000180: cfaa e53c c785 063e 8100 4b3e 8fd9 073e
00000190: 71fc 05be 3cf1 4c3e dca4 14be b347 8bbe
000001a0: 4550 2a3d 411a c7bd e208 233e 11b8 4a3e
000001b0: bcfb 133c d963 7fbc 1a10 ea3d 938b cebd
000001c0: 226e a2bd b9a7 1bbe a543 1d3e 519b 843d
000001d0: 4ebc 313d e687 47be 9837 9abd 8598 793e
000001e0: 800a 703c 25ac e7bd 5cb3 b43d 60b4 c43d
000001f0: 5e26 89bd 7cbf de3d abde 42be baf9 aabd
00000200: a269 12be d5a7 193e 34b7 743e 1e94 1ebe
00000210: 506d 153e b797 f2bd 9e4a 0ebe 06b9 643d
00000220: 63fa 5cbd 39a3 02bd 5c08 8e3d d980 b43d
00000230: 4a5a cf3d 1593 e6bb 5413 1f3e b646 c83d
00000240: 205e 79be f539 9c3c f6fa dd3c 64ff e0bc
00000250: 4120 aebd 79b6 293e c62e fb3d b038 b1bd
00000260: f846 533c 3321 3abd ed4a b33c 4e34 593e
00000270: ae6a f73d 51d3 7abd c38c 25be 06c8 f23c
00000280: a949 e93d 52e5 723d f7ff 463e d716 de3d
00000290: f01e 243e f06e 12bc d753 0e3e 5fb4 1bbe
000002a0: b549 bbbd bad5 263e 3288 62be 9c75 4bbd
000002b0: b366 2c3e ba84 d93d 0c94 b53d 9586 85be
000002c0: 534a 973e 168f 18be 544f 13bd 3d28 ec3c
000002d0: aaa1 81be 444b 57be f880 45bd f99d 7ebe
000002e0: 18c7 8c3d be5d 09be 1b97 00bd 2337 85be
000002f0: 900f 41be b046 123e 4ef9 3ebe 0697 f2bd
00000300: e787 4fbe 43c0 483d eecb 633d f24b 1c3e
00000310: d4ea 38bd 9d5c 75be 3ca6 4fbd 325f a63d
00000320: fe7c 1b3e 42d0 d13d 2b80 7fbe 1107 203c
00000330: e243 283e 3ad6 ef3d 9956 7ebd 65e8 e5bd
00000340: 6eac f6bd 6361 543e 7e74 3f3e b373 bb3b
00000350: 0f1a d8bd 2051 a8be ea35 ae3d fe0c 183e
00000360: 1cbb 993d 0bfb 393e f2d9 54be d6f1 54be
00000370: 74f8 513d 7348 953d 10bd 6e3d 4158 b83d
00000380: a3d7 d0bd 0075 243e 4bbc e5bd 93fa cd3d
00000390: 191f 3ebd ecf5 dbbd 97fa 96bb 990c 26be
000003a0: 73a0 e6bd 3dd5 9e3d 95cf 3f3e 6d3e 133e
000003b0: 0500 91bd 1320 be3c 1987 90bd 2121 3a3e
000003c0: 6851 cdbc bcb1 323a 1afe f83d 6569 a0bd
000003d0: a19c 133e 3573 00bd 008c 87bd b842 48bd
000003e0: e449 69bd 4212 d53d 4a5f 29bd 2703 6ebd
000003f0: 6f96 a0be 4580 833d 126d f6bc 72e3 bc3c

W__3675 f4 [1, 192, 128]
0.11124513 0.25835055 -0.098600686 -0.25653222 -0.006737889 0.023209045 0.12590592 0.088964246
-0.12065257 0.018179724 -0.014635541 0.2297799 -0.13910869 0.12514424 0.20946884 0.15051942
-0.06758314 -0.05146848 0.21431455 -0.005542589 0.14776999 0.098386474 -0.079503804 -0.018849643
-0.05912937 -0.27734149 0.17795406 0.14074445 -0.04756692 0.0036903054 -0.18238713 -0.08386447
0.24934416 -0.10775206 -0.21542317 -0.05103885 0.079346396 0.006264698 -0.055626187 -0.008899403
-0.14757863 -0.037550144 0.13392088 -0.12122426 0.12893155 0.0011731922 -0.011999928 0.20403324
-0.18571667 0.14973886 -0.14253853 0.011215891 0.08440506 -0.19153145 -0.1668327 -0.25187835
-0.035736687 -0.020191671 -0.056895927 -0.25701526 0.18379685 -0.10960455 -0.23127045 -0.002865901
-0.09046573 0.033093072 -0.0586399 0.2662159 0.048855536 -0.07349608 0.12725393 -0.08051544
-0.06915235 0.038263705 0.015340719 -0.13644542 -0.15897639 0.17483717 0.0240526 0.12378871
-0.012302811 0.062350813 0.015684076 -0.020645367 -0.119350694 -0.00900729 0.0974987 -0.058552343
0.20358375 0.0026768332 -0.17786053 -0.029147543 0.12372675 0.045915436 0.031517584 -0.03461365
-0.032366 -0.22925505 0.12152521 0.048546832 -0.06986384 0.03389587 0.07199783 -0.09383417
0.023137117 -0.08731078 0.0078048888 -0.17600222 -0.23871149 -0.037027538 -0.030969132 0.18136068
-0.11652114 -0.040464304 -0.00965659 -0.033926576 0.24127907 0.152363 -0.25757772 -0.23693508
-0.085738465 0.01788654 -0.028762348 0.054470647 -0.19231875 -0.018969642 0.2156365 0.19753723
0.06468772 0.025837237 -0.03183683 -0.1867611 -0.1750133 -0.0971236 -0.028425861 -0.124309584
0.041701768 -0.12226073 -0.0510463 0.102484204 -0.047710396 0.025907705 -0.11506549 0.044870805
-0.14493418 0.13668272 -0.048606582 0.061100125 0.021953542 0.07548968 0.039712746 -0.032918565
-0.08111622 0.031829286 0.018721266 -0.004346438 0.057169743 0.05317259 0.09081149 -0.15306342
0.1844661 0.08155717 -0.032759264 0.07720221 0.13518734 -0.049554724 0.097259544 0.117430575
-0.13743737 0.06692294 -0.12551482 -0.14081345 -0.10509791 0.07894027 0.03292059 -0.13274273
0.022886265 -0.06025439 0.013106385 -0.049976647 0.04031313 0.030098507 0.021896703 -0.11209819
0.07930144 0.008077824 0.11699006 0.052248094 0.12080459 -0.14797045 -0.06596697 0.049499687
-0.08947233 0.063297436 0.04154515 0.09354759 -0.03989218 -0.050525017 -0.033812337 -0.20067152
0.0262439 -0.1278852 0.04267877 -0.077576794 -0.07282155 -0.031776674 0.03474214 0.084990546
0.10659213 -0.05076412 0.08789732 0.115410596 0.08624184 -0.07081803 0.10257906 0.02177073
0.13658313 -0.20425557 -0.078525335 -0.10460319 0.18232521 0.15758769 -0.14073877 -0.06761673
-0.06022465 -0.00065352063 0.054600332 0.0024505635 0.10335253 0.057270497 -0.12474751 -0.04366483
0.048761427 0.035601 0.019753417 -0.023599263 -0.06846048 -0.08456828 0.01989343 -0.018064393
-0.10408802 0.030387737 0.024175188 -0.059072055 -0.10711088 0.05467199 -0.05803218 0.047096252
0.00064776617 0.041615527 -0.06718808 -0.07128394 -0.1444129 0.011106853 -0.08167223 -0.01229053
00000000: 7dd4 e33d 8646 843e 28ef c9bd 3158 83be
00000010: 82c9 dcbb e520 be3c 7bed 003e e332 b63d
00000020: b218 f7bd a5ed 943c e8c9 6fbc 6c4b 6b3e
00000030: 8272 0ebe d025 003e 007f 563e c321 1a3e
00000040: 0869 8abd 9dd0 52bd 4675 5b3e 9b9e b5bb
00000050: 0451 173e d97e c93d e4d2 a2bd 916a 9abc
00000060: a331 72bd b4ff 8dbe 9739 363e 501f 103e
00000070: 88d5 42bd 0dd9 713b b1c3 3abe 23c1 abbd
00000080: 1354 7f3e 1dad dcbd e497 5cbe 1d0e 51bd
00000090: 5d80 a23d 1948 cd3b 49d8 63bd cdce 11bc
000000a0: da1e 17be 2ece 19bd 8e22 093e 6d44 f8bd
000000b0: a206 043e ccc5 993a 599b 44bc 17ee 503e
000000c0: 832c 3ebe 2555 193e 9ff5 11be dbc2 373c
000000d0: 8fdc ac3d d220 44be 31d6 2abe 33f6 80be
000000e0: a260 12bd 0169 a5bc b40b 69bd 8197 83be
000000f0: 3e35 3c3e 5a78 e0bd 29d2 6cbe d7d1 3bbb
00000100: 1946 b9bd 9a8c 073d 6430 70bd 734d 883e
00000110: be1c 483d 1d85 96bd db4e 023e 47e5 a4bd
00000120: bf9f 8dbd 67ba 1c3d a457 7b3c 59b8 0bbe
00000130: b5ca 22be 8408 333e f509 c53c ef84 fd3d
00000140: bb91 49bc 9163 7f3d e47b 803c 7920 a9bc
00000150: 236e f4bd 5093 13bc 66ad c73d 95d4 6fbd
00000160: 4278 503e cf6d 2f3b 1221 36be d4c6 eebc
00000170: 7364 fd3d d311 3c3d 9518 013d 0bc7 0dbd
00000180: 3692 04bd d6c1 6abe 36e2 f83d 0bd9 463d
00000190: c614 8fbd 65d6 0a3d 9973 933d 212c c0bd
000001a0: 0d8a bd3c ffcf b2bd 27c0 ff3b ed39 34be
000001b0: c970 74be 30aa 17bd fab2 fdbc 9db6 393e
000001c0: a3a2 eebd e6bd 25bd ad36 1ebc 98f6 0abd
000001d0: dc11 773e 0c05 1c3e 3ae1 83be 1c9f 72be
000001e0: a697 afbd cb86 923c 049f ebbc 9d1c 5f3d
000001f0: 35ef 44be 3966 9bbc d1cf 5c3e 3347 4a3e
00000200: ff7a 843d 9da8 d33c 5667 02bd 4d3e 3fbe
00000210: b036 33be bde8 c6bd 5add e8bc 0696 febd
00000220: 79cf 2a3d d563 fabd ed15 51bd 3de3 d13d
00000230: fa6b 43bd 653c d43c 75a7 ebbd 73ca 373d
00000240: a069 14be 8ef6 0b3e b217 47bd 2044 7a3d
00000250: ead7 b33c 559a 9a3d d5a9 223d 9ed5 06bd
00000260: 4320 a6bd 6d5f 023d 575d 993c 916c 8ebb
00000270: d22a 6a3d 80cb 593d 60fb b93d a8bc 1cbe
00000280: aee4 3c3e 7207 a73d 942e 06bd 311c 9e3d
00000290: 8d6e 0a3e e5f9 4abd 0330 c73d 717f f03d
000002a0: 62bc 0cbe e50e 893d f586 00be 6731 10be
000002b0: 933d d7bd 70ab a13d bed7 063d b6ed 07be
000002c0: fa7b bb3c 4fcd 76bd 2abc 563c 50b4 4cbd
000002d0: 611f 253d 2591 f63c b760 b33c bc93 e5bd
000002e0: cb68 a23d d958 043c 7c98 ef3d 1902 563d
000002f0: 6668 f73d 9185 17be b119 87bd 2fc0 4a3d
00000300: 453d b7bd 16a2 813d 3f2b 2a3d e195 bf3d
00000310: fc65 23bd 52f3 4ebd ce7e 0abd d67c 4dbe
00000320: 73fd d63c 56f4 02be efcf 2e3d 95e0 9ebd
00000330: 7723 95bd 4228 02bd c64d 0e3d 860f ae3d
00000340: fa4c da3d 0aee 4fbd 8303 b43d 645c ec3d
00000350: 909f b03d 0b09 91bd f814 d23d 8858 b23c
00000360: 73dc 0b3e 5f28 51be e4d1 a0bd 333a d6bd
00000370: 76b3 3a3e ab5e 213e d31d 10be a47a 8abd
00000380: 1fae 76bd 0751 2bba 99a4 5f3d a299 203b
00000390: 7eaa d33d 7894 6a3d 9f7b ffbd e5d9 32bd
000003a0: 10ba 473d 5bd2 113d ebd1 a13c 3e53 c1bc
000003b0: 0235 8cbd 2232 adbd 8cf7 a23c c7fb 93bc
000003c0: 1a2c d5bd b4ef f83c 0b0b c63c 8af5 71bd
000003d0: f35c dbbd bdef 5f3d 27b3 6dbd 00e8 403d
000003e0: dace 293a 0b75 2a3d e799 89bd 50fd 91bd
000003f0: fae0 13be 85f9 353c c543 a7bd 385e 49bc

W__3662 f4 [1, 384, 6]
-0.12370243 -0.050641134 -0.0011596027 -0.041839916 -0.31948587 -0.1483144 0.14886123 0.15938774
0.1896806 0.081234336 -0.08076466 -0.050374657 0.05315739 0.13226399 0.15174091 0.027615424
-0.21725893 -0.0056811445 0.037293334 -0.026523912 -0.20020007 -0.028767874 0.08165746 -0.058861706
-0.018986681 -0.057130717 -0.15120293 -0.029042244 0.07258207 -0.13363762 0.0082457485 -0.18570659
-0.04500128 -0.10079891 0.025186295 -0.11136692 0.08058502 -0.038211346 0.04825379 0.06417338
-0.2009301 -0.058628757 0.0057376754 0.11333659 0.07092095 0.007773451 -0.168867 -0.0846838
-0.10308122 -0.10702501 0.01157041 0.08363732 -0.13219558 -0.30244535 -0.0077995425 0.023801943
-0.08422907 -0.07564007 -0.10800119 -0.07641416 0.25292385 0.10129966 0.13352524 -0.014460086
-0.09101042 -0.06097711 0.10239498 -0.030961799 -0.05216255 -0.0028947839 -0.1096171 -0.04200395
-0.27221146 -0.1632112 -0.07103184 -0.17075592 -0.20040302 -0.07531387 0.15652004 0.053826895
0.092995666 0.16181047 0.0031601023 0.08907865 -0.07534401 -0.07106368 -0.03065531 0.020917185
-0.31455088 0.056472365 0.09014256 0.16894068 0.1476724 0.034838717 -0.16265413 0.13075651
0.020028405 0.06809137 0.035518937 -0.051104024 -0.2794017 -0.17113975 0.12515928 0.0069635445
0.039892282 0.100535914 -0.19032793 -0.12907462 -0.07636442 0.04232528 0.108401 0.07866617
-0.22046353 -0.16682066 -0.06596854 0.066111796 0.047229137 0.099111386 -0.14654376 -0.056713596
0.04718581 -0.028397921 -0.04400433 0.0028803884 -0.017413734 0.046022486 -0.014723302 0.18756755
0.019031657 0.15616661 -0.07492772 0.10223664 -0.15209867 0.03567267 -0.10614301 0.03545505
-0.10698306 -0.13073847 0.0362683 0.03649129 0.028351078 0.024224393 -0.14339812 -0.06926716
0.01837406 -0.0711336 -0.043094404 0.0059750895 -0.0931563 -0.0736978 0.25277242 0.1868305
0.26600134 0.18974465 0.31476384 0.1112512 0.100588545 0.010397201 -0.05571912 0.059755255
-0.29004058 -0.062408514 0.024259426 0.12342491 -0.059870843 -0.054467756 -0.36698177 -0.1681204
-0.19406758 -0.031760957 -0.21409856 -0.09776359 0.0015562341 -0.009871874 -0.010954849 0.06719943
-0.0021149802 0.10451508 -0.09374739 0.08298318 -0.032602232 -0.08670897 -0.06356277 0.10006477
-0.2165668 0.016530488 -0.039160807 -0.17811722 0.06566522 0.08093024 -0.22561973 -0.18498302
-0.15739217 -0.25326574 -0.15819152 -0.18880634 -3.0606647e-05 -0.26705602 0.13356148 0.041122213
-0.040895198 0.1301099 -0.25709414 -0.00645376 0.06328654 0.04433844 0.099816956 0.049062625
-0.16599885 -0.14931501 0.07840335 -0.018095782 -0.012628603 0.036425304 -0.19526532 0.09415878
-0.13500893 -0.027173115 -0.17217736 -0.18505746 0.016993998 -0.120650165 -0.04193982 -0.0027697328
-0.027179323 0.04239801 -0.12080947 -0.0676803 0.009967547 0.050723426 -0.010051318 0.08550095
-0.24595116 0.17015776 -0.029718634 -0.065735355 -0.10456045 -0.0045017162 -0.13506481 -0.13967109
0.07695537 0.11664582 0.097223416 -0.012721246 0.11570995 0.07852624 0.1274373 0.14555293
0.014651553 -0.06688545 -0.13986628 -0.020516206 0.076778434 0.03523488 0.017543785 0.019068947
00000000: b357 fdbd 146d 4fbd cffd 97ba 5560 2bbd
00000010: a793 a3be bbdf 17be 146f 183e 8a36 233e
00000020: a23b 423e 305e a63d f167 a5bd a855 4ebd
00000030: 90bb 593d 3670 073e f861 1b3e be39 e23c
00000040: 2079 5ebe e528 babb e5c0 183d ad48 d9bc
00000050: 3f01 4dbe 9baa ebbc 073c a73d f918 71bd
00000060: f589 9bbc e601 6abd f1d4 1abe 00ea edbc
00000070: e9a5 943d 4dd8 08be 2d19 073c de29 3ebe
00000080: 4353 38bd a96f cebd 7d53 ce3c 5714 e4bd
00000090: c209 a53d 8083 1cbd c4a5 453d 556d 833d
000000a0: 9fc0 4dbe b524 70bd 1c03 bc3b 041d e83d
000000b0: 013f 913d 6fb8 fe3b 79eb 2cbe b36e adbd
000000c0: 3f1c d3bd ee2f dbbd d191 3d3c 0b4a ab3d
000000d0: 475e 07be 1eda 9abe 4e93 ffbb 4bfc c23c
000000e0: 4a80 acbd 2ee9 9abd ba2f ddbd 077f 9cbd
000000f0: 3c7f 813e 3276 cf3d d7ba 083e ffe9 6cbc
00000100: ac63 babd 22c3 79bd 76b4 d13d 99a3 fdbc
00000110: 66a8 55bd 6ab6 3dbb ee7e e0bd 550c 2cbd
00000120: 4d5f 8bbe d620 27be 2479 91bd a4da 2ebe
00000130: 7336 4dbe 293e 9abd ca46 203e 9779 5c3d
00000140: 8374 be3d a5b1 253e b819 4f3b de6e b63d
00000150: f64d 9abd d689 91bd d820 fbbc 845a ab3c
00000160: d00c a1be 914f 673d aa9c b83d c9fe 2c3e
00000170: 6f37 173e 0bb3 0e3d ce8e 26be 09e5 053e
00000180: 9c12 a43c 7d73 8b3d 4e7c 113d 7452 51bd
00000190: bd0d 8fbe 423f 2fbe c129 003e 722e e43b
000001a0: 1766 233d c6e5 cd3d 53e5 42be 232c 04be
000001b0: f364 9cbd 465d 2d3d 5801 de3d bb1b a13d
000001c0: 31c1 61be 09d3 2abe 841a 87bd 9f65 873d
000001d0: 5773 413d e9fa ca3d 910f 16be 844c 68bd
000001e0: e845 413d c2a2 e8bc e23d 34bd e6c4 3c3b
000001f0: 3fa7 8ebc 1382 3c3d 013a 71bc b511 403e
00000200: 47e8 9b3c 24ea 1f3e b473 99bd 7261 d13d
00000210: c1bf 1bbe 811d 123d 8261 d9bd 5139 113d
00000220: ef19 dbbd 4ee0 05be 128e 143d e477 153d
00000230: 8540 e83c 3c72 c63c f5d6 12be f1db 8dbd
00000240: 3285 963c 7eae 91bd c283 30bd afca c33b
00000250: bbc8 bebd dfee 96bd 636b 813e 7f50 3f3e
00000260: 5431 883e 6c4c 423e ba28 a13e abd7 e33d
00000270: 5e01 ce3d 0659 2a3c bb39 64bd edc1 743d
00000280: 3380 94be 12a0 7fbd b4bb c63c 33c6 fc3d
00000290: 213b 75bd 9519 5fbd 09e5 bbbe c127 2cbe
000002a0: a7b9 46be c717 02bd a73c 5bbe 4738 c8bd
000002b0: 8dfa cb3a a4bd 21bc f87b 33bc db9f 893d
000002c0: 7b9b 0abb 010c d63d a2fe bfbd 16f3 a93d
000002d0: eb89 05bd 7994 b1bd 332d 82bd c2ee cc3d
000002e0: b0c3 5dbe f26a 873c 1567 20bd 5c64 36be
000002f0: 7d7b 863d c1be a53d dc08 67be 306c 3dbe
00000300: 6a2b 21be 0cac 81be f5fc 21be 7356 41be
00000310: a35f 00b8 91bb 88be 57c4 083e c46f 283d
00000320: b981 27bd 883b 053e d8a1 83be 107a d3bb
00000330: 609c 813d 399c 353d d56c cc3d e4f5 483d
00000340: 9afb 29be 09e6 18be f091 a03d 9b3d 94bc
00000350: 33e8 4ebc b332 153d a2f3 47be 52d6 c03d
00000360: c83f 0abe 279a debc 434f 30be b47f 3dbe
00000370: ff36 8b3c 6f17 f7bd 17c9 2bbd 6884 35bb
00000380: 2ca7 debc 89a9 2d3d f56a f7bd f89b 8abd
00000390: ec4e 233c 5ec3 4f3d 49ae 24bc 1f1b af3d
000003a0: 9fda 7bbe d63d 2e3e 7e74 f3bc 42a0 86bd
000003b0: ca23 d6bd 2283 93bb 6e4e 0abe f005 0fbe
000003c0: c79a 9d3d 01e4 ee3d 121d c73d c66c 50bc
000003d0: 57f9 ec3d 5ed2 a03d ec7e 023e d40b 153e
000003e0: 110d 703c 3dfb 88bd 1b39 0fbe 9a11 a8bc
000003f0: 033e 9d3d 7352 103d fcb7 8f3c 7b36 9c3c

R__3690 f4 [1, 96, 32]
-0.04939253 -0.01039858 -0.23639129 -0.03910319 -0.049086485 0.117994845 -0.27006873 -0.08109034
0.1723544 -0.049177516 0.0733317 0.21345352 -0.05271452 0.1470704 -0.040135194 0.02188769
0.14962362 -0.13374782 0.3065063 -0.10779141 -0.21667933 -0.13061228 0.070079334 -0.028791612
-0.08635924 0.13488911 -0.133279 -0.12228417 0.04629147 0.10833274 -0.13646273 0.09265789
0.06492959 -0.16332151 -0.09257738 0.106755115 0.13144761 -0.038788434 -0.0024459844 -0.026031207
-0.1741826 0.0006331252 0.10454222 0.12900567 0.15502906 -0.07052398 -0.071825385 -0.22694097
0.02606311 -0.050147034 -0.20091617 -0.06739138 -0.11791437 -0.021780353 -0.019582435 0.08986728
-0.028278736 0.09048158 -0.23460938 0.085021526 -0.022708386 0.18759806 0.00082514825 -0.051210728
0.08900693 -0.11634461 -0.047573596 -0.040365208 -0.3218362 0.010554634 -0.032735687 -0.017791279
-0.020492844 -0.090673886 -0.20857452 -0.10525777 -0.017119413 -0.23993972 0.06999827 0.0014854035
-0.2876939 0.09901507 -0.08003864 0.016332215 -0.13608916 -0.12323356 0.0682849 0.32568976
0.1419409 0.0059721447 -0.029354583 0.05665785 -0.05237094 0.026592417 -0.24563546 0.18808874
-0.085509844 -0.20948817 -0.012687898 0.1708988 -0.053016815 -0.08495875 -0.15700126 -0.15588681
-0.1793756 0.13612637 0.2986516 0.25811106 0.28863874 0.28350875 -0.1495523 -0.36205953
0.060003746 -0.1903737 0.2771682 -0.07500027 -0.16763595 0.15234204 -0.05336893 -0.22375877
0.17809236 0.20972066 0.034652606 -0.139722 0.29071936 0.11033853 0.23491435 -0.039418485
-0.027405577 -0.03317992 0.06640835 -0.1474933 -0.05299009 -0.022260841 0.17740458 -0.039776817
-0.2014453 -0.08399141 0.040545348 -0.09970396 0.05328314 -0.063086055 -0.04416713 -0.027842913
0.16560598 0.016710084 0.19791727 -0.020890437 -0.055067074 -0.12519784 -0.09454325 -0.022815302
-0.084991105 0.22126465 0.11051584 0.09707723 0.011531151 0.13218063 0.027893277 -0.116713926
0.03509107 -0.02050248 0.018709477 -0.009551187 -0.09040333 -0.00106244 0.16155753 0.10129636
-0.07501303 0.016579702 -0.12129631 -0.0589739 0.19811863 -0.19173954 0.18371978 -0.07640068
0.03168631 0.23652062 -0.050651047 0.14750254 -0.008033274 0.12840787 -0.10262358 -0.033542473
-0.06381768 -0.014546886 0.25057516 -0.06059559 -0.12164345 0.0073565566 0.025213813 -0.024747174
-0.04632766 0.06899588 -0.13071322 0.001471388 -0.031265326 -0.12616679 -0.03131929 -0.10673565
0.110385984 -0.074172765 0.11417037 -0.083603606 0.12459296 -0.16753054 -0.058631357 -0.104862556
-0.059538588 0.090439916 -0.0109308725 -0.025236474 0.190981 -0.2843586 0.0745742 0.08401549
0.015728887 0.0024828655 0.01902225 -0.04501558 -0.24358463 -0.25293675 0.02549807 0.10746246
-0.13201259 -0.014696555 -0.12676919 -0.15956941 -0.119419046 -0.10816652 -0.059287548 -0.12396252
-0.13765945 0.027919115 -0.017909255 0.07642026 0.18832582 0.03205157 -0.00093201373 0.10974076
0.121780336 -0.2906242 0.19387625 -0.03673196 -0.08855282 0.055520188 0.019082759 -0.18880819
-0.053709496 0.12758012 -0.13522848 -0.18881409 0.10757195 0.27466986 -0.025649529 0.08673045
00000000: d24f 4abd ce5e 2abc 8f10 72be ab2a 20bd
00000010: e90e 49bd 48a7 f13d 7346 8abe b112 a6bd
00000020: ac7d 303e 5d6e 49bd ee2e 963d 8f93 5a3e
00000030: 2eeb 57bd 9f99 163e cd64 24bd d04d b33c
00000040: ef36 193e 30f5 08be 65ee 9c3e bec1 dcbd
00000050: 30e1 5dbe 3abf 05be c185 8f3d 63dc ebbc
00000060: 1ddd b0bd 5f20 0a3e 4a7a 08be 1f70 fabd
00000070: 209c 3d3d 8edd dd3d e3bc 0bbe 6bc3 bd3d
00000080: cef9 843d c13d 27be 3699 bdbd 6da2 da3d
00000090: 349a 063e 9fe0 1ebd cf4c 20bb 663f d5bc
000000a0: ec5c 32be 50f8 253a 3b1a d63d 101a 043e
000000b0: f0bf 1e3e e06e 90bd 3019 93bd 3763 68be
000000c0: 4e82 d53c fa66 4dbd f8bc 4dbe 7e04 8abd
000000d0: 177d f1bd b66c b2bc 586b a0bc 560c b83d
000000e0: cfa8 e7bc 684e b93d 713d 70be c41f ae3d
000000f0: f006 babc b519 403e c34e 583a 57c2 51bd
00000100: 4449 b63d 1546 eebd 88dc 42bd fd55 25bd
00000110: b7c7 a4be 58ed 2c3c db15 06bd 04bf 91bc
00000120: 9ce0 a7bc 3bb3 b9bd 8f94 55be 6391 d7bd
00000130: 033e 8cbc c2b2 75be 415b 8f3d dfb1 c23a
00000140: 9d4c 93be 6ac8 ca3d 4ceb a3bd 23cb 853c
00000150: f55a 0bbe e061 fcbd f4d8 8b3d cfc0 a63e
00000160: f558 113e fbb1 c33b 0679 f0bc 1012 683d
00000170: e982 56bd 57d8 d93c dd87 7bbe 569a 403e
00000180: c91f afbd 1184 56be e7e0 4fbc 1800 2f3e
00000190: 2928 59bd dafe adbd f0c4 20be cba0 1fbe
000001a0: 3dae 37be b664 0b3e dde8 983e 2227 843e
000001b0: 75c8 933e 0f28 913e 3d24 19be de5f b9be
000001c0: 7dc6 753d 53f1 42be fee8 8d3e be99 99bd
000001d0: c2a8 2bbe 8dff 1b3e 6199 5abd 0521 65be
000001e0: d85d 363e 03c1 563e e4ef 0d3d 4913 0fbe
000001f0: 2bd9 943e 2bf9 e13d 638d 703e 4775 21bd
00000200: a981 e0bc abe7 07bd 1a01 883d 7c08 17be
00000210: 230c 59bd 5e5c b6bc 8ca9 353e 04ed 22bd
00000220: ad47 4ebe b003 acbd e112 263d 9731 ccbd
00000230: 6c3f 5a3d 4333 81bd 98e8 34bd d216 e4bc
00000240: 9d94 293e 96e3 883c d3aa 4a3e 6c22 abbc
00000250: 038e 61bd dd33 00be e49f c1bd 28e7 babc
00000260: d10f aebd 3393 623e 2156 e23d 6dd0 c63d
00000270: 27ed 3c3c 5c5a 073e 7180 e43c b607 efbd
00000280: a7bb 0f3d d1f4 a7bc 9e44 993c 957c 1cbc
00000290: 6225 b9bd 9241 8bba 566f 253e 7774 cf3d
000002a0: 6ea0 99bd 28d2 873c 336a f8bd 9e8e 71bd
000002b0: 9cdf 4a3e 5f57 44be 0a21 3c3e f677 9cbd
000002c0: 81c9 013d 7632 723e 7977 4fbd e80a 173e
000002d0: fe9d 03bc 5a7d 033e 502c d2bd d563 09bd
000002e0: d8b2 82bd 1056 6ebc 634b 803e 1533 78bd
000002f0: 3320 f9bd 450f f13b 338d ce3c 96ba cabc
00000300: 13c2 3dbd b64d 8d3d b0d9 05be 97db c03a
00000310: 1210 00bd de31 01be a848 00bd 3898 dabd
00000320: 0c12 e23d e4e7 97bd 28d2 e93d 5e38 abbd
00000330: 982a ff3d 208d 2bbe 6f27 70bd 2ec2 d6bd
00000340: bcde 73bd 9038 b93d 6717 33bc b9bc cebc
00000350: 8690 433e 7397 91be 5cba 983d 5010 ac3d
00000360: ded9 803c 92b7 223b 8dd4 9b3c 4262 38bd
00000370: 406e 79be ed80 81be 54e1 d03c 4715 dc3d
00000380: 4f2e 07be d2c9 70bc c8cf 01be 2a66 23be
00000390: f991 f4bd 6986 ddbd 80d7 72bd 10e0 fdbd
000003a0: 99f6 0cbe a1b6 e43c 6eb6 92bc 3a82 9c3d
000003b0: 7cd8 403e 8248 033d 6252 74ba c3bf e03d
000003c0: f867 f93d b2cc 94be 7f87 463e 4074 16bd
000003d0: 2e5b b5bd 2369 633d 7253 9c3c ef56 41be
000003e0: 7dfe 5bbd 5da4 023e 5679 0abe 7b58 41be
000003f0: af4e dc3d 87a1 8c3e f61e d2bc bc9f b13d

R__3676 f4 [1, 192, 64]
0.07881264 -0.18549281 -0.10038551 0.04193084 0.2887571 0.037538618 0.22689822 0.12514558
0.18012378 0.08146675 0.11627384 0.06316141 0.060894832 -0.03444049 -0.10891135 -0.19881162
0.20608743 0.11217579 0.0039940295 -0.048853327 0.02869056 -0.12741107 -0.019675115 0.13158923
-0.14810559 0.18770167 -0.044347692 -0.08854041 -0.16389522 -0.04444279 -0.118268095 0.02634043
-0.0068540876 -0.08234621 -0.0050580986 0.077670835 0.14827637 -0.15756184 -0.017712655 0.040982775
0.030245708 -0.091965936 -0.06583028 0.01761106 -0.037735917 0.035426587 -0.061014753 0.004550191
-0.09672928 -0.102982596 0.04078382 0.07767505 0.063234046 0.08159871 0.23584442 -0.013513847
0.006961212 0.05766084 0.1543247 0.09407635 -0.027746068 -0.016316194 0.072706744 0.25018978
0.101965345 -0.11422217 -0.0585735 0.0496213 -0.0642896 0.24582909 0.061009575 0.054049037
0.13445014 0.11655482 -0.035651915 -0.053482406 -0.15830432 0.028715637 0.12442525 0.02266537
0.131162 0.08591886 -0.035714682 -0.03628299 -0.052797385 -0.04661899 -0.007437676 0.06398315
-0.02772602 -0.00064338295 -0.01650627 -0.23080719 -0.069409534 0.095564075 0.15883817 -0.032917324
-0.20069292 0.19029804 -0.009686297 0.10097813 0.047971953 -0.1276517 0.08286327 0.22370791
0.0017129199 -0.07991684 -0.08206702 -0.115645066 -0.12316297 -0.08216362 -0.035141382 -0.026950506
-0.058724385 -0.17021088 0.065009974 0.0076314174 0.18799876 0.22247045 0.0128384745 -0.05661281
0.05817701 0.04286009 -0.11904664 0.10491003 -0.04953046 -0.115998164 0.0814652 -0.015254572
0.05253829 -0.022365224 -0.18856099 0.0033159545 -0.091323 0.23201905 0.2641973 0.02690817
0.019724542 0.30596432 0.09154815 -0.12509876 0.02160036 -0.049592305 0.02821095 -0.111864045
0.07176649 0.13236415 0.064893045 -0.0190832 -0.06420838 -0.04745041 -0.023995705 0.029526768
0.03484486 0.04521146 -0.024800466 -0.10140812 -0.23195483 0.2674935 0.020221805 0.15203495
-0.21463305 0.1040718 -0.06915108 0.010262593 0.16624624 -0.1032419 0.0016342079 0.1265931
0.094794095 -0.04118653 0.063747525 0.08158577 -0.12204843 0.022654599 -0.13024603 0.03819181
0.066712834 -0.0050495723 0.035623536 -0.09909421 0.21477036 0.06300688 0.12485902 -0.1396277
0.10981376 0.1856276 -0.053465646 0.25839895 0.06707385 0.007165494 0.08755085 0.031293478
-0.14343439 -0.16923954 0.033073634 -0.055809896 0.1286147 0.0051128413 0.14567053 0.12983975
0.09652642 -0.04483716 -0.4428342 -0.27313086 -0.09418716 0.12215611 -0.062229425 -0.12851419
0.15837541 0.10967043 -0.043882247 -0.061273232 -0.021554023 -0.12060356 -0.17371488 0.07948204
-0.1404999 0.07062579 -0.04297366 -0.0970612 -0.06219061 0.25455183 0.053729735 -0.10418086
-0.17034523 0.20573747 -0.037636217 0.15073018 0.041187454 0.009232722 -0.033415694 0.12882076
0.014566499 -0.23569885 0.11973565 -0.054266855 0.08892014 0.13234662 -0.2657016 -0.13721085
-0.06186643 -0.012940944 -0.04832036 -0.02209902 0.12318668 0.013548 0.14194891 0.09040679
-0.011089257 0.19788674 0.053835355 0.12800758 -0.16130471 0.035072483 0.05755436 0.17413779
00000000: 8568 a13d d4f1 3dbe eb96 cdbd acbf 2b3d
00000010: f8d7 933e 18c2 193d 0258 683e 2a26 003e
00000020: 5e72 383e 0ad8 a63d fb20 ee3d c55a 813d
00000030: dc6c 793d 7911 0dbd ea0c dfbd 4695 4bbe
00000040: 9508 533e 6cbc e53d 59e0 823b 6d1a 48bd
00000050: 7708 eb3c 0c78 02be b52d a1bc 54bf 063e
00000060: fea8 17be de34 403e eda5 35bd ad54 b5bd
00000070: 26d4 27be a509 36bd 8b36 f2bd e3c7 d73c
00000080: 4198 e0bb 21a5 a8bd 68be a5bb e311 9f3d
00000090: c3d5 173e e457 21be 211a 91bc 8edd 273d
000000a0: d9c5 f73c a358 bcbd 07d2 86bd 1245 903c
000000b0: fa90 1abd 781b 113d 9bea 79bd c519 953b
000000c0: 001a c6bd 8ae8 d2bd ef0c 273d 1914 9f3d
000000d0: da80 813d 391d a73d 3381 713e 2f69 5dbc
000000e0: e11a e43b c62d 6c3d 4b07 1e3e 1aab c03d
000000f0: b94b e3bc 8aa9 85bc 46e7 943d e018 803e
00000100: 35d3 d03d 50ed e9bd c4ea 6fbd b43f 4b3d
00000110: 44aa 83bd 9fba 7b3e 2de5 793d 8662 5d3d
00000120: 4cad 093e 4bb4 ee3d be07 12bd 5e10 5bbd
00000130: 871a 22be 0e3d eb3c aad2 fe3d baac b93c
00000140: 554f 063e 3af6 af3d 8f49 12bd 799d 14bd
00000150: 1242 58bd 8ef3 3ebd c0b7 f3bb 9909 833d
00000160: ae21 e3bc b3a8 28ba 2838 87bc b858 6cbe
00000170: 9626 8ebd 19b7 c33d 79a6 223e 51d4 06bd
00000180: 7282 4dbe 7ddd 423e 46b3 1ebc 9fcd ce3d
00000190: 3d7e 443d 21b7 02be 38b4 a93d b013 653e
000001a0: 0e84 e03a 71ab a3bd c112 a8bd 52d7 ecbd
000001b0: de3c fcbd 6645 a8bd 69f0 0fbd 4fc7 dcbc
000001c0: fb88 70bd c34b 2ebe f323 853d f810 fa3b
000001d0: bf82 403e 4bcf 633e 7758 523c d5e2 67bd
000001e0: 044b 6e3d 108e 2f3d bace f3bd 12db d63d
000001f0: 74e0 4abd 7290 edbd 3ad7 a63d 50ee 79bc
00000200: 6432 573d 4637 b7bc 2216 41be 7c50 593b
00000210: 8e07 bbbd 6796 6d3e de44 873e 866e dc3c
00000220: 5d95 a13c 5ba7 9c3e 997d bb3d e419 00be
00000230: 3df3 b03c 4d21 4bbd a61a e73c fa18 e5bd
00000240: 4ffa 923d 788a 073e a5e6 843d 5f54 9cbc
00000250: af7f 83bd 5c5b 42bd a492 c4bc 1fe2 f13c
00000260: 7cb9 0e3d a72f 393d 592a cbbc 0faf cfbd
00000270: 9185 6dbe e8f4 883e 33a8 a53c 0daf 1b3e
00000280: c4c8 5bbe 9923 d53d 159f 8dbd 6f24 283c
00000290: 743c 2a3e 7d70 d3bd eb32 d63a 9fa1 013e
000002a0: 6823 c23d 35b3 28bd 108e 823d 7116 a73d
000002b0: 87f4 f9bd 2396 b93c 375f 05be 046f 1c3d
000002c0: bda0 883d e276 a5bb fce9 113d e8f1 cabd
000002d0: c3ec 5b3e c009 813d 16b6 ff3d 90fa 0ebe
000002e0: 09e6 e03d 2915 3e3e cbfe 5abd de4c 843e
000002f0: 045e 893d 85cc ea3b dc4d b33d 972d 003d
00000300: 77e0 12be 214d 2dbe 3878 073d eb98 64bd
00000310: 92b3 033e 9f89 a73b a82a 153e b6f4 043e
00000320: a5af c53d 2ba7 37bd 2abb e2be cfd7 8bbe
00000330: 33e5 c0bd fc2c fa3d 48e4 7ebd 3999 03be
00000340: 2a2d 223e e49a e03d dfbd 33bd a4f9 7abd
00000350: 1092 b0bc 00ff f6bd 50e2 31be 7bc7 a23d
00000360: 35df 0fbe 41a4 903d 2605 30bd 06c8 c6bd
00000370: 95bb 7ebd 9e54 823e b613 5c3d c65c d5bd
00000380: fb6e 2ebe d8ac 523e 6f28 1abd 0359 1a3e
00000390: 2db4 283d d844 173c e5de 08bd 97e9 033e
000003a0: 53a8 6e3c 0a5b 71be f737 f53d ec46 5ebd
000003b0: c31b b63d df85 073e 0a0a 88be 0081 0cbe
000003c0: a767 7dbd 4106 54bc 92eb 45bd 0109 b5bc
000003d0: 4c49 fc3d 6ef8 5d3c 0e5b 113e 3227 b93d
000003e0: b7af 35bc d2a2 4a3e 7682 5c3d 6b14 033e
000003f0: 102d 25be 2aa8 0f3d 1fbe 6b3d 2d51 323e

R__3663 f4 [1, 384, 128]
0.0436366 0.091354735 -0.006066329 0.18698919 0.070369594 -0.2046101 0.104346044 -0.029292844
-0.12709865 0.1462975 -0.11915838 0.1257572 -0.21165587 -0.16447736 0.14942624 -0.07736775
0.07138783 0.024560465 0.012555665 -0.12731756 0.10515988 -0.075376436 -0.18216865 -0.2503042
-0.16437186 0.15387176 -0.179479 0.09670347 0.027516006 0.100003816 0.109965205 -0.01309877
-0.030888677 -0.20199004 0.12413362 0.02852386 -0.15171224 0.19686697 -0.15145989 -0.07693013
0.018444583 0.0057338113 -0.09060771 -0.14106706 -0.0767911 0.0669684 0.007979599 0.09845331
-0.02137074 0.13539483 -0.06364654 -0.16795176 -0.24350426 -0.13014175 -0.10238954 0.0317825
-0.07455652 -0.00064902304 -0.23325007 -0.0697784 -0.14387684 0.11850338 0.011992305 0.048330545
0.07673048 -0.08574645 0.38285795 0.08697263 -0.105077654 -0.036102466 0.07523987 -0.02169289
0.004985398 -0.0665678 0.0040239366 0.15062192 -0.04679787 0.019134004 -0.18683194 -0.013733203
-0.09145143 0.02238055 -0.2006626 0.013570081 -0.06421734 -0.008586732 0.18749344 -0.12258203
-0.14119475 -0.042583115 0.09487798 0.045604903 -0.015463476 0.11025768 -0.059525754 -0.090419315
-0.13687246 0.07254068 -0.106388934 0.0537366 -0.07470613 0.064567074 -0.055700462 0.05021272
0.1629428 0.09342075 0.22754748 -0.093197785 -0.03841002 0.045105826 0.09439377 -0.085824706
0.06926274 -0.12648702 -0.04497277 0.042431522 0.0793358 -0.02443113 0.06789824 -0.09757369
-0.052544244 -0.17292461 0.013113118 0.09255752 -0.15504953 0.110438526 0.055881526 -0.08249496
0.19551124 -0.07645732 -0.08645863 0.046286214 -0.0153292185 0.028297594 0.16213675 0.05236428
-0.11929762 -0.10998576 0.07147359 0.07153387 0.2786685 -0.15944459 0.124598876 0.16588165
-0.1280544 0.026300678 0.18173112 -0.117628835 -0.1329732 0.28855884 0.14958127 -0.04533371
-0.08363608 -0.027882695 0.20883454 0.19503884 0.05739364 -0.045221813 -0.0494819 -0.29716825
0.16491179 -0.1344818 -0.036062308 0.05775653 0.08265795 0.052276142 -0.1323118 0.038286414
0.05375098 0.02008251 -0.02541823 -0.05941887 -0.13843077 0.084100455 0.02116672 0.18146887
-0.044220276 0.123698086 -0.087545685 0.13228159 -0.09396748 -0.09343775 0.029090974 -0.20538875
-0.03691272 0.080736466 -0.080636404 0.02752567 -0.11630868 -0.11050515 -0.05502863 -0.14884822
0.1078265 0.023138206 -0.2267076 0.048066225 0.044508692 0.19409198 0.06111338 -0.080298185
0.18773489 0.019631516 -0.015856508 0.029036066 -0.29330406 0.019624693 0.044382658 -0.02556113
0.11497686 0.10153642 -0.011876559 0.1969389 -0.23792616 0.06209899 0.15327124 -0.08075903
0.026929928 -0.1691199 -0.06264702 -0.113069676 -0.07530492 0.08165558 -0.003428559 0.13694847
0.00010246764 0.1860838 0.018826673 0.12145508 0.14722238 -0.034282733 -0.15691975 -0.033706132
0.26850927 -0.050551035 0.0030286945 -0.02583905 -0.23220918 0.21247713 0.030400168 0.080276765
-0.000111180365 0.31131095 -0.009862246 0.138001 0.04855652 0.06767892 -0.038266398 -0.16073045
-0.15800421 0.024093272 -0.07297665 -0.13476178 0.15797484 0.10879728 -0.07715825 0.022494068
00000000: 4bbc 323d 3118 bb3d 0ec8 c6bb 187a 3f3e
00000010: ef1d 903d 4f85 51be 61b3 d53d 8cf7 efbc
00000020: 2626 02be 03cf 153e 4f09 f4bd 7fc6 003e
00000030: 51bc 58be c16c 28be 3103 193e fc72 9ebd
00000040: c833 923d 0733 c93c 47b6 4d3c 895f 02be
00000050: 105e d73d f65e 9abd 6b8a 3abe df27 80be
00000060: 1951 28be 8f90 1d3e 58c9 37be 780c c63d
00000070: 3f69 e13c cdce cc3d 7035 e13d 399c 56bc
00000080: 400a fdbc 7ad6 4ebe c439 fe3d dfaa e93c
00000090: 745a 1bbe 7f97 493e 4d18 1bbe 8b8d 9dbd
000000a0: 1819 973c b2e2 bb3b 8990 b9bd e273 10be
000000b0: a744 9dbd ba26 893d ddbc 023c e4a1 c93d
000000c0: b111 afbc f1a4 0a3e 1e59 82bd 8cfb 2bbe
000000d0: 2e59 79be e143 05be 9bb1 d1bd 5e2e 023d
000000e0: 17b1 98bd 3323 2aba 1bd9 6ebe fae7 8ebd
000000f0: 7354 13be e6b1 f23d 5f7b 443c 40f6 453d
00000100: df24 9d3d d69b afbd f505 c43e b51e b23d
00000110: f432 d7bd 2ee0 13bd 5c17 9a3d 4ab5 b1bc
00000120: 8d5c a33b b354 88bd 3adb 833b a23c 1a3e
00000130: 20af 3fbd eabe 9c3c df50 3fbe 3a01 61bc
00000140: e34a bbbd 6a57 b73c 7f7a 4dbe 0c55 5e3c
00000150: 6184 83bd 5daf 0cbc 48fe 3f3e 4a0c fbbd
00000160: 5b95 10be a26b 2ebd 634f c23d 35cc 3a3d
00000170: 855a 7dbc c7ce e13d 47d1 73bd c32d b9bd
00000180: 4b28 0cbe 3590 943d 71e2 d9bd e91a 5c3d
00000190: 87ff 98bd be3b 843d 2b26 64bd daab 4d3d
000001a0: 7ada 263e 6153 bf3d 3502 693e 7bde bebd
000001b0: d353 1dbd e3c0 383d 8551 c13d ddc4 afbd
000001c0: a0d9 8d3d d085 01be 5e35 38bd adcc 2d3d
000001d0: cf7a a23d cb23 c8bc 3c0e 8b3d b7d4 c7bd
000001e0: a238 57bd 2613 31be 67d8 563c cc8e bd3d
000001f0: 4ec5 1ebe 982d e23d 07e4 643d 1ef3 a8bd
00000200: 1934 483e a895 9cbd 3911 b1bd 9d96 3d3d
00000210: 6727 7bbc 5bd0 e73c 2d07 263e ed7b 563d
00000220: 5052 f4bd 3740 e1bd bf60 923d 5a80 923d
00000230: a3ad 8e3e 7145 23be b22d ff3d e1dc 293e
00000240: b120 03be 8574 d73c b917 3a3e 63e7 f0bd
00000250: 202a 08be fcbd 933e d52b 193e d7af 39bd
00000260: 6549 abbd 406a e4bc b9d8 553e 43b8 473e
00000270: 9815 6b3d 823a 39bd 88ad 4abd 7026 98be
00000280: a3de 283e 99b5 09be 12b6 13bd 1c92 6c3d
00000290: 9248 a93d 821f 563d bf7c 07be 37d2 1c3d
000002a0: fd29 5c3d 1384 a43c e439 d0bc 3361 73bd
000002b0: ccc0 0dbe dc3c ac3d d465 ad3c fad2 393e
000002c0: 5220 35bd 6c55 fd3d 274b b3bd d374 073e
000002d0: 0672 c0bd 4b5c bfbd 3250 ee3c 6e51 52be
000002e0: cb31 17bd 2959 a53d b324 a5bd 847d e13c
000002f0: 3f33 eebd 8650 e2bd b365 61bd ab6b 18be
00000300: 24d4 dc3d 568c bd3c 0926 68be 17e1 443d
00000310: bf4e 363d 0cc0 463e 0652 7a3d 6073 a4bd
00000320: 933d 403e 46d2 a03c 82e5 81bc 0bdd ed3c
00000330: f32b 96be f7c3 a03c 97ca 353d 9365 d1bc
00000340: fd78 eb3d 54f2 cf3d e695 42bc 5aaa 493e
00000350: eaa2 73be 835b 7e3d 23f3 1c3e fe64 a5bd
00000360: 279c dc3c c42d 2dbe 154d 80bd 1391 e7bd
00000370: 7739 9abd 0a3b a73d adb1 60bb 383c 0c3e
00000380: e5e3 d638 c08c 3e3e 653a 9a3c 71bd f83d
00000390: 77c1 163e 0d6c 0cbd 92af 20be 710f 0abd
000003a0: 0c7a 893e 9a0e 4fbd 107d 463b 6aac d3bc
000003b0: 3ec8 6dbe 9b93 593e c609 f93c 2568 a43d
000003c0: 8129 e9b8 2664 9f3e 4295 21bc 2250 0d3e
000003d0: 34e3 463d 3f9b 8a3d 3abd 1cbd 8696 24be
000003e0: dbcb 21be 415f c53c c874 95bd fefe 09be
000003f0: 28c4 213e 1cd1 de3d 2505 9ebd 7b45 b83c

GRU/quant_dense_53/LastValueQuant/FakeQuantWithMinMaxVars__3651 f4 [32, 1]
0.15848127 -0.28094408 0.010805542 -0.082842484 -0.06483325 0.018009236 0.25573117 0.21971267
0.24492562 -0.2053053 0.05042586 -0.4574346 0.0 0.021611083 0.13687019 -0.3277681
-0.0036018472 -0.1908979 -0.41781428 0.05042586 0.039620318 0.13326834 0.021611083 -0.036018472
-0.34577733 -0.02521293 -0.27374038 0.046824016 -0.28094408 0.12246281 0.0 0.30255517
00000000: ea48 223e e7d7 8fbe ba09 313c 52a9 a9bd
00000010: 4cc7 84bd 1b88 933c 32ef 823e 5cfc 603e
00000020: c8cd 7a3e 8d3b 52be 598b 4e3d de34 eabe
00000030: 0000 0000 ba09 b13c b327 0c3e 38d1 a7be
00000040: f80c 6cbb bd7a 43be c1eb d5be 598b 4e3d
00000050: ea48 223d 7f77 083e ba09 b13c 1b88 13bd
00000060: ba09 b1be 598b cebc b327 8cbe 8aca 3f3d
00000070: e7d7 8fbe c8cd fa3d 0000 0000 83e8 9a3e

GRU/quant_dense_52/LastValueQuant/FakeQuantWithMinMaxVars__3650 f4 [32, 32]
0.20647132 0.19614775 -0.05161783 0.17894182 0.35444245 0.048176643 -0.0068823774 -0.048176643
0.182383 -0.10323566 0.05505902 0.41638383 -0.14108874 -0.15829468 0.117000416 -0.15141231
0.07914734 0.309707 0.34756005 0.044735454 -0.13076517 -0.22023608 -0.030970698 -0.096353285
0.43703097 0.024088321 0.13420635 0.0034411887 0.15829468 0.22367726 0.09979447 0.25808915
-0.061941396 0.17550063 0.07914734 0.15829468 0.28561866 0.0068823774 0.16517706 -0.06882378
0.22711846 0.10667685 0.030970698 -0.17894182 0.13764755 -0.2787363 0.041294266 0.13764755
-0.013764755 -0.05505902 0.36132482 0.18926539 0.18926539 -0.06882378 0.013764755 0.18582419
0.09979447 -0.23055965 -0.010323566 -0.13076517 0.25808915 0.23744202 0.18926539 0.08947091
0.14452992 -0.13076517 -0.13076517 -0.08947091 -0.20647132 -0.10323566 -0.075706154 0.05161783
-0.14452992 -0.05505902 -0.32347172 -0.17205943 0.010323566 -0.13076517 -0.09979447 0.19270657
-0.03441189 -0.13076517 -0.09291209 -0.14797111 0.07914734 0.19270657 -0.20303014 0.16173586
-0.07914734 0.15829468 -0.30282462 0.28217748 -0.2133537 -0.16173586 0.065382585 0.29594222
-0.02752951 -0.20647132 -0.13764755 -0.017205944 -0.20991251 -0.075706154 0.24088322 0.096353285
-0.048176643 0.22367726 0.030970698 0.18926539 0.11011804 -0.20647132 -0.13420635 -0.017205944
0.044735454 -0.044735454 0.10667685 0.037853077 0.010323566 -0.13076517 -0.12388279 0.030970698
-0.06882378 0.117000416 0.1548535 0.16861825 0.05161783 0.10323566 0.22023608 0.22711846
-0.048176643 0.15829468 0.017205944 -0.03441189 0.096353285 -0.23400083 0.058500208 0.075706154
0.22711846 0.25464797 0.16173586 -0.14108874 0.061941396 0.117000416 0.08258853 -0.12044161
-0.075706154 -0.2787363 -0.044735454 0.096353285 -0.22711846 -0.117000416 -0.25464797 0.13764755
0.2684127 -0.18926539 -0.024088321 -0.16173586 0.22367726 -0.0068823774 -0.2167949 -0.017205944
0.3062658 0.182383 0.18582419 0.14797111 -0.12044161 -0.041294266 -0.13420635 0.020647133
-0.024088321 -0.07914734 0.041294266 -0.13764755 -0.041294266 0.086029716 0.32347172 -0.05505902
-0.07226496 -0.02752951 -0.16861825 0.13764755 -0.20991251 0.12044161 0.1548535 0.2443244
-0.02752951 -0.19958894 -0.23055965 0.08947091 -0.2787363 -0.2133537 -0.061941396 0.12388279
0.29938343 0.18582419 0.041294266 0.06882378 0.07914734 0.06882378 0.20303014 0.017205944
-0.2443244 0.09291209 -0.18582419 -0.19614775 -0.2443244 0.010323566 0.38541314 -0.020647133
-0.13420635 -0.0068823774 -0.20303014 -0.096353285 0.041294266 -0.26153034 -0.08258853 0.25808915
0.1548535 0.06882378 0.096353285 0.18926539 -0.18582419 -0.11355923 -0.14108874 0.34067768
0.07914734 0.23400083 0.16517706 -0.09979447 0.40606028 0.13420635 0.09291209 -0.20647132
0.17894182 0.2718539 -0.08947091 0.2167949 -0.048176643 -0.24776559 0.1548535 0.2718539
-0.16517706 -0.024088321 0.25808915 -0.037853077 -0.13420635 -0.17205943 -0.024088321 -0.2787363
-0.024088321 -0.2443244 -0.14108874 0.10323566 0.23744202 0.10323566 -0.19614775 0.16861825
00000000: 386d 533e f5da 483e 386d 53bd 863c 373e
00000010: 7b79 b53e df54 453d 9185 e1bb df54 45bd
00000020: 9cc2 3a3e 386d d3bd 9185 613d 4330 d53e
00000030: 9179 10be 0018 22be ea9d ef3d d40b 1bbe
00000040: 0018 a23d ea91 9e3e 64f3 b13e 863c 373d
00000050: 4ee7 05be 9185 61be 43b6 fdbc df54 c5bd
00000060: 86c2 df3e df54 c53c 646d 093e 9185 613b
00000070: 0018 223e a70b 653e 0b61 cc3d 4324 843e
00000080: 43b6 7dbd 70b6 333e 0018 a23d 0018 223e
00000090: 9c3c 923e 9185 e13b 2d24 293e 7bf3 8cbd
000000a0: be91 683e 6479 da3d 43b6 fd3c 863c 37be
000000b0: 7bf3 0c3e 86b6 8ebe 2d24 293d 7bf3 0c3e
000000c0: 9185 61bc 9185 61bd 91ff b83e c9ce 413e
000000d0: c9ce 413e 7bf3 8cbd 9185 613c b248 3e3e
000000e0: 0b61 cc3d d417 6cbe 2d24 29bc 4ee7 05be
000000f0: 4324 843e 0024 733e c9ce 413e 863c b73d
00000100: a7ff 133e 4ee7 05be 4ee7 05be 863c b7bd
00000110: 386d 53be 386d d3bd d40b 9bbd 386d 533d
00000120: a7ff 13be 9185 61bd 169e a5be 5930 30be
00000130: 2d24 293c 4ee7 05be 0b61 ccbd df54 453e
00000140: 7bf3 0cbd 4ee7 05be b248 bebd bd85 17be
00000150: 0018 a23d df54 453e 22e7 4fbe 169e 253e
00000160: 0018 a2bd 0018 223e d40b 9bbe 9179 903e
00000170: 6479 5abe 169e 25be 4ee7 853d bd85 973e
00000180: 9185 e1bc 386d 53be 7bf3 0cbe 7bf3 8cbc
00000190: 4ef3 56be d40b 9bbd 17aa 763e df54 c53d
000001a0: df54 45bd a70b 653e 43b6 fd3c c9ce 413e
000001b0: 9185 e13d 386d 53be 646d 09be 7bf3 8cbc
000001c0: 863c 373d 863c 37bd 6479 da3d d40b 1b3d
000001d0: 2d24 293c 4ee7 05be 43b6 fdbd 43b6 fd3c
000001e0: 7bf3 8cbd ea9d ef3d ea91 1e3e 43aa 2c3e
000001f0: 386d 533d 386d d33d 9185 613e be91 683e
00000200: df54 45bd 0018 223e 7bf3 8c3c 7bf3 0cbd
00000210: df54 c53d ea9d 6fbe ea9d 6f3d d40b 9b3d
00000220: be91 683e 3861 823e 169e 253e 9179 10be
00000230: 43b6 7d3d ea9d ef3d 2d24 a93d 17aa f6bd
00000240: d40b 9bbd 86b6 8ebe 863c 37bd df54 c53d
00000250: be91 68be ea9d efbd 3861 82be 7bf3 0c3e
00000260: 646d 893e c9ce 41be df54 c5bc 169e 25be
00000270: a70b 653e 9185 e1bb 7bff 5dbe 7bf3 8cbc
00000280: dfce 9c3e 9cc2 3a3e b248 3e3e bd85 173e
00000290: 17aa f6bd 2d24 29bd 646d 09be 2d24 a93c
000002a0: df54 c5bc 0018 a2bd 2d24 293d 7bf3 0cbe
000002b0: 2d24 29bd 5930 b03d 169e a53e 9185 61bd
000002c0: a7ff 93bd 9185 e1bc 43aa 2cbe 7bf3 0c3e
000002d0: 4ef3 56be 17aa f63d ea91 1e3e 2d30 7a3e
000002e0: 9185 e1bc 0b61 4cbe d417 6cbe 863c b73d
000002f0: 86b6 8ebe 6479 5abe 43b6 7dbd 43b6 fd3d
00000300: c948 993e b248 3e3e 2d24 293d 7bf3 8c3d
00000310: 0018 a23d 7bf3 8c3d 22e7 4f3e 7bf3 8c3c
00000320: 2d30 7abe b248 be3d b248 3ebe f5da 48be
00000330: 2d30 7abe 2d24 293c df54 c53e 2d24 a9bc
00000340: 646d 09be 9185 e1bb 22e7 4fbe df54 c5bd
00000350: 2d24 293d 4ee7 85be 2d24 a9bd 4324 843e
00000360: ea91 1e3e 7bf3 8c3d df54 c53d c9ce 413e
00000370: b248 3ebe be91 e8bd 9179 10be 4e6d ae3e
00000380: 0018 a23d ea9d 6f3e 2d24 293e 0b61 ccbd
00000390: 22e7 cf3e 646d 093e b248 be3d 386d 53be
000003a0: 863c 373e 6f30 8b3e 863c b7bd 7bff 5d3e
000003b0: df54 45bd 43b6 7dbe ea91 1e3e 6f30 8b3e
000003c0: 2d24 29be df54 c5bc 4324 843e d40b 1bbd
000003d0: 646d 09be 5930 30be df54 c5bc 86b6 8ebe
000003e0: df54 c5bc 2d30 7abe 9179 10be 386d d33d
000003f0: 0024 733e 386d d33d f5da 48be 43aa 2c3e

GRU/quant_dense_52/BiasAdd/ReadVariableOp:0 f4 [32]
0.057282362 -0.006874896 -0.019767499 -0.086629 -0.01386921 -0.071468174 -0.027827179 0.004673545
-0.035635725 -0.0024505097 -0.041654453 0.029086811 -0.023906285 -0.014603818 -0.03530218 -0.09373162
-0.10100715 -0.10868852 -0.0020123627 0.013742868 -0.050635148 0.11205682 -0.09281382 -0.11616004
0.018352157 -0.07821009 -0.00240192 -0.11432942 0.055575084 -0.024595983 -0.0879877 0.034077667
00000000: e9a0 6a3d cf46 e1bb 73ef a1bc 8c6a b1bd
00000010: af3b 63bc e85d 92bd d3f5 e3bc 8924 993b
00000020: c4f6 11bd bb98 20bb dc9d 2abd 7747 ee3c
00000030: 1dd7 c3bc da44 6fbc 0599 10bd 5df6 bfbd
00000040: d6dc cebd 1698 debd d8e1 03bb c429 613c
00000050: cd66 4fbd 0c7e e53d 2c15 bebd 51e5 edbd
00000060: 4357 963c 9d2c a0bd 8869 1dbb 8b25 eabd
00000070: b3a2 633d 847d c9bc e532 b4bd 0695 0b3d

B__3691 f4 [1, 192]
0.17952003 0.047184084 -0.205817 0.16151187 0.12678096 -0.12142297 -0.02428388 -0.013841271
0.14109786 -0.059771016 0.0102066295 0.06435921 0.0046627764 0.06283111 0.07303685 -0.015178721
0.116059296 0.042530533 0.055050842 -0.02121814 0.04312508 -0.13391961 -0.07188485 -0.03374611
0.13607694 0.063009866 0.13905203 -0.005155046 0.16795817 -0.13663277 0.1508045 0.10332583
-0.087880835 -0.025621068 0.064084746 -0.14955284 0.041614953 -0.011618031 0.040464837 -0.041140057
-0.008342401 -0.14984718 -0.016429977 0.07330215 -0.11921854 0.05108706 -0.09720847 -0.04031219
0.0035958656 -0.106680356 -0.09603634 -0.0054544355 -0.04118641 0.012559216 0.013501768 0.015641462
-0.08691884 -0.058046125 -0.047956165 0.019879485 0.017041005 -0.10091496 -0.08345149 0.024352582
-0.037269127 -0.08952533 0.066412434 0.00062353583 -0.016699482 0.06595714 -0.048927583 -0.008780898
0.011714304 0.10062896 -0.05055465 0.014963707 0.059470885 -0.008484738 -0.07295847 -0.008070298
-0.037456937 0.01968836 -0.03557141 0.113014214 0.09205969 0.02121054 0.053834848 -0.06750367
0.11075344 -0.0300459 0.07923692 0.023377817 0.019992596 0.04615177 0.10884752 -0.077656314
0.17952003 0.047184084 -0.205817 0.16151187 0.12678096 -0.12142297 -0.02428388 -0.013841271
0.14109786 -0.059771016 0.0102066295 0.06435921 0.0046627764 0.06283111 0.07303685 -0.015178721
0.116059296 0.042530533 0.055050842 -0.02121814 0.04312508 -0.13391961 -0.07188485 -0.03374611
0.13607694 0.063009866 0.13905203 -0.005155046 0.16795817 -0.13663277 0.1508045 0.10332583
-0.087880835 -0.025621068 0.064084746 -0.14955284 0.041614953 -0.011618031 0.040464837 -0.041140057
-0.008342401 -0.14984718 -0.016429977 0.07330215 -0.11921854 0.05108706 -0.09720847 -0.04031219
0.0035958656 -0.106680356 -0.09603634 -0.0054544355 -0.04118641 0.012559216 0.013501768 0.015641462
-0.08691884 -0.058046125 -0.047956165 0.019879485 0.017041005 -0.10091496 -0.08345149 0.024352582
-0.023979487 -0.096371576 0.08320988 0.010913784 -0.012822588 0.07242857 -0.06000876 -0.01152969
0.011291318 0.10227241 -0.05075092 0.012807766 0.060375508 -0.009700597 -0.07555748 -0.0052874936
-0.029893618 0.009235558 -0.031070614 0.1031232 0.10037645 0.016509125 0.058486797 -0.049248587
0.11120749 -0.029657356 0.069315456 0.036886465 0.021835716 0.04075032 0.10689659 -0.09560028
00000000: 19d4 373e 1944 413d b1c1 52be 5e63 253e
00000010: ded2 013e 9bac f8bd fdee c6bc 80c6 62bc
00000020: f57b 103e 74d2 74bd b539 273c c3ce 833d
00000030: 34ca 983b 99ad 803d 5894 953d 2cb0 78bc
00000040: 7fb0 ed3d 7f34 2e3d fe7c 613d aad1 adbc
00000050: eda3 303d 3922 09be 5d38 93bd 5c39 0abd
00000060: c157 0b3e 510b 813d a863 0e3e a9eb a8bb
00000070: 3afd 2b3e 76e9 0bbe 7f6c 1a3e 7e9c d33d
00000080: defa b3bd 46e3 d1bc dd3e 833d 6124 19be
00000090: 7174 2a3d 8e59 3ebc 75be 253d 7a82 28bd
000000a0: 91ae 08bc 8a71 19be 2998 86bc 701f 963d
000000b0: da28 f4bd aa40 513d 3c15 c7bd 651e 25bd
000000c0: 9da8 6b3b 3b7b dabd b3ae c4bd 1fbb b2bb
000000d0: 15b3 28bd 2bc5 4d3c 8536 5d3c 8622 803c
000000e0: 8102 b2bd c6c1 6dbd af6d 44bd 4dda a23c
000000f0: 9499 8b3c 81ac cebd 9de8 aabd 117f c73c
00000100: 83a7 18bd 0e59 b7bd 3e03 883d c874 233a
00000110: 5acd 88bc 8914 873d 4a68 48bd c1dd 0fbc
00000120: 5aed 3f3c 8e16 ce3d 6512 4fbd 562a 753c
00000130: be97 733d 9203 0bbc 406b 95bd 4839 04bc
00000140: 726c 19bd 7c49 a13c 54b3 11bd ff73 e73d
00000150: ca89 bc3d bac1 ad3c ee81 5c3d 5d3f 8abd
00000160: b3d2 e23d d222 f6bc f746 a23d d682 bf3c
00000170: 83c7 a33c a309 3d3d 73eb de3d 460a 9fbd
00000180: 19d4 373e 1944 413d b1c1 52be 5e63 253e
00000190: ded2 013e 9bac f8bd fdee c6bc 80c6 62bc
000001a0: f57b 103e 74d2 74bd b539 273c c3ce 833d
000001b0: 34ca 983b 99ad 803d 5894 953d 2cb0 78bc
000001c0: 7fb0 ed3d 7f34 2e3d fe7c 613d aad1 adbc
000001d0: eda3 303d 3922 09be 5d38 93bd 5c39 0abd
000001e0: c157 0b3e 510b 813d a863 0e3e a9eb a8bb
000001f0: 3afd 2b3e 76e9 0bbe 7f6c 1a3e 7e9c d33d
00000200: defa b3bd 46e3 d1bc dd3e 833d 6124 19be
00000210: 7174 2a3d 8e59 3ebc 75be 253d 7a82 28bd
00000220: 91ae 08bc 8a71 19be 2998 86bc 701f 963d
00000230: da28 f4bd aa40 513d 3c15 c7bd 651e 25bd
00000240: 9da8 6b3b 3b7b dabd b3ae c4bd 1fbb b2bb
00000250: 15b3 28bd 2bc5 4d3c 8536 5d3c 8622 803c
00000260: 8102 b2bd c6c1 6dbd af6d 44bd 4dda a23c
00000270: 9499 8b3c 81ac cebd 9de8 aabd 117f c73c
00000280: a170 c4bc 765e c5bd f169 aa3d bacf 323c
00000290: d515 52bc 6e55 943d bfcb 75bd 06e7 3cbc
000002a0: 38ff 383c 3374 d13d 32e0 4fbd aad7 513c
000002b0: 4f4c 773d 41ef 1ebc e1bd 9abd b642 adbb
000002c0: 76e3 f4bc bd50 173c cd87 febc 4232 d33d
000002d0: 2b92 cd3d 253e 873c da8f 6f3d e3b8 49bd
000002e0: c1c0 e33d fcf3 f2bc 43f5 8d3d 4316 173d
000002f0: d1e0 b23c cfe9 263d 99ec da3d 14ca c3bd
