models/station_15/model_latest.onnx (onnx, 407818 bytes, 12 tensors)

W__2577 f4 [1, 96, 64]
0	0xbdd23812	-0.10264601
1	0x3e4e4f17	0.20147358
2	0x3e1bf5bf	0.15230463
3	0x3c26c549	0.010178872
4	0x3d65250f	0.055943545
5	0x3dadd8f5	0.08488647
6	0x3e3cbd83	0.18431668
7	0xbd4f5f75	-0.050628144
8	0x3e546e70	0.20745254
9	0xbc82163e	-0.015879747
10	0x3dcf798e	0.101306066
11	0xbe06568b	-0.13118951
12	0xbdb2b80c	-0.087265104
13	0x3dc63016	0.096771404
14	0xbe029ebf	-0.1275587
15	0xbbf6d828	-0.007533092
16	0xbd8e7677	-0.06956189
17	0x3df999af	0.12187516
18	0xbdc107e7	-0.094253354
19	0xbe2c39eb	-0.16818969
20	0x3e74b749	0.23898043
21	0x3dcdc57a	0.10047431
22	0xbe23f37b	-0.16010849
23	0x3de2c3b9	0.110724874
24	0x3dc70acd	0.09718857
25	0xbd451253	-0.04811318
26	0xbd5f2aee	-0.0544843
27	0xbcba1ddb	-0.022719314
28	0x3be68f3b	0.0070361174
29	0xbdd39cd8	-0.1033265
30	0x3d754c78	0.05988738
31	0xbdb4f796	-0.08836286
32	0xbda6ee1f	-0.08150887
33	0xbd9973c7	-0.07492786
34	0xbdd7a66e	-0.10529791
35	0xbd9171c3	-0.071017765
36	0x3e4ece98	0.20195997
37	0x3b4fa590	0.0031684376
38	0x3ca5b0fb	0.020225992
39	0xbd0c954f	-0.03432208
40	0x3d1612c2	0.036638983
41	0x3e00d92f	0.12582849
42	0xbe14b11c	-0.14520687
43	0xbe893f72	-0.26806217
44	0xbd79a369	-0.060946856
45	0x3b24b62e	0.0025133002
46	0xbe8fce00	-0.28086853
47	0xbe349f76	-0.17638955
48	0x3de43428	0.111427605
49	0xbe719210	-0.23590875
50	0xbe108694	-0.14113837
51	0xbd5e9182	-0.054337986
52	0xbd801e12	-0.062557355
53	0xbe428012	-0.18994167
54	0xbde95078	-0.11392301
55	0xbc0a73fb	-0.008450503
56	0xbe224ec1	-0.15850355
57	0x3dc10f81	0.09426785
58	0x3e549158	0.20758569
59	0x3de81adc	0.11333248
60	0xbdb3b2a3	-0.087743066
61	0xbe1697f2	-0.147064
62	0x3dbd658a	0.09247883
63	0x3d58cdb5	0.052930553
64	0x3d4f89bc	0.050668463
65	0xbd667821	-0.056266908
66	0x3d037faf	0.03210419
67	0x3dc17a48	0.094471514
68	0xbdf8d35e	-0.1214969
69	0x3cfea641	0.031085135
70	0xbe1ee6fb	-0.155178
71	0x3db83872	0.08995141
72	0xbe4096eb	-0.1880757
73	0x3df8fbb9	0.12157387
74	0xbdd9faa7	-0.10643511
75	0xbe56e875	-0.20987113
76	0x3ce5d7d5	0.028057018
77	0xbe2d0737	-0.16897283
78	0x3e66d604	0.22542578
79	0x3e46547c	0.19368166
80	0x3d7476d2	0.05968363
81	0x3cf89c88	0.030348077
82	0x3d8b6d24	0.06807926
83	0xbe498813	-0.19680814
84	0x3ceb1f50	0.028701454
85	0x3ce12f8a	0.027488489
86	0xbd81bb32	-0.06334533
87	0x3db86880	0.09004307
88	0x3de2beca	0.110715464
89	0x3cf3945d	0.029733831
90	0x3db24adc	0.087056845
91	0x3c525dbe	0.012839733
92	0x3c9d1462	0.019174758
93	0x3cfbc63e	0.030734178
94	0xbd84564a	-0.06461771
95	0xbe15d649	-0.14632525
96	0xbdb4a2a0	-0.08820081
97	0xbe077873	-0.13229541
98	0x3d5a7fb5	0.053344447
99	0x3e3bb2fa	0.18329993
100	0xbe5447e5	-0.2073055
101	0xbd236e33	-0.039900016
102	0xbdea1016	-0.114288494
103	0x3d83d511	0.064371236
104	0xbc7420dc	-0.014900412
105	0xbe18b8f5	-0.14914306
106	0x3d9e0d8b	0.07717427
107	0x3e401df5	0.18761428
108	0x3d9a3f33	0.075315855
109	0x3dc55705	0.09635738
110	0x3df48704	0.11939815
111	0x3e1a99ea	0.15097776
112	0xbd3f0c33	-0.046642493
113	0xbd55abce	-0.0521658
114	0x3e15d70d	0.14632817
115	0x3e8dd198	0.2769897
116	0xbe777a6d	-0.24167795
117	0xbdb0cb4d	-0.086325265
118	0xbe2b1e66	-0.16710815
119	0xbe06ec6d	-0.13176127
120	0xbdb3fe85	-0.0878878
121	0xbcc2c318	-0.023774669
122	0xbd14090d	-0.036141444
123	0x3e1d4e3e	0.15361878
124	0xbe424f18	-0.18975484
125	0xbe1068b3	-0.1410244
126	0x3e6a900d	0.22906514
127	0x3e73a515	0.23793443
128	0x3e0627fa	0.13101187
129	0xbd365cf2	-0.044522233
130	0x3deebf3b	0.11657568
131	0x3cfb6934	0.030689813
132	0xbe2d53d9	-0.16926517
133	0x3e1e7e8b	0.1547796
134	0xbe9b9a7f	-0.3039131
135	0xbda1d8fd	-0.07902715
136	0x3d9c8414	0.076423794
137	0xbd98cefe	-0.074613556
138	0xbe17e5f1	-0.1483381
139	0xbe4a62d5	-0.19764264
140	0xbcde192a	-0.027111609
141	0xbb9f983f	-0.004870444
142	0xbe2dad6a	-0.16960683
143	0xbe07ea97	-0.13273083
144	0x3e0cbd4a	0.13744083
145	0xbd68ee07	-0.056867626
146	0xbb97f336	-0.0046371473
147	0xbe1f2e02	-0.15544894
148	0x3e2b64d1	0.16737677
149	0x3e8cccd7	0.2750003
150	0xbe8a27b3	-0.26983413
151	0xbe0b86f9	-0.13625707
152	0xbd31ebca	-0.043437757
153	0x3dd85c5a	0.1056449
154	0xbddb910c	-0.10721025
155	0xbc103e02	-0.008803846
156	0x3dc06cfe	0.093957886
157	0xbdd25e6f	-0.10271918
158	0xbe3d911c	-0.18512386
159	0x3d66de70	0.056364477
160	0x3e217cb6	0.1577023
161	0xbe80c1eb	-0.25147948
162	0x3d44a97c	0.048013195
163	0x3de2981a	0.11064167
164	0xbd570517	-0.05249509
165	0xbd971be3	-0.07378366
166	0xbd97a14c	-0.07403812
167	0x3e303c17	0.17210422
168	0x3e204118	0.15649831
169	0xbe712d2b	-0.23552386
170	0xbd9fd406	-0.07804112
171	0xbd85b691	-0.065289624
172	0x3d1b5477	0.03792235
173	0xbd28aa72	-0.041178174
174	0x3c15f560	0.00915274
175	0x3e5d3524	0.21602303
176	0xbe16b32c	-0.14716786
177	0xbd8b87fc	-0.06813046
178	0xbbeb67c5	-0.007184001
179	0x3e6568fd	0.22403331
180	0xbe931b56	-0.28731793
181	0x3dd69a83	0.104786895
182	0x3c59fa90	0.013304368
183	0xbdce5c8e	-0.10076247
184	0x3e567925	0.2094465
185	0xbe1b4c09	-0.15165724
186	0xbe8b369a	-0.27190095
187	0xbde9d36d	-0.114172794
188	0x3c2206f4	0.009889353
189	0x3e2e6738	0.17031562
190	0x3e25027b	0.16114227
191	0x3e791d4d	0.24327584
192	0xbe6852d0	-0.2268784
193	0x3d4d0108	0.05004981
194	0x3e19fec4	0.15038592
195	0x3e5f4920	0.21805239
196	0x3e51e40f	0.20497154
197	0x3df20971	0.11818207
198	0x3df6364b	0.12022074
199	0xbdd86bb5	-0.105674185
200	0xbd85ae4d	-0.06527386
201	0xbe14ab16	-0.14518389
202	0x3d09acdd	0.03361212
203	0x3c164a07	0.009172923
204	0xbe191868	-0.14950716
205	0x3e0b7616	0.13619265
206	0xbe2b5aca	-0.16733852
207	0xbd7d370a	-0.061820067
208	0xbe08f86d	-0.13376017
209	0xbc31c0b8	-0.01084917
210	0xbcf59107	-0.029976381
211	0x3d5e771c	0.05431281
212	0x3d332101	0.043732647
213	0x3d8e516c	0.06949124
214	0xbd5bbf3b	-0.05364917
215	0xbd5e9425	-0.0543405
216	0xbdbb3ddf	-0.0914266
217	0xbe071c50	-0.13194394
218	0xbdccef9a	-0.10006638
219	0xbdaa7b9b	-0.08324357
220	0x3e73bacd	0.23801728
221	0xbd490fcf	-0.049087342
222	0xbcb47817	-0.02202992
223	0xbd69e6f8	-0.057105035
224	0xbe34a9b3	-0.1764286
225	0x3e5a4fb9	0.21319474
226	0xbd9ab6e3	-0.07554414
227	0x3d8e1ebb	0.06939455
228	0x3b7330ca	0.0037107938
229	0x3ddc3927	0.107530884
230	0xbde85039	-0.11343426
231	0xbdbcafea	-0.092132404
232	0x3e26c850	0.1628735
233	0xbda63f5b	-0.08117553
234	0x3d24dd8c	0.040250346
235	0xbd7562ef	-0.059908804
236	0x3c7e5e3c	0.015525397
237	0x3e31c39f	0.1735978
238	0x3ac405fe	0.0014955399
239	0x3e7b2d98	0.24529111
240	0xbe84908c	-0.2589153
241	0xbc4b9337	-0.0124252355
242	0x3d74a376	0.0597262
243	0x3e89394e	0.26801533
244	0x3db56a11	0.08858121
245	0xbdc5b9c7	-0.09654575
246	0x3cc1cfb3	0.023658609
247	0xbbc4ee12	-0.0060098255
248	0xbd9230ea	-0.07138236
249	0x3e2d5fd1	0.16931082
250	0x3e3d17c9	0.18466105
251	0xbde3a8ea	-0.11116202
252	0xbd883cb1	-0.06652201
253	0xbe4717cf	-0.19442676
254	0x3cc47ebf	0.023986218
255	0xbe179056	-0.14801154

W__2563 f4 [1, 192, 128]
0	0x3b001a90	0.0019547082
1	0x3dbd3e87	0.09240442
2	0x3d4f42c1	0.05060077
3	0xbce56606	-0.02800275
4	0xbd922a06	-0.071369216
5	0x3e1d4414	0.15358001
6	0xbd80ebc3	-0.06294968
7	0x3de0b4a5	0.10971955
8	0xbda9640e	-0.08271037
9	0xbdc1d8d9	-0.094651885
10	0xbe11533c	-0.14191908
11	0x3d216de1	0.03941143
12	0x3a895abe	0.0010479314
13	0xbdaeaf4a	-0.085295275
14	0x3dc43576	0.09580509
15	0xbd100848	-0.035164148
16	0xbe2c5000	-0.16827393
17	0xbd5b057d	-0.05347203
18	0xbdcc0c01	-0.09963227
19	0x3d607839	0.054802153
20	0xbd9df0ab	-0.077119194
21	0x3de0d429	0.10977966
22	0xbd614460	-0.054996848
23	0x3da132a5	0.07870988
24	0x3e3c76d7	0.18404709
25	0x3e06692c	0.13126057
26	0xbd35e86a	-0.0444111
27	0x3d4d0fc4	0.050063863
28	0x3e39cc36	0.18144307
29	0x3e6a664e	0.22890589
30	0xbb65f2c1	-0.003508732
31	0x3d81a191	0.063296445
32	0x3e3f3bb7	0.18675123
33	0xbe3c74bf	-0.1840391
34	0xbd9cc1bc	-0.076541394
35	0x3d485380	0.048907757
36	0x3c514744	0.012773339
37	0x3d430248	0.047609597
38	0xbde4ec8a	-0.11177929
39	0xbdd2a142	-0.10284664
40	0x3e8b5fce	0.2722153
41	0xbe3b6034	-0.18298417
42	0x3d035e01	0.03207207
43	0x3d7f5518	0.06233701
44	0x3cf1d71d	0.02952152
45	0x3e15b5af	0.14620088
46	0xbe47e1bb	-0.19519703
47	0x3d891ea8	0.066953
48	0xbe21370f	-0.1574366
49	0xbe01f528	-0.12691176
50	0xbcf8f60d	-0.030390764
51	0xbe91b62e	-0.28459305
52	0xbcc7d48f	-0.024393348
53	0xbcfdc037	-0.030975444
54	0xbe01b7a8	-0.12667716
55	0x3dc63334	0.09677735
56	0x3c55be70	0.013045892
57	0x3d8de1db	0.06927844
58	0xbe3fd27b	-0.18732636
59	0xbce68608	-0.028140083
60	0x3da2b3f4	0.079444796
61	0xbe03ca2f	-0.12870096
62	0xbc14643f	-0.009057104
63	0x3be7a6dd	0.007069452
64	0x3e2d62f0	0.16932273
65	0xbde64669	-0.112438984
66	0xbcf0be22	-0.029387537
67	0x3e26cdfc	0.16289514
68	0xbdd6e5bb	-0.10493036
69	0xbe0cc491	-0.13746859
70	0xbd881e53	-0.06646409
71	0x3cfda488	0.030962244
72	0x3db174c6	0.08664851
73	0xbda3d584	-0.07999709
74	0x3d8fc552	0.07020058
75	0xbc83f99b	-0.016110232
76	0x3e18f51f	0.14937256
77	0xbd93ad3d	-0.07210777
78	0x3d7f7d83	0.062375557
79	0x3de42f6f	0.1114186
80	0x3dda1d78	0.10650152
81	0x3d38e2e1	0.045138244
82	0xbe172442	-0.14759925
83	0x3c26b0c3	0.010173979
84	0xbdca690a	-0.09883316
85	0xbe4a65b4	-0.19765359
86	0xbccb8e1a	-0.024848033
87	0x3d27a9cc	0.040933415
88	0xbcc82aae	-0.024434414
89	0xbd3701c0	-0.044679403
90	0x3ddd40fe	0.10803412
91	0x3ca44327	0.020051552
92	0x3e480cfe	0.19536206
93	0x3e002684	0.12514693
94	0xbe124e61	-0.14287712
95	0xbe046f17	-0.12933002
96	0x3a9c5440	0.0011926964
97	0x3d43f583	0.04784156
98	0xbd9a45f2	-0.07532872
99	0xbdbf6354	-0.09345117
100	0xbdae63ca	-0.08515127
101	0x3e242e1c	0.16033214
102	0xbdb44da6	-0.08803873
103	0xbcc59358	-0.02411811
104	0xbcaa242e	-0.020769205
105	0xbd75951c	-0.059956655
106	0x3e126c77	0.14299189
107	0xbde68512	-0.1125585
108	0x3dfe2564	0.124094754
109	0x3da768d6	0.08174293
110	0x3e6fa7e1	0.23403884
111	0xbd7c14dc	-0.06154333
112	0x3dc05d45	0.0939279
113	0x3cfca387	0.030839695
114	0xbdefeb26	-0.11714773
115	0x3d2b7400	0.041858673
116	0x3cbbae69	0.022910314
117	0xbe23e9c2	-0.1600714
118	0xbd43bcac	-0.047787353
119	0x3d0ebb64	0.03484668
120	0x3e258b80	0.16166496
121	0xbb0fa69b	-0.0021919373
122	0xbd89880a	-0.067154005
123	0x3d7a34d0	0.061085522
124	0x3d86085c	0.06544563
125	0x3db9b3be	0.09067486
126	0x3cc56080	0.024093866
127	0x3e116959	0.14200343
128	0x3ba1aaf7	0.0049337107
129	0x39e5fc5c	0.00043866306
130	0x3c5828a2	0.013193281
131	0x3d253c62	0.04034079
132	0xbe1797f0	-0.14804053
133	0xbdd96813	-0.10615554
134	0xbe073eac	-0.13207501
135	0x3dcaf149	0.09909303
136	0xbbc13d39	-0.005897191
137	0xbd7d3f40	-0.061827898
138	0x3dffce84	0.124905616
139	0xbe068417	-0.13136326
140	0x3e8785d8	0.26469302
141	0xbb8c43a7	-0.0042805257
142	0x3e37af66	0.17938003
143	0x3bd87217	0.0066053974
144	0x3df9bcf2	0.121942416
145	0x3dd23b62	0.102652326
146	0xbe0e84cc	-0.13917845
147	0xbcd63cf9	-0.02615212
148	0xbe022e86	-0.1271306
149	0x3c848c35	0.016180137
150	0x3e4d4633	0.2004631
151	0x3d9bfe82	0.07616903
152	0x3d6d5bec	0.05794899
153	0x3e4facae	0.20280716
154	0x3e28e40c	0.16493243
155	0x3d1d64bb	0.038426142
156	0x3e5ab75f	0.21359013
157	0xbd5ead8b	-0.054364722
158	0xbd2bdd5d	-0.041959155
159	0xbce27d3b	-0.027647605
160	0xbcab7bfe	-0.020933148
161	0x3e13a6a0	0.14419031
162	0x3e0db534	0.13838655
163	0x3d8c9951	0.0686518
164	0x3be3485d	0.0069361166
165	0x3e91f80c	0.28509557
166	0xbccbb399	-0.024865912
167	0xbc864b25	-0.016393254
168	0x3ddaaa87	0.10677057
169	0x3b8808bf	0.0041514332
170	0xbde2fbec	-0.110832065
171	0xbe1a46c9	-0.15066065
172	0xbd8c2cc2	-0.068444744
173	0x3d11c1c6	0.035585187
174	0x3d7b9025	0.061416764
175	0x3dc71a2a	0.09721787
176	0xbde0c81c	-0.10975668
177	0xbc2a7a42	-0.010405125
178	0xbd875d47	-0.06609588
179	0x3daaacf3	0.08333769
180	0xbe45b811	-0.19308497
181	0xbe533f06	-0.2062951
182	0xbc29111a	-0.010319019
183	0xbe2b6d2e	-0.16740867
184	0x3d64d573	0.055867624
185	0x3ddc2337	0.10748904
186	0xbe1bfeca	-0.15233913
187	0xbe472017	-0.19445835
188	0xbdd184e6	-0.102304265
189	0x3e533676	0.20626244
190	0xbe231d78	-0.1592921
191	0x3d91c332	0.07117309
192	0xbda98002	-0.08276369
193	0xbd6959eb	-0.056970518
194	0xbd543446	-0.051807664
195	0x3d67c5b8	0.056585044
196	0x3e050486	0.12990007
197	0xbda75221	-0.08169962
198	0x3e692c98	0.22770917
199	0x3a6c8b90	0.0009023482
200	0x3e8159fd	0.25263968
201	0xbd4b3f09	-0.049620662
202	0x3da8b423	0.08237483
203	0x3cd82d96	0.026388925
204	0x3e10e0c8	0.14148247
205	0x3d9b3d09	0.07580001
206	0xbcb5cd23	-0.022192543
207	0x3d307242	0.043077715
208	0x3e298b08	0.16556942
209	0x3d723a8f	0.059137877
210	0xbe2df448	-0.16987717
211	0xbd82c1bf	-0.063846104
212	0x3e2e4618	0.17018926
213	0xbd9e3927	-0.07725745
214	0x3db512be	0.088414654
215	0xbe0b06c5	-0.13576801
216	0x3da0d984	0.07853988
217	0x3dd86477	0.10566037
218	0xbe6f9901	-0.2339821
219	0x3cb70e5e	0.022345718
220	0x3dcdbe80	0.100461006
221	0xbca261c8	-0.019822016
222	0xbdc6eddd	-0.097133376
223	0x3cf2cf27	0.029639794
224	0xbe432b28	-0.19059432
225	0x3cb2f4ed	0.021845305
226	0x3cb31137	0.021858795
227	0x3c152653	0.0091033755
228	0xbd2d7d89	-0.042356048
229	0x3e2ef5d4	0.17085963
230	0xbbc5aad5	-0.0060323277
231	0x3dfa3d71	0.1221875
232	0x3e1d39a1	0.15354015
233	0xbd0dc8f4	-0.034615472
234	0xbdbcf970	-0.09227264
235	0x3da487c3	0.08033707
236	0x3da56bbc	0.08077189
237	0xbe593558	-0.21211755
238	0x3d35aa02	0.044351585
239	0x3c8da778	0.01729177
240	0xbdddefa9	-0.10836727
241	0xbb88c41c	-0.0041737687
242	0xbd7d5cef	-0.061856207
243	0xbe1269ad	-0.14298125
244	0x3dd933cd	0.10605583
245	0xbd0696bc	-0.032858595
246	0x3de63ec2	0.11242439
247	0x3c887ecb	0.016662022
248	0xbde4e77f	-0.11176967
249	0xbe3df5b0	-0.18550754
250	0xbe65b0d3	-0.22430734
251	0x3e129559	0.14314784
252	0xbe2e0c2c	-0.1699683
253	0xbd9de530	-0.0770973
254	0xbc5569f3	-0.013025749
255	0x3bfb7968	0.007674385

W__2550 f4 [1, 384, 6]
0	0x3dcc8c40	0.09987688
1	0x3e0c92b7	0.13727842
2	0xbdc53446	-0.09629111
3	0xbe028b1f	-0.12748383
4	0xbd2bc606	-0.041936897
5	0x3d934e8f	0.07192718
6	0x3d3f83f7	0.04675671
7	0x3ebef0f8	0.3729322
8	0x3e10a8e0	0.1412692
9	0x3e535f90	0.20641923
10	0x3dc43512	0.09580435
11	0x3bf8265c	0.007572932
12	0xbd619506	-0.05507376
13	0xbde87622	-0.11350657
14	0xbb716224	-0.0036832178
15	0x3d1d094e	0.03833895
16	0x3d891215	0.06692902
17	0x3d64b95b	0.05584083
18	0xbe4df845	-0.20114239
19	0xbea7c23b	-0.32765374
20	0xbe3c00a9	-0.18359627
21	0xbea81ba3	-0.32833585
22	0xbea00895	-0.31256548
23	0x3d6216ea	0.055197634
24	0xbe420fd2	-0.18951347
25	0xbe7c0120	-0.24609804
26	0xbe4d1233	-0.20026474
27	0xbe1d028b	-0.15333001
28	0xbe992580	-0.29911423
29	0x3c52c6d7	0.01286479
30	0xbe5afc14	-0.21385223
31	0xbeba75b7	-0.36417934
32	0xbe845d46	-0.25852412
33	0xbeaa24f9	-0.33231333
34	0xbef5112b	-0.4786466
35	0x3e13a28a	0.14417472
36	0xbec3d8d4	-0.38251364
37	0xbe7e1967	-0.24814378
38	0xbea99260	-0.33119488
39	0xbe32c45c	-0.17457718
40	0xbedf4ec0	-0.4361477
41	0x3d88eeab	0.06686147
42	0xbe44fe0b	-0.19237535
43	0xbe5b7649	-0.21431841
44	0xbe8c8a17	-0.27449104
45	0xbee6f167	-0.4510605
46	0xbed5cbf1	-0.41757157
47	0xbdc96541	-0.09833766
48	0xbe99a856	-0.30011243
49	0xbeb767a8	-0.3582127
50	0xbdb7c463	-0.08973005
51	0xbe81f306	-0.25380725
52	0xbe805743	-0.25066575
53	0x3d6d1afd	0.057887066
54	0x3df0507e	0.11734103
55	0xbd71a7aa	-0.058997788
56	0x3d56c068	0.052429587
57	0x3d4ffb97	0.050777044
58	0x3c329d6c	0.01090179
59	0x3b7c735e	0.0038520913
60	0xbf0748a7	-0.52845234
61	0xbe0d7d74	-0.13817388
62	0xbd2a758a	-0.041616
63	0xbe537e56	-0.20653662
64	0xbe0cae00	-0.1373825
65	0x3db904a2	0.09034087
66	0xbe3ee0e0	-0.1864047
67	0xbe6686b4	-0.22512323
68	0xbea0daae	-0.3141684
69	0xbe195c08	-0.14976513
70	0xbd011008	-0.03150943
71	0xba911cd6	-0.0011071216
72	0x3e9cdc32	0.30636746
73	0xbe242e95	-0.16033395
74	0xbd0ff335	-0.03514405
75	0xbd92e500	-0.071725845
76	0xbd7a5906	-0.061120056
77	0x3da910ad	0.08255134
78	0xbd0cb5d9	-0.03435311
79	0x3dbfb9f8	0.093616426
80	0x3dbd9248	0.092564166
81	0x3e035d11	0.12828471
82	0x3de00f2e	0.10940395
83	0xbe42e7c0	-0.19033718
84	0xbd925c8f	-0.071465604
85	0x3e98ecd0	0.29868174
86	0x3e4133fb	0.18867485
87	0x3de49744	0.11161664
88	0xb70851f8	-8.1253165e-06
89	0xbdc142da	-0.09436579
90	0xbe8f6ed3	-0.2801424
91	0xbe9c4067	-0.30517885
92	0xbe8e5e1d	-0.27806178
93	0xbea3cdee	-0.3199305
94	0xbef03d5a	-0.46921808
95	0xbdc16551	-0.09443153
96	0xbe167804	-0.1469422
97	0x3e4973be	0.19673058
98	0x3e0c6bef	0.13713048
99	0x3e5394f5	0.20662291
100	0xbca7e585	-0.020495186
101	0xbd82a715	-0.063795246
102	0xbe624181	-0.220953
103	0x3e0d9c1f	0.13829087
104	0x3e5170f1	0.2045324
105	0x3dcf3e39	0.1011929
106	0x3e693513	0.22774152
107	0xbc3aa955	-0.011392911
108	0xbecc5705	-0.3991014
109	0xbe895277	-0.26820728
110	0xbe261a65	-0.16221006
111	0xbe8722f0	-0.26393843
112	0xbde3ec69	-0.11129076
113	0x3ba6898e	0.0050823158
114	0xbead9fd2	-0.33910996
115	0xbe8814b0	-0.26578283
116	0xbeaa315d	-0.33240786
117	0xbe97dadb	-0.2965916
118	0xbea94e7d	-0.33067694
119	0xbddee4fa	-0.108835176
120	0xbe7a58a4	-0.24447876
121	0xbec0c340	-0.37648964
122	0xbece6310	-0.40309954
123	0xbe923947	-0.28559324
124	0xbed2d649	-0.41179112
125	0x3d275b54	0.04085858
126	0x3dfee957	0.1244685
127	0xbe03d9f7	-0.12876116
128	0x3dd81cac	0.10552344
129	0x3ddc804e	0.1076666
130	0xbb911b26	-0.004428285
131	0x3de13439	0.10996289
132	0xbe030a36	-0.12796864
133	0x3e5380d1	0.20654608
134	0x3e346f57	0.17620598
135	0x39811c70	0.00024625985
136	0x3ce7a5d6	0.028277319
137	0xbdc67d61	-0.09691883
138	0x3bda42d9	0.006660801
139	0xbe1253da	-0.142898
140	0xbe723871	-0.23654343
141	0xbd994774	-0.07484332
142	0xbe27141d	-0.16316266
143	0xbd9cff70	-0.07665908
144	0xbd89872f	-0.06715237
145	0xbcd0d53b	-0.025492301
146	0x3a4b822c	0.00077632326
147	0x3dff9805	0.12480167
148	0x3e4b3cba	0.19847384
149	0xbc82f40b	-0.01598551
150	0x3d9a6b8f	0.075400464
151	0x3e23bf7e	0.15991017
152	0x3e704ebb	0.23467533
153	0x3e7c6569	0.2464806
154	0x3e07836b	0.13233726
155	0x3b986cfe	0.0046516648
156	0xbe3b557d	-0.1829433
157	0x3df0cb50	0.11757529
158	0x3e76484c	0.24051017
159	0x3e10d167	0.1414238
160	0x3d56c2aa	0.05243174
161	0xbd7a438b	-0.06109957
162	0x3b98f546	0.0046679107
163	0x3e2a3244	0.16620737
164	0x3e37eed1	0.17962195
165	0x3e0b0d59	0.1357931
166	0x3c8323b8	0.016008243
167	0xbe09d9b2	-0.1346195
168	0xbe645d0f	-0.22301124
169	0xbeb157ab	-0.34637198
170	0xbe27d523	-0.16389899
171	0xbe4723e8	-0.19447291
172	0xbebc2de5	-0.36753765
173	0xbdf3415d	-0.118777014
174	0xbcde6e52	-0.027152214
175	0xbd812a6f	-0.06306922
176	0xbe31103a	-0.17291346
177	0xbdf2195e	-0.11821245
178	0xbeb1d2f3	-0.34731254
179	0xbd3e81bd	-0.046510447
180	0xbe0b893c	-0.1362657
181	0xbe27b295	-0.16376717
182	0xbe6579e0	-0.22409773
183	0xbc804166	-0.015656184
184	0xbd91678c	-0.07099828
185	0x3dd01309	0.10159881
186	0xbe93c612	-0.28862053
187	0xbeb89f40	-0.36058998
188	0xbe9f83be	-0.311552
189	0xbe9216d4	-0.2853304
190	0xbe9c15e7	-0.3048546
191	0xbd5852c5	-0.05281331
192	0xbe949b9a	-0.29024965
193	0xbe306d39	-0.17229165
194	0xbe7a766a	-0.24459234
195	0xbec7e417	-0.39041206
196	0xbec7f3d3	-0.3905321
197	0x3cdd4946	0.027012479
198	0xbe87ea34	-0.2654587
199	0xbe5464dd	-0.20741601
200	0xbece16ec	-0.40251863
201	0xbea6b588	-0.32560372
202	0xbeb606a3	-0.35551938
203	0x3ba0bf94	0.0049056504
204	0x3e8390ac	0.25696313
205	0xbdb03d3a	-0.08605428
206	0x3d5c4130	0.053773105
207	0xbd443d8f	-0.04791027
208	0x3e5bf31c	0.21479458
209	0x3d81c837	0.06337016
210	0x3d01c61f	0.031683084
211	0xbda28a11	-0.0793649
212	0x3cf3b821	0.029750885
213	0x3ba10039	0.0049133566
214	0xbe58282e	-0.21109077
215	0x3e33e074	0.17566091
216	0x3dabf094	0.08395496
217	0x3c227264	0.009914968
218	0x3e379624	0.17928368
219	0x3e15895c	0.1460318
220	0x3d4324a6	0.047642373
221	0x3dab33c6	0.083594844
222	0x3e45c85d	0.19314714
223	0x3e2073f6	0.15669236
224	0x3ec59431	0.38589624
225	0x3e996037	0.2995622
226	0xbb12e291	-0.0022412876
227	0xbd229df2	-0.03970141
228	0x3dc4035a	0.09570952
229	0xbdf93522	-0.121683374
230	0x3d391e07	0.045194652
231	0xbdc65a8b	-0.096852385
232	0x3d810a2d	0.06300769
233	0x3e18823e	0.14893433
234	0xbdef998b	-0.11699208
235	0xbed580b0	-0.41699743
236	0xbe048429	-0.1294104
237	0xbe87b4ad	-0.26505032
238	0xbe366538	-0.1781205
239	0x3d63ff21	0.05566323
240	0x3e56e297	0.20984875
241	0x3c3646ae	0.01112525
242	0x3d5475fb	0.051870327
243	0x3e30b122	0.17255071
244	0x3e7b8d60	0.24565649
245	0x3c86bd54	0.0164477
246	0xbd3bc9cc	-0.045846745
247	0xbeaf4ae0	-0.34236813
248	0xbdef99e0	-0.11699271
249	0x3bcae9ce	0.0061924225
250	0xbe9c036c	-0.3047136
251	0x3c9da3e3	0.019243186
252	0x3e298d2d	0.1655776
253	0xbe1aa026	-0.15100154
254	0x3d4f2cb2	0.050579734
255	0xbc00e1ac	-0.007866304

R__2578 f4 [1, 96, 32]
0	0xbd060a56	-0.0327247
1	0x3da23650	0.079205155
2	0xbd0e500d	-0.03474431
3	0x3e7ee96b	0.2489373
4	0xbcd9bfdf	-0.02658075
5	0xbdbfc40f	-0.09363567
6	0x3d1ea929	0.038735542
7	0x3dd30588	0.103037894
8	0x3e799033	0.24371414
9	0xbe4b742a	-0.19868532
10	0x3b977b3c	0.004622845
11	0x3cc9ca8f	0.02463272
12	0xbe6b559b	-0.22981875
13	0x3cc953fd	0.024576182
14	0xbd637a11	-0.055536333
15	0x3dcf4bca	0.101218775
16	0xbe3d2401	-0.18470766
17	0xbd90bb7d	-0.070670106
18	0x3dd66f58	0.10470456
19	0xbe645017	-0.22296177
20	0x3df44f95	0.119292416
21	0xbe0aa914	-0.1354106
22	0xbe15d610	-0.1463244
23	0x3d3bbc06	0.04583361
24	0xbc4b21b2	-0.01239817
25	0xbd5c3c01	-0.05376816
26	0x3d92665e	0.07148431
27	0xbd2ca7d8	-0.042152256
28	0x3ccc0494	0.024904527
29	0xbcf9dafd	-0.03049993
30	0x3c01ebdf	0.007929771
31	0x3d81b13e	0.063326344
32	0x38bd742a	9.0338595e-05
33	0xbe0cf765	-0.13766249
34	0xbac1e4b9	-0.0014792896
35	0xbe1379bf	-0.14401911
36	0xbe2b0a09	-0.16703047
37	0xbdb2f31f	-0.08737778
38	0x3ba008d5	0.0048838654
39	0xbb9a810f	-0.004715092
40	0xbdc10952	-0.09425606
41	0xbdbd2894	-0.09236255
42	0x3cb8d184	0.022560842
43	0x3d0235cf	0.031789597
44	0xb93efab2	-0.00018213203
45	0x3d3fab73	0.046794366
46	0xbe9312d0	-0.2872529
47	0x3dcfe420	0.10150933
48	0xbe09f877	-0.13473688
49	0xbe46fa4d	-0.1943142
50	0xbe366642	-0.17812446
51	0xbe1a6141	-0.15076162
52	0xbe1d8ae1	-0.1538501
53	0xbd36c8d2	-0.04462511
54	0x3df4e8e8	0.11958486
55	0x3dcb9f22	0.099424616
56	0xbcb15ff5	-0.021652201
57	0x3c5e6cba	0.013575727
58	0x3c5e543e	0.01356989
59	0xbd4f0882	-0.050545223
60	0x3dfb2444	0.122627765
61	0x3c1f99fd	0.0097413035
62	0x3c5cff08	0.013488539
63	0xbc514195	-0.012771984
64	0xbdd55baa	-0.10417874
65	0x3df55538	0.11979145
66	0xbd2c2c56	-0.04203447
67	0x3d8c0d90	0.06838524
68	0x3e257d3a	0.16161051
69	0xbd9e66ad	-0.077344276
70	0x3e6c7a70	0.23093581
71	0x3e63aa13	0.22232847
72	0xbdb1702e	-0.08663975
73	0x3e0bc31b	0.13648646
74	0xbdd00467	-0.1015709
75	0xbe31f6da	-0.17379323
76	0x3e0f8999	0.14017333
77	0xbe8a90f6	-0.2706372
78	0xbdddf41c	-0.10837576
79	0x3e765262	0.24054864
80	0x3ce3e001	0.027816774
81	0xbe967293	-0.29384288
82	0x3e3a6235	0.18201526
83	0xbd528742	-0.051398523
84	0xbc50c158	-0.012741409
85	0x3ddfde36	0.10931055
86	0xbe439ce3	-0.19102816
87	0x3bb5f1f0	0.005552523
88	0xbe5d762e	-0.21627113
89	0x3c7ee5e3	0.015557739
90	0x3e84c5a4	0.25932038
91	0x3e02d009	0.12774672
92	0x3e344e64	0.17608029
93	0x3e4c2e9c	0.19939655
94	0x382d2994	4.1285137e-05
95	0x3d25e704	0.040503517
96	0xbdfffce3	-0.12499406
97	0xbe8ad4ac	-0.2711538
98	0xbdce320b	-0.10068139
99	0xbd829662	-0.063763395
100	0x3e374145	0.17895992
101	0xbc91ea00	-0.017811775
102	0x3de02e6d	0.10946355
103	0x3e5461e3	0.20740466
104	0x3cedb129	0.02901514
105	0x3dcbd0af	0.099519126
106	0xbbb2b544	-0.0054537375
107	0x3d68b4a6	0.056812905
108	0x3e22c7c6	0.1589652
109	0x3dcb436a	0.099249676
110	0x3d9895f6	0.07450478
111	0x3df967f0	0.12178028
112	0xbb639a18	-0.0034729298
113	0xbbcfb422	-0.006338612
114	0x3e807bcd	0.25094453
115	0xbd13eb33	-0.036112975
116	0xbd1833dd	-0.037158836
117	0xbd91c9ad	-0.07118545
118	0xbe4bec11	-0.19914271
119	0xbdc12a9a	-0.09431954
120	0x3e303619	0.17208137
121	0xbda6e07f	-0.08148288
122	0x3da5f49c	0.08103296
123	0x3ce18417	0.027528806
124	0x3d3c9379	0.04603908
125	0x3d91df11	0.07122625
126	0x3d89413d	0.06701896
127	0x3def9f70	0.11700332
128	0xbe0ec046	-0.13940534
129	0x3ca580be	0.02020299
130	0xbe37aaeb	-0.17936294
131	0x3d878d63	0.06618764
132	0xbdb77170	-0.08957183
133	0x3d8aac55	0.06771151
134	0x3e96a5a4	0.2942325
135	0xbcf926ec	-0.030414067
136	0x3dfcdaf5	0.1234645
137	0x3ea19c47	0.31564543
138	0xbdc164f3	-0.09443083
139	0xbe075ab0	-0.13218188
140	0x3e05ef75	0.13079627
141	0xbe524ea3	-0.2053781
142	0xbd08823a	-0.03332732
143	0x3da4abf2	0.080406085
144	0x3dbcc0cc	0.092164606
145	0xbe8a162c	-0.2697004
146	0x3e5bd230	0.21466899
147	0x3dc06ac2	0.093953624
148	0xbe8d71ad	-0.2762579
149	0xbe01b685	-0.12667282
150	0x3e40a4ff	0.18812941
151	0xbe08b249	-0.1334926
152	0xbd194f2b	-0.037429016
153	0xbe0b62e8	-0.13611948
154	0xbe0f683a	-0.14004603
155	0xbdec342d	-0.11533389
156	0x3e36485f	0.17801045
157	0xbdea9558	-0.11454266
158	0xbd891971	-0.06694306
159	0xbdd301ca	-0.103030756
160	0xbcd0ed81	-0.025503876
161	0xbddc2d9b	-0.10750886
162	0x3c12d0dc	0.008960929
163	0x3e29a679	0.1656741
164	0xbe4b33ab	-0.19843929
165	0xbd30f49a	-0.04320202
166	0x3defc149	0.11706788
167	0xbe2aa47d	-0.1666431
168	0xbe3f71ce	-0.18695757
169	0x3df170ae	0.1178907
170	0xbe27dec6	-0.16393575
171	0xbd82fa42	-0.06395389
172	0xbcc80e96	-0.024421018
173	0x3db4c37a	0.08826347
174	0x3dbdac72	0.09261407
175	0x3dc3dc5b	0.09563514
176	0x3df485df	0.119395964
177	0xbd60527b	-0.05476616
178	0xbdb24f87	-0.08706575
179	0xbe3c8127	-0.18408643
180	0xbd64cbc8	-0.055858403
181	0x3d3804d3	0.044926476
182	0x3e5802bc	0.21094793
183	0xbc9a48fb	-0.018833628
184	0xbe00e356	-0.12586722
185	0x3e0737ab	0.1320483
186	0x3e051a9d	0.12998433
187	0x3da0e838	0.07856792
188	0xbcd92fe1	-0.026512088
189	0xbdfd2ed2	-0.12362446
190	0x3c217868	0.009855367
191	0xbd7028d8	-0.0586327
192	0xbe2d11df	-0.16901349
193	0xbe0d0000	-0.13769531
194	0x3d5741d4	0.052553013
195	0x3d6d4efc	0.057936653
196	0x3d776425	0.06039824
197	0x3e040645	0.12893017
198	0x3e3c6682	0.18398479
199	0x3e16908a	0.14703575
200	0x3dbff3d2	0.09372677
201	0x3da8bd6b	0.082392536
202	0xbde87059	-0.113495536
203	0xbd861c70	-0.06548393
204	0x3d052077	0.032501664
205	0xbe32b555	-0.17451985
206	0xbd61ce5e	-0.055128448
207	0xbdae237e	-0.08502863
208	0xbe5cb490	-0.21553254
209	0x3c6d976d	0.014501435
210	0x3cc659f2	0.024212811
211	0xbddcf04e	-0.10788022
212	0x3e812f66	0.25231475
213	0x3dcad0cf	0.09903108
214	0xbe04e976	-0.12979683
215	0xbdc15465	-0.09439925
216	0x3e9e2bd8	0.30892825
217	0xbe343cf7	-0.17601381
218	0xbdd18880	-0.102311134
219	0x3e1403e2	0.14454606
220	0x3dca0533	0.09864273
221	0xbc9fa7ad	-0.019489134
222	0xbe2156a8	-0.15755713
223	0xbcc9a952	-0.024616871
224	0x3e6066db	0.21914236
225	0xbe250d03	-0.16118245
226	0xbe0e2130	-0.13879848
227	0xbe1a6329	-0.15076889
228	0xbe214c3b	-0.15751736
229	0x3d8e87b5	0.06959478
230	0x3d8193c0	0.06327009
231	0xbe661488	-0.2246877
232	0xbe287ea1	-0.16454555
233	0xbd7d91f3	-0.061906766
234	0x3e3b1776	0.18270668
235	0xbdb792e3	-0.08963563
236	0xbe4038e1	-0.18771698
237	0x3e83ef6b	0.257686
238	0x3cd3363e	0.0257827
239	0x3cec51a2	0.02884752
240	0x3cf84bd2	0.030309591
241	0x3cd9bda3	0.026579684
242	0xbdd65712	-0.10465826
243	0xbe33f7d5	-0.17575009
244	0xbc93ddab	-0.018050035
245	0xbd1aad1e	-0.037762754
246	0x3daa533f	0.08316659
247	0x3df67c11	0.120353825
248	0xbe5ff23e	-0.21869752
249	0xbd15c566	-0.036565207
250	0x3c0818ed	0.008306724
251	0xbdcf627f	-0.101262085
252	0x3d64d014	0.0558625
253	0x3c91ac0a	0.01778223
254	0x3e3b5bf2	0.18296793
255	0xbe477c2e	-0.19480965

R__2564 f4 [1, 192, 64]
0	0x3d55e72b	0.052222412
1	0x3d6333f7	0.05546948
2	0xbdc0ee40	-0.094204426
3	0xbba4d948	-0.0050307848
4	0x3dde22ce	0.10846482
5	0x3e4c7eac	0.19970196
6	0xbe56113a	-0.20905009
7	0x3c3400ed	0.010986549
8	0x3e476e41	0.19475652
9	0xbe0b4027	-0.13598691
10	0xbd6854dd	-0.056721557
11	0xbd016db9	-0.03159878
12	0x3e244020	0.16040087
13	0xbcba83ae	-0.022767868
14	0xbe4deb77	-0.20109354
15	0x3e68feb9	0.22753419
16	0xbbce3910	-0.0062934235
17	0xbdaec658	-0.08533925
18	0x3e3af858	0.18258798
19	0x3d19081e	0.037361257
20	0xbd5ede2b	-0.054411095
21	0x3e362f9b	0.17791598
22	0xbe0be6a3	-0.136622
23	0x3da3ed8a	0.08004291
24	0xbde5f1a0	-0.11227727
25	0x3df03ad8	0.117299736
26	0x3db1bffa	0.08679195
27	0x3e40fc09	0.18846144
28	0x3dc23c28	0.0948413
29	0x3c0dfa69	0.008665659
30	0x3d9c5247	0.07632881
31	0xbdac8f56	-0.08425777
32	0x3e86f7d0	0.2636094
33	0xbcf5d9b9	-0.030011045
34	0xbcb454c3	-0.022013074
35	0xbde14661	-0.10999752
36	0x3d966720	0.07343888
37	0xbd0146be	-0.031561606
38	0xbdd509b2	-0.1040224
39	0xbdbfa843	-0.09358265
40	0xbdac7414	-0.08420578
41	0x3c86bbc7	0.016446961
42	0xbdef4b8d	-0.11684332
43	0xbe25d867	-0.16195832
44	0xbdb5471a	-0.08851452
45	0xbd8ecb9a	-0.06972428
46	0x3ba06706	0.004895094
47	0x3daad6bf	0.08341741
48	0xbc0efafb	-0.008726831
49	0xbc6c0587	-0.014405615
50	0xbab470f6	-0.0013766575
51	0xbccf9a96	-0.025342267
52	0xbdee80b1	-0.1164564
53	0xbe407e53	-0.18798189
54	0xbd06a609	-0.032873187
55	0x3dd252af	0.10269677
56	0x3e0beef5	0.13665374
57	0xbd122f3c	-0.035689577
58	0xbc691fe6	-0.014228797
59	0x3dfcb73b	0.12339636
60	0x3d8a2e4b	0.06747111
61	0x3e0159ef	0.12631963
62	0x3d57cccb	0.05268554
63	0xbdc88a14	-0.09791961
64	0xbe36e0ca	-0.17859188
65	0x3d90cc87	0.070702605
66	0x3d849b48	0.0647493
67	0x3e1b3011	0.15155055
68	0x3c0b38fe	0.008497475
69	0x3e007e7c	0.1254825
70	0xbe2b2f00	-0.16717148
71	0x3bfcc437	0.0077138203
72	0x3dee72db	0.11643001
73	0x3dac85ad	0.08423934
74	0xbd517e2f	-0.05114573
75	0xbbcd52f1	-0.006265991
76	0x3e7af43c	0.2450723
77	0xbea59446	-0.32339686
78	0xbe1bd9ba	-0.15219775
79	0xbcfed629	-0.031107979
80	0x3e2e1178	0.16998851
81	0xbb18472a	-0.0023235776
82	0xbdd0ac34	-0.10189095
83	0xbdc97efa	-0.09838672
84	0x3ccfb6c1	0.025355699
85	0x3dbd44db	0.09241649
86	0x3d8cb126	0.06869726
87	0x3d428843	0.04749323
88	0xbc837d8f	-0.016051082
89	0x3c899d39	0.016798602
90	0x3df25913	0.11833396
91	0x3e062ff5	0.13104232
92	0xbdc34013	-0.095337056
93	0x3d8a9146	0.0676599
94	0x3dfc1746	0.123091266
95	0xbe028b9a	-0.12748566
96	0xbd7032c5	-0.058642168
97	0xbe1a0379	-0.15040387
98	0xbe3086d4	-0.17238933
99	0xbdf16d6e	-0.1178845
100	0xbe57caaf	-0.21073411
101	0xbe43a455	-0.19105656
102	0xbd38afa1	-0.045089368
103	0xbd050a25	-0.032480378
104	0x3d82289a	0.063554004
105	0xbd3a0ea6	-0.045424126
106	0xbe06ba20	-0.13156939
107	0x398af337	0.0002650262
108	0x3daa16b4	0.083051115
109	0xbcdcd468	-0.026956752
110	0xbd968c95	-0.07351033
111	0x3eb5a9ae	0.35481018
112	0xbd743ba2	-0.059627183
113	0x3da602e0	0.08106017
114	0xbbb44f2b	-0.0055026016
115	0x3dc52733	0.09626617
116	0xbdfedd2d	-0.1244453
117	0x3e0cc1ce	0.13745806
118	0x3e2eb15c	0.17059845
119	0x3d818321	0.06323839
120	0x3d969a1f	0.07353615
121	0xbdefe1de	-0.117130026
122	0xbe38dc20	-0.18052721
123	0x3e15c44b	0.14625661
124	0x3df25df7	0.118343286
125	0x3e296d67	0.1654564
126	0x3ea97b04	0.33101666
127	0xbdd42537	-0.10358661
128	0x3e0d901b	0.13824503
129	0x3d941051	0.072296746
130	0xbe51edf5	-0.2050093
131	0x3d43a36a	0.047763266
132	0x3e1461fa	0.144905
133	0x3dccd957	0.10002392
134	0x3e66076e	0.22463772
135	0x3d81c657	0.063366584
136	0x3d99b27f	0.075047486
137	0xbdec6f1f	-0.11544632
138	0x3cb84c2b	0.022497257
139	0xbcb25410	-0.0217686
140	0xbdc173cb	-0.09445914
141	0x3d9b26cf	0.075757615
142	0x3d66848f	0.05627876
143	0x3da87752	0.082258835
144	0xbdf198e8	-0.11796743
145	0x3d0ba7d7	0.03409561
146	0x3dc2c151	0.095095284
147	0x3e148eba	0.14507571
148	0x3dbccf0a	0.09219177
149	0xbdb372c4	-0.08762124
150	0x3d134ad2	0.035960026
151	0x3d8daa4b	0.069172464
152	0x3d55f37c	0.052234158
153	0xbdde1b62	-0.108450666
154	0xbe11e294	-0.14246589
155	0xbd5741d5	-0.052553017
156	0x3b6e59f1	0.0036369527
157	0xbdba1346	-0.09085707
158	0x3d4fbf6f	0.050719675
159	0x3d74be53	0.05975182
160	0x3e1653e3	0.14680438
161	0xbcd3c263	-0.025849527
162	0x3e913bea	0.28366023
163	0x3dfb0b61	0.1225803
164	0x3e1c0e0f	0.15239738
165	0x3d91da19	0.07121677
166	0xbc6397a3	-0.0138911335
167	0xbdc0e16a	-0.09417994
168	0xbe711162	-0.23541787
169	0x3e42d536	0.19026646
170	0x3da61c87	0.0811091
171	0x3dd817e3	0.10551431
172	0x3ccf1bc7	0.0252818
173	0xbe3a0de4	-0.18169361
174	0xbdce103f	-0.100616924
175	0xbe2aa2d3	-0.16663675
176	0x3e35dd2a	0.17760149
177	0xbe7cada4	-0.24675614
178	0x3d58638d	0.052829314
179	0xbd9dd500	-0.07706642
180	0x3dd7ccbc	0.10537097
181	0xbd5d3df3	-0.054014158
182	0xbd81eeed	-0.063443996
183	0xbe9a04c5	-0.30081764
184	0xbd1d9423	-0.038471352
185	0x3e161c3d	0.1465921
186	0x3d6a1d27	0.057156708
187	0xbe4e7e05	-0.2016526
188	0xbdafd6a4	-0.08585861
189	0x3bb19fa8	0.005420644
190	0xbe3f2a2f	-0.18668436
191	0x3d5bf542	0.053700693
192	0xbd36b106	-0.044602416
193	0xbd00ff07	-0.031493213
194	0xbda8779a	-0.08225937
195	0xbda3f63b	-0.08005949
196	0xbdf3bc6e	-0.119011745
197	0x3d7d49d0	0.06183797
198	0xbd87e11f	-0.06634735
199	0x3d78f3d5	0.06077941
200	0x3be988cf	0.0071269046
201	0x3ce15c7a	0.027509917
202	0xbd9a0ba3	-0.07521751
203	0x3c51326a	0.012768367
204	0x3d8c9d59	0.06865949
205	0x3bc38910	0.005967267
206	0x3dc32e22	0.095302835
207	0x3dc697f1	0.09696949
208	0xbd7ed6f2	-0.062216707
209	0xbd8d2be8	-0.0689314
210	0xbe21a554	-0.15785724
211	0xbdb04d6f	-0.08608519
212	0xbd81244e	-0.06305753
213	0xbe061ec8	-0.1309768
214	0x3d8ae144	0.06781247
215	0x3e645c01	0.22300722
216	0x3cb62229	0.022233086
217	0xbd814f35	-0.06313936
218	0xbdb08660	-0.0861938
219	0xbe8e167a	-0.27751523
220	0xbde6566c	-0.112469524
221	0xbc94b28b	-0.018151542
222	0xbc6498f1	-0.01395248
223	0x3e52d6b7	0.2058972
224	0x3c7da574	0.015481342
225	0x3b811076	0.00393873
226	0xbd358465	-0.044315714
227	0xbe147288	-0.14496815
228	0xbddfa627	-0.10920363
229	0x3de30f42	0.110868946
230	0x3dd53c76	0.10411923
231	0x3ce80993	0.028324878
232	0xbdcfc7f6	-0.101455614
233	0x3e2b49b6	0.16727337
234	0x3cbe7d2f	0.023253052
235	0x3d212d6e	0.039349966
236	0xbe1da97c	-0.15396684
237	0x3dee22c5	0.116277255
238	0xbe392c60	-0.18083334
239	0x3e046782	0.1293011
240	0x3d48eb90	0.049052775
241	0x3dcc4339	0.09973759
242	0xbcf2dcb8	-0.029646263
243	0x3d8f45ff	0.069957726
244	0xbe193de4	-0.14965016
245	0x3c435207	0.011921412
246	0xbcdbbdb2	-0.026823852
247	0xbd893430	-0.06699407
248	0xbcbe9e34	-0.023268797
249	0xbd156d96	-0.036481462
250	0xbd25e6d5	-0.04050334
251	0x3e16067c	0.14650911
252	0xbe3535a5	-0.17696245
253	0xbd07f596	-0.033193193
254	0x3dbe7695	0.092999615
255	0xbe310f81	-0.1729107

R__2551 f4 [1, 384, 128]
0	0xbdfaec83	-0.12252142
1	0x3cc0356c	0.023462974
2	0x3e2e0335	0.16993411
3	0x3d0d0ae6	0.03443422
4	0x3d8450d9	0.06460733
5	0xbc00f104	-0.007869963
6	0x3d987636	0.07444422
7	0xbe082dd7	-0.13298737
8	0xbd530579	-0.05151889
9	0x3d9d4b12	0.07680334
10	0x3e0f249a	0.13978806
11	0x3d306890	0.04306847
12	0xbe0ab8ba	-0.1354703
13	0xbb2cc927	-0.0026365013
14	0x3d6b2f6e	0.05741828
15	0xbce6ef15	-0.028190175
16	0xbc6c90a9	-0.014438787
17	0x3d7f49a4	0.06232609
18	0xbd94c0c8	-0.072633326
19	0x3dd5235e	0.104071364
20	0x3d2d6d3c	0.042340502
21	0xbdc48654	-0.095959336
22	0x3cf9d9d1	0.03049937
23	0x3cbae5d3	0.022814667
24	0xbe081451	-0.13289
25	0xbd7f1b3b	-0.06228183
26	0xbe25ca21	-0.16190387
27	0xbe015fca	-0.12634197
28	0xbbd932f6	-0.0066283895
29	0x3bedefb1	0.0072612395
30	0x3d51f64e	0.051260285
31	0xbccd542b	-0.025064548
32	0xbe0418f1	-0.1290014
33	0xbcd789d8	-0.026310846
34	0xbc88cb5b	-0.01669853
35	0x3d73d228	0.059526592
36	0x3e058b67	0.13041459
37	0xbcfcac01	-0.030843737
38	0x3a978956	0.0011561315
39	0x3e0d5973	0.13803653
40	0xbcd768ac	-0.026295029
41	0x3c9adfaa	0.01890548
42	0xbdba6593	-0.09101405
43	0x3dee791e	0.11644195
44	0xbe13858b	-0.14406411
45	0xbd7e0d9f	-0.06202471
46	0xbd87bb5a	-0.06627531
47	0xbd95135e	-0.072790846
48	0x3dcff56d	0.10154233
49	0x3d48ca89	0.049021278
50	0x3d0b67cf	0.034034546
51	0x3e15a2a4	0.14612824
52	0x3dfc5694	0.12321201
53	0xbd5d0040	-0.053955317
54	0x3cd43814	0.025905646
55	0xbd6c2ef2	-0.057661958
56	0xbccba658	-0.024859592
57	0xbd123a0b	-0.035699885
58	0x3cb51e3f	0.022109149
59	0x3e36f37d	0.17866321
60	0x3e8270ad	0.2547659
61	0xbd8876ee	-0.06663309
62	0x3bb39c06	0.005481246
63	0xbdad668a	-0.084668234
64	0xbd79e401	-0.061008457
65	0x3c152fd3	0.00910564
66	0x3d96ec85	0.07369331
67	0x3cae1e08	0.021254554
68	0x3c46a5a3	0.012124452
69	0x3e6f7e97	0.23388134
70	0xbd540ea1	-0.051771764
71	0xbd7ebdc5	-0.062192697
72	0xbd3270b0	-0.0435645
73	0x3dc47600	0.09592819
74	0xbd785201	-0.06062508
75	0x3e126a25	0.14298303
76	0xbe31b2b0	-0.1735332
77	0xbdf594b8	-0.119912565
78	0x3c974db8	0.018469676
79	0x3d1822c9	0.03714255
80	0xbd43f4a2	-0.047840722
81	0xbd5f871a	-0.054572202
82	0xbce1cd77	-0.027563794
83	0x3d9d3d4e	0.076777086
84	0xbdedfeaf	-0.11620843
85	0x3d8f3052	0.06991638
86	0xbc8dea06	-0.017323505
87	0xbd174bbb	-0.036937457
88	0xbb979cdc	-0.0046268534
89	0xbb69c1b1	-0.0035668428
90	0xbbdcbb74	-0.0067362133
91	0x3c6dd53b	0.01451617
92	0x3d0bd9c2	0.034143217
93	0x3d03b517	0.032155123
94	0xbdc69683	-0.096966766
95	0x3dcaa243	0.0989423
96	0x3d470bb8	0.04859516
97	0x3dab20c1	0.08355857
98	0x3de635ff	0.11240768
99	0x3df4818a	0.1193877
100	0x3d8dd59f	0.069255106
101	0xbcacf342	-0.021112088
102	0x3e0dcd4d	0.13847847
103	0xbd58a6c1	-0.052893404
104	0xbdc6981c	-0.09696981
105	0x3d1922a1	0.03738654
106	0x3e044c2f	0.12919687
107	0x3d24bc55	0.04021867
108	0xbd30bc88	-0.043148547
109	0x3c6ae314	0.014336366
110	0xbe132ce6	-0.14372596
111	0x3de2bd89	0.11071307
112	0x3db28675	0.08717052
113	0xbddd1d9b	-0.107966624
114	0xbc851006	-0.016242992
115	0x3d6522f1	0.055941526
116	0x3e00fc67	0.12596284
117	0xbd3988e8	-0.04529658
118	0xbca75ae1	-0.020429077
119	0x3d4c3708	0.04985717
120	0x3d030c0a	0.031993903
121	0x3ce3b619	0.027796792
122	0xbccf6406	-0.02531625
123	0xbd146e18	-0.036237806
124	0x3d975145	0.07388548
125	0x3ded58b2	0.11589183
126	0xbe5d9d1e	-0.21641967
127	0x3da29cd3	0.07940068
128	0xbccba80c	-0.024860404
129	0x3e3ba85e	0.18325946
130	0xbdce5422	-0.10074641
131	0x3e56984a	0.20956531
132	0x3e4054e0	0.18782377
133	0xbd4c69f4	-0.049905732
134	0x3e416213	0.18885069
135	0xbd75f5cd	-0.060048867
136	0x3d1e6120	0.038666844
137	0x3d69f224	0.05711569
138	0xbd3a1102	-0.045426376
139	0x3b6b8144	0.0035935203
140	0xbd8cf78b	-0.068831526
141	0x3d634e96	0.055494867
142	0xbdcbd57c	-0.09952828
143	0x3e339eff	0.17541121
144	0x3d69a916	0.05704602
145	0xbd949cd1	-0.07256473
146	0xbd9cdaaa	-0.07658894
147	0xbd973dab	-0.07384809
148	0x3d9c7ad9	0.07640619
149	0xbe27a271	-0.1637056
150	0xbe213da1	-0.15746166
151	0x3e988b3a	0.2979372
152	0xbd9734f0	-0.07383144
153	0xbe5c07ee	-0.214874
154	0xbd90447b	-0.070443116
155	0x3dcc0771	0.09962357
156	0xbdb045bd	-0.086070515
157	0xbe1c73c5	-0.15278538
158	0x3d75eb66	0.060038947
159	0xbe058ab2	-0.1304119
160	0xbe188f07	-0.1489831
161	0xbdf68753	-0.1203753
162	0x3d1f4fbb	0.038894396
163	0xbd25c292	-0.04046876
164	0x3e2c097b	0.16800492
165	0xbe32c3dd	-0.17457528
166	0x3e2b4682	0.16726115
167	0x3ddc8af6	0.10768692
168	0x3d8e5b1f	0.06950974
169	0x3d74edb1	0.059796993
170	0x3e211e52	0.15734223
171	0x3e303d28	0.1721083
172	0xbd69e22e	-0.057100467
173	0x3e066ce1	0.13127472
174	0xbbb99864	-0.0056639183
175	0x3dbf6e6e	0.09347235
176	0x3e29dda2	0.16588452
177	0x3de5708c	0.11203107
178	0x3e650ae7	0.2236744
179	0x3d61d27a	0.055132367
180	0x3c9001bf	0.017578958
181	0x3d9a6928	0.07539588
182	0xbd0a886b	-0.033821505
183	0x3d3847e2	0.044990428
184	0xbe70efb3	-0.23528938
185	0xbd3212e8	-0.04347506
186	0x3d87ef42	0.06637432
187	0x3d828477	0.06372922
188	0xbd1e0e82	-0.038588054
189	0xbe450ca7	-0.19243108
190	0x3d83a493	0.064278744
191	0xbc4f1e59	-0.012641513
192	0xbe25f30b	-0.16205995
193	0x3d31cdd6	0.04340919
194	0x3e30e804	0.17276007
195	0x3dc0e31f	0.0941832
196	0x3ba8d96c	0.005152872
197	0xbc9db62b	-0.019251904
198	0xbe227c90	-0.1586783
199	0xbd7180da	-0.058960773
200	0xbe843362	-0.25820452
201	0x3d2aac3b	0.041668158
202	0xbd7d1861	-0.061790828
203	0x3dbf3b01	0.09337426
204	0xbe0d579b	-0.1380295
205	0xbd51f911	-0.05126292
206	0x3e1ff93b	0.15622418
207	0x3d9cff69	0.07665903
208	0xbe11df93	-0.14245443
209	0xbde25eb1	-0.11053217
210	0x3dfe24a1	0.1240933
211	0xbe771e33	-0.24132614
212	0xbe6cae75	-0.23113425
213	0xbd58bf1b	-0.052916627
214	0x3c9c3484	0.01906801
215	0x3e92fe24	0.2870952
216	0x3e24a7c9	0.1607963
217	0x3d01b942	0.031670816
218	0x3e055d13	0.13023786
219	0x3db55dab	0.08855756
220	0xbe348456	-0.17628607
221	0x3e15f32b	0.14643542
222	0x3e04514b	0.12921636
223	0x3d8ae135	0.06781236
224	0x3d97db0a	0.07414825
225	0xbd1a18c7	-0.037621286
226	0x3e4686de	0.19387385
227	0x3e356beb	0.17716949
228	0x3e65ad37	0.22429357
229	0xbe42400c	-0.18969744
230	0x3de23a5f	0.1104629
231	0xbd0775d8	-0.03307137
232	0x3bdf2542	0.0068098614
233	0xbdb2a889	-0.08723552
234	0x3e0c1c38	0.1368264
235	0x3d4c7ae2	0.049921878
236	0xbcc8350f	-0.024439363
237	0x3e9e2477	0.30887195
238	0xbe31c915	-0.17361863
239	0x3e0d8d61	0.13823463
240	0x3d1de9c4	0.038553014
241	0xbe33b8e7	-0.17551003
242	0x3e2ffdcb	0.17186658
243	0x3e12377b	0.14278977
244	0x3da61a89	0.0811053
245	0xbdef7e59	-0.11694021
246	0x3e3b888f	0.18313812
247	0x3e3a8817	0.18215977
248	0xbe0c3f53	-0.13696031
249	0x3e59527b	0.2122287
250	0x3e1ebe88	0.1550237
251	0x3d06f3a2	0.03294719
252	0x3e234978	0.15945995
253	0xbd7f1f78	-0.06228587
254	0xbd936624	-0.07197216
255	0x3b807d2c	0.0039211717

GRU/quant_dense_37/LastValueQuant/FakeQuantWithMinMaxVars__2539 f4 [32, 1]
0	0x3e9cab0e	0.30599254
1	0x3e6bc722	0.23025182
2	0x3da786c0	0.081799984
3	0x3e5c4423	0.21510367
4	0xbe5f5e56	-0.2181333
5	0xbe405858	-0.187837
6	0xbd21525a	-0.039385177
7	0xbec4ffa5	-0.3847629
8	0xbd52f58a	-0.051503696
9	0x3e8b9af6	0.27266663
10	0x3dd2f58a	0.10300739
11	0x3eb3ef8c	0.35143697
12	0xbd52f58a	-0.051503696
13	0x3eb0d559	0.3453777
14	0x3ebbb10c	0.36658514
15	0x3eb896d9	0.36052588
16	0xbeb3ef8c	-0.35143697
17	0xbd6bc722	-0.057562955
18	0x3e8eb529	0.2787259
19	0x3e5929f0	0.21207404
20	0x3e2dbb26	0.16965923
21	0xbdfe6453	-0.12421479
22	0xbe1803c1	-0.14845182
23	0x3e8eb529	0.2787259
24	0x3d9b1df4	0.075740725
25	0xbeb896d9	-0.36052588
26	0x3eaaa0f3	0.3332592
27	0xbe1b1df4	-0.15148145
28	0x3c782fee	0.015148146
29	0xbe056690	-0.13027406
30	0x3e935c75	0.28781477
31	0xbe7515bb	-0.23934071

GRU/quant_dense_36/LastValueQuant/FakeQuantWithMinMaxVars__2538 f4 [32, 32]
0	0xbe0ef001	-0.13958742
1	0xbd956f47	-0.07296615
2	0xbe69e5d4	-0.22841579
3	0x3e3faa8d	0.18717404
4	0xbdc96976	-0.09834568
5	0xbce9e5d4	-0.028551973
6	0x3e6d2576	0.23158821
7	0x3e18aeea	0.14910474
8	0x3d8ef001	0.06979371
9	0x3df06519	0.11738033
10	0x3e53285f	0.20620869
11	0xbeaa8cea	-0.33310634
12	0xbe3faa8d	-0.18717404
13	0x3e59a7a5	0.21255358
14	0x3da26dd3	0.079311036
15	0x3d1bee8d	0.038069297
16	0xbe7d63a5	-0.24745043
17	0xbde9e5d4	-0.11420789
18	0x3dcfe8bc	0.101518124
19	0xbe1f2e30	-0.15544963
20	0x3c4fe8bc	0.012689766
21	0xbe0bb05e	-0.13641497
22	0x3e69e5d4	0.22841579
23	0x3dc2ea30	0.09517324
24	0xbda8ed19	-0.08248348
25	0x3e53285f	0.20620869
26	0x3e566802	0.20938113
27	0xbd956f47	-0.07296615
28	0xbe970f19	-0.29503706
29	0xbe9bee8d	-0.30455437
30	0xbd69e5d4	-0.057103947
31	0x3ddce748	0.10786301
32	0x3d69e5d4	0.057103947
33	0x3e8870bb	0.26648507
34	0xbe01f176	-0.12689766
35	0x3daf6c5f	0.08565592
36	0xbdc96976	-0.09834568
37	0x3c9bee8d	0.019034648
38	0x3c9bee8d	0.019034648
39	0x3ea26dd3	0.31724414
40	0xbeaa8cea	-0.33310634
41	0xbc9bee8d	-0.019034648
42	0x3ccfe8bc	0.025379531
43	0x3e839147	0.25696775
44	0x3e73a4bc	0.2379331
45	0x3e8a108d	0.26965752
46	0xbbcfe8bc	-0.006344883
47	0x3e0ef001	0.13958742
48	0x3e6026eb	0.21889846
49	0x3e2c2cbc	0.1681394
50	0x3e35eba4	0.17765671
51	0x3e566802	0.20938113
52	0xbdf06519	-0.11738033
53	0xbe8a108d	-0.26965752
54	0xbd8870bb	-0.06662127
55	0xbe25ad76	-0.16179451
56	0x3e8051a4	0.25062287
57	0x3d8ef001	0.06979371
58	0xbd35eba4	-0.044414178
59	0xbc81f176	-0.015862208
60	0x3df06519	0.11738033
61	0x3e7d63a5	0.24745043
62	0x3e122fa4	0.14275986
63	0x3bcfe8bc	0.006344883
64	0x3e01f176	0.12689766
65	0x3e5ce748	0.21572602
66	0xbe156f47	-0.1459323
67	0xbdd66802	-0.10469057
68	0x3e6d2576	0.23158821
69	0xbe9bee8d	-0.30455437
70	0xbc4fe8bc	-0.012689766
71	0x3e3faa8d	0.18717404
72	0x3d42ea30	0.04758662
73	0xbe706519	-0.23476066
74	0xbde9e5d4	-0.11420789
75	0xbe122fa4	-0.14275986
76	0xbe0ef001	-0.13958742
77	0x3e226dd3	0.15862207
78	0xbd0ef001	-0.034896854
79	0xbe6d2576	-0.23158821
80	0x3dc96976	0.09834568
81	0x3dbc6aea	0.0920008
82	0x3e25ad76	0.16179451
83	0x3e4fe8bc	0.20303625
84	0xbe908fd3	-0.2823473
85	0xbe226dd3	-0.15862207
86	0xbea0ce01	-0.31407169
87	0xbe42ea30	-0.19034648
88	0xbc81f176	-0.015862208
89	0xbe35eba4	-0.17765671
90	0x3e42ea30	0.19034648
91	0xbe76e45f	-0.24110554
92	0x3bcfe8bc	0.006344883
93	0x3e8870bb	0.26648507
94	0xbe156f47	-0.1459323
95	0xbdcfe8bc	-0.101518124
96	0xbe69e5d4	-0.22841579
97	0xbe01f176	-0.12689766
98	0xbe2f6c5f	-0.17131184
99	0x3d69e5d4	0.057103947
100	0x3e6026eb	0.21889846
101	0xbe7a2402	-0.24427798
102	0xbd81f176	-0.06344883
103	0x3e226dd3	0.15862207
104	0x3e1f2e30	0.15544963
105	0xbe7d63a5	-0.24745043
106	0xbe3c6aea	-0.1840016
107	0xbd69e5d4	-0.057103947
108	0x3ea0ce01	0.31407169
109	0x3d35eba4	0.044414178
110	0x3eb92b47	0.3616583
111	0x3e32ac02	0.17448428
112	0x3d69e5d4	0.057103947
113	0x3e69e5d4	0.22841579
114	0xbe69e5d4	-0.22841579
115	0x3e2f6c5f	0.17131184
116	0x3dc2ea30	0.09517324
117	0xbd9bee8d	-0.07613859
118	0x3c9bee8d	0.019034648
119	0x3c9bee8d	0.019034648
120	0x3e853118	0.26014018
121	0xbe25ad76	-0.16179451
122	0x3e53285f	0.20620869
123	0x3e73a4bc	0.2379331
124	0xbe496976	-0.19669136
125	0x3d5ce748	0.053931504
126	0xbe63668e	-0.2220709
127	0x3e9bee8d	0.30455437
128	0x3eb10c30	0.3457961
129	0xbdb5eba4	-0.088828355
130	0xbe2f6c5f	-0.17131184
131	0x3ea40da4	0.32041657
132	0x3e122fa4	0.14275986
133	0xbe9f2e30	-0.31089926
134	0x3e8bb05e	0.27282995
135	0xbeb10c30	-0.3457961
136	0xbe73a4bc	-0.2379331
137	0x3ea5ad76	0.32358903
138	0x3e970f19	0.29503706
139	0x3e0870bb	0.13324253
140	0xbd9bee8d	-0.07613859
141	0xbe59a7a5	-0.21255358
142	0xbc4fe8bc	-0.012689766
143	0xbe226dd3	-0.15862207
144	0x3e2c2cbc	0.1681394
145	0x3ce9e5d4	0.028551973
146	0x3d42ea30	0.04758662
147	0x3e2f6c5f	0.17131184
148	0xbe7a2402	-0.24427798
149	0xbe0870bb	-0.13324253
150	0x3e392b47	0.18082915
151	0xbd0ef001	-0.034896854
152	0xbe35eba4	-0.17765671
153	0xbea26dd3	-0.31724414
154	0xbe706519	-0.23476066
155	0x3eaa8cea	0.33310634
156	0x3e839147	0.25696775
157	0x3c9bee8d	0.019034648
158	0xbe76e45f	-0.24110554
159	0x3d01f176	0.031724416
160	0x3ce9e5d4	0.028551973
161	0xbea0ce01	-0.31407169
162	0x3e1f2e30	0.15544963
163	0xbe226dd3	-0.15862207
164	0xbe28ed19	-0.16496696
165	0xbe0ef001	-0.13958742
166	0x3ddce748	0.10786301
167	0xbe4ca919	-0.1998638
168	0xbe122fa4	-0.14275986
169	0x3e1f2e30	0.15544963
170	0x3dcfe8bc	0.101518124
171	0xbe496976	-0.19669136
172	0x3e0ef001	0.13958742
173	0xbd69e5d4	-0.057103947
174	0x3e8870bb	0.26648507
175	0x3e2f6c5f	0.17131184
176	0xbe1bee8d	-0.15227719
177	0x3e98aeea	0.2982095
178	0x3df06519	0.11738033
179	0x00000000	0.0
180	0xbe7a2402	-0.24427798
181	0x3d4fe8bc	0.050759062
182	0x3e922fa4	0.28551972
183	0x3e69e5d4	0.22841579
184	0x3ce9e5d4	0.028551973
185	0xbd69e5d4	-0.057103947
186	0xbe6026eb	-0.21889846
187	0xbe0870bb	-0.13324253
188	0x3e32ac02	0.17448428
189	0x3e1bee8d	0.15227719
190	0xbdb5eba4	-0.088828355
191	0x3da26dd3	0.079311036
192	0xbe73a4bc	-0.2379331
193	0x3c1bee8d	0.009517324
194	0x3e8d5030	0.2760024
195	0x3e392b47	0.18082915
196	0x3da8ed19	0.08248348
197	0x3e908fd3	0.2823473
198	0xbe970f19	-0.29503706
199	0xbc81f176	-0.015862208
200	0xbe566802	-0.20938113
201	0xbd8870bb	-0.06662127
202	0x3ea40da4	0.32041657
203	0xbe706519	-0.23476066
204	0xbe8051a4	-0.25062287
205	0x3ddce748	0.10786301
206	0x3e8d5030	0.2760024
207	0xbe59a7a5	-0.21255358
208	0x3e122fa4	0.14275986
209	0xbdf06519	-0.11738033
210	0xbe392b47	-0.18082915
211	0xbcb5eba4	-0.022207089
212	0x3db5eba4	0.088828355
213	0xbe9bee8d	-0.30455437
214	0xbce9e5d4	-0.028551973
215	0x3de9e5d4	0.11420789
216	0xbe122fa4	-0.14275986
217	0xbe8870bb	-0.26648507
218	0xbe4ca919	-0.1998638
219	0xbeac2cbc	-0.3362788
220	0x3db5eba4	0.088828355
221	0xbdfd63a5	-0.12372521
222	0x3dcfe8bc	0.101518124
223	0xbe42ea30	-0.19034648
224	0xbe226dd3	-0.15862207
225	0x3d81f176	0.06344883
226	0x3e8ef001	0.27917483
227	0xbdc2ea30	-0.09517324
228	0x3e4629d3	0.19351892
229	0x3e3c6aea	0.1840016
230	0x3d76e45f	0.060276385
231	0xbe156f47	-0.1459323
232	0xbc1bee8d	-0.009517324
233	0xbdaf6c5f	-0.08565592
234	0xbd5ce748	-0.053931504
235	0x3d9bee8d	0.07613859
236	0xbda26dd3	-0.079311036
237	0x3e9d8e5e	0.3077268
238	0x3daf6c5f	0.08565592
239	0xbe156f47	-0.1459323
240	0x3e3c6aea	0.1840016
241	0x3e28ed19	0.16496696
242	0xbe122fa4	-0.14275986
243	0x3dbc6aea	0.0920008
244	0x3e53285f	0.20620869
245	0x3d1bee8d	0.038069297
246	0xbd81f176	-0.06344883
247	0x3e1bee8d	0.15227719
248	0x3e908fd3	0.2823473
249	0xbce9e5d4	-0.028551973
250	0xbe7d63a5	-0.24745043
251	0xbe5ce748	-0.21572602
252	0x3df6e45f	0.12055277
253	0xbd8870bb	-0.06662127
254	0x3d4fe8bc	0.050759062
255	0x3e81f176	0.25379533

GRU/quant_dense_36/BiasAdd/ReadVariableOp:0 f4 [32]
0	0x3cae3b56	0.021268528
1	0xbcc1d534	-0.023661233
2	0x3cb557dc	0.022136621
3	0x3d1adc50	0.037807763
4	0xbd75fb12	-0.060053892
5	0xbd2bf029	-0.04197708
6	0xbda68ffe	-0.08132933
7	0xbd1bd38b	-0.03804354
8	0xbd7ec0b1	-0.062195484
9	0x3c757e16	0.0149836745
10	0x3d5ecce0	0.054394603
11	0xbcf0c1dd	-0.029389316
12	0xbd76eb08	-0.060282737
13	0x3d0bb779	0.03411052
14	0x3ce10c77	0.027471764
15	0x3d45472e	0.048163585
16	0xbd75599d	-0.059899915
17	0xbd7a2c87	-0.06107762
18	0x3d0f7e1d	0.03503238
19	0x3d98dda4	0.074641496
20	0x3d398b80	0.045299053
21	0xbd9404ef	-0.072275035
22	0xbd58e3a0	-0.052951455
23	0x3d5be24e	0.053682618
24	0x3ca9a4a5	0.020708391
25	0xbc78b8b9	-0.01518076
26	0x3cb3d86f	0.02195379
27	0xbd77c456	-0.060489975
28	0x3d1786fc	0.036993966
29	0xbd39aaab	-0.045328777
30	0x3d6954e3	0.05696572
31	0xbd8b9b73	-0.06816759
