models/station_15/model_latest.onnx (onnx, 407659 bytes, 12 tensors)

W__770 f4 [1, 96, 64]
00000000: 65c5 533e d8a4 da3b 3418 573e aff6 443e
00000010: 6c6e 9dbc 8d76 36bd c209 6e3e 049b d33c
00000020: 01f1 283d e7b7 bcbd b41e 853d 97b5 3bbd
00000030: 2f1f a23c 4cfa e3bd 5750 64bd 587f 873d
00000040: 1083 543e 0228 0ebe 7c0e 84bb 6468 08be
00000050: 2ae5 0a3e 2ee5 7bbd 7ac0 0d3e e4bd 3c3e
00000060: b20b 3dbd 7443 373e 720f 013e 045a b9bd
00000070: d48f 9ebd 1a4a c33c 6908 cb3d dad2 c6bd
00000080: 2ed5 803d e460 69be a1b5 1b3e 2839 d23d
00000090: ffc0 f0bd bc4f f7bd f313 a53d 550d d0bd
000000a0: 9818 f2bd 6f30 ecbd daae 0dbd 8a03 99bd
000000b0: 850a 74bd d086 22be 2f7c 053e 9b20 423e
000000c0: 0c53 883c 4be6 b53c 3988 07be 728c 2fbd
000000d0: 6774 babd c901 37be 7a88 5d3d f3d6 f6bc
000000e0: ed58 32be ec53 8b3d 042a 003e 1828 423e
000000f0: b4c5 d2bd 628a 073e 307e 073e a984 803e
00000100: 2064 55be 07f1 d2bd 399e 07be 38e9 8f3d
00000110: 0012 c2bd 9baa d1bd e6dd b0bd 4130 a1bd
00000120: d578 ae3c fae6 693e db1b 273e 22ac 583d
00000130: a294 44be fdfa 93bd baf7 273e 17f5 7f3c
00000140: 7134 e0bd 12a3 813e e286 c7bd 4ef5 1c3e
00000150: 3bb4 2bbe c3e3 c03d 78ce c0bd 6dd6 01be
00000160: 4be2 51be dbad 733e 0cbf 29be 307d 92bc
00000170: f78a 31bd 2e26 003e 0fac 093e e74a 6e3d
00000180: 01b0 0abe eae7 883d 8ef7 85bd ff08 aabd
00000190: e98a 0d3d 0887 36be c3d0 7b3d 1fee 94bd
000001a0: 710e 6cbd a206 83bd 91f2 bfbd c3f7 65bc
000001b0: 99b8 88bd 5cf6 04bd cb07 3e3d 0189 d3bd
000001c0: 93bc f4bd d3b3 083e 0768 503c ad92 ed3c
000001d0: 2822 4fbe 6814 f5bd 8793 a8bd 3520 6abd
000001e0: db92 0d3e 403e d83c 10c5 22be f5f8 2e3e
000001f0: f6f6 233e 9a88 83bd 92a5 a23d 9bf8 1ebc
00000200: 10be cdbd 2723 323e 0f4a 9c3e 8aed 3bbe
00000210: b85a eb3b 672d e0bd 4fc0 edbc 8e3f 963d
00000220: e3d4 353d 078d d93d 8039 593e 8c7f 55be
00000230: d12b 5cbd fce8 223e da6c debd 731d 23bd
00000240: b27c 393e 0e1d 3abe e7a9 293e 8f01 6bbe
00000250: 9394 9dbd af45 4bbe fd9e 693e 00c6 533e
00000260: deb5 b53d e274 313e 20fc 083e 3768 24be
00000270: cd57 1e3e 583b fcbd d8ce 2bbe da3a 293e
00000280: ac8c c6bb 6412 90bd 7efb 4e3e 6c8a d63d
00000290: b269 8f3c db12 34be fec2 c8bd 4a45 9b3d
000002a0: 358d e83d eea3 a33d 4df8 623d 81f9 12be
000002b0: fffc 493e bf56 893d 8a52 5ebd 2380 86be
000002c0: 7600 95bd e51b 033e ba29 66be 42f0 5cbe
000002d0: da4f a03d 89e7 99be 8863 79bd cdac dfbc
000002e0: 2381 8f3c e6e7 e33d 3f73 1e3e a774 dcbd
000002f0: ecda 45bd b154 373e 43a9 17bd fb9d 70bc
00000300: f09e 30bd 3a4f 0a3e 81c4 04be 3709 6cbd
00000310: a970 99bd 8809 573e 0d48 193e 85a7 1bbe
00000320: a036 e7bd 51e4 533d 766b 383e 1398 c9bc
00000330: f069 47bd 827d 0f3d 4357 e33c dbaa a5bd
00000340: d6fa 033e 725b a9bd 7592 9ebe b022 79be
00000350: 5cd4 ee3d 2a1e debc 25c6 7c3d eb4d e13d
00000360: 2ab8 2ebe 7a3e 4dbd 23dc 35bd 0dd1 58be
00000370: 5201 8cbc 65ee 08be 17ed 49be db4b 63be
00000380: 5f41 013e d109 333d abe9 093d 32a3 d93d
00000390: be85 a3bd 14ee 013b ace6 003e dfff 0c3d
000003a0: b0a2 133e c613 e53c cbd0 80bd d990 cabd
000003b0: 585d 58bd 924b f7bd e9c1 ff3b f026 99bd
000003c0: a441 eebd 59f3 92bb c082 3b3e f1a8 8c3d
000003d0: 71d4 2d3e c8d7 143e 921a 0abc 8231 3dbc
000003e0: 6ed6 cbbd 7566 6dbd b797 053d 3115 8ebe
000003f0: 851e fd3b 7f16 4a3e dfff 2abe 31d8 bdbd
0.20680769 0.006672483 0.21005327 0.19234727 -0.019217692 -0.044546653 0.2324591 0.025830753
0.041245464 -0.09214764 0.06499997 -0.045827474 0.01979026 -0.11131725 -0.05574068 0.06616086
0.20753121 -0.1388245 -0.004030047 -0.13321072 0.13563982 -0.06149786 0.13842955 0.18431813
-0.04615373 0.17896825 0.12603548 -0.09050372 -0.07742277 0.023839045 0.099137135 -0.097081855
0.06290661 -0.22790867 0.15206005 0.10264808 -0.11755561 -0.12075755 0.08060446 -0.10158793
-0.11821097 -0.115326755 -0.03459058 -0.07471378 -0.059580345 -0.1587174 0.13035654 0.1895775
0.016641162 0.022204539 -0.13235559 -0.04285855 -0.09104233 -0.17871775 0.054085232 -0.030131793
-0.17416735 0.06803116 0.12516028 0.18960607 -0.10291615 0.13236383 0.1323173 0.25101212
-0.20838976 -0.102998786 -0.13243951 0.07026905 -0.094760895 -0.102376185 -0.08636074 -0.07870532
0.021297852 0.22842017 0.1631922 0.052898534 -0.19197324 -0.072256066 0.16403094 0.015622399
-0.109475024 0.25319725 -0.09742524 0.15327951 -0.16767971 0.09418442 -0.09414381 -0.12679453
-0.2049648 0.2379679 -0.16576785 -0.01788196 -0.043345418 0.12514564 0.13444541 0.0581769
-0.13543703 0.06684859 -0.06541358 -0.08302497 0.034556303 -0.17824948 0.061478388 -0.072719805
-0.05763096 -0.063977495 -0.09372438 -0.014036122 -0.06675834 -0.03246151 0.04639415 -0.10328866
-0.1195003 0.13349847 0.012720115 0.029000605 -0.20227873 -0.11966783 -0.082312636 -0.05715962
0.13825552 0.02639687 -0.15895486 0.17087157 0.16012177 -0.06422539 0.07941736 -0.009702827
-0.10046017 0.17396222 0.30525252 -0.18352333 0.0071824454 -0.1094616 -0.029022364 0.07336341
0.044392478 0.10622602 0.21213341 -0.20849437 -0.053752724 0.15909189 -0.108606055 -0.039823007
0.18113974 -0.18175146 0.16568719 -0.22949813 -0.07694354 -0.19850801 0.22814555 0.20681
0.08872579 0.17329744 0.13377428 -0.1605538 0.15463181 -0.123160064 -0.16778123 0.16526356
-0.00605925 -0.07034758 0.20213124 0.104756206 0.017506454 -0.17585318 -0.09802817 0.07581575
0.11355058 0.079902515 0.05541258 -0.1435299 0.19725417 0.06705999 -0.054277934 -0.26269636
-0.072754785 0.1280361 -0.22476855 -0.21576026 0.078277305 -0.3005946 -0.060885936 -0.027304078
0.017517632 0.111282155 0.1547365 -0.10764437 -0.048304483 0.17903401 -0.037026655 -0.014686103
-0.043120325 0.13506785 -0.12965585 -0.057625975 -0.07492191 0.2099973 0.14968891 -0.15200622
-0.11289716 0.05173141 0.18009743 -0.024608647 -0.048685014 0.035031803 0.02775157 -0.08089229
0.12888655 -0.08269395 -0.30971113 -0.24329638 0.11661598 -0.027113993 0.061712403 0.1100119
-0.1706244 -0.05010841 -0.04439939 -0.21173497 -0.017090473 -0.1337219 -0.19719349 -0.22196905
0.12622593 0.043710534 0.03367011 0.1062683 -0.07984494 0.0019825744 0.12587994 0.034423705
0.14417529 0.02796353 -0.06289824 -0.09890909 -0.052823395 -0.12074961 0.0078050983 -0.0747813
-0.11633614 -0.0044845757 0.18311596 0.068681605 0.16975571 0.14535439 -0.008429186 -0.011547448
-0.099530086 -0.05795904 0.03261539 -0.27750543 0.0077245855 0.19735144 -0.1669917 -0.09269751

W__756 f4 [1, 192, 128]
00000000: b550 d43c caf8 06be 8c22 c43d df1b 39be
00000010: a01c 9a3d f7be 02be 57c3 a5bd b124 e2bd
00000020: 6eea 833c 4f8b 1ebd cf6e 483d fe25 42bd
00000030: 61b9 9bbd 93cd c4bd 4fd1 343e 3c33 ffbd
00000040: b826 b9bd d6b6 1b3e 623f 1c3d d708 fbbc
00000050: a675 7abe 234c 2d3b 950c 75be 91d4 863e
00000060: fca6 cdbd 069d 01bd e704 113d a3ed 72bc
00000070: 8142 99bd 98b3 163e 1f3a 6a3e 4ca7 0b3e
00000080: 561e 2d3e 3b54 373d bafb 14bc 6faa 50bd
00000090: b46f 403e 76d9 eebd cf2c 4a3d 1143 623d
000000a0: d1d5 55be f4e2 263e 0c04 253d 22b4 a63d
000000b0: fd73 65be 8119 32be 310f 54bc ac7b 4c3e
000000c0: 2e6b 27ba 8fa7 bebc d2ec 86bd 635f 6dbd
000000d0: 9a4b e73d 0078 2c37 d6c6 743a 1a35 d0bd
000000e0: 343a f6bd 90eb 1d3e 352e f03c 0e90 2e3d
000000f0: 8f75 703c 8d43 2ebd d47c 4bbe 20ec 313c
00000100: fec3 3dbe 42ac 7dbd bf6c 66bd c5cb 01be
00000110: f4ea 17bd 627d 47bd 66fe 623e 0f0b a1bc
00000120: de77 05bd da35 92bb 6757 8ebe a75e 4ebd
00000130: e16a fd3d d652 9fbc d5e8 123e 4d88 f03b
00000140: 044d 343e 6712 713d 5d64 febd 89bb 0b3c
00000150: 79f3 b03d f257 7dbc eead 843d f7a7 0abd
00000160: 9cee 693e 5b69 33bd 8690 a4bd 2131 0ebe
00000170: 4fa6 83bd b08a 1fbe ed66 efbc bb0c 8b3d
00000180: 4fa7 e53c 2025 6fbe 1529 24bc a475 01bd
00000190: 2ef2 843d ef38 60bc e1f9 793d 2572 9b3d
000001a0: 9bd7 d33d e5c6 c33d 74c7 0c3c 617b 65bd
000001b0: 8d30 03be 4a18 043d fecd 79be 7482 f4bd
000001c0: 3a5e 543d 6949 323e 48f1 203d ac52 97bc
000001d0: f3d1 55bd f573 83bd 2bab adbd af1e 81bd
000001e0: b44c d13b 1ca9 7a3e 2622 2e3e 0821 e03d
000001f0: 68a2 9ebd 7b71 a7bd 47d5 873b 1632 ffbb
00000200: 228d 413d 03b8 9bbd b6d2 9e3c c679 9abc
00000210: e079 7fbd 7e1a 2d3e 2430 07be 2a6a 043e
00000220: d400 edbc c7a9 e2bc 5e14 123e c30a 7ebd
00000230: c3ff c33d 8455 563d c6d3 183d e47e e0bc
00000240: 7cfa d8bd c18d d23d 0dec 763c c05b bcbc
00000250: fc17 2b3d e3cd 20be 0add 293e ee6c 6b3d
00000260: 94cd 8bbd 7bc6 f93d 5edc e1bc 24e9 f73d
00000270: 500c e8bd 17e3 abbb 7f7f e5bd aa7a c33c
00000280: b4d7 0f3d 0143 4abd c51f 443d d396 083d
00000290: b386 f2bd 95af 17bd 9043 713d 858a b4bd
000002a0: 5ff9 ed3b de55 8cbd d1e8 763d 0b14 e83d
000002b0: 3838 ff3d ac41 0e3d 23fc 963d a9c9 e8bd
000002c0: 525c a43d 9d3e a3bd 8ec2 1a3e 419f 943c
000002d0: ff5b b0bd b9b0 0b3c d7c3 63bb 7f6d 2b3d
000002e0: f475 a4bd 931a fbbd c4e5 8dbd 2447 e2bd
000002f0: c3e0 d23d e696 553d fdbd 0d3d 5109 83be
00000300: 8467 323d 9fae e8bd 2e0d 0abb aa73 a7bc
00000310: b2d2 25bd 085c db3c 3f48 1abd 88ee dabd
00000320: 1ff8 313d d5d2 1d3d 9045 33bc 19b3 96bd
00000330: f448 8fbd 7966 2abe 49f0 ea3d f64c 97bc
00000340: 2626 53bd fb4a bdbd fb72 88bd d6ee 253b
00000350: cf5c ce3b 2efb fd3d 5d3e 2cbe 8d3b 0abe
00000360: 0cb3 893d 08a6 04bd 4e50 3abe 4519 9e3d
00000370: 19b3 78bc 8fde 133d 201b 7f3c 5192 c0bc
00000380: efb1 89bd d992 213d 6463 123e 9153 c93b
00000390: 0ed7 9b3c bc84 97bd b031 95bd 4e4b 933d
000003a0: 1b8e a83c 0b96 adbd 751a 43bc 1bb6 3b3d
000003b0: 80ff 84bd 39e8 363e 5209 e63c f7a0 23bd
000003c0: ab03 1ebe b3a7 09be 8c41 383d 9f90 91bd
000003d0: 1488 69bd d562 533d 5276 253e 0abe 75bd
000003e0: fad2 a73c cc67 4fbe 45cb 763b 7e99 e03d
000003f0: b216 743d 3f58 ca3d 1c5c aabd 38ef 0b3e
0.02591739 -0.13180843 0.09576902 -0.18077038 0.07524991 -0.1276816 -0.08093899 -0.110421546
0.016102996 -0.038707074 0.0489338 -0.047399513 -0.076037176 -0.09609523 0.1765797 -0.12460944
-0.09040588 0.15206465 0.038146384 -0.030643864 -0.24458942 0.0026443086 -0.23930581 0.2633405
-0.10041615 -0.03164389 0.035405066 -0.014827165 -0.07483388 0.14716947 0.22873734 0.13638037
0.16906103 0.044758063 -0.009093219 -0.05094379 0.18792611 -0.11662571 0.04935914 0.05523974
-0.20882346 0.16297513 0.040287063 0.08139826 -0.22407527 -0.17392541 -0.012943075 0.19969052
-0.00063865155 -0.023273258 -0.06588139 -0.057952296 0.11293717 1.0279939e-05 0.000933749 -0.10166378
-0.1202282 0.15421891 0.029318908 0.04261785 0.014676466 -0.04254489 -0.19871837 0.010859519
-0.18531796 -0.061931856 -0.056256052 -0.12675388 -0.037089303 -0.04870356 0.22167358 -0.019658593
-0.032585017 -0.004461986 -0.27801058 -0.050383236 0.12373901 -0.019448679 0.14346631 0.007340467
0.17607504 0.05885544 -0.124214865 0.008528599 0.08640189 -0.015462862 0.06478487 -0.03385159
0.22844929 -0.043801647 -0.08035378 -0.13885929 -0.06428205 -0.15580249 -0.029223884 0.067895375
0.02803388 -0.23354006 -0.01001956 -0.03160633 0.064915046 -0.013685449 0.06102932 0.07590131
0.10343858 0.095594205 0.008592475 -0.056025866 -0.1281149 0.032249726 -0.24394986 -0.119389445
0.051847674 0.17410816 0.039292604 -0.018472038 -0.052202176 -0.064186014 -0.08479913 -0.063046806
0.0063873176 0.24478573 0.17005214 0.109438 -0.0774582 -0.081759416 0.0041452977 -0.007787953
0.047253735 -0.07603457 0.019387584 -0.018856894 -0.06237209 0.16904637 -0.13201958 0.12931123
-0.028931059 -0.027668847 0.14265582 -0.062021982 0.09570267 0.052327648 0.037311338 -0.027404256
-0.10594651 0.10280944 0.015070927 -0.022992969 0.04177092 -0.1570354 0.16588226 0.05747693
-0.0682632 0.1219606 -0.0275709 0.12105015 -0.113304734 -0.005245577 -0.112059586 0.023862202
0.03511782 -0.049380306 0.04788186 0.033346962 -0.11842098 -0.037032682 0.058902323 -0.08815483
0.0072623934 -0.06852315 0.060280625 0.11331948 0.12461895 0.0347306 0.0737231 -0.113665886
0.08025421 -0.07970927 0.15113279 0.018142344 -0.08611297 0.008526021 -0.003475418 0.04185247
-0.0803031 -0.12260928 -0.0692859 -0.11048725 0.10296776 0.05214586 0.034605015 -0.25593045
0.04355575 -0.11361431 -0.0021064985 -0.020440895 -0.040484138 0.026777282 -0.037666555 -0.106900275
0.043449517 0.038531143 -0.010941878 -0.07358379 -0.069963366 -0.16640653 0.11471612 -0.018469315
-0.051550053 -0.09242817 -0.06662556 0.002531936 0.0062976847 0.12401424 -0.16820665 -0.1349928
0.067236036 -0.032384902 -0.18194696 0.077196635 -0.015179419 0.03610092 0.015570432 -0.02350727
-0.06723391 0.039446685 0.14295727 0.006143995 0.019023445 -0.07398364 -0.07284868 0.071920976
0.020575574 -0.08475884 -0.011908163 0.045827966 -0.06494045 0.17862023 0.028080616 -0.03994843
-0.15431087 -0.13442878 0.044984385 -0.071076624 -0.05701454 0.051607925 0.16158417 -0.05999569
0.020486344 -0.20254439 0.003765778 0.10966776 0.059591956 0.09880113 -0.0831835 0.13665473

W__743 f4 [1, 384, 6]
00000000: c0a4 2e3e d25f dc3d fb01 403d 19f2 1d3e
00000010: a487 a93d e0fd 98bb 8cc6 ecbd 09aa cabe
00000020: f320 a0be c274 89be 76ab 90be 2e99 0ebe
00000030: b8fd 0dbc eab8 4b3d 9041 263d 9ec7 a53d
00000040: 7bb1 013e ddb5 c2bd fa24 ccbd 7188 58be
00000050: df49 32be e695 bfbb 8cd2 58bd 358d 5cbc
00000060: c36e 5cbe eac0 23be 8e12 11be 1e7f 4bbe
00000070: 7879 14be 8b5c 8f3d 694b ff3d 7bb6 443e
00000080: 6fc8 393d 9092 3c3e 7225 9b3d 2de2 ff3c
00000090: 5e9a e43d 0fe5 f8bd 0e1a 983b fc8c 113d
000000a0: 8a36 cabd fc0d 23be 4c29 643c e4a1 013d
000000b0: 79a1 2a3e a97b 073e f7d9 96bd ccb2 62bc
000000c0: cd82 4bbe a8cd f7be 3e7b 9abe ba1e afbe
000000d0: 7296 9abe 2d56 003d fabd 4dbe b81a 62be
000000e0: b9fd 86be 1a09 54be 921a 60be b081 19bd
000000f0: b878 23be 5c0f b8be 0621 82bd 5013 2bbe
00000100: 1f35 47bd 8e61 07be 1ae0 d5bd e985 a2be
00000110: 1363 20be 0368 72be 2a2b 2abe ec40 263e
00000120: 352f f23d c232 4d3e 9b41 3e3e ed9a c73c
00000130: 2787 1f3e 0d8d 82be 6f0d d63d fedf 233a
00000140: 1c83 10be 3914 39bd a56b 7cbd 6ef7 383e
00000150: 4bfe 50bd c6be 9dbd 21cf 9eba e1d3 25bc
00000160: 26a3 75be d255 9ebd 0335 3fbe dec6 8cbe
00000170: 0363 30be b181 17be 1ca7 50be 29e4 dbbc
00000180: 0ae4 5ebe 07f8 2abe f4f2 b6be b704 5fbe
00000190: 33d3 56be 3f89 2c3e 6fae 16be c651 9cbe
000001a0: a243 a8be e136 b1be d721 cabe 6e25 233d
000001b0: 84c9 62be 6fa2 883c d2bd 3dbd 8bf5 d93d
000001c0: 752f 1cbd 4871 9cbc c2c7 243e a9d7 863e
000001d0: eb2c b53b 02a7 673d f8f0 5c3e b8d6 1abe
000001e0: 67be 4c3d 1356 363e 64d0 713d 2523 513e
000001f0: c9a8 243e 761e e43d b565 103e ce0c da3e
00000200: 4ef2 643e 6925 bf3d 7b41 0a3e 85d5 75bc
00000210: ca4a 423e 5275 793e 24f7 553e 0ea9 da3d
00000220: 70f6 b73e eb27 933d a25f 0c3e bbfc 6c3d
00000230: 53e6 533e 604c 5f3d 1993 913d 7116 92bd
00000240: 7371 cf3c efdc 91be a5b2 25be d4ad 53be
00000250: e4c7 17be 26a3 093e 266e 94be d8a4 90be
00000260: 7d22 61be 5baa 25be 3607 5cbe 8f60 113e
00000270: edd3 253e 57f2 8c3d af7c 303d 9614 a93c
00000280: b4f2 67bd a36b bc3d 1d11 853c 4cf8 a2bc
00000290: e345 033e b899 453e 3958 363d 90be 3abe
000002a0: 2f77 1bbe 5720 22be ef9a 78be 524b 84be
000002b0: 07a3 89be 7d70 2e3d b098 583e 405a 093e
000002c0: 3a8d 713e c51f 9d3e 2d94 353e 17ad f93c
000002d0: 2c30 86bd b21c f3bd a8c3 63be a069 d3bd
000002e0: 7046 51be 952a 68bd 77cb 383e 8a79 953e
000002f0: 083e 843e 7c78 8a3e ef56 4a3e af03 163e
00000300: 5bf2 ff3c 03d5 883e cbe5 c13c 2292 c53d
00000310: 43d5 033e c28e 003e a986 37bc bfd8 953d
00000320: 5ad8 c03c 9b19 6c3d 40ae 9c3d 4dcd a83c
00000330: ccc8 07be dbda b1bd 3572 28bd de1e 31bd
00000340: 7ca4 f73d d309 3cbc 7ce6 0c3d 735c 193d
00000350: 38d3 9abb a10b b33b a7d0 29be 13d1 c13d
00000360: 05a4 0dbe 8bf1 8f3d 47cb 64bd 2699 61bd
00000370: 8604 bf3b c7d3 043e 8beb 88be d36f a9be
00000380: 260a 16be 5f68 80be bd2c 46be e4c8 9bbd
00000390: e133 063d 5889 293e fdca 31bc 3116 413d
000003a0: f009 dc3b 577e a63d af75 77bd 7691 30bd
000003b0: 1ae1 10bd 3711 3d3d 01c4 b0bc f621 f8bc
000003c0: 7dde 94bd 7898 7b39 0014 b6bb 7cba 25be
000003d0: 7cf3 4cbd b9d1 bc3d 5bb4 45bd f163 0a3e
000003e0: 7a44 c6bc f813 e23d 2caf d3bd bf9f f6bc
000003f0: 3e25 d93d fe3d 80bd fb42 813c 8179 7abd
0.17055035 0.10760464 0.04687689 0.15424384 0.082778245 -0.004668936 -0.11561307 -0.39582852
-0.31275138 -0.26846892 -0.28255814 -0.13925621 -0.008666448 0.049736895 0.04058987 0.080947146
0.1266536 -0.09507344 -0.0996799 -0.21145798 -0.17410992 -0.0058467267 -0.05293517 -0.013461401
-0.21526627 -0.1599156 -0.14167234 -0.1987271 -0.14499462 0.07000073 0.12465555 0.19210236
0.045357164 0.18415284 0.075755015 0.031235779 0.11162256 -0.121530645 0.004641778 0.035534844
-0.09873684 -0.15923303 0.013925862 0.03164853 0.1666316 0.13230766 -0.07365792 -0.013836574
-0.19874115 -0.4839909 -0.3017215 -0.3420313 -0.30192906 0.031332184 -0.20092002 -0.22080505
-0.2636545 -0.20706597 -0.21885136 -0.037477195 -0.1596402 -0.35949218 -0.06353955 -0.16706586
-0.048634645 -0.13220808 -0.104431346 -0.3174279 -0.15662794 -0.2367249 -0.16618028 0.16235703
0.1182541 0.20038894 0.18579714 0.024365867 0.155789 -0.25498238 0.10451781 0.0006251334
-0.14112514 -0.0451853 -0.061626095 0.18063137 -0.051023763 -0.07702403 -0.0012116173 -0.010121317
-0.23988017 -0.07731213 -0.18672566 -0.27495474 -0.1722527 -0.14795567 -0.20376247 -0.026842194
-0.21766677 -0.16696177 -0.35732234 -0.21779142 -0.20979004 0.1684923 -0.14714979 -0.30531138
-0.328641 -0.34612182 -0.39478943 0.039830618 -0.22147185 0.016679017 -0.046323605 0.10642537
-0.038131196 -0.019096985 0.16091827 0.2633641 0.0055290363 0.056555755 0.21576297 -0.15120971
0.04998627 0.17806272 0.059036627 0.20423563 0.16080011 0.111386225 0.14101298 0.42587894
0.22358057 0.09333307 0.13501541 -0.01500452 0.18973842 0.2436116 0.20895058 0.10676776
0.35930204 0.07185348 0.13708356 0.05785821 0.2069333 0.054516196 0.07108135 -0.071331866
0.025322651 -0.2848887 -0.16181429 -0.20671779 -0.14822346 0.13441142 -0.28990287 -0.28250766
-0.21985812 -0.16178267 -0.21487126 0.1419699 0.16194125 0.0688216 0.043087658 0.020639699
-0.056627944 0.092002176 0.016243512 -0.019893788 0.12819628 0.1929692 0.04451773 -0.18236756
-0.15182184 -0.15832649 -0.24277852 -0.25838715 -0.26882192 0.042587746 0.21151996 0.13413334
0.2358903 0.306883 0.17732306 0.030478043 -0.06552157 -0.118707076 -0.22242606 -0.10322881
-0.20437026 -0.056681234 0.18046366 0.2919429 0.25828576 0.27045047 0.19759725 0.14649843
0.031243494 0.26725015 0.023669144 0.09647013 0.12874322 0.12554458 -0.011201539 0.07316732
0.023540664 0.057641607 0.07650423 0.020605708 -0.13260192 -0.086843215 -0.04112454 -0.043242328
0.1209192 -0.011476952 0.034399495 0.037441682 -0.0047248863 0.0054640328 -0.16583501 0.09463706
-0.138321 0.070284925 -0.055857923 -0.055077694 0.0058293967 0.12971412 -0.26742205 -0.33093128
-0.14652309 -0.2507963 -0.19353004 -0.07606676 0.03276432 0.16556299 -0.010851619 0.047140304
0.006715052 0.08129566 -0.060414966 -0.043107472 -0.035370924 0.046158995 -0.021577837 -0.030289631
-0.07268999 0.00023994024 -0.0055565834 -0.1618442 -0.050036892 0.09219689 -0.048267704 0.13514687
-0.024202574 0.11038965 -0.10336146 -0.03010547 0.106028065 -0.06261824 0.01577901 -0.06115103

R__771 f4 [1, 96, 32]
00000000: d384 f4bc e4ec 07bd 181e 2fbe ecca 9d3d
00000010: 1052 eabd 6ce0 863d 51bd b3bd f4cd 783d
00000020: f40f c63b ab01 ffbc cce3 203c 8ddb 94bd
00000030: 7af4 28be d481 f33c e97b de3d ff24 abbc
00000040: 9398 af3d dee7 15be 5f4a 36be 6418 dd3b
00000050: 545a c4bc 084b 7c3d 22a4 d0bd 900d fc3d
00000060: 2a78 f0bd 369c 4b3e 73bb 473e d089 8abd
00000070: fbe1 96bd eb96 05be 55b8 4f3e dec0 0cbe
00000080: 1b08 7e3e 2cf0 7fbe cb8b 0e3e 1ae1 02be
00000090: 447a f7bc 5b96 3d3e 17f0 203d 13eb 3bbd
000000a0: 3f66 403e 3fcc d63d bca9 603d 751b 8b3d
000000b0: 143e 0fbe c782 e8bb 61a2 27bd 1186 afbc
000000c0: 6550 0cbe 51ed 703e fbbf 633c dc6f e13d
000000d0: 0f4e 1d3c 76be 8e3d 2f6d 37be c951 18be
000000e0: 9a6b 10be ecbc e83c 4aa0 973d b53d 533e
000000f0: 8af3 a5bd d9bc f6bc 1f10 9c3d f3bf e13b
00000100: 4dc4 cbbc 976a 2cbd 1e0e 103e 53f7 653d
00000110: a23d e6bd 7ccf 153d dc32 43bd c2d8 203e
00000120: 28da b5bc a246 203e 3678 6dbd c7c5 853a
00000130: 75ad 6e3d 61cb 973c 95d4 873d 6c89 433e
00000140: c250 d63c 7b0c 813c 0e97 82be efee 62be
00000150: a5a4 04be 3eba 363c f3b2 c73d f249 823d
00000160: a9b6 90be 6745 bd3c 89dd f5bd 201d b0bc
00000170: 0d6f 1fbe 1802 1cbe 8288 6c3e f5d5 d23d
00000180: 9889 533e 47ca 133e 682a b93b b1ee cfbd
00000190: d12f 263e 5edf e9bd 923a 9d3c 0507 cbbd
000001a0: 4bbe e1bd f2d4 0c3c 982b 383e 5c68 a2bc
000001b0: aeea 8e3e 1d92 5ebc f96b a8bd 4f12 62be
000001c0: 27e9 313d a727 763d 1296 00bd 7625 aebb
000001d0: 8544 033e bd39 fdbc 9e23 f73d fbad bf3c
000001e0: 69c5 bfbc 5758 1ebe 28cd 4dbe b4c7 16bd
000001f0: 6f7e f83c 009b abbe 5844 88be 2d8d 133e
00000200: 9b9f 94be d4c8 77bc 9375 f1bd d896 763e
00000210: 0380 b1bd 5f71 963e e785 f1bc 45ad c9bd
00000220: 68a6 813d 8865 843a 7a14 87be 0346 293d
00000230: 0463 73be 6994 f03d 2ca5 e83d eda0 083d
00000240: 22d9 2f3c fecf 1cbe 94b2 9ebe 324a a3bd
00000250: e39d 8d3d 8072 c7bd ede5 03be 909d 85bc
00000260: 63da acbd 1caf f93d 447d 1ebe 96f9 853d
00000270: b708 7dbe b59b 9ebd 5203 783e 5e10 24bd
00000280: 2cdf 50bd 0928 853d 7e6c c53d 4f52 a63d
00000290: e39f 333e ff56 69be 0eab bbbd 4fc1 3abd
000002a0: 4328 6d3d fa39 003e 66cd 86be 9933 343e
000002b0: f244 bebc c95e f6bd 0b30 99bd 6dc0 74be
000002c0: 9911 f73d 8603 0bbe 3670 f2bc acb7 87bd
000002d0: 60af a4bc 2a2b e53d 5420 d63d ae77 a53d
000002e0: 9db8 963d 9c91 2c3e ee9c 553e 9bd2 053e
000002f0: 9e5b c93d 268e 7dbd 4567 043c c513 b23c
00000300: 053b aa3d a270 2c3d 4396 eabd 4b56 c3bd
00000310: a10c 203d 83d6 093e 76ca abbd ec8e e53d
00000320: d713 023b 1717 103e be98 9b3b 721b 6b3e
00000330: b991 19be 0cd5 79ba d86a 1cbe 12ab b03d
00000340: 4862 833d 2476 dbbd 2eb0 933d 5de0 053d
00000350: 8cb6 aabd 827e e53c 3bf5 bb3d eb18 8a3c
00000360: 83e7 81bd 29cc 9f3c fa81 26bd 1f79 d3bd
00000370: d389 9bbd 958a 463d 5ecb 52bd 3eb8 1e3e
00000380: f3fa 203c 563c 21bd f4ca 703c 6695 a5bd
00000390: 6adc 50bc 4620 afbd 42c1 7dbd efef cd3d
000003a0: ded0 c83d d0e8 26be 4ec9 c0bd 27ce 233e
000003b0: b867 6b3d 0087 a53c 23b7 5dbd 2122 883c
000003c0: 4cd2 19bd dce3 093e 3ebd 193e ef2d 2a3e
000003d0: 8577 24be 8fa8 9d3d acf4 0abe 0e2c ae3d
000003e0: 06a4 273e 2164 003c fe2d 59be 1687 b2bd
000003f0: 68a2 5f3d 9032 1c3d 8079 00bc fbdf b6bd
-0.029848492 -0.0331849 -0.17101324 0.0770472 -0.114414334 0.06585774 -0.087763436 0.060743287
0.006044382 -0.031128725 0.009819936 -0.072684385 -0.1649951 0.029724993 0.10863478 -0.020891665
0.08574023 -0.14639232 -0.17801808 0.0067472924 -0.023968853 0.061594993 -0.10187556 0.12307274
-0.117416695 0.19883808 0.195051 -0.06764567 -0.07367321 -0.13045852 0.20285161 -0.13745448
0.2480778 -0.24993962 0.13920514 -0.12781182 -0.030209668 0.18514387 0.039291468 -0.04587848
0.18789004 0.104881756 0.05484937 0.067923464 -0.13988525 -0.007095668 -0.04092634 -0.021426233
-0.13702543 0.23528029 0.013900752 0.110076636 0.00960113 0.06969921 -0.17912744 -0.14874949
-0.14103547 0.028410397 0.074036196 0.20629008 -0.08103092 -0.030119346 0.07620262 0.006889337
-0.024873877 -0.04209384 0.14067885 0.05614407 -0.11242224 0.036574826 -0.047655925 0.15707687
-0.022198752 0.15651944 -0.05797597 0.0010206037 0.05827089 0.018529596 0.06632344 0.19095391
0.026161555 0.015753021 -0.2550587 -0.22161458 -0.12953432 0.011152802 0.09750929 0.0636176
-0.2826436 0.023104383 -0.12005145 -0.021498263 -0.15569706 -0.15235174 0.23098949 0.10294715
0.20657957 0.14432631 0.005650807 -0.10152949 0.16229178 -0.11419557 0.019192968 -0.09913448
-0.11022624 0.008595692 0.1798538 -0.019825153 0.2791342 -0.013584641 -0.08223719 -0.22077297
0.043435242 0.06009641 -0.03139312 -0.0053145243 0.12819107 -0.03091132 0.1206734 0.02339839
-0.023409562 -0.15463386 -0.20097792 -0.036811545 0.030333726 -0.33516693 -0.26614642 0.14409323
-0.2902802 -0.015123565 -0.11790004 0.2408098 -0.086669944 0.2938337 -0.029482795 -0.09847502
0.063305676 0.001010106 -0.2638281 0.041326534 -0.2376824 0.11747057 0.11359629 0.033356596
0.010732921 -0.15313718 -0.3099562 -0.07973136 0.0691488 -0.09738636 -0.12880678 -0.016310483
-0.084400915 0.121916026 -0.15477473 0.06541745 -0.24710356 -0.077445425 0.24220017 -0.04005467
-0.050994083 0.06501777 0.09639834 0.08121168 0.1754146 -0.22787093 -0.091634855 -0.04559451
0.057899725 0.12522116 -0.26328582 0.17597808 -0.023226235 -0.120297976 -0.074798666 -0.2390153
0.12063903 -0.13575563 -0.029594522 -0.066268295 -0.020103157 0.111898735 0.10455385 0.08079468
0.07359431 0.1685242 0.20860645 0.13068621 0.09831928 -0.06190314 0.008081262 0.021737942
0.08312038 0.042099603 -0.114544414 -0.095379435 0.039074544 0.13460736 -0.08388226 0.11208901
0.0019848251 0.14071308 0.004748433 0.22959688 -0.14996995 -0.00095303426 -0.15275133 0.08626379
0.0641523 -0.10715893 0.07211338 0.032684673 -0.08335599 0.028014425 0.091776334 0.016857585
-0.063429855 0.01950653 -0.0406513 -0.103258364 -0.07594647 0.048472006 -0.051463477 0.1549997
0.009825456 -0.03936418 0.014696825 -0.08085136 -0.012747863 -0.085510775 -0.061951883 0.10055529
0.09805463 -0.16299748 -0.09413396 0.1599661 0.05747196 0.020205975 -0.05412973 0.016617836
-0.03755407 0.13465828 0.15013596 0.16619085 -0.16061218 0.076981656 -0.13569897 0.085044965
0.16371164 0.007836373 -0.21208951 -0.08717172 0.054598242 0.038134158 -0.007841468 -0.0892944

R__757 f4 [1, 192, 64]
00000000: 0aee 283e 0e35 9e3d 9d9e 813e 563d c33e
00000010: 9dcd 22be 200a 3dbe 5676 f73a a374 af3d
00000020: b13f 2a3e 401c 663d 4071 9d3d f086 33be
00000030: 632a 8fbd 406a eabd 8837 923b 5b7c 65be
00000040: d9ea 303d a0fc 833d 1fa7 3b3e e7f5 303d
00000050: 7ee0 1dbd c08a f63d 8e5b 943d 7849 f63d
00000060: f8b0 03be 0de3 a83e 5c4e 92bd f3e2 f23c
00000070: f774 533e fe13 6c3c 1945 a03d 8df1 2d3b
00000080: c86c 24be 29eb f3bd 77f4 f53d b6a8 103d
00000090: 6fbc 4abe 3278 2c3d fa8c 69be ed00 0dbe
000000a0: 4787 2dbe 8a64 623d c392 033e a6ef 983d
000000b0: 79ad 213e 3cb5 23bc edc7 8fbc d152 51be
000000c0: beeb babc e011 313e f82c c2ba a908 cabd
000000d0: 1323 0abe 0aa6 24bd e336 363d 78a9 7dbe
000000e0: e9f9 123d 2b53 6a3d 380b 8ebd 0adb 3b3c
000000f0: cb9c c43d 8279 223d 4e54 273e 9e4f 13bd
00000100: fc51 30be 37e3 383d 12e9 d53c 336c 803c
00000110: 251a 09be 59e8 04be 7246 12be 676c 033d
00000120: a945 a0bd e570 81bd a009 633e 0c2c 17be
00000130: 0db2 89bd 58d7 80bd c3d3 033e 0c2b f43d
00000140: 56bf b53d 21a2 64bd 3c8f 0c3d ed7b 733e
00000150: 6df5 33be e646 17be d7c3 85bd aefd 693d
00000160: 5aa2 0d3e 5c75 1eba 64a4 593d 5d9d 73bd
00000170: 89af a6bd d827 4b3d fe0c d13d a2ec 21bc
00000180: b13a 903d ce7c 013e 1a11 12bd 7c9d f5bc
00000190: aefe 3a3e 78b7 49be 57b5 093d b6ff fd3c
000001a0: e76e 0a3d f89c 11be 6fd2 e3bd ce04 403c
000001b0: 0601 26bd 642a e5bc 81f0 063e d110 b7bd
000001c0: 36e0 9e3d f5c4 52bc 1f04 5b3d e739 56bd
000001d0: 9f8a bdbd e9f9 5a3d 4a16 073e e33d 8b3d
000001e0: 9503 4a3e 9ca0 dc3b 158d 173d dc4d fdbd
000001f0: 8d4e 82bd 0a39 833d 1f6b 8abd a836 d33d
00000200: 76c9 8b3e e750 c1bd e639 413e 727d 083e
00000210: de2a 47be 5143 10be b58a 0e3e 8efe faba
00000220: a489 093d 46dc 583c 1a00 82be 299f 51be
00000230: 9cd9 ff3d b9ab 9abe bdd2 03bb 2319 23be
00000240: e981 1a3e 9e1e c13d aef9 fb3d 2c4b 783d
00000250: 3eaa 343e 26ac f43c 9ab7 6e3d 5304 06bd
00000260: 4bec 4bbe 4ea0 f63d 541e 213d d93a 2abe
00000270: 2e28 573e e03d 6cbd 1086 dd3d cb14 b53e
00000280: 97ae 1abd dabc 26be 166e 203e 59f0 603e
00000290: dff4 64be 80a3 0a3e 68a7 fcbd 1b0d 053d
000002a0: 44fb 97bd c47a dd3d 4e93 4c3e 046d ca3d
000002b0: 97eb ae3e 624a 1ebe 54bc dc3d c0cd b13a
000002c0: 22d9 ec3d 39ce 10bc 1d03 0b3c 9d52 2b3d
000002d0: 7dd0 febd 2023 14be e518 453e 2ff2 45be
000002e0: 066b 52bd cf6f 0abe 231e 023e 1836 d4bc
000002f0: 3e63 a63d 5b99 2c3d 660e 843e 6828 0cbe
00000300: e085 373e 37fa 043d 9d92 aa3e 91c1 233e
00000310: 1522 40bd b6b0 6cbe 35b3 8ebd 5c77 0b3e
00000320: 61bd 983e 2210 173e c01e 11be 7c19 1dbe
00000330: 7ccd 2f3e 9d04 26be 1fdc 553e 77ac bcbe
00000340: 75d5 56bd c48d f7bb ff6d 943e 8015 b13b
00000350: 3694 473e 8b3a 2e3e 0703 073e a467 3f3e
00000360: 7aca 59be ae2f 0d3e 82f2 a1bd 2b52 9c3d
00000370: 8e1d a23e 7844 f63d cc4f 8c3d 49a9 a43d
00000380: a388 bd3c 6e36 67bd bdff 543e 36aa e03d
00000390: b4c0 4abe 09f5 643e b98f b8be 8f2f 893d
000003a0: b085 1bbe 55ca 733d ff9d 223e 076e 423e
000003b0: 0dfc be3e 3401 b5bd ca2a ce3a 8859 46be
000003c0: 37cc 81bc 3eb9 ea3d 7588 0dbc 84e1 2b3e
000003d0: 0b02 2cbe b2ae 92be a3fb 673b 7578 98bd
000003e0: f94e 8f3d 7329 353d cb6e 7dbc 9d0d 343e
000003f0: cfcb 253e ab3d f0bd d172 4a3e f1f4 c7bc
0.16497055 0.07724963 0.25316325 0.38132733 -0.15898748 -0.18460894 0.0018879871 0.085671686
0.16625859 0.056179285 0.07687616 -0.17531943 -0.069905065 -0.11446047 0.0044621862 -0.22410719
0.04319272 0.06444669 0.1832547 0.04320326 -0.03854417 0.12038183 0.07244025 0.12025732
-0.12860477 0.32985726 -0.07143852 0.029649233 0.20650087 0.014409063 0.07825679 0.002654168
-0.16057122 -0.119100876 0.120095186 0.035317145 -0.19798444 0.042106815 -0.22807685 -0.13769884
-0.16946135 0.055271663 0.12848954 0.07467584 0.15788831 -0.00999194 -0.017551387 -0.20441748
-0.022817489 0.17291975 -0.0014814427 -0.09864933 -0.13489942 -0.04019741 0.044485938 -0.24771678
0.035882864 0.05720822 -0.069357336 0.011465797 0.096002184 0.03966666 0.16340753 -0.0359646
-0.17218775 0.045138564 0.026112113 0.015676593 -0.1338888 -0.12979259 -0.14284685 0.032085802
-0.078257866 -0.06320361 0.2217164 -0.14762896 -0.067234136 -0.062910736 0.1287375 0.11922273
0.08874385 -0.05581868 0.034316286 0.23777743 -0.17574091 -0.1477314 -0.06531494 0.057126693
0.13831463 -0.00060447096 0.05313529 -0.059476245 -0.081389494 0.049598545 0.10207556 -0.009883078
0.070424445 0.12645265 -0.03566084 -0.029982321 0.18261215 -0.19698894 0.033620205 0.031005722
0.03379717 -0.14220035 -0.111241214 0.0117198955 -0.04052832 -0.027974315 0.13177682 -0.08938754
0.077576086 -0.012864341 0.053470727 -0.052301314 -0.092549555 0.05346099 0.13192096 0.06798913
0.19727929 0.0067330133 0.03699978 -0.12368366 -0.063626386 0.06407364 -0.06758713 0.10313159
0.2730214 -0.09439259 0.18869743 0.13329104 -0.19449946 -0.14088179 0.139201 -0.001914935
0.03357853 0.013236111 -0.25390702 -0.20470871 0.124926776 -0.3020914 -0.0020114623 -0.15927558
0.1508862 0.09429668 0.12303482 0.060618564 0.17643067 0.029867243 0.058280565 -0.032718968
-0.19914357 0.120422944 0.039335564 -0.16624011 0.21011421 -0.057676196 0.10816586 0.35367426
-0.037764158 -0.16282979 0.15666994 0.21966685 -0.22359036 0.13538933 -0.12336618 0.0324832
-0.07420972 0.10814431 0.19978067 0.09884074 0.34164116 -0.15458062 0.10778108 0.0013565347
0.11564852 -0.00883823 0.008484629 0.041826833 -0.1244211 -0.14466524 0.19247778 -0.19330667
-0.051371597 -0.13519214 0.12706809 -0.0259047 0.08124398 0.04213844 0.25792235 -0.13687289
0.17922163 0.032465186 0.33314982 0.15991808 -0.046907503 -0.23114285 -0.06967775 0.1361975
0.29831985 0.14752248 -0.14171886 -0.15341753 0.1716823 -0.16212697 0.20884751 -0.3685033
-0.052449662 -0.0075547416 0.2899017 0.0054041743 0.19490132 0.1701452 0.13184749 0.1869188
-0.21268645 0.1378772 -0.07907583 0.0763286 0.31663173 0.12024778 0.068511575 0.08040101
0.023136443 -0.056448393 0.20800681 0.10969965 -0.19800073 0.22359098 -0.36047152 0.06698524
-0.15187716 0.05951913 0.15880583 0.18987285 0.37301674 -0.0883812 0.0015729305 -0.19370091
-0.015844448 0.114611134 -0.008638491 0.16785246 -0.16797654 -0.28648907 0.003539779 -0.0744485
0.06997485 0.044228982 -0.01546831 0.17583318 0.16191028 -0.11730512 0.19770361 -0.02440879

R__744 f4 [1, 384, 128]
00000000: 81ee dd3b f4dc 503d 10c4 0dbd e1ed 1d3d
00000010: fa54 c5bb d8f1 313d e453 babd 74b8 ab3d
00000020: a027 17bd 9f31 a33d 3c99 13be b964 1abd
00000030: 3329 07bd 7b8e 7c3d 6466 4b3d 2edf eebc
00000040: b497 2bbc 1481 adbd 313e 48bd 10c4 40bd
00000050: 488e 0fbd 326d 673d c5b6 bbbc 2ae9 33bd
00000060: 2c62 91bb ef7a 3d3d b6ec f93d b34b 5dbd
00000070: a389 943d 4d19 8c3d 3e05 5c3c 0dc2 babd
00000080: 47b4 93bd 1743 b23d 8f13 773d d418 973d
00000090: ecf3 3b3d 263e 003e a698 223a 100d abbd
000000a0: b7ae 703d d86d 803d 659c 29bd cafc afbd
000000b0: a943 5abd c1b8 a0bc d8b4 b7bd e232 d53c
000000c0: 0a54 6bbd adac 2dbd e3f0 b93d a3cd 0bbd
000000d0: 0c22 fbbc fea3 69bd 4985 b63c a56f 8ebd
000000e0: 82fe 2dbd 700d 18bd f478 efbc b15c c7bc
000000f0: d4bf f73b b887 9f3d 827f 923c ff3c cd3c
00000100: 3164 1b3d 3057 b43b f7a2 50bd 0f15 ce3d
00000110: 0912 413d b6a1 60bd 58b3 66bd 3bbf ad3b
00000120: 0499 423c f77a a33d 7f32 2b3d 6c5b 053d
00000130: 950f 61bd b088 673d aae4 7bbd c3fb 333d
00000140: 1de1 7d3c a3d6 bf3c 0c04 933d 03a0 b73d
00000150: 4645 913d 8e51 9cbd 9f7d 8f3b 9858 fb3c
00000160: 1ece 0dbe abff 50bd 9cc6 363d 2b29 db3c
00000170: 3078 92bd f568 833d 4141 943d 10b1 d3bc
00000180: b285 ef3d dd72 b43c ee20 7d3d 7301 d73d
00000190: 9bbb a63c a402 62bd bd88 9bbd 97f2 623d
000001a0: 0ee2 1dbe 19bb 863d b46c 11bd d74d b8bd
000001b0: ee23 543b ef13 cf3c 4299 2bbd 271f b3bc
000001c0: d58f c13c 1e71 b23d ef6b 70bd 2e86 46bb
000001d0: 01df fa3c a6e1 20bd caa1 06be e255 d7bd
000001e0: be72 c5bc 3b02 a93d 54c9 e0bd eea2 35bd
000001f0: 2714 583d d28a c9bd 702b ce39 52c6 b5bc
00000200: c6d5 6ebd 7a28 383e d79d 603e 75d0 44be
00000210: fff3 d5bc 6711 86be 4c20 cabd 0523 49be
00000220: b352 ef3d c034 aabe 5eaa 793e 5095 333e
00000230: 7d95 45bd dd0e 5fbc f24e 583e c0de fa3d
00000240: 268c 173e 6176 8e3e f046 f03d 2000 14be
00000250: 0de0 ddbe 59fc b9bd c130 25be 750b 473e
00000260: 2a5a ce3d 291c 7b3e 39ae 3fbe 2783 5fbe
00000270: 9580 ab3a 2912 513e 231d 653e 3f9a cf3d
00000280: 2880 563d faf3 2a3e 8e36 b3bd e20f 37be
00000290: 57d0 623d f912 723e 1a72 923d 2198 a7bc
000002a0: 8503 89bc c595 e8bd 68e2 5cbc 7e7d 363e
000002b0: 8595 e9bd 4254 fbbd 8394 a03d ce7e 3d3e
000002c0: f866 5c3e dd35 593e 3cc0 08be 7a4b 253d
000002d0: 4269 193d 8692 a53e 9609 0d3e 6229 b1bc
000002e0: 6cbb a5be 2ba0 993e 9266 fb3d 94f3 f0bd
000002f0: 40ed b1bd 7159 80be 94a6 2fbe 9e4a 613e
00000300: 95cf 32be 2499 2ebd c2e7 48be 7d01 94be
00000310: 3acd adbe 7740 0ebe 9226 293e 35a3 9e3e
00000320: 15b3 783e 8fb1 7c3d 8198 73be 34f6 45be
00000330: 36ef 863b 611c 0a3e 7945 363e 5014 25be
00000340: 621b 363e 4c47 843d 0558 8bbe e9f6 60be
00000350: 78e3 4a3e bcaf 79be 55ae 4c3e 96f1 f03d
00000360: 23d2 983e a845 283e 77f1 51be 5968 dbbd
00000370: 3d06 c53d e5a8 2abd 8c16 edbc 8cfb 103e
00000380: b3b7 99bd 4fd1 cfbd be86 95bc bb76 9d3d
00000390: a913 543e 333e 283e 4dd4 313e ddd1 933d
000003a0: 42b0 3bbd 223c ee3c cd5b 31be 5394 413d
000003b0: e0cb c63c 1b1f 81be 4512 86be e06e 2f3c
000003c0: 484a 463e c1ed 333e 8509 8f3e 5773 40bd
000003d0: 020c 8abe 1a31 1fbe b446 4f3d 78d1 643e
000003e0: cde3 623d 035a c73e 1692 a43e 1b3e dbbd
000003f0: c636 4ebe 6922 41be 02c1 c23d 2eff adbd
0.0067728166 0.050991967 -0.034610808 0.038556937 -0.006022093 0.04344353 -0.09098032 0.08384791
-0.036903024 0.07968449 -0.14413923 -0.037693713 -0.032998275 0.061659317 0.049658194 -0.029159155
-0.010473181 -0.08471885 -0.048887435 -0.04706198 -0.0350478 0.05650062 -0.0229143 -0.043923534
-0.004436752 0.046259817 0.12203352 -0.05402727 0.072528146 0.06840763 0.013428984 -0.091190435
-0.072121195 0.087042026 0.060321387 0.073777825 0.04588692 0.12523708 0.0006202556 -0.08352101
0.05876037 0.06270951 -0.041408915 -0.085931376 -0.053287182 -0.019619348 -0.0897004 0.02602524
-0.057453193 -0.042401005 0.090791486 -0.034131657 -0.030655883 -0.05704116 0.022280352 -0.06954888
-0.042479046 -0.03712219 -0.02923248 -0.02433619 0.0075607095 0.07789558 0.017883066 0.0250535
0.037937347 0.0055035576 -0.050936665 0.1006261 0.04713634 -0.05484172 -0.05632338 0.0053023375
0.011877302 0.07982438 0.041796204 0.03255789 -0.0549465 0.05652684 -0.061497368 0.04394127
0.015495566 0.023417776 0.07178506 0.08966067 0.07093291 -0.07632743 0.004378989 0.030681893
-0.13848159 -0.051025074 0.044623002 0.026753029 -0.0715183 0.06416503 0.07239009 -0.025841266
0.11695422 0.022027427 0.061798982 0.10498323 0.02035313 -0.0551783 -0.0759444 0.055407133
-0.15418264 0.06578655 -0.035504058 -0.08999222 0.0032370049 0.02527806 -0.041894205 -0.02186544
0.023628155 0.08712982 -0.058696683 -0.003029238 0.030623915 -0.039277695 -0.13147655 -0.10514428
-0.024102565 0.082523786 -0.109759 -0.044344835 0.052753594 -0.09840931 0.00039323745 -0.022189293
-0.05830934 0.1798419 0.21935211 -0.19220145 -0.026117323 -0.26185152 -0.098694414 -0.19642265
0.116856955 -0.3324337 0.24381396 0.17537427 -0.048238266 -0.0136143835 0.21123865 0.122495174
0.14799556 0.2782469 0.1173228 -0.14453173 -0.43335 -0.090813346 -0.1613188 0.19437964
0.10075791 0.24522461 -0.18718804 -0.21827374 0.0013084585 0.20417084 0.22374396 0.10136842
0.052368313 0.16694632 -0.0875064 -0.17877153 0.05537447 0.2364005 0.071506694 -0.020458283
-0.016725311 -0.11356691 -0.013481714 0.17821309 -0.11405472 -0.1227193 0.07840826 0.18505403
0.21523654 0.21211953 -0.13354582 0.040355183 0.037453897 0.3233835 0.13773188 -0.021626178
-0.32369554 0.3000501 0.12275423 -0.11765209 -0.0868783 -0.25068238 -0.17153388 0.2200112
-0.17461999 -0.042626515 -0.19619659 -0.28907385 -0.33945638 -0.13891779 0.1651862 0.30983892
0.24287064 0.06169277 -0.23788644 -0.193322 0.0041178716 0.13487388 0.17799939 -0.1612103
0.17783883 0.06458911 -0.2721559 -0.21969189 0.19813335 -0.24383444 0.19988377 0.11764829
0.29847822 0.16432822 -0.20502268 -0.10713262 0.096203305 -0.041664977 -0.028941415 0.14158458
-0.07505741 -0.10147344 -0.018252727 0.07688662 0.20710625 0.16429977 0.17366143 0.072177626
-0.04582239 0.029081408 -0.17320175 0.047260594 0.024267137 -0.25219044 -0.26185814 0.010707587
0.19364274 0.17571165 0.2793695 -0.046984997 -0.26962286 -0.15546075 0.050604537 0.22345531
0.05539303 0.3893586 0.32142705 -0.10705205 -0.20138082 -0.18860783 0.095094696 -0.08495937

GRU/quant_dense_11/LastValueQuant/FakeQuantWithMinMaxVars__732 f4 [32, 1]
00000000: bbe4 9f3e eb67 78be 7f50 ab3d d8e9 813e
00000010: 3621 6a3e 14c3 0e3e f678 14be 5057 033e
00000020: cb93 cd3d 546b e4bc ca4e b5be 43bc 363d
00000030: 90ff 583e 52e1 33be dc42 fb3c 18d7 efbd
00000040: 14c3 8e3e 320d 893d 23e8 8b3e 059e 91be
00000050: bbe4 9f3c dc42 fbbc ad49 53be acbf 223e
00000060: 52e1 b3be 18d7 6f3d 9f24 563e 43bc 363c
00000070: f678 143e 3621 6a3e 90ff 583e 4546 673e
0.31229195 -0.24258392 0.08364963 0.2537372 0.22864231 0.13941604 -0.14499268 0.12826276
0.10037955 -0.02788321 -0.35411674 0.044613134 0.2119124 -0.17566422 0.03067153 -0.11710948
0.27883208 0.0669197 0.27325544 -0.28440872 0.019518247 -0.03067153 -0.20633574 0.1589343
-0.35132843 0.05855474 0.20912407 0.0111532835 0.14499268 0.22864231 0.2119124 0.225854

GRU/quant_dense_10/LastValueQuant/FakeQuantWithMinMaxVars__731 f4 [32, 32]
00000000: d195 20be 748c 163e bae0 f0bd 694b ac3e
00000010: 171d 56bb d12f 6abe 694b acbe bae0 70bd
00000020: a391 773e 8ba8 34be 4688 6dbe 0034 933d
00000030: 51fc b23e ba79 82be e87e 63bd bae0 f03d
00000040: bae0 f0bd 0001 b83e 0034 93bd d12f 6abe
00000050: a391 773e 46bb c83d 7459 3b3d 8b42 7ebd
00000060: dd70 d4be e8b1 3ebe a32a 09be 5d3d 9d3e
00000070: 171d 563b d195 203e 4688 6dbe d195 20bd
00000080: d195 a03d 8ba8 b4bd 1783 8cbd a3c4 523e
00000090: ba13 4cbe d162 453e 2ed2 85bd 3ae0 94be
000000a0: 8bdb 8fbe ba13 4c3e 46bb 483d e87e 63bd
000000b0: 7459 3bbd 00ce dc3d 46bb 48be 46ee 233e
000000c0: 2ed2 053e 7459 bbbd 1750 b13e 46bb 483e
000000d0: 171d d63c 1783 0cbe 7459 3bbd 2e6c cf3d
000000e0: 0001 383e a3f7 ad3e 171d d6bc ddd6 8abe
000000f0: 4688 6d3e d195 a03c 8ba8 343e 8bdb 0fbe
00000100: 2e9f 2abe 1783 8c3d f425 84be 171d 563c
00000110: 8ba8 343e 46bb 48bd d162 45be 171d 563c
00000120: 5d3d 1d3e 46bb 48be a3c4 52be 8bdb 8fbe
00000130: 5d3d 1dbe 2ed2 85be 8ba8 34be e87e 63be
00000140: 7459 3b3e 697e 87be e9e4 19be a3f7 adbd
00000150: 5d3d 1d3e 694b ac3e bae0 f03d 2e39 74be
00000160: 8b42 fe3d 748c 163e a3c4 523e 8b42 7ebd
00000170: 5dd7 66be ba79 023e 5dd7 66be 2391 9bbe
00000180: a3f7 2d3d d162 45be a391 77be d12f ea3d
00000190: 46ee 23be a3f7 2dbd 5d0a 423e 8bdb 0fbe
000001a0: 2e39 743e 2ed2 853c ae38 98be f425 84be
000001b0: 2e39 74be 171d 56be 0034 93bd 46bb 483d
000001c0: bae0 f0bc d12f eabd 171d d63c d12f 6a3e
000001d0: e9e4 193e bae0 f03c dda3 af3e 2e9f aa3e
000001e0: a391 773e 171d d6bc a391 f7bd a3f7 adbd
000001f0: 171d d63b 5d3d 9d3e a32a 09be 2ed2 85bd
00000200: e8b1 3ebe 46bb 48bd e87e e3bd 2ed2 053e
00000210: 8b42 fe3d 2ed2 853e 7459 3b3e e8b1 3ebe
00000220: 2ed2 05be 46bb 483e 5dd7 66be 7459 bbbd
00000230: 171d d63c 46ee 23be 46bb c8bd 1783 8c3e
00000240: 8bdb 8f3e 7426 60be 171d 563b bae0 f0bc
00000250: 171d 563b 8b75 593e 748c 96be e87e 63bd
00000260: a391 f7bd 1750 31be e8b1 3ebe ba13 4cbe
00000270: ba79 02be 8b42 7ebd bae0 703e 697e 873e
00000280: 8b42 7ebd 171d 563d 46bb 48be e87e 633d
00000290: 2e6c 4f3e a3f7 2dbd 1783 8cbd e9e4 993d
000002a0: d195 a03e e8b1 3ebe 8b42 febd 697e 873e
000002b0: 748c 96be 0034 933d 7459 bb3c 8ba8 b43d
000002c0: 1783 0cbe 8ba8 343e 00ce 5c3e 46bb 483e
000002d0: a32a 09be f425 843e 5d0a 423e d162 453e
000002e0: e87e 633e f4f2 a83e 1750 31be 5d3d 9d3e
000002f0: 46bb c8bd d195 a0bd 4688 6d3e 0000 0000
00000300: 171d 563d e8b1 3e3e d162 45be 171d d6bb
00000310: 2ed2 853e 7459 bb3c bae0 70bd ddd6 8a3e
00000320: dda3 af3e 0b42 a23e 5d3d 1dbe 2e6c cfbd
00000330: 2e9f 2a3e 7459 3b3d 46ee 233e 17ea 7abe
00000340: bae0 f0bd a391 f73d d12f 6abe 697e 873e
00000350: 7459 bbbd 2ed2 053d 8b42 7ebd 0034 933d
00000360: 0034 933d 8b42 7ebd a3f7 2dbe ddd6 8a3e
00000370: 8ba8 34be 171d 56be 7459 3bbd bae0 70be
00000380: 46bb c83d bae0 f0bc f425 843e ba46 a7bd
00000390: 171d d6bc 46bb c83d bae0 70bd d195 203d
000003a0: a32a 093e a391 773e 171d d63b 8ba8 b43d
000003b0: 8bdb 8fbe f425 84be 2ed2 05be 7426 60be
000003c0: ba13 4cbe 7459 3bbe 00ce dc3d 7459 3bbd
000003d0: 5dd7 663e 2ed2 05bd 8b75 59be 2ed2 053e
000003e0: 512f 8ebe bae0 f03d 5d3d 1d3e 171d d63b
000003f0: 0000 0000 2ed2 05be bae0 f0bd 809a a53e
-0.1568215 0.14702016 -0.11761613 0.33651283 -0.0032671147 -0.22869803 -0.33651283 -0.058808066
0.2417665 -0.17642419 -0.23196515 0.071876526 0.34958127 -0.25483495 -0.05554095 0.11761613
-0.11761613 0.35938263 -0.071876526 -0.22869803 0.2417665 0.098013446 0.045739606 -0.06207518
-0.41492358 -0.18622553 -0.13395171 0.3071088 0.0032671147 0.1568215 -0.23196515 -0.039205376
0.07841075 -0.088212095 -0.06860941 0.20582823 -0.199294 0.19275977 -0.06534229 -0.2907732
-0.28097185 0.199294 0.049006723 -0.05554095 -0.045739606 0.10781479 -0.19602689 0.16008863
0.13068458 -0.09147921 0.34631416 0.19602689 0.026136918 -0.13721882 -0.045739606 0.101280555
0.17969131 0.33977994 -0.026136918 -0.27117053 0.23196515 0.019602688 0.17642419 -0.14048593
-0.16662285 0.06860941 -0.25810206 0.013068459 0.17642419 -0.049006723 -0.19275977 0.013068459
0.1535544 -0.19602689 -0.20582823 -0.28097185 -0.1535544 -0.26136917 -0.17642419 -0.2221638
0.18295842 -0.2646363 -0.15028729 -0.084944986 0.1535544 0.33651283 0.11761613 -0.23849937
0.12415036 0.14702016 0.20582823 -0.06207518 -0.22543092 0.12741747 -0.22543092 -0.30384168
0.042472493 -0.19275977 -0.2417665 0.114349015 -0.16008863 -0.042472493 0.18949266 -0.14048593
0.23849937 0.016335573 -0.29730743 -0.25810206 -0.23849937 -0.20909534 -0.071876526 0.049006723
-0.029404033 -0.114349015 0.026136918 0.22869803 0.15028729 0.029404033 0.34304705 0.3332457
0.2417665 -0.026136918 -0.12088325 -0.084944986 0.0065342295 0.3071088 -0.13395171 -0.06534229
-0.18622553 -0.049006723 -0.1110819 0.13068458 0.12415036 0.26136917 0.18295842 -0.18622553
-0.13068458 0.19602689 -0.22543092 -0.09147921 0.026136918 -0.16008863 -0.098013446 0.27443764
0.28097185 -0.21889669 0.0032671147 -0.029404033 0.0032671147 0.21236245 -0.29404032 -0.05554095
-0.12088325 -0.17315708 -0.18622553 -0.199294 -0.12741747 -0.06207518 0.23523226 0.2646363
-0.06207518 0.052273836 -0.19602689 0.05554095 0.20256111 -0.042472493 -0.06860941 0.07514364
0.313643 -0.18622553 -0.12415036 0.2646363 -0.29404032 0.071876526 0.022869803 0.088212095
-0.13721882 0.17642419 0.21562958 0.19602689 -0.13395171 0.25810206 0.18949266 0.19275977
0.2221638 0.3299786 -0.17315708 0.3071088 -0.098013446 -0.07841075 0.23196515 0.0
0.052273836 0.18622553 -0.19275977 -0.0065342295 0.26136917 0.022869803 -0.058808066 0.27117053
0.34304705 0.31691012 -0.1535544 -0.101280555 0.16662285 0.045739606 0.16008863 -0.2450336
-0.11761613 0.12088325 -0.22869803 0.2646363 -0.09147921 0.032671146 -0.06207518 0.071876526
0.071876526 -0.06207518 -0.16988997 0.27117053 -0.17642419 -0.20909534 -0.045739606 -0.23523226
0.098013446 -0.029404033 0.25810206 -0.08167787 -0.026136918 0.098013446 -0.058808066 0.039205376
0.13395171 0.2417665 0.0065342295 0.088212095 -0.28097185 -0.25810206 -0.13068458 -0.21889669
-0.199294 -0.18295842 0.10781479 -0.045739606 0.22543092 -0.032671146 -0.21236245 0.13068458
-0.27770475 0.11761613 0.1535544 0.0065342295 0.0 -0.13068458 -0.11761613 0.32344437

GRU/quant_dense_10/BiasAdd/ReadVariableOp:0 f4 [32]
00000000: cb59 74bc e236 1bbd 729a 9c3d 50e7 363d
00000010: 9ecc 883d 2993 bc3c 4595 2dbd 0202 d23c
00000020: c294 41bb 0346 80bd a221 a3bc 6619 00be
00000030: d144 6d3d f473 cdbd 098f 90bd 8e9c 57bd
00000040: 5b42 4d3d eddb 043d db5c 4abb 0985 74bd
00000050: 3bc1 a9bd 326c 6fbd 016f 95bd 58ba 76bd
00000060: e5ef 5ebd 151a 85bc 9b38 49bd 65a0 b5bc
00000070: 7842 80bc 261a f53c 292e b93b 7ac8 91bc
-0.014913986 -0.037894137 0.076466456 0.04465419 0.06679653 0.02301939 -0.042378683 0.025635723
-0.002953813 -0.06263354 -0.019913498 -0.12509689 0.057926957 -0.10031882 -0.07058532 -0.052639537
0.05011211 0.0324363 -0.00308781 -0.059697185 -0.08288809 -0.058452792 -0.07296563 -0.060236305
-0.054428 -0.016247788 -0.04912625 -0.022171209 -0.015656695 0.029919695 0.0056512547 -0.01779579

B__772 f4 [1, 192]
00000000: 561a 1dbe 1382 64bd 49d7 ccbd a2e4 123d
00000010: a234 37be 3bce c93c b5b3 a3bd 9cdb c73c
00000020: a0c6 2bbe cd5c 36be f38f 9e3c 5ccf 08bd
00000030: d426 d3bd e2c0 f23c a383 2dbe 251d 283e
00000040: 834e 22be dbfe 01bd 2d10 02bd c3c5 dd3d
00000050: 6067 1ebe c1e7 bcbd 1059 b2bd 8972 d23d
00000060: badf b7bd c22f 11be dd64 be3d 528b bdbd
00000070: 7fa6 93bd 0719 1dbd 3968 23be 7a4f 2ebe
00000080: 2e9e 83bd 70de 6abd 5e8d cfbc 8e0e c5bc
00000090: a011 893c 260c aabd e3a3 9cbd 97d5 4b3d
000000a0: 331e 403c d19b a13c e624 96bd be24 45bd
000000b0: c4c7 02bd e57c 183d cd33 81bc db4d c4bd
000000c0: c7a1 a83d 305e 78bd 5913 b6bc 80f5 0ebd
000000d0: 54db 43bd 2825 89bd ab0d 92bd e3c7 f8bd
000000e0: 5d0a 8bbd 071f b83c 2b63 29bd 0e3f 0a3d
000000f0: 4ef5 6ebc ca8e e13c 6a27 59bd f232 37bc
00000100: 683f 973d ace9 04bd acd1 b73d dd66 73bd
00000110: 644a 613d e3dc 97bd 3a15 d3bc 5993 14bd
00000120: 7cd8 09bd e855 0abc eda6 61bc 233a 173d
00000130: 3c4f 8d3d aab8 4ebd 2c36 88bd 12e4 053d
00000140: c5f2 ee3b eae2 7a3d 5c02 993d 4668 983c
00000150: 234b 8d3c af94 d23d 76e6 163d 67b7 b83b
00000160: 8255 72bb 1e51 44bd f358 df3b d431 35bd
00000170: 0732 843d 39c9 c2bc 2b6d 32bd df1f 783d
00000180: 561a 1dbe 1382 64bd 49d7 ccbd a2e4 123d
00000190: a234 37be 3bce c93c b5b3 a3bd 9cdb c73c
000001a0: a0c6 2bbe cd5c 36be f38f 9e3c 5ccf 08bd
000001b0: d426 d3bd e2c0 f23c a383 2dbe 251d 283e
000001c0: 834e 22be dbfe 01bd 2d10 02bd c3c5 dd3d
000001d0: 6067 1ebe c1e7 bcbd 1059 b2bd 8972 d23d
000001e0: badf b7bd c22f 11be dd64 be3d 528b bdbd
000001f0: 7fa6 93bd 0719 1dbd 3968 23be 7a4f 2ebe
00000200: 2e9e 83bd 70de 6abd 5e8d cfbc 8e0e c5bc
00000210: a011 893c 260c aabd e3a3 9cbd 97d5 4b3d
00000220: 331e 403c d19b a13c e624 96bd be24 45bd
00000230: c4c7 02bd e57c 183d cd33 81bc db4d c4bd
00000240: c7a1 a83d 305e 78bd 5913 b6bc 80f5 0ebd
00000250: 54db 43bd 2825 89bd ab0d 92bd e3c7 f8bd
00000260: 5d0a 8bbd 071f b83c 2b63 29bd 0e3f 0a3d
00000270: 4ef5 6ebc ca8e e13c 6a27 59bd f232 37bc
00000280: 38a5 993d 89f7 04bd 7a95 ba3d add7 47bd
00000290: 5abd 683d 65cf 94bd ccee eebc c1e3 1cbd
000002a0: 9dd5 f7bc afd5 07bc f341 23bc b106 0c3d
000002b0: 1e92 7d3d 75c0 44bd 232d 72bd 5d6a 2e3d
000002c0: 0f2e 783b f5f9 903d 9587 8b3d 420b cc3c
000002d0: 63ac 7a3c c4bc cb3d e15d 0d3d ca2d f33a
000002e0: 0b03 a0ba b4b4 3bbd 74bf 583b 2946 42bd
000002f0: 407e 6d3d 35c5 d8bc 7759 05bd f03c 8d3d
-0.15342078 -0.05578811 -0.10002 0.035862572 -0.17891172 0.024634471 -0.07993261 0.02439671
-0.16774988 -0.17808838 0.01935575 -0.03340088 -0.1031014 0.02963299 -0.16944747 0.16417368
-0.15850262 -0.03173719 -0.031753708 0.10828736 -0.15469122 -0.09223891 -0.087083936 0.10275752
-0.08978219 -0.14178374 0.09296582 -0.09255089 -0.07209491 -0.038353946 -0.15957727 -0.17022505
-0.06426655 -0.05734104 -0.025335964 -0.024054792 0.016732037 -0.083030984 -0.076484464 0.049764242
0.01172595 0.01972762 -0.073312566 -0.048130743 -0.031928793 0.037228484 -0.01577177 -0.09585162
0.082339816 -0.0606367 -0.022226023 -0.034902096 -0.04781659 -0.0669654 -0.07131513 -0.121475
-0.06789086 0.022475732 -0.04135434 0.03375154 -0.014584852 0.027533907 -0.053016104 -0.01118158
0.07385141 -0.03244941 0.089755386 -0.05942427 0.055002585 -0.07415178 -0.025766958 -0.036273334
-0.03365372 -0.008443333 -0.013772708 0.036920678 0.068998784 -0.050469078 -0.066509575 0.032688208
0.007292124 0.06125156 0.07471153 0.018604409 0.017247742 0.102822654 0.03684088 0.0056370976
-0.0036977236 -0.047928922 0.0068160235 -0.044236973 0.064548545 -0.023777591 -0.043561142 0.06057727
-0.15342078 -0.05578811 -0.10002 0.035862572 -0.17891172 0.024634471 -0.07993261 0.02439671
-0.16774988 -0.17808838 0.01935575 -0.03340088 -0.1031014 0.02963299 -0.16944747 0.16417368
-0.15850262 -0.03173719 -0.031753708 0.10828736 -0.15469122 -0.09223891 -0.087083936 0.10275752
-0.08978219 -0.14178374 0.09296582 -0.09255089 -0.07209491 -0.038353946 -0.15957727 -0.17022505
-0.06426655 -0.05734104 -0.025335964 -0.024054792 0.016732037 -0.083030984 -0.076484464 0.049764242
0.01172595 0.01972762 -0.073312566 -0.048130743 -0.031928793 0.037228484 -0.01577177 -0.09585162
0.082339816 -0.0606367 -0.022226023 -0.034902096 -0.04781659 -0.0669654 -0.07131513 -0.121475
-0.06789086 0.022475732 -0.04135434 0.03375154 -0.014584852 0.027533907 -0.053016104 -0.01118158
0.07502216 -0.03246263 0.09110542 -0.04878967 0.056821205 -0.0726612 -0.029166602 -0.03830314
-0.030253226 -0.008290692 -0.009964454 0.03418607 0.061906926 -0.048035104 -0.059125077 0.042581905
0.003786925 0.070789255 0.068129696 0.024907712 0.015299889 0.099481136 0.034513358 0.0018553075
-0.0012207938 -0.04582663 0.00330731 -0.04743019 0.05798173 -0.026461223 -0.032556023 0.068963885
