models/station_15/model_latest.onnx (onnx, 407794 bytes, 12 tensors)

W__2577 f4 [1, 96, 64]
000000 74 5d 97 bd 73 f4 81 be e9 c8 0c 3e c8 ce 52 be
       -0.07390872 -0.25381812 0.13748516 -0.20586693
000010 78 8d e3 3e 7e 8a a6 bd 29 10 84 be 55 96 09 be
       0.4444387 -0.08131884 -0.2579358 -0.13436253
000020 fa 95 89 be 9d f1 0c be 88 9f 5e 3e 4e a8 01 bd
       -0.26872236 -0.13764043 0.21740544 -0.03165465
000030 21 d7 4c 3d be 0a 59 3c a9 5c cb 3c e6 90 0e 3d
       0.05000985 0.01324719 0.024824457 0.034806155
000040 4c ee 80 3e 61 b9 04 3e 20 cd f4 3d 34 5b f0 3d
       0.25181806 0.12961341 0.11953187 0.117361456
000050 8c 5f 9a bc 3a 9b c2 3d f9 9d 0a bd ee 10 a4 be
       -0.018844388 0.09502263 -0.03384206 -0.32044166
000060 56 67 c9 3d d6 b1 62 be d2 ee 9a 3d 87 b6 57 bd
       0.09834163 -0.22138152 0.075650826 -0.052664306
000070 89 92 c0 3d 6c 47 c6 3d 86 6e 33 bd f8 33 11 3e
       0.09402949 0.096815914 -0.043806575 0.14179981
000080 dc 44 03 bd 84 fc c3 bb cb f4 b2 bd 18 5d 21 bd
       -0.03204809 -0.00598103 -0.08738097 -0.03939542
000090 20 15 78 3b d5 cc 08 bc 19 a2 b9 bd 67 bd 60 be
       0.0037854388 -0.008349617 -0.09064121 -0.21947251
0000a0 0a 5a 2c be 0b 4e 72 be c1 fd 94 3e ac bb d7 3d
       -0.16831222 -0.23662584 0.2909985 0.105338424
0000b0 60 38 28 bd 02 34 6e be 23 fe 20 be 94 de 31 bd
       -0.04106939 -0.23262027 -0.15721945 -0.043425158
0000c0 a6 28 f8 bd a0 61 27 be bd c7 f6 3b b1 b2 13 3e
       -0.12117128 -0.16345835 0.007531135 0.14423634
0000d0 c4 2a 4e 3c 60 84 05 3e 0d 54 b8 be 0b 44 a0 bd
       0.012583438 0.13038778 -0.36001626 -0.07825478
0000e0 75 ef 7f 3d c0 dd 95 be a6 10 07 bd 12 05 40 be
       0.062484223 -0.29270744 -0.03297486 -0.18751934
0000f0 9f 8b 57 3d 76 8b a2 bd c5 cf 1e 3e e1 9c 3b bc
       0.052623387 -0.07936756 0.15508945 -0.011450977
000100 69 b3 00 3e 36 ef 40 3d 2f ab a0 3d df 8b a0 3d
       0.1256844 0.04710313 0.07845151 0.07839178
000110 3b dc 0c be 34 1d 64 bd 78 c8 38 be 22 07 bb bd
       -0.13755886 -0.055691913 -0.18045223 -0.0913222
000120 e6 83 fb bc d9 91 53 be 4c cb 15 bc 51 3a 91 3e
       -0.030702543 -0.20661105 -0.009142708 0.28364804
000130 4b 87 7e 3d 8d 76 35 3e f2 cb 0d 3d 26 c8 06 3e
       0.062140744 0.17721005 0.034618326 0.13162288
000140 2c 11 f8 3d a1 d2 70 be d8 df ff 3d 8c e7 03 3d
       0.1211265 -0.23517849 0.12493867 0.032203242
000150 82 6a 53 be 1a 20 80 3e 2b af bd be fd ce 81 bd
       -0.20646098 0.25024492 -0.37047705 -0.06338308
000160 57 b0 1c 3e 73 df d8 bd 8d c7 01 be a1 fe 9e bd
       0.15301643 -0.105894946 -0.12673779 -0.0776341
000170 ce 0d ed bd 8c fd 07 3e 15 51 15 3e 21 2f 98 bc
       -0.11574899 0.13280314 0.14581712 -0.01857716
000180 6f 50 eb bd 8c 14 64 3c ca f4 0a 3c b8 f2 d9 bb
       -0.11489951 0.013920914 0.008481214 -0.006651249
000190 8d 48 92 3d 8a 72 2b 3e 95 b1 28 be 7e c1 55 be
       0.07142744 0.16742912 -0.16473992 -0.20874593
0001a0 09 83 cb bd ac f8 44 be 62 bd b5 bd e8 7f 91 3c
       -0.09937102 -0.19235486 -0.088740125 0.017761186
0001b0 d2 b8 ec 3d a9 1a 36 3e 2b 28 4e be af 81 71 3e
       0.11558689 0.17783608 -0.2013251 0.23584627
0001c0 ca 16 63 3e a7 5f 0e 3e e7 9c 74 3e 05 3a 13 bd
       0.22176662 0.13903676 0.23887978 -0.035944004
0001d0 71 a8 97 bb 96 da 0d 3e 82 ec ad bd 69 2d a4 3e
       -0.004628234 0.13852915 -0.08492376 0.32065895
0001e0 f6 b8 2a 3e fe 86 90 bc 6b 07 eb 3d cc 26 8c 3b
       0.1667212 -0.017642494 0.11476024 0.004277086
0001f0 96 c7 14 bd 6a 17 1e 3d 30 96 75 be 6a 9d 1a be
       -0.036323152 0.03859655 -0.23983073 -0.15099111
000200 37 3c 43 3d a2 4e 5a 3e 1a 2e fc bd c6 c0 ce 3c
       0.047664847 0.21319059 -0.12313481 0.025238406
000210 fe 28 c9 3c e9 74 7a be a3 d3 ef 3d 87 09 fd 3c
       0.02455568 -0.2445866 0.117102884 0.030888332
000220 d5 3f 85 3e 03 87 16 3d 9c a5 16 3d f4 2b cd 3d
       0.26025262 0.03674985 0.03677903 0.10018149
000230 56 0f 58 be b7 0c 75 bd 3c 67 17 3e 8a 66 cb 3d
       -0.210996 -0.05982658 0.14785475 0.09931667
000240 c7 81 6d be 85 39 44 bd 2c ba 84 be 0d 27 3d 3e
       -0.23194037 -0.047906417 -0.25923288 0.18471928
000250 a3 ec 28 3d ea 3e 5b be bd a7 43 3e fd 45 9d 3d
       0.0412413 -0.21410719 0.19106956 0.07679365
000260 0c 10 59 3e ec 06 77 3e 3f 7c bf 3d cd 03 88 bc
       0.21197528 0.24123734 0.0934987 -0.016603375
000270 95 c0 01 3e 60 4c 97 bd 6e cd 2a 3e 85 7f 8a be
       0.1267112 -0.07387614 0.16679928 -0.27050415
000280 11 c1 56 be 37 6e c1 bd 13 fc 70 3d 8a d9 0d bd
       -0.20972086 -0.0944485 0.058834147 -0.03463129
000290 fc 36 31 bd 4d e8 4e 3e f6 35 c6 bc 7d 13 59 3e
       -0.043265328 0.20205803 -0.024195652 0.2119884
0002a0 5a ec 6c bd 06 35 a0 3e 5a 7a 77 3d 90 49 80 bd
       -0.05784259 0.31290454 0.060419418 -0.06264031
0002b0 8a 14 ad bd 4d f1 15 be 3a 29 23 be 27 ec d7 3d
       -0.08451183 -0.1464283 -0.15933695 0.10543089
0002c0 63 c8 7f bd 15 98 bc 3c 5b 97 83 bc c6 c8 0c be
       -0.062446963 0.023021737 -0.016063383 -0.13748464
0002d0 42 7d 3f be 82 54 91 be a9 ff 11 bc 4c 76 96 bd
       -0.18700126 -0.28384787 -0.008911052 -0.07346782
0002e0 5e f9 98 3e 8d 50 12 3e e4 43 9e bd 04 32 81 3d
       0.29877752 0.1428854 -0.07727793 0.06308368
0002f0 df 1c ce bd 3b 6f 4a 3d ac 16 59 bd d9 93 2c 3e
       -0.100641005 0.049422484 -0.053000137 0.16853274
000300 32 80 1a be 1a 01 4e 3d 9f e4 23 be fe c4 2c bd
       -0.15087965 0.05029402 -0.16005181 -0.042180054
000310 f5 ac e7 bd bd 2a 29 3e a3 b5 13 be 38 d2 af 3d
       -0.11312286 0.1652021 -0.14424758 0.08585018
000320 c7 66 d9 bd 54 0e 53 3d 3a 0a 84 be 8a d1 a3 3d
       -0.10615306 0.051527336 -0.25789052 0.07998951
000330 6b 59 49 be 27 0e 4c 3e 77 8e ff 3d 7c bd 67 3d
       -0.19663016 0.19927274 0.12478345 0.05657719
000340 ca fb ab 3d 1e 77 d5 bc e7 c6 ba 3c ea 1a 82 3d
       0.08397634 -0.026057776 0.022799922 0.0635279
000350 9d 4e 07 be 08 45 26 3e 89 97 79 be 4b 9f ef bc
       -0.13213582 0.16237271 -0.24374212 -0.029250761
000360 c4 6f 98 3d 13 f4 6a bc 9a 71 57 be df 36 ce 3d
       0.074431926 -0.014340418 -0.2103943 0.100690596
000370 44 ce 06 be 02 58 a5 bc 10 54 d2 bc 13 8d 06 3e
       -0.13164622 -0.020183567 -0.02567485 0.13139753
000380 6d ae 8e 3c 56 48 c8 3d d0 19 d3 bd 38 aa c4 bd
       0.017417157 0.09779422 -0.10307658 -0.09602779
000390 01 8e 88 b9 80 b8 5f bd c3 12 68 3e bf 70 27 3e
       -0.00026045743 -0.054619312 0.22663407 0.16351603
0003a0 20 31 cf 3d 24 a3 57 3e 44 c6 06 3e fa 52 d4 3d
       0.10116792 0.21058327 0.1316157 0.10367389
0003b0 7c 9b 65 bd ed fd 5e 3e 95 49 9a bd 35 f0 46 3e
       -0.056056485 0.21776552 -0.07533566 0.19427569
0003c0 ec 78 fb bc 7f e0 08 3e 98 33 bb bc 84 52 21 3e
       -0.030697308 0.13366888 -0.02285175 0.15754133
0003d0 68 6e 96 3d 68 30 4c 3e e5 20 2f bb d1 61 cd 3d
       0.07345277 0.1994034 -0.0026722488 0.100284226
0003e0 61 fa 23 3e d1 31 ed bd a6 6a 1c 3e 6a 82 39 3d
       0.1601348 -0.11581767 0.15275058 0.04529039
0003f0 ae 18 97 3d 11 0d e9 bd 8e 37 eb bd fe 3b 03 3e
       0.07377754 -0.11379445 -0.114852056 0.12815854

W__2563 f4 [1, 192, 128]
000000 94 9c 19 3e 1f b5 20 3e d6 6d ac bd 07 21 e8 3d
       0.15001136 0.15694092 -0.08419387 0.113344245
000010 60 bd 2c be 53 3a cf bc 94 ba 29 be 0d 63 1c 3e
       -0.16869116 -0.025296366 -0.1657508 0.1527216
000020 2a 7b 86 3e c4 25 30 3e 51 d1 7e 3e ce f4 ec bc
       0.26265842 0.17201906 0.24884535 -0.028925326
000030 4b 3e 99 bd 8e b8 de bd ce aa a9 3d 22 2e b3 3d
       -0.074825846 -0.10875045 0.082845315 0.087490335
000040 3e 36 70 3d 8f f9 89 3e 1a 8f 80 bd 2e c4 23 bc
       0.05864548 0.2694821 -0.062772945 -0.009995503
000050 a2 9c fd bd 7d b3 56 3b eb 1e be bd 4e 41 46 3e
       -0.12383391 0.0032760792 -0.09283241 0.1936085
000060 8d 76 a1 3d d8 31 51 bb 26 07 8a 3e fd 52 eb 3d
       0.0788394 -0.0031920578 0.2695858 0.11490438
000070 f9 45 c4 3d 1c 28 9b 3d 5c 8a 69 be c9 79 16 be
       0.09583659 0.0757601 -0.22806686 -0.14694895
000080 61 02 82 3d 29 50 2a 3d 0c b1 d8 bd c2 d0 bc 3d
       0.0634811 0.041580353 -0.10580644 0.09219505
000090 ac 01 98 3d bb 00 96 3e 22 5a 00 3e 80 05 9b bd
       0.07422194 0.29297432 0.12534383 -0.075694084
0000a0 ce 4e 9d bd 9f a8 25 3e 5c a5 3d 3e 80 98 66 3e
       -0.076810464 0.16177605 0.18520111 0.22519112
0000b0 bc 92 71 3d 98 50 12 3d 92 0e 09 3e 4f fa 87 3d
       0.058977827 0.03572139 0.13384464 0.066395395
0000c0 97 ca c1 3e f3 75 d8 3c 86 87 0e be 9c 49 80 bc
       0.37849876 0.02642343 -0.13918886 -0.0156601
0000d0 a7 f8 d0 bd 68 b7 b5 be 8c 9a b2 3c 68 bc bf 3b
       -0.10203677 -0.3549149 0.02180221 0.005851317
0000e0 5b 3d 2c be a6 58 27 3e 48 f0 f6 bd 45 67 2b 3e
       -0.1682028 0.1634241 -0.12057549 0.16738613
0000f0 1f c9 c0 bd 1d d6 25 bd fd 40 38 3e c9 e5 74 3d
       -0.09413361 -0.040487397 0.17993541 0.059789453
000100 4d d5 05 3e 0d 06 e1 3d 65 1e 59 bd 1d 58 c7 bd
       0.13069649 0.10987482 -0.053007502 -0.09733603
000110 14 83 e5 bc 32 eb 32 bd 2d 80 25 3e 8d 72 d5 bd
       -0.028016604 -0.04368133 0.16162176 -0.104222395
000120 4c 77 cf 3d d9 95 86 be ad c0 18 3d 7e 5a 07 3c
       0.10130176 -0.262862 0.037293125 0.008261321
000130 b4 0e 24 3e 58 98 0c 3e ca 02 cf 3c 30 b7 37 3e
       0.16021234 0.1372999 0.025269885 0.17940974
000140 d7 aa 0c 3d d1 37 e6 3d 32 fc 0c be ae be 98 3d
       0.034342613 0.11241115 -0.1376808 0.07458244
000150 af 12 24 3e 42 29 04 be 43 11 1b 3d 8b 0e 89 3e
       0.16022752 -0.12906364 0.03785826 0.26768908
000160 18 df df bd 91 29 b4 3e 83 a0 f0 3d e5 0a fc bc
       -0.10931224 0.35187963 0.11749365 -0.030766914
000170 43 d4 1b bd 31 45 52 bd 53 e3 7e be 09 b3 a3 bd
       -0.038044225 -0.051335517 -0.24891405 -0.079931326
000180 f1 26 7e 3e 31 75 22 bd c5 c1 c5 3d 2e cd 21 3e
       0.24819542 -0.039662544 0.09656099 0.15800926
000190 af e2 84 3d 70 5c ca 3d 31 90 4b 3d 2f 10 44 bc
       0.06488549 0.09880912 0.04969806 -0.011966749
0001a0 44 f2 ce bd 16 aa 26 be 8a cd 2b bd d0 41 24 be
       -0.10104802 -0.1627582 -0.041944064 -0.1604073
0001b0 24 81 d5 3b 28 1c 71 3d c0 9c 8c 3c 18 00 5a 3d
       0.006515639 0.058864743 0.017164588 0.053222746
0001c0 0d 20 1e bf b3 83 a5 bd 77 20 c2 bd 31 23 2a 3d
       -0.61767656 -0.0808176 -0.094788484 0.041537467
0001d0 ca 22 b7 be c4 5d 55 be 29 ae 4d be 91 ce e1 bd
       -0.3576873 -0.2083655 -0.20085968 -0.110257275
0001e0 ea f1 a3 3d 8f e7 b1 be d4 ba 06 3d ca d0 5b 3e
       0.08005126 -0.34746978 0.032893017 0.21466365
0001f0 aa fb 0a be 23 20 a3 3d 3e ff c1 bd c5 c6 8d be
       -0.13572565 0.07965114 -0.09472512 -0.27690712
000200 92 ca 61 3c ce 59 96 bd bf b3 be 3b 83 f4 fe bc
       0.013781207 -0.07341348 0.0058197672 -0.031122452
000210 9e ec 3f 3e e6 d4 c2 3d 4e b7 f0 bc d5 c4 93 bd
       0.18742606 0.095132634 -0.029384281 -0.07215277
000220 6a 70 63 3e 3c 10 84 bd 98 6d 2d be 95 92 44 3e
       0.22210851 -0.06448409 -0.16936338 0.19196542
000230 e3 41 26 3e 8e 9b c5 3a 67 7d a6 3d ef 39 2d be
       0.16236071 0.0015076266 0.08129387 -0.16916631
000240 47 cc ca bd 5d a5 d2 3d 3a 0d cb 3d 26 a2 f2 39
       -0.09902244 0.10285447 0.09914632 0.00046278647
000250 7f 1a 51 bd 1a 38 f0 bd ee a1 89 3e 36 39 36 be
       -0.05105066 -0.117294505 0.26881355 -0.17795262
000260 f4 4f f6 3d ee 6b 12 3e 1e af 29 bc ac 39 45 3d
       0.120269686 0.14298984 -0.010356693 0.048150703
000270 6e c1 1e be a4 63 4c 3e 2a 32 f3 3b 70 22 59 3d
       -0.15503475 0.19959885 0.0074217515 0.053011358
000280 d5 02 4a 3d 86 92 1b be fa e5 88 be f6 28 42 be
       0.049319107 -0.15192613 -0.26737958 -0.18960938
000290 c0 8c a6 bd 9a 2a f3 3b ec d2 e6 bd 37 7f ac bb
       -0.08132315 0.00742085 -0.11270699 -0.0052641886
0002a0 6d e2 61 bd 8e e3 71 3d f4 f3 40 be ef 23 82 bd
       -0.055147577 0.059054904 -0.1884306 -0.0635451
0002b0 f1 aa fd 3d 1a 4b 32 3c da 27 46 3d cf 9b 91 bd
       0.1238612 0.010882163 0.04837785 -0.07109796
0002c0 31 c8 17 3d ee 8d a5 bd 7d f3 3a bd 52 a3 c1 3c
       0.03705615 -0.080837116 -0.045642365 0.023637448
0002d0 67 dc 63 bd 8c 07 44 3e 4d eb 87 3e 8c bd 12 bd
       -0.055630114 0.19143504 0.26546708 -0.035825297
0002e0 43 8c 37 bd 4e df c4 3c 30 62 45 bd 0a 79 a7 3c
       -0.0448115 0.024032261 -0.048189342 0.020443458
0002f0 66 3e 0a bd f0 7a b4 bc 8d 7a 81 3d e1 f2 13 3e
       -0.033750914 -0.022031277 0.06322203 0.1444812
000300 c2 08 a8 bd 5b be 5b be 08 76 7b bb d5 fb 44 be
       -0.082047954 -0.21459334 -0.0038369913 -0.19236691
000310 aa 9e 3c bd 7b 48 15 3d 1b 64 b2 bc 78 f5 9a ba
       -0.04604975 0.036446076 -0.02177625 -0.0011822423
000320 62 33 a6 3d 87 1d 84 be 10 2e e4 3d bb 04 f1 bd
       0.08115269 -0.25803778 0.11141598 -0.117684804
000330 db 2f 74 3c e0 d1 d5 3d 45 7e b3 3b 4a 9a 04 bc
       0.014903988 0.10440421 0.005477699 -0.008093426
000340 b0 5a 81 bb 6a c9 bc bd 06 a7 18 be 81 ab 07 be
       -0.0039475784 -0.09218104 -0.14907464 -0.13249017
000350 c0 66 8a bd ab f4 e1 bd 3d a1 bd bd 68 7a 04 be
       -0.06757879 -0.11032995 -0.092592694 -0.1293732
000360 db 10 fa 3d 2d 2a de 3d 6e 9f a1 3d ae 28 2b 3d
       0.12210246 0.10847888 0.07891737 0.041786842
000370 6b 42 10 be a3 76 bb bd e9 67 c7 bd 4e f8 af bd
       -0.14087836 -0.091534875 -0.09736616 -0.08592282
000380 b4 1e 51 bd 1f a6 bf 3d a9 73 27 be 4d d1 ba 3d
       -0.05105467 0.09357857 -0.16352715 0.09121952
000390 8a c2 82 be e7 da 56 bd 07 8e 1e be 77 39 a7 be
       -0.25539047 -0.052454855 -0.15483867 -0.3266103
0003a0 fc a1 3b be e8 d8 9d bd ef b5 37 bd 03 b7 e9 3c
       -0.18323511 -0.07707387 -0.04485124 0.02852965
0003b0 6c 78 0a 3d 1e 1d 36 bd fe f8 57 3e 49 e5 b8 bc
       0.03380625 -0.044461362 0.21091077 -0.02257027
0003c0 ac d4 fc bc 7c 17 03 be 09 f4 7c 3c 6f 23 8f 3d
       -0.030863129 -0.12801927 0.015439042 0.0698918
0003d0 f7 d3 95 3d 1b 9e 00 3e f3 ad 3c 3c 3e 22 b5 3d
       0.0731582 0.12560312 0.011516082 0.08844422
0003e0 7c a2 bc bd 83 4c 80 3d 11 e4 69 3d fe 85 63 bd
       -0.09210679 0.062645935 0.057102267 -0.055547707
0003f0 7c 69 99 3d 97 14 a6 bd ff 3f f6 3d ca 0d b8 39
       0.07490823 -0.08109396 0.12023925 0.00035105488

W__2550 f4 [1, 384, 6]
000000 01 bd b5 be 8c b9 4d be a8 06 2b be 44 47 30 be
       -0.3549576 -0.20090312 -0.16701758 -0.17214686
000010 bd 19 85 bd 01 39 4b bd 24 0f b9 be 11 89 8a be
       -0.0649905 -0.04961491 -0.36144364 -0.27057698
000020 02 f0 a0 be b0 da 3b be 0f 93 c6 be 3f fd 25 be
       -0.3143311 -0.18345141 -0.38784072 -0.16209887
000030 1a 2c 07 3d 8f 1f 44 3d 3f 06 5a 3e 42 4f b0 3c
       0.033001043 0.04788166 0.21291445 0.021522168
000040 64 f3 78 3d d5 2d a4 ba 51 c4 5c 3b 39 7d 41 be
       0.06077899 -0.0012525866 0.003368635 -0.18895425
000050 27 d7 b3 bd 80 e3 3e bd f9 ff 03 bd 87 4e 9c 3d
       -0.087812714 -0.04660368 -0.032226536 0.076321654
000060 50 dd 30 3d ab 0f 26 3c 05 73 a1 bd 9c cb 19 3d
       0.04317981 0.0101355715 -0.07883266 0.037547693
000070 01 1b 91 3d 62 71 94 3d 01 d7 b8 be d1 15 12 3e
       0.07085229 0.072481886 -0.36101535 0.14266135
000080 6d 54 a3 bd 51 18 91 3c 67 5d 9e 3d f8 c7 0c bd
       -0.07975087 0.01771179 0.07732659 -0.034370393
000090 24 86 ab be 8c 2c c6 bd b9 b7 11 be e2 45 94 be
       -0.3350078 -0.096764654 -0.14230241 -0.28959566
0000a0 13 ec 10 be 81 ec a3 bc 28 5c 3a be 29 f9 81 3d
       -0.14152555 -0.020010235 -0.18199217 0.06346352
0000b0 12 4b 94 3d 69 db b2 bd 24 01 3f 3d 77 0a d8 3d
       0.07240881 -0.087332554 0.046631947 0.10548871
0000c0 61 ba 3d bd 45 c0 fc 3d c1 66 2f 3d c3 e8 ab 3d
       -0.046320323 0.1234136 0.042822603 0.08394005
0000d0 65 c8 33 3d e1 d1 0e be 90 11 0c be 85 9e 2b 3d
       0.043892283 -0.1394725 -0.13678575 0.041899223
0000e0 50 3b 60 be dc d9 39 3c 12 ea 89 3c 54 e7 db 3d
       -0.21897626 0.011343446 0.016835246 0.10737482
0000f0 cc 13 5b bd ab 6d 5d be 8a 87 0e be 03 98 9e bd
       -0.053485677 -0.21623866 -0.13918892 -0.07743838
000100 a2 70 2f be 96 d3 12 3e 49 29 c1 be 02 56 06 be
       -0.1713281 0.14338526 -0.3772681 -0.13118747
000110 e4 75 22 be 9e 9b 00 be 58 19 b9 bd 39 23 a2 bd
       -0.15865284 -0.12559363 -0.09038037 -0.079168744
000120 2d e4 4c 3e aa 41 5a 3e 3b 62 6a 3e 79 c0 7e 3e
       0.20008917 0.21314111 0.22889034 0.2487811
000130 45 cf bd 3d af 7a b0 3d a0 2d fc 3c 81 2e b5 bc
       0.09268049 0.0861715 0.030783474 -0.022116901
000140 57 0a 2c be de c9 38 be d1 ff 03 be 71 89 24 bd
       -0.1680082 -0.18045756 -0.12890555 -0.040170137
000150 a9 df 26 be 94 f8 bd bd d1 a9 5a bb 43 d5 3d be
       -0.16296257 -0.09275928 -0.0033365379 -0.18538384
000160 c5 1a 88 be 12 01 30 3d ab 62 2f be e0 ca f0 bc
       -0.26582924 0.04296977 -0.17127483 -0.029393613
000170 ef aa 8f 3c 1d 4f 1f be 29 6e a5 bd 2c 2e 3b 3e
       0.017537562 -0.15557523 -0.08077652 0.18279332
000180 43 3c 26 be 96 d7 6d bd 28 fb 7a be ac bc 82 be
       -0.16233926 -0.058066927 -0.24509871 -0.2553457
000190 8f 5c 37 bd 99 d6 85 bd 50 b5 73 bd 83 48 31 be
       -0.044766005 -0.06535072 -0.059499085 -0.17312817
0001a0 00 26 8e be e1 49 89 bd 89 3c 94 3d 42 78 22 3e
       -0.27763367 -0.067035444 0.07238109 0.15866187
0001b0 bb 17 90 bd 32 5e 80 3d 5c 95 3b bc 45 37 3a bc
       -0.07035776 0.06267966 -0.011449184 -0.011365716
0001c0 ed 8a c5 3d 40 5a 29 be 4c 2f 3b be 8c 47 d1 bd
       0.096456386 -0.16538334 -0.18279761 -0.102187246
0001d0 b0 df 79 be e2 9b 27 be 14 98 43 be e8 d3 07 3e
       -0.24401736 -0.16368058 -0.19100982 0.1326443
0001e0 a1 65 8c 3d ac 71 a5 bd 20 d5 f1 bc a7 90 b3 bd
       0.06855322 -0.08078322 -0.029520571 -0.087678246
0001f0 61 16 e2 bd 52 16 1f 3c f3 fc da bd f1 c9 92 be
       -0.11039425 0.009709911 -0.106927775 -0.28669694
000200 40 21 ce bd d1 ff 82 be 58 ef 5b be ea 77 90 3d
       -0.10064936 -0.25585797 -0.21478021 0.07054122
000210 b9 1b e2 3c d4 83 58 be 53 d0 93 be 5d df 9b be
       0.02760111 -0.21144038 -0.28869876 -0.3044385
000220 45 dc ee bd 60 f9 a6 3d a8 98 83 be 20 21 29 3c
       -0.11663107 0.08153033 -0.25702405 0.010322839
000230 53 fe 53 bd 1e f8 2d be c0 48 98 bc 6c 49 ed bd
       -0.051756214 -0.1698918 -0.018589377 -0.1158627
000240 4f c9 43 bd 8f 97 a9 bc ff 87 a4 bd b5 c1 eb 3c
       -0.047799405 -0.020702152 -0.08033752 0.02877889
000250 53 cd a6 bd 70 8f 1e be 61 02 a6 be 51 e8 35 be
       -0.08144631 -0.15484405 -0.3242369 -0.17764403
000260 f3 95 fa bc e4 7c ad bd 66 ab e1 3c db 6d 82 3e
       -0.03058908 -0.084710866 0.02754755 0.25474438
000270 56 a0 31 bd 2e 5d 1f be f0 ff 23 bc f6 c6 0f be
       -0.0433658 -0.15562889 -0.010009751 -0.14040741
000280 5b fc 6a bd ac c5 ce bd d4 50 44 bc 8a 3e 18 3e
       -0.05736957 -0.10096297 -0.011982162 0.14867607
000290 62 08 1b 3d a1 3e 18 3e 5d 3c 35 3d 4d 6d c9 bd
       0.03784979 0.14867641 0.04424702 -0.098353006
0002a0 42 a5 48 be ff 02 75 be 63 64 c3 bd 3a 2e ac be
       -0.19594291 -0.23926924 -0.095406316 -0.33629018
0002b0 c2 31 2d be 33 21 03 bd 69 82 07 be 73 29 2d be
       -0.16913512 -0.032014083 -0.13233341 -0.16910343
0002c0 53 80 91 bd 7a a2 50 bd 27 42 ea bd 1f 86 ae 3d
       -0.07104554 -0.0509362 -0.11438399 0.08521675
0002d0 d7 df 12 be 86 7a 19 be 38 8e 35 be 80 8a 2b be
       -0.143432 -0.14988145 -0.17730033 -0.16752052
0002e0 a1 1a 9d 3c bd 80 77 bd 24 fe bc be a9 29 3a be
       0.019177737 -0.06042551 -0.36912644 -0.18179955
0002f0 db b3 3d be 58 01 9e be 22 92 7c be 92 50 86 bd
       -0.1852564 -0.308604 -0.2466512 -0.06558336
000300 05 7c 35 be 89 40 7e bd 6e 69 1c be e2 a0 05 be
       -0.17723091 -0.062073264 -0.15274593 -0.13049653
000310 23 15 d3 bc ae e9 6d be 45 67 6c bd 14 f1 2d be
       -0.025766915 -0.23233673 -0.057715673 -0.16986495
000320 05 86 e3 bd 59 25 1e be 5c 0c 2b be 7a a8 c9 3c
       -0.111095466 -0.15443935 -0.16703933 0.024616469
000330 20 a7 4f bd 81 6e be 3d ac 47 53 3d 7e 94 cd bd
       -0.050696492 0.09298421 0.051582024 -0.10038088
000340 c5 f3 a7 3d 02 61 ff 3c 43 14 9e be e9 96 7f be
       0.08200792 0.031174187 -0.30874833 -0.24959911
000350 ba 31 ad be c7 2c 18 be e7 f9 41 be 48 01 d8 bd
       -0.33827 -0.14860831 -0.18942986 -0.105471194
000360 78 60 a7 be ac 68 65 be ea cb d6 bc 07 db 54 be
       -0.32690787 -0.2240321 -0.02622028 -0.20786677
000370 b5 c9 8e be 67 23 ec 3d 45 40 28 be 3a fc 03 3e
       -0.27888265 0.1153019 -0.16430767 0.12889186
000380 eb 8e 16 be 2c 38 d0 bd 09 8d e1 bd 43 52 fd bd
       -0.14702956 -0.10166964 -0.110132284 -0.12369206
000390 66 68 b0 be e5 63 59 be 8f b8 d6 be d3 db 9d be
       -0.3445465 -0.21229513 -0.41937682 -0.30831775
0003a0 11 47 a0 be 0e 58 57 be 2e 7c 42 3e 4a 97 ba 3c
       -0.3130422 -0.21029684 0.18992683 0.022777218
0003b0 61 41 f6 3c 12 13 a3 3c 82 16 32 3e bc 9e 5f bd
       0.030060472 0.019906554 0.17391399 -0.05459474
0003c0 b2 4d 65 be 78 59 68 be 4f eb b3 bd 12 2d 80 bd
       -0.2239292 -0.2269038 -0.08785116 -0.062585965
0003d0 ac 62 9c bd b6 ec 7a bc 2e 54 44 be a7 7b 05 be
       -0.07636008 -0.015315225 -0.19172737 -0.13035451
0003e0 71 70 3a bd 9d 71 f7 bd b2 43 30 3d 27 2c 7a 3e
       -0.04551739 -0.12082217 0.04303331 0.24430905
0003f0 21 9d 4b be ec 0e c3 bc 0c b2 62 bd b9 56 21 3d
       -0.19884159 -0.023810826 -0.05534558 0.039389346

R__2578 f4 [1, 96, 32]
000000 21 24 b4 3d 16 25 45 be d7 f1 6e 3d 13 68 9b 3e
       0.087959535 -0.19252428 0.058336105 0.3035284
000010 b0 59 a1 be 14 7e 2b be 36 36 2a be 23 a7 90 be
       -0.3151374 -0.16747314 -0.16622242 -0.28252515
000020 b2 70 a0 bd c2 0e 51 3e 5c bb 10 be 4f 8d c7 bd
       -0.07833995 0.20415786 -0.14133972 -0.09743749
000030 4d 80 58 be 53 40 de 3d 08 39 c6 3e 9c 05 e8 bd
       -0.21142693 0.108521126 0.38715386 -0.11329195
000040 36 ac 8e bd 62 67 70 be 2f ba 9f be 33 b9 3f be
       -0.069664404 -0.23476937 -0.31196734 -0.18722992
000050 6a d1 8c 3e 9c 16 06 be 75 c1 08 be 09 cf ef 3d
       0.2750352 -0.13094562 -0.13355048 0.11709411
000060 77 9c 05 be 7f 31 5b be 8e 0d 9c bd 7c 88 ca 3d
       -0.13047968 -0.214056 -0.07619773 0.098893136
000070 f3 b1 69 3e 99 bf 23 3e d6 cb 08 be 2c 40 52 3d
       0.22821788 0.15991057 -0.13359007 0.05133073
000080 65 cb e2 3d 57 d8 a3 3d 6b be 2f 3e 3a 1d 82 3e
       0.11073951 0.08000248 0.17162482 0.25412923
000090 be d5 0a be 56 81 6c 3c e3 98 2b 3d 63 5e 4c 3d
       -0.13558099 0.014435133 0.04189385 0.0498947
0000a0 95 f6 a3 3d b0 3f 5f 3d d5 df 03 3d 35 da 30 3e
       0.08006016 0.054504097 0.032195885 0.1727074
0000b0 75 aa c2 bd d4 40 b2 bd 19 4d 5f bd e7 26 21 bd
       -0.09505168 -0.08703771 -0.054516885 -0.03934374
0000c0 95 10 28 3e 4d 43 fb bb 52 b0 37 3e 94 af 2c 3e
       0.16412576 -0.007667935 0.17938355 0.16863853
0000d0 47 e9 f4 bd 58 a5 f9 3d 9e a7 d3 3d f4 37 0f 3e
       -0.119585566 0.1218974 0.10334705 0.13986188
0000e0 25 34 16 3e b8 e3 de bd be c0 1a bd 93 d7 37 3d
       0.14668329 -0.10883278 -0.03778147 0.044883322
0000f0 cb 3b 14 3e 6b 5f 89 3c e9 e0 35 3e 37 96 61 3d
       0.14475934 0.016769132 0.17761578 0.055074897
000100 a5 37 88 bd ad 59 2f 3e c5 b6 6b be 04 3c 71 bb
       -0.06651238 0.17124052 -0.2301894 -0.0036809454
000110 87 a9 ee bc fe cc 7d 3e 24 e7 d3 3d 4c 7a 67 3c
       -0.029133571 0.2478523 0.10346821 0.014128279
000120 d5 3b 83 be a6 72 6e be 92 46 61 3e 6e 50 d6 3d
       -0.25631586 -0.23285922 0.21999577 0.104645595
000130 6c c2 f5 3d be 1b 5e be 39 20 cd bc fa f5 7e 3e
       0.11999974 -0.2169027 -0.025039779 0.2489852
000140 3d cf 9d 3d 6d 2f 47 3e 63 86 0d bc a0 a8 40 3e
       0.07705543 0.19451685 -0.008637997 0.18814325
000150 8c da 52 bd 23 e1 36 3d 3f 6c c7 bd b1 db 80 3d
       -0.051477954 0.0446483 -0.09737443 0.06291903
000160 14 9e d5 3c 47 88 45 3e 9a c0 6c 3e 56 3f c9 bd
       0.026076354 0.19290267 0.23120347 -0.098265335
000170 de 6b d4 bd 96 70 7f bd 73 f1 35 3d 40 d0 89 be
       -0.103721365 -0.06236323 0.044419717 -0.26916695
000180 15 7a 53 bd 52 a0 4e bd 64 6c 54 3d 30 2d 2d bd
       -0.0516301 -0.050445862 0.05186118 -0.042279422
000190 41 2d 8c 3e ff 06 b7 bd 9d 82 07 3d b3 02 47 3d
       0.27378276 -0.08936881 0.033083547 0.04858656
0001a0 33 ac af bd ce d0 0f bc eb 85 ea bd 64 4d 10 bd
       -0.08577766 -0.00877781 -0.11451324 -0.035230055
0001b0 61 1d 80 bc 22 ec c5 3d 22 a8 81 3d db 2a 2f 3e
       -0.015639009 0.096641794 0.06330897 0.17106192
0001c0 da 11 30 bd b8 cd b0 bd c2 a4 0c 3e d7 67 7d 3d
       -0.042985775 -0.08632988 0.13734725 0.061866608
0001d0 6a bb 7e 3b 3d d2 f2 3d e7 f2 75 be f8 d6 50 3e
       0.0038869032 0.11856506 -0.24018441 0.20394504
0001e0 8b 3a 4b be 09 22 7d bc cd 25 fe 3c 39 9e ab bc
       -0.19846551 -0.015450009 0.031023884 -0.02094947
0001f0 8d fc 7e 3d 7e 8a 77 3e b4 84 b0 3c ff d8 90 3c
       0.06225257 0.24173924 0.021547653 0.017681597
000200 27 97 9d 3e 7f 35 15 3e 72 30 28 bd e8 7c 48 be
       0.30779383 0.14571188 -0.041061826 -0.19578898
000210 7e 53 86 bd 9f dc ec 3d 44 d9 cf 3c 30 74 47 3a
       -0.065588936 0.11565518 0.025372155 0.0007608561
000220 96 81 32 be c3 70 61 be 0f b0 c9 3d 5e d3 62 bb
       -0.17432246 -0.22015671 0.09848034 -0.0034610848
000230 61 ff 0a 3d 13 93 d0 3b 74 9e ac 3d c8 1c 85 3e
       0.033934955 0.006365189 0.0842866 0.2599852
000240 34 25 81 3e 4c 31 2e 3d 40 e4 53 3e 2d 01 95 3d
       0.25223696 0.042527482 0.20692539 0.07275615
000250 c5 b7 c6 3d 01 a1 b1 3e a6 54 99 bb 07 eb 82 bd
       0.0970302 0.3469315 -0.0046792803 -0.06392484
000260 92 0e 70 ba 58 5a aa bc af 3d 91 3e 91 e8 85 be
       -0.00091574446 -0.020795032 0.28367373 -0.26153997
000270 d2 42 3c 3b ea 5d 34 bd ce 6f 2b be 3a a3 bc be
       0.0028726351 -0.044034876 -0.16741869 -0.36843282
000280 b2 97 16 be e0 da 2e bd ff a4 33 be 86 80 00 3d
       -0.14706305 -0.042689204 -0.1754341 0.03137257
000290 2e 44 7b 3d a1 8b 63 3e e7 00 bb bd 37 e0 d2 bb
       0.061344318 0.22221233 -0.091310315 -0.00643542
0002a0 17 eb a9 bd dc 52 95 3d 3f a0 37 be de 80 23 3e
       -0.08296793 0.07291195 -0.17932223 0.15967128
0002b0 2c 71 75 bc 15 d1 3b be 35 de 8c bc cf a6 24 3e
       -0.014980596 -0.18341477 -0.0171958 0.16079257
0002c0 c5 20 67 be 10 3e e3 3d b7 34 8d bd 67 03 15 3d
       -0.22571094 0.11095822 -0.0689482 0.036380198
0002d0 df 07 9e 3d 44 38 fb 3c 97 40 1c be 0c ac c7 bd
       0.07716345 0.030666478 -0.15259014 -0.09749612
0002e0 23 c8 ac 3d c9 e7 c1 3b 81 92 22 3e 91 43 c0 3d
       0.084366105 0.0059175235 0.158762 0.09387887
0002f0 e4 cb 25 3e d5 f4 a2 bd ca 03 63 bd 84 a7 8e bb
       0.1619106 -0.07956854 -0.055423535 -0.0043534655
000300 5a 2d 08 3e d1 7a 95 3d 08 3f d9 bc e8 9e a1 bd
       0.1329855 0.07298816 -0.026519313 -0.07891637
000310 f5 73 04 bd 5f 77 b6 be e8 c7 32 be 71 0e f3 3c
       -0.032337148 -0.35637948 -0.1745907 0.029669972
000320 e7 67 83 bd b0 b8 7f 3e 68 3f fa bd d1 3f a0 be
       -0.06416302 0.24972796 -0.12219125 -0.31298688
000330 2c 9d a4 be 12 b1 97 3b c0 2e 10 3d d1 d5 ea 3c
       -0.32151163 0.0046292627 0.035200834 0.028666409
000340 eb 84 ad be 34 d3 4e be 5b d4 90 be 18 2d 4a 3d
       -0.3389047 -0.20197755 -0.28287014 0.04935941
000350 18 ee 91 3c 95 1d b1 bd e7 a2 05 be cc 38 0d be
       0.017813727 -0.086482204 -0.13050424 -0.13791198
000360 dc aa bc bd 22 cc c6 3d 5e 03 23 3c 96 cf 95 3d
       -0.09212276 0.09706904 0.009949533 0.073149845
000370 d7 a6 ca 3d 04 e6 59 3c c6 88 82 bd 92 46 e5 3c
       0.098951034 0.013299469 -0.06373744 0.027987752
000380 a6 b9 30 bd 26 e2 b5 3d 8b 40 89 be cd 4e be bd
       -0.0431458 0.08881025 -0.26807055 -0.09292374
000390 17 2d 04 3d 7d 75 ef bb 07 2b 02 be 63 b8 5f 3e
       0.032269564 -0.007307707 -0.12711726 0.21847682
0003a0 3b 7c e9 3d b9 99 04 be af 2e 51 be 42 51 09 bc
       0.11400648 -0.12949266 -0.20427965 -0.00838119
0003b0 1a 07 3c 3e ff e3 91 3d 21 87 1d bd 9a e4 c6 bd
       0.18362084 0.07123565 -0.038458947 -0.09711571
0003c0 25 06 6a 3e d1 d0 bf bc 40 2f b0 3d 9c 42 c3 3d
       0.22853906 -0.023415001 0.08602762 0.09534189
0003d0 05 e1 ef bd 40 54 b3 3d c6 02 e0 be 30 da ee 3d
       -0.11712841 0.08756304 -0.43752116 0.1166271
0003e0 2e 9b 15 be b5 d5 06 3d 15 db d6 bc c2 46 b5 bc
       -0.14609978 0.03291865 -0.026227513 -0.022128467
0003f0 55 1a 42 3d 23 4d 44 3d 4b 77 e2 3d 08 dc 18 3e
       0.047388393 0.047925126 0.110579096 0.14927685

R__2564 f4 [1, 192, 64]
000000 83 55 c9 3d e4 d6 24 3d 36 ff 9d 3d 59 7b 62 bc
       0.09830763 0.040244 0.07714693 -0.013823354
000010 df 49 e4 ba 7e c9 be bd df 7f 1a be ba 4d db bd
       -0.0017417035 -0.09315775 -0.15087841 -0.107081845
000020 01 e0 af 3d a8 34 9b 3d eb b6 94 bc a6 7a 83 bd
       0.08587647 0.07578403 -0.018153628 -0.06419878
000030 46 69 f4 3d c5 f2 b5 3d 33 ab a8 bd d2 4f 0a ba
       0.11934142 0.08884195 -0.08235779 -0.00052761764
000040 e3 12 a1 3a 61 97 ad 3c 0b 84 97 3d 0a 63 17 3e
       0.0012288954 0.021190347 0.07398232 0.14783874
000050 a4 34 4e bd 30 2d 2d 3e f3 28 8c 3d f1 8d ff bb
       -0.05034317 0.16911769 0.06843748 -0.007798903
000060 6d ea 6c 3e ea 76 a8 3d ab 3e 26 3e ad 1f 5f bd
       0.23136301 0.08225806 0.16234843 -0.054473568
000070 e3 79 95 3d 33 1d ba 3c d5 1d 4b be c4 78 90 3a
       0.07298639 0.022719001 -0.19835599 0.0011022319
000080 ee fb 12 3e e7 e6 b1 bd 52 43 06 be f6 b2 b1 3d
       0.14353916 -0.08686619 -0.13111618 0.08676712
000090 db c7 8e 3e 81 c8 8e 3c a1 34 e4 bb e4 39 89 3c
       0.27886853 0.017429592 -0.0069642817 0.016751237
0000a0 5d d1 41 bd fe 05 5c be b5 38 8f 3c 3a 3b 94 bd
       -0.047318805 -0.21486661 0.017483095 -0.07237859
0000b0 5a 2c 00 3e bb 07 01 be 4f b3 82 bc 17 8e 26 be
       0.12516919 -0.12600605 -0.015954642 -0.1626514
0000c0 03 d5 64 bd 27 3d a4 3d 49 37 ed 3d cc cc 7b bd
       -0.055867206 0.080194764 0.115828104 -0.061474606
0000d0 4b 0a 50 3e 13 9e 80 bd e6 3b f6 3b 42 ef 2c 3e
       0.20316426 -0.0628015 0.0075144647 0.16888145
0000e0 d4 6e 04 3e b0 1a 05 bd 8b aa 24 bd 42 b1 dc bd
       0.12932903 -0.032496154 -0.040201705 -0.10775997
0000f0 d2 49 63 bb 10 40 aa bd 20 79 ae bd 18 10 f2 bd
       -0.0034681452 -0.08313 -0.085191965 -0.11819476
000100 81 14 36 bc 83 ec 76 3e 1b a1 66 be 5e 44 e0 3d
       -0.011113287 0.2411366 -0.22522394 0.1095054
000110 8b 77 d7 be 87 84 ce bd da 3f 8c bb 2b bd 06 be
       -0.42083392 -0.10083871 -0.0042800726 -0.131581
000120 cf 55 3f 3e a2 9c 85 be de d6 8c 39 e9 85 d4 3d
       0.18685077 -0.26096064 0.0002686297 0.10377104
000130 ab 21 fe bc f4 fa b0 3d 28 33 23 3e b5 18 f0 3b
       -0.031021914 0.086416155 0.15937483 0.007327164
000140 53 1c 06 bd 85 d8 27 be b8 1a 4c 3d fa 8e 6b 3e
       -0.032741856 -0.1639119 0.04983017 0.2300376
000150 5c 7f 66 3d 78 78 65 be 7b e7 fb 3b 83 4e c1 3d
       0.056273803 -0.22409236 0.0076875067 0.09438803
000160 35 f9 e5 3d 81 49 55 3d 51 3a 94 3d ff 8d b3 bc
       0.11229173 0.052072052 0.072376855 -0.021918295
000170 c3 ae bf 3d 6a 30 3f 3c cd 73 b7 3d 40 27 87 be
       0.09359505 0.011669258 0.08957634 -0.26397133
000180 e0 40 02 3c 35 37 bc bd 3a 31 16 bc 59 46 52 3e
       0.007950038 -0.091902174 -0.00916701 0.20534648
000190 28 8f 95 3d 4b a8 0b 3e 2f 99 6b be 28 8f 98 3d
       0.073026955 0.13638417 -0.23007654 0.0744918
0001a0 98 72 73 3e c8 7e 2e be 0b 19 33 bd b0 98 ab bd
       0.23774183 -0.1704055 -0.043725055 -0.08378732
0001b0 79 ca 23 bd 63 f4 dd bb b9 20 59 3e bb 4c 53 3d
       -0.039988015 -0.006773518 0.21203889 0.051586848
0001c0 21 b9 f6 3d 89 61 8a 3d 08 3e 3d 3d ef f8 0f be
       0.12047029 0.067568846 0.046201736 -0.14059804
0001d0 bc 6e 00 bd 06 b7 b4 bd 06 fd 64 3d e5 a8 72 3e
       -0.031355605 -0.088239715 0.055905364 0.2369724
0001e0 60 da 9c 3d 29 83 35 3e d3 ad 48 3e 2c 41 fc 3a
       0.07658839 0.17725815 0.19597559 0.0019245497
0001f0 1c f8 dc bd 78 72 9a bd 89 fb e4 bb 7e c4 f9 bd
       -0.107895106 -0.075413644 -0.006987993 -0.12195681
000200 87 26 3a 3e 36 f9 3a 3e b0 c5 c6 3d 5e 43 15 be
       0.1817876 0.18259129 0.09705675 -0.1457648
000210 01 84 21 bd 9f e6 95 bd 71 4b e1 3d 57 6a 11 3e
       -0.03943253 -0.07319378 0.110007174 0.14200722
000220 61 e1 a0 bd bf d4 b7 3d 2f 85 e4 3c 06 7d 99 3d
       -0.078554876 0.08976125 0.027895538 0.074945495
000230 eb 15 15 be 6f b5 8a bd ba 4d 95 3e 4c d5 4b 3e
       -0.14559142 -0.06772887 0.29160863 0.19905585
000240 db d2 36 be 3d e7 9f be 79 eb 40 3c 87 0c 11 be
       -0.17853872 -0.31231108 0.011774891 -0.14164935
000250 3e a0 4f 3d b4 73 cd 3c 7e ef 48 be 67 87 d5 3b
       0.05068993 0.025079586 -0.19622609 0.0065163854
000260 1d c2 ca bd e3 6e 96 bd 1d 8a 9f 3c ac 4c e1 3c
       -0.099003054 -0.07345369 0.019475037 0.02750238
000270 a6 c4 97 3e 42 de 91 bd 25 cf cf 3c 40 24 1e 3d
       0.29642218 -0.071224704 0.025367329 0.03860879
000280 ae b4 2f 3b 5a 5d b6 3d 46 a6 32 3e 54 b2 8b bc
       0.0026810574 0.08904524 0.17446241 -0.017052807
000290 05 61 8d bd 25 50 45 3e b2 82 6d be 82 b3 34 bd
       -0.06903271 0.19268854 -0.23194388 -0.044116504
0002a0 2a 27 19 be 4c 13 f4 3c c2 80 2e be 75 f7 7a bc
       -0.14956346 0.029794358 -0.17041305 -0.015317787
0002b0 d4 ed 49 3d 43 c9 0b bc b7 4c 35 bd 2b d7 25 3e
       0.049299076 -0.008531871 -0.044262614 0.16195361
0002c0 f8 41 85 bd c9 50 c3 3d 32 e7 05 bd c6 71 13 be
       -0.06506723 0.09536893 -0.03269119 -0.1439887
0002d0 a9 37 10 bd 6a 5e bb bc 20 6d 70 3d ca 4b 4f be
       -0.03520933 -0.022872169 0.05869782 -0.20243755
0002e0 f4 97 08 be 31 f2 43 3e 3a 60 2f 3c 96 bb 6e 3c
       -0.13339216 0.19135357 0.010704095 0.014571091
0002f0 ff 56 5f 3e 64 9b cb bd 81 46 9c 3d 1a a4 22 3e
       0.2181053 -0.09941748 0.07630635 0.15882912
000300 ba 1d 16 be a1 c3 bb bc d8 d6 73 3d e5 35 d8 3c
       -0.14659777 -0.022920432 0.059531063 0.026392886
000310 8b 64 3d be c4 18 a1 3d 3b 42 13 3e 12 68 d0 3d
       -0.18495385 0.07866052 0.14380734 0.101761
000320 1a a3 a7 3d e0 7f 2a 3e c0 1b d5 3c 38 90 5c be
       0.08185406 0.16650343 0.026014209 -0.2153939
000330 9c bb 9f 3e 29 52 b5 3d 76 a1 e9 bc ed 4b 5f 3e
       0.31197822 0.088535614 -0.028519373 0.21806307
000340 84 18 59 bd a3 84 dd bd 50 bc 8b 3e 8a 95 24 3e
       -0.053001896 -0.10816314 0.2729211 0.1607267
000350 51 4d 15 bd ad 50 e1 bd 0e df e4 3d 05 d1 18 bd
       -0.036450688 -0.11001716 0.11175357 -0.03730871
000360 3e 70 03 be 47 79 58 be 39 91 49 3e 46 1f 83 3c
       -0.12835786 -0.21140014 0.19684304 0.016006123
000370 b7 3b fb 3d e6 7f d6 3d ed 3e 99 bd e2 0b d7 bd
       0.12267249 0.104736134 -0.07482705 -0.10500313
000380 0c fc f7 bb 43 81 b7 3d 1d 03 12 bd 79 56 0a 3a
       -0.007567888 0.089602016 -0.0356475 0.00052771677
000390 c3 cd eb 3d 78 dd 83 3c 11 91 11 bd 20 3f 90 3b
       0.11513855 0.016096815 -0.035538737 0.0044020563
0003a0 d4 37 97 bd 1b fb 17 be eb db 4e bd 83 4e 71 3d
       -0.07383695 -0.14841883 -0.0505027 0.058912765
0003b0 08 b4 02 3e fe 42 a3 bd 18 ee 02 3d 06 9a 06 be
       0.12763989 -0.07971762 0.031965345 -0.13144693
0003c0 2a ef d9 bd 81 d6 a7 bd 55 86 79 3d 30 46 e2 bd
       -0.1064132 -0.0819521 0.060919125 -0.110485435
0003d0 c5 cd 3a 3d 4a e4 10 bd 1f d2 7f bd c2 af d7 3c
       0.045606393 -0.035373963 -0.062456246 0.026328925
0003e0 35 df 54 bd 14 6d a2 3d 30 75 1b 3e 23 13 ab bd
       -0.05197068 0.07930961 0.15181422 -0.083532594
0003f0 09 53 5a bd 40 b8 7a be 7c 2b e1 3a bf 08 a3 3d
       -0.053301845 -0.24484348 0.0017179097 0.079606526

R__2551 f4 [1, 384, 128]
000000 9e 3f 4e 3b 4d d7 82 bd ab 78 8e bd 2f 9e 0d 3d
       0.0031471024 -0.063887216 -0.06956609 0.034574684
000010 15 6d 7b bd ad 2e 1d 3e e0 91 3d 3d 22 8d 15 3d
       -0.061383326 0.15349837 0.046281695 0.036511548
000020 94 9f 46 bd 30 63 27 bd 01 cf 70 3d 6f 82 71 bd
       -0.04849203 -0.040866077 0.058791164 -0.05896228
000030 7a 47 ab 3c 1c 5b 39 be 0b d5 7e bd 12 c3 44 bd
       0.020908106 -0.18101162 -0.062214892 -0.048037596
000040 80 d7 8a bd bf 31 4e be cf f3 f3 bc 9c d9 a7 bc
       -0.067793846 -0.20136164 -0.029779343 -0.020489506
000050 0f a8 12 3c 44 36 a7 bc 3b 19 bb bd 62 b0 d2 bd
       0.008951201 -0.020411618 -0.09135672 -0.102875486
000060 81 8a 45 3d cb a9 61 bd fa 46 41 bb 00 2c 35 bb
       0.04822779 -0.055093568 -0.0029491768 -0.0027644634
000070 16 55 d4 bb b9 40 a3 3d 6d 3a 12 3e e4 63 15 3e
       -0.0064798696 0.07971329 0.142801 0.14588886
000080 57 9a 6f 3d 3b f2 05 be d8 68 e6 3b 3b ca 45 3d
       0.0584968 -0.13080685 0.0070315413 0.048288565
000090 02 c9 39 be 78 c5 0d bd 2b d0 37 3c ad 59 81 3c
       -0.18143085 -0.03461215 0.011219065 0.015789831
0000a0 9e 94 40 3d ad b2 a5 3c 3d 46 f0 3d bc ce df bd
       0.047016732 0.0202268 0.11732147 -0.10928103
0000b0 db 1e f7 3c 39 86 3d bd 8d d3 f5 3d b1 b5 5c 3d
       0.03016608 -0.046270583 0.12003241 0.053884212
0000c0 87 11 3c be 9c 4d 04 3d ba 71 23 3e 33 3b 84 3c
       -0.18366061 0.032300577 0.15961352 0.01614151
0000d0 31 61 15 be aa 91 09 3e 01 57 61 bc a8 7f 6a bd
       -0.14587857 0.13434473 -0.0137536535 -0.05725065
0000e0 8b 79 02 be 21 ad c1 3a fa d0 62 bd 97 89 af 3d
       -0.12741677 0.0014776328 -0.055375077 0.08571165
0000f0 f4 5a 60 3d b4 64 53 bd ac 53 44 3d 26 0b 30 bc
       0.05477424 -0.05160971 0.04793136 -0.0107448455
000100 a3 c1 9b 3d 8d 92 68 bc 25 b3 df 3d fd 3d 27 bc
       0.07605293 -0.014195097 0.10922841 -0.01020765
000110 66 10 ac bd 10 32 0c 3c 5c 2c ba bc 17 10 b0 bc
       -0.08401565 0.008556858 -0.02272623 -0.021492047
000120 2b 29 5e 3d 48 55 15 bd 13 a3 96 3d 2d e8 da bc
       0.05423848 -0.036458284 0.07355323 -0.026722038
000130 e9 09 b0 3d 41 bf 1a 3d bf 60 c9 bd 9c 2b 18 be
       0.0859564 0.03778005 -0.09832906 -0.14860386
000140 4e b2 06 3d 7d 03 1b bd 66 db c0 bc ab 73 be bd
       0.03288489 -0.037845124 -0.023542117 -0.09299406
000150 d9 cf 19 bd 4a 1a 3d be ff 61 36 bd 35 09 ff bd
       -0.037551735 -0.1846706 -0.04452705 -0.12452928
000160 07 e9 f3 3c 03 70 7d bd 43 43 12 bd 9a be b6 3c
       0.029774202 -0.0618744 -0.035708677 0.022307683
000170 c9 2a 67 bd 95 22 83 3d 7d 3c e9 bc 7f 47 04 be
       -0.056437287 0.064030804 -0.028471226 -0.12917899
000180 86 62 b0 bd 49 fe 19 3e 2f 32 2e bd 62 ed 02 bb
       -0.08612542 0.15038408 -0.042528328 -0.0019977917
000190 a4 5d be 38 5b fd 8f 3d 85 87 30 bc d1 96 28 bb
       9.077348e-05 0.070307456 -0.010774498 -0.002572466
0001a0 20 f2 bd bd a6 3e aa 3c dc 03 f7 3d 7c 8b 6a bd
       -0.09274697 0.020781826 0.12061283 -0.05726193
0001b0 02 75 3a bd 5a 31 a6 3d 67 cc 75 3d fd c8 df 3d
       -0.045521744 0.08114882 0.060009386 0.10927007
0001c0 94 d3 c0 3d 50 8a db bd 19 49 0e bd ca ad 45 be
       0.09415355 -0.107197404 -0.03473768 -0.19304577
0001d0 1a 03 43 3c 17 78 c2 3d e4 15 e7 3c 53 b3 3d be
       0.011902595 0.094955616 0.02820868 -0.18525438
0001e0 82 06 bf 3d d8 01 ef bc ba 7a 53 bb 1e 61 8c bd
       0.09327413 -0.029175684 -0.0032269196 -0.06854461
0001f0 5e 8c 12 3e 75 dc 0c bd 81 e3 01 3d 5b 1f ad 3b
       0.14311358 -0.03438993 0.031711105 0.005283279
000200 27 f3 93 be 77 60 a5 3d f9 52 41 be 7e 62 e3 bd
       -0.28896448 0.0807504 -0.18879308 -0.1110277
000210 8d 00 9c 3e f5 2f 09 3e 5f 82 d7 3d c5 03 cb 3d
       0.3046917 0.133972 0.10522913 0.09912828
000220 ce 21 a7 3e 11 18 cc bd 51 3d 84 be 35 60 e6 bd
       0.32642978 -0.09965528 -0.2582803 -0.11248819
000230 64 9e b8 3e d4 30 ae be a2 0a b9 be 4d cc 12 3d
       0.36058342 -0.34021628 -0.36140925 0.035839368
000240 fa d5 d2 bd 25 40 39 be bd 43 87 3e 79 6c 38 3d
       -0.10294719 -0.18090875 0.26418868 0.045025323
000250 bf 9a 28 be e0 55 35 be 04 07 50 3e 8e 48 a4 bd
       -0.16465281 -0.1770854 0.20315176 -0.08021651
000260 01 bd 77 3e 7a 2f a9 3e 8b 35 67 be 0f 3b f2 3d
       0.24193193 0.33044034 -0.22579019 0.11827671
000270 0b 99 9e bd 67 8d 32 3e 9d c3 89 3d 93 ab 05 3d
       -0.077440344 0.17436753 0.067267634 0.03263433
000280 af 38 88 3e 94 69 94 3d 53 5a 77 bd 7e dd 0c 3e
       0.26605746 0.072467 -0.060388874 0.13756368
000290 9b f8 1d 3e 20 26 a1 3e 9b a4 92 be 34 a0 f1 3d
       0.15426867 0.314744 -0.2864121 0.117981344
0002a0 bf b4 dc bd 55 e4 3f be 9f 2e 9d 3e a1 8f c3 bb
       -0.10776662 -0.18739446 0.30699632 -0.0059680496
0002b0 21 76 8c bd 76 c3 81 3c 73 b6 ca be 11 43 8e bd
       -0.06858469 0.015840273 -0.39592323 -0.06946386
0002c0 4e 34 8b bd 90 5e 46 be 2d 0d 0a 3e 17 c7 c0 bd
       -0.06797086 -0.1937201 0.13481589 -0.094129734
0002d0 8c 94 98 3d 07 11 88 3e 52 15 1e 3e ea 7c fc 3c
       0.07450208 0.2657549 0.1543782 0.030821282
0002e0 e6 32 8d bd ef 48 45 be be 45 9f be e7 a8 04 be
       -0.06894474 -0.19266103 -0.31107897 -0.12955056
0002f0 32 b3 85 be d1 b6 61 be 7a c5 02 3e 2a 45 c0 3d
       -0.26113278 -0.22042395 0.12770644 0.09388192
000300 73 8b db bb 99 c0 ba be cf f0 8a 3e ed 3c 4b be
       -0.0066999733 -0.36475065 0.27136847 -0.1984746
000310 ea 9e 72 3e ec fe 2f be d6 30 5e bd e8 2f 21 bc
       0.23693433 -0.17187089 -0.054245792 -0.009838082
000320 9f b5 9e 3e 06 b7 5e be a9 4c 80 3e 69 c6 69 be
       0.3099794 -0.21749505 0.25058487 -0.22829594
000330 65 af 1c be e4 3d 18 bc 4f 72 c5 bd cf 63 5c 3d
       -0.15301283 -0.0092921 -0.09640943 0.053806122
000340 1e ef 80 3b 3b fd 1b bd b8 a4 a4 bc 32 7e dd bd
       0.003934755 -0.038083296 -0.020098075 -0.108150855
000350 e8 30 25 3e 35 76 c1 bd f9 fb aa bc 56 04 27 bd
       0.16131938 -0.09446374 -0.020872103 -0.04077562
000360 02 d3 1c 3e 7f 60 31 3e e5 db 71 3e ed 84 93 3d
       0.15314868 0.17321967 0.2361904 0.07203088
000370 78 af 14 3e 54 58 4f be 38 77 fc 3c 89 2a c0 bd
       0.14520061 -0.20248538 0.030818567 -0.09383113
000380 af 11 16 be 3c 72 11 bd f4 7c d6 bc f4 1f 2a 3d
       -0.14655183 -0.035509333 -0.02618263 0.04153438
000390 d5 f3 a3 bd 3e 08 39 3e 63 6c 45 bd 7e f8 86 bd
       -0.08005492 0.1806955 -0.04819907 -0.06590365
0003a0 a4 56 71 be 0b 7a 8f 3d cb 18 28 be 59 24 23 3c
       -0.23568207 0.070057 -0.16415708 0.009957396
0003b0 6a 73 d8 bd fd 67 72 be 84 67 9a be 36 b3 8a 3d
       -0.105688885 -0.23672481 -0.301571 0.06772463
0003c0 4c 8e e7 3b 31 73 43 be 6f d5 3d bd 2b 0f 61 bd
       0.0070665237 -0.19086911 -0.046346124 -0.054946106
0003d0 1b 63 45 3d 4f 0e e6 3a d9 34 a7 3d 54 87 a3 3d
       0.048190217 0.0017551872 0.08164377 0.07984796
0003e0 ee 3e 09 be d3 c6 b7 bd bc 77 8a 3e 56 6f 3a be
       -0.13402912 -0.089734696 0.27044475 -0.18206534
0003f0 ad 72 f5 3d f3 c9 86 be dd 71 39 be 54 33 60 3e
       0.11984763 -0.2632595 -0.18109842 0.2189458

GRU/quant_dense_37/LastValueQuant/FakeQuantWithMinMaxVars__2539 f4 [32, 1]
000000 2b c2 87 be 00 54 02 bd 1d cf 90 bc e4 02 b5 bd
       -0.26515326 -0.03181839 -0.017676884 -0.08838442
000010 c8 87 26 3e 1d 64 b1 be e4 2c 76 3e 56 ef ee bd
       0.16262734 -0.34646693 0.24040562 -0.116667435
000020 9d 84 80 3e ac 36 d9 3d 01 e9 22 3e 56 c5 2d 3e
       0.25101176 0.10606131 0.15909196 0.16969809
000030 ab 0c 98 bd 64 e2 e5 be ab 0c 98 bd 1d cf 10 3d
       -0.07424291 -0.44899285 -0.07424291 0.03535377
000040 1d cf 10 be 56 c5 ad bd 3a 4a 1f bd 72 40 3c bd
       -0.14141507 -0.084849045 -0.038889147 -0.045959897
000050 1d f9 51 3e 8f 91 89 3d 56 5a 4e be 72 40 bc bd
       0.20505185 0.06717216 -0.20151648 -0.091919795
000060 72 ab 1b 3e 48 d2 b6 3e e4 02 b5 be e4 02 b5 3d
       0.1520212 0.35707307 -0.35353768 0.08838442
000070 9d 84 80 3e c8 b1 67 3e 56 c5 2d 3d 56 c5 2d bd
       0.25101176 0.22626412 0.042424522 -0.042424522

GRU/quant_dense_36/LastValueQuant/FakeQuantWithMinMaxVars__2538 f4 [32, 32]
000000 b3 3f 94 be a2 51 0e 3e 9c 57 8c be ae 45 12 be
       -0.2895485 0.13898328 -0.2741059 -0.14284393
000010 e7 02 7d 3e 5c 92 cd bd e7 02 fd bc 8b 69 06 be
       0.24708138 -0.100376815 -0.030885173 -0.13126199
000020 2d c2 3d 3d c5 2d 1a be ae 45 12 3e 8b 69 06 be
       0.04632776 -0.15056522 0.14284393 -0.13126199
000030 ff f1 ad 3d d0 21 9e 3d a2 51 8e be 8b 69 86 3d
       0.08493423 0.07721293 -0.27796656 0.065630995
000040 e7 02 fd 3b 5c 92 4d bd 2d c2 3d 3e d0 21 9e 3c
       0.0077212933 -0.050188407 0.18531103 0.019303232
000050 e8 09 a6 3e ff f1 2d be 39 b6 41 be c4 26 71 3e
       0.32429433 -0.16986845 -0.18917169 0.23549944
000060 96 56 61 be 39 b6 c1 3e 2d c2 3d bc a1 4a e5 3d
       -0.22005686 0.37834337 -0.01158194 0.11195875
000070 e7 02 fd bb 16 da b5 bd 0a e6 31 3e 50 9e 49 3e
       -0.0077212933 -0.08879487 0.17372909 0.19689298
000080 cb 27 9c 3e ed 03 a8 3e 39 b6 41 be 50 9e 49 3e
       0.3049911 0.32815495 -0.18917169 0.19689298
000090 2d c2 bd 3d b9 39 96 be 9c 57 8c 3e ad 3e 69 3e
       0.09265552 -0.29340914 0.2741059 0.22777815
0000a0 ff f1 2d be db 0e 79 be 44 aa 45 3e 16 da 35 be
       -0.16986845 -0.24322073 0.19303232 -0.17758974
0000b0 ff f1 2d bd d0 1a 75 3e e7 02 7d 3d ad 3e 69 be
       -0.042467114 0.2393601 0.061770346 -0.22777815
0000c0 e7 02 fd bd 5c 92 cd bd d0 1a f5 bd 5c 92 4d be
       -0.12354069 -0.100376815 -0.11968005 -0.20075363
0000d0 d0 21 9e 3e 16 da 35 be a1 4a 65 3e 91 63 88 3e
       0.30885172 -0.17758974 0.2239175 0.26638463
0000e0 73 7a d5 3d 2d c2 3d 3d 91 63 88 3e a8 4b 90 3e
       0.10423746 0.04632776 0.26638463 0.2818272
0000f0 5c 92 4d bd ae 45 12 3e 67 86 51 be 8a 62 dd bc
       -0.050188407 0.14284393 -0.20461427 -0.027024526
000100 39 b6 41 3e a2 51 8e be d0 1a 75 3e a1 4a 65 be
       0.18917169 -0.27796656 0.2393601 -0.2239175
000110 44 aa 45 3e 5c 92 cd 3d 73 7a 55 be 39 b6 41 be
       0.19303232 0.100376815 -0.20847492 -0.18917169
000120 73 7a 55 be b9 32 ed bd bf 33 98 be 2d c2 3d bd
       -0.20847492 -0.1158194 -0.2972698 -0.04632776
000130 e7 02 7d bb a8 4b 90 be 44 aa 45 be b9 32 ed 3d
       -0.0038606466 -0.2818272 -0.19303232 0.1158194
000140 7f 75 82 3e ad 3e 69 be 96 5d 8a be b9 39 16 3e
       0.25480267 -0.22777815 -0.27024525 0.14670457
000150 96 5d 8a be b9 39 96 3e 7f 75 02 be 96 5d 0a be
       -0.27024525 0.29340914 -0.12740134 -0.13512263
000160 e8 09 a6 bd 50 9e c9 3e dc 15 22 3e e7 02 fd bb
       -0.08107358 0.39378595 0.15828651 -0.0077212933
000170 a2 51 0e bd 8a 62 5d 3e 96 5d 0a be 7f 6e 59 be
       -0.03474582 0.21619621 -0.13512263 -0.21233557
000180 8a 62 5d 3d 2d c2 bd 3d b9 32 ed bd d0 21 1e 3e
       0.054049052 0.09265552 -0.1158194 0.15442586
000190 8a 62 5d 3e 8a 62 dd bd d0 1a 75 be a2 51 0e be
       0.21619621 -0.108098105 -0.2393601 -0.13898328
0001a0 2d c2 bd 3d 7f 75 02 be 8b 69 86 3d 8b 69 86 be
       0.09265552 -0.12740134 0.065630995 -0.26252398
0001b0 d0 1a f5 3d b9 32 6d 3d 2d c2 bd 3c d0 21 1e 3d
       0.11968005 0.0579097 0.02316388 0.038606465
0001c0 16 da b5 3d e7 02 7d bd ff f1 ad bd 73 7a 55 be
       0.08879487 -0.061770346 -0.08493423 -0.20847492
0001d0 8b 69 86 be ed 03 a8 be c5 2d 9a be bf 33 98 be
       -0.26252398 -0.32815495 -0.30113044 -0.2972698
0001e0 96 5d 0a be 67 86 51 be bf 33 98 3e 8b 69 86 be
       -0.13512263 -0.20461427 0.2972698 -0.26252398
0001f0 a2 51 0e bd 7f 75 02 3e 2d c2 bd 3d e7 02 fd bd
       -0.03474582 0.12740134 0.09265552 -0.12354069
000200 8a 62 dd bc b9 39 96 bd 44 aa 45 3e e7 02 7d 3d
       -0.027024526 -0.073352285 0.19303232 0.061770346
000210 8a 62 dd 3c 2d c2 3d bc 39 b6 41 3e b9 39 96 3d
       0.027024526 -0.01158194 0.18917169 0.073352285
000220 a2 51 8e 3e 0a e6 31 be 96 56 61 be e8 09 a6 bd
       0.27796656 -0.17372909 -0.22005686 -0.08107358
000230 e7 02 7d 3c a1 4a e5 bd a2 51 0e 3e e8 09 26 3e
       0.0154425865 -0.11195875 0.13898328 0.16214716
000240 ad 3e 69 be cb 27 9c be 05 ec af be a2 51 0e be
       -0.22777815 -0.3049911 -0.34359756 -0.13898328
000250 cb 27 9c 3e ff f1 2d 3d e7 02 fd 3c 5c 92 cd 3d
       0.3049911 0.042467114 0.030885173 0.100376815
000260 a1 4a e5 bd 96 5d 0a 3e 2d c2 bd bd 8b 69 86 be
       -0.11195875 0.13512263 -0.09265552 -0.26252398
000270 8a 62 5d bd b9 32 ed bd bf 33 98 3e a2 51 8e bd
       -0.054049052 -0.1158194 0.2972698 -0.06949164
000280 2d c2 3d 3c 39 b6 41 be 39 b6 41 be 7f 6e 59 3e
       0.01158194 -0.18917169 -0.18917169 0.21233557
000290 f3 fd 29 be 5c 92 4d bd d6 1b a0 3e c5 2d 1a 3e
       -0.1660078 -0.050188407 0.31271237 0.15056522
0002a0 d0 1a 75 3e d0 21 1e 3e d0 21 9e bc e7 02 7d 3c
       0.2393601 0.15442586 -0.019303232 0.0154425865
0002b0 7f 75 82 3e ff f1 2d 3d d6 1b a0 3e b9 39 96 be
       0.25480267 0.042467114 0.31271237 -0.29340914
0002c0 8b 69 86 3d ae 45 92 3e 16 da b5 bd 7f 75 82 3e
       0.065630995 0.28568786 -0.08879487 0.25480267
0002d0 e7 02 7d be b9 39 96 bd 2d c2 bd 3c b9 39 16 3e
       -0.24708138 -0.073352285 0.02316388 0.14670457
0002e0 a8 4b 90 be d0 21 9e bd a8 4b 90 3e d0 21 1e 3e
       -0.2818272 -0.07721293 0.2818272 0.15442586
0002f0 05 ec af be a1 4a 65 3e b9 39 96 be 39 b6 41 3e
       -0.34359756 0.2239175 -0.29340914 0.18917169
000300 0a e6 31 be b9 39 16 be 96 5d 0a 3e c5 2d 1a be
       -0.17372909 -0.14670457 0.13512263 -0.15056522
000310 c5 2d 1a be 91 63 88 3e e7 02 7d bc ae 45 92 3e
       -0.15056522 0.26638463 -0.0154425865 0.28568786
000320 c4 26 71 be d0 21 1e be e8 09 a6 3d 5c 92 4d 3e
       -0.23549944 -0.15442586 0.08107358 0.20075363
000330 2d c2 3d 3e 8a 62 5d 3e 0a e6 31 be 05 ec af 3e
       0.18531103 0.21619621 -0.17372909 0.34359756
000340 39 b6 41 3e a2 51 8e be 8a 62 5d 3d 96 56 61 be
       0.18917169 -0.27796656 0.054049052 -0.22005686
000350 a2 51 0e be ad 3e 69 be c5 2d 1a be a1 4a 65 be
       -0.13898328 -0.22777815 -0.15056522 -0.2239175
000360 2d c2 3d bd 5c 92 cd 3d a1 4a e5 3d a1 4a 65 be
       -0.04632776 0.100376815 0.11195875 -0.2239175
000370 5c 92 cd 3d 2d c2 bd 3c c5 2d 9a 3e 2d c2 3d 3c
       0.100376815 0.02316388 0.30113044 0.01158194
000380 73 7a 55 3e dc 15 a2 3e e7 02 7d 3b 85 6f 84 3e
       0.20847492 0.31657302 0.0038606466 0.25866333
000390 2d c2 bd bc e7 02 fd bc 8b 69 06 be d0 21 1e 3d
       -0.02316388 -0.030885173 -0.13126199 0.038606465
0003a0 8b 69 86 bd 2d c2 3d bd b9 32 6d 3d 8b 69 06 be
       -0.065630995 -0.04632776 0.0579097 -0.13126199
0003b0 d0 21 9e 3c ad 3e 69 be 96 5d 8a 3e d0 21 9e bc
       0.019303232 -0.22777815 0.27024525 -0.019303232
0003c0 2d c2 3d bd d0 21 9e 3c a8 4b 90 be 8a 62 5d be
       -0.04632776 0.019303232 -0.2818272 -0.21619621
0003d0 e7 02 fd 3d d0 21 9e bc e7 02 fd 3d 8b 69 86 3e
       0.12354069 -0.019303232 0.12354069 0.26252398
0003e0 16 da b5 3d 67 86 51 be 50 9e 49 3e 8b 69 06 3e
       0.08879487 -0.20461427 0.19689298 0.13126199
0003f0 e7 02 7d bb 2d c2 3d 3c b9 32 6d be ff f1 2d 3e
       -0.0038606466 0.01158194 -0.2316388 0.16986845
