models/station_6/model_latest.onnx (onnx, 407818 bytes, 12 tensors)

W__2716 f4 [1, 96, 64]
00000000: ad70 10bd b93c b93d 5dbb 08be 0c0c 643c
00000010: 3d39 3fbd 1142 08be 9c37 56bd 4ca9 3fbe
00000020: ba36 e93b b6c3 233d 991e 033d 3fc0 c9bc
00000030: aaf5 29be c490 92bc 758e 16be 96b2 143d
00000040: e1e0 c5bd 8c43 1f3e 63ee b03d 655c d33d
00000050: c7aa aabd 656d a83d a972 88bb 53ac 9fbd
00000060: 70c0 853d 2af6 603d e0b2 d43d 2bf8 39bd
00000070: 9f12 bdbd 2c65 033e 2b7f edbd 9a39 5ebe
00000080: bc3e 41bc 1379 623e f188 16be f6b7 81bc
00000090: 72d4 943d 7db3 f73d 9655 b6bc 3366 3d3e
000000a0: 4e7b f4bd 28f8 473e 7d24 0f3e 3772 0a3e
000000b0: 4d5a e13d cc40 f33d 4486 913d fb20 163e
000000c0: 8f66 003e 97b6 2f3e 2406 f53d be7c 2cbe
000000d0: da18 6f3e f908 5fbd 0ef7 8b3d 78f1 543e
000000e0: dd18 33be 9be1 883d da15 e83b 380e 323e
000000f0: 04dd d9bd 2fdb 183d 3e29 38be 6e32 58be
00000100: bf74 14be 8305 35bd 75ea 6f3d 9ff9 00bd
00000110: e5fd a7bc b061 063e c965 203e c64c e5bd
00000120: 147b 2c3e 01e3 143e 834f 87bc 5b8b 3fbc
00000130: be05 83bd 7ffa 10be 6222 adbd c537 8dbc
00000140: 70b0 bcbd 2602 263d 1683 043e e325 733c
00000150: 4f22 a3bd 3d11 593e 7621 d6bd 8a76 083e
00000160: 870d 0d3e a453 b83b eb46 353d 99d7 e1bd
00000170: 435b a3bd 0dea e6bd 1ba2 08be d797 953d
00000180: 659c e23d 70d3 2abe 8cd9 69bd 5930 903d
00000190: 4443 443e 44ff 18be f64b 84bd 77c7 dd3d
000001a0: 9c7e 0d3e 987e 903c 2d97 20be d3a4 413e
000001b0: 6e8c f23d 3962 b3bd b15b e33d f977 0dbe
000001c0: b5b7 9bbc 93bb 54bd 40f6 833d 7208 d7bd
000001d0: 9a47 1cbe f293 35bd f2f5 e53d c784 7e3d
000001e0: 5a43 cdbd c790 7dbd 2b74 c4bd c726 163e
000001f0: 5924 053e 29c3 c3bd c1a8 aebc 8394 993c
00000200: bf1a 2fbb 7248 4ebe 9c2f 65be ff54 0cbe
00000210: 2a4e a33a 358c f3bd 10f1 f43b a90e 6f3b
00000220: 37c0 093e bc89 dcbd cdf1 1abe 4de1 843d
00000230: d35b b5bc 664d 40bd 1143 aabd 76e7 c8bb
00000240: 5a3d 233e 92c1 193e e892 e6bd 4551 53be
00000250: 8160 703d 470f 823d 4d41 e3bd 0549 143e
00000260: 5ecb e93d d3d1 0dbe a58f ea3d 9619 9b39
00000270: 174b ef3d e13f 763e c9ca b4bd aa54 01be
00000280: fd8c 6c3e 5904 d83d 25e8 f6bd e184 753d
00000290: 9434 72be 72c8 5e3e 54f8 6d3e 538e 42bd
000002a0: 1d27 7cbd dc80 fa3d 1117 b2bc 7502 073e
000002b0: 3b7c 173c 4115 cbbd 916e c83d 2697 d4bd
000002c0: e251 5a3d cd6c 34be 9e46 ce3c f62c 05bc
000002d0: 4e97 943c 2fe9 703e c126 c9bd ad53 73bc
000002e0: 9cad 013e de99 7a3d 2f66 993d c548 fabd
000002f0: 003e 9c3c ae76 8a3d ed5c 893d 039d a23d
00000300: 0e06 1ebe f8a2 82be e0fb 06be e253 403e
00000310: 1886 273e 5166 fa3d 3973 883d 1594 a6bc
00000320: 5c9e ebbd 211a f63d e64e c1bd 5685 f33d
00000330: c9d7 cbbc 2cea 56bd 964a 813d 77b7 bebd
00000340: f098 853d 1da8 e8bd 9a12 c03d 784d 56be
00000350: 10ce b73d 8f98 9d3d 199f 083e 9da2 0ebe
00000360: cf63 82be 4bce f1bd b285 113e 4a45 92bd
00000370: c21f 62be 5d0b e7bd cbb2 56bd 3a3d fe3d
00000380: 8b6b 833c b664 d53d 63c6 6d3d 9a9f 2fbe
00000390: acc4 39bd 3dc1 18bd f5c7 95bd 77fc 25be
000003a0: d1cc 883c d46d 723c 4f8d 01bd efc3 b3ba
000003b0: 3520 653d 0c5d 193e d9f8 183d a9b9 39be
000003c0: 29b3 7ebe 0c08 20be b343 58bd d2ec 12be
000003d0: 28c1 51be b399 c6bd 9708 f4bd c261 2dbe
000003e0: 5ab7 843c b83e d03d bed5 813e c733 d0bd
000003f0: 7dc4 973d ea09 9fbd 14b2 3b3e 1047 47be
-0.035263706 0.09044785 -0.13352723 0.013918888 -0.046685446 -0.13306452 -0.052299127 -0.18716925
0.0071171196 0.039981566 0.032011602 -0.024627803 -0.1659762 -0.017891295 -0.1470278 0.036303125
-0.09662033 0.15553111 0.08639219 0.10320357 -0.083333544 0.0822399 -0.004164059 -0.0779654
0.06530845 0.05492226 0.1038568 -0.045402687 -0.09232067 0.12831563 -0.11596521 -0.21701661
-0.011794742 0.22116499 -0.14700677 -0.01583479 0.07267083 0.120947815 -0.022257607 0.18496017
-0.11937581 0.19528258 0.13978763 0.13520132 0.11003552 0.118775934 0.07105687 0.14661019
0.12539123 0.17159496 0.11964062 -0.1684446 0.23349324 -0.054451916 0.06834231 0.20795238
-0.17489953 0.06683656 0.007082683 0.17388237 -0.106378585 0.037318405 -0.17984483 -0.21112987
-0.1449766 -0.04419471 0.058573205 -0.031488057 -0.020506809 0.13123202 0.15663828 -0.11196284
0.16843826 0.1453972 -0.016517406 -0.01169094 -0.063975796 -0.14158057 -0.084538236 -0.017238507
-0.0921334 0.040529393 0.1294063 0.014840576 -0.07965528 0.21197982 -0.10455601 0.13326469
0.13774692 0.005625205 0.044257086 -0.1102745 -0.07976391 -0.112751104 -0.13343088 0.07304352
0.11064986 -0.1668222 -0.057092234 0.070404716 0.19166285 -0.14941126 -0.06459801 0.108290605
0.13817829 0.01763849 -0.15682669 0.18910532 0.11843191 -0.08758969 0.11101473 -0.13815297
-0.019008497 -0.051936697 0.06443453 -0.10499658 -0.15261689 -0.044330545 0.11228551 0.062138345
-0.10022612 -0.06190565 -0.0959247 0.1466323 0.13002147 -0.09558708 -0.021320703 0.018747574
-0.0026718823 -0.20144823 -0.22381443 -0.13704298 0.0012459208 -0.11891977 0.007475026 0.0036477244
0.1345223 -0.10768458 -0.15131302 0.06488285 -0.022138512 -0.046948813 -0.08313573 -0.006131108
0.15941373 0.15015247 -0.11258489 -0.2063647 0.058685783 0.0635057 -0.110964395 0.1448098
0.11415742 -0.13849573 0.11453179 0.00029582967 0.11684244 0.24047805 -0.08827741 -0.12629953
0.23100658 0.10547704 -0.12055997 0.059941176 -0.2365287 0.21756151 0.23239261 -0.047499012
-0.06156074 0.12231609 -0.021739515 0.13184531 0.009245927 -0.09916163 0.09786714 -0.10380392
0.053300746 -0.17619629 0.025180157 -0.008128395 0.018138554 0.23526452 -0.09821845 -0.014851493
0.12663883 0.061181895 0.07490193 -0.12220911 0.019072533 0.067609176 0.06707177 0.07940104
-0.15431997 -0.2551496 -0.1318202 0.18781999 0.16359746 0.122265466 0.06662602 -0.020334283
-0.11504814 0.120167024 -0.09438877 0.11890666 -0.024883168 -0.052469417 0.06313054 -0.09312337
0.06523311 -0.1136019 0.09378548 -0.2092799 0.0897485 0.07695114 0.13341941 -0.1392922
-0.25466773 -0.118069254 0.14211157 -0.07142122 -0.22082427 -0.11281464 -0.052416604 0.12414022
0.016042491 0.104196 0.058050524 -0.17150727 -0.045353577 -0.03729366 -0.073135294 -0.16209589
0.016699227 0.014796693 -0.031628903 -0.0013715009 0.05593892 0.14976901 0.037346695 -0.1813723
-0.24873032 -0.1562807 -0.052798938 -0.14348152 -0.2048384 -0.096972845 -0.11915701 -0.16931823
0.01620071 0.10168213 0.25358385 -0.10166126 0.07410524 -0.07765563 0.1832965 -0.19460702

W__2702 f4 [1, 192, 128]
00000000: 3a7f 2bbe a198 123d 968b 13be cf5c 8dbd
00000010: 41f3 9fbc df80 da3d e2b6 e43d dc01 acbc
00000020: e3da e1bd 3f17 10bd 6034 deba c0c6 6b3d
00000030: d908 303e 4437 c3bd dab9 043e c30d bd3c
00000040: af88 a3bd 86b5 143e 6c6d aebd 7333 0bbe
00000050: 5422 31bd 964f 92bc 2cec 89bd 71b7 94bd
00000060: 31be 3c3d 5b61 533d 0ca5 04be a239 133c
00000070: 72c3 a33d 01cd 1ebe ac4c cc3d 62ea 753d
00000080: 3214 43be b9db 6a3d 5e07 113e e7af 873d
00000090: 361a 24be 462a a2bd fc8c b3bd e1ea a4bd
000000a0: ee8e d63d 310d c7bc 8d31 ac3d 7b5d d43c
000000b0: 8a23 11bd 75b6 d4bd 0174 c7bd ff55 90bd
000000c0: ac94 993d aa8b ad3c cc1a b0bd bfed 143e
000000d0: 1923 c0bd b39f 0b3d e36a 153e 5ac8 24be
000000e0: 0b8b 9cbc 1229 debc 5922 bc3d 27e4 91bc
000000f0: 304b 43be 50a9 023d 8bb4 9a3d e8c2 1ebe
00000100: 64ae 31be 4e98 09be 0848 26bc 2ba5 a73d
00000110: e78b a93a 9df7 f03d b793 e8bd 8883 153d
00000120: c6a9 87bd b19f 093d 86dd 11be 53fd 0c3d
00000130: d40e 8e3d 125d 5dbd fdeb 143e 1a3a 2b3d
00000140: f87d 1f3d 9934 11be 9625 8fbd 1e93 b63d
00000150: eb19 8bbc 3009 b2bd 733a b2bb 3d7b 173e
00000160: 96bf 41bd 9966 26bc e1b4 9bbd fb3f 673d
00000170: 16ed 793d 8a82 36bd edcd 10bd 175e 263e
00000180: aeb5 0cbe 39b7 05be a2ac e6bd 7bbc 9cbb
00000190: c48f 9bbc 833e 1abd d6f7 e43c 7284 233e
000001a0: 7bed 9dbc db11 52bd 1715 9bbd fa93 2dbe
000001b0: ae4c 23be d327 e8bc 959c 033d e109 16bd
000001c0: 9adb f1bd 597f f83d a947 99bd a5e3 fe3d
000001d0: 5e99 b8bd 8d16 383d b6d8 e73d 0b7a c33d
000001e0: 0610 79bd 1c9e f43c ad68 d9bd eefe 37bd
000001f0: 2528 6dbd 081f 45be 82bb 5c3d 0611 23bd
00000200: 46b8 7b3d 8fc8 0abe 53ed 84bd 9c52 8cbd
00000210: cac3 6ebd d029 3d3d aa1a cb3d 2b17 98bd
00000220: 7974 9a3d 61ca bdbd c14f b73d d56c 873d
00000230: 94df 193e 0ef5 fcbd 5597 ff3d 8d90 a6bd
00000240: 95de 7ebd e207 a03d 0f41 74bd f8f7 92bd
00000250: a002 173d 9870 af3d 9e24 193e 4525 443d
00000260: ccb0 733d 5425 70bc 73b6 583d c25b 183d
00000270: 6605 19bd b600 343e 2a6d fcbd ce42 c43d
00000280: 685c 403e cd74 e23d 8199 9d3c 77f3 133e
00000290: 966e 0b3e 28cd bc3d f1f2 92bc 7398 563d
000002a0: 092d cbbd bb2f 6dbb 9f0e 1c3e d2a5 5bbd
000002b0: b37f 0bbd a919 e4ba cd64 a5bd c4c1 d9bc
000002c0: 7785 363e e8ca ae3d fd0c 5f3d 18c0 20bd
000002d0: c7f9 423e 1917 df3c a345 31bd 1a25 083e
000002e0: 3636 8a3c e443 babd 1e3e 87bd 742f ce3d
000002f0: 8ab3 c73d 5f51 7abb 9f60 c2bd 0a2e 203e
00000300: 8c2f f03d 5861 0ebc 324d 67bd 03a5 d8bd
00000310: 35b6 c8bd c2b5 d53d 7e71 043e e1ff 6cbd
00000320: 72c6 bb3c d3e3 b13d 5796 f63d 9aab b7ba
00000330: ef05 023d 5ca1 a0bd 2ac2 cf3d 979a d73d
00000340: ab21 a0ba ef02 03be 2894 b3bc b9c6 a63d
00000350: f526 413d 1b48 01bd 78be dd3d 8d80 e63c
00000360: ee11 2cbe 7581 b83d 4e8c 07bc def9 e1bd
00000370: 2a3f 0dbe d7e1 e53c 0fd9 b9bd 6ac4 d5bd
00000380: 57e7 083d 3f01 95bd 1609 9a3d ec07 893d
00000390: aea0 d33d 1a5b babd 7df5 0fbe 5d5a 23bd
000003a0: c96b b6bc 81a1 0a3e 6276 2dbe ce36 9bbd
000003b0: 87ba fa3d 5c35 59bd add4 90bd 63c7 a0bd
000003c0: 633f db3d 3cc9 3a3d cdfd 1abd 5f65 bdbd
000003d0: ea1f 28bd bb3b 8d3d 7c34 c83d d486 f13d
000003e0: 9faf a43d 1735 49bc 2c26 5bbd e8d7 2dbe
000003f0: e775 8a3c fac6 273d d67a 9cba 3d53 9fbd
-0.16747752 0.03579009 -0.14408717 -0.069024675 -0.019525172 0.106691115 0.11167695 -0.02099698
-0.110280775 -0.03517842 -0.0016952865 0.05756259 0.17190875 -0.095320255 0.12961522 0.023077851
-0.07985055 0.1452237 -0.08516964 -0.13593845 -0.04324563 -0.017860215 -0.06734499 -0.07261551
0.04607982 0.051606517 -0.12953585 0.008985909 0.079962626 -0.1550789 0.099755615 0.060037978
-0.19050673 0.05733845 0.14162967 0.066253476 -0.16025624 -0.07918219 -0.08767125 -0.08052612
0.104764804 -0.024298282 0.084078886 0.025923481 -0.035434283 -0.103863634 -0.09738923 -0.070476525
0.0749906 0.021184761 -0.08598861 0.14543818 -0.09381694 0.034087848 0.14591555 -0.16092053
-0.01910927 -0.027119193 0.09186239 -0.017808987 -0.1907165 0.03189975 0.07553967 -0.15504038
-0.17351681 -0.13437006 -0.0101490095 0.081858 0.0012935371 0.117659785 -0.11356299 0.03650239
-0.066241786 0.03359956 -0.1424466 0.034421276 0.06936422 -0.054043837 0.14543147 0.041803457
0.038938493 -0.1418022 -0.06989591 0.08914779 -0.016980132 -0.086931586 -0.0054390966 0.14793105
-0.04730185 -0.010156297 -0.07602859 0.0564575 0.06101712 -0.044558086 -0.035352636 0.1624683
-0.1374118 -0.13058175 -0.11263396 -0.004783211 -0.018989451 -0.037657272 0.027950209 0.15968493
-0.019278279 -0.05128656 -0.07572382 -0.1695098 -0.1594722 -0.028339302 0.03213175 -0.036630515
-0.11809464 0.12133665 -0.07484371 0.124457635 -0.090136275 0.04494338 0.11320631 0.09544762
-0.060806297 0.029860549 -0.106156684 -0.044920854 -0.057899613 -0.19250119 0.05388976 -0.039811157
0.061455034 -0.1355307 -0.064905785 -0.06851694 -0.058292188 0.046182454 0.09917195 -0.07426294
0.07541747 -0.09267116 0.08950759 0.06612555 0.15026695 -0.12351428 0.12480036 -0.081330396
-0.06222399 0.078140035 -0.059632357 -0.071762025 0.036867738 0.085663974 0.14955375 0.047887105
0.05949478 -0.014657337 0.052908372 0.037196882 -0.037358664 0.17578396 -0.12325509 0.095830545
0.1878525 0.11057434 0.019238235 0.14448343 0.13616404 0.09218818 -0.01793811 0.05239148
-0.09920699 -0.003619178 0.15239953 -0.053624935 -0.03405733 -0.0017402667 -0.08075867 -0.026581652
0.1782435 0.08534795 0.054455746 -0.039245695 0.19040595 0.027232694 -0.0432793 0.13295403
0.016871553 -0.0909498 -0.06603645 0.10067645 0.09751041 -0.0038195474 -0.09491085 0.15642563
0.11727819 -0.008690201 -0.056470104 -0.105783485 -0.09800378 0.10435058 0.12933919 -0.057861213
0.022921775 0.08686032 0.12040394 -0.0014012933 0.03174394 -0.07843277 0.10144456 0.105275325
-0.0012217065 -0.12794088 -0.021921232 0.08143372 0.047156293 -0.031562906 0.10827345 0.02813747
-0.16803715 0.09009067 -0.008273197 -0.110339865 -0.13793626 0.02806179 -0.09074604 -0.10437854
0.033423748 -0.07275628 0.07521264 0.06690964 0.103333816 -0.090994075 -0.1405849 -0.0398811
-0.022268193 0.13538171 -0.1693969 -0.075788125 0.122426085 -0.053029403 -0.07071815 -0.0785053
0.107054494 0.04560207 -0.0378397 -0.092478506 -0.04104606 0.06896158 0.097756356 0.117932945
0.080413096 -0.012280724 -0.0535032 -0.16976893 0.016901923 0.040961243 -0.0011938463 -0.07779548

W__2689 f4 [1, 384, 6]
00000000: 9e24 703d e0ec c7bd ea4f c4bd 3b70 f1bd
00000010: 1678 b33c fd9b eb3d 5545 5dbd da12 4b3d
00000020: 6679 1e3c 82cb 043e 05b1 883b 7816 083d
00000030: 80be 593d 6b38 13be ace1 24be ca3a 333d
00000040: 6cb3 233d 5186 27bd bcde f9bc 9d98 0e3d
00000050: 82fa d33c a228 b03d 8f46 223e 723e 1d3e
00000060: b9aa d1bd 8ea3 1dbe b71e 18be dd8b 68bd
00000070: fa37 d9bd a227 9e3d f4f4 f8bc a5ec fdbb
00000080: 4104 b03a 061d dfbc a92e f93c 5d99 483d
00000090: f376 69bd 6347 3039 bc60 63bd f612 59bc
000000a0: 6908 f43c e407 643c eb4e 37bd 9e69 a3bd
000000b0: 8377 4e3d 3860 4c3d a523 53bd 0ac8 0c3e
000000c0: 869c 233d ce9b 2cbe 94db 95bb d08d c4bd
000000d0: 9b6f 16be d331 8d3d 6607 7cbd 67c0 f23d
000000e0: 23e8 b53d 3258 0f3e bcab 67bc 11e4 b3bd
000000f0: 5658 d83d e6ee 5c3d 0897 1abd b79a 3cbd
00000100: 30fa a43d fc47 38bd 558e 27bd 1b71 933c
00000110: 4c48 253d 34ed 423c 8a27 1d3c 6e0f d0bd
00000120: 0a73 26be 41a2 a9bd 8353 0bbd b44f 933c
00000130: 5282 1abe c39f 103e 9ef3 263e d4b1 213e
00000140: 9fbf 043e ac6b 0b3e fe78 d43d 1dcd 003e
00000150: 1b81 1b3e 5103 1d3d 6be3 993d 510b d03c
00000160: 9bd5 013e c0a9 e93c 6ab7 debd f968 63bd
00000170: 4a9f 81bd 0d6c 8b3d 7ed6 acbd a5cd af3c
00000180: d74a 0f3c ea4f 3d3d 2bec c6bb cf7a 6dbb
00000190: 7c49 a4bd 79b7 a9bd 8094 15be 3858 62bd
000001a0: 938c 26bd f047 813d f7f2 c4bd 7a04 393d
000001b0: a15f bc3d 0917 763d 16e0 5cbd 0e55 cebd
000001c0: 898f 1a3e b7fc 513d 64fc febc d28e 803d
000001d0: 51de 2e3e aed1 943c 26c4 1bbd 62f9 653d
000001e0: 1068 343d c73c b9bc 0c1f 8c3d 0517 fabd
000001f0: 43a7 abbd 0e3c 023e 088c 2e3e 2396 083e
00000200: 1163 323e 29eb feba 41ab 9d3c fd9e be3c
00000210: 4982 1dbe 9755 32bc e798 12be 0124 18bd
00000220: db84 d9bd c209 023e 6557 9dbd 0b58 f83c
00000230: 150d d7bd 8c64 67bd 3991 b0bd a0a9 bd3c
00000240: c651 7cbd 842d 403d d024 2c3e 51f0 8a3d
00000250: 9a46 c8bd bb5d 00be 94bc 523b 16cb da3d
00000260: 9c50 863d 73e9 903c ce95 d03d f14d c6bc
00000270: f15e d4bd 4f88 313d df2b 81bd 2738 e1bd
00000280: e67f 0f3e 3f1b 50bc 2d4a 093d 700e 93bd
00000290: 56c4 86bc 7479 b03d 2e6d 9f3c c7f7 b6bd
000002a0: 7dbe 3c3e 1f07 013e 97f6 d3bc be02 253e
000002b0: 9f55 3cba 845b dcbd 3fc0 55bd 54cf 9fbd
000002c0: 9ec3 d1b9 4f1a 00be ec2c c2bd 9703 dd3a
000002d0: c115 983c 77a7 67bd fce9 28bd 7a63 08be
000002e0: ff80 583d 5e59 8e3d 1f61 4dbd 5804 0a3d
000002f0: a065 f73c a8be 1dbe 3092 5f3d 0d6c 1c3e
00000300: 37ff a5bd f8c7 b9bd 46e4 c3b6 f3db 72bd
00000310: e18b 6ebd c06c e63d 17d4 7cbd d843 04bd
00000320: b749 013d f385 d2bc 163b 4b3c 7802 83bd
00000330: 4e98 1c3e 77e6 883c 2386 5e3d 1c5d 1b3e
00000340: 45aa 45bd f453 35ba cf18 233d f153 563c
00000350: fe46 10be 6ba0 603c e701 2bbd 2192 cb3b
00000360: f005 8bbc 1511 963d ef68 303d a24a 01be
00000370: 85e4 a63d b1d5 1c3d e5e4 c3bd 09fb 47bd
00000380: 56b3 503d 83af d0bd 819b b43d bf95 a23c
00000390: d10c 45bd 0be1 f1bd ae5b 44bd bdab 4c3c
000003a0: d992 5c3d e1a5 0e3e f7d0 cebd 43f0 5f3d
000003b0: 6a8f 2e3d e78c 00bd 9a75 37bd d4dd 1a3d
000003c0: fe65 32be 40bd 9bbd 4dc9 26be a625 09bc
000003d0: 9e37 1cbd 1359 b83b 81b5 cf3d 43b2 873c
000003e0: f550 c4bc 89e3 57bc a4b4 8c3d 7a26 b8bd
000003f0: dfff 2a3c c1e2 ccbd f35c 3cbd 4061 283d
0.05862867 -0.09761977 -0.09585555 -0.117889844 0.021907847 0.11504362 -0.0540212 0.049578525
0.009672498 0.12968257 0.004171493 0.033224553 0.05316019 -0.1437699 -0.16101712 0.043757237
0.039966032 -0.04089958 -0.030501716 0.034813512 0.025876287 0.086015 0.15847228 0.15355852
-0.10237641 -0.15394422 -0.14855467 -0.05677401 -0.1060638 0.07722403 -0.03039024 -0.0077491575
0.0013429002 -0.02723552 0.030417757 0.048974384 -0.056998204 0.00016811262 -0.055512175 -0.01324915
0.029789167 0.013917897 -0.044752996 -0.07979129 0.050406944 0.04989645 -0.051547665 0.13748184
0.039944194 -0.1685631 -0.004573295 -0.09597361 -0.14691012 0.06894269 -0.061530493 0.11853104
0.08882167 0.13998488 -0.014140066 -0.087837346 0.10563724 0.05393877 -0.03774169 -0.046045985
0.08055532 -0.044990525 -0.040907223 0.017998269 0.04035215 0.011897374 0.009591946 -0.10159193
-0.16254821 -0.082829006 -0.03401519 0.017982341 -0.15088776 0.14123444 0.1630387 0.15790492
0.12963723 0.13615292 0.1037464 0.12578245 0.15185969 0.03833324 0.0751408 0.025396021
0.1267914 0.028523326 -0.10874827 -0.05552003 -0.0632921 0.068077184 -0.08439349 0.021460364
0.008745871 0.04621879 -0.006070634 -0.003623653 -0.080218285 -0.08286948 -0.1460743 -0.055259913
-0.040661406 0.06312549 -0.09616654 0.045170285 0.09197927 0.06008056 -0.053924643 -0.10074817
0.15093817 0.0512664 -0.031126209 0.06277241 0.17076994 0.01816639 -0.03802886 0.056146033
0.044044554 -0.022611989 0.06841859 -0.12211422 -0.08381512 0.12718222 0.17045605 0.13338523
0.17420603 -0.0019448745 0.0192467 0.02326917 -0.15381731 -0.010884664 -0.1431614 -0.03714371
-0.10621043 0.12699035 -0.07682685 0.03031542 -0.10500542 -0.056492373 -0.08621449 0.023152173
-0.061601423 0.046918407 0.16810918 0.06784118 -0.09779091 -0.12535755 0.0032155858 0.10683267
0.06558344 0.017689442 0.10184823 -0.024207087 -0.10369671 0.043342885 -0.06307196 -0.10997038
0.14013633 -0.0127018085 0.033518005 -0.07180488 -0.016451042 0.08616915 0.01946124 -0.089339785
0.1843204 0.12600373 -0.02587442 0.16114327 -0.00071843894 -0.10759643 -0.052185293 -0.078032166
-0.00040009333 -0.12510036 -0.094812244 0.0016862032 0.01856506 -0.05655619 -0.04123877 -0.13319197
0.052857395 0.06950639 -0.05014145 0.03369555 0.030199826 -0.15404761 0.054582775 0.15275593
-0.08105319 -0.09071344 -5.8380274e-06 -0.05929179 -0.058238868 0.11251211 -0.061725702 -0.032291263
0.03156444 -0.025698638 0.012404224 -0.06396955 0.15292475 0.016711457 0.05432714 0.15172237
-0.048258085 -0.0006917112 0.03981858 0.013081537 -0.14089581 0.013710122 -0.04174986 0.0062124883
-0.016970605 0.07327477 0.043068822 -0.12626126 0.081490554 0.03828973 -0.095651425 -0.04882339
0.050952278 -0.10189726 0.088187225 0.019846795 -0.048107926 -0.11810502 -0.047938995 0.0124921175
0.053850982 0.13930465 -0.10098451 0.05467249 0.04261724 -0.031384375 -0.044789888 0.037809208
-0.1742172 -0.07604456 -0.16287728 -0.0083707925 -0.03813898 0.005625853 0.10142041 0.016564494
-0.023964385 -0.013176807 0.06870392 -0.08991714 0.010436981 -0.100041874 -0.04598708 0.04110837

R__2717 f4 [1, 96, 32]
00000000: cc62 db3c 9aaf a3bc 0f0e 22bd e831 943e
00000010: b78b ebbc 095e a5bd dd14 2abd cc51 0c3c
00000020: 567f 0c3d 540e cabb 37d2 463d 718f 603e
00000030: 13e0 cebc 0d34 ef3c 93bd b33d 6736 483d
00000040: 6206 9a3d 0e19 3f3d ab75 29be c401 a0bd
00000050: 3843 f03d b09f 103e 9295 d5bc 1124 ecbd
00000060: 21fa 1f3e d7b9 2cbe 7f69 52bc d1e8 ae3c
00000070: 49c2 3dbe 5de5 de3d 7e5d d83d 2e07 3abd
00000080: 60a7 68be 1e3d d83d 8f79 54bc d80d 74bd
00000090: ac70 06bd 4db0 3bbd bad0 23be 4f7c d23d
000000a0: 2c36 c23d 4805 5ebc 424e c93d 9376 c33d
000000b0: 2141 ca3d d9e9 9c3d 7450 9bbd df88 bc3d
000000c0: 9901 2c3a 0287 093a 39df 32be ba63 f93c
000000d0: 1a8e 813d a648 29be ab8e febd b0a0 413d
000000e0: b18b e8bb b1d6 f33d a1d0 f3bc 9495 c3bd
000000f0: ef40 343d 1506 023d 5016 8cbd 2742 553e
00000100: 79ab 283e 602e bfbd 1e40 e8bd 438d cf3d
00000110: bb7c a3bd cc53 90bd b79b 65bd 499b 143e
00000120: 6912 ac3c 48d4 073e b8f2 82be 868e 8f3d
00000130: fda6 c4bc 8fbe b43d 03d1 403c 3a5c 903d
00000140: a9c7 cfbb d59c 9dbb 68f4 ef3c 4447 92bd
00000150: ceb6 77be f6fc 823d 1bf0 10be 865e ef3d
00000160: 1cb9 573c 547a f93d d9c4 d6bd a13a acbd
00000170: 4d8c 643c e085 903d 3a28 813c 941a 15be
00000180: cf57 383c a11c cebd e0ed 6abd ac80 99bc
00000190: b7fb 28be d3cd 04be 1ad2 483e d6b6 023e
000001a0: f90d 2abe 873f b7bd d600 a3bc c2e6 e13d
000001b0: 9298 f0bc 4ffc 72bc e78e 273e 649b 18be
000001c0: a7cf ec3d fe54 15bd ba97 63bc 8538 253c
000001d0: 7b6a 83bb c2e2 a73c 4278 b93c 9a5e ce3d
000001e0: 955d a73d f4ef 9bbd 7a65 103d 2d25 47bd
000001f0: 07e1 643d ff97 afbd b8b5 99bd 889c f13d
00000200: d479 b0bd 48d0 6dbd 8a8b 50be faa0 87bd
00000210: 64d2 9c3c 3b67 f2bc 86ca f3bc 53a9 40be
00000220: b8d4 323e 29ef 75bd bf22 f13c 3b8d 20bd
00000230: 0eb2 a33e 1342 f03d f1f4 753e 4420 593e
00000240: da5c 69bd e73d 303d 760c 24be d774 d0bd
00000250: 1efa 0bbe b228 e73d 1750 5e3e 8c81 82bd
00000260: 4251 a7bc 7ba3 413e d188 b7bd 3c9f 73bd
00000270: 3c4f 56be 35c8 ef3d 1673 9cbd 8591 bdbc
00000280: edd3 893d a2b2 843d 67c7 afbc 6f13 8f3d
00000290: 4778 26bd a14f 0f3e a042 433d c601 c83d
000002a0: ee78 f7bd b276 313e 5e8f c33d a975 21bd
000002b0: df81 923d 2f31 9fbd b7bf 763c 924a 183e
000002c0: e5aa f93d cdab 28bd e9b9 903d 1eb4 0cbd
000002d0: 2520 89be 8f89 2b3d adc8 4fbd 347f ff3c
000002e0: 97bd 173e 531c b0bd 1ee5 a43d e099 093e
000002f0: e584 063d 3cfa 22bd 8db0 e5bb ec7c 003e
00000300: 3dc0 113e 4034 2fbe 0ddf debd 46a8 c63b
00000310: 0dff 433e 4a53 5d3d 35c4 dc3d cf0b b0bc
00000320: f911 583d f3b3 5fbd cb14 d2bc ecfc a4bc
00000330: 91b7 c73c 7c9b b63d 685b 2c3e c509 da3c
00000340: 3de7 f1bc 77c3 11bd ccbf 843d 1c7d 753e
00000350: 65da 92bd 1d63 50bc 467a f33c 4cf3 76be
00000360: 47e7 3dbd 4dad 84bd 1a77 93bb dd53 81bc
00000370: d84d 643d 0d24 3d3d 7273 eebc 5723 67bd
00000380: 466a 2abd 6dda 953e cc3e e8bc baf3 173e
00000390: 5b1a 80bd 13db e8bd cc5d 613d 6a5e 483d
000003a0: 3b51 a2bd 6487 453e 5fd5 64bd 2944 6c3d
000003b0: 2134 67bc ae9f b7bc 6900 84be 0c7c f9bd
000003c0: 20b8 15bd e3ea 433d 2203 f43d b9ed 47bc
000003d0: 3fdd 823e 3041 7fbb 395f 173d 8e1b 0d3e
000003e0: e467 d7bd 238c ab3c 6920 8abd c73a a93d
000003f0: 9a45 06be 3363 77be 3fb5 a9bd bf60 cfbc
0.026780508 -0.019981194 -0.03956419 0.28944325 -0.028753145 -0.080745764 -0.041523803 0.008564424
0.034301125 -0.006166259 0.04854032 0.21929719 -0.025253331 0.029199624 0.08776393 0.048880007
0.07520749 0.046654753 -0.16548793 -0.07812837 0.11731571 0.14123416 -0.026072297 -0.115303166
0.1562276 -0.16867767 -0.012842535 0.02135125 -0.18531145 0.10883591 0.10564707 -0.045417003
-0.22720098 0.10558532 -0.012968435 -0.059583515 -0.032822296 -0.04582243 -0.15997592 0.10277616
0.09482989 -0.013551064 0.098293796 0.095441006 0.098757036 0.076617904 -0.075837046 0.092057936
0.00065615174 0.0005246253 -0.17467965 0.030443061 0.06325932 -0.1653162 -0.124295555 0.047272384
-0.0070967306 0.119061835 -0.029762568 -0.09550014 0.044007238 0.03174408 -0.06840193 0.20826016
0.16471662 -0.09335017 -0.113403544 0.101343654 -0.07982775 -0.07047233 -0.056056704 0.14512362
0.021004872 0.13264573 -0.25575805 0.07009606 -0.024005407 0.08825409 0.011768582 0.07048841
-0.00634094 -0.0048099556 0.029291347 -0.07142499 -0.24190828 0.06395905 -0.14154093 0.11687951
0.013166692 0.12181535 -0.104867645 -0.0840962 0.013949466 0.07056785 0.015766252 -0.1456092
0.011251404 -0.10064054 -0.05735576 -0.018738113 -0.16502272 -0.1296914 0.19611397 0.12765059
-0.16606893 -0.08947664 -0.01989786 0.11030342 -0.029369626 -0.014830663 0.16363107 -0.14903027
0.11563044 -0.036458008 -0.013891155 0.010084276 -0.004010496 0.020493869 0.022640351 0.100766376
0.08172146 -0.07614127 0.035253026 -0.048619438 0.055878665 -0.08573913 -0.07505363 0.11797434
-0.08616987 -0.05805996 -0.2036573 -0.06622501 0.01914329 -0.02959024 -0.029759657 -0.18814592
0.17463958 -0.060042534 0.029435514 -0.039197188 0.31971782 0.11731353 0.24019219 0.21203715
-0.056973316 0.043027785 -0.16020378 -0.101785354 -0.13669631 0.11287059 0.2171024 -0.06372365
-0.020424489 0.18910019 -0.089616425 -0.05947803 -0.20928663 0.11708108 -0.076391384 -0.023140678
0.06729875 0.06479384 -0.021457387 0.069861285 -0.04064205 0.1399522 0.04767096 0.09765963
-0.120836124 0.17330435 0.095488295 -0.03941885 0.07153677 -0.07773053 0.015060357 0.14872196
0.12190799 -0.041179467 0.070667095 -0.03435146 -0.26782337 0.041879233 -0.05072849 0.031188585
0.14818417 -0.085991524 0.08051513 0.13437605 0.03284158 -0.039789423 -0.007009572 0.12547654
0.1423349 -0.17109776 -0.10882387 0.00606254 0.19140263 0.05403451 0.10779611 -0.021490006
0.052751515 -0.054614972 -0.02564468 -0.020140134 0.024379523 0.08916375 0.16831744 0.026615987
-0.029529208 -0.0355868 0.06481895 0.23973507 -0.07170562 -0.012718943 0.02972139 -0.24116248
-0.04636314 -0.06478367 -0.004500282 -0.01578706 0.0557383 0.04617696 -0.029107783 -0.056430187
-0.041605256 0.29268208 -0.028350256 0.14839068 -0.06255027 -0.1136991 0.055021092 0.048918165
-0.0792565 0.19289929 -0.05586755 0.05768219 -0.01411155 -0.022415008 -0.25781563 -0.12181863
-0.03655255 0.047831427 0.1191466 -0.012202674 0.25559422 -0.0038948767 0.036956046 0.13780043
-0.105178624 0.020940846 -0.06744463 0.08263164 -0.13112488 -0.24158935 -0.08286523 -0.025314687

R__2703 f4 [1, 192, 64]
00000000: cc49 523d cb94 683d 6f59 ff3c 5dab 29bd
00000010: a3fe 8e3d c1c9 123d 86ca 54bd cdcb bdbc
00000020: 695a 61bd 8304 8bbd 7368 ca3d ae31 883c
00000030: cc1e 393d 8c35 cf3d 5434 b2bd 8f34 b4bd
00000040: aa23 e33d 81dc 1fbd c24c 093e f5af 143c
00000050: f6a1 03bd acb3 3d3d c925 c0bc e406 6e3d
00000060: 3f9d e2bc e70f a4bc 814d 0dbd f8f1 e3bb
00000070: 01fe 46bd ec95 f8bd 7ec6 06be 5712 a53d
00000080: c3ef c93d 7d37 28bd 2ff0 8f3c 0b16 4f3d
00000090: 32ce 273d dcdf 2abe 64e4 a73d 68e4 f03d
000000a0: 9641 8c3e fe9a babd be77 483e 5c0f 09be
000000b0: bd2b 63bd 07d6 85bd 605c 8ebc da5b 09bd
000000c0: 76c6 3bbe 41bf 3ebd 5625 5fbd 3dcd 29bd
000000d0: 3ecd 3b3e 7419 a2bd f5e6 6f3d 7b6b 2bbe
000000e0: d5ee bf3c dced 99bd 5ec4 aa3d 08bf ab3c
000000f0: 5f74 533d d377 d83c c236 3fbd da52 f9bd
00000100: f7b1 a93d eaf5 e9bc a0f5 05be 5344 003e
00000110: a3ad a53d c767 a6bd a423 b43d 2524 c0bd
00000120: 2f2e 313d 9aba 5cbd 4b42 c63b 6ee5 46bd
00000130: 0bc5 993d 4788 9c3d 6867 963c b5b2 103c
00000140: d8ed c13c f433 3f3e d5dc 0abe dcdc ecbd
00000150: a74b 983d 324d 683d e457 18bd 3d7b e9bd
00000160: 8a97 5ebc 58f3 92bd 957c 04bd 8292 a9bd
00000170: 0e01 953d 305a 2bbb 1e1e 593d e71c 0b3d
00000180: 2ea6 2fbc 1aa9 49bd e02c 62bd 13e8 66bd
00000190: 36ff 4f3d e754 e83d eae0 93bc 7a6e 163e
000001a0: 1a11 b63b cad9 0c3d a673 f73d be6f 9a3a
000001b0: 03c0 503d 6614 ca3d 3add c4ba 7328 ddbd
000001c0: 8f70 02bc 5417 693d 9f97 bdbd c43f b5bd
000001d0: 437a 29be da80 a0bd 3ddb 79bb ac6f 57bc
000001e0: 7aba eabd b94f 62bd 4671 a73c 245b 15be
000001f0: ca40 83bc f139 fa3d 116d 563c 5abb 20bd
00000200: cc5f 12bd 161a 0ebe 96d0 d03d 7b06 583d
00000210: fe3e 35bd c8e9 bdbd ac12 26bd 563f a53d
00000220: e782 e6bd 47ef 463d 4735 613d 82af 13bd
00000230: cb20 ffbc ad19 8e3d 7f32 963d c922 163c
00000240: 0b7b b9bd a539 8f3d 9a0e 54be 230f 81bd
00000250: fb9d 033d 7a93 b0bd 35ec 5fbd 79c5 233a
00000260: f81c 2bbc eb18 8b3b 8666 d13d c10e 93bd
00000270: bedf c1bd d280 cbbd 51a7 c83d 55e0 ae3c
00000280: 9f50 b23b dcaf 443d b792 183d 818f 20bd
00000290: 16ff a2bc 3ffb 133e bc70 933d cd35 a4bd
000002a0: 6448 46bd 86fc 35bd 3b65 bd3d 6466 d3bc
000002b0: 0a1b 873d d27a 013e f90b 013e c62a 273d
000002c0: c87b 243d e480 523d 9107 c3bd 591d 36bc
000002d0: f4ce afbd 947c 56be e867 503d 2493 f7bc
000002e0: 697d b3bc c60f e93d 3e28 55bd 8109 e53d
000002f0: ce9b 2b3d 2eaf 133c 25cb a53b 579b 5b3d
00000300: 7c83 353e ea7d b7bd 4f19 68bc fc0a 083e
00000310: d7ee 533d 02eb 81bc 7660 873d 75f1 383e
00000320: 09f6 313d 4176 b8bc 84db fb3b 0abc 76bc
00000330: 673d 403d 2060 a3bd df02 9dbd c648 803d
00000340: ffd4 15be 0e33 fd3a 7a4b f1bd 154e 523d
00000350: d74a afbc b14b 483e 6536 c2bd 0fab c43d
00000360: 48e9 da3c b836 37bd 340d 503e 3540 13bd
00000370: aa36 b13c b6e1 2fbd bee0 63bd 20d1 adbd
00000380: 71bb 8bbc 899e 883d 9c40 083e 178d aabd
00000390: 7491 193d e18a c63d f358 bdbd 8f08 bfbd
000003a0: 355b 773c 8021 d93b 321a 29bd 4f24 9e3c
000003b0: b2de 0fbc ef28 05bd b9ea 153e 9335 d43d
000003c0: fa27 a03d 08ee 27bd 4237 123d 2f59 3039
000003d0: 6130 5f3d 3561 74ba f994 903d 9792 9abd
000003e0: 8d88 20be 4020 95bc fcee 98bc 22c3 3739
000003f0: 592d 39bd 3738 113d 6a64 883d 3930 bebc
0.05133991 0.056782525 0.031170575 -0.04142319 0.06982162 0.03583694 -0.051950954 -0.023168469
-0.055017862 -0.0678797 0.09883203 0.016625252 0.045195386 0.10117635 -0.08701387 -0.08799087
0.11090787 -0.03902865 0.13408187 0.009075155 -0.03213688 0.046313927 -0.023455517 0.05811204
-0.027662871 -0.020027114 -0.03449774 -0.006956335 -0.04858208 -0.1213797 -0.13161656 0.08060139
0.09860184 -0.041068543 0.017570583 0.05055813 0.040968128 -0.16686958 0.08197859 0.11762315
0.27393788 -0.09111594 0.19576928 -0.13384765 -0.055461634 -0.06534963 -0.017378032 -0.033534862
-0.18337426 -0.046569113 -0.054478966 -0.041455496 0.18340012 -0.07915011 0.058569867 -0.1674022
0.023429314 -0.07516071 0.08338235 0.020965114 0.051624652 0.026424324 -0.04668308 -0.12174006
0.08285897 -0.028559644 -0.1308198 0.12526064 0.08089759 -0.08125263 0.087958604 -0.09381894
0.043256935 -0.053888895 0.006050383 -0.048558645 0.07508286 0.0764318 0.018359855 0.00883167
0.023672983 0.18672162 -0.13560803 -0.11565563 0.074363045 0.056714244 -0.037193194 -0.11400459
-0.013585934 -0.071753204 -0.032345373 -0.08279897 0.07275592 -0.0026146285 0.053007238 0.03396311
-0.010720773 -0.049233533 -0.055218577 -0.056373667 0.050780497 0.11344319 -0.018051583 0.14690581
0.005556238 0.034387387 0.12082605 0.0011782569 0.050964367 0.09867172 -0.0015019544 -0.10798731
-0.007961406 0.056907013 -0.09257435 -0.08850053 -0.16550545 -0.078370765 -0.003812506 -0.013149183
-0.11461349 -0.05525181 0.020439755 -0.14585549 -0.016022105 0.12218083 0.013087527 -0.039241172
-0.03573589 -0.13877138 0.101960346 0.052740555 -0.044249527 -0.09273106 -0.04054515 0.08068721
-0.112554364 0.048568036 0.05498245 -0.03605605 -0.031143567 0.06938491 0.0733385 0.009163567
-0.09056672 0.06993417 -0.20708695 -0.06301715 0.032133084 -0.08621879 -0.054668624 0.0006247382
-0.010443918 0.004244914 0.10224633 -0.071805485 -0.094665036 -0.0993668 0.09797538 0.021347204
0.0054417397 0.048019275 0.037249293 -0.039199356 -0.019897025 0.14451312 0.07199237 -0.08018074
-0.04840888 -0.04443028 0.09247824 -0.02580566 0.06596954 0.12644508 0.12602223 0.040812276
0.04015711 0.05139245 -0.095229276 -0.011115395 -0.08584395 -0.2094596 0.050880343 -0.03022153
-0.021910386 0.11379962 -0.05204033 0.11183453 0.041896634 0.009013934 0.005059617 0.05361494
0.17725939 -0.08959563 -0.01416619 0.1328544 0.051741447 -0.01585913 0.06610195 0.18060859
0.043447528 -0.022517325 0.0076860804 -0.01505948 0.046933558 -0.07977319 -0.07666563 0.062638804
-0.14632033 0.0019317584 -0.11781974 0.051343996 -0.021397991 0.19560124 -0.09483031 0.09602939
0.026722565 -0.04472992 0.20317537 -0.035949904 0.021632511 -0.042939864 -0.055634253 -0.08487153
-0.017057152 0.06670863 0.13305897 -0.08327692 0.03749223 0.09694458 -0.09245481 -0.09327804
0.015097429 0.006626308 -0.041284747 0.019304423 -0.008781122 -0.03250974 0.14640321 0.10361781
0.07820125 -0.04099849 0.03569723 0.00016817891 0.054489497 -0.00093223463 0.07059664 -0.07547491
-0.1567709 -0.018203855 -0.018668644 0.00017524933 -0.045209263 0.035454 0.066597775 -0.023216354

R__2690 f4 [1, 384, 128]
00000000: c622 d1bd bd88 d6bb 9bca 2d3d 92f6 6fbc
00000010: a103 d33d 4a52 aa3d e59e 82bd 6dad ef3c
00000020: ccb8 96bc d8a5 ac3d f737 9abc 352a b43d
00000030: 53e2 ac3d 7361 02bd 5168 913d 946b 1bbc
00000040: d0f1 62bd 87a5 793d 77c1 af3c 9eef e2bc
00000050: 8167 36bd c1c9 d33c 87fc 9abd b88f 07bb
00000060: 4112 52bd 9e22 72bd c5c4 1fbb ee10 2e3c
00000070: afae 9c3d 4904 04bd 7230 b63c 839e e03b
00000080: c0a7 69bd 7ec5 03be 8448 99bc 896d 4f3d
00000090: 2cc1 a93d 4bd7 eabc 8fa3 45bd 5845 02be
000000a0: c573 a43d 9142 123e a5dc e1bd 87e6 33bd
000000b0: c72a 313d a283 d3bc af7e fabc 4d31 083d
000000c0: bcba 6ebd 35e7 043d 6fcc 7e3d 3a78 14bd
000000d0: 9cd1 15bd 72f7 cf3d 453e 2f3d 5873 6abd
000000e0: 00c6 f4bc f007 b1bc 3f49 d43b 0dd4 96bd
000000f0: 2206 9dbd 773a 213d f114 123d 1fe9 c4bd
00000100: 1c24 a9bc d06c b63d 3f62 113c c804 1b3e
00000110: d518 e8bd 8c5b 9f3d d40c 7c3d e9d6 15be
00000120: 4887 1a3d 6274 3a3d aa4d 1bbd e9f3 95bd
00000130: ad83 84bd 6657 cebd f097 1dbd 8263 d0bc
00000140: 87c0 443d eff0 eebc 9eee 2ebd cea6 533d
00000150: c5a4 3a3c 6712 923b 9a82 52bd 09eb 633d
00000160: 1000 b73d c099 4e3c 1bad 94bd 9c61 58bd
00000170: 8157 c43c de7b f3bc 891b 333b 49b4 193d
00000180: f786 e3bd 540d 80bd 05e6 c1bc 0e87 ffbd
00000190: bd3c 83bd 999f 06bd 961e 42bd 2bcb 4dbc
000001a0: 0ec9 c03d 223f 1f3d 4fc5 c73d f8ee 043d
000001b0: 4180 5d3d 682e 61bd e1c1 aebd 0c85 78bd
000001c0: a822 3f3d a48a d83d 32f0 233d 88a9 4a3c
000001d0: 3b73 09bd ce9c ecbd fe8b 703d 4def 8bbd
000001e0: d8db 24bd 4a3c 17bd df37 00bd 5776 90bd
000001f0: a3d0 6cbc 8348 36bd 09d0 203d 471d 5e3d
00000200: 3cba eb3c 441c cebd dcf8 32bd 2e28 3a3d
00000210: 865c f13c 7e26 eabd f15f bbbb e199 04bd
00000220: 54ec 1cbc c83f fe3b bcdb 9e3c af59 c93c
00000230: e6fe 3f3d 748b d83c 8515 b6bc 9c57 b4bd
00000240: c202 d83d 3200 10bd 6723 893c 2e66 f0bd
00000250: 31ac 4bbd 7d6b 183d 3b15 c33c 957a d43c
00000260: da8f 39bd c696 4ebd 2205 77bd 5c14 d23c
00000270: aa88 083c ba2f 1d3c 2bcb c6bc 8fe6 373d
00000280: 37df 123d 7ed5 c83b cc73 b33c 1b7d 0a3d
00000290: 3ac4 11bd 2196 073e 2806 d1bd 3316 363c
000002a0: 5d46 6e3c 363b a9bd cc43 273d 19c4 fa3c
000002b0: aabe 77bc 1409 923d 26f9 533d 6783 63bd
000002c0: 0ce0 e13c 1e6c 843d 5972 f13c 2f26 273d
000002d0: 6ee8 f43d b7dd 633c 4209 4d3c 8d19 76bd
000002e0: 0048 ef3d 54a8 adbd 9b6b b7bd 7aeb 843d
000002f0: 3722 0f3d b111 bdbc 2c4c bd3d 564c 6a3c
00000300: eaf4 24b8 3f00 c5bc 7816 9bbd de16 423d
00000310: 58d1 c7bd ad30 67bd d32e bd3d c088 a23d
00000320: eab1 f7bd 4986 8b3c 64c3 0a3d 6209 923c
00000330: d22a c03d 8174 a83d 947d 243d 5ef2 943d
00000340: 263f b8bc 3691 613c 832a 0fbc 4901 db3d
00000350: 91bc e13d 6bbe ebbc 7b31 2b3d 3ba3 3b3c
00000360: 1685 cabb 9e17 36bd 70ef 8bbd aa50 723d
00000370: 78da 72bd 0638 14bd e6d7 5cbd eb30 46bc
00000380: bfc1 d43d 61be 57bd f853 25bb e5ec ed3d
00000390: be30 60bd 88bd de3d 2b78 cfbc 07b8 a73d
000003a0: 0562 47bd 34a2 2d3c b451 823c 65b6 ba3c
000003b0: fb88 933d 65ae 01bd 3e34 31bc 952c 163d
000003c0: 3cfb adba 5a73 86bd d16e e23c bd39 263d
000003d0: 7282 a93d 0411 e23d d1dd 0aba 6827 b83d
000003e0: 44b5 873d d879 33bd e282 383c f02f 82bd
000003f0: d585 803c ff1e 323d 3acf c7bd c702 8c3d
-0.10211711 -0.006547062 0.042429548 -0.014646189 0.103034265 0.08316477 -0.06377963 0.0292575
-0.018398665 0.0843007 -0.018825514 0.08797113 0.084416054 -0.031831216 0.07099975 -0.009486098
-0.05540639 0.060948875 0.021454556 -0.027702149 -0.044532303 0.02585304 -0.07567697 -0.0020685028
-0.05128694 -0.059115045 -0.0024378758 0.010624154 0.07650506 -0.03223065 0.022239897 0.0068548336
-0.057044744 -0.12868306 -0.018711336 0.05064157 0.08288798 -0.028667113 -0.048251685 -0.12721765
0.08029894 0.14283206 -0.11028413 -0.04392102 0.043253686 -0.025819603 -0.030577986 0.033250142
-0.058283553 0.03244706 0.06220668 -0.03624747 -0.036576852 0.10154618 0.042783994 -0.057238907
-0.02987957 -0.02161023 0.006478458 -0.07364664 -0.07667185 0.039362397 0.035664503 -0.09614777
-0.020647101 0.08907473 0.008873521 0.15138543 -0.11332861 0.07781133 0.06153567 -0.14632763
0.03772667 0.045521148 -0.037915863 -0.07321913 -0.06470428 -0.10075264 -0.038474977 -0.025438074
0.04803517 -0.02916762 -0.04270803 0.05167275 0.011391823 0.00445776 -0.051394083 0.05564407
0.08935559 0.012609899 -0.0725958 -0.052827463 0.023967506 -0.02972215 0.0027329645 0.03752545
-0.11109727 -0.06252542 -0.023669252 -0.124769315 -0.06408069 -0.032867048 -0.04739245 -0.012560646
0.09413348 0.038878568 0.097544305 0.03245446 0.05407739 -0.054975897 -0.08533073 -0.06067376
0.04666391 0.105733186 0.04002399 0.012369521 -0.033557158 -0.115533456 0.058727257 -0.068327524
-0.04024872 -0.03692273 -0.031303283 -0.070538215 -0.01445404 -0.044502746 0.039260898 0.05422714
0.028775327 -0.10063985 -0.043694362 0.045448475 0.029463064 -0.11433123 -0.005718224 -0.032373313
-0.009577829 0.007759068 0.019391887 0.024578897 0.04687395 0.026433684 -0.022227058 -0.08805773
0.10547401 -0.035156436 0.016740514 -0.11738239 -0.04972476 0.037211884 0.023813834 0.025937358
-0.045303203 -0.050436758 -0.06030763 0.025644474 0.0083333645 0.009593898 -0.0242668 0.044897612
0.035857406 0.006128966 0.021905802 0.033810716 -0.035587527 0.13240863 -0.10206252 0.011113691
0.014543143 -0.08263247 0.04083614 0.030611085 -0.015121141 0.07130638 0.05175128 -0.055545237
0.027572654 0.06465934 0.02947347 0.0408079 0.11958395 0.013907841 0.012514414 -0.06008296
0.11683655 -0.08479372 -0.08956071 0.06490226 0.03494474 -0.023079725 0.09243044 0.0143004265
-3.932874e-05 -0.024047969 -0.07572645 0.04738509 -0.09756726 -0.056442905 0.09237447 0.07936239
-0.12094481 0.017031806 0.033877745 0.01782674 0.09383167 0.08225346 0.040158823 0.0727279
-0.022491049 0.013767531 -0.008738163 0.106936045 0.11022294 -0.028777322 0.041795235 0.011452491
-0.006180416 -0.044456117 -0.068327785 0.05915896 -0.05929038 -0.03618624 -0.053916834 -0.012096624
0.10388517 -0.052671794 -0.0025227051 0.1161745 -0.054733984 0.10875994 -0.025325855 0.08189397
-0.048677463 0.010597754 0.0159081 0.02279205 0.07203861 -0.031660456 -0.010815678 0.03666361
-0.0013273726 -0.0656497 0.027640732 0.040582407 0.082768336 0.11038402 -0.00052973354 0.08991891
0.066263705 -0.04381737 0.011261674 -0.063567996 0.015688816 0.04348659 -0.09756322 0.06836467

GRU/quant_dense_39/LastValueQuant/FakeQuantWithMinMaxVars__2678 f4 [32, 1]
00000000: 20fb 103e 2770 b2be 365a 753e 2549 273e
00000010: cbb2 94be 7991 23be 7443 8d3e d327 36be
00000020: 1dd4 85bd fd4b b4be da9c 57be 0000 0000
00000030: 8aa2 713e 2770 32bc 7991 a33e d000 2bbe
00000040: 029a ca3e 832d 503e 4a1f 8f3e 2cbe 48be
00000050: 2770 32bd e111 79be d327 363e 2222 1c3e
00000060: 887b 66be 48f8 833e d000 2bbe 8106 453e
00000070: 1dd4 05be 887b e63d 8106 c53e 090f ecbe
0.14158297 -0.3485119 0.23960194 0.16336496 -0.29042658 -0.15973462 0.27590525 -0.17788629
-0.06534598 -0.35214224 -0.21055928 0.0 0.2359716 -0.010890997 0.31946924 -0.16699529
0.39570624 0.20329861 0.2795356 -0.19603795 -0.043563988 -0.24323227 0.17788629 0.15247396
-0.22508061 0.2577536 -0.16699529 0.19240762 -0.13069196 0.112540305 0.38481525 -0.4610522

GRU/quant_dense_38/LastValueQuant/FakeQuantWithMinMaxVars__2677 f4 [32, 32]
00000000: f2b0 c73b f2bb 7cbe b6c4 15bd 109c 2b3e
00000010: d4ba aebc 27cf a33e bd7c 81be 79e3 983e
00000020: 2e87 8fbe 6a68 8cbe 2e9d 793c 1f0c 033e
00000030: 9f91 9d3e 2e9d 79bd 5c03 6a3e b6da ff3d
00000040: a754 3ebe b6cf 4a3e 10a7 603d 2e9d 793c
00000050: 4c7d a83d 2e87 8fbd a75f 733e 79e3 18be
00000060: c53f a23e b6da ffbd a649 093e b6c4 15bd
00000070: f2a5 123e 6a73 c13d 79e3 983e 2e87 0fbe
00000080: e335 bb3d a754 3e3e d4ba aebc f2b0 c7bd
00000090: d4c5 633e a75f 733e 3d02 9c3d a649 093e
000000a0: 2e87 8f3e 885e a53e 2e87 8fbd f2b0 c73c
000000b0: d4ba aebd 5bf8 b43d a75f 73be a649 89bd
000000c0: 10a7 e0bc 7aee 4dbe 10a7 60be a754 3ebe
000000d0: e32a 06be f2b0 c7bb 7aee 4dbe e32a 863e
000000e0: b6c4 953d 3d02 1c3e d4ba 2e3d 27cf a3be
000000f0: c53f a2bd a649 89be b6da 7fbe 63b0 a03e
00000100: c54a 573e a75f 73be 2e87 8f3e 2e87 0f3e
00000110: 2e9d 793c 2e9d 79be 2e9d 79bd 10a7 e0bc
00000120: a649 89bd 885e 25be 79e3 98be 1f22 edbd
00000130: f968 b33e 79e3 98be c53f 22bd f2a5 12be
00000140: 8969 da3d ccf7 8d3e b6da 7fbe b6da 7f3e
00000150: 3d02 1cbe 109c 2b3e 012c 54be bd7c 81be
00000160: 6a73 41be f2b0 47bc 5bf8 b4be 7aee cdbd
00000170: 79e3 18be 10a7 e03d f2bb 7cbe c53f 22bd
00000180: 1f17 383e a754 3ebe b6da ff3d b6c4 153d
00000190: 98e4 66be 1f0c 03be 6a73 c13d f2b0 c73c
000001a0: b6c4 953e f2a5 923e b6c4 153c c53f 22bd
000001b0: f2a5 12be f2bb 7c3e 1f22 6dbe b6c4 153e
000001c0: 10a7 60be 6a73 413e 0121 1f3e 5bf8 b43d
000001d0: 2e87 8fbd f2b0 c73c 5bf8 34be f2b0 47bd
000001e0: 63b0 a0be f2b0 47be d4ba 2ebd 44ba 873e
000001f0: b6da ff3d e32a 06be 2e87 8fbd 1f22 6dbd
00000200: 4c7d 28be 4c7d 28be d4ba 2ebd f2b0 c7bd
00000210: 10a7 603d 10a7 60bd 885e 253e 2e9d 79bd
00000220: f2b0 473e e335 bbbd 5bf8 343e 885e a53e
00000230: 7aee cdbd b6c4 953d f2a5 12be f2b0 47bc
00000240: 6a68 8c3e f2b0 47bb b6c4 953d a75f f33d
00000250: 6a73 41be f2b0 47bd d4c5 63be a649 09be
00000260: 1754 97be f2a5 123e 1f0c 033e 44ba 87be
00000270: db72 9abe 2e9d 79be f2b0 47be f2a5 923e
00000280: 2e9d f9bc d4ba aebd 4c7d 28be c54a 57be
00000290: 5bf8 34be a649 89be 2e92 443e 6b7e 76be
000002a0: 8969 dabd 6a73 c1bd 012c 54be 7aee cd3d
000002b0: 4c7d 283e c53f 22bd 1f0c 83bd bd7c 81be
000002c0: 7aee cdbd 8969 5abe 3d02 1c3e bd87 b6be
000002d0: f2b0 473e d4ba 2ebd 0121 1fbe d4ba 2e3e
000002e0: 2e87 0f3e a754 3e3e 819b 84be f2b0 473d
000002f0: 819b 84be 98e4 663e 4c7d a8be 7aee 4d3e
00000300: c53f 22bd a649 093e 4c7d a8be 3d02 1c3e
00000310: d4ba aebe 4c88 5d3e 3d02 9c3e f968 b33e
00000320: d4ba 2ebe 5bf8 34be 012c 543e 7aee 4dbe
00000330: b6c4 95bd e335 bb3d 2e9d f93d 885e a53e
00000340: 6a73 c1be 3d02 1cbe 0121 1f3e 0000 0000
00000350: 2e9d f9bd 3d02 1c3e 6a73 41be c53f 223e
00000360: 6a73 41be 10a7 60bd e335 3b3d b6da ff3d
00000370: 1f17 b83e 98d9 b1be 1f22 ed3d ccf7 8d3e
00000380: a75f 73be 8969 5abe 5c03 6a3e 9021 c6be
00000390: 364a b0be 98e4 e63d 0000 0000 4c7d a83e
000003a0: b6c4 15bd 885e 253e f2b0 473d a75f f3bd
000003b0: 4c7d 28be f2bb 7c3e 2e9d f9bd b6c4 15bd
000003c0: c54a 573e 1f17 b8be b6c4 153c 012c d4bd
000003d0: 7aee cd3d 2e9d 79bd f2b0 473d 10a7 e0bc
000003e0: f2a5 923e 2e87 8fbe 4c7d 283e e32a 86be
000003f0: f2b0 c73b 10a7 e03c 012c 54bd e32a 86be
0.0060940916 -0.2468107 -0.03656455 0.16758752 -0.021329321 0.31993982 -0.2529048 0.29861048
-0.2803282 -0.27423412 0.015235228 0.12797593 0.30775163 -0.060940914 0.22852844 0.12492888
-0.1858698 0.19805798 0.054846823 0.015235228 0.082270235 -0.07008205 0.23766957 -0.14930524
0.31689277 -0.12492888 0.13407001 -0.03656455 0.14321116 0.094458416 0.29861048 -0.1401641
0.091411375 0.1858698 -0.021329321 -0.097505465 0.22243434 0.23766957 0.076176144 0.13407001
0.2803282 0.32298684 -0.07008205 0.024376366 -0.085317284 0.088364325 -0.23766957 -0.067035004
-0.027423412 -0.20110503 -0.2193873 -0.1858698 -0.13102297 -0.0060940916 -0.20110503 0.26204595
0.0731291 0.15235229 0.042658642 -0.31993982 -0.07922319 -0.26814002 -0.24985775 0.31384572
0.21024616 -0.23766957 0.2803282 0.1401641 0.015235228 -0.24376366 -0.060940914 -0.027423412
-0.067035004 -0.16149342 -0.29861048 -0.11578774 0.35041025 -0.29861048 -0.039611597 -0.14321116
0.106646605 0.27728117 -0.24985775 0.24985775 -0.15235229 0.16758752 -0.20719911 -0.2529048
-0.18891683 -0.012188183 -0.3534573 -0.100552514 -0.14930524 0.10969365 -0.2468107 -0.039611597
0.1797757 -0.1858698 0.12492888 0.03656455 -0.22548139 -0.12797593 0.094458416 0.024376366
0.2925164 0.2864223 0.009141138 -0.039611597 -0.14321116 0.2468107 -0.23157547 0.1462582
-0.2193873 0.18891683 0.15539934 0.088364325 -0.07008205 0.024376366 -0.17672865 -0.048752733
-0.31384572 -0.19501093 -0.042658642 0.26509297 0.12492888 -0.13102297 -0.07008205 -0.05789387
-0.16454047 -0.16454047 -0.042658642 -0.097505465 0.054846823 -0.054846823 0.16149342 -0.060940914
0.19501093 -0.091411375 0.17672865 0.32298684 -0.100552514 0.0731291 -0.14321116 -0.012188183
0.27423412 -0.0030470458 0.0731291 0.118834786 -0.18891683 -0.048752733 -0.22243434 -0.13407001
-0.29556343 0.14321116 0.12797593 -0.26509297 -0.30165753 -0.24376366 -0.19501093 0.2864223
-0.030470457 -0.085317284 -0.16454047 -0.21024616 -0.17672865 -0.26814002 0.19196388 -0.24071662
-0.106646605 -0.094458416 -0.20719911 0.100552514 0.16454047 -0.039611597 -0.06398796 -0.2529048
-0.100552514 -0.21329321 0.15235229 -0.35650435 0.19501093 -0.042658642 -0.15539934 0.17063457
0.1401641 0.1858698 -0.2589989 0.048752733 -0.2589989 0.22548139 -0.32908094 0.20110503
-0.039611597 0.13407001 -0.32908094 0.15235229 -0.34126914 0.21634024 0.30470458 0.35041025
-0.17063457 -0.17672865 0.20719911 -0.20110503 -0.0731291 0.091411375 0.12188183 0.32298684
-0.37783366 -0.15235229 0.15539934 0.0 -0.12188183 0.15235229 -0.18891683 0.15844639
-0.18891683 -0.054846823 0.045705687 0.12492888 0.3595514 -0.34736323 0.11578774 0.27728117
-0.23766957 -0.21329321 0.22852844 -0.3869748 -0.34431618 0.112740695 0.0 0.32908094
-0.03656455 0.16149342 0.048752733 -0.118834786 -0.16454047 0.2468107 -0.12188183 -0.03656455
0.21024616 -0.3595514 0.009141138 -0.103599556 0.100552514 -0.060940914 0.048752733 -0.027423412
0.2864223 -0.2803282 0.16454047 -0.26204595 0.0060940916 0.027423412 -0.051799778 -0.26204595

GRU/quant_dense_38/BiasAdd/ReadVariableOp:0 f4 [32]
00000000: 3570 a53c 34d2 533d a9c9 733d cb4b 3d3d
00000010: 04ab 533d 4b80 38bd 0000 0000 40a1 633d
00000020: 5866 493d fd79 74bd 66a4 75bd 11fe 65bd
00000030: c2ef 693d 164c e1bd 92ef 453d ef83 633d
00000040: c367 343d 2e1d 453d 16dd 6c3d d087 64bd
00000050: 1df6 75bd 4aed 74bd 454f 3c3d 6f3e 3f3d
00000060: 4879 2c3d aea6 6e3d 72aa 74bd 465a 443d
00000070: da99 28bd 8c6c 6c3d e1f7 53bd 8c52 27bd
0.020195106 0.051714137 0.05951849 0.04621486 0.051676765 -0.045044225 0.0 0.0555737
0.04916987 -0.05968665 -0.059971236 -0.0561505 0.057113416 -0.1100084 0.048324175 0.055545744
0.044044267 0.04812353 0.05782803 -0.055793583 -0.060049165 -0.05979661 0.045974035 0.0466904
0.04210785 0.058264427 -0.05973286 0.047937654 -0.04116235 0.057720706 -0.051750068 -0.040850207

B__2718 f4 [1, 192]
00000000: 0d98 a7bd fc72 98bd b236 ac3c ffe2 1fbd
00000010: 7179 89bd 7ce6 45bc 2d37 88bd 74ee 4f3d
00000020: cbbb 943d 8cba 8bbd 809d 5abc 1ef8 893d
00000030: e046 563d 9326 abbc c481 62bc f1c6 973c
00000040: c51f 12bd 0a8d 11bd 529e 4dbd dc63 993d
00000050: 417c 4dbd 92bd a73d 1d09 98bd 66d2 ac3c
00000060: 22b6 3dbd ec3f 823d 8f57 20bd a740 353d
00000070: 6298 ae3d 91bf 713d 38cd 3539 08a1 18bd
00000080: 9c98 9fbd c8d1 9a3d 67ac 3bbd 71e8 973d
00000090: eabd 22bd d4dd e23c acb0 5fbd 9c2a 04bd
000000a0: bcac acbd 2351 37bd 9fe6 973c 71cb 8a3d
000000b0: dd69 a4bd 9122 413d 48ea 8abd 2128 6dbd
000000c0: c87e 9a3c 07d9 07ba 534f a0bd 5467 2ebd
000000d0: b51f 113d d1e4 613c f721 873d 39f5 2abd
000000e0: 0587 4b3d 4ac1 85bd be34 a3bd 4f8a 513d
000000f0: 478d 1cbd db0f 10bd 2163 a33d bfb4 81bd
00000100: be44 593d c88e 44bd dae2 acbd 5946 51bd
00000110: 28f1 5c3c fcc9 27bd 290e 763d d205 933c
00000120: ec39 81bc de71 663d 29e8 56bd 3f9b 483c
00000130: 4560 943d 90d2 5fbd f10c 863d b32d 85bd
00000140: eea4 48bd ef6e 6d3d c71d 10bd 7fd9 903d
00000150: 36f0 72bd a23c 113d 820a aebd f4f4 813d
00000160: b0c2 6ebd 11d8 6b3d 868a 123d c6fd 653d
00000170: 0da4 873d 95f0 79bd c3ba a7bd 2847 873d
00000180: 0d98 a7bd fc72 98bd b236 ac3c ffe2 1fbd
00000190: 7179 89bd 7ce6 45bc 2d37 88bd 74ee 4f3d
000001a0: cbbb 943d 8cba 8bbd 809d 5abc 1ef8 893d
000001b0: e046 563d 9326 abbc c481 62bc f1c6 973c
000001c0: c51f 12bd 0a8d 11bd 529e 4dbd dc63 993d
000001d0: 417c 4dbd 92bd a73d 1d09 98bd 66d2 ac3c
000001e0: 22b6 3dbd ec3f 823d 8f57 20bd a740 353d
000001f0: 6298 ae3d 91bf 713d 38cd 3539 08a1 18bd
00000200: 9c98 9fbd c8d1 9a3d 67ac 3bbd 71e8 973d
00000210: eabd 22bd d4dd e23c acb0 5fbd 9c2a 04bd
00000220: bcac acbd 2351 37bd 9fe6 973c 71cb 8a3d
00000230: dd69 a4bd 9122 413d 48ea 8abd 2128 6dbd
00000240: c87e 9a3c 07d9 07ba 534f a0bd 5467 2ebd
00000250: b51f 113d d1e4 613c f721 873d 39f5 2abd
00000260: 0587 4b3d 4ac1 85bd be34 a3bd 4f8a 513d
00000270: 478d 1cbd db0f 10bd 2163 a33d bfb4 81bd
00000280: 0b09 523d 7513 3bbd 73f8 acbd 33e4 4ebd
00000290: d6ff f63a 0a31 27bd 4906 763d a5e5 9d3c
000002a0: aa52 abbc 1cea 6b3d 7837 5cbd 9aed 243c
000002b0: d123 963d c1c7 65bd ab4a 863d 6a43 84bd
000002c0: 5422 50bd 3bff 6d3d 6261 15bd 8185 8f3d
000002d0: 40f7 73bd c158 1b3d a058 aebd a043 823d
000002e0: 0c2d 6ebd aefb 6a3d cd68 133d 3283 643d
000002f0: 4b4b 843d 6ec4 7abd 1633 abbd 379e 843d
-0.08183298 -0.074438065 0.021022175 -0.03903484 -0.06712616 -0.012078878 -0.06651149 0.050764516
0.07262381 -0.0682269 -0.013343215 0.06736778 0.052313685 -0.020892417 -0.013824884 0.01852748
-0.03567483 -0.035534896 -0.050199814 0.0748975 -0.050167326 0.081904545 -0.07423613 0.02109642
-0.046316274 0.063598484 -0.039146002 0.04425111 0.085251585 0.059020583 0.00017337955 -0.037262946
-0.0779278 0.07559544 -0.045818713 0.074173816 -0.039731897 0.027693667 -0.054611847 -0.032267198
-0.08431384 -0.044755112 0.018542586 0.067770846 -0.08028004 0.047152106 -0.06782967 -0.057899598
0.018859282 -0.0005182181 -0.0782763 -0.04257901 0.03543063 0.013787464 0.06598275 -0.04173777
0.04968931 -0.065310076 -0.07969044 0.051157292 -0.03822067 -0.03517137 0.07977892 -0.06333303
0.053044073 -0.04798773 -0.08441706 -0.05109248 0.0134852305 -0.04096411 0.060072098 0.017947111
-0.01577469 0.056260936 -0.0524675 0.012244045 0.072449245 -0.054644167 0.06545437 -0.06502857
-0.048985414 0.057967123 -0.035184648 0.07072734 -0.059311114 0.035458215 -0.08498098 0.06345549
-0.058291137 0.057579104 0.035776637 0.05615022 0.06623087 -0.061020453 -0.08189919 0.06605369
-0.08183298 -0.074438065 0.021022175 -0.03903484 -0.06712616 -0.012078878 -0.06651149 0.050764516
0.07262381 -0.0682269 -0.013343215 0.06736778 0.052313685 -0.020892417 -0.013824884 0.01852748
-0.03567483 -0.035534896 -0.050199814 0.0748975 -0.050167326 0.081904545 -0.07423613 0.02109642
-0.046316274 0.063598484 -0.039146002 0.04425111 0.085251585 0.059020583 0.00017337955 -0.037262946
-0.0779278 0.07559544 -0.045818713 0.074173816 -0.039731897 0.027693667 -0.054611847 -0.032267198
-0.08431384 -0.044755112 0.018542586 0.067770846 -0.08028004 0.047152106 -0.06782967 -0.057899598
0.018859282 -0.0005182181 -0.0782763 -0.04257901 0.03543063 0.013787464 0.06598275 -0.04173777
0.04968931 -0.065310076 -0.07969044 0.051157292 -0.03822067 -0.03517137 0.07977892 -0.06333303
0.051278155 -0.045672853 -0.084458254 -0.050510596 0.0018844556 -0.04081825 0.060064588 0.019274542
-0.02091344 0.05759631 -0.053763837 0.010066414 0.0733105 -0.056098703 0.065572105 -0.06458171
-0.050813988 0.058104735 -0.036469825 0.07007886 -0.059561968 0.03792644 -0.085129976 0.06360555
-0.05814843 0.057368927 0.035988618 0.05578918 0.064596735 -0.061222486 -0.08359353 0.064754896
