models/station_9/model_latest.onnx (onnx, 407794 bytes, 12 tensors)

W__1187 f4 [1, 96, 64]
000000 45 73 c5 bd 95 68 8a 3e 5d 54 e9 3d ab f3 38 bb
       -0.096411265 0.27032915 0.11393044 -0.002822141
000010 73 40 1e 3e 5d 29 86 3e da 72 b7 bd ac a4 5d be
       0.15454273 0.26203433 -0.08957453 -0.21644849
000020 21 42 56 3d 83 8b 4c 3e b2 b7 49 3e 28 ba 26 be
       0.05230916 0.19975094 0.1969898 -0.1628195
000030 25 87 ff bd 4f c8 3f bd 9d c7 21 be 2c 96 ff bd
       -0.12476949 -0.04682189 -0.15798803 -0.12479815
000040 94 da 83 bd c8 69 da 3d fa 09 62 bb a6 75 b3 bd
       -0.06438175 0.106647074 -0.003449081 -0.08762674
000050 b9 74 2e be a1 05 b0 bd 63 8f 73 be 9a 90 b9 bc
       -0.17036714 -0.08594824 -0.23785166 -0.02265196
000060 4b 0d 5c 3e 54 88 71 3d b1 d2 3a 3e 36 30 4d be
       0.21489446 0.058967903 0.18244435 -0.20037922
000070 80 48 33 3c ba c3 65 3e 34 f7 80 3e f1 a0 2d 3d
       0.010942578 0.22437945 0.251886 0.042389814
000080 c6 aa c6 3d 99 c1 37 3d 19 96 24 3d 0a 86 eb 3c
       0.09700541 0.044862363 0.040182207 0.028750438
000090 f7 7d 07 be b5 16 13 be b9 31 b2 3b 6f 2c 42 be
       -0.13231646 -0.14364131 0.0054380563 -0.18962263
0000a0 6d 5b 63 bd 1b 05 ed 3d 30 81 a4 3c e3 3c 25 be
       -0.055507112 0.115732394 0.020081133 -0.16136508
0000b0 80 33 d0 bc 72 9a fd bd bf 0c 72 3d 33 28 b4 3d
       -0.025415182 -0.12382974 0.059094187 0.0879673
0000c0 ea 33 02 3e d7 23 f7 3d 3c 60 38 3d f8 1c fa 3d
       0.12715116 0.12067383 0.04501365 0.122125566
0000d0 2f 02 09 3d af b4 b7 3d 37 b9 8e 3d 25 39 87 bd
       0.033449348 0.089700095 0.06968921 -0.06602696
0000e0 9c 20 91 bd 38 f0 e5 bd d9 4b 4f be e7 a7 63 3e
       -0.07086298 -0.11227459 -0.20243777 0.22232018
0000f0 a2 47 90 bd 83 c1 23 be 28 6c 17 3c 64 14 32 be
       -0.07044913 -0.15991788 0.009242095 -0.17390591
000100 c5 7e 06 3d 32 1c 8f 3c 4d 7c 45 bd ba f7 50 be
       0.03283574 0.0174695 -0.048214246 -0.20407
000110 20 96 cf bd fb d7 4b bd 5e 2f 3b be 68 fe 34 3e
       -0.10136056 -0.049766522 -0.18279788 0.17675173
000120 f1 06 1a 3b 21 83 49 bd 2f ce 60 3d dd f4 ae 3d
       0.0023502673 -0.04919732 0.054884132 0.08542798
000130 00 8d 26 3e a5 0d e2 bd ea 52 66 3e eb 6a e7 3d
       0.16264725 -0.11037759 0.22492567 0.1129969
000140 88 22 90 bc 34 e9 0b 3e fb 78 7c be a2 b3 e8 3d
       -0.01759459 0.13663179 -0.24655525 0.11362387
000150 f4 a6 05 be 4d 28 8e bd 48 df 30 3e 0b c7 91 3e
       -0.13051969 -0.069412805 0.17272675 0.2847217
000160 90 ad c4 bd ac 74 fd 3c 48 10 e7 3d 56 7a 97 bd
       -0.09603417 0.030939423 0.11282402 -0.073963806
000170 6c 7c 6d 3d 53 a4 a6 3d 45 18 29 3c f7 bc 14 3e
       0.057979986 0.08136811 0.010320728 0.1452521
000180 54 01 5b be bc aa 12 3e 1f 36 60 3d b7 ef 10 be
       -0.21387225 0.14322942 0.054739114 -0.14153944
000190 e9 ad d5 bd 0f ed 30 3e 2f 6e 56 3c f6 d4 b1 bd
       -0.10433561 0.1727793 0.013087793 -0.08683197
0001a0 cf 90 ac bd 5a 2e d5 3d 0f d6 26 3c 5e 14 23 3e
       -0.084260575 0.104092315 0.0101828715 0.15925738
0001b0 23 bb 80 bd 39 53 1b be 95 8d 88 bd 98 54 ec 3d
       -0.062856935 -0.15168466 -0.0666763 0.115395725
0001c0 5e 74 6f be 56 70 ab 3e 4a dd 72 3d d9 5b 51 3e
       -0.23384234 0.33484143 0.05929307 0.20445193
0001d0 0f 87 0e bc 48 be f0 bc 2a 1a 14 be 69 4f 00 bd
       -0.008699193 -0.029387608 -0.14463106 -0.03132573
0001e0 55 79 21 bd a8 c6 d6 bc f0 24 49 bd 3f 90 fc bd
       -0.039422352 -0.026217774 -0.049107492 -0.123322
0001f0 c1 54 35 3e 24 b0 37 3e 75 0f 11 be 73 33 5a be
       0.17708112 0.17938286 -0.14166053 -0.21308689
000200 b1 58 5b 3e 87 60 e0 bd cf 88 75 be 34 c3 71 be
       0.21420552 -0.10955911 -0.2397797 -0.2360962
000210 f9 8b 19 be cd e9 36 3e c7 10 68 be 89 ee 89 3d
       -0.14994802 0.17862625 -0.2266265 0.0673495
000220 0e 47 51 be 0d 9e 48 be 2a 14 82 3d 80 d7 22 3e
       -0.20437261 -0.19591542 0.06351502 0.15902519
000230 16 4b cc 3d f1 9c 86 bd e8 38 8d 3d 94 3e 90 3e
       0.09975259 -0.06572903 0.0689562 0.28172743
000240 45 2d 70 bb 8b 14 36 3e 94 38 0f be c3 b4 6b bd
       -0.0036648076 0.17781274 -0.13986427 -0.057545435
000250 9c bd ac bd 12 51 a1 bc c2 59 18 3d d2 37 0c bd
       -0.084346026 -0.019691978 0.037194975 -0.034232922
000260 6f d6 0b be dd 53 31 3e b0 af 67 3d e5 72 82 bd
       -0.13656019 0.17317148 0.056564033 -0.06369571
000270 fd 92 ef 3d 6b a7 0d 3d 95 68 2f be 5e 65 21 bd
       0.11697958 0.03458349 -0.17129739 -0.039403312
000280 7f 56 92 3d ce 57 91 3d 15 87 ec 3c c0 af 0b 3e
       0.07145404 0.070968255 0.028873006 0.13641262
000290 06 57 e2 bd d2 e9 32 3e 5a d7 ec bd e1 cf 4a 3b
       -0.11051755 0.17472008 -0.115645126 0.003094666
0002a0 c4 98 08 be 84 dc 3a 3d a1 40 1c bd 1a f5 9f 3c
       -0.13339525 0.045620456 -0.038147572 0.019526053
0002b0 d8 d7 38 3e 1a 88 cf 3d 58 c7 2e 3e 1b 2f 01 3e
       0.18051088 0.10133381 0.17068231 0.12615626
0002c0 46 f3 03 3e a3 26 0d be 54 03 8f 3e f7 60 f8 3d
       0.1288577 -0.1378427 0.27932227 0.121278696
0002d0 b4 0c 09 3e f7 a0 9d bd 54 74 e5 3d 30 ec a5 bc
       0.13383752 -0.07696717 0.112038285 -0.020254225
0002e0 20 cb ff bc 4d 1e e8 3c 24 a5 4f be 1f 6c 27 be
       -0.031224787 0.028334761 -0.2027784 -0.16349839
0002f0 ab 3b ca 3d a3 9e f4 bd d2 73 15 be 85 98 13 be
       0.09874662 -0.1194432 -0.14594963 -0.1441365
000300 93 d7 84 bd 1b 91 50 be 7a c3 06 3c 6c ea d1 3c
       -0.0648643 -0.20367853 0.008225316 0.025624476
000310 00 d1 a0 3c 19 97 93 3d 4b 4d 4c be 85 02 b2 bc
       0.019630909 0.07206554 -0.1995136 -0.021729717
000320 ed 8a 84 3e 40 2e 9f 3d 8e c3 10 bd e8 75 f1 3d
       0.25887242 0.07772493 -0.035342745 0.11790067
000330 20 4b b0 bc d0 24 84 3d be 11 99 3e d0 8f 24 bd
       -0.021520197 0.06452334 0.2989635 -0.040176213
000340 55 db ac 3d a6 1f d7 3d db 0b 72 3c ba 98 1e bd
       0.08440272 0.10504083 0.014773334 -0.03871987
000350 62 00 5b 3e fb 82 60 bb 67 df d4 3d 1f 6f 34 be
       0.21386865 -0.0034257758 0.10394173 -0.17620514
000360 0e 62 3b 3e 7f dc da 3c 5d 1e 81 be 25 32 06 3e
       0.18299124 0.026716469 -0.25218478 0.13105066
000370 fb 73 6a 3d 88 19 c0 bd 43 59 98 bd 1f 6c d8 3d
       0.057239514 -0.0937987 -0.074389 0.105674975
000380 17 44 ab bd d3 f2 94 3d 98 6d c7 3d 7e ed 81 bd
       -0.083625965 0.072728775 0.097377 -0.06344126
000390 43 10 6d 3d 93 cc 8c 3e be 1e 53 3e 52 48 8e 3d
       0.057876837 0.27499828 0.20617196 0.06947388
0003a0 cf 11 b9 bd 7d 15 ad 3d ae 1e 0b 3e d5 9d 56 be
       -0.090366 0.08451364 0.13585922 -0.20958646
0003b0 dc 1d 4d bd 9e 78 ec 3d 12 32 cc 3d 84 e4 15 bd
       -0.050077304 0.115464434 0.09970488 -0.036594883
0003c0 11 e7 f2 bd 0b 64 a1 3b f1 a6 03 3e 63 c1 04 bd
       -0.11860479 0.004925256 0.12856652 -0.03241099
0003d0 d6 e1 46 bd 3f 79 83 be 53 78 b3 3d ae 82 a7 3d
       -0.048555218 -0.2567844 0.087631844 0.08179222
0003e0 77 fa bb bb 15 47 17 3e da e2 83 bd da d6 09 bd
       -0.005736645 0.1477321 -0.06439753 -0.033652164
0003f0 bb a3 ac bd ce ea 0b 3e ff 0f 0a be 7d c8 9f 3d
       -0.084296666 0.1366379 -0.13482665 0.07801912

W__1173 f4 [1, 192, 128]
000000 fe 95 15 bd 2a dc 01 3e 05 24 43 3d 6a b7 0c 3e
       -0.036519997 0.12681642 0.047641773 0.13741842
000010 6a 20 09 be 05 61 3b 3e 79 e0 c7 3c da c8 06 be
       -0.13391271 0.18298729 0.02439903 -0.13162556
000020 4e be c2 3d 63 b2 24 be 80 3a 25 bd c1 cf 03 3c
       0.09508954 -0.16083674 -0.040338993 0.008045138
000030 9d e4 30 bd 5d f6 82 be 0c 44 d2 bc df b7 01 bc
       -0.043186773 -0.25578585 -0.025667213 -0.007917373
000040 4a 35 6b bd 2c 5f 45 be d5 09 e8 3d e7 6d 88 3d
       -0.057423867 -0.19274586 0.1133 0.06661587
000050 5d 71 27 be 85 ee 3b bd f5 4b a8 3c bb cd d0 3c
       -0.16351838 -0.045881767 0.020544032 0.025488725
000060 f5 81 d5 3d eb 35 5d bd 10 cc 9d bd 99 85 7c be
       0.10425178 -0.0540065 -0.077049375 -0.24660338
000070 93 d0 c5 bc 00 ed 1d be 0d cf 5e 3b 19 e4 63 3c
       -0.024147308 -0.1542244 0.0033997924 0.013909363
000080 13 be 4d 3e 94 79 0e 3e c9 6d 8e be 78 1c 58 3d
       0.20092039 0.13913566 -0.27818134 0.052761525
000090 27 35 86 3d ad ec c7 bc 3b e4 a2 bd 58 7d 9c 3d
       0.06553107 -0.024404848 -0.07953688 0.07641095
0000a0 42 4f a0 bd 5e 5b ec 3a 52 5e 1a 3e 71 a2 3f bd
       -0.07827617 0.0018032601 0.15075043 -0.046785776
0000b0 ac da 18 3d 42 a5 a8 3b 95 ee df bd ec 4b af bd
       0.037317917 0.0051466534 -0.10934178 -0.08559403
0000c0 75 e2 23 be 1e c1 7c 3e a9 ec 0f 3e 57 79 61 bd
       -0.16004355 0.24683043 0.14055122 -0.05504736
0000d0 0e 49 d3 3d ba 77 21 bc db e8 2e 3e b1 80 34 3e
       0.103166685 -0.009855205 0.17081015 0.17627217
0000e0 90 36 65 bd 93 1c 3d 3d 82 81 15 3e ad 98 37 3e
       -0.055960238 0.04616983 0.14600185 0.17929335
0000f0 7a 7c 05 be 23 66 f1 bc 44 a9 9c 3d 5c 47 ce bd
       -0.13035765 -0.029467648 0.07649472 -0.100722045
000100 94 0b 56 3e b6 03 05 3e fc 0a 80 3e 56 44 3c 3d
       0.20902854 0.12989697 0.2500838 0.045963608
000110 b0 83 37 3e d5 c5 27 3e b0 aa 44 3e 08 a2 6d 3e
       0.17921329 0.1638406 0.19205737 0.23206341
000120 c9 b5 81 3e 3b 99 3f bd 47 af 6b bc df 57 45 3d
       0.25334004 -0.04677699 -0.014385051 0.048179504
000130 bd 85 99 3d 8f c9 19 3e de c1 51 3e 6e 10 63 3d
       0.07496212 0.15018295 0.2048411 0.05543559
000140 73 2a 93 be d9 34 23 be e3 48 79 3d ef 88 67 bd
       -0.28743324 -0.15938129 0.060860526 -0.056527074
000150 54 de 72 be 53 4b 8d bd df f4 5f bd 33 91 ed 3d
       -0.23717624 -0.068991326 -0.054676887 0.1159996
000160 5d 29 03 be 4b 97 34 be d4 28 90 3e f1 ac 02 be
       -0.12808748 -0.17635839 0.2815615 -0.12761284
000170 27 47 ab bc 00 a0 a0 3c f8 62 0f be 9a b1 d8 bd
       -0.020907952 0.019607544 -0.14002597 -0.1058075
000180 45 4a 12 3d ac a6 1d 3e 69 92 c1 3d 35 25 60 3e
       0.03571536 0.15395612 0.09451754 0.21889193
000190 16 f2 88 bd a8 4e 9f bd 9f 51 01 be 40 ce d1 bd
       -0.06686799 -0.07778674 -0.12628792 -0.10244417
0001a0 b6 cb 15 3d 55 14 69 3e ca 0c 7b 3e c9 dd bc 3d
       0.036571227 0.22761662 0.24516597 0.0922199
0001b0 97 7b 40 be b0 58 08 be db 11 a8 3c 34 88 72 be
       -0.18797146 -0.13315082 0.020516327 -0.2368477
0001c0 59 79 9a bd 97 39 29 3e 3a d3 76 3b ea 07 3b be
       -0.075426765 0.16525875 0.0037662522 -0.18264738
0001d0 b7 8d 16 3e c5 eb 1e 3d a1 c7 d2 bd d8 cb 8b be
       0.14702497 0.038799066 -0.102919824 -0.27303958
0001e0 11 26 86 3d 91 19 1c be 59 eb 70 bd 84 de 3c 3e
       0.06550229 -0.15244128 -0.058818195 0.18444258
0001f0 a4 4e 9c 3d 7f 28 b3 bd 7e 38 56 3e 91 ee 83 bc
       0.07632187 -0.087479584 0.20919988 -0.016104968
000200 01 5e 9f bd eb 85 b4 3c 78 7d 5e 3d fb 12 a6 3d
       -0.07781602 0.022036513 0.054318875 0.08109089
000210 2d fa 06 3d c2 01 35 3e ac 9b 54 bd 56 e6 a5 3b
       0.03295343 0.17676452 -0.051906273 0.0050628586
000220 aa f6 0a 3e 0d 8f fa bd ff 5a 4b bd 1a 4e 41 bd
       0.13570657 -0.12234316 -0.049647328 -0.047193624
000230 59 d3 91 3d f4 6b 61 3d cd ae bd bd c7 a9 73 bb
       0.071203895 0.055034593 -0.09261856 -0.0037180053
000240 c9 d1 c7 3d 78 7c fa 3d 81 13 ed bd d0 7f 3d 3d
       0.0975681 0.12230772 -0.11575986 0.04626447
000250 3f 13 7c bd 97 76 3c be 69 75 7f 3c d0 ad 48 3d
       -0.061541792 -0.18404613 0.015591958 0.048993886
000260 26 02 e5 3c 8c e8 99 3d 48 51 08 bd f4 67 b8 bd
       0.027955126 0.07515058 -0.03328064 -0.090042025
000270 3e 19 c0 bd 05 81 98 bd 5b 06 cb bc 57 08 a7 3d
       -0.093798146 -0.074464835 -0.024783304 0.081558876
000280 99 f2 05 3e 58 97 30 3b c1 d0 25 3e ca 40 e3 3c
       0.13080825 0.0026945677 0.16192915 0.027740855
000290 1d 4f 54 3e 78 44 38 bc 29 e5 07 3e c7 e1 81 3e
       0.20733304 -0.011246793 0.13271011 0.25367567
0002a0 46 12 2d 3d d5 25 c1 3c 98 fd 54 bc 7e 01 ae bd
       0.042253755 0.02357761 -0.012999915 -0.08496378
0002b0 92 cb f6 bd 44 94 67 bd ac e9 14 be 3f a3 a1 bc
       -0.12050547 -0.05653788 -0.14542264 -0.019731162
0002c0 99 cb 15 3e f7 eb 4f 3e 6c 58 5e 3e f2 b8 0b 3d
       0.14628448 0.20304857 0.21713418 0.034111924
0002d0 b0 9d 43 3b 9d 20 3d 3e fb ce f9 3d d9 60 14 3e
       0.0029848628 0.18469472 0.121976815 0.1449007
0002e0 b3 c6 b1 3d 77 69 90 3d a4 5d 10 be 54 d4 c7 bc
       0.08680477 0.07051366 -0.14098221 -0.024393238
0002f0 e1 40 ad bd 57 35 a4 bc 58 85 79 bd ee 9b 68 3d
       -0.0845964 -0.020044966 -0.060918182 0.05678933
000300 90 8f 76 3d 3a 29 f1 3b ad 8f d0 bc 44 7b f0 3c
       0.060195506 0.007359651 -0.025459135 0.029355653
000310 17 fd 26 be 78 7d 36 3d 34 07 2c be ec c2 d1 bd
       -0.16307484 0.04455325 -0.16799623 -0.102422565
000320 24 91 0f be 9e 25 0e 3e f9 7f 0c 3e f4 52 49 bc
       -0.1402021 0.13881537 0.13720693 -0.012287844
000330 20 a9 80 3d 02 b8 2a be d6 a3 c4 3d 21 58 86 3d
       0.06282258 -0.16671756 0.09601562 0.06559778
000340 11 79 9f bc b2 cc 2c 3e cb 0d 7e be 44 83 40 be
       -0.019466909 0.1687496 -0.24809949 -0.18800074
000350 94 9e 76 bd 81 87 b9 bd d9 0f 62 be fc 06 8b bd
       -0.060209826 -0.090590484 -0.22076358 -0.067884415
000360 e5 f2 98 bd 33 64 30 bd 5b ba ba 3d d5 46 88 3d
       -0.074682035 -0.043064307 0.09117576 0.06654135
000370 e4 3e 8b bc 83 e2 32 be ca f8 1b be 82 88 88 3d
       -0.016997762 -0.1746922 -0.15231624 0.06666662
000380 0d 8f 1c 3e 87 13 9c bd 42 37 1d 3e b5 94 9a 3d
       0.15288945 -0.07620912 0.1535311 0.07547895
000390 90 a7 16 3c 66 c3 1f bd 3c c8 32 3d 91 86 da bd
       0.009195223 -0.039004706 0.04364799 -0.10670198
0003a0 7d 7b ee 3d b8 1a 1a 3e 3f 39 0d 3e 66 ea 95 3d
       0.11644647 0.15049255 0.13791369 0.073200986
0003b0 b5 d4 00 be d1 77 1d 3d 29 80 b6 3d 91 59 a2 bd
       -0.12581141 0.038444344 0.08911163 -0.0792724
0003c0 83 4b f8 bc b4 79 24 3e 91 6b ae 3d 7a ba ba bd
       -0.030309444 0.16062051 0.085166104 -0.09117599
0003d0 0b 2c 36 3c ff 0f 1a bd ad e3 9a bd 1e b4 76 3c
       0.011118899 -0.03761291 -0.07562957 0.015057592
0003e0 ca a0 4a 3e 17 e0 89 ba 57 65 40 be 94 3a a6 bd
       0.19787899 -0.0010519054 -0.18788658 -0.08116642
0003f0 46 28 33 be 9a 00 89 3d d2 32 fd bc 81 d9 2f bd
       -0.17495832 0.06689568 -0.030908022 -0.042932037

W__1160 f4 [1, 384, 6]
000000 3f 9b 27 be d4 9a c5 bb 10 ea 10 3d 32 e2 b4 bd
       -0.16367815 -0.00603042 0.03537947 -0.08832206
000010 4a 04 86 bd 7d 97 78 bd 76 aa 16 bd a3 62 a8 3c
       -0.06543787 -0.060691345 -0.036783658 0.020554846
000020 5e 36 07 3e f1 cc a5 3d 2d c5 0e 3e 95 10 93 3c
       0.13204333 0.0809573 0.13942404 0.017952243
000030 1a 90 54 3d d9 16 c3 bd 20 9d 30 bd 66 c7 ac bc
       0.05189524 -0.09525842 -0.043118596 -0.021091174
000040 bd fa 01 3e cd 5e fb bc da f3 09 3e 5e a5 d6 3d
       0.12693305 -0.030684853 0.13471928 0.1048076
000050 15 50 24 3d 37 19 b3 3d 2a e6 c9 3d 09 b9 77 3e
       0.040115435 0.08745044 0.098583534 0.24191679
000060 39 02 b2 bd 66 a6 07 3a bd 0f c4 3b be 63 dc bd
       -0.0869183 0.00051746366 0.0059833215 -0.10761212
000070 ad 08 4d 3d a1 b9 8c bd 27 64 41 bb 17 ec 49 3c
       0.050057102 -0.068713434 -0.0029509158 0.012324355
000080 03 63 2a 3e bf 23 32 3e 3c 98 d6 3d 95 e1 c5 bd
       0.16639332 0.17396449 0.10478255 -0.09662167
000090 fe 02 84 bd bc 3d 5c 3c 7c 9c 15 bd b3 99 66 3d
       -0.06445883 0.013442453 -0.03652619 0.056298923
0000a0 e0 2a 28 3e aa 69 23 be 05 59 bd 3d 44 68 a5 3d
       0.16422606 -0.15958276 0.09245495 0.08076528
0000b0 4f 66 44 3e 65 c6 14 bc 55 fd 83 3e 6c 3b 9f 3d
       0.19179653 -0.009080504 0.25779215 0.07775006
0000c0 38 55 56 3d db 2d 28 3e e7 d2 af bd c6 db 4d bd
       0.052327365 0.16423742 -0.08585148 -0.05025842
0000d0 d6 50 df bc 3e b1 c6 3d db e5 47 3d ee a2 f3 3d
       -0.027260225 0.09701775 0.04880319 0.11896311
0000e0 aa 74 1b bd 87 5a 74 bc fc 1a d9 3d ff 46 ff bb
       -0.037953056 -0.0149141615 0.1060085 -0.007790446
0000f0 02 a5 79 bd b8 bb bb bb 6c 2b 79 bd 61 db 52 3d
       -0.06094838 -0.005729165 -0.060832426 0.051478747
000100 21 78 67 3c fb 63 0e 3e 94 0d ee bd 3c 2e 43 bd
       0.014127762 0.13905327 -0.116236836 -0.047651514
000110 5f 04 a9 bd 33 82 ed 3d 59 bd 56 3d 1e df 5f bc
       -0.08252787 0.11597099 0.05242667 -0.013664035
000120 d8 52 5d bd dd 46 36 3e a9 a1 0c 3d 82 5b 8b 3d
       -0.054034084 0.1780047 0.03433386 0.06804563
000130 14 19 93 3d 89 99 30 bd 00 d1 4f 3e 6b d1 1b 3e
       0.07182518 -0.043115173 0.20294571 0.15216605
000140 82 01 2e 3d 49 ef 18 3e 17 a0 38 3e 2f 5b d0 bd
       0.042481907 0.1493503 0.1802982 -0.10173642
000150 28 9b a8 3d f5 0e 67 3e 11 83 af 3d 4d 34 6c 3d
       0.08232719 0.225643 0.08569921 0.057667065
000160 54 9e 8e 3d cc b6 ff 3d c8 0e 13 3e 73 6e 61 bd
       0.069637924 0.124860376 0.14361107 -0.055036973
000170 70 d6 0d 3e 45 24 0d 3e c0 f7 e3 3c 9c 4a a4 3c
       0.13851333 0.13783367 0.027828097 0.020055108
000180 00 4d a4 bc 7b d2 27 3d ef 1f c6 bd fd b9 29 be
       -0.020056248 0.040972214 -0.096740596 -0.16574855
000190 4a 24 57 3d b0 69 a9 bc e6 68 05 bb 41 de 1a 3e
       0.052524842 -0.020680279 -0.0020356714 0.15123846
0001a0 c8 58 f8 3d e7 20 eb 3d 18 2d 4a 3d b1 a2 b3 3d
       0.12126309 0.11480885 0.04935941 0.08771265
0001b0 a8 bc 28 3e 4d ff a1 3d 82 4b 11 3e cc 38 d2 3d
       0.16478217 0.07910023 0.1418896 0.102647394
0001c0 a3 c1 09 3e c9 10 19 3e 1d 13 49 3d 05 c9 75 bc
       0.13452773 0.1494781 0.049090493 -0.01500154
0001d0 00 7a ae bd db 1a ed bc c5 e1 de bc c7 3f 80 3d
       -0.085193634 -0.02894347 -0.027207265 0.062621646
0001e0 4d 58 3b 3c 80 5c 10 3e 20 ee de 3d df 6c 97 3d
       0.011434627 0.14097786 0.108852625 0.073938124
0001f0 36 8e 1f 3e 92 11 20 bc 6c b0 c7 bd 96 83 bc bd
       0.15581593 -0.009769814 -0.09750447 -0.092047855
000200 2f 3f 1f bc 9c c1 28 3e d0 2a ea ba cd f7 45 bd
       -0.009719654 0.16480106 -0.0017865542 -0.048332024
000210 fe 06 75 3d ab be 7f bd 1d 14 20 bb 35 cd 09 bd
       0.05982112 -0.062437695 -0.002442605 -0.033642966
000220 b8 a5 55 3d 1b 2a c6 3a cb 04 fa 3d d2 52 a4 bd
       0.052159995 0.001511875 0.122079454 -0.08023609
000230 76 3c 54 3d a5 38 45 bd fa 95 db 3d 21 e0 f0 3d
       0.051815473 -0.048149724 0.10721965 0.11761499
000240 7e d5 83 3d b3 ef a5 3d ce b6 33 3e b0 e2 4a 3e
       0.06437205 0.081023596 0.17550203 0.19813037
000250 43 af 15 3d 15 5c 49 3d d2 e7 18 3d 61 49 b0 3c
       0.036544096 0.049160082 0.037330456 0.021519365
000260 67 6e 10 3e a5 89 6d bd 5a c8 96 bc d2 21 f4 3d
       0.14104615 -0.057992596 -0.018406082 0.11920513
000270 86 b3 8d 3d 8e d8 c0 3d 1d 20 30 3e fe c1 0f 3d
       0.06919007 0.094163045 0.1719975 0.035097115
000280 79 9b db 3d c5 36 25 bd fc 1d a2 3c 1a 4e 15 3e
       0.107230134 -0.040335435 0.019789688 0.14580575
000290 b0 44 85 3d b1 90 33 3e b9 09 ea 3d ba 67 af 3d
       0.06507242 0.17535664 0.11427636 0.08564706
0002a0 a6 9b bf bd 3c 20 21 bd a1 23 dd bd f6 21 fa 3d
       -0.093558595 -0.03933738 -0.10797811 0.12213509
0002b0 c3 0f 3f 3d 23 10 f4 3d df 3d bf 3d 8d 67 38 bd
       0.04664589 0.1191714 0.09337973 -0.04502063
0002c0 03 5d 13 3d b9 e5 f2 bd a8 5f 97 3d 3d f6 8e bd
       0.035977375 -0.11860222 0.07391292 -0.0698056
0002d0 01 36 45 3e fd 6b 37 3e 11 0b b9 3d 5d e5 5a 3e
       0.19258882 0.17912288 0.09035314 0.21376558
0002e0 7c 47 2f 3e bc c4 65 3d 6a 34 1e 3c 67 da 01 3e
       0.17117113 0.056095824 0.009656051 0.1268097
0002f0 cf dd e0 bc ba 32 77 bd f4 87 35 3d 0c a5 4c 3c
       -0.027449517 -0.06035111 0.044319108 0.012490522
000300 a7 98 11 3d 8a e7 50 3e c6 45 4e 3c ee 2c 50 3e
       0.03554597 0.20400825 0.0125898775 0.2032964
000310 c9 90 0f 3e 5a 8a e2 bb 64 c7 30 3e 2a d0 06 3c
       0.14020075 -0.0069134654 0.17263561 0.008228341
000320 3a 9b 14 3e 87 8b 72 ba 82 95 6a bd b8 be e1 3d
       0.14512339 -0.00092523586 -0.057271488 0.11022705
000330 89 72 41 3d d2 df d1 3d f4 50 b8 3d 90 94 87 3d
       0.04722837 0.102477685 0.089998156 0.06620133
000340 35 56 13 3d 33 cd 19 3e 37 41 5d 3e 75 36 3e 3e
       0.035970885 0.15019684 0.21606909 0.18575461
000350 37 c8 1d 3d 11 6e 87 3e ba d9 74 3e ee fc 5a 3e
       0.038521018 0.26451162 0.23911181 0.21385548
000360 51 46 27 3d aa 3f a5 3d 46 08 22 3e c0 49 86 3d
       0.040838543 0.080687836 0.15823469 0.065570354
000370 37 21 1b 3e 5a 35 c2 bd 7c 3a 58 bd 1a ee 2a be
       0.15149389 -0.09482832 -0.05279015 -0.16692391
000380 6c 66 9b bd c5 01 12 be 4e 4a 53 3c 41 70 18 bd
       -0.07587895 -0.14258488 0.012896134 -0.03721643
000390 c3 df 6a 3d 38 ae cf 3c 94 e3 c5 3c 8b f2 25 bd
       0.057342302 0.025351629 0.02415637 -0.04051451
0003a0 47 77 40 3e af 9a 05 3e 3c b6 50 3d 27 3a 50 3d
       0.187955 0.13047288 0.050955042 0.05083671
0003b0 c6 8a 86 bd 09 cc 90 3d c5 f4 28 3e 54 cf 3b bd
       -0.06569438 0.070701666 0.16499622 -0.04585202
0003c0 4e 5d 71 bd 8b cd 9f 3d 12 29 53 bd bf c4 c8 3c
       -0.058926873 0.07802876 -0.05155284 0.024507878
0003d0 f0 d8 c8 3d a0 7f ee bd 1b 00 62 3e 3f 54 86 3d
       0.098070025 -0.11645436 0.22070353 0.065590374
0003e0 b9 35 c4 3d 80 60 d1 3d 6f b9 16 3e 1c f9 54 3e
       0.09580559 0.10223484 0.14719175 0.20798153
0003f0 ec 11 41 3d 00 f6 f1 3d f7 3e cc 3b 6e 82 5c bb
       0.047136232 0.11814499 0.006233092 -0.0033647078

R__1188 f4 [1, 96, 32]
000000 ed d6 87 3d d9 13 ba bd 02 22 21 3d 27 a7 15 3e
       0.06632791 -0.09085817 0.039339073 0.14614545
000010 8c d7 04 be 2d 73 f0 3c da ec 6f 3d b6 22 cd 3d
       -0.1297285 0.029351795 0.05857549 0.10016386
000020 c7 c2 6c bc e3 ab 10 be 25 1f 00 3e 31 88 d3 bc
       -0.014450735 -0.1412807 0.1251188 -0.025821777
000030 9c fb 67 3e 46 c1 df 3d f2 76 43 bd 26 71 f3 bc
       0.22654575 0.10925536 -0.047720857 -0.02971704
000040 f2 79 5e be 90 1f a3 bd ea 59 e4 bd 0a 51 89 bd
       -0.21726206 -0.079650044 -0.11149962 -0.0670491
000050 5e 31 48 3e 71 f2 4a bc 1d a9 ac ba 31 db 55 bd
       0.19550082 -0.012386904 -0.0013172958 -0.05221099
000060 b6 0f ca bd eb 15 ff bd 81 74 ff 3d 3b d3 ba 3d
       -0.09866278 -0.124553524 0.12473393 0.0912232
000070 fa 3c b4 bd 81 c5 a2 3e 26 6a a7 bd b6 92 96 3d
       -0.08800693 0.3179131 -0.08174543 0.07352202
000080 6c e7 34 3d d7 2a bd bc 08 97 f1 3d 46 8e 9b 3a
       0.044166014 -0.023091717 0.11796385 0.0011867962
000090 9c 04 32 bd 31 0f 28 be 46 bd 1a 3e ad bf 0d 3e
       -0.043461427 -0.16412045 0.15111265 0.1384265
0000a0 08 b5 c2 bd c2 91 63 be b8 6e 9a 3d 17 46 44 be
       -0.09507185 -0.22223571 0.07540649 -0.19167362
0000b0 1e 44 df 3c 61 f4 97 3e 87 e6 62 3d e0 54 95 3d
       0.02725416 0.29678634 0.05539563 0.07291579
0000c0 d4 24 08 3d e7 e0 46 bc eb ff 04 3d fa 7e 03 3e
       0.033238247 -0.012138582 0.032470625 0.12841406
0000d0 a1 f0 cf bb b7 cb 28 3d 2b 47 1c 3c c9 59 9e be
       -0.006345824 0.041209903 0.009538452 -0.30927876
0000e0 92 7f bc 3d c5 87 bc bd 97 4c 1e 3c e8 bb 89 bd
       0.092040196 -0.092055835 0.009661815 -0.067252934
0000f0 51 eb 57 3c b4 5a ef bb 0c 5e 93 bd e5 b4 6c 3e
       0.013178662 -0.007304514 -0.071956724 0.23115881
000100 32 5b a6 bd ac b0 64 bd 9c 06 05 3e 5b 40 99 bd
       -0.08122863 -0.05583255 0.12990803 -0.07482978
000110 26 c6 04 bd 3f 87 1a 3d 41 51 b8 bc 8e 76 ea bd
       -0.03241553 0.037726637 -0.022499682 -0.11448394
000120 e2 db 0e be 34 0c 2a bd 88 3a 20 3e 6b 25 ef bd
       -0.13951066 -0.041515544 0.15647328 -0.11677059
000130 1f 26 c2 3c e6 4b 0f 3e 07 60 54 3e c1 3c 99 3c
       0.023699818 0.13993797 0.20739757 0.018705728
000140 2d e8 90 3d a5 08 de 3d ae 17 5f 3d 91 b6 0b bd
       0.07075534 0.108414926 0.054465942 -0.034109656
000150 47 a0 54 be 3b f1 2d 3e c0 7f a7 3d 27 0b 6f be
       -0.20764266 0.16986553 0.08178663 -0.23344098
000160 05 51 6b bc 7f 82 ac bc e1 0e e0 3d e1 74 9a bd
       -0.014362578 -0.02105832 0.10940338 -0.07541824
000170 7c ad 05 be f8 27 00 3b e9 2f 31 bd 7e f6 49 bd
       -0.1305446 0.0019555073 -0.04325858 -0.04930734
000180 ca 22 5d 3e a9 89 0a bd 6f 8e 0c 3d 2a f8 3d 3e
       0.21595302 -0.03382269 0.034315523 0.18551698
000190 13 58 0e be a7 b3 92 3d a7 fc 88 bd e9 e1 04 be
       -0.13900785 0.07163172 -0.066888146 -0.12976803
0001a0 2f 8c c0 bd d2 a1 ab bd da 5e 49 3c 1e e6 c9 bd
       -0.09401738 -0.08380474 0.012290681 -0.098583445
0001b0 b9 3a 32 be a2 c8 96 3d 6d cd 61 bd 6c 26 fc bc
       -0.17405213 0.073624864 -0.05512755 -0.03078004
0001c0 50 80 25 be 86 11 de 3e 4a 52 07 be 9e 9e 49 bd
       -0.16162229 0.43372744 -0.13214985 -0.049223535
0001d0 64 b7 f7 bd 6d 43 42 be 58 92 22 be 96 5b f4 3b
       -0.12095526 -0.18971033 -0.15876138 0.007457207
0001e0 7d cc 34 bd 2f fd 4f be e5 75 ba bd ca 2d 92 3e
       -0.044140328 -0.20311426 -0.09104518 0.2855056
0001f0 9d 18 96 3d 44 4b b2 3d d9 c0 ee bd c8 29 d7 3d
       0.07328913 0.08705762 -0.116578765 0.10506016
000200 e1 c1 22 3e 59 06 8c bd 11 b4 e5 bb b9 ff d0 bd
       0.15894271 -0.06837148 -0.007009991 -0.10205025
000210 c4 fc 9c 3c f4 e6 08 3e d6 77 75 3d b8 7b 43 3e
       0.019163497 0.13369352 0.059928738 0.19090164
000220 d7 99 cc 3d 7b 88 94 3d 32 d6 18 3e d2 e4 51 3e
       0.0999028 0.07252594 0.14925459 0.20497444
000230 58 bc e4 3d 56 e7 f5 3d c6 b2 2f 3d 52 c8 fb 3c
       0.11168736 0.120070145 0.0428951 0.030735169
000240 0d bb 2b 3d ad 89 31 be ec f8 a7 bd c4 0d 6e 3d
       0.041926432 -0.17337675 -0.08201775 0.058118597
000250 78 48 87 3e b8 60 5f 3d 3c 0a 0d be c8 19 24 bd
       0.26422477 0.054535598 -0.13773435 -0.04006365
000260 ef be 7a bd a7 05 91 bc 7f 28 76 bd 01 43 8d 3e
       -0.061217245 -0.01770289 -0.060097214 0.27590182
000270 49 1a 17 3e f5 10 0a 3d c5 4e 38 3d 6c a3 54 3d
       0.1475612 0.033707578 0.044996995 0.051913664
000280 92 31 69 be 5d 84 79 3e 0f 2d b6 3d bf 91 06 be
       -0.22772816 0.24366899 0.08895313 -0.13141535
000290 d8 76 c6 3d 13 87 38 bb 9e ed 12 3e 0c 6c 03 3d
       0.096906364 -0.0028156682 0.14348456 0.032085463
0002a0 7b a7 2e 3e 2a 40 0e 3e 96 6e 55 be 5e 71 e3 3d
       0.17056076 0.13891664 -0.20842966 0.111056075
0002b0 e5 9c 3d 3e 3f bd ff bd 6b 42 91 3d 7f 38 bd 3d
       0.18516882 -0.12487268 0.07092746 0.092392914
0002c0 cb b1 48 be c7 82 5c bc 8d 04 8c 3d 26 16 35 3e
       -0.19599073 -0.013458914 0.068368055 0.1768423
0002d0 e5 55 4d 3e 34 87 cc 3c 5a 88 ec 3c 7a 9b 12 3a
       0.20052297 0.024966814 0.028873611 0.0005592626
0002e0 d6 ec 82 3c 75 1b 84 3e 41 19 29 3e 07 1f 8f 3d
       0.015982073 0.25802198 0.1651354 0.0698834
0002f0 96 b2 94 bd 6d 1a bc bd ef f9 09 3e a4 94 10 3e
       -0.07260625 -0.09184728 0.13474248 0.14119202
000300 91 0b 04 3e 4e 73 ab 3c 38 82 37 be 5c dc 5a 3c
       0.12895037 0.020929005 -0.17920768 0.013358202
000310 0c 42 94 3d ed 8f 66 bb 4b 20 3a bd c8 d2 82 bd
       0.0723916 -0.0035181001 -0.045440953 -0.063878596
000320 0c 2f 1f be 01 06 19 be d6 1f 74 3d 0f aa 17 3e
       -0.1554529 -0.14943697 0.059600674 0.14810966
000330 f5 84 50 3e 6f bb 00 3e 79 fa 84 3d 3a a3 42 bd
       0.20363219 0.125715 0.06493086 -0.047518946
000340 95 7f 5a 3d 1e 1c b3 bd da 87 28 be f6 b8 0c 3e
       0.053344328 -0.08745597 -0.16458073 0.13742432
000350 dc db 5a 3c 6a 3d fa bd 4c eb ad bd 56 40 39 be
       0.013358083 -0.12218745 -0.08492145 -0.18090948
000360 89 67 c8 bd 85 fa 46 bd 78 2c a5 3d cd 75 b6 3c
       -0.09785373 -0.048578758 0.08065122 0.022272969
000370 04 98 45 bd d5 ce 0f 3e ac 17 d6 3c fe e8 b4 3d
       -0.048240677 0.14043744 0.026134335 0.08833502
000380 a7 fc d4 bd a1 91 fe 3c ea de 03 3e 58 75 79 3d
       -0.10399752 0.0310753 0.12878004 0.060902923
000390 7b 9d 45 3e 37 ff 7d 3c dc 40 0d bd a2 2e 95 bc
       0.19298355 0.0155027425 -0.034485683 -0.018210713
0003a0 84 fb 5d bd 79 b7 0b 3d a7 d6 87 be 74 37 90 bc
       -0.054194942 0.03411052 -0.26530954 -0.017604567
0003b0 89 5b cf bd 3e 75 94 3e 17 da a5 bd 4c ac 19 3e
       -0.10124881 0.289957 -0.08098238 0.15007132
0003c0 40 4b c7 bd 4e 3a 6a 3d 46 ba f0 bd de 66 0a bd
       -0.0973115 0.05718451 -0.11754279 -0.033789508
0003d0 9b 95 44 bc 06 71 a0 3d 9e d9 e1 3c f1 11 b0 bd
       -0.011998559 0.078340575 0.027569588 -0.08597172
0003e0 a5 cf 17 bc 90 2d e7 3b 98 e1 0c 3e c0 ac 72 bd
       -0.009265815 0.007054992 0.13757932 -0.05924678
0003f0 e9 b8 20 bd cf ee 13 3e 03 75 cd bd f2 fe b9 bd
       -0.039238844 0.14446567 -0.10032084 -0.0908183

R__1174 f4 [1, 192, 64]
000000 6b 29 5b bb c1 87 09 3e c3 cf 69 be 87 cb 0f 3d
       -0.0033441435 0.13430692 -0.22833161 0.03510621
000010 13 29 a5 3b 5d 70 ed 3d 79 c6 11 b9 4a 2d 96 bd
       0.005040297 0.11593697 -0.00013902214 -0.07332857
000020 c0 72 72 bd 62 a3 1d bc 84 73 28 3e 7e ab 8d 3d
       -0.059191465 -0.009621473 0.16450316 0.06917475
000030 39 9b 81 3d db b9 01 bd b3 d8 ea 3d 85 db 3e 3e
       0.063284345 -0.031671386 0.11467113 0.18638428
000040 25 54 72 3e 9a 42 20 bb 7d df 1b be 11 88 9a bc
       0.23664911 -0.002445376 -0.15221973 -0.01886371
000050 4a b5 43 bd 13 d2 b1 bc a6 67 22 3e 57 59 9d 3d
       -0.047780313 -0.021706617 0.15859851 0.07683056
000060 33 e0 89 3e d4 74 66 3e 21 06 22 be 8d 4d b8 bd
       0.26928863 0.22505504 -0.1582265 -0.08999167
000070 65 55 e4 bd a8 3c cd 3d c4 ef 92 bd 86 85 2a 3e
       -0.111491 0.10021335 -0.07174638 0.16652498
000080 60 e9 d0 bd b2 4d 61 3e df 0f 46 3e 9d e0 d1 3a
       -0.10200763 0.22002295 0.19341992 0.0016012375
000090 48 00 49 3e 29 8b 20 3e 17 69 2a 3e 6b a6 ae bc
       0.19629014 0.15678085 0.16641651 -0.021319589
0000a0 f8 d1 24 3d 2b b0 3c 3b ae c1 c5 3a 7e 59 27 3b
       0.040239304 0.0028791528 0.0015087628 0.002553552
0000b0 b5 b6 82 be 02 a3 09 3e 5b 5e 22 3d 2e 5d d2 3d
       -0.2553002 0.13441089 0.039640766 0.10271679
0000c0 b8 5d a3 be 7f ef 50 3d a0 be de bc f4 da 26 3e
       -0.3190744 0.05100965 -0.027190506 0.16294461
0000d0 4b e8 6f be f9 fe 64 39 a3 c6 02 bd 09 ed 0f 3e
       -0.23428456 0.00021838759 -0.031927716 0.14055265
0000e0 65 a4 37 3e e0 b9 6e 3e 5a fe 34 3d f9 d1 20 be
       0.17933805 0.23313093 0.04418788 -0.15705098
0000f0 e1 ef 6b bd 74 b6 7e 3e 68 07 cf bb ee b8 86 bd
       -0.057601813 0.24874288 -0.0063180216 -0.06578241
000100 ae f0 16 3c 2e 4a e1 3c 58 c2 54 bd d3 63 82 bb
       0.009212656 0.027501192 -0.051943153 -0.003979185
000110 49 f7 1c 3e 65 6d a5 bd 30 23 0e bd 66 93 42 be
       0.15328707 -0.08077506 -0.034701526 -0.1900154
000120 1a 72 94 bd 1c 7d a5 3d 15 d5 74 3d 35 42 2b be
       -0.07248326 0.08080503 0.059773523 -0.16724475
000130 e0 96 30 bc 39 c5 eb 3d 99 22 ac 3c 92 fd 84 3d
       -0.010778159 0.115122266 0.021012591 0.06493677
000140 74 e1 e2 bd e0 87 c5 bd 17 26 19 3e 62 5f b7 bd
       -0.11078158 -0.09645057 0.14955936 -0.0895374
000150 4f bc 39 be 33 64 07 3e 79 f6 2f bd d2 46 38 bd
       -0.1813824 0.13221817 -0.042959664 -0.044989415
000160 1e cd 96 b9 a3 63 35 3d 06 14 63 be d4 89 41 bd
       -0.00028763054 0.044284474 -0.22175607 -0.047250584
000170 bb 22 77 be 81 c1 93 3c 6c 98 8f 3d 9d 30 2b 3e
       -0.24134342 0.018036606 0.07011494 0.16717763
000180 1e 37 4b 3d 3c af 83 3d 18 03 00 3e ae ab 05 3d
       0.04961311 0.06429908 0.1250118 0.03263443
000190 16 46 b9 3d 3a 73 11 be eb 75 14 3e d8 16 86 bd
       0.09046571 -0.14204112 0.14498107 -0.06547326
0001a0 5e 1c d0 3d d9 7e 3c be e2 a5 20 be c3 15 ee bd
       0.101616606 -0.18407764 -0.1568828 -0.116252445
0001b0 8d ea 8b b8 74 73 bd 3d 83 10 a5 bd ef 39 33 be
       -6.671725e-05 0.092505366 -0.0805979 -0.17502569
0001c0 7d f7 9a bc d2 69 05 be f1 ae 0d be ad 87 1a bd
       -0.01891684 -0.13028648 -0.13836266 -0.037727047
0001d0 6c 17 f7 3b 33 e2 89 3e 0a 61 26 3e 05 82 f9 3d
       0.007540634 0.2693039 0.16247955 0.121830024
0001e0 5e e1 db 3c d2 94 a4 3d 26 b5 b1 3c d5 c4 15 3d
       0.026840862 0.08036198 0.021692824 0.036564667
0001f0 a7 88 3c be ee ce d7 3d 63 94 53 3b aa 05 e4 3d
       -0.18411504 0.105375156 0.003228449 0.11133893
000200 ef 48 70 bd f7 a4 2f 3d a7 13 9d 3d 97 82 d6 bc
       -0.058663305 0.042881932 0.07669764 -0.026185317
000210 3f ca 42 bd de 98 7d 3d 06 dc 0e be 85 f0 6d 3e
       -0.04755616 0.061913364 -0.1395112 0.23236282
000220 ef 24 f7 bc 61 37 d3 bb f7 3a 53 3e 8d 1c fc 3c
       -0.030168978 -0.0064458107 0.20627962 0.030775333
000230 02 a4 07 3e 2e 8a 22 3d b4 ec 49 3e 32 c0 f8 bb
       0.13246158 0.03968256 0.19719201 -0.007591271
000240 eb c7 0e 3d f5 c0 b7 bd 9e b8 10 be a7 db 39 3e
       0.034858625 -0.089723505 -0.14132926 0.18150197
000250 4f b1 93 3c ed ef 7a 3d da c8 58 3c ce 4d 1c 3d
       0.018028883 0.061263967 0.0132314805 0.038160138
000260 e3 e7 c2 3d 19 23 8c 3d fc 23 0d be cb 04 c8 3a
       0.09516885 0.06842632 -0.13783258 0.0015260217
000270 1a 08 7a bc 28 24 37 bd 29 8f 02 be 40 0d 19 bd
       -0.015260721 -0.044712216 -0.12749924 -0.03736615
000280 2f 6e 2c be 16 f8 a5 bc a7 0e 8a 3d 23 95 4a 3e
       -0.16838907 -0.020259898 0.06741076 0.19783454
000290 27 cb 2f 3d 25 6e f8 3d 0f 51 19 be 72 16 a6 bb
       0.04291835 0.121303834 -0.14972328 -0.0050685937
0002a0 49 1b 4d bc 0f a3 5a 3e 09 e1 12 3d 22 86 cb bd
       -0.012518712 0.21351264 0.03585914 -0.09937693
0002b0 be 1c 0e be 1a 52 f4 bd 60 64 11 3e ff d2 25 bd
       -0.13878152 -0.11929722 0.14198446 -0.040484425
0002c0 10 ae 87 bd 35 3b ef 3d d1 d9 61 bd d5 4c a1 3d
       -0.06624997 0.11681215 -0.055139367 0.07875983
0002d0 8c 01 a7 be 12 6d a9 bd ae 73 8c bd e9 aa 0f bd
       -0.32618368 -0.08272757 -0.06858002 -0.035075102
0002e0 d6 ab 48 3e c1 5c 90 3d e0 72 03 3e 84 ae 8e bd
       0.195968 0.070489414 0.1283679 -0.0696688
0002f0 ef 83 fb bd 9c 69 96 3d b1 ec cb 3d a8 9f 64 3d
       -0.12281024 0.07344362 0.09957255 0.055816323
000300 95 5f 61 3e 79 b0 93 bd 79 c0 ef bd a1 10 02 3e
       0.22009118 -0.07211394 -0.11706633 0.12701656
000310 07 98 5f 3e 0d 68 9a 3c 27 85 c1 bd f6 35 32 be
       0.21835338 0.018848443 -0.09449225 -0.17403397
000320 9e ea 89 be 17 31 a9 bd d2 37 a5 3d 82 8b 10 bd
       -0.2693681 -0.08261316 0.080672875 -0.035289295
000330 1c 3d dc 3c 23 97 15 3e 53 e7 8c 3d 7a 27 59 3e
       0.026884608 0.14608435 0.06880059 0.21206465
000340 ff c4 db 3c ad b3 1a be 00 12 2f be 98 3c 97 bd
       0.026827333 -0.15107603 -0.1709671 -0.07384604
000350 04 41 13 be b2 28 1c bc 6d 5b c9 bc 13 77 5a bd
       -0.1438027 -0.009531187 -0.024579728 -0.053336214
000360 7d bf c0 3d 1d 3e 31 3e 35 6d 75 bd 5a 24 45 be
       0.094115235 0.1730885 -0.0599186 -0.19252148
000370 18 58 47 be 3d 6d d9 3c f5 7a 2a bc 09 3c 48 3e
       -0.19467199 0.026541347 -0.010405292 0.19554152
000380 19 71 28 be 60 63 11 3c b4 44 3c 3e 6b 14 c5 3c
       -0.16449393 0.0088737905 0.18385583 0.024057588
000390 92 5e 37 3e 0d cd e8 3c f9 1a 11 3e 8b 77 53 be
       0.1790717 0.028418088 0.14170446 -0.20651071
0003a0 b1 23 85 3e 5e b8 fc 3a 23 76 d3 bd de f6 1e be
       0.26003793 0.001928102 -0.10325267 -0.1552386
0003b0 d4 1e 16 be 67 7c de 3d f5 5b f6 bd bd 2d 51 3d
       -0.14660197 0.108635716 -0.12029258 0.05106901
0003c0 44 9f ed bd 04 8c 6d be 57 d3 3b be f5 6d da 3d
       -0.11602643 -0.23197943 -0.18342339 0.10665504
0003d0 53 6a 64 bd 72 a5 46 bd ff a4 a2 bd 17 d2 92 bc
       -0.05576546 -0.048497625 -0.07941627 -0.017922444
0003e0 c9 84 b1 3c 50 67 78 3e cc b1 6e 3d fa 20 15 bd
       0.021669762 0.2425816 0.05827503 -0.036408402
0003f0 50 57 9a bd d3 a5 94 3d 73 8c d2 bb dd 7c 79 3d
       -0.07536185 0.07258191 -0.0064254343 0.060910095

R__1161 f4 [1, 384, 128]
000000 66 95 65 3d d3 5a 89 3d 39 ae e6 3c b7 bd b3 bc
       0.05605068 0.067067765 0.028159248 -0.021941049
000010 a1 6d 87 3c 6b 04 d5 3d 91 e5 7c 3c 9d 5e d5 3d
       0.016531767 0.10401233 0.015435592 0.10418437
000020 a2 a1 72 3d 01 9d 50 bd 49 b2 2e 3b 31 11 af bd
       0.059236176 -0.05093098 0.002665656 -0.08548201
000030 60 30 19 3e 32 06 3b 3c 64 2e 74 bd 42 e4 c7 bd
       0.1495986 0.011415051 -0.059614554 -0.097603336
000040 ea 1a 60 bb 8f 45 a7 3d 0c 63 38 bd 09 13 f3 3c
       -0.003419573 0.08167564 -0.045016333 0.029672163
000050 24 b4 05 3b d7 ce a4 bd 0c 53 c5 bd 41 a1 c3 3c
       0.0020401562 -0.08047264 -0.096349806 0.023880603
000060 94 e0 17 3e 4d e7 1e bd 8e 49 e6 3d 19 81 d5 3d
       0.14831764 -0.038794804 0.11244498 0.10425014
000070 b2 1f 57 bd 23 55 e6 bc 2b fe 0e 3d a3 c3 8f 3d
       -0.05252046 -0.028116768 0.034910362 0.070197366
000080 67 ee 02 bd a3 78 a2 3c 8c a3 f7 3b 83 02 a8 bc
       -0.03196564 0.019832915 0.007557338 -0.02050901
000090 e8 d1 fb 3c 99 f9 1b bd 0a d8 64 bd 16 6a 36 3c
       0.03073974 -0.03807983 -0.055870093 0.011133691
0000a0 bf 64 57 bb 1f 05 08 3d d3 c6 88 bd 80 0c 6c bd
       -0.0032866446 0.03320801 -0.06678548 -0.05762911
0000b0 cf 13 4f 3c 31 b4 03 be d2 ab cf 3c f8 dc 4c 3d
       0.012639 -0.12861706 0.025350485 0.05001542
0000c0 d4 ac 4e 3e 6b 50 00 3e e6 a0 5f 3c cb c5 5e bb
       0.20183116 0.12530677 0.013649201 -0.0033992406
0000d0 b5 37 ed 3d 11 0d 5c 3c d0 20 71 3d 45 94 5a 3d
       0.11582891 0.01343085 0.058869183 0.053364057
0000e0 2d d1 96 3d f3 ba eb bc f5 28 b2 bd d9 47 ae 3c
       0.07364116 -0.028775668 -0.08699218 0.021274494
0000f0 a1 06 28 bd 49 c7 63 3d 6e c1 a6 3c 97 b7 94 3d
       -0.041021947 0.055609975 0.020355906 0.072615795
000100 80 46 0c bd 93 d8 78 3d 90 27 bd 3d d3 e5 74 3d
       -0.03424692 0.060753416 0.092360616 0.05978949
000110 5a 11 9a 3b 43 e2 db bc 29 59 82 bd 88 77 db bd
       0.0047017755 -0.026841288 -0.06364662 -0.10716158
000120 a9 ae da bd 27 17 35 3d 14 9c 4a 3d ef cf 37 bd
       -0.10677845 0.044211533 0.049465254 -0.044876035
000130 30 95 8d 3d 32 e3 7b 3d bf 52 88 bd 41 35 ad 3d
       0.06913221 0.061495967 -0.066564076 0.08457423
000140 51 c9 7c bd 28 0f b9 3d 53 ee 0b 3d 1c 74 81 bd
       -0.061715428 0.09036094 0.03416283 -0.06320974
000150 a3 14 17 bd 2b 8b f8 bd 08 2a 33 bd 74 85 f8 3c
       -0.036884915 -0.12135919 -0.043741256 0.030337073
000160 5e 32 cd bd 5b e4 5e bd b3 ec e0 bd ec 6c bb bd
       -0.100193724 -0.054416995 -0.10982647 -0.091516346
000170 af 42 b7 bd 44 91 ab bc ea d7 25 bd 6e 41 2b be
       -0.08948266 -0.020943291 -0.040489115 -0.16724178
000180 6f a9 8b 3c 0b 4d b5 bc af be c0 3d f5 de 55 3d
       0.017048566 -0.022131464 0.0941137 0.05221458
000190 0c 3d 80 bc 97 29 5d bd a2 34 1e 3e d8 ad 9a bb
       -0.01565411 -0.05399474 0.15449765 -0.004720431
0001a0 48 1d 66 3d 64 38 05 bd c4 bf 58 bd dc cc d5 3d
       0.05618027 -0.03252448 -0.052917257 0.104394644
0001b0 82 9e e6 bd 41 04 8b 3b d0 4d b1 3d 4e f5 7a 3c
       -0.11260702 0.0042424505 0.0865742 0.015317274
0001c0 bb d9 c7 bd a4 bc f8 3b 77 c9 c2 bd 40 9c 08 be
       -0.09758326 0.007590847 -0.095110826 -0.13340855
0001d0 88 f0 04 bd f7 0f af 3d 4a e0 29 bd b7 2e c0 3d
       -0.03245595 0.08547967 -0.041473664 0.0938391
0001e0 7a 18 30 3e 9a d0 a5 bc c5 2c fb bd 43 27 14 bd
       0.17196837 -0.02024107 -0.122643985 -0.036170255
0001f0 72 5c 0d be 03 24 f4 bc 19 96 d8 3c c0 70 fc bd
       -0.13804796 -0.029802328 0.02643876 -0.12326193
000200 03 70 21 be 43 56 81 3d 86 92 35 bd a4 9f 96 bd
       -0.15765385 0.06315281 -0.04432919 -0.07354668
000210 8c 8f 25 bd 0b 15 f1 3d 9a ff b5 3d a2 fc 84 bd
       -0.0404201 0.11771592 0.08886643 -0.064934984
000220 e3 1f 76 3d 23 5e 97 bd 62 69 a2 3d 3c dc 2e bd
       0.060089003 -0.07391002 0.079302564 -0.0426905
000230 1b a0 a5 3c 79 8b 0c 3c a8 7e 13 3d 4b 35 09 be
       0.020217946 0.008578175 0.03600946 -0.13399236
000240 c7 c7 1a bd 57 eb 44 bd b2 3d 88 3d f5 7f 34 3d
       -0.03778818 -0.048076 0.066523924 0.04406734
000250 c8 3d c2 3c d5 39 d6 3c 5e 27 f1 bc c7 8d 9b 3d
       0.0237111 0.026150623 -0.029437717 0.07595401
000260 a7 19 1f 3d 38 b0 5b bb a2 86 cb bd 41 95 0a 3d
       0.038842823 -0.0033521783 -0.099377885 0.033833746
000270 40 0f b8 bd 75 cc 4c be e1 37 cb 3c 76 b1 ef 3d
       -0.08987284 -0.19999869 0.024806919 0.1170377
000280 c1 fc e2 bc 89 ca 8e bd 9e e3 5d bd bd 03 a9 3d
       -0.027708413 -0.06972224 -0.05417215 0.08252666
000290 dc 8b 28 3e 3a 6c ef bd f9 52 d7 bc 98 c9 10 3d
       0.16459602 -0.116905645 -0.026284682 0.035348505
0002a0 dd ad f9 bd 0b 2b 34 be af 8b 1a 3e 7e 2b 09 be
       -0.12191365 -0.17594545 0.15092348 -0.13395497
0002b0 09 b3 8d bd 1c 5f 41 3d c9 c1 03 3e 9e 06 ff ba
       -0.06918914 0.047209844 0.12866892 -0.0019456928
0002c0 dd 94 0a 3e 19 02 fd 3d a7 67 aa 3c ac 0c 20 be
       0.1353335 0.12353916 0.020801378 -0.15629834
0002d0 55 c6 51 3d 42 6a 13 3e ec 30 00 bd 68 ec bf 3d
       0.051214535 0.14396003 -0.031296656 0.09371263
0002e0 79 b3 0b 3e e2 a5 ca 3c c7 57 71 3d 1b 11 6b 3d
       0.13642682 0.024737302 0.0589216 0.05738936
0002f0 93 bf 9d bd 48 64 59 3e 99 16 71 3d a2 42 01 be
       -0.077025555 0.2122966 0.05885944 -0.12623075
000300 69 f4 ed 3d 68 89 21 3e e4 49 07 3e 88 d7 53 3d
       0.11618883 0.15775073 0.13211781 0.05171922
000310 f3 11 65 bc 4f 16 2c 3d 01 71 98 3d 3f a0 13 bc
       -0.01398133 0.042013463 0.07443429 -0.009010374
000320 66 0a 97 3d 31 2c 42 3d 91 b5 46 bd d8 88 08 be
       0.0737503 0.047405425 -0.048513 -0.13333452
000330 eb a3 04 3e 7b 90 b1 3c 1a fc 16 3e 9e 2c 3c 3e
       0.12953155 0.021675339 0.14744607 0.18376395
000340 73 1f 33 be 26 a9 ac bc 35 11 93 bd bb 01 a4 bd
       -0.17492466 -0.02107675 -0.07181016 -0.080081426
000350 5b af dc bd 75 d1 f9 bd c0 ab c8 bd 5f 01 9c 3d
       -0.10775634 -0.12198154 -0.09798384 0.07617449
000360 5e 45 ba bd 1b 1e e2 bd b8 2f 2d 3d 4a 54 ba bd
       -0.09095262 -0.110408984 0.042281836 -0.09098108
000370 92 22 d0 bd 30 2b ef bd 56 7d 33 bc 44 ac 1d be
       -0.10162844 -0.11678159 -0.010955175 -0.15397745
000380 13 e3 99 3b 02 21 26 3d 63 b2 dd 3d 5f 4d aa 3d
       0.004696259 0.040558822 0.1082504 0.083155386
000390 c3 90 16 3c 4c 4d 48 bd 59 be 48 3d 9c 96 21 be
       0.009189787 -0.04890184 0.049009655 -0.15780109
0003a0 48 1a 9b ba c2 56 e7 3d 01 5b 67 3d 25 11 79 3d
       -0.0011833394 0.112958446 0.056483272 0.060807366
0003b0 24 e9 66 bd 80 e2 c0 bd 83 15 0c 3e ee 33 17 be
       -0.056374684 -0.094182014 0.13680081 -0.14765903
0003c0 c5 c9 40 bc b9 45 c6 3d ab d1 a0 3d 4c e8 3d be
       -0.011766856 0.09681267 0.07852491 -0.18545645
0003d0 ed 54 f5 3d 60 7d ba bc 1b e4 e3 bd 75 f5 f5 bd
       0.11979089 -0.022764862 -0.11127492 -0.12009708
0003e0 47 43 39 3d 1c a8 1f be 8d 2d f6 3d cb 93 94 3c
       0.045230176 -0.15591472 0.12020407 0.01813688
0003f0 ee c5 ef bd a2 7e d9 bb 64 6f 81 bc ff 8f d0 bd
       -0.11707674 -0.0066374103 -0.015800186 -0.10183715

GRU/quant_dense_17/LastValueQuant/FakeQuantWithMinMaxVars__1149 f4 [32, 1]
000000 1b 22 80 3e cd b9 a3 3e ba 7c 69 be 4e dc 4f be
       0.2502602 0.31977692 -0.22801486 -0.20298883
000010 e2 3b b6 bd ea ac 08 3e 30 a4 92 3e 0a fb 82 3d
       -0.088981405 0.13347211 0.2864089 0.06395538
000020 6a cf b4 3e f2 62 b3 3e d9 85 8b be 24 d8 2a 3e
       0.35314494 0.35036427 -0.27250555 0.16684014
000030 f2 62 b3 be a8 10 14 3d e2 3b 36 3b 5e 03 cd 3d
       -0.35036427 0.036148697 0.002780669 0.10010408
000040 ca a3 66 3e b8 37 11 3e 7f 51 47 be a0 9f 41 be
       0.22523418 0.14181411 -0.19464682 -0.18908548
000050 e2 3b b6 3b 0c 40 5b 3e 57 92 fa bd 13 b1 ad be
       0.005561338 0.2141115 -0.12234943 -0.3392416
000060 a8 10 14 be e2 3b b6 3c e2 3b b6 bb a0 9f 41 3d
       -0.14459479 0.022245351 -0.005561338 0.04727137
000070 0a fb 82 bd 5e 03 4d 3d da ca 63 be 66 74 9f 3c
       -0.06395538 0.05005204 -0.2224535 0.019464683

GRU/quant_dense_16/LastValueQuant/FakeQuantWithMinMaxVars__1148 f4 [32, 32]
000000 07 02 19 bd 0b 83 e5 bd c3 bc c2 3d 92 0d 92 bd
       -0.03735545 -0.11206635 0.0950866 -0.071314946
000010 fe 36 46 3e 96 8e 5e bb 1e 19 8b bc 69 60 7a 3d
       0.19356915 -0.00339595 -0.01697975 0.0611271
000020 2b 65 2a 3e b6 70 a3 be 6f aa 80 be f0 ea a6 3c
       0.16640155 -0.3192193 -0.2513003 0.020375699
000030 b6 70 23 be 07 02 19 3d f4 6b 73 be 92 0d 92 3e
       -0.15960965 0.03735545 -0.2377165 0.28525978
000040 e3 9e 87 be 07 02 19 be d0 08 62 3e 07 02 19 3e
       -0.26488408 -0.1494218 0.22073674 0.1494218
000050 cd 87 15 3e fe 36 46 3e ea 44 97 3e a9 24 04 be
       0.14602585 0.19356915 0.29544765 -0.1290461
000060 07 02 19 be 8c 67 82 be 92 0d 92 bd b6 70 a3 be
       -0.1494218 -0.25469625 -0.071314946 -0.3192193
000070 7c f6 9f be e3 9e 07 be c6 e1 85 3e 92 0d 92 bd
       -0.3124274 -0.13244204 0.26148814 -0.071314946
000080 07 02 19 bd 3b d6 8c be a9 24 04 be f0 ea a6 bd
       -0.03735545 -0.27507195 -0.1290461 -0.081502795
000090 6f aa 00 3e 96 8e 5e 3b d0 08 62 3e e3 9e 07 3e
       0.12565015 0.00339595 0.22073674 0.13244204
0000a0 58 93 0e 3e 58 93 0e be 69 60 fa bd 92 0d 12 3e
       0.13923395 -0.13923395 -0.1222542 0.14262989
0000b0 cd 87 15 3e c6 e1 85 be 4f c8 bb 3d 14 4e 38 be
       0.14602585 -0.26148814 0.09169065 -0.17998534
0000c0 96 8e de bc d0 08 62 3e 41 7c 9c 3e 21 9a 57 3e
       -0.0271676 0.22073674 0.30563548 0.2105489
0000d0 c3 bc 42 3d e3 9e 07 be 21 9a d7 bd cd 87 95 3e
       0.0475433 -0.13244204 -0.10527445 0.2920517
0000e0 07 02 99 3d 7f 77 ec 3d f0 ea 26 bd 1e 19 0b be
       0.0747109 0.115462296 -0.040751398 -0.135838
0000f0 f0 ea 26 3e d0 08 62 be a9 24 84 bd f4 6b f3 3d
       0.16300559 -0.22073674 -0.06452305 0.11885825
000100 da d3 b4 3e cd 87 15 be 41 7c 9c 3e 96 8e 5e bc
       0.3531788 -0.14602585 0.30563548 -0.0135838
000110 07 02 99 3e 2e e6 76 be c3 bc c2 3d 24 bf 9a 3e
       0.2988436 -0.24111244 0.0950866 0.30223954
000120 92 0d 92 3e 7c f6 1f be da d3 34 bd 7f 77 6c 3d
       0.28525978 -0.1562137 -0.04414735 0.057731148
000130 b0 ca 93 3e f0 ea 26 be ea 44 97 be a9 24 04 3e
       0.28865576 -0.16300559 -0.29544765 0.1290461
000140 92 0d 92 bd b6 70 a3 be 6f aa 80 be 38 b1 c9 bd
       -0.071314946 -0.3192193 -0.2513003 -0.09848255
000150 89 42 3f be e3 9e 87 be 6f aa 00 3e b0 ca 93 3e
       -0.18677725 -0.26488408 0.12565015 0.28865576
000160 96 8e 5e 3d 72 2b 4d 3e da d3 34 3e ad a5 d0 3d
       0.0543352 0.20036104 0.1765894 0.1018785
000170 6f aa 00 be c3 bc c2 bc c6 e1 85 be f0 ea a6 bd
       -0.12565015 -0.02377165 -0.26148814 -0.081502795
000180 f0 ea a6 bd 00 00 00 00 ad a5 50 be c3 bc c2 bd
       -0.081502795 0.0 -0.203757 -0.0950866
000190 96 8e 5e 3d 38 b1 49 be 69 60 fa bc cd 87 95 3e
       0.0543352 -0.1969651 -0.03056355 0.2920517
0001a0 1e 19 0b bd f0 ea a6 3c 7f 77 6c be 96 8e 5e 3d
       -0.0339595 0.020375699 -0.23092459 0.0543352
0001b0 07 02 19 bd c6 e1 85 3e da d3 34 bd c3 bc c2 bd
       -0.03735545 0.26148814 -0.04414735 -0.0950866
0001c0 ad a5 50 3d 3b d6 8c be f4 6b 73 be 6f aa 00 3e
       0.05093925 -0.27507195 -0.2377165 0.12565015
0001d0 96 8e de bc 58 93 0e be d3 2d a5 be da d3 34 be
       -0.0271676 -0.13923395 -0.32261524 -0.1765894
0001e0 e3 9e 07 be 0b 83 65 3e 1e 19 8b be 7f 77 ec bd
       -0.13244204 0.2241327 -0.271676 -0.115462296
0001f0 7f 77 6c bd 07 02 19 be 3b d6 8c be 41 7c 9c be
       -0.057731148 -0.1494218 -0.27507195 -0.30563548
000200 a9 24 84 3e 7c f6 1f be 21 9a d7 bd da d3 34 be
       0.2580922 -0.1562137 -0.10527445 -0.1765894
000210 b6 70 23 3e b6 70 a3 3e ba f1 6f be a3 da 7d 3e
       0.15960965 0.3192193 -0.23432055 0.24790435
000220 e3 9e 87 be e3 9e 07 3e 0b 83 e5 3d 96 8e 5e bc
       -0.26488408 0.13244204 0.11206635 -0.0135838
000230 96 8e 5e 3e d0 08 62 3e ea 44 97 3e 1e 19 8b 3d
       0.2173408 0.22073674 0.29544765 0.067919
000240 f4 6b f3 3d 92 0d 92 3e 69 60 7a be 07 02 19 be
       0.11885825 0.28525978 -0.2445084 -0.1494218
000250 cd 87 15 be 7f 77 6c bd 0b 83 e5 bd c3 bc 42 be
       -0.14602585 -0.057731148 -0.11206635 -0.1901732
000260 f0 ea 26 3e 0e a8 a8 3e 5f 39 9e be f0 ea a6 bd
       0.16300559 0.32940716 -0.30903146 -0.081502795
000270 7c f6 1f be fe 36 46 3e 00 00 00 00 4f c8 bb bd
       -0.1562137 0.19356915 0.0 -0.09169065
000280 f0 ea a6 bd f4 6b 73 be 69 60 fa 3c 69 60 fa 3d
       -0.081502795 -0.2377165 0.03056355 0.1222542
000290 38 b1 49 be c3 bc 42 3e fe 36 c6 3e 69 60 fa 3d
       -0.1969651 0.1901732 0.3871383 0.1222542
0002a0 1e 19 8b 3c a0 59 31 3e 92 0d 92 3d 41 7c 1c 3e
       0.01697975 0.17319345 0.071314946 0.15281774
0002b0 c3 bc c2 bd f0 ea 26 3c a9 24 84 3e 38 b1 c9 3d
       -0.0950866 0.010187849 0.2580922 0.09848255
0002c0 96 8e 5e 3b 96 8e de bc 89 42 3f 3e 75 50 90 be
       0.00339595 -0.0271676 0.18677725 -0.28186384
0002d0 01 5c 89 3e 1e 19 8b bc cd 87 15 be a9 24 84 3d
       0.26828006 -0.01697975 -0.14602585 0.06452305
0002e0 07 02 99 bd cd 87 15 be 0b 83 65 3e 1e 19 8b 3c
       -0.0747109 -0.14602585 0.2241327 0.01697975
0002f0 0b 83 e5 3d cd 87 95 3e f0 ea 26 3d 7f 77 6c be
       0.11206635 0.2920517 0.040751398 -0.23092459
000300 96 8e de bc 96 8e de bc 1e 19 8b bc 0b 83 e5 3d
       -0.0271676 -0.0271676 -0.01697975 0.11206635
000310 f0 ea 26 bd 38 b1 c9 3e 41 7c 1c 3e 1e 19 8b 3d
       -0.040751398 0.3939302 0.15281774 0.067919
000320 1e 19 8b 3d d3 2d a5 3e 7f 77 6c 3d 4f c8 bb 3d
       0.067919 0.32261524 0.057731148 0.09169065
000330 f0 ea a6 3d d3 2d a5 3e 6f aa 00 3e 1e 19 8b 3e
       0.081502795 0.32261524 0.12565015 0.271676
000340 5c 14 5b 3e 07 02 19 3e 96 8e de 3c f0 ea 26 3d
       0.21394485 0.1494218 0.0271676 0.040751398
000350 a3 da 7d 3e 65 df ad bd e3 9e 07 3e 0b 83 e5 3d
       0.24790435 -0.08489875 0.13244204 0.11206635
000360 07 02 19 3d 6f aa 00 3e 14 4e 38 3e f0 ea 26 bd
       0.03735545 0.12565015 0.17998534 -0.040751398
000370 96 8e de bb 6f aa 00 be da d3 b4 3d 96 8e de 3d
       -0.0067919 -0.12565015 0.0882947 0.1086704
000380 89 42 3f be ad a5 d0 3d a9 24 84 be 2e e6 76 3e
       -0.18677725 0.1018785 -0.2580922 0.24111244
000390 24 bf 9a be 7c f6 9f 3d 96 8e de bc 82 9c af 3e
       -0.30223954 0.07810685 -0.0271676 0.34299093
0003a0 38 b1 49 be 45 fd 68 3e 96 8e 5e be 65 df 2d be
       -0.1969651 0.22752865 -0.2173408 -0.1697975
0003b0 2e e6 76 3e c3 bc c2 bd 58 93 8e be f0 ea 26 bc
       0.24111244 -0.0950866 -0.2784679 -0.010187849
0003c0 41 7c 9c be 38 b1 49 be c3 bc 42 bd f0 ea 26 bd
       -0.30563548 -0.1969651 -0.0475433 -0.040751398
0003d0 41 7c 1c 3e fe 36 46 3e ea 44 97 be 0b 83 e5 3d
       0.15281774 0.19356915 -0.29544765 0.11206635
0003e0 14 4e 38 3e 8c 67 82 3e 21 9a d7 3d f4 6b f3 3d
       0.17998534 0.25469625 0.10527445 0.11885825
0003f0 0b 83 65 3e 1e 19 0b be 07 02 19 3e 4f c8 3b be
       0.2241327 -0.135838 0.1494218 -0.1833813
