models/station_9/model_latest.onnx (onnx, 407739 bytes, 12 tensors)

W__3411 f4 [1, 96, 64]
-0.08138492 -0.028403595 0.026368624 0.13522094 -0.22785409 -0.23615706 -0.17243004 -0.25203556
-0.0676535 0.06639792 -0.0985604 -0.10854062 0.004812976 -0.07829528 0.0024550082 -0.12692778
-0.17750011 0.06956233 -0.09667654 0.046617366 0.06819303 0.17807847 -0.00020605233 -0.13275942
-0.17186128 -0.10503298 -0.26102775 0.022451412 0.22901809 -0.022536423 0.11313558 0.19809358
-0.0224289 0.27396908 0.17909513 0.04835152 -0.16456832 0.1077288 0.05162815 0.11503525
0.035267264 0.07998887 -0.1224811 0.10229536 -0.07891642 0.22628108 0.11005862 0.03745105
-0.03856396 0.30432543 0.22348714 0.16590005 0.057586063 -0.041370466 0.038259033 -0.018528854
-0.071436636 -0.019222386 0.06632126 0.05920814 0.04888218 0.025517592 0.2058851 0.22499752
0.28508 0.18440482 -0.16336344 0.08637348 0.10400682 0.1267503 -0.10707707 -0.08123992
-0.08879998 0.25300768 -0.023373766 0.061341446 0.2653947 -0.06418141 0.11950345 -0.098595046
0.03418842 0.1233254 -0.19713795 0.10922606 0.1727029 0.17153546 0.04094807 -0.22696419
0.21098869 0.013362762 -0.0046415483 0.10201471 -0.18612109 0.09670967 0.14285584 -0.0674091
-0.1628334 0.03811218 0.06813784 -0.049448762 -0.04769043 -0.05207793 -0.04749725 0.1163771
0.0779442 0.123609915 -0.090802185 -0.05711203 0.026125856 -0.082469925 0.13276877 0.16885033
0.09230566 0.088706136 -0.10454955 -0.15122497 -0.1251601 -0.100467004 0.24603711 0.101025246
0.03280603 -0.15179057 0.17134175 0.115191065 0.008611161 -0.04511633 0.09237273 0.22923373
0.16841243 -0.063618846 -0.10827435 -0.1782109 -0.15329416 0.07011614 0.14607094 -0.010131437
0.13894615 0.057437096 -0.0041771615 0.10813845 0.07629014 -0.2075079 0.03965168 0.022201916
-0.03865445 0.017171754 0.17047878 0.107540146 0.077176064 0.2430277 -0.16045564 0.16397136
0.11101851 0.1617811 0.20736115 -0.2520509 0.0688963 0.29498965 -0.34157988 0.09473653
0.04267104 -0.265008 -0.1618419 -0.23290668 0.012390325 0.048436113 -0.15064457 -0.028210197
0.15728112 -0.17637667 -0.10089701 -0.2731034 0.056269478 -0.22434519 0.13276465 -0.050008
0.048678126 -0.1290442 -0.2331455 -0.14410871 -0.046905383 -0.24696532 -0.15779348 -0.050690323
0.0048023458 -0.10386063 0.11913031 0.0019503797 -0.22486076 -0.3116767 -0.15279016 0.16049542
-0.14622277 0.07667202 0.06721644 -0.054484252 -0.22315562 -0.20756626 -0.12018906 -0.055541597
0.07883033 0.16841552 -0.045401603 -0.13557163 0.15494187 -0.0763499 -0.074720204 -0.028299486
0.13746288 -0.013413187 -0.27865037 -0.025479449 -0.0012960689 0.097512685 0.2105426 -0.091811396
-0.09744182 -0.16163108 0.049212866 0.15485567 0.3281222 -0.13252588 -0.0037394313 -0.015630491
0.14288981 0.2066187 0.14869715 0.048287854 -0.10491247 -0.023707675 -0.042919133 0.16927594
-0.26197264 -0.117881194 -0.00890594 0.097070284 0.16965504 0.16332847 -0.009791613 0.19835345
-0.11693185 0.23257755 0.23559867 0.0488307 -0.0036291615 0.08368863 0.019133748 -0.046561074
-0.19680224 -0.07052995 -0.023920283 0.08127727 0.110505365 0.16297065 0.090234876 6.690854e-06
00000000: 23ad a6bd a8ae e8bc 0303 d83c 5c77 0a3e
00000010: 9552 69be 28d3 71be 8091 30be ce0a 81be
00000020: eb8d 8abd a2fb 873d 09da c9bd 8b4a debd
00000030: 2bb6 9d3b 4759 a0bd 34e4 203b 5bf9 01be
00000040: 97c2 35be b276 8e3d 5afe c5bd daf1 3e3d
00000050: caa8 8b3d 345a 363e c00f 58b9 16f2 07be
00000060: 67fc 2fbe 881b d7bd 6ea5 85be 06ec b73c
00000070: b883 6a3e 4e9e b8bc a1b3 e73d 0bd9 4a3e
00000080: d0bc b7bc ad45 8c3e b764 373e 3e0c 463d
00000090: 9984 28be eba0 dc3d 0a78 533d 9a97 eb3d
000000a0: 6874 103d 34d1 a33d 5fd7 fabd 3b80 d13d
000000b0: ef9e a1bd 3ab6 673e 6a66 e13d 4666 193d
000000c0: 3ef5 1dbd 8bd0 9b3e d0d9 643e b4e1 293e
000000d0: 5ddf 6b3d 1474 29bd 81b5 1c3d d3c9 97bc
000000e0: 5f4d 92bd 4478 9dbc 71d3 873d 3c84 723d
000000f0: ae38 483d 450a d13c 8bd3 523e c065 663e
00000100: 01f6 913e 9ed4 3c3e bf48 27be 94e4 b03d
00000110: 8701 d53d d5ca 013e 394b dbbd 1d61 a6bd
00000120: c4dc b5bd 398a 813e 577a bfbc 2b41 7b3d
00000130: d0e1 873e 8b71 83bd 3abe f43d 33ec c9bd
00000140: 2809 0c3d 0792 fc3d 88de 49be eab1 df3d
00000150: 07d9 303e fea6 2f3e 2ab9 273d 4d69 68be
00000160: 6b0d 583e 7cef 5a3c 2118 98bb 17ed d03d
00000170: 8796 3ebe b80f c63d cd48 123e c80d 8abd
00000180: ccbd 26be 841b 1c3d da8b 8b3d c98a 4abd
00000190: 0a57 43bd ab4f 55bd 7a8c 42bd 1e57 ee3d
000001a0: 35a1 9f3d 3227 fd3d 7ff6 b9bd 4eee 69bd
000001b0: e405 d63c fee5 a8bd 89f4 073e 1ae7 2c3e
000001c0: c00a bd3d 90ab b53d 131e d6bd b8da 1abe
000001d0: f829 00be a5c1 cdbd 27f1 7b3e 53e6 ce3d
000001e0: 9e5f 063d fd6e 1bbe 3674 2f3e 4be9 eb3d
000001f0: d415 0d3c e7cb 38bd ea2d bd3d 3fbc 6a3e
00000200: 4f74 2c3e 994a 82bd f1be ddbd eb7c 36be
00000210: 25f9 1cbe 0d99 8f3d 9f93 153e 54fe 25bc
00000220: e647 0e3e 2943 6b3d 92e0 88bb b177 dd3d
00000230: 013e 9c3d f37c 54be cd69 223d cbe0 b53c
00000240: 2154 1ebd c7ab 8c3c fd91 2e3e 023e dc3d
00000250: 7c0e 9e3d 41dc 783e 7c4e 24be 1ce8 273e
00000260: ac5d e33d f2a9 253e 7b56 543e d10c 81be
00000270: 8119 8d3d e208 973e 8fe3 aebe 3a05 c23d
00000280: d4c7 2e3d 21af 87be e2b9 25be 177f 6ebe
00000290: ca00 4b3c f264 463d 9242 1abe 1219 e7bc
000002a0: 4d0e 213e 169c 34be 17a3 cebd 35d4 8bbe
000002b0: d37a 663d bfba 65be 75f3 073e 30d5 4cbd
000002c0: b762 473d 2a24 04be b2bd 6ebe 3c91 13be
000002d0: dc1f 40bd 7ae4 7cbe 9d94 21be a8a0 4fbd
000002e0: ff5c 9d3b e2b4 d4bd 98fa f33d e2a3 ff3a
000002f0: e641 66be 1794 9fbe 0675 1cbe e958 243e
00000300: 6cbb 15be 3806 9d3d c6a8 893d e12a 5fbd
00000310: e882 64be 408c 54be af25 f6bd 967f 63bd
00000320: cc71 a13d 1e75 2c3e 08f7 39bd 4ad3 0abe
00000330: 15a9 1e3e 565d 9cbd e806 99bd 53d4 e7bc
00000340: 12c3 0c3e fcc2 5bbc 43ab 8ebe 47ba d0bc
00000350: dbe0 a9ba bbb4 c73d 7b98 573e 9d07 bcbd
00000360: 948f c7bd 9e82 25be 6e93 493d 7c92 1e3e
00000370: a2ff a73e ddb4 07be 3f11 75bb 840b 80bc
00000380: b551 123e da93 533e 1144 183e 7cc9 453d
00000390: 59dc d6bd 9936 c2bc f9cb 2fbd ac56 2d3e
000003a0: 4721 86be b26b f1bd 38ea 11bc c9cc c63d
000003b0: 0dba 2d3e 943f 273e 006d 20bc 2b1d 4b3e
000003c0: f779 efbd cf28 6e3e c740 713e b302 483d
000003d0: 3ad7 6dbb f264 ab3d 61be 9c3c d3b6 3ebd
000003e0: 8786 49be 0272 90bd 78f4 c3bc b374 a63d
000003f0: a350 e23d c7e1 263e 10cd b83d 0082 e036

W__3397 f4 [1, 192, 128]
-0.07130793 0.16708703 0.036800038 -0.12676097 -0.19756812 0.09426618 0.015664494 0.14364128
0.030937774 0.018450644 -0.08275298 0.18624626 -0.14492324 0.16406369 0.04158257 -0.0015387662
0.16934165 0.0027897763 0.16727312 0.057784222 -0.18228087 0.16583617 0.18491745 -0.009402427
-0.2547098 -0.064259596 0.06896335 0.19268155 -0.09310045 -0.04621241 0.16908817 -0.0032466485
-0.31111848 0.09766252 0.12541363 -0.099623054 0.069080874 0.08119095 -0.025989138 0.13877198
0.049143627 -0.03795943 0.18863063 -0.1553532 0.090952896 0.05297704 -0.22829215 -0.009658171
0.054051407 0.11436232 0.04476739 -0.07465391 0.084226534 -0.18644239 -0.064283535 0.055356864
-0.2473489 0.017332695 -0.062130276 0.11252159 0.12719814 -0.07376766 -0.020353865 -0.10462313
0.023719512 0.14667591 -0.07015152 -0.21542528 -0.13613154 0.08570835 -0.030102776 0.15914048
0.020756964 -0.018117502 -0.028522588 -0.19155475 -0.23539989 0.08366845 0.04641986 0.09832898
-0.07172354 0.094177365 0.0741504 0.060714442 0.05419755 -0.10566819 0.13145304 -0.003825257
0.16840678 0.0015393377 -0.26381734 -0.03145624 0.012574015 0.0123499995 -0.22054487 -0.12440171
0.0726576 0.029648222 -0.10599938 0.044097725 0.026910977 0.0011841715 0.07913333 0.027133789
0.08599168 0.13235152 0.050003678 -0.116686545 0.16223389 0.061718404 0.017784763 -0.116167784
0.05263102 0.10207939 0.080446474 -0.07883696 0.09873415 0.13909914 0.05516186 -0.009440899
0.15912223 0.047738317 0.004970775 -0.019185977 -0.011138151 -0.1042272 0.15199147 0.19985703
0.09335674 -0.12286687 -0.22337802 0.028902203 -0.05293928 -0.14797322 -0.002330021 -0.054400567
-0.022924764 -0.17431252 0.097203694 -0.22631535 0.16486567 -0.09641808 0.2903152 0.122573204
-0.01675624 0.10182814 -0.15796846 -0.039111074 0.19681402 -0.10932048 0.06260848 0.01260725
0.17396732 -0.10389872 0.20373487 -0.07179744 0.088708326 0.126027 0.019082341 -0.22667807
0.21860974 0.07101494 -0.04242283 0.1287922 -0.070998676 -0.08884486 0.0018019942 0.04949114
-0.11543511 -0.02152227 -0.106864415 0.14909665 0.12895411 -0.13226698 0.14303006 -0.14645363
-0.06058491 -0.020734271 -0.23145503 0.25719228 0.07877284 0.13706186 0.16741216 -0.14263652
0.10655781 0.044092037 0.018883787 -0.2028307 -0.21154003 0.07049576 0.16120946 0.011398081
0.07093388 0.119472705 0.12614198 0.04872962 0.20935401 0.01272492 0.06382876 0.20710266
0.14398003 0.10761908 -0.16494477 0.24514575 0.20766598 -0.20605987 -0.13864693 0.019321643
-0.13989772 -0.09189161 0.1481362 -0.097784616 -0.1293751 0.06770868 -0.20097987 0.06763359
-0.046661466 0.0936283 0.1381887 -0.041106258 -0.11160946 0.07075102 0.17589273 0.05019905
0.01078758 -0.034802992 -0.04281372 0.043051053 -0.010243207 0.14440103 -0.158922 -0.20488887
-0.20098425 -0.17729552 -0.027376937 0.072241664 -0.095367424 0.17199902 -0.05791607 0.008583225
-0.12925442 0.019554738 0.087170765 0.0011405423 -0.018240655 -0.08321511 -0.112994276 -0.18161485
-0.23622629 0.008609895 0.1531287 0.28480047 0.15616722 -0.17594463 -0.22825348 -0.033120994
00000000: e409 92bd dd18 2b3e a3bb 163d a1cd 01be
00000010: 4c4f 4abe a10e c13d d352 803c b316 133e
00000020: 3771 fd3c ce25 973c 657a a9bd 57b7 3e3e
00000030: c266 14be 5000 283e 7c52 2a3d 6db0 c9ba
00000040: e667 2d3e aed4 363b a549 2b3e 26af 6c3d
00000050: d6a7 3abe f5d0 293e 005b 3d3e a30c 1abc
00000060: 5369 82be 899a 83bd a83c 8d3d 504e 453e
00000070: 73ab bebd 3949 3dbd 7325 2d3e b9c5 54bb
00000080: ec4a 9fbe 4a03 c83d 6e6c 003e 2c07 ccbd
00000090: 467a 8d3d 7147 a63d 2ce7 d4bc 3e1a 0e3e
000000a0: d44a 493d 597b 1bbd 6328 413e e914 1fbe
000000b0: 8345 ba3d 74fe 583d 6bc5 69be 4e3d 1ebc
000000c0: 0265 5d3d cb36 ea3d 035e 373d 26e4 98bd
000000d0: f67e ac3d c1ea 3ebe 16a7 83bd e1bd 623d
000000e0: 0849 7dbe 4cfd 8d3c 517c 7ebd b871 e63d
000000f0: 3b40 023e 8013 97bd 26bd a6bc a744 d6bd
00000100: 6c4f c23c 3632 163e 9aab 8fbd 7298 5cbe
00000110: 1166 0bbe dc87 af3d 199a f6bc b9f5 223e
00000120: 820a aa3c 286b 94bc 34a8 e9bc ee26 44be
00000130: ab0c 71be 5d5a ab3d c022 3e3d b460 c93d
00000140: cbe3 92bd 10e0 c03d 2adc 973d b5af 783d
00000150: 40fe 5d3d 9068 d8bd a09b 063e 2ab1 7abb
00000160: d472 2c3e 9ac3 c93a 1113 87be 42d8 00bd
00000170: 3e03 4e3c a757 4a3c 84d6 61be 53c6 febd
00000180: 82cd 943d d4e0 f23c 3416 d9bd d19f 343d
00000190: 6974 dc3c 3436 9b3a a810 a23d ae47 de3c
000001a0: 681c b03d 2887 073e a8d0 4c3d 5bf9 eebd
000001b0: a420 263e 70cc 7c3d 5ab1 913c 60e9 edbd
000001c0: a093 573d 000f d13d 1fc1 a43d 4675 a1bd
000001d0: 2135 ca3d 0170 0e3e 67f1 613d 00ae 1abc
000001e0: f0f0 223e 4189 433d e2e1 a23b e92b 9dbc
000001f0: cb7c 36bc 1275 d5bd a7a3 1b3e 52a7 4c3e
00000200: d231 bf3d a0a1 fbbd 35bd 64be 50c4 ec3c
00000210: dcd6 58bd 4b86 17be 44b3 18bb 21d3 5ebd
00000220: b7cc bbbc fb7e 32be bb12 c73d 36bf 67be
00000230: 8cd2 283e d876 c5bd 32a4 943e a907 fb3d
00000240: 6244 89bc 468b d03d 7cc2 21be ef32 20bd
00000250: 9d89 493e 6ae3 dfbd e038 803d a48e 4e3c
00000260: 7d24 323e dac8 d4bd e09f 503e 890a 93bd
00000270: b6ac b53d 390d 013e 9252 9c3c 4c1e 68be
00000280: 3bdb 5f3e 4870 913d 90c3 2dbd 1ae2 033e
00000290: c167 91bd 4bf4 b5bd e430 ec3a 39b7 4a3d
000002a0: 3e69 ecbd 794f b0bc bbdb dabd cbac 183e
000002b0: 8c0c 043e ff70 07be 7976 123e f1f7 15be
000002c0: e227 78bd ebda a9bc 8c02 6dbe b5ae 833e
000002d0: a853 a13d f259 0c3e 186e 2b3e 4f0f 12be
000002e0: fb3a da3d da99 343d 2cb2 9a3c dab2 4fbe
000002f0: f39d 58be 1560 903d 1814 253e 04bf 3a3c
00000300: c845 913d 1bae f43d 5d2b 013e b698 473d
00000310: e660 563e 2f7c 503c a7b8 823d b812 543e
00000320: 806f 133e 6467 dc3d 48e7 28be 7d07 7b3e
00000330: 64a6 543e 5c01 53be 76f9 0dbe 6c48 9e3c
00000340: 5941 0fbe ab31 bcbd 04b1 173e 4d43 c8bd
00000350: e87a 04be d9aa 8a3d abcd 4dbe 7b83 8a3d
00000360: 1820 3fbd 32c0 bf3d 5781 0d3e 095f 28bd
00000370: 8093 e4bd e9e5 903d 391d 343e 859d 4d3d
00000380: 64be 303c 958d 0ebd 705d 2fbd 4d56 303d
00000390: 20d3 27bc dddd 133e 73bc 22be 63ce 51be
000003a0: d1ce 4dbe f58c 35be 9945 e0bc 70f3 933d
000003b0: ff4f c3bd 8320 303e 6739 6dbd a8a0 0c3c
000003c0: 455b 04be 4231 a03c 9686 b23d 407e 953a
000003d0: 6d6d 95bc af6c aabd 8b69 e7bd 3ef9 39be
000003e0: 4ee5 71be 8410 0d3c c5cd 1c3e 5ed1 913e
000003f0: 4dea 1f3e d42a 34be 48bb 69be e1a9 07bd

W__3384 f4 [1, 384, 6]
-0.061670117 0.14226215 -0.00033359157 0.006396699 -0.02854884 0.03245617 -0.16535586 -0.45002577
-0.3241293 -0.47899976 -0.3141355 -0.17115605 0.027192542 0.081017196 -0.16055976 -0.0137496255
0.06009419 -0.033904627 0.30588412 0.18971913 0.052924488 0.20700377 0.07184765 -0.0836987
-0.079633325 0.09048835 -0.07138292 -0.11774396 -0.008225259 -0.009131511 0.23236227 0.10573443
0.0887704 0.070714645 0.0902089 0.08746719 -0.14212778 -0.14552571 -0.040325377 -0.13237461
-0.16918662 0.110470675 -0.38075352 -0.19652753 -0.14919753 -0.26491198 -0.23584686 0.15538485
-0.18793271 -0.16442001 0.14094654 0.04827677 -0.004470365 -0.052077845 0.052081365 -0.037050206
0.09709247 0.016047101 -0.0049500354 -0.06041192 -0.08817366 -0.18678781 -0.20673606 -0.12698153
-0.2804336 0.07005406 -0.011440912 3.2529933e-06 -0.09262066 -0.17469501 -0.22356634 -0.057697847
0.193283 0.119139045 0.090222076 -0.101516575 -0.03265154 0.13661082 -0.15953156 -0.30463985
-0.2579429 -0.33520848 -0.23031808 0.02512364 -0.39717454 -0.21946132 -0.23654427 -0.17949222
-0.10612191 -0.06923504 0.08353748 0.2975363 0.053925596 0.22021402 0.04212135 -0.03419205
0.17822611 0.045160238 -0.062468495 0.018196523 -0.015145014 0.17930289 -0.32796252 -0.036579594
-0.27655092 -0.13598406 -0.072749995 -0.133404 -0.21182851 -0.13180953 -0.06326376 -0.15477967
-0.31141633 0.11866628 0.07495665 -0.034319863 -0.04062781 -0.118596405 0.061825745 -0.07268631
0.34585616 0.17117114 0.13757314 -0.08156625 0.28397813 0.07871742 -0.05454556 -0.2231983
-0.24065502 -0.08429895 -0.22288822 -0.043316912 -0.020401347 -0.02238982 -0.047672566 0.082183704
-0.05561959 -0.09480339 -0.09115833 -0.06509196 0.016065061 -0.09860784 -0.10862349 0.049719073
0.23674364 0.07685363 0.05582434 0.033855416 -0.11461593 0.023035754 0.025360575 0.24174787
-0.15512186 0.009230774 0.04924646 -0.043697327 0.3643841 0.34406266 0.12958147 0.11034368
0.27877867 0.021038651 -0.1376855 -0.32327926 -0.16575323 -0.34863776 -0.0996343 0.061612565
-0.13411957 -0.1921412 0.016884435 -0.20091172 -0.0673573 0.08871827 -0.12865709 -0.119015895
-0.11997446 -0.0030808188 -0.06653883 -0.045312814 0.20422733 0.14266916 0.24500562 0.07677621
0.21597233 0.105803125 -0.29136938 -0.13552268 -0.25768092 -0.34896153 -0.19434454 -0.028536366
0.10901009 0.050987285 -0.0019723773 -0.006220908 -0.07529047 -0.005982636 0.26818383 0.24501951
0.27055487 0.045197867 0.056160085 0.00027203266 0.16802526 0.04263701 -0.023154736 -0.063067324
0.03302597 0.14489381 -0.34965608 -0.4210784 -0.31178012 -0.28298774 -0.42271113 0.09097901
-0.11472456 -0.026071435 -0.102879 -0.04811825 -0.024375137 -0.053891793 0.052988097 0.17124243
0.09268556 -0.03360054 -0.09068346 -0.04369227 0.10603426 0.06510842 0.008977632 0.05056366
0.034092687 0.02516812 -0.07630273 -0.17399046 0.028774777 -0.011730955 0.04562426 -0.05645351
-0.114929244 -0.10493301 -0.07602188 0.028641637 -0.08509427 -0.036725957 -0.098811634 -0.15264961
-0.18844756 -0.066811964 -0.3138369 -0.027746644 -0.32014686 -0.33222434 -0.40297136 -0.456964
00000000: ce99 7cbd 2bad 113e e7e5 aeb9 679b d13b
00000010: 42df e9bc c3f0 043d 0c53 29be c769 e6be
00000020: 47f4 a5be 753f f5be 5ed6 a0be 8843 2fbe
00000030: e5c2 de3c 58ec a53d c769 24be 1c46 61bc
00000040: 5325 763d 94df 0abd d89c 9c3e bb45 423e
00000050: 59c7 583d ccf8 533e dc24 933d 396a abbd
00000060: cc16 a3bd f551 b93d 3531 92bd bf23 f1bd
00000070: 3dc3 06bc 559c 15bc 60f0 6d3e 4b8b d83d
00000080: 41cd b53d d7d2 903d 72bf b83d 0022 b33d
00000090: f289 11be b104 15be 392c 25bd 368d 07be
000000a0: 423f 2dbe 733e e23d 20f2 c2be 833e 49be
000000b0: 3dc7 18be 8ba2 87be d781 71be 351d 1f3e
000000c0: 6f71 40be b85d 28be 4a54 103e ddbd 453d
000000d0: 247c 92bb 944f 55bd 4553 553d f5c1 17bd
000000e0: 6bd8 c63d 3675 833c e833 a2bb 7d72 77bd
000000f0: 6494 b4bd 4e45 3fbe 9eb2 53be 7207 02be
00000100: fe94 8fbe 8178 8f3d aa72 3bbc 004e 5a36
00000110: e7af bdbd 40e3 32be 93ee 64be 9454 6cbd
00000120: fbeb 453e 2cff f33d 5ac6 b83d ece7 cfbd
00000130: 9fbd 05bd b5e3 0b3e 3e5c 23be c1f9 9bbe
00000140: 1711 84be 72a0 abbe 81d8 6bbe 18d0 cd3c
00000150: 765a cbbe 78ba 60be a938 72be cfcc 37be
00000160: 7256 d9bd 1acb 8dbd b315 ab3d ae56 983e
00000170: 16e1 5c3d c97f 613e 7087 2c3d f70c 0cbd
00000180: e880 363e f1f9 383d f7de 7fbd e010 953c
00000190: cb22 78bc 2d9b 373e b4ea a7be 7cd4 15bd
000001a0: 1598 8dbe 683f 0bbe f3fd 94bd 0f9b 08be
000001b0: 93e9 58be 14f9 06be 6e90 81bd 907e 1ebe
000001c0: f671 9fbe 4e07 f33d df82 993d fc92 0cbd
000001d0: 5969 26bd ace2 f2bd fe3c 7d3d 8fdc 94bd
000001e0: 0f14 b13e 7d47 2f3e f9df 0c3e 350c a7bd
000001f0: 9565 913e 9936 a13d 2a6b 5fbd 188e 64be
00000200: 456e 76be eea4 acbd cf3c 64be 136d 31bd
00000210: ba20 a7bc db6a b7bc 4f44 43bd ee4f a83d
00000220: 5ed1 63bd 4828 c2bd 38b1 babd ef4e 85bd
00000230: e09a 833c e8f2 c9bd fe75 debd 3aa6 4b3d
00000240: ed6c 723e 7065 9d3d 10a8 643d faab 0a3d
00000250: c2bb eabd 7ab5 bc3c fbc0 cf3c c18c 773e
00000260: 44d8 1ebe ac3c 173c a8b6 493d f8fb 32bd
00000270: 8e90 ba3e fb28 b03e 01b1 043e defb e13d
00000280: 14bc 8e3e 4059 ac3c 6dfd 0cbe dc84 a5be
00000290: 37bb 29be a680 b2be 110d ccbd 755d 7c3d
000002a0: a456 09be aac0 44be 3a51 8a3c cdbb 4dbe
000002b0: a0f2 89bd edb1 b53d afbe 03be 9bbe f3bd
000002c0: 2bb5 f5bd 90e7 49bb 8345 88bd ee99 39bd
000002d0: f820 513e dd17 123e c1e2 7a3e d83c 9d3d
000002e0: da27 5d3e 4faf d83d 5e2e 95be 75c6 0abe
000002f0: c1ee 83be 16ab b2be 4102 47be 19c5 e9bc
00000300: af40 df3d 0bd8 503d 0043 01bb c2d8 cbbb
00000310: e431 9abd fd09 c4bb 644f 893e 65e6 7a3e
00000320: 2b86 8a3e 6621 393d 1e08 663d 9b9f 8e39
00000330: d00e 2c3e 25a4 2e3d 00af bdbc 7129 81bd
00000340: 3d46 073d 0b5f 143e 1f06 b3be 9797 d7be
00000350: a5a1 9fbe c5e3 90be 986d d8be 3453 ba3d
00000360: b6f4 eabd c393 d5bc 3ab2 d2bd a417 45bd
00000370: 5eae c7bc a4bd 5cbd 0c0a 593d 2d5a 2f3e
00000380: edd1 bd3d b8a0 09bd 40b8 b9bd aaf6 32bd
00000390: 7d28 d93d 9057 853d eb16 133c d71b 4f3d
000003a0: c6a4 0b3d 602d ce3c 9b44 9cbd 8e2a 32be
000003b0: 15b9 eb3c 3133 40bc 81e0 3a3d cc3b 67bd
000003c0: 0660 ebbd 1ee7 d6bd 5cb1 9bbd dea1 ea3c
000003d0: e845 aebd f56d 16bd c15d cabd 2e50 1cbe
000003e0: 66f8 40be b6d4 88bd 3baf a0be ee4c e3bc
000003f0: 4aea a3be 4f19 aabe 4352 cebe 2ff7 e9be

R__3412 f4 [1, 96, 32]
0.10797051 0.08451759 0.17919506 -0.10083329 0.015748477 0.1400059 0.107398726 0.025833825
0.15868068 -0.23562224 0.06200048 -0.08149553 0.043445047 -0.00078959204 -0.0019440854 -0.16756837
-0.20409502 -0.13503191 -0.034516674 0.084869996 0.09066449 0.12620173 0.058427308 0.10373582
0.023786154 -0.34912986 -0.09441278 -0.11601258 0.06394743 -0.08661454 -0.18054353 0.025547192
-0.11629774 -0.11572749 -0.011608476 -0.043081194 -0.08452651 -0.027833264 -0.15796131 0.060377236
-0.13004035 0.092074 -0.19116905 0.021957725 0.10655694 -0.13542931 0.059502188 0.1614426
-0.048355803 -0.065326005 0.097367585 -0.065954424 -0.14726229 -0.103392616 0.23796704 -0.018447664
-0.30202103 0.108911134 -0.047501408 0.1665614 0.20928563 0.09077288 -0.09996144 -0.024229465
-0.094581306 0.12090093 0.16793126 -0.117288545 -0.18817249 -0.20742849 -0.05054204 0.027366392
-0.3272252 -0.027499437 -0.12203837 0.03597079 0.08819178 -0.25808153 0.015698468 0.113843575
-0.11892357 0.14717823 -0.25411946 0.06789432 0.44512004 -0.2461446 -0.25211263 -0.20638224
0.2914433 0.2084095 -0.04696642 -0.12019196 -0.069298506 0.11533745 0.115199454 -0.361966
0.0021471935 -0.009974745 0.006370352 0.02816688 0.054130092 0.071212545 0.15602826 -0.17096616
0.13989918 -0.09403503 0.02412062 -0.17727296 -0.09677947 0.08422213 0.058400508 -0.16419828
0.16046974 0.046122152 0.1328896 0.06464212 0.1106367 -0.22740716 0.046846192 0.1769946
0.18013984 -0.12783672 -0.036646016 -0.26879004 0.040342845 -0.11596417 -0.0949106 0.09402936
-0.2868541 0.06447248 0.12078517 0.034705795 0.19534485 0.14607592 0.11079489 -0.006586885
-0.043640286 0.13592793 0.069058776 0.19783434 -0.018782424 -0.013178301 -0.0767252 -0.13021941
-0.18772283 0.06878695 -0.0016024378 -0.03501854 0.0885467 0.27260613 -0.022545164 0.036504086
0.024020169 -0.14595318 -0.36080885 -0.13687426 0.07702908 0.05156432 0.23992193 -0.0052839797
-0.013460597 -0.023134623 -0.1306148 0.10491739 0.015821766 -0.08232269 -0.16068333 -0.04799089
-0.07321572 0.27042606 -0.076988906 -0.11159581 -0.032173827 0.085953854 -0.08388581 0.23243381
-0.15007983 -0.05556226 0.06813001 0.068664216 0.059178594 0.04675617 0.25163832 -0.12558949
-0.11399651 0.05109784 -0.07482719 -0.097277425 0.11825173 0.047467384 -0.19044824 -0.007293611
-0.14234751 0.038798135 0.2132114 -0.0015720862 -0.07856905 -0.07994073 -0.033573866 0.07316959
-0.0450702 0.18556315 -0.03129068 -0.04421529 0.061456855 -0.4202114 0.08603687 0.022837892
0.10963614 0.2716062 -0.1600838 0.18970795 0.1402539 -0.060366463 -0.08455507 -0.17367646
0.15566869 -0.014622943 -0.11108332 -0.06227855 -0.105617404 0.18820441 0.2161556 0.047516085
-0.2105652 0.023840724 0.02896465 -0.14384606 -0.060177326 -0.065583505 -0.04797511 -0.038367786
0.060939137 -0.08855693 -0.034018226 0.1650618 -0.1979821 -0.08953433 -0.11822335 -0.014159563
-0.034391142 -0.03491351 0.1040473 0.16499357 -0.005910357 -0.03719727 -0.1476255 -0.11237848
-0.0030080439 0.08171504 -0.21156633 0.0048084473 -0.07590132 -0.18513225 0.11009389 -0.04387586
00000000: a51f dd3d 8f17 ad3d e97e 373e af81 cebd
00000010: f302 813c b55d 0f3e ddf3 db3d 75a1 d33c
00000020: 307d 223e f546 71be 37f4 7d3d 21e7 a6bd
00000030: 6ff3 313d a0fc 4eba aed0 feba 0b97 2bbe
00000040: 49fe 50be ce45 0abe 5b61 0dbd 52d0 ad3d
00000050: 4eae b93d 073b 013e 7951 6f3d 7273 d43d
00000060: 2edb c23c 26c1 b2be 7d5b c1bd 0198 edbd
00000070: dff6 823d f762 b1bd 67e0 38be 5848 d13c
00000080: 822d eebd 8902 edbd 7a31 3ebc e875 30bd
00000090: 3c1c adbd 9602 e4bc 9cc0 21be 1f4e 773d
000000a0: 4c29 05be 4b91 bc3d d2c1 43be b0e0 b33c
000000b0: 863a da3d fbad 0abe 91b8 733d 3551 253e
000000c0: bc10 46bd a4c9 85bd a868 c73d 1d13 87bd
000000d0: edcb 16be 82bf d3bd a2ad 733e 8e1f 97bc
000000e0: 80a2 9abe cd0c df3d d690 42bd 128f 2a3e
000000f0: f94e 563e 22e7 b93d 95b8 ccbd df7c c6bc
00000100: d8b3 c1bd e89a f73d 2cf6 2b3e fa34 f0bd
00000110: 4ab0 40be 2268 54be 2c05 4fbd 7c2f e03c
00000120: 108a a7be 8046 e1bc 41ef f9bd 1b56 133d
00000130: e49d b43d 4323 84be 139a 803c d226 e93d
00000140: 338e f3bd e4b5 163e f21b 82be 2d0c 8b3d
00000150: c6e6 e33e 540d 7cbe e814 81be de55 53be
00000160: 0e38 953e 4d69 553e dc5f 40bd 3427 f6bd
00000170: 60ec 8dbd 0a36 ec3d b1ed eb3d 9c53 b9be
00000180: eeb7 0c3b 1d6d 23bc 63be d03b 3bbe e63c
00000190: 84b7 5d3d e2d7 913d dfc5 1f3e c111 2fbe
000001a0: bb41 0f3e 7095 c0bd 9b98 c53c 0b87 35be
000001b0: 5134 c6bd a77c ac3d 5f35 6f3d 9823 28be
000001c0: 2e52 243e 95ea 3c3d 3614 083e 1663 843d
000001d0: 7f95 e23d 6cdd 68be cbe1 3f3d 133e 353e
000001e0: 9476 383e a1e7 02be 221a 16bd d99e 89be
000001f0: 8a3e 253d 9f7e edbd 7d60 c2bd 7792 c03d
00000200: 8ade 92be 260a 843d 375e f73d aa27 0e3d
00000210: 7b08 483e ed94 153e 6ee8 e23d ccd6 d7bb
00000220: 28c0 32bd b130 0b3e b06e 8d3d 1695 4a3e
00000230: 99dd 99bc cde9 57bc 1a22 9dbd 3d58 05be
00000240: 6a3a 40be 2ce0 8c3d e408 d2ba 9a6f 0fbd
00000250: f957 b53d 0893 8b3e a3b0 b8bc 4f85 153d
00000260: f2c5 c43c c074 15be f0bb b8be c428 0cbe
00000270: 6cc1 9d3d 1c35 533d 18ae 753e 3c25 adbb
00000280: d689 5cbc d284 bdbc e3bf 05be eede d63d
00000290: a69c 813c cc98 a8bd 2c8a 24be 1892 44bd
000002a0: 20f2 95bd 4975 8a3e 5cac 9dbd 588c e4bd
000002b0: b4c8 03bd 9308 b03d 53cc abbd 2103 6e3e
000002c0: 87ae 19be 4195 63bd bf87 8b3d d39f 8c3d
000002d0: 4165 723d 6683 3f3d bdd6 803e 889a 00be
000002e0: 0177 e9bd f84b 513d ff3e 99bd 6339 c7bd
000002f0: f72d f23d 296d 423d dd04 43be 3eff eebb
00000300: 8cc3 11be cbea 1e3d 1754 5a3e 760e ceba
00000310: cfe8 a0bd f7b7 a3bd c084 09bd f0d9 953d
00000320: 889b 38bd 4404 3e3e a82a 00bd 181b 35bd
00000330: 2fba 7b3d f325 d7be 1934 b03d 8816 bb3c
00000340: ea88 e03d f80f 8b3e 02ed 23be cd42 423e
00000350: b89e 0f3e d342 77bd 352b adbd 3ed8 31be
00000360: 9d67 1f3e 1195 6fbc a77f e3bd cb17 7fbd
00000370: f04d d8bd a8b8 403e e557 5d3e 3aa0 423d
00000380: 679e 57be 9f4d c33c 4647 ed3c 624c 13be
00000390: 807c 76bd a550 86bd 8d81 44bd 8a27 1dbd
000003a0: 519b 793d 565d b5bd b256 0bbd f605 293e
000003b0: d2bb 4abe c65d b7bd 151f f2bd 83fd 67bc
000003c0: badd 0cbd 7801 0fbd c016 d53d 13f4 283e
000003d0: abab c1bb 2a5c 18bd 242b 17be b026 e6bd
000003e0: 9a22 45bb 375a a73d d8a4 58be 2e90 9d3b
000003f0: 2772 9bbd 4f93 3dbe e878 e13d 2cb7 33bd

R__3398 f4 [1, 192, 64]
-0.16438378 0.047249284 0.23013163 -0.123149686 0.24637552 0.16382709 -0.068363085 -0.076686144
0.17277052 -0.13880347 0.053964175 0.11473653 -0.01063429 0.016826035 0.075627685 -0.17848115
0.22704346 0.15292622 0.15223764 0.11137509 -0.03586446 -0.12763579 -0.06772273 -0.005688207
-0.04686133 0.07862227 0.13604496 -0.2448195 -0.11048743 0.1823658 -0.20899767 -0.19044895
-0.15197392 0.005353676 -0.17827268 -0.2030035 -0.083837755 -0.12680681 -0.14670697 -0.21290894
-0.11759457 -0.20634973 0.13963476 0.040730633 0.0976377 -0.055400256 -0.028121108 -0.17663516
-0.025164464 0.0041907923 -0.17336185 0.18516777 -0.116511285 -0.12558211 -0.11975269 -0.033498246
0.22776979 0.00560978 0.027772442 -0.025451208 -0.0010529544 -0.08050405 -0.11968919 -0.12235753
-0.089676425 0.061903276 -0.1695964 0.14562678 -0.08575974 -0.08240135 -0.1736735 -0.19712813
-0.14812562 0.21250013 -0.153849 0.0037845774 -0.07163808 0.02373653 -0.11548712 0.20017223
-0.12451209 -0.23360208 -0.10524514 0.024584064 0.015545884 -0.16684842 0.17824984 -0.25195348
-0.0720836 -0.21390171 -0.338341 0.21829021 0.08742663 -0.05837933 0.08428873 0.027669497
0.11840078 0.09683272 0.30937257 0.010693818 -0.1637274 -0.02867399 0.18666583 0.22970814
-0.082179174 0.13997123 0.008428791 0.17416401 -0.1490205 0.14859909 -0.087239705 0.1007573
-0.11178572 0.16240364 -0.08243139 -0.042494692 -0.03744545 0.10471606 -0.07739861 -0.1281382
-0.25001553 -0.21549183 -0.19754079 -0.06648461 0.021978527 0.20349924 0.21315794 0.007139276
-0.07874442 -0.0058387863 -0.02144262 0.08146524 0.12821625 -0.06895271 -0.08939321 0.018497908
-0.22458708 0.0009748667 -0.021577762 0.09326625 -0.055194277 0.10376019 -0.046196915 0.044562336
-0.055465396 -0.11412893 0.04042926 0.07741706 -0.07276829 0.0426772 0.013794807 0.095563225
-0.16950823 0.018544458 -0.060077097 0.03633539 -0.004795023 -0.0055212323 -0.041902404 0.05139837
0.013831294 -0.12746607 0.22932559 0.17974114 0.026869968 0.009326537 0.035274673 0.07738517
-0.1664426 0.16310756 0.08602358 0.16966854 0.05025272 -0.108813964 -0.03523661 -0.0010154468
0.1121326 0.057375964 -0.020333426 0.020973507 0.036564134 -0.056820937 -0.010205893 -0.10144479
-0.011575518 -0.0870832 -0.12490315 0.12615386 -0.0065109613 -0.10660302 -0.001588946 -0.10321047
0.17865841 0.022545876 0.027754936 -0.07437361 0.00088834105 0.0367099 0.030514486 0.001015982
0.20370717 -0.20756187 -0.12143344 0.11384656 -0.1285337 -0.14342877 0.17977928 0.0024129958
-0.11734914 -0.020979738 0.3441612 0.088030905 -0.13218372 0.0019930871 0.047679864 0.074052215
-0.078555785 0.19590174 0.001710057 -0.20871733 0.08684022 0.10908447 -0.11008935 0.027583787
-0.120378084 -0.08890278 -0.04109971 -0.14245953 0.031841394 -0.20921953 -0.006460008 -0.15160634
0.0919597 0.011489972 -0.09987536 -0.09626352 0.090801306 -0.18062016 0.17753369 0.008942641
0.216298 0.04738004 -0.13115774 0.053370263 -0.09250101 0.1055312 0.017796686 -0.046536386
0.14200555 0.008148425 0.13572608 -0.039845716 -0.07750704 -0.07195052 -0.13481322 0.24240677
00000000: 3954 28be 7788 413d a0a7 6b3e e735 fcbd
00000010: dd49 7c3e 4ac2 273e f201 8cbd a00d 9dbd
00000020: c1ea 303e 7f22 0ebe 8a09 5d3d fcfa ea3d
00000030: 723b 2ebc c1d6 893c b0e2 9a3d c3c3 36be
00000040: 157e 683e b198 1c3e 2fe4 1b3e a018 e43d
00000050: 9de6 12bd f5b2 02be 37b2 8abd 2464 babb
00000060: aaf1 3fbd b604 a13d 5f4f 0b3e f7b1 7abe
00000070: 3c47 e2bd 1abe 3a3e 7c03 56be 0d05 43be
00000080: 0d9f 1bbe e46d af3b 1d8d 36be 26e0 4fbe
00000090: 21b3 abbd a5d9 01be 5a3a 16be cd04 5abe
000000a0: 6cd5 f0bd 584d 53be 6afc 0e3e 2ad5 263d
000000b0: 46f6 c73d 61eb 62bd 3d5e e6bc d9df 34be
000000c0: b525 cebc ea52 893b c585 31be 9f9c 3d3e
000000d0: 789d eebd 9998 00be e640 f5bd 7535 09bd
000000e0: 7c3c 693e 3fd2 b73b 0883 e33c 0d7f d0bc
000000f0: 4903 8aba 4fdf a4bd 9b1f f5bd 9696 fabd
00000100: 46a8 b7bd 4a8e 7d3d aeaa 2dbe 301f 153e
00000110: cda2 afbd 0ac2 a8bd 77d7 31be f5db 49be
00000120: 3eae 17be a299 593e 988a 1dbe ac06 783b
00000130: fcb6 92bd 1d73 c23c 8384 ecbd f3f9 4c3e
00000140: 3200 ffbd 6235 6fbe c48a d7bd 8564 c93c
00000150: 2ab4 7e3c 50da 2abe 2087 363e 0c00 81be
00000160: 91a0 93bd 0d09 5bbe 083b adbe 7887 5f3e
00000170: bc0c b33d 2a1f 6fbd 929f ac3d 24ab e23c
00000180: 1c7c f23d 3c50 c63d 1566 9e3e 2035 2f3c
00000190: 28a8 27be b7e5 eabc 5425 3f3e 9c38 6b3e
000001a0: 8e4d a8bd 9e54 0f3e e918 0a3c 0d58 323e
000001b0: d498 18be 5c2a 183e bbaa b2bd d859 ce3d
000001c0: e9ef e4bd 244d 263e cad1 a8bd ea0e 2ebd
000001d0: 6660 19bd 6075 d63d 2a83 9ebd a936 03be
000001e0: 0902 80be e4a9 5cbe 2248 4abe 1529 88bd
000001f0: 500c b43c 1b62 503e 1346 5a3e 96f0 e93b
00000200: c144 a1bd 4a53 bfbb 6fa8 afbc 3fd7 a63d
00000210: 1f4b 033e 1437 8dbd ca13 b7bd ed88 973c
00000220: 28fa 65be 328e 7f3a d9c3 b0bc 6002 bf3d
00000230: 6513 62bd 3980 d43d fa38 3dbd ff86 363d
00000240: af2f 63bd 6ebc e9bd 2799 253d d68c 9e3d
00000250: 8b07 95bd 4ace 2e3d 9d03 623c a7b6 c33d
00000260: 9193 2dbe 8cea 973c 6713 76bd 6bd4 143d
00000270: 911f 9dbb 74eb b4bb dba1 2bbd 1987 523d
00000280: a79c 623c 7786 02be 54d4 6a3e 100e 383e
00000290: 681e dc3c 55ce 183c 2d7c 103d 1e7c 9e3d
000002a0: ee6f 2abe ab05 273e 212d b03d 97bd 2d3e
000002b0: ccd5 4d3d dbd9 debd 4354 10bd be18 85ba
000002c0: c7a5 e53d 0f03 6b3d 4992 a6bc a2d0 ab3c
000002d0: 46c4 153d 12bd 68bd 9e36 27bc 49c2 cfbd
000002e0: 3ea7 3dbc ad58 b2bd 39cd ffbd 7a2e 013e
000002f0: e759 d5bb af52 dabd 2e44 d0ba 0360 d3bd
00000300: 3bf2 363e 21b2 b83c 525e e33c 3151 98bd
00000310: 8fdf 683a 1f5d 163d 84f9 f93c b32a 853a
00000320: 9d98 503e 198b 54be 18b2 f8bd 6328 e93d
00000330: 579e 03be fede 12be 0f18 383e 5a23 1e3b
00000340: bf54 f0bd b3dd abbc e635 b03e 8c49 b43d
00000350: 2b5b 07be 749e 023b f64b 433d b0a8 973d
00000360: dbe1 a0bd 779a 483e fe23 e03a ffb9 55be
00000370: 49d9 b13d ae67 df3d 8676 e1bd 65f7 e13c
00000380: c988 f6bd a912 b6bd 2b58 28bd e9e0 11be
00000390: 1f6c 023d a53d 56be 7aae d3bb b13e 1bbe
000003a0: 5e55 bc3d 6f40 3c3c 748b ccbd cf25 c5bd
000003b0: 09f6 b93d 7ef4 38be 64cb 353e 2884 123c
000003c0: 397d 5d3e 9311 423d 374e 06be c79a 5a3d
000003d0: 2b71 bdbd be20 d83d 5bca 913c f09c 3ebd
000003e0: e769 113e f980 053c c7fb 0a3e 4335 23bd
000003f0: 03bc 9ebd cb5a 93bd 7a0c 0abe 7b39 783e

R__3385 f4 [1, 384, 128]
-0.1556416 -0.12620842 -0.064103924 0.006473371 -0.02307511 -0.062342342 -0.15967105 -0.13297924
-0.08217677 -0.035874087 -0.01078443 -0.012213502 0.01901804 0.07408314 0.07127167 0.054363657
0.0024823393 0.06581427 -0.11822724 0.033481367 -0.014616637 0.046299737 -0.027710257 0.044517197
0.086875096 -0.041665018 -0.010621986 -0.15602587 -0.14707506 -0.056269996 -0.04331688 -0.14133924
0.058147795 -0.073186435 -0.034337122 -0.091980524 -0.08788262 0.010263632 0.14715502 -0.011982326
0.14714988 -0.10411578 0.22042486 0.0074511557 0.06653102 -0.008143443 -0.04392057 -0.005164628
0.044302322 -0.046954263 -0.18217403 0.14383261 0.03730879 0.053604946 0.007369899 0.033836845
-0.027513042 -0.0021763295 -0.05459245 -0.030173289 -0.087848276 -0.061035953 0.05090196 -0.07529566
-0.024152655 0.015460139 -0.0064858543 0.02760205 -0.0077130417 0.060330603 0.1373123 0.029477224
0.12279433 -0.029662253 -0.081601 0.13223112 -0.047180686 -0.09184759 -0.032281734 -0.037847735
-0.037395317 0.025414415 0.20728625 0.029818175 0.15739304 0.025017507 -0.03413979 0.19182365
-0.15452114 -0.043151196 -0.033408117 0.026166659 -0.065327026 0.1289525 0.0820569 0.03487278
0.01740304 -0.05399948 0.057585396 0.07995442 0.0788947 -0.040826682 -0.051066447 -0.05425555
-0.12618707 -0.048324686 0.072239 -0.008772188 -0.14887665 0.0111981565 -0.12341114 0.0050785653
-0.10827335 0.028753418 -0.0870747 0.12218601 -0.089975834 -0.13841704 -0.08273701 0.10031338
-0.15803398 -0.007990186 0.03918423 0.14109251 0.046391495 0.022665853 -0.11226052 0.009180073
-0.014336594 -0.06652228 -0.061527696 0.14987916 -0.11387412 -0.21665715 -0.11604627 -0.172677
0.08512165 -0.27473262 -0.15188166 -0.15170103 0.11594882 -0.021066183 0.113356695 0.3215483
-0.24789055 0.12425826 -0.17457667 -0.09080519 0.11333838 0.042762417 0.04189663 -0.049274687
0.26026118 -0.2587647 0.23818398 -0.10991378 -0.08335517 0.1773214 -0.047194466 -0.19202061
0.22472134 -0.19578259 -0.17888607 -0.029910697 -0.21068126 -0.184998 -0.36197692 -0.07855502
-0.043913994 -0.27133712 -0.044315644 0.078256294 0.19356571 0.13850467 0.047817998 -0.20649502
-0.025300087 -0.13976555 -0.32981205 0.23499218 -0.0056848293 0.12266263 0.2418841 -0.19329686
-0.104558535 0.20056155 0.07510071 -0.3277318 -0.19978493 -0.08554308 0.18445456 0.0019343746
-0.0060965708 -0.19303119 0.10311365 0.30191764 0.10405312 0.001392805 0.028259229 0.13766581
0.04264292 -0.10560557 -0.31676698 0.046247788 0.24661142 -0.29503176 -0.325719 0.19975345
0.15969597 0.012354558 0.26019835 0.25358438 -0.026089322 0.36141485 -0.2597567 0.06996814
-0.26194233 0.3045019 0.09495829 -0.16239555 -0.20519128 -0.017999753 0.23602611 0.061230276
-0.012181033 -0.28523895 0.19230838 -0.056160633 -0.16502376 -0.013195539 -0.19201574 -0.18200414
-0.11194496 -0.08631535 0.18798645 0.0016888044 -0.26348463 0.016643533 -0.060721435 0.2059047
-0.21936108 -0.1538044 0.113481835 -0.118100256 -0.22755463 -0.10273522 -0.032172497 -0.12748101
-0.20771849 -0.23250225 0.261025 0.20131996 0.16508251 -0.029943123 -0.30976164 0.021551805
00000000: 8360 1fbe c83c 01be eb48 83bd 921e d43b
00000010: 0308 bdbc af5a 7fbd cf80 23be b62b 08be
00000020: 4b4c a8bd b5f0 12bd 2eb1 30bc 241b 48bc
00000030: b8cb 9b3c e7b8 973d e2f6 913d 6dac 5e3d
00000040: beae 223b a2c9 863d 2021 f2bd c223 093d
00000050: 9e7a 6fbc cba4 3d3d 9f00 e3bc aa57 363d
00000060: 92eb b13d f0a8 2abd d707 2ebc 3fc5 1fbe
00000070: d89a 16be 5e7b 66bd 0a6d 31bd 3cbb 10be
00000080: 622c 6e3d c5e2 95bd 15a5 0cbd 4960 bcbd
00000090: cefb b3bd cb28 283c ceaf 163e 8551 44bc
000000a0: 75ae 163e a73a d5bd 0eb7 613e d328 f43b
000000b0: 6a41 883d 136c 05bc 0ee6 33bd 0a3c a9bb
000000c0: 5a76 353d 1d53 40bd d48b 3abe db48 133e
000000d0: 1ad1 183d dc90 5b3d 327f f13b 8198 0a3d
000000e0: 0863 e1bc c0a0 0ebb 559c 5fbd f92d f7bc
000000f0: cce9 b3bd d600 7abd 937e 503d 9c34 9abd
00000100: cadb c5bc 864c 7d3c 4a87 d4bb b21d e23c
00000110: afbd fcbb 391d 773d 989b 0c3e 387a f13c
00000120: 987b fb3d 41fe f2bc 6d1e a7bd 9867 073e
00000130: 8940 41bd 971a bcbd da39 04bd 3a06 1bbd
00000140: d52b 19bd e431 d03c d942 543e 3f45 f43c
00000150: a42b 213e 84f1 cc3c 2ad6 0bbd 6b6d 443e
00000160: ca3a 1ebe 4fbf 30bd f3d6 08bd 765b d63c
00000170: 2dca 85bd 200c 043e 730d a83d c3d6 0e3d
00000180: d290 8e3c 8f2e 5dbd aade 6b3d 25bf a33d
00000190: 8b93 a13d e139 27bd 0d2b 51bd 113b 5ebd
000001a0: 2f37 01be 1bf0 45bd 0af2 933d 39b9 0fbc
000001b0: 1f73 18be 7978 373c fbbe fcbd 186a a63b
000001c0: 6bbe ddbd 4a8c eb3c 3854 b2bd a93c fa3d
000001d0: 4045 b8bd 32bd 0dbe 0672 a9bd 1a71 cd3d
000001e0: a9d3 21be 45e9 02bc a57f 203d 8e7a 103e
000001f0: 0205 3e3d bdad b93c d8e8 e5bd 0468 163c
00000200: 09e4 6abc d53c 88bd 7704 7cbd ec79 193e
00000210: d636 e9bd 5fdb 5dbe aba9 edbd 3dd2 30be
00000220: 4254 ae3d c1a9 8cbe de86 1bbe 8457 1bbe
00000230: 9376 ed3d fd92 acbc 8e27 e83d fba1 a43e
00000240: 05d7 7dbe 1d7b fe3d 3ac4 32be 12f8 b9bd
00000250: f41d e83d a527 2f3d cd9b 2b3d 41d4 49bd
00000260: f440 853e cf7c 84be 80e6 733e 7a1a e1bd
00000270: 1eb6 aabd be93 353e fc4e 41bd 0da1 44be
00000280: 5a1d 663e 3b7b 48be e92d 37be 4707 f5bc
00000290: d4bc 57be 1e70 3dbe 0a55 b9be 74e1 a0bd
000002a0: 29df 33bd b3ec 8abe 5284 35bd d644 a03d
000002b0: 1736 463e 2bd4 0d3e cedc 433d 6e73 53be
000002c0: 2142 cfbc b31e 0fbe 20dd a8be caa1 703e
000002d0: ce47 babb 8c36 fb3d 77b0 773e 9def 45be
000002e0: c922 d6bd 0260 4d3e 67ce 993d 76cc a7be
000002f0: 6c94 4cbe 3631 afbd a8e1 3c3e d78a fd3a
00000300: bec5 c7bb f8a9 45be 402d d33d f394 9a3e
00000310: cd19 d53d c88e b63a e67f e73c 44f8 0c3e
00000320: 58aa 2e3d bc47 d8bd 482f a2be 526e 3d3d
00000330: b487 7c3e 670e 97be a4c4 a6be 2b8c 4c3e
00000340: 5787 233e c66a 4a3c b838 853e d0d5 813e
00000350: 46b9 d5bc 5e0b b93e d5fe 84be 754b 8f3d
00000360: 4e1d 86be ace7 9b3e 7e79 c23d 054b 26be
00000370: aa1d 52be 3874 93bc d4b0 713e 99cc 7a3d
00000380: f592 47bc d70a 92be 7dec 443e b108 66bd
00000390: fdfb 28be 1a32 58bc c69f 44be 4b5f 3abe
000003a0: 6643 e5bd 1ac6 b0bd 857f 403e df5a dd3a
000003b0: 75e7 86be 0558 883c 0ab7 78bd afd8 523e
000003c0: 31a0 60be e77e 1dbe 2a69 e83d 8cde f1bd
000003d0: 1504 69be d866 d2bd 4fc7 03bd 628a 02be
000003e0: 28b4 54be 1215 6ebe 12a5 853e d226 4e3e
000003f0: 640b 293e 484b f5bc 1499 9ebe 698d b03c

GRU/quant_dense_49/LastValueQuant/FakeQuantWithMinMaxVars__3373 f4 [32, 1]
0.05177238 -0.030454341 -0.033499777 0.0060908683 0.07918128 -0.322816 -0.1157265 -0.07918128
-0.1248628 0.14618084 -0.17968062 -0.2832254 -0.17054431 0.060908683 0.16749887 0.18272606
-0.18577148 -0.19186234 0.027408907 -0.11268106 -0.26190734 -0.38677013 -0.07004499 -0.030454341
0.0 -0.08222672 0.3654521 0.3654521 0.22536212 0.09440846 0.3563158 0.066999555
00000000: 460f 543d 627b f9bc 1037 09bd e895 c73b
00000010: cc29 a23d 2448 a5be 0402 edbd cc29 a2bd
00000020: 11b8 ffbd 6eb0 153e 32fe 37be eb02 91be
00000030: 2ba3 2ebe 627b 793d d384 2b3e 8a1c 3b3e
00000040: e13a 3ebe 9077 44be a588 e03c 54c5 e6bd
00000050: b818 86be bc06 c6be bf73 8fbd 627b f9bc
00000060: 0000 0000 7c66 a8bd 8a1c bb3e 8a1c bb3e
00000070: 54c5 663e 3959 c13d 066f b63e 1037 893d

GRU/quant_dense_48/LastValueQuant/FakeQuantWithMinMaxVars__3372 f4 [32, 32]
-0.23617469 0.23617469 0.21288987 0.059875276 -0.009979213 -0.20291065 -0.013305617 0.10977133
-0.09313931 0.3160084 0.07318089 0.33596683 -0.03991685 -0.2461539 0.20956346 -0.11642414
-0.07650729 -0.23617469 0.08981291 -0.17297302 -0.30602917 -0.03991685 0.17297302 -0.18627863
0.312682 0.09646572 0.06985449 -0.20956346 -0.22952189 0.0798337 -0.2395011 0.34927243
0.14636178 0.04989606 0.046569657 -0.1696466 0.21288987 -0.28274435 -0.28939715 -0.06652808
-0.4224533 -0.1629938 0.03991685 0.019958425 -0.009979213 0.12972976 -0.013305617 -0.023284828
0.023284828 0.21621627 0.20623706 -0.37255725 -0.059875276 -0.27609155 0.15301459 -0.15301459
-0.04989606 -0.36257806 -0.029937638 0.046569657 0.29604998 0.22286908 0.3160084 -0.35592523
-0.19958425 -0.28939715 -0.07318089 -0.11309774 -0.07318089 -0.20291065 0.12972976 -0.06652808
-0.25280672 0.1596674 -0.3326404 -0.17629942 0.23617469 -0.25945953 -0.13970898 -0.08648651
0.21288987 -0.009979213 -0.0066528083 -0.07650729 0.04989606 -0.11975055 0.06320168 -0.08648651
0.1629938 -0.10644493 -0.26943874 0.14636178 -0.10311853 -0.19958425 -0.043243255 -0.03991685
0.22952189 -0.30602917 0.0033264041 0.09979212 -0.0831601 0.26611233 0.2395011 0.043243255
-0.11975055 0.09313931 0.32931402 -0.21288987 0.2494803 0.013305617 0.09979212 0.0033264041
0.10977133 -0.09646572 -0.28274435 0.053222466 -0.10644493 -0.14968818 -0.23284829 0.22952189
-0.13970898 0.07318089 0.23617469 0.156341 -0.11642414 -0.2461539 -0.08648651 -0.2561331
0.1696466 0.07650729 0.21288987 0.1629938 -0.046569657 -0.20623706 0.18627863 0.0831601
-0.18295223 -0.2428275 0.11309774 0.046569657 0.13638256 0.3392932 0.1696466 0.27276513
0.03991685 0.2561331 -0.17629942 0.18627863 -0.27609155 0.15301459 -0.2428275 -0.18627863
0.07318089 -0.20291065 -0.026611233 -0.18295223 -0.046569657 -0.21288987 -0.029937638 0.2428275
-0.009979213 -0.06320168 0.043243255 -0.0831601 -0.06652808 0.2395011 -0.17962582 -0.12640336
0.053222466 -0.12307695 -0.20956346 -0.026611233 0.04989606 -0.25280672 -0.11975055 -0.13305616
-0.06652808 -0.2494803 -0.12972976 0.27941796 0.17962582 -0.05654887 -0.026611233 0.27941796
0.03326404 0.14636178 0.08648651 -0.35259885 0.13638256 0.12640336 -0.312682 -0.13638256
0.10977133 -0.046569657 0.18627863 -0.11309774 0.03991685 0.0066528083 -0.0033264041 0.30602917
-0.11309774 0.09313931 0.06320168 -0.14968818 0.4091477 0.09313931 -0.25280672 -0.13638256
-0.25945953 -0.12972976 0.14303538 0.14636178 -0.10644493 -0.10311853 0.05654887 0.17962582
0.14968818 -0.15301459 0.2428275 -0.013305617 -0.21621627 -0.1663202 0.053222466 0.08648651
-0.20291065 -0.2428275 0.009979213 -0.2461539 0.07318089 -0.059875276 -0.28939715 -0.22952189
-0.07650729 -0.17962582 0.3226612 0.3160084 -0.07650729 0.06985449 0.0831601 -0.29604998
-0.21954267 -0.11975055 0.019958425 -0.06652808 -0.0798337 -0.046569657 -0.22286908 -0.11642414
-0.22286908 0.12972976 0.12972976 -0.08648651 -0.10977133 -0.0831601 0.19293144 -0.28607076
00000000: c7d7 71be c7d7 713e cdff 593e c73f 753d
00000010: da7f 23bc cfc7 4fbe cdff 59bc cbcf e03d
00000020: d3bf bebd dacb a13e dddf 953d d803 ac3e
00000030: da7f 23bd c50f 7cbe ce97 563e c86f eebd
00000040: dbaf 9cbd c7d7 71be d5ef b73d d71f 31be
00000050: dbaf 9cbe da7f 23bd d71f 313e d3bf 3ebe
00000060: db17 a03e d28f c53d df0f 8f3d ce97 56be
00000070: c907 6bbe da7f a33d c73f 75be d6d3 b23e
00000080: dddf 153e d05f 4c3d d3bf 3e3d d7b7 2dbe
00000090: cdff 593e dec3 90be dd2b 94be e03f 88bd
000000a0: cd4b d8be d9e7 26be da7f 233d da7f a33c
000000b0: da7f 23bc e1d7 043e cdff 59bc d3bf bebc
000000c0: d3bf be3c cc67 5d3e cf2f 533e d3bf bebe
000000d0: c73f 75bd df5b 8dbe dbaf 1c3e dbaf 1cbe
000000e0: d05f 4cbd d5a3 b9be c73f f5bc d3bf 3e3d
000000f0: dd93 973e cb37 643e dacb a13e d53b b6be
00000100: d05f 4cbe dd2b 94be dddf 95bd ca9f e7bd
00000110: dddf 95bd cfc7 4fbe e1d7 043e e03f 88bd
00000120: e26f 81be da7f 233e d84f aabe d687 34be
00000130: c7d7 713e e1d7 84be df0f 0fbe d71f b1bd
00000140: cdff 593e da7f 23bc cdff d9bb dbaf 9cbd
00000150: d05f 4c3d c73f f5bd e26f 813d d71f b1bd
00000160: d9e7 263e cdff d9bd e0f3 89be dddf 153e
00000170: cf2f d3bd d05f 4cbe d71f 31bd da7f 23bd
00000180: c907 6b3e dbaf 9cbe cdff 593b d05f cc3d
00000190: d84f aabd e03f 883e c73f 753e d71f 313d
000001a0: c73f f5bd d3bf be3d d99b a83e cdff 59be
000001b0: c477 7f3e cdff 593c d05f cc3d cdff 593b
000001c0: cbcf e03d d28f c5bd dec3 90be cdff 593d
000001d0: cdff d9bd dc47 19be c86f 6ebe c907 6b3e
000001e0: df0f 0fbe dddf 953d c7d7 713e db17 203e
000001f0: c86f eebd c50f 7cbe d71f b1bd e123 83be
00000200: d7b7 2d3e dbaf 9c3d cdff 593e d9e7 263e
00000210: d3bf 3ebd cf2f 53be d3bf 3e3e d84f aa3d
00000220: d457 3bbe c6a7 78be ca9f e73d d3bf 3e3d
00000230: dfa7 0b3e d7b7 ad3e d7b7 2d3e dfa7 8b3e
00000240: da7f 233d e123 833e d687 34be d3bf 3e3e
00000250: df5b 8dbe dbaf 1c3e c6a7 78be d3bf 3ebe
00000260: dddf 953d cfc7 4fbe cdff d9bc d457 3bbe
00000270: d3bf 3ebd cdff 59be c73f f5bc c6a7 783e
00000280: da7f 23bc e26f 81bd d71f 313d d84f aabd
00000290: e03f 88bd c73f 753e d5ef 37be e26f 01be
000002a0: cdff 593d c50f fcbd ce97 56be cdff d9bc
000002b0: d05f 4c3d e26f 81be c73f f5bd e03f 08be
000002c0: e03f 88bd c477 7fbe e1d7 04be df0f 8f3e
000002d0: d5ef 373e ca9f 67bd cdff d9bc df0f 8f3e
000002e0: e03f 083d dddf 153e d71f b13d d687 b4be
000002f0: dfa7 0b3e e26f 013e db17 a0be dfa7 0bbe
00000300: cbcf e03d d3bf 3ebd d3bf 3e3e ca9f e7bd
00000310: da7f 233d cdff d93b cdff 59bb dbaf 9c3e
00000320: ca9f e7bd d3bf be3d e26f 813d dc47 19be
00000330: cf7b d13e d3bf be3d e26f 81be dfa7 0bbe
00000340: e1d7 84be e1d7 04be de77 123e dddf 153e
00000350: cdff d9bd cf2f d3bd ca9f 673d d5ef 373e
00000360: dc47 193e dbaf 1cbe c6a7 783e cdff 59bc
00000370: cc67 5dbe d84f 2abe cdff 593d d71f b13d
00000380: cfc7 4fbe c6a7 78be da7f 233c c50f 7cbe
00000390: dddf 953d c73f 75bd dd2b 94be c907 6bbe
000003a0: dbaf 9cbd d5ef 37be d933 a53e dacb a13e
000003b0: dbaf 9cbd df0f 8f3d d84f aa3d dd93 97be
000003c0: cbcf 60be c73f f5bd da7f a33c e03f 88bd
000003d0: da7f a3bd d3bf 3ebd cb37 64be c86f eebd
000003e0: cb37 64be e1d7 043e e1d7 043e d71f b1bd
000003f0: cbcf e0bd d84f aabd d28f 453e de77 92be

GRU/quant_dense_48/BiasAdd/ReadVariableOp:0 f4 [32]
0.009284225 -0.08521767 -0.08667209 -0.039516553 0.014937105 0.013540727 -0.09009798 -0.11713736
-0.09728038 0.003408896 -0.015560218 -0.08698336 -0.106674485 -0.04108083 -0.030002119 0.06385232
0.021789098 -0.058718573 0.032809477 0.000947164 -0.0050590266 -0.12041487 -0.084778614 -0.079601415
-0.05391184 -0.009451832 -0.046676744 0.00019111799 0.02538956 -0.08025119 0.017536616 -0.0656384
00000000: dd1c 183c 9a86 aebd 2381 b1bd 1cdc 21bd
00000010: c2ba 743c edd9 5d3c 4a85 b8bd b6e5 efbd
00000020: f03a c7bd c967 5f3b 49f0 7ebc 5524 b2bd
00000030: 2778 dabd 5f44 28bd 01c7 f5bc 01c5 823d
00000040: 0d7f b23c e382 70bd 3b63 063d 1a4b 783a
00000050: 31c6 a5bb 129c f6bd 69a0 adbd 1106 a3bd
00000060: a9d2 5cbd dbdb 1abc 1d30 3fbd d866 4839
00000070: c4fd cf3c bc5a a4bd f3a8 8f3c 6d6d 86bd

B__3413 f4 [1, 192]
-0.12289137 0.060381893 0.05317271 -0.15245242 -0.017847154 0.0822438 0.026864782 -0.041183874
0.22078492 0.226255 0.120413445 -0.0762459 0.21127276 -0.2395854 0.050206333 0.072343655
0.012493232 -0.047298536 -0.003689693 -0.2323912 0.12231735 -0.03461778 -0.22765666 0.18879236
-0.18514566 -0.14775485 -0.2817284 -0.10723023 -0.17793551 -0.028063182 -0.04372449 -0.046979133
-0.05909071 0.03501066 -0.0275313 -0.07182619 -0.033252355 0.044461694 -0.045063686 -0.045386605
-0.021902699 -0.04617183 -0.016801283 -0.061890632 0.006923614 -0.026160056 -0.06786423 -0.03202487
0.021172887 -0.008738801 0.05486475 0.038450953 0.024524832 -0.08704287 -0.04640675 -0.003978664
-0.007627175 -0.036582906 -0.022474557 -0.07581941 -0.015779521 -0.13779101 0.02555244 -0.040473018
-0.025792077 0.015455842 0.032937646 -0.02746305 -0.0037947579 -0.017333142 -0.00042561168 0.01813941
0.007415822 0.027630877 0.049896345 0.051807243 -0.030887261 -0.08666091 0.06032895 -0.025640432
-0.002632844 0.0020736882 -0.038458873 0.017588764 -0.009934328 -0.012804813 -0.068690404 0.039819956
0.0198699 0.061729077 -0.04608139 -0.031343337 -0.056455288 -0.03328676 0.04457262 0.029020347
-0.12289137 0.060381893 0.05317271 -0.15245242 -0.017847154 0.0822438 0.026864782 -0.041183874
0.22078492 0.226255 0.120413445 -0.0762459 0.21127276 -0.2395854 0.050206333 0.072343655
0.012493232 -0.047298536 -0.003689693 -0.2323912 0.12231735 -0.03461778 -0.22765666 0.18879236
-0.18514566 -0.14775485 -0.2817284 -0.10723023 -0.17793551 -0.028063182 -0.04372449 -0.046979133
-0.05909071 0.03501066 -0.0275313 -0.07182619 -0.033252355 0.044461694 -0.045063686 -0.045386605
-0.021902699 -0.04617183 -0.016801283 -0.061890632 0.006923614 -0.026160056 -0.06786423 -0.03202487
0.021172887 -0.008738801 0.05486475 0.038450953 0.024524832 -0.08704287 -0.04640675 -0.003978664
-0.007627175 -0.036582906 -0.022474557 -0.07581941 -0.015779521 -0.13779101 0.02555244 -0.040473018
-0.015111965 0.0109327175 0.031696152 -0.029841643 -0.0096870195 -0.014761414 0.0052460073 0.016836219
0.011022172 0.026768658 0.052886136 0.055606917 -0.028852208 -0.08403035 0.06501195 -0.024921793
-0.003349954 0.001289612 -0.042583905 0.014160188 -0.012912991 0.005079829 -0.06453718 0.04571562
0.007085565 0.05293929 -0.042541053 -0.02814545 -0.06722104 -0.035796832 0.046195902 0.023482896
00000000: 78ae fbbd 0153 773d a1cb 593d 7d1c 1cbe
00000010: 3234 92bc 706f a83d 8813 dc3c 6cb0 28bd
00000020: 7115 623e 64af 673e 539b f63d cf26 9cbd
00000030: e357 583e e055 75be 28a5 4d3d e928 943d
00000040: 6ab0 4c3c 1cbc 41bd c7ce 71bb f5f7 6dbe
00000050: 8581 fa3d 60cb 0dbd d41e 69be c952 413e
00000060: d396 3dbe 0c4d 17be b43e 90be 869b dbbd
00000070: ba34 36be c2e4 e5bc 7318 33bd 316d 40bd
00000080: 1a09 72bd 5667 0f3d 5289 e1bc 9c19 93bd
00000090: 9f33 08bd 771d 363d b394 38bd 4ee7 39bd
000000a0: 4a6d b3bc ac1e 3dbd d8a2 89bc 0881 7dbd
000000b0: 7cdf e23b 9d4d d6bc 67fc 8abd 832c 03bd
000000c0: c372 ad3c 302d 0fbc dcb9 603d bf7e 1d3d
000000d0: 4de8 c83c 8843 b2bd 0115 3ebd 745f 82bb
000000e0: 62ed f9bb f5d7 15bd 901c b8bc 3547 9bbd
000000f0: 0e44 81bc 1619 0dbe 5a53 d13c 09c7 25bd
00000100: e849 d3bc 803a 7d3c a0e9 063d 31fa e0bc
00000110: 79b1 78bb 3cfe 8dbc a224 dfb9 1a99 943c
00000120: 6c00 f33b 265a e23c 1c60 4c3d d533 543d
00000130: 4807 fdbc 467b b1bd 7d1b 773d e20b d2bc
00000140: cb8b 2cbb b7e6 073b 0d87 1dbd 5016 903c
00000150: 97c3 22bc 47cb 51bc 8ead 8cbd 401a 233d
00000160: 33c6 a23c a1d7 7c3d d7bf 3cbd df61 00bd
00000170: a93d 67bd b357 08bd c891 363d 14bc ed3c
00000180: 78ae fbbd 0153 773d a1cb 593d 7d1c 1cbe
00000190: 3234 92bc 706f a83d 8813 dc3c 6cb0 28bd
000001a0: 7115 623e 64af 673e 539b f63d cf26 9cbd
000001b0: e357 583e e055 75be 28a5 4d3d e928 943d
000001c0: 6ab0 4c3c 1cbc 41bd c7ce 71bb f5f7 6dbe
000001d0: 8581 fa3d 60cb 0dbd d41e 69be c952 413e
000001e0: d396 3dbe 0c4d 17be b43e 90be 869b dbbd
000001f0: ba34 36be c2e4 e5bc 7318 33bd 316d 40bd
00000200: 1a09 72bd 5667 0f3d 5289 e1bc 9c19 93bd
00000210: 9f33 08bd 771d 363d b394 38bd 4ee7 39bd
00000220: 4a6d b3bc ac1e 3dbd d8a2 89bc 0881 7dbd
00000230: 7cdf e23b 9d4d d6bc 67fc 8abd 832c 03bd
00000240: c372 ad3c 302d 0fbc dcb9 603d bf7e 1d3d
00000250: 4de8 c83c 8843 b2bd 0115 3ebd 745f 82bb
00000260: 62ed f9bb f5d7 15bd 901c b8bc 3547 9bbd
00000270: 0e44 81bc 1619 0dbe 5a53 d13c 09c7 25bd
00000280: 2d98 77bc 241f 333c d3d3 013d 7676 f4bc
00000290: 4eb6 1ebc dcd9 71bc b3e6 ab3b 1cec 893c
000002a0: 5796 343c f249 db3c 229f 583d 14c4 633d
000002b0: 775b ecbc 1b18 acbd fc24 853d ca28 ccbc
000002c0: e78a 5bbb 3308 a93a 766c 2ebd 2200 683c
000002d0: 0391 53bc b274 a63b 122c 84bd 4d40 3b3d
000002e0: 072e e83b ded6 583d 873f 2ebd 4991 e6bc
000002f0: 2fab 89bd b39f 12bd ea37 3d3d 345f c03c
