models/station_25/model_latest.onnx (onnx, 407659 bytes, 12 tensors)

W__770 f4 [1, 96, 64]
00000000: 23bd 28be 95d6 ecbd 71d2 923e cb56 8ebc
00000010: b926 86be 35ae 603e ded5 dd3b c94c 203e
00000020: 7714 8f3e 8020 e6bd ea63 663d 98e9 05be
00000030: be21 d8bd 5f81 0bbe d79b 5b3e 03c4 683b
00000040: 5dcc 4a3e 2f15 a6be 7444 253b 7419 b7be
00000050: 0dfb 33be 8846 353e d8d2 8b3b b6e2 4fbe
00000060: 9803 cdbd f184 173e 9d26 1dbe 5baa d8bc
00000070: eab8 c93d 583b 96bd a64b e4bd b9e6 593c
00000080: d0d0 a1be 799e debc 5362 b83e 31c4 bb3c
00000090: 0b31 a7bd 1846 e33d 90b8 64bd f33d ee3c
000000a0: a4b8 b6bd 38d8 6fbe 79a1 7abe 7aec 743e
000000b0: 70fa e7bd afc2 8d3e ede9 49bc f78e d03e
000000c0: 626b b1be 4adc 413e e70f febd 8420 ccbd
000000d0: 11e1 aabd ff90 84be 9570 8cbd 7e13 a03e
000000e0: c9be 03be 8745 72be 01c3 713d 036f fb3d
000000f0: fdbc d4bd e51a f7be 8ac6 623e cb43 463e
00000100: f993 63be 1f70 493e 8b07 8f3e 2325 993d
00000110: a43f 36bd 5fce 543d 40e4 743d d1a9 723e
00000120: d045 0bbd 329c 32be 53de 583c 4e16 c2be
00000130: 59c7 1b3d 31d2 63be 59e9 6d3e d997 3abd
00000140: 4942 81bd c91c 41be 8f71 9b3e 0de0 04be
00000150: 2141 343e 5fa2 803e f6bd 9a3e 9364 54bb
00000160: 117c 1a3e f2dd 9b3d 38ac 35be f491 12be
00000170: 0145 7b3e 3813 eebe fb2b 74be e587 233e
00000180: a392 783e 0590 c3bd 81fe 823e 800c e83c
00000190: f432 1fbd 8c6d a03d 8fc2 66be ed8d 173e
000001a0: 2d84 e8bd 8bbd a8be 0196 94bd b99c 063e
000001b0: 0f22 c63b 7280 6c3e 022f 51be 9d03 993e
000001c0: 06e7 aebd 789c 253d 590d cbbe 7408 883d
000001d0: bcc6 603e 78e8 e0bc 6cda 523d bf06 733e
000001e0: 7e6e adbe acd7 01be 3434 e9bb a01a 2a3e
000001f0: 5dee 82be b404 29be e430 2c3e d3f9 95bd
00000200: f31a 253e 65a7 c63d 6617 ce3d b6d3 0bbe
00000210: db4e 0abe 1036 09bd 269f 4bbe fce6 ab3d
00000220: b948 41be c0ee 94bb 66ba e23a c15b 2e3d
00000230: 66ce 09be 4fca 3bbd bee3 dcbc 5af7 cbbc
00000240: c289 77be 5b8a 4c3e c202 64bd 5338 0a3e
00000250: 2950 51be 14d0 143d a089 55be c69b fb3d
00000260: 9ced 363e f12b 7cbe 9f8b 893e 3125 16be
00000270: ec4a 19be 7fb3 cebc 3c7e 2d3e 50b4 52be
00000280: 4405 673e 4ca7 15be 573d ac3d bd8a 933e
00000290: b1d2 2cbe 31da 5fbe 2f2e d73c f0d6 4bbe
000002a0: 9abb 663e 6f5a 1cbd 792e a13d 0484 43bd
000002b0: 60eb 78bd 74fd 1ebe ed16 0e3e 1aa2 9dbe
000002c0: ec65 093e e06d 23bd fcc6 153e 61ce d63d
000002d0: f98d 083e ba7e 03be b616 9a3d dc9a ecbd
000002e0: 6099 a73c 80c0 3fbe 7723 e5bd 8496 2a3d
000002f0: 6eca 11be 4708 e0bc f5c7 22ba 078f a43d
00000300: e67c c03d d9dd 88be dbb6 27be 3fae ecbd
00000310: f01b 233e e068 303d 8538 cf3d d55f 0abe
00000320: ef52 b5bd 0651 473e 2b70 86be d18d f13d
00000330: 1a33 2c3d a1db eebd 846e c5bd db99 53be
00000340: 46c6 643e 4716 3cbe 1b94 12bc e8e1 12be
00000350: b7a9 98be 8db2 0f3e dfb2 84be c431 0e3e
00000360: 6e4a e43d dc38 c63d 0064 103e 9b04 00be
00000370: 5e41 ae3d 54d7 7c3d 8007 053e 110b 1fbe
00000380: c434 ea3c 8499 563d b74a eabc fab5 3cbe
00000390: 94b2 a4bc 3f45 4bbe 7e84 0a3d c0b2 d8bd
000003a0: a158 973c acf4 bbbd 9328 8f3e e788 673e
000003b0: 39b8 60be aaad adbd 6ecb 1d3e c290 f3ba
000003c0: 7194 1ebe 5a8c 423e 05ae efbd fb98 aebd
000003d0: 74c5 28be 134d 04be 6842 573c 69c2 89bd
000003e0: 629c df3d 4ae9 e83d 87a3 d33d 63f3 4cbb
000003f0: ef87 363d e3e5 293e 37bb 03bd aec2 063e
-0.164784 -0.11564366 0.2867618 -0.01737537 -0.26201418 0.21941455 0.0067698797 0.15654291
0.279453 -0.11236668 0.05624763 -0.1307739 -0.10553311 -0.1362357 0.21446167 0.0035517223
0.19804521 -0.32438037 0.0025217803 -0.35761607 -0.17576237 0.17702687 0.004267078 -0.20301327
-0.10010451 0.14796807 -0.15346761 -0.02644842 0.09849723 -0.07335538 -0.11147241 0.0132996375
-0.31604624 -0.027175175 0.36012515 0.0229207 -0.08163651 0.11097354 -0.055840075 0.029082274
-0.08921936 -0.23422325 -0.2447566 0.23918334 -0.11327064 0.27687594 -0.012323839 0.40734074
-0.3465224 0.1893169 -0.12405377 -0.09967139 -0.08343709 -0.25891873 -0.06857411 0.3126487
-0.12865748 -0.23659335 0.05902386 0.12277033 -0.10387609 -0.48262706 0.22146049 0.19361798
-0.22224416 0.19671677 0.27935442 0.074777864 -0.044494286 0.051954623 0.05978799 0.23697592
-0.034002125 -0.17442396 0.0132366 -0.37907642 0.03803191 -0.2224815 0.23233546 -0.04555497
-0.06311471 -0.18858637 0.30360076 -0.12976094 0.1760297 0.2512388 0.30223054 -0.003240858
0.1508639 0.07610692 -0.17741477 -0.14313489 0.24538042 -0.46499038 -0.23844902 0.15969808
0.24274687 -0.09548954 0.25584796 0.028326273 -0.038866952 0.078333944 -0.22535156 0.14800234
-0.113533355 -0.3295711 -0.072551735 0.13145722 0.0060465406 0.23095873 -0.20428088 0.2988557
-0.08540158 0.040432423 -0.3965862 0.06642237 0.21950811 -0.0274546 0.051477835 0.23733042
-0.3387336 -0.12679929 -0.007116819 0.16611719 -0.25572482 -0.165057 0.16815525 -0.07323041
0.16123562 0.09699897 0.10063057 -0.1365498 -0.13506643 -0.033498824 -0.19884929 0.08393666
-0.18875398 -0.004545063 0.0017297983 0.042567972 -0.13457641 -0.045847233 -0.026964065 -0.02489822
-0.24173644 0.19974653 -0.055666693 0.13498048 -0.20440735 0.03633125 -0.20853281 0.12285571
0.17864078 -0.24626137 0.26864335 -0.14662625 -0.14969987 -0.025232075 0.16942686 -0.20576596
0.22560602 -0.146146 0.08410137 0.28816786 -0.16877247 -0.21860577 0.02626714 -0.19906211
0.22532502 -0.03817218 0.07870192 -0.04773332 -0.060771346 -0.15526372 0.13875933 -0.30787736
0.13417786 -0.039899707 0.14626688 0.104885824 0.13335408 -0.12841311 0.07523863 -0.115529746
0.020458877 -0.18725777 -0.11188405 0.04164745 -0.14237377 -0.027347697 -0.00062096055 0.08035093
0.093988225 -0.26731756 -0.16378348 -0.11556672 0.15928626 0.043068767 0.10118202 -0.1351312
-0.08853709 0.19464502 -0.26257452 0.117946275 0.04204092 -0.11662985 -0.0964022 -0.2066416
0.2234126 -0.18367873 -0.008946444 -0.14343989 -0.29816982 0.14032955 -0.25917718 0.13886172
0.11147009 0.09678814 0.14100647 -0.12501757 0.085085616 0.06172879 0.12991142 -0.15531565
0.028589614 0.052392498 -0.02860008 -0.18428794 -0.020104684 -0.19850634 0.03381776 -0.10580969
0.018474879 -0.09177527 0.27960643 0.22610818 -0.21945275 -0.084803894 0.15409634 -0.001858257
-0.15486313 0.18998852 -0.117031135 -0.085252725 -0.16481572 -0.12920026 0.013138391 -0.06726534
0.109184995 0.11372621 0.10333925 -0.0031273 0.04456323 0.16591601 -0.032160964 0.13160202

W__756 f4 [1, 192, 128]
00000000: 03c8 3cbe 8e12 0f3e f5bd 11be 3348 ec3c
00000010: ac3a 623e d867 283e dd03 1bbe 424b dc3c
00000020: b3fe 033e bebf b53d 46fa 17be 029c dcbd
00000030: f261 c53d da23 373e 8e59 a23d 9687 803b
00000040: 295b e8bd 652b 2dbe 3b6f 9fbd cf3c 09be
00000050: 09f5 1f3c e393 c8bd a2c6 bfbd c456 0d3e
00000060: 10fe 853c df8b 003d cd97 cf3c e438 77be
00000070: 2a7f 783e 9359 62bd b1c8 a2bc 0f37 28be
00000080: 64a2 253e d0ea 403c fe32 b73d a2bc fabd
00000090: 0677 183e f262 dd3b 3f8c 8f3d 0ff5 e13d
000000a0: 83c3 783d 9d57 f1bd f697 91bd d2e7 93bc
000000b0: 24f9 983d a0cc 4cbd bb29 353d 8ea9 bdbd
000000c0: d191 78bb 31e2 db3c 2648 433e cf7b 153d
000000d0: a410 6f3e d2f0 843e b296 f53d 5062 c4bc
000000e0: c356 a13d 6902 cabd 9e0a e83d a4ed 01be
000000f0: 3539 213e 7f96 bf3c a860 71ba 140b 20bc
00000100: bc0f 67be f723 a9bb 04ec b8bd 8571 763e
00000110: 5e48 88be 1708 8cbc eb0f 43bd 90b5 c03d
00000120: 6e45 14be 7961 73be ec4e 28bd e18b 31bd
00000130: 17a5 16bd c602 853d e962 043e bac4 1dbe
00000140: 2c2b 19bd 73c1 793e 81ba c23d 16ec be3c
00000150: 74e9 66bd 3dca b2bd 39e0 6f3d 18f4 b3bd
00000160: eafc bdbc bcdd 063e 1433 34bc 9458 0d3e
00000170: 419b 073e 1cb2 4d3d 0a03 19be cc66 28bd
00000180: 97e4 80bd 6a76 fd3d 20e6 ffbd d7bf 193e
00000190: d289 6b3e 80ec b43d bcd7 2bbe 6a9e 0a3e
000001a0: a3cf 3cbd 10de bd3d 95df 2d3e 5bbb 2c3e
000001b0: 5fc7 23bd 9be1 0b3d 736c 1cbd 378f 823d
000001c0: 4ee5 943d cca3 0d3d 8c7f 323e b159 f43d
000001d0: 4afa 413e a52c 9b3b 8212 a0bd 0686 cf3c
000001e0: 480c 4abe 4c2f 983d 5cfa afbc 92e5 57be
000001f0: 702c 253d 94ac 463e 096f 6bbb 6414 083e
00000200: 83ed d6bd 1621 9d3c 22dd 8f3c b112 0cbd
00000210: 95ef a03d f787 e33c c443 163d 7f36 6abd
00000220: 9889 36bd d466 f3bd da50 4f3e d8e8 2f3d
00000230: 74e5 8dbd 15bf 55bd 035b 80be ac60 84bc
00000240: 83b7 06be 32f0 c0bb a500 c33d 03e9 4abb
00000250: 54bc 913d 8239 4c3e a7dd a33b 4671 abbd
00000260: f304 57be becd a7bb 7d81 413c 286e 253e
00000270: ca7d 8ebc d049 0a3d c963 d43d cd08 6c3e
00000280: 6411 0cbd f25a d33c 5ff0 1cbe 7b49 c33d
00000290: 39f3 86bb df51 1d3e c6b6 ee3d 2cdf 0f3e
000002a0: 7138 8fbd 4737 083e a4b7 f43d 8195 c03c
000002b0: b53a 0d3e c5b2 1c3e dcf4 7f3d 7577 7dbd
000002c0: e7f3 b73d 7255 e23c b24c 26bb e7f2 8b3d
000002d0: 5e5b 13bc 131b fdbd 84b0 cc3a e735 3abe
000002e0: 00fa 6dbd 61ee 09bc 015d a3bd f13f 733e
000002f0: 6197 15be b5d5 973d 2067 55bd ee00 553d
00000300: 52bb 803d 9846 b5bd 9976 10be 14c8 7f3d
00000310: b096 fc3d dd49 dd3d 5e58 0f3e de09 14be
00000320: fbbe 06bd 8a1e 003d 6e8c e83d e3f2 9fbc
00000330: 7044 df3b e5a3 b43d 68c3 0e3e 50f5 0e3e
00000340: 43e2 75bd 6c11 8bbe 5a27 51be d215 bcbd
00000350: a54e f93d 981f 2e3d 4556 b53b 63c4 29bc
00000360: 49e1 11bd 522e 43be db73 013e defd c9bd
00000370: 8b95 3cbe 02e1 9c3d 6714 f03d 60e0 2bbe
00000380: 9fc6 853d e2f8 58be ea64 3d3e bd7a 643d
00000390: e71b cbbd c379 2b3e cca2 37bd e4f3 95bd
000003a0: d241 bf3d 9017 e73d c991 05be ee52 16be
000003b0: 51af aa3d 1834 3dbe 51ee 18be 0a30 b7bd
000003c0: 94c0 15be 1a8a 8bbe 10eb ecba 62e7 9cbd
000003d0: 6031 7ebd 06eb d6bd d82f 33bd 9fbb 23be
000003e0: f546 00bc c0c1 07be aa5a 9cbd 48e3 693d
000003f0: ed0a fcbc aac1 b5bd adfd ca3d 94f4 9f3d
-0.18435673 0.13971922 -0.14232619 0.028843021 0.22092694 0.16445863 -0.15138192 0.026891354
0.12890129 0.088744625 -0.14841565 -0.10771944 0.09637822 0.1788477 0.079272375 0.003922413
-0.113455124 -0.16911085 -0.077848874 -0.13402103 0.009763011 -0.09793832 -0.09364058 0.1380263
0.016356498 0.03138339 0.025340939 -0.24142796 0.24267259 -0.055261206 -0.019871088 -0.16427253
0.16175228 0.011774734 0.08945273 -0.1224301 0.14889154 0.00675618 0.07009172 0.11033069
0.06073333 -0.11784289 -0.071090624 -0.018054876 0.07469395 -0.049999833 0.04422925 -0.092608556
-0.003792871 0.026841255 0.19070491 0.036495026 0.23346192 0.2596498 0.119916335 -0.02397266
0.078778766 -0.09863741 0.1133015 -0.12688309 0.15744479 0.023387192 -0.00092078233 -0.009768266
-0.22564596 -0.005161758 -0.090293914 0.24066742 -0.26617712 -0.017093701 -0.047622602 0.0940963
-0.1447961 -0.23767652 -0.04109089 -0.04334629 -0.036778536 0.064946696 0.12928356 -0.15407076
-0.037394688 0.24390201 0.09508229 0.023305934 -0.056374982 -0.0872998 0.058563445 -0.087867916
-0.023191888 0.13170522 -0.010998506 0.13803321 0.13242818 0.050218686 -0.14942566 -0.04111366
-0.062936 0.12376101 -0.12495065 0.15014587 0.23001793 0.08834171 -0.16781515 0.13536993
-0.046096455 0.09270871 0.16979821 0.16868345 -0.039985057 0.0341507 -0.038189363 0.06374972
0.07270299 0.034580037 0.17431468 0.1193117 0.18943134 0.0047355467 -0.0781603 0.025332462
-0.19731247 0.07430896 -0.021481685 -0.21083668 0.040325582 0.19401771 -0.0035924336 0.13289028
-0.104945205 0.019180816 0.017561499 -0.034197513 0.07858197 0.027774794 0.03668572 -0.057180878
-0.044564813 -0.11884847 0.20245686 0.042946666 -0.0692853 -0.052184183 -0.25069436 -0.016159378
-0.13155942 -0.0058880085 0.09521607 -0.003096164 0.07115999 0.19943812 0.0050007883 -0.083712146
-0.20997982 -0.005120962 0.011810658 0.16155303 -0.017393965 0.0337618 0.10370595 0.23050232
-0.034196272 0.025800202 -0.1532607 0.095355 -0.00411835 0.15363263 0.11655955 0.14049977
-0.06993187 0.13302337 0.11949089 0.023508789 0.13791926 0.1530257 0.062489375 -0.0618815
0.089820676 0.027628634 -0.0025375304 0.06833439 -0.008993952 -0.123586796 0.0015616571 -0.18184625
-0.058099747 -0.00841865 -0.079767235 0.2375486 -0.14608528 0.07413808 -0.0521003 0.05200284
0.062857285 -0.08851355 -0.14107741 0.06244667 0.12333429 0.10805104 0.13998553 -0.14456889
-0.032896977 0.031279124 0.1135491 -0.019524997 0.0068135783 0.08820323 0.13941729 0.13960767
-0.060030233 -0.2716173 -0.20425168 -0.091838494 0.121732034 0.0425106 0.005533966 -0.010361764
-0.03561524 -0.19060639 0.12641852 -0.098628744 -0.18416421 0.07660104 0.117226414 -0.16784811
0.065320246 -0.21188691 0.18495527 0.055781115 -0.09917431 0.16745667 -0.04483299 -0.07321909
0.09338726 0.11283791 -0.13043894 -0.14680073 0.0833422 -0.18476903 -0.1493466 -0.089447096
-0.14624244 -0.272538 -0.0018075425 -0.0766132 -0.062058806 -0.10494046 -0.0437468 -0.1598954
-0.0078294175 -0.13257504 -0.0763448 0.057101518 -0.030766929 -0.08874829 0.09911666 0.078103215

W__743 f4 [1, 384, 6]
00000000: 9e23 543d ce51 f6bc 67e9 c9bd 9b96 12be
00000010: e07d 99bb 6ab0 c5bc 6d53 6bbe b16c 47be
00000020: f55c 5cbe 93d2 20be 190e a2be a008 293c
00000030: 6782 723e 169d b93d 0e65 343e ac03 683d
00000040: 6323 1c3e a1d5 313d 8743 e3bd 090c b5be
00000050: daf1 9abe 5b70 01be 8f72 2dbe 49de b13d
00000060: 639e 01bc 6fbd a2bd dfbb f3bc 6bb6 e03d
00000070: 020d ccbd 9970 b7bd 08dc 32bd 9698 0fbe
00000080: d4fc 6cbc 7126 b13a 940c 06be eec2 7fbd
00000090: 5a71 aebd 5a65 a0be 87ea 02be 02f5 9abe
000000a0: a065 51be 4895 67bd 78da ccbe c692 debe
000000b0: 5ed4 62be 985d b1be 6e8f b2be 1469 2b3e
000000c0: a667 87be 92f9 46be 9dc7 17be 7964 89be
000000d0: b24b 09be 0b47 0ebe e14d 5ebe 1afb 70be
000000e0: 95b3 eabc 9158 93bd 0c8e acbd 250b 15bd
000000f0: 115d fb3d 35a6 2abd 813b 58bd d262 e83d
00000100: adf2 4e3d a195 c03c 8f0e 3cbd 73cd b83b
00000110: 3379 a43d d386 193e 3712 013e 31ad 74bc
00000120: 530f 403e 48d0 083d 82cb b53c 9807 023c
00000130: 4458 7b3d f900 853d 3baa ea3d 4189 af3d
00000140: 996b e93d 9d63 3c3d d199 4bbd f772 073e
00000150: 743a 993e e25e 613e c888 4f3e f2fd 2f3e
00000160: a6a9 523c 57c5 983d 3832 52bd 8859 c0bd
00000170: c5f0 b03c 8655 233b 1657 96bb 3e77 973b
00000180: ab14 f13d 587f 8cbd bb1e 24bd 685e ce3d
00000190: 278e b03d 266f bc3d 6798 3f3e 5893 d43d
000001a0: 51b0 9f3d a969 033e 3ba3 a33c e8a7 9b3d
000001b0: 132e ac3d c276 0c39 5195 ac3d 1233 77bc
000001c0: 4876 37bd 0239 b3bd 430a 853d 0585 433d
000001d0: e7a2 283e 3b99 1e3e a12b ffbc ae87 103e
000001e0: dbb6 99bc 96f6 8abd ff7e 753d 6c80 d13d
000001f0: 9505 b8bd 0168 f03d 5ff1 f1bc b2c6 b2bc
00000200: 7f9b 8abd b40e cbbd 13f6 c3bc 15db d9bc
00000210: ed60 ec3d 0281 60be 7b82 4a3d dcff 973d
00000220: 7e60 c4bc 49f1 4c3e db3a 9abe 281e f8be
00000230: ded6 8cbe 45d8 a8be c1a2 61be d6f9 013e
00000240: f9eb 0dbe 6bce 833c f1f5 d23c 0f03 ebbc
00000250: 0007 debd 23ad be3c a9b2 f63c 7525 87bd
00000260: 04e3 823d c388 c8bd 344d 82bd 49ff 973e
00000270: 2901 633d dc88 f7bd ed5d 7a3d 1bb5 c63c
00000280: 0394 adbd 7891 883c 7986 843d e384 dd3d
00000290: 5dbb f9bd fc24 a9bd 32e0 bd3d 017f 06be
000002a0: 1d0e 8d3d d424 2dbd 2533 babd 0e3e d3bd
000002b0: 6aad 523d 7fbf 16bd 452a 373e 593d 94bd
000002c0: 7730 b43c b912 e23d ab51 a93c 110b 073e
000002d0: efeb 05be 5fb5 15be cc32 d5bd 7514 97bc
000002e0: 3e9e 5b3d ff80 913d 9947 963c d32d ef3d
000002f0: cb8e e33d c274 9bbd cf5d 543d d7a2 093e
00000300: e114 09be 1274 28be b5e2 8dbe c8b8 07be
00000310: 5469 a1bd 5a17 d03d 6fca 4b3e 030f 40bb
00000320: 73f8 6a3a 2783 993c c257 b93d 8a79 fdbd
00000330: cceb 233e 0c1e f53d 951c 0e3d bba3 0b3e
00000340: 2b27 4abc 477b c73d 7f3d 13be 634d 923c
00000350: 1b44 313d fe91 03be 4e75 d8bb 3a89 773c
00000360: 99dc 8d3d 139e 57bd 7f17 b4bc 2878 2ebe
00000370: 0e6e af3d afb5 263e aa0c 173d 3a27 d53c
00000380: 853a f7bc 1235 0fbd 27b4 a43d 36a6 093e
00000390: 8b15 0ebe ef0d 403d 3e8d d8bd 918b 01bd
000003a0: 04ed 9f3d ef34 d1bd 6257 0fbe 31fb 15be
000003b0: 935e 72bd 995a 62be daa2 3fbd 8c12 a03e
000003c0: 9a7b 803d 4f4e 943d ad46 893d 393a 47bd
000003d0: 9619 91bd 9933 cdbd 1812 39bd ebfb e63d
000003e0: e9bf dabd f2b3 853d 8efe c7bd 10df c73b
000003f0: 6563 acbd 29df 6ebd 1006 0d3d d282 e0bc
0.05179178 -0.030068304 -0.09858971 -0.14315264 -0.004684195 -0.024131972 -0.22981043 -0.19475056
-0.21519835 -0.15705328 -0.3165138 0.010316998 0.23682557 0.09063165 0.17616674 0.056644127
0.15247874 0.043416623 -0.11096864 -0.35360745 -0.30262643 -0.12640516 -0.16938232 0.08684976
-0.0079112975 -0.07946288 -0.02975267 0.109722935 -0.099634185 -0.08957023 -0.04366687 -0.1402305
-0.014464576 0.0013515485 -0.13090736 -0.06244176 -0.08517714 -0.31327325 -0.12784778 -0.3026505
-0.20448923 -0.05653885 -0.40010428 -0.43471354 -0.22151324 -0.3464172 -0.34875053 0.16739303
-0.26446265 -0.19431141 -0.1482224 -0.26834467 -0.13407782 -0.13894288 -0.21709396 -0.23533288
-0.028650085 -0.07194627 -0.08425531 -0.03638758 0.122736104 -0.041662414 -0.052791122 0.113469735
0.050524402 0.023508849 -0.04591232 0.005639726 0.080309294 0.14992838 0.12604605 -0.01493387
0.18755846 0.033401757 0.022191767 0.007936381 0.061363474 0.06494326 0.1145825 0.08571101
0.11397476 0.045993436 -0.049707238 0.1322745 0.2992741 0.22008851 0.20267022 0.17186716
0.01285783 0.074595146 -0.051317424 -0.09392077 0.021599183 0.0024922802 -0.004588018 0.004622369
0.1177152 -0.068602264 -0.04006837 0.100766 0.086208634 0.092008874 0.1871048 0.10379666
0.077973016 0.12833275 0.019975295 0.07600385 0.084072255 0.00013395681 0.08426917 -0.01508786
-0.044790536 -0.08751108 0.06496098 0.04773428 0.16468392 0.1548814 -0.031148734 0.14114258
-0.01876395 -0.06785314 0.059935566 0.10229573 -0.0898544 0.11738587 -0.02953404 -0.021823261
-0.0676794 -0.09914914 -0.023921048 -0.026593724 0.115419246 -0.21924213 0.049440842 0.07421848
-0.023971792 0.20013918 -0.30123028 -0.48460507 -0.2750768 -0.329775 -0.22034742 0.12692961
-0.13859548 0.016089639 0.02575204 -0.028687982 -0.10841179 0.023275917 0.030114489 -0.06598941
0.06390956 -0.0979171 -0.063623816 0.29686955 0.05542103 -0.12086651 0.06112473 0.02425628
-0.084754966 0.016670927 0.06470961 0.10816362 -0.1219394 -0.08259007 0.092712775 -0.13134386
0.068874575 -0.04227145 -0.09091786 -0.1031457 0.05143491 -0.03680372 0.17887218 -0.07238264
0.021995766 0.11038727 0.020668825 0.13187815 -0.13078283 -0.14619969 -0.10410079 -0.018442372
0.05361771 0.07104682 0.018344687 0.11678662 0.1111122 -0.07590629 0.051847275 0.13441025
-0.13386871 -0.16450527 -0.27712026 -0.13254082 -0.07881418 0.10160704 0.19901441 -0.0029305823
0.00089634134 0.018739296 0.090499416 -0.12376697 0.16007918 0.119686216 0.034695227 0.13636677
-0.01233844 0.0974031 -0.14378928 0.017859166 0.04327784 -0.1284866 -0.0066057807 0.015108401
0.06926841 -0.052640986 -0.02198386 -0.17038023 0.08565913 0.16280244 0.03687731 0.026019681
-0.030179271 -0.03496272 0.08042174 0.1344231 -0.13875405 0.046888288 -0.10573815 -0.03162724
0.07808879 -0.102151744 -0.13998178 -0.14646603 -0.059172224 -0.22104873 -0.046786167 0.3126415
0.06273575 0.07241499 0.067029335 -0.04863951 -0.07084958 -0.10019607 -0.04518327 0.11278518
-0.10681135 0.065284625 -0.09765349 0.006099589 -0.084173955 -0.05831829 0.03442961 -0.02740613

R__771 f4 [1, 96, 32]
00000000: 5f87 233e 0c62 b0be facb 91be 84ea bf3e
00000010: b99a d2be 939d ecbc 53e7 81be 2f8a 663e
00000020: f2a1 e3bd faf2 ccbd 5d09 38be 2732 6ebe
00000030: fe6d 3fbe 546b 94bd 1df8 1dbe f273 953e
00000040: eaaa 8fbd 5513 d7bd e4da 8abe 0ea8 4ebe
00000050: e5e6 383e a057 803d 54cc cd3b 3905 343e
00000060: 5d8e 5d3e c8f4 763e 3791 b4be 844b 3d3e
00000070: 2cff 7e3e 570b d13b 2c22 96be b625 24be
00000080: 5600 853e ba0e 13be 5712 afbe 3ce7 f13d
00000090: df36 95be 2b6a b8bd ab0e acbe 4b9b 573e
000000a0: a091 29be a677 e4bd 6a5d 3ebe ec68 7dbe
000000b0: add6 3ebe b527 cabe 9fb9 94bd e406 653e
000000c0: b0e1 533e 80cb 39be b874 32be fe9c cebd
000000d0: d598 163e 298d 363d cb8d ee3d 2aa9 fd3d
000000e0: 5f91 393e eda1 f93d 5730 febd 4b67 103e
000000f0: e6ed fc3d 905b b8bd 3389 a8be c758 9dbe
00000100: af0d a3bc daa8 a9bd 766f eabc eb3f 3e3d
00000110: 57f1 493c d7bb 28bb 5698 babd 4159 3cbe
00000120: 785d 41bc aa42 f43c 1493 07be 1827 0ebe
00000130: 3e3c e33d 3502 92bd 67e1 453e 1d1c 7d3e
00000140: 7fee 863d 56b2 773e 4c4a b3bc d188 10bc
00000150: 7c41 373d e307 9a3d b9b7 f03d 0434 79bb
00000160: a44a 613c 3df8 72be cf1f 2fbd 41fa 3ebd
00000170: 8eb3 5fbe 8a7b a93c a340 743d c291 f03c
00000180: 0ac3 213e b156 25bd a4cb e03c 4f06 1dbe
00000190: 419d adbc 298e 243e 5c81 af3d 2c09 31be
000001a0: be4f 0cbc de95 b6bd 90fc 2ebc 8980 8b3e
000001b0: 7812 d33d 112d c7ba 7292 613d 86cc 0c3e
000001c0: 9d1f 4c3d 3135 b23d 2f79 fb3d 640f 17bc
000001d0: 260c 8ebc 407e 9bbc 685f 9d3d 11f2 e2bd
000001e0: ae2e 9d3d 4ccf 75be f4fe 9dbb 9726 fc3c
000001f0: cb96 fdbc 7394 2b3e 783b 953d 4de7 a63e
00000200: 9370 2cbe e91b 19be d5c0 8b3e 7c6a 613d
00000210: 40b3 e03c e6c1 c03d 67c0 163e d2fa 28be
00000220: 9edd 7c3c 8adf 20be c4c9 50bd a522 6e3d
00000230: c360 a43e d544 1d3d a838 a53e 1a3f 3ebd
00000240: fd40 3d3e 048a cf3d 7cd4 383e 31b3 babd
00000250: 8752 7ebc 20ec 43be a138 a13d 81ac 3bbe
00000260: af47 5abe bfac a6be 122e 55bd ec01 81be
00000270: eb5f 29be 1c4e d33d 90a8 e7bd 29b4 c73d
00000280: 6334 e33c dc99 393d a753 8c3d 60d5 6bbe
00000290: 1010 803e 84c8 733c 2398 993e f9ee 26be
000002a0: baea 553d 8e52 1cbe 3f5d d73d 9f71 213e
000002b0: b55e 96bc be99 523e 0da3 643e 301f 74bd
000002c0: 69ad 26bd 607d 973d 9d50 133e 752e 6a3e
000002d0: 40ed 39be 8ade eabb 706f 6d3e 928c c0bd
000002e0: 577a e13d cf45 f1bd 2bc5 4ebb 1a52 75be
000002f0: afc7 b0bd bd3d f5bb 3f22 b43e c06a 223e
00000300: 0a5a 24be 734d 923e 5d0b b5bc d0e3 92be
00000310: bbd0 373e 10bb 93be 26ed ed3d 57bc f7bd
00000320: 4317 a43e d202 2d3d 8777 083e 8b7f 91bd
00000330: 4a7c 85bc 8094 7c3d e7c8 fc3d f410 91b9
00000340: f6d5 06be 2593 5d3e 0c86 acbd c3da a03c
00000350: 485f 933c 59a4 603c 9f5e 9fbc c68a 00be
00000360: 63d2 6e3c fdb9 35be e2dd 50bc a253 87bd
00000370: 7a3b 72be a54f a7be eca0 abbd 0450 0b3e
00000380: a184 af3d dca0 603e 351d 203e 65f5 6c3c
00000390: 50db efbd 68ce 41be 89de e93d 39d2 60bd
000003a0: 82e8 f1bd 05ba 85bd e68a 823d 14dd 0c3e
000003b0: 2ad1 563e abad d23e 5371 403e 5d63 fbbd
000003c0: d842 373e 668c 883e 5371 823e c038 7d3d
000003d0: 8a1e 08be c515 073d f41d 083e 93ce 18be
000003e0: 208d 1fbe 0766 f7bd 1ceb 1a3d f51e c1bc
000003f0: 186f 99bd 4883 113e caa5 8fbc 0867 c53d
0.15969609 -0.34449804 -0.28475934 0.3748361 -0.4113367 -0.028883731 -0.253718 0.2251365
-0.11114873 -0.100072816 -0.17972322 -0.23261319 -0.18694302 -0.07247034 -0.15426679 0.29190022
-0.07015021 -0.10501734 -0.27120125 -0.20181295 0.1805683 0.06266713 0.0062804613 0.17580117
0.21636339 0.24116814 -0.3526704 0.18485838 0.24902028 0.0063795256 -0.29322946 -0.1603001
0.2597682 -0.14361086 -0.3419368 0.118116826 -0.29143426 -0.09004625 -0.3360494 0.21055333
-0.16559458 -0.11155634 -0.18590322 -0.24747056 -0.1863658 -0.3948342 -0.07261967 0.2236591
0.20691562 -0.18144035 -0.17427337 -0.10088538 0.14706738 0.044568215 0.116481386 0.12385781
0.18121861 0.12189088 -0.12411564 0.14101903 0.12350063 -0.09001839 -0.32917175 -0.30731794
-0.019903986 -0.08284159 -0.028617602 0.046447676 0.012325606 -0.0025746727 -0.09111087 -0.18393423
-0.01180207 0.029816944 -0.132397 -0.138821 0.11095475 -0.07129327 0.19324265 0.24717756
0.06588458 0.24189124 -0.021886013 -0.008821682 0.044740185 0.075210355 0.11753792 -0.0038025388
0.013750706 -0.23727508 -0.042754944 -0.04662538 -0.21845838 0.02068879 0.059631955 0.029366378
0.15797058 -0.04036588 0.027440853 -0.15334438 -0.021193149 0.16069855 0.08569595 -0.17288655
-0.008563934 -0.08915304 -0.010680333 0.27246502 0.10306257 -0.0015195926 0.0550713 0.13749894
0.049834836 0.08701552 0.12278973 -0.009219978 -0.017339777 -0.0189811 0.07684213 -0.11081327
0.07674919 -0.24004859 -0.0048216525 0.03078012 -0.030955693 0.16755848 0.072867334 0.32598343
-0.16839819 -0.14952053 0.27295557 0.055033192 0.027429223 0.09411983 0.14721833 -0.1650193
0.015433697 -0.15710273 -0.05097367 0.05813851 0.32105073 0.03839572 0.32269788 -0.046446897
0.18481822 0.10133746 0.18049806 -0.09116209 -0.015522606 -0.19133043 0.07872129 -0.18327524
-0.21316408 -0.3255367 -0.05204589 -0.2519678 -0.16540496 0.103176326 -0.113114476 0.0975116
0.02773494 0.045312747 0.06851893 -0.23030615 0.25012255 0.01487935 0.29998884 -0.16302098
0.052225806 -0.15265867 0.10515832 0.15766 -0.018355707 0.2056646 0.22327824 -0.059600055
-0.04069272 0.0739696 0.1438622 0.22869284 -0.1815691 -0.007167642 0.23187041 -0.09401812
0.110096626 -0.11780893 -0.0031550627 -0.239571 -0.086318366 -0.0074841664 0.35182378 0.15861034
-0.16049972 0.28574714 -0.022100145 -0.28689432 0.17950718 -0.28853655 0.11617498 -0.1209647
0.32048997 0.042239018 0.13326846 -0.07104405 -0.016294617 0.061665058 0.123430066 -0.00027669186
-0.13167557 0.21638162 -0.08424005 0.019635564 0.01798977 0.013711059 -0.019454299 -0.12552938
0.014576527 -0.1774673 -0.0127482135 -0.066077486 -0.23655501 -0.3267795 -0.08380303 0.13604742
0.08570219 0.21936363 0.15636142 0.0144628035 -0.117117524 -0.18926394 0.11419398 -0.054887984
-0.118119255 -0.06529621 0.06374149 0.1375621 0.20978227 0.41148123 0.1879323 -0.122748114
0.17896593 0.26669616 0.25477085 0.0618217 -0.132929 0.032979745 0.13292676 -0.14922552
-0.15581179 -0.12080007 0.037821874 -0.023574332 -0.074918926 0.14210236 -0.01753511 0.09638792

R__757 f4 [1, 192, 64]
00000000: 4164 263e df92 84bd 8729 0fbe dd3d b2bd
00000010: ff91 15bd f286 a9bd 425d 66bc ada0 b6bd
00000020: 11d2 dcbd 1741 383e 4c2a 70bc 1c91 953d
00000030: 1d16 fc3d cd56 95bc ae8a 2abe e191 103d
00000040: e56e 19bd f7bc 103d 22ee 72bd e2e1 91bd
00000050: 6e78 79be 09aa 23bb 768b 04be 576a 873d
00000060: 726d 0dbd ea92 33bc a5e5 7b3e 1688 113e
00000070: f840 963b 84a1 9b3d 0b4a 863e 81cb 07be
00000080: 7733 143e d9c3 dabd a774 f0bc 04e3 9aba
00000090: 714f 81bd f003 19be 7b41 073e 2af5 bbbb
000000a0: 0ca6 7a3c 27c0 8d3e 8947 eb3d 5917 ea3c
000000b0: 5a32 15be 232e b43d 001a 7b3d b5fd acbc
000000c0: 1df1 653e 0d87 ffbd 9685 7abd 8822 c3bc
000000d0: 7903 ed3d 6b2d 433e 44d7 1bbd 3e5e 33bd
000000e0: 2eff a03d 4f9e 12bd 5386 96bd 5eb3 91bd
000000f0: 8100 f3bd c8ab e33d 3936 37bd 9086 063e
00000100: 7eed aebd d9b0 c83d c00d 8ebb b1cd 1fbc
00000110: b0fc b63c bd2e 7fbd e586 6abd cf76 28bd
00000120: 83d1 e33c ebc8 8fbe 107e 7abd b9dd 27be
00000130: fe99 15be a28f 23be c16a 8b3d 3251 363d
00000140: 3588 54bd c840 3e3e 3eca adbd 65b7 c13c
00000150: ea94 143e 59ab 62bc 26c1 ae3d ddf3 0ebe
00000160: a072 d4bd ddea 173d 42ea 15be b429 4dbe
00000170: f2de 1f3e 4240 91bd 7d1c 70be aa64 ebbc
00000180: 2425 033d e56d 0b3d a85a f1bc f157 4d3c
00000190: 71e6 da3d 79ec 4abd 4ef6 b8bc e570 3cbc
000001a0: 19c5 5a3c ad12 243d fe40 6bbe b16f 40bd
000001b0: c741 5ebd 0011 463d 2021 65bd b88e 363e
000001c0: c0ec b9bc 6377 883c 94de 793d ec83 9abd
000001d0: ab09 013d 85d2 4dbd f765 92bd 3758 3d3e
000001e0: 2a7a 84bc c817 2bbd c792 b33c 6e3a eb3c
000001f0: 2f63 c3bc 8cce 813c 5caa e6bc 953b dbbd
00000200: 5ff9 89bb 1b51 ec3d f1e3 bdbd 0de8 15bd
00000210: b45b d73d 9caf 59bd 9e37 92be 4e27 8cbd
00000220: 2f30 2ebd 160d e1bc 63a9 8e3d abee 9dbd
00000230: bcd5 223c 0a08 0d3d f498 733a 4007 e5bc
00000240: 392e 48be 66d7 cb3d 9bbf 59bd 06ea 1a3e
00000250: 6c7f ab3c e8d2 e2bd db0d 0bbe a8dc 573a
00000260: b817 21be 3fc4 ba3d 6202 8cbc 9c9f 923b
00000270: 59df febd b496 9ebd 653b 863b 10f1 713c
00000280: bd0b a33d b869 083d 9b5e c9bd 9189 00bd
00000290: 6fba 8bbd d20a ddbd 91f2 70be 0db5 9d3d
000002a0: d209 d93d a28a 873d ae61 403d 1277 133d
000002b0: 80a5 253d ca5d 48bd 844d 14be 3874 0cbe
000002c0: ee31 c83d 7ca9 e1bd 759a e03d 1672 b83d
000002d0: e399 093e 9c3f efbb 6dc0 c13d cc73 fabb
000002e0: 759e 403e 7d93 033e 35db 2e3e dbbe 6fbe
000002f0: b797 473d bf89 f33d 7ef5 cebd fe62 72bd
00000300: d705 263c eb23 913d de95 09bc 2c1e 303d
00000310: 665d e73b 6462 b93d 2a8f 1a3e 18cb d13c
00000320: 8535 e13c 2259 1fbe 8dc5 083d 351e 1fbe
00000330: ffd3 c8bd 5690 033e eca7 273e bb32 92bc
00000340: 915a a03c ba71 f6bd 8de7 913e 7808 a1bd
00000350: e071 423d 4ff5 5f3e ff6a 683d 0f17 f8bd
00000360: 9594 cf3c 968c aa3d db78 7dbe fa06 0cbe
00000370: 6a2b cbbc e8c3 8ebe 8c6b 6cbe 96c6 84bd
00000380: 9668 5bbd 8e19 68bd 1081 b03e 9049 1e3d
00000390: 5c09 b43d dd93 b3bb 6b6d 00be c02c 1b3e
000003a0: ac56 6abe eb23 66be 9a80 28be 07dd 0c3e
000003b0: 676e 0e3e 690c 273d f889 5fbd 5f47 203e
000003c0: c851 7cbe 5171 d3bd d049 8dbe f518 7bbc
000003d0: 59b9 863e e411 56be 928f 423d 7ee3 0b3e
000003e0: 171b 89bd 436a 6e3d 89ca 743e 183b 903d
000003f0: d186 4abe 5b1f 34be 22b7 aa3d bf9f 8b3d
0.16249181 -0.06473326 -0.13980685 -0.08703206 -0.036516186 -0.08277692 -0.01406032 -0.08917365
-0.107822545 0.1799358 -0.014658522 0.07303068 0.12308905 -0.018229866 -0.16654465 0.03529537
-0.037459273 0.03533646 -0.059309132 -0.07123162 -0.24362347 -0.0024973175 -0.12943825 0.066120796
-0.034528203 -0.01096032 0.24599321 0.14212069 0.0045853816 0.07599166 0.26228365 -0.13261224
0.14472757 -0.10681886 -0.0293525 -0.0011816924 -0.0631398 -0.14942908 0.13208573 -0.005736013
0.015298378 0.27685663 0.114882536 0.028575586 -0.14569989 0.087978624 0.061304092 -0.02111707
0.22455259 -0.12476931 -0.061162554 -0.023820177 0.11572928 0.19060294 -0.03804709 -0.04379105
0.07861172 -0.035795506 -0.07349839 -0.0711429 -0.118653305 0.11116749 -0.044729445 0.13137269
-0.08541392 0.09799356 -0.004335135 -0.0097536305 0.022337288 -0.062300432 -0.05725755 -0.04112893
0.027809864 -0.28082976 -0.06115538 -0.16393174 -0.14609525 -0.1597276 0.06807471 0.044511028
-0.05188771 0.185794 -0.0848584 0.02364702 0.14509931 -0.013834798 0.08532934 -0.13960214
-0.103734255 0.037089217 -0.14640144 -0.2003544 0.1561239 -0.07092334 -0.23448367 -0.028734524
0.032017842 0.03404035 -0.029462174 0.012533174 0.106884845 -0.049541924 -0.022578385 -0.0115015255
0.013352656 0.040056873 -0.22974011 -0.046981517 -0.05426195 0.048356056 -0.055939794 0.1782788
-0.022695899 0.01665849 0.061003283 -0.07544693 0.03150336 -0.050249595 -0.071483545 0.18490683
-0.016171534 -0.041770726 0.021920575 0.028714385 -0.023851005 0.01584556 -0.028157406 -0.10704724
-0.0042106356 0.11538907 -0.09271992 -0.036598254 0.10515538 -0.05314599 -0.28558058 -0.06843434
-0.04252642 -0.02747206 0.06965902 -0.07711538 0.009938654 0.034431495 0.0009292506 -0.027957559
-0.19548883 0.09953193 -0.053161245 0.15128335 0.020934783 -0.110753834 -0.13579504 0.00082344795
-0.15731704 0.09119462 -0.01709098 0.0044745933 -0.12444944 -0.07743588 0.004096436 0.014766946
0.07961223 0.033303946 -0.09832498 -0.031381194 -0.06822669 -0.107930794 -0.23530032 0.07700548
0.10597576 0.06618239 0.046968155 0.036002226 0.040441036 -0.04891757 -0.14482695 -0.13716209
0.09775148 -0.11018655 0.1096696 0.09006135 0.1343761 -0.007301284 0.094605304 -0.0076431986
0.18810447 0.12849231 0.17075808 -0.2341265 0.04872867 0.11891507 -0.10105418 -0.059176438
0.010133228 0.07086929 -0.0083975475 0.042997524 0.0070606945 0.0905197 0.15093675 0.025609538
0.02749134 -0.15561345 0.033391524 -0.15538867 -0.0980606 0.12848029 0.16372651 -0.017846456
0.019574435 -0.1203341 0.28496972 -0.078629434 0.04747188 0.21870922 0.056742664 -0.12113773
0.025339404 0.08327596 -0.24753134 -0.13674536 -0.024800975 -0.2788384 -0.23087901 -0.0648319
-0.053566538 -0.056664996 0.34473467 0.038644373 0.08790848 -0.005480273 -0.1254174 0.1515379
-0.22884625 -0.22474639 -0.16455308 0.1375619 0.13909303 0.04078332 -0.054574937 0.15652226
-0.24640572 -0.10324348 -0.27595377 -0.015325774 0.26313284 -0.20905262 0.0475002 0.13661
-0.0669462 0.058206808 0.23905386 0.07042521 -0.19777991 -0.17590086 0.08335711 0.068175785

R__744 f4 [1, 384, 128]
00000000: b533 dcbb 1ead f03d 97ed c9bd 6308 b1bd
00000010: 77a9 70bc 2488 89bd 22ee 623d 4614 2d3d
00000020: ed57 0fbe 7c23 8bbc 9c3c 833d 7f63 8e3c
00000030: 30f0 f43c e219 91bd 7b9c e0bc f4ae 973d
00000040: 8033 a8bc 6d01 033d edba eabb 01a6 10bd
00000050: dac0 5ebc ee1b 433d 8398 773d a694 83bc
00000060: 5015 1ebb 2e4d b43c 3f1c 0fbe 56ab 0b3e
00000070: 0c53 b4bd 6cd6 b43d f0bb 9a3c 9b63 bf3d
00000080: d14b 96bd 8e0b 6f3c 9673 4bbd d1e6 3e3c
00000090: 7004 1bbe 7b53 103d 6f02 8ebc 55cc 093e
000000a0: e751 12bc ef55 a3ba 7c76 663d 5ac8 6b3d
000000b0: f7be dc3c a615 713c 6eca 4cbd 2c50 e8bc
000000c0: 1aa7 663d 0542 153e 923f bfbc e947 7d3b
000000d0: 9210 d1bd 73fd 8cbd ed24 f0bd 1d1e 83bd
000000e0: cc4f 913d 55b5 cabd f23e 0cbd 32e3 b63d
000000f0: 0523 803c 400c 863c b78e 3e3c baa1 3b3c
00000100: 4d42 983d 5d50 943c ef5a 49bd 610b eb3d
00000110: 06fb 453e 97cf d93b 33c1 083d 63cd 5fbd
00000120: a575 f6bc 76f3 3bba 7b32 183d 37b0 a13b
00000130: 8192 c43c dc66 873c 3d1a a43b 5bbb d33d
00000140: 5b69 36bd e8be 473b 5f32 98bd ae46 d8bc
00000150: 2fe7 79bc f104 88bd d173 d0bd 5650 b93d
00000160: 0886 1e3e d210 0bbc 2ff2 b5bd 796f 3f3d
00000170: 398c 8a3c b1b7 a1bc 53ca 123c 6e52 cdbd
00000180: 8d1d 413a 0162 11bd 3f1c e23d 2969 493d
00000190: 110b da3d 3995 0f3a be37 69bd fb74 ed3d
000001a0: d42c 043e 93be a0bd 0b90 a73c b27d fa3b
000001b0: da26 5fbd 5c9a ee3c 71ee 97bd c43a 19bd
000001c0: 3f25 d1bd c780 1dbe c02b 7fbb 84c4 92bd
000001d0: ffc6 90bd b9ed 313c 418e 0dbc c650 abbb
000001e0: 9509 afbc 85a7 95bd 26d9 d9bd c6fe 0439
000001f0: 2988 aabc 6949 3ebd 352a 8c3d 64f3 36bd
00000200: 390e 533e 8ace 3a3e 225a 3a3d 2b54 d83c
00000210: 18c3 123c 55ef 25bd 31dd 7c3e 75c0 04be
00000220: 3002 5abe 52b4 393e 25fc 893e af39 f83d
00000230: 78e1 f4bd 2dbd 2ebd 7daf d3bd 0cae 223e
00000240: 1f23 033d e408 533e caa4 1b3e 5a8c c83d
00000250: ca51 063d 377d 203e f03d d9bd 37df 20be
00000260: f47d 47be b380 253e ffc5 093d 7e85 5e3e
00000270: f169 3d3c dc1c b93c 9257 cabc eeea 4a3e
00000280: 59f0 43be e78e 2fbe 4c93 67be 3362 e73d
00000290: 65b9 59be 8eda 4a3b 746d 49be bab2 173e
000002a0: 6927 10be fc39 fb3d afc2 42bc 60a2 1ebe
000002b0: 88cb f63c 5960 453d 7f33 703d c25c c43d
000002c0: 01cb 8c3d deb6 303e f548 9dbd c80e e83c
000002d0: 3832 c1bd faac 43be 990b 53be 5ac1 82be
000002e0: fcf4 ab3d c4d4 16be 0d34 bf3d 1a8f 913e
000002f0: 48fc bb3c fb75 04bd 9f66 81bc c2c8 483d
00000300: e4a9 553e e755 9ebd 4b33 94bd 276f 443d
00000310: 930d 903e 6c6d 343e 1bed 083e 2c8c 58bd
00000320: 98d8 143e 884a 123d d8e8 363e 6d34 dfbd
00000330: 40d7 0a3e 4500 273d 5788 1c3e 4d8e 1a3d
00000340: a630 ba3d fb3f 64be 9588 4bbe 41b0 74be
00000350: 3dd1 61bb 3fa9 4c3e eff6 d3bd 4730 d7bc
00000360: 1906 1c3e 4f67 0bbe 2242 50bd ae83 ac3d
00000370: c48f 513e 3432 0abe 39a0 2b3d d1a7 16be
00000380: 5b40 573e 9682 2ebe 1920 093e 44fb 803c
00000390: 2a29 22be 18c3 7e3e 26cc 5abd cf6d f4bd
000003a0: b1c0 393e 1be0 39be 14ee ce3c 8b54 73be
000003b0: 98a0 fa3d a920 98bd f3ef f1bd 911a dabd
000003c0: 3c1b eabd c18a 95be c881 61be c09a dfbd
000003d0: d237 4dbe c764 d33d f397 2fbe a245 4cbe
000003e0: 1329 833a c484 933c 9577 e73d 048a 333e
000003f0: 6896 0bbe eb01 7bbe 7b2d fd3d 7d44 41be
-0.006720031 0.117517695 -0.0985977 -0.08644178 -0.014688841 -0.0671542 0.055402882 0.042255662
-0.13998385 -0.016984694 0.06408045 0.017381428 0.029899687 -0.07085015 -0.027418366 0.074064165
-0.02053237 0.03198378 -0.0071633966 -0.035314564 -0.013595784 0.047634058 0.06044818 -0.016062092
-0.002412159 0.022009458 -0.13975619 0.13639578 -0.088049024 0.0882996 0.018888444 0.0934517
-0.073386796 0.014590157 -0.04967078 0.011651711 -0.15138412 0.035235863 -0.017335145 0.13456853
-0.00893066 -0.0012461523 0.05626534 0.057564117 0.026946528 0.014714634 -0.04999774 -0.028358541
0.056311704 0.14575966 -0.023345742 0.0038647598 -0.10208239 -0.06884279 -0.11725793 -0.06402228
0.07095298 -0.098978676 -0.034239717 0.08930053 0.015641699 0.016363263 0.011630706 0.011452133
0.07434521 0.018104726 -0.049158987 0.1147678 0.19334039 0.006647061 0.033387374 -0.05463923
-0.030085394 -0.00071697624 0.037157517 0.0049343365 0.02399564 0.01652854 0.0050080107 0.103384696
-0.04453407 0.003047878 -0.074314825 -0.02640089 -0.015252872 -0.066415675 -0.1017834 0.09048526
0.15480816 -0.008487897 -0.088840835 0.046737168 0.016912566 -0.019740911 0.008959371 -0.10025488
0.0007366769 -0.035493854 0.11040544 0.049172554 0.10646642 0.0005477253 -0.056937926 0.11594578
0.12907726 -0.07848849 0.020454427 0.0076443786 -0.05448041 0.029126339 -0.07418526 -0.03740956
-0.10212182 -0.15381156 -0.003893599 -0.07166389 -0.070692055 0.0108599 -0.008639873 -0.005228135
-0.021366874 -0.073073424 -0.10637121 0.00012683411 -0.02081688 -0.046456728 0.06843988 -0.04466571
0.20610894 0.18242851 0.045496114 0.026407322 0.008957647 -0.040511448 0.24693753 -0.12964042
-0.21289897 0.18135193 0.26950184 0.12120377 -0.11957067 -0.04266088 -0.10336206 0.15886706
0.032015916 0.2060886 0.15199581 0.09792395 0.032792844 0.15672766 -0.10607517 -0.1571015
-0.19481641 0.16162376 0.03363609 0.2173061 0.011560903 0.022596769 -0.02469996 0.19816181
-0.19134654 -0.17144357 -0.22614783 0.11298027 -0.21262129 0.0030953023 -0.1967066 0.14814273
-0.14077534 0.12266919 -0.0118872365 -0.15491629 0.030126348 0.048187587 0.05864286 0.09588005
0.068746574 0.17257258 -0.07679931 0.02832736 -0.094334066 -0.19108954 -0.20609893 -0.2553814
0.083963364 -0.14729601 0.093361 0.2842949 0.022947446 -0.032339077 -0.015796004 0.049019583
0.2086559 -0.07731228 -0.07236346 0.047957566 0.28135356 0.17619866 0.13371699 -0.052868053
0.14535749 0.03571561 0.1786226 -0.10898671 0.13558674 0.04077174 0.15286385 0.037733365
0.0909131 -0.22290032 -0.1987632 -0.2389536 -0.003445699 0.19986437 -0.10349833 -0.026268138
0.15236701 -0.13613628 -0.05084432 0.084235534 0.20464998 -0.13495713 0.041900847 -0.14712454
0.21020643 -0.17042002 0.1339115 0.015744813 -0.15836015 0.2487911 -0.053417347 -0.11935007
0.18139912 -0.18151896 0.025260009 -0.2376272 0.12237662 -0.074281044 -0.11813345 -0.106495984
-0.11430976 -0.29207423 -0.22022164 -0.10918188 -0.20040825 0.10321956 -0.17147808 -0.19948438
0.0010006748 0.018007644 0.11302105 0.17533118 -0.13631594 -0.2451245 0.1236219 -0.18873782

GRU/quant_dense_11/LastValueQuant/FakeQuantWithMinMaxVars__732 f4 [32, 1]
00000000: a4c1 20bd 2080 7d3e 6294 3c3e 1820 bebe
00000010: 4c38 d2bd 2e7c a8be e039 743e ed4e c43e
00000020: a2da c53b 79f0 a63e a2da 45bc 37c3 42be
00000030: 647b 173e 4c38 523e 4f06 083e a4c1 20bd
00000040: cf92 9abd 4e1f 2dbe b74f 55be e307 2a3e
00000050: 43f1 b73e 4e1f 2dbe fa63 94bc 2167 d83d
00000060: 7709 ccbd a2da 453b cdab bf3e ba1d 0bbe
00000070: 2167 583e 0df2 483e 8c7e 5bbe fa63 94bc
-0.03924717 0.24755907 0.18415979 -0.3713386 -0.10264644 -0.32907242 0.23850203 0.38341466
0.006038026 0.3260534 -0.012076052 -0.19019781 0.14793164 0.20529288 0.13283657 -0.03924717
-0.07547533 -0.16906473 -0.2083119 0.16604571 0.35926256 -0.16906473 -0.018114079 0.10566545
-0.09962743 0.003019013 0.3743576 -0.13585559 0.2113309 0.19623585 -0.21434993 -0.018114079

GRU/quant_dense_10/LastValueQuant/FakeQuantWithMinMaxVars__731 f4 [32, 32]
00000000: b185 68be 23b0 7a3e 610f 8abe bc97 983d
00000010: 28b9 52be 4564 2e3d a0ec bcbd 8f53 11be
00000020: 610f 8abd 8f53 913c 34cb 02be bc97 18be
00000030: c827 6cbe 9a24 933e 56fd 59bd 007e 23be
00000040: 6d9f 5d3e dfc9 efbd eadb 1fbd 8f53 91bc
00000050: 3f5b 563e 4564 2e3c 610f 0a3e 3a52 7ebe
00000060: 4564 2e3e 56fd 593e 8f53 91bd 1217 4fbe
00000070: 28fa 80be b185 e8bd 78b1 8d3e 56fd 59bd
00000080: eadb 9fbd 34cb 823d 56fd 59bd 56fd 59be
00000090: 9ae3 643e 4564 2e3d 5c06 323e 34cb 823d
000000a0: 1217 4fbe 8f53 91bd eadb 1f3d 007e 233e
000000b0: eadb 1f3e 1720 a7bd 4a6d 86be 34cb 823d
000000c0: 610f 0abe 72a8 b5be 4564 2ebd 3a52 7ebe
000000d0: b185 e83c 8341 e1bd 1720 27be 1720 a7bd
000000e0: 34cb 823d eadb 1fbe 4564 2ebe 8f53 11bd
000000f0: 4564 ae3e 1720 273e b185 68bb 72a8 b5bd
00000100: 0c4f a53e 3a52 7e3e 4564 2e3d c868 9a3e
00000110: 6ce0 8bbe 6d9f 5d3e 1720 a73d 4a6d 06be
00000120: bc97 98bd cd30 c4be 1217 4f3e 72a8 b5bd
00000130: b185 683e cd30 44be bc97 183e 4564 aebd
00000140: fb74 cb3c 6ce0 8bbe cd30 c4bd eadb 1fbd
00000150: b185 68bd 610f 0abe fb74 4b3e 3a52 7e3e
00000160: b185 e8bd 1720 a73d b78e 40be fb74 cbbc
00000170: 72a8 353e 4564 aebd 4564 2ebc 2ec2 2a3e
00000180: 610f 8abd b185 e83b b185 e8bc a0ec bcbd
00000190: 610f 8abd 5c06 32be b185 e8bd eadb 1fbe
000001a0: 78b1 8d3e f56b 733e 9ae3 643e 4564 2e3c
000001b0: 72a8 353e b185 e83b 28b9 52be 6ce0 8bbe
000001c0: f56b 733e a5f5 14be 28fa 803e 563e 88be
000001d0: 4564 aebd 34cb 823e b185 e8bc a0ec 3cbd
000001e0: 4a6d 063e b185 68bb b185 e8bd e4d2 47be
000001f0: eadb 9fbd cd30 443e 5c06 b23e d339 1cbe
00000200: e4d2 473e fb74 cb3d cd30 443e 2ec2 aabe
00000210: 0c0e f7bd 563e 883e d339 1c3e f56b 733e
00000220: 56fd 59bd fb74 4bbe c827 6cbe cd30 c43d
00000230: 8382 8f3e 23b0 7abe 5c06 323e 8f53 11bd
00000240: 2ec2 2abe fb74 4bbd 28b9 d2bd b185 68bd
00000250: e4d2 47be f56b 733e c827 6cbe 4a6d 06be
00000260: 563e 883e 6d9f 5dbe f56b 733e 610f 0abe
00000270: 0c0e f7bd 0c0e 77bd 2ec2 2abe 610f 8abd
00000280: 23b0 7a3e 8341 e13d 56fd d93d 34cb 023d
00000290: a0ec bc3d eadb 1f3e dfc9 ef3d 56fd 59bd
000002a0: d339 1cbe b185 683e 3f9c 84be b78e c0be
000002b0: b78e 40be c827 6cbe 610f 0abe 3f9c 843e
000002c0: c25f c2be bc97 183e b78e 403e 4564 ae3d
000002d0: 894a 39be b185 68be 72a8 b53d eadb 1fbd
000002e0: 3a52 febd b185 683d 28b9 523e 007e 233e
000002f0: 34cb 02be 2ec2 2abe 28b9 52be dfc9 ef3d
00000300: 894a 393e 8f53 91bc b185 683e 0c0e 77be
00000310: b78e 40be 6ce0 8b3e b185 68bb 78b1 0dbe
00000320: 4a6d 863e 8f53 91bc 34cb 02bd b78e 40be
00000330: 5c06 323e 610f 0abe e4d2 47be 2ec2 2a3e
00000340: fb74 4b3e 894a 39be eadb 9f3d 56fd 59bd
00000350: cd30 44be cd30 44be 34cb 02bd a0ec 3c3e
00000360: 2ec2 2a3e 72a8 b5bd 56fd 59bd 4564 aebc
00000370: fb74 cbbc 563e 883e c868 9abe fb74 4bbd
00000380: a0ec 3c3e 28fa 80be f56b 73be 3a52 7e3e
00000390: 4a6d 063e 28fa 803e a5f5 143e b185 683d
000003a0: eadb 9f3d d339 1cbe 34cb 02bd bc97 983d
000003b0: c827 6c3e b185 e8bc 8f53 91bd 894a 393e
000003c0: eadb 9fbe 1720 a7be 23f1 a8be 34cb 02be
000003d0: 56fd 593e 007e 23be eadb 1fbd b185 e83c
000003e0: 9ae3 64be e4d2 473e fb74 4b3d 0c0e f73d
000003f0: 610f 0abe 1217 4f3e 72a8 b5be fb74 cb3d
-0.22707249 0.24481253 -0.26964858 0.07450816 -0.20578444 0.042576093 -0.0922482 -0.14192031
-0.067412145 0.01774004 -0.12772828 -0.14901632 -0.2306205 0.28738862 -0.053220116 -0.15966034
0.21642847 -0.11708426 -0.039028086 -0.01774004 0.20933245 0.010644023 0.13482429 -0.24836054
0.17030437 0.21288046 -0.07096016 -0.20223644 -0.25190854 -0.113536246 0.2767446 -0.053220116
-0.07805617 0.06386414 -0.053220116 -0.21288046 0.22352448 0.042576093 0.17385238 0.06386414
-0.20223644 -0.07096016 0.039028086 0.15966034 0.15611234 -0.081604175 -0.26255256 0.06386414
-0.13482429 -0.35480076 -0.042576093 -0.24836054 0.028384062 -0.109988235 -0.16320835 -0.081604175
0.06386414 -0.15611234 -0.17030437 -0.03548008 0.34060875 0.16320835 -0.0035480077 -0.08870019
0.3228687 0.24836054 0.042576093 0.30158067 -0.27319658 0.21642847 0.081604175 -0.13127628
-0.07450816 -0.38318482 0.20223644 -0.08870019 0.22707249 -0.19159241 0.14901632 -0.08515219
0.024836054 -0.27319658 -0.095796205 -0.039028086 -0.056768123 -0.13482429 0.19868843 0.24836054
-0.113536246 0.081604175 -0.18804441 -0.024836054 0.17740038 -0.08515219 -0.010644023 0.16675636
-0.067412145 0.0070960154 -0.028384062 -0.0922482 -0.067412145 -0.17385238 -0.113536246 -0.15611234
0.2767446 0.23771651 0.22352448 0.010644023 0.17740038 0.0070960154 -0.20578444 -0.27319658
0.23771651 -0.14546831 0.25190854 -0.2661006 -0.08515219 0.25545657 -0.028384062 -0.0461241
0.13127628 -0.0035480077 -0.113536246 -0.19514042 -0.07805617 0.19159241 0.34770477 -0.15256433
0.19514042 0.09934422 0.19159241 -0.33351272 -0.12063226 0.2661006 0.15256433 0.23771651
-0.053220116 -0.19868843 -0.2306205 0.095796205 0.2802926 -0.24481253 0.17385238 -0.03548008
-0.16675636 -0.04967211 -0.10289222 -0.056768123 -0.19514042 0.23771651 -0.2306205 -0.13127628
0.2661006 -0.21642847 0.23771651 -0.13482429 -0.12063226 -0.06031613 -0.16675636 -0.067412145
0.24481253 0.109988235 0.10644023 0.03193207 0.0922482 0.15611234 0.11708426 -0.053220116
-0.15256433 0.22707249 -0.25900456 -0.37608883 -0.18804441 -0.2306205 -0.13482429 0.25900456
-0.37963682 0.14901632 0.18804441 0.08515219 -0.18094839 -0.22707249 0.08870019 -0.039028086
-0.12418027 0.056768123 0.20578444 0.15966034 -0.12772828 -0.16675636 -0.20578444 0.11708426
0.18094839 -0.01774004 0.22707249 -0.24126452 -0.18804441 0.27319658 -0.0035480077 -0.1383723
0.26255256 -0.01774004 -0.03193207 -0.18804441 0.17385238 -0.13482429 -0.19514042 0.16675636
0.19868843 -0.18094839 0.07805617 -0.053220116 -0.19159241 -0.19159241 -0.03193207 0.1844964
0.16675636 -0.08870019 -0.053220116 -0.021288047 -0.024836054 0.2661006 -0.30158067 -0.04967211
0.1844964 -0.25190854 -0.23771651 0.24836054 0.13127628 0.25190854 0.14546831 0.056768123
0.07805617 -0.15256433 -0.03193207 0.07450816 0.2306205 -0.028384062 -0.07096016 0.18094839
-0.3122247 -0.3264167 -0.32996473 -0.12772828 0.21288046 -0.15966034 -0.039028086 0.028384062
-0.22352448 0.19514042 0.04967211 0.12063226 -0.13482429 0.20223644 -0.35480076 0.09934422

GRU/quant_dense_10/BiasAdd/ReadVariableOp:0 f4 [32]
00000000: 26a7 71bd 1546 9f3c 47da acbc a995 a13a
00000010: 9a55 9abd 6a52 4bbd 6324 8d3d 0a60 923b
00000020: 9faf bcbc 525b babc 35b7 f8bc b9fe bebd
00000030: dcd5 2e3d ecad 74bd cbf6 40bd f3cb a8bd
00000040: 0561 c6bc 9174 2f3d 7ad5 04bd 0d7a 43bb
00000050: 8973 e6bc 3e7a 53bd 3c59 20bd fa42 293b
00000060: a0a6 26bd e183 7abd 1302 40bd 0799 3cbd
00000070: db7e 5abc 22da 933d 5f6b c53c a181 26bd
-0.058997296 0.019442597 -0.021100176 0.0012327927 -0.075358585 -0.049639143 0.06891706 0.004467015
-0.023032961 -0.022748623 -0.030360797 -0.09325928 0.04268442 -0.059736177 -0.04711036 -0.08242025
-0.024216184 0.042835776 -0.03243015 -0.0029827387 -0.028131263 -0.05163025 -0.0391476 0.0025827275
-0.04068625 -0.061160926 -0.046876978 -0.046044376 -0.013335909 0.0721934 0.02409905 -0.040650968

B__772 f4 [1, 192]
00000000: 5a33 32be 5a2a 68be 31d2 9ebd 6748 993d
00000010: ec08 623c e76b 123e cc06 7ebd 19ad 003d
00000020: c2af 05be 10c3 c33d 2a10 e83d 996b 89bd
00000030: e201 973d 3320 cf3c bed9 e4bd bf54 09be
00000040: a950 e9bd 1b53 013d 51b6 da3d c7ea 033e
00000050: 01b8 4ebd 0385 0f3c 9ce2 16bd a53c abbe
00000060: 5598 ae3d 1a0c 5abe 7037 2ebe 9ec7 e6bd
00000070: b392 ef3c 2684 0dbd e7f0 d3bc ddd2 033e
00000080: 6c75 90bd 9119 96bd d007 2fba 0292 9dbd
00000090: 5816 a2bd 2464 bb3c 538b bbbc cc2c 7c3c
000000a0: cb43 cdbd 9382 3bbd 3fc9 da3c 087c 7bbd
000000b0: eb6d 4abd 1aa8 48bd be5b b33b 368a bdbd
000000c0: c8b5 7c3d 6bf8 573b a252 a33d 6cfb 703c
000000d0: 431b f0bc 9e8d 5b3c fb05 aebd 658a b2bd
000000e0: 7be1 30bd 0231 89bd d863 bd3b cefd 0b39
000000f0: 4b28 e93b f1b4 6dbd edb6 80bc 2f26 9e3d
00000100: ea53 fbbc 2d81 f53c 00b0 183d a5ab 63bc
00000110: 2801 43bc d833 573d 36e7 d93c b770 06bb
00000120: bbcd f2bc b3db 9d3c 2778 61bd 62ea 8f3c
00000130: f6cb 3bbd 82a4 083c 0be1 e53d 3ebe 463d
00000140: 2320 cfbb 6372 febc a029 a4bc 84df 453c
00000150: 2b9d 153d 8d32 20bd 1530 f4bc d19c 7dbd
00000160: 5d7b af3c d425 08bd c999 d3bc 5b5e c2bd
00000170: e81f 113b 9ffc f5bc 6016 9bbc 89ef 083c
00000180: 5a33 32be 5a2a 68be 31d2 9ebd 6748 993d
00000190: ec08 623c e76b 123e cc06 7ebd 19ad 003d
000001a0: c2af 05be 10c3 c33d 2a10 e83d 996b 89bd
000001b0: e201 973d 3320 cf3c bed9 e4bd bf54 09be
000001c0: a950 e9bd 1b53 013d 51b6 da3d c7ea 033e
000001d0: 01b8 4ebd 0385 0f3c 9ce2 16bd a53c abbe
000001e0: 5598 ae3d 1a0c 5abe 7037 2ebe 9ec7 e6bd
000001f0: b392 ef3c 2684 0dbd e7f0 d3bc ddd2 033e
00000200: 6c75 90bd 9119 96bd d007 2fba 0292 9dbd
00000210: 5816 a2bd 2464 bb3c 538b bbbc cc2c 7c3c
00000220: cb43 cdbd 9382 3bbd 3fc9 da3c 087c 7bbd
00000230: eb6d 4abd 1aa8 48bd be5b b33b 368a bdbd
00000240: c8b5 7c3d 6bf8 573b a252 a33d 6cfb 703c
00000250: 431b f0bc 9e8d 5b3c fb05 aebd 658a b2bd
00000260: 7be1 30bd 0231 89bd d863 bd3b cefd 0b39
00000270: 4b28 e93b f1b4 6dbd edb6 80bc 2f26 9e3d
00000280: c808 cfbc 4a00 a23c 32f6 de3c 7709 58bc
00000290: 1b23 87bc 2a13 4f3d 16fa e33c 0ee0 94ba
000002a0: cf67 8dbc 19cd 903c 4216 62bd 5243 a73c
000002b0: 35b5 5bbd bf29 1f3c 24e3 d73d ce7e 493d
000002c0: 3ed7 65bc 8622 d6bc 840e a2bc 98f3 363c
000002d0: 7be5 f23c 35a8 06bd 2f45 f6bc b46e 92bd
000002e0: 6d54 bc3c 6e70 13bd b79d c4bc 2763 c0bd
000002f0: 84be 373c 4e12 90bc 7e25 babc fd9e c13a
-0.17402402 -0.22672406 -0.077549346 0.07484513 0.013796072 0.14298974 -0.0620182 0.03141508
-0.13055328 0.095586896 0.11331208 -0.06709976 0.07373406 0.025283908 -0.111743435 -0.13411234
-0.11392338 0.031573396 0.10679305 0.12882529 -0.05046845 0.00875974 -0.036837205 -0.33444706
0.08525149 -0.21293679 -0.17013335 -0.11268543 0.029244756 -0.034549855 -0.025871707 0.12873407
-0.070536464 -0.07329095 -0.00066768844 -0.076938644 -0.07914418 0.0228749 -0.022893583 0.01539154
-0.10022696 -0.045778822 0.02670729 -0.061397582 -0.049421232 -0.04898844 0.005473583 -0.09254877
0.061696798 0.0032954465 0.07974745 0.014708381 -0.029309874 0.013400463 -0.084972344 -0.08717803
-0.043183785 -0.066988006 0.0057797246 0.00013350623 0.007115399 -0.058033887 -0.015712226 0.07722127
-0.030679662 0.029968822 0.03727722 -0.013895904 -0.011902131 0.052539676 0.026599508 -0.002051396
-0.029639116 0.0192698 -0.055046227 0.017567817 -0.04584881 0.008340003 0.11224564 0.048521273
-0.0063209697 -0.031060403 -0.02003938 0.012077216 0.03652684 -0.03911071 -0.029808084 -0.06191713
0.021421129 -0.0332392 -0.025830166 -0.09490653 0.0022144262 -0.030027686 -0.018931568 0.008357891
-0.17402402 -0.22672406 -0.077549346 0.07484513 0.013796072 0.14298974 -0.0620182 0.03141508
-0.13055328 0.095586896 0.11331208 -0.06709976 0.07373406 0.025283908 -0.111743435 -0.13411234
-0.11392338 0.031573396 0.10679305 0.12882529 -0.05046845 0.00875974 -0.036837205 -0.33444706
0.08525149 -0.21293679 -0.17013335 -0.11268543 0.029244756 -0.034549855 -0.025871707 0.12873407
-0.070536464 -0.07329095 -0.00066768844 -0.076938644 -0.07914418 0.0228749 -0.022893583 0.01539154
-0.10022696 -0.045778822 0.02670729 -0.061397582 -0.049421232 -0.04898844 0.005473583 -0.09254877
0.061696798 0.0032954465 0.07974745 0.014708381 -0.029309874 0.013400463 -0.084972344 -0.08717803
-0.043183785 -0.066988006 0.0057797246 0.00013350623 0.007115399 -0.058033887 -0.015712226 0.07722127
-0.025272742 0.019775528 0.027217004 -0.01318585 -0.016496232 0.050555386 0.027829211 -0.0011358277
-0.017261414 0.017675923 -0.055197008 0.020417843 -0.05363961 0.009714543 0.105413705 0.049193196
-0.0140283685 -0.026139509 -0.019782312 0.011166476 0.02965044 -0.03287526 -0.030062286 -0.07150021
0.022989476 -0.035995893 -0.024000986 -0.09393912 0.011214856 -0.017586853 -0.022722956 0.0014772114
