models/station_29/model_latest.onnx (onnx, 407818 bytes, 12 tensors)

W__2994 f4 [1, 96, 64]
-0.32403812 0.11426114 0.053478997 0.072695635 -0.017183075 0.14257528 -0.040644854 0.11394266
0.060152657 -0.14241248 0.11119396 0.0013335096 -0.18806586 0.018875457 -0.07789156 -0.30345333
0.21786383 -0.017156487 0.23269993 0.12101575 0.105945 0.036560245 -0.106548004 -0.016628288
-0.38820797 -0.08574146 0.116326824 0.31074253 0.027799504 0.08632229 -0.22780496 -0.017054133
-0.13206775 0.03270598 0.16960734 -0.16684933 -0.2816382 -0.05967214 -0.03544522 0.099802196
0.10013636 0.19642429 -0.11338274 0.08082555 -0.08637314 -0.059621282 -0.09382134 0.11191327
0.020666894 -0.07420812 0.020388471 -0.12843874 -0.11197034 0.043926165 0.047906466 0.0016293615
0.009244532 0.18680988 -0.035444565 -0.06419778 0.1987871 0.024062883 0.20797497 -0.24731411
0.02907543 0.2496869 -0.09179078 0.014324145 -0.14099805 0.1537262 -0.40736282 -0.04863594
0.20337121 0.31787863 0.19821268 -0.21204081 -0.12694174 -0.055988394 0.19839878 -0.08893055
0.10190937 0.036822908 0.05798252 0.36049524 -0.30858546 0.24990733 -0.061339505 -0.13639604
0.010088689 0.15309888 0.15437433 -0.03218697 0.24753556 0.1681225 0.1652682 -0.35273027
-0.22475109 -0.08868568 -0.252758 0.36833003 0.1317131 0.3729164 -0.17696103 0.28301677
-0.10775492 0.067661375 0.049674876 -0.075811274 -0.123574115 -0.049452163 -0.034227546 0.2931259
-0.036718514 -0.084108286 0.033900514 0.13743745 -0.21514356 -0.19223133 -0.015439361 -0.19317546
0.041889474 0.30870357 -0.019569922 -0.14767991 -0.036289457 -0.26344413 -0.24092968 -0.041553166
0.21148634 -0.21437617 -0.037443362 0.21509387 0.029977497 0.18208578 -0.05325059 -0.11954674
-0.087498754 0.17825921 0.023184326 -0.09839636 0.09031299 0.059159152 -0.03592916 0.22115712
0.18413691 -0.057901386 0.28663868 0.051881 0.059344713 -0.1775019 -0.16770573 -0.1502759
-0.17980765 0.11279119 0.27841246 0.18607032 -0.08282774 -0.16562743 -0.23877 -0.027777113
0.20576292 -0.02251434 0.18610622 -0.05812065 -0.11375193 -0.011922478 0.052479003 0.10426365
0.044193927 0.086409 -0.15697792 0.06406789 0.03349932 -0.18952851 -0.10406548 0.06539631
0.0729116 0.06742273 -0.18946573 -0.15733208 0.08776987 -0.06456696 0.1835946 0.051009208
-0.03421324 -0.030687774 0.16929102 -0.018900735 0.05270718 -0.075444855 -0.06516873 0.011648051
0.05668831 -0.0872816 0.029277822 0.12586391 0.2790061 0.12014037 -0.022348983 0.08350364
-0.06620869 0.10005088 -0.06037217 0.14437188 0.08897918 -0.19340841 -0.17425077 0.23228838
-0.08209743 0.075346224 0.21059658 -0.07214739 0.28688958 0.055197902 0.10335402 -0.15844598
-0.22443877 0.13267097 -0.046268664 0.2470225 -0.044985875 -0.122901656 -0.06971766 0.05142184
0.282166 0.2938212 0.24835704 0.29769948 -0.22025363 -0.022651961 0.29234368 0.17915331
0.046702567 0.22233464 0.036448363 0.23181789 0.080398105 -0.12508915 -0.0029808693 -0.25717613
-0.09036162 0.089497074 -0.0021727548 -0.12477883 0.22386844 0.2874364 -0.09628128 -0.17757489
-0.09170448 0.25109807 0.17244776 0.09408679 -0.06512993 -0.17877357 0.29252535 -0.23168929
00000000: 53e8 a5be bf01 ea3d cb0c 5b3d 73e1 943d
00000010: 85c3 8cbc 41ff 113e 387b 26bd c55a e93d
00000020: a262 763d 94d4 11be a9b9 e33d 28c9 ae3a
00000030: 5694 40be b4a0 9a3c 9c85 9fbd 3c5e 9bbe
00000040: b217 5f3e c38b 8cbc e448 6e3e 1bd7 f73d
00000050: b1f9 d83d 32c0 153d d735 dabd 0c38 88bc
00000060: 32c3 c6be 3899 afbd c23c ee3d a519 9f3e
00000070: c9bb e33c bec9 b03d b445 69be 1cb5 8bbc
00000080: c53c 07be b5f6 053d 8cad 2d3e 8dda 2abe
00000090: e232 90be c66a 74bd 022f 11bd 1865 cc3d
000000a0: 4b14 cd3d 7323 493e 3635 e8bd de87 a53d
000000b0: 67e4 b0bd 7235 74bd 6725 c0bd c932 e53d
000000c0: 9e4d a93c 6dfa 97bd b905 a73c 7285 03be
000000d0: b550 e5bd eceb 333d 9239 443d 4d90 d53a
000000e0: 6176 173c 174b 3f3e 522e 11bd 207a 83bd
000000f0: d88e 4b3e 861f c53c 64f7 543e e93f 7dbe
00000100: 992f ee3c ecad 7f3e cefc bbbd d2af 6a3c
00000110: cb61 10be 676a 1d3e dc91 d0be 7b36 47bd
00000120: 8b40 503e fdc0 a23e 44f8 4a3e 3a21 59be
00000130: 04fd 01be 1654 65bd 0d29 4b3e 3821 b6bd
00000140: dcb5 d03d 9ed3 163d 147f 6d3d d592 b83e
00000150: eafe 9dbe b5e7 7f3e 223f 7bbd 67ab 0bbe
00000160: 074b 253c f4c5 1c3e 4e14 1e3e 7cd6 03bd
00000170: f679 7d3e 4e28 2c3e 113c 293e 1099 b4be
00000180: 2625 66be d6a0 b5bd 7f69 81be c195 bc3e
00000190: cddf 063e e6ee be3e 4635 35be 93e7 903e
000001a0: 9dae dcbd 0c92 8a3d e277 4b3d f142 9bbd
000001b0: 6d14 fdbd 5a8e 4abd 2f32 0cbd 9914 963e
000001c0: 2766 16bd f740 acbd 44db 0a3d 67bc 0c3e
000001d0: 984e 5cbe 4ad8 44be 60f5 7cbc cacf 45be
000001e0: 4c94 2b3d 650e 9e3e 1a51 a0bc 6739 17be
000001f0: 41a4 14bd 26e2 86be 45b6 76be a733 2abd
00000200: e08f 583e 6d85 5bbe 365e 19bd 9141 5c3e
00000210: 5e93 f53c b274 3a3e 4a1d 5abd ecd4 f4bd
00000220: 8c32 b3bd 9589 363e 0eed bd3c 0884 c9bd
00000230: 04f6 b83d de50 723d 742a 13bd 0377 623e
00000240: 638e 3c3e 012a 6dbd 4ec2 923e 2c81 543d
00000250: 7113 733d 0fc3 35be 0dbb 2bbe ede1 19be
00000260: 7f1f 38be 11ff e63d 148c 8e3e 3889 3e3e
00000270: 97a1 a9bd 3d9a 29be 1f80 74be d48c e3bc
00000280: 84b3 523e fe6f b8bc a192 3e3e eb0f 6ebd
00000290: c6f6 e8bd 7f56 43bc 39f4 563d 2e88 d53d
000002a0: b104 353d 34f7 b03d d2be 20be 0736 833d
000002b0: 9536 093d c313 42be 4820 d5bd 80ee 853d
000002c0: ad52 953d ee14 8a3d 4e03 42be a91b 21be
000002d0: b1c0 b33d af3b 84bd 3900 3c3e 08ef 503d
000002e0: 2f23 0cbd ed64 fbbc a05a 2d3e b7d5 9abc
000002f0: 7ce3 573d d582 9abd 2f77 85bd 78d7 3e3c
00000300: 0032 683d b2c0 b2bd 0bd8 ef3c 78e2 003e
00000310: e3d9 8e3e 280c f63d 3715 b7bc f503 ab3d
00000320: 6c98 87bd 7ae7 cc3d cf48 77bd 39d6 133e
00000330: b73a b63d db0c 46be cb6e 32be 01dd 6d3e
00000340: b322 a8bd 1f4f 9a3d a1a6 573e 03c2 93bd
00000350: 31e3 923e 3217 623d 46ab d33d aa3f 22be
00000360: 47d3 65be e6da 073e 3684 3dbd 77f3 7c3e
00000370: 1c43 38bd ddb3 fbbd 22c8 8ebd b59f 523d
00000380: 1078 903e bb6f 963e 4f51 7e3e 116c 983e
00000390: 2b8a 61be 9b90 b9bc 12ae 953e f773 373e
000003a0: 314b 3f3d b1ab 633e e14a 153d ab61 6d3e
000003b0: c3a7 a43d 5f17 00be b05a 43bb 97ac 83be
000003c0: 830f b9bd 3e4a b73d c764 0ebb 0b8c ffbd
000003d0: c53d 653e dd2a 933e 1f2f c5bd 31d6 35be
000003e0: 8fcf bbbd ed8f 803e 2596 303e 93b0 c03d
000003f0: d762 85bd 6b10 37be e2c5 953e f53f 6dbe

W__2980 f4 [1, 192, 128]
-0.20327458 0.26960406 0.025347816 0.13719599 -0.13044336 -0.19489937 -0.239717 0.3652872
0.19920518 -0.18020694 0.02823571 -0.09575541 -0.18712497 -0.065243684 0.24902847 -0.28145483
0.10556278 0.19115472 0.2606312 0.02325804 -0.2506846 0.17266674 0.16374964 0.014304661
-0.015452178 0.08908155 0.07701009 -0.38778603 -0.08164988 -0.0029923138 0.21497157 -0.22603235
-0.13367373 0.078918435 0.07699404 -0.05764272 0.0016861652 -0.17680368 0.026396938 -0.2006501
0.12571388 -0.21460003 0.15985294 0.06964616 -0.32827514 -0.0011093316 0.12974058 -0.09278257
0.3092189 0.1856149 -0.19741012 0.13851792 0.011155465 0.26447976 -0.00306206 -0.24358122
0.20052926 0.36986217 0.24840312 0.13443169 0.0058007864 0.109562084 -0.17674357 0.030814152
0.28878838 -0.3012275 -0.25860053 -0.20224608 0.088700935 -0.038805343 -0.22573985 0.09504203
0.26012653 0.09128043 0.13554788 0.15761045 0.016381893 -0.037348468 -0.35262764 -0.39926916
-0.13631216 0.185261 -0.1708593 -0.1331188 0.0926401 -0.03058634 0.008387747 -0.060520843
-0.05874198 0.091135256 0.022789601 -0.0017427184 0.19398102 -0.15857014 0.19620623 -0.2840512
0.106609546 0.221686 -0.054763403 -0.15529636 0.03771277 -0.17460513 0.18771301 0.1339097
-0.11962118 0.081470795 0.17732342 0.10519317 0.12249947 -0.41932213 -0.04316238 -0.07775706
0.12962683 0.12975328 -0.25807276 -0.36378744 -0.11821492 0.002404525 -0.26146272 -0.1548388
-0.015802195 0.14504318 0.3755533 0.2424219 -0.0042449194 -0.010992037 0.06102716 -0.0373672
-0.15796706 0.12308381 -0.043669786 -0.16479912 -0.09601757 0.018373286 -0.057603955 -0.092690565
-0.25696963 0.03265153 -0.08869395 -0.056927405 0.102103 0.18415418 -0.17535006 -0.25614238
-0.023891928 0.147997 -0.057328656 -0.32247368 -0.02426233 -0.08620896 -0.2386499 0.17374049
0.11166451 -0.13514195 0.079615615 0.32221368 0.090535745 0.22699606 -0.026450187 0.020662207
0.09652563 0.21159641 -0.016696356 0.19330312 0.3103247 -0.0049548815 -0.10407953 -0.07646618
0.07246305 0.08747638 0.06818115 0.1654081 -0.13583753 0.0918729 -0.046073187 -0.07255835
-0.24546358 -0.27692816 -0.035836123 -0.09531088 0.18500458 -0.027385153 0.024838507 -0.088686675
-0.009610382 0.029435908 0.04361595 0.07778193 0.19760324 0.16956188 -0.11375423 0.0787386
-0.21848111 0.23949523 -0.108668506 0.040632907 -0.20914452 0.040788624 -0.103715986 0.15305385
-0.119422205 -0.096157305 0.07329321 0.18562046 0.01646137 0.0938815 -0.09511454 0.07808109
-0.18033023 -0.06234508 -0.09545442 0.018776122 0.048053674 -0.06457968 0.17325228 -0.011574714
0.036974277 -0.06952198 0.18950659 -0.3055968 0.0053907 0.00030452022 0.19645469 -0.16430013
0.023049273 0.032143537 -0.013354601 -0.10591247 -0.04516943 0.02536906 -0.17000084 0.022461215
-0.19141366 -0.023867218 -0.00086913956 0.17298505 -0.037354138 0.10971354 0.02032631 -0.2948394
0.03288345 -0.009467187 -0.003343037 0.12087063 -0.040153325 0.0015344152 -0.14943853 0.018918915
0.022602543 0.0121967625 -0.11891566 -0.12940101 0.081219114 -0.012182864 -0.20128337 0.024221454
00000000: 3627 50be 8b09 8a3e 39a6 cf3c 1b7d 0c3e
00000010: f292 05be b393 47be 6078 75be ed06 bb3e
00000020: 71fc 4b3e 2b88 38be 934e e73c 6a1b c4bd
00000030: b09d 3fbe 7b9e 85bd 5201 7f3e d91a 90be
00000040: 4c31 d83d 10be 433e 7471 853e a587 be3c
00000050: bb59 80be 8dcf 303e fcad 273e 195e 6a3c
00000060: 222b 7dbc 6370 b63d 77b7 9d3d e48b c6be
00000070: 0d38 a7bd b21a 44bb 8221 5c3e 0675 67be
00000080: c4e1 08be fd9f a13d 0daf 9d3d c61a 6cbd
00000090: 5102 dd3a 060c 35be 643e d83c 3877 4dbe
000000a0: 24bb 003e 1cc0 5bbe 7db0 233e a5a2 8e3d
000000b0: ae13 a8be fe66 91ba b7da 043e ca04 bebd
000000c0: f151 9e3e d511 3e3e e125 4abe a4d7 0d3e
000000d0: 69c5 363c e469 873e d8ac 48bb 5b6d 79be
000000e0: 8b57 4d3e 935e bd3e 635d 7e3e 76a8 093e
000000f0: 8614 be3b 1662 e03d 44fc 34be f66d fc3c
00000100: 12dc 933e 7e3a 9abe 4a67 84be 9919 4fbe
00000110: d6a8 b53d 5af2 1ebd 5928 67be 65a5 c23d
00000120: 4e2f 853e 3cf1 ba3d 10cd 0a3e a264 213e
00000130: 5233 863c b5fa 18bd 9c8b b4be 026d ccbe
00000140: 6a95 0bbe 0fb5 3d3e bef5 2ebe 4b50 08be
00000150: 18ba bd3d 3490 fabc c36c 093c b4e4 77bd
00000160: 6e9b 70bd 1fa5 ba3d 42b1 ba3c ed6b e4ba
00000170: f6a2 463e 3660 22be 49ea 483e 296f 91be
00000180: 1b56 da3d a801 633e 974f 60bd 0206 1fbe
00000190: b578 1a3d b0cb 32be d737 403e a01f 093e
000001a0: f3fb f4bd 29da a63d 4594 353e 846f d73d
000001b0: 01e1 fa3d 64b1 d6be 09cb 30bd 183f 9fbd
000001c0: e5bc 043e 0bde 043e 1d22 84be 5942 babe
000001d0: aa1a f2bd 3c95 1d3b 71de 85be 108e 1ebe
000001e0: 9b73 81bc 3386 143e 8648 c03e 723d 783e
000001f0: f718 8bbb f217 34bc 9ef7 793d 590e 19bd
00000200: 1ec2 21be 5d13 fc3d 17df 32bd 1ac1 28be
00000210: dca4 c4bd 9383 963c 20f2 6bbd 8dd4 bdbd
00000220: 8691 83be 9cbd 053d 2ca5 b5bd b62c 69bd
00000230: 611b d13d ea92 3c3e f78e 33be 1825 83be
00000240: 01b9 c3bc 878c 173e 74d1 6abd 451b a5be
00000250: cbc1 c6bc 538e b0bd a460 74be 07e9 313e
00000260: 5db0 e43d a762 0abe 830d a33d 31f9 a43e
00000270: ce6a b93d a871 683e 10ae d8bc ca43 a93c
00000280: 3baf c53d bbac 583e ccc6 88bc 41f1 453e
00000290: e1e2 9e3e 8f5c a2bb a627 d5bd 4d9a 9cbd
000002a0: 8267 943d d126 b33d 8fa2 8b3d be60 293e
000002b0: fe18 0bbe dc27 bc3d 3db7 3cbd 7999 94bd
000002c0: ce5a 7bbe 87c9 8dbe e6c8 12bd 5a32 c3bd
000002d0: d771 3d3e d456 e0bc 207a cb3c 5ca1 b5bd
000002e0: dd74 1dbc 9323 f13c a3a6 323d 224c 9f3d
000002f0: 8158 4a3e a1a1 2d3e faf7 e8bd b441 a13d
00000300: 83b9 5fbe 3d3e 753e 988d debd b16e 263d
00000310: fb29 56be f911 273d 0c69 d4bd 26ba 1c3e
00000320: a193 f4bd 1fee c4bd c01a 963d 4a13 3e3e
00000330: ffd9 863c f244 c03d 69cb c2bd fae8 9f3d
00000340: 7da8 38be 8e5d 7fbd 9b7d c3bd 62d0 993c
00000350: eed3 443d 5a42 84bd 0c69 313e dfa3 3dbc
00000360: 5772 173d 8a61 8ebd 040e 423e 2f77 9cbe
00000370: 78a4 b03b 03a8 9f39 6b2b 493e 4b3e 28be
00000380: d4d1 bc3c f1a8 033d 42cd 5abc a3e8 d8bd
00000390: 9503 39bd c6d2 cf3c b314 2ebe 9500 b83c
000003a0: f101 44be 2f85 c3bc f8d6 63ba fe22 313e
000003b0: a700 19bd 7eb1 e03d 5d83 a63c 31f5 96be
000003c0: ccb0 063d 431c 1bbc db16 5bbb 058b f73d
000003d0: d077 24bd 6e1e c93a 6a06 19be d7fb 9a3c
000003e0: f828 b93c eed4 473c 0e8a f3bd b381 04be
000003f0: 3556 a63d a39a 47bc 3a1d 4ebe 126c c63c

W__2967 f4 [1, 384, 6]
-0.047220673 -0.067571506 -0.09862218 -0.16779567 0.042060122 -0.021996291 0.1272897 0.13992308
0.15678264 0.10739118 0.08587128 0.016393492 -0.18241856 -0.19277216 -0.22229405 -0.28356206
-0.14942746 -0.072697975 -0.3022402 -0.22695222 -0.25910226 -0.31950685 -0.49463245 0.017548649
0.024759248 0.21498542 0.20043431 0.2247808 0.3309224 -0.00013736985 0.05646757 0.10688466
0.13221364 -0.095870614 -0.059635896 0.04593942 0.08045558 0.079212666 -0.12676999 -0.017372513
-0.05152338 -0.0027466565 -0.20562819 -0.3801437 -0.42157185 -0.49626416 -0.5485211 -0.18054587
-0.10630626 0.037097327 -0.0465278 0.07590318 -0.04085045 -0.0050770817 -0.044860505 -0.18123007
-0.2819015 -0.2910777 -0.038806442 0.07172423 -0.03557378 -0.2719164 -0.3594375 -0.19485189
-0.31866536 0.053826585 -0.1441205 0.0021076952 0.00047867995 -0.050337054 0.1683753 -0.06560674
-0.10687388 -0.03832837 -0.20777144 -0.040417716 -0.053612955 0.038040347 -0.11069612 -0.23701502
-0.310146 -0.2779175 -0.24271248 0.018028878 -0.058638807 -0.30630884 -0.2886938 -0.18060581
-0.2711501 0.027719194 0.19812728 0.24885774 0.24969336 0.2862356 0.24941233 0.06326062
0.16243118 0.2421146 0.011222325 0.13330114 0.16355497 0.075708926 -0.09628068 -0.37340352
-0.41932768 -0.48291135 -0.32248425 0.06203403 0.038659167 0.12697414 0.2021988 0.09831494
0.10387227 -0.17513293 -0.12575477 -0.2980685 -0.2487637 -0.25610483 -0.2286163 -0.13149095
0.3529011 0.36361802 0.2302439 0.21013926 0.14921467 0.035182957 0.17024432 0.24349724
0.05995377 0.051074024 -0.014187682 -0.16287974 0.14237003 0.1796682 0.0147065865 0.07128613
-0.057165556 -0.060586967 0.09374999 0.11350172 0.037872948 0.12479523 -0.0513888 -0.18564515
0.09270661 0.22040066 0.1605653 -0.0072176224 -0.023836583 0.0027311535 -0.022146491 0.008347486
-0.16927695 -0.09305826 0.023547096 -0.05967545 0.2297214 0.15764497 0.23744358 0.22679883
0.24398437 0.15573725 -0.4552928 -0.5491826 -0.4254025 -0.52203155 -0.20936336 -0.031196017
-0.016040172 0.17368175 0.071614325 0.17132275 0.097084805 0.11138079 -0.18991883 -0.22332802
-0.20238163 -0.2476812 -0.20973472 0.10772509 0.027816808 -0.050101012 -0.1421611 -0.0978722
-0.094922476 -0.0833701 0.17226797 0.16745815 0.12898336 -0.014296512 0.13934924 0.06603739
0.15532568 0.27267593 0.1629749 0.03711212 0.415107 0.06292604 -0.3338517 -0.51452255
-0.3245093 -0.41513112 -0.2266639 -0.057090636 -0.07934363 -0.065909125 -0.049192738 0.054522555
0.11003591 -0.16031164 0.07847124 -0.068609424 -0.036272068 0.03554434 -0.1383042 -0.0089144055
-0.09483077 -0.072517395 -0.19803257 0.0051337113 0.024296211 -0.09370946 -0.12187877 -0.1076369
-0.0981877 -0.21898349 0.151535 -0.06189391 -0.1555479 -0.1900594 -0.038114958 -0.072632685
-0.18559724 -0.034318097 0.12847237 0.2670099 0.33595526 0.18655856 0.325439 0.08731287
-0.2978122 -0.17357257 -0.15792204 -0.30481645 -0.26187536 -0.109133475 -0.3714196 -0.59158635
-0.5799934 -0.40388215 -0.3683502 0.20175333 0.23268539 0.24756391 0.24198627 0.13602528
00000000: 776a 41bd ee62 8abd 6dfa c9bd a1d2 2bbe
00000010: 3c47 2c3d 9131 b4bc 3b58 023e ff47 0f3e
00000020: a18b 203e e8ef db3d 48dd af3d a54b 863c
00000030: eecb 3abe 1166 45be 0da1 63be 0c2f 91be
00000040: 8303 19be ade2 94bd 3abf 9abe 2a66 68be
00000050: 0da9 84be 6796 a3be 7740 fdbe 2fc2 8f3c
00000060: e8d3 ca3c 2325 5c3e a73e 4d3e f02c 663e
00000070: a96e a93e f00a 10b9 8a4a 673d 58e6 da3d
00000080: 0363 073e d057 c4bd c544 74bd f92a 3c3d
00000090: e5c5 a43d 403a a23d fecf 01be cd50 8ebc
000000a0: 2e0a 53bd 4001 34bb 3290 52be 32a2 c2be
000000b0: 44d8 d7be 5616 febe e16b 0cbf 04e1 38be
000000c0: 19b7 d9bd 5ef3 173d ef93 3ebd 2073 9b3d
000000d0: cd52 27bd a65d a6bb a6bf 37bd 6094 39be
000000e0: 6555 90be 2308 95be 81f3 1ebd 27e4 923d
000000f0: d0b5 11bd a038 8bbe 3108 b8be 4187 47be
00000100: 1b28 a3be 4479 5c3d 5394 13be 4221 0a3b
00000110: 56f7 fa39 3a2e 4ebd 936a 2c3e d45c 86bd
00000120: b1e0 dabd 35fe 1cbd 09c2 54be 0c8d 25bd
00000130: 4299 5bbd 32d0 1b3d a6b4 e2bd 11b4 72be
00000140: 75cb 9ebe 344b 8ebe 9f89 78be 4cb1 933c
00000150: 3f2f 70bd 83d4 9cbe accf 93be bbf0 38be
00000160: 30d4 8abe 5d13 e33c e1e1 4a3e 90d4 7e3e
00000170: 9eaf 7f3e 798d 923e f265 7f3e c98e 813d
00000180: 5c54 263e e4ec 773e d8dd 373c 1880 083e
00000190: f47a 273e 480d 9b3d ce2e c5bd bf2e bfbe
000001a0: 1eb2 d6be 2840 f7be a81c a5be 6517 7e3d
000001b0: 1359 1e3d 8205 023e 340d 4f3e 5859 c93d
000001c0: fcba d43d 0c56 33be dcc5 00be 6f9c 98be
000001d0: e9bb 7ebe 2c20 83be 641a 6abe 90a5 06be
000001e0: 74af b43e 242c ba3e 0fc5 6b3e bf2e 573e
000001f0: bbcb 183e 011c 103d 8754 2e3e 5757 793e
00000200: 1692 753d ff32 513d 7473 68bc f2c9 26be
00000210: 73c9 113e f1fa 373e e5f3 703c 76fe 913d
00000220: 6e26 6abd 0a2a 78bd ffff bf3d 9773 e83d
00000230: aa20 1b3d a494 ff3d 107d 52bd c319 3ebe
00000240: f7dc bd3d b6b0 613e 3b6b 243e ce81 ecbb
00000250: f044 c3bc 27fd 323b 8f6c b5bc e5c3 083c
00000260: f056 2dbe 5495 bebd d7e5 c03c 3f6e 74bd
00000270: 163c 6b3e af6d 213e 6924 733e f43d 683e
00000280: 0ad7 793e 9679 1f3e 231c e9be 3b97 0cbf
00000290: 5bce d9be dca3 05bf 5963 56be ca8e ffbc
000002a0: ae66 83bc a1d9 313e 88aa 923d 3b6f 2f3e
000002b0: 66d4 c63d 9d1b e43d 157a 42be 1ab0 64be
000002c0: 213d 4fbe 24a0 7dbe b3c4 56be f99e dc3d
000002d0: 13e0 e33c b836 4dbd ae92 11be 3871 c8bd
000002e0: b766 c2bd f1bd aabd 0467 303e 267a 2b3e
000002f0: 3714 043e eb3b 6abc 91b1 0e3e 9c3e 873d
00000300: b20d 1f3e 2e9c 8b3e e4e2 263e e102 183d
00000310: e888 d43e 5edf 803d 9cee aabe c0b7 03bf
00000320: 1526 a6be 118c d4be 951a 68be dfd7 69bd
00000330: ea7e a2bd 5dfb 86bd 537e 49bd 0b53 5f3d
00000340: 825a e13d bc28 24be 88b5 a03d 1983 8cbd
00000350: 0592 14bd f196 113d 9e9f 0dbe ba0d 12bc
00000360: a236 c2bd 0084 94bd 0dc9 4abe b138 a83b
00000370: d908 c73c bfea bfbd 949b f9bd bc70 dcbd
00000380: a216 c9bd 353d 60be fe2b 1b3e 7884 7dbd
00000390: f347 1fbe ee9e 42be 6e1e 1cbd 72c0 94bd
000003a0: 340d 3ebe 2291 0cbd 438e 033e 86b5 883e
000003b0: 5402 ac3e 3509 3f3e f19f a63e 17d1 b23d
000003c0: d77a 98be 02bd 31be 51b6 21be e710 9cbe
000003d0: 8714 86be 5f81 dfbd b62a bebe 3472 17bf
000003e0: 737a 14bf a4c9 cebe 6698 bcbe 6d98 4e3e
000003f0: 1445 6e3e 6581 7d3e 40cb 773e 364a 0b3e

R__2995 f4 [1, 96, 32]
-0.025674423 -0.07810924 -0.19844334 -0.2111363 0.09768181 -0.08575925 0.23817107 0.002069994
0.1427164 0.088970326 0.047569375 0.05639733 0.06334394 0.16914068 -0.15403263 -0.27474156
-0.1174335 0.16196026 -0.08080153 -0.12756962 0.005264368 0.07177272 0.07000642 -0.052526567
-0.29635286 0.26596528 0.07518539 0.04280603 -0.049829084 -0.009970862 -0.015144767 -0.020610958
0.04328658 0.3395591 0.021989688 -0.12102467 0.2602114 0.34482458 0.2809014 0.031498484
-0.06451797 0.085556 0.36414838 0.24472848 0.10433507 0.2524344 0.3980742 0.053415034
-0.03404582 0.21974824 -0.159112 -0.12548895 0.03470918 0.27058476 -0.28469965 0.2598699
0.31069928 -0.12683944 0.18650891 0.16612159 -0.23609619 -0.023918634 0.35250193 -0.17941919
0.13771217 -0.104131535 -0.036875784 -0.13764024 0.14372963 -0.20899671 -0.0048482227 -0.1669724
0.110677 0.09580985 0.080660015 0.23895535 -0.059563972 0.15298982 0.00502486 -0.08840166
-0.054700565 0.20720136 -0.39385355 0.106046654 0.14307448 0.1050943 -0.016618732 -0.018380933
-0.01888781 0.010059212 0.014344963 -0.03163134 0.11000661 0.2195196 -0.021404246 -0.3765386
0.18045993 -0.43573076 -0.12949839 -0.15975785 -0.0048655947 -0.10376493 0.28988048 -0.14443886
0.22888386 -0.084491946 -0.10453949 0.028916126 -0.14787209 0.14128049 -0.21273266 -0.02635789
-0.117392406 0.18437882 -0.12159149 -0.07229734 -0.00017976199 0.033663087 0.23825118 -0.08675593
-0.06661003 0.12656179 0.15637824 0.013693144 0.09181799 0.16466056 0.39576206 -0.03834883
-0.24546418 0.16528268 0.036050983 0.23685914 0.018297048 0.12381818 -0.2050802 0.16070479
0.0015029397 -0.13748983 -0.11547159 0.22999117 -0.13385639 -0.2018043 -0.17052248 -0.20179352
0.29023856 0.004816256 0.17941254 0.19760917 -0.27585757 -0.119139455 0.09350543 -0.13943848
-0.11953036 -0.008304184 -0.022863477 -0.045582637 0.24812981 -0.076755494 0.18445806 0.021675676
-0.052202076 0.18558662 0.11322716 -0.04304943 0.072904065 0.12678814 0.12543981 0.21833491
-0.18727888 0.22984536 0.09453794 0.11951266 0.13582395 0.23501328 0.10502121 -0.085950114
-0.1709873 0.11675753 -0.059158333 -0.14555016 0.0021878516 -0.112738416 -0.18056431 0.05454542
0.23545288 -0.19366966 -0.15717757 0.065201044 -0.1639571 -0.021513967 0.28470758 -0.19062686
-0.063047 -0.29261392 -0.0017013999 -0.14366937 0.08383748 -0.33631632 -0.014658009 -0.35131326
-0.08702399 0.07017265 -0.0009266516 -0.08057792 0.06237007 0.15521604 0.016071798 -0.0024255442
-0.012484968 0.0744146 -0.12550813 -0.15924363 0.2986325 0.06505371 -0.101919755 0.010583274
-0.031238917 -0.003066118 -0.019878777 -0.21453385 -0.047517467 0.041373193 0.25733036 0.068095975
0.4321171 0.19088373 0.05315503 -0.07170138 0.1764134 0.0903964 -0.1633268 0.057379987
-0.020543227 0.21621373 0.15956058 0.19384633 0.15784405 -0.0237372 0.2884175 0.2484434
-0.01349653 -0.014906813 0.05693596 -0.029476741 -0.107250504 -0.00014050974 -0.18855257 -0.10518823
0.204908 -0.14621125 0.20297709 0.115786895 -0.13833646 -0.06366596 0.18911827 -0.03307875
00000000: 2b53 d2bc bdf7 9fbd bb34 4bbe 1d34 58be
00000010: 670d c83d 8ca2 afbd 1ee3 733e bda8 073b
00000020: 3f24 123e 1336 b63d 1bd8 423d e300 673d
00000030: 78ba 813d 3733 2d3e bbba 1dbe edaa 8cbe
00000040: fa80 f0bd e9d8 253e 467b a5bd 9ca1 02be
00000050: b880 ac3b 93fd 923d 875f 8f3d 1926 57bd
00000060: 90bb 97be 9a2c 883e ccfa 993d 6055 2f3d
00000070: 9519 4cbd d45c 23bc c221 78bc 50d8 a8bc
00000080: 454d 313d b1da ad3e b823 b43c c8db f7bd
00000090: 6e3a 853e d98c b03e 4fd2 8f3e 8e04 013d
000000a0: ff21 84bd fc37 af3d a871 ba3e 1a9a 7a3e
000000b0: a0ad d53d 153f 813e 62d0 cb3e b9c9 5a3d
000000c0: a173 0bbd af05 613e 42ee 22be 2d80 00be
000000d0: 372b 0e3d 168a 8a3e 27c4 91be ab0d 853e
000000e0: fa13 9f3e 33e2 01be 31fc 3e3e c71b 2a3e
000000f0: 33c3 71be 03f1 c3bc 227b b43e aab9 37be
00000100: 6b04 0d3e ea42 d5bd 100b 17bd 90f1 0cbe
00000110: dc2d 133e 3c03 56be d7dd 9ebb d0fa 2abe
00000120: 9faa e23d f437 c43d 1431 a53d b6b0 743e
00000130: 5af9 73bd 5da9 1c3e 95a7 a43b ee0b b5bd
00000140: b30d 60bd 982c 543e 2ca7 c9be fd2e d93d
00000150: 1e82 123e ae3b d73d 0224 88bc 9c93 96bc
00000160: 9cba 9abc 65cf 243c 2307 6b3c dd8f 01bd
00000170: 254b e13d bfc9 603e f557 afbc abc9 c0be
00000180: 7dca 383e 1a18 dfbe 3a9b 04be 9097 23be
00000190: 916f 9fbb b582 d4bd 376b 943e c8e7 13be
000001a0: 8860 6a3e 1d0a adbd cd18 d6bd 83e1 ec3c
000001b0: c86b 17be d5ab 103e 97d6 59be 80ec d7bc
000001c0: 6e6b f0bd cdcd 3c3e f604 f9bd a110 94bd
000001d0: 7e7e 3cb9 4ee2 093d 1ef8 733e 18ad b1bd
000001e0: d76a 88bd 6a99 013e 9e21 203e 3559 603c
000001f0: 120b bc3d c79c 283e 53a1 ca3e aa13 1dbd
00000200: f65a 7bbe dd3f 293e 32aa 133d 348b 723e
00000210: b1e3 953c 6394 fd3d 8b00 52be cc8f 243e
00000220: 4afe c43a 22ca 0cbe 5e7c ecbd ce82 6b3e
00000230: a611 09be c9a5 4ebe 729d 2ebe f6a2 4ebe
00000240: 269a 943e afd1 9d3b ecb7 373e 0f5a 4a3e
00000250: 343d 8dbe 63ff f3bd c67f bf3d f6c8 0ebe
00000260: 55cc f4bd 460e 08bc 304c bbbc dcb4 3abd
00000270: be15 7e3e fc31 9dbd 93e2 3c3e 3091 b13c
00000280: d8d1 55bd 6b0a 3e3e a4e3 e73d 9954 30bd
00000290: ba4e 953d c0d4 013e 4b73 003e 3093 5f3e
000002a0: 09c6 3fbe 955c 6b3e 1c9d c13d 0ec3 f43d
000002b0: 6f15 0b3e 52a7 703e 5c15 d73d 9d06 b0bd
000002c0: 4b17 2fbe 921e ef3d 0250 72bd 1a0b 15be
000002d0: 0f62 0f3b 66e3 e6bd dae5 38be 056b 5f3d
000002e0: 8f1a 713e 5751 46be 28f3 20be 2088 853d
000002f0: 5fe4 27be 0f3e b0bc 31c5 913e b033 43be
00000300: c91e 81bd 7ed1 95be 8201 dfba 101e 13be
00000310: fcb2 ab3d a731 acbe 2528 70bc 55df b3be
00000320: a239 b2bd aeb6 8f3d 89ea 72ba 0906 a5bd
00000330: c277 7f3d f4f0 1e3e 01a9 833c e1f5 1ebb
00000340: c08d 4cbc af66 983d 3485 00be c310 23be
00000350: 5ce6 983e e13a 853d 4ebb d0bd 7865 2d3c
00000360: c2e8 ffbc edf0 48bb d1d8 a2bc c3ae 5bbe
00000370: ada1 42bd f076 293d cec0 833e e775 8b3d
00000380: 743e dd3e 0677 433e 17b9 593d 2cd8 92bd
00000390: b7a5 343e bf21 b93d 243f 27be 4707 6b3d
000003a0: 454a a8bc 2267 5d3e d963 233e a77f 463e
000003b0: dfa1 213e 8474 c2bc 75ab 933e f267 7e3e
000003c0: 8d20 5dbc b53b 74bc ae35 693d 3579 f1bc
000003d0: 27a6 dbbd cc55 13b9 ed13 41be ed6c d7bd
000003e0: 67d3 513e 67b8 15be 3ad9 4f3e ae21 ed3d
000003f0: 13a8 0dbe 4d63 82bd 38a8 413e 957d 07bd

R__2981 f4 [1, 192, 64]
-0.054908425 -0.29872748 -0.10370964 0.028687559 -0.32540315 -0.04888193 -0.31399646 0.05703395
-0.12849727 -0.11407857 0.07242457 -0.26013714 0.0025866742 -0.021729553 0.17964593 -0.017949589
0.245312 -0.16744028 0.15236537 0.06566379 -0.10235389 0.22704639 0.2191869 -0.018511437
-0.18143556 0.100721754 -0.05725489 0.036206316 0.16587466 0.17149307 -0.060175203 -0.11462812
-0.19967699 0.077300414 -0.112526074 0.20521589 -0.20947699 0.011187477 -0.12595317 0.19109924
0.046479974 0.031905517 -0.14673744 -0.14237963 -0.09603059 0.09894894 -0.06774665 0.05048911
0.25367966 -0.27759317 0.058384992 0.27252293 -0.048629746 -0.029082358 0.33597007 -0.18170708
0.102897964 -0.013711706 -0.056721512 0.044404637 -0.34559354 -0.38503993 0.07071882 0.07886101
0.2518405 -0.12828629 0.2846372 -0.18318646 0.13477387 -0.04859336 0.11554914 0.09207867
-0.19037567 -0.18223676 -0.2604691 0.05278998 0.12395541 -0.071886346 -0.27395993 0.2314501
-0.21041858 0.1398597 -0.018732447 -0.22672537 0.3121359 -0.08173902 0.14990282 0.07389488
0.040749434 -0.14316109 -0.16160819 0.12701757 -0.21039715 -0.31149966 0.052886568 0.22711092
-0.12207549 -0.07261223 0.29947087 -0.00837957 -0.06945683 -0.26087245 0.24078329 0.09649437
-0.1301702 0.001103739 0.06375579 0.20920631 0.14376065 -0.18389592 0.17486916 -0.08877463
-0.2716242 0.13118906 -0.0840844 -0.106595844 0.09616354 -0.17474782 -0.33605567 0.050278295
0.05099872 -0.13808256 0.14061008 -0.03399083 0.11114377 0.032415424 0.16316451 0.24470504
-0.2875205 -0.08953975 -0.04828828 0.08828993 -0.01734059 -0.030765435 -0.27215198 0.008699563
0.053298023 -0.049119297 0.074875064 -0.054194827 0.11917863 0.03149525 0.32326934 0.016879335
0.03835048 -0.012601242 0.32195553 0.15543202 0.055601005 0.14996082 0.04770707 -0.19839807
-0.11714048 0.13929465 -0.16179764 0.08842404 0.18256293 0.27544373 -0.06594102 -0.02090241
-0.16037324 0.14942978 -0.20398109 0.09745306 -0.29868466 0.05892572 -0.075728044 0.037780747
0.22940102 0.10643288 -0.14511676 -0.14818525 -0.011882587 0.1403445 -0.24440987 0.0026349998
0.073467225 -0.21484606 0.10605854 0.09986313 -0.046810467 -0.18677446 0.29144332 -0.3300554
0.068575144 0.12974203 0.23024729 -0.053025994 -0.09352922 -0.320022 0.015089497 -0.12663017
0.052183867 0.017019574 -0.19198298 -0.0653021 -0.027987331 -0.0037421181 -0.017398436 -0.09831822
0.05262958 0.065205105 0.09749523 -0.08746069 -0.04426476 -0.13156122 -0.09530342 -0.20943002
0.009852045 -0.13612162 0.035384864 0.036708582 -0.22287925 -0.12325671 0.07331649 -0.11453675
0.05822862 0.1250851 0.10014894 -0.098585434 -0.042789444 0.06421974 0.18460819 0.00790943
0.14272596 0.017789595 -0.083639435 0.1418052 -0.05646495 0.040570132 -0.12586433 0.0176449
-0.0966327 0.076883174 0.07354058 -0.040799115 -0.004385438 0.07369697 0.040733524 0.057331417
-0.1085078 0.21110152 -0.04227393 -0.0097912345 -0.21587205 -0.004843844 0.008092202 0.11418382
0.15307994 0.19376527 0.22284015 0.035050817 0.04485936 0.015149902 -0.18665408 0.033039965
00000000: a8e7 60bd cff2 98be b865 d4bd 2c02 eb3c
00000010: 3e9b a6be 6b38 48bd 25c4 a0be 6e9c 693d
00000020: ca94 03be 06a2 e9bd 5553 943d b230 85be
00000030: 3185 293b 2d02 b2bc 1af5 373e 040b 93bc
00000040: 1233 7b3e 7775 2bbe ab05 1c3e bd7a 863d
00000050: eb9e d1bd d97e 683e 8872 603e 4ca5 97bc
00000060: 3eca 39be 3547 ce3d 1b84 6abd 134d 143d
00000070: 0cdb 293e e19b 2f3e 467a 76bd 26c2 eabd
00000080: 2078 4cbe ae4f 9e3d 1274 e6bd 1d24 523e
00000090: 2381 56be ae4b 373c def9 00be 85af 433e
000000a0: c961 3e3d 5caf 023d 5742 16be f7cb 11be
000000b0: b0ab c4bd bea5 ca3d c1be 8abd abcd 4e3d
000000c0: 4de2 813e b120 8ebe 1a25 6f3d 2088 8b3e
000000d0: fc2f 47bd 203e eebc 4504 ac3e 6c11 3abe
000000e0: 2bbc d23d 10a7 60bc d154 68bd a3e1 353d
000000f0: a3f1 b0be f423 c5be 07d5 903d e281 a13d
00000100: 3df1 803e 7b5d 03be f8bb 913e 3b95 3bbe
00000110: 2902 0a3e d509 47bd 07a5 ec3d be93 bc3d
00000120: d7f1 42be 469c 3abe 355c 85be 4e3a 583d
00000130: 56dc fd3d 2639 93bd 7a44 8cbe 4101 6d3e
00000140: f877 57be 6237 0f3e ca74 99bc b22a 68be
00000150: 47d0 9f3e ca66 a7bd 2080 193e 3356 973d
00000160: e1e8 263d d298 12be 9e7c 25be e510 023e
00000170: 5a72 57be e27c 9fbe 969f 583d c48f 683e
00000180: b702 fabd b9b5 94bd 3f54 993e 774a 09bc
00000190: 623f 8ebd 1391 85be e58f 763e d79e c53d
000001a0: 564b 05be 56ab 903a 6592 823d 2e3a 563e
000001b0: fe35 133e 364f 3cbe e710 333e 79cf b5bd
000001c0: 5412 8bbe 6d56 063e 7134 acbd ec4e dabd
000001d0: 64f1 c43d 18f1 32be 7d0f acbe 9df0 4d3d
000001e0: 09e4 503d 8465 0dbe 17fc 0f3e f839 0bbd
000001f0: 589f e33d 09c6 043d 9914 273e f593 7a3e
00000200: e335 93be 9e60 b7bd eec9 45bd 5ad1 b43d
00000210: da0d 8ebc cb07 fcbc 8157 8bbe 9d88 0e3c
00000220: 074f 5a3d 5131 49bd 1958 993d 65fb 5dbd
00000230: ed13 f43d 2a01 013d 8f83 a53e 8846 8a3c
00000240: 6515 1d3d 7175 4ebc 5bd7 a43e 9229 1f3e
00000250: e1bd 633d 548f 193e 7d68 433d dd28 4bbe
00000260: 59e7 efbd 42a3 0e3e 48ae 25be aa17 b53d
00000270: c7f1 3a3e f606 8d3e 160c 87bd 883b abbc
00000280: e238 24be 1f04 193e 6be0 50be 7895 c73d
00000290: 32ed 98be 195c 713d 4e17 9bbd fcbf 1a3d
000002a0: 1ae8 6a3e 7bf9 d93d 7d99 14be e0bd 17be
000002b0: 2faf 42bc 78b6 0f3e 9546 7abe f6af 2c3b
000002c0: fc75 963d 9b00 5cbe 3835 d93d 0a85 cc3d
000002d0: 55bc 3fbd ce41 3fbe 0f38 953e 05fd a8be
000002e0: 2071 8c3d 18db 043e f2c5 6b3e c931 59bd
000002f0: 3f8c bfbd ecd9 a3be f039 773c 57ab 01be
00000300: c0be 553d a26c 8b3c 3097 44be 1bbd 85bd
00000310: b045 e5bc 533e 75bb 2a87 8ebc 105b c9bd
00000320: 1d92 573d 418a 853d 94ab c73d 971e b3bd
00000330: f74e 35bd fcb7 06be 712e c3bd d374 56be
00000340: 796a 213c 7763 0bbe b8ef 103d bd5b 163d
00000350: 753a 64be 046e fcbd f526 963d 3e92 eabd
00000360: 2281 6e3d 4f16 003e e31a cd3d 29e7 c9bd
00000370: fc43 2fbd a485 833d ee09 3d3e 8e96 013c
00000380: c126 123e 7cbb 913c 274b abbd 6235 113e
00000390: cb47 67bd de2c 263d 94e2 00be 0a8c 903c
000003a0: 5de7 c5bd ed74 9d3d 729c 963d f91c 27bd
000003b0: b8b3 8fbb 70ee 963d 32d8 263d 59d4 6a3d
000003c0: 5639 debd ff2a 583e 6e27 2dbd 6a6b 20bc
000003d0: 900d 5dbe 1cb9 9ebb 2895 043c 35d9 e93d
000003e0: fdc0 1c3e 676a 463e 3530 643e 7291 0f3d
000003f0: 73be 373d 4b37 783c 3f22 3fbe ea54 073d

R__2968 f4 [1, 384, 128]
0.089584716 0.07554355 -0.028421706 -0.029489955 0.1219269 0.14850393 0.022111464 0.11175618
-0.09559921 -0.002825814 0.13718855 -0.13293816 0.2247153 0.0040331357 0.054325294 -0.046636607
-0.0018864581 -0.120859206 -0.0070234854 -0.05219607 -0.08641436 -0.16018571 0.048254304 0.12230129
-0.007867209 -0.09470162 -0.0318038 -0.13057452 -0.02444645 0.016638434 0.12975581 -0.019436475
0.019111369 0.03190734 -0.025568966 -0.039384387 0.08863121 0.0484822 -0.05296356 0.11210012
0.09534038 0.004472464 -0.002210859 0.017548801 0.046001155 0.16832018 -0.0031744717 -0.11076373
-0.07738015 -0.033584002 -0.12096051 0.03345162 -0.04279809 0.043160945 0.04946699 0.055967834
-0.0054859077 0.045453627 -0.08527601 0.13374902 0.13786387 0.18300658 -0.16604517 -0.08892751
-0.054114006 -0.07910969 -0.01847311 0.0048632706 -0.011295027 0.027578447 -0.037871387 -0.017834915
-0.043884385 -0.13050243 0.07555694 -0.07541952 -0.019503105 -0.014943033 0.0024319212 -0.050814636
0.014480701 -0.012924473 0.034595434 0.035289854 0.13947172 -0.214616 0.036661074 0.12356229
-0.07384796 0.11876666 -0.04562744 -0.20736076 0.066130675 -0.02406363 0.07655735 -0.022013634
0.1045173 0.18386395 -0.009169146 -0.074147604 0.08197318 0.05945822 0.16401738 0.0022318182
-0.07222414 0.14749894 -0.053486183 0.15849636 -0.04036547 -0.07919355 -0.14373735 -0.11816372
0.16271563 -0.123212636 -0.02660267 -0.018215371 -0.1019423 -0.058756046 -0.050915934 -0.134848
0.10820523 0.1167653 0.07653832 -0.0034949868 0.14647573 -0.21410996 0.14924225 0.1731662
-0.029102175 0.029689394 0.10653438 -0.030390242 -0.020407867 0.08713984 -0.005478464 -0.051192388
0.059967447 0.14081077 -0.12376402 -0.007854831 -0.08992334 0.07957517 -0.003514773 0.044776775
-0.0373812 0.11382245 -0.12108281 0.114235684 -0.095605575 0.114441566 0.12724225 -0.07912322
-0.1426879 0.050255276 -0.013348908 0.16931523 0.090202235 0.100715764 -0.13254581 0.1306746
-0.08110931 0.04880207 0.021932332 0.14190245 0.06881068 -0.05046922 0.09553249 0.00292351
-0.17593484 0.18248694 -0.04535431 0.083489195 -0.087081596 -0.09317769 -0.20487307 0.13230644
-0.07847611 0.020417273 -0.008283853 0.17833593 0.05093377 0.0016674985 0.061382078 -0.1628344
-0.14660025 -0.21940771 0.016012616 -0.13538964 0.25622967 -0.09138584 0.11778702 0.030758878
-0.15378127 0.042049058 -0.1541492 -0.00741924 0.07597565 -0.10868469 0.0935896 -0.024654541
-0.20715481 0.05806254 0.013507781 0.22813407 -0.066436924 0.106088586 0.016307952 0.1006247
-0.032978334 -0.036476888 0.1045531 0.123261064 -0.058215614 0.1567564 -0.031686295 0.11485403
0.11713118 -0.10598805 0.113699466 -0.038647316 -0.070884004 -0.000249465 0.04021796 -0.08035146
-0.11552489 -0.08318766 0.12513205 -0.060949538 -0.08439809 -0.019645257 -0.13035433 -0.15693797
0.006555656 0.020772018 0.1325187 -0.027966572 -0.024516767 0.19260383 0.0063186367 0.06875487
0.053180307 0.097752966 0.12531981 0.042080592 0.114342116 0.15069392 0.16251309 0.19174594
-0.13553627 -0.10776572 -0.28362083 -0.036062837 0.14532778 0.11706225 0.042053916 -0.16991286
00000000: 3178 b73d 94b6 9a3d a3d4 e8bc eb94 f1bc
00000010: d0b4 f93d 6a11 183e 1a23 b53c 6de0 e43d
00000020: 85c9 c3bd 4b31 39bb 287b 0c3e f120 08be
00000030: c51b 663e 6528 843b 3384 5e3d 0706 3fbd
00000040: 0843 f7ba 0885 f7bd 4425 e6bb 8ccb 55bd
00000050: 03fa b0bd b907 24be 4ea6 453d 1979 fa3d
00000060: 77e5 00bc ecf2 c1bd b444 02bd 54b5 05be
00000070: ec43 c8bc 534d 883c b5de 043e 3e39 9fbc
00000080: 728f 9c3c 45b1 023d 0276 d1bc 8651 21bd
00000090: 4884 b53d 4595 463d 51f0 58bd bf94 e53d
000000a0: d141 c33d bf8d 923b 0fe4 10bb 81c2 8f3c
000000b0: b56b 3c3d 205c 2c3e cc0a 50bb 18d8 e2bd
000000c0: 7c79 9ebd 618f 09bd 25ba f7bd 9104 093d
000000d0: 0d4d 2fbd 88c9 303d e69d 4a3d 873e 653d
000000e0: 21c3 b3bb 952d 3a3d 30a5 aebd 81f5 083e
000000f0: 302c 0d3e 1466 3b3e bf07 2abe a01f b6bd
00000100: a6a6 5dbd 4304 a2bd eb54 97bc 125c 9f3b
00000110: c70e 39bc 32ec e13c 071f 1bbd 871a 92bc
00000120: 1dc0 33bd 6ea2 05be 99bd 9a3d 8d75 9abd
00000130: fac4 9fbc a0d3 74bc de60 1f3b 0223 50bd
00000140: 7640 6d3c 2bc1 53bc f1b3 0d3d 188c 103d
00000150: add1 0e3e 4cc4 5bbe ec29 163d 3a0e fd3d
00000160: 993d 97bd ef3b f33d d7e3 3abd 6156 54be
00000170: 856f 873d 1721 c5bc 1aca 9c3d f055 b4bc
00000180: 2b0d d63d d546 3c3e 303a 16bc b3da 97bd
00000190: 8ee1 a73d 768a 733d 2cf4 273e b243 123b
000001a0: 40ea 93bd f609 173e 5414 5bbd df4c 223e
000001b0: 4356 25bd 3a30 a2bd e22f 13be d2ff f1bd
000001c0: ed9e 263e e856 fcbd d8ed d9bc 6738 95bc
000001d0: 20c7 d0bd 2eaa 70bd 3a8d 50bd 9815 0abe
000001e0: b49a dd3d a522 ef3d 1fc0 9c3d 260c 65bb
000001f0: bcfd 153e a43f 5bbe f6d2 183e 7b52 313e
00000200: af67 eebc 2c37 f33c b22e da3d f5f4 f8bc
00000210: 662e a7bc 5f76 b23d b084 b3bb 1caf 51bd
00000220: 6da0 753d b330 103e fe77 fdbd 8db1 00bc
00000230: ba29 b8bd 4ff8 a23d 1b58 66bb da67 373d
00000240: 071d 19bd bf1b e93d 44fa f7bd 66f4 e93d
00000250: dbcc c3bd 5760 ea3d cb4b 023e 5b0b a2bd
00000260: c71c 12be 7ad8 4d3d 61b5 5abc f960 2d3e
00000270: f3bb b83d 1144 ce3d 17ba 07be 90cf 053e
00000280: a31c a6bd aee4 473d 6fab b33c e04e 113e
00000290: 9dec 8c3d d0b8 4ebd 8aa6 c33d 5c98 3f3b
000002a0: 4328 34be dbdd 3a3e 71c5 39bd 62fc aa3d
000002b0: d657 b2bd f2d3 bebd 3fca 51be 577b 073e
000002c0: 15b8 a0bd 2042 a73c ffb8 07bc b29d 363e
000002d0: ee9f 503d f78f da3a c66b 7b3d 10be 26be
000002e0: 601e 16be 6aac 60be e42c 833c 95a3 0abe
000002f0: 8930 833e 8028 bbbd 523a f13d 0bfa fb3c
00000300: d678 1dbe a23b 2c3d 4ad9 1dbe 191d f3bb
00000310: 1f99 9b3d 1496 debd e7ab bf3d 52f8 c9bc
00000320: 6420 54be fcd2 6d3d bd4f 5d3c fa9b 693e
00000330: 1510 88bd f944 d93d 4198 853c 5314 ce3d
00000340: 4a14 07bd ca68 15bd f01f d63d 4c70 fc3d
00000350: 7f73 6ebd c084 203e 7dc9 01bd 9738 eb3d
00000360: 79e2 ef3d 4310 d9bd 44db e83d a64c 1ebd
00000370: a22b 91bd a0ca 82b9 96bb 243d 4e8f a4bd
00000380: 5098 ecbd 4b5e aabd 9e22 003e 39a6 79bd
00000390: e8d8 acbd 17ef a0bc 9b7b 05be 59b4 20be
000003a0: d4d0 d63b 142a aa3c fbb2 073e 271a e5bc
000003b0: 63d7 c8bc f039 453e 910c cf3b 5acf 8c3d
000003c0: 98d3 593d b532 c83d d653 003e b35c 2c3d
000003d0: 332c ea3d 824f 1a3e d569 263e 0c59 443e
000003e0: 05ca 0abe 46b4 dcbd c036 91be a0b6 13bd
000003f0: ced0 143e 55be ef3d ba40 2c3d a3fd 2dbe

GRU/quant_dense_43/LastValueQuant/FakeQuantWithMinMaxVars__2956 f4 [32, 1]
-0.20962106 -0.052405264 -0.029945865 -0.29696319 0.20712557 0.027450377 0.14224286 0.27699926
-0.14224286 -0.224594 0.0124774445 0.224594 -0.23208046 0.03743233 0.2894767 0.14972933
0.25453988 -0.28199023 0.027450377 0.0074864663 -0.18466617 0.0049909777 -0.06987369 -0.0124774445
0.029945865 0.0049909777 -0.3119361 0.1572158 0.23956692 -0.014972933 -0.31692708 0.0024954889
00000000: e7a6 56be e7a6 56bd 0851 f5bc 8f0b 98be
00000010: ba18 543e 9ddf e03c 1da8 113e d9d2 8d3e
00000020: 1da8 11be f8fb 65be 326e 4c3c f8fb 653e
00000030: 80a6 6dbe a552 193d 4a36 943e a552 193e
00000040: 0d53 823e 0661 90be 9ddf e03c 0851 f53b
00000050: 2119 3dbe 5b8b a33b f019 8fbd 326e 4cbc
00000060: 0851 f53c 5b8b a33b 17b6 9fbe 2efd 203e
00000070: 0851 753e 0851 75bc 4444 a2be 5b8b 233b

GRU/quant_dense_42/LastValueQuant/FakeQuantWithMinMaxVars__2955 f4 [32, 32]
0.11087893 0.096571974 0.07511153 -0.11087893 -0.2861392 -0.039344136 0.014306959 0.07868827
0.30402288 -0.11087893 0.092995234 -0.32548332 -0.12518589 -0.046497617 0.2789857 -0.010730219
0.10730219 0.046497617 0.18599047 0.21102764 0.1537998 -0.2861392 -0.13591611 -0.03219066
0.16810676 0.057227835 0.25752527 -0.22891134 0.26825547 -0.07868827 0.039344136 -0.050074354
0.0035767397 -0.11087893 -0.050074354 0.18599047 -0.06795806 0.0715348 -0.06438132 0.039344136
0.10372545 0.19314395 -0.21102764 0.21818112 -0.06438132 -0.060804576 -0.08226501 -0.22175786
0.15737654 -0.13233937 -0.24679504 0.16810676 -0.2432183 0.20029742 -0.37555766 0.07868827
-0.16453002 0.03219066 -0.0357674 0.32906005 0.0071534794 0.33621353 -0.06795806 -0.08584175
-0.046497617 -0.1716835 -0.025037177 -0.1430696 0.31832984 -0.2253346 0.060804576 0.2432183
0.19314395 0.13949285 -0.0071534794 -0.14664632 0.20387416 -0.1716835 -0.092995234 0.06438132
-0.18956721 -0.11803241 -0.16095328 -0.12518589 -0.23248808 -0.15737654 0.18956721 0.37913442
-0.096571974 -0.08941849 0.0178837 -0.096571974 -0.1716835 -0.16810676 -0.22891134 -0.13233937
-0.13233937 0.010730219 -0.010730219 0.45424595 0.19314395 -0.096571974 -0.36482745 0.23606482
-0.33979028 -0.046497617 0.10372545 -0.17526025 -0.21460438 0.08226501 -0.039344136 -0.11087893
-0.2074509 0.11803241 -0.10372545 0.2432183 0.18956721 0.0 -0.30402288 0.046497617
0.0178837 -0.2074509 0.042920876 -0.06795806 0.24679504 -0.17883699 -0.3326368 -0.014306959
-0.0071534794 0.12876263 0.19672069 0.34694374 0.19672069 -0.13591611 0.08226501 0.0035767397
0.15022306 0.014306959 -0.16453002 -0.010730219 0.039344136 0.21460438 -0.21818112 -0.12518589
0.13949285 0.17883699 0.31117636 -0.07511153 -0.1716835 -0.20387416 -0.08584175 0.18956721
-0.025037177 -0.21102764 -0.2861392 -0.028613918 0.092995234 0.38986462 -0.096571974 -0.26467875
0.07511153 -0.12160915 0.13591611 0.1537998 0.0357674 -0.15022306 0.03219066 -0.13591611
-0.27183223 0.053651094 0.1537998 0.16095328 0.32190657 0.25037178 0.07511153 -0.2861392
0.2789857 -0.16095328 -0.057227835 -0.19314395 -0.07511153 0.0071534794 -0.37555766 0.21818112
-0.042920876 0.042920876 0.21818112 0.26467875 0.20029742 0.343367 -0.092995234 0.0071534794
0.060804576 0.12876263 -0.25037178 -0.17526025 -0.22175786 -0.028613918 -0.30402288 0.10730219
0.050074354 0.096571974 0.06438132 -0.08584175 0.021460438 -0.18241373 0.057227835 -0.18956721
0.12876263 0.13591611 0.11087893 0.13591611 0.2539485 -0.11445567 -0.16453002 0.19314395
0.13949285 -0.10730219 0.1430696 -0.025037177 -0.21460438 -0.2074509 0.08584175 -0.0715348
0.060804576 0.26467875 -0.19672069 0.050074354 0.18241373 0.08226501 0.27183223 -0.10372545
-0.3147531 0.096571974 -0.096571974 0.08941849 -0.096571974 -0.08941849 -0.19672069 0.0071534794
-0.10014871 0.19672069 0.014306959 0.19314395 -0.15022306 0.23964156 0.18599047 0.0178837
0.19672069 0.33621353 -0.26467875 0.35409722 0.060804576 0.060804576 0.06438132 -0.20387416
00000000: 7e14 e33d 87c7 c53d 13d4 993d 7e14 e3bd
00000010: d680 92be 5127 21bd bc67 6a3c 5127 a13d
00000020: e3a8 9b3e 7e14 e3bd 4974 be3d c0a5 a6be
00000030: bb30 00be 4974 3ebd 37d7 8e3e cdcd 2fbc
00000040: 40c1 db3d 4974 3e3d 4974 3e3e a117 583e
00000050: b27d 1d3e d680 92be 982d 0bbe 5ada 03bd
00000060: 2e24 2c3e bc67 6a3d 5ada 833e bc67 6abe
00000070: c858 893e 5127 a1bd 5127 213d c41a 4dbd
00000080: bc67 6a3b 7e14 e3bd c41a 4dbd 4974 3e3e
00000090: 982d 8bbd d680 923d 5ada 83bd 5127 213d
000000a0: 026e d43d 87c7 453e a117 58be df6a 5f3e
000000b0: 5ada 83bd 380e 79bd 8f7a a8bd 7e14 63be
000000c0: 5127 213e f983 07be d7b7 7cbe 2e24 2c3e
000000d0: 380e 79be c41a 4d3e 1849 c0be 5127 a13d
000000e0: 8f7a 28be 5ada 033d d680 12bd 8f7a a83e
000000f0: bc67 ea3b 2e24 ac3e 982d 8bbd cdcd afbd
00000100: 4974 3ebd cdcd 2fbe c41a cdbc d680 12be
00000110: 21fc a23e 1dbe 66be 380e 793d 380e 793e
00000120: 87c7 453e 37d7 0e3e bc67 eabb 742a 16be
00000130: 63c4 503e cdcd 2fbe 4974 bebd 5ada 833d
00000140: e81d 42be faba f1bd f0d0 24be bb30 00be
00000150: 5b11 6ebe 5127 21be e81d 423e e81d c23e
00000160: 87c7 c5bd 0b21 b7bd d680 923c 87c7 c5bd
00000170: cdcd 2fbe 2e24 2cbe bc67 6abe f983 07be
00000180: f983 07be cdcd 2f3c cdcd 2fbc ed92 e83e
00000190: 87c7 453e 87c7 c5bd aaca babe faba 713e
000001a0: fef8 adbe 4974 3ebd 026e d43d 6c77 33be
000001b0: 40c1 5bbe 8f7a a83d 5127 21bd 7e14 e3bd
000001c0: 026e 54be faba f13d 026e d4bd 380e 793e
000001d0: e81d 423e 0000 0000 e3a8 9bbe 4974 3e3d
000001e0: d680 923c 026e 54be cdcd 2f3d 982d 8bbd
000001f0: d7b7 7c3e 0b21 37be 5f4f aabe bc67 6abc
00000200: bc67 eabb 5ada 033e 2671 493e 9ca2 b13e
00000210: 2671 493e 982d 0bbe 8f7a a83d bc67 6a3b
00000220: 13d4 193e bc67 6a3c 8f7a 28be cdcd 2fbc
00000230: 5127 213d 40c1 5b3e df6a 5fbe bb30 00be
00000240: 37d7 0e3e 0b21 373e 8252 9f3e 13d4 99bd
00000250: cdcd 2fbe 63c4 50be cdcd afbd e81d 423e
00000260: c41a cdbc a117 58be d680 92be bc67 eabc
00000270: 4974 be3d 569c c73e 87c7 c5bd f983 87be
00000280: 13d4 993d 380e f9bd 982d 0b3e b27d 1d3e
00000290: d680 123d 13d4 19be 5ada 033d 982d 0bbe
000002a0: 982d 8bbe 40c1 5b3d b27d 1d3e f0d0 243e
000002b0: f0d0 a43e bb30 803e 13d4 993d d680 92be
000002c0: 37d7 8e3e f0d0 24be bc67 6abd 87c7 45be
000002d0: 13d4 99bd bc67 ea3b 1849 c0be df6a 5f3e
000002e0: cdcd 2fbd cdcd 2f3d df6a 5f3e f983 873e
000002f0: c41a 4d3e cdcd af3e 4974 bebd bc67 ea3b
00000300: 380e 793d 5ada 033e bb30 80be 6c77 33be
00000310: 7e14 63be bc67 eabc e3a8 9bbe 40c1 db3d
00000320: c41a 4d3d 87c7 c53d 5ada 833d cdcd afbd
00000330: cdcd af3c aaca 3abe bc67 6a3d e81d 42be
00000340: 5ada 033e 982d 0b3e 7e14 e33d 982d 0b3e
00000350: 8a05 823e bc67 eabd 8f7a 28be 87c7 453e
00000360: 37d7 0e3e 40c1 dbbd d680 123e c41a cdbc
00000370: 40c1 5bbe 026e 54be cdcd af3d d680 92bd
00000380: 380e 793d f983 873e 2671 49be c41a 4d3d
00000390: aaca 3a3e 8f7a a83d 982d 8b3e 026e d4bd
000003a0: 5127 a1be 87c7 c53d 87c7 c5bd 0b21 b73d
000003b0: 87c7 c5bd 0b21 b7bd 2671 49be bc67 ea3b
000003c0: c41a cdbd 2671 493e bc67 6a3c 87c7 453e
000003d0: 13d4 19be 9964 753e 4974 3e3e d680 923c
000003e0: 2671 493e 2e24 ac3e f983 87be 3b4c b53e
000003f0: 380e 793d 380e 793d 5ada 833d 63c4 50be

GRU/quant_dense_42/BiasAdd/ReadVariableOp:0 f4 [32]
-0.075268045 -0.06910011 -0.088242546 -0.12746467 0.037955187 0.080744654 -0.025971027 0.06447558
-0.06646398 0.00085977145 0.008830323 0.09636655 -0.10767534 -0.16975366 0.018670568 -0.003419263
0.03741345 -0.07353229 -0.046305846 0.00027218883 -0.07338752 -0.03239178 -0.026032353 0.019740466
-0.043677423 0.0024929948 0.017675707 -0.066485256 -0.0026223357 -0.08408002 -0.10445586 0.030579751
00000000: 2226 9abd 5c84 8dbd 82b8 b4bd 1986 02be
00000010: e676 1b3d 745d a53d 31c1 d4bc c60b 843d
00000020: 441e 88bd 4962 613a 0fad 103c d35b c53d
00000030: e384 dcbd e7d3 2dbe 05f3 983c b715 60bb
00000040: d93e 193d 1998 96bd 33ab 3dbd 91b4 8e39
00000050: 324c 96bd 3ead 04bd cd41 d5bc c2b6 a13c
00000060: 19e7 32bd 8361 233b a5cc 903c 6c29 88bd
00000070: 7edb 2bbb 2532 acbd f4ec d5bd 6382 fa3c

B__2996 f4 [1, 192]
0.1509736 -0.191739 0.0793083 0.0654524 0.0056212815 -0.0036014516 -0.011258919 -0.22552513
0.26542053 0.059954647 -0.3049385 -0.23015562 0.003618619 -0.36058572 -0.1837307 0.029530417
0.10461417 0.03216096 -0.21389847 -0.04892384 -0.15966287 -0.19682193 0.08995369 -0.03415546
-0.2173792 0.21941529 0.0031583486 0.005238663 -0.09550592 0.20964202 0.13974074 -0.14547375
0.09791447 0.04301705 0.025270639 -0.09360462 -0.0585122 0.005597954 -0.15188909 -0.07665368
0.11152017 0.032764256 -0.10870374 -0.11171167 -0.061674133 0.07681398 -0.08132607 0.09175282
-0.084908 -0.14939477 -0.055682614 -0.12241565 -0.11157282 0.034890503 0.076592445 -0.014747561
0.057170086 0.03925709 -0.080970764 -0.016616436 -0.044152997 -0.039098196 0.09874366 -0.056396887
-0.0029960375 -0.025005719 -0.009447523 0.03340617 -0.079345666 0.010829498 0.024626696 -0.03680431
0.15323062 -0.16530238 -0.1427812 -0.055206515 -0.029628841 -0.15305579 -0.008899055 -0.06708512
0.09208917 0.0265272 0.078285605 0.049425986 -0.061203472 -0.010623441 0.086903885 -0.07130309
-0.122712255 -0.00047520103 -0.023931203 -0.0013898215 0.081218034 -0.016848119 -0.09907824 0.074700564
0.1509736 -0.191739 0.0793083 0.0654524 0.0056212815 -0.0036014516 -0.011258919 -0.22552513
0.26542053 0.059954647 -0.3049385 -0.23015562 0.003618619 -0.36058572 -0.1837307 0.029530417
0.10461417 0.03216096 -0.21389847 -0.04892384 -0.15966287 -0.19682193 0.08995369 -0.03415546
-0.2173792 0.21941529 0.0031583486 0.005238663 -0.09550592 0.20964202 0.13974074 -0.14547375
0.09791447 0.04301705 0.025270639 -0.09360462 -0.0585122 0.005597954 -0.15188909 -0.07665368
0.11152017 0.032764256 -0.10870374 -0.11171167 -0.061674133 0.07681398 -0.08132607 0.09175282
-0.084908 -0.14939477 -0.055682614 -0.12241565 -0.11157282 0.034890503 0.076592445 -0.014747561
0.057170086 0.03925709 -0.080970764 -0.016616436 -0.044152997 -0.039098196 0.09874366 -0.056396887
-0.02342095 -0.034775462 -0.026033862 0.052169252 -0.069211066 -0.014793436 0.024176506 -0.053339396
0.1520433 -0.15867238 -0.14764482 -0.05736647 -0.04248808 -0.14906162 -0.00518696 -0.0710566
0.08634207 0.030073604 0.092763156 0.03838445 -0.07638121 -0.0069699446 0.08502297 -0.08981382
-0.115484275 -0.0005719837 -0.02455911 -0.015265692 0.074254885 -0.002692101 -0.1038534 0.07092788
00000000: d398 1a3e 3a57 44be 646c a23d e80b 863d
00000010: ba32 b83b 5506 6cbb 5477 38bc 0ff0 66be
00000020: 33e5 873e 0193 753d e620 9cbe eaad 6bbe
00000030: 5a26 6d3b b19e b8be e723 3cbe c6e9 f13c
00000040: f43f d63d 36bb 033d 3308 5bbe 5d64 48bd
00000050: aa7e 23be b08b 49be a439 b83d 98e6 0bbd
00000060: a798 5ebe 67ae 603e 4cfc 4e3b 17a9 ab3b
00000070: 9c98 c3bd 66ac 563e 3218 0f3e 12f7 14be
00000080: 6287 c83d a532 303d 5f04 cf3c c7b3 bfbd
00000090: 7daa 6fbd 0b6f b73b d088 1bbe 9bfc 9cbd
000000a0: b064 e43d d033 063d 11a0 debd 17c9 e4bd
000000b0: 049e 7cbd a650 9d3d 488e a6bd e7e8 bb3d
000000c0: 3fe4 adbd f1fa 18be 7413 64bd 0eb5 fabd
000000d0: 4a80 e4bd 58e9 0e3d 80dc 9c3d c19f 71bc
000000e0: 2e2b 6a3d 0bcc 203d 00d4 a5bd 311f 88bc
000000f0: c6d9 34bd 6e25 20bd 1e3a ca3d 6c00 67bd
00000100: 2b59 44bb cbd8 ccbc c9c9 1abc e8d4 083d
00000110: fb7f a2bd 356e 313c edbd c93c 1ec0 16bd
00000120: 7de8 1c3e 0745 29be 3c35 12be 3a20 62bd
00000130: 2fb8 f2bc a8ba 1cbe 58cd 11bc ec63 89bd
00000140: 3f99 bc3d 924f d93c 3454 a03d e772 4a3d
00000150: 7eb0 7abd f10d 2ebc aafa b13d 5b07 92bd
00000160: 9050 fbbd 6724 f9b9 5f0b c4bc ac2a b6ba
00000170: a455 a63d 1105 8abc 88e9 cabd 9cfc 983d
00000180: d398 1a3e 3a57 44be 646c a23d e80b 863d
00000190: ba32 b83b 5506 6cbb 5477 38bc 0ff0 66be
000001a0: 33e5 873e 0193 753d e620 9cbe eaad 6bbe
000001b0: 5a26 6d3b b19e b8be e723 3cbe c6e9 f13c
000001c0: f43f d63d 36bb 033d 3308 5bbe 5d64 48bd
000001d0: aa7e 23be b08b 49be a439 b83d 98e6 0bbd
000001e0: a798 5ebe 67ae 603e 4cfc 4e3b 17a9 ab3b
000001f0: 9c98 c3bd 66ac 563e 3218 0f3e 12f7 14be
00000200: 6287 c83d a532 303d 5f04 cf3c c7b3 bfbd
00000210: 7daa 6fbd 0b6f b73b d088 1bbe 9bfc 9cbd
00000220: b064 e43d d033 063d 11a0 debd 17c9 e4bd
00000230: 049e 7cbd a650 9d3d 488e a6bd e7e8 bb3d
00000240: 3fe4 adbd f1fa 18be 7413 64bd 0eb5 fabd
00000250: 4a80 e4bd 58e9 0e3d 80dc 9c3d c19f 71bc
00000260: 2e2b 6a3d 0bcc 203d 00d4 a5bd 311f 88bc
00000270: c6d9 34bd 6e25 20bd 1e3a ca3d 6c00 67bd
00000280: 4bdd bfbc b770 0ebd f744 d5bc 6daf 553d
00000290: 88be 8dbd 2b60 72bc cf0d c63c 697a 5abd
000002a0: 3db1 1b3e 037b 22be 3430 17be 1bf9 6abd
000002b0: fb07 2ebd 9ca3 18be 60f7 a9bb 1f86 91bd
000002c0: 1cd4 b03d eb5c f63c 9cfa bd3d 0339 1d3d
000002d0: c06d 9cbd 2264 e4bb 8620 ae3d 4ff0 b7bd
000002e0: 0583 ecbd 2df1 15ba 3030 c9bc f41c 7abc
000002f0: f212 983d f66d 30bb 17b1 d4bd a342 913d
