models/station_29/model_latest.onnx (onnx, 407794 bytes, 12 tensors)

W__2994 f4 [1, 96, 64]
0	0x3e3d8d0c	0.18510836
1	0xbdd49231	-0.10379446
2	0x3e45baae	0.19309494
3	0xbe32c73f	-0.17458819
4	0xbd1d808d	-0.038452674
5	0x3e6a5551	0.22884108
6	0x3e06fbd2	0.13182
7	0xbe3cf856	-0.18454108
8	0x3c4004a9	0.011719861
9	0xbce10935	-0.02747021
10	0x3d627ce2	0.05529488
11	0x3bb89d28	0.005633969
12	0xbd575565	-0.052571673
13	0xbe0f5688	-0.13997853
14	0x3d3bbe5b	0.045835834
15	0x3e0e21db	0.13880102
16	0x3bfc53d5	0.0077004232
17	0x3bf48470	0.007462077
18	0xbe2fcaa7	-0.1716715
19	0xbe7e475b	-0.24831907
20	0x3e3aa852	0.18228272
21	0xb9d13fdf	-0.00039911174
22	0xbc075d74	-0.008262027
23	0x3db35314	0.0875608
24	0x3d0098e3	0.031395804
25	0xbe05490f	-0.13016151
26	0x3e2ba410	0.16761804
27	0x3d5336a0	0.051565766
28	0xbe1784ac	-0.14796704
29	0x3da88b12	0.082296506
30	0x3e84e2ef	0.25954387
31	0x3e01429c	0.12623066
32	0xbcf17da3	-0.029478854
33	0xbdac62da	-0.08417292
34	0xbdd0d4b9	-0.101968236
35	0x3d8a2037	0.06744426
36	0xbbff4275	-0.0077899047
37	0xbd79fbb5	-0.061031062
38	0x3e0f24b6	0.13978848
39	0xbe36b1d2	-0.1784127
40	0x3c1e8881	0.0096761
41	0x3e4ad197	0.19806515
42	0x3d39b48a	0.04533819
43	0x3e0cba0b	0.13742845
44	0xbe78b5b5	-0.24288066
45	0xbe0286a6	-0.12746677
46	0x3cf77ec9	0.030211823
47	0xbcbc945e	-0.023019966
48	0xbd8bef24	-0.06832722
49	0x3dfbf61c	0.12302801
50	0xbe0833de	-0.13301036
51	0x3dac86a6	0.0842412
52	0x3d1d95bf	0.038472887
53	0x3af62c68	0.0018781545
54	0x3e28f47f	0.16499518
55	0xbe58770b	-0.21139161
56	0x3e6505b2	0.22365454
57	0x3dcb9d85	0.09942154
58	0xbdb6981c	-0.08915731
59	0x3dca63e1	0.09882332
60	0xbd0a5d8d	-0.033780623
61	0x3d4aedd8	0.04954323
62	0x3e920016	0.2851569
63	0xbe34db77	-0.17661844
64	0xbdb13272	-0.086522
65	0xbe698f4e	-0.22808573
66	0x3d7118c2	0.0588615
67	0xbe8a39de	-0.26997274
68	0xbbc7f47d	-0.0061021433
69	0x3dd39642	0.10331394
70	0x3e97268a	0.2952159
71	0xbe806636	-0.2507798
72	0xbe7f3c5b	-0.24925368
73	0x3e6b3327	0.22968732
74	0x3dc88dba	0.09792657
75	0xbea8fadb	-0.33003888
76	0xbde4ea53	-0.11177506
77	0xbdc8d25d	-0.098057486
78	0xbe029ac5	-0.12754352
79	0xbd1681ac	-0.03674476
80	0xbe1b97c4	-0.15194613
81	0xbd1c7c8b	-0.03820471
82	0x3e3db05a	0.18524304
83	0xbdef6f1f	-0.116911165
84	0xbd589a78	-0.052881688
85	0x3dc3b9fe	0.095569596
86	0xbd802881	-0.062577255
87	0x3d9a77ec	0.075424045
88	0x3d99639b	0.07489701
89	0xbe82571d	-0.25457087
90	0x3df7cc5d	0.12099526
91	0x3e7195a5	0.23592241
92	0xbe62f5cd	-0.22164078
93	0xbe1ce71e	-0.15322539
94	0x3e2b7cdd	0.1674685
95	0x3e06874d	0.1313755
96	0x3dd6f412	0.104957715
97	0x3d24c8c0	0.040230513
98	0xbdcc0a59	-0.09962911
99	0xbc146ef4	-0.009059656
100	0xbe59adc7	-0.21257697
101	0x3ccb61dc	0.024826936
102	0xbd68d74a	-0.05684594
103	0xbd10b6d0	-0.035330594
104	0x3b943db8	0.004523959
105	0x3d891e5d	0.066952445
106	0xbe89bd86	-0.26902407
107	0x3e234d58	0.15947473
108	0x3e1fe818	0.1561588
109	0xbdfee513	-0.12446036
110	0x3e9f7608	0.31144738
111	0xbe5103ea	-0.2041165
112	0xbdabfc90	-0.08397782
113	0x3dd88a47	0.10573249
114	0x3d607712	0.054801054
115	0x3e2fe508	0.17177212
116	0x3d01cf38	0.03169176
117	0x3e59fd61	0.21288063
118	0x3eaf2002	0.34204108
119	0xbdd1e7de	-0.10249303
120	0x3e88d447	0.26724455
121	0x3e10c28c	0.14136714
122	0x3e07cf8e	0.1326277
123	0x3d87c915	0.0663015
124	0x3eb9b97d	0.3627433
125	0xbe18b5a2	-0.14913037
126	0x3e5af53a	0.21382609
127	0xbdf83f31	-0.12121428
128	0xbc20d7b0	-0.009817049
129	0xbec8ed63	-0.39243612
130	0x3e725374	0.23664647
131	0xbd9cc5ff	-0.07654952
132	0x3e4235cb	0.18965833
133	0x3ed46f5d	0.41491213
134	0x3e396309	0.18104185
135	0xbe857897	-0.26068565
136	0x3c588002	0.013214113
137	0x3f067c61	0.5253354
138	0x3e5738ad	0.21017714
139	0xbd42fda6	-0.04760518
140	0xbecd85e9	-0.40141228
141	0xbe6648c8	-0.22488701
142	0x3cbd964c	0.023142956
143	0x3e89031e	0.2676019
144	0xbea566de	-0.32305044
145	0x3da415cf	0.08011972
146	0x3e0b22d3	0.13587503
147	0xbd4f21af	-0.050569233
148	0xbdcabbe8	-0.098991215
149	0xbd09dcda	-0.033657886
150	0xbdaeee22	-0.08541514
151	0x3e01b8e3	0.12668185
152	0x3e7cc48a	0.24684349
153	0xbe5d3e5e	-0.21605822
154	0x3de2e320	0.11078477
155	0x3e8b2d8d	0.2718319
156	0xbe59cfa8	-0.21270621
157	0xbedd580d	-0.4323124
158	0x3f053ccd	0.520459
159	0x3e55ebc8	0.20890725
160	0x3e57e17b	0.21082108
161	0xbd0db516	-0.034596525
162	0xbe7ff902	-0.24997333
163	0xbe833149	-0.2562354
164	0x3c9e6d6e	0.01933929
165	0xbe6b7dd6	-0.22997221
166	0x3d166a76	0.036722623
167	0x3e8befa8	0.2733128
168	0x3d184cc8	0.0371826
169	0x3e8de759	0.27715567
170	0xbe237909	-0.1596414
171	0x3d71fdab	0.059079807
172	0xbcc87cdd	-0.024473602
173	0xbef3e85a	-0.47638208
174	0x3e33fe8b	0.17577569
175	0xba2bcdc2	-0.00065537926
176	0xbe8f1a6e	-0.27949852
177	0x3e67bcfe	0.22630689
178	0x3e82853d	0.25492278
179	0x3af6a836	0.0018818441
180	0xbe2007bc	-0.1562795
181	0x3df21e10	0.1182214
182	0x3ed645d8	0.41850162
183	0xbe8e6c69	-0.27817085
184	0x3ec9365d	0.39299288
185	0x3e5e6edf	0.21721981
186	0x3e4c797a	0.19968215
187	0x3e87acca	0.26499015
188	0x3e706a88	0.23478138
189	0xbdc2da29	-0.09514267
190	0x3e8e0804	0.2774049
191	0xbdcb862c	-0.09937701
192	0x3e4fdcc2	0.20299056
193	0xbd219c1c	-0.039455518
194	0xbd63b5b3	-0.055593204
195	0x3e5a8951	0.21341445
196	0x3e0e9cce	0.13927004
197	0x3d3d47a9	0.04621092
198	0x3ea7fbbf	0.32809255
199	0xbe0ccb12	-0.1374934
200	0xbe7c9a96	-0.24668345
201	0x3d99375c	0.07481262
202	0xbe2ef4cf	-0.17085575
203	0xbd344315	-0.044009287
204	0x3d9ef2b7	0.07761138
205	0xbd7a2443	-0.061069738
206	0xbdd3cfa4	-0.10342339
207	0x3d0ebe64	0.03484954
208	0xbe2a5177	-0.16632639
209	0xbcc6ec49	-0.024282591
210	0xbda226f5	-0.07917587
211	0x3c3b2904	0.011423353
212	0x3e40ff7a	0.18847457
213	0x3ded1873	0.11576929
214	0xbd51863c	-0.051153407
215	0xbe09f6ad	-0.13473006
216	0xbde8218c	-0.113345236
217	0xbe92e497	-0.28690025
218	0x3e1e2b35	0.1544617
219	0xbe27e3ea	-0.16395536
220	0xbc745f0e	-0.014915241
221	0xbd973014	-0.07382217
222	0x3ea84f78	0.3287313
223	0xbde9ef20	-0.114225626
224	0x3e859907	0.26093313
225	0xbd65d989	-0.05611566
226	0xbe213373	-0.15742283
227	0xbd180f10	-0.03712374
228	0xbe4a9de3	-0.19786792
229	0x3c993f93	0.018707072
230	0x3d47e27a	0.04879997
231	0x3e262f05	0.16228874
232	0x3e65d96e	0.22446224
233	0xbd78a55c	-0.060704574
234	0xbe8e0157	-0.27735397
235	0x3e8792d4	0.26479208
236	0xbe093de2	-0.13402513
237	0xbdf9e179	-0.122012086
238	0x3dd14f86	0.10220246
239	0x3e03228e	0.1280615
240	0xbd47931b	-0.048724275
241	0x3e188727	0.14895307
242	0xbbfe0426	-0.0077519594
243	0x3e3bbf6e	0.18334743
244	0xbe16dd7b	-0.14732926
245	0x3deec80c	0.1165925
246	0xb97844a8	-0.000236767
247	0xbd8d1733	-0.068891905
248	0xbd4e0e5b	-0.05030666
249	0x3e6a6a37	0.2289208
250	0x3e51da95	0.20493539
251	0x3b0e4d8c	0.0021713702
252	0x3e844611	0.25834706
253	0x3d813d4e	0.06310521
254	0x3e6dc738	0.23220527
255	0xbbc2f138	-0.0059491657

W__2980 f4 [1, 192, 128]
0	0xbdd3632c	-0.1032165
1	0x3e222929	0.15836014
2	0xbbc02d18	-0.0058647506
3	0xbcfdf6d5	-0.031001488
4	0x3e0f0ebd	0.13970466
5	0x3ecaeb02	0.39632422
6	0xbe0ff3cb	-0.14057843
7	0x3d9378d4	0.072007805
8	0xbe837653	-0.25676212
9	0x3e8fa7e8	0.2805779
10	0x3ebb38dc	0.36566818
11	0x3ed0949e	0.40738386
12	0x3d78d941	0.060754064
13	0xbec46bd3	-0.38363513
14	0x3e244552	0.16042069
15	0x3e487064	0.19574124
16	0x3dded6fb	0.10880848
17	0xbe831ee9	-0.2560952
18	0x3dea353a	0.114359334
19	0x3e831d05	0.25608078
20	0x3d24aadd	0.04020201
21	0x3d858786	0.0651999
22	0x3eba5ac5	0.36397377
23	0x3e8c53c3	0.27407655
24	0x3e47d641	0.19515325
25	0x3dd7f50b	0.10544785
26	0xbda60466	-0.08106308
27	0xbe0d2f8f	-0.13787673
28	0xbe5e38af	-0.2170131
29	0xbde0382d	-0.10948215
30	0xbd9e7b80	-0.077383995
31	0x3cf74704	0.03018523
32	0xbe75dcf5	-0.2401007
33	0xbe4e9827	-0.20175229
34	0xbd61b00a	-0.055099525
35	0xbd6e0f52	-0.05812008
36	0xbd84ebe2	-0.064903036
37	0x3da35022	0.079742685
38	0x3d2d4d28	0.04230991
39	0xbe29d165	-0.16583784
40	0x3ea92683	0.33037195
41	0xbe89c29a	-0.26906282
42	0xbde36c94	-0.11104694
43	0xbe95c832	-0.292543
44	0xbd79da71	-0.060999338
45	0x3cccf382	0.025018457
46	0xbe84cd2a	-0.25937778
47	0x3dae9459	0.08524389
48	0x3e940ad3	0.28914508
49	0xbe26c404	-0.16285712
50	0x3ebf299a	0.37336427
51	0xbe48db3f	-0.19614886
52	0x3d92b027	0.07162505
53	0xbebeae1c	-0.3724221
54	0xbe0aa574	-0.13539678
55	0xbe0340ae	-0.12817642
56	0x3eb12a6b	0.34602675
57	0xbdd134b8	-0.102151334
58	0xbe165c09	-0.14683546
59	0x3ed7d6b6	0.42156
60	0x3ece3f15	0.40282503
61	0xbe01c4aa	-0.12672678
62	0x3d527a96	0.05138644
63	0xbdfa742d	-0.1222919
64	0xbe651d84	-0.2237454
65	0x3e10299b	0.14078371
66	0xbed036af	-0.4066672
67	0xbda1d766	-0.07902412
68	0x3c9e4267	0.019318772
69	0xbbef6eca	-0.0073069083
70	0x3e9bd65a	0.30436975
71	0x3d927d9c	0.07152864
72	0x3e78d4be	0.24299905
73	0x3db9ffab	0.09081968
74	0xbc3e7834	-0.011625338
75	0xbdfd2b85	-0.12361816
76	0x3ecc1b55	0.39864603
77	0x3e18629b	0.14881365
78	0xbe2b67ac	-0.16738766
79	0x3e55b9f5	0.20871718
80	0xbd043084	-0.03227283
81	0xbcbe8be2	-0.02326006
82	0x3bf03927	0.007331032
83	0xbd4ba61e	-0.04971897
84	0xbd90b977	-0.070666246
85	0x3e1130c5	0.1417876
86	0x3d9b6914	0.075884014
87	0x3e071299	0.13190688
88	0x3cde8901	0.027164938
89	0xbde4559a	-0.1114914
90	0x3ec64fbd	0.3873271
91	0xbe94a2c3	-0.29030427
92	0x3e89e0ee	0.2692942
93	0x3e4efbbb	0.20213215
94	0x3d8c9923	0.06865146
95	0x3e892f12	0.26793724
96	0xbe2597f1	-0.16171242
97	0xbdfe9ba2	-0.12432028
98	0xbe436365	-0.19080885
99	0x3da8e1e5	0.08246211
100	0x3de232f5	0.110448755
101	0xbe164cc4	-0.14677721
102	0x3dd0a469	0.10187609
103	0x3e846da8	0.2586491
104	0xbe01ba72	-0.1266878
105	0xbdaf3f31	-0.08556975
106	0x3e5d453c	0.21608442
107	0x3e6ce5cd	0.23134537
108	0x3e061d6d	0.13097163
109	0x3e4f9666	0.20272216
110	0x3e850710	0.2598195
111	0x3eaac5f1	0.33354142
112	0x3e832f3b	0.2562197
113	0xbe433a63	-0.19065242
114	0xbde5ff1c	-0.11230299
115	0xbe9117a1	-0.2833834
116	0x3d40695c	0.04697548
117	0xbe758d3a	-0.23979655
118	0x3e292f1a	0.16521874
119	0x3e0c407b	0.13696472
120	0x3ea1449b	0.31497654
121	0x3e93516e	0.28773063
122	0xbe95539b	-0.29165348
123	0xbe23eea7	-0.16009007
124	0xbea48a68	-0.32136846
125	0xbcfffd4b	-0.03124871
126	0xbe88d9e4	-0.26728737
127	0xbe023115	-0.12714036
128	0x3d301eea	0.042998232
129	0x3c05eb41	0.008173765
130	0x3c5a5fd0	0.013328508
131	0xbe536ce9	-0.20647015
132	0x3d29b678	0.04143378
133	0x3e1443e7	0.14479028
134	0xbe19a9c8	-0.15006173
135	0xbd8cf947	-0.068834834
136	0xbd2221c9	-0.039583
137	0xbd982fe8	-0.074310124
138	0x3e3420a8	0.17590582
139	0x3e312a2f	0.17301248
140	0x3e5e4d17	0.21709095
141	0x3d5760ce	0.052582555
142	0x3d6c1616	0.05763825
143	0xbda2b6be	-0.079450116
144	0x3e0125ce	0.12612078
145	0xbe78e65c	-0.24306625
146	0xbc4beb76	-0.012446275
147	0x3e02fd17	0.12791859
148	0x3c8b60d3	0.017013943
149	0x3e2c1071	0.16803147
150	0x3e20a151	0.15686537
151	0x3c3464b0	0.011010334
152	0x3cc93839	0.024562942
153	0x3dc214fb	0.09476658
154	0x3c72b6f2	0.014814125
155	0x3de7b594	0.1131393
156	0x3c038532	0.008027362
157	0xbad01ced	-0.0015877761
158	0x3da743ea	0.081672505
159	0xbd60bddc	-0.054868564
160	0x3cca9c6d	0.024732793
161	0xbd4c5b74	-0.049891904
162	0x3c0e4844	0.008684222
163	0xbd52b522	-0.051442273
164	0xbd872e32	-0.06600608
165	0x3dfa785b	0.12229987
166	0xbda624da	-0.08112498
167	0xbe4d1acd	-0.20029755
168	0x3e2d2998	0.16910398
169	0xbe16a79d	-0.14712377
170	0xbe3a2f0c	-0.1818201
171	0xbd07ef00	-0.033186913
172	0x3e5fe87c	0.2186603
173	0x3c6c780b	0.014432917
174	0x3d1f8f7e	0.038955204
175	0xbd81b298	-0.06332892
176	0x3e03b291	0.12861086
177	0x3d8353f9	0.06412501
178	0x3e803258	0.2503841
179	0xbdd652a2	-0.1046498
180	0xbe3ff90e	-0.1874735
181	0xbdaf7c95	-0.08568684
182	0xbe5a8807	-0.21340953
183	0x3e106abe	0.14103219
184	0x3dbc96aa	0.092084244
185	0x3ddd7d75	0.10814945
186	0xbd4b03fc	-0.049564347
187	0x3e5e7c57	0.2172712
188	0xbd114594	-0.035466745
189	0xbdb804de	-0.08985303
190	0xbd1128c2	-0.03543926
191	0x3d7c212b	0.06155507
192	0xbca9a48e	-0.020708349
193	0xbd98eedd	-0.074674346
194	0xbd2819a3	-0.041040074
195	0xbd8c9f63	-0.06866338
196	0x3d44a1d2	0.048005886
197	0xbd61725d	-0.055040706
198	0x3c617f59	0.013763272
199	0xbe222ff7	-0.1583861
200	0xbbb51f99	-0.0055274484
201	0x3dfdeeaa	0.12399037
202	0x3c7c06ad	0.015382451
203	0xbe60861d	-0.2192616
204	0x3e475f8d	0.19470043
205	0x3e75f907	0.24020778
206	0xbd20d301	-0.03926373
207	0x3e2bba49	0.16770281
208	0xbd650457	-0.055912342
209	0xbe0b8b1e	-0.13627288
210	0xbe2dab33	-0.16959839
211	0x3e1e3822	0.154511
212	0x3dcc0453	0.09961762
213	0x3e3bfc4d	0.18357964
214	0xbdb8b2b6	-0.090184614
215	0xbd086c4b	-0.0333064
216	0xbdfde4e1	-0.12397171
217	0xbe0315a8	-0.1280123
218	0x3c437dcf	0.011931851
219	0x3d627a35	0.055292327
220	0xbdc8d8d9	-0.098069854
221	0xbca4ba77	-0.020108445
222	0xbe00c65c	-0.12575668
223	0x3e40c651	0.18825652
224	0x3e19f4dd	0.15034814
225	0xbdf60be4	-0.12013987
226	0xbd4d3d42	-0.050107248
227	0xbdc0bac6	-0.09410624
228	0xbd415664	-0.04720153
229	0xbe203620	-0.15645647
230	0x3cee0173	0.029053425
231	0x3dba86eb	0.09107765
232	0x3d13c9c5	0.036081094
233	0xbdffd110	-0.124910474
234	0x3de7e23d	0.113224484
235	0x3e7b3b19	0.24534263
236	0xbe31ee1a	-0.17375985
237	0x3dfed4da	0.12442942
238	0x3dd73985	0.10509018
239	0x3e622181	0.22083093
240	0x3d815984	0.06315902
241	0xbddc96b2	-0.1077093
242	0xbe13fb96	-0.14451441
243	0xbe0815a8	-0.13289511
244	0x3e4b8259	0.19873942
245	0xbe5eff90	-0.21777177
246	0x3ddda662	0.10822751
247	0x3e3b5eab	0.18297832
248	0x3ddaad03	0.106775306
249	0x3e1c5da0	0.1527009
250	0xbe8e92d6	-0.27846402
251	0xbde3ce29	-0.11123306
252	0xbe1d5bf2	-0.15367106
253	0xbd07baa2	-0.03313697
254	0xbd55ee4b	-0.052229207
255	0xbe563b43	-0.20921044

W__2967 f4 [1, 384, 6]
0	0xbf067d08	-0.5253453
1	0xbeab9bfb	-0.3351744
2	0xbe97b2ed	-0.29628697
3	0xbeedcd26	-0.46445578
4	0xbe812d5c	-0.2522992
5	0x3d24ce93	0.040236067
6	0x3dc96622	0.098339334
7	0x3dc8b4b1	0.09800089
8	0x3e4f1c64	0.20225674
9	0x3d9c72ac	0.076390594
10	0x3e3fb1af	0.18720125
11	0x3cfcb9fa	0.0308504
12	0xbddffa81	-0.10936452
13	0xbe8a266f	-0.26982448
14	0xbe67c636	-0.22634205
15	0xbed8109e	-0.42200178
16	0xbeb477e8	-0.3524773
17	0xbd906357	-0.070501976
18	0xbeb7c2a0	-0.35890675
19	0xbddd4da9	-0.10805828
20	0xbe57530d	-0.21027775
21	0xbe60d1d4	-0.21955043
22	0x3d98e1a0	0.074649096
23	0x3cb860fa	0.02250718
24	0x3e1d001e	0.15332076
25	0x3dd5a54b	0.10431918
26	0x3d790a06	0.060800575
27	0x3e16d680	0.14730263
28	0xbc85ce2d	-0.016333664
29	0xbda6d017	-0.08145159
30	0xbe4d7fa7	-0.20068227
31	0xbd000056	-0.03125032
32	0x3ca40e71	0.020026417
33	0xbdab7950	-0.08372748
34	0x3db8fb8a	0.09032352
35	0x3e22ea4c	0.1590969
36	0xbd3542a8	-0.04425302
37	0x3ddd7e46	0.108151
38	0xbdfcacec	-0.1233767
39	0xbe367d59	-0.17821254
40	0x3e18da01	0.14926912
41	0x3cd813f9	0.026376711
42	0xbf030691	-0.51181895
43	0xbe9e0a64	-0.30867302
44	0xbe8c1582	-0.2736016
45	0xbedfebe5	-0.4373466
46	0xbef0d980	-0.4704094
47	0x3db45cf9	0.088067956
48	0xbc2e54f5	-0.0106403725
49	0x3d0eb3dd	0.0348395
50	0x3cb19eda	0.021682192
51	0xbe56a481	-0.20961191
52	0xbc348ffd	-0.011020658
53	0x3ce678d5	0.02813379
54	0xbeb18e32	-0.346788
55	0xbeb80d18	-0.3594749
56	0xbef16b2f	-0.47152087
57	0xbf00c7d0	-0.5030489
58	0xbe983266	-0.2972595
59	0xbcdb51b8	-0.026772365
60	0xbea6a502	-0.32547766
61	0xbe23815f	-0.1596732
62	0xbe70be32	-0.23510054
63	0xbebcaf69	-0.36852577
64	0xbeb15f2e	-0.3464293
65	0x3de16088	0.1100474
66	0xbdf2542b	-0.1183246
67	0xbe62e660	-0.22158194
68	0xbec9574b	-0.39324412
69	0xbe4e95a1	-0.20174266
70	0xbe081b13	-0.13291578
71	0x3d82813f	0.06372308
72	0xbd832a39	-0.06404538
73	0xbe73d0bd	-0.23810096
74	0xbe7b908b	-0.24566858
75	0xbe9a2b5c	-0.30111206
76	0xbe5b1925	-0.2139631
77	0x3d9baaac	0.076009125
78	0x3e900113	0.2812582
79	0x3e8cea9d	0.27522746
80	0x3e2ee700	0.17080307
81	0x3eabe713	0.33574733
82	0x3e866475	0.26248518
83	0xbc88272f	-0.016620247
84	0xbe2a2afd	-0.16617961
85	0xbdc253d4	-0.09488645
86	0xbe11a554	-0.14223224
87	0xbe6239e5	-0.22092398
88	0xbe4121aa	-0.18860498
89	0xbd6ad84d	-0.057335187
90	0xbe4919f6	-0.1963881
91	0xbeb4e76c	-0.3533281
92	0xbec5f93f	-0.38666722
93	0xbe62e02a	-0.22155824
94	0xbeba3dae	-0.36375183
95	0xbb8f98f1	-0.0043822457
96	0x3e683e42	0.2268
97	0x3d0f3705	0.03496458
98	0x3d3619af	0.044458088
99	0x3c9403cf	0.018068222
100	0x3e03eb47	0.1288272
101	0x3c1ec1c9	0.009689757
102	0x3e2d939c	0.1695084
103	0x3e2c83b3	0.16847114
104	0xbd8be0c4	-0.0682998
105	0xbe248bd7	-0.1606897
106	0xbdb73a17	-0.08946627
107	0xbd7b54c6	-0.061360143
108	0xbe645c20	-0.22300768
109	0xbe00a858	-0.12564218
110	0xbe42c4e9	-0.19020428
111	0xbe2f95e4	-0.17147022
112	0x3d3af9ef	0.04564851
113	0xbb38c466	-0.0028193234
114	0xbdd602cf	-0.104497544
115	0xbe70862e	-0.23488685
116	0xbe86d8af	-0.2633719
117	0xbe4b2717	-0.1983913
118	0xbe66cae1	-0.2253833
119	0x3db8f17c	0.090304345
120	0xbe88d55b	-0.26725277
121	0xbe75f16a	-0.24017873
122	0xbeb64f13	-0.35607204
123	0xbeb65eb9	-0.35619143
124	0xbec42f5c	-0.38317382
125	0x3d8c6e21	0.06856943
126	0xbee7bcdc	-0.45261276
127	0xbeeab215	-0.4583899
128	0xbee936da	-0.4554966
129	0xbecfdeab	-0.4059957
130	0xbeca3e6a	-0.39500743
131	0xbc8e2fb5	-0.017356733
132	0x3cbb2a7b	0.022847405
133	0xbd4604e0	-0.048344493
134	0x3a8e269d	0.0010845248
135	0xbd65df1e	-0.056120984
136	0xbe7959dd	-0.24350686
137	0xbdd9d185	-0.10635666
138	0xbe17a456	-0.14808783
139	0xbdd1b30d	-0.10239229
140	0xbdf63181	-0.12021161
141	0xbdcb1de3	-0.0991781
142	0xbe2a4d35	-0.16631015
143	0x3d43a590	0.047765315
144	0xbe641103	-0.22272114
145	0x3de66dda	0.11251421
146	0x3dd36fc0	0.10324049
147	0xbdcc144a	-0.09964807
148	0xbd8b43f6	-0.06800072
149	0xbe01218e	-0.12610456
150	0xbca75d94	-0.020430364
151	0xbdb9cb6d	-0.090720035
152	0xbe1a257a	-0.15053359
153	0x3c012eda	0.007884705
154	0xbe8d169b	-0.2755631
155	0x3de046cf	0.10951006
156	0xbeade5a4	-0.33964264
157	0xbef6a781	-0.4817467
158	0xbea11cb5	-0.31467214
159	0xbed30dab	-0.41221365
160	0xbeff290d	-0.49836007
161	0x3dff08b0	0.12452829
162	0xbdf67b4d	-0.120352365
163	0xbda65ecd	-0.081235506
164	0x3d3dafbc	0.04631017
165	0xbe300025	-0.17187555
166	0xbd3d78b0	-0.046257675
167	0x3dc1dd6b	0.0946606
168	0xbeb47ae6	-0.35250014
169	0xbe8e1843	-0.27752885
170	0xbec8f0c4	-0.3924619
171	0xbeaccad5	-0.337485
172	0xbe6fc813	-0.23416166
173	0x3db02bba	0.0860209
174	0x3cd3ff38	0.025878534
175	0xbde8815b	-0.113527976
176	0x3d1b52aa	0.03792063
177	0xbd3150bf	-0.043289896
178	0xbdec2d77	-0.11532109
179	0xbc98771b	-0.018611481
180	0xbead2e46	-0.33824366
181	0xbee314cc	-0.44351804
182	0xbe8f9330	-0.28041983
183	0xbebe3929	-0.37152985
184	0xbe9ba49d	-0.30399027
185	0x3d76041d	0.060062516
186	0xbe544475	-0.2072924
187	0xbddd7fa7	-0.108153634
188	0xbe20be7f	-0.15697668
189	0xbe7fdcf6	-0.24986634
190	0x3e2e442f	0.17018197
191	0x3cd7fd8d	0.02636602
192	0x3e581933	0.21103363
193	0x3e2b7f14	0.16747695
194	0x3d6281fc	0.055299744
195	0x3dfe1779	0.12406821
196	0x3e1d54d1	0.15364386
197	0x3d32c824	0.0436479
198	0x3e4cc903	0.19998555
199	0x3e1b88e3	0.15188937
200	0x3d8aee74	0.067837626
201	0x3e44d5c7	0.19222175
202	0x3de25637	0.110516004
203	0x3d700ed0	0.058607876
204	0xbdea743c	-0.11447951
205	0xbea921ca	-0.33033592
206	0xbe8f721b	-0.28016743
207	0xbec9a053	-0.3938013
208	0xbeb19122	-0.3468104
209	0xbd7fe9ec	-0.062478945
210	0x3d27a92a	0.04093281
211	0xbe2de135	-0.16980441
212	0xbe7e0a54	-0.24808627
213	0xbd8614ea	-0.06546958
214	0xbe8274f2	-0.25479847
215	0x3e044088	0.12915242
216	0xbeb9f614	-0.36320555
217	0xbef2f2d0	-0.47450876
218	0xbef9cfb4	-0.48791277
219	0xbf010431	-0.5039702
220	0xbee8e9ce	-0.4549088
221	0xbd5c8e27	-0.053846505
222	0xbdc694f3	-0.096963786
223	0xbe2408b6	-0.16018948
224	0xbe0b4e23	-0.13604026
225	0xbe8231f0	-0.25428724
226	0xbe20e7f9	-0.1571349
227	0x3d8d6208	0.069034636
228	0xbe994ff3	-0.2994381
229	0xbe659ba2	-0.2242265
230	0xbe1b7a34	-0.15183336
231	0xbe4485ac	-0.19191617
232	0x3c111720	0.008855611
233	0xbdddc8a3	-0.10829284
234	0xbd7823f5	-0.060581166
235	0xbbdf4cbf	-0.006814569
236	0xbd951a23	-0.07280376
237	0xbe1cea46	-0.15323743
238	0x3d431aa4	0.04763283
239	0xbd17b38c	-0.037036464
240	0xbe3e820e	-0.186043
241	0xbe88315d	-0.2660016
242	0xbe93c5ae	-0.28861755
243	0xbe8c9ca4	-0.27463257
244	0xbe18601d	-0.14880414
245	0xbe64657e	-0.22304341
246	0xbec6a6ee	-0.38799232
247	0xbf106273	-0.5640022
248	0xbf089a89	-0.533608
249	0xbeda4b61	-0.42635635
250	0xbef9b934	-0.4877411
251	0xbdcef68d	-0.101056196
252	0x3caa8407	0.020814909
253	0x3e74dffb	0.23913567
254	0x3cd40398	0.02588062
255	0x3d978785	0.07398895

R__2995 f4 [1, 96, 32]
0	0xbdb407b3	-0.08790531
1	0x3df81323	0.12113025
2	0xbd5d4357	-0.0540193
3	0xbc04f864	-0.008115862
4	0x3e0001cb	0.12500684
5	0x3e40e92e	0.18838951
6	0x3e7c6bc0	0.24650478
7	0x3d60d59c	0.054891214
8	0xbdaf621e	-0.08563636
9	0x3da4fbf2	0.08055867
10	0x3d43ad81	0.047772888
11	0xbbe1d283	-0.00689155
12	0x3ae8868e	0.0017740296
13	0x3d81871d	0.06324599
14	0xbddbac46	-0.10726218
15	0x3d2e8469	0.042606745
16	0xbd6b5adf	-0.05745971
17	0x3ddfe571	0.10932434
18	0x3ddb0afc	0.106954545
19	0x3de59acf	0.11211168
20	0xbe270694	-0.16311103
21	0xbccc87a1	-0.024967017
22	0xbdede152	-0.11615242
23	0xbcf2ff29	-0.029662685
24	0x3deee5ad	0.11664901
25	0xbcb3d3ac	-0.021951519
26	0xbdf6c3af	-0.120490424
27	0x3e26e6c7	0.16298972
28	0x3e0db470	0.13838363
29	0xbd8b5313	-0.068029545
30	0x3dc4ea04	0.096149474
31	0x3d267397	0.04063758
32	0x3c11fd93	0.008910554
33	0x3e1b4c04	0.15165716
34	0xbb7259ce	-0.0036979797
35	0xbe17bd0a	-0.14818206
36	0xbe0db9e4	-0.13840443
37	0x3e08ca79	0.13358487
38	0x3eaf8736	0.34282845
39	0xbdd7b3af	-0.10532319
40	0xbe9b6ef1	-0.3035808
41	0xbd1cf587	-0.03832009
42	0x3e097457	0.13423286
43	0x3e56b801	0.2096863
44	0x3ca132cb	0.01967754
45	0x3e6bcf38	0.23028266
46	0xbd9549cb	-0.072894655
47	0xbdc4df76	-0.09612934
48	0xbe8ea0cd	-0.27857056
49	0x3e8b02b4	0.271505
50	0xbc354b3b	-0.0110653
51	0xbe438a1d	-0.19095655
52	0xbe1e0f89	-0.15435614
53	0xbdcd069c	-0.10011026
54	0x3d8f15cd	0.0698658
55	0x3e4df9bd	0.20114799
56	0x3df3cb79	0.11904044
57	0xbec1adcd	-0.37827912
58	0xbe747c8b	-0.23875634
59	0xbc9c7d74	-0.01910279
60	0x3da2094e	0.07911931
61	0xbded968c	-0.1160098
62	0x3e5522d1	0.20814063
63	0x3dc5594c	0.09636173
64	0xbdece303	-0.115667365
65	0x3e90005c	0.28125274
66	0x3ca3969c	0.019969277
67	0x3e8ce65d	0.27519503
68	0x3c96fbf5	0.01843069
69	0xbd0ab0ce	-0.03386002
70	0x3e9451c5	0.28968635
71	0xbda469c7	-0.08027988
72	0xbe5cc1a3	-0.21558242
73	0xbdae45ef	-0.085094325
74	0xba6be796	-0.00089990476
75	0x3e57f1ff	0.21088408
76	0x3d064d7c	0.03278874
77	0x3ebfd4d8	0.37467074
78	0xbdca2812	-0.09870924
79	0xbe152df6	-0.14568314
80	0xbef670cc	-0.48132932
81	0x3e6bbd18	0.23021352
82	0x3eb47fb1	0.3525367
83	0xbe553404	-0.20820624
84	0x3c858519	0.016298817
85	0xbe99fc0e	-0.30075115
86	0x3e539f47	0.20666228
87	0x3ed098ae	0.40741485
88	0x3e8a7169	0.2703965
89	0xbd9414c0	-0.0723052
90	0xbe3eae65	-0.18621214
91	0xbe10dd65	-0.14146955
92	0x3d67d289	0.056597266
93	0x3d87fb7c	0.06639764
94	0x3dce6dcb	0.10079535
95	0x3e6fa00e	0.234009
96	0x3d6edc4a	0.058315553
97	0x3e4a5d5f	0.19762181
98	0xbe6be4fb	-0.23036568
99	0xbdd04328	-0.10169059
100	0x3e169414	0.14704925
101	0x3e212926	0.15738353
102	0x3e7e2f10	0.2482264
103	0xbc374f15	-0.011188288
104	0xbd679758	-0.056540817
105	0x3e1244a3	0.14283995
106	0xbd6bfb2c	-0.057612583
107	0x3e05c792	0.13064411
108	0x3e70bdb9	0.23509873
109	0x3e9d9f92	0.30785805
110	0xbe82c137	-0.25538036
111	0xbdbea874	-0.09309474
112	0xbdf54102	-0.1197529
113	0x3d83121b	0.06399938
114	0x3e030ce0	0.1279788
115	0xbe7be6e2	-0.24599794
116	0xbe6160fd	-0.22009654
117	0xbd1ff4d3	-0.039051842
118	0x3e9b1149	0.30286625
119	0x3e7625f5	0.24037917
120	0x3e686493	0.22694616
121	0x3c854dab	0.016272387
122	0xbe483e51	-0.19555022
123	0xbe580891	-0.21097018
124	0x3e24875b	0.16067259
125	0x3d8ccf0b	0.06875428
126	0x3c02b34f	0.007977321
127	0x3e9a66a0	0.30156422
128	0xbda9737f	-0.08273982
129	0x3de52690	0.11188996
130	0xbc4fc0f1	-0.012680278
131	0x3ea5f9b8	0.32417083
132	0x3da7f9df	0.08201956
133	0xbd657c4c	-0.05602674
134	0xbd4a01fc	-0.0493183
135	0xbb9a9f8f	-0.004718728
136	0xbe401013	-0.18756132
137	0xbd980992	-0.074237004
138	0xbcf96713	-0.030444657
139	0x3d89654e	0.067087755
140	0x3dd782e6	0.10523014
141	0x3de9ad2b	0.11409982
142	0xbc90336c	-0.017602645
143	0xbe456ebc	-0.19280523
144	0xbdbfa41f	-0.093574755
145	0xbda90cf4	-0.08254424
146	0x3e38c721	0.18044712
147	0xbdc0b0ba	-0.09408708
148	0x3e2edf5c	0.17077392
149	0xbbcd1fc8	-0.006259892
150	0x3dfe0267	0.12402802
151	0xbda76eb3	-0.08175411
152	0x3d267346	0.040637277
153	0xbc809a5f	-0.01569861
154	0xbe972cc0	-0.2952633
155	0x3e282160	0.16418982
156	0xbdb5d440	-0.08878374
157	0xbaca5b30	-0.0015438553
158	0xbe5509c9	-0.20804514
159	0xbdaffbfa	-0.085929826
160	0xbdc8e41d	-0.09809134
161	0x3bcbc80f	0.006218917
162	0xbd9cb9be	-0.07652615
163	0xbd158fed	-0.03651421
164	0x3a648594	0.00087174145
165	0x3d377e08	0.044797927
166	0x3c571362	0.01312718
167	0xbdc691ee	-0.09695803
168	0xbd8b4f54	-0.0680224
169	0xbda4d707	-0.08048826
170	0xbd94105a	-0.07229681
171	0x3b5cc83b	0.0033688683
172	0x3df5d970	0.120043635
173	0x3e0efd34	0.13963777
174	0x3c790083	0.015197876
175	0x3d9d8fb6	0.07693426
176	0x3cea68e5	0.02861447
177	0x3d0463ae	0.032321624
178	0x3e3fcdff	0.18730925
179	0xbe5278d3	-0.20553903
180	0x3ca52118	0.020157382
181	0xbe6fd032	-0.23419264
182	0x3e763a9e	0.24045798
183	0x3e3472d2	0.17621925
184	0xbe21eab2	-0.15812185
185	0x3d3a54df	0.045491096
186	0xbe5b4020	-0.2141118
187	0xbd9713b4	-0.07376805
188	0xbe00b9f8	-0.12570941
189	0xbe2a4ef7	-0.16631685
190	0xbda4718f	-0.08029472
191	0x3e5b3933	0.21408539
192	0xbdb24bce	-0.08705865
193	0x3e256c7d	0.16154666
194	0xbd0b80db	-0.034058433
195	0x3e29b234	0.16571885
196	0x3aeeb1d4	0.0018210956
197	0x3e433ce1	0.19066192
198	0x3e90287f	0.28155896
199	0xbda677bf	-0.081283085
200	0xbe5f6480	-0.21815681
201	0xbe10cf78	-0.14141643
202	0xbded59e4	-0.11589411
203	0x3d4e2e52	0.050337143
204	0x3d0e7685	0.034780998
205	0x3e1a45b9	0.1506566
206	0xbe0c83c7	-0.13722144
207	0xbd46d059	-0.04853854
208	0xbe40ac4d	-0.18815728
209	0x3e05c0d0	0.13061833
210	0x3b3f7832	0.002921593
211	0xbe87f30b	-0.26552615
212	0xbe1461e6	-0.1449047
213	0xbe8a353c	-0.2699374
214	0x3e6d3d30	0.23167872
215	0x3de07f8f	0.1096183
216	0x3f05d900	0.5228424
217	0x3c904368	0.017610267
218	0x3d816c05	0.06319431
219	0x3de9c117	0.11413782
220	0x3e2a6c9f	0.16642998
221	0x3d840fcc	0.064483255
222	0x3d802c8b	0.06258496
223	0xbdaa35ff	-0.0831108
224	0xbdf0195f	-0.11723589
225	0x3e15bc03	0.14622502
226	0xbe5ed327	-0.21760236
227	0x3de36c65	0.11104659
228	0xbd8d5f0e	-0.06902896
229	0x3db140d7	0.08654945
230	0x3ea07271	0.31337312
231	0xbeb104d2	-0.3457399
232	0xbe5bb070	-0.21454024
233	0x3e449381	0.19196893
234	0xbdde3d1f	-0.10851502
235	0x3e1956b0	0.14974475
236	0x3cbc694c	0.022999428
237	0x3e990472	0.29886204
238	0xbe96683c	-0.293764
239	0x3c9ca364	0.01912088
240	0xbe923213	-0.2855383
241	0x3d2e106d	0.042496134
242	0x39e2403b	0.00043153935
243	0xbe0d71d6	-0.13812956
244	0xbde87e6b	-0.11352237
245	0xbe72e629	-0.23720612
246	0x3e2d7420	0.1693883
247	0x3e51d6a5	0.20492037
248	0x3eb15b96	0.34640187
249	0xbe4f7763	-0.20260386
250	0xbdb88594	-0.09009853
251	0xbeaddd44	-0.33957875
252	0x3e42a90f	0.19009803
253	0x3e792ec3	0.24334244
254	0x3d1447a1	0.036201123
255	0x3eaab4e3	0.3334113

R__2981 f4 [1, 192, 64]
0	0xbd786bb1	-0.060649578
1	0xbec68400	-0.38772583
2	0x3e3a47f1	0.18191506
3	0x3c422ddf	0.011851757
4	0x3d41874a	0.047248162
5	0x3e9d3706	0.30706042
6	0x3e4136fa	0.18868628
7	0xbea9ad5c	-0.33140075
8	0x3ce16785	0.027515182
9	0x3ea8c99a	0.3296631
10	0x3ca56f45	0.020194659
11	0xbc1d99c0	-0.009619176
12	0xbe8d27e8	-0.2756951
13	0xbea3618e	-0.31910366
14	0xbce15ee6	-0.027511071
15	0x3c86dcab	0.016462645
16	0xbf004abc	-0.50114036
17	0xbcd8b888	-0.026455179
18	0x3bb48f44	0.0055102427
19	0xbea6e0b2	-0.32593304
20	0xbda6569a	-0.08121987
21	0xbe2fc99b	-0.1716675
22	0xbd96602e	-0.073425636
23	0x3e6c4af2	0.23075464
24	0x3e663560	0.22481298
25	0xbe3e2e89	-0.18572439
26	0x3c888a9f	0.016667662
27	0x3e201994	0.15634757
28	0xbe2791de	-0.16364238
29	0xbe86b3d2	-0.26309067
30	0x3ec65ec7	0.38744184
31	0x3e133415	0.14375336
32	0x3e9fba82	0.31196982
33	0xbcbeae75	-0.023276547
34	0xbe84216f	-0.25806758
35	0xbe962e9a	-0.2933243
36	0xbddb6cce	-0.10714112
37	0xbebeb672	-0.3724857
38	0xbe2fda0a	-0.17173019
39	0x3dd75458	0.10514134
40	0x3e3cd17e	0.1843929
41	0x3e84c823	0.25933942
42	0xbe2f9bb3	-0.17149238
43	0x3e4bb0e4	0.19891697
44	0x3e1dc7ad	0.15408202
45	0xbea379f0	-0.31928968
46	0x3e9cfc40	0.306612
47	0x3d320804	0.043464676
48	0xbde90583	-0.113780044
49	0x3e25911e	0.16168639
50	0x3e59ae85	0.2125798
51	0xbc36fdb9	-0.011168891
52	0xbe6b58fb	-0.22983162
53	0x3e0d0b1e	0.13773772
54	0x3e70daf3	0.23521022
55	0xbe240ff2	-0.16021708
56	0x3e8f3a7b	0.27974305
57	0x3ea66ab4	0.32503283
58	0x3e8b7428	0.27237058
59	0x3e226d2e	0.15861961
60	0x3e96c8f8	0.29450202
61	0xbe286a5d	-0.16446824
62	0x3eabd2cf	0.33559272
63	0xbe2ae36e	-0.1668832
64	0xbd617c08	-0.055049926
65	0xbd954278	-0.072880685
66	0x3d5bb16d	0.053636003
67	0xbd2a68a7	-0.04160371
68	0x3d041488	0.032246143
69	0x3d8ecffb	0.06973263
70	0x3e1d0b8a	0.15336433
71	0xbe051854	-0.12997562
72	0xbd211974	-0.039330915
73	0x3df7e6e0	0.12104583
74	0xbd4a756a	-0.04942838
75	0x3b474fbb	0.0030412513
76	0xbdd75547	-0.10514312
77	0xbdaaf898	-0.08348197
78	0x3bb3310e	0.0054684943
79	0x3d4683d3	0.04846556
80	0x3d006b3b	0.031352263
81	0x3b49f534	0.0030816318
82	0xbe0a668e	-0.13515684
83	0xbd7c785a	-0.061638214
84	0xbe23adb4	-0.15984231
85	0xbd2d278c	-0.042274043
86	0x3d592b97	0.053020086
87	0x3d9a3095	0.075287975
88	0x3c7896ac	0.015172642
89	0xbe8517f0	-0.25994825
90	0xbbd4027f	-0.006470024
91	0x3d888a40	0.06666994
92	0xbe2f979d	-0.1714768
93	0xbe49939c	-0.19685215
94	0x3e41e860	0.189363
95	0xbc22f0fe	-0.009945152
96	0x3cb9b620	0.022669852
97	0x3c994815	0.01871113
98	0xbe1bf6fc	-0.15230936
99	0xbd2bb588	-0.04192117
100	0xbe09a079	-0.13440122
101	0xbe266421	-0.16249134
102	0x3d3be288	0.045870334
103	0xbe37936e	-0.17927334
104	0x3d842a95	0.064534344
105	0x3e240a95	0.16019662
106	0x3d61316e	0.05497878
107	0x3e112b63	0.14176707
108	0xbdcd7d9e	-0.10033725
109	0xbdb9c6fa	-0.09071155
110	0x3deb871f	0.11500382
111	0xbd910c23	-0.07082393
112	0xbd308a37	-0.043100562
113	0x3dac7b5b	0.08421966
114	0x3e375282	0.17902568
115	0x3c3ce218	0.011528514
116	0xbdd6bccf	-0.10485231
117	0x3e0ec956	0.13943991
118	0x3daa5758	0.08317441
119	0xbe52ae62	-0.20574334
120	0x3d307354	0.043078735
121	0x3c70ed0f	0.014704957
122	0xbcb1a2d0	-0.02168408
123	0xbd48203f	-0.048858877
124	0x3c00e29d	0.007866529
125	0xbd810d7e	-0.063014016
126	0x3def05d7	0.11671036
127	0x3e20489e	0.15652701
128	0xbd97b93c	-0.074083775
129	0xbe3cd7be	-0.18441674
130	0x3e4992b0	0.19684863
131	0x3d588b5c	0.05286728
132	0x3cd7c8ba	0.026340831
133	0x3e2721a7	0.16321431
134	0x3e237d2f	0.15965723
135	0xbdf40231	-0.119144805
136	0x3da4a613	0.08039489
137	0x3dfd54cd	0.1236969
138	0x3dcce148	0.100039065
139	0xbdac8381	-0.0842352
140	0xbd92da14	-0.07170501
141	0xbde3324a	-0.11093576
142	0x3dcda3f9	0.10041041
143	0x3b26c630	0.0025447719
144	0xbd56aba7	-0.052409794
145	0x3d7af9e2	0.061273463
146	0x3d82b3c6	0.06381945
147	0xbe65cbeb	-0.2244107
148	0xbe7cef61	-0.24700691
149	0x3d2211d3	0.03956778
150	0xbd98d7ca	-0.074630335
151	0x3da4ca9d	0.08046458
152	0x3d6b300e	0.057418875
153	0x3c203283	0.009777668
154	0x3e86a66f	0.26298854
155	0xbd583811	-0.052787844
156	0xbc298d4e	-0.010348631
157	0xbdb7cc56	-0.08974521
158	0x3e21044b	0.15724294
159	0x3e5f1707	0.21786128
160	0x3cad6677	0.021167023
161	0xbdd59265	-0.10428313
162	0x3dc44930	0.09584272
163	0xbd2459ab	-0.040124577
164	0xbdc2c68c	-0.09510526
165	0xbc38cbae	-0.01127903
166	0xbd7f5af3	-0.062342595
167	0xbdcbd3d3	-0.09952512
168	0xbd111176	-0.035417043
169	0xbdca7a65	-0.09886626
170	0x3d67f3e1	0.056629065
171	0x3ea302a7	0.3183796
172	0xbd1d1e09	-0.038358722
173	0xbcd53fb0	-0.026031345
174	0x3e5026d9	0.20327319
175	0xbe86ff52	-0.2636667
176	0xbd81ab2c	-0.063314766
177	0x3e3b6f00	0.18304062
178	0x3dc882ca	0.09790571
179	0xbdee0d4a	-0.116236284
180	0xbde7b223	-0.11313274
181	0x3e410489	0.18849386
182	0x3b87fcce	0.0041500097
183	0x3c95ab5c	0.018270187
184	0x3e45b706	0.19308099
185	0x3e2e92d9	0.17048205
186	0x3e575a43	0.21030526
187	0xbd846ef3	-0.064664744
188	0xbdcae54e	-0.09907018
189	0xbe1bad16	-0.15202746
190	0x3e651928	0.22372878
191	0xbc2c60ca	-0.010521123
192	0xbe190afe	-0.149456
193	0xbe301255	-0.17194493
194	0x3e1834cf	0.14863895
195	0x3dcf2b8d	0.101157285
196	0xbc7a480d	-0.015275967
197	0x3e7ba9ab	0.24576442
198	0x3e7ef8b7	0.24899565
199	0xbe1a98aa	-0.15097299
200	0xbcab1318	-0.020883128
201	0x3e276fb7	0.1635121
202	0x3e552030	0.2081306
203	0xbcf33c56	-0.029691856
204	0xbe6584da	-0.2241396
205	0xbea30cd1	-0.31845716
206	0x3dced3f2	0.10099019
207	0x3e5166f5	0.20449431
208	0xbe97cdc7	-0.29649183
209	0xbe5d204f	-0.21594356
210	0x3d6a7d29	0.05724827
211	0xbe9ce3cc	-0.30642545
212	0xbc81c34d	-0.015840197
213	0x3cb0ab49	0.02156605
214	0xbb292254	-0.0025807815
215	0x3e2a47ab	0.16628902
216	0x3d476d18	0.048688024
217	0xbe931da1	-0.28733543
218	0xbd27f3da	-0.04100404
219	0x3be73191	0.0070554693
220	0xbe3339bb	-0.17502491
221	0xbe1b81cf	-0.15186237
222	0x3e9b196b	0.3029283
223	0x3db026d9	0.086011596
224	0x3e93bc68	0.2885468
225	0x3e4c0063	0.19922023
226	0xbe466f6f	-0.19378446
227	0xbe6cfbc5	-0.23142917
228	0xbd233dca	-0.03985385
229	0xbdc88a41	-0.09791995
230	0xbd2a39ac	-0.041558906
231	0x3e5b7bfa	0.21434012
232	0x3c50f65e	0.012754051
233	0x3e7f2c74	0.24919301
234	0xbe0a653c	-0.1351518
235	0x3e6dd259	0.23224773
236	0x3e0ca0b3	0.13733177
237	0xbe55d6fa	-0.20882788
238	0x3e164d6a	0.14677969
239	0x3b874483	0.0041280403
240	0xbd913e00	-0.07091904
241	0x3d9a00bc	0.07519671
242	0x3e9c16fd	0.3048629
243	0x3c2be900	0.010492563
244	0xbe905c98	-0.28195643
245	0x3cf682e2	0.030091707
246	0x3de74237	0.11291926
247	0xbe1be8ef	-0.15225576
248	0x3ddbaa01	0.10725785
249	0x3e2e8ac8	0.17045128
250	0x3e524d53	0.2053731
251	0x3dacec05	0.08443455
252	0x3e406089	0.18786825
253	0xbe057296	-0.13031992
254	0x3ebb4396	0.36575
255	0xbdd0c1ef	-0.1019324

R__2968 f4 [1, 384, 128]
0	0xbbc18c01	-0.0059065823
1	0x3dfa681b	0.12226888
2	0xbe7b9774	-0.24569494
3	0x3d1cbfde	0.038268916
4	0x3d8eb965	0.06968955
5	0x3e8f6273	0.28004798
6	0xbe65c058	-0.22436655
7	0x3e621e9c	0.22081989
8	0xbd84b494	-0.06479755
9	0x3eb5030b	0.35353884
10	0x3e990df4	0.29893458
11	0x3e7caf7b	0.24676315
12	0xbdb855c8	-0.090007365
13	0xbdd804e4	-0.10547808
14	0x3e8bc6a8	0.273
15	0x3e5228af	0.20523332
16	0x3e07716e	0.13226864
17	0xbe5af2ac	-0.21381634
18	0x3dbd7713	0.09251227
19	0x3e78675b	0.24258177
20	0xbd5ddfe2	-0.05416859
21	0x3de3240c	0.1109086
22	0x3e55e27a	0.20887175
23	0x3e9005fe	0.28129572
24	0x3ea534ed	0.32266942
25	0x3e0d626d	0.13807078
26	0x3c931aa5	0.017957041
27	0x3e2a596e	0.16635677
28	0xbd976c13	-0.073936604
29	0x3d091b01	0.03347302
30	0xbe44a953	-0.19205217
31	0x3c4ddc80	0.012564778
32	0xbddfba6b	-0.10924228
33	0xbd915b63	-0.07097509
34	0xbe7047a0	-0.23464823
35	0xbcaf7a57	-0.02142064
36	0xbe142579	-0.1446742
37	0x3df16fa7	0.11788874
38	0x3de7c9cb	0.11317786
39	0xbe9a7b9a	-0.30172426
40	0x3e2e87bd	0.17043968
41	0xbe806b0f	-0.2508168
42	0xbe95dd95	-0.29270616
43	0xbe69f231	-0.22846295
44	0x3e57a371	0.21058442
45	0xbd913104	-0.07089427
46	0xbe9e09b6	-0.30866784
47	0x3e55174d	0.2080967
48	0x3e793649	0.24337114
49	0xbdd8dd9f	-0.10589146
50	0x3e92b05e	0.28650182
51	0xbe80b586	-0.2513849
52	0xbc2abd44	-0.010421101
53	0xbe541fd6	-0.2071527
54	0xbe63f49c	-0.2226128
55	0xbe534599	-0.20632018
56	0x3df49614	0.11942688
57	0xbd78e653	-0.06076653
58	0xbe6d1871	-0.23153855
59	0x3e3aa1d6	0.18225798
60	0x3eb1388a	0.34613448
61	0xbde02993	-0.1094543
62	0x3c5ccabd	0.013476071
63	0xbe98c6f2	-0.29839283
64	0xbb0441c4	-0.00201808
65	0xbdc8e822	-0.09809901
66	0xbe48871b	-0.19582789
67	0x3d01699a	0.03159485
68	0xbd30a753	-0.043128323
69	0xbe2193cb	-0.15779035
70	0x3e51cca9	0.20488228
71	0xbdcf8532	-0.10132827
72	0x3c34aee7	0.011028028
73	0x3dd7c85a	0.10536261
74	0x3d4009ed	0.046884466
75	0xbe45a112	-0.19299725
76	0x3e53fd38	0.20702064
77	0x3e9dc7c0	0.3081646
78	0x3c3ed3f8	0.011647217
79	0x3e8bd9fd	0.2731475
80	0x3e269548	0.16267884
81	0x3c2d0efa	0.010562653
82	0x3d8d25a7	0.06891947
83	0xbdd4929d	-0.10379527
84	0x3c2cbfae	0.010543747
85	0x3e5d748b	0.21626489
86	0x3dfab5d7	0.122417144
87	0x3e22b5f8	0.15889728
88	0xbe1406b5	-0.14455684
89	0xbd84ec05	-0.0649033
90	0x3e3acf18	0.18243062
91	0xbe581e57	-0.21105324
92	0x3e1757dd	0.14779611
93	0x3e9bcd9f	0.30430314
94	0x3e025ceb	0.12730758
95	0x3e7d15a9	0.24715294
96	0xbe06cafa	-0.13163367
97	0xbd2c6991	-0.042092863
98	0xbe2a96bd	-0.16659065
99	0x3de42563	0.111399435
100	0x3e76f838	0.24118125
101	0xbdf3862c	-0.11890826
102	0x3e21888c	0.15774745
103	0x3e04e127	0.12976514
104	0xbdb5ab0b	-0.088705145
105	0xbe4869ef	-0.1957166
106	0x3e1c6766	0.15273818
107	0x3e96a685	0.2942392
108	0x3e270358	0.1630987
109	0x3e100d83	0.14067654
110	0xbcd29aa3	-0.025708502
111	0x3eb7e8cb	0.35919794
112	0x3e9e4af9	0.30916575
113	0x3cf42ab6	0.029805522
114	0xbe972ace	-0.29524845
115	0xbe5ceec2	-0.21575454
116	0x3e37a6aa	0.17934671
117	0xbe65a731	-0.2242706
118	0x3d3fe7d5	0.04685195
119	0x3e884042	0.26611525
120	0x3e8e30dd	0.27771655
121	0x3e223984	0.15842253
122	0xbe1cf7d4	-0.15328914
123	0xbe153339	-0.14570321
124	0xbdd7e1f0	-0.10541141
125	0x3e5eca6b	0.21756904
126	0xbe8cc05d	-0.27490512
127	0xbe0f2b4f	-0.13981365
128	0x3de9a4dc	0.114083976
129	0xbd4eb387	-0.05046418
130	0x3df837c3	0.12120011
131	0x3df62c5c	0.1202018
132	0xbe09d855	-0.1346143
133	0xbdd307c2	-0.10304214
134	0x3daeab7f	0.08528804
135	0xbcd0045c	-0.025392704
136	0x3d98be1b	0.07458135
137	0xbd822f08	-0.06356627
138	0x3d88681a	0.06660481
139	0xbde72d69	-0.11287958
140	0x3e0b5a49	0.1360866
141	0x3dc8d0a4	0.0980542
142	0xbd0312ca	-0.03200034
143	0xbcd0f18f	-0.02550581
144	0x3d06552a	0.032796063
145	0x3e4f1bd3	0.20225458
146	0x3db4d76f	0.08830153
147	0xbde3ceba	-0.11123414
148	0x3d8d847a	0.069100335
149	0xbe1e2e7c	-0.1544742
150	0xbe020a61	-0.12699272
151	0xbddf96aa	-0.10917409
152	0x3cf74add	0.030187065
153	0xbdd57de8	-0.10424405
154	0xbd8cc031	-0.06872595
155	0xbe0e8f75	-0.13921912
156	0x3db3d440	0.08780718
157	0xbce263a0	-0.027635396
158	0x3d75a97c	0.059976086
159	0x3d77badf	0.06048095
160	0x3e09876c	0.13430566
161	0x3e0aa7f2	0.13540629
162	0x3e0e7426	0.13911495
163	0xbde36b45	-0.111044444
164	0xbcf918b0	-0.03040728
165	0xbe054b84	-0.13017088
166	0xbdc28b40	-0.09499216
167	0x3d7d3933	0.061822128
168	0xbc47863b	-0.012177999
169	0x3d90c54f	0.07068884
170	0x3de83870	0.113388896
171	0xbde8daf1	-0.11369885
172	0xbd820f1f	-0.0635054
173	0xbd6214ee	-0.05519574
174	0x3e085611	0.13314082
175	0x3dbf0632	0.093273535
176	0xbdc28893	-0.09498706
177	0xbdfca927	-0.12336951
178	0xbd038ab9	-0.032114718
179	0x3d8ef6bc	0.069806546
180	0x3cac4e92	0.021033559
181	0x3d4376c5	0.04772069
182	0x3c22bf6f	0.009933337
183	0x3df312aa	0.11868794
184	0x3e026946	0.12735471
185	0x3dc28cef	0.09499537
186	0x3d5390d9	0.05165181
187	0xbe26491c	-0.16238827
188	0xbd69f3db	-0.057117324
189	0xbe306bd5	-0.17228635
190	0x3cea0c5c	0.028570347
191	0xbd871891	-0.065964825
192	0x3daf47d7	0.08558624
193	0x3d9ed575	0.077555574
194	0x3e03b58f	0.12862228
195	0x3b9eb343	0.004843147
196	0x3d70d9f2	0.0588016
197	0x3e06360b	0.13106553
198	0x3d70dbc2	0.058803327
199	0x3d4cda06	0.05001261
200	0xbdd306a1	-0.10303999
201	0x3b3a65ab	0.0028441946
202	0xbd86395b	-0.065539084
203	0xbd6452c7	-0.055743005
204	0xbe1897c3	-0.14901643
205	0xbd81834d	-0.06323872
206	0xbd577a28	-0.05260673
207	0x3d526e6e	0.051374845
208	0x3cebf711	0.028804334
209	0xbcbb2943	-0.022846824
210	0xbe10ef29	-0.14153732
211	0xbe2c52e0	-0.1682849
212	0xbdf233ce	-0.11826287
213	0xbdcd3152	-0.10019173
214	0xbe002c3f	-0.12516879
215	0xbdc0084e	-0.09376584
216	0x3d9ea541	0.077463634
217	0x3d9560b1	0.07293833
218	0x3c069fdd	0.008216825
219	0xbdce726b	-0.10080417
220	0xbe0ffb87	-0.14060794
221	0xbd250347	-0.04028633
222	0xbdbdd9ca	-0.092700556
223	0xbc41fcb8	-0.011840038
224	0xbbf1e99f	-0.007382586
225	0xbe07b3bf	-0.13252161
226	0x3d8f115d	0.06985734
227	0xbdf7055d	-0.1206157
228	0x3ddea4f9	0.1087131
229	0x3d53b717	0.05168828
230	0xbd347add	-0.044062484
231	0xbdbb7016	-0.09152238
232	0xbd15fc7f	-0.036617752
233	0xbce3773d	-0.027766818
234	0xbd069512	-0.03285701
235	0xbd808a35	-0.06276361
236	0x3e47612d	0.19470663
237	0x3b2e2114	0.002657001
238	0xbd08211d	-0.033234704
239	0x3c03bcb3	0.008040595
240	0xbdd59694	-0.10429111
241	0x3a98990f	0.0011642295
242	0xbd57c2e5	-0.0526761
243	0x3daa04bb	0.083016835
244	0xbe26fe54	-0.16307956
245	0x3df34ffb	0.118804894
246	0xbe39f0db	-0.18158285
247	0xbd308d50	-0.043103516
248	0xbdbbe6fd	-0.09174917
249	0xbd09867b	-0.033575516
250	0x3bf04be0	0.0073332638
251	0x3e351208	0.1768266
252	0xbb9ee90c	-0.0048495587
253	0xbd7e9c4b	-0.06216077
254	0x3d80356c	0.062601894
255	0xbdc9764c	-0.098370165

GRU/quant_dense_43/LastValueQuant/FakeQuantWithMinMaxVars__2956 f4 [32, 1]
0	0x3dc9f7f0	0.098617435
1	0xbe709484	-0.23494154
2	0xbebc9a5b	-0.36836514
3	0x3e9ee6d6	0.3103549
4	0x3c0e90e6	0.008701539
5	0xbe3e1688	-0.18563282
6	0x3ea35b5d	0.31905642
7	0xbd797d92	-0.06091077
8	0x3eadc098	0.33936
9	0xbdf38cde	-0.11892103
10	0xbda06303	-0.07831385
11	0x3e98f621	0.2987528
12	0x3e3b1e2e	0.18273231
13	0x3d323520	0.043507695
14	0x3ddbca0d	0.107318975
15	0xbdbe1688	-0.09281641
16	0xbced9c2a	-0.029005129
17	0xbe918940	-0.28425026
18	0xbd49f7f0	-0.049308717
19	0xbe5bca0d	-0.21463795
20	0xbe8a1c5f	-0.2697477
21	0xbeac446b	-0.3364595
22	0xbe918940	-0.28425026
23	0xbe0b988c	-0.13632411
24	0x3e2c446b	0.16822974
25	0x3dd5d959	0.104418464
26	0x3e8e90e6	0.27844924
27	0x3e1779f4	0.14792615
28	0x3e3825d4	0.1798318
29	0x3e7f6e47	0.24944411
30	0xbd6d9c2a	-0.058010258
31	0xbea35b5d	-0.31905642

GRU/quant_dense_42/LastValueQuant/FakeQuantWithMinMaxVars__2955 f4 [32, 32]
0	0x3e49d0e0	0.19708586
1	0x3dd9d543	0.106363796
2	0xbe49d0e0	-0.19708586
3	0x3e19c3b7	0.15016066
4	0x3e29c81a	0.16580239
5	0xbe536d1c	-0.2064709
6	0x3e79de09	0.24401106
7	0xbe69d9a6	-0.22836933
8	0x3e0cf368	0.13764727
9	0xbdb36456	-0.08759372
10	0xbe868b40	-0.26278114
11	0x3e002318	0.12513387
12	0xbe603d6b	-0.21898429
13	0x3e10277c	0.14077562
14	0x3e6d0dba	0.23149768
15	0xbe94f599	-0.29093626
16	0xbded0dba	-0.11574884
17	0xbdb36456	-0.08759372
18	0xbe503908	-0.20334256
19	0xbe4368b9	-0.19082917
20	0xbc4d04f4	-0.012513388
21	0xbd0cf368	-0.034411818
22	0x3bcd04f4	0.006256694
23	0x3e7041ce	0.23462602
24	0x3da69406	0.08133702
25	0x3e39cc7d	0.18144412
26	0x3e69d9a6	0.22836933
27	0xbc4d04f4	-0.012513388
28	0xbe4034a5	-0.18770082
29	0xbe968fa3	-0.2940646
30	0xbbcd04f4	-0.006256694
31	0x3e6d0dba	0.23149768
32	0xbe03572c	-0.12826222
33	0x3e88254a	0.2659095
34	0x3d99c3b7	0.07508033
35	0xbe66a592	-0.22524098
36	0x3e802318	0.25026774
37	0xbe83572c	-0.25652444
38	0xbe7d121d	-0.24713941
39	0x3c19c3b7	0.009385041
40	0x3d99c3b7	0.07508033
41	0xbcb36456	-0.02189843
42	0x3eb03042	0.34411818
43	0xbe7d121d	-0.24713941
44	0x3e202bdf	0.15641735
45	0x3e002318	0.12513387
46	0xbe10277c	-0.14077562
47	0x3bcd04f4	0.006256694
48	0x3e303042	0.17205909
49	0x3e5d0957	0.21585594
50	0x3e135b8f	0.14390396
51	0x3d59d543	0.053181898
52	0xbd4034a5	-0.046925206
53	0x3e69d9a6	0.22836933
54	0x3e068b40	0.13139057
55	0xbb4d04f4	-0.003128347
56	0x3d868b40	0.065695286
57	0x3ea69406	0.32534808
58	0x3ea9c81a	0.33160478
59	0xbc19c3b7	-0.009385041
60	0xbe0cf368	-0.13764727
61	0x3ea9c81a	0.33160478
62	0x3e69d9a6	0.22836933
63	0x3e235ff2	0.15954569
64	0x3e9b5dc1	0.30344966
65	0xbe135b8f	-0.14390396
66	0x3e8cf368	0.27529454
67	0xbe8cf368	-0.27529454
68	0xbe503908	-0.20334256
69	0xbd935b8f	-0.07195198
70	0x3b4d04f4	0.003128347
71	0xbda02bdf	-0.07820868
72	0x3c802318	0.015641734
73	0x3e5d0957	0.21585594
74	0xbe9b5dc1	-0.30344966
75	0x3e94f599	0.29093626
76	0xbec502c2	-0.38478667
77	0x3e135b8f	0.14390396
78	0xbeb1ca4c	-0.34724653
79	0x3d802318	0.062566936
80	0x3e935b8f	0.2878079
81	0xbe3d0091	-0.18457247
82	0x3e1cf7cb	0.153289
83	0xbdf9de09	-0.12200553
84	0x3e7041ce	0.23462602
85	0xbe868b40	-0.26278114
86	0xbe29c81a	-0.16580239
87	0x3e81bd22	0.2533961
88	0x3c802318	0.015641734
89	0x3c19c3b7	0.009385041
90	0xbe91c185	-0.28467956
91	0x3e9829ad	0.29719296
92	0xbea1c5e9	-0.31596306
93	0xbe235ff2	-0.15954569
94	0xbd19c3b7	-0.037540164
95	0xbd336456	-0.04379686
96	0xbe56a12f	-0.20959924
97	0x3e2cfc2e	0.16893074
98	0xbd0cf368	-0.034411818
99	0x3e29c81a	0.16580239
100	0x3e536d1c	0.2064709
101	0x3d99c3b7	0.07508033
102	0x3e235ff2	0.15954569
103	0xbe3d0091	-0.18457247
104	0xbe603d6b	-0.21898429
105	0x3e8e8d72	0.2784229
106	0xbdf9de09	-0.12200553
107	0x3e068b40	0.13139057
108	0x3e068b40	0.13139057
109	0x3e56a12f	0.20959924
110	0x3d868b40	0.065695286
111	0x3e69d9a6	0.22836933
112	0xbe6d0dba	-0.23149768
113	0xbd4034a5	-0.046925206
114	0xbe10277c	-0.14077562
115	0xbe2cfc2e	-0.16893074
116	0x3ce6a592	0.028155122
117	0xbdb36456	-0.08759372
118	0x3dc034a5	0.09385041
119	0x3de03d6b	0.109492145
120	0xbe59d543	-0.21272759
121	0xbdd9d543	-0.106363796
122	0x3e503908	0.20334256
123	0xbea02bdf	-0.3128347
124	0x3e89bf54	0.26903784
125	0xbe6d0dba	-0.23149768
126	0x3e8e8d72	0.2784229
127	0x3e84f136	0.2596528
128	0xbe19c3b7	-0.15016066
129	0x3e66a592	0.22524098
130	0x3d0cf368	0.034411818
131	0x3e0cf368	0.13764727
132	0x3d269406	0.04066851
133	0x3e3d0091	0.18457247
134	0x3e69d9a6	0.22836933
135	0xbe168fa3	-0.1470323
136	0xbd8cf368	-0.068823636
137	0x3e8e8d72	0.2784229
138	0x3ccd04f4	0.025026776
139	0x3e303042	0.17205909
140	0xbde03d6b	-0.109492145
141	0xbe269406	-0.16267404
142	0xbda69406	-0.08133702
143	0x3e66a592	0.22524098
144	0x3db36456	0.08759372
145	0xbe2cfc2e	-0.16893074
146	0x3e63717f	0.22211264
147	0xbe269406	-0.16267404
148	0x00000000	0.0
149	0x3dc034a5	0.09385041
150	0xbe9cf7cb	-0.306578
151	0x3e202bdf	0.15641735
152	0xbd802318	-0.062566936
153	0xbe29c81a	-0.16580239
154	0x3e94f599	0.29093626
155	0xbeb1ca4c	-0.34724653
156	0xbd7375e2	-0.059438594
157	0xbe135b8f	-0.14390396
158	0x3e8e8d72	0.2784229
159	0xbe235ff2	-0.15954569
160	0xbe303042	-0.17205909
161	0xbdb36456	-0.08759372
162	0x3e10277c	0.14077562
163	0xbe91c185	-0.28467956
164	0xbded0dba	-0.11574884
165	0xbc19c3b7	-0.009385041
166	0x3e7d121d	0.24713941
167	0x3e503908	0.20334256
168	0x3d868b40	0.065695286
169	0xbe29c81a	-0.16580239
170	0x3e8e8d72	0.2784229
171	0xbce6a592	-0.028155122
172	0xbded0dba	-0.11574884
173	0x3eab6224	0.33473313
174	0x3e56a12f	0.20959924
175	0x3dcd04f4	0.1001071
176	0x3e135b8f	0.14390396
177	0x3e8b595e	0.2721662
178	0x3e2cfc2e	0.16893074
179	0xbe002318	-0.12513387
180	0xbd0cf368	-0.034411818
181	0xbe90277c	-0.28155124
182	0xbe0cf368	-0.13764727
183	0xbe89bf54	-0.26903784
184	0x3e303042	0.17205909
185	0xbe99c3b7	-0.3003213
186	0x3d269406	0.04066851
187	0x3e868b40	0.26278114
188	0x3e802318	0.25026774
189	0x3e369869	0.17831577
190	0xbeb69869	-0.35663155
191	0x3e802318	0.25026774
192	0x3dd36d1c	0.10323545
193	0x3ea9c81a	0.33160478
194	0x3eab6224	0.33473313
195	0x3ded0dba	0.11574884
196	0x3da69406	0.08133702
197	0xbd802318	-0.062566936
198	0x3e269406	0.16267404
199	0xbe536d1c	-0.2064709
200	0xbe068b40	-0.13139057
201	0xbd8cf368	-0.068823636
202	0xbe235ff2	-0.15954569
203	0xbe2cfc2e	-0.16893074
204	0x3e79de09	0.24401106
205	0xbe81bd22	-0.2533961
206	0xbe09bf54	-0.13451892
207	0xbd802318	-0.062566936
208	0x3e84f136	0.2596528
209	0x3bcd04f4	0.006256694
210	0x3ec9d0e0	0.3941717
211	0xbc4d04f4	-0.012513388
212	0x3eacfc2e	0.33786148
213	0x3e39cc7d	0.18144412
214	0x3d868b40	0.065695286
215	0x3e7041ce	0.23462602
216	0xbe068b40	-0.13139057
217	0xbe94f599	-0.29093626
218	0x3e69d9a6	0.22836933
219	0xbe19c3b7	-0.15016066
220	0xbe4d04f4	-0.2002142
221	0x3ecb6aea	0.39730006
222	0x3e59d543	0.21272759
223	0x3e1cf7cb	0.153289
224	0x3e5d0957	0.21585594
225	0xbe0cf368	-0.13764727
226	0xbe5d0957	-0.21585594
227	0x3e4d04f4	0.2002142
228	0x3e88254a	0.2659095
229	0x3e202bdf	0.15641735
230	0x3e29c81a	0.16580239
231	0xbde03d6b	-0.109492145
232	0x3df375e2	0.11887719
233	0xbe88254a	-0.2659095
234	0xbe7041ce	-0.23462602
235	0x3e59d543	0.21272759
236	0xbd002318	-0.031283468
237	0xbe7d121d	-0.24713941
238	0xbc99c3b7	-0.018770082
239	0xbb4d04f4	-0.003128347
240	0xbe49d0e0	-0.19708586
241	0x3e469ccc	0.19395751
242	0xbe4034a5	-0.18770082
243	0xbc802318	-0.015641734
244	0xbe9e91d5	-0.30970636
245	0x3d336456	0.04379686
246	0xbe19c3b7	-0.15016066
247	0x3db9cc7d	0.09072206
248	0xbd0cf368	-0.034411818
249	0x3e469ccc	0.19395751
250	0x3e4034a5	0.18770082
251	0xbd269406	-0.04066851
252	0x3d935b8f	0.07195198
253	0x3e536d1c	0.2064709
254	0x3e603d6b	0.21898429
255	0xbe9b5dc1	-0.30344966

GRU/quant_dense_42/BiasAdd/ReadVariableOp:0 f4 [32]
0	0x3cbc31b6	0.022972923
1	0xbd2b5b78	-0.04183528
2	0xbd5367ad	-0.051612545
3	0x3b9314fd	0.004488586
4	0x3c9f0760	0.019412696
5	0xbd17faf2	-0.037104554
6	0xbc756bab	-0.014979283
7	0xbdb7b89f	-0.089707606
8	0xbc96a83f	-0.018390773
9	0xbdae64ef	-0.08515345
10	0xbdc648d6	-0.09681861
11	0x3d04e94d	0.032449055
12	0x3c915233	0.017739391
13	0xbd8c7a72	-0.06859292
14	0xbd07781f	-0.03307354
15	0xbc920f5c	-0.01782959
16	0xbd8bf552	-0.068339005
17	0xbd7a5cf7	-0.061123814
18	0xbdfc39b3	-0.12315693
19	0xbd4dd64d	-0.0502532
20	0xbd536712	-0.051611967
21	0xbd3aa12c	-0.04556386
22	0xbd873156	-0.06601207
23	0xbcc16e3c	-0.023612134
24	0xbd40c3e9	-0.047061834
25	0xbc46cfb0	-0.0121344775
26	0xbd26e940	-0.04074979
27	0x3d77807a	0.06042526
28	0x3c139e57	0.009009919
29	0xbd54a952	-0.05191929
30	0xbcb6ca0a	-0.022313137
31	0xbd879a61	-0.06621242
