models/station_10/model_latest.onnx (onnx, 407659 bytes, 12 tensors)

W__909 f4 [1, 96, 64]
000000 78 f5 0d be 55 12 0c be b0 83 78 3e 9c ef f7 3d
       -0.1386317 -0.13678868 0.24268985 0.12106249
000010 db b9 c6 bd 2e db 3e 3e d6 72 03 3e fe 78 32 be
       -0.09703418 0.18638298 0.12836775 -0.17428967
000020 5c 15 cc bd 91 c7 29 3e 37 aa 43 be c9 c8 9d bc
       -0.099650115 0.16580035 -0.191079 -0.01926078
000030 61 12 cf bd 49 b3 30 be 4a c7 e5 bb 30 21 07 3e
       -0.101109274 -0.17255892 -0.0070122825 0.13196254
000040 ff 9f 1d 3e c6 99 29 3e 14 39 c6 bd 95 9b b1 3d
       0.15393065 0.16562566 -0.096788555 0.08672253
000050 62 a4 dc bd da 3a 1d be 67 6e 1a be 70 e7 0f bd
       -0.10773541 -0.15354481 -0.15081178 -0.035132825
000060 8e 99 51 3e 7b db 2a be bb f0 c1 bc 2e f7 8b 3d
       0.20468733 -0.16685288 -0.02367436 0.06834255
000070 4a c2 f5 bd 34 80 63 3e 91 5a fd bd 5c 55 a0 3a
       -0.11999948 0.22216874 -0.1237079 0.001223247
000080 3c 3d 82 3d ff 00 2e 3e d3 ea 14 3c d4 42 6a 3d
       0.06359336 0.16992567 0.00908919 0.05719264
000090 28 be e9 3c 93 af 2c 3d 72 fd 7a bd b5 56 43 3e
       0.028533056 0.042159628 -0.06127686 0.19076045
0000a0 39 fa 5a 3e ba 88 9b 3c bf f2 57 3d 32 83 7b 3e
       0.21384515 0.018986095 0.052721735 0.24561766
0000b0 72 15 aa bd 2b 8e da bd 29 92 65 be 65 34 3e 3b
       -0.083048716 -0.10671648 -0.22419037 0.0029022929
0000c0 02 bd f4 bd ee 55 11 3d 87 3e 25 3e 46 fc a0 3c
       -0.11950113 0.03548234 0.16137134 0.019651543
0000d0 64 57 51 3d a4 60 e4 3d a5 18 3e 3e b4 61 4b be
       0.051108733 0.11151245 0.18564089 -0.1986149
0000e0 4e 4d f4 3d ae 98 c8 3d cb 6f c3 3d 45 70 a2 3d
       0.11928807 0.09794746 0.09542807 0.0793157
0000f0 a2 f1 3c 3e 5a c2 4b 3e c4 58 4e be f2 af b1 3d
       0.1845155 0.19898358 -0.20151049 0.08676137
000100 66 6d 8a bd ef 4b c9 3c 82 2d 94 bd 5b b5 b6 3d
       -0.06759147 0.02457234 -0.072352424 0.089213096
000110 fc 7d 4b bd 84 3d 75 bd 3d c2 b8 3d 10 0c 0c be
       -0.049680695 -0.05987312 0.09021423 -0.13676476
000120 41 bc f9 bd 29 4b 5c be 99 04 6e 3e 8c 7e 17 3e
       -0.1219411 -0.21513046 0.23243941 0.14794368
000130 48 16 94 bd 42 d1 26 bd c3 3c 05 3e 8f 4a 38 3d
       -0.07230812 -0.040726908 0.1301146 0.04499298
000140 ba 8c ac 3d cd 4e 07 be 26 fc aa 3c 5f b5 c1 bc
       0.08425279 -0.13213654 0.020872187 -0.023646055
000150 48 74 43 3e b2 56 e5 3d 2b d7 37 bd c4 bf b6 bd
       0.19087327 0.111981764 -0.044882935 -0.08923295
000160 21 96 7b 3d 0d 9a 94 3c b3 1e 19 bd 3d ea ca 3c
       0.06142247 0.018139863 -0.037382793 0.024769897
000170 d1 15 bc 3d a7 30 95 3c 5a 4f aa bc 77 7d 0e be
       0.09183849 0.018211676 -0.02078979 -0.13915049
000180 da 38 81 3e e3 f7 36 3e a5 9f 58 be 30 d9 d5 3d
       0.25238687 0.17867999 -0.2115465 0.10441816
000190 3a d8 b1 bd b0 4a 0b bd 7d d4 f7 3d 37 32 01 3e
       -0.0868382 -0.034006774 0.12101076 0.12616812
0001a0 4b ce c3 3d 7f 26 5f 3d 2a 7f 24 be 95 9e 09 3e
       0.09560832 0.054480072 -0.16064134 0.134394
0001b0 9b 4f a3 bc 29 20 61 3e ed 3b bf 3d 73 48 1d 3b
       -0.01993542 0.21984924 0.09337602 0.0023999482
0001c0 ba fe 3e be e9 94 bf bd d4 da e2 3d 51 0a d1 3d
       -0.18651858 -0.09354574 0.110768944 0.10207046
0001d0 5b 7d 19 3d 21 0f d0 bd c9 12 e8 3d 6f fc f9 bd
       0.037473064 -0.101591356 0.11331708 -0.12206351
0001e0 4d 9d 36 3d bf 57 c3 3d 69 07 15 3e 5e aa 71 bb
       0.044583607 0.095382206 0.14553608 -0.0036875228
0001f0 e8 a7 2e be 7b be fb 3d 90 48 b4 3d b9 73 6b bd
       -0.17056239 0.12292191 0.08802903 -0.05748341
000200 c8 d9 21 bd 65 ac 8f 3d bd 73 14 3d 56 c6 78 3d
       -0.039514333 0.070153035 0.03624319 0.060736023
000210 6e 9c 54 3e 73 28 a0 3d f6 49 b0 3d 1e db c7 3d
       0.20762798 0.07820215 0.08607857 0.0975859
000220 4f a1 5e 3d 86 2b 50 bd 8c 8b 55 3e 10 00 0d be
       0.054353055 -0.050822757 0.20854014 -0.13769555
000230 d0 f0 f7 bd 0e d8 37 3e fc 7f b5 3b f4 b7 36 be
       -0.12106478 0.17953512 0.0055389386 -0.1784361
000240 58 4b 58 3b 0e 59 0a 3d 83 c5 58 3e 57 db 68 3e
       0.0033003893 0.033776335 0.21169095 0.22739922
000250 67 64 82 3d f4 09 60 3e 82 af 1a be a7 0a e1 bd
       0.063668065 0.21878797 -0.15106013 -0.1098836
000260 53 56 b0 bd e5 d9 e3 3d d1 7c 58 3e 2e f4 bd bd
       -0.08610215 0.111255445 0.21141364 -0.09275089
000270 f6 81 81 bd 67 0e 13 3e 90 c6 e9 bd 47 e5 2f be
       -0.06323616 0.14360963 -0.11414826 -0.17177306
000280 e5 40 95 3d 3b 97 7b bd 4e 27 42 be a2 54 05 be
       0.07287768 -0.06142352 -0.18960306 -0.13020566
000290 1e 14 91 bd 06 1e 8b be d1 85 32 3e 9f ea 1b bd
       -0.07083915 -0.27171344 0.1743386 -0.03806555
0002a0 9e 0a 37 3d b8 3a c7 bc b3 11 95 bc ea 47 ea 3d
       0.04468786 -0.024319991 -0.018196916 0.11439498
0002b0 27 5b e1 bc 2e a6 d9 3c f5 c9 0e 3e 08 c2 3d be
       -0.027509285 0.026568498 0.13944228 -0.18531048
0002c0 1c a8 1b 3d ae 01 41 be 16 c9 d4 bd ea ea 1f be
       0.03800212 -0.18848297 -0.103899166 -0.15616956
0002d0 3b c4 07 bd 8a cb 2c be d6 ef 97 bd f6 cd ca 3d
       -0.033146124 -0.16874519 -0.07418792 0.09902565
0002e0 d1 4e 0e be 45 c0 40 3e 94 e4 0b be 12 b1 3a 3e
       -0.13897254 0.18823345 -0.13661414 0.1823161
0002f0 f6 71 74 be a0 e1 5e bc 54 61 14 3e 04 16 e4 3d
       -0.23871598 -0.013603598 0.14490253 0.11137012
000300 ad 1b 40 be 80 ed 79 3e 9d ab 29 3e f5 1f 1b 3d
       -0.18760557 0.24407005 0.16569372 0.037872273
000310 a5 4d 7b 3d 2c 7b 71 3d 30 48 06 3e d5 67 53 3e
       0.061353344 0.058955356 0.13113475 0.20645078
000320 a7 77 02 3e ae 5a 04 3e 8c 3e cc 3d 68 f8 13 bd
       0.12740956 0.12925217 0.09972867 -0.03612557
000330 99 e0 d6 3d 68 55 10 be 4f 4b 2e be c1 f3 5d be
       0.10492057 -0.1409508 -0.17020915 -0.21675016
000340 cd 1d c3 bc 1a d1 3e be dd 63 2e be 83 8f 22 3e
       -0.023817921 -0.18634453 -0.17030282 0.15875058
000350 3e b6 3f bc 0f 5b 84 be 1b 5d 2c be b8 b1 58 be
       -0.011701165 -0.25850722 -0.16832392 -0.21161544
000360 ae bf 97 bd 6b b7 0b be 04 65 22 be 60 2d 54 3b
       -0.07409607 -0.13644187 -0.15858847 0.0032375678
000370 c3 b5 03 bd 88 a7 3a be 59 b0 df bd ce 4d 35 bc
       -0.032155763 -0.1822797 -0.109223075 -0.011065913
000380 30 78 f4 3d ce 75 0f 3e 1b c7 fb bd 3d 4a e0 3d
       0.119369864 0.14009783 -0.12293836 0.1095166
000390 44 c9 0f bd 32 60 da bb 20 52 0a be 4b 70 60 be
       -0.03510405 -0.0066642994 -0.1350789 -0.21917836
0003a0 4d e8 51 be c3 12 1b 3e ac 68 3f 3e bb 35 83 3c
       -0.20498772 0.15143876 0.18692273 0.016016832
0003b0 bc f0 62 be 73 6e ce 3d f7 21 0c bd 88 cb d5 3d
       -0.22162145 0.1007966 -0.03421208 0.10439211
0003c0 fa c9 22 3e 0e 28 70 3e 3a c6 bf bd 8a 6e bc bc
       0.1589736 0.2345278 -0.093639806 -0.023001928
0003d0 84 02 80 bd 74 d2 ef 3d f0 c0 b2 3b be c9 46 3c
       -0.0625048 0.117100626 0.005455129 0.01213306
0003e0 ea 3a a2 3d cc e3 03 bd b3 c3 c5 bd 6a 37 67 be
       0.07921393 -0.032199666 -0.09656467 -0.22579733
0003f0 5f d0 b0 bd 78 f9 34 bd 2a e9 8a be a0 a0 88 3e
       -0.08633494 -0.044183224 -0.27131015 0.26685047

W__895 f4 [1, 192, 128]
000000 6a b9 e2 3b c6 75 b8 bc de 92 20 3e 13 ac d3 bc
       0.0069190757 -0.022517096 0.15681025 -0.025838887
000010 05 25 23 3d e1 70 d6 bb 41 84 b7 bd 71 e4 c8 3d
       0.039830226 -0.006544218 -0.08960772 0.09809197
000020 1b e8 39 3e 02 9f 90 bd 4e 33 d6 3c ec 4f 89 bd
       0.18154947 -0.07061578 0.02614751 -0.06704697
000030 4a fc c3 bd e2 18 0f be a5 e5 e8 3c 3f 57 f5 bd
       -0.09569605 -0.13974336 0.028429816 -0.119795315
000040 7c cf 89 3d cf c2 d2 3c fa 26 21 3e d1 9b be 3d
       0.06729028 0.025727658 0.15737525 0.09307063
000050 a3 5d b0 bd 5e 32 d0 3c 02 dc 98 bd 97 a7 83 bd
       -0.0861161 0.025414642 -0.07463838 -0.064284496
000060 75 be aa 3d e4 3f df bd 42 70 93 bd 0e b4 ed 3c
       0.08337108 -0.10900858 -0.07199146 0.02901652
000070 b8 52 28 bd bc 84 b1 3b 56 63 21 3d 8c d7 2c be
       -0.04109451 0.0054174345 0.039401375 -0.168791
000080 dd c1 04 3e ea f0 90 bd 26 4b bd bd e9 1f 13 bc
       0.12964578 -0.07077201 -0.09242849 -0.008979776
000090 af 98 28 3d 3c e7 b1 3c db 82 12 bc af ae 92 3d
       0.041161235 0.021716706 -0.008942331 0.071622245
0000a0 d3 53 eb 3b ad 73 31 3e 39 2b 3d bd d5 11 d3 bd
       0.0071816235 0.17329283 -0.0461838 -0.103061356
0000b0 2a ec 9a 3d d2 53 62 3e c6 e3 dd bd 13 c8 2d bc
       0.07564576 0.22102287 -0.1083446 -0.010606783
0000c0 b7 c8 be 3d a3 99 73 bc 5e 68 d9 bd 95 62 88 3d
       0.09315627 -0.014868173 -0.106156096 0.06659428
0000d0 97 79 eb bd 2a 20 d0 bd 8d e3 3f be 53 a0 0e 3e
       -0.11497801 -0.10162385 -0.18739147 0.13928346
0000e0 b7 a6 29 3e 0a 97 e9 3d 2d 2b 75 bb d5 a4 1d bc
       0.16567503 0.114057615 -0.0037409768 -0.009621819
0000f0 60 45 2a 3e 5e 15 77 bc 60 ea 87 3d 4c b8 c9 3d
       0.16628027 -0.015080778 0.066365 0.09849605
000100 2e f5 dd bd 8d 00 70 bd 6b 0c d5 3d 17 03 a0 3d
       -0.1083778 -0.058594275 0.10402759 0.07813089
000110 95 51 00 3d 33 d8 ae 3d a6 e8 1c 3e 7a ac 2a bd
       0.031327803 0.085373305 0.15323123 -0.041668393
000120 80 f7 09 3d fc 70 b3 bd 6f af d3 bd a2 82 19 3e
       0.0336833 -0.087617844 -0.10336196 0.14991239
000130 5a 8d 80 bd f5 a3 10 3e ea 26 8c 3d 72 ec af 3d
       -0.06276961 0.14125045 0.0684336 0.0859002
000140 a5 fe 61 3c 10 0e e7 3c 11 26 9e 3d 46 06 de bc
       0.013793622 0.028204948 0.07722104 -0.0271026
000150 a7 f0 4f 3d 7a f9 87 bb 04 9d 09 be cf 81 44 3d
       0.050766613 -0.004149613 -0.13438803 0.047975358
000160 60 93 88 bd c4 4c 72 bc 70 0f f4 bc 90 22 e4 bb
       -0.066687346 -0.01478881 -0.029792517 -0.006962128
000170 e2 ea 9e 3d f7 62 f0 bc de c1 b4 3d eb ec 85 3a
       0.07759644 -0.029344065 0.0882604 0.0010217702
000180 22 92 9c bc e2 39 ff 3c d9 ff 8f 3d 52 00 e6 bd
       -0.01911265 0.03115553 0.07031221 -0.1123053
000190 d5 06 18 3e 11 78 10 bc 6f dd 72 bd f6 ec 74 be
       0.14846356 -0.008817689 -0.059293207 -0.23918518
0001a0 23 87 10 3e b2 28 09 be 0a 96 c7 bb b1 1a e6 bc
       0.1411405 -0.1339443 -0.006090884 -0.0280889
0001b0 62 36 a4 3c 77 a0 c3 bc fe 9d d4 3d e2 b8 d8 3c
       0.020045463 -0.023880227 0.10381697 0.026455346
0001c0 8c 96 2f 3d 05 d1 8e bd 63 2a 77 3d 5b fe 24 3e
       0.042868182 -0.06973461 0.060343158 0.16112654
0001d0 32 3c 8d 3c b9 54 4d 3d 8d cd 0c bd ac 72 a5 3d
       0.017240617 0.050129626 -0.034375716 0.080785125
0001e0 3e 66 42 3a 2e 18 fd bd 81 21 a3 bc 4a 70 36 3d
       0.0007415748 -0.123581275 -0.019913437 0.04454068
0001f0 b8 f6 fc bd 53 37 5b 3a 0d 7d 18 be 2d 74 53 3d
       -0.12351745 0.0008362431 -0.14891453 0.051624466
000200 3a dc 1f 3e 56 c6 ee bd 9a 57 2a 3c 4b dc 08 3c
       0.15611354 -0.11658923 0.010396862 0.008353303
000210 98 42 de 3c 23 de 09 3e a4 38 d1 bd b5 9d 2a be
       0.027131364 0.13463645 -0.102158815 -0.16661723
000220 09 b8 b3 bd 8d 85 dc bc e6 44 c5 3d 2b a6 b3 3c
       -0.08775336 -0.02691915 0.09632282 0.021929821
000230 69 53 54 bd 12 4a 18 3d 81 4a e3 bc ff 0f 16 be
       -0.05183736 0.037180014 -0.027745487 -0.1465454
000240 be 6f 27 3e bb 9f 86 bd 2d 9d 2c 3e 95 de d7 bd
       0.1635122 -0.06573435 0.16856833 -0.10540501
000250 d1 ae d3 bc e2 a7 04 3e 7e 9d c1 3c 71 3a 9f 3d
       -0.025840195 0.12954667 0.023634668 0.07774819
000260 39 21 58 bd 94 24 6d bd 21 cb cb bd 0e a2 0d 3e
       -0.05276606 -0.05789621 -0.09950853 0.1383135
000270 7b 3d a5 3d 45 4b c1 bc 23 01 3d 3e e3 82 63 3d
       0.08068367 -0.023595462 0.18457465 0.055544745
000280 63 df f5 3d c2 93 3e 3e ce c2 0a 3c 3b 73 a6 bd
       0.12005498 0.18611053 0.008469297 -0.08127447
000290 7e ef 75 3d 12 fe a7 bd c9 8f 9f 3d 68 02 80 bd
       0.06004285 -0.08202757 0.07791097 -0.06250459
0002a0 90 75 af 3d 3d 59 13 3e e5 85 a5 3c e5 72 5c be
       0.08567345 0.1438951 0.020205447 -0.21528204
0002b0 9d f0 be bd e6 5a dc bd c9 f8 19 3d ab 71 57 3d
       -0.09323237 -0.10759525 0.037590776 0.052598637
0002c0 ad 12 48 bc a2 82 53 3b 0d 2f 3d 3c d0 a0 b8 bd
       -0.012211484 0.0032273908 0.011546862 -0.090150476
0002d0 18 24 78 bc b3 fa 1f be 69 06 30 3e a4 a6 bb 3c
       -0.015145324 -0.15622978 0.17189945 0.022906609
0002e0 f2 52 c3 bc 20 bf 23 3d 5f ab 0b 3e 47 ac 53 be
       -0.023843262 0.039977193 0.13639592 -0.20671187
0002f0 43 de 58 3e da 94 a5 bd 9a 0a 9e 3c 44 bf 20 bd
       0.21178536 -0.08085032 0.019292165 -0.039244905
000300 8a 0c 04 be a0 14 0b 3d 38 67 d0 bd 4b 58 76 bd
       -0.12895408 0.033955216 -0.101759374 -0.060142796
000310 40 a0 3a bc 39 af fc bd 69 cd 18 be 69 47 df bc
       -0.011390746 -0.123381086 -0.14922108 -0.02725573
000320 0c ae 97 3d 43 63 40 3d 3c 53 b7 bd 6f b7 72 bd
       0.07406244 0.046969663 -0.089514226 -0.059256967
000330 00 bc 91 bc 5a 58 cf 3d 21 29 83 bd b5 53 27 be
       -0.01778984 0.101242736 -0.06404329 -0.16340525
000340 84 32 41 be d3 81 19 3e 2f 29 38 3c 80 e7 a7 bd
       -0.18866926 0.1499093 0.011240288 -0.08198452
000350 c6 7a f7 bd 35 ad 25 3d 8b 27 1f b8 a8 7f 85 3c
       -0.12083964 0.040448386 -3.794538e-05 0.016296223
000360 20 7d b5 3d 48 fd 81 bd 73 0a de 3c 0d 7a a6 bd
       0.08861756 -0.06347138 0.027104592 -0.08128748
000370 99 56 80 bd 64 0f 15 3e 52 b9 0f be 0e e7 bb 3d
       -0.06266517 0.14556652 -0.14035538 0.091749296
000380 80 6c 9f 3c 59 a8 18 be 4f 07 1a 3c 92 1b 03 bd
       0.019460917 -0.1490797 0.009401157 -0.032008715
000390 5b 39 ea bd 4d 63 28 be e3 bd e3 bc 1a ba 27 3e
       -0.11436721 -0.1644413 -0.027800506 0.16379586
0003a0 71 6f 3c bd ac 12 28 3e c5 76 a9 3d cb 65 69 bd
       -0.046004716 0.16413373 0.082746066 -0.056981843
0003b0 54 b6 26 be c1 6c b4 bd b1 ba a4 3d 46 45 91 3d
       -0.1628049 -0.08809806 0.08043421 0.07093291
0003c0 ae d2 94 3d 03 5d 15 bc 92 49 6c bd a7 64 39 3e
       0.072667465 -0.009116414 -0.05768735 0.18104802
0003d0 62 17 01 3d 90 23 31 3d cb 11 01 bd 0a 4b 1c 3e
       0.03151644 0.043246806 -0.03151111 0.15263
0003e0 2f 8c 85 bc 53 c0 d4 bc 63 1c 1e 3e 69 2f 5c bc
       -0.016302196 -0.025970614 0.15440516 -0.013439038
0003f0 61 df 7e bd bd e1 4c 3e 86 3b 84 bd 6c 9c 10 be
       -0.06222475 0.20007987 -0.06456666 -0.1412217

W__882 f4 [1, 384, 6]
000000 a2 23 cf bd 05 46 f8 3c c5 b3 82 bd c5 1a 37 be
       -0.10114218 0.030306825 -0.063819446 -0.17881306
000010 48 e0 20 bd fe fd 86 3b 53 76 34 be bf eb 1e be
       -0.03927639 0.0041196337 -0.17623262 -0.15519617
000020 ab 94 c0 bd e1 f3 0a be a5 a8 23 bd c2 db 3d 3d
       -0.09403356 -0.13569595 -0.039955754 0.046352156
000030 12 62 57 bd ba c1 b5 3d ae b6 b2 3d 26 3d 1a 3c
       -0.05258376 0.08874841 0.0872625 0.009413993
000040 49 60 21 3e d6 ac bd bd 6e 7d 2f bd 1f 42 01 bd
       0.15759386 -0.092614815 -0.04284423 -0.0315572
000050 36 78 c0 bc 04 1d bb bd 33 90 d0 3b ed e1 88 bd
       -0.023494821 -0.09136394 0.006364846 -0.06683717
000060 87 1a 85 3d 8a b7 14 3d 78 a5 e0 bd 23 b6 8f 3d
       0.064992 0.03630785 -0.10969061 0.07017162
000070 e7 a1 62 bd f1 b6 5c 3d 51 d4 83 bd 8a 23 72 bb
       -0.055330183 0.053885404 -0.064369805 -0.0036947452
000080 0e d4 64 bd b7 9d 09 3d 35 78 01 3e 4a ee 93 3d
       -0.055866294 0.033597674 0.12643512 0.072231844
000090 db 78 b9 3a eb ff 22 3d b1 25 ba 3d 81 04 5d bd
       0.0014150398 0.039794844 0.0908922 -0.053959373
0000a0 aa 6d 90 bd f6 a4 08 be 84 71 de 3d 56 e3 80 3d
       -0.07052167 -0.13344178 0.10861495 0.06293361
0000b0 77 bd 72 bd b3 5c 4b 3d 8e 60 8c 3d 14 c3 28 be
       -0.05926272 0.04964895 0.06854354 -0.16480666
0000c0 03 36 1d 3e d4 3e 75 bc 86 15 80 3d 51 25 d9 3d
       0.15352635 -0.014968593 0.06254105 0.10602821
0000d0 f8 f6 b1 3d 3e ad 8b 3d ff ee 0b be 22 c6 48 be
       0.08689684 0.06820153 -0.13665389 -0.19606832
0000e0 5f 0a 6c 3d 67 f3 44 3d 34 cf c8 bd 22 9a ed 3c
       0.05762708 0.04808369 -0.09805146 0.02900416
0000f0 79 91 74 bd 16 3f ff bc fc 52 cf 39 63 31 eb bd
       -0.059709046 -0.031158011 0.00039543945 -0.11484029
000100 78 42 a4 3d 7f 42 6a 3d 2c 7e 14 3e b9 24 fa 3d
       0.080204904 0.057192322 0.14501256 0.122140355
000110 73 12 a7 3d 59 98 ba 3c 74 11 a5 3d de b5 ac bd
       0.08157816 0.022777723 0.080599695 -0.08433126
000120 6f b3 f6 bd 87 04 3d bd 61 9f 02 be 59 b0 22 3d
       -0.12045943 -0.046146896 -0.1275611 0.03971896
000130 7d 2c d3 3d ae 6a 5f bd 6f 5d 98 3d ee a8 47 3c
       0.1031122 -0.054545097 0.07439696 0.012186272
000140 c4 33 bb 3d 33 b8 e4 3d 3f d7 ce 3d 38 3a d8 3b
       0.09140733 0.11167946 0.10099649 0.006598737
000150 c8 ec 04 be 03 00 c9 3d 77 52 98 bd 3c f1 e9 bb
       -0.1298095 0.09814455 -0.07437604 -0.007139353
000160 e1 b0 0b 3d b9 96 af bd ff c6 e2 bd a1 83 0d be
       0.03410423 -0.0857367 -0.11073112 -0.13819744
000170 50 89 b2 bd 2d 27 2c be dc 67 cf bd a6 9b 5c 3c
       -0.087175965 -0.1681182 -0.101272315 0.013464844
000180 2d 28 f8 3d 7e dd 17 bd 3c 31 85 bc ce 1f 0a be
       0.12117038 -0.037076466 -0.016258828 -0.13488695
000190 ed fd 19 3d 80 36 cd 3c e3 de f1 bc ef 23 65 3d
       0.037595678 0.025050402 -0.029525226 0.055942472
0001a0 35 78 bc 3d cd 78 ce bd 26 2b ee 3c 08 e7 16 3e
       0.09202615 -0.10081635 0.02907331 0.14736569
0001b0 db 6d c6 bd f4 02 5e bc 86 c1 0d 3d 4d 5b 36 bd
       -0.09688922 -0.013550509 0.034608386 -0.044520665
0001c0 0e 1f 7d bd 9d a9 87 bd 99 1e 74 bd 91 35 c5 3c
       -0.061797194 -0.06624148 -0.059599493 0.024073394
0001d0 ae 31 9b 3d be 02 4f bd 27 5c d5 bd e4 de 87 bd
       0.07577835 -0.050539725 -0.10417967 -0.0663431
0001e0 30 95 b9 bd e2 35 29 bd 45 1e a2 3c ac d7 aa bc
       -0.090616584 -0.041311152 0.019789824 -0.020854793
0001f0 2f 93 89 bd 2b ed 11 be 71 3f 8a 3d 4e 04 e4 bd
       -0.06717526 -0.14250629 0.06750382 -0.111336336
000200 95 7f 99 3d 96 ca 03 be 29 06 18 be d6 b8 67 bd
       0.074950375 -0.12870249 -0.148461 -0.056572758
000210 ac c8 8c bd b6 6b c2 3c 6a 3f e0 3d a9 b3 40 3d
       -0.068742126 0.023733001 0.10949595 0.047046337
000220 a7 e1 00 be f4 c3 ef 3d 29 65 08 be cc 17 f8 bd
       -0.1258608 0.11707297 -0.1331984 -0.12113914
000230 3a 8c d5 3b 9a 23 e7 bd bb 06 5b 3b 46 14 72 3c
       0.0065169604 -0.11286087 0.003342076 0.014775341
000240 6e 25 98 3d 5a e3 33 be ee d8 e1 3b d7 28 c1 3d
       0.07429014 -0.17567196 0.006892315 0.09431618
000250 b7 73 c6 bd e8 8d 95 bd c8 6c 5d 3e 4d 39 8e bc
       -0.096900396 -0.07302457 0.21623528 -0.017361308
000260 83 5d f6 3d db 96 40 3e ce 93 87 3d cd 21 06 be
       0.12029555 0.18807547 0.066199884 -0.13098831
000270 a3 ae 31 bc 3c f9 44 be 2c 1d 09 be 61 87 f8 bc
       -0.010844859 -0.192357 -0.13390034 -0.030337991
000280 66 dc fa bc f7 e4 91 bd 91 c7 82 bd 4a eb 12 be
       -0.030622672 -0.0712375 -0.063857205 -0.14347568
000290 7a d5 b0 3c 81 c3 55 3d cd 58 1e be 93 e6 9a 3d
       0.021586169 0.0521884 -0.15463562 0.0756351
0002a0 2f 22 bd 3d c7 24 2b be 23 66 32 be 38 77 ae bd
       0.09235036 -0.16713248 -0.17421775 -0.08518833
0002b0 aa 16 26 be 12 77 d1 bd b8 85 bb bd 26 fa ca bd
       -0.16219583 -0.10227789 -0.09156364 -0.09910993
0002c0 d9 fd 76 bc 2e 94 86 bd 3c 9c 08 bd 7b ac bd bd
       -0.01507517 -0.06571232 -0.03335212 -0.09261414
0002d0 91 09 88 3d 1d 48 3e bc 69 0d a6 3d 10 64 5c 3d
       0.0664245 -0.011613873 0.081080265 0.053806365
0002e0 6d ae 2a be a0 fa 74 3d 0b 97 38 be f0 4a 0f 3d
       -0.166681 0.059809327 -0.18026368 0.034983575
0002f0 9c b3 c2 bb bc 20 e5 bc 44 76 38 be 6b 8d 07 bd
       -0.0059418213 -0.02796971 -0.18013865 -0.03309385
000300 ae 47 ac bd 23 f6 36 be 39 f8 bb bd 70 10 ba 3c
       -0.08412109 -0.17867331 -0.09178204 0.022712916
000310 8a 8a aa bc 8d fa a8 bd 5a a3 86 bd ba 37 09 be
       -0.020818014 -0.08250914 -0.065741256 -0.13400164
000320 69 65 1c 3e e3 2b 7f 3d 31 f1 50 3d af a7 67 bd
       0.1527306 0.062297713 0.051011268 -0.0565564
000330 a2 da 04 3e 2f e4 cf bc 2e a7 a1 3c b0 8b 6e 3d
       0.12974027 -0.025377361 0.019733038 0.058238685
000340 f3 80 02 3e 58 f5 80 3d 19 f3 00 3e 75 86 f6 bd
       0.12744503 0.062967956 0.12592734 -0.120373644
000350 93 24 7b bc 11 0d 52 bc 0b bf 22 bd 4c 85 0c bc
       -0.015328544 -0.012820498 -0.039732974 -0.008576702
000360 49 c1 64 3a ed f9 3d be 6f e9 87 bd df a3 46 be
       0.00087263115 -0.1855237 -0.06636321 -0.1939845
000370 ad e3 69 bd 50 f2 d7 bd de e8 4b bd 55 69 08 bd
       -0.057101894 -0.10544264 -0.049782626 -0.033303577
000380 c2 c1 9b bc 16 dc 9b bc 7e 89 8f 3d 17 cc f1 3d
       -0.01901329 -0.019025844 0.070086464 0.11806505
000390 7d f1 f5 bc 0c b3 9d 3c 13 be a6 3d a0 00 50 3d
       -0.030022377 0.019250415 0.081417225 0.050781846
0003a0 f4 b0 11 3d 2e 08 de bd e0 1a 67 bd d1 9e 0e be
       0.035569146 -0.10841404 -0.056422114 -0.13927771
0003b0 e1 da 29 be 8f 32 cc 3c 8c d7 e6 3c ba d9 0c bc
       -0.16587402 0.024926452 0.028178953 -0.008596832
0003c0 1e 70 a9 bd 22 0a 02 be 81 eb 25 3c bb cd 80 bc
       -0.08273338 -0.12699178 0.010126949 -0.0157231
0003d0 54 75 5d 3d c1 3a 3e bc 31 b0 ea bd f3 bd 81 3d
       0.05406697 -0.011610688 -0.11459387 0.06335058
0003e0 58 19 ec 3b 1c 25 81 bc cd 08 b0 3d 11 72 13 3d
       0.0072051696 -0.015764765 0.085954286 0.035997454
0003f0 e3 a5 32 3e fd 31 18 bd 3e 4b 28 3e e9 01 b3 bb
       0.17446093 -0.037157048 0.16434953 -0.005462874

R__910 f4 [1, 96, 32]
000000 55 e6 16 3e b2 19 0f bd 65 81 b9 bd ec 72 92 3d
       0.14736302 -0.034936614 -0.09057883 0.07150826
000010 fa 78 94 bd fe 9d 84 3d 30 a2 8e 3d 75 97 34 bd
       -0.07249637 0.06475447 0.069645286 -0.044089753
000020 96 63 98 3e 06 9b 03 be eb c3 97 3e 41 1a 4c 3d
       0.29763478 -0.12852105 0.2964166 0.049829725
000030 04 47 29 bc 59 17 ea 3a db 96 86 bb e6 e3 a3 bd
       -0.010331873 0.0017859741 -0.004107339 -0.080024526
000040 17 cd 9f 3d be 13 02 be 74 bc 1d bd 19 d8 1e bc
       0.0780279 -0.12702844 -0.0385098 -0.009695076
000050 a2 33 e0 bd 8d 45 9b b9 a8 12 8f bd a3 34 16 bd
       -0.10947348 -0.00029615723 -0.0698598 -0.036671292
000060 d1 72 05 be 9e 7b 85 3c 4f 51 5e 3e d6 19 5d 3d
       -0.1303208 0.016294297 0.21710704 0.053979717
000070 0d 19 cc 3c 70 cd 2e bc bf d4 83 3c 4e 2e d1 bd
       0.024914289 -0.010669097 0.016092656 -0.1021391
000080 62 33 a9 3d e3 84 22 be 00 69 31 3d bf 68 e7 3c
       0.082617536 -0.15871005 0.043313026 0.028248189
000090 44 b3 3f be c3 9e 72 3e 11 23 2b be 12 88 90 3d
       -0.18720728 0.23693375 -0.16712596 0.07057203
0000a0 ca d5 66 be c1 60 75 bd 54 b2 b3 3d 7d bf 60 3d
       -0.22542492 -0.059906725 0.08774248 0.054870117
0000b0 d7 e7 15 3d 6a b0 d9 3c c4 a8 05 be 43 e1 1a 3d
       0.036598053 0.026573379 -0.1305266 0.037812483
0000c0 28 be 52 3d f5 f8 a8 3b f1 59 89 bc 09 8e 2a 3d
       0.05145088 0.005156631 -0.01676652 0.04163936
0000d0 b1 f7 d2 3d c8 0f 4a 3e 1a 4b 28 be 19 7b 30 be
       0.1030115 0.19732583 -0.16434899 -0.17234458
0000e0 55 2e 16 3e 90 fb 7d bd d5 84 1c bd 99 a3 7e bc
       0.14666112 -0.062007487 -0.038212616 -0.015541934
0000f0 9d d1 26 3d 24 52 49 be ef f7 02 be 0a 5a 49 3c
       0.040727247 -0.1966024 -0.12789892 0.012289533
000100 d5 6c 1c bd 02 f9 45 3d 83 89 a2 bd 9d 4d 0f bc
       -0.038189728 0.048333175 -0.079363845 -0.008746532
000110 c7 cf a1 bd 1d c8 ef 39 98 1b 30 bd 92 92 83 bd
       -0.079009585 0.00045734728 -0.042995065 -0.064244404
000120 98 29 d8 3d 11 5a 7c 3e 0a 59 28 bd 4b ca e9 3c
       0.105548084 0.24643733 -0.04110054 0.028538844
000130 b3 de 00 be f0 96 80 be d4 a9 e3 bd 81 5c 73 3d
       -0.12584953 -0.25115156 -0.111163765 0.05941439
000140 d2 d2 b2 3d c6 4e 90 3d 45 31 eb bd d1 68 2e 3e
       0.08731617 0.07046275 -0.11484007 0.17032172
000150 4c 56 63 3e a0 25 b2 3d 2e 2e 46 3e d5 af 73 be
       0.22200888 0.08698583 0.19353554 -0.23797543
000160 9d 6b ad bc 5c f0 b9 bb 59 66 1d be 1b 2c 37 3e
       -0.021169478 -0.005674405 -0.15371074 0.17887919
000170 70 32 6e 3e b4 7f 71 bc 6f 95 87 be 57 5e 10 bd
       0.23261428 -0.014739919 -0.26481196 -0.03524622
000180 6e 31 5d bd ff a5 09 3d 71 6b 30 3e 03 11 05 3e
       -0.054002218 0.03360557 0.17228486 0.1299477
000190 e7 b9 a6 3b ad 2a 0c be 90 9e 89 bc 9c 1a e0 bd
       0.0050880793 -0.13688155 -0.016799241 -0.10942575
0001a0 51 2d 14 3e 1c 52 52 3e da ae 86 3d fc 31 07 be
       0.14470412 0.20539135 0.06576319 -0.13202661
0001b0 bf e7 67 3d 0a 52 16 3d 9d 25 63 3d b1 d6 e3 bd
       0.056617495 0.036699332 0.055455793 -0.111249335
0001c0 2a 29 55 3d 6e 3c 43 3d a5 30 fe 3a e1 c6 19 be
       0.05204121 0.047665052 0.0019393159 -0.15017273
0001d0 97 a2 33 b9 e0 74 a9 3c 24 14 d2 bd c5 44 9d 3c
       -0.0001713134 0.020685613 -0.10257748 0.01919783
0001e0 d7 a4 1f be a7 8d 73 3d f4 c4 2a bd 23 3f aa 3d
       -0.15590225 0.059461262 -0.041691735 0.083128236
0001f0 dd d6 dd bc 63 0b 5f bd f6 1e 4d 3e 0c 2b 43 bc
       -0.027079994 -0.05445422 0.20031342 -0.011912119
000200 f4 f2 35 3c 78 57 5e bd 61 93 26 3e b3 8f 85 3e
       0.011105288 -0.054282635 0.16267158 0.26086196
000210 3d 1d a8 3d b0 14 35 bd c9 34 88 3d 19 c3 47 bd
       0.08208702 -0.044209182 0.06650693 -0.048770044
000220 c6 e8 1e be 25 d6 84 bd 96 21 f9 3d 18 b9 f5 bd
       -0.15518484 -0.06486157 0.12164609 -0.119981945
000230 98 20 18 3d 0a e9 d3 bc 65 b0 3a be 89 0a 4c 3d
       0.03714046 -0.025867958 -0.18231352 0.049814735
000240 28 d4 2d be 62 f8 eb 3d 97 a8 dd 3c 5a 1d 09 3c
       -0.16975462 0.11521985 0.027057929 0.008368814
000250 94 94 aa bc 6c a8 6e bd 06 67 de bd be 7a b8 bc
       -0.0208228 -0.05826609 -0.10859494 -0.022519466
000260 97 2d fa bd cd 5d d0 bd a6 03 2b 3e 49 e8 09 be
       -0.12215727 -0.10174141 0.1670061 -0.13467516
000270 d2 54 5b 3e 2b da 03 3e 86 4e ad bd 4e e3 6f be
       0.21419075 0.12876193 -0.08462243 -0.23426554
000280 b6 d4 09 bd 91 c7 93 3c f9 8a 79 bd a8 bd 1e 3d
       -0.033650123 0.018039497 -0.06092355 0.03875509
000290 25 2f 82 bd b9 9a 11 be 12 3e 09 bc 02 2b 38 3e
       -0.06356648 -0.14219178 -0.008376615 0.17985156
0002a0 da 1c 14 3d 20 ba be bd 4c 26 e7 3d c7 d5 7c be
       0.036160327 -0.09312844 0.112866014 -0.24690925
0002b0 10 d2 08 bd 61 fe 76 3e 09 9b e6 3d 60 08 ba bd
       -0.033403456 0.24120475 0.11260039 -0.09083629
0002c0 f9 7c a2 3d 10 26 fd bd 08 05 e0 bc 8c 92 b6 bd
       0.07933993 -0.123607755 -0.02734615 -0.0891467
0002d0 38 26 21 3e 5b db c1 3c b6 8a 3a 3c 44 ba 42 3c
       0.15737236 0.023664167 0.01138561 0.0118852295
0002e0 bd da 8c bd 02 aa 4d 3d 6b f1 74 bd a4 cf bb bd
       -0.068776585 0.05021096 -0.059800547 -0.09170464
0002f0 3a 01 bb 3d 40 bc 1d bd 2d a1 9e 3d 03 79 e9 3d
       0.09131093 -0.038509607 0.077455856 0.11400034
000300 3a 3b 9a bd 83 c0 91 3d 38 71 bc 3c 57 0a 49 3e
       -0.07530828 0.07116797 0.023003206 0.1963285
000310 f9 f6 25 3c ab 51 0d 3e d7 8a 5e 3d 0f 3f 14 3d
       0.010129684 0.13800685 0.054331627 0.03619295
000320 55 3d 14 3b de eb cf bb 43 67 71 bb a9 f3 3b 3e
       0.0022619565 -0.006345256 -0.003683523 0.18354668
000330 de a6 df bd 6e 43 2d 3e c6 01 b1 bd 09 99 b9 bd
       -0.10920499 0.16920254 -0.086429164 -0.09062392
000340 06 d1 6e 3d 7d dd a2 bd 26 2f 1f 3e f4 42 94 bd
       0.05830481 -0.07952402 0.1554533 -0.07239333
000350 b5 b2 8d bd 8a bc a4 3b 5d 45 8e 3b 46 8e 15 be
       -0.06918851 0.0050273584 0.004341765 -0.14605054
000360 8c bb 8b 3d fc e2 aa 3d 3f 92 ab 3d 8a bd 8e 3d
       0.06822881 0.08344075 0.083775036 0.069697455
000370 1b e3 68 3d ab 81 c4 3d 30 ef 31 bd 02 1d 33 be
       0.05685721 0.09595045 -0.043440998 -0.17491534
000380 b6 0b 19 bd e7 d5 04 be 8f 55 9e be 41 28 60 bc
       -0.037364684 -0.12972222 -0.3092465 -0.013681472
000390 0c ee 17 3e df 6a 12 3d 4c 75 36 be 87 5a d9 bd
       0.14836901 0.03574645 -0.17818183 -0.1061297
0003a0 7b ae ba bd e8 a0 c0 3c 38 16 1a 3d 0b 80 93 3d
       -0.09115311 0.023514226 0.037618846 0.07202157
0003b0 df 84 27 3c 95 66 8f 3c 46 1d 8b 3c fb c3 75 3d
       0.01022455 0.01750497 0.016981732 0.060001355
0003c0 78 19 54 3c 36 1c d7 bd d9 1a 86 3c 51 d0 51 3e
       0.012945525 -0.10503428 0.016370224 0.20489623
0003d0 03 1c 7d 3d 21 ea 16 ba 67 0d 68 be c9 4b 44 bc
       0.061794292 -0.0005756934 -0.22661363 -0.011980959
0003e0 b9 1d 97 3d 30 c1 e0 3d 1c 9f 9a 3d 20 4c 6c 3b
       0.07378716 0.109743476 0.07549879 0.0036056116
0003f0 a9 d4 8c 3d 4f 40 f4 3b 5b 3d 08 be 78 d3 72 3d
       0.06876499 0.0074539552 -0.13304655 0.059283704

R__896 f4 [1, 192, 64]
000000 f4 db 13 3e 82 e8 7b bd 79 03 50 3d 7a f5 e5 3d
       0.14439374 -0.061501034 0.05078456 0.112284616
000010 fe 0d a2 bd 23 ca 37 be 1e 85 2c bc 29 ed 95 3d
       -0.07912825 -0.17948203 -0.0105297845 0.07320625
000020 d5 e5 6c 3d b2 bf 0c 3d 4a 66 0f be 21 4f 2c be
       0.057836372 0.034362502 -0.14003864 -0.1682706
000030 33 3d 72 3d 39 fb 8e bd 91 65 6b 3d 8d 9a f5 bc
       0.059140395 -0.06981511 0.05746991 -0.029980922
000040 1e bf 91 3c 1d 80 12 3d 37 d3 ec bc 53 71 0d 3e
       0.017791327 0.03576671 -0.028909309 0.13812761
000050 62 a2 a1 3d 7e 81 08 bd 45 ff 82 be 7a 4b 9d 3d
       0.078923 -0.03332662 -0.2558538 0.07680412
000060 c7 8c 1f bd e0 5d d0 3d 7f 7b 47 3c 6f b7 ae 3c
       -0.038952615 0.10174155 0.01217544 0.021327702
000070 e3 45 24 be ee ce e5 bd 72 80 cc bd 9f 77 94 bd
       -0.16042285 -0.11221109 -0.099854365 -0.072493784
000080 29 5a fa bc 12 89 5c bd dd 33 f5 3d 6d 04 fd 3d
       -0.03056057 -0.053841658 0.11972783 0.1235436
000090 03 44 88 3d 65 b4 7f bb 62 04 9b 3d 7b 12 6d bd
       0.06653597 -0.0039017436 0.07569195 -0.057878952
0000a0 be a3 7d 3d 8a 87 ca bc 3b 40 13 bd d0 1c b2 bd
       0.061923735 -0.024722833 -0.035949927 -0.08696902
0000b0 6f ef 41 bd 5b be 40 bd 19 fc 59 bc 7b 25 d9 bb
       -0.047347482 -0.047056537 -0.013304734 -0.0066267825
0000c0 33 85 33 3e a1 03 c7 bd d8 f1 15 3e 67 c4 18 3e
       0.1753128 -0.09717489 0.14643037 0.14918672
0000d0 c4 39 13 bc 2c d8 ff 3d 58 b0 81 3c 80 df 8a 3d
       -0.00898594 0.124924034 0.015831158 0.067809105
0000e0 af 56 a0 3d 3b 97 2c bd 58 e6 ef bd 9e 4e bf bd
       0.078290336 -0.042136412 -0.117138565 -0.09341167
0000f0 de db b9 bd 81 a3 23 be 6b 3c 37 3d 83 97 ca bb
       -0.090751395 -0.1598034 0.044735353 -0.0061826124
000100 01 81 bd bc 9a 18 d7 bd 1f a9 73 bd ec 21 93 3c
       -0.023132803 -0.10502739 -0.05948746 0.017960511
000110 32 c1 17 bd 99 7f b3 3d 52 09 5a 3d 05 17 af bc
       -0.03704948 0.08764572 0.053231545 -0.021373281
000120 19 a5 27 3e 01 5d 96 3c 6a f7 22 3e 03 de 77 3e
       0.16371574 0.018354895 0.15914693 0.24205784
000130 8d b9 8d bd 22 bf 6f 3d a3 d8 ac bd 14 42 81 3d
       -0.06920157 0.058531888 -0.08439758 0.063114315
000140 83 52 09 3d 7a bb 1b 3e 2f df 65 bc db 80 7b 3d
       0.033525955 0.15208235 -0.014030262 0.061402183
000150 c2 18 57 bd fc 9e 53 3d 91 c8 dd 3d 63 7b 73 bc
       -0.052513845 0.05166529 0.10829271 -0.014860961
000160 71 7a 71 bc c7 9a 4e 3b 04 9d 57 3c 82 00 55 bb
       -0.014738665 0.003152536 0.013159994 -0.0032501523
000170 eb 6a 2c 3e bf 7b 77 be 29 ff 2b 3d 86 77 90 3c
       0.16837661 -0.24168299 0.041991387 0.017635118
000180 8a b0 11 bd 34 2c ce 3b 2e 92 3e bd 04 50 1e 3e
       -0.03556875 0.0062918905 -0.046526127 0.15460211
000190 2a 5d 14 3d b6 ef de bd 41 68 67 3d 80 ef 24 3d
       0.03622166 -0.10885565 0.05649591 0.040267467
0001a0 28 e2 ed 3d 48 04 07 3e b7 94 2f 3d 35 55 b9 bd
       0.116154015 0.13185227 0.042866435 -0.09049455
0001b0 fb 1d 1d 3c 40 06 07 3d b1 44 61 bd de 31 41 3d
       0.009589667 0.032964945 -0.05499715 0.047166698
0001c0 98 70 84 3d 52 c8 fe 3c 12 e3 3a bd 41 90 19 3d
       0.06466788 0.03110138 -0.045626707 0.037491087
0001d0 ec 6a 7e 3c 84 40 70 bc d3 cc 49 bd c4 2f 2f 3d
       0.015528422 -0.014663819 -0.0492676 0.042770162
0001e0 bf 0e d7 bb 9f 05 ae 3d c1 29 fe 3c 35 62 8c 3e
       -0.006563037 0.08497166 0.03102577 0.27418676
0001f0 97 7e 95 bd 27 07 2c be 84 3f 2a bd 6d 77 8f 3d
       -0.07299536 -0.16799603 -0.04156448 0.070052005
000200 9d 69 ab 3d 6d 33 0f 3d 38 d7 7e be e6 25 75 bc
       0.083697535 0.034961153 -0.24886787 -0.014962649
000210 6f 20 0a 3e 55 ad c1 3b a3 d1 d4 bd f4 f6 2b be
       0.13488935 0.0059105554 -0.103915475 -0.16793424
000220 3e 92 da 3d a6 44 80 3d f3 3d ce 3d fd c4 50 bd
       0.10672425 0.06263094 0.100704096 -0.050969113
000230 fa b8 6c bc de ac 3d ba c5 b3 b4 bc 69 95 ae 3d
       -0.014448399 -0.0007235537 -0.022058377 0.085245915
000240 8d a5 26 3d 11 85 96 3c a6 15 28 3e c6 c5 74 3c
       0.040685225 0.018373998 0.16414508 0.014939731
000250 fe a4 a0 bd b3 85 bd bd cc ea 31 bd 93 6f 18 3d
       -0.0784397 -0.09254017 -0.04343681 0.03721578
000260 35 16 c0 bd 2a 84 4d 3c b1 d6 98 3d c5 5b 26 3d
       -0.09379236 0.012543717 0.07462824 0.040614862
000270 8a 97 92 bc 94 5b c1 bd df 8d 1d 3d 99 d7 09 be
       -0.017894525 -0.09441295 0.038465377 -0.1346115
000280 91 5f a0 bc fd 59 ab bc 5a a3 ff 3d 63 9c a0 bd
       -0.01957682 -0.020916933 0.12482329 -0.078423284
000290 54 6c 0c 3e bb f4 02 3d 32 c1 41 3b 2a bc 0c 3d
       0.13713199 0.031971674 0.0029564616 0.034359135
0002a0 d0 37 7e bd 66 9e 93 3d 9d d2 7d 3c ca ea 0f be
       -0.062064946 0.072079465 0.015492109 -0.14054409
0002b0 b9 89 fb bd 90 b9 ee bd 0f a2 45 3d 6e ab 08 be
       -0.12282128 -0.11656487 0.048250254 -0.13346645
0002c0 a3 4a e3 bc b4 f9 8b 3d fb 9f 11 bc 32 9d 11 3c
       -0.02774555 0.068347365 -0.00888824 0.008887576
0002d0 35 4a 61 be 0a 28 81 bd 8b a6 a1 bc 43 e4 a0 bc
       -0.22000964 -0.06306465 -0.019732734 -0.019640094
0002e0 c4 0f 16 3d 37 0d 12 bd c7 ee 13 be 84 7e f0 bc
       0.03663613 -0.035657134 -0.14446555 -0.029357202
0002f0 c1 1b 04 3e da 23 1d be 56 d1 86 3d 4b d1 1b be
       0.12901212 -0.15345708 0.065828964 -0.15216558
000300 a9 4e 4c bd 0c c1 95 bc 9c 1f 86 bd be fc 5c bd
       -0.049879704 -0.018280528 -0.06548998 -0.05395197
000310 f1 5d 27 be e3 91 c4 3d 78 c2 fd 3c 9e e2 48 3e
       -0.1634443 0.09598138 0.030976519 0.19617698
000320 37 1d 77 bd 9f e8 2b bd 01 8d c4 3c 2c b0 bd 3c
       -0.060330596 -0.04196989 0.023993017 0.023155294
000330 cd 78 bc bc 0d 44 80 3d 63 f9 5f 3d 76 20 05 3c
       -0.023006821 0.0626298 0.054681193 0.008125415
000340 b8 d8 2f 3d f7 ca 9f 3d 15 d7 bd 3d 74 40 cc bc
       0.04293129 0.07802384 0.09269539 -0.024933077
000350 d4 38 16 bd cc 51 20 3e 3c 14 6a 3d 1d 9b 59 3b
       -0.03667529 0.15656203 0.057148203 0.0033204027
000360 5e e1 54 be 34 19 a6 3d c1 43 3f be ab d2 89 bc
       -0.20789096 0.08110276 -0.1867819 -0.016824087
000370 df 93 89 3c 78 47 e7 bd 02 0f 44 3e f0 16 0f 3e
       0.016794143 -0.112929285 0.1914635 0.13973594
000380 e4 26 53 bd f8 5e 53 bc a3 60 cf bc 1b fb 4b 3e
       -0.05155076 -0.01290106 -0.025314635 0.19920008
000390 f3 01 0b be 58 01 bc bd f7 17 bc bd 8c c8 8a 3d
       -0.13574962 -0.09179944 -0.091842584 0.067765325
0003a0 52 0e e8 3d f9 13 44 3d 8d 7f a5 bd 8d 7d 39 be
       0.113308564 0.04787061 -0.08080969 -0.181143
0003b0 f0 0b 54 3d a9 f5 02 3d 78 2e 4f 3d ad 1a c5 3d
       0.051769197 0.03197256 0.050581425 0.096242286
0003c0 07 8e 1f be 0d 94 40 bd e7 35 28 bd 94 4c a8 3d
       -0.15581523 -0.047016192 -0.04106703 0.08217731
0003d0 a7 03 87 ba 55 58 26 be 90 fc a8 3d 9b 62 5a bd
       -0.0010300771 -0.16244633 0.082512975 -0.053316694
0003e0 75 06 c0 3d 9e 28 38 3d b6 bd ae bd 92 b0 2b 3e
       0.093762316 0.04496061 -0.08532278 0.16766575
0003f0 1d 88 a6 bd 88 3a a1 bc 00 25 a4 bd 6a 41 a6 bd
       -0.0813143 -0.01968123 -0.0801487 -0.081179455

R__883 f4 [1, 384, 128]
000000 35 65 9c bd 0f 32 7d bd 19 33 55 3e 12 0e 7c 3d
       -0.07636491 -0.061815318 0.20820273 0.061536856
000010 b9 7e 1a 3c 66 51 02 be 78 98 2b bd 39 61 c7 3d
       0.009429627 -0.12726364 -0.041893452 0.097353406
000020 dc 79 3b 3d 3a 16 9b bd 29 85 ed 3d 2c 61 10 3d
       0.04577051 -0.07572599 0.11597664 0.03524892
000030 d8 fd 88 bd 2b e4 07 be a9 42 be bb c4 46 ad 3c
       -0.06689042 -0.13270633 -0.0058062864 0.021151908
000040 d8 31 78 bd de 6e 81 3c 2c e8 52 3c 61 94 99 3d
       -0.06059441 0.015799936 0.012872737 0.07499004
000050 bb 59 9b 3c 9c 4b ad bd ec 5f 8e bc 35 11 01 be
       0.018963685 -0.08461687 -0.017379723 -0.1260422
000060 33 e2 78 3b 4d 2a 4c bd ba 25 03 3c 91 93 4b 3d
       0.0037976622 -0.04984503 0.0080046 0.049701277
000070 c1 bd 26 bd c2 80 ff bc 6d ef 6b bd c5 4c a0 bd
       -0.040708307 -0.031189326 -0.05760138 -0.078271426
000080 d1 64 a4 bd 8e 6b bf 3c 95 d6 5f 3d d3 4b ac 3c
       -0.08027042 0.023366716 0.054648 0.02103225
000090 0c f7 65 3d db 94 66 b9 7c 28 c9 3c 13 97 90 3d
       0.056143805 -0.00021989962 0.024555437 0.07060065
0000a0 fa 98 93 3d df 80 fa bb 3d 59 81 3d cc 22 1f bd
       0.07206912 -0.007644757 0.06315849 -0.038851544
0000b0 52 67 07 b9 23 ef 87 3d d1 81 e0 bc 58 cb f3 bd
       -0.00012913093 0.066374086 -0.027405651 -0.11904019
0000c0 5d 5c 0d bd 04 40 31 3c 76 b5 63 bc 74 b5 49 3d
       -0.034511913 0.010818485 -0.013898244 0.049245313
0000d0 19 6b b9 3c b5 c9 3e 3d 90 4c db bd 0a a7 7a 3c
       0.022634076 0.04657908 -0.107079625 0.015298614
0000e0 1f ee cf 3c 1f c6 ed bd b8 07 2c 3d 61 d6 2e 3d
       0.0253821 -0.11610054 0.04199955 0.042684916
0000f0 7b 0f 1f 3d 90 dc ba bc bc a1 e0 3c 6f d0 b0 3d
       0.038833123 -0.02281025 0.027420871 0.086335056
000100 c2 7d e1 3c 00 44 96 3c 67 95 d6 3c c4 c6 05 be
       0.027525786 0.018342972 0.026194287 -0.13064104
000110 fb e9 35 3c 1e 79 e6 3c ab 12 fc 3d df 7e 17 3e
       0.011103149 0.028133925 0.12308248 0.14794491
000120 15 ea a6 bc 67 0c 32 3c 95 c2 0d be 7d 28 18 bc
       -0.02037529 0.010867215 -0.13843758 -0.009286997
000130 52 4f 5e 3b 27 71 a5 3d b7 0c 28 3c c8 9a ad 3d
       0.003392179 0.08078223 0.010256938 0.08476788
000140 ff b9 c7 bc 3f 20 96 bd e8 0a 2c 3d 7e 97 05 bd
       -0.024380682 -0.07330369 0.04200259 -0.032615177
000150 59 7a ac bb 29 07 40 3d 49 a1 dd bc c3 29 b5 bd
       -0.0052636084 0.04688183 -0.027054446 -0.08845856
000160 a2 66 45 3d 04 69 5e bd 67 ac 00 3d 36 de 97 bd
       0.04819358 -0.05429937 0.031414416 -0.0741543
000170 d5 25 38 3c 43 40 61 3c 3b 91 1b bd ba f4 c7 3d
       0.011239489 0.013748231 -0.0379803 0.09763475
000180 c9 f6 be 3c 9d e1 c5 bc 53 b0 1d bd 09 c6 88 bd
       0.023311036 -0.024155432 -0.038498234 -0.06678397
000190 f3 3e 31 3e 79 ee b1 3d de 26 8e bd 61 cb 89 bc
       0.1730917 0.08688063 -0.06941007 -0.016820611
0001a0 d2 3a f4 bd a3 cc ce bc 05 19 37 bd 2c 69 96 3d
       -0.119252816 -0.025244063 -0.044701595 0.07344279
0001b0 4b 2b 25 3e bf b1 07 3c 9a 0d 76 3d fd bb 41 3d
       0.16129796 0.008282124 0.060071565 0.04729842
0001c0 7f ac 80 bd 3e c6 4a 3c 1c ad d2 3d 7a 36 31 bd
       -0.06282901 0.012376366 0.10286924 -0.043264844
0001d0 12 28 45 bd fe db ad bc fa 70 e9 bd 75 11 02 3d
       -0.048133917 -0.021223065 -0.11398502 0.03175493
0001e0 39 7a 8c 3d fd 3f 71 3d 9e b2 18 bb 2d 2d b0 3d
       0.068592496 0.058898915 -0.0023299824 0.086023666
0001f0 f4 82 1f 3d 51 bb 88 bd 1e e2 0d bd 23 9e c6 3d
       0.038943246 -0.06676353 -0.03463947 0.09698131
000200 ab 9e a5 bd 5d b4 12 3d d7 4d b6 3d c4 ce 1b be
       -0.08086904 0.03581654 0.089015655 -0.15215594
000210 61 20 76 3d 75 b1 89 bd 50 ff c0 3d cd 82 93 3d
       0.060089473 -0.067233 0.09423697 0.07202683
000220 d5 11 b4 bc ca 8b 05 3c 8f 3c ed 3d 91 db 87 bc
       -0.02198116 0.008151004 0.11583816 -0.01658419
000230 c3 0b 18 bd ba aa 06 be 9b 11 b1 bc ed 23 fb 3d
       -0.03712059 -0.13151065 -0.02161484 0.12262712
000240 d1 74 14 bd 5c 31 bc bd 6c a7 40 3d b5 ff c8 3c
       -0.036244217 -0.09189102 0.047034666 0.024535993
000250 fa 58 4d 3c 3b e4 b0 bd ee f8 30 bd cb e8 cb bd
       0.012533421 -0.086372815 -0.043206148 -0.09956511
000260 fa 07 99 bc d4 b9 42 bd e7 c8 dd bc 2e 1c 23 bd
       -0.018680561 -0.0475405 -0.027073337 -0.039821796
000270 ba a4 e2 bb cf 73 71 bc 33 a4 04 3d 9e 25 44 3d
       -0.0069166096 -0.014737084 0.032383155 0.047887437
000280 ad b5 9c bd 76 36 80 bd 52 d8 a3 39 43 9b 3c 3d
       -0.076518394 -0.062603876 0.00031250954 0.046046507
000290 7a 19 69 3b c8 57 a9 3d ff 6b 8f bc 6f 30 8a 3d
       0.0035568164 0.08268696 -0.017507551 0.06747519
0002a0 a8 1d 0c bc d8 70 26 3d 15 b5 e7 3b c2 87 bf 3c
       -0.0085519925 0.04063496 0.007071147 0.023380164
0002b0 b7 7b 5c bd c6 d5 6a 3d 39 85 8d bd 0b ce 10 3c
       -0.05382892 0.057332776 -0.06910176 0.008838187
0002c0 9c 7e d5 3c 8a d3 94 bd 27 e2 b2 3d 7b 6d 2e bd
       0.026061349 -0.072669104 0.087345414 -0.042584877
0002d0 40 85 07 be 0b 03 9c bd 21 57 46 3c 8f c3 28 3d
       -0.13234425 -0.07617768 0.012105734 0.041202124
0002e0 66 c3 98 3d b7 68 b6 bb 2a a1 01 3b 83 23 57 3c
       0.07459144 -0.005566682 0.00197799 0.013131025
0002f0 7d 41 8f bd 78 9d b8 bd 92 b7 8c 3b 5a f9 02 3e
       -0.06994913 -0.0901441 0.004294344 0.12790433
000300 a7 0c 5a 3d db ed 4e bd 4d 75 41 3d 7d 9e 48 bc
       0.053234722 -0.050519805 0.047231007 -0.012244818
000310 22 0c b0 bc c7 cf 02 bd 46 bf 69 3d de 2b c8 3c
       -0.02149016 -0.031936433 0.05706718 0.02443498
000320 f3 8e 15 3d 8c a9 d9 3b 02 84 01 3c ff 7d 2b 3d
       0.03651328 0.006642526 0.007905008 0.041868206
000330 c8 50 ea 3a 11 6d b7 bc 9f 90 36 bd 47 29 51 3d
       0.0017876858 -0.022390874 -0.044571515 0.051064756
000340 75 5e 86 3d 40 a4 70 bd 34 58 69 3a 81 5a 1a 3d
       0.06560985 -0.05875039 0.0008901388 0.037683968
000350 49 de bc bd a8 0b 9e bd 72 90 e8 3c ec d6 35 3d
       -0.09222085 -0.07717067 0.02838919 0.04439442
000360 b6 31 e2 bc 4a 1e 3e bc 73 bf a9 bc f0 c7 8a bc
       -0.027611595 -0.011603901 -0.020721173 -0.01694104
000370 87 ac ba 3d 8a 2f 45 bc 4f dc be 3c 4e 3d ac 3d
       0.09114938 -0.01203526 0.02329841 0.084101304
000380 25 85 d5 3d 9f 0a a9 bc 67 89 42 3a 68 db da bd
       0.10425786 -0.020634947 0.0007420987 -0.1068638
000390 3b 69 46 3d 83 4a 10 3d 61 df 28 3d 5b 3d 9f 3d
       0.0484402 0.03522731 0.041228656 0.077753745
0003a0 57 e8 31 3d 2b 51 a5 bc 1c 24 d3 bd 40 59 27 3d
       0.043434467 -0.020180305 -0.10309622 0.0408566
0003b0 db 39 9d 3c d1 64 de bc c2 cf 47 bb fe 4b 0f 3e
       0.019192627 -0.027147682 -0.0030488824 0.13993832
0003c0 14 38 c7 bc 2d e5 21 bc 50 c4 f7 3c 64 87 ea 3b
       -0.024318732 -0.0098813 0.030244976 0.007157253
0003d0 88 d3 c8 bc 92 c0 91 bc c9 60 2b bd b8 04 6f bc
       -0.024514928 -0.01779202 -0.04184035 -0.014588527
0003e0 05 10 51 3d 07 23 f2 3d 6a d7 96 bd 9f 44 c3 bc
       0.051040668 0.11823087 -0.07365306 -0.023836432
0003f0 fd 97 d6 bc ce 9d 23 3d 99 71 ad bc 9e a8 cc 3d
       -0.02619552 0.039945416 -0.021172332 0.09993099

GRU/quant_dense_13/LastValueQuant/FakeQuantWithMinMaxVars__871 f4 [32, 1]
000000 4f 06 5f 3b 10 50 d6 be 6c a9 bf be f1 63 0b bd
       0.003403086 -0.41857958 -0.37433946 -0.03403086
000010 cd 72 70 3e bb 44 27 3e 39 b1 b8 be e6 ee 73 3e
       0.23481293 0.16334812 -0.3607271 0.23821601
000020 b4 f6 6c 3e bb 44 27 bc 24 5c 92 bd 81 fe e5 3d
       0.23140985 -0.010209258 -0.07146481 0.112301834
000030 3d d8 15 3e 92 e3 c4 be 19 e7 fa bc 14 77 b3 3e
       0.1463327 -0.38454872 -0.030627774 0.35051787
000040 cc 29 86 be 42 48 dd be f1 63 0b 3d b8 1d ca 3d
       -0.26203763 -0.4321919 0.03403086 0.0986895
000050 6c a9 3f be 85 25 43 bd ee 3c 2e 3e 89 4c a0 3e
       -0.18716973 -0.047643203 0.1701543 0.31308392
000060 0b e0 8e be 70 d0 9c 3e 6c a9 3f 3e fe 21 8d 3e
       -0.27905306 0.30627775 0.18716973 0.27564996
000070 d4 c0 aa 3e 4f 06 5f 3d bb 44 27 bc ea 15 d1 bd
       0.3335024 0.054449376 -0.010209258 -0.10209258

GRU/quant_dense_12/LastValueQuant/FakeQuantWithMinMaxVars__870 f4 [32, 32]
000000 f6 da dd 3d 2a 7b fe bd 8b f7 39 be d8 e7 6a bd
       0.10832779 -0.124258354 -0.18160836 -0.05735001
000010 15 ce d0 3b 90 9a 9c 3d cd 80 02 3d cd 80 82 3d
       0.006372223 0.07646668 0.031861115 0.06372223
000020 dd 8a 4d be b9 f4 f7 3d 00 21 23 be cd 80 82 bd
       -0.20072503 0.12107224 -0.15930557 -0.06372223
000030 3e 07 09 be f6 da 5d bd ae 8d 8f bd 3e 07 09 be
       -0.13381669 -0.054163896 -0.07009445 -0.13381669
000040 90 9a 1c bd be 97 5a 3e 2f 1e 61 be ae 8d 8f 3e
       -0.03823334 0.21346948 -0.2198417 0.2803778
000050 f6 da dd bd da a8 8a 3e be 97 5a be 76 4a 0c 3e
       -0.10832779 0.2708195 -0.21346948 0.1370028
000060 64 7f a1 be 05 c4 85 be 00 21 a3 bd 00 21 a3 3d
       -0.31542504 -0.26126114 -0.079652786 0.079652786
000070 15 ce 50 bd 00 21 a3 3e 52 b4 36 3e cd 80 82 bc
       -0.050977785 0.31861115 0.17842224 -0.015930558
000080 f6 da dd 3d 39 64 26 3e 31 df 80 be 1f 14 96 be
       0.10832779 0.1624917 -0.25170282 -0.29312226
000090 9d c2 a4 3e cd 80 02 be 52 b4 b6 3c 6c 04 47 be
       0.32179728 -0.12744446 0.02230278 -0.1943528
0000a0 76 4a 8c 3e 52 b4 b6 bd 1a 71 b3 3e 76 4a 8c be
       0.2740056 -0.08921112 0.35047227 -0.2740056
0000b0 f6 da dd bd 1a 71 33 3e f1 37 7b 3e d8 e7 ea 3c
       -0.10832779 0.17523614 0.24533059 0.028675005
0000c0 b9 f4 77 bd 15 ce d0 bc 34 c1 c3 bd 15 ce d0 bd
       -0.06053612 -0.025488893 -0.09558335 -0.10195557
0000d0 00 00 00 00 d8 e7 6a 3e 57 57 19 3e 71 a7 29 3e
       0.0 0.22940004 0.14974724 0.1656778
0000e0 81 b1 74 3e d8 e7 6a 3d 00 21 23 3e b9 f4 f7 3d
       0.23895837 0.05735001 0.15930557 0.12107224
0000f0 3e 07 89 bd f6 da 5d 3d 15 ce 50 3e c3 3a 3d be
       -0.066908345 0.054163896 0.20391114 -0.18479447
000100 ae 8d 0f 3d b9 f4 77 3e 57 57 19 be 52 b4 36 be
       0.035047226 0.24214448 -0.14974724 -0.17842224
000110 d8 e7 ea 3d 05 c4 85 3e 71 a7 a9 bd d8 e7 ea bd
       0.11470002 0.26126114 -0.0828389 -0.11470002
000120 67 61 e4 bd 90 9a 1c be 90 9a 9c 3d c8 dd 1f 3e
       -0.111513905 -0.15293336 0.07646668 0.15611947
000130 83 72 94 be 34 c1 43 3d 2a 7b fe bd 00 00 00 00
       -0.28993616 0.047791675 -0.124258354 0.0
000140 48 6e 71 3e f6 da 5d 3d f6 da 5d 3e 2a 7b fe bd
       0.23577225 0.054163896 0.21665558 -0.124258354
000150 f6 da 5d 3d 48 6e f1 3d 71 a7 29 3d ae 8d 0f bd
       0.054163896 0.117886126 0.04141945 -0.035047226
000160 15 ce 50 3d 15 ce 50 3c 52 b4 b6 bc 57 57 19 3e
       0.050977785 0.012744446 -0.02230278 0.14974724
000170 90 9a 1c bd 67 61 64 be 2a 7b fe 3d 00 21 a3 3d
       -0.03823334 -0.22302781 0.124258354 0.079652786
000180 39 64 a6 be cd 80 82 bc b9 f4 77 3d dd 8a 4d 3e
       -0.3249834 -0.015930558 0.06053612 0.20072503
000190 12 ec 8d be 83 72 94 be 39 64 a6 be b9 f4 77 bd
       -0.2771917 -0.28993616 -0.3249834 -0.06053612
0001a0 69 22 84 3e 52 b4 36 3d 1a 71 33 be 3e 07 89 bd
       0.25807503 0.04460556 -0.17523614 -0.066908345
0001b0 4d 11 54 3e 83 72 94 be 48 6e 71 be 15 ce d0 3b
       0.20709725 -0.28993616 -0.23577225 0.006372223
0001c0 05 c4 85 be 6c 04 47 be ae 8d 0f bd 90 9a 1c bd
       -0.26126114 -0.1943528 -0.035047226 -0.03823334
0001d0 05 c4 05 be cd 80 82 3c 15 ce d0 3c 90 9a 9c bd
       -0.13063057 0.015930558 0.025488893 -0.07646668
0001e0 64 7f a1 be 76 4a 8c 3e 52 b4 b6 3d ae 8d 0f be
       -0.31542504 0.2740056 0.08921112 -0.1401889
0001f0 52 b4 b6 bd 34 c1 43 3e e7 d0 92 be 4d 11 54 3e
       -0.08921112 0.1911667 -0.28675005 0.20709725
000200 e7 d0 12 3e 5f dc be be c8 dd 1f 3e 52 b4 36 3d
       0.14337502 -0.37277505 0.15611947 0.04460556
000210 a2 65 87 be 4d 11 54 3e 00 21 a3 bd a4 47 ca bd
       -0.26444727 0.20709725 -0.079652786 -0.098769456
000220 f6 da 5d 3e d8 e7 ea 3c 3e 07 09 be 15 ce d0 3d
       0.21665558 0.028675005 -0.13381669 0.10195557
000230 00 21 a3 3d c3 3a 3d be 64 7f a1 be e7 d0 12 be
       0.079652786 -0.18479447 -0.31542504 -0.14337502
000240 00 21 a3 3d e2 2d 30 be fb 7d 40 3e 15 ce 50 3b
       0.079652786 -0.17205003 0.18798058 0.0031861116
000250 00 21 a3 3d 48 6e f1 bd f6 da 5d 3e 2a 7b fe bd
       0.079652786 -0.117886126 0.21665558 -0.124258354
000260 e2 2d b0 be 90 9a 1c 3c 00 21 23 be 90 9a 1c 3d
       -0.34410006 0.009558335 -0.15930557 0.03823334
000270 3e 07 89 3d 9d c2 a4 3e 9f a4 67 be 2a 7b fe 3d
       0.066908345 0.32179728 -0.22621392 0.124258354
000280 3e 07 89 3e ae 8d 8f be 7e cf b1 3e da a8 8a 3e
       0.26763338 -0.2803778 0.34728616 0.2708195
000290 c3 3a 3d be cd 80 02 3e a9 ea ac be 2a 7b fe bd
       -0.18479447 0.12744446 -0.33772781 -0.124258354
0002a0 a4 47 4a 3e 15 ce 50 3d 15 ce 50 3d d8 e7 6a bd
       0.19753891 0.050977785 0.050977785 -0.05735001
0002b0 86 54 d7 bd 1f 14 96 bd 3e 07 89 bd ae 8d 0f 3d
       -0.105141684 -0.073280565 -0.066908345 0.035047226
0002c0 e2 2d b0 3d 52 b4 36 3d 15 ce d0 bd a2 65 87 3e
       0.086025015 0.04460556 -0.10195557 0.26444727
0002d0 12 ec 8d 3e 64 7f a1 3e 64 7f a1 be cd 80 02 3e
       0.2771917 0.31542504 -0.31542504 0.12744446
0002e0 f6 da 5d be 15 ce d0 bd d8 e7 ea bd fb 7d 40 3e
       -0.21665558 -0.10195557 -0.11470002 0.18798058
0002f0 86 54 57 3e 76 4a 0c be 48 6e f1 bd c3 3a 3d 3e
       0.21028337 -0.1370028 -0.117886126 0.18479447
000300 e7 d0 92 be 57 57 99 3e 48 6e 71 3e 34 c1 43 be
       -0.28675005 0.29949448 0.23577225 -0.1911667
000310 34 c1 43 3d 3e 07 89 bd 00 21 a3 3e ae 8d 8f 3d
       0.047791675 -0.066908345 0.31861115 0.07009445
000320 f6 da 5d 3d 2a 7b fe bd 10 2b 6e 3e 81 b1 74 3e
       0.054163896 -0.124258354 0.23258615 0.23895837
000330 34 c1 43 be 52 b4 b6 bd d8 e7 6a 3d 83 72 94 3e
       -0.1911667 -0.08921112 0.05735001 0.28993616
000340 34 c1 43 be b9 f4 f7 3d c8 dd 1f 3e 67 61 64 be
       -0.1911667 0.12107224 0.15611947 -0.22302781
000350 67 61 e4 bd e7 d0 12 3e 3e 07 89 bd 9f a4 67 3e
       -0.111513905 0.14337502 -0.066908345 0.22621392
000360 9d c2 a4 3e 15 ce d0 bd c8 dd 9f 3e 05 c4 05 be
       0.32179728 -0.10195557 0.31223893 -0.13063057
000370 76 4a 0c be 67 61 e4 3d 90 9a 9c 3d 7e cf b1 be
       -0.1370028 0.111513905 0.07646668 -0.34728616
000380 67 61 64 3e 52 b4 b6 bd 67 61 64 be 76 4a 0c be
       0.22302781 -0.08921112 -0.22302781 -0.1370028
000390 00 21 a3 3d cd 80 82 3e a9 ea 2c be be 97 5a be
       0.079652786 0.25488892 -0.16886391 -0.21346948
0003a0 69 22 84 be f6 da 5d bd 64 7f a1 3e 52 b4 36 3e
       -0.25807503 -0.054163896 0.31542504 0.17842224
0003b0 2c 3c 9e 3e 52 b4 b6 3d 9d c2 a4 be 1f 14 96 be
       0.30905282 0.08921112 -0.32179728 -0.29312226
0003c0 34 c1 43 3d 71 a7 a9 3d 31 df 80 be ae 8d 0f 3d
       0.047791675 0.0828389 -0.25170282 0.035047226
0003d0 b6 12 b5 be e2 2d b0 3d 4b 2f 91 3e e7 d0 12 3e
       -0.35365838 0.086025015 0.28356394 0.14337502
0003e0 86 54 57 be 90 9a 1c bc 00 00 00 00 90 9a 9c 3d
       -0.21028337 -0.009558335 0.0 0.07646668
0003f0 b6 12 b5 3e 1a 71 33 be 0d 49 ab be 3e 07 09 be
       0.35365838 -0.17523614 -0.3345417 -0.13381669
