models/station_17/model_latest.onnx (onnx, 407715 bytes, 12 tensors)

W__3967 f4 [1, 96, 64]
0	0xbe0772a9	-0.13227333
1	0xbca25577	-0.019816143
2	0xbcf34f24	-0.029700823
3	0x3cbed7af	0.023296205
4	0x3aafa12e	0.0013399476
5	0xbe51b25a	-0.20478192
6	0xbba90807	-0.0051584276
7	0xbd8b4963	-0.06801107
8	0xbdcfc8b3	-0.10145702
9	0xbe2c2e49	-0.16814531
10	0xbe06bfcd	-0.13159104
11	0xbe167db0	-0.14696383
12	0x3e19a9af	0.15006135
13	0x3d01e65e	0.031713836
14	0xbe06708c	-0.1312887
15	0x3dd370dc	0.103242606
16	0xbda34424	-0.07971981
17	0xbd965974	-0.073412806
18	0x3e16866e	0.14699718
19	0x3e2cf388	0.16889775
20	0xbd4afc1a	-0.04955683
21	0x3df759b5	0.12077657
22	0xbd9a8b4b	-0.07546099
23	0xbe1a6c1c	-0.15080303
24	0xbe023403	-0.12715153
25	0x3e1e5c64	0.15464932
26	0x3df2584d	0.11833248
27	0xbddd9b1b	-0.108206
28	0x3de52791	0.11189187
29	0xbdc810a9	-0.09768803
30	0xbdf33caa	-0.11876805
31	0x3e0c5e2b	0.13707797
32	0x3e4de7ce	0.20107958
33	0xbde038a1	-0.10948301
34	0x3cd04679	0.025424229
35	0xbd918354	-0.07105127
36	0x3ae4bb78	0.001745089
37	0xbc287e3b	-0.010284002
38	0x3d3eca83	0.04657985
39	0x3e6c317e	0.23065755
40	0x3e554b1a	0.2082943
41	0x3e09426c	0.13404244
42	0x3c1f3d47	0.0097191995
43	0xbb730e14	-0.0037087249
44	0xbd317355	-0.04332288
45	0xbcac113c	-0.021004312
46	0x3d9a75f6	0.075420305
47	0xbe166513	-0.14686994
48	0xbe101469	-0.14070286
49	0x3e3041f7	0.17212664
50	0xbe6e76cf	-0.2328751
51	0xbdf2c3fe	-0.11853789
52	0x3e591ab8	0.21201599
53	0x3da7c953	0.081926964
54	0xbe0fcddb	-0.14043371
55	0x3c8a670d	0.016894842
56	0xbe732dce	-0.23747942
57	0x3b864b4f	0.004098333
58	0xbb5ec3e8	-0.003399128
59	0xbd39b719	-0.04534063
60	0xbde704ec	-0.11280236
61	0xbdde5f3d	-0.10858009
62	0xbdc9138d	-0.09818182
63	0xbe3f9d73	-0.18712406
64	0x3d52ecdf	0.05149543
65	0x3d867063	0.06564405
66	0x3dde18a3	0.10844543
67	0xbe0707e0	-0.13186598
68	0xbd8a2459	-0.06745214
69	0xbe536b9b	-0.20646517
70	0xbd08ac60	-0.033367515
71	0xbe28a204	-0.16468054
72	0x3e127ec7	0.14306174
73	0xbe4ceda7	-0.20012532
74	0xbd3d257c	-0.046178326
75	0x3ca91049	0.020637648
76	0xbd8f0e7f	-0.06985187
77	0x3e480479	0.19532956
78	0x3e01146a	0.12605444
79	0xbd0f3e20	-0.034971356
80	0x3d8fce1b	0.070217334
81	0x3c6c9526	0.014439857
82	0x3def7143	0.11691525
83	0x3de949f2	0.11391057
84	0xbc8f9141	-0.017525317
85	0xbdc94f15	-0.09829537
86	0xbd28acef	-0.041180547
87	0xbcbcb2e1	-0.023034515
88	0x3e6d2f86	0.2316266
89	0x3ace5fe3	0.0015745129
90	0x3e50dce0	0.20396757
91	0x3e770d42	0.24126151
92	0x3d8bb6e2	0.068219915
93	0x3e223603	0.15840916
94	0xbe0dac94	-0.13835365
95	0xbe5c1ab6	-0.21494564
96	0x3d837781	0.06419278
97	0x3e356773	0.17715244
98	0xbde09abe	-0.10967015
99	0xbe4f89be	-0.20267388
100	0x3dad07fb	0.08448788
101	0x3e3fd3e9	0.18733181
102	0xbc7cd21b	-0.015430952
103	0x3e629438	0.22126853
104	0x3e146a39	0.14493646
105	0x3db3a85b	0.08772346
106	0xbddf1558	-0.10892743
107	0xbe1a152b	-0.15047137
108	0x3e12a5b6	0.14321026
109	0x3daeebe4	0.08541086
110	0x3e67c9f5	0.22635634
111	0xbdaddbc5	-0.08489183
112	0x3d33d945	0.043908376
113	0xbdbf2248	-0.093327105
114	0x3e417786	0.18893251
115	0xbd6b45cc	-0.05743961
116	0x3d25746a	0.040394224
117	0xbb496ec7	-0.0030736194
118	0x3dfbc8b1	0.12294138
119	0xbe05377a	-0.13009444
120	0xbdcdfa97	-0.10057562
121	0xbcdddaa4	-0.027081795
122	0x3e1f52af	0.15558885
123	0x3e01ab6d	0.1266305
124	0x3d844b7c	0.0645971
125	0x3ac7a76d	0.0015232392
126	0x3da73184	0.08163741
127	0x3e25c2de	0.16187617
128	0xbe439839	-0.19101037
129	0x3d7b28c7	0.061318185
130	0x3d4e0935	0.05030175
131	0xbd5b1869	-0.053490076
132	0xbdbee064	-0.09320143
133	0xbd279614	-0.04091461
134	0xbd879517	-0.066202335
135	0x3b10137e	0.0021984274
136	0x3df19d85	0.117976226
137	0xbe24a6f0	-0.16079307
138	0xbb947702	-0.0045307884
139	0x3e0d0d8d	0.137747
140	0x3da64b9d	0.08119891
141	0x3c8785ca	0.016543288
142	0x3e374036	0.17895588
143	0xbdcec4f6	-0.10096161
144	0xbda694fb	-0.081338845
145	0x3d848168	0.06469995
146	0x3e3e2e12	0.18572262
147	0x3dcbc672	0.0994996
148	0xbd202597	-0.03909835
149	0xbe351da0	-0.17687082
150	0xbdeaca6d	-0.11464391
151	0x3e0d55dd	0.13802285
152	0x3dc3973b	0.09550329
153	0xbda80169	-0.08203394
154	0x3dc97195	0.09836117
155	0xbdedd3c6	-0.11612658
156	0x3e13fe89	0.14452566
157	0xbc452d3b	-0.01203471
158	0xbe11c6ec	-0.14236039
159	0x3d840aa2	0.064473405
160	0x3df79f1b	0.12090894
161	0xbd92dbea	-0.071708515
162	0x3dbcfa58	0.09227437
163	0x3d85bfa5	0.06530694
164	0x3de0ae90	0.10970795
165	0xbd51bca0	-0.051205277
166	0xbdd537a4	-0.10411003
167	0x3d464073	0.048401307
168	0xbe488992	-0.19583729
169	0xbe51ee8d	-0.20501156
170	0x3d5168a9	0.051125202
171	0x3c6fdb28	0.014639653
172	0x3dd64624	0.10462597
173	0x3db72912	0.089433804
174	0x3e0b9221	0.13629963
175	0x3e0faf9a	0.1403183
176	0x3db96124	0.09051731
177	0xbe20048c	-0.15626734
178	0x3c78fe72	0.015197383
179	0x3e457009	0.1928102
180	0xbd971b3d	-0.07378242
181	0x3e249bb1	0.16075017
182	0xbd05867a	-0.03259895
183	0x3ce6acd1	0.028158577
184	0xbde69cbe	-0.11260365
185	0xbe4be7c8	-0.19912636
186	0xbd2f15e2	-0.04274548
187	0xbbf399db	-0.0074341125
188	0xbd1a779d	-0.03771173
189	0xbe0b945e	-0.13630816
190	0xbdf974ed	-0.12180505
191	0xbdda62f9	-0.10663409
192	0xbea56289	-0.3230174
193	0xbe1ce159	-0.15320338
194	0xbe636ba6	-0.22209033
195	0xbe0daf2c	-0.13836354
196	0xbe87f8e8	-0.26557088
197	0x3e04ebef	0.12980627
198	0x3c05bc3c	0.008162554
199	0x3c37f74f	0.011228397
200	0xbb1a05c3	-0.002350197
201	0xbac3c812	-0.0014936945
202	0xbdfaa626	-0.122387215
203	0x3db2fea4	0.08739975
204	0x3d2bafdf	0.04191577
205	0xbe879e43	-0.26487932
206	0x3e87f045	0.265505
207	0xbe9d1627	-0.30680963
208	0x3df2645c	0.11835548
209	0x3dbfda08	0.09367758
210	0x3d52b332	0.051440425
211	0xbe42c4df	-0.19020413
212	0x3e162769	0.14663471
213	0xbc3ad450	-0.011403158
214	0x3dc8b858	0.09800786
215	0x3d4c308a	0.049850978
216	0xbbf9acdc	-0.0076194834
217	0xbd7bfe69	-0.06152192
218	0x3ddd501d	0.10806296
219	0xbe46bd97	-0.1940826
220	0x3e1d37bd	0.15353294
221	0x3dee0453	0.116219185
222	0xbdb64742	-0.0890031
223	0x3d8b4c0c	0.06801614
224	0x3e2fc481	0.17164804
225	0xbe87cba3	-0.2652255
226	0xbd0e347e	-0.03471803
227	0xbdc946f1	-0.09827984
228	0x3ee75ab9	0.45186403
229	0x3d053028	0.03251663
230	0xbe629fca	-0.22131267
231	0xbe4d5730	-0.2005279
232	0x3dac8342	0.08423473
233	0x3d98f41d	0.07468436
234	0xbe93317d	-0.28748694
235	0x3e000504	0.12501913
236	0xbc343b4d	-0.0110004665
237	0x3cdf9890	0.027294427
238	0x3c95ef97	0.018302722
239	0xbe129563	-0.14314799
240	0xbe84dcb5	-0.25949636
241	0xbe2abc08	-0.1667329
242	0x3dd01b33	0.10161438
243	0xbe0348e2	-0.12820771
244	0x3c8f796c	0.017513953
245	0xbd60f54c	-0.054921433
246	0xbeb50a23	-0.35359296
247	0xbe6bf3b8	-0.2304219
248	0xbe0ef47c	-0.13960451
249	0x3e08f120	0.13373232
250	0x3ea256b0	0.31706762
251	0xbe060513	-0.13087873
252	0x3e470ad2	0.19437721
253	0xbe91644e	-0.2839684
254	0xbd91a70d	-0.071119405
255	0xbebc4005	-0.36767593

W__3953 f4 [1, 192, 128]
0	0xbd466e9a	-0.04844532
1	0xbda5f280	-0.08102894
2	0xbc22f874	-0.009946931
3	0x3d5ab145	0.053391714
4	0xbe37ac7a	-0.17936888
5	0x3d0e5a44	0.034754053
6	0x3e0e7fbf	0.13915919
7	0x3ced1cd2	0.028944407
8	0xbcbd19e6	-0.023083638
9	0x3d60be7a	0.054869153
10	0x3d702525	0.058629174
11	0xbc25ce3d	-0.010119972
12	0x39a88f47	0.00032150207
13	0x3d55a916	0.052163206
14	0xbd0c127e	-0.034197323
15	0xbe45324b	-0.19257466
16	0x3ca78e7f	0.02045369
17	0x3d037953	0.032098126
18	0xbe2bd937	-0.1678208
19	0xbdf084cf	-0.11744081
20	0xbde30aeb	-0.11086067
21	0x3e00095d	0.12503572
22	0x3d9d26a3	0.07673385
23	0xbda58a33	-0.08083
24	0xbd081de2	-0.033231623
25	0x3e2e97e2	0.17050126
26	0x3e49fd11	0.19725443
27	0xbd5fe14b	-0.054658215
28	0xbc8d035a	-0.017213512
29	0xbe66391e	-0.22482726
30	0x3d75eb57	0.06003889
31	0x3d001594	0.03127058
32	0xbd8bfbe3	-0.06835153
33	0xbd1bc1a3	-0.038026463
34	0x3cefae4a	0.029257912
35	0x3e2370b5	0.15960963
36	0xbd1bbeda	-0.038023807
37	0x3e44b31a	0.19208947
38	0xbd505b26	-0.050868176
39	0x3d3cf6cf	0.046133813
40	0xbd4e332e	-0.050341778
41	0x3ce6e1b2	0.028183792
42	0x3db2029c	0.08691904
43	0x3d270627	0.04077735
44	0x3d1f982f	0.038963493
45	0x3bb23c8a	0.0054393457
46	0xbd4db240	-0.05021882
47	0x3cef03ca	0.029176611
48	0x3d0c761a	0.034292318
49	0xbda7e4b8	-0.081979215
50	0xbe13e89a	-0.14444199
51	0xbd3df1ee	-0.0463733
52	0x3b36f59c	0.002791739
53	0x3db0f313	0.08640113
54	0xbced26a3	-0.028949087
55	0x3e1a4de0	0.1506877
56	0x3e32ec43	0.17472939
57	0xbda96f54	-0.08273187
58	0xbd742b02	-0.059611328
59	0x3db8d48b	0.09024914
60	0x3da15fd6	0.078796074
61	0xbcdd93b3	-0.027047968
62	0xbd44f913	-0.0480891
63	0xbd5ab76e	-0.05339759
64	0x3d941c3d	0.072319485
65	0xbd9e765b	-0.07737418
66	0xbc4650c7	-0.01210422
67	0x3d87467f	0.06605243
68	0xbda6cdfa	-0.08144756
69	0x3dedfa5e	0.116200194
70	0xbe047fcb	-0.12939374
71	0xbd709215	-0.058733065
72	0xbca3f3d7	-0.020013733
73	0xbd64658f	-0.055760916
74	0xbbd84431	-0.006599926
75	0xbcce5951	-0.025189074
76	0x3dd7ab29	0.10530693
77	0x3dcd476e	0.1002339
78	0xbd4b2195	-0.049592573
79	0xbba99da8	-0.005176265
80	0xbd11cae8	-0.035593897
81	0x3dee0f94	0.11624065
82	0x3ca4f148	0.020134583
83	0x3d17da4f	0.03707343
84	0x3d78bf85	0.060729522
85	0x3be49a27	0.006976384
86	0x3dedf8a6	0.116196916
87	0xbd4cc97a	-0.04999683
88	0x3d761b89	0.060084853
89	0x3d916cac	0.07100806
90	0x3dd208e0	0.10255599
91	0x3da7121b	0.0815775
92	0xbd0f4d95	-0.034986097
93	0xbcd061a4	-0.025437184
94	0x3d69dd04	0.057095543
95	0xbdcff23a	-0.10153623
96	0xbe13ceff	-0.14434431
97	0x3dbf7de7	0.09350186
98	0x3e119894	0.1421836
99	0xbce4fc00	-0.027952194
100	0x3d134a81	0.035959724
101	0xbc8c163a	-0.017100442
102	0x3d8f4e8f	0.06997406
103	0xbb34ddb8	-0.0027597975
104	0xbc2806e2	-0.010255547
105	0x3dd2e138	0.10296863
106	0xbd7eda1b	-0.06221972
107	0xbe2088a9	-0.15677132
108	0x3d3e66e2	0.046484835
109	0xbb66f0e4	-0.0035238797
110	0xbd3df557	-0.046376552
111	0x3dee5d58	0.11638898
112	0x3d5b777a	0.05358074
113	0x3e0647e1	0.13113357
114	0xbddc03ae	-0.10742889
115	0x3c973326	0.018457007
116	0xbe79383f	-0.24337862
117	0xbdb18b58	-0.08669156
118	0x3da073cd	0.07834587
119	0x3e2362ec	0.15955704
120	0x3e07b05c	0.1325087
121	0xbe0f1317	-0.13972126
122	0xbe3835a5	-0.17989214
123	0xbe0c6418	-0.13710058
124	0x3bff24a1	0.007786349
125	0x3cbeab83	0.023275143
126	0xbe69450d	-0.22780247
127	0xbc3b33ac	-0.011425894
128	0x3db474f3	0.08811369
129	0xbe0c2650	-0.1368649
130	0x3ce4dd78	0.027937636
131	0x3e332a66	0.17496642
132	0xbde81324	-0.11331776
133	0x3e181fd4	0.14855891
134	0x3d3bdf77	0.04586741
135	0x3db8fd09	0.090326376
136	0xbdc63b2b	-0.09679254
137	0xbcdffc32	-0.027341936
138	0x3dadd5e2	0.084880605
139	0xbd448240	-0.04797578
140	0x3d84a5d4	0.06476942
141	0xbe3c5cef	-0.18394826
142	0x3e31b5c9	0.17354502
143	0xbda0e067	-0.07855301
144	0xbd719040	-0.05897546
145	0x3c03bc3e	0.008040486
146	0x3dd017e2	0.10160805
147	0xbd1660aa	-0.03671328
148	0x3d18e375	0.037326295
149	0xbe05eae5	-0.13077886
150	0x3d27c573	0.040959787
151	0xbdb492a1	-0.0881703
152	0xbcfb1eff	-0.030654429
153	0xbe5a8586	-0.21339998
154	0xbe42c701	-0.19021226
155	0x3dedf2a6	0.11618547
156	0x3d79693b	0.06089137
157	0x3e45e686	0.19326219
158	0x3d1932b9	0.03740189
159	0xbe45f297	-0.19330822
160	0x3e14b38f	0.14521621
161	0x3e3e11ea	0.18561521
162	0xbd87b509	-0.066263266
163	0xbc783562	-0.015149446
164	0x3da3dbbb	0.08000895
165	0xbdedf510	-0.116190076
166	0xbd1bc774	-0.03803201
167	0xbde2d17e	-0.11075114
168	0xbdca8dd2	-0.09890331
169	0x3dbbd995	0.0917236
170	0xbe172df5	-0.14763625
171	0xbd6be650	-0.05759269
172	0xbe2758a0	-0.16342402
173	0x3d90f825	0.0707858
174	0x3dad4723	0.08460834
175	0xbe8a3d4f	-0.269999
176	0x3d87097b	0.06593605
177	0xbdab8931	-0.083757766
178	0xbe1acbdd	-0.1511683
179	0x3c0102e9	0.007874229
180	0x3e08b9d8	0.13352144
181	0xbd8661ed	-0.065616466
182	0x3d9c46df	0.07630705
183	0xbe08ba6e	-0.13352367
184	0x3d8262fb	0.06366535
185	0xbd930dd8	-0.07180375
186	0xbe273a29	-0.1633078
187	0xbc71b4d1	-0.014752583
188	0xbc59ca92	-0.013292925
189	0xbe198cd0	-0.14995122
190	0xbaa326d6	-0.0012447487
191	0x3dcd94ba	0.10038133
192	0xbd5bf748	-0.053702623
193	0xbe8dac47	-0.276705
194	0x3c2d55c4	0.01057953
195	0x3d7ef19f	0.062242147
196	0xbdd90ba6	-0.10597925
197	0x3e84c60f	0.25932357
198	0x3dd05834	0.101730734
199	0x3dff9472	0.124794856
200	0xbd3fd2bd	-0.046831835
201	0xbe0b0890	-0.13577485
202	0xbe305243	-0.1721888
203	0xbdd96abc	-0.10616061
204	0xbe9ca9da	-0.30598336
205	0x3ce45389	0.027871864
206	0xbdb9db23	-0.09075
207	0xbdc04ed9	-0.09390039
208	0x3e64ea56	0.22355017
209	0x3e4fd8e3	0.2029758
210	0x3e8262a6	0.25465888
211	0xbe21e3b1	-0.15809514
212	0xbe299756	-0.16561636
213	0xbd8c3c64	-0.06847456
214	0xbc10ec40	-0.008845389
215	0xbd5dbfe5	-0.054138083
216	0xbe464f11	-0.19366099
217	0xbddcb8d0	-0.10777438
218	0xbe1a12bc	-0.15046209
219	0xbe7e7bea	-0.24851957
220	0xbe3ee847	-0.18643294
221	0xbbe00925	-0.0068370276
222	0xbdec8884	-0.11549476
223	0x3de4b385	0.11167053
224	0xbc112e43	-0.008861127
225	0xbd99e1c7	-0.07513767
226	0x3e40794a	0.18796268
227	0x3d737522	0.05943788
228	0x3c3f50ae	0.01167695
229	0xbcff2472	-0.031145308
230	0xbdad3e8b	-0.08459195
231	0xbe08afd6	-0.13348326
232	0xbd7d7dd4	-0.061887577
233	0xbe65b5f6	-0.22432694
234	0xbe4837ba	-0.19552508
235	0xbe0a1dcb	-0.13487928
236	0xbdf00c5b	-0.117211066
237	0x3df6efe9	0.12057478
238	0x3cf20c12	0.029546771
239	0xbc5aab3c	-0.0133464895
240	0xbdb882c7	-0.09009319
241	0x3c457eee	0.012054188
242	0xbe110015	-0.14160188
243	0xbe376580	-0.17909813
244	0x3e79f0d2	0.24408272
245	0xbe9ae837	-0.3025529
246	0x3d89c018	0.06726092
247	0x3e086f90	0.13323808
248	0x3cdcb6c8	0.026942626
249	0xbd200535	-0.039067466
250	0x3d22275f	0.03958833
251	0xbd483fbb	-0.048888903
252	0x3d46fc16	0.04858025
253	0xbe531ed4	-0.20617229
254	0x3ca2c7a0	0.01987058
255	0xbd0beb30	-0.03415984

W__3940 f4 [1, 384, 6]
0	0xbeb62338	-0.35573745
1	0xbea64739	-0.32476214
2	0xbe531165	-0.20612104
3	0xbe2a4b99	-0.166304
4	0xbe734e8e	-0.23760435
5	0xbd3fedf7	-0.0468578
6	0x3e185f04	0.14879996
7	0x3ecc1810	0.39862108
8	0x3e12825b	0.14307539
9	0x3e8750a5	0.26428714
10	0x3e8d4aa1	0.27596
11	0x3d938e93	0.07204928
12	0x3d557128	0.052109867
13	0xbdaf8c12	-0.08571638
14	0x3d614351	0.05499584
15	0xbdb18c07	-0.08669286
16	0x3da1824e	0.07886182
17	0x3c35e014	0.011100788
18	0xbec96c07	-0.3934023
19	0xbe6cb9aa	-0.231177
20	0xbe0eff96	-0.13964686
21	0xbe9541c0	-0.29151726
22	0xbe8789f8	-0.2647245
23	0xbd7e18ba	-0.0620353
24	0xbd0b837a	-0.034060933
25	0xbe1f9d1d	-0.15587278
26	0xbc14d889	-0.009084829
27	0xbe385005	-0.17999275
28	0xbe5c7d47	-0.21532165
29	0xbbcd9f8a	-0.006275122
30	0x3deb866f	0.115002505
31	0xbdff774a	-0.124739245
32	0xbdb5f32e	-0.088842735
33	0x3e1393fd	0.14411922
34	0xbb9ebdea	-0.004844417
35	0x3d6cf2c3	0.057848703
36	0x3df7dee2	0.121030584
37	0x3d3e526e	0.04646533
38	0x3e4e13b9	0.20124711
39	0x3e42c2ae	0.19019577
40	0x3e32624b	0.17420308
41	0xbdc83d70	-0.09777343
42	0x3e1f162b	0.155358
43	0x3ecf4ff9	0.40490702
44	0x3e6d8cbf	0.23198222
45	0x3e4496af	0.19198106
46	0x3e3de7bc	0.18545431
47	0x3d10f4d8	0.03538975
48	0xbd46e740	-0.04856038
49	0x3c32fc51	0.010924415
50	0x3e3675a6	0.17818317
51	0x3e721bc0	0.23643398
52	0x3d76f1ef	0.06028932
53	0x3dd518d4	0.10405126
54	0x3e936a7a	0.28792173
55	0xbd5658f4	-0.052330926
56	0x3e5a9595	0.21346124
57	0x3e920aa4	0.28523743
58	0xbdbb7731	-0.09153593
59	0xbca7eeed	-0.02049967
60	0xbda1592f	-0.078783385
61	0xbea423ac	-0.32058465
62	0xbe8903b5	-0.2676064
63	0xbe9e59e2	-0.3092795
64	0xbe492fa8	-0.19647086
65	0xbd0b6083	-0.034027588
66	0xbdda48a3	-0.106583856
67	0xbe9e3682	-0.3090096
68	0xbe71ca42	-0.23612311
69	0xbbb6321a	-0.005560172
70	0xbe1a72bf	-0.15082835
71	0xbd798434	-0.060917094
72	0xbd190bd9	-0.037364814
73	0x3e00fbb2	0.12596014
74	0x3c1358d7	0.008993349
75	0xbcafaf06	-0.021445762
76	0x3dcc34c5	0.099710025
77	0xbdcad3b4	-0.099036604
78	0x3dbace70	0.09121406
79	0x3e898df2	0.26866108
80	0x3e4244c8	0.1897155
81	0x3e51320f	0.20429252
82	0x3e8acaa3	0.27107725
83	0x3e6378e4	0.22214085
84	0x3bc1fa16	0.005919705
85	0xbd36476d	-0.04450171
86	0xbc9a6642	-0.018847588
87	0xbcc9d669	-0.024638372
88	0x3db737f5	0.0894622
89	0xbe1f54ed	-0.1555974
90	0xbe2cfdb1	-0.1689365
91	0xbe9b62db	-0.30348858
92	0xbe2a35cc	-0.16622084
93	0xbeb341a5	-0.3501102
94	0xbe8cc98c	-0.27497518
95	0x3c603808	0.013685234
96	0x3d760c74	0.06007047
97	0x3d0c935b	0.034320217
98	0xbd917a1c	-0.07103369
99	0xbc84d386	-0.016214143
100	0xbe071135	-0.13190158
101	0x3e00e0c0	0.12585735
102	0x3bdab704	0.006674649
103	0xbe0d7ee8	-0.13817942
104	0xbe630f45	-0.22173794
105	0xbe0b4d0b	-0.13603608
106	0xbe8f41bd	-0.27979842
107	0xbd5140ea	-0.051087297
108	0xbe18ea2c	-0.1493308
109	0xbe0fdea0	-0.14049768
110	0xbd42b7f9	-0.04753873
111	0xbe4749be	-0.19461724
112	0xbe1769d4	-0.14786464
113	0x3d697feb	0.057006758
114	0xbe118261	-0.14209892
115	0xbe3bf3ca	-0.18354717
116	0xbe9f85cd	-0.3115677
117	0xbe37d14e	-0.17950937
118	0xbebd1749	-0.36931828
119	0xbd1427ad	-0.03617065
120	0x3dac1ded	0.084041454
121	0xbe1c73f8	-0.15278614
122	0xbddf8309	-0.10913665
123	0xbb8a6898	-0.0042238943
124	0xbdd0aaf3	-0.10188856
125	0x3cdcdded	0.026961291
126	0xbe1c7fd3	-0.15283136
127	0xbeaf3147	-0.34217283
128	0xbe28a4db	-0.16469137
129	0xbe6f8b9b	-0.23393099
130	0xbebd1ffd	-0.36938468
131	0xbd1fca27	-0.039011147
132	0xbd516a13	-0.05112655
133	0xbda2e6ff	-0.07954215
134	0xbe872f25	-0.26403156
135	0xbe1d5376	-0.15363869
136	0xbe111571	-0.14168335
137	0x3e00a34a	0.1256229
138	0xbe4c2f6f	-0.1993997
139	0xbe817078	-0.2528112
140	0xbec257e0	-0.37957668
141	0xbe00ba80	-0.12571144
142	0xbe82092d	-0.25397626
143	0x3e0536c6	0.13009176
144	0x3eb8ec67	0.3611786
145	0x3e9f31e0	0.3109274
146	0x3e737ba4	0.23777634
147	0x3e89ba2d	0.26899853
148	0x3ecf6a50	0.40510798
149	0x3de4922a	0.11160691
150	0xbe5e2fbe	-0.216979
151	0xbe52afd0	-0.2057488
152	0xbe81030a	-0.2519763
153	0xbe8cdb3c	-0.27511013
154	0xbe415d53	-0.18883257
155	0x3e0479e2	0.1293712
156	0xbe1da195	-0.1539367
157	0xbde53d48	-0.11193329
158	0xbe2343b0	-0.1594379
159	0xbe485f4b	-0.19567601
160	0xbd42a26f	-0.04751819
161	0x3da4d64e	0.08048688
162	0xbd849876	-0.06474392
163	0x3d804f02	0.062650695
164	0x3d30d963	0.043176066
165	0xbda44e37	-0.08022731
166	0xbc8de7a9	-0.017322378
167	0x3cd3d186	0.025856744
168	0xbd03f261	-0.032213572
169	0xbe3567a7	-0.17715321
170	0xbd72dfc6	-0.05929544
171	0xbe317402	-0.1732941
172	0xbd370cb0	-0.044689834
173	0x3d8833f6	0.06650536
174	0xbe03f143	-0.12885003
175	0xbe24d4a1	-0.16096736
176	0xbd7fe15e	-0.062470786
177	0xbe2f3166	-0.17108688
178	0xbeb5736d	-0.35439625
179	0xbe36d092	-0.17853001
180	0xbd2821b4	-0.041047767
181	0x3bbc3be8	0.005744446
182	0x3c213197	0.009838483
183	0xbae2f8f4	-0.0017316625
184	0x3e10b84b	0.14132802
185	0x3cde5fea	0.027145345
186	0x3c30238a	0.010750661
187	0x3e41f32d	0.1894042
188	0x3e079b01	0.13242723
189	0x3e07bb5e	0.13255069
190	0xbdfe52fe	-0.12418173
191	0x3d7be68f	0.061499175
192	0xbc64d9a1	-0.013967902
193	0x3e1c3a91	0.15256716
194	0x3e4c508e	0.19952604
195	0x3bd3526b	0.006449034
196	0x3ecaf263	0.3963805
197	0xbe125aba	-0.14292422
198	0xbe4df70d	-0.20113774
199	0xbe968c86	-0.29404086
200	0xbe4282bc	-0.18995184
201	0xbe343e47	-0.17601882
202	0xbe372082	-0.17883494
203	0x3e07f9da	0.13278905
204	0xbdca7482	-0.09885503
205	0xbdf7b714	-0.12095466
206	0xbe775a04	-0.24155432
207	0xbe8bdf0f	-0.27318618
208	0xbea80d56	-0.32822675
209	0xbd1285d4	-0.03577216
210	0x3d9bda8e	0.076100454
211	0x3dc40088	0.09570414
212	0x3daf89d8	0.085712135
213	0x3e253be4	0.16136128
214	0x3da9e569	0.0829571
215	0xbdc4e484	-0.096138984
216	0x3e0dfb86	0.1386548
217	0x3ca765b2	0.020434234
218	0x3b489a97	0.003060972
219	0xbe05beb9	-0.13061036
220	0x3d7515bd	0.059835184
221	0xbc061cbc	-0.008185562
222	0x3d4b77c6	0.04967477
223	0x3da3c42f	0.079964034
224	0xbe31b48b	-0.17354028
225	0x3c0847aa	0.008317867
226	0x3d977b10	0.07396519
227	0x3bacb994	0.005271146
228	0x3e64ed6e	0.22356197
229	0x3e543bf8	0.20726001
230	0x3dff007f	0.124512665
231	0x3e6c8582	0.23097804
232	0x3eaa954f	0.33317038
233	0x3d05c212	0.032655783
234	0xbd80422c	-0.06262621
235	0x3d87300a	0.066009596
236	0xbdc951bc	-0.09830043
237	0xbe8deb08	-0.27718377
238	0x3e446b9f	0.19181679
239	0xbb3cc782	-0.002880544
240	0x3e2128b7	0.15738188
241	0x3e42669d	0.18984456
242	0x3ee21a75	0.4416081
243	0x3eb02f11	0.3441091
244	0x3e106dc6	0.14104375
245	0xbc839637	-0.016062839
246	0x3d854c86	0.06508736
247	0xbdcdbf04	-0.10046199
248	0xbd01ee6d	-0.03172152
249	0xbe1599c1	-0.14609434
250	0x3c81ac6e	0.015829291
251	0xbe27e2f6	-0.16395172
252	0x3dd7dff9	0.10540766
253	0x3e31ee04	0.17375952
254	0xbbd5c4e1	-0.006523714
255	0x3e012e61	0.12615348

R__3968 f4 [1, 96, 32]
0	0xbd1685aa	-0.036748566
1	0xbd2ba94d	-0.041909505
2	0xbdd7f2a0	-0.10544324
3	0xbe9c17da	-0.30486947
4	0xbd351f5c	-0.04421936
5	0x3e0a0220	0.13477373
6	0x3dfa3abf	0.12218236
7	0xbdf0e2a3	-0.117619775
8	0xbdd75659	-0.105145164
9	0xbda25ac2	-0.07927467
10	0xbe56dfde	-0.20983836
11	0xbe00551a	-0.12532464
12	0xbd8e1edc	-0.0693948
13	0xbdc577f7	-0.09642022
14	0xbe0e949e	-0.1392388
15	0xbda1356a	-0.07871516
16	0x3d8cedca	0.06881292
17	0x3db60d90	0.088893056
18	0x3c94d66d	0.018168652
19	0x3e1a7693	0.15084295
20	0xbe38dc26	-0.1805273
21	0xbe1f3c4f	-0.1555035
22	0xbdcdd99a	-0.1005127
23	0x3e8e79b1	0.27827218
24	0xbd35e560	-0.044408202
25	0xbd912992	-0.07088007
26	0xbc86fc57	-0.016477747
27	0xbe4e167e	-0.20125768
28	0xbe3e450e	-0.1858103
29	0x3e89e760	0.26934338
30	0x3cd5bea5	0.026091883
31	0xbd9d07e5	-0.076675214
32	0xbd09806b	-0.033569735
33	0xbd9e590b	-0.07731827
34	0x3d69940f	0.057025965
35	0xbe0189d3	-0.12650232
36	0x3dd1b23e	0.10239075
37	0xbd12aace	-0.035807423
38	0xbe87c1ae	-0.26514953
39	0xbd603b05	-0.054743785
40	0xbd432aab	-0.047648113
41	0x3ac3e99b	0.0014946939
42	0x3bfa4a68	0.0076382644
43	0x3c73965b	0.0148673905
44	0xbcd1d8f5	-0.025616148
45	0xbd36701e	-0.044540517
46	0xbe112096	-0.14172587
47	0x3e1a8231	0.15088727
48	0x3deb3245	0.114841975
49	0xbdaae021	-0.083435304
50	0xbd8d3d7c	-0.06896493
51	0x3e3ab450	0.18232846
52	0xbdbad9ad	-0.091235496
53	0xbd7db64b	-0.061941426
54	0x3d585675	0.052816827
55	0x3df527c0	0.11970472
56	0x3d951943	0.07280209
57	0x3db8e4d5	0.09028021
58	0xbdafe29d	-0.08588145
59	0x3e02038c	0.12696666
60	0x3cad1703	0.021129137
61	0xbe0b46b2	-0.13601187
62	0xbdc403bf	-0.09571027
63	0x3dea6b04	0.11446193
64	0x3dee9ab7	0.11650603
65	0xbd5d00ef	-0.05395597
66	0xbe087efd	-0.13329692
67	0xbe415f0e	-0.18883917
68	0xbc1204b9	-0.008912259
69	0xbe053128	-0.13007033
70	0x3e212ca1	0.15739681
71	0x3d84d4d8	0.06485909
72	0xbe523ac6	-0.20530233
73	0x3e59b8a4	0.21261841
74	0x3dbb4aea	0.09145148
75	0xbdf91d6e	-0.121638164
76	0x3e03fd32	0.12889555
77	0xbc35d7db	-0.011098827
78	0x3e2f9aac	0.17148846
79	0xbe2a6aaa	-0.16642252
80	0x3d67a484	0.05655338
81	0x3eb1502f	0.34631488
82	0x3e1ac503	0.15114217
83	0xbcb4f2fe	-0.022088524
84	0x3dbbe7eb	0.09175094
85	0xbe44e1d8	-0.19226778
86	0xbdd5f4c7	-0.10447078
87	0xbd4dfe9b	-0.05029164
88	0x3e2c57d8	0.16830385
89	0xbdbe1c55	-0.09282748
90	0xbdd32814	-0.10310379
91	0xbe18053a	-0.14845744
92	0xbde1bd22	-0.11022402
93	0x3d9c7a55	0.076405205
94	0xbcaf8878	-0.021427378
95	0xbe0b0280	-0.13575172
96	0x3e8b8921	0.2725306
97	0x3e1976c3	0.1498671
98	0xbc2ad9f2	-0.010427939
99	0xbe3db224	-0.18524987
100	0xbe685e68	-0.22692263
101	0xbe9bb10a	-0.30408508
102	0x3e55ae67	0.2086731
103	0xbe0de64a	-0.1385738
104	0xbe29334c	-0.16523474
105	0xbe6074f9	-0.21919622
106	0x3d1b0796	0.03784903
107	0xbe3ac340	-0.18238544
108	0xbd791d20	-0.06081879
109	0x3e4ac081	0.19799997
110	0xbe8bc3a7	-0.27297708
111	0xbddf8df1	-0.10915745
112	0x3ed1428a	0.40871078
113	0x3ec38637	0.38188335
114	0x3e5a10fe	0.21295545
115	0xbcd126ec	-0.025531255
116	0x3d83af4d	0.0642992
117	0x3c7a176c	0.015264373
118	0xbc89eb32	-0.016835783
119	0x3e62e03d	0.22155853
120	0x3e4c4e1f	0.19951676
121	0xbd8e1b52	-0.06938805
122	0xbe3d7c44	-0.18504435
123	0xbe3e17df	-0.18563794
124	0xbe3e1c54	-0.18565494
125	0x3e8d1f17	0.27562782
126	0xbd1e4a0b	-0.03864483
127	0xbed5e572	-0.41776615
128	0xbb8ea138	-0.004352715
129	0x3e152e4a	0.14568439
130	0x3e7eb99b	0.2487549
131	0xbdc6e4e1	-0.09711624
132	0x3dd4eac5	0.10396341
133	0x3d3dd526	0.046345852
134	0x3e6fd918	0.23422658
135	0xbda1f61a	-0.07908268
136	0xbcb7021a	-0.02233987
137	0xbde73316	-0.11289041
138	0x3d9f2bad	0.07772002
139	0x3e0cbc74	0.13743764
140	0x3e10f832	0.14157179
141	0x3da150b6	0.078767225
142	0x3dc64de3	0.096828245
143	0xbd0763f5	-0.03305431
144	0x3b1bcfc5	0.0023774963
145	0x3d8b743f	0.068092816
146	0x3b843eac	0.0040357914
147	0xbe2bfcf2	-0.1679571
148	0xbeb96262	-0.36207873
149	0xbd6abb03	-0.057307255
150	0xbe5d691f	-0.21622132
151	0x3e8fdf8d	0.28100243
152	0x3da9436f	0.08264815
153	0xbe1d4c46	-0.15361127
154	0x3e01045c	0.12599319
155	0x3bebcc9c	0.007196022
156	0xbe279e1d	-0.16368909
157	0x3e8f5489	0.27994183
158	0xbdbe18a7	-0.09282046
159	0xbe2787dc	-0.1636042
160	0x3cd2f272	0.025750373
161	0x3eaa4965	0.3325912
162	0x3d2d2b3d	0.042277563
163	0x3e916cc1	0.28403285
164	0x3e4c3c2d	0.1994483
165	0xbc8cef73	-0.017204022
166	0xbc7e6df5	-0.0155291455
167	0x3c6580ff	0.014007806
168	0x3e62aa90	0.22135377
169	0xbd2e83c8	-0.042606145
170	0xbd473c32	-0.04864139
171	0x3dc34385	0.09534363
172	0xbd836b8b	-0.064169966
173	0xbe3f46d8	-0.18679368
174	0x3e19e736	0.15029606
175	0x3e8ef054	0.2791773
176	0xbdddf1a9	-0.10837109
177	0xbe0ae715	-0.13564713
178	0xbe1ab232	-0.15107039
179	0x3d2cd04b	0.04219083
180	0xbd5b96be	-0.053610556
181	0xbd9a5150	-0.075350404
182	0xbc31cfb8	-0.010852747
183	0xbe1e557f	-0.15462302
184	0xbe182f25	-0.14861734
185	0x3e4e68e5	0.20157202
186	0x3e418157	0.18896995
187	0x3d7afb3d	0.061274756
188	0x3db4d607	0.08829885
189	0xbcb5aad0	-0.022176176
190	0xbe09d455	-0.13459904
191	0x3e8c9682	0.27458578
192	0x3e444f75	0.19170935
193	0xbe424ded	-0.18975039
194	0xbdadb57c	-0.08481881
195	0x3e45ae6e	0.19304821
196	0x3e105f2e	0.14098808
197	0x3d4db174	0.05021806
198	0x3d291e4f	0.04128867
199	0xbe8872dd	-0.26650134
200	0x3c92ca80	0.017918825
201	0xbc85c13f	-0.016327498
202	0x3bf8064c	0.00756911
203	0xbdcd9bd8	-0.100394905
204	0xbdee38c6	-0.116319224
205	0xbe4ad673	-0.19808368
206	0xbce2d22e	-0.027688112
207	0xbcd7c32f	-0.026338188
208	0x3d80b8c6	0.06285243
209	0x3c99fd06	0.018797409
210	0x3daa7797	0.08323591
211	0xbe15b012	-0.14617947
212	0x3d38e0ff	0.045136448
213	0x3e29ac9a	0.16569749
214	0x3dfffb9e	0.12499164
215	0x3c4ecaf7	0.012621633
216	0x3d9fce9e	0.07803081
217	0xbd9e1e6b	-0.077206455
218	0xbe422607	-0.18959819
219	0xbe2aa3f6	-0.16664109
220	0xbd339f26	-0.043852948
221	0xbcda399f	-0.026638804
222	0x3881e880	6.194506e-05
223	0xbccc31df	-0.024926124
224	0xbcbc15a0	-0.02295953
225	0x3dd1e21c	0.10248205
226	0xbe1495cd	-0.1451027
227	0xbd7fe3e1	-0.06247318
228	0x3e364a53	0.1780179
229	0xbdbbe9b9	-0.091754384
230	0x3eab11ab	0.33411917
231	0x3d31ea84	0.043436542
232	0x3de59949	0.112108774
233	0xbcafd00c	-0.02146151
234	0xbdeffcf3	-0.11718168
235	0x3d3bfefc	0.04589747
236	0x3e46d797	0.19418178
237	0x3dfebfce	0.124389276
238	0xbc7c9307	-0.015415913
239	0x398c938c	0.00026812812
240	0x3de2b84f	0.1107031
241	0x3e502a71	0.2032869
242	0xbc8ef0f4	-0.01744888
243	0x3da3913e	0.07986687
244	0xbd4f441e	-0.05060207
245	0x3d033f8a	0.032043017
246	0xbda4bf8d	-0.08044348
247	0xbe023ade	-0.12717769
248	0x3e189501	0.1490059
249	0xbd6ca87d	-0.05777787
250	0x3cac16a3	0.021006888
251	0x3d9768f4	0.07393065
252	0x3d6f2682	0.058386333
253	0xbd92a5e4	-0.071605474
254	0x3c431654	0.011907179
255	0xbe4d4a5f	-0.20047902

R__3954 f4 [1, 192, 64]
0	0xbe087284	-0.13324934
1	0x3e0b73a1	0.13618328
2	0x3d468ca6	0.048473977
3	0xbd0b91ec	-0.03407471
4	0x3e0017d0	0.12509084
5	0x3dbe0ab9	0.09279389
6	0x3e2cecd0	0.16887212
7	0xbdac38ad	-0.084092475
8	0xbd064a52	-0.03278572
9	0xbd32b127	-0.043625977
10	0x3df49ae8	0.119436085
11	0x3d0173db	0.03160463
12	0xbd4a147d	-0.049335945
13	0x3d8e7fcc	0.06957969
14	0xbda5b596	-0.080912754
15	0x3d101552	0.035176583
16	0xbdaf0c00	-0.08547211
17	0x3d8f06d9	0.06983728
18	0xbd167a73	-0.03673787
19	0xbe2b64a4	-0.1673761
20	0x3d8f413b	0.069948636
21	0x3d94ef1f	0.07272171
22	0xbd91aa59	-0.07112569
23	0x3d3ff340	0.04686284
24	0xbd4fdb93	-0.05074651
25	0x3de3c988	0.111224234
26	0xbc1f4c39	-0.009722763
27	0x3dc7cfa6	0.09756403
28	0xbdf17e1a	-0.1179163
29	0xbca67c6e	-0.020323005
30	0x3d469c20	0.048488736
31	0xbb85efe6	-0.004087436
32	0xbdf92dd2	-0.12166943
33	0x3d41ddc9	0.04733065
34	0xbdf0a6af	-0.11750542
35	0x3d7314a3	0.059345853
36	0x3cf566bd	0.029956216
37	0x3d9ec0ef	0.07751643
38	0xbd7be55e	-0.06149804
39	0xbd6ca656	-0.057775818
40	0x3d1d34b0	0.038380325
41	0x3c9706ae	0.018435802
42	0x3e714d37	0.23564611
43	0xb92c1e00	-0.00016414374
44	0x3d8b65d0	0.068065286
45	0x3d1ad8c4	0.03780438
46	0x3e1c108b	0.15240686
47	0xbdde7ebe	-0.10864018
48	0x3dba7e2b	0.09106096
49	0x3dd68067	0.104737096
50	0xbcb3adac	-0.0219334
51	0x3e518446	0.20460615
52	0xbbd6a698	-0.0065506212
53	0x3e1002aa	0.14063516
54	0x3e43d9db	0.19126074
55	0x3d175368	0.036944777
56	0x3db8739a	0.09006424
57	0xbe0ec71c	-0.13943142
58	0xbdfe65a8	-0.12421733
59	0xbc33e54d	-0.010979963
60	0xbc80e083	-0.015732056
61	0x3e04ea8b	0.12980096
62	0xbcd3abf3	-0.025838828
63	0x3cf83680	0.030299425
64	0xbe635cca	-0.22203365
65	0xbdfea283	-0.124333404
66	0xbe82976d	-0.25506154
67	0x3e2a2a88	0.16617787
68	0xbe904f38	-0.2818544
69	0xbd21c1c4	-0.03949143
70	0x3d3fe1df	0.046846267
71	0x3d049526	0.0323688
72	0x3d63ce10	0.05561644
73	0xbdf491b0	-0.1194185
74	0xbda8674c	-0.08222827
75	0x3e140667	0.14455567
76	0x3ccbb3dc	0.024866037
77	0xbdf8591e	-0.12126373
78	0x3d6493c1	0.05580497
79	0xbe599a75	-0.21250327
80	0xbd20efc4	-0.03929116
81	0x3e80464d	0.25053635
82	0x3e086cd9	0.13322772
83	0xbb4e3f3c	-0.0031470796
84	0x3dea7e13	0.11449828
85	0x3d948448	0.07251793
86	0xbd9e8742	-0.07740642
87	0xbe082ecb	-0.132991
88	0x3e3a0dcb	0.18169324
89	0xbda60f74	-0.08108416
90	0x3e1c308e	0.15252897
91	0xbadf926f	-0.001705719
92	0x3df5aa4b	0.119953714
93	0xbd65cdd3	-0.056104492
94	0xbd9010d7	-0.07034462
95	0x3dd863d4	0.10565916
96	0xbe0bc0f4	-0.13647825
97	0xbd95a8be	-0.07307576
98	0x3e9b1973	0.30292854
99	0xbe44c9af	-0.19217561
100	0x3e4a2588	0.1974088
101	0x3e294a54	0.1653226
102	0xbe8203e6	-0.253936
103	0xbcdae41d	-0.026720101
104	0xbe3ef37d	-0.18647571
105	0xbe04ed91	-0.1298125
106	0x3cd995f7	0.026560767
107	0xbda90865	-0.08253554
108	0xbdace6ab	-0.08442434
109	0xbd561007	-0.05226138
110	0xbc21e8cb	-0.009882162
111	0xbdacba29	-0.08433945
112	0xbe2ef89a	-0.17087021
113	0xbdfdda22	-0.12395121
114	0x3ca5a396	0.020219605
115	0xbd0c307f	-0.034225937
116	0x3e25e40c	0.16200274
117	0xbd9087ec	-0.07057175
118	0xbe3f6e2d	-0.18694372
119	0xbda65718	-0.081220806
120	0xbd8fa1be	-0.07013272
121	0x3d6b23ba	0.05740712
122	0x3e4e908a	0.20172325
123	0x3bd7d7e4	0.0065870155
124	0x3e9ef7ef	0.31048533
125	0xbe94373f	-0.289484
126	0x3e6d3fc0	0.2316885
127	0xbd35215b	-0.044221263
128	0xbe397508	-0.1811105
129	0x3bfff5c9	0.0078112823
130	0x3dd49a81	0.10381032
131	0x3d48bb21	0.049006585
132	0x3d9843cb	0.074348055
133	0xbcb22902	-0.02174807
134	0x3e21169b	0.1573128
135	0x3c8032dd	0.015649254
136	0x3cab411c	0.02090507
137	0xbe68344e	-0.22676203
138	0x3c770906	0.015077835
139	0x3dba0bb3	0.09084263
140	0xbcb6f922	-0.022335593
141	0x3a3666d9	0.00069580745
142	0x3d125731	0.035727683
143	0xbc8885c0	-0.01666534
144	0xbbe89565	-0.0070978873
145	0x3d5ca26c	0.053865835
146	0x3deba0e3	0.11505296
147	0xbbf822e5	-0.007572519
148	0x3e3c87ee	0.18411228
149	0x3e3363c7	0.17518531
150	0x3dd22d2b	0.10262521
151	0xbde1b5bf	-0.110209934
152	0xbe2d2d74	-0.1691187
153	0x3e067b63	0.13133006
154	0x3dc34d17	0.09536188
155	0x3d1fc920	0.039010167
156	0xbd9f6d7a	-0.07784553
157	0xbd517729	-0.05113903
158	0x3b7c903c	0.0038538119
159	0xbda75366	-0.08170204
160	0x3daac975	0.08339206
161	0xbda55b36	-0.08074038
162	0x3e349469	0.17634739
163	0xbdec7a39	-0.115467496
164	0x3e41a266	0.18909606
165	0x3e07a2f0	0.1324575
166	0xbcbc0268	-0.022950366
167	0x3d056d25	0.03257479
168	0xbd4c6006	-0.049896263
169	0x3e241424	0.16023308
170	0x3d82b434	0.06382027
171	0xbcfb1647	-0.030650271
172	0xbe0f70c9	-0.14007868
173	0xbe78bf60	-0.24291754
174	0xbdb2925a	-0.087193206
175	0xbe57e3fe	-0.21083066
176	0x3d8a236b	0.06745037
177	0x3d96d9e7	0.0736578
178	0xbe7f8055	-0.24951299
179	0x3da00f10	0.07815373
180	0xbc9c4447	-0.019075526
181	0x3dc506e9	0.09620459
182	0xbe00bb6a	-0.12571493
183	0x3db3e59d	0.0878403
184	0xbcd0ec8e	-0.025503423
185	0x3c69e1f6	0.014275065
186	0x3ddf9646	0.10917334
187	0x3e149e59	0.1451353
188	0x3d539e5d	0.0516647
189	0xbe3ce3c3	-0.18446259
190	0xbbc1ba88	-0.005912129
191	0x3d1942ef	0.03741735
192	0x3c089028	0.008335151
193	0xbdbf7f61	-0.093504675
194	0xbe266055	-0.16247685
195	0xbceeff88	-0.029174581
196	0xbde89a04	-0.11357501
197	0xbe1e8c59	-0.15483226
198	0xbd1b7fe1	-0.03796375
199	0x3e66e92b	0.22549884
200	0xbdca8ad2	-0.09889759
201	0xbdc60c46	-0.0967031
202	0xbe6763c4	-0.22596651
203	0x3c9c7774	0.019099928
204	0x3dd5c009	0.104370184
205	0xbe1b46c4	-0.15163714
206	0xbda26cc7	-0.07930904
207	0xbdf60a57	-0.12013691
208	0xbcd1bec5	-0.025603661
209	0x3d8ee3a2	0.06977011
210	0xbb92aaab	-0.0044759116
211	0x3ca4d7b7	0.020122392
212	0x3db14b72	0.08656968
213	0x3e171397	0.14753567
214	0x3c92ee3f	0.01793587
215	0xbb0d94cf	-0.002160359
216	0x3ebb0de8	0.36534047
217	0xbdaee984	-0.08540633
218	0x3d26396f	0.040582117
219	0x3dda55ec	0.106609195
220	0x3d67bf50	0.056578934
221	0xbd212200	-0.039339066
222	0xbd51e7de	-0.051246516
223	0x3e449eee	0.19201252
224	0x3dd39a1f	0.10332131
225	0xbe171c0b	-0.14756791
226	0x3e1d1a20	0.15341997
227	0xbe51a768	-0.20474017
228	0x3dc7791c	0.09739897
229	0xbc2cba7b	-0.010542507
230	0xbd9ef095	-0.07760731
231	0xbcc52d52	-0.024069462
232	0xbcacd5f7	-0.02109812
233	0xbd1cb206	-0.038255714
234	0xbdee3e19	-0.11632938
235	0xbcec78fa	-0.02886628
236	0xbdc0724b	-0.093968
237	0xbd2b7350	-0.041858017
238	0x3bb5f64e	0.0055530434
239	0xbd868484	-0.06568244
240	0x3c9ab1bd	0.01888358
241	0xbda16486	-0.078805014
242	0xbd4d6384	-0.050143734
243	0xbdf9bcbf	-0.121942036
244	0x3e7e293d	0.24820419
245	0xbe90a447	-0.28250334
246	0xbe6033b2	-0.2189472
247	0x3d15f641	0.0366118
248	0xbe8478fb	-0.2587355
249	0x3e3811e4	0.17975575
250	0x3d7387d9	0.059455726
251	0x3d8d17f2	0.06889333
252	0x3df5675f	0.11982607
253	0xbc4afae6	-0.01238892
254	0x3d83bb1c	0.06432173
255	0xbd50ce00	-0.050977707

R__3941 f4 [1, 384, 128]
0	0xbe83e6ea	-0.2576211
1	0xbe24ff00	-0.161129
2	0xbe59ed60	-0.21281958
3	0x3eab0ff0	0.33410597
4	0xbe92e9cd	-0.28694
5	0x3c5780d6	0.0131532755
6	0xbdaa4e3a	-0.08315702
7	0xbe27bd8d	-0.16380902
8	0xbb970ecb	-0.0046099178
9	0x3d7ca6cf	0.06168252
10	0x3e20b703	0.15694813
11	0xbe058089	-0.13037314
12	0xbdc6e831	-0.09712256
13	0xbe61c2c6	-0.22046956
14	0x3e9d0a87	0.30672094
15	0xbe5d4558	-0.21608484
16	0x3ca64e77	0.020301087
17	0x3e4eb554	0.20186359
18	0x3e666d1c	0.2250256
19	0x3e45a73b	0.19302075
20	0x3deb6906	0.11494641
21	0xbe2b3d05	-0.16722496
22	0x3e6148de	0.22000453
23	0x3d414330	0.047183216
24	0xbe297192	-0.1654723
25	0xbe416fb2	-0.18890265
26	0xbea3255b	-0.31864437
27	0x3d1ee20d	0.038789798
28	0x3e88b038	0.26696944
29	0x3e4c88b8	0.19974029
30	0xbe46dfdc	-0.19421333
31	0xbe0a6712	-0.1351588
32	0x3e4bff9e	0.19921729
33	0x3e976dfa	0.29576093
34	0xbe46af4c	-0.19402808
35	0xbc4f45ce	-0.01265092
36	0x3e226907	0.15860377
37	0xbe4d9b74	-0.20078832
38	0xbea1929e	-0.31557173
39	0xbe55c509	-0.20875944
40	0xbe77b9b2	-0.24191931
41	0x3e5a261a	0.21303597
42	0xbe1c1ac1	-0.15244581
43	0xbe2872ad	-0.16449995
44	0x3d9e704c	0.07736263
45	0x3e932c95	0.2874495
46	0x3df488ff	0.119401924
47	0xbe4f9aa2	-0.20273831
48	0x3ea28200	0.31739807
49	0xbe8e2a71	-0.27766755
50	0xbda8c82c	-0.08241305
51	0x3e315e74	0.17321187
52	0x3e298b56	0.16557059
53	0x3e0ed8b1	0.13949849
54	0xbe8b02b3	-0.27150497
55	0xbdf3189c	-0.11869928
56	0xbdb929f6	-0.090412065
57	0xbe7c7181	-0.24652673
58	0xbdc892bd	-0.09793613
59	0x3d2d0f1c	0.042250738
60	0xbe80301a	-0.250367
61	0xbd8b08ff	-0.06788825
62	0x3d860fd4	0.06545988
63	0xbe2f361d	-0.17110486
64	0x3e8ed0dc	0.27893722
65	0xbe8af9a1	-0.27143577
66	0x3e6a5b97	0.22886501
67	0x3dbaf5c8	0.0912891
68	0xbe485590	-0.1956389
69	0x3eacb63e	0.3373279
70	0xbda87d92	-0.08227076
71	0xbd536c2c	-0.051616833
72	0xbe3466d3	-0.1761735
73	0xbe82ab30	-0.2552123
74	0xbda0377d	-0.078230835
75	0xbe545c8d	-0.2073843
76	0xbe97e658	-0.29667926
77	0x3d0abd91	0.03387219
78	0xbe316414	-0.17323333
79	0xbe5a1bad	-0.2129962
80	0x3e992e26	0.2991802
81	0x3e6ff8d9	0.23434772
82	0x3da3867a	0.07984634
83	0xbe7b03bc	-0.24513143
84	0xbe0947a0	-0.13406229
85	0x3d363aeb	0.044489782
86	0x3dbac9a2	0.0912049
87	0x3e8263bb	0.25466713
88	0xbe9226d0	-0.28545237
89	0xbeb0086d	-0.34381428
90	0xbe94df5f	-0.2907667
91	0xbe81626f	-0.2527041
92	0xbe1cdec5	-0.15319355
93	0xbe76d5db	-0.24105017
94	0xbe5b99f1	-0.21445443
95	0x3e330ff3	0.17486553
96	0xbe4c2ef4	-0.19939786
97	0xbdedeb21	-0.11617113
98	0x3deec118	0.116579235
99	0x3e05700f	0.13031028
100	0x3e4e11a8	0.20123923
101	0xbd7834d7	-0.060597267
102	0xbdf53fc6	-0.119750544
103	0xbe051d68	-0.12999499
104	0xbd2907be	-0.04126715
105	0xbe677a0a	-0.22605148
106	0xbe8430fa	-0.25818616
107	0x3d5f091b	0.054452043
108	0xbe15f836	-0.14645466
109	0x3e479dfd	0.19493861
110	0x3e950da4	0.2911197
111	0xbc4bbadb	-0.0124346865
112	0xbe1b7bba	-0.15183917
113	0x3c2d35c4	0.010571901
114	0xbe1b6ff2	-0.15179422
115	0xbe5620ad	-0.20910902
116	0x3e2164ce	0.1576111
117	0xbe8f7746	-0.28020686
118	0x3db97933	0.0905632
119	0x3e9d2a50	0.30696344
120	0x3e84c3d3	0.25930652
121	0x3cccc70a	0.024997253
122	0x3e698e70	0.22808242
123	0xbe5d422f	-0.21607278
124	0x3e4f87ed	0.20266695
125	0xbe980b78	-0.2969625
126	0x3e939535	0.28824773
127	0xbe6e8ebe	-0.2329664
128	0x3e011a07	0.12607585
129	0x3e39a0f8	0.18127811
130	0x3e5ed004	0.21759039
131	0xbeae43ce	-0.34036106
132	0x3e19e708	0.15029538
133	0x3e041eba	0.12902346
134	0xbdfdcd69	-0.123926945
135	0x3de1cca0	0.11025357
136	0x3e1d0949	0.15335573
137	0x3c0ab899	0.008466863
138	0xbe08cf5e	-0.13360354
139	0x3ca24441	0.019807937
140	0x3d05aa8e	0.032633357
141	0x3e9d02b2	0.3066612
142	0xbe80f98f	-0.25190398
143	0x3e96c856	0.2944972
144	0xbea03793	-0.312924
145	0x3cabfd24	0.02099473
146	0xbda29b3e	-0.07939766
147	0x3d3806b4	0.044928268
148	0xbe850864	-0.25982964
149	0x3e61e6f0	0.22060752
150	0xbe6e738d	-0.23286267
151	0x3e5efa53	0.21775179
152	0x3ea3e0fd	0.3200759
153	0x3e07d39f	0.13264321
154	0x3e3a1f03	0.18175893
155	0xbceac896	-0.0286601
156	0x3d868138	0.06567615
157	0xbda2f555	-0.079569496
158	0x3e2eb0ee	0.17059681
159	0x3e092c8a	0.13395897
160	0xbe8c33f7	-0.27383396
161	0xbe4994ce	-0.1968567
162	0xbe0eb4b3	-0.13936119
163	0xbe759253	-0.239816
164	0xbe53cfae	-0.20684692
165	0x3c29c1c7	0.0103611415
166	0x3eaa8f23	0.3331233
167	0x3eb34e87	0.3502085
168	0x3e8a1fff	0.26977536
169	0xbdb1c744	-0.08680585
170	0x3d7035f2	0.058645196
171	0x3e71a285	0.23597153
172	0x3d9fe032	0.07806434
173	0xbe45ed4f	-0.19328807
174	0xbd907c08	-0.07054907
175	0x3e92205e	0.2854032
176	0xbe13f3ba	-0.14448443
177	0x3e53a005	0.20666511
178	0x3cfc05c1	0.030764462
179	0xbe2d7c33	-0.1694191
180	0xbe0709ee	-0.13187382
181	0xbdd1b4b5	-0.10239545
182	0x3e001ce9	0.12511028
183	0x3dd392fa	0.10330768
184	0x3e91f253	0.2850519
185	0x3d9e06c0	0.07716131
186	0xbdc2b06d	-0.09506307
187	0xbe1d1216	-0.1533893
188	0xbd0cdb34	-0.034388736
189	0x3e978a21	0.29597571
190	0xbd1a3722	-0.037650235
191	0x3e0be523	0.13661627
192	0xbe00553f	-0.12532519
193	0x3ca4e5fa	0.020129193
194	0xbdce3f5c	-0.100706786
195	0x3d1257e4	0.03572835
196	0x3e667495	0.2250541
197	0xbe359de0	-0.17736006
198	0x3ccc28e9	0.024921851
199	0x3d910e74	0.07082835
200	0x3e97160b	0.29509005
201	0x3d64dac9	0.055872712
202	0x3c333a02	0.010939123
203	0x3dfb2d30	0.12264478
204	0x3e8d10a8	0.2755177
205	0xbb9759f6	-0.0046188785
206	0x3e150c51	0.1455548
207	0x3da75890	0.08171189
208	0xbe8726fc	-0.2639693
209	0xbe44fd4a	-0.19237247
210	0xbe4763d1	-0.1947167
211	0x3eced21c	0.40394676
212	0x3e2683bf	0.16261195
213	0xbe192148	-0.14954102
214	0xbe663654	-0.22481662
215	0xbe341455	-0.17585881
216	0x3e09f4bd	0.13472266
217	0x3e57de27	0.21080838
218	0x3e8f1f1a	0.27953416
219	0x3e6dfade	0.2324023
220	0x3e9081c8	0.28224015
221	0x3e7e2d7a	0.24822035
222	0x3ea8abc0	0.32943535
223	0xbdceb282	-0.100926414
224	0x3e807815	0.25091615
225	0x3d67947f	0.0565381
226	0x3da7c3af	0.081916206
227	0xbd9caf30	-0.07650602
228	0xbe677c26	-0.22605953
229	0x3db700c0	0.0893569
230	0x3e6e304e	0.23260614
231	0x3d0d3ae2	0.034479983
232	0x3e0a36d3	0.13497476
233	0x3e91fde5	0.2851402
234	0x3e8419eb	0.25801024
235	0x3e759052	0.23980835
236	0x3e772922	0.24136785
237	0xbe21e213	-0.15808897
238	0xbeaf3843	-0.34222612
239	0x3e09fdc4	0.1347571
240	0x3e887fcd	0.26660004
241	0xbe0c4608	-0.1369859
242	0x3d6c03df	0.05762088
243	0xbd0d1b6a	-0.034449972
244	0xbd9b7a2a	-0.0759166
245	0x3e0d4df6	0.13799271
246	0xbde0410f	-0.10949909
247	0xbe84b7ac	-0.2592138
248	0xbea85bc6	-0.32882518
249	0x3ab9c8ae	0.0014174187
250	0xbdd50356	-0.10401027
251	0x3e830dde	0.25596517
252	0xbdbf0ff1	-0.093292125
253	0x3e8a70b1	0.27039102
254	0xbe078963	-0.13236003
255	0xbd41307d	-0.047165383

GRU/quant_dense_57/LastValueQuant/FakeQuantWithMinMaxVars__3929 f4 [32, 1]
0	0x3e911832	0.28338772
1	0xbe516a2d	-0.20450659
2	0xbe8c9b68	-0.27462316
3	0xbd8f9944	-0.07011655
4	0x3d8f9944	0.07011655
5	0x3ebdf817	0.3710334
6	0xbe248a48	-0.16068375
7	0xbe75507e	-0.23956487
8	0x3e6c56ea	0.2308003
9	0x3e8c9b68	0.27462316
10	0x3e367d71	0.1782129
11	0x3e6f54c6	0.23372182
12	0xbdd16a2d	-0.102253295
13	0x3d9594fc	0.07303807
14	0x3e4b6e75	0.19866355
15	0xbe8b1c7a	-0.27170163
16	0x3cd765e6	0.026293706
17	0x3ea90712	0.33013207
18	0xbe248a48	-0.16068375
19	0x3e4e6c51	0.20158507
20	0xbe9713ea	-0.2950738
21	0xbe9b90b4	-0.30383837
22	0xbc0f9944	-0.008764569
23	0x3dd765e6	0.105174825
24	0x3e4e6c51	0.20158507
25	0x3e5a63c2	0.21327117
26	0x3e9b90b4	0.30383837
27	0xbdfb4c37	-0.12270396
28	0x3ea90712	0.33013207
29	0x3ddd619e	0.108096346
30	0x3eb67d71	0.3564258
31	0xbeb081b9	-0.3447397

GRU/quant_dense_56/LastValueQuant/FakeQuantWithMinMaxVars__3928 f4 [32, 32]
0	0x3da6ebb5	0.08150426
1	0xbe20802e	-0.15673897
2	0x3d671efb	0.05642603
3	0x3d4099d1	0.04702169
4	0x3d73f609	0.05956081
5	0xbdd3dc66	-0.10344772
6	0x3dfa6190	0.1222564
7	0xbd86d212	-0.065830365
8	0xbe36f887	-0.17868243
9	0x00000000	0.0
10	0xbc80668b	-0.015673896
11	0xbe7a6190	-0.2445128
12	0x3dba2e4a	0.0909086
13	0x3da6ebb5	0.08150426
14	0x3dc70558	0.09717816
15	0xbdfa6190	-0.1222564
16	0xbe33c2c3	-0.17554764
17	0x3d4d70df	0.05015647
18	0xbd1a14a7	-0.03761735
19	0x3e7a6190	0.2445128
20	0x3e4a3b1c	0.19749111
21	0x3d4099d1	0.04702169
22	0xbde71efb	-0.11285206
23	0x3e80668b	0.25078234
24	0x3e90735d	0.28213015
25	0x3e53dc66	0.20689544
26	0xbecbd5fd	-0.39811698
27	0xbc4d70df	-0.012539118
28	0x00000000	0.0
29	0x3cb3c2c3	0.021943456
30	0x3c9a14a7	0.018808676
31	0xbdd3dc66	-0.10344772
32	0xbe93a920	-0.2883997
33	0x3d93a920	0.072099924
34	0x3ccd70df	0.025078235
35	0x3e63e937	0.22256933
36	0x3dc70558	0.09717816
37	0x3e63e937	0.22256933
38	0xbd26ebb5	-0.04075213
39	0x3e9879c6	0.29780406
40	0x3d80668b	0.062695585
41	0x3dd3dc66	0.10344772
42	0xbe4a3b1c	-0.19749111
43	0x3e2d573c	0.16927809
44	0x3ce71efb	0.028213015
45	0xbe93a920	-0.2883997
46	0x3d9a14a7	0.0752347
47	0x3eaef21e	0.34169096
48	0x3d93a920	0.072099924
49	0xbdf3f609	-0.11912162
50	0x3dc099d1	0.09404338
51	0xbe7a6190	-0.2445128
52	0x3d00668b	0.031347793
53	0xbea6ebb5	-0.32601705
54	0x3e20802e	0.15673897
55	0x3d671efb	0.05642603
56	0xbdb3c2c3	-0.08777382
57	0x3e7d9753	0.24764757
58	0xbe5d7db0	-0.21629977
59	0x3e9baf89	0.3040736
60	0xbe839c4f	-0.25705191
61	0x3e06d212	0.13166073
62	0x3e00668b	0.12539117
63	0x3e23b5f2	0.15987375
64	0xbe4a3b1c	-0.19749111
65	0x3ea0802e	0.31347793
66	0x3e571229	0.21003021
67	0xbe13a920	-0.14419985
68	0x3e3d640e	0.18495199
69	0x3e6a54be	0.22883889
70	0xbd8d3d99	-0.068965144
71	0x3e06d212	0.13166073
72	0xbeabbc5a	-0.33542138
73	0x3de71efb	0.11285206
74	0x3e571229	0.21003021
75	0xbd4d70df	-0.05015647
76	0xbe16dee4	-0.14733464
77	0x3e06d212	0.13166073
78	0xbe26ebb5	-0.16300853
79	0xbde71efb	-0.11285206
80	0x3d4099d1	0.04702169
81	0xbb4d70df	-0.0031347794
82	0x3de71efb	0.11285206
83	0xbea88697	-0.32915184
84	0xbe96dee4	-0.29466927
85	0x3e5a47ed	0.213165
86	0xbdf3f609	-0.11912162
87	0x3d9a14a7	0.0752347
88	0xbea0802e	-0.31347793
89	0xbe23b5f2	-0.15987375
90	0x3e671efb	0.22570412
91	0xbe470558	-0.19435632
92	0x3ecbd5fd	0.39811698
93	0xbbcd70df	-0.006269559
94	0x3d0d3d99	0.034482572
95	0xbe20802e	-0.15673897
96	0x3e6a54be	0.22883889
97	0xbe671efb	-0.22570412
98	0xbd73f609	-0.05956081
99	0xbe93a920	-0.2883997
100	0x3e06d212	0.13166073
101	0x3d8d3d99	0.068965144
102	0xbe7a6190	-0.2445128
103	0xbe96dee4	-0.29466927
104	0xbeaa2179	-0.33228663
105	0xbe2a2179	-0.16614331
106	0xbea3b5f2	-0.3197475
107	0x00000000	0.0
108	0xbeb3c2c3	-0.3510953
109	0x3d86d212	0.065830365
110	0x3d86d212	0.065830365
111	0xbc80668b	-0.015673896
112	0xbd0d3d99	-0.034482572
113	0xbd86d212	-0.065830365
114	0xbc9a14a7	-0.018808676
115	0x3e1a14a7	0.1504694
116	0xbdd3dc66	-0.10344772
117	0x3d5a47ed	0.05329125
118	0xbd86d212	-0.065830365
119	0xbe93a920	-0.2883997
120	0xbdda47ed	-0.1065825
121	0xbde71efb	-0.11285206
122	0xbe9ee54c	-0.31034315
123	0x3db3c2c3	0.08777382
124	0x3d1a14a7	0.03761735
125	0xbea3b5f2	-0.3197475
126	0x3e4a3b1c	0.19749111
127	0x3e039c4f	0.12852596
128	0x3e039c4f	0.12852596
129	0x3e33c2c3	0.17554764
130	0x3eb55da5	0.35423008
131	0xbe5a47ed	-0.213165
132	0x3e2a2179	0.16614331
133	0xbc4d70df	-0.012539118
134	0x3e7a6190	0.2445128
135	0xbd4099d1	-0.04702169
136	0x3ebd640e	0.36990398
137	0x3e20802e	0.15673897
138	0xbded8a82	-0.11598684
139	0x3e63e937	0.22256933
140	0xbd26ebb5	-0.04075213
141	0xbdfa6190	-0.1222564
142	0xbd00668b	-0.031347793
143	0x3e23b5f2	0.15987375
144	0xbe0d3d99	-0.13793029
145	0xbe86d212	-0.26332146
146	0xbe772bcc	-0.24137801
147	0xbe70c045	-0.23510845
148	0xbe16dee4	-0.14733464
149	0xbe853731	-0.2601867
150	0x3e00668b	0.12539117
151	0xbe90735d	-0.28213015
152	0x3eb3c2c3	0.3510953
153	0x3db3c2c3	0.08777382
154	0xbeaef21e	-0.34169096
155	0xbe82016d	-0.25391713
156	0xbeaa2179	-0.33228663
157	0x3ded8a82	0.11598684
158	0x3dc099d1	0.09404338
159	0x3da0802e	0.07836948
160	0x3e82016d	0.25391713
161	0xbe0a07d6	-0.13479552
162	0xbd4099d1	-0.04702169
163	0xbea21b10	-0.31661272
164	0xbd93a920	-0.072099924
165	0xbd73f609	-0.05956081
166	0xbe9baf89	-0.3040736
167	0xbe96dee4	-0.29466927
168	0xbea0802e	-0.31347793
169	0x3d00668b	0.031347793
170	0xbbcd70df	-0.006269559
171	0xbe7a6190	-0.2445128
172	0xbc80668b	-0.015673896
173	0x3e06d212	0.13166073
174	0x3e96dee4	0.29466927
175	0x3e4a3b1c	0.19749111
176	0xbe13a920	-0.14419985
177	0x3e2a2179	0.16614331
178	0xbe839c4f	-0.25705191
179	0xbd80668b	-0.062695585
180	0xbd26ebb5	-0.04075213
181	0xbea6ebb5	-0.32601705
182	0x3e0a07d6	0.13479552
183	0x3ea3b5f2	0.3197475
184	0xbea6ebb5	-0.32601705
185	0xbc4d70df	-0.012539118
186	0x3e00668b	0.12539117
187	0xbe2a2179	-0.16614331
188	0xbdc099d1	-0.09404338
189	0xbe9879c6	-0.29780406
190	0xbe4d70df	-0.20062588
191	0xbe9a14a7	-0.3009388
192	0x3e20802e	0.15673897
193	0x3e96dee4	0.29466927
194	0xbe0a07d6	-0.13479552
195	0xbdf3f609	-0.11912162
196	0x3e6d8a82	0.23197368
197	0xbd4d70df	-0.05015647
198	0xbd73f609	-0.05956081
199	0xbd1a14a7	-0.03761735
200	0xbe26ebb5	-0.16300853
201	0xbdc099d1	-0.09404338
202	0x3e3a2e4a	0.1818172
203	0x3e33c2c3	0.17554764
204	0xbb4d70df	-0.0031347794
205	0x3ce71efb	0.028213015
206	0xbc80668b	-0.015673896
207	0x3e20802e	0.15673897
208	0xbc9a14a7	-0.018808676
209	0x3c4d70df	0.012539118
210	0x3ead573c	0.33855617
211	0x3df3f609	0.11912162
212	0x3e70c045	0.23510845
213	0xbccd70df	-0.025078235
214	0x3bcd70df	0.006269559
215	0x3e1d4a6b	0.1536042
216	0xbe0a07d6	-0.13479552
217	0x3ea21b10	0.31661272
218	0xbd86d212	-0.065830365
219	0xbe63e937	-0.22256933
220	0x3dcd70df	0.10031294
221	0x3e6a54be	0.22883889
222	0xbe470558	-0.19435632
223	0x3e039c4f	0.12852596
224	0x3e0a07d6	0.13479552
225	0xbdc099d1	-0.09404338
226	0xbdda47ed	-0.1065825
227	0xbbcd70df	-0.006269559
228	0x3d671efb	0.05642603
229	0xbe7d9753	-0.24764757
230	0xbd1a14a7	-0.03761735
231	0x3ea6ebb5	0.32601705
232	0xbea3b5f2	-0.3197475
233	0x3e7d9753	0.24764757
234	0x3e772bcc	0.24137801
235	0xbd80668b	-0.062695585
236	0xbe26ebb5	-0.16300853
237	0xbde0b374	-0.10971728
238	0xbe73f609	-0.23824324
239	0xbe3d640e	-0.18495199
240	0x3e53dc66	0.20689544
241	0x3e5a47ed	0.213165
242	0x3e60b374	0.21943456
243	0xbd73f609	-0.05956081
244	0x3e4099d1	0.18808676
245	0xbe00668b	-0.12539117
246	0x3c1a14a7	0.009404338
247	0x3ea88697	0.32915184
248	0x3e43cf95	0.19122155
249	0xbe00668b	-0.12539117
250	0xbe9879c6	-0.29780406
251	0x3d9a14a7	0.0752347
252	0x3e26ebb5	0.16300853
253	0x00000000	0.0
254	0x3ccd70df	0.025078235
255	0xbce71efb	-0.028213015

GRU/quant_dense_56/BiasAdd/ReadVariableOp:0 f4 [32]
0	0x3d495dc1	0.049161676
1	0xbd4a09af	-0.04932564
2	0xbd76fe01	-0.06030083
3	0x3cc49e56	0.024001282
4	0x3c8cbdcc	0.017180346
5	0x3d4bcaf5	0.0497541
6	0xbdaf387f	-0.08555698
7	0xbd19f837	-0.03759023
8	0xbd0b84f7	-0.034062352
9	0x3d4ac2a4	0.04950203
10	0x3d0f128b	0.034929793
11	0x3d5daa88	0.05411771
12	0xbd36e52b	-0.044652145
13	0x3d38107c	0.044937596
14	0x3c3ecbed	0.011645299
15	0xbc0aadb5	-0.008464267
16	0x3d15d294	0.036577776
17	0x3d37c1d1	0.044862572
18	0xbd784c4c	-0.060619637
19	0x3cf7b085	0.030235538
20	0xbda09de7	-0.078426175
21	0xbd3f88b2	-0.046761222
22	0x3c48366d	0.012220007
23	0x3cee3408	0.029077545
24	0x3d350401	0.04419327
25	0x3d854ba9	0.06508572
26	0x3ca25bee	0.019819226
27	0xbcd13a2b	-0.025540432
28	0x3d961ab6	0.073293135
29	0xbd1dd10f	-0.038529452
30	0x3d4b4d8f	0.049634513
31	0xbd695662	-0.056967147
