models/station_17/model_latest.onnx (onnx, 407557 bytes, 12 tensors)

W__214 f4 [1, 96, 64]
0	0x3eb5bb92	0.35494667
1	0x3d63916f	0.05555862
2	0x3e3a917e	0.18219563
3	0xbcdd2a3e	-0.026997682
4	0x3e094b47	0.13407622
5	0xbdb1dfb0	-0.08685243
6	0xbd651e25	-0.05593695
7	0xbe996866	-0.29962462
8	0xbd05ade2	-0.03263653
9	0x3e1181cf	0.14209674
10	0x3e446ac5	0.19181354
11	0xbe8bb630	-0.27287436
12	0xbdd4d6c4	-0.10392526
13	0xbdbeccb1	-0.093163855
14	0x3de9a317	0.1140806
15	0x3df47e2f	0.1193813
16	0x3e4a3a2f	0.19748758
17	0x3db1b8f7	0.08677857
18	0xbdd98636	-0.10621302
19	0x3dca20a8	0.0986951
20	0xbc97deaf	-0.018538801
21	0xbdac9730	-0.08427274
22	0xbe5fb2c4	-0.21845537
23	0xbe7a6039	-0.24450769
24	0xbe689fa1	-0.22717144
25	0xbd21cc22	-0.039501317
26	0x3e0e9f57	0.13927971
27	0x3e036cd8	0.1283449
28	0xbe01f7d5	-0.12692197
29	0xbe46ccaa	-0.1941401
30	0x3e2f890c	0.17142123
31	0xbd74dd58	-0.059781402
32	0xbe166441	-0.14686681
33	0xbdb71d1e	-0.089411005
34	0x3de2a9ba	0.11067529
35	0x3e9263ac	0.2859167
36	0xbe12d7f9	-0.143402
37	0x3d9ce797	0.0766136
38	0xbec76c3e	-0.3894977
39	0x3e414f3f	0.18877886
40	0xbe032360	-0.12806463
41	0x3e2e99d6	0.17050871
42	0x3ddb2983	0.10701277
43	0xbe919881	-0.28436664
44	0x3dca20a4	0.09869507
45	0x3e288d0e	0.16460058
46	0xbe037be1	-0.12840225
47	0x3dfeeb62	0.124472395
48	0x3d37a84d	0.04483824
49	0x3e06a548	0.13148987
50	0x3e5b4570	0.21413207
51	0xbd788880	-0.06067705
52	0x3e4b80eb	0.19873397
53	0x3e82abd9	0.25521734
54	0xbeb084b5	-0.34476247
55	0x3de0e898	0.10981864
56	0xbc853c02	-0.016263966
57	0x3e1655c6	0.14681157
58	0xbe52134e	-0.20515177
59	0x3e3313b4	0.17487985
60	0xbd5bbfd5	-0.053649742
61	0xbdc8afc9	-0.09799153
62	0x3bf3d0c8	0.00744066
63	0xbdaddffd	-0.08489988
64	0xbe53144b	-0.2061321
65	0xbd42e078	-0.04757735
66	0xbe7381aa	-0.23779932
67	0x3e855100	0.2603836
68	0xbbc815ae	-0.0061061
69	0x3eab1c86	0.334202
70	0xbcd18cb6	-0.025579792
71	0xbe1e2c47	-0.15446578
72	0xbea9f37f	-0.33193585
73	0xbe51ba6e	-0.20481274
74	0xbe88608c	-0.2663616
75	0x3dde294f	0.10847723
76	0xbe05fa60	-0.13083792
77	0x3dc69c9e	0.09697841
78	0x3e4ccdd4	0.20000392
79	0xbd970d70	-0.0737561
80	0xbe6f095d	-0.23343416
81	0x3e4dc374	0.2009409
82	0xbd6db8bb	-0.0580375
83	0xbe4f765b	-0.20259993
84	0xbecad2fd	-0.39614096
85	0xbc5df705	-0.013547664
86	0x3eaca4b4	0.3371941
87	0x3ed4317c	0.41444004
88	0x3e6e24fa	0.23256293
89	0x3e15aa25	0.14615686
90	0x3e93bd2d	0.28855267
91	0x3d42b41a	0.04753504
92	0x3da8d692	0.08244051
93	0x3cecd886	0.02891184
94	0x3d560c33	0.052257728
95	0xbe308ba6	-0.17240772
96	0x3e2a0e86	0.16607103
97	0xbe42e6bb	-0.19033329
98	0x3cdaafca	0.02669515
99	0xbd9de065	-0.077088155
100	0x3e89ee9e	0.26939863
101	0xbe48f8f7	-0.19626223
102	0x3e061e38	0.13097465
103	0xbd893b8f	-0.06700813
104	0x3ecb1606	0.3966524
105	0x3de16d5a	0.11007185
106	0x3e300976	0.17191109
107	0x3ebaa322	0.36452585
108	0x3e58c68b	0.21169488
109	0x3b988222	0.004654185
110	0x3ebbdc71	0.3669162
111	0xbe2c23b7	-0.16810499
112	0xbec900e3	-0.3925849
113	0x3e374ce8	0.17900431
114	0xbdf4b34c	-0.11948261
115	0xbda1b955	-0.078966774
116	0x3e5d4fad	0.21612425
117	0xbe9815f9	-0.29704264
118	0x3ec1c8ea	0.37848598
119	0xbe774ba1	-0.24149944
120	0xbdc5e895	-0.09663502
121	0x3cd0cc48	0.025488034
122	0x3eaded70	0.33970213
123	0xbe131042	-0.1436167
124	0x3e17d997	0.14829098
125	0xbe0c38e5	-0.13693579
126	0x3ad4b092	0.0016226938
127	0xbc50cd87	-0.012744314
128	0xbe8366e5	-0.2566444
129	0x3da2258f	0.0791732
130	0xbe08346e	-0.1330125
131	0xbd8ac2d0	-0.06775439
132	0x3e16e794	0.14736778
133	0xbd90884b	-0.07057246
134	0x3e047fec	0.12939423
135	0x3a84ceec	0.0010132468
136	0xbe38fdb4	-0.1806553
137	0x3e61a9ad	0.22037382
138	0x3dee725f	0.11642908
139	0x3d2c6a5a	0.042093612
140	0x3d7a9c37	0.061184134
141	0x3dd4bef4	0.10387984
142	0x3dc06238	0.09393734
143	0x3b70511b	0.0036669436
144	0xbc277422	-0.010220559
145	0x3e29896f	0.16556333
146	0x3d4f965f	0.050680514
147	0xbde6a07f	-0.11261081
148	0x3e5a319b	0.21307985
149	0x3d738414	0.05945213
150	0x3e42a0d9	0.19006671
151	0xbd8bd7e3	-0.068282865
152	0x3e40cb84	0.18827635
153	0x3e16e714	0.14736587
154	0x3e273e8a	0.1633245
155	0x3e13c622	0.1443105
156	0x3e4e6c89	0.2015859
157	0xbd09e3b3	-0.033664417
158	0xbd3dbbfa	-0.046321847
159	0xbd8e0be6	-0.06935863
160	0x3e38f34e	0.18061563
161	0xbccc40ce	-0.024933245
162	0xbc9b499a	-0.018955994
163	0x3bcfdce8	0.0063434727
164	0x3e04f38b	0.1298353
165	0xbddb2d61	-0.10702015
166	0xbdb0941c	-0.086219996
167	0xbb9ebb02	-0.0048440704
168	0xbdc8d084	-0.09805396
169	0xbe20c5f5	-0.15700515
170	0x3dd18dff	0.10232162
171	0x3d4e57aa	0.05037657
172	0xbda0e2f9	-0.078557916
173	0x3ddc2192	0.107485905
174	0x3e947ba3	0.29000577
175	0xbdc152fd	-0.09439657
176	0xbe278d80	-0.16362572
177	0xbb9fd7b3	-0.0048780083
178	0x3d2b9a73	0.04189534
179	0xbe608812	-0.21926907
180	0x3cae1dd2	0.021254454
181	0xbdb74593	-0.08948817
182	0x3e92b0bb	0.2865046
183	0xbe501a90	-0.20322633
184	0xbc39b710	-0.011335149
185	0xbdd6da0b	-0.10490807
186	0xbd6484a8	-0.055790573
187	0xbdc3622d	-0.0954021
188	0xbdf17a54	-0.1179091
189	0xbcf0d8ff	-0.029400347
190	0xbdaaa94c	-0.08333072
191	0x3e2b9979	0.16757764
192	0xbdcc03ca	-0.0996166
193	0x3ea21759	0.31658438
194	0xbdf53fb2	-0.119750395
195	0x3e22333a	0.15839854
196	0x3e3ba145	0.18323238
197	0x3e9744a4	0.29544556
198	0xbddc0e92	-0.107449666
199	0x3d1508a1	0.036385182
200	0xbe1f6a5b	-0.15567915
201	0x3c7f253f	0.015572845
202	0xbf022a0b	-0.508454
203	0x3dcc309b	0.09970208
204	0xbd9f9245	-0.077915706
205	0x3e09b897	0.13449322
206	0xbdfb6e94	-0.122769505
207	0xbeb5fd99	-0.35545042
208	0xbe832e21	-0.2562113
209	0xbce66954	-0.028126396
210	0xbd3f8037	-0.046753135
211	0x3dca850c	0.09888658
212	0xbe659a61	-0.22422172
213	0x3d155ad5	0.036463577
214	0xbcc3ff1a	-0.023925353
215	0x3e06a8ca	0.13150325
216	0xbe402ac6	-0.18766317
217	0x3e310e3b	0.17290585
218	0x3e07f770	0.13277984
219	0x3c751b7a	0.014960164
220	0x3e4ede05	0.20201881
221	0x3e049c21	0.12950183
222	0xbcb1aed6	-0.021689814
223	0x3dc47c33	0.095940016
224	0xbd850337	-0.06494754
225	0xbe63c410	-0.2224276
226	0x3e26a506	0.16273889
227	0x3ccb6ec1	0.024833085
228	0x3d4a9fd5	0.049468834
229	0x3d892ea4	0.06698349
230	0x3d675e36	0.05648633
231	0x3d979e2f	0.07403218
232	0x3ca5cea3	0.020240134
233	0x3b68ec2a	0.0035541155
234	0x3e3ee8d2	0.18643501
235	0x3e856524	0.26053727
236	0xbd556bad	-0.05210464
237	0xbe455641	-0.19271185
238	0x3e2394fe	0.15974805
239	0x3daa3dc8	0.08312565
240	0xbdb10e3f	-0.08645295
241	0x3cbbfa74	0.022946574
242	0xbcfcef7e	-0.030875918
243	0xbcd77cfd	-0.026304716
244	0x3ed07d2e	0.40720505
245	0xbde5cdec	-0.11220917
246	0x3d3f86f2	0.046759553
247	0x3cea39da	0.028592039
248	0xbd91eba9	-0.07125027
249	0x3e2274fd	0.1586494
250	0xbc10d8f4	-0.008840788
251	0xbd570ca2	-0.052502282
252	0xbdc75159	-0.09732313
253	0xbd07463f	-0.033025976
254	0x3c3ddf15	0.011588831
255	0x3e1af5ae	0.15132782

W__200 f4 [1, 192, 128]
0	0xbbe8f91c	-0.0071097743
1	0x3ebec20f	0.3725743
2	0xbe48460e	-0.19557974
3	0x3ebe4076	0.37158555
4	0xbd5d1f3d	-0.05398487
5	0x3e668d08	0.22514737
6	0x3d699d97	0.057035055
7	0x3e4fb376	0.20283303
8	0x3cfe7d0d	0.031065488
9	0xbe82f85d	-0.2558011
10	0x3e3e67d7	0.185943
11	0x3df2334f	0.118261926
12	0xbd842978	-0.06453222
13	0xbeb6ece9	-0.35727623
14	0xbd80cdac	-0.06289229
15	0xbe13cef8	-0.14434421
16	0xbe3e30be	-0.18573281
17	0xbcc3e67f	-0.02391362
18	0x3db4c753	0.088270806
19	0x3dd92483	0.10602667
20	0x3dab8058	0.08374089
21	0x3de4c808	0.111709654
22	0xbeb6ca03	-0.35700998
23	0x3cc36581	0.023852112
24	0x3d7e788e	0.06212669
25	0x3dc304fa	0.095224336
26	0xbe1d8044	-0.1538096
27	0xbdb666e7	-0.08906346
28	0xbe24e4bf	-0.16102885
29	0x3c9b4136	0.018951993
30	0x3e13359f	0.14375924
31	0xbbad480c	-0.0052881297
32	0xbdab59cf	-0.08366739
33	0x3e9ba553	0.3039957
34	0xbd5f9003	-0.0545807
35	0xbe186ff9	-0.14886464
36	0x3dbb99e2	0.0916021
37	0xbd055212	-0.03254897
38	0x3e02d390	0.12776017
39	0x3d04a70d	0.032385875
40	0xbe5b6bd3	-0.2142785
41	0xbe80d9d9	-0.25166205
42	0xbe3a199d	-0.18173833
43	0xbd588ed6	-0.052870594
44	0xbcfb050d	-0.030642057
45	0x3dc985ee	0.09839998
46	0x3d83160e	0.06400691
47	0xbeb112d9	-0.34584692
48	0x3dec1502	0.115274444
49	0x3d39a799	0.04532585
50	0xbddfff67	-0.10937386
51	0xbe4fb077	-0.2028216
52	0xbe682dc6	-0.22673711
53	0x3e146dbb	0.14494984
54	0x3da6d135	0.08145372
55	0xbe02d562	-0.12776712
56	0xbe6cff74	-0.23144323
57	0x3e2ca0ec	0.16858262
58	0x3e0926e7	0.13393746
59	0xbdd2cd10	-0.10293019
60	0xbda746b4	-0.081677824
61	0xbc1c09cd	-0.009523821
62	0x3ea044cf	0.31302497
63	0x3e9c41c0	0.30518913
64	0x3e3fafe2	0.18719438
65	0x3e740548	0.2383014
66	0xbd9d002d	-0.07666049
67	0xbe63451f	-0.22194336
68	0xbed09649	-0.40739658
69	0x3e718509	0.23585905
70	0x3ece59c3	0.40302858
71	0x3e5c1e58	0.2149595
72	0xbec588ac	-0.38580835
73	0xbe156687	-0.14589892
74	0x3e305ff8	0.17224109
75	0xbdfe38dc	-0.12413189
76	0x3e5b266a	0.21401373
77	0x3dc04401	0.09387971
78	0xbe54af5e	-0.20770022
79	0xbeac84c1	-0.33695033
80	0x3e398d27	0.18120252
81	0xbd0cb7ae	-0.034354858
82	0xbe85e070	-0.26147795
83	0x3eb37bdd	0.35055438
84	0xbcf4a569	-0.02986403
85	0x3e702d13	0.23454694
86	0x3ec99f74	0.39379466
87	0xbe8f6d5b	-0.2801312
88	0x3c7d2fb0	0.015453264
89	0x3eae8b09	0.3409045
90	0x3e534928	0.20633376
91	0xbe00584c	-0.12533683
92	0x3e2cae0c	0.16863269
93	0x3dde7e82	0.10863973
94	0xbec01de1	-0.37522796
95	0x3dfe7946	0.12425475
96	0xbbc797e1	-0.0060911034
97	0xbe9c99fe	-0.30586237
98	0xbe199a39	-0.15000238
99	0x3ea52174	0.32252085
100	0x3c18f02d	0.009334606
101	0x3d181571	0.037129823
102	0x3e15c7c0	0.1462698
103	0xbd72a55e	-0.059239738
104	0x3e2edc67	0.17076264
105	0xbc564b0e	-0.013079418
106	0xbd93d7a9	-0.07218868
107	0x3e613a9f	0.21995018
108	0xbe81e3e8	-0.2536919
109	0x3e2de17c	0.16980547
110	0xbe9f58c3	-0.31122407
111	0xbe1554db	-0.14583151
112	0xbe06ebd4	-0.13175899
113	0x3e0ab4fc	0.13545603
114	0x3e4b9c09	0.19883741
115	0x3e33254c	0.17494696
116	0x3e60ed86	0.21965608
117	0x3e4a2606	0.19741067
118	0x3e37c16b	0.17944877
119	0x3e1730ad	0.14764662
120	0xbd8ca6fc	-0.06867787
121	0xbea14430	-0.31497335
122	0xbded801f	-0.11596703
123	0x3e692262	0.22767022
124	0x3bdad25d	0.0066779093
125	0xbe543e8a	-0.20726982
126	0xbd890e38	-0.06692165
127	0x3b90b137	0.004415657
128	0x3dcc0181	0.09961224
129	0x3e3a4156	0.18188986
130	0x3cb89453	0.022531664
131	0x3d9c77e3	0.07640054
132	0xbdfb59bc	-0.12272975
133	0x3e93d9c2	0.28877074
134	0x3e849015	0.25891176
135	0x3dcea794	0.10090557
136	0x3e340fc8	0.17584145
137	0xbc70ff66	-0.014709329
138	0x3e705164	0.23468548
139	0x3cb7800c	0.022399925
140	0x3e09dabf	0.13462351
141	0xbe998773	-0.29986152
142	0xbdf6b68c	-0.12046537
143	0xbd4df462	-0.05028189
144	0xbd9f5b55	-0.07781092
145	0xbe388be5	-0.18022116
146	0x3e4789f7	0.19486223
147	0xbddfeff5	-0.1093444
148	0xbd535411	-0.051593844
149	0x3e1d2654	0.15346652
150	0xbda75cf4	-0.08172026
151	0x3b0d67b4	0.0021576704
152	0x3e00612f	0.12537073
153	0x3e9f33d3	0.31094226
154	0x3db360d1	0.08758701
155	0x3df644b8	0.12024826
156	0xbdd3fc37	-0.103508405
157	0x3e807b4a	0.25094062
158	0x3e37ad9a	0.17937317
159	0xbdf39871	-0.1189431
160	0xbad7419d	-0.0016422753
161	0x3d9af6fb	0.07566639
162	0x3cce0e2d	0.025153244
163	0xbe67933c	-0.22614759
164	0x3d98773b	0.074446164
165	0x3e6ee55f	0.23329686
166	0xbd3ea4be	-0.04654383
167	0x3e1ca82c	0.15298527
168	0xbe287891	-0.16452242
169	0xbe111f64	-0.14172131
170	0xbdfe1551	-0.124064095
171	0xbdcda9e9	-0.100421734
172	0xbdcfb793	-0.10142436
173	0x3e1c89db	0.15286963
174	0xbd41255a	-0.04715476
175	0xbcab81bc	-0.020935886
176	0x3d462f0e	0.04838472
177	0x3c8a5914	0.016888179
178	0xbe0988be	-0.13431069
179	0xbd078c91	-0.03309304
180	0xbe744bde	-0.23857066
181	0x3d542c91	0.051800314
182	0x3e444ed7	0.191707
183	0xbe0c1b1b	-0.13682215
184	0xbe1ca83a	-0.15298548
185	0x3e2d8cfa	0.1694831
186	0x3d955f3f	0.072935574
187	0xbd2da326	-0.04239192
188	0xbb764040	-0.0037574917
189	0x3d42e6c4	0.047583356
190	0x3d27c3bc	0.04095815
191	0xbd8bd949	-0.06828553
192	0x3e6d251b	0.23158686
193	0x3ec78c69	0.38974312
194	0xbe3fdf09	-0.18737425
195	0xbe233fd3	-0.15942316
196	0xbdb9ca22	-0.09071757
197	0x3cc5449e	0.02408057
198	0x3ea71436	0.32632607
199	0x3e692c54	0.22770816
200	0xbe282497	-0.16420208
201	0xbc660ef2	-0.014041649
202	0x3e54232f	0.20716546
203	0xbdec75d6	-0.11545913
204	0x3cc143ca	0.023591895
205	0xbe1589d6	-0.14603361
206	0xbe9b1d71	-0.302959
207	0xbe166195	-0.14685662
208	0xbd9e0ebf	-0.07717656
209	0x3d3e80d8	0.046509594
210	0xbe88aab7	-0.26692745
211	0x3e4a39d8	0.19748628
212	0xbe4f5e0c	-0.2025072
213	0x3cc2e71b	0.02379184
214	0x3e460d22	0.19340947
215	0xbe342e6c	-0.17595834
216	0xbe047481	-0.12935068
217	0x3de05a76	0.10954754
218	0x3ec0f802	0.37689215
219	0xbe2b41c6	-0.1672431
220	0x3d29c247	0.041445043
221	0x3e6a15f2	0.22859934
222	0xbd44a654	-0.048010185
223	0x3ebdcd63	0.3707076
224	0xbdb66626	-0.08906202
225	0xbe8a9cf9	-0.27072886
226	0xbdb626ed	-0.08894143
227	0x3e44d00e	0.19219992
228	0x3e12e612	0.14345577
229	0xbbfc09da	-0.007691604
230	0x3e868efd	0.26280966
231	0xbca5c2c8	-0.02023448
232	0x3c87e944	0.016590722
233	0xbe5fd42d	-0.21858282
234	0x3e15378c	0.1457197
235	0x3dc4ab11	0.09602941
236	0xbd2c3755	-0.042044956
237	0x3d84a117	0.06476038
238	0xbe1026ee	-0.1407735
239	0xbdeea90c	-0.11653337
240	0xbe771b6e	-0.24131557
241	0x3ded43ea	0.11585219
242	0x3e8bf3d4	0.27334464
243	0xbe518916	-0.2046245
244	0x3e6de8db	0.23233359
245	0xbcfc4991	-0.030796798
246	0x3d75aba1	0.05997813
247	0x3e8e2696	0.27763814
248	0x3e19f5c1	0.15035154
249	0xbce02f7d	-0.027366394
250	0xbe72c14a	-0.23706546
251	0x3e068bdd	0.13139291
252	0x3e2af9f2	0.16696909
253	0xbea14c27	-0.31503412
254	0x3b015405	0.0019733917
255	0x3c7c9ae0	0.015417784

W__187 f4 [1, 384, 6]
0	0xbcbfe44e	-0.023424294
1	0x3cb3f769	0.02196856
2	0xbe046f4b	-0.1293308
3	0xbdb5d6c4	-0.08878854
4	0x3dd44349	0.10364396
5	0xbce13402	-0.02749062
6	0xbe84d5c7	-0.2594435
7	0xbec1f89d	-0.3788499
8	0xbef9b965	-0.48774257
9	0xbee7cff1	-0.45275834
10	0xbed9dc71	-0.42550996
11	0xbc86d4e3	-0.016458934
12	0xbcc6da68	-0.024274066
13	0xbc994ade	-0.018712457
14	0xbd219c81	-0.039455894
15	0xbc4e36ac	-0.012586277
16	0x3ccb31ce	0.024804022
17	0xbda3af30	-0.07992399
18	0x3d74d9bb	0.059777956
19	0x3df7ad6b	0.12093624
20	0x3ce03824	0.02737052
21	0x3dd27f2a	0.10278161
22	0x3e30b819	0.17257728
23	0x3b8ea796	0.004353474
24	0x3dee51ed	0.1163672
25	0x3bd8dce0	0.006618127
26	0xbc42bbc5	-0.011885588
27	0xbcbc308b	-0.022972366
28	0xbd7bb6b5	-0.06145354
29	0x3d730535	0.059331138
30	0x3d98ab57	0.074545555
31	0x3e8137a3	0.2523776
32	0x3e0d41cf	0.13794635
33	0x3e24c09d	0.16089101
34	0x3e883cfb	0.26609024
35	0x3e255660	0.1614623
36	0x3c757339	0.0149810845
37	0xbe1a67a9	-0.15078606
38	0xbe91c01d	-0.28466883
39	0xbe46d4c8	-0.19417107
40	0x3b5a1ee6	0.0033282577
41	0xbdc9ae48	-0.09847695
42	0xbc8745fc	-0.016512863
43	0xbc8bf296	-0.017083447
44	0xbdf73399	-0.12070388
45	0xbdda1309	-0.10648162
46	0xbdb9b9e6	-0.090686604
47	0xbd10030c	-0.035159156
48	0x3dfe2eae	0.12411247
49	0x3ea820b8	0.32837462
50	0x3e1bb81f	0.15206955
51	0x3df566c7	0.11982494
52	0x3e4c5bfb	0.19956963
53	0xbbe43477	-0.006964262
54	0x3d8283fc	0.0637283
55	0xbdfc360c	-0.12314996
56	0x3d9a04c1	0.07520438
57	0xbdca5a5a	-0.098805144
58	0x3c5e339f	0.013562112
59	0xbd904b57	-0.0704562
60	0x3e75e2ea	0.24012342
61	0xbc54d820	-0.012990981
62	0xbd4a6efa	-0.04942224
63	0xbd115241	-0.035478834
64	0x3d80b08e	0.06283675
65	0x3e15f78c	0.14645213
66	0xbe05b26c	-0.13056344
67	0xbe28b89c	-0.16476673
68	0xbeba3b8c	-0.36373556
69	0xbe94c601	-0.29057315
70	0xbe3609bc	-0.17777151
71	0xbdb8356d	-0.08994565
72	0xbe022bab	-0.1271197
73	0xbe9d0603	-0.3066865
74	0xbe7e7259	-0.24848308
75	0xbe2b7db1	-0.16747166
76	0xbe9aead6	-0.3025729
77	0xbdf3c424	-0.11902645
78	0x3d0b79b3	0.03405161
79	0xbc92bff6	-0.0179138
80	0xbe41d88d	-0.18930264
81	0xbe3bc346	-0.1833621
82	0xbd452bd1	-0.04813749
83	0x3e1c34cb	0.15254514
84	0x3d2c2b42	0.04203344
85	0xbd8c58cb	-0.068528734
86	0xbe03b2f6	-0.12861237
87	0x3d9dfd52	0.07714333
88	0xbdb4b4dc	-0.08823559
89	0x3daada9b	0.08342477
90	0xbe0b9788	-0.13632023
91	0xbe92c38d	-0.28664818
92	0xbe6d53dd	-0.23176523
93	0xbe81d574	-0.25358164
94	0xbe441ae5	-0.19150884
95	0xbe365f18	-0.17809713
96	0x3d242bb2	0.040080734
97	0xbe317659	-0.17330302
98	0x3a7dff1e	0.00096891995
99	0xbb37bd48	-0.0028036404
100	0xbd75fff7	-0.06005856
101	0xbd5c58a9	-0.05379549
102	0x3dc21b5b	0.09477874
103	0x3aa8139d	0.0012823228
104	0x3d70ecc9	0.058819566
105	0x3e3dd0fc	0.18536752
106	0x3e33e71e	0.17568633
107	0xbd488fca	-0.048965253
108	0x3ea0a3cf	0.31374976
109	0x3e32714b	0.1742603
110	0x3e3cfb74	0.18455297
111	0x3dd09c28	0.101860344
112	0xbc531215	-0.012882729
113	0xbd2ffd09	-0.042965923
114	0x3b3e3317	0.002902215
115	0x3e768d6c	0.24077386
116	0x3ca144f3	0.019686198
117	0x3e4ba812	0.19888332
118	0x3bf87bd4	0.007583121
119	0x3e166271	0.1468599
120	0xbd0810fe	-0.03321933
121	0xbd3bdcb3	-0.045864772
122	0xbe2f2cae	-0.17106888
123	0xbddab81c	-0.10679647
124	0xbd6b9662	-0.057516463
125	0xbddc31bd	-0.10751674
126	0x3dd63a07	0.104602866
127	0x3e869c03	0.26290902
128	0x3e8a9f8d	0.27074853
129	0x3e5acade	0.2136645
130	0x3e86bbac	0.26315057
131	0xbc84cbd4	-0.016210474
132	0x3e048e5e	0.12944934
133	0x3e8b8c5c	0.27255523
134	0x3e9ae5a8	0.3025334
135	0x3e86b86e	0.26312584
136	0x3e5607b1	0.20901372
137	0x3b079aa8	0.0020691548
138	0x3e8809e0	0.26570034
139	0x3dcf7ef2	0.10131635
140	0x3e449263	0.19196467
141	0x3e00c3c9	0.12574686
142	0x3e06ff52	0.13183334
143	0xbd9721d3	-0.07379498
144	0x3e085fdd	0.13317819
145	0xbd3d98d3	-0.046288323
146	0x3d31a9db	0.043374877
147	0x3da405da	0.080089286
148	0x3d41a0a6	0.047272347
149	0x3d4fc275	0.050722558
150	0x3ddd9585	0.10819534
151	0xbcd07dd8	-0.025450632
152	0x3b7b425c	0.0038339114
153	0x3da932dd	0.082616545
154	0x3d15f91f	0.036614534
155	0xbe05475a	-0.130155
156	0x3e0c2d5e	0.13689181
157	0x3e948a6b	0.29011855
158	0x3ec1ef48	0.3787787
159	0x3eab3dc2	0.33445555
160	0x3ec147fb	0.3775023
161	0xbbae05e6	-0.0053107617
162	0xbe0871b5	-0.13324626
163	0xbe8110ae	-0.25208038
164	0xbe944863	-0.28961477
165	0xbe23f8e3	-0.16012911
166	0xbe333075	-0.17498954
167	0xbde230b2	-0.11044444
168	0xbeaae643	-0.333788
169	0xbecc7e08	-0.39939904
170	0xbee8555c	-0.45377624
171	0xbf00842c	-0.5020168
172	0xbeaf078d	-0.34185448
173	0x3d02e8e5	0.031960387
174	0x3d62db76	0.055385076
175	0x3e7f3f16	0.24926409
176	0x3e0b4cc6	0.13603505
177	0x3e520469	0.20509495
178	0x3e84910d	0.25891915
179	0xbb837601	-0.00401187
180	0x3e7f465d	0.24929185
181	0x3d0bf710	0.034171164
182	0xbdb05f68	-0.08611947
183	0x3db8982e	0.09013401
184	0x3dee2cda	0.116296485
185	0x3d25ddba	0.040494658
186	0x3e198ae9	0.14994396
187	0x3e2f0801	0.17092897
188	0x3e3fdfd5	0.18737729
189	0x3e61b735	0.22042544
190	0x3e6e63d2	0.23280266
191	0xbd533628	-0.05156532
192	0x3d966f83	0.07345488
193	0x3c4e2607	0.012582309
194	0x3dc18878	0.094498575
195	0x3e5a90af	0.21344255
196	0x3c52a5f0	0.012856945
197	0xbc4d0655	-0.012513717
198	0xbe8d1ffe	-0.2756347
199	0xbee48ca2	-0.44638544
200	0xbea75081	-0.32678607
201	0xbee44b7b	-0.44588837
202	0xbeca736a	-0.3954118
203	0x3d7e4a83	0.06208278
204	0x3e16dec5	0.14733417
205	0x3e011228	0.12604582
206	0x3e5471eb	0.20746581
207	0x3d01f6b8	0.03172943
208	0xbd4bd762	-0.049765952
209	0xbbf7d3f4	-0.0075631086
210	0x3db21ef7	0.08697312
211	0xbd6e604e	-0.058197312
212	0x3c5f4527	0.013627327
213	0x3dbc9b02	0.09209253
214	0x3e090b2c	0.13383168
215	0x3d6010df	0.05470359
216	0xbe67959f	-0.2261567
217	0xbe224416	-0.15846285
218	0xbdd847ff	-0.10560607
219	0xbe543034	-0.20721513
220	0xbd132a29	-0.03592888
221	0x3c42eae2	0.011896821
222	0x3e6811da	0.2266306
223	0x3e27b765	0.16378553
224	0x3e3eb81e	0.18624923
225	0x3e348581	0.17629053
226	0xbce405d0	-0.027834803
227	0x3c8e314c	0.017357491
228	0x3e8f7fac	0.28027093
229	0x3e5e0f04	0.21685416
230	0x3de8bb76	0.1136388
231	0x3cce3316	0.025170844
232	0x3ea82f48	0.32848573
233	0x3de9dc9c	0.11419031
234	0x3d20eb9d	0.0392872
235	0xbdefbd9a	-0.117060855
236	0xbe4dc8f3	-0.20096187
237	0xbe220501	-0.15822221
238	0xbdd0d051	-0.10195983
239	0xbb8b86da	-0.004258019
240	0xbe93de09	-0.28880337
241	0xbed07731	-0.40715936
242	0xbee3e545	-0.44510856
243	0xbea2b38a	-0.31777602
244	0xbecd8cf3	-0.40146598
245	0xbdcb04f1	-0.09913052
246	0xbda8e8ed	-0.08247552
247	0xbd6f717c	-0.058457837
248	0xbe83f92a	-0.25776035
249	0xbe328406	-0.17433175
250	0xbe38b41b	-0.18037455
251	0xbd9f8936	-0.07789843
252	0xbe539f98	-0.20666349
253	0xbdb97ce3	-0.090570234
254	0xbea2032a	-0.3164304
255	0xbe9b2535	-0.30301824

R__215 f4 [1, 96, 32]
0	0x3d9e6c25	0.07735471
1	0x3b7fbe5d	0.0039023377
2	0x3dc043c0	0.09387922
3	0x3dca221e	0.098697886
4	0xbea469de	-0.3211202
5	0xbe1c0221	-0.15235187
6	0x3c24a747	0.010049648
7	0x3df52b96	0.11971204
8	0xbdf98397	-0.12183302
9	0xbe77d08f	-0.24200653
10	0xbdae98ac	-0.085252136
11	0x3d28ebaa	0.04124037
12	0x3e2b4114	0.16724044
13	0xbdb9ceeb	-0.090726696
14	0xbd504cd7	-0.05085453
15	0x3d9807cb	0.074233614
16	0xbe48a1cb	-0.19592969
17	0x3dd309a0	0.1030457
18	0xbd491102	-0.049088486
19	0x3da01920	0.07817292
20	0xbd4cfc76	-0.050045453
21	0x3d880f37	0.06643527
22	0xbd13a70b	-0.036047976
23	0xbd642d1e	-0.05570709
24	0x3d10fe79	0.035398934
25	0xbdb601fd	-0.08887098
26	0xbe8d7329	-0.27626923
27	0x3e95d1dd	0.29261675
28	0xbd14ddbc	-0.036344275
29	0x3d087db9	0.033323023
30	0x3d793b39	0.060847495
31	0xbd524fb2	-0.051345535
32	0xbe7ddc9b	-0.24791186
33	0xbe4fe299	-0.20301284
34	0xbd8c319b	-0.06845399
35	0xbeaadc74	-0.33371317
36	0x3e213342	0.1574221
37	0xbe860809	-0.26178005
38	0x3e6f7671	0.23385026
39	0xbea4b66f	-0.32170436
40	0x3edace5f	0.42735574
41	0x3e4608d5	0.19339307
42	0xbcfb3916	-0.03066687
43	0xbea41800	-0.3204956
44	0xbe1a6684	-0.15078169
45	0xbd933b9e	-0.071891055
46	0xbe891233	-0.26771697
47	0xbddce723	-0.10786273
48	0x3bd532b1	0.006506287
49	0xbd8906e6	-0.06690769
50	0xbe3cc423	-0.18434195
51	0x3d0bfb13	0.03417499
52	0xbe23de97	-0.1600288
53	0x3dda45d1	0.10657848
54	0x3e55514d	0.20831795
55	0xbe7cc07d	-0.24682803
56	0x3cc1017a	0.023560274
57	0x3e03de7d	0.12877841
58	0x3ba78cf9	0.005113241
59	0xbeb7dcc8	-0.3591063
60	0xbde253b5	-0.11051122
61	0x3e703f05	0.2346154
62	0x3edfd20b	0.43714938
63	0xbd42ecd0	-0.047589123
64	0x3d7c9786	0.06166794
65	0xbe198829	-0.14993347
66	0xbe1aa548	-0.15102112
67	0xbe2ba0a9	-0.16760506
68	0x3cc0efa0	0.023551762
69	0xbd4e94e9	-0.05043498
70	0x3d5e32dd	0.054247726
71	0xbd334c2e	-0.043773822
72	0xbd7d16a4	-0.06178917
73	0xbe3592c4	-0.17731768
74	0xbcec815f	-0.028870283
75	0x3df80d2c	0.12111887
76	0xbd74b449	-0.059742246
77	0x3dfe57b9	0.124190755
78	0x3c73fc30	0.014891669
79	0x3e53ab13	0.20670728
80	0xbe2a246d	-0.16615458
81	0x3e0c6044	0.13708597
82	0xbe039136	-0.12848362
83	0x3da21d87	0.07915788
84	0x3e9a943f	0.30191228
85	0x3e50f9c3	0.20407777
86	0xbc8343ee	-0.016023602
87	0xbe0d07ea	-0.1377255
88	0xbe83e31f	-0.25759217
89	0x3d098831	0.033577148
90	0xbdd945ed	-0.106090404
91	0xbd7ea686	-0.062170528
92	0xbd882edc	-0.06649563
93	0xbd620610	-0.055181563
94	0x3dc5c770	0.0965718
95	0xbd37fb82	-0.04491759
96	0xbd72b211	-0.05925185
97	0xbe0ccff0	-0.13751197
98	0x3d46c353	0.04852612
99	0xbe073667	-0.13204347
100	0x3db167e8	0.08662397
101	0xbe3b265d	-0.18276353
102	0x3e92edcc	0.2869705
103	0x3d2360b2	0.039887138
104	0x39c804c8	0.00038150535
105	0x3e0f9ea6	0.14025363
106	0x3c90b16f	0.017662732
107	0xbe09e270	-0.13465285
108	0xbdee5a2a	-0.11638291
109	0xbdbfb068	-0.09359819
110	0x3cb05cd6	0.021528643
111	0xbe9a4c90	-0.30136538
112	0x3e82cc7d	0.25546637
113	0x3d0a8e3d	0.033827055
114	0xbe44dedf	-0.19225644
115	0xbe2d74ef	-0.16939138
116	0xbdfe3174	-0.12411776
117	0xbc84e562	-0.01622266
118	0x3e488d0c	0.19585055
119	0xbd6c5ee4	-0.057707682
120	0xbdb1e6be	-0.08686589
121	0x3dddd77f	0.10832118
122	0xbd52aa26	-0.051431797
123	0xbeb5e8aa	-0.3552907
124	0x3e110dc4	0.14165407
125	0x3e3b70fa	0.18304816
126	0x3e2b810f	0.1674845
127	0xbbdd30fc	-0.006750224
128	0xbe19081a	-0.14944497
129	0xbe8d6e8b	-0.276234
130	0x3db4117b	0.08792397
131	0xbe829ad5	-0.25508752
132	0x3df8ac0b	0.121421896
133	0xbd8b0ab8	-0.06789154
134	0x3e070846	0.1318675
135	0xbe73a69c	-0.23794025
136	0x3e51a519	0.20473136
137	0x3e517c8f	0.20457672
138	0x3d14dc62	0.036342986
139	0xbe21bd70	-0.15794921
140	0xbe7c1caf	-0.24620317
141	0xbe29dafe	-0.16587445
142	0xbdc41b07	-0.095754676
143	0x3cfde274	0.03099177
144	0x3d41dfc3	0.047332536
145	0xbe0d0214	-0.13770324
146	0xbebe7c85	-0.37204376
147	0xbdbe9a83	-0.093068145
148	0xbe7c3e97	-0.24633251
149	0xbd9a607c	-0.07537934
150	0x3e156649	0.145898
151	0xbdd0a563	-0.10187795
152	0x3e1e1257	0.15436684
153	0x3c3e746f	0.01162444
154	0xbd0c56f1	-0.0342626
155	0xbe1b25ee	-0.15151188
156	0xbcfcdf60	-0.030868232
157	0x3db6817e	0.089114174
158	0x3ca122a7	0.019669844
159	0x3e65ea4c	0.22452658
160	0xbd0c534a	-0.03425912
161	0x3ca2fbeb	0.019895514
162	0xbe1b672f	-0.1517608
163	0xbcb90574	-0.022585608
164	0x3e943f4f	0.2895455
165	0xbe0f4de3	-0.13994555
166	0xbd542d14	-0.051800802
167	0xbe0e895c	-0.13919586
168	0xbd92b899	-0.071641155
169	0x3d9f7129	0.077852555
170	0xbd054f7c	-0.032546505
171	0xbdc3768e	-0.09544097
172	0xbc095e7e	-0.008384345
173	0xbd7fbb15	-0.062434275
174	0xbdb31bfe	-0.087455735
175	0xbdcfda18	-0.1014902
176	0xbd647750	-0.055777848
177	0x3e2dc07f	0.16967963
178	0xbde06415	-0.10956589
179	0xbc6533fe	-0.013989447
180	0xbda1679c	-0.0788109
181	0xbe2abb74	-0.1667307
182	0xbb920b16	-0.004456888
183	0xbe1b5786	-0.15170106
184	0xbdb29ecb	-0.087216936
185	0xbc38eb6f	-0.0112866005
186	0xbcd3118a	-0.0257652
187	0x3e88cdbb	0.2671946
188	0xbdcc5c8b	-0.09978589
189	0x3e75736e	0.23969814
190	0xbdb9ceac	-0.09072623
191	0xbdcf61bb	-0.101260625
192	0xbd80b40b	-0.062843405
193	0xbe408843	-0.1880198
194	0xbdca5db3	-0.09881153
195	0xbd80255a	-0.06257124
196	0xbc60d46c	-0.01372252
197	0xbea7fea4	-0.32811463
198	0x3dae3820	0.08506799
199	0xbda3cd40	-0.07998133
200	0x3e87984f	0.2648339
201	0x3e21ba9a	0.15793839
202	0x3e3134ad	0.1730525
203	0xbeac0cd0	-0.33603525
204	0xbe57d30b	-0.210766
205	0xbe6bc12c	-0.23022908
206	0xbe75b7ff	-0.2399597
207	0xbd489c33	-0.04897709
208	0xbdb1e91a	-0.08687039
209	0xbdc936ca	-0.09824903
210	0xbe9ff3d8	-0.31240726
211	0xbe5ccf03	-0.21563344
212	0xbdc6de56	-0.09710376
213	0x3e2fddaf	0.1717441
214	0x3e48c31f	0.19605683
215	0xbe3f76bf	-0.18697642
216	0x3e103741	0.14083578
217	0x3da0140c	0.07816324
218	0xbecfa7e9	-0.40557793
219	0xbeb6f153	-0.3573099
220	0x3e9ea783	0.30987176
221	0x3e99adde	0.30015463
222	0x3eafb712	0.3431936
223	0xbd334b6e	-0.043773107
224	0xbe0763c9	-0.13221659
225	0xbe517b06	-0.20457086
226	0xbcbea55d	-0.02327221
227	0xbdeeb9b1	-0.116565116
228	0x3db0ce54	0.08633104
229	0xbea01948	-0.31269288
230	0x3db8f916	0.09031884
231	0x3dab1e0e	0.08355342
232	0x3d5db96e	0.054131918
233	0x3d1ff1df	0.039049026
234	0xbdd61b91	-0.104544766
235	0xbe9e70c7	-0.30945417
236	0x3d6c637c	0.057712063
237	0x3d90b644	0.070660144
238	0xbe1dd95d	-0.15414949
239	0xbcafa8e9	-0.021442847
240	0x3bcdf9d4	0.0062858853
241	0xbd810735	-0.06300203
242	0xbdd398bf	-0.103318684
243	0x3cbf5880	0.02335763
244	0xbe80aefd	-0.25133505
245	0x3e07a801	0.13247682
246	0x3e9daa97	0.30794212
247	0x3d754fdd	0.059890617
248	0xbd378ddf	-0.044813033
249	0xbdc617e2	-0.09672524
250	0xbe9afd56	-0.30271405
251	0xbe2e95e8	-0.17049372
252	0x3e4bcb84	0.19901854
253	0x3e28928e	0.16462156
254	0x3e961351	0.29311612
255	0x3cfa30f6	0.030540925

R__201 f4 [1, 192, 64]
0	0xbd99be12	-0.07506956
1	0x3decee98	0.11568946
2	0xbd81375a	-0.063093856
3	0x3e2ca428	0.16859496
4	0xbdb80c46	-0.08986716
5	0x3e712937	0.23550878
6	0xbdda320b	-0.10654076
7	0xbe59d027	-0.2127081
8	0xbe793653	-0.2433713
9	0xbe772438	-0.2413491
10	0xbe884513	-0.266152
11	0x3e75751e	0.23970458
12	0xbe845a5d	-0.25850192
13	0x3e02f599	0.12789
14	0x3e47fb42	0.19529441
15	0xbe2c99db	-0.16855566
16	0xbe7f9997	-0.24960934
17	0x3db59664	0.08866575
18	0xbe8263e6	-0.2546684
19	0xbe2abc9f	-0.16673516
20	0xbe6d6c49	-0.23185839
21	0x3eadeb4c	0.3396858
22	0x3e8022ed	0.25026646
23	0x3ecbcb3e	0.398035
24	0x3d3ad718	0.045615286
25	0x3e294615	0.1653064
26	0x3e918cb2	0.28427655
27	0x3e227834	0.15866166
28	0x3e5e20c2	0.21692184
29	0x3e27b91c	0.16379207
30	0xbddfa9fa	-0.10921092
31	0xbdbea5e7	-0.09308987
32	0x3cc92c4b	0.024557253
33	0xbd529073	-0.05140729
34	0x3db22a9a	0.08699532
35	0xbe4f5c0f	-0.20249961
36	0x3dde6057	0.10858219
37	0x3e1145bd	0.1418676
38	0xbe0e04e8	-0.13869059
39	0xbe36d025	-0.17852838
40	0x3e6a8ecb	0.22906034
41	0xbdcb2035	-0.099182524
42	0x3cfebeec	0.031096898
43	0x3da3bb20	0.07994676
44	0x3d72a807	0.059242275
45	0x3db60c90	0.08889115
46	0x3e30fbab	0.17283504
47	0xbd9aece3	-0.07564714
48	0xbe906b8a	-0.28207046
49	0x3e1e9007	0.1548463
50	0xbe738bc3	-0.23783784
51	0x3eb5646a	0.35428172
52	0x3e89e4c0	0.26932335
53	0xbe785cd3	-0.2425416
54	0x3e633c70	0.22191024
55	0xbea51645	-0.32243553
56	0x3d35471e	0.044257276
57	0x3e1c564b	0.15267293
58	0x3e070979	0.13187207
59	0xbdba3851	-0.09092773
60	0x3d1c283b	0.038124304
61	0x3e4449b4	0.1916874
62	0x3e3378c2	0.17526534
63	0x3e89aad4	0.26888144
64	0xbe83ad90	-0.25718355
65	0xbe0fb6b5	-0.14034541
66	0xbdd6f253	-0.104954384
67	0x3b95a369	0.004566599
68	0xbd8befa9	-0.06832821
69	0x3d894329	0.06702263
70	0x3e121b48	0.1426822
71	0xbe643067	-0.22284089
72	0xbe7c55f8	-0.2464217
73	0xbd920ae1	-0.07130981
74	0xbe29e544	-0.16591364
75	0x3e2f7859	0.17135753
76	0xbda6528c	-0.08121213
77	0x3e396947	0.18106566
78	0x3e44e1ab	0.1922671
79	0xbd13f7cd	-0.036124993
80	0xbe9af11a	-0.3026207
81	0x3dabf1b4	0.083957106
82	0xbdebb2af	-0.115086906
83	0x3d7402c8	0.059572965
84	0xbe7454aa	-0.23860422
85	0x3e974096	0.29541463
86	0x3e2c2260	0.16809988
87	0x3e2b193f	0.1670885
88	0x3c6e8ef2	0.014560448
89	0x3e31f7f7	0.17379747
90	0x3e0b803d	0.13623138
91	0x3e41c969	0.18924488
92	0x3ea36bf2	0.31918293
93	0x3daaa8ca	0.08332975
94	0xbde710fd	-0.11282537
95	0xbe6920ed	-0.22766466
96	0x3d1edeb1	0.038786594
97	0xbe7c4fb4	-0.2463978
98	0x3b3b8754	0.0028614597
99	0xbe0b3d38	-0.13597572
100	0x3df61c0b	0.120170675
101	0x3e31ff56	0.17382559
102	0xbe4e39ea	-0.2013928
103	0xbe850821	-0.25982764
104	0x3dea2262	0.11432339
105	0xbcdbd0bf	-0.026832936
106	0x3e05efa5	0.13079698
107	0x3eb377d6	0.35052365
108	0x3d65ecba	0.056133963
109	0x3df978a8	0.121812165
110	0x3c6c45b1	0.014420913
111	0xbd739884	-0.059471622
112	0xbdd14436	-0.10218088
113	0x3e84328e	0.2581982
114	0xbe886b0b	-0.26644167
115	0xbc19693a	-0.009363467
116	0x3d19113a	0.037369944
117	0xbe137fce	-0.14404222
118	0x3eb735ce	0.35783237
119	0xbd7d1e41	-0.06179643
120	0xbe0dcdf4	-0.13848096
121	0x3e3a97d3	0.18221979
122	0x3da684da	0.08130808
123	0xbe378138	-0.17920387
124	0xbe0adde2	-0.13561204
125	0xbd29cab6	-0.041453086
126	0x3e2f3e2b	0.17113559
127	0x3e312924	0.1730085
128	0xbd2b5c76	-0.041836224
129	0xbe190efb	-0.14947121
130	0x3d7656cc	0.06014137
131	0x3d2464e9	0.040135298
132	0xbcf5268f	-0.029925613
133	0xbe1c7da0	-0.15282297
134	0xbe1d1e01	-0.15343477
135	0xbe015c17	-0.12632786
136	0xbe37cc20	-0.17948961
137	0xbdd1b091	-0.102387555
138	0xbdae2f2d	-0.08505092
139	0x3e28b219	0.16474189
140	0xbe7379ed	-0.2377698
141	0xbda80544	-0.08204129
142	0x3cb84b23	0.022496765
143	0xbd4c4307	-0.04986861
144	0xbe29ccb1	-0.1658199
145	0x3d4c0e88	0.049818546
146	0xbdc574c5	-0.09641413
147	0xbd22d999	-0.0397583
148	0xbd1fe7dc	-0.039039478
149	0x3e989c5c	0.29806793
150	0x3dafa698	0.08576697
151	0x3dc5e336	0.09662478
152	0x3e5a40b6	0.21313748
153	0xbcaa8e0e	-0.02081969
154	0xbb60a698	-0.0034278985
155	0x3d5c0c16	0.053722464
156	0x3dc789ed	0.09743104
157	0xbcb439c2	-0.022000197
158	0xbe61eb94	-0.22062522
159	0xbdb1f85e	-0.086899504
160	0x3daf626a	0.08563693
161	0xbe843a0b	-0.25825533
162	0xbe34dba5	-0.17661913
163	0xbe0b5654	-0.1360715
164	0x3d4b9531	0.049702827
165	0x3d03b38b	0.032153647
166	0xbd39c812	-0.045356818
167	0xbd6cdeb6	-0.05782958
168	0x3e0a098d	0.13480206
169	0xbd9923ad	-0.07477508
170	0x3e067c5e	0.1313338
171	0x3ca7d147	0.020485533
172	0xbcd258da	-0.025677133
173	0x3e67c7dc	0.22634834
174	0x3c8db845	0.01729978
175	0xbc9eafbf	-0.019370912
176	0xbe2d2e91	-0.16912295
177	0x3e191341	0.14948751
178	0xbe7d0cec	-0.2471196
179	0xbd89a217	-0.06720369
180	0x3e2fc19f	0.17163704
181	0xbd6c568f	-0.057699736
182	0x3e80389d	0.25043193
183	0xbe0efae9	-0.13962902
184	0xbde6864f	-0.11256086
185	0x3d425716	0.047446333
186	0xbdf093cc	-0.1174694
187	0xbcc3fda6	-0.02392466
188	0x3d6de16d	0.05807631
189	0x3d26e645	0.040746946
190	0xbe328f91	-0.17437579
191	0x3e02b496	0.127642
192	0xbe806fcc	-0.25085294
193	0x3e8ae299	0.27126005
194	0xbc3b10e5	-0.011417602
195	0xbe0609d7	-0.13089691
196	0xbc11d5e7	-0.008901096
197	0x3d8bb309	0.068212576
198	0x3ddf56f8	0.1090526
199	0x3d676601	0.056493763
200	0xbe144c50	-0.14482236
201	0xbed9eb33	-0.42562255
202	0xbe678794	-0.22610313
203	0xbc8a80d1	-0.016907128
204	0xbe20f6ac	-0.15719098
205	0x3e6951e5	0.22785147
206	0x3e5c364c	0.21505088
207	0xbee1d3d3	-0.44106922
208	0xbe76dbef	-0.24107336
209	0x3e16fbd6	0.14744505
210	0xbec88ab3	-0.3916832
211	0x3de168ee	0.11006342
212	0xbe4c75df	-0.19966839
213	0x3e008e5f	0.1255431
214	0x3eb773a5	0.35830417
215	0x3e5c8971	0.21536805
216	0x3e086a09	0.13321699
217	0x3ea4cc88	0.32187295
218	0x3e8b1fd1	0.27172711
219	0x3dc3004b	0.0952154
220	0x3e8e3094	0.27771437
221	0x3da879c8	0.08226353
222	0xbccb64f7	-0.024828417
223	0x3db75203	0.08951189
224	0xbbcd8d10	-0.0062729195
225	0xbe03f591	-0.12886645
226	0x3e6b2347	0.22962676
227	0xbe053cad	-0.13011427
228	0x3e5fbac1	0.21848585
229	0x3e088c36	0.13334736
230	0x3cc4ef5c	0.024039917
231	0xbea00b71	-0.3125873
232	0x3e8c6b81	0.2742577
233	0x3e58af45	0.2116061
234	0x3d0749a4	0.033029214
235	0x3eb4da60	0.35322857
236	0x3df53e5f	0.11974787
237	0x3c822496	0.015886586
238	0x3e431672	0.19051531
239	0xbe877ab3	-0.264608
240	0xbe99f8a7	-0.3007252
241	0x3e67ec3f	0.22648714
242	0xbe1dea8f	-0.15421508
243	0x3e56da85	0.20981796
244	0x3ea156e6	0.3151161
245	0xbddc110f	-0.10745441
246	0x3e08763b	0.13326351
247	0xbe224f46	-0.15850553
248	0x3a2628fe	0.0006338506
249	0x3e2b1f28	0.16711104
250	0x3db6efe1	0.08932472
251	0xbe5a0ec3	-0.21294694
252	0x3c5fcea5	0.013660108
253	0x3db219a4	0.08696297
254	0x3e645cd1	0.22301032
255	0x3d5c753b	0.053822737

R__188 f4 [1, 384, 128]
0	0x3dc88a61	0.09792019
1	0xbdece499	-0.11567039
2	0x3ca074a6	0.019586872
3	0xbb3edadb	-0.0029122147
4	0x3ded592c	0.11589274
5	0xbb92c610	-0.0044791773
6	0xbd960a58	-0.07326192
7	0x3ddd0aa0	0.10793042
8	0xbba4c703	-0.005028607
9	0xbb45ee58	-0.0030201878
10	0xbc88ab0e	-0.016683128
11	0x3cdfdeca	0.027327914
12	0x3e125db0	0.14293551
13	0x3cf72438	0.030168638
14	0x3e0c87fb	0.13723747
15	0x3c3219a8	0.010870375
16	0x3df5de7d	0.12005327
17	0xbd22b7d7	-0.039726105
18	0x3ca973e5	0.020685146
19	0xbe16f748	-0.14742768
20	0xbd7d5aec	-0.061854288
21	0x3daae40f	0.0834428
22	0xbc559eb8	-0.01303833
23	0xbc762a1b	-0.015024687
24	0x3bb54442	0.0055318186
25	0xbd9ec93c	-0.07753226
26	0xbc90e8a5	-0.017689059
27	0x3d46399f	0.048394796
28	0x3d446cac	0.0479552
29	0x3d6e6bc7	0.058208253
30	0xbe03591b	-0.1282696
31	0xbd4fd545	-0.0507405
32	0xbcd2c12c	-0.025726877
33	0xbb839fb2	-0.00401684
34	0xbcaa776c	-0.020808898
35	0x3d2ef65a	0.042715408
36	0x3ddab795	0.10679547
37	0xbd8769a7	-0.066119485
38	0xbe0c7d5e	-0.13719699
39	0xbdbc84e9	-0.09205038
40	0xbc59012d	-0.013244909
41	0x3d4a8c75	0.049450357
42	0x3db683c7	0.08911853
43	0xbe593862	-0.21212915
44	0xbd95c758	-0.073134124
45	0xbd8a1826	-0.06742887
46	0xbc112044	-0.00885779
47	0x3da7a581	0.08185864
48	0xbceb8252	-0.028748665
49	0x3dc9c4a4	0.09851959
50	0x3e25bf96	0.16186365
51	0x3d45ae84	0.048262134
52	0x3c15e88e	0.009149684
53	0xbce968e7	-0.028492404
54	0x3dacade3	0.08431604
55	0xbd4ccbb3	-0.04999895
56	0xbc891249	-0.016732352
57	0xbddf56ca	-0.109052256
58	0x3cdc2df0	0.026877373
59	0x3b6aef8a	0.0035848343
60	0x3d31618c	0.04330592
61	0x3c9c65c4	0.019091494
62	0xbc617127	-0.013759888
63	0xbdb018d9	-0.08598489
64	0xbe15e557	-0.14638267
65	0xbd9a4230	-0.075321555
66	0x3cc6502a	0.024208147
67	0x3e1de4c8	0.15419304
68	0x3dd39404	0.10330966
69	0xbde064dd	-0.10956738
70	0xbba01b4e	-0.0048860675
71	0xbdaf31ee	-0.08554445
72	0x3d5c7877	0.05382582
73	0x3e0d3fa5	0.1379381
74	0x3df34d87	0.118800215
75	0xbd92c9b9	-0.07167382
76	0xbd09d04e	-0.03364592
77	0x3cda22f9	0.026628004
78	0x3d19299a	0.03739319
79	0x3d1da40c	0.038486525
80	0xbcc9b508	-0.024622455
81	0xbdef6b59	-0.11690397
82	0x3ce4ddab	0.02793773
83	0xbbe465aa	-0.006970127
84	0xbd85b3c1	-0.06528426
85	0x3de19bfe	0.11016081
86	0x3bfdf38b	0.00774998
87	0x3cfdcbeb	0.030981025
88	0x3e1cf11d	0.15326352
89	0xbd8aa847	-0.067703776
90	0xbd8cccd6	-0.06875007
91	0x3db97960	0.090563536
92	0xbc099e08	-0.008399494
93	0xbd8f3967	-0.069933705
94	0x3d04be74	0.032408193
95	0xbd054f9e	-0.032546632
96	0xbe1b9920	-0.15195131
97	0x3e5a198c	0.21298808
98	0x3be67dfb	0.007034061
99	0xbd9ab6ab	-0.075543724
100	0x3dc52098	0.096253574
101	0xbb6c22ce	-0.0036031487
102	0xbe0b7607	-0.13619243
103	0xbdf289ed	-0.118427135
104	0xbcda29fd	-0.02663135
105	0x3a27f2aa	0.0006406704
106	0xbd87bad2	-0.0662743
107	0xbd969f60	-0.07354617
108	0x3df9dffd	0.122009255
109	0x3d0b9c80	0.034084797
110	0x3d96920a	0.073520735
111	0x3b9c1933	0.004763746
112	0xbcbded7a	-0.023184527
113	0xbe044165	-0.12915571
114	0xbde06883	-0.10957434
115	0xbc007f2e	-0.007842822
116	0xbd91a12c	-0.07110819
117	0xbdf41e35	-0.11919824
118	0x3ce3b064	0.02779407
119	0x3dc11d23	0.094293855
120	0x3d97b970	0.07408416
121	0x3d7094d2	0.058735676
122	0x3d5bb310	0.053637564
123	0xbcb91e80	-0.022597551
124	0x3d083923	0.033257615
125	0xbcc86350	-0.024461418
126	0xbd1bf5db	-0.038076263
127	0x3dcb291c	0.0991995
128	0x3d29bcec	0.041439936
129	0x3eb464a3	0.3523303
130	0xbe662801	-0.22476198
131	0x3e829bf4	0.25509608
132	0xbdaae990	-0.0834533
133	0x3e9f14af	0.31070468
134	0x3e6d1755	0.23153432
135	0xbc53ea3d	-0.012934265
136	0x3d40404c	0.04693632
137	0xbe583633	-0.21114425
138	0x3e9bbc9f	0.30417344
139	0x3e8fb4a0	0.28067493
140	0x3d5fe10a	0.054657973
141	0xbe81c3ef	-0.25344798
142	0xbdf64f15	-0.120268025
143	0xbea6769a	-0.3251236
144	0xbdfb9094	-0.122834355
145	0xbdeaf96c	-0.11473355
146	0x3e081ddc	0.1329264
147	0xbcca10f7	-0.024666293
148	0x3e7fbe1b	0.24974863
149	0x3d6b8b2c	0.05750577
150	0xbea772bb	-0.3270472
151	0x3a97a174	0.0011568503
152	0x3eaea847	0.3411276
153	0x3e30fa74	0.1728304
154	0xbe21ca91	-0.15799929
155	0x3e20c339	0.15699472
156	0xbd8463bb	-0.064643346
157	0x3e19e986	0.15030488
158	0x3e05b284	0.1305638
159	0x3c026a6c	0.007959943
160	0xbc850434	-0.016237356
161	0x3e661afc	0.22471231
162	0x3e425699	0.18978347
163	0xbeaeddd5	-0.3415362
164	0x3e6240fb	0.220951
165	0x3e075605	0.13216408
166	0x3e15d35b	0.14631407
167	0x3dcaf0d5	0.09909216
168	0xbe9b76de	-0.30364126
169	0xbe9c28fb	-0.30500016
170	0xbec5608f	-0.3855023
171	0xbcebd515	-0.028788129
172	0xbe8a7590	-0.27042818
173	0x3e6cc3e3	0.231216
174	0xbd4d065b	-0.05005489
175	0xbedc2cae	-0.43002838
176	0x3e8004b9	0.25003603
177	0x3dd8cc54	0.105858475
178	0xbeabeb8a	-0.3357814
179	0xbe9314e3	-0.28726873
180	0xbec471b3	-0.38367996
181	0x3ea3cf27	0.31993982
182	0x3d5b5c73	0.053554963
183	0xbe8bad2b	-0.27280554
184	0xbdb7230a	-0.0894223
185	0x3e082e85	0.13298996
186	0x3e57060e	0.20998403
187	0xbe1f8994	-0.15579826
188	0xbe900a33	-0.2813278
189	0xbe60b065	-0.21942289
190	0x3e24c49e	0.16090629
191	0x3e86f873	0.26361427
192	0x3dbc9566	0.09208183
193	0x3eaa3cda	0.3324955
194	0xbea73f2f	-0.32665393
195	0xbebb2045	-0.36548057
196	0xbee73e69	-0.45164803
197	0x3ddaf6ff	0.10691642
198	0x3f069551	0.5257159
199	0x3eaa7f16	0.33300084
200	0xbe65eb75	-0.22453101
201	0xbe0ae779	-0.13564862
202	0x3e928078	0.2861364
203	0xbe01c28f	-0.12671874
204	0x3e7c0aa7	0.24613439
205	0xbe331a02	-0.1749039
206	0xbe9824d2	-0.29715592
207	0xbe977a73	-0.2958561
208	0x3e27014a	0.16309085
209	0x3de77c3f	0.11302995
210	0xbec9726a	-0.39345104
211	0x3e85d20b	0.26136813
212	0xbe64ba30	-0.2233665
213	0x3e5ed5b3	0.21761207
214	0x3ebe40c5	0.3715879
215	0xbde61523	-0.112345
216	0xbe5ba7ff	-0.21450804
217	0x3ee0d4ec	0.43912446
218	0x3e8b3e15	0.27195802
219	0xbecc35ae	-0.39884704
220	0x3d9ec632	0.077526465
221	0x3e070703	0.13186269
222	0xbedaa14d	-0.42701188
223	0x3e9547dc	0.29156387
224	0xbdbc4e99	-0.09194679
225	0xbed0fb23	-0.40816602
226	0xbe5d62d4	-0.21619731
227	0x3e3f576f	0.18685697
228	0x3d930457	0.07178562
229	0x3e7b74b2	0.24556234
230	0x3eac390c	0.33637273
231	0xbc8b1b89	-0.016980903
232	0x3eafdf8d	0.34350243
233	0xbebff86d	-0.3749422
234	0x3d47ca42	0.048776872
235	0x3dee0865	0.11622695
236	0xbd412ddf	-0.047162887
237	0x3d28692c	0.041115925
238	0xbebc77fd	-0.36810294
239	0xbe9d88fb	-0.3076857
240	0xbe872126	-0.26392478
241	0x3e330373	0.17481785
242	0x3ea7c2ac	0.3276571
243	0x3d6da6c9	0.058020387
244	0x3e2c8f6c	0.16851586
245	0x3eb399ce	0.3507828
246	0x3df6d588	0.120524466
247	0x3dedd6a0	0.11613202
248	0x3d9884bc	0.07447192
249	0xbeb64a99	-0.35603788
250	0xbe12434f	-0.14283489
251	0x3e04fec7	0.12987815
252	0xbcf4e080	-0.029892206
253	0xbe8eea77	-0.27913257
254	0xbc615ad9	-0.01375457
255	0x3c4867f2	0.012231814

GRU/quant_dense_3/LastValueQuant/FakeQuantWithMinMaxVars__176 f4 [32, 1]
0	0x3eba875c	0.36431396
1	0xbe2a5f6a	-0.1663796
2	0xbe92df7f	-0.2868614
3	0x3e8e7783	0.27825555
4	0x3e1baf77	0.15203653
5	0x3de51f37	0.111875944
6	0xbe361f60	-0.17785406
7	0x3e4aaf4e	0.19793436
8	0x3e7c9f22	0.2467008
9	0x3e2d4f68	0.16924822
10	0x3b3bff5b	0.002868614
11	0x3de51f37	0.111875944
12	0x3ceaff32	0.02868614
13	0xbcbbff5b	-0.022948911
14	0xbdb61f60	-0.08892703
15	0x3d0cff84	0.034423366
16	0xbe871f89	-0.26391247
17	0xbd8cff84	-0.06884673
18	0x3eaa5f6a	0.3327592
19	0xbddf3f3c	-0.10900733
20	0x3e44cf53	0.19219713
21	0xbe8a0f87	-0.2696497
22	0x3cbbff5b	0.022948911
23	0x3e8a0f87	0.2696497
24	0x3d247f70	0.040160596
25	0x3e651f37	0.22375189
26	0xbdc1df56	-0.09466426
27	0xbb3bff5b	-0.002868614
28	0x3eb90f5e	0.36144537
29	0xbd3bff5b	-0.045897823
30	0xbe85a78b	-0.26104388
31	0x3d813f8f	0.06310951

GRU/quant_dense_2/LastValueQuant/FakeQuantWithMinMaxVars__175 f4 [32, 32]
0	0x3e4d3392	0.20039204
1	0xbe868eee	-0.26280922
2	0xbe4d3392	-0.20039204
3	0xbe3fbee0	-0.18725157
4	0xbe84e058	-0.2595241
5	0x3e10a673	0.14125995
6	0xbd72347a	-0.059132077
7	0x3e467939	0.1938218
8	0x3d8d4947	0.06898742
9	0xbdf8eed3	-0.12154927
10	0xbe90a673	-0.2825199
11	0x3e6b7a21	0.22995807
12	0x3e7fa92b	0.24966876
13	0xbe10a673	-0.14125995
14	0x3cf2347a	0.029566038
15	0x3deb7a21	0.114979036
16	0x3e81832c	0.2529539
17	0xbe1760cc	-0.14783019
18	0x3de4bfc8	0.11169392
19	0x3cbc61b4	0.022995807
20	0xbdf8eed3	-0.12154927
21	0x3b574b17	0.0032851154
22	0xbe390488	-0.18068135
23	0x3bd74b17	0.0065702307
24	0xbdb5a75b	-0.08869811
25	0xbe64bfc8	-0.22338784
26	0x3e9abdf9	0.30223063
27	0x3e09ec1b	0.13468973
28	0xbdb5a75b	-0.08869811
29	0xbc868eee	-0.016425576
30	0xbe8331c2	-0.256239
31	0xbd2eed03	-0.0427065
32	0x3daeed03	0.085413
33	0xbe9403a0	-0.28909016
34	0xbead3e6d	-0.3383669
35	0xbdd74b17	-0.10512369
36	0xbeb24a2f	-0.34822223
37	0x3d7fa92b	0.06241719
38	0xbea4d57e	-0.32194132
39	0x3ea4d57e	0.32194132
40	0x3e90a673	0.2825199
41	0xbea326e7	-0.31865618
42	0x3e431c0d	0.1905367
43	0xbe217851	-0.15768553
44	0x3d72347a	0.059132077
45	0xbe8ef7dd	-0.2792348
46	0xbeb09b99	-0.34493712
47	0xbe53edeb	-0.20696227
48	0xbc217851	-0.009855346
49	0xbe1760cc	-0.14783019
50	0x3e3c61b4	0.18396646
51	0x3e9760cc	0.29566038
52	0xbde4bfc8	-0.11169392
53	0xbe1760cc	-0.14783019
54	0x3bd74b17	0.0065702307
55	0xbea17851	-0.31537107
56	0xbe0331c2	-0.1281195
57	0x3d868eee	0.065702304
58	0x3d8d4947	0.06898742
59	0xbbd74b17	-0.0065702307
60	0x3e324a2f	0.17411111
61	0xbd9403a0	-0.07227254
62	0x3df2347a	0.11826415
63	0xbdd74b17	-0.10512369
64	0xbdf2347a	-0.11826415
65	0xbd64bfc8	-0.05584696
66	0xbe2832aa	-0.16425577
67	0xbdd74b17	-0.10512369
68	0xbe89ec1b	-0.26937947
69	0x3e10a673	0.14125995
70	0xbc574b17	-0.013140461
71	0x3dc9d666	0.098553464
72	0x3e61629c	0.22010273
73	0x3e068eee	0.13140461
74	0xbe2b8fd6	-0.16754088
75	0x3ea832aa	0.32851154
76	0xbe49d666	-0.19710693
77	0x3e64bfc8	0.22338784
78	0xbe92550a	-0.28580505
79	0x3d1403a0	0.03613627
80	0xbc574b17	-0.013140461
81	0x3e53edeb	0.20696227
82	0x3cbc61b4	0.022995807
83	0xbe431c0d	-0.1905367
84	0x3d72347a	0.059132077
85	0x3e217851	0.15768553
86	0x3df8eed3	0.12154927
87	0xbd49d666	-0.049276732
88	0xbe53edeb	-0.20696227
89	0xbe5aa843	-0.21353249
90	0x3d9403a0	0.07227254
91	0x3e5e0570	0.21681762
92	0x3c868eee	0.016425576
93	0x3cbc61b4	0.022995807
94	0xbdde0570	-0.10840881
95	0x3d8d4947	0.06898742
96	0x3da832aa	0.082127884
97	0xbe324a2f	-0.17411111
98	0x3cf2347a	0.029566038
99	0x3de4bfc8	0.11169392
100	0xbdb5a75b	-0.08869811
101	0x3e3c61b4	0.18396646
102	0xbc868eee	-0.016425576
103	0x3e2eed03	0.170826
104	0x3e068eee	0.13140461
105	0xbe431c0d	-0.1905367
106	0x3e35a75b	0.17739622
107	0x3dbc61b4	0.09198323
108	0x3c868eee	0.016425576
109	0xbd868eee	-0.065702304
110	0x3cf2347a	0.029566038
111	0xbd72347a	-0.059132077
112	0x3e681cf5	0.22667296
113	0x3e64bfc8	0.22338784
114	0x3df2347a	0.11826415
115	0xbcf2347a	-0.029566038
116	0x3ea326e7	0.31865618
117	0xbdbc61b4	-0.09198323
118	0x3e64bfc8	0.22338784
119	0x3e72347a	0.2365283
120	0xbe4d3392	-0.20039204
121	0xbd9403a0	-0.07227254
122	0x3dffa92b	0.12483438
123	0x3db5a75b	0.08869811
124	0xbe1abdf9	-0.15111531
125	0xbc574b17	-0.013140461
126	0x3e4d3392	0.20039204
127	0x3dbc61b4	0.09198323
128	0xbdffa92b	-0.12483438
129	0x3e35a75b	0.17739622
130	0x3e217851	0.15768553
131	0x3e2eed03	0.170826
132	0x3dd74b17	0.10512369
133	0x3deb7a21	0.114979036
134	0xbe4d3392	-0.20039204
135	0xbe4d3392	-0.20039204
136	0x3e068eee	0.13140461
137	0xbe2b8fd6	-0.16754088
138	0xbe217851	-0.15768553
139	0xbdbc61b4	-0.09198323
140	0xbc217851	-0.009855346
141	0xbd217851	-0.039421383
142	0x3e9403a0	0.28909016
143	0xbe681cf5	-0.22667296
144	0x3da17851	0.07884277
145	0x3cf2347a	0.029566038
146	0x3dc31c0d	0.09526835
147	0xbc217851	-0.009855346
148	0x3eb09b99	0.34493712
149	0x3db5a75b	0.08869811
150	0xbe3fbee0	-0.18725157
151	0xbd49d666	-0.049276732
152	0xbd3c61b4	-0.045991614
153	0x3dbc61b4	0.09198323
154	0x3ea9e140	0.33179665
155	0x3e90a673	0.2825199
156	0xbd7fa92b	-0.06241719
157	0x3c217851	0.009855346
158	0x3e78eed3	0.24309854
159	0x3dde0570	0.10840881
160	0x3e0d4947	0.13797484
161	0xbdc9d666	-0.098553464
162	0x3dde0570	0.10840881
163	0xbde4bfc8	-0.11169392
164	0xbda832aa	-0.082127884
165	0x3e84e058	0.2595241
166	0xbe068eee	-0.13140461
167	0x3dde0570	0.10840881
168	0x3e6ed74e	0.2332432
169	0x3e35a75b	0.17739622
170	0x3e0d4947	0.13797484
171	0xbe8ef7dd	-0.2792348
172	0xbeb755f2	-0.3580776
173	0x00000000	0.0
174	0x3d868eee	0.065702304
175	0x3d7fa92b	0.06241719
176	0x3de4bfc8	0.11169392
177	0xbd49d666	-0.049276732
178	0xbdd090be	-0.101838574
179	0x3e95b236	0.29237527
180	0x3e35a75b	0.17739622
181	0xbde4bfc8	-0.11169392
182	0x3e5e0570	0.21681762
183	0xbd8d4947	-0.06898742
184	0x3d9abdf9	0.07555766
185	0xbd9403a0	-0.07227254
186	0x3c217851	0.009855346
187	0x3ca17851	0.019710692
188	0x3e390488	0.18068135
189	0x3cd74b17	0.026280923
190	0xbdf8eed3	-0.12154927
191	0xbda832aa	-0.082127884
192	0x3c217851	0.009855346
193	0x3e24d57e	0.16097066
194	0x3eaeed03	0.341652
195	0xbe883d85	-0.26609436
196	0xbe7fa92b	-0.24966876
197	0xbe3c61b4	-0.18396646
198	0xbd9abdf9	-0.07555766
199	0xbe681cf5	-0.22667296
200	0xbd9403a0	-0.07227254
201	0x3d64bfc8	0.05584696
202	0xbe78eed3	-0.24309854
203	0xbe7c4bff	-0.24638365
204	0x3df2347a	0.11826415
205	0xbe217851	-0.15768553
206	0xbe431c0d	-0.1905367
207	0x3e84e058	0.2595241
208	0x3e1403a0	0.14454508
209	0xbe10a673	-0.14125995
210	0x3d1403a0	0.03613627
211	0xbe1760cc	-0.14783019
212	0x3e95b236	0.29237527
213	0x3e90a673	0.2825199
214	0x3e5aa843	0.21353249
215	0xbdf8eed3	-0.12154927
216	0xbdf8eed3	-0.12154927
217	0x3e84e058	0.2595241
218	0x3d2eed03	0.0427065
219	0x3e068eee	0.13140461
220	0x3e324a2f	0.17411111
221	0xbd9abdf9	-0.07555766
222	0xbdbc61b4	-0.09198323
223	0xbcd74b17	-0.026280923
224	0xbe90a673	-0.2825199
225	0x3e9760cc	0.29566038
226	0xbe217851	-0.15768553
227	0x3e89ec1b	0.26937947
228	0xbe681cf5	-0.22667296
229	0x3e8331c2	0.256239
230	0xbe6b7a21	-0.22995807
231	0xbe1abdf9	-0.15111531
232	0x3e95b236	0.29237527
233	0x3e7591a6	0.23981342
234	0xbe068eee	-0.13140461
235	0x3e324a2f	0.17411111
236	0x3e0331c2	0.1281195
237	0xbe5aa843	-0.21353249
238	0xbe35a75b	-0.17739622
239	0x3e3fbee0	0.18725157
240	0xbe81832c	-0.2529539
241	0xbe89ec1b	-0.26937947
242	0xbe1403a0	-0.14454508
243	0xbe1403a0	-0.14454508
244	0x3e883d85	0.26609436
245	0x3c217851	0.009855346
246	0xbe64bfc8	-0.22338784
247	0xbd3c61b4	-0.045991614
248	0x3e5090be	0.20367715
249	0xbe5e0570	-0.21681762
250	0x3e1403a0	0.14454508
251	0xbd64bfc8	-0.05584696
252	0xbe467939	-0.1938218
253	0xbe6b7a21	-0.22995807
254	0x3e8331c2	0.256239
255	0xbe2832aa	-0.16425577

GRU/quant_dense_2/BiasAdd/ReadVariableOp:0 f4 [32]
0	0x3d1e1a43	0.038599264
1	0xbd2bbbc2	-0.041927107
2	0xbdcba4ed	-0.099435665
3	0x3d5f4683	0.054510605
4	0x3c5ade2e	0.013358636
5	0x3d82f939	0.06395192
6	0xbdb57120	-0.088594675
7	0x3da0da37	0.07854121
8	0x3d883077	0.06649869
9	0x3b3e8273	0.0029069453
10	0xbd95102a	-0.07278474
11	0x3d71a949	0.058999334
12	0xbd895b8b	-0.067069136
13	0xbd239a57	-0.03994211
14	0xbd9db1ee	-0.07699953
15	0xbd97ab62	-0.074057356
16	0xbd1311a8	-0.03590551
17	0xbcd949d4	-0.026524462
18	0x3d09dbbe	0.033656828
19	0xbd3fbca9	-0.04681078
20	0x3d1bf411	0.038074557
21	0xbd899a36	-0.067188665
22	0xbd885ca7	-0.06658297
23	0x3d02b20e	0.031908087
24	0x3d2d6fd9	0.042342994
25	0xba705e63	-0.0009169338
26	0xbd88f74f	-0.06687795
27	0xbd5ef8e3	-0.054436576
28	0x3cd7044f	0.026247172
29	0xbdbe183e	-0.092819676
30	0xbd0f96ea	-0.035056032
31	0xbd083bb7	-0.033260074
